data/models/best_model_N70_batch32_lr0.0001_fd4_b0.5.pth (torch, 31506 bytes, 32 tensors)

time_embedding.0.weight f4 [8, 1]
0.56707656 -0.8588027 0.26506108 0.40201008 -0.5582947 0.84932154 -0.08749926 -0.84043217
00000000: ee2b 113f 7eda 5bbf 16b6 873e 44d4 cd3e
00000010: 67ec 0ebf 236d 593f d032 b3bd 9026 57bf

time_embedding.0.bias f4 [8]
-0.3643595 0.8118385 0.89675975 -0.23259303 0.38050297 0.5723116 -0.066094995 -0.6884519
00000000: 548d babe a6d4 4f3f 0c92 653f de2c 6ebe
00000010: 49d1 c23e 0383 123f d05c 87bd 623e 30bf

time_embedding.3.weight f4 [4, 8]
-0.17305127 0.10443274 0.11206716 -0.0064177085 -0.02085411 -0.28084862 -0.15095791 -0.1586624
-0.20858726 -0.06558083 -0.009731852 -0.0695362 0.29606056 -0.046192788 -0.10662697 -0.089630075
-0.00037186695 -0.061211728 -0.050388653 0.06434579 0.0604809 0.13592386 0.2457756 0.14264567
-0.3543036 0.01102073 -0.08555964 0.021759879 0.28216147 -0.35351145 0.09028601 0.29043713
00000000: 5a34 31be d5e0 d53d 7883 e53d a44b d2bb
00000010: 3dd6 aabc 64cb 8fbe b694 1abe 6578 22be
00000020: e697 55be 3e4f 86bd 5972 1fbc ff68 8ebd
00000030: 4095 973e a634 3dbd 3e5f dabd f98f b7bd
00000040: 23f7 c2b9 26b9 7abd 5564 4ebd bac7 833d
00000050: d2ba 773d a02f 0b3e 99ac 7b3e b511 123e
00000060: 4867 b5be 4b90 343c e439 afbd c641 b23c
00000070: 7877 903e 74ff b4be dfe7 b83d 2db4 943e

time_embedding.3.bias f4 [4]
0.33172554 0.23292306 0.36234033 0.061846312
00000000: eed7 a93e 6283 6e3e ac84 b93e 8f52 7d3d

layers.0.egnn.edge_mlp.0.weight f4 [20, 10]
-0.0018288231 -0.019278586 0.0084821675 0.018222468 -0.002226084 -0.01735303 0.015189719 0.017282149
-0.027458942 0.08897111 -0.01627438 0.0008276308 -0.029426148 0.008298091 -0.016325485 0.0024337883
-0.035509296 0.008305347 -0.007307111 -0.103274845 -0.0063982536 -0.018937163 0.008982944 0.018884104
-0.00060694054 -0.019943913 0.013139829 0.019120293 -0.027262574 0.09005419 -0.023249354 -0.006108814
-0.039385315 0.016368361 -0.026106326 -0.004401357 -0.04136807 0.016677467 -0.032103233 -0.10885953
-0.019131096 -0.0017275396 -0.03428829 0.012485954 -0.020445803 -0.0011106472 -0.037759047 0.008074976
-0.019097796 -0.106861256 -0.023658307 -0.00739972 -0.038818214 0.0141750565 -0.024604311 -0.00487553
-0.041671537 0.014863288 -0.021568345 -0.110355996 -0.025426688 -0.0072766757 -0.03941047 0.015444438
-0.02692919 -0.008218038 -0.043639902 0.01367645 -0.044297613 -0.10766141 -0.023786187 -0.0042070476
-0.037610248 0.01580426 -0.023486763 -0.0052815154 -0.042094763 0.0146979205 -0.015827935 -0.110570244
-0.027446546 -0.0077397297 -0.039752234 0.016357956 -0.030881133 -0.0077625117 -0.04392984 0.016469466
-0.04916229 -0.11049267 0.0018423423 -0.011929806 0.011634913 0.0154126305 0.0032999108 -0.012121568
0.015728654 0.013824995 -0.024337912 0.090894915 -0.04128923 -0.027082518 -0.0541687 0.02860849
-0.044525553 -0.02472894 -0.05795272 0.027717285 -0.06073136 -0.12357641 -0.020102996 -0.0016887019
-0.03431911 0.009977963 -0.022048537 -0.0018210149 -0.03634677 0.009351862 -0.026757918 -0.105414845
-0.027700108 -0.009797445 -0.043333724 0.019864855 -0.031362675 -0.01079248 -0.04505169 0.018843759
-0.033601634 -0.11319744 -0.018557906 -0.0013563544 -0.033700954 0.010355693 -0.018033212 0.0006511878
-0.035133988 0.007953359 -0.005240907 -0.10796706 -0.020548284 -0.002178077 -0.036292963 0.010250378
-0.020436417 -0.0029581625 -0.039208736 0.01127981 -0.014134044 -0.10782861 -0.049231205 -0.03127106
-0.058721777 0.033880115 -0.052378215 -0.032504056 -0.06260812 0.033554304 -0.07143079 -0.12908992
-0.0024606667 -0.017809588 0.010228189 0.019961802 -0.000292366 -0.019537356 0.01504688 0.018635888
-0.028374664 0.087119915 -0.02319246 -0.006606886 -0.039505012 0.018390207 -0.02717028 -0.0065635103
-0.042128105 0.016513016 -0.027366946 -0.1092569 -0.0006419375 -0.016484093 0.0102943415 0.016584478
-0.00011493064 -0.016988829 0.0134592755 0.016835412 -0.027635358 0.09114805 -0.026855562 -0.008395236
-0.040859975 0.01749963 -0.029048039 -0.0068333657 -0.042011954 0.016609209 -0.049097404 -0.10826232
00000000: 1fb5 efba 20ee 9dbc caf8 0a3c 4947 953c
00000010: 7ee3 11bb f127 8ebc 4dde 783c 4b93 8d3c
00000020: 93f1 e0bc 7c36 b63d d951 85bc 5df5 583a
00000030: 1b0f f1bc b7f4 073c 06bd 85bc 3180 1f3b
00000040: 3272 11bd 2613 083c 7d70 efbb c381 d3bd
00000050: 71a8 d1bb 1c22 9bbc 332d 133c d6b2 9a3c
00000060: 171b 1fba 6b61 a3bc 7048 573c 29a2 9c3c
00000070: c355 dfbc 556e b83d 6e75 bebc 722c c8bb
00000080: 7f52 21bd f116 863c efdc d5bc 4239 90bb
00000090: 9171 29bd 2f9f 883c ae7e 03bd bff1 debd
000000a0: d1b8 9cbc 9c6e e2ba e171 0cbd e391 4c3c
000000b0: f57d a7bc 2393 91ba 3ba9 1abd e74c 043c
000000c0: fb72 9cbc 13da dabd 11cf c1bc 5a79 f2bb
000000d0: d9ff 1ebd 7f3e 683c fb8e c9bc e9c2 9fbb
000000e0: c6af 2abd 2685 733c 19b0 b0bc 5302 e2bd
000000f0: a14b d0bc 2e71 eebb df6c 21bd ab0a 7d3c
00000100: 9b9a dcbc f3a4 06bc c1bf 32bd 3013 603c
00000110: 6a71 35bd 967d dcbd 40db c2bc 46db 89bb
00000120: 340d 1abd ef77 813c 5067 c0bc 9010 adbb
00000130: 8f6b 2cbd 8ccf 703c 96a9 81bc a772 e2bd
00000140: 94d7 e0bc 8f9d fdbb 3dd3 22bd 1f01 863c
00000150: 6efa fcbc ab5c febb c7ef 33bd f9ea 863c
00000160: 665e 49bd fb49 e2bd c07a f13a 3c75 43bc
00000170: 5da0 3e3c 4285 7c3c 5143 583b 8b99 46bc
00000180: 61d9 803c 3b82 623c 4d60 c7bc 1d27 ba3d
00000190: e51e 29bd 28dc ddbc 00e0 5dbd 5a5c ea3c
000001a0: 6d60 36bd 5994 cabc d55f 6dbd 5c0f e33c
000001b0: 72c1 78bd a115 fdbd 0aaf a4bc 6f57 ddba
000001c0: 3292 0cbd 9c7a 233c 229f b4bc 1faf eeba
000001d0: 5ae0 14bd 8d38 193c 6c33 dbbc bde3 d7bd
000001e0: 56eb e2bc 7685 20bc b47e 31bd 9fbb a23c
000001f0: 2676 00bd f1d2 30bc 1f88 38bd 3a5e 9a3c
00000200: dea1 09bd 0fd4 e7bd c006 98bc b4c7 b1ba
00000210: 030a 0abd edaa 293c 63ba 93bc 79b4 2a3a
00000220: a8e8 0fbd ce4e 023c eabb abbb d51d ddbd
00000230: e054 a8bc 11be 0ebb eea7 14bd 34f1 273c
00000240: 466a a7bc bbdd 41bb 5799 20bd f4ce 383c
00000250: 7a92 67bc 3fd5 dcbd a9a6 49bd 1516 00bd
00000260: 3f86 70bd e0c5 0a3d 8a8a 56bd f922 05bd
00000270: b038 80bd 3d70 093d 4e4a 92bd 2630 04be
00000280: 2343 21bb 6ae5 91bc 2294 273c ef86 a33c
00000290: b348 99b9 ce0c a0bc 3087 763c 4aaa 983c
000002a0: fc71 e8bc ed6b b23d 1dfe bdbc 947e d8bb
000002b0: 02d0 21bd 0fa7 963c 3594 debc b712 d7bb
000002c0: 858e 2cbd 4e46 873c a530 e0bc 15c2 dfbd
000002d0: b247 28ba a609 87bc 99a9 283c 2cdc 873c
000002e0: eb06 f1b8 282c 8bbc 4b84 5c3c 6bea 893c
000002f0: 8c63 e2bc d4ab ba3d 3200 dcbc 2c8c 09bc
00000300: ca5c 27bd 625b 8f3c 27f6 edbc 6dea dfbb
00000310: ba14 2cbd 0910 883c 5c1a 49bd a3b8 ddbd

layers.0.egnn.edge_mlp.0.bias f4 [20]
0.31565362 -0.29130474 0.34761718 -0.31927538 -0.2974343 -0.21756776 -0.3861971 -0.18862964
-0.36533096 0.1949458 -0.16139443 -0.41351604 -0.22104768 -0.19748318 -0.24472685 -0.13595627
0.2950595 -0.26045933 0.2789229 -0.42271084
00000000: 5a9d a13e e525 95be e1fa b13e 1078 a3be
00000010: 4f49 98be 15ca 5ebe a0bb c5be 2128 41be
00000020: a90c bbbe df9f 473e 9544 25be 60b8 d3be
00000030: 535a 62be 0839 4abe ad99 7abe 1f38 0bbe
00000040: 0a12 973e ed5a 85be fbce 8e3e 8e6d d8be

layers.0.egnn.edge_mlp.3.weight f4 [16, 20]
-0.06518526 0.060319576 -0.06420364 0.059397466 0.05923943 0.060363743 0.061139114 0.060825404
0.059200242 -0.06596477 0.058518033 0.059799742 0.058575593 0.061190117 0.061022792 0.063557714
-0.068771906 0.058956783 -0.067268446 0.05933637 0.06531856 -0.059446502 0.06545441 -0.060575143
-0.05926831 -0.055898584 -0.062086288 -0.05522438 -0.060839303 0.06034958 -0.054591708 -0.060016274
-0.05727626 -0.05783292 -0.056353133 -0.053934127 0.06695596 -0.05724401 0.06593516 -0.06085498
0.06593545 -0.05982647 0.06628891 -0.060487945 -0.059883 -0.055674795 -0.062343996 -0.05835805
-0.061469145 0.06271927 -0.054627314 -0.063015066 -0.056464773 -0.058279432 -0.058360174 -0.055538133
0.068678334 -0.05932764 0.067065455 -0.063885175 0.06708738 -0.059102096 0.064569384 -0.058724888
-0.058723055 -0.05748955 -0.06313433 -0.05765147 -0.06011924 0.062487837 -0.054151643 -0.060675308
-0.056274455 -0.05600406 -0.059390146 -0.056454506 0.06681736 -0.057628267 0.06545241 -0.0622589
-0.068750955 0.06001732 -0.067234516 0.059109688 0.059485175 0.060584154 0.05842207 0.05984321
0.059720576 -0.06633791 0.060372744 0.06138706 0.06007561 0.062280644 0.05881711 0.06234094
-0.0704919 0.058073472 -0.069736816 0.06041887 0.06355281 -0.059747074 0.06507381 -0.058818344
-0.05957651 -0.053164102 -0.059828207 -0.055044483 -0.059109904 0.0594459 -0.052006613 -0.05872205
-0.05451424 -0.057251927 -0.05610069 -0.052454136 0.06677908 -0.055485256 0.06316074 -0.060780205
-0.06992378 0.061855745 -0.0680586 0.062096808 0.05992102 0.06105249 0.060729053 0.062221408
0.06039543 -0.06557346 0.060648073 0.061183933 0.058679864 0.061851397 0.061745264 0.06201654
-0.06872116 0.06149476 -0.06904876 0.06295668 -0.06849749 0.05987754 -0.06614998 0.061363082
0.05932667 0.059363697 0.060539614 0.061824203 0.060178537 -0.06526683 0.058604 0.061047632
0.059287377 0.060820535 0.059015866 0.061723784 -0.068157405 0.059930943 -0.06656044 0.060987283
0.06419609 -0.058967214 0.063243285 -0.05687541 -0.06004825 -0.05677614 -0.060151134 -0.055970825
-0.05839889 0.062332004 -0.050627105 -0.06084147 -0.054814074 -0.058375176 -0.057309926 -0.054228958
0.06584682 -0.055792887 0.062847994 -0.05985577 0.06594099 -0.063018456 0.06647983 -0.061414912
-0.05967069 -0.057759136 -0.063791946 -0.056422792 -0.06304133 0.06304189 -0.05543355 -0.06507123
-0.05673457 -0.060154457 -0.059992753 -0.055832505 0.068880446 -0.06012144 0.068346076 -0.065195985
-0.06751751 0.0625703 -0.068281434 0.058849744 0.060362827 0.06168285 0.06218373 0.060984448
0.0619647 -0.06646357 0.060429163 0.06215474 0.05978763 0.061895173 0.06024228 0.06187399
-0.06751565 0.05969729 -0.0698578 0.06079735 0.06576206 -0.061122254 0.06781888 -0.061349906
-0.05960937 -0.058133446 -0.062321458 -0.05585644 -0.06121604 0.061726417 -0.05545283 -0.06171712
-0.057368375 -0.059808 -0.056777257 -0.055669013 0.0672807 -0.05953848 0.06727202 -0.06360326
-0.06884572 0.06192 -0.067566976 0.060527153 0.060688835 0.05979156 0.061847616 0.06163829
0.062359594 -0.06687262 0.06254818 0.059419353 0.060790803 0.06170588 0.061271347 0.06257361
00000000: d97f 85bd a911 773d 337d 83bd c24a 733d
00000010: 0ba5 723d f93f 773d 026d 7a3d 0f24 793d
00000020: f47b 723d 8a18 87bd 9bb0 6f3d 93f0 743d
00000030: f6ec 6f3d 7da2 7a3d 09f3 793d 8c2a 823d
00000040: 49d8 8cbd ab7c 713d 0ac4 89bd b20a 733d
00000050: bdc5 853d 2d7e 73bd f60c 863d a41d 78bd
00000060: 54c3 72bd eaf5 64bd 314e 7ebd f632 62bd
00000070: a232 79bd 1f31 773d 8e9b 5fbd a0d3 75bd
00000080: 839a 6abd 36e2 6cbd 8bd2 66bd 08ea 5cbd
00000090: 3520 893d b278 6abd 0309 873d 1243 79bd
000000a0: 2a09 873d 9a0c 75bd 7bc2 873d 35c2 77bd
000000b0: e047 75bd 410b 64bd 6b5c 7fbd da08 6fbd
000000c0: 12c7 7bbd f672 803d e4c0 5fbd 0b0e 81bd
000000d0: 9b47 67bd 6ab6 6ebd 140b 6fbd f47b 63bd
000000e0: 3aa7 8c3d 8a01 73bd 9d59 893d 3bd6 82bd
000000f0: 1c65 893d 0a15 72bd f43c 843d 8289 70bd
00000100: 9687 70bd 2a7a 6bbd 924c 81bd f323 6cbd
00000110: 983f 76bd 3ff3 7f3d 1dce 5dbd ac86 78bd
00000120: 0b80 66bd 8364 65bd 1543 73bd d73c 67bd
00000130: 8ad7 883d 9e0b 6cbd ea0b 863d 3003 7fbd
00000140: 4dcd 8cbd b9d4 753d 40b2 89bd 001d 723d
00000150: baa6 733d 1727 783d fb4b 6f3d 271e 753d
00000160: 909d 743d 2cdc 87bd 6949 773d ff70 7b3d
00000170: d811 763d fd19 7f3d 36ea 703d 3759 7f3d
00000180: 0f5e 90bd 73de 6d3d 2dd2 8ebd c779 773d
00000190: fa27 823d 59b9 74bd 6b45 853d 81eb 70bd
000001a0: 8006 74bd 9ac2 59bd 6c0e 75bd 5376 61bd
000001b0: 3a1d 72bd 8b7d 733d e304 55bd 8886 70bd
000001c0: 534a 5fbd ff80 6abd d6c9 65bd 26da 56bd
000001d0: 78c3 883d 8244 63bd 6b5a 813d aaf4 78bd
000001e0: 3334 8fbd 735c 7d3d 4f62 8bbd 3959 7e3d
000001f0: be6f 753d 2d12 7a3d 07bf 783d e0db 7e3d
00000200: 3361 773d 614b 86bd 1d6a 783d 019c 7a3d
00000210: 4c5a 703d e457 7d3d 9ae8 7c3d 0e05 7e3d
00000220: aebd 8cbd eee1 7b3d 7069 8dbd 6fef 803d
00000230: 6948 8cbd 2742 753d a479 87bd db57 7b3d
00000240: 8600 733d 5927 733d 63f8 773d 603b 7d3d
00000250: c57d 763d 9eaa 85bd bf0a 703d 150d 7a3d
00000260: 52d7 723d f41e 793d 9fba 713d 14d2 7c3d
00000270: 1c96 8bbd 267a 753d d750 88bd cdcd 793d
00000280: 3d79 833d 9b87 71bd b285 813d 31f6 68bd
00000290: 27f5 75bd 198e 68bd 0961 76bd aa41 65bd
000002a0: ad33 6fbd d84f 7f3d 5e5e 4fbd e834 79bd
000002b0: b984 60bd cf1a 6fbd d0bd 6abd 2f1f 5ebd
000002c0: b3da 863d 1587 64bd 73b6 803d 532b 75bd
000002d0: 120c 873d d20f 81bd 9426 883d 348e 7bbd
000002e0: 4169 74bd d894 6cbd 5aa5 82bd 961b 67bd
000002f0: d01b 81bd 1b1c 813d 4a0e 63bd 1144 85bd
00000300: 8262 68bd 8564 76bd f6ba 75bd a0b0 64bd
00000310: 3111 8d3d e641 76bd 07f9 8b3d 7985 85bd
00000320: 9f46 8abd dc24 803d 23d7 8bbd 6e0c 713d
00000330: 033f 773d 28a7 7c3d 5eb4 7e3d d4ca 793d
00000340: b3ce 7d3d 0d1e 88bd 9284 773d f895 7e3d
00000350: e0e3 743d cb85 7d3d 9cc0 763d 956f 7d3d
00000360: a545 8abd 2585 743d 9b11 8fbd a406 793d
00000370: 42ae 863d 545b 7abd a0e4 8a3d 0a4a 7bbd
00000380: f428 74bd 561d 6ebd c944 7fbd b9c9 64bd
00000390: acbd 7abd d7d4 7c3d 8222 63bd 17cb 7cbd
000003a0: 1afb 6abd 3cf9 74bd 458f 68bd 3105 64bd
000003b0: 77ca 893d 9fde 73bd eac5 893d 6d42 82bd
000003c0: fcfe 8cbd d39f 7d3d 8e60 8abd 52eb 773d
000003d0: db94 783d ffe7 743d ed53 7d3d 6e78 7c3d
000003e0: c66c 7f3d 83f4 88bd 4319 803d b561 733d
000003f0: c7ff 783d 4ebf 7c3d aaf7 7a3d 9826 803d

layers.0.egnn.edge_mlp.3.bias f4 [16]
-0.27460858 0.252251 0.13756883 0.2060508 -0.26119882 0.22597526 -0.168217 -0.25626594
0.2357964 0.072637185 -0.19429664 0.14598736 -0.23901395 0.2434767 0.13929622 -0.24509051
00000000: 7f99 8cbe 0b27 813e d8de 0c3e fbfe 523e
00000010: dabb 85be 0f66 673e 1441 2cbe 4a35 83be
00000020: 9d74 713e cec2 943d b3f5 46be b67d 153e
00000030: 13c0 74be f551 793e aba3 0e3e 02f9 7abe

layers.0.egnn.node_mlp.0.weight f4 [8, 20]
0.0009742009 0.0014211016 -0.001284355 0.0003943693 -0.00034264737 -0.0019517986 -0.00015270287 0.0011942041
0.00068041997 -0.00077757274 3.5654506e-05 0.00041097237 -0.0006959215 -0.0016786485 -0.0008093472 0.0020818603
-0.0020757932 0.00012753361 -0.0009425745 -0.00034895242 -0.0026920321 0.0004213218 0.0020865095 0.0015026527
0.0012424154 0.0004613716 0.0013170361 0.0006453173 0.0007048077 0.0001639087 -0.0011518889 0.0007561503
-0.0017514294 0.0005158656 0.00034402532 0.0004800745 0.00030473646 -0.0001676994 -0.0017953685 0.0015431702
-0.00066245283 0.00010599949 0.00074674113 0.0020995578 0.000949648 0.00034945604 0.00016449399 0.00037047654
-0.0010177626 0.00039314435 0.002097206 0.002128842 -0.0005575415 0.000413749 0.00063478 -0.0011479213
-0.0009767079 -0.0003112396 0.00043016783 0.0004138793 0.0006270843 0.0011492858 0.0013258444 -0.0013034341
0.0014244971 0.0010521094 0.00034103965 -0.0006191307 -0.00055055495 0.0013117982 -0.0007842201 0.0012175246
0.0012417451 -0.00055410876 -0.0004986178 -0.0017507959 -0.0004273788 -0.00010768085 -0.0010116951 0.0013318757
0.0009566106 0.00020082972 0.001477174 -0.0007551975 -0.0020114286 0.00038752888 0.0010237787 -0.0017849597
0.00034285837 0.0003146769 0.00019813173 0.0012600928 8.1131475e-05 -0.00037146153 0.00094636885 -0.000990095
0.00033023398 -0.00044979644 -0.00067635527 0.0010365046 -0.0008513665 0.0022984701 -0.0003986709 0.000420846
0.00037243377 -0.00044531576 0.00024821507 0.0017338658 0.000592381 0.0010146332 0.00017558005 0.0032298698
-0.00023700681 -0.0011475614 0.0005799709 0.00040421824 0.0013785561 0.00011646968 -0.00073887256 0.0010489448
-0.0006023678 0.0008249679 -0.00088141894 0.0015988395 2.746451e-05 -0.0012489177 1.840657e-05 0.00040813585
-0.00065720483 0.0013450552 0.0006188695 -0.0004659015 0.0010518978 -0.0009849132 0.00018560403 -0.00016369391
0.00059661356 -1.4972577e-05 -0.0014196206 -0.0009594912 0.0005647973 0.00023229404 -0.0005122346 0.002569816
0.0010318814 0.0011227499 -0.0017030949 -0.0005608709 -0.0010609339 0.0005812167 0.00036199167 0.0008018753
-0.000883856 -0.0021012959 0.0011092367 -0.001200073 0.0008169992 0.00047713434 -0.00022660091 -5.604054e-07
00000000: 8461 7f3a 4244 ba3a cd57 a8ba 5ac3 ce39
00000010: 5aa5 b3b9 7ed3 ffba dd1e 20b9 d786 9c3a
00000020: 365e 323a 06d6 4bba bc8b 1538 c777 d739
00000030: 806e 36ba 1906 dcba 5f2a 54ba d26f 083b
00000040: 080a 08bb 8bba 0539 1b17 77ba 9af3 b6b9
00000050: ce6c 30bb dbe4 dc39 d2bd 083b a8f4 c43a
00000060: 8bd8 a23a 3fe4 f139 66a0 ac3a 832a 293a
00000070: d8c2 383a e8de 2b39 fafa 96ba 6338 463a
00000080: 3890 e5ba 283b 073a 4c5e b439 82b2 fb39
00000090: 09c5 9f39 77d8 2fb9 9252 ebba 3344 ca3a
000000a0: 75a8 2dba 0b4c de38 f3c0 433a bc98 093b
000000b0: ccf1 783a 3237 b739 057c 2c39 853c c239
000000c0: 7266 85ba f11e ce39 4771 093b 0b84 0b3b
000000d0: fa27 12ba 73ec d839 5d67 263a d975 96ba
000000e0: e104 80ba df2d a3b9 2688 e139 f0fd d839
000000f0: ea62 243a a2a3 963a f5c7 ad3a fed7 aaba
00000100: 31b6 ba3a efe6 893a 91cd b239 284d 22ba
00000110: 1e53 10ba a5f0 ab3a 1f94 4dba 5995 9f3a
00000120: 0dc2 a23a 9c41 11ba adb5 02ba f67a e5ba
00000130: d011 e0b9 b7d2 e1b8 db9a 84ba 5592 ae3a
00000140: 0dc5 7a3a d195 5239 bc9d c13a 72f8 45ba
00000150: 2cd2 03bb 3f2d cb39 5030 863a 4ff5 e9ba
00000160: acc1 b339 38fb a439 95c1 4f39 b329 a53a
00000170: 2125 aa38 b9c0 c2b9 bd15 783a 13c6 81ba
00000180: 4123 ad39 a8d2 ebb9 6f4d 31ba 53db 873a
00000190: 3d2e 5fba eea1 163b b404 d1b9 fea4 dc39
000001a0: 3743 c339 4579 e9b9 dd22 8239 e242 e33a
000001b0: 044a 1b3a 71fd 843a e91b 3839 39ac 533b
000001c0: 0885 78b9 c569 96ba 3009 183a 41ed d339
000001d0: abb0 b43a 2f41 f438 e6b0 41ba bf7c 893a
000001e0: 38e8 1dba a942 583a 060f 67ba 2790 d13a
000001f0: 9663 e637 b9b2 a3ba cf67 9a37 11fb d539
00000200: 4548 2cba 904c b03a a13b 223a 3e44 f4b9
00000210: d5df 893a 3418 81ba b49e 4239 40a5 2bb9
00000220: 0f66 1c3a bb32 7bb7 9012 baba 5d86 7bba
00000230: e80e 143a f593 7339 7b47 06ba 5c6a 283b
00000240: 3240 873a 3c29 933a 623a dfba 6907 13ba
00000250: 090f 8bba cb5c 183a b3c9 bd39 f134 523a
00000260: 92b2 67ba e5b5 09bb cf63 913a c54b 9dba
00000270: e32b 563a e327 fa39 b89b 6db9 c46e 16b5

layers.0.egnn.node_mlp.0.bias f4 [8]
-0.16718207 -0.015403814 0.000545142 -0.22145464 -0.052024584 0.12836389 -0.16673541 -0.15764783
00000000: c731 2bbe 4760 7cbc dce7 0e3a 01c5 62be
00000010: bb17 55bd d371 033e b0bc 2abe 6f6e 21be

layers.0.egnn.node_mlp.3.weight f4 [4, 8]
0.00016818108 -0.00069200376 0.00051299436 -0.00089227426 0.001049376 0.0006443905 -0.00027810072 0.0002930505
-0.0003368027 -0.00014526227 -0.00020143331 -0.00019031194 -0.00028062792 0.0001339844 0.00045174838 -0.0007331663
0.00059912057 0.0012157464 0.0022028012 0.00020808603 0.00035858183 0.00039823874 0.0026066995 0.0009322918
6.127232e-05 -0.0004594015 0.0015114346 0.0002527052 -0.0012331532 -0.0011215127 0.0008867879 -0.0007778495
00000000: c459 3039 9667 35ba 787a 063a 83e7 69ba
00000010: 378b 893a 50ec 283a 0cce 91b9 93a4 9939
00000020: e594 b0b9 8b51 18b9 d837 53b9 798e 47b9
00000030: 3e21 93b9 2a7e 0c39 a4d8 ec39 f531 40ba
00000040: 4d0e 1d3a ae59 9f3a df5c 103b ab31 5a39
00000050: 0a00 bc39 b3ca d039 29d5 2a3b 0b65 743a
00000060: 547f 8038 d3db f0b9 541b c63a 857d 8439
00000070: c1a1 a1ba b9ff 92ba 5477 683a 99e8 4bba

layers.0.egnn.node_mlp.3.bias f4 [4]
0.091069646 0.2738711 0.31458876 0.14583138
00000000: b982 ba3d d538 8c3e c711 a13e d254 153e

layers.0.egnn.coors_mlp.0.weight f4 [64, 16]
0.05045611 -0.05029378 -0.056079026 -0.051314954 0.04769638 -0.049621362 0.051949266 0.048811834
-0.0519547 -0.063091055 0.050614964 -0.054042667 0.05118139 -0.04882451 -0.055089574 0.050783742
-0.05135627 0.052298736 0.055805888 0.049676392 -0.05188408 0.050198346 -0.051995765 -0.04836501
0.050750375 0.06138355 -0.050381295 0.053324774 -0.04829321 0.050061006 0.0551183 -0.04915051
0.045738846 -0.04881713 -0.054171063 -0.052355222 0.04845322 -0.049997866 0.050753705 0.048167434
-0.048796356 -0.062551 0.050159384 -0.05484504 0.04909864 -0.05025231 -0.05464949 0.049401466
-0.04748973 0.04797553 0.054246858 0.0509482 -0.04706823 0.049751967 -0.050745998 -0.04747862
0.04792741 0.061029 -0.050866235 0.0513803 -0.05015402 0.04828019 0.05304034 -0.04896507
-0.050714556 0.052625448 0.054265764 0.05368041 -0.052053947 0.0539227 -0.05354971 -0.050496567
0.055156346 0.06297539 -0.051913843 0.055026293 -0.05120322 0.05302291 0.05604944 -0.0518662
-0.050937302 0.050848547 0.05645421 0.053553488 -0.049148213 0.053359456 -0.054795142 -0.05131889
0.053628754 0.06149674 -0.0524679 0.055700995 -0.05200327 0.050740145 0.05465237 -0.05110707
0.04861244 -0.050112516 -0.056054205 -0.049366705 0.047218524 -0.048832085 0.052045766 0.048311405
-0.0495801 -0.06288873 0.049429193 -0.05482183 0.04524863 -0.049926087 -0.05455662 0.04794623
-0.04802635 0.05050377 0.05359116 0.050147183 -0.04755452 0.050213516 -0.049537413 -0.04742211
0.049411155 0.058447253 -0.049739372 0.053808328 -0.04884032 0.05093683 0.051299673 -0.046525065
0.043338608 -0.047014605 -0.052308872 -0.050258942 0.04571052 -0.04872646 0.049502466 0.046940874
-0.047614142 -0.061487067 0.04810392 -0.050312273 0.04698144 -0.048365626 -0.05249283 0.04681022
0.04696903 -0.048437137 -0.053810947 -0.04889088 0.0451996 -0.049159963 0.049189933 0.047789
-0.049498763 -0.06262345 0.048120838 -0.05186662 0.046321403 -0.04797494 -0.053377215 0.046974536
0.04853422 -0.051240366 -0.05532048 -0.05206069 0.0496886 -0.051769134 0.0506171 0.04802353
-0.0514324 -0.06445707 0.05111275 -0.053687423 0.048102316 -0.0500707 -0.055662178 0.048106905
-0.04849944 0.048418555 0.049866688 0.04918958 -0.047034126 0.050264932 -0.050498635 -0.049048785
0.0508416 0.060513433 -0.049694583 0.049346097 -0.048270926 0.04875592 0.05237252 -0.0491487
0.04638543 -0.049301606 -0.055799153 -0.051756963 0.04833604 -0.04995343 0.050989162 0.049309887
-0.049933027 -0.06209909 0.048742875 -0.05410313 0.04941012 -0.049551297 -0.05470884 0.049004514
0.048415914 -0.049842402 -0.05415391 -0.05027354 0.04992205 -0.050734423 0.049418706 0.046393912
-0.05010157 -0.062793426 0.05137846 -0.053752482 0.04880031 -0.051742166 -0.054798406 0.048303727
-0.05081106 0.0542238 0.055728406 0.052714944 -0.05135369 0.054247692 -0.054230172 -0.052286856
0.052362885 0.06362103 -0.052281108 0.05616626 -0.051012803 0.050830036 0.055300225 -0.051032104
0.04796028 -0.0521673 -0.054912567 -0.051818192 0.049391072 -0.05073264 0.051264092 0.048816945
-0.05196352 -0.062539905 0.050718565 -0.055024453 0.04689988 -0.051153254 -0.055402648 0.048528742
00000000: 11ab 4e3d da00 4ebd 1fb3 65bd a12f 52bd
00000010: 485d 433d c53f 4bbd c1c8 543d ebee 473d
00000020: 74ce 54bd e235 81bd a351 4f3d d85b 5dbd
00000030: 94a3 513d 36fc 47bd 9ba5 61bd 9d02 503d
00000040: f45a 52bd 3337 563d b794 643d 7979 4b3d
00000050: 6784 54bd c89c 4d3d 83f9 54bd 641a 46bd
00000060: a0df 4f3d 516d 7b3d 9e5c 4ebd 146b 5a3d
00000070: 1acf 45bd c50c 4d3d bac3 613d 0c52 49bd
00000080: a858 3b3d 79f4 47bd 7ae2 5dbd 6e72 56bd
00000090: e276 463d 90ca 4cbd 1ee3 4f3d 374b 453d
000000a0: b0de 47bd bd1a 80bd ed73 4d3d 31a5 60bd
000000b0: a81b 493d 5ed5 4dbd 25d8 5fbd 3159 4a3d
000000c0: 9784 42bd fd81 443d f431 5e3d 0faf 503d
000000d0: 9eca 40bd b8c8 4b3d 09db 4fbd f178 42bd
000000e0: 884f 443d 8bf9 793d 1d59 50bd 2674 523d
000000f0: 4d6e 4dbd 73c1 453d d440 593d 998f 48bd
00000100: 11ba 4fbd c88d 573d c745 5e3d fddf 5b3d
00000110: 8536 55bd 0dde 5c3d f156 5bbd 7dd5 4ebd
00000120: 9feb 613d 3ef9 803d 9ca3 54bd 4063 613d
00000130: 78ba 51bd 8d2e 593d 1994 653d a771 54bd
00000140: a2a3 50bd 9146 503d 883c 673d e75a 5b3d
00000150: a34f 49bd 728f 5a3d df70 60bd c233 52bd
00000160: d3a9 5b3d 01e4 7b3d 95e8 56bd ba26 643d
00000170: 6101 55bd e6d4 4f3d 2adb 5f3d a655 51bd
00000180: d61d 473d c842 4dbd 1899 65bd be34 4abd
00000190: 3668 413d 2704 48bd f12d 553d 2ee2 453d
000001a0: 8114 4bbd cecb 80bd 4476 4a3d db8c 60bd
000001b0: a156 393d 4c7f 4cbd c376 5fbd 4463 443d
000001c0: 47b7 44bd 0bdd 4e3d 6782 5b3d 2267 4d3d
000001d0: 87c8 42bd b0ac 4d3d bee7 4abd b03d 42bd
000001e0: 5a63 4a3d 6366 6f3d 83bb 4bbd 1f66 5c3d
000001f0: ca0c 48bd 23a3 503d 9b1f 523d 1191 3ebd
00000200: d383 313d 6392 40bd d441 56bd 52dc 4dbd
00000210: f43a 3b3d 6695 47bd 19c3 4a3d 1345 403d
00000220: 0c07 43bd ddd9 7bbd 9e08 453d 3e14 4ebd
00000230: 9c6f 403d 091b 46bd b902 57bd 13bc 3f3d
00000240: 9962 403d 0566 46bd de68 5cbd ce41 48bd
00000250: 3723 393d f55b 49bd 627b 493d 66be 433d
00000260: 37bf 4abd b940 80bd 5b1a 453d 1872 54bd
00000270: 83bb 3d3d 5f81 44bd 11a2 5abd 5f68 403d
00000280: d1cb 463d 6be1 51bd ba97 62bd 973d 55bd
00000290: 4686 4b3d df0b 54bd e053 4f3d 52b4 443d
000002a0: c8aa 52bd 1102 84bd 9a5b 513d 58e7 5bbd
000002b0: ef06 453d ef16 4dbd 06fe 63bd bf0b 453d
000002c0: 59a7 46bd 8952 463d 0341 4c3d 037b 493d
000002d0: dba6 40bd 9ae2 4d3d a8d7 4ebd 61e7 48bd
000002e0: 483f 503d efdc 773d 8c8c 4bbd 221f 4a3d
000002f0: bcb7 45bd 4ab4 473d 9184 563d 2650 49bd
00000300: a6fe 3d3d 7bf0 49bd a78d 64bd 1cff 53bd
00000310: 03fc 453d f89b 4cbd 03da 503d 2af9 493d
00000320: 9386 4cbd 9e5b 7ebd 9ca6 473d 3e9b 5dbd
00000330: 4462 4a3d 4df6 4abd 6016 60bd f5b8 483d
00000340: c44f 463d 8c27 4cbd 7ed0 5dbd a1eb 4dbd
00000350: 107b 4c3d e6ce 4fbd 456b 4a3d 8b07 3e3d
00000360: 4e37 4dbd d799 80bd 3872 523d 902b 5cbd
00000370: d5e2 473d 98ef 53bd 4b74 60bd 21da 453d
00000380: 421f 50bd c619 5e3d 7843 643d a0eb 573d
00000390: 3f58 52bd d432 5e3d 7520 5ebd be2a 56bd
000003a0: 777a 563d be4b 823d b724 56bd 980e 663d
000003b0: cdf2 50bd 2833 503d 7d82 623d 0a07 51bd
000003c0: 0072 443d 61ad 55bd 00ec 60bd 503f 54bd
000003d0: 4b4e 4a3d 07cd 4fbd 4cfa 513d 47f4 473d
000003e0: b3d7 54bd ec14 80bd 45be 4f3d 5261 61bd
000003f0: 171a 403d 1386 51bd e3ed 62bd 13c6 463d

layers.0.egnn.coors_mlp.0.bias f4 [64]
-0.06730005 0.2407749 -0.16400328 0.16721424 0.109726235 0.07218753 -0.15248847 0.27339587
-0.06038355 -0.16854787 -0.11745333 0.17593311 -0.11978131 -0.12024787 0.05634644 -0.18709135
0.28365138 0.23902456 -0.097809896 -0.05848925 0.13258412 -0.13443969 -0.20026956 -0.14865355
0.07226341 -0.08808269 -0.17746574 -0.058300227 -0.052277297 -0.20475821 -0.2688735 0.27894643
0.18069111 0.13755153 0.1841348 0.045462105 0.2689434 -0.28509712 0.10949195 -0.13905029
-0.28611496 -0.16084887 0.21312752 -0.23109217 -0.12119108 -0.1632798 -0.11773892 0.29285705
0.20210789 -0.0843761 -0.19498631 0.20772351 -0.12350386 0.22762568 -0.1390688 -0.07501274
0.059278816 0.07921125 -0.17793205 -0.12810813 -0.2767167 0.0584706 0.17111236 0.21791247
00000000: 9cd4 89bd b28d 763e 7af0 27be 363a 2b3e
00000010: 26b8 e03d 0ed7 933d f025 1cbe 8bfa 8b3e
00000020: be54 77bd d097 2cbe 5f8b f0bd cf27 343e
00000030: e74f f5bd 8444 f6bd 86cb 663d e094 3fbe
00000040: c13a 913e dbc2 743e 8e50 c8bd 6c92 6fbd
00000050: 22c4 073e 8faa 09be 7713 4dbe a338 18be
00000060: d7fe 933d b364 b4bd 94b9 35be 38cc 6ebd
00000070: b820 56bd 23ac 51be caa9 89be 11d2 8e3e
00000080: 1707 393e 4fda 0c3e d58d 3c3e 7936 3a3d
00000090: f3b2 893e 40f8 91be 513d e03d 3363 0ebe
000000a0: a97d 92be 91b5 24be 1a3e 5a3e 6da3 6cbe
000000b0: 0733 f8bd d232 27be 1a21 f1bd 5cf1 953e
000000c0: 5ff5 4e3e 60cd acbd 7eaa 47be 79b5 543e
000000d0: 97ef fcbd b516 693e 0d68 0ebe 48a0 99bd
000000e0: 58ce 723d 8239 a23d d233 36be c72e 03be
000000f0: d0ad 8dbe de7e 6f3d 1438 2f3e 7224 5f3e

layers.0.egnn.coors_mlp.3.weight f4 [1, 64]
0.043112427 -0.03500883 0.036804557 -0.03549935 -0.039943527 -0.044170573 0.037310325 -0.03383807
0.043910295 0.03533116 0.038207427 -0.035251357 0.037839275 0.03875192 -0.047800895 0.035449255
-0.03451131 -0.035172895 0.03827512 0.04559371 -0.038683835 0.036505587 0.03540167 0.0359492
-0.043585304 0.040169783 0.036622483 0.044306044 0.048618842 0.03555058 0.033599157 -0.035279866
-0.036935978 -0.03888115 -0.034672987 -0.051411517 -0.035048798 0.03280639 -0.039602865 0.03695241
0.03464993 0.034619182 -0.036412917 0.03428434 0.038316526 0.036587894 0.03843331 -0.034116823
-0.036883116 0.040428307 0.036575843 -0.03500121 0.0384803 -0.03489585 0.036787774 0.04229701
-0.046509746 -0.043243777 0.0357699 0.03572688 0.033693664 -0.047142047 -0.037349354 -0.035804894
00000000: a896 303d 6b65 0fbd 60c0 163d c467 11bd
00000010: d39b 23bd 34ec 34bd b6d2 183d ca99 0abd
00000020: 48db 333d 68b7 103d 647f 1c3d ba63 10bd
00000030: 5bfd 1a3d 55ba 1e3d dfca 43bd 3d33 113d
00000040: bb5b 0dbd 7411 10bd 5fc6 1c3d 78c0 3a3d
00000050: f172 1ebd e286 153d 5701 113d 783f 133d
00000060: 8186 32bd 1289 243d 7501 163d 417a 353d
00000070: 8d24 473d 7c9d 113d 459f 093d 9f81 10bd
00000080: 2e4a 17bd d741 1fbd 4305 0ebd e294 52bd
00000090: 548f 0fbd fe5f 063d 9d36 22bd 695b 173d
000000a0: 16ed 0d3d d8cc 0d3d b625 15bd bc6d 0c3d
000000b0: caf1 1c3d 30dd 153d 3f6c 1d3d 15be 0bbd
000000c0: c012 17bd 2798 253d 8dd0 153d 6e5d 0fbd
000000d0: 859d 1d3d f3ee 0ebd c7ae 163d a13f 2d3d
000000e0: 0181 3ebd 6320 31bd 7583 123d 5956 123d
000000f0: 5e02 0a3d 0518 41bd a3fb 18bd 27a8 12bd

layers.0.egnn.vel_mlp.0.weight f4 [16, 4]
-8.740085e-05 -0.0003903256 -0.00038906076 -0.0022601064 0.0009151607 -0.0020296369 -0.001510226 -0.0011514759
-0.0008271569 0.0019518689 0.0007397267 0.0015432512 -0.00037702243 0.0008484667 9.7615324e-05 0.0020546596
-0.00037300773 -0.003417118 -0.0014604441 -0.0010340407 -0.00038830892 0.00080973544 0.0013390549 0.00021261854
-0.002431029 -0.0059847464 0.0007865693 -0.0010484718 -0.00035826562 0.0017392185 0.0019910384 0.0014422357
0.0007648951 -0.0005580996 0.00019270358 -0.002124256 -0.0007917857 -0.0019442523 -0.00217896 -0.0018475467
0.00088178297 -0.0031347412 0.0012189278 -0.0007516742 -0.00046796363 0.00097106735 0.0002666549 0.002082587
1.0923451e-05 1.3344378e-05 0.00028733193 0.0023073028 0.0011789572 -0.0020671277 -0.0010645327 -0.0011608258
-0.000112938054 -0.0021134093 -0.0023331435 -0.0015216158 0.0037117621 0.00189095 -0.002470091 0.00079883484
00000000: f94a b7b8 9da4 ccb9 dafa cbb9 4b1e 14bb
00000010: 65e7 6f3a a803 05bb c7f2 c5ba 1fed 96ba
00000020: 8fd5 58ba dad5 ff3a 38ea 413a eb46 ca3a
00000030: 18ab c5b9 a36b 5e3a d4b6 cc38 78a7 063b
00000040: 4090 c3b9 baf1 5fbb 5f6c bfba a688 87ba
00000050: f195 cbb9 6d44 543a 3a83 af3a 5bf2 5e39
00000060: e651 1fbb b11b c4bb c631 4e3a e06c 89ba
00000070: 99d5 bbb9 7df6 e33a 157c 023b 6609 bd3a
00000080: 3e83 483a 6e4d 12ba 7910 4a39 1a37 0bbb
00000090: d78f 4fba 48d6 feba e2cc 0ebb 6129 f2ba
000000a0: 7427 673a 3b70 4dbb 6ec4 9f3a 000c 45ba
000000b0: 0459 f5b9 3a8f 7e3a d1cd 8b39 037c 083b
000000c0: dd43 3737 abe1 5f37 0aa5 9639 1e36 173b
000000d0: 3d87 9a3a a678 07bb ca87 8bba da26 98ba
000000e0: 28d9 ecb8 2081 0abb a7e7 18bb f470 c7ba
000000f0: 0941 733b c1d9 f73a 40e1 21bb e668 513a

layers.0.egnn.vel_mlp.0.bias f4 [16]
0.4580818 -0.009873917 -0.061595175 0.31029615 0.253076 -0.1977736 -0.21351632 0.34428543
-0.50492233 0.112553366 -0.4248143 0.00078693294 -0.075210735 -0.5129817 -0.46325323 0.043567892
00000000: b389 ea3e 36c6 21bc 394b 7cbd 23df 9e3e
00000010: 2d93 813e 2a85 4abe 06a4 5abe 2e46 b03e
00000020: 9742 01bf 6182 e63d 4381 d9be 2d4a 4e3a
00000030: 1608 9abd c552 03bf 872f edbe 3f74 323d

layers.0.egnn.vel_mlp.3.weight f4 [1, 16]
0.00029582882 -0.00014540856 1.9017452e-05 -9.349801e-05 6.915914e-05 -1.8000794e-05 0.00083223626 0.00011624559
1.6756005e-05 0.00041879577 -0.00032260752 -0.00022056428 -0.00019071593 -0.00013599914 0.00013449593 0.0007386607
00000000: 7919 9b39 d078 18b9 ab87 9f37 5d14 c4b8
00000010: 8809 9138 6900 97b7 6e2a 5a3a e0c8 f338
00000020: 3f8f 8c37 d191 db39 a623 a9b9 4647 67b9
00000030: ebfa 47b9 fe9a 0eb9 7a07 0d39 aea2 413a

layers.1.egnn.edge_mlp.0.weight f4 [20, 10]
-0.032891456 -0.03748117 -0.040384647 0.020110274 -0.03932767 -0.041526195 -0.040081613 0.023837276
-0.029679954 -0.054129876 0.028438548 0.033030804 0.030038735 -0.010948093 0.033959206 0.036093503
0.032413777 -0.016485728 0.027705839 0.0469783 -0.03236922 -0.038772438 -0.04053068 0.020351935
-0.038326602 -0.041730214 -0.042801157 0.024539568 -0.030127326 -0.053973153 0.027372258 0.031070292
0.031226207 -0.010168263 0.031191885 0.033325564 0.031077886 -0.015779832 0.029616999 0.04584565
-0.035700563 -0.038541194 -0.044617295 0.024645155 -0.0404029 -0.04377139 -0.04389507 0.02651248
-0.036004875 -0.060654446 -0.035250586 -0.04170386 -0.041523725 0.02186657 -0.040639058 -0.044412315
-0.044631414 0.027755942 -0.036060642 -0.05824982 0.028381068 0.029527508 0.031951748 -0.011309435
0.03280131 0.036047574 0.03365059 -0.01525747 0.027862735 0.043983188 -0.03446551 -0.037862122
-0.042029977 0.023535836 -0.037689995 -0.04060449 -0.043074317 0.02609776 -0.032583233 -0.055540532
0.03028291 0.030351322 0.031803228 -0.01138244 0.032214824 0.035427243 0.032285374 -0.014993925
0.026252635 0.045885794 -0.035679806 -0.039167788 -0.043144636 0.023579247 -0.038525455 -0.04312704
-0.044678185 0.025648717 -0.032869898 -0.058845654 0.028474113 0.03133253 0.03306489 -0.013409443
0.031427182 0.035149243 0.0333576 -0.015671514 0.0289828 0.04584766 -0.03443408 -0.039125215
-0.040526647 0.022603689 -0.040005915 -0.045422763 -0.042610317 0.02623671 -0.032716297 -0.055785954
0.028944109 0.032007173 0.032208584 -0.010917343 0.03188964 0.035274144 0.032258276 -0.01540294
0.028068697 0.046229668 0.027237885 0.030562617 0.029289734 -0.013759688 0.031932447 0.035485156
0.033495706 -0.014473043 0.02700171 0.047240578 -0.034960628 -0.039258447 -0.042402953 0.023596866
-0.040744413 -0.043715317 -0.042601593 0.028326906 -0.03528684 -0.056013856 0.028097881 0.027301017
0.030829547 -0.010787617 0.033425942 0.03439747 0.03400118 -0.015190086 0.028257668 0.044015337
-0.036917407 -0.037495244 -0.041736566 0.022651799 -0.039341487 -0.043409895 -0.042141262 0.02674718
-0.034117423 -0.058558185 -0.033324197 -0.039754894 -0.042816322 0.02173356 -0.03983337 -0.04288661
-0.04253913 0.025967764 -0.032261323 -0.05595596 0.028049828 0.031923078 0.032163978 -0.010380728
0.03299553 0.03397111 0.034651406 -0.015454493 0.026913669 0.049508695 0.0313359 0.030601362
0.03292877 -0.009936352 0.03311344 0.036143344 0.034690056 -0.01585917 0.026680807 0.044962075
00000000: 31b9 06bd db85 19bd 5f6a 25bd 4dbe a43c
00000010: 0d16 21bd 5f17 2abd 9e2c 24bd 6446 c33c
00000020: 6023 f3bc 4ab7 5dbd f5f7 e83c 4f4b 073d
00000030: cb13 f63c a15f 33bc cf18 0b3d c8d6 133d
00000040: 4fc4 043d 140d 87bc 5bf7 e23c 516c 403d
00000050: 9695 04bd d9cf 1ebd 8003 26bd 1ab9 a63c
00000060: 5bfc 1cbd 4ded 2abd 4450 2fbd 3407 c93c
00000070: 95cd f6bc f412 5dbd c93b e03c 2087 fe3c
00000080: 1ace ff3c c998 26bc 2086 ff3c 6380 083d
00000090: 0d97 fe3c b544 81bc 599f f23c a6c8 3b3d
000000a0: c13a 12bd 5fdd 1dbd a0c0 36bd a3e4 c93c
000000b0: 837d 25bd a149 33bd 51cb 33bd b330 d93c
000000c0: d979 13bd cc70 78bd eb62 10bd abd1 2abd
000000d0: c814 2abd 8521 b33c 2475 26bd b0e9 35bd
000000e0: 6ecf 36bd 6e60 e33c 53b4 13bd 5d97 6ebd
000000f0: 6a7f e83c ace3 f13c d6df 023d 354b 39bc
00000100: ab5a 063d 9fa6 133d 33d5 093d 78fa 79bc
00000110: 6440 e43c b727 343d b52b 0dbd 5015 1bbd
00000120: a027 2cbd 3ace c03c d360 1abd e550 26bd
00000130: b26e 30bd f8ca d53c ff75 05bd 787e 63bd
00000140: de13 f83c 56a3 f83c 1a44 023d 6a7d 3abc
00000150: b1f3 033d 281c 113d ab3d 043d 14a9 75bc
00000160: c40f d73c bef2 3b3d fd24 12bd 676e 20bd
00000170: 6eb8 30bd 4429 c13c decc 1dbd fba5 30bd
00000180: 7900 37bd 421d d23c 96a2 06bd 2408 71bd
00000190: 8b42 e93c 8a56 003d 0d6f 073d 48b3 5bbc
000001a0: cab9 003d a7f8 0f3d fba1 083d 8c61 80bc
000001b0: 566d ed3c c2ca 3b3d c00a 0dbd c341 20bd
000001c0: 45ff 25bd 5f2b b93c 3edd 23bd 380d 3abd
000001d0: 2888 2ebd 5eee d63c 8601 06bd d07f 64bd
000001e0: 321c ed3c f419 033d 26ed 033d a8de 32bc
000001f0: b69e 023d 9f7b 103d 4121 043d 9d5c 7cbc
00000200: 53f0 e53c 525b 3d3d fc21 df3c 745e fa3c
00000210: 06f1 ef3c 5070 61bc 99cb 023d e258 113d
00000220: cb32 093d 5820 6dbc b132 dd3c 567f 413d
00000230: e032 0fbd 77cd 20bd b8ae 2dbd 374e c13c
00000240: 9de3 26bd d50e 33bd 027f 2ebd d40d e83c
00000250: ef88 10bd c96e 65bd 872d e63c 62a6 df3c
00000260: 3f8e fc3c 8cbe 30bc a4e9 083d 5de4 0c3d
00000270: d244 0b3d d7df 78bc a07c e73c 6d49 343d
00000280: b536 17bd 9d94 19bd f6f3 2abd 4490 b93c
00000290: 8a24 21bd 93ce 31bd 519c 2cbd e71c db3c
000002a0: b6be 0bbd b5da 6fbd f47e 08bd 07d6 22bd
000002b0: 2b60 2fbd 940a b23c 5128 23bd dfa9 2fbd
000002c0: 833d 2ebd 59ba d43c 7324 04bd 1432 65bd
000002d0: c1c8 e53c c6c1 023d 60be 033d ee13 2abc
000002e0: 5226 073d 4a25 0b3d a2ee 0d3d d834 7dbc
000002f0: 0e7a dc3c a1c9 4a3d 135a 003d b5af fa3c
00000300: 51e0 063d 15cc 22bc f5a1 073d 0b0b 143d
00000310: 2917 0e3d 17eb 81bc b591 da3c 272a 383d

layers.1.egnn.edge_mlp.0.bias f4 [20]
-0.12795208 0.3571331 -0.2916079 0.17482716 -0.35760307 -0.33063045 0.22356096 -0.23839763
0.21596631 -0.3732177 0.14249174 -0.06986534 0.3576295 0.17052221 -0.0547024 0.1985132
-0.3480939 -0.1660809 0.21901515 0.0652146
00000000: df05 03be 26da b63e a14d 95be e405 333e
00000010: c017 b7be 6548 a9be 2aed 643e 821e 74be
00000020: 4626 5d3e 6416 bfbe 5be9 113e 8f15 8fbd
00000030: 371b b73e 609d 2e3e a00f 60bd 0b47 4b3e
00000040: 5d39 b2be 1d11 2abe 8245 603e 3b8f 853d

layers.1.egnn.edge_mlp.3.weight f4 [16, 20]
0.044713788 -0.040544502 0.044610515 -0.03941609 0.045839187 0.044345576 -0.039394397 0.041443102
-0.042412113 0.045599427 -0.038990777 0.040017176 -0.04027765 -0.04013906 0.039253604 -0.04103193
0.04416794 0.041907698 -0.042336755 -0.037819993 0.041546002 -0.040212236 0.043814298 -0.03775876
0.04410977 0.044353087 -0.039652318 0.043051273 -0.03791477 0.044367924 -0.039487913 0.03859398
-0.04142246 -0.036703028 0.03815755 -0.039296772 0.0451908 0.04254241 -0.04029488 -0.03610458
0.04128285 -0.040533524 0.04454248 -0.038464632 0.045651518 0.045049645 -0.041170146 0.04322441
-0.03970472 0.047133606 -0.03976367 0.040880416 -0.042087648 -0.039449126 0.039654966 -0.03933245
0.04523281 0.044725798 -0.040951144 -0.036610927 -0.03920809 0.038750567 -0.04237642 0.03520942
-0.043437988 -0.042346355 0.035356697 -0.040626016 0.036093075 -0.043089587 0.03457566 -0.0362702
0.039743856 0.03583103 -0.036095124 0.037416406 -0.041500427 -0.03990908 0.038323604 0.03231754
-0.040633608 0.03923199 -0.04288456 0.036335055 -0.044285033 -0.042311672 0.037279654 -0.04071339
0.03865428 -0.04290048 0.0346021 -0.035834793 0.041003823 0.036306694 -0.03552194 0.03611785
-0.042137973 -0.040533908 0.035783816 0.03248794 -0.039595112 0.040881965 -0.040994458 0.035708256
-0.043491546 -0.04189405 0.037735473 -0.042341445 0.037837762 -0.044397127 0.03557482 -0.03831776
0.039337326 0.036153756 -0.035822853 0.036031757 -0.041270822 -0.03932385 0.038258363 0.033641912
-0.03679537 0.03733048 -0.040884085 0.031962693 -0.04022631 -0.03995003 0.033755787 -0.04052227
0.035257515 -0.039869532 0.03164168 -0.034405332 0.037814423 0.03344806 -0.032578193 0.03191118
-0.039634984 -0.03795442 0.034745757 0.029233985 0.042681985 -0.042206746 0.045243964 -0.040335078
0.044586774 0.043800034 -0.042069796 0.044740215 -0.040467296 0.045439303 -0.037680604 0.03937883
-0.04277919 -0.04016541 0.03911871 -0.040906206 0.046562955 0.042381972 -0.04116385 -0.036735836
-0.039784882 0.039868537 -0.040279616 0.036802888 -0.04346103 -0.04344362 0.039335456 -0.04215545
0.038835354 -0.04321782 0.037383176 -0.037364747 0.039545387 0.035445817 -0.034771755 0.037089836
-0.042297047 -0.041973535 0.036601547 0.033613622 0.040677983 -0.043414492 0.044301305 -0.039208565
0.045615364 0.04637297 -0.04098327 0.043464076 -0.04182332 0.0446393 -0.03852039 0.04011994
-0.042201657 -0.040158857 0.03995901 -0.039301075 0.04463746 0.042161938 -0.0397709 -0.037561648
-0.03874916 0.038903162 -0.042115774 0.03744944 -0.042684454 -0.043242365 0.038801964 -0.04010828
0.036618546 -0.044189718 0.03737281 -0.037178226 0.039729167 0.034946594 -0.037325967 0.035715323
-0.044176366 -0.03813858 0.038753916 0.032185998 0.043927003 -0.041577414 0.044523172 -0.039144643
0.044589084 0.04491725 -0.0402817 0.042803917 -0.040079426 0.04525398 -0.03808362 0.03933664
-0.04140294 -0.037648898 0.039299466 -0.038174637 0.044627637 0.044198677 -0.039525386 -0.036040913
-0.04074862 0.039366677 -0.042832173 0.034734048 -0.04097071 -0.04252342 0.03632225 -0.04099444
0.03724093 -0.042455595 0.03666458 -0.038991265 0.03690359 0.036182787 -0.036979537 0.036791317
00000000: ce25 373d fe11 26bd 84b9 363d c472 21bd
00000010: dfc1 3b3d b5a3 353d 055c 21bd 3ec0 293d
00000020: 53b8 2dbd 77c6 3a3d cbb4 1fbd 0de9 233d
00000030: 2dfa 24bd db68 24bd 63c8 203d 1911 28bd
00000040: 71e9 343d 68a7 2b3d 4e69 2dbd 23e9 1abd
00000050: 242c 2a3d 96b5 24bd 9f76 333d eea8 1abd
00000060: 72ac 343d 95ab 353d 786a 22bd 8856 303d
00000070: 854c 1bbd 24bb 353d 14be 21bd b914 1e3d
00000080: 99aa 29bd ea55 16bd 174b 1c3d a7f5 20bd
00000090: fd19 393d f340 2e3d 3e0c 25bd 65e2 13bd
000000a0: 3518 293d 7b06 26bd 2d72 363d 178d 1dbd
000000b0: 16fd 3a3d fa85 383d 07a2 28bd 140c 313d
000000c0: 6ba1 22bd 2b0f 413d 3bdf 22bd 3972 273d
000000d0: 1964 2cbd 6895 21bd 3f6d 223d 101b 21bd
000000e0: 0a46 393d 6632 373d 63bc 27bd 57f5 15bd
000000f0: aa98 20bd eab8 1e3d e692 2dbd c137 103d
00000100: 08ec 31bd 5f73 2dbd 2fd2 103d 7767 26bd
00000110: 55d6 133d b57e 30bd 359f 0d3d 1090 14bd
00000120: 74ca 223d 8fc3 123d 7bd8 13bd f241 193d
00000130: 5afc 29bd b477 23bd 36f9 1c3d 665f 043d
00000140: 6d6f 26bd b9b1 203d b8a7 2fbd 11d4 143d
00000150: 3964 35bd 014f 2dbd 8db2 183d 15c3 26bd
00000160: f353 1e3d 6ab8 2fbd eeba 0d3d 81c7 12bd
00000170: a0f3 273d 54b6 143d 747f 11bd 50f0 133d
00000180: de98 2cbd e206 26bd 0d92 123d 1312 053d
00000190: 7c2e 22bd d973 273d cee9 27bd d242 123d
000001a0: 3124 32bd 1899 2bbd 8390 1a3d 396e 2dbd
000001b0: c5fb 1a3d c3d9 35bd e7b6 113d 15f3 1cbd
000001c0: 2d20 213d f615 143d fcba 12bd 0996 133d
000001d0: 980b 29bd 0c12 21bd cdb4 1c3d 1acc 093d
000001e0: beb6 16bd d8e7 183d 1276 27bd 50eb 023d
000001f0: 58c4 24bd a5a2 23bd 8243 0a3d aefa 25bd
00000200: 2f6a 103d 3c4e 23bd b59a 013d 9bec 0cbd
00000210: 4ce3 1a3d d500 093d b670 05bd 4cb5 023d
00000220: 4b58 22bd 1876 1bbd 9151 0e3d 1c7c ef3c
00000230: 4ed3 2e3d fbe0 2cbd bc51 393d 6536 25bd
00000240: 9fa0 363d aa67 333d 6151 2cbd 8441 373d
00000250: 09c1 25bd 901e 3a3d fa56 1abd b24b 213d
00000260: 3b39 2fbd 7c84 24bd f13a 203d 448d 27bd
00000270: ccb8 3e3d b898 2d3d 6d9b 28bd 5178 16bd
00000280: 79f5 22bd 314d 233d 3dfc 24bd a0be 163d
00000290: 3104 32bd f0f1 31bd 371e 213d 31ab 2cbd
000002a0: d211 1f3d 2b05 31bd 1a1f 193d c70b 19bd
000002b0: 58fa 213d a22f 113d d46c 0ebd 83eb 173d
000002c0: ab3f 2dbd 71ec 2bbd 81eb 153d 70ae 093d
000002d0: f59d 263d 65d3 31bd 4975 353d 2999 20bd
000002e0: 2dd7 3a3d 95f1 3d3d 13de 27bd 6307 323d
000002f0: ee4e 2bbd b3d7 363d 8ec7 1dbd ce54 243d
00000300: a5db 2cbd 9d7d 24bd 0fac 233d 2afa 20bd
00000310: c5d5 363d ffb1 2c3d d0e6 22bd 3eda 19bd
00000320: 70b7 1ebd ec58 1f3d 9781 2cbd 9664 193d
00000330: e5d5 2ebd e81e 31bd cfee 1e3d 9448 24bd
00000340: 54fd 153d 4700 35bd 3b14 193d 3248 18bd
00000350: 0dbb 223d 2924 0f3d 1de3 18bd 3b4a 123d
00000360: 47f2 34bd 3337 1cbd 6dbc 1e3d 77d5 033d
00000370: cdec 333d 144d 2abd ee5d 363d 2256 20bd
00000380: 0ba3 363d 26fb 373d 6dfe 24bd 2953 2f3d
00000390: 532a 24bd 3d5c 393d 92fd 1bbd 751f 213d
000003a0: 2196 29bd bb35 1abd 7af8 203d 025d 1cbd
000003b0: 78cb 363d ac09 353d 5fe5 21bd a39f 13bd
000003c0: 06e8 26bd f43e 213d ca70 2fbd 4a45 0e3d
000003d0: e7d0 27bd 0a2d 2ebd a4c6 143d c9e9 27bd
000003e0: f289 183d ebe5 2dbd 992d 163d 4eb5 1fbd
000003f0: 3828 173d 6734 143d db77 17bd 7eb2 163d

layers.1.egnn.edge_mlp.3.bias f4 [16]
-0.15443522 -0.05236153 -0.19568956 0.24473043 0.06810088 0.15379463 0.048178766 -0.11887607
0.14983699 -0.17362568 0.12434823 -0.260791 0.15012364 -0.08160847 0.107366666 -0.16235733
00000000: 4424 1ebe 0b79 56bd d862 48be 9d9a 7a3e
00000010: 7978 8b3d 577c 1d3e 1957 453d 4c75 f3bd
00000020: de6e 193e eeca 31be 49aa fe3d 6686 85be
00000030: 03ba 193e 5722 a7bd 0ee3 db3d 0041 26be

layers.1.egnn.node_mlp.0.weight f4 [8, 20]
-0.0010976127 2.7534723e-05 -0.0008188959 -0.0024661066 -0.00023603006 -0.00057695457 0.001332655 0.0013102498
0.0012948012 -0.0017471459 -0.0006975179 -0.00089571945 -0.0016738098 -8.5711086e-05 -0.001208046 -0.00017050676
-2.3991147e-06 -0.0011120859 0.0002610991 0.00091666053 -0.0009256834 1.2151646e-05 0.0015518274 0.0011355359
0.0014054542 -0.00029383655 -0.0004619454 -0.0007988729 -0.0018127979 0.000684754 0.0011469772 0.0004938576
-0.000213413 -0.0018016384 8.4566906e-05 0.0016929195 0.0020220268 0.0004777168 0.00025632477 -0.0006772494
-0.0012682019 0.0007058756 0.0004367102 -0.0014191247 0.0025590046 -0.0012861107 0.0010837464 0.0002050068
0.00029241046 0.00063647074 0.0009461948 -0.0009609573 -0.00074832945 0.00013683106 -0.00040576397 0.0006174275
-0.0012076118 -0.0008437089 -0.0006667638 0.00024826595 0.00013106423 -0.0023823981 1.4670068e-05 3.622844e-05
0.00041389285 -0.00037032674 -0.0014116081 0.0011698626 -0.0015635514 -0.0014684558 -0.00087295374 -8.529987e-05
-0.0013497749 0.0004320873 0.0011158921 -0.0008441705 -0.0009526681 -0.00026508313 -0.0008173967 -0.0007471512
0.0007524198 -0.001368579 -0.000107543005 -0.0019783122 0.0010011033 0.00015329239 0.00025520872 -0.00015981423
-0.00022851025 0.00053094944 0.00063821056 0.0013222191 -0.00024198703 -0.00038479964 0.000964848 0.00034399374
0.0013019554 -0.0010924708 -0.0013625441 -0.001473511 -0.00030056183 -8.996795e-05 0.00040911706 -0.00067698304
0.00080251455 -0.0013611154 -0.00017684688 -0.00028641307 8.789989e-05 -0.0011040443 -0.00039324202 -0.0013087296
-0.00030651173 0.0010762517 -0.001417927 -0.00059466576 -0.00065323274 0.00061952235 0.000805667 0.00013851118
-7.262159e-05 -0.0014701156 7.283975e-05 -0.00111806 -0.00047021618 0.0007730445 0.00024016037 -0.0012465031
-0.00090405246 -0.00086351525 -0.00053997396 -0.0010186648 -0.0011801695 -0.0017568762 8.513662e-05 0.00042094162
0.00025136254 0.00039922498 -0.0008803436 -0.00048629288 -0.00049044576 -0.0009175932 -8.778625e-05 -0.00011181
0.0002520872 -0.0002825293 -0.00087432866 8.745325e-05 0.0014909949 0.00064584636 -0.00045074153 0.0009240736
0.0004041467 0.0007963089 0.0025166236 0.0015414577 0.0017454405 0.00029616622 -0.00014292078 0.00021765265
00000000: c5dd 8fba 5efa e637 2cab 56ba 679e 21bb
00000010: d67e 77b9 c43e 17ba 7bac ae3a b0bc ab3a
00000020: 52b6 a93a 7d00 e5ba a2d9 36ba b7ce 6aba
00000030: bd63 dbba cabf b3b8 4c57 9eba 0fca 32b9
00000040: 7a00 21b6 69c3 91ba 21e4 8839 0c4c 703a
00000050: 90a9 72ba ecde 4b37 b066 cb3a 43d6 943a
00000060: 3837 b83a 130e 9ab9 4331 f2b9 746b 51ba
00000070: 679b edba 1081 333a 2b56 963a 3976 013a
00000080: 9ec7 5fb9 f424 ecba 8359 b138 f4e4 dd3a
00000090: fb83 043b 1076 fa39 5463 8639 7089 31ba
000000a0: cb39 a6ba 820a 393a 40f6 e439 ec01 baba
000000b0: f9b4 273b b792 a8ba 7f0c 8e3a 18f7 5639
000000c0: ab4e 9939 d4d8 263a 0f0a 783a c1e8 7bba
000000d0: 8a2b 44ba 4f7a 0f39 b8bc d4b9 dcda 213a
000000e0: ba48 9eba 592c 5dba c3c9 2eba b129 8239
000000f0: 496e 0939 0222 1cbb 761f 7637 fef3 1738
00000100: c2ff d839 6a28 c2b9 b505 b9ba 1356 993a
00000110: 14f0 ccba 3379 c0ba efd6 64ba 05e3 b2b8
00000120: eeea b0ba c789 e239 2043 923a 534b 5dba
00000130: 79bc 79ba dbfa 8ab9 9046 56ba 78dc 43ba
00000140: 0a3e 453a e461 b3ba b688 e1b8 92a6 01bb
00000150: 7437 833a 1dbd 2039 89cd 8539 ce93 27b9
00000160: 419c 6fb9 6a2f 0b3a 964d 273a 504e ad3a
00000170: e6bd 7db9 efbe c9b9 daed 7c3a 0f5a b439
00000180: 60a6 aa3a 3d31 8fba 6597 b2ba d322 c1ba
00000190: ba94 9db9 2dad bcb8 c37e d639 9077 31ba
000001a0: d75f 523a 7467 b2ba f96f 39b9 b629 96b9
000001b0: e556 b838 94b5 90ba 0d2c ceb9 ae89 abba
000001c0: 4fb3 a0b9 0411 8d3a bcd9 b9ba 58e3 1bba
000001d0: b53d 2bba 7167 223a 6633 533a 503d 1139
000001e0: 6b4c 98b8 e5b0 c0ba 8bc1 9838 de8b 92ba
000001f0: 5987 f6b9 23a6 4a3a 8fd3 7b39 b461 a3ba
00000200: effd 6cba 875d 62ba 0a8d 0dba b884 85ba
00000210: ebaf 9aba fc46 e6ba 608b b238 d4b1 dc39
00000220: 4fc9 8339 124f d139 dcc6 66ba 20f5 feb9
00000230: 4291 00ba a38a 70ba e219 b8b8 897b eab8
00000240: 922a 8439 7120 94b9 3433 65ba 1b67 b738
00000250: 7d6d c33a 044e 293a 8151 ecb9 883d 723a
00000260: a7e3 d339 63bf 503a f0ed 243b bd0a ca3a
00000270: 44c7 e43a c246 9b39 01dd 15b9 b039 6439

layers.1.egnn.node_mlp.0.bias f4 [8]
0.07515152 -0.10434011 0.20159613 0.19382687 -0.12027481 -0.03991276 -0.18971294 0.053712387
00000000: 0ae9 993d 45b0 d5bd 376f 4e3e 8d7a 463e
00000010: a452 f6bd 907b 23bd 1c44 42be 8501 5c3d

layers.1.egnn.node_mlp.3.weight f4 [4, 8]
0.0010493846 -0.00023036927 -0.00068017124 0.0008023973 0.002058951 -0.00013741637 0.00022828851 -0.0006966455
0.00209482 0.0007519952 0.00010827002 -0.0013155268 -0.0017370526 -0.00092965725 -0.00024734568 0.00081165327
-0.0005150496 0.0001762973 -0.0005437268 0.0012054921 0.0010250396 -0.0006148939 0.0011062325 0.0020754528
-0.0009501899 -4.3851196e-05 -0.0005850157 -0.00038822682 -0.0012030827 -0.0020088102 -0.00043805494 0.0011619249
00000000: 818b 893a 488f 71b9 854d 32ba f957 523a
00000010: 77ef 063b 6d17 10b9 bb60 6f39 179f 36ba
00000020: 3f49 093b 8b21 453a 060f e338 c16d acba
00000030: d0ad e3ba 3eb4 73ba 2dae 81b9 21c5 543a
00000040: 6504 07ba 72dc 3839 e388 0eba 9a01 9e3a
00000050: 9f5a 863a d530 21ba 01ff 903a 5204 083b
00000060: 2a16 79ba ddec 37b8 bd5b 19ba ec8a cbb9
00000070: c2b0 9dba 3ea6 03bb bdaa e5b9 bb4b 983a

layers.1.egnn.node_mlp.3.bias f4 [4]
0.059819862 -0.2821031 0.06826356 -0.28668833
00000000: ac05 753d d16f 90be c4cd 8b3d d0c8 92be
