data/models/best_model_N20_batch64_lr0.0001_fd4_b0.5.pth (torch, 31506 bytes, 32 tensors)

time_embedding.0.weight f4 [8, 1]
0	0x3f81932a	1.0123036
1	0x3f79cffc	0.97582984
2	0xbeb90c82	-0.36142355
3	0xbf654a21	-0.89566237
4	0xbe97ef24	-0.29674637
5	0x3f11991f	0.5687427
6	0xbf5eacf2	-0.86982644
7	0xbe830ab1	-0.25594094

time_embedding.0.bias f4 [8]
0	0xbe041ec1	-0.12902357
1	0x3f4aa619	0.79159695
2	0x3e5a5c53	0.21324281
3	0x3e33e044	0.1756602
4	0xbf70585c	-0.93884826
5	0x3e8ad72b	0.27117285
6	0x3dd5baed	0.10436044
7	0x3d9444da	0.07239695

time_embedding.3.weight f4 [4, 8]
0	0x3e513a05	0.20432289
1	0x3eb27680	0.34856033
2	0x3e240f23	0.16021399
3	0xbe8ad4a5	-0.2711536
4	0x3e6254a3	0.22102599
5	0x3a04ba50	0.0005063163
6	0xbd52c4b4	-0.051457122
7	0x3e010d63	0.12602763
8	0xbebd59f5	-0.36982694
9	0xbe8294e0	-0.25504208
10	0x3e076a31	0.13224103
11	0xbe99f39c	-0.30068672
12	0x3eb48ede	0.3526525
13	0xbe96cab2	-0.2945152
14	0x3e7975fc	0.24361414
15	0xbdff8344	-0.12476209
16	0x3d683bf1	0.05669779
17	0x3e9525b4	0.29130328
18	0xbe00e3d5	-0.12586911
19	0x3ea6c06c	0.3256868
20	0x3e8d631c	0.27614677
21	0x3ad0e1cd	0.0015936435
22	0x3a94f0ba	0.0011363246
23	0x3dea8bf9	0.11452479
24	0x3df9f6fa	0.1220531
25	0x3c23e992	0.010004418
26	0xbe3f8869	-0.1870438
27	0xbe81591f	-0.25263306
28	0x3e69e4e2	0.22841218
29	0xbe04d072	-0.1297014
30	0x3ecd1bdb	0.40060315
31	0x3e8f8a5f	0.28035256

time_embedding.3.bias f4 [4]
0	0x3e1022d6	0.14075789
1	0x3de0dc0c	0.109794706
2	0x3ec7bfcc	0.39013517
3	0x3e9de264	0.30836785

layers.0.egnn.edge_mlp.0.weight f4 [20, 10]
0	0xbdd0b58a	-0.10190876
1	0x3dd46b5e	0.10372041
2	0xbdccc1b0	-0.099978805
3	0xbdffb083	-0.12484839
4	0xbdc572df	-0.096410505
5	0x3dc6e3e1	0.09711433
6	0xbdcafb13	-0.0991117
7	0xbe0428be	-0.12906167
8	0xbd9bd620	-0.076092005
9	0xbdc4e71b	-0.09614392
10	0xbdcf569f	-0.101239435
11	0x3dd56af9	0.10420794
12	0xbdd10a15	-0.10207001
13	0xbe05720a	-0.13031784
14	0xbdbeed92	-0.09322657
15	0x3dcb5915	0.099291004
16	0xbdc5ec3c	-0.09664199
17	0xbe04715c	-0.12933868
18	0xbd9afe5a	-0.07568045
19	0xbdc04027	-0.09387236
20	0xbdd0bed9	-0.10192651
21	0x3dd7d050	0.10537779
22	0xbdcce2a1	-0.100041635
23	0xbe034af1	-0.12821557
24	0xbdc52583	-0.096262954
25	0x3dca7755	0.09886042
26	0xbdc70f3a	-0.09719701
27	0xbe079787	-0.13241397
28	0xbda3b679	-0.07993788
29	0xbdc51a0a	-0.09624107
30	0xbdd224a1	-0.10260893
31	0x3de8062b	0.113293014
32	0xbdd0b675	-0.10191051
33	0xbe07202b	-0.13195865
34	0xbdc94ed0	-0.098294854
35	0x3dd69f2e	0.1047958
36	0xbdcc3d45	-0.09972624
37	0xbe07e985	-0.13272674
38	0xbd9f4f36	-0.0777878
39	0xbdc0a5af	-0.09406602
40	0xbdcecb95	-0.10097424
41	0x3dd37867	0.10325699
42	0xbdd18c17	-0.10231798
43	0xbe046de3	-0.12932543
44	0xbdc5ef94	-0.096648365
45	0x3dc834ac	0.09775671
46	0xbdc788c6	-0.09742884
47	0xbe03dd6a	-0.12877432
48	0xbd9f2223	-0.07770183
49	0xbdc51bdc	-0.096244544
50	0x3da0c190	0.07849419
51	0xbda5cca7	-0.08095675
52	0x3dacc653	0.08436265
53	0x3dc7d273	0.09756937
54	0x3d9c2c55	0.07625643
55	0xbd94ef73	-0.07272234
56	0x3da92c4a	0.082604006
57	0x3dd180bb	0.102296315
58	0x3d86a21c	0.06573889
59	0x3dbc03bd	0.091804005
60	0x3daba627	0.083813004
61	0xbdb04923	-0.086077
62	0x3daefe31	0.08544577
63	0x3dcea639	0.10090298
64	0x3d9cd912	0.076585904
65	0xbd9bc869	-0.076065846
66	0x3dac4dc5	0.08413271
67	0x3dd37284	0.103245765
68	0x3d89cb3a	0.067282155
69	0x3dc13d7b	0.094355546
70	0x3dad712d	0.08468852
71	0xbdb72ab6	-0.08943693
72	0x3dad97bf	0.08476209
73	0x3dce6e6a	0.100796536
74	0x3da0d08d	0.07852278
75	0xbda298fb	-0.07939335
76	0x3dab6ea1	0.0837071
77	0x3dd07a02	0.10179521
78	0x3d8b45c1	0.06800414
79	0x3dbde8b3	0.092728995
80	0x3da15e1e	0.078792796
81	0xbda86b89	-0.08223636
82	0x3dad2e3c	0.08456084
83	0x3dce0de2	0.10061242
84	0x3d9b7821	0.07591272
85	0xbd9247cd	-0.07142601
86	0x3da81dae	0.08208786
87	0x3dd16af1	0.102254756
88	0x3d8c1397	0.06839674
89	0x3db8793f	0.09007501
90	0x3dac4668	0.084118664
91	0xbda76705	-0.08173946
92	0x3dac1b6c	0.08403668
93	0x3dcbf723	0.09959247
94	0x3da0121d	0.07815955
95	0xbd98ebfa	-0.07466884
96	0x3dafac5c	0.08577797
97	0x3dcf18dd	0.10112164
98	0x3d885a83	0.06657889
99	0x3dbc693d	0.0919976
100	0xbdd1bf5a	-0.102415755
101	0x3dd79929	0.1052726
102	0xbdce51a9	-0.10074169
103	0xbe04163e	-0.1289911
104	0xbdc5276a	-0.09626658
105	0x3dca5685	0.098797835
106	0xbdc6bb20	-0.0970366
107	0xbe040dc1	-0.12895872
108	0xbd9fe669	-0.07807619
109	0xbdc1269b	-0.094311915
110	0x3dab3d90	0.083613515
111	0xbda76bf4	-0.08174887
112	0x3dadc6d7	0.08485191
113	0x3dcb03be	0.09912823
114	0x3d9bb748	0.076033175
115	0xbd96fc8c	-0.07372388
116	0x3dae43b0	0.08509004
117	0x3dd371c7	0.10324436
118	0x3d8791de	0.06619619
119	0x3dbb58da	0.091478065
120	0xbdce4ee4	-0.10073641
121	0x3dd17aab	0.10228475
122	0xbdcee1d1	-0.10101665
123	0xbe03a3b9	-0.12855424
124	0xbdbe4893	-0.09291186
125	0x3dc8f6e5	0.098127164
126	0xbdc61ad2	-0.09673084
127	0xbe053238	-0.13007438
128	0xbd9e9b28	-0.077444375
129	0xbdc34331	-0.095343
130	0x3dab622c	0.08368334
131	0xbdaf16c9	-0.08549268
132	0x3db522b0	0.08844507
133	0x3dcc81be	0.09985684
134	0x3da16cf8	0.07882112
135	0xbda0b2e8	-0.07846624
136	0x3da9cc65	0.08290938
137	0x3dd2f44e	0.10300504
138	0x3d8abc67	0.06774216
139	0x3dbedcd1	0.09319461
140	0xbdd6e498	-0.104928195
141	0x3de818a6	0.11332826
142	0xbdd44e1d	-0.103664614
143	0xbe0700ef	-0.1318395
144	0xbdc84a24	-0.09779766
145	0x3dd8d074	0.10586634
146	0xbdca7d68	-0.098872006
147	0xbe09d31b	-0.13459437
148	0xbda07423	-0.07834651
149	0xbdc184b3	-0.094491385
150	0xbdd0e4eb	-0.10199913
151	0x3dd03ece	0.10168229
152	0xbdd49eb0	-0.1038183
153	0xbe069c32	-0.13145521
154	0xbdc377d8	-0.09544343
155	0x3dcb165f	0.09916376
156	0xbdc8f36d	-0.09812055
157	0xbe04a9b3	-0.1295536
158	0xbd9f1b85	-0.07768921
159	0xbdc67429	-0.096901245
160	0xbdd9f1be	-0.10641812
161	0x3deec659	0.116589256
162	0xbdd5bb4f	-0.10436117
163	0xbe0ac91c	-0.1355328
164	0xbdc68576	-0.096934244
165	0x3dda7545	0.10666899
166	0xbdc81d2e	-0.097711906
167	0xbe077a2d	-0.132302
168	0xbda2e0d4	-0.07953039
169	0xbdc2fccc	-0.095208734
170	0xbdde3c3e	-0.10851334
171	0x3df1126e	0.11771093
172	0xbdda3453	-0.10654511
173	0xbe0ac108	-0.13550198
174	0xbdcc371e	-0.0997145
175	0x3ddd3d06	0.10802655
176	0xbdcc8714	-0.099867016
177	0xbe077388	-0.13227665
178	0xbda200f5	-0.07910339
179	0xbdc1bdf4	-0.09460059
180	0xbdcfc4fe	-0.10144995
181	0x3dd76c02	0.10518648
182	0xbdd13731	-0.10215605
183	0xbe06b338	-0.13154304
184	0xbdc3bbdc	-0.09557316
185	0x3dcb0a0a	0.09914024
186	0xbdced250	-0.10098708
187	0xbe0349b3	-0.12821083
188	0xbd9c3c67	-0.07628708
189	0xbdbeb734	-0.09312287
190	0x3db07ab2	0.08617152
191	0xbdb3914b	-0.08767947
192	0x3db5729c	0.08859751
193	0x3dcb4559	0.099253364
194	0x3da2dfef	0.07952868
195	0xbda4aea7	-0.08041125
196	0x3db04975	0.08607761
197	0x3dd21a23	0.102588914
198	0x3d8d2f93	0.0689384
199	0x3dbdca90	0.09267151

layers.0.egnn.edge_mlp.0.bias f4 [20]
0	0xbe18a50a	-0.14906707
1	0xbe794db1	-0.24346043
2	0xbe290337	-0.16505133
3	0xbeb9404c	-0.36181867
4	0xbe4fb53e	-0.20283982
5	0x3ec47864	0.383731
6	0x3e8d8e80	0.2764778
7	0x3e114c61	0.14189292
8	0x3ec8f457	0.39248917
9	0x3e73892c	0.23782796
10	0xbe760a83	-0.24027447
11	0x3ea2af32	0.31774288
12	0xbe1f5359	-0.15559138
13	0x3e3eb44b	0.18623464
14	0xbead530d	-0.33852425
15	0xbe323c51	-0.17405821
16	0xbea5d642	-0.32390028
17	0xbec06f15	-0.3758475
18	0xbe799ac7	-0.24375449
19	0x3e2a1e62	0.16613153

layers.0.egnn.edge_mlp.3.weight f4 [16, 20]
0	0xbda6e943	-0.0814996
1	0xbd987bbe	-0.07445477
2	0xbd9d00d1	-0.07666171
3	0xbd967f7c	-0.073485345
4	0xbda1ce8b	-0.07900723
5	0x3d8cb28a	0.06869991
6	0x3d912819	0.07087726
7	0x3d9a9093	0.075471066
8	0x3d8a026a	0.06738742
9	0x3d8cd6d9	0.068769164
10	0xbd9cd92e	-0.07658611
11	0x3d8a68bf	0.0675826
12	0xbda2b977	-0.07945531
13	0x3d9739d2	0.07384075
14	0xbd9a260c	-0.07526788
15	0xbd9f6e78	-0.07784742
16	0xbd96a13d	-0.073549725
17	0xbd961b42	-0.07329418
18	0xbd99e002	-0.07513429
19	0x3d943fb7	0.07238715
20	0x3d9256d5	0.07145468
21	0x3d8936a4	0.06699875
22	0x3d8ed596	0.06974332
23	0x3d7b6802	0.061378486
24	0x3d88ac80	0.06673527
25	0xbd8eab36	-0.0696625
26	0xbd98a148	-0.07452637
27	0xbda9cea7	-0.08291369
28	0xbd8da0dc	-0.06915447
29	0xbd9ddf49	-0.07708604
30	0x3d83a307	0.064275794
31	0xbd92aa30	-0.07161367
32	0x3d933c6d	0.0718926
33	0xbda0ca39	-0.07851071
34	0x3d71d038	0.059036463
35	0x3d886cb5	0.06661359
36	0x3d7c86d1	0.06165201
37	0x3d6beb05	0.05759718
38	0x3d837cee	0.06420313
39	0xbda1f792	-0.079085484
40	0x3da184be	0.07886647
41	0x3d92a53a	0.07160421
42	0x3d9d08bf	0.07667684
43	0x3d8b28ff	0.06794929
44	0x3d975269	0.07388765
45	0xbd9cba8f	-0.07652771
46	0xbd9da5bc	-0.07697627
47	0xbdb124aa	-0.08649571
48	0xbd9afdb4	-0.07567921
49	0xbda56454	-0.08075777
50	0x3d92a666	0.07160644
51	0xbd9fc2b1	-0.07800806
52	0x3d9c876d	0.07643018
53	0xbda95c64	-0.08269575
54	0x3d8e596b	0.06950649
55	0x3d98890b	0.07448014
56	0x3d898666	0.067150876
57	0x3d86f823	0.06590297
58	0x3d930b42	0.07179882
59	0xbdadb991	-0.084826596
60	0x3d99d8d1	0.075120576
61	0x3d8b6dc5	0.06808046
62	0x3d92c65c	0.0716674
63	0x3d7a4457	0.06110033
64	0x3d8d1dbc	0.06890437
65	0xbd903efa	-0.07043262
66	0xbd994c64	-0.074852735
67	0xbdab904b	-0.08377131
68	0xbd8b304f	-0.067963235
69	0xbd9e2715	-0.07722298
70	0x3d8540c9	0.065064974
71	0xbd93af66	-0.07211189
72	0x3d982fd6	0.07430999
73	0xbda34ab4	-0.07973233
74	0x3d7ac6cf	0.061224755
75	0x3d9031ad	0.07040725
76	0x3d8126af	0.063062064
77	0x3d76639e	0.060153596
78	0x3d8888b5	0.066667
79	0xbda4d21a	-0.08047886
80	0x3d9a3c99	0.07531089
81	0x3d8cfc71	0.06884087
82	0x3d91394f	0.07091009
83	0x3d8023c1	0.062568195
84	0x3d8f5fbf	0.07000684
85	0xbd954d48	-0.07290131
86	0xbd970ef3	-0.07375898
87	0xbdad327f	-0.08456897
88	0xbd90f5eb	-0.07078155
89	0xbda0fbc5	-0.07860521
90	0x3d908f94	0.07058635
91	0xbd97342a	-0.073829964
92	0x3d94e896	0.07270925
93	0xbda3abae	-0.0799173
94	0x3d7d099f	0.061776754
95	0x3d9487ef	0.0725249
96	0x3d837532	0.064188376
97	0x3d7cfce9	0.06176463
98	0x3d88ae41	0.06673861
99	0xbda3120b	-0.07962426
100	0x3d9c63da	0.07636233
101	0x3d8caf33	0.06869354
102	0x3d95e565	0.07319144
103	0x3d83b3d8	0.06430787
104	0x3d9071d7	0.07052963
105	0xbd94304c	-0.072357744
106	0xbd9c2b92	-0.07625498
107	0xbdaa0a56	-0.08302753
108	0xbd919da8	-0.07110149
109	0xbda1cb50	-0.07900107
110	0x3d8ee105	0.06976513
111	0xbd9a7443	-0.075417064
112	0x3d9b20c8	0.07574612
113	0xbdaa3d1e	-0.083124384
114	0x3d849e41	0.06475497
115	0x3d99fd33	0.07518997
116	0x3d888b8e	0.06667243
117	0x3d84155b	0.06449386
118	0x3d8b25f0	0.067943454
119	0xbda905dd	-0.082530715
120	0xbdaa5a0a	-0.08317955
121	0xbda4421d	-0.080204226
122	0xbda5e24d	-0.08099804
123	0xbd9a2aee	-0.075277194
124	0xbda57bb0	-0.08080232
125	0x3d924567	0.07142144
126	0x3d956bc6	0.07295947
127	0x3d9f00ec	0.07763848
128	0x3d92544b	0.07144984
129	0x3d91f24d	0.07126293
130	0xbda03351	-0.07822288
131	0x3d972e22	0.07381846
132	0xbdabbbed	-0.083854534
133	0x3d9a8b71	0.075461276
134	0xbd9e6813	-0.07734694
135	0xbda5bd64	-0.08092764
136	0xbd9f543e	-0.0777974
137	0xbd9c825c	-0.076420516
138	0xbda59eb6	-0.08086912
139	0x3d99826c	0.07495579
140	0xbda790b9	-0.081819005
141	0xbd9941d1	-0.074832566
142	0xbda3933a	-0.079870656
143	0xbd970e56	-0.07375781
144	0xbda353bd	-0.07974956
145	0x3d8feb3f	0.070272915
146	0x3d93907c	0.072052926
147	0x3d9a6980	0.07539654
148	0x3d89fbf8	0.06737512
149	0x3d937dcb	0.072017275
150	0xbd9d6e89	-0.076870985
151	0x3d8e25c7	0.06940799
152	0xbda5993a	-0.08085866
153	0x3d98dfe1	0.074645765
154	0xbd95ee22	-0.07320811
155	0xbda4616e	-0.08026396
156	0xbd989a81	-0.07451344
157	0xbd996a8d	-0.07491026
158	0xbd9f9b2d	-0.07793269
159	0x3d97fc59	0.07421178
160	0xbda6d04e	-0.081452
161	0xbd9e595d	-0.077318884
162	0xbda4c455	-0.0804526
163	0xbd9b69dc	-0.075885504
164	0xbd9e8920	-0.07740998
165	0x3d8e0096	0.069337055
166	0x3d91010f	0.0708028
167	0x3d967195	0.07345883
168	0x3d8df48d	0.0693141
169	0x3d9271c2	0.07150604
170	0xbd9ac08b	-0.07556256
171	0x3d90090f	0.07032978
172	0xbda55921	-0.080736406
173	0x3d96fb04	0.07372096
174	0xbd9aa01a	-0.07550068
175	0xbda4d568	-0.080485165
176	0xbd9d81a7	-0.07690745
177	0xbd96e941	-0.073687084
178	0xbd9d7e02	-0.0769005
179	0x3d97dd64	0.07415274
180	0xbda23abd	-0.0792136
181	0xbd9b2c36	-0.07576792
182	0xbda107a6	-0.07862787
183	0xbd95a9f7	-0.07307809
184	0xbd9c93f3	-0.076454066
185	0x3d8ec849	0.06971795
186	0x3d8cd324	0.068762094
187	0x3d95ff7c	0.073241204
188	0x3d8cea52	0.068806306
189	0x3d96c197	0.07361143
190	0xbd9b26a9	-0.07575733
191	0x3d9090a5	0.07058839
192	0xbda72ef5	-0.08163253
193	0x3d96c8ea	0.0736254
194	0xbd93d443	-0.0721822
195	0xbd9e4fd3	-0.07730069
196	0xbd951d55	-0.07280985
197	0xbd933e11	-0.071895726
198	0xbd9a596d	-0.07536588
199	0x3d9681bf	0.07348966
200	0x3d9aa26c	0.07550511
201	0x3d90ac52	0.070641175
202	0x3d9791c9	0.07400853
203	0x3d84e041	0.064880855
204	0x3d93ec61	0.0722282
205	0xbd959e3b	-0.07305571
206	0xbd9a7dc2	-0.07543518
207	0xbdaa94b6	-0.083291456
208	0xbd9562ed	-0.07294259
209	0xbd9beb75	-0.07613269
210	0x3d8dfa2a	0.06932481
211	0xbd9b4508	-0.07581526
212	0x3d9a22a8	0.075261414
213	0xbda67a62	-0.081288114
214	0x3d861eb4	0.06548825
215	0x3d96d3e2	0.07364632
216	0x3d834365	0.06409339
217	0x3d84fbf0	0.06493366
218	0x3d8d4408	0.068977416
219	0xbda55045	-0.08071951
220	0xbdad765a	-0.084698394
221	0xbda2ddd1	-0.07952464
222	0xbdabfd20	-0.08397889
223	0xbd9eb281	-0.07748891
224	0xbda6ffb0	-0.08154237
225	0x3d91b64b	0.07114848
226	0x3d99ce01	0.07509995
227	0x3da18077	0.07885831
228	0x3d9417b0	0.072310805
229	0x3d9d8593	0.07691493
230	0xbda9cbe0	-0.08290839
231	0x3d949b69	0.07256205
232	0xbda8fd24	-0.08251408
233	0x3d9c5ed2	0.07635273
234	0xbda06219	-0.07831211
235	0xbda82190	-0.082095265
236	0xbd9fa833	-0.07795753
237	0xbd9ee635	-0.07758752
238	0xbda63ebc	-0.081174344
239	0x3d9d7a91	0.07689393
240	0x3d9946ca	0.07484205
241	0x3d89da8a	0.06731136
242	0x3d92f374	0.07175341
243	0x3d80d61e	0.062908396
244	0x3d8dcbd2	0.06923641
245	0xbd92b728	-0.071638405
246	0xbd9550bb	-0.07290789
247	0xbdae32bd	-0.08505771
248	0xbd928c23	-0.07155635
249	0xbd9aa1f8	-0.07550424
250	0x3d89e952	0.067339554
251	0xbd99f268	-0.075169384
252	0x3d938379	0.07202811
253	0xbd9ff7f2	-0.07810964
254	0x3d813072	0.06308068
255	0x3d95cb4d	0.07314167

layers.0.egnn.edge_mlp.3.bias f4 [16]
0	0x3e74e6f0	0.2391622
1	0xbe8b3a32	-0.27192837
2	0xbdafabe7	-0.0857771
3	0xbe70bc10	-0.2350924
4	0xbe2841fc	-0.16431421
5	0xbe1e90cf	-0.15484928
6	0x3e118b11	0.14213206
7	0x3e649499	0.2232231
8	0x3e51c91a	0.2048687
9	0x3e8bc4e1	0.27298644
10	0xbe095db7	-0.13414656
11	0x3da7400e	0.08166514
12	0xbe449c87	-0.19200335
13	0x3e74b71f	0.2389798
14	0xbe250278	-0.16114223
15	0x3e7f6dc4	0.24944216

layers.0.egnn.node_mlp.0.weight f4 [8, 20]
0	0xbb0b6453	-0.0021269515
1	0x3a4b10ff	0.0007746368
2	0x3b033209	0.0020018837
3	0xbab20f45	-0.0013584873
4	0xb8f938a4	-0.000118837954
5	0x3833fdb5	4.291321e-05
6	0x39d44ba9	0.00040492162
7	0xb8bb41f9	-8.929143e-05
8	0x39c790ef	0.00038064222
9	0xb9ecccd0	-0.00045166025
10	0x3a082609	0.0005193656
11	0xb9b02191	-0.00033594345
12	0xba3a82b5	-0.0007114814
13	0x3a85705c	0.001018058
14	0xb9eac6ad	-0.00044779983
15	0xba747406	-0.000932515
16	0x3b042115	0.002016132
17	0x3a2d87bc	0.0006619652
18	0xba9037b2	-0.0011002927
19	0xba909634	-0.0011031092
20	0x38fd3fff	0.000120759
21	0xba2adc93	-0.00065178535
22	0xbab358eb	-0.0013683116
23	0x3a9f8c04	0.0012172465
24	0x388d1b20	6.728456e-05
25	0x388f71d0	6.8399706e-05
26	0x39d44f23	0.00040494752
27	0x3aadcf0b	0.0013260556
28	0x3a8c2f02	0.0010695162
29	0xb8dd4c73	-0.00010552341
30	0xb97cdd30	-0.00024114992
31	0xba798f5f	-0.000951996
32	0x3a0cf848	0.0005377573
33	0xba164dd9	-0.0005733646
34	0x3aa78318	0.0012780158
35	0x3a7d7f6a	0.000967017
36	0xba238b1c	-0.00062386855
37	0x3984ffec	0.0002536768
38	0xba657081	-0.0008752421
39	0xb9e6b765	-0.00044005658
40	0x3980db59	0.0002457749
41	0xba1e70f0	-0.00060440507
42	0x3a7768c4	0.00094379135
43	0xb9845742	-0.00025242014
44	0x3956c0eb	0.00020480498
45	0xb98a2cd0	-0.000263548
46	0xbaf2139b	-0.0018468978
47	0x3a199cc7	0.00058598485
48	0xba8ba358	-0.0010653539
49	0xb8bb18d6	-8.921481e-05
50	0xba525b90	-0.0008024508
51	0xb8ea1634	-0.00011162125
52	0x3aab2cea	0.001305965
53	0xba0cc798	-0.0005370318
54	0xbad2c79f	-0.001608122
55	0x37a8cd6d	2.012282e-05
56	0xb7412dd7	-1.1514369e-05
57	0xba6bd29c	-0.0008995922
58	0xb9ed55ee	-0.00045268185
59	0xba99b710	-0.001172753
60	0xb8484591	-4.7748505e-05
61	0xba39f011	-0.00070929626
62	0xb925830c	-0.00015784445
63	0x3a8539d6	0.0010164331
64	0x39d5cc0d	0.00040778556
65	0x3a3b27da	0.0007139422
66	0x3a9b6ef7	0.0011858632
67	0x398f77b7	0.0002736428
68	0xbac02ab1	-0.001466116
69	0x3a9f5c6a	0.0012158279
70	0xb99b0c38	-0.00029573007
71	0x3b3451b3	0.0027514517
72	0xbad3b249	-0.0016151156
73	0xba0179df	-0.00049391197
74	0xbaa867de	-0.0012848338
75	0xb9385470	-0.00017579063
76	0x3abf37d3	0.001458878
77	0x3964d91f	0.00021824658
78	0xbaa21437	-0.0012365644
79	0xba23cb09	-0.0006248211
80	0xba8d2e01	-0.0010771157
81	0x3a215520	0.0006154347
82	0x3a5439f3	0.00080957933
83	0x3ad10960	0.0015948229
84	0x3a167964	0.00057401345
85	0xb9444252	-0.00018716723
86	0x3a822cde	0.0009931584
87	0xba538a8e	-0.00080696575
88	0xba034061	-0.00050068466
89	0x3a45fa15	0.0007552219
90	0xb9f94589	-0.0004754479
91	0xba6eb14e	-0.00091054
92	0xba03ef07	-0.0005032871
93	0xb97319ab	-0.00023183848
94	0xbb1c38e6	-0.0023837625
95	0xba2c385e	-0.00065696787
96	0xba984d96	-0.0011619802
97	0xba9806d3	-0.0011598713
98	0x390eff2b	0.00013637233
99	0x392681d2	0.00015879355
100	0xb9b631a4	-0.0003475073
101	0xb89c5898	-7.4551615e-05
102	0x3a2154c5	0.0006154294
103	0x395fb263	0.00021333391
104	0xb912ff39	-0.00014018723
105	0x3a4f6402	0.00079113257
106	0xb8a7d74a	-8.003281e-05
107	0x3a06bcfe	0.00051398564
108	0xba7cae68	-0.00096390257
109	0xb9ab9e9b	-0.00032733832
110	0x39dc4acd	0.000420174
111	0xb928a41d	-0.00016082865
112	0x39b350b5	0.00034201672
113	0xbb0044aa	-0.0019572177
114	0x3998b3e5	0.0002912573
115	0xb9164950	-0.00014332426
116	0x38411d2f	4.6041965e-05
117	0xbb1c705c	-0.0023870682
118	0x3a83ca9a	0.0010054887
119	0xba702f8b	-0.0009162358
120	0x3938bc64	0.00017617788
121	0x3b021a7f	0.0019852219
122	0x387b2e17	5.9885988e-05
123	0x3a5ef338	0.00085048703
124	0x3b03fac5	0.0020138484
125	0x3ac719ff	0.0015190243
126	0xba347f2e	-0.00068854063
127	0x3ac87d7c	0.0015296186
128	0xbac6bd2a	-0.0015162576
129	0xb96e77d3	-0.00022742087
130	0xba0230a1	-0.0004966353
131	0xbaa37311	-0.0012470206
132	0xb9dece3e	-0.00042496802
133	0xb9ac7ba8	-0.00032898528
134	0x3a8ec044	0.001089104
135	0xbaaba990	-0.0013096798
136	0xb9e3371c	-0.00043337874
137	0xbab2a455	-0.0013629297
138	0xb9ba3b3f	-0.00035520826
139	0x394c76d8	0.00019499229
140	0xbac290e3	-0.0014844205
141	0xb96d008f	-0.0002260229
142	0x3b2be166	0.0026226877
143	0x3a248bd0	0.0006276937
144	0x39bfa30c	0.00036551838
145	0xb82e8aa5	-4.1613956e-05
146	0xbb6041f9	-0.003421901
147	0x3a27ddd8	0.0006403602
148	0x3a61338b	0.00085907493
149	0x3b10e2df	0.0022107882
150	0xba954fe1	-0.0011391604
151	0x3915e93d	0.00014296635
152	0xba49987f	-0.0007690265
153	0x3a459006	0.0007536415
154	0xb988a6c9	-0.00026064206
155	0x3a833991	0.0010011663
156	0x3a887c26	0.0010412976
157	0x3ab5d5d2	0.0013872928
158	0xb9e3d244	-0.00043453474
159	0x399a1ec1	0.00029396082

layers.0.egnn.node_mlp.0.bias f4 [8]
0	0xbdc06403	-0.09394076
1	0x3e36c40a	0.1784822
2	0xba932946	-0.001122751
3	0xbcb68912	-0.022282157
4	0x3d98a970	0.07454193
5	0xbdf8c851	-0.12147582
6	0xbdb8241a	-0.08991261
7	0xbd4a8d77	-0.049451318

layers.0.egnn.node_mlp.3.weight f4 [4, 8]
0	0xbb064bf8	-0.0020492058
1	0x3a62c558	0.00086506223
2	0xba6a66b1	-0.0008941694
3	0x3a4a91fd	0.00077274424
4	0x38d4cc99	0.00010147057
5	0xbaae8d27	-0.0013317213
6	0x3a020967	0.00049605075
7	0x37813ec1	1.540722e-05
8	0x3ae5f2e0	0.0017543696
9	0xbaab5c49	-0.0013073768
10	0xba95d5de	-0.0011431535
11	0xbab176cd	-0.0013539434
12	0xba638fb5	-0.0008680777
13	0xbab369ef	-0.0013688187
14	0x39d22ce7	0.00040087776
15	0xba13dc34	-0.0005640418
16	0x39d491b4	0.00040544348
17	0x3abc37f6	0.0014359939
18	0xb99175bc	-0.00027744274
19	0xbaa3fc95	-0.0012511188
20	0x39b95872	0.00035351847
21	0xba2e4b78	-0.0006648819
22	0x3ac8466c	0.0015279776
23	0x3a91eb47	0.001113274
24	0xb971dd92	-0.00023066092
25	0xb9c0cf03	-0.0003677533
26	0x3a8fa076	0.0010957855
27	0x3aae7817	0.0013310936
28	0x3a09f562	0.00052627
29	0x3b06a26a	0.0020543584
30	0xbabc65b7	-0.0014373575
31	0xbaad692f	-0.00132302

layers.0.egnn.node_mlp.3.bias f4 [4]
0	0xbd815bc1	-0.06316329
1	0x3da5c6fb	0.08094593
2	0x3ea6f7e0	0.3261099
3	0x3e175218	0.1477741

layers.0.egnn.coors_mlp.0.weight f4 [64, 16]
0	0x3d3c4496	0.045963846
1	0xbd2934b5	-0.04131003
2	0xbd71bbee	-0.059017114
3	0xbd2c87f3	-0.04212184
4	0xbd4842f7	-0.048891988
5	0xbd44fdcb	-0.0480936
6	0x3d635fd7	0.055511322
7	0x3d45405d	0.048157085
8	0x3d504333	0.050845336
9	0x3d39e14e	0.045380883
10	0xbd5591d2	-0.05214102
11	0x3d8ac9b8	0.06776756
12	0xbd37e692	-0.044897623
13	0x3d44bc8b	0.04803137
14	0xbd453f84	-0.048156276
15	0x3d3ce2ac	0.04611461
16	0xbd28aa1e	-0.04117786
17	0x3d0abf17	0.033873644
18	0x3d5f243a	0.054477908
19	0x3d1267f0	0.035743654
20	0x3d2b803e	0.04187035
21	0x3d2b70e5	0.04185571
22	0xbd5232cd	-0.05131798
23	0xbd3203fc	-0.04346083
24	0xbd39a263	-0.04532088
25	0xbd28d513	-0.04121883
26	0x3d317ba9	0.043330822
27	0xbd8a01f2	-0.06738652
28	0x3d1b47da	0.03791032
29	0xbd283a76	-0.041071378
30	0x3d2b5e50	0.04183799
31	0xbd27aadc	-0.04093443
32	0x3d3c0907	0.045907047
33	0xbd221572	-0.039571233
34	0xbd7ef8d1	-0.06224901
35	0xbd326601	-0.04355431
36	0xbd45e59f	-0.048314687
37	0xbd4d3754	-0.050101593
38	0x3d6540d8	0.055970043
39	0x3d450e48	0.048109323
40	0x3d48fe7e	0.049070828
41	0x3d3814b4	0.04494162
42	0xbd55e4b1	-0.05222005
43	0x3d8e8f15	0.069608845
44	0xbd3c205e	-0.045929305
45	0x3d3a8f78	0.04554698
46	0xbd488d68	-0.04896298
47	0x3d3a5f33	0.045500945
48	0x3d6ca145	0.057770986
49	0xbd5c8a1e	-0.053842656
50	0xbd94925b	-0.072544776
51	0xbd6edea3	-0.05831779
52	0xbd78a510	-0.06070429
53	0xbd74f599	-0.059804533
54	0x3d82ed04	0.063928634
55	0x3d738da2	0.059461243
56	0x3d7064e9	0.058689985
57	0x3d64cbbb	0.055858355
58	0xbd810402	-0.062995926
59	0x3d9a04e9	0.07520468
60	0xbd666d99	-0.056256864
61	0x3d69c90b	0.057076495
62	0xbd77fced	-0.060543943
63	0x3d706158	0.058686584
64	0x3d52fce9	0.051510725
65	0xbd3b9d7e	-0.045804493
66	0xbd820698	-0.06348914
67	0xbd418f18	-0.047255605
68	0xbd599682	-0.05312205
69	0xbd583ccf	-0.052792367
70	0x3d76f0fb	0.06028841
71	0x3d577d31	0.052609626
72	0x3d54b801	0.051933292
73	0x3d48f17e	0.04905843
74	0xbd67d62b	-0.05660073
75	0x3d8f9afc	0.07011983
76	0xbd4c93e7	-0.04994574
77	0x3d52264e	0.05130606
78	0xbd5639ec	-0.052301332
79	0x3d5459c2	0.051843412
80	0xbd2ba782	-0.041907795
81	0x3d0cfa5c	0.03441845
82	0x3d5d924e	0.054094605
83	0x3d1710d0	0.036881268
84	0x3d2dcba5	0.04243054
85	0x3d2ffbd4	0.04296477
86	0xbd5bd7f3	-0.053672742
87	0xbd342f5c	-0.043990478
88	0xbd380846	-0.044929765
89	0xbd2ed244	-0.042680994
90	0x3d30a143	0.04312254
91	0xbd8d2c29	-0.068931885
92	0x3d24a679	0.040197823
93	0xbd2a8bdc	-0.041637287
94	0x3d272ccf	0.040814217
95	0xbd2a06cf	-0.0415104
96	0x3d2da3ea	0.04239265
97	0xbd1ba1fa	-0.03799627
98	0xbd65e0be	-0.056122534
99	0xbd20bb0b	-0.039240878
100	0xbd303f62	-0.043029197
101	0xbd38c4c1	-0.045109514
102	0x3d5d14d7	0.053974953
103	0x3d345741	0.044028524
104	0x3d344b14	0.044016913
105	0x3d3269a6	0.043557785
106	0xbd429ec7	-0.047514703
107	0x3d8ba057	0.06817692
108	0xbd20bea1	-0.039244298
109	0x3d2e545e	0.042560928
110	0xbd391247	-0.045183446
111	0x3d2ad5d7	0.04170784
112	0xbd55dcda	-0.052212574
113	0x3d2ac873	0.04169507
114	0x3d7cb535	0.06169625
115	0x3d3aa164	0.04556407
116	0x3d4f3700	0.05058956
117	0x3d4a6aec	0.049418375
118	0xbd8240d0	-0.06360018
119	0xbd576500	-0.052586555
120	0xbd660ec3	-0.05616642
121	0xbd4ede4e	-0.050504975
122	0x3d5e776a	0.0543131
123	0xbd99f8d3	-0.075181626
124	0x3d460bd1	0.048351113
125	0xbd596076	-0.053070508
126	0x3d50f373	0.05101342
127	0xbd532f5a	-0.05155883
128	0x3d3583ba	0.044315077
129	0xbd1755d7	-0.036947098
130	0xbd689f1f	-0.056792375
131	0xbd225442	-0.039631136
132	0xbd33c214	-0.04388626
133	0xbd3e2df0	-0.04643053
134	0x3d523ee5	0.051329512
135	0x3d381291	0.04493958
136	0x3d3cf50d	0.046132136
137	0x3d2d8739	0.042365286
138	0xbd3a2b27	-0.04545131
139	0x3d86baa1	0.065785654
140	0xbd303a48	-0.04302433
141	0x3d339074	0.043838933
142	0xbd335ce2	-0.04378975
143	0x3d2d78f1	0.042351667
144	0x3d3d1e06	0.04617121
145	0xbd31ae84	-0.04337932
146	0xbd7debbc	-0.061992392
147	0xbd320f4d	-0.043471623
148	0xbd40f47b	-0.047108155
149	0xbd4517ea	-0.04811851
150	0x3d6483f1	0.05578989
151	0x3d4946b9	0.049139712
152	0x3d46a5bf	0.04849791
153	0x3d3709fa	0.04468725
154	0xbd555b7e	-0.052089207
155	0x3d8ca943	0.068682216
156	0xbd3c7714	-0.046012
157	0x3d453561	0.04814661
158	0xbd44a1c5	-0.048005838
159	0x3d3f682d	0.04673021
160	0x3d4cf18b	0.05003504
161	0xbd381e84	-0.044950977
162	0xbd81e5d8	-0.06342667
163	0xbd350541	-0.044194464
164	0xbd4fb47e	-0.05070924
165	0xbd5775e7	-0.052602675
166	0x3d6ebea4	0.058287278
167	0x3d4d7527	0.050160553
168	0x3d4cd812	0.05001075
169	0x3d454222	0.048158772
170	0xbd620ab1	-0.055185977
171	0x3d8ce71c	0.06880018
172	0xbd3fb39c	-0.04680215
173	0x3d4b90e6	0.049698733
174	0xbd482ef5	-0.048872907
175	0x3d479192	0.04872281
176	0x3d3314bc	0.043720946
177	0xbd1d37ca	-0.038383283
178	0xbd6cd688	-0.05782178
179	0xbd247074	-0.040146306
180	0xbd331cc0	-0.04372859
181	0xbd3af381	-0.04564238
182	0x3d521a63	0.051294696
183	0x3d3c6fd5	0.04600509
184	0x3d4322a4	0.047640458
185	0x3d29199d	0.041284192
186	0xbd4858d6	-0.048912846
187	0x3d89b8dd	0.06724713
188	0xbd363222	-0.044481404
189	0x3d3dbec9	0.046324525
190	0xbd31a9b3	-0.04337473
191	0x3d3300f5	0.043702085
192	0x3d46420e	0.04840284
193	0xbd3c9b6e	-0.046046667
194	0xbd82e9fa	-0.06392284
195	0xbd3b258f	-0.045690116
196	0xbd5739da	-0.052545406
197	0xbd51c9cc	-0.05121784
198	0x3d6749eb	0.056466978
199	0x3d531965	0.05153789
200	0x3d4f764a	0.05064992
201	0x3d499373	0.049212884
202	0xbd5ecf50	-0.054396927
203	0x3d8e42a5	0.06946305
204	0xbd4663df	-0.04843509
205	0x3d4cd70d	0.050009776
206	0xbd4e71c5	-0.050401468
207	0x3d43441c	0.047672376
208	0x3d6174ed	0.05504315
209	0xbd55c06d	-0.052185465
210	0xbd897026	-0.06710844
211	0xbd516fd0	-0.051132023
212	0xbd6c4729	-0.05768505
213	0xbd72195c	-0.059106216
214	0x3d7d782b	0.06188218
215	0x3d628dcc	0.05531101
216	0x3d643627	0.055715706
217	0x3d5c5070	0.05378765
218	0xbd7861b0	-0.060640037
219	0x3d943d4e	0.072382554
220	0xbd5f2787	-0.054481056
221	0x3d60b8e7	0.054863837
222	0xbd687b36	-0.056758128
223	0x3d5f88c6	0.054573797
224	0xbd307418	-0.043079466
225	0x3d11d701	0.035605434
226	0x3d5d8549	0.05408219
227	0x3d19abb9	0.037517283
228	0x3d290f3f	0.041274305
229	0x3d2d852c	0.04236333
230	0xbd53f25e	-0.05174481
231	0xbd2fbd50	-0.04290515
232	0xbd357207	-0.044298198
233	0xbd28b884	-0.041191593
234	0x3d3aeb39	0.045634482
235	0xbd8bd1ea	-0.06827147
236	0x3d1e5c56	0.038662277
237	0xbd28aa4a	-0.041178025
238	0x3d29169f	0.04128134
239	0xbd276e07	-0.040876415
240	0x3d52110a	0.05128578
241	0xbd47edfc	-0.048810944
242	0xbd8d5a55	-0.06901995
243	0xbd4cefa7	-0.050033238
244	0xbd611217	-0.054948892
245	0xbd6bc795	-0.057563383
246	0x3d80fee7	0.06298619
247	0x3d6002f9	0.054690335
248	0x3d6922c2	0.056917913
249	0x3d5665c4	0.052343145
250	0xbd76a7c1	-0.060218576
251	0x3d923313	0.07138648
252	0xbd5809d9	-0.052743766
253	0x3d55ee47	0.052229192
254	0xbd69c9d8	-0.05707726
255	0x3d584a73	0.052805375

layers.0.egnn.coors_mlp.0.bias f4 [64]
0	0x3e87906e	0.2647738
1	0xbe825cd2	-0.2546144
2	0x3d7349a7	0.059396412
3	0x3d310f26	0.043227337
4	0x3dac9002	0.08425905
5	0xbe6c58cc	-0.23080748
6	0x3e77288d	0.24136563
7	0xbd6183ac	-0.055057213
8	0x3e8524cf	0.26004645
9	0x3e1253f9	0.14289846
10	0x3df18bbd	0.11794231
11	0x3e8d423e	0.275896
12	0x3ddc5b9a	0.10759659
13	0x3d82cd64	0.063868314
14	0xbe021bc8	-0.1270591
15	0x3d8552bf	0.06509923
16	0xbe82d0fb	-0.25550064
17	0x3e601709	0.21883787
18	0xbd214c2c	-0.039379284
19	0x3d282d54	0.041058853
20	0xbdd26d8d	-0.102748014
21	0x3e43c672	0.1911867
22	0x3e3332e7	0.17499886
23	0xbd3670e5	-0.04454126
24	0xbd966ae8	-0.073446095
25	0x3e08beb5	0.13353999
26	0xbd6b66cc	-0.05747108
27	0xbdb35beb	-0.08757766
28	0x3e88a3f5	0.2668759
29	0x3d81ae3d	0.063320614
30	0x3e460be6	0.19340476
31	0xbe510def	-0.20415471
32	0xbe2422f8	-0.16028965
33	0x3d9da069	0.076966114
34	0x3e838425	0.25686756
35	0xbd82bf13	-0.06384101
36	0xbde7165f	-0.11283564
37	0x3d538612	0.05164153
38	0x3e85f790	0.26165438
39	0xbe389363	-0.18024974
40	0xbd86b598	-0.06577605
41	0x3d393017	0.045211878
42	0x3e66b3b3	0.22529487
43	0x3d5b0526	0.053471707
44	0x3dee3f70	0.116331935
45	0xbe48e922	-0.19620183
46	0xbe141797	-0.14462124
47	0x3e10672e	0.1410186
48	0xbe6a474b	-0.22878759
49	0x3e6e337b	0.23261826
50	0x3e1ad32a	0.15119615
51	0xbe29d9d1	-0.16586997
52	0x3e70a935	0.23502047
53	0xbdec95eb	-0.11552032
54	0x3e79e3fb	0.24403374
55	0x3e3743ae	0.17896912
56	0xbe28da92	-0.16489628
57	0x3e081ca9	0.13292183
58	0xbe0498d9	-0.12948932
59	0x3d6ebdaf	0.058286365
60	0x3e869222	0.26283365
61	0x3de225df	0.110423796
62	0xbe32ad65	-0.17448957
63	0x3ddd62ae	0.10809837

layers.0.egnn.coors_mlp.3.weight f4 [1, 64]
0	0xbc95daa8	-0.01829274
1	0x3c9766de	0.018481668
2	0xbd0a471a	-0.033759214
3	0xbd5c2c4f	-0.053753193
4	0xbce0491e	-0.027378615
5	0x3c97711e	0.018486556
6	0xbca5ba66	-0.020230483
7	0x3d099051	0.033584896
8	0xbca1b97d	-0.019741768
9	0xbcb207af	-0.02173218
10	0xbcbb50a8	-0.022865608
11	0xbc9d9b82	-0.019239191
12	0xbcbf6a5a	-0.023366142
13	0xbd142a49	-0.03617314
14	0x3cb2217d	0.021744484
15	0xbd07c695	-0.033148367
16	0x3c8263b4	0.015916683
17	0xbc9580bb	-0.01824986
18	0x3d421183	0.04737998
19	0xbd63b4b2	-0.055592246
20	0x3cafb2d1	0.021447571
21	0xbcaa7b44	-0.02081073
22	0xbca08d8b	-0.019598743
23	0x3d3b7936	0.045769893
24	0x3cdb44e5	0.02676625
25	0xbcb7ad5a	-0.022421528
26	0x3cfd529b	0.030923178
27	0x3cc00c98	0.023443505
28	0xbc95a560	-0.018267334
29	0xbd0cd09e	-0.03437864
30	0xbca33c1d	-0.019926125
31	0x3ca36ba9	0.019948797
32	0x3ca158ba	0.019695628
33	0xbceb2194	-0.028702535
34	0xbc99556e	-0.018717494
35	0x3cf19cc9	0.029493706
36	0x3cb85a15	0.022503892
37	0xbd311df6	-0.043241464
38	0xbc9b43dd	-0.018953258
39	0x3c96c636	0.018405061
40	0x3cee4a0d	0.029088045
41	0xbd39254b	-0.04520158
42	0xbca27a9a	-0.019833852
43	0xbd2bce62	-0.04194487
44	0xbcbb19ba	-0.022839416
45	0x3c9bbc5a	0.019010711
46	0x3c9ff157	0.01952426
47	0xbcaf01ca	-0.021363158
48	0x3c8602be	0.01635873
49	0xbc9bdd57	-0.019026441
50	0xbcb29715	-0.021800557
51	0x3ca9b210	0.02071479
52	0xbc8f8b02	-0.017522339
53	0x3cae8f05	0.021308431
54	0xbca0e934	-0.01964245
55	0xbca4cf4f	-0.020118384
56	0x3c9e776c	0.019344054
57	0xbcbee993	-0.023304736
58	0x3ca98799	0.02069454
59	0xbd131de6	-0.035917185
60	0xbca130bd	-0.01967656
61	0xbcc27b07	-0.023740305
62	0x3c9f459a	0.019442368
63	0xbcc3ef58	-0.023917839

layers.0.egnn.vel_mlp.0.weight f4 [16, 4]
0	0x386c762a	5.6376834e-05
1	0x3aaa71e8	0.0013003917
2	0x38960801	7.154048e-05
3	0xba33b45c	-0.0006855184
4	0x3a81b52b	0.0009895911
5	0xbaf8a828	-0.0018971013
6	0xb98f1547	-0.00027290938
7	0xb9b0601f	-0.00033640952
8	0x3adb17be	0.001671545
9	0xb92156af	-0.00015386449
10	0x3af3cd92	0.0018600693
11	0xb99ec2cd	-0.00030281246
12	0x3aed459d	0.0018102411
13	0xba5f58df	-0.0008520018
14	0x3b04f520	0.0020287707
15	0x39f34b92	0.00046404876
16	0xba7714ec	-0.000942542
17	0x3b0b493a	0.0021253363
18	0x39d884af	0.00041297587
19	0xba5e2010	-0.00084734056
20	0x3a6c6e5f	0.0009019132
21	0xb9290b81	-0.00016121381
22	0x39a2626b	0.00030972375
23	0x3a8b6d1d	0.0010637377
24	0x3a8e0790	0.0010835994
25	0xba30d855	-0.0006746103
26	0x3ad36d0c	0.0016130521
27	0x3ad84dab	0.0016502639
28	0x3a8d37b3	0.0010774046
29	0xb8ff09a9	-0.00012161147
30	0x3b03db05	0.002011956
31	0x39056c71	0.00012724266
32	0x3a1c990b	0.0005973733
33	0xba025d4f	-0.00049730105
34	0xba2176b9	-0.00061593537
35	0xbb0ab5f9	-0.0021165593
36	0xbae99884	-0.0017821942
37	0x3b3615f9	0.0027784093
38	0xb9b71557	-0.0003492038
39	0xbb678964	-0.0035329694
40	0x3acb7b99	0.0015524506
41	0xba8e067d	-0.0010835674
42	0xba097dba	-0.000524487
43	0xb91c36bb	-0.00014897708
44	0x39995f69	0.0002925352
45	0x3a5ccfee	0.0008423318
46	0xba17a74d	-0.00057851226
47	0xba8e11b4	-0.0010839016
48	0x3a91f44a	0.0011135426
49	0xbac78022	-0.0015220682
50	0x3a2fc212	0.0006704639
51	0x3b52aa30	0.0032144897
52	0xb9dba4c4	-0.00041893695
53	0xba58f350	-0.00082760025
54	0x3ac259ae	0.0014827752
55	0x3a9fe50e	0.0012199001
56	0xb8aee563	-8.339693e-05
57	0xb9f91d79	-0.0004751494
58	0xba32df19	-0.0006823405
59	0x398b342b	0.00026551014
60	0x3a94097b	0.0011294329
61	0x39f60df5	0.00046931175
62	0x3aaa80c0	0.0013008341
63	0x3ae71138	0.0017629033

layers.0.egnn.vel_mlp.0.bias f4 [16]
0	0x3ec2c2d9	0.38039282
1	0xbedd3153	-0.43201694
2	0xbe5f6e5f	-0.21819447
3	0xbec6e936	-0.388498
4	0xbe09c24f	-0.13453029
5	0xbead2415	-0.3381659
6	0xbefd87cf	-0.49517676
7	0xbd9f09e9	-0.07765562
8	0xbedba285	-0.4289743
9	0x3cc5dfb3	0.02415452
10	0xbe04a943	-0.12955193
11	0x3e992f76	0.29919022
12	0x3e51191d	0.20419736
13	0xbdf3008a	-0.11865337
14	0x3e853a31	0.2602096
15	0x3eb2d3b6	0.34927148

layers.0.egnn.vel_mlp.3.weight f4 [1, 16]
0	0xbab78ad3	-0.0014003165
1	0x3ab71d84	0.0013970588
2	0x3a87e8c6	0.0010369055
3	0x3a0c4a2b	0.0005351628
4	0xb9d6ace1	-0.00040946066
5	0x398fb205	0.0002740772
6	0x39b6b545	0.000348488
7	0x38c28bd5	9.2766866e-05
8	0xba30a69d	-0.00067386945
9	0x3aa40985	0.0012515044
10	0x3a94df3a	0.0011358031
11	0xb940b9f7	-0.00018379824
12	0x3a7ce119	0.0009646579
13	0x39611f74	0.0002146939
14	0x390c6610	0.00013389462
15	0x3984eb83	0.00025352472

layers.1.egnn.edge_mlp.0.weight f4 [20, 10]
0	0xbc9e47dc	-0.019321375
1	0xbc4be167	-0.012443877
2	0xbd42ed7b	-0.04758976
3	0xbd98a0a2	-0.07452513
4	0xbd0290c7	-0.03187635
5	0x3afc5708	0.0019252012
6	0xbd5e87d3	-0.05432875
7	0xbda57e2f	-0.08080708
8	0xbc3747b2	-0.011186527
9	0xbdab9cf1	-0.083795436
10	0xbd0029c2	-0.031289823
11	0xbba601fb	-0.005066154
12	0xbd6a721a	-0.057237722
13	0xbdb7d68d	-0.08976469
14	0xbd376969	-0.04477826
15	0x3c2a892e	0.010408683
16	0xbd8475c2	-0.06467773
17	0xbdc453f2	-0.09586324
18	0xbc9bc6ec	-0.019015752
19	0xbdc28721	-0.0949843
20	0xbd26d53d	-0.040730704
21	0x3c0bb0d8	0.00852605
22	0xbd86fe67	-0.06591492
23	0xbdd1358e	-0.10215293
24	0xbd6035c9	-0.054738794
25	0x3cadab4f	0.02119985
26	0xbd98036a	-0.07422526
27	0xbddd9d95	-0.10821072
28	0xbcdb0474	-0.026735522
29	0xbdce4c5f	-0.100731604
30	0xbcef0006	-0.029174816
31	0xbb5996c2	-0.003320143
32	0xbd5dfcf5	-0.054196317
33	0xbdb0f3bd	-0.086402394
34	0xbd36c6c9	-0.04462317
35	0x3c1eadc6	0.0096849855
36	0xbd83b7c0	-0.06431532
37	0xbdc205ea	-0.09473784
38	0xbc973aa2	-0.018460575
39	0xbdbf3aac	-0.09337363
40	0xbb8be488	-0.0042691864
41	0x3d0f24fd	0.034947384
42	0x3cacf6fc	0.021113865
43	0x3d3ac169	0.045594607
44	0x3c12c935	0.008959104
45	0x3cd0ea9a	0.025502492
46	0x3cd2e0d7	0.025741978
47	0x3d4ac83c	0.049507365
48	0xbbc5cb62	-0.006036208
49	0x3d635d24	0.055508748
50	0xbd4a2686	-0.049353145
51	0x3c938c2d	0.018011177
52	0xbd96af76	-0.07357685
53	0xbde17662	-0.11008908
54	0xbd801bb8	-0.06255287
55	0x3d04ea20	0.03244984
56	0xbdaa5af5	-0.0831813
57	0xbdf3dc1a	-0.119072154
58	0xbd15337a	-0.036426045
59	0xbddb1d20	-0.106989145
60	0xbbcc5182	-0.0062353024
61	0x3d2683af	0.040652927
62	0x3c9703dd	0.01843446
63	0x3d36abc3	0.0445974
64	0x3b8cd309	0.0042976183
65	0x3cf6f7cd	0.030147457
66	0x3cd392c4	0.02582682
67	0x3d5aceae	0.05341976
68	0xbc1bfa90	-0.009520188
69	0x3d6706bf	0.056402918
70	0xbd4331ea	-0.047655024
71	0x3c741476	0.014897456
72	0xbd8dac29	-0.069176026
73	0xbdd7df59	-0.10540647
74	0xbd714dfb	-0.05891226
75	0x3cd93bf6	0.02651785
76	0xbd9fa055	-0.07794253
77	0xbde364d4	-0.11103216
78	0xbd038424	-0.03210844
79	0xbdd7753b	-0.10520407
80	0xbc018df8	-0.007907383
81	0x3d2dfc7b	0.042477112
82	0x3c90bb29	0.01766737
83	0x3d3e6382	0.046481617
84	0x3b464cd8	0.0030258205
85	0x3d0096e8	0.031393915
86	0x3cdc8d09	0.02692272
87	0x3d5c3b61	0.053767566
88	0xbc58ebaa	-0.01323978
89	0x3d71f48a	0.0590711
90	0xbce15753	-0.02750746
91	0xbbb3d737	-0.005488302
92	0xbd54a0c3	-0.051911127
93	0xbda7e320	-0.081976175
94	0xbd27db40	-0.040980577
95	0x3bab34c0	0.005224794
96	0xbd769ef9	-0.060210202
97	0xbdb3ec5d	-0.08785317
98	0xbca1d892	-0.01975659
99	0xbdb34efa	-0.08755298
100	0xbcc3e7b4	-0.023914196
101	0xbc5e2ead	-0.013560933
102	0xbd4f310d	-0.050583888
103	0xbda5ec3a	-0.08101697
104	0xbd13f4ee	-0.036122255
105	0x3ac3d94d	0.001494208
106	0xbd703d6b	-0.058652323
107	0xbdb8e743	-0.09028485
108	0xbc277cea	-0.010222653
109	0xbdb795cc	-0.08964118
110	0xbb654059	-0.003498098
111	0x3d0fd8e9	0.03511897
112	0x3c9884f0	0.018618077
113	0x3d34b118	0.044114202
114	0x3bc103d0	0.005890347
115	0x3cdac5ee	0.026705708
116	0x3ce1b7f8	0.027553543
117	0x3d532737	0.05155107
118	0xbbb9022c	-0.005646011
119	0x3d6c756f	0.05772918
120	0xbb74f457	-0.0037377083
121	0x3d14ed61	0.036359195
122	0x3c96bcd1	0.018400582
123	0x3d3a6b1d	0.045512307
124	0x3bcf1f99	0.0063209054
125	0x3cdba323	0.026811188
126	0x3ceaf5a7	0.02868159
127	0x3d551b06	0.052027725
128	0xbbeb14de	-0.0071741184
129	0x3d6734fd	0.056447018
130	0xbd1038a1	-0.035210256
131	0x3b376e66	0.0027989387
132	0xbd819322	-0.063268915
133	0xbdc617be	-0.09672497
134	0xbd4ac957	-0.04950842
135	0x3c8c19bf	0.01710212
136	0xbd90a784	-0.07063201
137	0xbdd1549a	-0.102212146
138	0xbcbcfe58	-0.0230705
139	0xbdcb72cd	-0.09934006
140	0xbc2a58ac	-0.010397118
141	0x3d3960a0	0.045258164
142	0x3c88ebe1	0.016714038
143	0x3d3aae70	0.045576513
144	0x3b8f6074	0.004375512
145	0x3d118ab6	0.035532676
146	0x3ccfe3c5	0.025377164
147	0x3d5967a9	0.053077374
148	0xbc788f7b	-0.015170927
149	0x3d781837	0.060569968
150	0xbcc585b3	-0.024111604
151	0xbc58e748	-0.0132387355
152	0xbd4a4c2d	-0.049389053
153	0xbda823de	-0.08209966
154	0xbd11f345	-0.03563239
155	0x3a234730	0.00062285643
156	0xbd6f918d	-0.058488417
157	0xbdba40cd	-0.09094391
158	0xbc17d41e	-0.009266881
159	0xbdb70353	-0.08936181
160	0xbccee44b	-0.025255343
161	0xbc10d0c6	-0.008838838
162	0xbd4a746a	-0.049427427
163	0xbda2f89f	-0.07957577
164	0xbd1586cf	-0.036505517
165	0x3a46b518	0.00075800857
166	0xbd685e0b	-0.05673031
167	0xbdb2d514	-0.08732048
168	0xbc70be73	-0.014693844
169	0xbdad382c	-0.084579796
170	0xbbdd6b72	-0.0067571932
171	0x3d229174	0.039689496
172	0x3c91cf33	0.017798996
173	0x3d322c97	0.043499555
174	0x3bca2cc2	0.0061698863
175	0x3ce7cf51	0.028297098
176	0x3cda8da6	0.026678871
177	0x3d52cd0a	0.05146507
178	0xbc01fd3f	-0.007933914
179	0x3d6ad50b	0.05733208
180	0xbd0a5624	-0.033773556
181	0xbb21ae87	-0.0024670677
182	0xbd797260	-0.060900092
183	0xbdbc0ff9	-0.09182734
184	0xbd4149b5	-0.047189433
185	0x3c369faa	0.011146465
186	0xbd8ec4c4	-0.06971124
187	0xbdd1053b	-0.10206076
188	0xbca18748	-0.019717827
189	0xbdc3dbc6	-0.09563403
190	0xbc3e1fa6	-0.011604225
191	0x3d3a1047	0.04542568
192	0x3c88a26a	0.016679008
193	0x3d3b760c	0.045766875
194	0x3b406749	0.0029358438
195	0x3d079cc4	0.033108488
196	0x3cd63906	0.026150238
197	0x3d634c6d	0.055492807
198	0xbc971d0b	-0.018446466
199	0x3d7f9416	0.062397085

layers.1.egnn.edge_mlp.0.bias f4 [20]
0	0xbda56a03	-0.08076861
1	0xbe72c63e	-0.23708436
2	0xbebc5fa3	-0.36791715
3	0xbe598477	-0.21241938
4	0x3d778a4c	0.060434625
5	0xbed01849	-0.40643528
6	0x3e226c85	0.1586171
7	0xbebdb42f	-0.37051532
8	0x3e4b3413	0.19844083
9	0xbdca3f4e	-0.09875356
10	0xbe539015	-0.20660432
11	0x3d6ff724	0.0585853
12	0x3d92bca9	0.0716489
13	0xbe9a6983	-0.30158624
14	0x3e988e06	0.29795855
15	0xbe6968b5	-0.22793849
16	0xbdd4ca7e	-0.10390185
17	0x3de8b0d2	0.11361851
18	0xbe9ac452	-0.30227906
19	0x3eb7cf3f	0.35900304

layers.1.egnn.edge_mlp.3.weight f4 [16, 20]
0	0xbcc58ad0	-0.024114043
1	0xbd15e174	-0.036591962
2	0xbd2ecbb8	-0.04267475
3	0xbd0e0157	-0.034669247
4	0x3cf39930	0.029736131
5	0xbd2d72df	-0.042345878
6	0x3d14072f	0.036139663
7	0xbd301f0d	-0.042998362
8	0x3d1ac10a	0.037781753
9	0xbcded3bf	-0.027200578
10	0xbd139e02	-0.03603936
11	0x3ce50b93	0.02795962
12	0x3cf6790d	0.030087018
13	0xbd20419a	-0.039125063
14	0x3d1a7153	0.03770573
15	0xbd23f475	-0.040028054
16	0xbcee1aea	-0.029065568
17	0x3d019f36	0.031645976
18	0xbd2a08ae	-0.041512184
19	0x3d2968bf	0.04135966
20	0x3d0774ca	0.033070363
21	0x3d322744	0.043494478
22	0x3d445749	0.047934804
23	0x3d2d69c4	0.042337194
24	0xbd18ecb8	-0.037335128
25	0x3d48dbc5	0.049037714
26	0xbd22c8c4	-0.039742246
27	0x3d4b90df	0.049698707
28	0xbd34a3d3	-0.044101547
29	0x3d0fac36	0.035076343
30	0x3d3211c7	0.043473985
31	0xbd17fdaa	-0.037107147
32	0xbd1ffe2c	-0.039060757
33	0x3d3b6550	0.045750916
34	0xbd41cdd0	-0.04731542
35	0x3d2f0fc5	0.04273965
36	0x3d12b72f	0.03581923
37	0xbd21f42b	-0.039539497
38	0x3d3cbb99	0.046077345
39	0xbd464c2f	-0.048412498
40	0x3d02007a	0.031738736
41	0x3d314531	0.043278877
42	0x3d45fe75	0.048338372
43	0x3d38cc37	0.04511663
44	0xbd15448b	-0.03644232
45	0x3d4ca8b4	0.049965575
46	0xbd2971ad	-0.041368175
47	0x3d3b0481	0.045658592
48	0xbd34d2cd	-0.044146348
49	0x3d0d51a3	0.034501683
50	0x3d358510	0.04431635
51	0xbd150867	-0.036384966
52	0xbd1414f7	-0.036152806
53	0x3d397594	0.045278147
54	0xbd3cacf0	-0.046063364
55	0x3d3285d0	0.043584645
56	0x3d125e5c	0.03573452
57	0xbd230458	-0.039799064
58	0x3d38b02b	0.045089882
59	0xbd4a42e2	-0.04938019
60	0x3d0eb85a	0.03484378
61	0x3d3306b2	0.043707557
62	0x3d42dd4a	0.04757432
63	0x3d2a0737	0.041510787
64	0xbd116161	-0.03549326
65	0x3d4919b9	0.049096797
66	0xbd2754bc	-0.040852293
67	0x3d442550	0.047887146
68	0xbd3997d1	-0.0453108
69	0x3d0f0890	0.034920275
70	0x3d304a26	0.043039463
71	0xbd15cae5	-0.03657045
72	0xbd17951e	-0.037007444
73	0x3d33143a	0.04372046
74	0xbd36244c	-0.04446821
75	0x3d2d4987	0.04230645
76	0x3d12f4aa	0.03587786
77	0xbd184493	-0.037174772
78	0x3d40c936	0.04706689
79	0xbd46a60b	-0.048498195
80	0xbcd4aa7b	-0.025960198
81	0xbd1677e1	-0.03673542
82	0xbd2f8f8c	-0.042861506
83	0xbd0db9a0	-0.034600854
84	0x3cec41c5	0.028839955
85	0xbd325da7	-0.043546345
86	0x3d069ae2	0.03286255
87	0xbd3639cc	-0.044488713
88	0x3d1dd9c9	0.038537774
89	0xbcd0641c	-0.02543836
90	0xbd157cc5	-0.036495943
91	0x3ce76d21	0.028250279
92	0x3cf4b9d6	0.02987377
93	0xbd1e3f44	-0.038634554
94	0x3d27ea71	0.040995065
95	0xbd16e256	-0.036836945
96	0xbcdb3ed6	-0.026763361
97	0x3d0945bb	0.033513766
98	0xbd2bc230	-0.04193324
99	0x3d256653	0.040380787
100	0x3d05d804	0.03267671
101	0x3d2604ae	0.040531807
102	0x3d45fb76	0.048335515
103	0x3d2b0ebe	0.041762106
104	0xbd157ec9	-0.036497865
105	0x3d48a9e7	0.048990157
106	0xbd2461ca	-0.04013232
107	0x3d42c29e	0.047548883
108	0xbd2e6a8b	-0.042582076
109	0x3d05a1b5	0.03262492
110	0x3d2b6aa6	0.041849755
111	0xbd0fe971	-0.035134736
112	0xbd11769f	-0.035513517
113	0x3d3879bf	0.04503798
114	0xbd359aea	-0.04433719
115	0x3d2d78c6	0.042351507
116	0x3d0b9f77	0.034087624
117	0xbd207e53	-0.039182972
118	0x3d3621a8	0.04446569
119	0xbd40b5c9	-0.047048364
120	0xbccd84c9	-0.025087731
121	0xbd0fa74c	-0.035071656
122	0xbd24329f	-0.04008734
123	0xbd0e5d56	-0.03475698
124	0x3ce69c51	0.02815071
125	0xbd33f011	-0.043930117
126	0x3d0705d7	0.032964554
127	0xbd2d54eb	-0.042317312
128	0x3d1165a4	0.035497323
129	0xbccf2c0b	-0.025289556
130	0xbd13b27e	-0.036058895
131	0x3ce65ebd	0.028121347
132	0x3cf2ddde	0.02964681
133	0xbd29edb2	-0.04148645
134	0x3d1f6961	0.038918857
135	0xbd13a50b	-0.03604607
136	0xbce02784	-0.027362593
137	0x3cf3bc93	0.029753005
138	0xbd2038ec	-0.039116785
139	0x3d2cda86	0.042200588
140	0x3d0a0c1c	0.033702955
141	0x3d328f65	0.043593783
142	0x3d47ccfe	0.04877948
143	0x3d2692d5	0.040667374
144	0xbd0f4b3c	-0.03498386
145	0x3d4a2829	0.049354706
146	0xbd2ed7f1	-0.042686407
147	0x3d41376f	0.047172006
148	0xbd343769	-0.043998156
149	0x3d09780e	0.03356176
150	0x3d2d3caf	0.0422942
151	0xbd11a052	-0.035553284
152	0xbd16405d	-0.036682475
153	0x3d3a6d30	0.045514286
154	0xbd3437cb	-0.04399852
155	0x3d335e20	0.043790936
156	0x3d17bfb6	0.037048064
157	0xbd20a663	-0.03922118
158	0x3d343587	0.04399636
159	0xbd41bcc5	-0.047299165
160	0x3d08807b	0.033325654
161	0x3d3090e7	0.04310694
162	0x3d3e2498	0.046421617
163	0x3d2982fa	0.041384675
164	0xbd0ca5ce	-0.03433781
165	0x3d45bb6c	0.048274443
166	0xbd2a0a11	-0.041513506
167	0x3d449247	0.047991063
168	0xbd2fd17e	-0.042924397
169	0x3d0e28f0	0.03470701
170	0x3d302f0e	0.043013625
171	0xbd12682a	-0.03574387
172	0xbd1228a0	-0.035683274
173	0x3d331245	0.043718595
174	0xbd400c3e	-0.046886675
175	0x3d37a213	0.0448323
176	0x3d138978	0.036019772
177	0xbd2041cc	-0.03912525
178	0x3d36ebc6	0.044658445
179	0xbd3f6475	-0.046726663
180	0xbcdf06d7	-0.027224941
181	0xbd127e39	-0.035764907
182	0xbd30b025	-0.043136735
183	0xbd0ceb09	-0.034403834
184	0x3cf0209a	0.02931242
185	0xbd24d2fd	-0.040240277
186	0x3d057baa	0.03258864
187	0xbd323237	-0.04350492
188	0x3d1343f8	0.035953492
189	0xbcce81c8	-0.025208369
190	0xbd1210a8	-0.035660416
191	0x3ce7d837	0.028301341
192	0x3cf797cc	0.03022375
193	0xbd1bbe7f	-0.038023468
194	0x3d22acac	0.039715454
195	0xbd19bca0	-0.037533402
196	0xbce27ead	-0.027648294
197	0x3d047777	0.032340493
198	0xbd1ae9cb	-0.03782062
199	0x3d2ae993	0.04172666
200	0x3d0b8115	0.03405865
201	0x3d33bd9f	0.04388201
202	0x3d3c09e5	0.045907874
203	0x3d30b57b	0.043141823
204	0xbd19e9b1	-0.03757638
205	0x3d447d4c	0.047971055
206	0xbd2e9632	-0.042623706
207	0x3d40e118	0.047089666
208	0xbd342aab	-0.043986004
209	0x3d0c7a67	0.03429642
210	0x3d2e6b96	0.04258307
211	0xbd135120	-0.03596604
212	0xbd1ed099	-0.038773153
213	0x3d4320e4	0.04763879
214	0xbd3b55b5	-0.045736033
215	0x3d3773c0	0.044788122
216	0x3d129ac1	0.035792116
217	0xbd227acc	-0.03966789
218	0x3d430ba8	0.04761854
219	0xbd3c9593	-0.046041083
220	0x3d0a8d6e	0.033826284
221	0x3d2f0d15	0.042737085
222	0x3d3fd0e5	0.046830077
223	0x3d2d33e6	0.042285822
224	0xbd183116	-0.037156187
225	0x3d445ae8	0.047938257
226	0xbd27e76d	-0.04099219
227	0x3d46df2e	0.048552684
228	0xbd318f2b	-0.043349426
229	0x3d0d5d18	0.03451261
230	0x3d2f74ef	0.042836126
231	0xbd121950	-0.03566867
232	0xbd1480f0	-0.036255777
233	0x3d3c431b	0.045962434
234	0xbd4036ad	-0.046927143
235	0x3d2fbeb6	0.042906485
236	0x3d109f5e	0.035308234
237	0xbd20c4b2	-0.039250083
238	0x3d3d5472	0.04622311
239	0xbd48e4a3	-0.04904617
240	0xbcc1a4b1	-0.023638101
241	0xbd158941	-0.03650785
242	0xbd2962c7	-0.041353967
243	0xbd15814c	-0.03650026
244	0x3cf37a03	0.029721266
245	0xbd2ff748	-0.042960435
246	0x3d0eb825	0.034843583
247	0xbd358bed	-0.044322897
248	0x3d141a65	0.036157984
249	0xbcd76ad2	-0.026296053
250	0xbd129136	-0.035783015
251	0x3ce6c6a1	0.028170886
252	0x3cfee02a	0.03111275
253	0xbd1ff322	-0.03905023
254	0x3d20807f	0.039185043
255	0xbd16afb6	-0.036788665

layers.1.egnn.edge_mlp.3.bias f4 [16]
0	0x3e02a23b	0.12757199
1	0xbe8d35cc	-0.27580106
2	0xbd868bac	-0.06569609
3	0xbe1992d8	-0.14997423
4	0x3e408bde	0.18803355
5	0xbde43b35	-0.11144105
6	0x3e8cd89c	0.2750901
7	0xbe8cbf4d	-0.274897
8	0xbe2e774c	-0.17037696
9	0x3dd63fc9	0.10461385
10	0xbd8e872b	-0.06959375
11	0xbe8233c8	-0.2543013
12	0x3e26e5c8	0.16298592
13	0x3e86535e	0.2623548
14	0x3e6f71fe	0.23383328
15	0x3df360d5	0.118837036
