data/models/best_model_N12_batch32_lr0.001_fd4_b0.5.pth (torch, 31338 bytes, 32 tensors)

time_embedding.0.weight f4 [8, 1]
0	0xbf73e4d4	-0.9527104
1	0xbe91c761	-0.28472427
2	0x3f266df0	0.650115
3	0xbf44e2f0	-0.7690878
4	0x3f488dd2	0.783414
5	0x3f3076ca	0.6893126
6	0x3e35e233	0.1776207
7	0x3f214f20	0.6301136

time_embedding.0.bias f4 [8]
0	0x3f44e9c5	0.76919204
1	0x3eb9c408	0.36282372
2	0x3df002d8	0.117192924
3	0xbe4a7f48	-0.19775116
4	0xbf34bc2c	-0.7059963
5	0x3eba7f8a	0.3642543
6	0x3ee18222	0.44044596
7	0xbe40be52	-0.18822601

time_embedding.3.weight f4 [4, 8]
0	0x3e9a6165	0.3015243
1	0xbe1f5c5b	-0.15562575
2	0x3e6626f0	0.22475791
3	0xbceeb129	-0.02913721
4	0xbe308b2f	-0.17240594
5	0xbdac1d8b	-0.084040724
6	0x3eb64331	0.35598138
7	0x3cf9806a	0.03045674
8	0xbd047df8	-0.032346696
9	0xbdbc0cbe	-0.09182118
10	0xbe3e6a5f	-0.18595265
11	0xbe5ff3a4	-0.21870285
12	0xbbdddc73	-0.0067706644
13	0x3d9c81f8	0.07641977
14	0x3e4cd403	0.20002751
15	0x3e6e6769	0.23281635
16	0x3e9323df	0.28738305
17	0xbe571447	-0.21003829
18	0xbe2d7329	-0.16938461
19	0x3e142e64	0.14470822
20	0xbe8bb143	-0.27283677
21	0xbd8499f0	-0.06474674
22	0x3e1ce859	0.15323009
23	0x3e5293e5	0.2056423
24	0xbcca68e5	-0.02470822
25	0x3e0caf82	0.13738826
26	0x3e9393e7	0.28823778
27	0x3e0bfed3	0.13671426
28	0x3dc0f01e	0.09420799
29	0xbd667b81	-0.056270126
30	0xbe1923b3	-0.14955024
31	0xbe8e158c	-0.27750814

time_embedding.3.bias f4 [4]
0	0xbd5f363f	-0.054495092
1	0xbeda10cd	-0.42590943
2	0xbe30d474	-0.17268544
3	0xbe6c9d83	-0.23106961

layers.0.egnn.edge_mlp.0.weight f4 [20, 10]
0	0xbdb0fecf	-0.08642351
1	0x3df7e657	0.12104481
2	0x3dc0cafa	0.09413715
3	0x3e09bc81	0.13450815
4	0xbdb0165f	-0.08598017
5	0x3df3c1f6	0.119022295
6	0x3dbad568	0.09122735
7	0x3e0794be	0.13240334
8	0xbd8012f4	-0.06253615
9	0xbdd8abf0	-0.105796695
10	0x3d420c1d	0.047374833
11	0xbdfac19f	-0.122439615
12	0xbd8cc779	-0.06873984
13	0xbe148133	-0.1450241
14	0x3d3d309e	0.046188943
15	0xbdf5cc9e	-0.12001918
16	0xbd88b245	-0.06674627
17	0xbe0e8387	-0.13917361
18	0x3ac382c9	0.0014916296
19	0x3dc8166e	0.09769903
20	0xbdc3015a	-0.09521742
21	0x3df9d8f7	0.12199586
22	0x3dcdbb90	0.1004554
23	0x3e0ded98	0.13860166
24	0xbdcb149c	-0.0991604
25	0x3df615b2	0.12015857
26	0x3dc69196	0.09695737
27	0x3e084f3c	0.13311476
28	0xbd84f81a	-0.06492634
29	0xbddbebc8	-0.10738331
30	0xbd3f08dc	-0.04663931
31	0xbd657534	-0.056019977
32	0x3b2d6d2f	0.0026462784
33	0xbd8ecb81	-0.06972409
34	0xbd457d24	-0.048215047
35	0xbd48a0a0	-0.04898131
36	0xba9e33fd	-0.0012069937
37	0xbd87b3b3	-0.06626072
38	0xbcb9fc7e	-0.022703405
39	0x3d1ad07e	0.03779649
40	0xbc8ad819	-0.016948747
41	0xbd8c0a7a	-0.06837936
42	0xbc806d76	-0.015677195
43	0xbdab4267	-0.083622746
44	0xbca5804e	-0.020202782
45	0xbd837a74	-0.064198405
46	0xbc74f1e0	-0.014950246
47	0xbda8e919	-0.08247585
48	0xbca057e8	-0.019573167
49	0x3d53f5c8	0.051748067
50	0xbdb20c24	-0.08693722
51	0x3df6021f	0.12012123
52	0x3dbe4604	0.09290698
53	0x3e09d845	0.13461407
54	0xbdb9dab3	-0.09074917
55	0x3defb283	0.1170397
56	0x3dba5ea7	0.09100085
57	0x3e04a4b7	0.12953459
58	0xbd74ea83	-0.05979396
59	0xbdd4fb21	-0.103994615
60	0x3c6d0872	0.014467346
61	0xbdbbd8f2	-0.091722384
62	0xbd24f7e9	-0.040275488
63	0xbde76b10	-0.112997174
64	0x3c2ce2b2	0.010552095
65	0xbdb6450b	-0.08899888
66	0xbd1e4d41	-0.038647894
67	0xbddbc427	-0.107307725
68	0xbc7ac302	-0.015305283
69	0x3d92c397	0.07166212
70	0x3cca23a5	0.0246752
71	0xbdd144ea	-0.102182224
72	0xbd4692d9	-0.04847989
73	0xbdfd0a49	-0.12355477
74	0x3caff0c5	0.021477113
75	0xbdc86996	-0.09785764
76	0xbd3d1fae	-0.04617279
77	0xbdefac45	-0.1170278
78	0xbc3bc905	-0.011461501
79	0x3da33d48	0.07970673
80	0x3d2e9498	0.04262218
81	0xbdf65af7	-0.12029069
82	0xbd89a6d9	-0.06721277
83	0xbe10dfd3	-0.14147882
84	0x3d28778d	0.041129638
85	0xbdeb9b8a	-0.11504276
86	0xbd7cf752	-0.0617593
87	0xbe0ac03b	-0.13549893
88	0xbb343388	-0.0027496535
89	0x3dc35920	0.095384836
90	0x3d4d6ecc	0.050154492
91	0xbe01630a	-0.12635437
92	0xbd95ac92	-0.07308306
93	0xbe17edee	-0.14836857
94	0x3d497784	0.049186245
95	0xbdfa63f7	-0.12226098
96	0xbd8ac77a	-0.067763284
97	0xbe1065b2	-0.14101294
98	0x3b158cec	0.0022819592
99	0x3dcad0f7	0.09903138
100	0x3d5dec5f	0.0541805
101	0xbe011ce0	-0.12608671
102	0xbd9758e2	-0.0739
103	0xbe1b8b5d	-0.15189882
104	0x3d56681b	0.052345376
105	0xbdf8b3c0	-0.121436596
106	0xbd8e222f	-0.06940114
107	0xbe14d5ec	-0.1453473
108	0x3b9a31b5	0.0047056326
109	0x3dd33da4	0.103144914
110	0xbe2d4088	-0.16919148
111	0x3e0627c1	0.13101102
112	0x3e0b0fda	0.13580266
113	0x3e109464	0.14119107
114	0xbe2c3d84	-0.16820341
115	0x3e039609	0.12850203
116	0x3e01f426	0.12690791
117	0x3e0d7ab1	0.13816334
118	0xbdce3cc8	-0.10070187
119	0xbdf30d73	-0.118677996
120	0xbd58fcea	-0.052975573
121	0xbb8e5765	-0.0043439143
122	0x3ca25a77	0.019818528
123	0xbb8a11ba	-0.004213539
124	0xbd508b33	-0.050914
125	0xbb21971c	-0.0024656719
126	0x3c84d32c	0.016213976
127	0xbbc21cfc	-0.0059238654
128	0xbc210b0d	-0.009829295
129	0xbafcec64	-0.0019296524
130	0xbd8a30b7	-0.06747573
131	0x3def0d4e	0.116724595
132	0x3daa076c	0.08302197
133	0x3e07bf00	0.13256454
134	0xbd8a5ef8	-0.06756395
135	0x3de4c003	0.11169436
136	0x3da9d8d0	0.08293307
137	0x3e030128	0.1279341
138	0xbd474c38	-0.048656672
139	0xbdcd300a	-0.10018928
140	0xbbaa8fce	-0.005205131
141	0x3dbf1d97	0.09331816
142	0x3d393ca6	0.045223854
143	0x3de1153d	0.10990379
144	0xbc09a4ac	-0.008401077
145	0x3db40f7e	0.087920174
146	0x3d3ef53c	0.046620592
147	0x3dd553e7	0.10416394
148	0xbc7fedd1	-0.015620665
149	0xbd9913e4	-0.07474497
150	0x3d462b92	0.048381396
151	0xbdffa4c8	-0.124826014
152	0xbd94e930	-0.072710395
153	0xbe15040d	-0.14552327
154	0x3d3bd544	0.045857683
155	0xbdf1e9f2	-0.118122
156	0xbd89fba3	-0.06737449
157	0xbe0e8908	-0.13919461
158	0xba291255	-0.000644957
159	0x3dc9f086	0.09860329
160	0x3db947fd	0.09046934
161	0x3d3f33c4	0.046680227
162	0xbc9afe31	-0.018920036
163	0x3d7628d9	0.06009755
164	0x3db47b52	0.08812584
165	0x3d3028e0	0.04300773
166	0xbc21e77d	-0.009881851
167	0x3d6b727b	0.057482224
168	0x3cc7b088	0.024376169
169	0xbcff1316	-0.03113703
170	0xbe1bd255	-0.15216954
171	0x3e02bc91	0.12767245
172	0x3e049694	0.12948066
173	0x3e0fc699	0.14040603
174	0xbe1d4410	-0.15357995
175	0x3e01b94b	0.1266834
176	0x3df9c0f1	0.12195004
177	0x3e0c0c00	0.13676453
178	0xbdbc3bd5	-0.091910996
179	0xbdee49dc	-0.11635181
180	0x3c57612d	0.013145727
181	0xbdbe17dc	-0.092818946
182	0xbd24ae47	-0.040205266
183	0xbde874f1	-0.1135043
184	0x3c389471	0.01126586
185	0xbdb3f0c6	-0.08786158
186	0xbd150f6b	-0.036391657
187	0xbdd81fdd	-0.105529524
188	0xbc839285	-0.016061077
189	0x3d8f03c2	0.069831386
190	0xbde34ba9	-0.110984154
191	0x3e008b0d	0.12553044
192	0x3ddc50ab	0.10757574
193	0x3e1088f3	0.14114742
194	0xbdeaf9a8	-0.114733994
195	0x3dfd8ac4	0.12379983
196	0x3dd6c21b	0.104862414
197	0x3e0a2953	0.13492326
198	0xbd92e3ee	-0.071723804
199	0xbde276fd	-0.110578515

layers.0.egnn.edge_mlp.0.bias f4 [20]
0	0xbe5bdb64	-0.2147041
1	0x3ea3ddef	0.3200526
2	0xbe8947f2	-0.26812702
3	0x3e0cf777	0.13766275
4	0x3e11dcc6	0.14244375
5	0xbe840d3b	-0.25791344
6	0x3e4f7fb8	0.20263565
7	0x3e6d0b45	0.2314883
8	0x3ea29cf7	0.3176038
9	0x3eab9fee	0.33520454
10	0x3eb78603	0.3584443
11	0xbed320bf	-0.4123592
12	0x3d56e454	0.052463844
13	0xbe516030	-0.20446849
14	0xbe28e51b	-0.16493647
15	0x3ea4e27b	0.3220404
16	0xbdd1fdba	-0.102534726
17	0xbec34a93	-0.38142833
18	0x3e5792e3	0.21052127
19	0xbe93d820	-0.28875828

layers.0.egnn.edge_mlp.3.weight f4 [16, 20]
0	0xbd7bf745	-0.06151511
1	0x3d4ebdd4	0.050474003
2	0xbd7ea851	-0.062172238
3	0x3d023cec	0.03179638
4	0x3d0cd169	0.034379397
5	0xbd7e6657	-0.062109318
6	0x3d384146	0.044984125
7	0x3d473860	0.048637748
8	0x3d53263b	0.05155013
9	0x3d5d7723	0.054068696
10	0x3d596f83	0.05308486
11	0xbd88dfac	-0.06683287
12	0x3c3b497d	0.011431095
13	0xbd69c689	-0.057074104
14	0xbd36a452	-0.0445903
15	0x3d61a342	0.055087335
16	0xbd086c70	-0.03330654
17	0xbd89645b	-0.067085944
18	0x3d35a79e	0.044349305
19	0xbd852828	-0.065018
20	0xbd831b2d	-0.06401668
21	0x3d68a627	0.05679908
22	0xbd89f638	-0.067364156
23	0x3d0db7c4	0.03459908
24	0x3d1795d8	0.037008137
25	0xbd84ed06	-0.06490521
26	0x3d47abe6	0.04874792
27	0x3d551efa	0.052031495
28	0x3d63d1b6	0.055619918
29	0x3d6bf1e4	0.05760373
30	0x3d66ecb3	0.056378078
31	0xbd90ecfa	-0.0707645
32	0x3c449d0c	0.0120003335
33	0xbd7e1c98	-0.062038988
34	0xbd4b41c8	-0.04962328
35	0x3d6fe222	0.058565266
36	0xbd126478	-0.035740346
37	0xbd94a795	-0.07258526
38	0x3d42998c	0.047509715
39	0xbd8c894c	-0.06862125
40	0x3d8d31d9	0.06894273
41	0xbd9017ae	-0.070357665
42	0x3d8dcb97	0.06923597
43	0xbd23ccc1	-0.03999019
44	0xbd41cbff	-0.047313686
45	0x3d88fba5	0.066886224
46	0xbd812ead	-0.06307731
47	0xbd87b2d2	-0.06625904
48	0xbd8dfce8	-0.06933004
49	0xbd925256	-0.071446106
50	0xbd8e2ad9	-0.06941766
51	0x3d8fcc17	0.07021349
52	0xbc174081	-0.0092316875
53	0x3d87e6b3	0.06635799
54	0x3d6120b8	0.054962844
55	0xbd969c2f	-0.073540084
56	0x3d0eee83	0.03489543
57	0x3d8c1bee	0.06841265
58	0xbd7f9f7d	-0.06240796
59	0x3d910b10	0.07082188
60	0xbcd592ee	-0.026071038
61	0x3c9607ac	0.018314205
62	0xbcda65e3	-0.026659911
63	0x3c44542b	0.011982958
64	0x3c5ee93d	0.013605413
65	0xbcdb5841	-0.026775481
66	0x3c83c975	0.016087273
67	0x3c805f0a	0.015670318
68	0x3c99c33d	0.018769855
69	0x3c9c5a9a	0.019086171
70	0x3c9c8be4	0.019109674
71	0xbcfa56cb	-0.030558964
72	0x3ba97315	0.0051711896
73	0xbcc1028c	-0.023560785
74	0xbc96ff7f	-0.018432377
75	0x3c9b4f7d	0.018958801
76	0xbc614bde	-0.013750998
77	0xbce8d3f9	-0.028421389
78	0x3c822f6b	0.015891751
79	0xbcf057e5	-0.029338786
80	0xbd166dad	-0.03672569
81	0x3cfc725d	0.030816251
82	0xbd185917	-0.037194338
83	0x3ca8eb54	0.020620026
84	0x3ca11e0e	0.019667652
85	0xbd150f10	-0.036391318
86	0x3cd44186	0.02591015
87	0x3cc7b503	0.024378305
88	0x3ce78303	0.028260713
89	0x3cfd84fa	0.030947197
90	0x3cf50b95	0.02991275
91	0xbd32a354	-0.043612793
92	0x3c16d24a	0.00920541
93	0xbd1ab2bd	-0.037768114
94	0xbce19d6a	-0.027540881
95	0x3ceedd4e	0.02915826
96	0xbcaaee8e	-0.020865705
97	0xbd34bcae	-0.04412525
98	0x3ccd7862	0.025081817
99	0xbd22061d	-0.03955661
100	0x3d83cfde	0.06436132
101	0xbd81b3d8	-0.063331306
102	0x3d85cf5d	0.06533692
103	0xbd1631ad	-0.03666847
104	0xbd2e0781	-0.042487625
105	0x3d7cbadb	0.061701637
106	0xbd5d4e5e	-0.054029815
107	0xbd6e0c8d	-0.058117438
108	0xbd7fb15a	-0.062424995
109	0xbd867552	-0.06565346
110	0xbd8229d0	-0.06355631
111	0x3d8401d6	0.06445663
112	0xbc2fd2b8	-0.010731392
113	0x3d822d64	0.06356314
114	0x3d52a5c0	0.051427603
115	0xbd813ef0	-0.063108325
116	0x3d0b72ab	0.034044903
117	0x3d8227d0	0.0635525
118	0xbd62c53a	-0.05536387
119	0x3d8113fc	0.0630264
120	0xbd19ead4	-0.037577465
121	0x3cf87d8e	0.030333307
122	0xbd26c606	-0.040716194
123	0x3c90dee0	0.0176844
124	0x3c9e3ac9	0.01931514
125	0xbd1b8d30	-0.037976444
126	0x3cca5ae1	0.024701538
127	0x3cda4f7c	0.02664923
128	0x3cf213b2	0.029550407
129	0x3cf6ed2f	0.030142395
130	0x3cf5b725	0.029994557
131	0xbd3224ba	-0.043492056
132	0x3c0277b0	0.007963106
133	0xbd15ed5e	-0.036603324
134	0xbcdbd6da	-0.026835848
135	0x3cf58473	0.029970383
136	0xbca70112	-0.020386253
137	0xbd2fc59d	-0.042913068
138	0x3cbf1fc7	0.023330582
139	0xbd28f574	-0.041249707
140	0x3c11b16d	0.008892399
141	0xbbdf42a6	-0.006813365
142	0x3c272991	0.010202781
143	0xbbb73a5e	-0.0055916747
144	0xbbe2e777	-0.0069245654
145	0x3c0880fa	0.008331532
146	0xbbd838ee	-0.0065985834
147	0xbba5e29d	-0.005062415
148	0xbbe7c8df	-0.0070735062
149	0xbbc6f451	-0.0060716053
150	0xbbeb2335	-0.007175828
151	0x3c31000a	0.010803232
152	0xbbb91c68	-0.0056491382
153	0x3c1d8948	0.00961525
154	0x3bdac9e5	0.0066768997
155	0xbc0a8731	-0.008455084
156	0x3c03b0ef	0.00803779
157	0x3c08bd86	0.008345967
158	0xbbcc599a	-0.0062362673
159	0x3c1038e0	0.008802623
160	0x3d8dc56f	0.06922423
161	0xbd92a2fd	-0.07159994
162	0x3d8c93fe	0.06864165
163	0xbd27ad05	-0.04093649
164	0xbd45402a	-0.048156895
165	0x3d898d29	0.06716377
166	0xbd7cf94a	-0.061761178
167	0xbd862c0e	-0.065513715
168	0xbd906a74	-0.07051554
169	0xbd916257	-0.07098835
170	0xbd90be8b	-0.07067593
171	0x3d8b9592	0.06815638
172	0xbbb26b55	-0.005444924
173	0x3d8b6d8e	0.06808005
174	0x3d6d65df	0.05795848
175	0xbd93f653	-0.07224717
176	0x3d0d9440	0.03456521
177	0x3d9101bb	0.07080408
178	0xbd7d0795	-0.06177481
179	0x3d8ed6af	0.069745414
180	0x3d8b6660	0.06806636
181	0xbd9133fc	-0.07089993
182	0x3d8e2242	0.06940128
183	0xbd1ac4ee	-0.037785463
184	0xbd3de005	-0.04635622
185	0x3d89bb48	0.06725174
186	0xbd74898a	-0.05970148
187	0xbd849892	-0.06474413
188	0xbd8e6eaf	-0.06954705
189	0xbd92add1	-0.07162059
190	0xbd8f3da7	-0.06994181
191	0x3d892f30	0.066984534
192	0xbbc0604a	-0.0058708536
193	0x3d83e5d0	0.06440318
194	0x3d5ec94c	0.05439119
195	0xbd8ee387	-0.06976991
196	0x3d039b6f	0.032130655
197	0x3d8e6fc7	0.069549136
198	0xbd79e11e	-0.061005704
199	0x3d8ccf6f	0.06875502
200	0x3d8b1da7	0.06792765
201	0xbd8de8b1	-0.06929148
202	0x3d897d5c	0.067133635
203	0xbd21847a	-0.03943298
204	0xbd44c0f9	-0.048035596
205	0x3d87e471	0.066353686
206	0xbd793825	-0.06084456
207	0xbd84d666	-0.06486206
208	0xbd8e5e44	-0.069515735
209	0xbd93ca29	-0.07216293
210	0xbd9261a4	-0.0714753
211	0x3d8a2479	0.06745238
212	0xbbcfa5a4	-0.0063368846
213	0x3d816772	0.06318559
214	0x3d64085c	0.055672035
215	0xbd940d30	-0.07229078
216	0x3cfe3e6e	0.031035628
217	0x3d8e1ab4	0.06938687
218	0xbd73226d	-0.059359003
219	0x3d8fcc89	0.07021434
220	0x3d8bfd10	0.06835377
221	0xbd8e5ab6	-0.069508955
222	0x3d8a8c19	0.06765003
223	0xbd2109f5	-0.039316136
224	0xbd3e473f	-0.046454664
225	0x3d88fdfd	0.066890694
226	0xbd776424	-0.060398236
227	0xbd834c6b	-0.0641106
228	0xbd8e1d2b	-0.06939157
229	0xbd92c624	-0.071666986
230	0xbd905641	-0.070477016
231	0x3d88833d	0.06665657
232	0xbbf34071	-0.0074234535
233	0x3d880f5e	0.06643556
234	0x3d592560	0.05301416
235	0xbd902720	-0.070387125
236	0x3d000bda	0.031261303
237	0x3d8e70a0	0.06955075
238	0xbd75de80	-0.060026646
239	0x3d8f6f20	0.07003617
240	0xbd84cf31	-0.06484831
241	0x3d6271ea	0.05528442
242	0xbd87df7d	-0.06634424
243	0x3d123380	0.035693645
244	0x3d20774e	0.039176278
245	0xbd81ebc1	-0.063437946
246	0x3d463834	0.048393443
247	0x3d516de8	0.051130205
248	0x3d66cf96	0.056350313
249	0x3d737115	0.059434015
250	0x3d6d2810	0.057899535
251	0xbd92ec9c	-0.07174036
252	0x3c71a99c	0.014749911
253	0xbd8267a5	-0.06367425
254	0xbd44c7cb	-0.0480421
255	0x3d6bb02c	0.057541057

layers.0.egnn.edge_mlp.3.bias f4 [16]
0	0x3e255d4a	0.16148868
1	0x3e6bd6a3	0.23031096
2	0xbe4721bf	-0.19446467
3	0x3d188b4b	0.037242215
4	0x3d696c3a	0.05698798
5	0xbdc4abba	-0.09603067
6	0x3d823186	0.06357102
7	0xba956d21	-0.0011400321
8	0xbe31aa86	-0.17350206
9	0xbe4d66a2	-0.20058683
10	0xbe63dcef	-0.22252248
11	0xbe45d557	-0.19319664
12	0x3e624d00	0.22099686
13	0xbd80d261	-0.062901266
14	0xbe81be5b	-0.25340542
15	0x3d820133	0.06347885

layers.0.egnn.node_mlp.0.weight f4 [8, 20]
0	0xba1f8d17	-0.00060863927
1	0xb7992989	-1.8258363e-05
2	0x390b2402	0.00013269487
3	0xba956991	-0.0011399259
4	0xbac2f4cd	-0.0014873982
5	0xba120fd5	-0.0005571817
6	0xba96a44d	-0.0011493057
7	0xbb050097	-0.002029454
8	0xba0b8ca6	-0.00053233874
9	0xba116a99	-0.00055471953
10	0x38fe399a	0.00012122393
11	0xba7b7e8b	-0.00095937465
12	0x3acc2e5b	0.001557778
13	0x3a857b24	0.0010183793
14	0xba19ac7c	-0.0005862189
15	0xba31233d	-0.0006757265
16	0xb9980f2d	-0.00029003006
17	0x39bcbd5a	0.00035999232
18	0xbabb674c	-0.0014297753
19	0x3a058d55	0.00050946075
20	0x3aa8e3e3	0.0012885298
21	0x38ded5eb	0.0001062563
22	0xb8098be2	-3.279362e-05
23	0x3a5d0540	0.0008431263
24	0x39a95eb2	0.00032304745
25	0xb8a4db1d	-7.8609424e-05
26	0x3a7ed0de	0.00097204547
27	0xba65d6ce	-0.0008767665
28	0xba51f21f	-0.0008008796
29	0x3a2db30e	0.00066261075
30	0xba04af8a	-0.0005061558
31	0x38d49ba8	0.00010137941
32	0xba926a7e	-0.0011170653
33	0x3a7173b1	0.000921066
34	0x392b7165	0.00016350074
35	0xba66b71d	-0.000880109
36	0xbb092b03	-0.0020930178
37	0x3825a061	3.948843e-05
38	0x3a40791b	0.0007342265
39	0x398f17a4	0.000272927
40	0x3914b989	0.00014183497
41	0x3a9b4223	0.0011845272
42	0xb9daed36	-0.00041756936
43	0x3896a5b4	7.183422e-05
44	0x3a20f892	0.00061405555
45	0x3afded9b	0.001937318
46	0x3a99ed1e	0.001174364
47	0xba087360	-0.00052051805
48	0x398ee6ce	0.00027256313
49	0xba8087b6	-0.000980607
50	0x3a8585ff	0.0010187029
51	0xbaace327	-0.0013190255
52	0xb9aa9d25	-0.0003254201
53	0x3aa9c2d8	0.0012951745
54	0x3ac1c8da	0.001478459
55	0xba2b0bdc	-0.00065248995
56	0x39917d9b	0.00027750139
57	0xba2bf29c	-0.0006559284
58	0x3a18d2b4	0.0005829737
59	0x3a41a916	0.00073875615
60	0xb8cef99e	-9.86934e-05
61	0x3abdc959	0.0014479562
62	0x3a5bc81d	0.0008384006
63	0x38e0209a	0.00010687225
64	0xb9788a4f	-0.00023702647
65	0xb9d7f027	-0.00041186923
66	0xb6e01313	-6.6779407e-06
67	0xba163f1b	-0.00057314493
68	0x3a1d3417	0.00059968367
69	0xbae3e2b8	-0.0017386293
70	0x389665a9	7.171493e-05
71	0xb9d12179	-0.00039888525
72	0xba6cc520	-0.00090320595
73	0x360f4371	2.1347917e-06
74	0xbabf11f1	-0.001457749
75	0x3ada1a8c	0.0016639992
76	0xb9c47a03	-0.0003747494
77	0x39995249	0.0002924374
78	0xbaa329e6	-0.00124484
79	0xba774828	-0.00094330544
80	0x3addb776	0.0016915638
81	0xba7fb0f8	-0.00097538484
82	0xb9cd57de	-0.00039166113
83	0x38ced3ac	9.8622724e-05
84	0x3a09bf96	0.0005254684
85	0x394148c1	0.00018433017
86	0x3b031fe1	0.0020008015
87	0x3a40db53	0.00073569006
88	0xba4cb202	-0.00078085077
89	0x39a62f14	0.00031697063
90	0x39a54508	0.00031522685
91	0xba223cd0	-0.00061888713
92	0x3ac907e6	0.0015337437
93	0x3a8b3d82	0.0010623189
94	0xbaab139c	-0.0013052109
95	0x39f53fa8	0.0004677747
96	0x3a316a5d	0.00067678635
97	0xb8f34fed	-0.0001160203
98	0xba0531e1	-0.000508098
99	0xb8474f3f	-4.75191e-05
100	0x3980211e	0.00024438737
101	0xba67b5bc	-0.0008839031
102	0x3af714e6	0.0018850833
103	0xba4f7e20	-0.00079152174
104	0x3a19f203	0.00058725494
105	0xba00ae47	-0.0004908782
106	0x3aaeacc3	0.0013326633
107	0x3982062d	0.00024800134
108	0x38bfaf2f	9.14022e-05
109	0xbaa1851a	-0.0012322993
110	0xba3aa66d	-0.0007120136
111	0xba3fdc0b	-0.0007318861
112	0x3a06c3db	0.0005140879
113	0xba43a13f	-0.0007462687
114	0x3a3cb476	0.00071985216
115	0x37c778a1	2.377882e-05
116	0x3a4edce7	0.00078911934
117	0xba823984	-0.0009935354
118	0xba3970b2	-0.0007073983
119	0xba592acd	-0.0008284271
120	0xb9d1e490	-0.0004003388
121	0xba39221d	-0.0007062273
122	0xba15088d	-0.0005685173
123	0xbac5bf2a	-0.0015086879
124	0x3a602bc8	0.0008551446
125	0xba296ff1	-0.0006463519
126	0xba366810	-0.00069582555
127	0x3995f3f2	0.00028601248
128	0xba9f29c9	-0.001214319
129	0xbaeefd2a	-0.0018233408
130	0xbac2dcde	-0.0014866849
131	0xbb0f5c95	-0.0021875252
132	0xb9eed189	-0.00045551013
133	0xb850c93e	-4.9778486e-05
134	0x3a9807c4	0.0011598994
135	0xba2c23be	-0.00065666053
136	0x39d9a772	0.00041514222
137	0x39c1ccc0	0.0003696438
138	0xbae54521	-0.0017491915
139	0x3acd3c74	0.0015658275
140	0xb88330eb	-6.2556785e-05
141	0x3a2b7d33	0.00065417885
142	0x3a1dcd37	0.0006019654
143	0xb9f9ed2a	-0.00047669682
144	0x3a4e7536	0.0007875742
145	0xba69fe82	-0.0008926169
146	0xba524f96	-0.00080227235
147	0xb8166efd	-3.5866153e-05
148	0xbab51ee7	-0.0013818414
149	0x3835a2b6	4.33053e-05
150	0x37e47561	2.7234377e-05
151	0xb9a94a24	-0.0003228943
152	0xbad4c26a	-0.0016232256
153	0xbacbf20a	-0.0015559804
154	0xbabca845	-0.001439341
155	0xba2d06ea	-0.00066004565
156	0xb9c1883a	-0.00036913325
157	0x39dcb4d8	0.0004209641
158	0xb8c979e0	-9.607128e-05
159	0x3a63d977	0.00086917676

layers.0.egnn.node_mlp.0.bias f4 [8]
0	0x3d97ac7b	0.07405945
1	0xbe31c3d2	-0.17359856
2	0x3e10fb83	0.14158444
3	0xbd00b3ae	-0.031421356
4	0x3d7fc3c9	0.062442575
5	0x3e4232f4	0.1896475
6	0xbdf1e3d2	-0.118110314
7	0x3d460fc3	0.048354875

layers.0.egnn.node_mlp.3.weight f4 [4, 8]
0	0xb9952a2c	-0.00028450915
1	0x376b9a15	1.40429665e-05
2	0x3ab8be74	0.0014094845
3	0xba340b49	-0.00068681367
4	0xbaa8fd59	-0.0012892886
5	0x3a117e92	0.00055501715
6	0x3ad32389	0.0016108613
7	0xb991496c	-0.0002771126
8	0x3a389081	0.0007040576
9	0xba9ab980	-0.0011804551
10	0xb9caca13	-0.00038679
11	0xba308f3d	-0.00067352114
12	0x3a75041e	0.0009346622
13	0xba211ce1	-0.0006145966
14	0x39793cb6	0.00023769107
15	0xbae92a3e	-0.0017789078
16	0x3a948bde	0.0011333188
17	0x37841388	1.5744721e-05
18	0x3b1ac3bb	0.00236152
19	0xbb0ddf92	-0.002164815
20	0x3a422852	0.0007406521
21	0x38f7f21f	0.000118229764
22	0x387ea6fe	6.0713843e-05
23	0x3806c2be	3.2129457e-05
24	0xba13679b	-0.00056230434
25	0xbb1692f7	-0.0022975781
26	0x39d5311b	0.00040663112
27	0xba9e16e6	-0.0012061268
28	0x3a5ecdf0	0.0008499315
29	0x3ac871c1	0.001529269
30	0x39e201e2	0.00043107482
31	0x38b91ea3	8.827194e-05

layers.0.egnn.node_mlp.3.bias f4 [4]
0	0xbe40e0bc	-0.1883573
1	0x3ea508bb	0.32233223
2	0x3df4aeec	0.11947426
3	0x3ea8cbdd	0.32968035

layers.0.egnn.coors_mlp.0.weight f4 [64, 16]
0	0x3c9c47b3	0.019077158
1	0x3c988251	0.018616827
2	0xbca34a60	-0.019932926
3	0x3c1e344e	0.009656025
4	0x3c78db5c	0.015189018
5	0xbca3f3d5	-0.02001373
6	0x3c67353f	0.014111816
7	0xbab067da	-0.0013458685
8	0xbca2bd4e	-0.019865658
9	0xbca16e4a	-0.01970591
10	0xbc9d950f	-0.019236116
11	0xbcb6d5e6	-0.022318792
12	0x3c910ea8	0.017707184
13	0xbc98a56f	-0.018633572
14	0xbca177b6	-0.019710403
15	0x3c738d1a	0.014865184
16	0x3d354b1c	0.044261083
17	0x3d26acf0	0.04069227
18	0xbd2bb4e9	-0.041920576
19	0x3cab7131	0.020927997
20	0x3ce88508	0.028383747
21	0xbd3528c8	-0.044228345
22	0x3d02e480	0.031956196
23	0xbb37931a	-0.0028011263
24	0xbd33ec88	-0.043926746
25	0xbd2ce763	-0.042212855
26	0xbd284b8b	-0.04108767
27	0xbd2ca3b1	-0.042148296
28	0x3d23845d	0.039921153
29	0xbd19e67e	-0.03757333
30	0xbd1e569d	-0.03865682
31	0x3d02c334	0.03192444
32	0xbd32a460	-0.04361379
33	0xbd34584e	-0.044029526
34	0x3d3299f2	0.043603845
35	0xbcc430e0	-0.023949087
36	0xbd0a025a	-0.03369365
37	0x3d3581f0	0.04431337
38	0xbd0ec553	-0.03485615
39	0x3c1aab32	0.00944023
40	0x3d366ebd	0.044539202
41	0x3d34b27f	0.04411554
42	0x3d322d0a	0.043499984
43	0x3d3582c5	0.044314165
44	0xbd34d0d2	-0.04414446
45	0x3d2366da	0.03989301
46	0x3d2eb62a	0.042654194
47	0xbd0bcaa3	-0.034128796
48	0x3c94e7b6	0.018176895
49	0x3c94bda2	0.01815683
50	0xbcaf6c77	-0.021414025
51	0x3c001c85	0.0078193
52	0x3c6f373d	0.014600572
53	0xbcb81025	-0.022468636
54	0x3c5f03ec	0.013611775
55	0xbb0899b2	-0.0020843563
56	0xbca134a6	-0.019678425
57	0xbc967066	-0.018364143
58	0xbc9fde0b	-0.019515058
59	0xbc998c71	-0.018743725
60	0x3c9bc4a7	0.01901467
61	0xbc9c9430	-0.01911363
62	0xbc98f3a4	-0.018670864
63	0x3c57d2e6	0.013172841
64	0x3d0ad6d8	0.033896297
65	0x3d056bff	0.032573696
66	0xbd0abc00	-0.033870697
67	0x3c682ece	0.014171315
68	0x3cbc76c5	0.023005852
69	0xbd10779a	-0.03527031
70	0x3cc91e66	0.024550628
71	0xbbae9de3	-0.00532888
72	0xbd0776e8	-0.033072382
73	0xbd0af5d5	-0.03392585
74	0xbd0b6067	-0.034027483
75	0xbd0b69e2	-0.034036525
76	0x3d01df9e	0.0317074
77	0xbcf27b31	-0.029599758
78	0xbcf6de55	-0.030135313
79	0x3cc48d94	0.023993291
80	0x3d2e104b	0.042496007
81	0x3d2b6125	0.04184069
82	0xbd39951b	-0.045308214
83	0x3ca47663	0.020075982
84	0x3d05bda4	0.03265156
85	0xbd3b7d50	-0.045773804
86	0x3d06b5d1	0.032888237
87	0xbbffe415	-0.007809172
88	0xbd3b7149	-0.045762334
89	0xbd3ac645	-0.04559924
90	0xbd38f0d5	-0.04515155
91	0xbd3c3e9a	-0.04595814
92	0x3d2a55a6	0.041585587
93	0xbd20cebc	-0.039259657
94	0xbd3304fe	-0.043705933
95	0x3d06714b	0.03282289
96	0x3d25eeeb	0.040511053
97	0x3d298256	0.041384064
98	0xbd2e44c6	-0.042546056
99	0x3caec58b	0.02133443
100	0x3ce98f36	0.028510671
101	0xbd2e47fc	-0.04254912
102	0x3cf333d2	0.029687796
103	0xbbff85fb	-0.007797954
104	0xbd33d133	-0.04390068
105	0xbd2c259c	-0.042028055
106	0xbd25e114	-0.040497854
107	0xbd34b17f	-0.044114586
108	0x3d203de4	0.039121523
109	0xbd194422	-0.037418492
110	0xbd24f436	-0.04027196
111	0x3cfa5aa4	0.030560799
112	0x3d25003d	0.04028343
113	0x3d2515ee	0.040304117
114	0xbd32d6fa	-0.04366205
115	0x3ca9e2a2	0.02073795
116	0x3cf50427	0.029909207
117	0xbd36742d	-0.044544388
118	0x3cf706b2	0.03015456
119	0xbbd98c38	-0.00663903
120	0xbd2e0b19	-0.042491052
121	0xbd3195b1	-0.043355647
122	0xbd330224	-0.043703213
123	0xbd3383ec	-0.043826982
124	0x3d2a7634	0.041616634
125	0xbd1e8813	-0.03870399
126	0xbd326865	-0.04355659
127	0x3d0115ae	0.031514816
128	0x3d2f190e	0.042748503
129	0x3d3a952a	0.04555241
130	0xbd406d98	-0.046979517
131	0x3cb4bf94	0.022064008
132	0x3d02d55f	0.031941768
133	0xbd41f9a0	-0.0473572
134	0x3d0e9c59	0.034817073
135	0xbbfc1f3e	-0.007694154
136	0xbd40b9f5	-0.047052342
137	0xbd3f1797	-0.046653356
138	0xbd3f3427	-0.046680596
139	0xbd3a3263	-0.04545821
140	0x3d3498ec	0.04409115
141	0xbd249aa4	-0.04018654
142	0xbd3b799c	-0.045770273
143	0x3d0a7a6e	0.033808164
144	0x3d10ad1c	0.03532134
145	0x3d1b3f22	0.037902005
146	0xbd1b3fdd	-0.0379027
147	0x3ca9a4de	0.020708498
148	0x3ce34fe4	0.027748056
149	0xbd2609ea	-0.0405368
150	0x3cebdc73	0.028791642
151	0xbb543f6b	-0.0032386433
152	0xbd20d211	-0.039262835
153	0xbd1c47d6	-0.038154446
154	0xbd1d7d2d	-0.038449455
155	0xbd1e4d92	-0.038648196
156	0x3d159f9d	0.036529172
157	0xbd0e342e	-0.03471773
158	0xbd1ce9a5	-0.03830876
159	0x3d00260f	0.031286296
160	0xbd235305	-0.039874095
161	0xbd27e083	-0.040985595
162	0x3d2089dc	0.039193973
163	0xbcc7a892	-0.024372373
164	0xbcfd8456	-0.030946892
165	0x3d335378	0.043780774
166	0xbd088dc8	-0.033338338
167	0x3b7069d3	0.003668417
168	0x3d2a2ed9	0.041548584
169	0x3d25b912	0.0404597
170	0x3d24dcb9	0.04024956
171	0x3d255089	0.040360007
172	0xbd20d456	-0.039265
173	0x3d154514	0.03644283
174	0x3d2cc61d	0.042181123
175	0xbd0805aa	-0.033208527
176	0x3cb8e0c3	0.022568112
177	0x3cb7bbfa	0.022428501
178	0xbcceeb73	-0.025258755
179	0x3c82c52a	0.015963156
180	0x3c9b0838	0.018924817
181	0xbcd7404a	-0.026275773
182	0x3ca500e1	0.02014202
183	0xbab3356d	-0.0013672538
184	0xbcc8579e	-0.024455842
185	0xbcb7aeb4	-0.022422172
186	0xbcbcf174	-0.023064353
187	0xbcc9184f	-0.024547724
188	0x3cc7bb50	0.02438131
189	0xbcb11da4	-0.021620579
190	0xbcb7345c	-0.022363834
191	0x3c9d20b8	0.01918064
192	0x3d0e81fe	0.03479194
193	0x3d14c6c7	0.03632238
194	0xbd1b5561	-0.03792322
195	0x3c9ef526	0.019404005
196	0x3cdcff1e	0.026977118
197	0xbd237d6f	-0.039914545
198	0x3ceebc84	0.029142626
199	0xbb45c4c1	-0.003017709
200	0xbd209204	-0.03920175
201	0xbd136868	-0.03598824
202	0xbd125340	-0.035723925
203	0xbd1a540b	-0.037677806
204	0x3d136c46	0.03599193
205	0xbd0a6bd5	-0.033794243
206	0xbd16d958	-0.03682837
207	0x3cd8f5d8	0.026484415
208	0xbd296b7f	-0.041362282
209	0xbd21abb3	-0.039470386
210	0x3d33cf6d	0.04389899
211	0xbcb730ec	-0.022362195
212	0xbd022ba5	-0.031779904
213	0x3d2f21b4	0.04275675
214	0xbd026dbf	-0.031842943
215	0x3c0cdff0	0.008598313
216	0x3d2dfa66	0.042475127
217	0x3d28e170	0.04123062
218	0x3d1f85da	0.03894601
219	0x3d2ffc4c	0.04296522
220	0xbd22237d	-0.039584626
221	0x3d1b93b3	0.037982654
222	0x3d205c5e	0.03915059
223	0xbd0ed8e1	-0.0348748
224	0xbd351500	-0.04420948
225	0xbd29d12d	-0.04145925
226	0x3d317bb6	0.04333087
227	0xbcc7484b	-0.024326464
228	0xbd0f07e0	-0.03491962
229	0x3d38bdbd	0.045102824
230	0xbd102089	-0.035187278
231	0x3c0c87e0	0.008577317
232	0x3d2eef8e	0.042708926
233	0x3d39c948	0.045357972
234	0x3d2aaec3	0.041670572
235	0x3d37225a	0.044710495
236	0xbd2d1105	-0.04225256
237	0x3d1f6d5f	0.038922664
238	0x3d29686b	0.041359346
239	0xbd0fe60d	-0.035131503
240	0x3d44095f	0.0478605
241	0x3d3f623a	0.046724536
242	0xbd55795f	-0.0521177
243	0x3cbd9b3a	0.023145307
244	0x3d082724	0.033240452
245	0xbd4f3bff	-0.050594326
246	0x3d116114	0.03549297
247	0xbc179411	-0.00925161
248	0xbd5a0f7d	-0.053237427
249	0xbd528ea2	-0.051405556
250	0xbd4d72b8	-0.050158232
251	0xbd4be5f5	-0.04977985
252	0x3d3c37e1	0.045951728
253	0xbd2a1b0e	-0.041529708
254	0xbd47c786	-0.048774265
255	0x3d0d232d	0.034457374

layers.0.egnn.coors_mlp.0.bias f4 [64]
0	0x3ce47a81	0.027890446
1	0x3e43fb02	0.1913872
2	0xbe5c9377	-0.21540628
3	0x3cff5391	0.031167777
4	0x3d7a9136	0.06117364
5	0x3e4db3f1	0.20088173
6	0x3e75f993	0.24020986
7	0x3e5ad536	0.21370396
8	0x3e5a0aee	0.21293232
9	0x3e8e0a1a	0.27742082
10	0xbe43e6f5	-0.19131072
11	0x3e8a8a14	0.2705847
12	0x3e5155b1	0.20442845
13	0xbde85b81	-0.11345578
14	0xbe3d11d1	-0.18463828
15	0x3e19f5e6	0.15035209
16	0xbd7ff966	-0.062493704
17	0xbd90086e	-0.07032858
18	0xbe614515	-0.21999009
19	0xbe5350dd	-0.20636316
20	0xbd6b2f58	-0.057418197
21	0xbd509cec	-0.050930902
22	0xbdc13c9c	-0.094353884
23	0xbe19ed9e	-0.1503205
24	0x3db503c8	0.08838612
25	0x3e86407f	0.26221082
26	0xbe2c90e3	-0.16852145
27	0x3d8aaec0	0.06771612
28	0xbe4ee52c	-0.2020461
29	0xbd46755a	-0.04845176
30	0xbe2642f7	-0.16236483
31	0x3e8035a5	0.25040928
32	0xbe11378f	-0.1418135
33	0xbc963a78	-0.018338427
34	0x3e48a29b	0.19593279
35	0xbdce41dc	-0.100711554
36	0xbe195992	-0.14975575
37	0x3e3ffeba	0.18749514
38	0xbd19d7aa	-0.03755919
39	0xbe40dc6c	-0.18834084
40	0x3e90c746	0.28277034
41	0xbe8f2d56	-0.27964276
42	0xbc2325e6	-0.009957766
43	0x3e46ec74	0.19426137
44	0x3e5c8426	0.21534786
45	0xbe76a5b3	-0.24086647
46	0xbe728901	-0.23685075
47	0x3da9713c	0.08273551
48	0x3e881481	0.26578143
49	0xbe10c8c3	-0.14139085
50	0x3e2083e1	0.15675308
51	0xbb94bb5b	-0.004538936
52	0xbe8c09bb	-0.27351174
53	0xbcd692b7	-0.026193006
54	0x3e0baaf5	0.13639434
55	0xbe5c4395	-0.21510155
56	0xbdfbc6a4	-0.12293747
57	0xbe83bdc2	-0.2573071
58	0xbd8c0030	-0.06835973
59	0xbc0cc8ff	-0.008592843
60	0xbe3ac8a7	-0.18240605
61	0x3de23ab9	0.11046357
62	0x3defa2d6	0.1170098
63	0x3dd73177	0.105074815

layers.0.egnn.coors_mlp.3.weight f4 [1, 64]
0	0xbc9c3049	-0.019065993
1	0xbd000982	-0.031259067
2	0x3d06e91f	0.032937165
3	0xbc9de5cb	-0.019274613
4	0xbcf5d162	-0.030007068
5	0xbd062efa	-0.032759644
6	0xbd01f6ad	-0.03172939
7	0xbd02f3f0	-0.03197092
8	0xbd0785d1	-0.0330866
9	0xbcf70988	-0.030155912
10	0x3cff3f62	0.031158153
11	0xbcd68290	-0.026185304
12	0xbcf535b0	-0.029932827
13	0x3d06581f	0.032798883
14	0x3d069430	0.032856166
15	0xbd104af3	-0.035227727
16	0x3ceb2afa	0.028707016
17	0x3ceb1128	0.028694704
18	0x3cfbd02e	0.030738916
19	0x3d098cdb	0.033581596
20	0x3cfedfb3	0.031112527
21	0x3cbcdd9a	0.023054887
22	0x3d0f6cce	0.035015874
23	0x3d0970d1	0.033554856
24	0xbd1473ff	-0.036243435
25	0xbd05bffc	-0.032653794
26	0x3d032e6b	0.03202669
27	0xbce3b33b	-0.027795425
28	0x3d06c610	0.03290373
29	0x3ceedd06	0.029158127
30	0x3cfda395	0.030961791
31	0xbcfc0f84	-0.030769117
32	0x3cf3305a	0.029686142
33	0x3c67378c	0.0141123645
34	0xbcfd42bd	-0.030915612
35	0x3cdc8355	0.026918093
36	0x3d069808	0.032859832
37	0xbcf656f4	-0.03007076
38	0x3cad1719	0.021129178
39	0x3cfb933b	0.030709853
40	0xbcfb6348	-0.03068699
41	0x3ceec4b6	0.029146533
42	0x3c64392b	0.0139296455
43	0xbd0b1b85	-0.03396179
44	0xbcfa0a0a	-0.030522365
45	0x3cedf95e	0.029049572
46	0x3ced5174	0.028969504
47	0xbcdd6723	-0.027026718
48	0xbceeec54	-0.029165424
49	0x3d03da2c	0.032190487
50	0xbd01932d	-0.0316345
51	0x3b7256e1	0.0036978053
52	0x3d001da9	0.031278286
53	0x3c971141	0.018440844
54	0xbcebd659	-0.028788732
55	0x3d034797	0.032050695
56	0x3cee6e3e	0.029105302
57	0x3cf8f7ef	0.030391661
58	0x3cd89a8d	0.026440883
59	0x3c6d94d4	0.014500815
60	0x3cf746a7	0.030185057
61	0xbd0c7ff4	-0.034301713
62	0xbd082129	-0.03323475
63	0xbd09dc05	-0.033657093

layers.0.egnn.vel_mlp.0.weight f4 [16, 4]
0	0x35b946f2	1.3804222e-06
1	0x399c0e43	0.00029765264
2	0xbb517bae	-0.0031964588
3	0x3b8d3af3	0.004310006
4	0xba5f865e	-0.0008526797
5	0x3a607b31	0.0008563279
6	0x3ac3ac68	0.00149287
7	0xbb7f9e7d	-0.0039004378
8	0xb90f49d9	-0.00013665053
9	0xb788744d	-1.626662e-05
10	0x3a189fc0	0.00058221444
11	0xbb219522	-0.002465554
12	0x398bc9b5	0.0002666243
13	0x3aa4c1cb	0.0012569962
14	0xba66a180	-0.0008797869
15	0x3b25c2e9	0.0025293177
16	0x39d70a10	0.00041015493
17	0x3a1a6f1d	0.0005891191
18	0x3b087253	0.0020820096
19	0xbadafec6	-0.0016708008
20	0xb985d138	-0.00025523617
21	0x3a0c3efa	0.00053499604
22	0xba8f501f	-0.0010933912
23	0x3a7ea74f	0.0009714262
24	0xba44e098	-0.0007510274
25	0x3941d300	0.00018484518
26	0x3a5b6a0f	0.0008369991
27	0xbaf87538	-0.0018955832
28	0x39784cb9	0.00023679704
29	0x3aa71263	0.0012746569
30	0x3b820c0f	0.0039687227
31	0xba6f97b0	-0.00091397297
32	0xb950fca3	-0.0001993054
33	0xba794cb8	-0.0009510028
34	0xba6b0564	-0.0008965342
35	0x3aed37a4	0.0018098247
36	0x3a56fde1	0.0008201283
37	0xba38e06a	-0.0007052483
38	0xbac78bef	-0.0015224199
39	0x3b380385	0.002807827
40	0x3aa0cf28	0.0012268769
41	0x3ac76a47	0.0015214168
42	0x3988f8f7	0.00026125435
43	0x3b49480d	0.0030713112
44	0xb9407f88	-0.00018358056
45	0xba3a075a	-0.00070964324
46	0x399d491c	0.00029999844
47	0xbb0dc680	-0.0021633208
48	0x3a76b850	0.000941162
49	0x391b832e	0.0001483082
50	0x390fa0e1	0.00013697475
51	0x3aa530bd	0.0012603026
52	0xb8c1223d	-9.2093345e-05
53	0xbb98d619	-0.0046641943
54	0xbbb57ae1	-0.00553833
55	0x3b06a893	0.0020547255
56	0xba790e5d	-0.00095007365
57	0xbae25cb6	-0.0017270062
58	0xb9facb47	-0.0004783517
59	0xbb429ed5	-0.0029696722
60	0xb9add7d7	-0.00033157945
61	0xba4a22a8	-0.00077108527
62	0xbb03b256	-0.002009531
63	0x3af069fd	0.0018342134

layers.0.egnn.vel_mlp.0.bias f4 [16]
0	0x3ed07559	0.4071453
1	0xbedfae52	-0.43687683
2	0xbdb52201	-0.08844376
3	0x3eecb528	0.4623196
4	0xbea5e5bc	-0.32401836
5	0xbec24670	-0.37944365
6	0x3d2d8b2a	0.042369045
7	0xbefcdbe3	-0.4938651
8	0x3ee59fbb	0.44848427
9	0xbeb57001	-0.35437015
10	0xbeb30ea1	-0.34972098
11	0xbe87a8fd	-0.26496115
12	0xbe79d427	-0.24397336
13	0xbee9aa87	-0.45637915
14	0xbedf34dc	-0.43595016
15	0xbed8787f	-0.4227943

layers.0.egnn.vel_mlp.3.weight f4 [1, 16]
0	0xba785f00	-0.00094746053
1	0xb888daa8	-6.525713e-05
2	0xb8a7aeed	-7.995763e-05
3	0xb9ac0971	-0.0003281343
4	0x39e7204a	0.0004408381
5	0x383628a2	4.3430024e-05
6	0xb920d180	-0.00015336834
7	0xb813a27f	-3.5198867e-05
8	0xb9b65dda	-0.0003478367
9	0x390bcf80	0.00013333373
10	0xb827891b	-3.9943592e-05
11	0x39911772	0.00027674023
12	0x38442b98	4.677064e-05
13	0x3b057d31	0.002036881
14	0x385fa0e2	5.3317177e-05
15	0xb9fabc99	-0.00047824232

layers.1.egnn.edge_mlp.0.weight f4 [20, 10]
0	0xbbbf33f8	-0.0058350526
1	0xbaf9eab9	-0.0019067145
2	0x390ed2d0	0.00013620709
3	0xba90ea0a	-0.0011056077
4	0x3c4cf858	0.012510382
5	0xbb8eb603	-0.0043551936
6	0xbbb9877e	-0.005661904
7	0xbbc6c763	-0.006066249
8	0x3b15a236	0.002283228
9	0x3b39bebc	0.0028342446
10	0x3afa79e0	0.0019109808
11	0x3b98da75	0.004664714
12	0x3b90ded1	0.004421093
13	0x3bde1923	0.006777899
14	0xbc6c684e	-0.014429165
15	0x3c0634ef	0.008191331
16	0x3c1066c6	0.008813566
17	0x3c060074	0.008178819
18	0xbb8ed371	-0.004358702
19	0xbbd0ecaf	-0.006375871
20	0xbc405b54	-0.011740524
21	0x3aa3691a	0.0012467236
22	0x3b93d41f	0.004511371
23	0x3aaba822	0.0013096372
24	0x3c3ab650	0.011396006
25	0xbafcf032	-0.0019297658
26	0xbade1a67	-0.0016945124
27	0xb9ba8d91	-0.0003558216
28	0xba95e975	-0.0011437373
29	0x3ac2676f	0.0014831851
30	0xbb77f701	-0.0037836435
31	0xbbb7455f	-0.0055929865
32	0xbb32c5b4	-0.0027278485
33	0xbb69fa8d	-0.0035702318
34	0x3c806eea	0.015677888
35	0xbc082e3d	-0.008311805
36	0xbc0800d1	-0.008300976
37	0xbbc7a306	-0.006092432
38	0x3baf92e9	0.005358089
39	0x3b9bd589	0.00475568
40	0xbbb9110c	-0.005647784
41	0xbb906d87	-0.004407588
42	0xbb7cdc54	-0.0038583474
43	0xbb7eab99	-0.0038859604
44	0x3c870bff	0.016485212
45	0xbbfa21fb	-0.0076334453
46	0xbbe6acd1	-0.0070396443
47	0xbc0fdd2a	-0.008780757
48	0x3bdf5b54	0.006816307
49	0x3bd38bb5	0.0064558634
50	0xbbeb224a	-0.0071757184
51	0xbb283fd3	-0.0025672808
52	0x3a684052	0.0008859682
53	0xba0c7e62	-0.00053594087
54	0x3c536cb8	0.012904339
55	0xbb9c63b4	-0.0047726277
56	0xbbe9f83e	-0.0071401885
57	0xbba1e00f	-0.00494004
58	0x3b8c2a77	0.004277523
59	0x3b88ab54	0.0041708145
60	0xb9a39c80	-0.00031206384
61	0xbc0aeac8	-0.008478828
62	0xbbabc63a	-0.0052421363
63	0xbc0a9b69	-0.008459904
64	0x3cb98f9b	0.022651484
65	0xbc3cb7bb	-0.011518414
66	0xbc5f57dc	-0.013631787
67	0xbc3b4380	-0.0114296675
68	0x3c1c2b9a	0.00953188
69	0x3c258a3e	0.01010376
70	0x364a0748	3.0104584e-06
71	0x3bacb707	0.005270842
72	0x3b544563	0.003238999
73	0x3c011a57	0.007879815
74	0xbc6356c6	-0.013875669
75	0x3c10fb0e	0.008848919
76	0x3c16fbaa	0.009215275
77	0x3c1a92ab	0.009434382
78	0xbbf8d99e	-0.0075943014
79	0xbbe224f0	-0.006901376
80	0xbb41c471	-0.002956655
81	0xbbfe6cf6	-0.007764454
82	0xbb965fa0	-0.004589036
83	0xbc01284e	-0.007883145
84	0x3c96167f	0.018321274
85	0xbc14deec	-0.009086352
86	0xbc3a3acd	-0.011366558
87	0xbbe2ecdd	-0.006925209
88	0x3c0ea48a	0.008706221
89	0x3c0b79cb	0.008512924
90	0xbca353b2	-0.01993737
91	0x3bf3f331	0.007444762
92	0x3c21bd01	0.009871722
93	0x3c122a5e	0.008921234
94	0x3bf7dc49	0.007564102
95	0x3b4a6193	0.0030880913
96	0x3b55d11e	0.0032625864
97	0x3b277221	0.0025550204
98	0xbbb011f1	-0.0053732325
99	0xbb9e1dae	-0.0048253154
100	0xbc0929cb	-0.008371781
101	0xbb68c17a	-0.0035515712
102	0xbb352777	-0.002764193
103	0xbb7ccfd2	-0.003857602
104	0x3cb3c243	0.021943217
105	0xbc0d7fb6	-0.008636406
106	0xbc24e824	-0.010065112
107	0xbbe1a504	-0.0068861265
108	0x3b917e9c	0.004440142
109	0x3bd294f5	0.0064264485
110	0x3ae37de5	0.0017356245
111	0x3a8e8fd5	0.0010876606
112	0x3b2e2df1	0.0026577676
113	0x3b8a1b8f	0.004214711
114	0xbbd41796	-0.006472538
115	0x3b56eab4	0.0032793703
116	0x3bb4b663	0.0055149063
117	0x3b7db409	0.0038712046
118	0xbb8931ca	-0.0041868435
119	0xbba18a7e	-0.0049298396
120	0xbbe1a6e8	-0.006886352
121	0xbb8e42ea	-0.004341473
122	0xb9615183	-0.00021488038
123	0xbb86e862	-0.0041170577
124	0x3c92f440	0.017938733
125	0xbbc8fa43	-0.006133349
126	0xbc12156b	-0.008916239
127	0xbb7ae862	-0.0038285484
128	0x3ba55e3d	0.0050466345
129	0x3b84727b	0.0040419674
130	0xbc8e381e	-0.017360743
131	0x3b4e7650	0.0031503625
132	0x3bcdfc6b	0.006286194
133	0x3b639d06	0.0034731044
134	0x3c18dea9	0.00933043
135	0xba70e43e	-0.0009189284
136	0xbb0b1925	-0.0021224704
137	0xbb04779c	-0.0020212894
138	0xbb16d971	-0.0023017789
139	0xba7e6016	-0.0009703649
140	0xbb150222	-0.0022736867
141	0xbbb3f175	-0.0054914304
142	0xbb4ec742	-0.0031551872
143	0xbbe1e842	-0.0068941424
144	0x3ca22a0f	0.019795446
145	0xbc3626ee	-0.01111768
146	0xbc40eae8	-0.011774756
147	0xbc086ff3	-0.008327472
148	0x3bf6a596	0.0075270636
149	0x3bcffcce	0.0063472753
150	0xbc9580cf	-0.018249897
151	0x3b447746	0.002997832
152	0x3c0f8046	0.00875861
153	0x3b70d462	0.0036747684
154	0x3c143206	0.00904513
155	0x3af0007c	0.0018310691
156	0xb94431b4	-0.00018710532
157	0x3b2be7ed	0.0026230768
158	0xbb21f6a0	-0.002471365
159	0xbb169aae	-0.002298038
160	0x3bceca6b	0.006310751
161	0xba29d8aa	-0.0006479124
162	0xbb37430b	-0.0027963545
163	0x38884fda	6.499859e-05
164	0xbb88f082	-0.0041790614
165	0xba1ebae7	-0.00060550723
166	0x393df092	0.00018114064
167	0x3a355c08	0.0006918316
168	0xba301a5f	-0.0006717797
169	0x39178e5b	0.00014453514
170	0xbb10fd34	-0.0022123577
171	0x3be29a00	0.006915331
172	0x3baf0352	0.005340972
173	0x3c0a7e5f	0.008452981
174	0xbc418e54	-0.011813719
175	0x3c0b7c51	0.008513526
176	0x3c1dbe1e	0.009627847
177	0x3be66b62	0.007031844
178	0xbc0a482e	-0.008440061
179	0xbbf29dbf	-0.0074040587
180	0xbaf83f93	-0.0018939845
181	0x3b9dbac3	0.0048135235
182	0x3b7a9343	0.0038234747
183	0x3be37720	0.006941691
184	0xbc1116c6	-0.008855527
185	0x3be6bdfa	0.00704169
186	0x3bdab9bb	0.006674973
187	0x3bce9902	0.006304861
188	0xbb664dd8	-0.0035141613
189	0xbbd51328	-0.0065025277
190	0xbc56826f	-0.013092621
191	0x3a8021ce	0.00097757
192	0x3b82f4ad	0.003996453
193	0x3b168b80	0.0022971332
194	0x3c36915c	0.011143055
195	0xbafeeb55	-0.0019448797
196	0xbb3ba689	-0.0028633198
197	0x39bdf6ce	0.00036232773
198	0xba5870ba	-0.00082565437
199	0xba104122	-0.00055028696

layers.1.egnn.edge_mlp.0.bias f4 [20]
0	0xbda6550f	-0.081216924
1	0x3e9113d2	0.28335434
2	0xbd8384ee	-0.06421839
3	0xbe15d58a	-0.1463224
4	0xbe18c51f	-0.14918946
5	0xbe0bf94e	-0.13669321
6	0xbe89e993	-0.26936015
7	0x3e9b5b0f	0.3034291
8	0xbe492b1d	-0.19645353
9	0xbc6f2001	-0.014595033
10	0xbe807169	-0.25086525
11	0x3d971868	0.07377702
12	0xbe3bb3a4	-0.18330246
13	0xbd89d652	-0.067303315
14	0xbe525af6	-0.20542511
15	0xbd424289	-0.047426734
16	0x3d80dccc	0.06292114
17	0x3e4dd86d	0.20102091
18	0x3dc0cfb4	0.09414616
19	0xbd8cbecc	-0.06872329

layers.1.egnn.edge_mlp.3.weight f4 [16, 20]
0	0x3b30969e	0.0026945244
1	0xbba9f555	-0.0051867166
2	0x3b880e26	0.0041520773
3	0x3b007db3	0.0019606173
4	0x3ba2ba60	0.0049660653
5	0x3b1c2204	0.0023823986
6	0x3b6babcf	0.003596056
7	0xbba41211	-0.0050070365
8	0x3b68f3af	0.0035545637
9	0xbbacc1ad	-0.0052721114
10	0x3ab3fb1e	0.0013731455
11	0xbb692723	-0.0035576306
12	0x3b4ec7de	0.0031552236
13	0x3a7c1a59	0.0009616963
14	0x3b63dd4d	0.0034769357
15	0xba91f8d5	-0.001113678
16	0xbabed7b9	-0.001456014
17	0xbb99083b	-0.0046701706
18	0xbba7a635	-0.005116249
19	0x3b8c13eb	0.0042748353
20	0xbcbce5ab	-0.023058733
21	0x3ce6574b	0.028117796
22	0xbcb04c2d	-0.021520698
23	0xbcda2933	-0.026630973
24	0xbcbf3ecc	-0.023345374
25	0xbcdb253a	-0.02675115
26	0xbce43400	-0.027856827
27	0x3cd0b4cb	0.025476834
28	0xbce77275	-0.02825282
29	0xbb8cb97e	-0.0042945733
30	0xbcf37acb	-0.029721638
31	0x3c9c1adb	0.019055774
32	0xbcd9ac80	-0.026571512
33	0xbc9df7e6	-0.019283246
34	0xbce0ee83	-0.027457481
35	0xbc7cd4d3	-0.015431601
36	0x3ca80287	0.020509018
37	0x3cd57c07	0.026060117
38	0x3cb1915c	0.021675758
39	0xbcb8c93d	-0.022556895
40	0xbcaae9ce	-0.02086344
41	0x3cd500cc	0.026001357
42	0xbca3e4f2	-0.02000663
43	0xbcc1966e	-0.0236313
44	0xbcc32276	-0.023820143
45	0xbcbe2a94	-0.023213662
46	0xbcd6d8d8	-0.026226446
47	0x3ccfc054	0.025360264
48	0xbcd42edc	-0.02590125
49	0xbb50ec63	-0.0031879179
50	0xbcdcfd91	-0.026976379
51	0x3c966765	0.01835985
52	0xbcd633b2	-0.026147697
53	0xbcab1dad	-0.020888174
54	0xbcc2fc3b	-0.023801913
55	0xbc74c5fe	-0.014939783
56	0x3c90ffe1	0.017700138
57	0x3cbdf5a6	0.023188423
58	0x3caf8d48	0.021429673
59	0xbca27879	-0.019832836
60	0xbb66de96	-0.0035227886
61	0x3bc16fe1	0.0059032296
62	0xbb2a2806	-0.0025963797
63	0xbb8f3f78	-0.0043715797
64	0xbb71672c	-0.0036835177
65	0xbb935fa9	-0.0044974876
66	0xbbacb71a	-0.005270851
67	0x3b9cc61a	0.0047843577
68	0xbb7454c2	-0.0037281965
69	0x3b934dbe	0.0044953516
70	0xbb3414ff	-0.0027478335
71	0x3bb5750a	0.005537634
72	0xbb94fec8	-0.004546974
73	0xbb52316d	-0.0032072917
74	0xbb8a3d14	-0.004218707
75	0x3aba9354	0.0014234581
76	0x3ba093df	0.00490044
77	0x3bc334cf	0.005957223
78	0x3b9cba98	0.004782986
79	0xbb5244a7	-0.0032084377
80	0x3cefb803	0.029262548
81	0xbd18b988	-0.03728631
82	0x3cf4d8eb	0.02988859
83	0x3d0f34ad	0.034962345
84	0x3d183232	0.037157245
85	0x3d0d2a35	0.03446408
86	0x3d1e2a85	0.03861477
87	0xbd1f1e0b	-0.03884701
88	0x3d15dc16	0.036586843
89	0x3c364219	0.011124157
90	0x3d166cd1	0.03672487
91	0xbcd2a41f	-0.025713025
92	0x3d15e416	0.036594473
93	0x3cfd72c4	0.030938514
94	0x3d1aa741	0.037757162
95	0x3cc92fd5	0.02455894
96	0xbcd43f0b	-0.025908967
97	0xbd10730b	-0.035265964
98	0xbcf2f03e	-0.029655572
99	0x3cf8f7f4	0.03039167
100	0xbd0152c2	-0.031573065
101	0x3d1af2cb	0.0378292
102	0xbcf41b36	-0.029798131
103	0xbd119a98	-0.035547823
104	0xbd118d40	-0.035535097
105	0xbd10eec2	-0.035383947
106	0xbd1d852e	-0.03845709
107	0x3d1b03db	0.037845474
108	0xbd0d14be	-0.03444361
109	0xbc3cbffb	-0.011520381
110	0xbd245412	-0.04011924
111	0x3cd9a52a	0.026568014
112	0xbd1a08ba	-0.03760598
113	0xbcf860eb	-0.030319652
114	0xbd185ea6	-0.03719964
115	0xbcc593b8	-0.02411829
116	0x3cdd0f94	0.026984967
117	0x3d0e736b	0.03477804
118	0x3cef6ec0	0.029227614
119	0xbcfd8682	-0.030947927
120	0x3bd492ef	0.0064872424
121	0xbc0c058d	-0.008546245
122	0x3b961fef	0.0045814435
123	0x3be928c6	0.0071154563
124	0x3bdf8099	0.00682075
125	0x3bb5ce20	0.0055482537
126	0x3bf61fef	0.007511131
127	0xbc09ff31	-0.008422659
128	0x3bbb3ba3	0.0057138964
129	0xbb47188c	-0.0030379621
130	0x3bb87df8	0.005630251
131	0xbbcdb09d	-0.0062771575
132	0x3bfb93d7	0.007677536
133	0x3b46f690	0.0030359365
134	0x3bb4e099	0.005519938
135	0x3a4ba564	0.00077684806
136	0xbbb2d969	-0.005458046
137	0xbc12d04f	-0.008960797
138	0xbc09a894	-0.008402009
139	0x3b6753c5	0.0035297733
140	0x3b80719b	0.003919793
141	0xbac9f01b	-0.001540664
142	0x3b3624e7	0.0027792992
143	0x3b3644ad	0.002781193
144	0x3b83fbb8	0.00402781
145	0x3b84cc6f	0.0040526907
146	0x3b8e6dc8	0.004346583
147	0xbb721e07	-0.0036944167
148	0x3b49d5ab	0.0030797522
149	0xbb91fb7e	-0.004455029
150	0x3b800ef8	0.0039080344
151	0xbb6a4eec	-0.0035752608
152	0x3b36bd69	0.0027883893
153	0x3a1b80ea	0.00059319905
154	0x3b6710ba	0.0035257773
155	0xbacc7890	-0.0015599895
156	0xbb14a115	-0.002267902
157	0xbb1cb312	-0.0023910445
158	0xbbd87c65	-0.006606626
159	0x3b32c7ee	0.0027279812
160	0x3b7f8056	0.0038986406
161	0xbb2743a5	-0.0025522497
162	0x3a5d6ed0	0.00084469933
163	0x3b3265a1	0.002722122
164	0x3b85a131	0.0040780534
165	0x3ae1b7e7	0.0017220945
166	0x3b0023dd	0.0019552626
167	0xbb431859	-0.002976915
168	0x3b7a4f49	0.003819423
169	0xbbabb3d1	-0.0052399416
170	0x3b0545e6	0.0020335852
171	0xbb8d5f9a	-0.004314375
172	0x3af2a6d1	0.001851285
173	0x3b027462	0.0019905795
174	0x3b25c6d1	0.0025295506
175	0x387b3552	5.989272e-05
176	0xba967dbc	-0.0011481564
177	0xbb5e08f0	-0.003387984
178	0xbb766310	-0.0037595667
179	0x3acffd9e	0.001586843
180	0xbb84aa7c	-0.0040486436
181	0x3b1dd4a9	0.0024083054
182	0xbb07e37f	-0.0020734963
183	0xbb851e39	-0.0040624407
184	0xbb1afab1	-0.002364796
185	0xbb392092	-0.0028248173
186	0xbb0d337c	-0.002154558
187	0x3ba1ff16	0.0049437387
188	0xbb595f5a	-0.0033168406
189	0x3bb976f2	0.0056599313
190	0xbb26cdfa	-0.0025452361
191	0x3b6da7ec	0.003626342
192	0xbaa4f425	-0.0012584968
193	0xbae59a25	-0.0017517252
194	0xbb84ea52	-0.0040562535
195	0x3acce9e3	0.0015633669
196	0x3bc6e4f0	0.006069772
197	0x3b888357	0.0041660476
198	0x3b5777d6	0.0032877824
199	0xbb5930d0	-0.0033140667
200	0x3b58a045	0.0033054512
201	0xbb4b47dc	-0.0031018173
202	0x3ab935fd	0.001413047
203	0x3b4d2b8f	0.003130648
204	0x3b328fc5	0.0027246338
205	0x3b34c938	0.0027585756
206	0x3ab8a85f	0.0014088264
207	0xbb4db3fa	-0.0031387792
208	0x3ae42f2e	0.001740908
209	0xbb940fc7	-0.0045184824
210	0x3b11807a	0.0022201822
211	0xbb35a578	-0.0027717035
212	0x3b09219c	0.0020924574
213	0x38987a8b	7.27075e-05
214	0x3b185eae	0.0023249793
215	0xba825d6c	-0.0009946055
216	0xbb26f763	-0.0025477044
217	0xbb84a859	-0.004048389
218	0xbbd05049	-0.006357227
219	0x3afedd2d	0.0019444578
220	0x3af54a6a	0.0018714194
221	0xba33e90f	-0.00068630365
222	0xb9d0ea5e	-0.0003984747
223	0xb40f60a8	-1.3353076e-07
224	0x3ac4f8b1	0.0015027729
225	0x397a0f20	0.00023847492
226	0x3a3f7cb4	0.0007304654
227	0xb825c6d0	-3.9524224e-05
228	0xba8c5705	-0.0010707086
229	0x3bfb5903	0.007670523
230	0x3ab933aa	0.0014129777
231	0x3a46df96	0.00075864175
232	0xb998c639	-0.00029139387
233	0x3aa6be93	0.001272159
234	0x3a944e75	0.0011314886
235	0x3ba8468d	0.0051353634
236	0xba75883b	-0.0009366308
237	0x3b1ae155	0.0023632844
238	0xb938e036	-0.00017631133
239	0x3b0166f8	0.0019745212
240	0x3c023424	0.007947002
241	0xbc73dce6	-0.014884209
242	0x3bafaa44	0.0053608734
243	0x3c3120d4	0.0108110495
244	0x3c401566	0.011723852
245	0x3c3ba2a1	0.011452348
246	0x3c799361	0.015232892
247	0xbc65dcb2	-0.014029669
248	0x3c51fc2a	0.012816468
249	0xbc864dd3	-0.016394531
250	0x3c543334	0.012951661
251	0xbb90fab1	-0.004424416
252	0x3c6fface	0.014647199
253	0x3b6d40f9	0.0036202057
254	0x3c41a45b	0.011818971
255	0xbb8d7958	-0.004317444

layers.1.egnn.edge_mlp.3.bias f4 [16]
0	0x3e008865	0.1255203
1	0x3c007218	0.007839702
2	0x3be6c297	0.00704224
3	0xbd94304f	-0.07235777
4	0xbd04edbb	-0.03245328
5	0x3cf719df	0.030163703
6	0x3d9e5bb1	0.077323325
7	0x3e0934f0	0.133991
8	0x3de9dbec	0.114189
9	0xbdaf7ddc	-0.08568928
10	0x3e042bae	0.12907287
11	0xbe5ce324	-0.21571022
12	0x3ccf7ead	0.025328958
13	0x3e5a0985	0.21292694
14	0x3e3f4fff	0.1868286
15	0x3d8d1728	0.06889182
