data/models/best_model_N20_batch32_lr0.001_fd4_b0.7.pth (torch, 31338 bytes, 32 tensors)

time_embedding.0.weight f4 [8, 1]
0	0x3e6678e8	0.2250706
1	0x3f6d2ac1	0.9264336
2	0x3f194386	0.5986866
3	0x3e244598	0.16042173
4	0x3edb3c92	0.4281965
5	0xbd18e235	-0.037325103
6	0x3ede34af	0.4339957
7	0x3eefdea5	0.46849552

time_embedding.0.bias f4 [8]
0	0x3e250739	0.16116036
1	0x3f22a96c	0.6353977
2	0x3f1b211e	0.6059741
3	0xbf576dd0	-0.84151936
4	0xbde00f7b	-0.10940453
5	0x3d43ed4b	0.047833722
6	0x3e9b4334	0.3032471
7	0xbdb15e8b	-0.08660611

time_embedding.3.weight f4 [4, 8]
0	0xbe0b9693	-0.13631658
1	0xbe65e057	-0.2244886
2	0x3e1d1da4	0.15343338
3	0xbd05195b	-0.032494884
4	0x3e0f9b7b	0.14024155
5	0xbe11cb5f	-0.14237736
6	0x3dbe996a	0.09306605
7	0x3eacbd02	0.33737952
8	0x3d986862	0.074417844
9	0x3dd7f388	0.10544497
10	0xbe3b3ad6	-0.18284163
11	0x3e6826ab	0.22671
12	0xbc6992cf	-0.014256193
13	0xbe254b26	-0.16141948
14	0xbc9cc00c	-0.019134544
15	0xbe209817	-0.15683018
16	0x3d4843a1	0.04889262
17	0xbe607dee	-0.21923038
18	0x3e8f7b96	0.28023976
19	0x3e577503	0.2104073
20	0x3c9e9dbb	0.019362321
21	0x3eac9f13	0.33715114
22	0xbd21ee5c	-0.039533958
23	0x3ea8dbd0	0.32980204
24	0xbe58b9c0	-0.21164608
25	0x3d8f54a6	0.06998567
26	0x3e8fbdf6	0.28074616
27	0x3ea913d1	0.3302293
28	0xbe687524	-0.22700936
29	0x3ea23753	0.31682834
30	0xbcdd2661	-0.02699584
31	0xbe242cbc	-0.1603269

time_embedding.3.bias f4 [4]
0	0x3ebd53ef	0.369781
1	0x3eb60747	0.35552427
2	0xbcc5389f	-0.02407485
3	0xbd5bc861	-0.053657893

layers.0.egnn.edge_mlp.0.weight f4 [20, 10]
0	0x3dcc92c5	0.099889316
1	0x3e616b1d	0.22013517
2	0x3dbef7bf	0.093245976
3	0x3dbea0ac	0.093079895
4	0x3dd3071c	0.103040904
5	0x3e60315c	0.21893829
6	0x3db58917	0.088640384
7	0x3dc5ae80	0.09652424
8	0x3d362c50	0.044475853
9	0x3df740bc	0.12072894
10	0xbd15ea3e	-0.036600344
11	0xbe082f69	-0.13299336
12	0xbd15e9b8	-0.036599845
13	0xbd0064e2	-0.03134621
14	0xbd0ec39c	-0.034854516
15	0xbe154004	-0.14575201
16	0xbd08abb0	-0.03336686
17	0xbd08fdc8	-0.03344515
18	0xbb5a7129	-0.003333161
19	0xbd0d3ea2	-0.03448356
20	0x3d49d5bd	0.049276102
21	0x3e1f33e7	0.15547143
22	0x3d72e420	0.05929959
23	0x3d499e5f	0.0492233
24	0x3d4ff5e2	0.0507716
25	0x3e217e4e	0.15770838
26	0x3d5cea85	0.053934593
27	0x3d45a080	0.048248768
28	0xbb6aef56	-0.0035848222
29	0x3d4caefd	0.04997157
30	0x3d494ba6	0.04914441
31	0x3e05ef41	0.1307955
32	0x3d90015c	0.07031509
33	0x3d5a5dbd	0.053312052
34	0x3d4850a4	0.04890503
35	0x3e0d422b	0.13794772
36	0x3d870f55	0.06594721
37	0x3d65ba83	0.056086075
38	0x3bf293fe	0.007402896
39	0x3d13a7a5	0.03604855
40	0xbe2e5d6b	-0.17027824
41	0xbeb7e252	-0.35914856
42	0xbd9193a0	-0.07108235
43	0xbe10b25e	-0.14130542
44	0xbe27fad2	-0.16404274
45	0xbec2d2c4	-0.38051426
46	0xbd480a16	-0.048837744
47	0xbe07e25d	-0.13269944
48	0xbda47091	-0.08029283
49	0xbe4bea07	-0.19913493
50	0x3d8d7497	0.069070034
51	0x3e3c123f	0.18366335
52	0x3d90b0ec	0.07064995
53	0x3d879c20	0.06621575
54	0x3d8e712f	0.06955182
55	0x3e3cc8d6	0.18435988
56	0x3d890ed6	0.06692283
57	0x3d861781	0.06547452
58	0x3c6965e1	0.014245481
59	0x3da2077b	0.07911583
60	0x3dd3d270	0.10342872
61	0x3e638069	0.22216953
62	0x3dbaa013	0.09112563
63	0x3dc1f0a4	0.09469727
64	0x3dd5e44d	0.104439355
65	0x3e639b3c	0.22227186
66	0x3dbbc007	0.09167486
67	0x3dc6bc57	0.09703892
68	0x3d3c5704	0.045981422
69	0x3dfeecde	0.124475226
70	0x3cdde649	0.027087348
71	0x3d764fb7	0.060134616
72	0x3d8258ce	0.063645944
73	0x3d5d6ac6	0.054056905
74	0x3cd8da67	0.02647133
75	0x3d997613	0.07493224
76	0x3d5e5034	0.054275706
77	0x3d6c0fa0	0.05763209
78	0x3d2ad48f	0.041706618
79	0xbb87e503	-0.0041471734
80	0x3d78da05	0.060754795
81	0xbd95dac8	-0.0731712
82	0x3e6396f8	0.22225559
83	0x3e4fc272	0.20289019
84	0x3d86fc31	0.065910704
85	0xbd99679e	-0.074904665
86	0x3e587702	0.21139148
87	0x3e54bc5d	0.2077498
88	0x3e5538ff	0.20822524
89	0xbbbedd95	-0.0058247545
90	0xbd9c7a54	-0.0764052
91	0xbe61820c	-0.22022265
92	0xbd49bb7b	-0.04925106
93	0xbd875bf0	-0.066093326
94	0xbd99e6c9	-0.07514722
95	0xbe6ca57b	-0.23110001
96	0xbd1858d2	-0.03719408
97	0xbd7a78d9	-0.061150406
98	0xbc2c1798	-0.010503672
99	0xbdad9058	-0.08474797
100	0x3dab74f4	0.083719164
101	0x3e4e768f	0.20162414
102	0x3da53ecf	0.080686204
103	0x3da3ffc6	0.08007769
104	0x3db0f940	0.08641291
105	0x3e4ee644	0.20205027
106	0x3da30966	0.07960777
107	0x3da3e3e8	0.08002454
108	0x3cebfeb4	0.028807975
109	0x3dc8d8c1	0.098069675
110	0x3cab6e51	0.020926626
111	0x3baf5e0b	0.005351787
112	0x3da255d0	0.07926524
113	0x3dc3d67a	0.095623925
114	0x3ca1e236	0.019761186
115	0x3cbdfd15	0.023191968
116	0x3d97e67e	0.0741701
117	0x3dc839fd	0.097766854
118	0x3dcc97e1	0.09989906
119	0xbc94807a	-0.018127669
120	0x3da96776	0.08271687
121	0x3e4afd8d	0.19823284
122	0x3da6f319	0.08151836
123	0x3da04c67	0.078270726
124	0x3dae6b1c	0.08516523
125	0x3e4cb7a9	0.19991936
126	0x3d9dad2e	0.07699047
127	0x3da72760	0.08161807
128	0x3ce60f17	0.028083367
129	0x3dc70089	0.09716899
130	0xbcfd9368	-0.030954078
131	0xbdd11f9d	-0.10211108
132	0xbd25c9fe	-0.040475838
133	0xbcfa49a3	-0.03055269
134	0xbd0dccdc	-0.034619197
135	0xbde38097	-0.11108511
136	0xbd1d62e3	-0.038424384
137	0xbd0c307f	-0.034225937
138	0xbc860257	-0.016358538
139	0xbcbd4e76	-0.023108702
140	0x3daba74d	0.083815195
141	0x3e4fcc59	0.20292796
142	0x3d9e35a5	0.07725076
143	0x3da0c4f6	0.07850067
144	0x3db08ca6	0.086205766
145	0x3e502783	0.20327573
146	0x3d9b2fc8	0.07577473
147	0x3da3baa3	0.079945825
148	0x3cedaecc	0.029014014
149	0x3dce6f25	0.10079793
150	0xbe3fa1b3	-0.18714027
151	0xbecea235	-0.4035813
152	0xbd539baf	-0.051662143
153	0xbe1b0ac6	-0.15140828
154	0xbe3aecc6	-0.18254384
155	0xbeda4c67	-0.42636415
156	0xbcd694b3	-0.026193952
157	0xbe0e3da5	-0.13890703
158	0xbdd1261e	-0.102123484
159	0xbe6a735f	-0.22895573
160	0x3dec6dc4	0.11544374
161	0x3e6fe645	0.23427685
162	0x3dcc1136	0.0996422
163	0x3ddabbc6	0.10680346
164	0x3df271aa	0.11838086
165	0x3e6fa93a	0.23404399
166	0x3dcddb56	0.10051601
167	0x3ddc7b8d	0.10765753
168	0x3d73ffc1	0.059570078
169	0x3e0ec8ff	0.13943861
170	0xbc4b1559	-0.012395226
171	0x3e23edf2	0.16008738
172	0xbe19bf4e	-0.15014383
173	0xbd97aed4	-0.07406393
174	0xbca32df3	-0.019919371
175	0x3e32e7fd	0.17471309
176	0xbe1da8a3	-0.15396361
177	0xbdb8bf83	-0.09020903
178	0xbdd186b4	-0.10230771
179	0x3cd8bc36	0.026456933
180	0xbe8e7ae9	-0.27828148
181	0xbecd5bce	-0.40109104
182	0xbe4dc12e	-0.20093223
183	0xbe7be2a0	-0.2459817
184	0xbe8a455f	-0.2700605
185	0xbeda5db3	-0.42649612
186	0xbe3a3a2b	-0.18186252
187	0xbe73f125	-0.23822458
188	0xbe7144a5	-0.23561342
189	0xbe8e83ed	-0.27835026
190	0xbc716b40	-0.014735043
191	0x3df2bbfc	0.118522614
192	0xbdfb4bb3	-0.12270298
193	0xbd85ed7f	-0.065394394
194	0xbca62b45	-0.020284304
195	0x3e0687d7	0.13137756
196	0xbe03c372	-0.12867525
197	0xbd9cf7b3	-0.076644324
198	0xbda86937	-0.08223193
199	0x3c9dbbdf	0.019254623

layers.0.egnn.edge_mlp.0.bias f4 [20]
0	0x3c84c745	0.0162083
1	0x3e224ae2	0.15848878
2	0xbdd4b436	-0.10385935
3	0xbe394583	-0.18092923
4	0xbda2f44b	-0.079567514
5	0xbd910795	-0.07081524
6	0x3d2fab53	0.042887997
7	0xbe675322	-0.22590306
8	0xbe8e12bf	-0.27748677
9	0x3d8596ba	0.065228894
10	0xbd45c34e	-0.04828196
11	0xbe965766	-0.29363555
12	0xbd89d436	-0.06729929
13	0x3e34cc80	0.17656136
14	0xbcb387d1	-0.021915348
15	0xbe1de5c0	-0.15419674
16	0x3dc921d5	0.09820906
17	0x3e93f48b	0.2889751
18	0xbe847116	-0.25867528
19	0x3e7efe60	0.24901724

layers.0.egnn.edge_mlp.3.weight f4 [16, 20]
0	0x3d0d1756	0.034446083
1	0x3c80508a	0.015663404
2	0xbc7f25c1	-0.015572966
3	0xbc79a184	-0.015236262
4	0xbd24e875	-0.04026075
5	0xbb206e5a	-0.0024479837
6	0x3d2a6208	0.041597396
7	0xbcb22b51	-0.02174917
8	0xbdb2225a	-0.08697958
9	0x3bbd53b0	0.0057777986
10	0x3c2073fb	0.009793277
11	0xbd2eeea9	-0.042708073
12	0x3baa6189	0.0051996154
13	0x3c8353a4	0.016031094
14	0x3c6bcb28	0.014391698
15	0xbd728ee2	-0.059218295
16	0x3d8d978e	0.069136724
17	0x3d32e0d8	0.04367146
18	0xbe0865d4	-0.13320094
19	0x3ce3f652	0.027827416
20	0x3d106132	0.035248943
21	0x3c4435a8	0.011975683
22	0xbc892640	-0.016741872
23	0xbc87f0ad	-0.016594255
24	0xbd3d7528	-0.046254307
25	0xba98f9d0	-0.001167113
26	0x3d39b274	0.0453362
27	0xbc717de5	-0.014739488
28	0xbd838334	-0.064215094
29	0x3b775c07	0.0037744062
30	0x3c340729	0.010988035
31	0xbce7cb24	-0.028295107
32	0x3c0a433a	0.00843888
33	0x3c1ef5d1	0.009702162
34	0x3c910d5a	0.017706562
35	0xbd868ec0	-0.06570196
36	0x3d8e06dc	0.06934902
37	0x3ce30c82	0.027715925
38	0xbe0cca1f	-0.13748978
39	0x3c6e65de	0.014550654
40	0x3d16d2b8	0.03682205
41	0x3c36569b	0.011129047
42	0xbc8046ff	-0.015658854
43	0xbc837088	-0.01604487
44	0xbd3b674e	-0.045752816
45	0xba808af2	-0.0009807034
46	0x3d3c2288	0.04593137
47	0xbc73b5d3	-0.014874893
48	0xbd81fde2	-0.063472524
49	0x3b3cda93	0.0028816804
50	0x3c4b6774	0.012414802
51	0xbcd779ef	-0.02630326
52	0x3bdcb468	0.0067353733
53	0x3c3c04ca	0.011475751
54	0x3c9db439	0.019250976
55	0xbd801218	-0.06253451
56	0x3d8e9b7d	0.06963251
57	0x3d015945	0.031579275
58	0xbe0e3358	-0.13886774
59	0x3c7b5d80	0.015342116
60	0x3d1ccff4	0.038284257
61	0x3c413527	0.011792458
62	0xbc787b87	-0.01516617
63	0xbc819c86	-0.015821707
64	0xbd3905b4	-0.045171455
65	0x37e7575f	2.7578031e-05
66	0x3d3f6cab	0.046734493
67	0xbc684726	-0.014177119
68	0xbd899b20	-0.06719041
69	0x3b5e669c	0.0033935672
70	0x3c6cd0f8	0.014454119
71	0xbcf31eeb	-0.029677829
72	0x3c2de5ca	0.010613868
73	0x3c22a731	0.009927557
74	0x3c9971a7	0.018730951
75	0xbd859d76	-0.06524174
76	0x3d903d1b	0.07042905
77	0x3cf00a04	0.02930165
78	0xbe0d7ffd	-0.13818355
79	0x3c826b15	0.015920201
80	0xbdf90e2c	-0.12160906
81	0x3cbb78b5	0.022884706
82	0xbd3fdc3f	-0.046840902
83	0xbd097265	-0.03355636
84	0x3dee1116	0.11624353
85	0xbd93a145	-0.07208494
86	0xbe08461f	-0.13307999
87	0xbc851b54	-0.016248383
88	0xbc1dabff	-0.009623527
89	0x3d5c7835	0.053825576
90	0xbdb798bd	-0.089646794
91	0xbcc43628	-0.023951605
92	0xbdad3b5d	-0.08458588
93	0x3c995b7b	0.01872038
94	0xbdcaf6d4	-0.0991036
95	0x3e107ef6	0.14110932
96	0xbe21fdfc	-0.15819544
97	0xbd0a7311	-0.033801142
98	0x3e5c77fc	0.21530145
99	0xbc96e8fe	-0.018421646
100	0x3cff57a2	0.031169716
101	0x3c631a99	0.013861322
102	0xbc9c5908	-0.019085422
103	0xbc90f3f2	-0.017694447
104	0xbd203478	-0.039112538
105	0xbbd3f175	-0.006467993
106	0x3d2340c6	0.039856695
107	0xbc96831a	-0.018373061
108	0xbd91de32	-0.071224585
109	0x3c0cda68	0.008596994
110	0x3bc310b4	0.005952919
111	0xbd17ed00	-0.037091255
112	0x3b8b0072	0.0042419964
113	0x3c512bb5	0.012766768
114	0x3c327602	0.010892393
115	0xbd653105	-0.05595495
116	0x3d814a9c	0.06313059
117	0x3d080b1d	0.033213723
118	0xbe048428	-0.12941039
119	0x3c9995e1	0.018748226
120	0x3d26c071	0.04071087
121	0x3c20730c	0.009793054
122	0xbc54f77d	-0.012998459
123	0xbc636d47	-0.013881034
124	0xbd42bedc	-0.0475453
125	0x3ac9035d	0.0015336085
126	0x3d46cd89	0.048535857
127	0xbc3885b1	-0.011262343
128	0xbd7c1819	-0.06154642
129	0x3aa830ec	0.0012831963
130	0x3c8611a1	0.016365828
131	0xbcd09579	-0.0254619
132	0x3c376671	0.0111938575
133	0x3bfa0c6a	0.0076308744
134	0x3ca0738e	0.01958635
135	0xbd8a1304	-0.06741908
136	0x3d93f61d	0.07224677
137	0x3cd68997	0.026188655
138	0xbe1017aa	-0.14071527
139	0x3c5d2353	0.0134971915
140	0xbdd00c3b	-0.10158583
141	0x3c855455	0.016275564
142	0xbcf24142	-0.029572133
143	0xbcb0b920	-0.02157265
144	0x3dcd3495	0.10019795
145	0xbd546fc4	-0.0518644
146	0xbde5202a	-0.111877754
147	0xbc681fcf	-0.01416774
148	0xbad0db24	-0.001593445
149	0x3d3107a1	0.043220166
150	0xbd92f13a	-0.071749166
151	0xbca2924a	-0.019845147
152	0xbd85028a	-0.06494625
153	0x3c61ba86	0.013777381
154	0xbd9e4dc9	-0.0772968
155	0x3dfd41be	0.12366055
156	0xbe0ee844	-0.1395579
157	0xbce0a5b7	-0.027422769
158	0x3e4d4b47	0.20048247
159	0xbc5b64ac	-0.013390701
160	0xbdde32e5	-0.10849551
161	0x3c969178	0.018379912
162	0xbd12e16a	-0.035859503
163	0xbcdc870e	-0.026919868
164	0x3dd787de	0.105239615
165	0xbd6f2733	-0.058386993
166	0xbdf1fc29	-0.11815674
167	0xbc75f134	-0.015011121
168	0xbbbc021d	-0.0057375566
169	0x3d3c7b4c	0.046016023
170	0xbd9e6122	-0.0773337
171	0xbcba1832	-0.022716615
172	0xbd9481f0	-0.07251346
173	0x3c755887	0.01497472
174	0xbdb22eb2	-0.08700313
175	0x3e03b31e	0.12861297
176	0xbe110d36	-0.14165196
177	0xbd038fff	-0.032119747
178	0x3e4fd6a2	0.2029672
179	0xbc82c0c7	-0.015961064
180	0xbdc86e31	-0.09786642
181	0x3c7910dd	0.015201774
182	0xbce70a8c	-0.028203271
183	0xbca4e2f5	-0.020127753
184	0x3dc8536e	0.09781538
185	0xbd47b35e	-0.048755042
186	0xbddcd548	-0.10782868
187	0xbc5b51bc	-0.013386186
188	0x3a4161b9	0.00073769275
189	0x3d2626a8	0.04056421
190	0xbd8b16bd	-0.06791446
191	0xbc9a26a3	-0.018817252
192	0xbd81b492	-0.06333269
193	0x3c584eba	0.013202364
194	0xbd971c6d	-0.07378469
195	0x3dfabd32	0.122431174
196	0xbe0a9ff7	-0.13537584
197	0xbcd6f1e1	-0.026238384
198	0x3e4c8018	0.19970739
199	0xbc26073c	-0.010133561
200	0xbdbce99c	-0.09224245
201	0x3c59fef0	0.013305411
202	0xbcc4c9c9	-0.024022
203	0xbc85819f	-0.01629716
204	0x3dc4c43c	0.09607741
205	0xbd369251	-0.044573132
206	0xbdcee2bf	-0.10101842
207	0xbc603f52	-0.013686972
208	0x3b872f0f	0.004125483
209	0x3d1b0a2a	0.03785149
210	0xbd7c0948	-0.06153229
211	0xbc8a2de8	-0.016867593
212	0xbd6616fe	-0.05617427
213	0x3c569dbb	0.013099129
214	0xbd8b777a	-0.06809898
215	0x3df928cb	0.12165984
216	0xbe04c27d	-0.12964816
217	0xbcc74301	-0.024323942
218	0x3e4bef70	0.19915557
219	0xbc225c8b	-0.009909759
220	0xbdde2dac	-0.10848555
221	0x3ca3c5f3	0.01999185
222	0xbd18ebf7	-0.03733441
223	0xbcd8da02	-0.026471142
224	0x3de974e8	0.11399251
225	0xbd7032eb	-0.05864231
226	0xbdf53115	-0.11972252
227	0xbc8dfc8d	-0.01733234
228	0x3a9da47b	0.0012027168
229	0x3d53e8e4	0.051735774
230	0xbd9f66f2	-0.07783307
231	0xbca15b22	-0.019696776
232	0xbd913acf	-0.07091295
233	0x3c8a81f5	0.016907671
234	0xbdaf8dff	-0.085720055
235	0x3e0d6a4c	0.1381008
236	0xbe193421	-0.14961292
237	0xbd0bfbfe	-0.034175865
238	0x3e5f8f80	0.21832085
239	0xbc5b0efc	-0.013370272
240	0x3d0242e6	0.03180208
241	0x3c43a3bf	0.011940896
242	0xbc9df372	-0.019281123
243	0xbc94c939	-0.018162357
244	0xbd1cd804	-0.038291946
245	0xbbf1d982	-0.0073806653
246	0x3d2008b0	0.039070785
247	0xbc876aab	-0.016530355
248	0xbd86880c	-0.06568918
249	0x3c1a9adb	0.0094363345
250	0x3be83a40	0.007087022
251	0xbd0130df	-0.031540748
252	0x3b23daf4	0.0025002332
253	0x3c36c44f	0.011155202
254	0x3c408d6b	0.011752467
255	0xbd6bbd30	-0.05755347

layers.0.egnn.edge_mlp.3.bias f4 [16]
0	0x3d966db2	0.073451415
1	0x3e699560	0.22810888
2	0x3e7ac877	0.24490534
3	0x3e2d8a72	0.16947344
4	0xbe937edb	-0.2880772
5	0x3dacf6d4	0.08445516
6	0x3e80eb57	0.2517955
7	0xbe2adc9b	-0.16685717
8	0xbe6221e5	-0.22083242
9	0xbe0b7931	-0.1362045
10	0xbdcda90c	-0.10042009
11	0xbde25e49	-0.1105314
12	0x3df2c43e	0.118538365
13	0x3e1dfdbc	0.15428823
14	0xbe4be004	-0.19909674
15	0xbdbb5638	-0.09147304

layers.0.egnn.node_mlp.0.weight f4 [8, 20]
0	0xb9eb9b9e	-0.00044938637
1	0xba8a1fbe	-0.0010538024
2	0xb6fe73b4	-7.5832595e-06
3	0x3a16dee6	0.00057552604
4	0xbaf7b697	-0.001889902
5	0x39f7103f	0.00047123616
6	0xba1678c8	-0.00057400437
7	0xb9193777	-0.0001461188
8	0xb92abb0d	-0.00016282145
9	0xbb47e33a	-0.0030500428
10	0xbb1d7c28	-0.0024030302
11	0xba87e4cd	-0.001036787
12	0xba304e60	-0.0006725546
13	0x39c4e24f	0.00037552646
14	0x39cde7c7	0.00039273335
15	0xba6cee8a	-0.00090382306
16	0xbaa26b19	-0.0012391537
17	0xba9326bb	-0.0011226753
18	0x3ac53654	0.0015046098
19	0x3a9c2b19	0.00119147
20	0xba1ceb10	-0.0005985955
21	0xb96c071f	-0.00022509367
22	0x3a69efce	0.00089239783
23	0x392e204e	0.00016605968
24	0xba4d7cfc	-0.00078387535
25	0x3aa0c765	0.0012266455
26	0xba0aea67	-0.0005299211
27	0xb8818732	-6.1763814e-05
28	0x39d0e40c	0.0003984276
29	0x3b446d20	0.002997227
30	0x3b00f411	0.0019676725
31	0xba4200ad	-0.00074006134
32	0xb9a47bfa	-0.00031372887
33	0xba3ba727	-0.00071583915
34	0xbabcf9b2	-0.0014417677
35	0xba36a991	-0.00069680164
36	0x395f827f	0.00021315551
37	0xba25881a	-0.0006314531
38	0x3a89317a	0.0010467016
39	0x39cb1668	0.0003873587
40	0x3a1fc50c	0.0006094731
41	0x3a2b2d48	0.000652988
42	0xbb04fe3c	-0.0020293137
43	0xb977b51f	-0.00023623228
44	0x37871386	1.6102345e-05
45	0x3ad34093	0.0016117267
46	0x3998c143	0.0002913569
47	0xba8c5d42	-0.0010708945
48	0xb9db31ff	-0.00041808185
49	0xb95b8544	-0.00020935113
50	0xba7752de	-0.00094346504
51	0xb960f9dd	-0.00021455386
52	0x3aa0feb5	0.001228294
53	0xba81b3a1	-0.0009895453
54	0x3856be0e	5.1198578e-05
55	0x3ad0655d	0.0015899349
56	0xbb309dcf	-0.002694953
57	0x3a0d6ac7	0.0005394634
58	0xba969d2f	-0.0011490936
59	0x394569b0	0.00018826756
60	0x3aaebe81	0.0013331921
61	0x393b9e81	0.00017892757
62	0xb775ae68	-1.4643745e-05
63	0x3788f9ca	1.632878e-05
64	0xb9b3b7c0	-0.00034278445
65	0x394283b5	0.00018550346
66	0x3a6a327e	0.00089339155
67	0xba8b6b87	-0.0010636904
68	0x3a9f1ce2	0.0012139345
69	0x3a7ddcf5	0.0009684109
70	0xba1f0dae	-0.0006067407
71	0x394708b4	0.00018981361
72	0x39dbc468	0.0004191727
73	0xba2ddac5	-0.00066320255
74	0xb947550b	-0.000190098
75	0x3a938709	0.0011255454
76	0x39f39c1f	0.0004646489
77	0xba663095	-0.0008781043
78	0xba1d5099	-0.00060010847
79	0x392c9172	0.00016457381
80	0x3a2f15af	0.00066789513
81	0xbaab3021	-0.0013060608
82	0xba529496	-0.0008033005
83	0x3a4ebdb1	0.00078865426
84	0x3992eca9	0.00028023616
85	0xbaac8297	-0.0013161477
86	0xb99a387f	-0.00029415262
87	0x3af895ea	0.0018965576
88	0x3a07f2c6	0.00051860174
89	0x3a3bf5a5	0.0007170088
90	0xb94b8002	-0.00019407275
91	0x37d882bc	2.5810084e-05
92	0x3b0409d3	0.0020147457
93	0x3aabfedb	0.0013122217
94	0x3a81d8ae	0.0009906495
95	0xb9e1d4db	-0.00043073934
96	0x3ab6e1e2	0.0013952816
97	0x3a4231d5	0.0007407938
98	0x392634e8	0.00015850703
99	0x3a38ea5d	0.0007053966
100	0xba430166	-0.0007438868
101	0x3a233f33	0.0006227374
102	0x38e0fc9b	0.00010728204
103	0x39d109c7	0.0003987087
104	0x3a878df2	0.0010341986
105	0x39f24751	0.00046210972
106	0xb7b7c3cf	-2.190648e-05
107	0x392d9c35	0.00016556757
108	0xbb091d70	-0.0020922087
109	0xb9bb6a13	-0.0003574645
110	0x390c61da	0.00013387893
111	0x3ab51179	0.0013814411
112	0x3a53b684	0.0008076208
113	0xbaef695d	-0.0018265654
114	0x3a5231f8	0.000801831
115	0xba95a0d4	-0.0011415728
116	0x3a374917	0.0006991787
117	0xba0bd0b9	-0.00053335313
118	0x395efe80	0.00021266378
119	0x3a4339e6	0.0007447287
120	0xba08fa7a	-0.0005225312
121	0x395ccd4f	0.00021057318
122	0x3a2103df	0.00061422394
123	0xba8be56b	-0.001067323
124	0x39cec23b	0.00039436095
125	0xb9ebc279	-0.00044967586
126	0xb92511cc	-0.00015742256
127	0x39bfa314	0.00036551862
128	0xbaada7a2	-0.0013248811
129	0x3a8427cf	0.0010082665
130	0x3a22f60f	0.0006216475
131	0xb923b4ce	-0.00015612246
132	0x3a9d5716	0.0012004103
133	0x39376097	0.00017488223
134	0xb95fdd97	-0.00021349486
135	0xba953fcd	-0.0011386812
136	0x3a2b54a6	0.0006535746
137	0x3a99e48f	0.0011741089
138	0xba8bb031	-0.0010657368
139	0x3a3dfc06	0.0007247332
140	0x3abbac53	0.0014318324
141	0x3a13a5d6	0.00056323165
142	0xbabbc66e	-0.0014326104
143	0x39cb53a3	0.00038781491
144	0xba6a058c	-0.0008927218
145	0x3abd2d3b	0.0014433035
146	0xba0cd525	-0.0005372337
147	0xb998f7b5	-0.00029176255
148	0xba81d04e	-0.0009903999
149	0xb85571fd	-5.0889317e-05
150	0x3a1603cc	0.00057226117
151	0xba68acf3	-0.0008875869
152	0xbacd446a	-0.0015660648
153	0x39bcabba	0.000359861
154	0xbaea1d6f	-0.0017861555
155	0xba8c5b17	-0.0010708299
156	0x3a6bc9ad	0.00089945906
157	0xba469b29	-0.0007576221
158	0x39cd942f	0.00039211052
159	0x39d9c70d	0.0004153777

layers.0.egnn.node_mlp.0.bias f4 [8]
0	0x3e48c414	0.19606048
1	0x3e186542	0.14882377
2	0x3da04e8e	0.07827483
3	0xbdb3d5c6	-0.087810084
4	0x3e2d0a19	0.16898383
5	0xbda68c1a	-0.08132191
6	0x3d890fb9	0.06692452
7	0x3d212a72	0.03934712

layers.0.egnn.node_mlp.3.weight f4 [4, 8]
0	0x3a2fd59e	0.00067075517
1	0xb96934bd	-0.00022240258
2	0xba8768f5	-0.0010330962
3	0xba7b53ee	-0.00095873966
4	0x3a46e28b	0.0007586858
5	0x3a23d346	0.0006249439
6	0x3abc4ebf	0.001436673
7	0xb9fcce46	-0.0004821887
8	0xba034b93	-0.0005008515
9	0xb87cabb9	-6.024141e-05
10	0x3a12b322	0.0005596151
11	0x3a8b0bb3	0.0010608345
12	0xb9a21c8f	-0.00030920326
13	0x3ae6b617	0.0017601874
14	0x39931dbb	0.00028060176
15	0xb9cb50a7	-0.00038779268
16	0x39aa5b46	0.0003249293
17	0xb7ec2801	-2.815202e-05
18	0xba001f75	-0.00048875
19	0x3937c361	0.00017525024
20	0xbaaa97de	-0.0013015231
21	0xb9b14b82	-0.00033816329
22	0xb9f41111	-0.00046552022
23	0x3a708312	0.00091748044
24	0xbab6b6de	-0.0013939997
25	0xbac6ec24	-0.0015176577
26	0xba2e6092	-0.00066519633
27	0x3aafe1bd	0.0013418716
28	0x3a773716	0.00094305107
29	0xba9e0e90	-0.0012058783
30	0x3a400e3a	0.00073263387
31	0xbb0b6598	-0.0021270271

layers.0.egnn.node_mlp.3.bias f4 [4]
0	0xbc885b4c	-0.016645096
1	0x3ea5e564	0.32401574
2	0xbe9b3e76	-0.3032109
3	0xbe22e9a5	-0.15909441

layers.0.egnn.coors_mlp.0.weight f4 [64, 16]
0	0xbc57b0e0	-0.013164729
1	0xbc8862ea	-0.016648728
2	0xbca55544	-0.02018226
3	0xbc806bdc	-0.015676431
4	0x3cf629b7	0.030049188
5	0xbc43e512	-0.01195647
6	0xbc9fc5d9	-0.01950352
7	0x3cf73274	0.030175425
8	0x3cf6aa5e	0.030110534
9	0x3d03cc3a	0.032177188
10	0x3d13e009	0.03610233
11	0x3d450c28	0.048107296
12	0xbc43039e	-0.011902718
13	0xbc8eaf9a	-0.017417718
14	0x3d06be28	0.03289619
15	0x3d1e5c9e	0.038662545
16	0xbbf128ad	-0.0073595853
17	0xbc4a4694	-0.012345929
18	0xbc375a9c	-0.011191037
19	0xbc262b5d	-0.010142175
20	0x3cbab1df	0.022789894
21	0xbb8fc47a	-0.0043874355
22	0xbc754894	-0.014970917
23	0x3cd0bd69	0.025480943
24	0x3cc4154f	0.023935942
25	0x3cc3a8ed	0.023884261
26	0x3cf3da51	0.029767187
27	0x3d1b9288	0.03798154
28	0xbbc9c619	-0.0061576483
29	0xbc34ce34	-0.011035491
30	0x3cce35ac	0.025172077
31	0x3d06b7ae	0.032890014
32	0xbcb57b95	-0.022153655
33	0xbccada85	-0.024762401
34	0xbcd1b9fa	-0.025601376
35	0xbcc31ea6	-0.023818325
36	0x3d2402a2	0.040041573
37	0xbcb4543e	-0.022012826
38	0xbcddb9f4	-0.027066208
39	0x3d2253ce	0.039630704
40	0x3d1e97a2	0.038718827
41	0x3d27b482	0.04094363
42	0x3d34e0bf	0.044159647
43	0x3d6dba44	0.058038965
44	0xbcae55fb	-0.021281233
45	0xbcbdbbf5	-0.023160914
46	0x3d24da46	0.040247224
47	0x3d41f81f	0.047355767
48	0xbc9b37a6	-0.018947434
49	0xbcbbcc25	-0.022924492
50	0xbcbc8edf	-0.023017345
51	0xbcad97a9	-0.021190481
52	0x3d0c909e	0.034317605
53	0xbc8479b0	-0.016171306
54	0xbcc3505d	-0.023842031
55	0x3d1223c5	0.035678644
56	0x3d0f6959	0.035012577
57	0x3d1d619c	0.038423166
58	0x3d267fe7	0.04064932
59	0x3d584602	0.05280114
60	0xbc84da3f	-0.01621735
61	0xbca2e066	-0.019882392
62	0x3d153061	0.03642309
63	0x3d36ed8d	0.04466014
64	0xbc26c8a8	-0.010179676
65	0xbc825601	-0.01591015
66	0xbc637099	-0.013881826
67	0xbc6ea3cb	-0.0145654185
68	0x3cf38d35	0.029730419
69	0xbc162372	-0.009163724
70	0xbc8ffbee	-0.017576184
71	0x3ce385f0	0.027773827
72	0x3cd46f69	0.02593203
73	0x3cd3e8d8	0.025867864
74	0x3d0c121b	0.034196954
75	0x3d344623	0.0440122
76	0xbc186004	-0.009300236
77	0xbc338e07	-0.010959155
78	0x3ce62f9f	0.02809888
79	0x3d11ac04	0.035564438
80	0xbc93b5d4	-0.018031038
81	0xbcb68352	-0.022279415
82	0xbcb62ef7	-0.022239191
83	0xbca70299	-0.02038698
84	0x3d0950ba	0.033524252
85	0xbc6295af	-0.013829633
86	0xbcbb1164	-0.022835441
87	0x3d06e6bf	0.0329349
88	0x3d08d52d	0.033406425
89	0x3d147525	0.03624453
90	0x3d1ee682	0.038794048
91	0x3d53eb85	0.05173828
92	0xbc7bd0e7	-0.01536963
93	0xbc9a6589	-0.018847244
94	0x3d186d1a	0.037213422
95	0x3d2a47af	0.04157227
96	0x3ba85cda	0.005138022
97	0x3c5544d2	0.013016896
98	0x3c8002b8	0.015626296
99	0x3c3f1f3e	0.011665164
100	0xbcecc02e	-0.028900232
101	0x3b004d07	0.0019577162
102	0x3c695b8f	0.014243021
103	0xbcca07c3	-0.024661904
104	0xbce56f53	-0.028007185
105	0xbcdd74c3	-0.027033215
106	0xbced61cf	-0.028977303
107	0xbd29ea10	-0.041482985
108	0x3bf42263	0.0074503883
109	0x3c460190	0.0120853335
110	0xbce3cbee	-0.027807202
111	0xbcfa731f	-0.030572472
112	0xbc93d77f	-0.018047092
113	0xbc371dc3	-0.011176529
114	0xbc54efc6	-0.01299662
115	0xbc696b18	-0.014246725
116	0x3c11d02b	0.008899729
117	0xbc851fcf	-0.01625052
118	0xbc5ab030	-0.01334767
119	0x3c0bc10c	0.008529913
120	0x3bf598a3	0.0074950024
121	0x3bde021e	0.0067751547
122	0x3bea90d7	0.0071583795
123	0x3b0f3aa6	0.0021855026
124	0xbc73f8ff	-0.014890908
125	0xbc52b594	-0.012860674
126	0x3bf4b134	0.0074674133
127	0x3b9f22eb	0.0048564575
128	0xbc219965	-0.009863232
129	0xbc5d7dc1	-0.013518752
130	0xbc829263	-0.015938943
131	0xbc46b086	-0.012127047
132	0x3cdaf4a1	0.026727976
133	0xbbb75fe6	-0.005596149
134	0xbc9294f9	-0.017893301
135	0x3cd1e538	0.025621995
136	0x3cd93e31	0.026518913
137	0x3ce289a7	0.027653528
138	0x3d005c2c	0.031337902
139	0x3d2bb5c3	0.04192139
140	0xbc22cf30	-0.009937093
141	0xbc220d09	-0.009890803
142	0x3cf4ae26	0.029868197
143	0x3d0c3066	0.034225844
144	0x3b257bb1	0.0025250728
145	0x3c1e6b56	0.009669146
146	0x3c4a92cb	0.0123641
147	0x3c0dcec3	0.008655253
148	0xbcd30248	-0.025757924
149	0xb99491c7	-0.00028337372
150	0x3c3957ea	0.011312464
151	0xbcbb1a7e	-0.02283978
152	0xbcc98ec7	-0.024604214
153	0xbcbc2544	-0.022966988
154	0xbcca3d62	-0.024687473
155	0xbd15443b	-0.036442023
156	0x3b682960	0.0035425052
157	0x3c116737	0.008874706
158	0xbcd60663	-0.026126092
159	0xbce3c4f2	-0.027803872
160	0x39c0cfb8	0.00036775856
161	0x3c1947a6	0.009355461
162	0x3c0181cf	0.007904484
163	0x3bd9563f	0.006632596
164	0xbcd46a71	-0.025929661
165	0xbb311f91	-0.0027026872
166	0x3c2486c3	0.010041895
167	0xbca54a7e	-0.020177122
168	0xbca476d0	-0.020076185
169	0xbcb3ad72	-0.021933291
170	0xbcb18b93	-0.021673
171	0xbd12493b	-0.03571437
172	0x3b18b9da	0.0023304136
173	0x3bef633b	0.0073055304
174	0xbcca9ab9	-0.02473198
175	0xbcce5c00	-0.025190353
176	0xbb480bb8	-0.0030524563
177	0xbc16e1d6	-0.009209117
178	0xbc2c1296	-0.010502478
179	0xbbd8d5ff	-0.006617307
180	0x3caf9319	0.021432446
181	0xbb46a178	-0.0030308645
182	0xbc1ea8aa	-0.009683767
183	0x3c99d981	0.018780472
184	0x3cbe5b73	0.023236966
185	0x3cabfc13	0.020994222
186	0x3cca46e7	0.024692012
187	0x3d163ee8	0.036681086
188	0xbb828815	-0.0039835074
189	0xbbcf8d04	-0.006333949
190	0x3cab4cc5	0.02091063
191	0x3cde3c8d	0.027128482
192	0xbc96085b	-0.018314531
193	0xbcb3958b	-0.021921894
194	0xbcb20dd3	-0.021735108
195	0xbcb35781	-0.021892311
196	0x3d12e399	0.035861585
197	0xbc70e13f	-0.01470214
198	0xbcb9ab6f	-0.022664754
199	0x3d05c894	0.03266199
200	0x3d0710ae	0.03297489
201	0x3d15f7c6	0.03661325
202	0x3d265429	0.040607605
203	0x3d55c667	0.052191164
204	0xbc806e89	-0.015677707
205	0xbca8f8a4	-0.020626374
206	0x3d19a2e6	0.037508868
207	0x3d382c10	0.044963896
208	0x3a803176	0.0009780366
209	0x3c2541c6	0.010086482
210	0x3c401177	0.011722914
211	0x3c01c9c3	0.007921639
212	0xbcd923ce	-0.02650633
213	0xba468a57	-0.0007573715
214	0x3c4e160a	0.012578497
215	0xbcbe1168	-0.02320166
216	0xbccdd4a7	-0.025125815
217	0xbcc1d7e0	-0.023662508
218	0xbcd1a0a9	-0.025589304
219	0xbd163e8a	-0.036680736
220	0x3aa424a2	0.0012523124
221	0x3beef96b	0.0072929165
222	0xbcd79f69	-0.02632113
223	0xbcd6aee1	-0.026206436
224	0xbb669035	-0.003518117
225	0xbc2db69b	-0.010602619
226	0xbc224b0c	-0.009905588
227	0xbc085d80	-0.008323073
228	0x3cbd766c	0.023127757
229	0xbb0aa91d	-0.0021157928
230	0xbc401ee3	-0.011726114
231	0x3cb20ebf	0.021735547
232	0x3cb59999	0.022167968
233	0x3cbb33e7	0.022851897
234	0x3cf20997	0.029545588
235	0x3d215db5	0.039396007
236	0xbb64138c	-0.003480169
237	0xbc0554e2	-0.008137913
238	0x3cd77915	0.026302854
239	0x3cf16070	0.02946493
240	0xbb4a1f00	-0.0030841231
241	0x3bdc59e1	0.0067245816
242	0x3be1c159	0.006889504
243	0x3bafc730	0.005364321
244	0xbca3214e	-0.019913342
245	0xbb01a06e	-0.0019779461
246	0x3c0ed991	0.008718864
247	0xbca2b2b8	-0.01986061
248	0xbc98d29f	-0.01865512
249	0xbc9ca526	-0.019121718
250	0xbcb778f8	-0.02239655
251	0xbcff82c4	-0.031190284
252	0xba220085	-0.0006179887
253	0x3b7f407f	0.0038948355
254	0xbcb77515	-0.022394696
255	0xbcd0fe7b	-0.02551197

layers.0.egnn.coors_mlp.0.bias f4 [64]
0	0xbe1354be	-0.14387795
1	0xbdda9855	-0.10673586
2	0xbe81d9a5	-0.25361362
3	0xbe591b03	-0.2120171
4	0xbe08eba9	-0.13371147
5	0xbe369792	-0.17831257
6	0x3e8caec6	0.27477092
7	0x3cf0a99c	0.029377751
8	0xbe0899f5	-0.1333998
9	0x3e52f7ee	0.2060239
10	0x3e3761c1	0.17908384
11	0xbe238c42	-0.15971473
12	0xbe5799bb	-0.21054737
13	0x3e4de9c2	0.20108703
14	0xbdf8e71a	-0.12153454
15	0x3e1426c4	0.14467913
16	0x3e5a6b33	0.21329956
17	0xbe6f023e	-0.23340699
18	0xbe21d9e4	-0.15805775
19	0x3e2f15da	0.1709818
20	0x3e530fdf	0.20611523
21	0xbe74835f	-0.23878239
22	0xbe40bb8e	-0.18821546
23	0xbe744914	-0.23856002
24	0xbe256b9c	-0.16154331
25	0xbe202646	-0.156396
26	0xbe901278	-0.2813909
27	0xbe8e69fc	-0.27815235
28	0xbe2a0c55	-0.16606267
29	0x3e5bd238	0.21466911
30	0x3da649e1	0.0811956
31	0xbbc70660	-0.006073758
32	0x3e8fff8b	0.2812465
33	0x3d498953	0.04920323
34	0xbdb25115	-0.087068714
35	0x3e569324	0.20954567
36	0xbd5824d2	-0.05276949
37	0xbe5deaa8	-0.21671546
38	0xbe26f356	-0.16303763
39	0x3e272a04	0.16324621
40	0xbe2eab3e	-0.17057511
41	0xbe49e5f3	-0.19716625
42	0x3deb45bc	0.1148791
43	0xbc32ca47	-0.0109124845
44	0xbd9ed384	-0.07755187
45	0x3b18e373	0.002332893
46	0x3e28c7b0	0.16482425
47	0xbdd734d7	-0.10508125
48	0x3d6d68fe	0.057961456
49	0xbdad823d	-0.084721066
50	0x3e34253d	0.1759233
51	0x3e70a4e1	0.23500396
52	0xbe226a9b	-0.1586098
53	0xbd593193	-0.053025793
54	0xbdf88da2	-0.12136389
55	0xbd8b9688	-0.06815821
56	0x3e2c45d0	0.16823506
57	0x3decc572	0.11561097
58	0x3d5c76c8	0.053824216
59	0x3dca76ac	0.09885916
60	0xbdc68d1d	-0.09694884
61	0x3e84ebe0	0.25961208
62	0x3e40b87c	0.18820375
63	0xbde5b3cb	-0.112159334

layers.0.egnn.coors_mlp.3.weight f4 [1, 64]
0	0x3cc75852	0.024334107
1	0x3cae43ce	0.021272566
2	0x3ce2569b	0.027629187
3	0x3cda02ba	0.026612628
4	0x3cbf5d7a	0.023360003
5	0x3cd3a6cc	0.02583637
6	0xbcd85e8d	-0.026412273
7	0xba905860	-0.0011012666
8	0x3cbf93f6	0.023385983
9	0xbccba7da	-0.024860311
10	0xbcc3f712	-0.023921523
11	0x3cb7d7c2	0.022441749
12	0x3cdb0f2f	0.026740639
13	0xbccb77ca	-0.024837393
14	0x3cafd3aa	0.021463234
15	0xbcb5cca7	-0.022192312
16	0xbcc71109	-0.024300115
17	0x3ce12d45	0.027487407
18	0x3ccd0294	0.025025643
19	0xbe1188e0	-0.1421237
20	0xbcc289a7	-0.023747278
21	0x3ce972b3	0.028497076
22	0x3cd8dce6	0.02647252
23	0x3ce6f39d	0.028192336
24	0x3cca3caf	0.02468714
25	0x3ccc9bd7	0.024976654
26	0x3ced0793	0.028934276
27	0x3cdf6af6	0.027272683
28	0x3e1f52d3	0.15558939
29	0xbcd0ce7a	-0.02548908
30	0xbc848a13	-0.01617912
31	0xbbd1c057	-0.0064011025
32	0xbce1ad47	-0.027548445
33	0xbb8ac084	-0.0042343754
34	0x3c988474	0.018617846
35	0xbcc888d4	-0.024479307
36	0x3c36cf6c	0.011157852
37	0x3cdd637d	0.027024979
38	0x3ccecdb4	0.025244571
39	0xbcbf1301	-0.023324491
40	0x3cd22445	0.02565206
41	0x3cd3ffb2	0.025878761
42	0xbca05bfc	-0.019575112
43	0x3942e01b	0.00018584768
44	0x3c8a4e22	0.01688296
45	0xbb87862f	-0.004135869
46	0xbcb410f8	-0.021980748
47	0x3ca27688	0.01983191
48	0xbbf00e71	-0.0073259403
49	0x3c95978f	0.018260745
50	0xbcc46a64	-0.023976512
51	0xbcc52323	-0.024064606
52	0x3cc95baf	0.024579851
53	0x3c3621ce	0.011116458
54	0x3cb78789	0.022403495
55	0x3c775cd0	0.015097812
56	0xbcb963f3	-0.022630667
57	0xbc9e46ad	-0.01932081
58	0xbc2df17a	-0.0106166545
59	0xbdab271e	-0.083570704
60	0x3c94e44e	0.01817527
61	0xbcd977a3	-0.026546305
62	0xbcc7c259	-0.024384664
63	0x3caf7d31	0.021422

layers.0.egnn.vel_mlp.0.weight f4 [16, 4]
0	0x3b14dfba	0.002271636
1	0x3ab2f44d	0.001365313
2	0xba304979	-0.00067248155
3	0xba355367	-0.000691703
4	0x377e1ed8	1.5146761e-05
5	0xbb0f9810	-0.0021910705
6	0xbb00e513	-0.001966779
7	0xb9563dd3	-0.00020431662
8	0xbb5123a6	-0.0031912117
9	0x3b3f99cf	0.0029235964
10	0x384daa3e	4.903436e-05
11	0x3b5e3d4c	0.0033911048
12	0xbae4e73d	-0.0017463934
13	0x3b66294f	0.0035119837
14	0x3b6be6e1	0.003599577
15	0x3ae486d9	0.0017435207
16	0xba866901	-0.0010254682
17	0xbb7d1079	-0.0038614555
18	0xbac4ce0d	-0.0015015021
19	0xb9ba7ba9	-0.0003556882
20	0xbb269a34	-0.0025421502
21	0xbaf0ce87	-0.0018372097
22	0x39a64d95	0.0003171979
23	0x3aad1c14	0.001320722
24	0xb9767942	-0.0002350556
25	0x3b066db6	0.002051217
26	0x3b04a2b2	0.0020238576
27	0x39f82e84	0.00047336903
28	0x3b27cc2e	0.0025603878
29	0x3a28e656	0.0006443014
30	0xba9003b0	-0.0010987427
31	0xbacb93af	-0.0015531684
32	0x3b343979	0.0027500077
33	0x3b1a84d8	0.0023577716
34	0xb9c5af7f	-0.00037705523
35	0xba4d5f33	-0.0007834315
36	0x3b0eea08	0.0021806974
37	0x3aa1a142	0.0012331384
38	0xba268383	-0.0006351994
39	0xba50ca71	-0.00079647364
40	0xbb8ab992	-0.0042335475
41	0x3b617907	0.0034404413
42	0x3992e77f	0.00028019768
43	0x3c071b16	0.008246204
44	0x3befcb12	0.007317909
45	0xba04d83b	-0.0005067621
46	0xba27f201	-0.0006406606
47	0xbbfcf5f3	-0.007719749
48	0x3b0a6463	0.0021116964
49	0xbb936542	-0.004498155
50	0xba8747db	-0.0010321097
51	0xbb828de4	-0.0039842
52	0xbae38870	-0.0017359387
53	0xb945130c	-0.0001879448
54	0x3a589879	0.0008262466
55	0x3a8bca61	0.0010665172
56	0x3bb9b6fb	0.005667565
57	0xba801dc2	-0.0009774494
58	0x3b1aaf23	0.0023602925
59	0xbb800252	-0.0039065266
60	0x3af4bd9b	0.001867223
61	0x3ac6ec54	0.0015176632
62	0xba78bfe2	-0.0009489042
63	0x3abe8af8	0.0014537266

layers.0.egnn.vel_mlp.0.bias f4 [16]
0	0xbed9cc48	-0.42538667
1	0xbe2823ad	-0.16419859
2	0xbe809856	-0.25116223
3	0x3e73a760	0.23794317
4	0x3e070093	0.13183813
5	0xbca5b4d3	-0.020227825
6	0xbec20abe	-0.3789882
7	0xbd8c17f5	-0.06840507
8	0x3d8250d7	0.06363075
9	0xbea52006	-0.32250994
10	0xbcad819c	-0.021179967
11	0xbece5abe	-0.40303606
12	0xbef36f25	-0.47545734
13	0xbebf2828	-0.37335324
14	0x3d832725	0.064039506
15	0xbe52db76	-0.2059153

layers.0.egnn.vel_mlp.3.weight f4 [1, 16]
0	0x39b4981a	0.000344456
1	0xb8edbf83	-0.000113367125
2	0xbb6df24c	-0.003630775
3	0xba03a9b7	-0.0005022543
4	0xb9230294	-0.00015545852
5	0xba47f209	-0.00076273136
6	0x38a8a05d	8.040734e-05
7	0x3a65989a	0.0008758396
8	0x3a25f0a8	0.0006330111
9	0x39ca4987	0.00038583225
10	0xbb6fdd7c	-0.003660052
11	0x3b908291	0.004410096
12	0x3af9f912	0.0019071421
13	0xba71a6a0	-0.00092182495
14	0x3b44d504	0.0030034194
15	0xb9a4885e	-0.0003138212

layers.1.egnn.edge_mlp.0.weight f4 [20, 10]
0	0x3b1de133	0.0024090528
1	0x3c1f97c9	0.009740778
2	0x3b737d12	0.0037153405
3	0x3b42767c	0.0029672673
4	0x3bb340b5	0.00547036
5	0x3bd50af9	0.006501552
6	0x3bfe5bfe	0.007762431
7	0x3b73bb52	0.003719051
8	0x3aa4d0bb	0.0012574414
9	0x3a8311f5	0.0009999858
10	0x3cebe3a7	0.028795077
11	0x3ce765f6	0.028246861
12	0x3ce1c5ba	0.027560104
13	0x3ceb1847	0.0286981
14	0x3cdde306	0.027085792
15	0x3ce356da	0.027751375
16	0x3cdbf669	0.026850896
17	0x3cedcc6c	0.02902814
18	0x3cce23dd	0.025163585
19	0x3cdefa54	0.027218975
20	0xbd045bdf	-0.032314178
21	0xbcf40313	-0.029786622
22	0xbcf9d347	-0.030496253
23	0xbcfb8891	-0.030704768
24	0xbd06375e	-0.032767646
25	0xbcfee556	-0.031115215
26	0xbcf7e82b	-0.030262074
27	0xbcf1a94e	-0.029499676
28	0xbd0067bf	-0.03134894
29	0xbcff0ae4	-0.031133123
30	0xbcf48936	-0.029850584
31	0xbced87a7	-0.028995348
32	0xbcdbceea	-0.026832063
33	0xbce0ee0d	-0.027457261
34	0xbcf6b1a0	-0.030113995
35	0xbceaa4d0	-0.028643042
36	0xbcf877ad	-0.030330503
37	0xbce97593	-0.028498447
38	0xbcee39a3	-0.029080218
39	0xbceaf405	-0.02868081
40	0xbc1f9783	-0.009740713
41	0xbc10d1de	-0.008839099
42	0xbbfe1167	-0.0077535394
43	0xbc262d08	-0.010142572
44	0xbc1dd182	-0.00963247
45	0xbbf9cfec	-0.007623663
46	0xbb9ee369	-0.0048488867
47	0xbbdd7b37	-0.006759073
48	0xbc7abffa	-0.01530456
49	0xbc5f8139	-0.013641649
50	0xbcf84b6b	-0.0303094
51	0xbcfeeaaf	-0.031117765
52	0xbceaec25	-0.028677056
53	0xbcef8cb7	-0.029241903
54	0xbcef5b06	-0.029218208
55	0xbcec65fc	-0.028857224
56	0xbcf168e8	-0.029468969
57	0xbcf4fb82	-0.029905085
58	0xbcdc1bee	-0.026868787
59	0xbce41454	-0.027841724
60	0xbc93f337	-0.01806031
61	0xbc84de8f	-0.016219405
62	0xbcadb25c	-0.021203212
63	0xbc96d995	-0.018414298
64	0xbc77e239	-0.015129619
65	0xbc9d0c8f	-0.019171027
66	0xbc5422a5	-0.012947713
67	0xbc8d5ce4	-0.017256208
68	0xbc86c43e	-0.016450997
69	0xbc970876	-0.018436652
70	0x3cd6d73a	0.026225675
71	0x3ce18484	0.027529009
72	0x3cdb0d75	0.026739815
73	0x3cdaa608	0.026690498
74	0x3cd5428a	0.026032705
75	0x3ceaa49a	0.028642941
76	0x3ce82bbd	0.028341169
77	0x3cdc805e	0.026916679
78	0x3cc0f92d	0.023556316
79	0x3cd31c8d	0.02577045
80	0xbcf3c8b0	-0.029758781
81	0xbcef22d4	-0.029191412
82	0xbceffd06	-0.029295456
83	0xbcfd2036	-0.030899148
84	0xbcf62412	-0.030046497
85	0xbce5baf2	-0.028043244
86	0xbcf442e1	-0.029817047
87	0xbcf1f73f	-0.029536841
88	0xbcde8218	-0.027161643
89	0xbcebe128	-0.028793886
90	0x3cb92e5c	0.022605114
91	0x3c84505c	0.0161516
92	0x3cb76134	0.022385217
93	0x3caf3a55	0.02139012
94	0x3c7de48a	0.0154963825
95	0x3cb0ae83	0.021567589
96	0x3c6fda93	0.0146395145
97	0x3c8ef156	0.017449062
98	0x3c917684	0.017756708
99	0x3c8e5329	0.017373638
100	0xbcdfd44b	-0.027322909
101	0xbce792ef	-0.028268306
102	0xbce9a008	-0.028518692
103	0xbce2fc61	-0.027708234
104	0xbcebf811	-0.02880481
105	0xbce795c8	-0.028269663
106	0xbce952ee	-0.028481927
107	0xbce66b13	-0.028127229
108	0xbce120f6	-0.027481537
109	0xbcef9154	-0.029244103
110	0xbced1b27	-0.028943611
111	0xbcdc82e9	-0.026917892
112	0xbce7f33a	-0.028314222
113	0xbce7a7f6	-0.028278332
114	0xbce04966	-0.02737875
115	0xbce1b4fb	-0.027552119
116	0xbcdb4206	-0.02676488
117	0xbce56ad6	-0.028005045
118	0xbcd359a1	-0.025799574
119	0xbcf0aa35	-0.029378036
120	0xbcdb0947	-0.026737822
121	0xbce59f35	-0.028030017
122	0xbcdeddb7	-0.027205331
123	0xbce2b7f8	-0.027675614
124	0xbce07b40	-0.02740252
125	0xbce61ac7	-0.02808894
126	0xbce7520c	-0.028237365
127	0xbce49b34	-0.027906038
128	0xbcd85a97	-0.026410384
129	0xbce4fba4	-0.027952023
130	0xbcec8a45	-0.028874526
131	0xbcf09a60	-0.029370487
132	0xbcf6c0e0	-0.030121267
133	0xbcf6d27b	-0.030129662
134	0xbcf90a24	-0.030400343
135	0xbcee9ac7	-0.029126538
136	0xbcf53bf2	-0.02993581
137	0xbcf498f9	-0.0298581
138	0xbce7b30e	-0.028283622
139	0xbce4295b	-0.027851751
140	0x3c90605d	0.017624075
141	0x3c649130	0.013950631
142	0x3c9bf8f5	0.01903961
143	0x3c83d80d	0.016094232
144	0x3c5c20ba	0.013435537
145	0x3c9159bb	0.017742982
146	0x3c157ff8	0.009124748
147	0x3c4fd6fe	0.0126855355
148	0x3c886fb8	0.016654834
149	0x3c85a6c5	0.016314873
150	0x3cdb6d4f	0.02678552
151	0x3cd708a5	0.02624924
152	0x3ce079e3	0.02740187
153	0x3cd342fd	0.025788778
154	0x3cd935fe	0.026515003
155	0x3cd5dbb2	0.026105735
156	0x3cd7fae2	0.026364747
157	0x3ce406f2	0.027835343
158	0x3cc02148	0.02345337
159	0x3cccceb0	0.0250009
160	0x3cd16c3e	0.02556431
161	0x3cc8e471	0.024522992
162	0x3cc8e952	0.024525318
163	0x3cc53d02	0.024076942
164	0x3cc950a5	0.024574587
165	0x3cd42546	0.02589668
166	0x3cc55538	0.024088487
167	0x3cc708b3	0.02429614
168	0x3cb7d055	0.022438208
169	0x3cc3d390	0.023904592
170	0x3cb8010e	0.02246144
171	0x3ca39f2e	0.019973364
172	0x3cc14d7d	0.02359652
173	0x3cb9b4bb	0.022669187
174	0x3c9df49b	0.019281676
175	0x3cc268ec	0.023731671
176	0x3c87fd50	0.016600281
177	0x3c9af0a3	0.018913573
178	0x3cc16c37	0.023611171
179	0x3ca6fc99	0.02038412
180	0xbcb9ec4c	-0.022695683
181	0xbc9060a1	-0.017624201
182	0xbcb1c8db	-0.02170222
183	0xbcafbc41	-0.021452071
184	0xbc8d6aeb	-0.017262897
185	0xbcbc8554	-0.023012795
186	0xbc79e89b	-0.015253211
187	0xbc9bc5be	-0.01901519
188	0xbc9394ef	-0.018015353
189	0xbc936036	-0.017990213
190	0xbb0d79a7	-0.0021587403
191	0x3c341914	0.010992307
192	0x3b4ade09	0.0030955097
193	0x3a898b69	0.0010493818
194	0x3b785b64	0.003789627
195	0x3b971c39	0.0046115187
196	0x3c1aaa47	0.009440011
197	0x3bd31d9c	0.0064427387
198	0xbb447436	-0.0029976494
199	0xbae4f61e	-0.0017468368

layers.1.egnn.edge_mlp.0.bias f4 [20]
0	0x3d40ec98	0.047100633
1	0xbe6c72bd	-0.23090644
2	0x3e788949	0.2427112
3	0x3e829489	0.25503948
4	0xbc78cd9a	-0.015185738
5	0x3e736d45	0.23772152
6	0x3d69ff96	0.05712851
7	0xbe5d5c71	-0.21617295
8	0x3e85ca1d	0.26130763
9	0xbd67ea55	-0.05661996
10	0x3e3c00a5	0.18359621
11	0x3e059d83	0.13048367
12	0x3df6e376	0.120551035
13	0x3e8d60ac	0.27612817
14	0xbd9256ba	-0.07145448
15	0xbe21c26c	-0.15796822
16	0xbdc1d9a6	-0.09465341
17	0xbdade575	-0.08491031
18	0x3d636a5c	0.055521354
19	0x3d710121	0.058838967

layers.1.egnn.edge_mlp.3.weight f4 [16, 20]
0	0xb96dabf2	-0.00022666136
1	0x3bbc8b61	0.00575392
2	0xbbe20135	-0.0068971165
3	0xbc02b6ec	-0.007978182
4	0x3c853ad0	0.016263396
5	0xbbfc062d	-0.007691166
6	0x3baad83c	0.0052137654
7	0x3be6c1cc	0.0070421454
8	0xbbf82c2b	-0.0075736246
9	0xbc223909	-0.009901294
10	0xbba7ed36	-0.0051247133
11	0xbb42e907	-0.0029740946
12	0xbb6e8312	-0.0036394042
13	0xbc2d3133	-0.010570812
14	0xbbd6cdc5	-0.0065552914
15	0x3b818e79	0.0039537516
16	0xbb027142	-0.0019903933
17	0xbc03a8e9	-0.008035877
18	0x3bcf7957	0.0063316035
19	0x3ad7f6d3	0.0016476758
20	0x39f6cff8	0.00047075725
21	0x3bab7d43	0.005233438
22	0xbbfcaf2e	-0.0077113127
23	0xbc08dd93	-0.008353609
24	0x3c5e72e6	0.013577199
25	0xbbd6a8ca	-0.006550883
26	0x3befde37	0.0073201912
27	0x3bc1edb8	0.005918231
28	0xbbaf78ce	-0.005354977
29	0xbc2e1376	-0.010624757
30	0xbba3439b	-0.0049824244
31	0xba9df4e5	-0.0012051134
32	0xbb1949f6	-0.0023390031
33	0xbbe2550d	-0.0069071115
34	0xbbc2fcf8	-0.0059505664
35	0x3b406ff1	0.0029363597
36	0xbb779431	-0.0037777538
37	0xbc01e7f9	-0.007928842
38	0x3c1837ff	0.009290694
39	0x3b07f9c6	0.0020748242
40	0xbb02ae65	-0.0019940373
41	0xbbf0086e	-0.0073252236
42	0x3bdc50e9	0.0067235124
43	0x3c0e8d49	0.008700677
44	0xbc6f044b	-0.014588426
45	0x3bdfa0d0	0.0068245903
46	0xbbf1dd68	-0.00738113
47	0xbbd92f86	-0.0066279797
48	0x3c0d6669	0.0086303735
49	0x3c1afa21	0.009459049
50	0x3bc8e065	0.0061302655
51	0x3b8097fa	0.003924367
52	0x3b086329	0.0020811057
53	0x3c02cbea	0.007983187
54	0x3beb7b92	0.0071863616
55	0xbb95bedc	-0.0045698714
56	0x39b8afe2	0.00035226258
57	0x3c2cdf8b	0.010551344
58	0xbbb1eb03	-0.005429627
59	0xbb325f28	-0.0027217362
60	0xbb846352	-0.00404016
61	0xbbecb239	-0.0072233942
62	0x3bde8626	0.006790894
63	0x3bbf2b96	0.0058340533
64	0xbc6d59fc	-0.014486786
65	0x3bd1c84c	0.006402051
66	0xbc0dfb81	-0.00866592
67	0xbbdb2566	-0.006687808
68	0x3c00aa0c	0.007853042
69	0x3c198f24	0.009372506
70	0x3ba541bd	0.005043237
71	0x3b0a7178	0.0021124762
72	0x3ac37753	0.0014912881
73	0x3bc0fab3	0.0058892607
74	0x3c18ceab	0.009326617
75	0xbb1af08e	-0.0023641917
76	0x3b637baa	0.003471116
77	0x3c235c79	0.009970778
78	0xbbf66c3b	-0.0075202263
79	0xbb27259e	-0.00255046
80	0xbb1b2270	-0.002367165
81	0x3c0feb57	0.008784137
82	0xbc0afcb3	-0.0084831
83	0xbc1341df	-0.008987873
84	0x3c97d0d9	0.018532204
85	0xbc28b6a3	-0.01029745
86	0x3b9aac74	0.004720265
87	0x3c220ff3	0.009891498
88	0xbbeb3524	-0.0071779657
89	0xbc19fc8d	-0.009398592
90	0xbbcb4726	-0.00620355
91	0xbb9e6ae8	-0.0048345216
92	0xbb03a824	-0.0020089233
93	0xbc106881	-0.008813978
94	0xbb959374	-0.004564697
95	0x3b6c6228	0.0036069248
96	0xbb0a979c	-0.0021147495
97	0xbbfb1f1b	-0.00766362
98	0x3b0aa8d3	0.0021157756
99	0xb9b55c9d	-0.00034592013
100	0xbc87f18e	-0.016594674
101	0x3bbf1fc8	0.005832646
102	0xbb9581ed	-0.0045626075
103	0xbb80b4db	-0.0039278097
104	0xbbcc724c	-0.006239211
105	0xbb26507e	-0.0025377567
106	0xbca1214c	-0.019669197
107	0x3b9fa3b5	0.0048718103
108	0xbb4b01a7	-0.0030976327
109	0x3cae3bac	0.021268688
110	0xbba4b29a	-0.005026174
111	0xbc0d3f5d	-0.008621064
112	0xbbfdc6df	-0.0077446545
113	0xbb5c042f	-0.003357183
114	0x3cbd1b7e	0.023084398
115	0x3bfe6125	0.0077630454
116	0x3c43e031	0.011955307
117	0x3c8f64ca	0.017504115
118	0xbc9796ee	-0.018504586
119	0xbc900f28	-0.017585352
120	0xb901b0fa	-0.00012368328
121	0x3be2e7a9	0.0069245887
122	0xbc1b97eb	-0.009496669
123	0xbc0cb9ee	-0.008589251
124	0x3c82f2df	0.01598495
125	0xbc1ab320	-0.009442121
126	0x3bce937b	0.006304202
127	0x3c128959	0.008943879
128	0xbc290365	-0.010315751
129	0xbc0ce214	-0.008598823
130	0xbbbdb85d	-0.0057898
131	0xbb911b7c	-0.004428325
132	0xbb1629a1	-0.0022912996
133	0xbc22d1b7	-0.009937695
134	0xbb90fa9d	-0.0044244067
135	0x3bbf60c5	0.0058403932
136	0xbaf9ee8d	-0.0019068286
137	0xbbfdbb8f	-0.007743306
138	0x3bd45b80	0.006480634
139	0x3a3c7f74	0.0007190623
140	0x3b42f147	0.0029745863
141	0x3be21a66	0.0069001196
142	0xbc09c1ed	-0.008408052
143	0xbbdc9e60	-0.006732747
144	0x3c614676	0.013749709
145	0xbc08161e	-0.008306054
146	0x3be606ba	0.007019845
147	0x3baccb91	0.0052732904
148	0xbbe1fa01	-0.006896258
149	0xbc258911	-0.01010348
150	0xbb6cc310	-0.0036127008
151	0xbb30f0ea	-0.0026999065
152	0xbb513b08	-0.0031926055
153	0xbbf3e6bf	-0.0074432786
154	0xbc034a9d	-0.008013395
155	0x3b81f15d	0.0039655403
156	0xbb3f7491	-0.0029213766
157	0xbc04feaa	-0.008117357
158	0x3bf1a699	0.0073745963
159	0x3b2a59ad	0.0025993392
160	0xbb3c089b	-0.0028691653
161	0x3bfe59db	0.0077621765
162	0xbc2d2361	-0.010567517
163	0xbc0b0ddf	-0.008487194
164	0x3c77f29a	0.015133524
165	0xbc1b59ad	-0.00948183
166	0x3bd4cd0a	0.006494169
167	0x3c06a19a	0.00821724
168	0xbc2ae3d0	-0.010430291
169	0xbbeccd9b	-0.0072266585
170	0xbc14c531	-0.009080217
171	0xbbb74d99	-0.005593967
172	0xbb75663f	-0.0037444977
173	0xbc25c234	-0.010117102
174	0xbb8e0b77	-0.004334863
175	0x3b430c99	0.0029762147
176	0xbb129b9f	-0.002237059
177	0xbbca2a0d	-0.0061695636
178	0x3c1e5c65	0.009665583
179	0xbaa8bdfc	-0.0012874003
180	0xba993551	-0.0011688863
181	0x3bdf0fb2	0.006807291
182	0xbbe4e565	-0.006985354
183	0xbbf99a74	-0.007617289
184	0x3c6b718d	0.014370334
185	0xbbefe11a	-0.0073205354
186	0x3c04def2	0.008109795
187	0x3bc48ae1	0.005998001
188	0xbbda59d6	-0.0066635413
189	0xbc06b561	-0.008221955
190	0xbbd7c7c5	-0.0065850937
191	0xbb870309	-0.004120235
192	0xbb2d7b3e	-0.0026471163
193	0xbbf2c55c	-0.007408781
194	0xbbf8e867	-0.007596064
195	0x3bab3ac1	0.00522551
196	0xbb31e289	-0.0027143082
197	0xbc239e66	-0.009986496
198	0x3c116992	0.008875268
199	0xba26d7d1	-0.00063645566
200	0xbbbd0d47	-0.005769405
201	0xbb577f9e	-0.0032882462
202	0x3b92ea35	0.004483486
203	0x3b7bed7b	0.003844111
204	0xbc5fd650	-0.013661936
205	0x3b9077c9	0.0044088108
206	0xbc3a7243	-0.011379781
207	0xbb52ab1e	-0.003214545
208	0x3b647671	0.0034860636
209	0x3c68465b	0.01417693
210	0x3b316236	0.0027066595
211	0x38e78e92	0.00011041494
212	0xbb3787a4	-0.0028004432
213	0x3bc0d109	0.005884294
214	0x3c248bb1	0.010043071
215	0xba8a1dd0	-0.0010537449
216	0x3b9e8a2a	0.004838248
217	0x3c4b121f	0.012394457
218	0xbc2c79a5	-0.010527049
219	0xbbf5e701	-0.0075043445
220	0x3a974628	0.0011541294
221	0x3ba783d2	0.0051121498
222	0xbbc4ccfc	-0.0060058814
223	0xbbb20db2	-0.0054337615
224	0x3c814655	0.015780607
225	0xbbc8100a	-0.0061054276
226	0x3c1947a8	0.009355463
227	0x3b5c9455	0.0033657749
228	0xbbe10698	-0.006867241
229	0xbc2ae998	-0.01043167
230	0xbb9e5d91	-0.0048329313
231	0xbb32d1f9	-0.0027285798
232	0xbae2b8b6	-0.001729748
233	0xbbcd1a58	-0.006259244
234	0xbbee77df	-0.0072774733
235	0x3b98d404	0.004663946
236	0xbbb36723	-0.0054749413
237	0xbc3a441d	-0.0113687785
238	0x3c181251	0.009281711
239	0x3b86f561	0.004118607
240	0xbb21b1c3	-0.0024672605
241	0xbbae548a	-0.0053201364
242	0x3b956a24	0.004559772
243	0x3bacd24f	0.005274094
244	0xbc3bb43c	-0.011456545
245	0x3bdfaefe	0.0068262806
246	0xbc137afc	-0.00900149
247	0xbbc09d5b	-0.0058781332
248	0x3ba5be44	0.005058082
249	0x3c28e444	0.010308329
250	0x3b525e2c	0.0032099588
251	0x3ab49f96	0.001378047
252	0x3afe8d64	0.00194208
253	0x3bb326e1	0.005467281
254	0x3c2afded	0.010436517
255	0xbb44e5e3	-0.003004425

layers.1.egnn.edge_mlp.3.bias f4 [16]
0	0xbdd58af9	-0.104268976
1	0xbe064c5d	-0.13115068
2	0x3e3fff92	0.18749836
3	0x3db7f674	0.08982554
4	0xbe63ca94	-0.22245246
5	0x3d37b552	0.044850655
6	0xbe26212b	-0.1622359
7	0xbd9305dd	-0.07178853
8	0xbe6f8192	-0.23389271
9	0xbde5dd82	-0.1122389
10	0x3d88fbf4	0.06688681
11	0xbdd2a5e5	-0.10285548
12	0x3d680ee4	0.056654826
13	0x3e674c83	0.2258778
14	0x3d484b6b	0.04890005
15	0x3e545ab8	0.20737731
