data/models/best_model_N12_batch32_lr0.0001_fd4_b0.7.pth (torch, 31506 bytes, 32 tensors)

time_embedding.0.weight f4 [8, 1]
00000000: 6663 3abf d03e 073f 5f28 22bf 2085 673e
00000010: 26c0 1a3f 3c99 6dbf 8e1a 0dbf aeda 34bf
-0.7280792 0.5283022 -0.6334285 0.22609377 0.60449445 -0.9281194 -0.55118644 -0.7064618

time_embedding.0.bias f4 [8]
00000000: 819a 4f3f 762e 14bf 4863 333f 90d6 51bf
00000010: f09e 2ebf 50ea 91be 2406 b6be 60c0 16bd
0.8109513 -0.57883394 0.70073366 -0.8196802 -0.6821127 -0.2849908 -0.3555156 -0.036804557

time_embedding.3.weight f4 [4, 8]
00000000: da93 d03d 222a 903e a196 843e 6ad6 92bc
00000010: 70f0 393e 76e7 c33d fc80 5e3e cc14 97be
00000020: 0879 3cbe 9cd7 e63d f5bd 5cbe a44c 90be
00000030: 7c6e 20be a6e3 9fbd d64a 0cbc 5bc9 1abe
00000040: 0686 8cbe 710e f63d b0ec 0b3d 35fb 553d
00000050: b80b a2be ee31 283e 5a54 273d 6973 fd3c
00000060: f06c 403d 10c0 8c3e 2816 8e3e a1d5 8fbe
00000070: efa8 243d 2fbb 31bd 594f d7bd 9a26 203e
0.101844504 0.28157145 0.2589617 -0.017924506 0.18158126 0.09565632 0.21728891 -0.29508054
-0.18405545 0.11271593 -0.21556838 -0.28183472 -0.15667146 -0.07807092 -0.008562764 -0.15115874
-0.27446002 0.12014473 0.03416127 0.052241523 -0.31649566 0.16425297 0.04085193 0.03093882
0.04697889 0.27490282 0.2775128 -0.28092673 0.04020017 -0.043391403 -0.10513181 0.15639725

time_embedding.3.bias f4 [4]
00000000: 8ab6 6d3e 33df 0bbe 0c8e cfbe f134 c03e
0.23214164 -0.13659362 -0.4053806 0.3754039

layers.0.egnn.edge_mlp.0.weight f4 [20, 10]
00000000: 1eed d23d 7420 c5bd 3f18 d4bd 55fb d43d
00000010: 4678 ef3d 5168 efbd f070 ecbd 8e7b ec3d
00000020: b126 d93d 0112 f03d fb1a bebd 0acb b53d
00000030: 217e c03d 9736 bebd 3b28 d5bd a07e cd3d
00000040: 0862 cc3d 3aa2 cdbd 2a9b bcbd a58a c7bd
00000050: a0b6 ca3d db69 c2bd 913e d3bd 923b d23d
00000060: d60a ed3d 77f1 eabd fb18 eabd 94a2 e83d
00000070: c03a d43d 1a75 ed3d bb4a fdbd 1d48 f53d
00000080: 05d7 013e ae27 00be b2e6 07be f221 073e
00000090: 4bf6 063e 3b78 07be 7789 fbbd 5124 06be
000000a0: a64f d1bd 2df7 c63d e93f d63d 3825 d1bd
000000b0: a88c ecbd 25e3 e93d f99a e33d f030 e4bd
000000c0: 294d cdbd 27e8 e3bd 7509 c7bd d184 bd3d
000000d0: 0e48 d13d 5970 cebd 4939 e2bd 6838 df3d
000000e0: a992 de3d 497c dcbd ce6d c9bd 3d3a debd
000000f0: 812c eebd 89f8 e33d ebb4 f13d fba0 f4bd
00000100: 0300 02be c753 ff3d 6ada ff3d f00c 01be
00000110: 5781 efbd e295 fdbd 8df5 e33d 2b22 debd
00000120: 5af3 f0bd 49b6 ec3d 3b32 053e b051 03be
00000130: 877b 03be e946 013e 6ae1 f33d 50fd 033e
00000140: e79f ec3d e8c4 debd 73ed f2bd 5275 eb3d
00000150: c31c 073e 8a79 05be 6d40 02be 30b4 023e
00000160: 80ef f43d bc34 063e 605f cb3d 2d60 c2bd
00000170: af54 d4bd ed48 d43d 8b9b ed3d 9fff e8bd
00000180: 1a6e e8bd 1f86 e63d 04be d43d c656 ef3d
00000190: 8f0f e9bd f182 df3d 2182 eb3d d4c6 ecbd
000001a0: 4d1a fdbd d784 fe3d f312 f83d 8546 f8bd
000001b0: 7dea e8bd 986e fabd 4690 dabd fb1c ce3d
000001c0: 2371 e13d 3856 debd ca2e eebd ac79 ee3d
000001d0: a26d f23d 62bb e9bd 00a4 d7bd b742 f0bd
000001e0: feb9 e43d fb1b dabd 18aa f0bd 17c5 ec3d
000001f0: 20b3 033e 893b 04be bb8b 02be ccca 013e
00000200: 9803 f23d d634 073e 3310 e83d 54ae d8bd
00000210: cac5 efbd bf29 ec3d 314b 023e f81c 02be
00000220: e790 02be 74d1 023e cbf3 f13d 515a 043e
00000230: 07d4 cebd 82cb c13d 8d96 d33d 6234 cfbd
00000240: a648 e1bd 4e9a e23d f222 e23d abf9 dfbd
00000250: 8549 cebd 94cf e3bd 9cb5 cdbd a333 c43d
00000260: 5ae9 d53d 9457 cebd 7386 e2bd 05d4 e13d
00000270: 31b1 da3d a69a e2bd b1fe c7bd c641 e0bd
00000280: 3c6b c53d 7864 b9bd f6db cabd 6ecb cd3d
00000290: 472c e33d c2a8 e2bd 2a27 e3bd 6f01 e03d
000002a0: 3742 d03d 3b98 e63d 6f77 ce3d 2459 c3bd
000002b0: e23e d6bd b5f3 cd3d ac8a ed3d 1565 edbd
000002c0: 28bb e9bd 5920 e83d 4446 d83d 9887 ec3d
000002d0: 7941 c83d 9cb1 c1bd e68b d1bd 5e6f cf3d
000002e0: e070 eb3d c9c4 ebbd 513a e6bd 2b30 e83d
000002f0: d30f d13d 98d1 ec3d e067 c2bd d4e7 be3d
00000300: 8b55 c83d 70f9 c7bd 9053 dabd 0ec6 d63d
00000310: 667a d53d d34c d3bd c76c c0bd b159 d1bd
0.10299133 -0.096253306 -0.10356187 0.103995 0.11692862 -0.11689819 -0.115449786 0.11547004
0.10603083 0.11722184 -0.0928249 0.08876617 0.09399057 -0.09287756 -0.10408064 0.100339174
0.099796355 -0.10040708 -0.09209283 -0.09743241 0.09898114 -0.094928466 -0.10314668 0.102652684
0.115743324 -0.11471837 -0.11430546 0.11359134 0.10362768 0.11594601 -0.12367769 0.11976645
0.1267968 -0.12515137 -0.13271597 0.13196543 0.13179891 -0.13229458 -0.12282079 -0.13099791
-0.1022027 0.09715114 0.10461409 -0.10212177 -0.115502656 0.114202775 0.11113543 -0.111421466
-0.10024483 -0.11128264 -0.09718601 0.09253848 0.102188215 -0.10080022 -0.110460825 0.108994305
0.10867817 -0.10765893 -0.09835397 -0.10850952 -0.11629582 0.11131389 0.118020855 -0.11944767
-0.12695317 0.12467151 0.12492831 -0.12602592 -0.116945915 -0.123821035 0.111308195 -0.10846361
-0.117651656 0.11558206 0.13007443 -0.1282413 -0.1284009 0.12624706 0.11908229 0.128896
0.115539365 -0.10877401 -0.11861696 0.114969864 0.13194565 -0.13034645 -0.12719889 0.12764049
0.119597435 0.13106054 0.09930301 -0.09491 -0.103677146 0.10365472 0.11601933 -0.11376881
-0.11349125 0.1125605 0.10387805 0.116864726 -0.11379921 0.10913647 0.114994295 -0.11561361
-0.12358532 0.12427681 0.12112989 -0.121228255 -0.1137285 -0.12228125 -0.10672049 0.10064121
0.11007907 -0.10856289 -0.11630018 0.11644301 0.11837317 -0.114126936 -0.105293274 -0.11731475
0.11168288 -0.10649868 -0.11751193 0.115610294 0.128613 -0.12913336 -0.12748615 0.12675017
0.11817092 0.13203749 0.11331215 -0.105801255 -0.11707647 0.115314 0.12723996 -0.12706363
-0.12750588 0.12775213 0.11814078 0.12925078 -0.10099035 0.09462644 0.1033145 -0.10117413
-0.11000185 0.110645875 0.110418215 -0.10936292 -0.100726165 -0.11123577 -0.10044405 0.095801614
0.10444899 -0.10075298 -0.110608004 0.11026768 0.10678328 -0.11064653 -0.097653754 -0.10950045
0.09639594 -0.09052366 -0.099052355 0.10048567 0.110924296 -0.11067344 -0.11091454 0.109377734
0.101688795 0.112595044 0.10081374 -0.095384866 -0.10461213 0.10056249 0.11598715 -0.115915455
-0.1141265 0.11334295 0.10560277 0.115493 0.09778113 -0.094577044 -0.10231762 0.101286635
0.114961386 -0.11512143 -0.11241592 0.11337312 0.10208096 0.11563414 -0.09492469 0.093215615
0.09781941 -0.09764373 -0.106604695 0.10486995 0.10423736 -0.103173874 -0.09395748 -0.102221854

layers.0.egnn.edge_mlp.0.bias f4 [20]
00000000: 200b a33e 4568 c4be 8504 c23e b18e 20be
00000010: 4e9e 5fbe 5060 7dbe 40b0 26be ceaa 553e
00000020: ef1a 4a3e 8a5f 943e 909e 3dbe 5662 44be
00000030: ef46 493e 95ec 513e da6a 77be 2343 88be
00000040: 286a ba3e 6802 ca3e 2060 c63e 524e babe
0.31844425 -0.383608 0.37894073 -0.15679432 -0.21837732 -0.24743772 -0.16278172 0.20865938
0.19736837 0.2897914 -0.18517518 -0.19178137 0.19655965 0.20500405 -0.24161854 -0.2661372
0.36409116 0.3945496 0.38745213 -0.3638788

layers.0.egnn.edge_mlp.3.weight f4 [16, 20]
00000000: ba9c 7fbd b004 163d 1e1e 6ebd b003 b23d
00000010: 018d 643d d288 413d 2ede a23d ce69 c1bd
00000020: 9124 cebd 9e66 83bd a952 8a3d aca6 8c3d
00000030: 2927 b9bd 00f6 b5bd cdd8 473d b703 433d
00000040: e053 65bd 92ea 67bd 9b5f 63bd 861d 1e3d
00000050: 52d2 9e3d cf82 68bd f00b 973d 7568 dabd
00000060: 51f9 9fbd 244b 90bd 99c7 c8bd 1ecc d43d
00000070: da00 dd3d 02f4 a63d 9f1b b7bd 20a6 aebd
00000080: 4eb3 d13d e51f cc3d 6228 93bd f5be 8dbd
00000090: ccd6 8f3d 6a81 943d 58cc 913d e964 78bd
000000a0: 9a1d 89bd cc55 293d b1a3 7abd eb8b bc3d
000000b0: b8a9 7e3d 2155 563d 8e09 a93d a71d cabd
000000c0: 6890 d3bd 3112 8fbd fd93 943d 5774 8b3d
000000d0: cc6d c6bd e192 c4bd b774 5d3d 2205 4f3d
000000e0: 426e 7abd 8303 73bd 8ffd 80bd 6f44 323d
000000f0: 8096 8ebd e9f3 2e3d e3e4 83bd 8a4c c13d
00000100: 1c9c 833d 2ea1 6b3d 890a b13d 7a0e cabd
00000110: f896 d4bd d201 93bd df0e 9b3d 06d3 933d
00000120: 56aa cabd 9eb6 c5bd 3474 6b3d 6ae3 5e3d
00000130: d8d5 81bd 40e2 80bd 2f0a 80bd 4475 363d
00000140: 7237 9f3d a9e0 6ebd d097 923d dfaa d7bd
00000150: 991f a1bd 3bd1 92bd 011e cbbd d7cd d23d
00000160: 28b1 dc3d 6d19 a53d 80a7 b4bd ee4c acbd
00000170: 2bcf cc3d f311 cd3d 7f32 92bd f8cc 91bd
00000180: 43c5 963d 71fe 923d 6108 983d 96df 7ebd
00000190: 6c49 ad3d d6d0 7fbd c1e0 a03d 485e e3bd
000001a0: ef51 abbd 05c0 99bd bdb5 d9bd 730b e03d
000001b0: 70a1 e53d f62e b03d 402d c5bd 9566 bcbd
000001c0: bcaa db3d d06f d53d 0441 a3bd 2ba7 9abd
000001d0: f2b4 a33d af8d 9e3d d443 a73d 154a 87bd
000001e0: e1cb b93d dff9 9bbd b8b9 b73d 8131 f6bd
000001f0: 8701 c0bd e8bf b2bd 3cf3 e6bd fd3a ee3d
00000200: 1a66 f23d e59f bf3d b32d d5bd 51cb cdbd
00000210: 559b e73d e512 e33d e468 b2bd 3aac aebd
00000220: f440 b13d 87cf b03d 89f1 b13d 2498 9ebd
00000230: 92f6 80bd ea72 193d a120 67bd 4c99 b63d
00000240: a279 6f3d fa2b 453d c3d9 a73d ed9b c2bd
00000250: d8f7 ccbd 44f9 87bd 3d24 8f3d 72db 833d
00000260: 4fa1 c0bd 8397 b8bd 05b4 483d 4d30 3f3d
00000270: 2fca 6abd ed9e 67bd 8989 60bd 7ba4 1b3d
00000280: a695 9a3d f4da 5fbd 180b 8f3d 0e03 d3bd
00000290: 9989 9abd 6cd7 88bd 9a8e c0bd f6f6 d03d
000002a0: db53 d53d 216e 9c3d e2f5 b1bd 67a5 adbd
000002b0: f408 c83d e243 cc3d 6ac9 8dbd 8594 89bd
000002c0: 7db1 8f3d 2441 8c3d a4ae 8a3d b21c 67bd
000002d0: 6916 81bd 5532 1c3d b560 62bd cdbe b33d
000002e0: 8d88 5e3d e873 483d acb0 a53d 4c1a c2bd
000002f0: 11e3 cabd 7f7f 88bd 2cf5 8d3d 5a34 823d
00000300: 2e13 bdbd cef9 bbbd 2113 4d3d 2f74 3e3d
00000310: f9e4 66bd 9d97 64bd af8c 63bd 18d1 1e3d
00000320: 229b 8ebd 4002 2a3d b981 81bd 6afc bd3d
00000330: 873f 803d 82ff 653d 8b27 ad3d d53d cdbd
00000340: d174 d5bd 21c7 95bd 4175 9a3d c5b3 943d
00000350: 376c c6bd 83a4 c6bd d25c 613d 7f3e 5a3d
00000360: c6c2 80bd a5d5 7cbd af89 7cbd ecf7 303d
00000370: 5085 ac3d 875c 84bd e52f 9e3d 100a e0bd
00000380: 3c64 acbd 42c9 9abd 74a7 d4bd 0cbe db3d
00000390: d1c3 e33d 420f ae3d deee c0bd 7d80 bcbd
000003a0: 4de7 d73d 65bd d73d 6848 a0bd ddbb 9bbd
000003b0: 4772 a33d 2a2d 9f3d d02b 9c3d 69e0 86bd
000003c0: 2a74 c53d 19cf a0bd 71cf bc3d fd91 fcbd
000003d0: e178 cabd bdec b9bd abec f3bd 2159 f23d
000003e0: 0275 fa3d 1963 cc3d 4cb7 dfbd 1a8d d8bd
000003f0: 61e3 f13d 746c f03d 6579 c2bd f0e4 bebd
-0.062405325 0.036625564 -0.05813419 0.086921096 0.055798534 0.047249623 0.07952534 -0.09444009
-0.10065568 -0.06416057 0.067540474 0.06867728 -0.09040672 -0.088848114 0.04879074 0.047610965
-0.055988193 -0.056620188 -0.0555111 0.038602374 0.07754959 -0.056765374 0.07375324 -0.10664455
-0.07811225 -0.07045582 -0.09803695 0.10390495 0.10791178 0.081520095 -0.08940815 -0.085277796
0.10239278 0.09967021 -0.07185437 -0.06921188 0.07023391 0.07251246 0.071190536 -0.06064311
-0.06695099 0.041341588 -0.061191265 0.09206375 0.062173575 0.05232728 0.082537755 -0.09868937
-0.10330278 -0.069858916 0.07254789 0.068092994 -0.09688911 -0.095983274 0.054066386 0.050542004
-0.061140306 -0.05932952 -0.062983625 0.043522295 -0.06962299 0.04271308 -0.06440141 0.09438427
0.0642626 0.05752676 0.086445875 -0.098660424 -0.103803575 -0.071780816 0.07571196 0.07217984
-0.0989577 -0.09653972 0.057483867 0.054416098 -0.063396156 -0.06293154 -0.06251942 0.044545427
0.07774247 -0.05831972 0.07157862 -0.10530638 -0.07867355 -0.07168814 -0.09917832 0.10293167
0.107759774 0.0806149 -0.088210106 -0.08413111 0.10000452 0.10013189 -0.071385376 -0.07119173
0.073618434 0.07177437 0.07423473 -0.062224947 0.0846127 -0.06245502 0.078553684 -0.11101967
-0.08365237 -0.07507328 -0.10630367 0.10939684 0.112124324 0.08602707 -0.096277714 -0.091992535
0.107259244 0.10421717 -0.07971385 -0.07551416 0.07993497 0.07741868 0.08167234 -0.06605927
0.0907209 -0.076160185 0.0897097 -0.12021161 -0.09375291 -0.087280095 -0.11276862 0.11632345
0.118358806 0.09356669 -0.10409107 -0.10048545 0.11308924 0.11087588 -0.087114125 -0.08528943
0.08654967 0.08633333 0.08688647 -0.07743862 -0.062970296 0.037463106 -0.0564276 0.08915958
0.058465607 0.048137642 0.081958316 -0.09502397 -0.1000821 -0.066393405 0.06989334 0.0643834
-0.09405767 -0.090132736 0.048999805 0.046676923 -0.057321724 -0.056548048 -0.054818664 0.037998658
0.075480744 -0.05465217 0.06984538 -0.10303317 -0.07545776 -0.066817135 -0.09402199 0.10203354
0.10416385 0.07638193 -0.086894765 -0.084788136 0.09767333 0.09973885 -0.06923182 -0.06717781
0.07016275 0.06848362 0.06771591 -0.05642385 -0.063031025 0.038133938 -0.05526801 0.08776627
0.054329444 0.04893866 0.08090338 -0.09477672 -0.09906591 -0.06664943 0.069315284 0.063576415
-0.09232174 -0.09178506 0.05006707 0.04649752 -0.05637071 -0.055808652 -0.05555409 0.038773626
-0.06963183 0.041506052 -0.06323571 0.0927666 0.06262117 0.056151874 0.08454808 -0.10021559
-0.104226716 -0.073133714 0.07541896 0.07260851 -0.09688609 -0.09699347 0.05502016 0.053282257
-0.0628715 -0.061727185 -0.061654743 0.043205187 0.08423865 -0.06462961 0.07723979 -0.10939419
-0.08417556 -0.07557918 -0.10383502 0.10729608 0.111213334 0.08499004 -0.0942056 -0.09204195
0.10542164 0.10534171 -0.078263104 -0.076041915 0.07980781 0.07772286 0.07625544 -0.065857716
0.09641297 -0.07852001 0.09219254 -0.123325326 -0.09886337 -0.09078357 -0.11910375 0.11833406
0.12229349 0.09979839 -0.10923633 -0.10573788 0.11810947 0.11739436 -0.094958104 -0.0932101

layers.0.egnn.edge_mlp.3.bias f4 [16]
00000000: 4ea8 1bbe 1524 503e 630a eebd a3a8 bbbd
00000010: 5bb0 273e ae7a f63d 87c9 ba3d 9071 17be
00000020: 1b23 733e d89e 36be 2b51 c4bd 938d eb3d
00000030: daed a93d c5e5 f23d 21b2 e2bd 8a56 683e
-0.15200922 0.20326264 -0.11623075 -0.09163024 0.16375868 0.12035118 0.091204695 -0.14789414
0.2374386 -0.17834032 -0.09585794 0.115016125 0.0829732 0.11860231 -0.11069132 0.22689262

layers.0.egnn.node_mlp.0.weight f4 [8, 20]
00000000: 1f37 373a 5fe5 8ab9 18a9 483a 5352 e538
00000010: 3da4 ba39 cf75 69ba 9fe3 14ba a92e 27b9
00000020: 360b 6aba 3470 073a 9ece b6ba 4781 1dba
00000030: eb69 ec39 ac0e 7d3a f3b0 acb9 fbb8 3838
00000040: 9060 133b b88d 04bb da22 6aba 737e e0b8
00000050: 1c3c 80ba 23d3 573a 5cd6 863a 8b3b 4a39
00000060: 9422 2137 6804 1f3a ddd6 673a 5ccb 74ba
00000070: d76b dfb8 54ed dd39 2292 d5b8 6da9 70ba
00000080: 6575 f5b9 969e 21ba b136 b43a c217 133a
00000090: 07f3 efba cf7d 5d39 ee6c b539 42af 1dbb
000000a0: be7b 213b df83 123a cef1 d7ba 2c0a a13a
000000b0: 9eb8 0039 5aad bf39 1795 d8b9 e593 b53a
000000c0: 0ceb 803a b328 b439 45a6 95ba 7681 6bba
000000d0: 8c7f 18ba 33a9 8238 f6a0 b0ba e7bf 3b39
000000e0: 796b df3a 9eb8 6f3a 1766 8aba 205e 95ba
000000f0: 9ab1 893a 6995 66ba a26a 0e37 a5a1 9db9
00000100: b0d5 b239 bd0c 2c3a 3241 583a 7669 8c3a
00000110: 34a2 9aba 82a4 5a3a 4f98 843a 56ed 26bb
00000120: 2cce 073b 545a 57ba bbb2 b0ba fde9 8837
00000130: e9e2 f63a 7573 a6b9 4a69 2639 7ecd f939
00000140: fa60 013a 064b 01ba 8425 77ba 76b1 66b8
00000150: 3eb6 0cba 2ecc 903a 40f2 d73a 96da ae3a
00000160: 867e acba 154b 81ba 754b 0cb9 deea e53a
00000170: 22ba b6b8 e768 08b7 ec84 123b cfc0 ecba
00000180: 0a95 4aba 36be 20ba cebc 763a edad 93b8
00000190: 7127 553a 7039 ae38 6aa4 a7b8 5f2a 0dbb
000001a0: a420 dc38 2d2d a239 b2cc 8e3a 5a15 f6ba
000001b0: 48e9 5fba b81d 313a 2e3c 7e39 4b34 02bb
000001c0: ff00 7cba 1c9d 4e3a f2ed 323a ad0b cc39
000001d0: 2032 1339 fcaa 87b9 a786 46ba af75 27ba
000001e0: 8224 efb8 6c47 9ab9 412a 003b 7c05 5b3a
000001f0: 8caa 97ba 2f8c e6ba ddd0 86ba 5b4b 4bb9
00000200: e8ee b1b9 9357 21ba 2ad7 91ba 9cce dd38
00000210: 036c 6fb8 76d0 a4b9 285c 77ba a34d 8bba
00000220: 3be3 89ba abd2 7539 486e 293b 3ee2 c038
00000230: 02ee 2fba c263 15ba 5f37 8cb8 8559 1d3a
00000240: 6ab1 2bb9 c911 19ba 1ff2 0bba 4373 4cb9
00000250: 44e6 483a 31f4 2aba 9a53 7338 a3a7 c8ba
00000260: 06e2 ddb9 3e40 873a 4302 29b9 481a 25ba
00000270: 70ca d539 8957 3239 c55c 5cba add5 bdba
0.00069891097 -0.00026492306 0.00076545915 0.00010934905 0.00035599052 -0.00089057995 -0.000567967 -0.00015943743
-0.0008928062 0.0005166561 -0.0013947075 -0.00060083385 0.00045092343 0.00096533704 -0.00032938234 4.4041295e-05
0.0022487976 -0.0020226073 -0.0008931585 -0.00010704705 -0.0009783539 0.0008233061 0.0010287273 0.00019286403
9.604399e-06 0.0006066025 0.0008843968 -0.0009338164 -0.000106535554 0.00042329228 -0.00010183851 -0.000918052
-0.00046817507 -0.0006165294 0.001374921 0.0005611145 -0.0018306681 0.0002112307 0.0003460417 -0.002406076
0.0024640406 0.00055891083 -0.0016475262 0.0012286357 0.00012275807 0.00036559516 -0.0004130981 0.001385328
0.0009835674 0.000343626 -0.001141735 -0.000898383 -0.0005817346 6.230399e-05 -0.0013475704 0.00017905199
0.0017045579 0.00091446366 -0.001055899 -0.0011395849 0.00105052 -0.00087960676 8.488687e-06 -0.00030065808
0.00034110015 0.00065631774 0.0008249461 0.0010712582 -0.0011797608 0.00083405536 0.0010116192 -0.0025471053
0.0020722253 -0.0008215059 -0.0013481 1.6321423e-05 0.0018835935 -0.0003174801 0.00015870217 0.00047646085
0.000493541 -0.0004932139 -0.00094278925 -5.5001547e-05 -0.00053677324 0.0011047178 0.0016475394 0.001334029
-0.0013160266 -0.0009864295 -0.0001337955 0.0017541309 -8.713106e-05 -8.130656e-06 0.002235706 -0.0018062833
-0.0007727897 -0.0006131859 0.00094122894 -7.0419024e-05 0.00081311824 8.307665e-05 -7.993805e-05 -0.0021540148
0.00010496497 0.00030932706 0.0010894744 -0.0018774674 -0.00085415365 0.00067564426 0.00024245746 -0.0019867595
-0.00096131855 0.00078816875 0.0006825618 0.0003891861 0.00014037685 -0.000258766 -0.00075731653 -0.00063880807
-0.00011403208 -0.00029426382 0.0019556435 0.0008355004 -0.0011571213 -0.0017589385 -0.0010285635 -0.0001938766
-0.0003393807 -0.0006154712 -0.0011126746 0.00010576585 -5.7082634e-05 -0.00031435833 -0.00094360346 -0.0010627996
-0.001051999 0.000234435 0.0025853086 9.197414e-05 -0.0006711186 -0.0005698764 -6.686034e-05 0.0006002414
-0.00016373923 -0.0005839137 -0.0005338508 -0.00019497894 0.0007663707 -0.00065213727 5.8013575e-05 -0.0015308749
-0.00042320805 0.0010318828 -0.00016117939 -0.00062981667 0.00040777354 0.00017008012 -0.0008406158 -0.0014483236

layers.0.egnn.node_mlp.0.bias f4 [8]
00000000: 0472 1abe e68b 2a3e 7c62 30be 3767 2c3e
00000010: 6f36 343e 98a7 29bd 9418 1d3c 8612 513d
-0.15082556 0.1665493 -0.17225069 0.16836248 0.1759889 -0.041419595 0.009588379 0.051043056

layers.0.egnn.node_mlp.3.weight f4 [4, 8]
00000000: c8e7 acb9 2251 043a cb5a 7d3a 486e b7ba
00000010: 8f86 d239 d622 6939 942b dbb9 e16c ab3a
00000020: f967 6d39 0dc9 673a 0915 9d3a 48d8 043a
00000030: 71ed b6b9 0867 20ba df0d 363a 5f1e 6dba
00000040: 146e e8b9 1a63 d83a 9d93 91ba b6e9 cdb7
00000050: 8207 faba df4a 783a 12db 03bb 2eef 95b9
00000060: 9727 4b3a 569b 403a e955 9039 2994 9c3a
00000070: fe60 6dba 9d92 51b8 e063 46ba 046a cd3a
-0.00032979087 0.000504749 0.0009664713 -0.0013994658 0.00040154575 0.00022233589 -0.00041803403 0.0013078713
0.00022640814 0.00088419096 0.0011984418 0.0005067629 -0.00034890653 -0.00061188685 0.0006944816 -0.0009045358
-0.00044332503 0.0016509027 -0.0011106614 -2.4546734e-05 -0.0019075724 0.0009471606 -0.002011959 -0.00028597697
0.0007749735 0.00073473656 0.00027529828 0.0011946011 -0.00090552855 -4.9966027e-05 -0.0007567983 0.0015671854

layers.0.egnn.node_mlp.3.bias f4 [4]
00000000: 483d a0be 7a83 ec3d 6da5 eabb 171b 0fbe
-0.31296754 0.11548515 -0.0071608336 -0.13975178

layers.0.egnn.coors_mlp.0.weight f4 [64, 16]
00000000: fb62 d0bc 34ac ed3c dc3d f4bc 9ebd 08bd
00000010: 8188 0e3d 76a3 2e3d 5c3c 763d 90e3 d3bc
00000020: d0a2 e53c 87cc b8bc 112f 0abd f723 373d
00000030: f727 913d 7a33 363d 4d43 f4bc 13a0 e63c
00000040: 15eb cdbc 7795 ef3c 53a9 f5bc 07f5 09bd
00000050: 3362 053d 6d28 303d 6bbe 763d da61 debc
00000060: 3289 e23c 9cce cdbc a0d4 0bbd da1e 303d
00000070: 1ef4 903d 4a99 2e3d 0d53 f5bc f0b6 dd3c
00000080: 7524 c13c 0609 dfbc b3f4 c93c dd04 f63c
00000090: ebc0 04bd 7ffd 24bd 1da9 70bd 4767 bb3c
000000a0: 1484 cfbc 8e9a be3c ff54 f33c e811 28bd
000000b0: 9672 8fbd 5a69 29bd a423 e63c e579 debc
000000c0: 892d bc3c d37f dbbc c365 e03c 66ad 023d
000000d0: 754f f5bc ac34 2ebd 21b9 66bd 20fa b73c
000000e0: 7f01 c8bc 0f81 b73c 9cb3 ed3c 3659 2bbd
000000f0: 5380 92bd d7b9 2abd e81c e63c 5df5 d1bc
00000100: bcca dcbc dabe ec3c 1575 f7bc 5e3a 0bbd
00000110: d8b0 053d 53cd 353d fb68 753d 1c4d dabc
00000120: 7506 e43c 33a1 c0bc 635f 09bd 5db6 383d
00000130: 6fe1 923d 434e 2d3d 9e40 fbbc bf4b e13c
00000140: 7d9e d7bc d635 003d 6682 02bd 413a 18bd
00000150: 6d53 0f3d 1d4a 2f3d 4f51 6e3d adb0 e0bc
00000160: 21a0 e53c 47a2 c9bc 47dc 07bd 8c83 373d
00000170: e2c3 923d d51f 333d 4969 f0bc 684a 003d
00000180: 3877 b73c a524 d5bc 2d0f dc3c 7fc5 ff3c
00000190: e41d fdbc 4d0b 23bd b81a 6bbd a643 bd3c
000001a0: cb00 d7bc 2f9f a23c fae1 fc3c 3b74 29bd
000001b0: 0ceb 90bd be7c 2cbd a819 e43c 361c cabc
000001c0: d5e8 d3bc e344 f93c 2e07 efbc a507 0bbd
000001d0: 5355 033d 137b 333d 1c03 753d c290 d7bc
000001e0: d803 e33c 56e9 c0bc 607b 06bd 24ee 2b3d
000001f0: 4383 913d 9851 303d 5d96 f6bc ba49 e93c
00000200: c13c d7bc 93ff e53c d40f e3bc f06f 0ebd
00000210: 141d 083d ab28 2e3d a10b 743d db00 cfbc
00000220: 3e77 ea3c 3aa9 b8bc 6486 11bd 4953 3f3d
00000230: f998 943d 5730 3a3d 27db f6bc 1902 e73c
00000240: fd7d cfbc 2c53 f73c 82ce f8bc 60a8 0cbd
00000250: 9cc6 033d 5bac 2e3d 8868 753d ef7d e5bc
00000260: 39a9 df3c 24fc c5bc c51d 00bd cfd7 303d
00000270: ab33 913d 38a0 2d3d 2101 02bd 8cc3 e63c
00000280: a73a ddbc 1fdb 003d 0326 fabc 4859 11bd
00000290: 4cfc 073d 615e 353d abae 743d 827c e4bc
000002a0: 8a9f e03c ba35 cebc 2acc 13bd 31ff 3a3d
000002b0: aff1 923d f207 373d f92d 08bd fedc ef3c
000002c0: 69e9 d7bc f165 013d 5938 03bd 9f4f 18bd
000002d0: e118 1b3d b201 3c3d 3e05 7e3d 67ed d0bc
000002e0: a8a9 e13c 33f5 cbbc 1203 19bd 8f62 443d
000002f0: e0e7 983d c2d2 453d 9ca7 08bd c51a ef3c
00000300: e1b4 d0bc 005a e93c f719 ebbc ed8d 0abd
00000310: e8dd fe3c a60d 2c3d 98d0 6f3d abf2 d4bc
00000320: a329 d93c c7d2 c2bc 01b7 06bd be2f 363d
00000330: b499 913d 7ef3 273d ad1a f2bc d9b7 c93c
00000340: 9e57 1bbd dcf5 233d a034 27bd 5e88 41bd
00000350: 0e9f 3a3d 014e 693d 44c9 943d fe25 12bd
00000360: c6c5 183d e913 06bd 27ad 3fbd 473a 673d
00000370: 8c29 a73d 9f05 6f3d df10 2cbd dd7b 213d
00000380: e4f1 d1bc 93f4 f03c 9f00 f1bc 6eab 09bd
00000390: b2b5 0c3d a032 303d 1035 703d b703 d9bc
000003a0: d79e db3c 9366 d2bc ce4f 0abd 614b 303d
000003b0: 1e83 933d e9ae 2f3d 563e fdbc 2107 f53c
000003c0: a845 e6bc 52cd ec3c b7c9 f1bc 5657 13bd
000003d0: 0bb5 163d 670e 2e3d cc94 6a3d 425b dcbc
000003e0: 1c58 de3c 22de cabc 55cd 0ebd 045d 343d
000003f0: d578 933d 8e07 373d 388a f3bc 0360 f23c
-0.025437823 0.029012777 -0.029814653 -0.033383958 0.03479815 0.042636357 0.060116157 -0.025865346
0.028031737 -0.022558464 -0.033736292 0.044712033 0.07087701 0.044482686 -0.029817248 0.028152501
-0.02513651 0.029246075 -0.029987967 -0.033680942 0.032564353 0.043007303 0.06024019 -0.027146269
0.02765331 -0.025122933 -0.034138322 0.042998172 0.07077812 0.042626657 -0.029946828 0.02706477
0.023576954 -0.027225982 0.024652814 0.030031616 -0.032410543 -0.040280815 -0.05875503 0.022876395
-0.025331534 0.023267057 0.029703615 -0.0410327 -0.070042774 -0.041360237 0.028093167 -0.027157733
0.022970932 -0.02679435 0.027392274 0.031903647 -0.029945115 -0.0425307 -0.056328896 0.022458136
-0.024414776 0.022400407 0.029016308 -0.041833125 -0.07153382 -0.041681137 0.028089955 -0.025629694
-0.02695214 0.028899599 -0.030207196 -0.03399121 0.032639354 0.044385266 0.05991457 -0.026648097
0.02783511 -0.023514366 -0.033538233 0.04509579 0.07171904 0.042310964 -0.03067046 0.027501939
-0.02632069 0.031301342 -0.03186264 -0.03716493 0.03499167 0.04279529 0.05818301 -0.027427996
0.028030457 -0.024613513 -0.033169057 0.044803187 0.07166268 0.04373153 -0.029347079 0.03132096
0.022395715 -0.02601845 0.026862705 0.031222103 -0.030898042 -0.0398057 -0.057398528 0.023103546
-0.026245495 0.019851295 0.030869473 -0.04137061 -0.07076082 -0.04211115 0.027844265 -0.024671655
-0.025867859 0.030428356 -0.029178228 -0.033942837 0.032063793 0.043818545 0.05981742 -0.026314143
0.027711794 -0.023548763 -0.032832503 0.041975155 0.07105114 0.043046564 -0.030100996 0.028477538
-0.026274087 0.028075969 -0.027717508 -0.03477472 0.033230856 0.042519253 0.059581403 -0.025268963
0.028621312 -0.022541631 -0.035528556 0.046710286 0.0725574 0.045456257 -0.030133797 0.028199242
-0.02532863 0.030191027 -0.030371908 -0.034340262 0.03217183 0.04264484 0.059914142 -0.028014151
0.027302371 -0.024168082 -0.03127839 0.04317456 0.07089933 0.042389125 -0.031739358 0.028169416
-0.027005507 0.03145897 -0.030535704 -0.035485536 0.033199593 0.04427946 0.05973689 -0.027891401
0.027419824 -0.025172103 -0.036083378 0.045653526 0.07175004 0.04468531 -0.033246968 0.029280182
-0.026356416 0.03159136 -0.03203616 -0.037185308 0.037865523 0.045900054 0.062016718 -0.025503827
0.027546719 -0.024897194 -0.037356444 0.047945555 0.07466102 0.048296697 -0.03336297 0.02918757
-0.025476875 0.028485298 -0.028698904 -0.033826757 0.031111673 0.042005204 0.05854854 -0.02599462
0.026509112 -0.023782147 -0.03288937 0.044479124 0.07109395 0.041003697 -0.029553736 0.024623798
-0.037925355 0.04002939 -0.04082167 -0.04724919 0.045561843 0.056959156 0.07264951 -0.035680763
0.037297986 -0.03273383 -0.04679599 0.056452062 0.08162221 0.05835497 -0.042008277 0.039424766
-0.025628038 0.029413497 -0.029419241 -0.033610754 0.034352966 0.04301703 0.058644354 -0.02649103
0.02680914 -0.025683677 -0.033767514 0.043040637 0.07202743 0.042891417 -0.030913513 0.029910626
-0.028109387 0.028906498 -0.02951513 -0.035971962 0.03679375 0.042494204 0.05727081 -0.026898984
0.027141623 -0.024764124 -0.03486379 0.04403402 0.07200781 0.04468494 -0.029728994 0.029586798

layers.0.egnn.coors_mlp.0.bias f4 [64]
00000000: a785 543e 3299 2d3e 6f13 2ebe d8d2 1dbe
00000010: 4a0b 563e 89de 303e 43a4 06be 7949 5f3e
00000020: 02f1 863e 5637 493e c0b0 0d3e 9ffc d33d
00000030: 1de8 2d3e 0e78 f73c a60d 593e c3c7 1c3e
00000040: 86eb 51be 9f84 353d 5a5c 5d3e 1842 f43d
00000050: 93fc 8abd d5f5 07be f59f eb3c 2d1c 6ebe
00000060: 0094 4fbe 835d 1cbe 3d56 3c3e e5bb 773e
00000070: a18f 043d bbbe 7b3e 77bc 3f3e 4a15 71be
00000080: d31d 3c3e 7870 e23d fd1e b73d bee9 e83c
00000090: 9a6c 0d3e 4447 e73c 1c12 083e 521e 85be
000000a0: f2a4 7b3e fb0e 49bd 415e 24bd a7a6 303d
000000b0: f507 7fbe 03a0 ee3c 1e3f 5abe cc01 48bd
000000c0: 10d7 7abe 7ecd c93d d2bd a7bd 9d24 e4bd
000000d0: 2f9a 153d fe53 3f3e e9d3 57be 4be0 2a3e
000000e0: ffca 333e 1ea4 173e 5bf2 9e3d 3415 63be
000000f0: dcc9 5cbe 3997 543e 4e8c 823e 858e 22be
0.2075411 0.1695297 -0.16999601 -0.15412462 0.20902744 0.1727239 -0.13148598 0.21805371
0.2635575 0.19650015 0.13836956 0.10350918 0.16983075 0.030208614 0.21196613 0.15310578
-0.20500001 0.04431593 0.2161726 0.11926669 -0.06786456 -0.13277371 0.028762797 -0.23252936
-0.20271301 -0.15270047 0.18392272 0.2419277 0.032363538 0.24584477 0.18724237 -0.23543277
0.18370752 0.11056608 0.089414574 0.02843177 0.1381096 0.028232224 0.13288158 -0.25999695
0.2457464 -0.049086552 -0.04012895 0.043127682 -0.24905379 0.029129034 -0.2131314 -0.04882984
-0.24496102 0.09853648 -0.08190502 -0.11139796 0.036523994 0.18684384 -0.21076931 0.16687123
0.17557906 0.148087 0.077610694 -0.22176057 -0.21561378 0.20760812 0.2549767 -0.1587468

layers.0.egnn.coors_mlp.3.weight f4 [1, 64]
00000000: 8aa0 55bc a49d 74bc 83e4 5d3c 9083 583c
00000010: 5911 57bc 2b2d 67bc 1843 563c 1e66 6bbc
00000020: 39c3 48bc 0248 6ebc 61ed 6fbc ca6c 60bc
00000030: 3c6f 7bbc 2460 f3bc 7c6d 67bc bbfd 70bc
00000040: 59fa 4e3c 7fd9 a7bc 3986 66bc dade 57bc
00000050: 777b 773c 610d 693c f511 e1bc 280c 4b3c
00000060: c432 633c b978 6c3c 75ab 67bc b57c 67bc
00000070: e4b6 cabc 05da 5cbc 2443 4cbc 1d64 703c
00000080: d976 7fbc f2e5 7abc 2e68 87bc 84ee debc
00000090: 2080 6ebc 972e 09bd 9f1b 6abc ccd0 4d3c
000000a0: b288 59bc bb34 963c edcc a63c daad a8bc
000000b0: 34cb 503c 2e96 e2bc 7a33 6f3c 0350 953c
000000c0: 0e79 563c 653c 82bc e349 783c d348 683c
000000d0: 7aa2 babc e01f 78bc 20d8 463c 4d08 6bbc
000000e0: 04e0 70bc 1a01 6bbc 588c 86bc aaac 513c
000000f0: 0d1c 603c 9312 61bc 14e1 56bc 1f2a 6f3c
-0.013038764 -0.014930163 0.013543251 0.013214961 -0.013126695 -0.01410989 0.01307752 -0.014367608
-0.012253576 -0.014543535 -0.014643998 -0.013697812 -0.015346345 -0.02970893 -0.014125224 -0.014708932
0.01263293 -0.020489452 -0.014070087 -0.013175691 0.01510512 0.014224381 -0.027474383 0.012393035
0.013867084 0.014433079 -0.01414 -0.014128854 -0.024745412 -0.013479714 -0.012467179 0.014672306
-0.0155923 -0.015313612 -0.016529169 -0.027213342 -0.014556915 -0.033491697 -0.014288812 0.012561988
-0.01327722 0.01833569 0.020361388 -0.020590711 0.01274376 -0.027659502 0.014599675 0.01822663
0.013090385 -0.015897939 0.015154335 0.014177519 -0.022782553 -0.015144318 0.012136489 -0.014345241
-0.014701847 -0.014343524 -0.016424343 0.012797514 0.013678563 -0.013737339 -0.013115186 0.014597445

layers.0.egnn.vel_mlp.0.weight f4 [16, 4]
00000000: 0966 1bba 828b b039 94c4 0db9 4926 683a
00000010: b494 03b9 3f5c c9b9 a571 5639 9443 f2b8
00000020: 6d30 2aba 3054 18ba a416 1f39 aa2b 1539
00000030: dd5c b139 7119 17ba cb59 f039 c4e2 18ba
00000040: c6b3 f6b9 c31d 6eb9 e34b a9ba 9df1 82ba
00000050: 6de4 163a 440e 32b9 eae4 3839 b6af 32ba
00000060: e654 11ba b9c7 83ba 6d7f 9239 501e e9b9
00000070: 1277 b7ba b5e6 8037 8991 c3b9 f383 873a
00000080: a8db 7e39 722d 73ba 3cb2 e439 14c0 82ba
00000090: 1abc a139 a618 ebb9 645e c639 2de6 00ba
000000a0: b968 0339 a07b 3d39 02ca 6db8 eaa5 fd37
000000b0: a56d af39 d3f2 743a 0039 78ba 9f0c 8fb9
000000c0: e756 b83a bd27 0838 dd6c 283a 9c8d 40ba
000000d0: af9c 01ba ff58 ceb9 639a 8db9 d49e c0b9
000000e0: e564 263a 7577 8538 c680 be38 dbd6 0eba
000000f0: 096c 1d39 46f1 f039 da8e 5db9 e9b6 5c39
-0.0005927985 0.00033673277 -0.00013520039 0.00088558026 -0.0001254853 -0.00038406436 0.00020450966 -0.000115520466
-0.00064922014 -0.0005810885 0.00015171856 0.00014226013 0.0003382926 -0.0005763984 0.00045843268 -0.00058321306
-0.00047054718 -0.00022708536 -0.0012916293 -0.0009990219 0.0005756084 -0.00016980717 0.00017632885 -0.0006816344
-0.0005543962 -0.0010054029 0.0002794223 -0.00044463808 -0.0013997278 1.536622e-05 -0.0003730173 0.0010339007
0.00024305156 -0.0009276486 0.00043620344 -0.0009975457 0.0003084846 -0.00044841057 0.0003783583 -0.00049171114
0.00012532146 0.00018070498 -5.6693338e-05 3.023721e-05 0.00033460293 0.0009344045 -0.0009468943 -0.0002728449
0.0014063985 3.2461936e-05 0.00064249133 -0.000734532 -0.0004944307 -0.0003935769 -0.00027008643 -0.0003673943
0.0006347432 6.364185e-05 9.083892e-05 -0.0005448886 0.00015012933 0.0004595613 -0.00021129419 0.00021048974

layers.0.egnn.vel_mlp.0.bias f4 [16]
00000000: e4f4 2ebd d441 353e 7f67 e43e 6e50 9c3d
00000010: 5ba8 a53e 7709 c03d e7eb ac3e 0e9e 943e
00000020: 53ff ddbc f141 4cbe 3523 bcbd d463 c03e
00000030: 8004 e6be d131 5bbd 883a a3bd 3e65 2b3d
-0.042714015 0.17700893 0.4461021 0.07632528 0.32355008 0.09376805 0.3377373 0.29026836
-0.027099287 -0.1994703 -0.09186403 0.37576163 -0.44925308 -0.053514306 -0.07970148 0.0418446

layers.0.egnn.vel_mlp.3.weight f4 [1, 16]
00000000: b412 bf37 4894 f136 d9f2 06b6 06f7 b837
00000010: 4849 b7b9 9809 63b6 989d b7b7 9f7b a1b7
00000020: a37e 27b7 12ec 9d37 e7ae a635 4737 06b9
00000030: e35e c138 6ff1 ccb8 06a5 3e34 a27c 28b6
2.2777684e-05 7.199622e-06 -2.0108912e-06 2.2049539e-05 -0.0003495908 -3.383122e-06 -2.1888685e-05 -1.9250261e-05
-9.983461e-06 1.8825787e-05 1.2418867e-06 -0.00012799828 9.220631e-05 -9.7724485e-05 1.7755164e-07 -2.5106497e-06

layers.1.egnn.edge_mlp.0.weight f4 [20, 10]
00000000: e478 81bc ad36 54bc bec9 1b3d e98f 10bd
00000010: e3e0 1fbc a882 5abc d43c 123d 67f7 febc
00000020: 9a66 dfbc e7a2 7fbd be70 5cbc 295e 49bc
00000030: aeb5 173d f21e 0abd 8f9d f9bb c59b 8abc
00000040: 1991 103d 9083 fcbc 408d e4bc 2c08 74bd
00000050: bbdf f1ba eea8 f73c d9d4 a7bc 6afd 8d3c
00000060: 31fa ccbb aa0a 083d 2e91 9fbc 2092 8a3c
00000070: d744 983c b033 533d 13b0 14bc c72c 173d
00000080: 1ee3 7bbc 3cba 723c 8ad1 52bc d009 223d
00000090: 0dad 86bc 0948 403c 1f79 3f3c d880 3d3d
000000a0: 765d 4cbc b9e1 82bc 337c 0c3d a21c 09bd
000000b0: bb15 f0bb f98a abbc bd73 0c3d eacd edbc
000000c0: db3e c3bc adac 7abd 0134 e7bb 5849 0c3d
000000d0: 621a 8ebc c645 8d3c f692 24bc e00c 1a3d
000000e0: c006 8dbc f592 493c b5e5 623c 1c6d 403d
000000f0: 9a39 0dbc 9850 123d 1913 92bc 0b9b 663c
00000100: a35d 30bc 1691 263d 4d01 80bc 8f11 4e3c
00000110: 6e4c 653c ae6e 403d 552b febb 6086 123d
00000120: 1b54 75bc 1c0b 903c 8444 46bc eb94 2e3d
00000130: 78aa 76bc f3fa 453c f378 543c fd1d 413d
00000140: 9b16 9dbc 83b2 00bc 53ee 293d ad0b 28bd
00000150: bfcb 75bc f1cc 49bc ebbe 1f3d 040f 11bd
00000160: 63ec f9bc 53e8 86bd 9034 eebb 69df 143d
00000170: 4994 85bc 1470 703c 5064 3dbc 4cf9 1f3d
00000180: 2ec9 90bc d90d 4e3c 30ec 743c b873 433d
00000190: ba62 93bc b23f 2bbc 009f 203d c083 1ebd
000001a0: aa9e 68bc d5c1 45bc 7dc1 1f3d 53c5 0ebd
000001b0: a5ab f0bc e2e8 83bd 764f debb 4e11 093d
000001c0: 22f5 90bc 640d 903c a39e 28bc 8e82 133d
000001d0: 4456 92bc 59eb 633c 3db1 8f3c ce15 3f3d
000001e0: 38d8 66bc ef93 5fbc 3685 123d 3803 10bd
000001f0: 1311 1fbc cd30 9bbc 0bce 183d 9434 f1bc
00000200: 6b4b cebc f61b 80bd fd79 06bc fbc0 123d
00000210: 2fe8 84bc 7c37 6c3c c27e 50bc 75d2 293d
00000220: e61b 8ebc 9d1d 493c c700 703c 1fd0 483d
00000230: 29f7 05bc d8f6 193d 9b4c 83bc 62d7 543c
00000240: 4dfa 4abc d394 2c3d 868f 85bc cd50 2b3c
00000250: 6613 3f3c c7ce 403d c39e 91bc 4d92 0dbc
00000260: 1b70 223d 9a6b 1bbd b8a9 43bc 6b6b 84bc
00000270: 94a3 1a3d eab2 0cbd 87aa efbc bc23 85bd
00000280: 4fa9 42bc 89ca 76bc e2b3 123d 000e 0fbd
00000290: be84 f9bb ef0d 96bc e13f 053d 721c f3bc
000002a0: 96b2 d7bc b9ea 7abd 7685 7ebc 1af6 5bbc
000002b0: bb10 183d d4dd 0fbd 1d41 1abc 6405 a1bc
000002c0: 8091 0b3d d0e1 febc 397d e5bc a3ff 77bd
000002d0: 4a87 29bc 0191 1a3d e5b0 72bc 823d 6c3c
000002e0: 33a3 58bc 7504 2e3d 4ba3 70bc c4f6 2c3c
000002f0: e792 793c ef47 433d 1a59 46bc c624 5dbc
00000300: e712 0f3d 9cb6 05bd 2f8b e8bb 072c a8bc
00000310: 1e30 0f3d c071 f7bc 579c d4bc d290 7ebd
-0.015804715 -0.012952489 0.038034193 -0.035293493 -0.009758207 -0.013336815 0.03570254 -0.03112383
-0.027270604 -0.062411215 -0.013454614 -0.012290516 0.037038498 -0.033720918 -0.0076176594 -0.01691998
0.035294626 -0.030824453 -0.027899384 -0.059578106 -0.0018453518 0.03023192 -0.020487236 0.017332751
-0.006255411 0.033213295 -0.019478407 0.016915381 0.018587513 0.051562965 -0.0090751825 0.036907937
-0.015373973 0.01481491 -0.012867341 0.03956014 -0.016439939 0.0117359245 0.011686592 0.046265453
-0.012473455 -0.015976774 0.034298133 -0.033474572 -0.007326809 -0.02094029 0.034290064 -0.029028852
-0.023833683 -0.061199833 -0.00705576 0.034249634 -0.017346565 0.017245185 -0.010044804 0.037609935
-0.017215133 0.012303104 0.013848712 0.046979055 -0.00861969 0.03572139 -0.017831372 0.014075051
-0.010764512 0.04066571 -0.01562562 0.0125774285 0.013995273 0.046980552 -0.0077566304 0.03577268
-0.014973666 0.017583422 -0.012101296 0.042622488 -0.015055291 0.012083757 0.01296829 0.04714774
-0.019175818 -0.0078550605 0.04148705 -0.04102676 -0.01500219 -0.012316928 0.039000433 -0.03541471
-0.030508226 -0.06587281 -0.0072694495 0.036345873 -0.01630606 0.014675159 -0.011559561 0.039056107
-0.017674055 0.012576544 0.01494889 0.04771778 -0.017991412 -0.010452198 0.039214134 -0.038699865
-0.014197985 -0.012070139 0.039002884 -0.03485615 -0.029378721 -0.06440903 -0.006784375 0.03346377
-0.017695013 0.01758451 -0.010291728 0.03601318 -0.0178634 0.013911092 0.017540568 0.046651654
-0.0140896365 -0.01364611 0.03577157 -0.03515932 -0.009708661 -0.018944168 0.037305873 -0.029444017
-0.025182446 -0.06255333 -0.008207795 0.03582857 -0.016223995 0.014417525 -0.012725534 0.041460473
-0.017347287 0.012275127 0.014648623 0.049026605 -0.008176603 0.037588924 -0.01602774 0.012990804
-0.012388778 0.042134117 -0.016303789 0.010456276 0.01166234 0.0470722 -0.017775899 -0.008640838
0.039657693 -0.037944414 -0.01194232 -0.016164502 0.037753657 -0.034350313 -0.029256118 -0.065009564
-0.011881187 -0.015062937 0.03581608 -0.03492546 -0.007614701 -0.01831719 0.032531623 -0.02967665
-0.026330274 -0.061259005 -0.015534749 -0.013425374 0.03712533 -0.03512366 -0.009414938 -0.01965589
0.034074306 -0.031113535 -0.028013812 -0.06054653 -0.010347197 0.037735943 -0.014812683 0.0144189615
-0.0132225035 0.04248472 -0.01468737 0.01055688 0.015232778 0.047676023 -0.012106204 -0.013497537
0.034930136 -0.032644853 -0.00709667 -0.020528806 0.034957998 -0.030205607 -0.025953455 -0.06214983

layers.1.egnn.edge_mlp.0.bias f4 [20]
00000000: cbd9 87be cb59 c9bd 7a5e 5e3d 05ad b03e
00000010: 60a6 5dbe 850e ce3d c51e 623e 9bb2 9e3e
00000020: 45a4 aebe 4591 103e 4eea c0be 2182 8b3d
00000030: 2d4a 96be 41ea a83e 3a69 6e3e f676 babe
00000040: 0279 2fbe dfee abbd 8a37 b13e b660 07be
-0.2653335 -0.0983158 0.05428932 0.34507003 -0.21645498 0.10061363 0.2208205 0.3099564
-0.34109703 0.14117916 -0.3767876 0.068119295 -0.29353467 0.32991222 0.23282328 -0.36418885
-0.17136005 -0.083951704 0.34612685 -0.13220486

layers.1.egnn.edge_mlp.3.weight f4 [16, 20]
00000000: b728 26bd 7678 11bd cd8b e93c f81b 203d
00000010: 0a65 1cbd ff8a 0a3d 2b29 1a3d 09c0 173d
00000020: 117d 24bd d26e 0c3d 8863 2bbd d17e f33c
00000030: 00e2 22bd 4c3e 1d3d 6321 1f3d bc13 30bd
00000040: 65cd 1cbd d5b7 07bd e0ec 173d edac 15bd
00000050: 8006 20bd db1d 12bd 84fd e93c 28e3 143d
00000060: 899f 1abd 5619 0d3d 132a 193d 19b1 203d
00000070: 7aa8 2abd f584 093d e36a 2bbd 57f7 ef3c
00000080: 76c6 23bd 7afe 1a3d 6a23 203d b46c 24bd
00000090: 8eb4 1cbd 4c2a 0cbd a489 203d 90c7 0fbd
000000a0: 4d5d 26bd 6f10 0ebd e36f db3c f8e1 1f3d
000000b0: 3c99 1abd 13af 103d 0769 143d 3927 1e3d
000000c0: 0089 28bd e675 0a3d c123 2ebd 69b5 fe3c
000000d0: 404e 28bd f333 1b3d a642 1d3d 0143 2abd
000000e0: 938c 26bd ee55 07bd ae30 1e3d 04db 15bd
000000f0: edc1 353d eb10 243d 7d3a 0fbd 7442 2dbd
00000100: 8ff3 303d 1544 1bbd 50c2 27bd 113d 21bd
00000110: 898f 2f3d 515b 23bd 5af1 393d 3c3d 12bd
00000120: 2120 333d 241b 2fbd ae0e 1ebd 1665 363d
00000130: 1077 2e3d d23e 133d 854a 2abd bdf5 2e3d
00000140: 2d92 343d b757 2f3d b345 11bd 882a 2fbd
00000150: e4e6 2b3d 7c19 27bd b549 1fbd 2f2a 2ebd
00000160: aaa1 313d 664e 2abd fa68 303d 23da 17bd
00000170: 6ad6 353d 7db1 2ebd 7059 2cbd e81a 3e3d
00000180: 797b 2c3d 04b5 1e3d 16ef 2abd 2f87 2c3d
00000190: 19eb 23bd 3c97 0bbd cfb9 ea3c 1916 183d
000001a0: 880d 19bd 9cc1 0b3d cc07 0e3d d84f 213d
000001b0: 1f64 1fbd d6e9 063d a790 2dbd a464 f23c
000001c0: ec27 21bd 424f 153d 3000 103d b1a8 2bbd
000001d0: c28f 1fbd 0e01 06bd eea3 0e3d 913d 19bd
000001e0: e1de 363d c141 263d b95a 0dbd c7ed 29bd
000001f0: 2e5a 2a3d 6999 1fbd 86dd 24bd 52cb 31bd
00000200: 0c73 333d b4c4 23bd 48fc 313d e8e7 13bd
00000210: 178c 363d 7353 29bd 65ec 34bd f2cf 383d
00000220: 3c4a 2e3d e120 1d3d 7a3b 2fbd b494 2c3d
00000230: ddad 343d d39f 263d ac4d 12bd cf26 31bd
00000240: 7576 313d 7377 26bd 7791 28bd 7b6f 2dbd
00000250: 5119 3f3d f9a3 2bbd 9914 373d 46c0 12bd
00000260: 2c68 343d d0d4 34bd fca2 29bd e740 333d
00000270: fc1b 373d be21 1e3d fd50 32bd 0960 2a3d
00000280: 85ac 343d bbd1 2d3d 5eb4 0dbd b7d9 32bd
00000290: 083b 343d 8721 20bd 515e 29bd 73a5 2fbd
000002a0: 6995 353d 6cf6 21bd 62a3 393d c412 1abd
000002b0: 86a6 373d b4d4 32bd 0f49 30bd 6e4c 303d
000002c0: 3474 293d 9158 183d e662 26bd 5d8b 253d
000002d0: 6e7b 20bd fb05 0fbd f52f f33c 4399 233d
000002e0: 16cb 23bd cb6c 0b3d bc9b 213d b9b6 1f3d
000002f0: fb91 35bd ef98 113d 5d65 2ebd 6811 033d
00000300: ed45 26bd a96e 243d e280 133d e84d 2dbd
00000310: f1e5 1bbd 63d8 0dbd d576 1f3d 4d96 19bd
00000320: 8e0f 21bd d01b 07bd 6197 e93c 52c0 1a3d
00000330: 3f30 24bd 59eb 063d 5d92 133d 0166 213d
00000340: 3040 25bd c0a1 0e3d 2de1 2dbd 8854 f63c
00000350: a89c 29bd 5d5b 1c3d 5844 173d b9ca 33bd
00000360: b972 18bd 139d ffbc 6978 223d 0643 17bd
00000370: d147 28bd 20d5 14bd fd1c f93c 767e 203d
00000380: e2f3 26bd f202 0e3d 3ef9 183d 2084 1e3d
00000390: cec9 30bd 50b7 0b3d 62bb 2dbd a83e f73c
000003a0: c44f 36bd e45d 223d d769 123d bbc5 27bd
000003b0: 3d17 19bd 5656 03bd 4d40 203d 738f 1dbd
000003c0: 93cf 2d3d ff3d 1d3d 5e15 0dbd 813e 24bd
000003d0: 2257 2f3d 2add 16bd 952d 1ebd 3219 29bd
000003e0: d272 313d e492 21bd 9fa0 343d 6cb0 12bd
000003f0: 5972 283d ce7a 27bd b940 23bd 7b31 313d
-0.040566172 -0.03551527 0.028509045 0.039089173 -0.038182296 0.033823963 0.037636917 0.037048373
-0.040158335 0.034285374 -0.041842967 0.029723557 -0.03976631 0.03838949 0.0388502 -0.04298757
-0.038281817 -0.0331343 0.037091136 -0.036541868 -0.0390687 -0.035673004 0.028563268 0.036349446
-0.0377498 0.03444799 0.03739364 0.039231393 -0.041664578 0.033574063 -0.041849982 0.029292746
-0.03998419 0.037840344 0.039096273 -0.04014273 -0.038258128 -0.034220025 0.039193764 -0.035102427
-0.040616322 -0.03468364 0.02678675 0.03903386 -0.037743792 0.035323214 0.036232974 0.038611624
-0.04114628 0.033803843 -0.042514566 0.031092362 -0.04109025 0.03789134 0.03839364 -0.041567806
-0.040661406 -0.033040933 0.038620643 -0.036585823 0.044374395 0.040055197 -0.03496789 -0.042299703
0.043201026 -0.037906725 -0.040956795 -0.039364878 0.042861495 -0.039882008 0.045396186 -0.03570293
0.043731812 -0.042750493 -0.03858822 0.044529997 0.042594016 0.035948582 -0.041574974 0.042714823
0.044084717 0.04280826 -0.03546686 -0.04276517 0.04196824 -0.04079579 -0.038888652 -0.0425207
0.043367065 -0.041578673 0.043068863 -0.037073266 0.044393934 -0.042649735 -0.04207748 0.04641238
0.04210994 0.03874685 -0.041731916 0.04212111 -0.04001913 -0.034079775 0.028653054 0.03713045
-0.03736642 0.034120187 0.034675404 0.039382786 -0.038913842 0.032937847 -0.04237428 0.029589005
-0.039344713 0.03645254 0.03515643 -0.041908924 -0.038955458 -0.03271585 0.034824304 -0.03741223
0.044646148 0.04059005 -0.034510348 -0.041486528 0.04158991 -0.038964663 -0.040250324 -0.043406792
0.04381089 -0.039982513 0.043453485 -0.036109835 0.044567194 -0.04133935 -0.044170756 0.045120187
0.042551264 0.038361434 -0.04278133 0.042134 0.04411112 0.040679764 -0.035718605 -0.0432499
0.04332586 -0.04064126 -0.04115435 -0.042342644 0.046655003 -0.041904423 0.044697378 -0.035827897
0.04404466 -0.044148266 -0.0414152 0.043763068 0.044704422 0.038606398 -0.043534268 0.041595493
0.04410984 0.042436343 -0.03459584 -0.04366466 0.04400161 -0.039094474 -0.041349713 -0.042882394
0.04433194 -0.039541647 0.04532183 -0.037615553 0.044836544 -0.04365988 -0.043038424 0.04304164
0.041370586 0.03719384 -0.04062166 0.04041611 -0.03918021 -0.034917813 0.029685954 0.039941084
-0.0399886 0.0340393 0.03945516 0.038992617 -0.04432867 0.03554624 -0.042577136 0.03199902
-0.04059403 0.040144596 0.036011584 -0.042310625 -0.038061086 -0.03463019 0.038931686 -0.037496854
-0.039321475 -0.03298551 0.028514566 0.037781067 -0.040085074 0.03293929 0.036028255 0.03940392
-0.040344417 0.034822226 -0.042451072 0.030069605 -0.041409165 0.03817307 0.036930412 -0.043894503
-0.037218783 -0.031202829 0.039665613 -0.036929153 -0.041084114 -0.036336064 0.03040933 0.039183103
-0.04075993 0.034670778 0.03734707 0.038700223 -0.043161206 0.034110367 -0.04241503 0.030181244
-0.044509664 0.039640322 0.035745468 -0.040960055 -0.037375677 -0.03206476 0.039123822 -0.038466882
0.042434286 0.038389202 -0.034444205 -0.04009867 0.042807706 -0.036832012 -0.03861769 -0.041283794
0.04332239 -0.039446726 0.044098493 -0.03581278 0.041124675 -0.0408886 -0.039856646 0.04326008

layers.1.egnn.edge_mlp.3.bias f4 [16]
00000000: 2092 803e cc61 823d d843 f03d e450 1cbe
00000010: df3d 15be ac61 383e 18e4 5dbe d6f2 2cbe
00000020: 3ae7 40be 6a64 413e 4b72 6a3e 19ef 013e
00000030: d52e 69be aa41 82be d139 5b3e 752d 683e
0.25111485 0.063663095 0.1173169 -0.15265232 -0.14574383 0.18006009 -0.21669042 -0.1688951
-0.18838206 0.18885961 0.22895162 0.12688865 -0.22771771 -0.25440723 0.21408774 0.2267359

layers.1.egnn.node_mlp.0.weight f4 [8, 20]
00000000: fe48 99b9 28d1 2f3b 0d14 43bb 0290 83ba
00000010: c483 90b9 e7f9 6a3a e0d6 c6ba 913c 22bb
00000020: 1921 a6b7 bfc6 8ab9 d386 a2ba 7709 2f3b
00000030: a395 933a 30f9 d4b9 bc09 59ba 536e f639
00000040: 45b5 beb9 4b25 443a ffd5 03ba b13a 70b9
00000050: c0f0 cb39 ad5b 343a 598b 3b39 3cb0 c33a
00000060: d928 b73a ba4b 4eb9 de26 adba de3b 7c3a
00000070: b6d1 06bb 8258 a6ba 99b0 d33a d410 033b
00000080: e84d 1e3a 55b8 eb39 d8fb abba 073d 903a
00000090: 9839 f236 3e24 96ba abfe 543b ad49 2c3a
000000a0: 32df c6ba 1027 abba d4ee c5b9 3466 513b
000000b0: 9034 e839 da20 05ba 66ea 53ba b228 18b9
000000c0: a4a4 b8ba a672 3b39 8530 b539 9b0a 95ba
000000d0: be1a b2ba 26e6 f8ba 15f3 eb39 9900 99b6
000000e0: a72d a539 399e 383a bacf fd3a a1f7 ad3a
000000f0: 24af e538 59d5 c739 35fa 9cba 659f ca3a
00000100: 7d9f f2ba 92a4 45b9 e37b 7e3a 1cec 363b
00000110: afca 61ba dff9 8439 6c1b c338 b2ca 8fba
00000120: c976 4aba dddb 603a f8a6 96ba d4b6 25ba
00000130: f6bb 7b39 c1bd 19ba 3da7 2bba c019 8736
00000140: b8f5 ad39 30e9 c33a 6031 2c3a 0f19 1dba
00000150: 1fe3 93b7 1bec 20ba b00d ddba fa8e 803a
00000160: 8c39 673a 2aa9 24b9 d2c8 50ba f6fa 473a
00000170: 97b6 b2b9 09e7 a6ba 2d62 d7b9 3876 a33a
00000180: 213a c73a 1863 c43a 4555 96b9 9556 c1b9
00000190: ccb5 2cb9 6dc3 e6b9 2b3a 3aba 9388 a2b9
000001a0: 3782 e9ba 057e bcba 791f 19ba e42f 8fb9
000001b0: 2317 d737 7f8f 913a b473 bcba bf99 49ba
000001c0: b094 e539 984f 113b a697 9d39 ca72 91b9
000001d0: 5073 a23a 79ec 9bba bed2 fb39 6ac6 49ba
000001e0: 5b21 0e39 ddcd 50b9 3595 d63a 8d32 3d39
000001f0: a92c 17b9 8157 0139 47f7 ec39 40ed e238
00000200: 1787 88ba c75a 8d3a 98c4 a739 de26 11bb
00000210: 4586 dfb9 37d9 2cb9 1b70 e0b9 6c07 5a3a
00000220: cda6 873a 4eda d33a c6b1 423a 37a4 b1ba
00000230: d980 0f3b 63bf 003b 7800 143a 3394 f839
00000240: 6404 4d39 1be5 28ba a899 583a 9b86 8d3a
00000250: 739a 8eba d5a4 e5b9 1045 adb9 c482 e93a
00000260: df09 8fb9 ad78 31ba c944 583a 2689 913a
00000270: 5c77 f2b9 0170 9439 e6bd 4eb9 2fb8 9a39
-0.00029236817 0.0026827548 -0.002976659 -0.0010037425 -0.00027563993 0.000896363 -0.0015170239 -0.0024755339
-1.9804154e-05 -0.00026469489 -0.00123998 0.0026708522 0.0011259805 -0.0004062145 -0.00082793436 0.00047002974
-0.0003637468 0.0007482364 -0.00050291413 -0.00022910048 0.0003889855 0.0006880116 0.00017885621 0.0014929841
0.0013973966 -0.00019673901 -0.0013210436 0.0009621958 -0.0020571775 -0.0012691172 0.0016150653 0.0019999044
0.00060388306 0.0004496003 -0.001312132 0.0011004516 7.218867e-06 -0.0011454893 0.0032500427 0.0006572258
-0.0015172719 -0.0013057906 -0.0003775271 0.0031951787 0.0004428965 -0.00050784426 -0.00080839393 -0.0001451101
-0.0014087153 0.0001787642 0.0003455916 -0.0011370959 -0.0013588292 -0.0018989488 0.00045003803 -4.559825e-06
0.00031505266 0.000704262 0.0019364276 0.0013272652 0.000109521934 0.00038115194 -0.0011976423 0.001545888
-0.0018510666 -0.00018848691 0.00097077916 0.0027911728 -0.0008613271 0.0002536317 9.303432e-05 -0.0010970442
-0.0007723389 0.0008577684 -0.0011493852 -0.0006321494 0.00024007246 -0.00058647624 -0.0006548053 4.026311e-06
0.00033180206 0.0014946815 0.0006568637 -0.0005992809 -1.7629527e-05 -0.0006138698 -0.0016865041 0.0009808235
0.0008820526 -0.00015703277 -0.0007964495 0.00076286437 -0.00034086846 -0.0012733649 -0.00041081142 0.0012471145
0.0015199819 0.0014983146 -0.0002867376 -0.00036876337 -0.00016470923 -0.00044014622 -0.00071040046 -0.00031000804
-0.0017815296 -0.0014380818 -0.00058411766 -0.00027310767 2.5640771e-05 0.0011105387 -0.0014377744 -0.00076904515
0.00043789065 0.0022172686 0.0003005836 -0.0002774208 0.0012393985 -0.0011896036 0.00048031466 -0.00076971075
0.00013554601 -0.00019913116 0.0016371371 0.00018043276 -0.0001441712 0.00012334996 0.00045197664 0.00010820711
-0.0010416236 0.00107845 0.00031999196 -0.002214841 -0.00042633913 -0.00016484117 -0.00042808134 0.0008317146
0.0010349393 0.0016163082 0.0007427003 -0.0013552968 0.0021896868 0.0019645325 0.0005645822 0.00047412663
0.00019551959 -0.0006442831 0.00082626427 0.0010797562 -0.001087977 -0.00043801093 -0.00033048587 0.001781546
-0.0002728244 -0.0006769996 0.0008249996 0.0011103495 -0.00046246767 0.0002831221 -0.00019716434 0.00029510396

layers.1.egnn.node_mlp.0.bias f4 [8]
00000000: b223 df3d 30e3 1f3e 77a7 49be 8057 02bd
00000010: 641b 18bd cc27 07be cd0d c2bd b3ca 0d3e
0.1089548 0.15614009 -0.19692789 -0.031821728 -0.037135497 -0.13198775 -0.094752885 0.13846855

layers.1.egnn.node_mlp.3.weight f4 [4, 8]
00000000: b952 99ba 5be5 fd39 a4f2 263a a425 e137
00000010: 2e61 df3a ba89 c439 e708 87ba 491d 0bbb
00000020: 6ac9 25ba 1d7e c23a dd8b 8f38 4c72 66ba
00000030: 4b65 55ba bb14 4cba 471c fc39 c55e 82ba
00000040: fc31 2bb9 c078 25ba 6765 eeb9 fed5 db3a
00000050: 59ea a2ba 9134 da39 b0fb 4f3a 4eb8 633a
00000060: 433b 0a3a 924d 0cba 306f f2b7 b4ad 2d3a
00000070: f6c1 62b9 1376 a839 2c9c 503a a59f 4139
-0.0011697627 0.00048426804 0.0006368554 2.6839618e-05 0.0017042512 0.00037486647 -0.0010302336 -0.0021227172
-0.00063242635 0.001483861 6.844823e-05 -0.0008790835 -0.0008140399 -0.00077850715 0.00048086254 -0.0009946456
-0.00016326451 -0.00063122436 -0.00045470448 0.0016772149 -0.001242946 0.00041619365 0.00079339277 0.00086868263
0.0005273113 -0.0005352135 -2.8900424e-05 0.000662531 -0.00021625296 0.0003213143 0.0007957842 0.00018465387

layers.1.egnn.node_mlp.3.bias f4 [4]
00000000: 46d5 2a3e c178 9dbd b9fb 71bd 581d 03be
0.1668292 -0.076890476 -0.059077952 -0.12804163
