data/models/best_model_N20_batch32_lr0.0001_fd4_b0.5.pth (torch, 31506 bytes, 32 tensors)

time_embedding.0.weight f4 [8, 1]
0.51631236 -0.8508521 -0.5585607 -0.70190656 -0.1232272 0.24190827 0.57727855 -0.7618302
00000000: 0c2d 043f 71d1 59bf d6fd 0ebf 26b0 33bf
00000010: 8b5e fcbd cdb6 773e 87c8 133f 4e07 43bf

time_embedding.0.bias f4 [8]
-0.65101516 0.07629786 0.86283886 -0.20154548 0.8333894 0.5250747 -0.5317186 0.61110723
00000000: eea8 26bf 0d42 9c3d 02e3 5c3f f061 4ebe
00000010: 0259 553f 4c6b 063f b61e 08bf 8671 1c3f

time_embedding.3.weight f4 [4, 8]
-0.2229907 -0.09220978 0.023079459 0.040647514 -0.077382095 0.2042408 0.330081 0.35391077
-0.04935834 -0.32912666 -0.24692339 0.199098 -0.0065319254 -0.15412152 0.06576413 -0.1570972
-0.2289314 -0.049361452 0.035136413 -0.024255006 0.088349156 0.14714879 -0.18940459 -0.2565504
-0.15690218 -0.16717845 0.26684776 -0.046721045 0.018141093 0.28819078 -0.117087744 0.13431334
00000000: ad57 64be 7bd8 bcbd 2211 bd3c 027e 263d
00000010: 817a 9ebd 8024 513e 6000 a93e cb33 b53e
00000020: f92b 4abd 4a83 a8be 7cd9 7cbe 59e0 4b3e
00000030: c309 d6bb 08d2 1dbe 58af 863d 17de 20be
00000040: fe6c 6abe 3c2f 4abd 33eb 0f3d 6fb2 c6bc
00000050: 67f0 b43d 2cae 163e 47f3 41be 935a 83be
00000060: f7aa 20be d430 2bbe 45a0 883e 915e 3fbd
00000070: a19c 943c be8d 933e b3cb efbd 7089 093e

time_embedding.3.bias f4 [4]
0.36280385 -0.08564353 0.2899607 0.24995391
00000000: 6dc1 b93e e065 afbd bb75 943e ebf3 7f3e

layers.0.egnn.edge_mlp.0.weight f4 [20, 10]
0.027880408 -0.011798745 0.023130093 0.009508699 0.031995747 -0.0067978627 0.029103175 0.008879376
0.011557025 0.08354794 -0.1848044 0.16783558 -0.21728882 -0.1864598 -0.1842971 0.17680949
-0.22112198 -0.19241844 -0.14490224 -0.17981344 -0.121856034 0.1047415 -0.13556848 -0.11319513
-0.12331461 0.103879064 -0.13643917 -0.10901703 -0.08983534 -0.1600927 -0.17944592 0.16317645
-0.21291226 -0.17964831 -0.18117876 0.17168191 -0.21327238 -0.1845287 -0.13946915 -0.17840867
0.02711268 -0.009381627 0.021693857 0.0052233445 0.030247599 -0.0048606633 0.027076859 0.008603951
0.012021176 0.08674553 -0.18699014 0.17141482 -0.22067088 -0.19105436 -0.1879012 0.1851671
-0.22093098 -0.19863068 -0.14975917 -0.1834074 0.030278621 -0.016456714 0.029895589 0.016714811
0.035613872 -0.01458689 0.036017235 0.01773435 0.017120376 0.079410434 -0.14789204 0.13083585
-0.17604621 -0.14329645 -0.15027905 0.13212149 -0.1766056 -0.14759268 -0.10882653 -0.1732634
0.0269642 -0.011515503 0.022440432 0.009931572 0.032302577 -0.009305586 0.027835103 0.009161709
0.013608922 0.083790705 -0.11848181 0.1005689 -0.13243473 -0.10813126 -0.118535675 0.099753596
-0.13308805 -0.1069867 -0.08659429 -0.15602045 0.030339964 -0.011057917 0.026561385 0.010628099
0.03356568 -0.008451741 0.02935063 0.011207799 0.012344125 0.083236486 0.026043886 -0.011509635
0.024535162 0.010052131 0.03105656 -0.008683692 0.027599145 0.0105410125 0.015262304 0.08284554
0.028727114 -0.01186073 0.023736859 0.008602547 0.032607343 -0.009980841 0.028364358 0.010943753
0.0139781935 0.08434218 0.028558547 -0.013026062 0.024189716 0.011017678 0.033541203 -0.011570691
0.02946744 0.010449672 0.012784808 0.082254834 0.028428517 -0.011989451 0.025720302 0.010547686
0.0334197 -0.008433884 0.030408882 0.011070805 0.015457282 0.08199761 -0.1215929 0.102622315
-0.13449562 -0.11127765 -0.12165216 0.1013454 -0.13371526 -0.108959444 -0.091907606 -0.15721266
-0.1643466 0.1458183 -0.19210513 -0.15765116 -0.16468374 0.15140451 -0.19346696 -0.16562419
-0.12487202 -0.17839156 -0.1746881 0.15825288 -0.20783632 -0.1790873 -0.17735592 0.16934338
-0.21128084 -0.1826482 -0.13549876 -0.18036747 0.029629165 -0.013344366 0.027955612 0.012115163
0.03451882 -0.01361022 0.03371253 0.015286254 0.017267441 0.07991851 -0.17269336 0.1548049
-0.20278962 -0.17174612 -0.17305827 0.16360821 -0.20511433 -0.17667541 -0.13370031 -0.17919469
00000000: 7465 e43c 864f 41bc 527b bd3c 60ca 1b3c
00000010: f90d 033d 9bc0 debb c869 ee3c cd7a 113c
00000020: ad59 3d3c 2f1b ab3d 5d3d 3dbe 17dd 2b3e
00000030: f680 5ebe 51ef 3ebe 61b8 3cbe 8c0d 353e
00000040: cd6d 62be 5709 45be 4161 14be 0421 38be
00000050: a88f f9bd b682 d63d 77d2 0abe d9d2 e7bd
00000060: 5f8c fcbd 8cbe d43d b6b6 0bbe 5244 dfbd
00000070: 97fb b7bd 57ef 23be acc0 37be ba17 273e
00000080: ac05 5abe baf5 37be ed86 39be 62cd 2f3e
00000090: 1364 5abe 17f5 3cbe 00d1 0ebe c3b0 36be
000000a0: 691b de3c 65b5 19bc 51b7 b13c 9728 ab3b
000000b0: d0c9 f73c 3346 9fbb 4ad0 dd3c 96f7 0c3c
000000c0: 77f4 443c a4a7 b13d 587a 3fbe 5e87 2f3e
000000d0: 8cf7 61be c1a3 43be 2c69 40be 729c 3d3e
000000e0: bb3b 62be d765 4bbe 785a 19be 26cf 3bbe
000000f0: df0a f83c 3bd0 86bc 98e7 f43c 80ed 883c
00000100: dadf 113d dafd 6ebc cf86 133d a147 913c
00000110: 0840 8c3c f0a1 a23d 0371 17be d5f9 053e
00000120: 7545 34be 4ebc 12be c0e2 19be db4a 073e
00000130: 19d8 34be 8922 17be 72e0 debd f66b 31be
00000140: 07e4 dc3c 85ab 3cbc ffd4 b73c 08b8 223c
00000150: b54f 043d 7576 18bc 7106 e43c fe1a 163c
00000160: f5f7 5e3c 769a ab3d 97a6 f2bd 11f7 cd3d
00000170: f89c 07be ec73 ddbd d5c2 f2bd 9d4b cc3d
00000180: 3c48 08be d81b dbbd 5958 b1bd d3c3 1fbe
00000190: 848b f83c 442c 35bc 4397 d93c 7a21 2e3c
000001a0: 2b7c 093d 2c79 0abc bb70 f03c eba0 373c
000001b0: 033f 4a3c e477 aa3d fd59 d53c e892 3cbc
000001c0: f7fd c83c b1b1 243c 546a fe3c 0b46 0ebc
000001d0: 9a17 e23c 36b4 2c3c be0e 7a3c ecaa a93d
000001e0: 2055 eb3c 8253 42bc cd73 c23c b3f1 0c3c
000001f0: 478f 053d ae86 23bc 5f5c e83c 6d4d 333c
00000200: cb04 653c 98bb ac3d 9df3 e93c 446b 55bc
00000210: 8329 c63c 7e83 343c 8062 093d ff92 3dbc
00000220: b365 f13c 1a35 2b3c 5f77 513c 3975 a83d
00000230: ece2 e83c 676f 44bc 62b3 d23c 34d0 2c3c
00000240: 18e3 083d 462e 0abc 0c1c f93c 5262 353c
00000250: 8a40 7d3c 5dee a73d b305 f9bd a62b d23d
00000260: 38b9 09be 89e5 e3bd c524 f9bd 2d8e cf3d
00000270: a7ec 08be 2126 dfbd 0e3a bcbd 5bfc 20be
00000280: 7a4a 28be 6451 153e 35b7 44be 4e6f 21be
00000290: dba2 28be c909 1b3e 341c 46be 6399 29be
000002a0: e7bc ffbd 47ac 36be 70e1 32be 0b0d 223e
000002b0: 0bd3 54be a962 37be ca9c 35be 5a68 2d3e
000002c0: 015a 58be 2108 3bbe 30c0 0abe 40b2 38be
000002d0: ddb8 f23c 54a2 5abc 2b03 e53c ad7e 463c
000002e0: 9b63 0d3d 66fd 5ebc 2616 0a3d 3273 7a3c
000002f0: 7374 8d3c 51ac a33d 87d6 30be 2d85 1e3e
00000300: 15a8 4fbe 37de 2fbe 3036 31be e988 273e
00000310: 7e09 52be 66ea 34be bce8 08be d07e 37be

layers.0.egnn.edge_mlp.0.bias f4 [20]
0.34468743 -0.45856896 -0.16721928 -0.4401157 0.39957845 -0.46715978 0.082315035 -0.33890915
0.33560562 -0.17799394 0.23065384 0.33296126 0.3566588 0.27238092 0.23950623 -0.14854161
-0.3649627 -0.43610474 0.18812205 -0.40155402
00000000: df7a b03e 8dc9 eabe 883b 2bbe d856 e1be
00000010: 8c95 cc3e 912f efbe c994 a83d 8085 adbe
00000020: 80d4 ab3e 0b44 36be 8530 6c3e e679 aa3e
00000030: fb9b b63e 8375 8b3e 1f41 753e 4b1b 18be
00000040: 64dc babe 1f49 dfbe 11a3 403e 7d98 cdbe

layers.0.egnn.edge_mlp.3.weight f4 [16, 20]
0.05073512 -0.083936006 -0.06049007 -0.084702276 0.05312869 -0.085181154 0.036414843 -0.07410162
0.048680857 -0.061299294 0.046594657 0.04909398 0.051875696 0.04646734 0.04612289 -0.06013413
-0.07634874 -0.08140528 0.04251037 -0.07893704 0.050848167 -0.084551975 -0.06046023 -0.08202466
0.05065814 -0.08577494 0.036666624 -0.07361485 0.050188992 -0.060002435 0.047418628 0.052122727
0.05083776 0.04750864 0.044806264 -0.059098728 -0.07761145 -0.08188736 0.04330133 -0.08132619
-0.078498945 0.10296401 0.09330666 0.102584876 -0.07832654 0.10386676 -0.06762447 0.096903235
-0.07876482 0.093072444 -0.07397281 -0.07560986 -0.07679368 -0.07815013 -0.075030975 0.09401732
0.09984231 0.101247415 -0.07224889 0.10030096 0.05054679 -0.08199005 -0.060903843 -0.081864916
0.05168692 -0.082038134 0.03818377 -0.07153684 0.050870363 -0.059493154 0.046400044 0.049362823
0.05024652 0.046501033 0.04392697 -0.060082354 -0.07717951 -0.07922498 0.042746417 -0.07894521
-0.07953557 0.10359041 0.096588604 0.1026885 -0.07996183 0.10493229 -0.07005742 0.10077001
-0.07947309 0.09524371 -0.0758565 -0.08004169 -0.08071197 -0.07781983 -0.075015046 0.09520319
0.101492465 0.10185591 -0.075493984 0.10359097 0.05042675 -0.085127816 -0.06301929 -0.08230625
0.052696694 -0.08621892 0.03820301 -0.074027665 0.051079422 -0.060198758 0.048330743 0.050139394
0.050178185 0.046488512 0.045415014 -0.05904019 -0.07809911 -0.083399676 0.045091387 -0.08013616
0.051837582 -0.08505765 -0.059572227 -0.082876004 0.051472846 -0.08651159 0.03697348 -0.07214516
0.05064549 -0.0604755 0.044809096 0.049849972 0.04961197 0.048035327 0.047317777 -0.05940587
-0.077109724 -0.08250184 0.04284817 -0.079524934 -0.07179353 0.09869846 0.087783135 0.098442994
-0.072747 0.09858343 -0.06423847 0.093987696 -0.07186402 0.086677015 -0.06947031 -0.07228712
-0.07161482 -0.06912925 -0.06998449 0.08678549 0.09510271 0.09908414 -0.0666433 0.097740054
-0.07711663 0.10184387 0.09020667 0.103252746 -0.07711154 0.104223065 -0.06572463 0.09802188
-0.0762108 0.09176644 -0.07415352 -0.07665491 -0.07538315 -0.07449627 -0.07270492 0.09185159
0.10098835 0.10111419 -0.07070286 0.1013264 0.0498957 -0.08517046 -0.060018864 -0.083565935
0.053584225 -0.08692711 0.03769997 -0.07283007 0.0491567 -0.06102584 0.046297897 0.04760694
0.050448958 0.048448868 0.044735346 -0.057693694 -0.07806821 -0.08241541 0.043191675 -0.08081601
-0.0792718 0.103242174 0.093246944 0.103544734 -0.07817318 0.10367325 -0.07073057 0.09768709
-0.07649635 0.09539162 -0.07527834 -0.07659902 -0.07714284 -0.07578391 -0.07419094 0.09466043
0.10171396 0.102768146 -0.07364135 0.099689014 -0.07818275 0.103525616 0.09457866 0.10274203
-0.08120227 0.10368007 -0.07060844 0.0992393 -0.07839217 0.096766144 -0.07859953 -0.07847421
-0.07909667 -0.0794045 -0.076914296 0.09456125 0.1012465 0.10294534 -0.075742655 0.10203231
-0.07364156 0.09843768 0.087890856 0.09653174 -0.07171131 0.100679666 -0.06343274 0.09386679
-0.070994064 0.08626027 -0.06943514 -0.071670435 -0.07249646 -0.07169117 -0.06885386 0.08745498
00000000: a1cf 4f3d a4e6 abbd 70c4 77bd 6378 adbd
00000010: 789d 593d 7573 aebd bb27 153d 97c2 97bd
00000020: 9465 473d f814 7bbd 0ada 3e3d c516 493d
00000030: 9c7b 543d 8a54 3e3d 5beb 3c3d 354f 76bd
00000040: ba5c 9cbd d0b7 a6bd 5b1f 2e3d bea9 a1bd
00000050: 2b46 503d 9629 adbd 25a5 77bd 8cfc a7bd
00000060: e97e 4f3d c6aa afbd be2f 163d 62c3 96bd
00000070: f992 4d3d 1dc5 75bd 093a 423d a47e 553d
00000080: 413b 503d 6b98 423d c686 373d 8211 72bd
00000090: c0f2 9ebd 8fb4 a7bd bc5c 313d 588e a6bd
000000a0: 0ec4 a0bd cbde d23d 9017 bf3d 0518 d23d
000000b0: aa69 a0bd 19b8 d43d b37e 8abd 3475 c63d
000000c0: 734f a1bd c49c be3d 0e7f 97bd 58d9 9abd
000000d0: 0146 9dbd 2d0d a0bd d7a9 99bd 278c c03d
000000e0: 207a cc3d ce5a cf3d 3af7 93bd 976a cd3d
000000f0: 270a 4f3d 66ea a7bd 4f76 79bd cba8 a7bd
00000100: aab5 533d 9c03 a8bd 9666 1c3d e881 92bd
00000110: 715d 503d 18af 73bd f90d 3e3d ac30 4a3d
00000120: 4ccf 4d3d de77 3e3d c4ec 333d ea18 76bd
00000130: 4a10 9ebd b540 a2bd de16 2f3d 07ae a1bd
00000140: 8ce3 a2bd 3527 d43d 3fd0 c53d 594e d23d
00000150: 07c3 a3bd bee6 d63d 447a 8fbd 8260 ce3d
00000160: cac2 a2bd 220f c33d a75a 9bbd e6ec a3bd
00000170: 514c a5bd 0160 9fbd 7da1 99bd e4f9 c23d
00000180: 48db cf3d d599 d03d 979c 9abd 8127 d43d
00000190: 488c 4e3d 7e57 aebd 4210 81bd 2e90 a8bd
000001a0: 7dd8 573d 8c93 b0bd c27a 1c3d d19b 97bd
000001b0: a838 513d f992 76bd 75f6 453d f75e 4d3d
000001c0: a487 4d3d bd6a 3e3d 1805 3a3d 20d4 71bd
000001d0: 6df2 9fbd 73cd aabd bfb1 383d 6d1e a4bd
000001e0: a553 543d b532 aebd 0202 74bd e5ba a9bd
000001f0: 31d5 523d fd2c b1bd 8171 173d d7c0 93bd
00000200: a571 4f3d 28b5 77bd be89 373d 7c2f 4c3d
00000210: ec35 4b3d b1c0 443d 49d0 413d 9253 73bd
00000220: b4eb 9dbd baf6 a8bd 9081 2f3d f8dd a2bd
00000230: 7c08 93bd 6b22 ca3d a5c7 b33d 7b9c c93d
00000240: 61fc 94bd 1ce6 c93d 758f 83bd 9f7c c03d
00000250: 712d 93bd b883 b13d 7346 8ebd 450b 94bd
00000260: caaa 92bd a393 8dbd 0754 8fbd 97bc b13d
00000270: 36c5 c23d a0ec ca3d 487c 88bd f02b c83d
00000280: 53ef 9dbd 8593 d03d 46be b83d 2d76 d33d
00000290: a8ec 9dbd e772 d53d a39a 86bd b2bf c83d
000002a0: 6814 9cbd 0bf0 bb3d cddd 97bd 40fd 9cbd
000002b0: 7b62 9abd 8091 98bd 51e6 94bd b01c bc3d
000002c0: fbd2 ce3d f514 cf3d a9cc 90bd 3784 cf3d
000002d0: 6f5f 4c3d da6d aebd 57d6 75bd 9e24 abbd
000002e0: 227b 5b3d d706 b2bd 496b 1a3d ef27 95bd
000002f0: 8958 493d 3bf6 79bd dda2 3d3d 7fff 423d
00000300: 91a3 4e3d 5272 463d 693c 373d 3950 6cbd
00000310: 3ae2 9fbd 69c9 a8bd c1e9 303d dd82 a5bd
00000320: 4159 a2bd a270 d33d 41f8 be3d 430f d43d
00000330: 4319 a0bd a452 d43d 30db 90bd 2b10 c83d
00000340: 1eaa 9cbd af5c c33d 882b 9abd f2df 9cbd
00000350: 11fd 9dbd 9834 9bbd 6bf1 97bd 54dd c13d
00000360: 694f d03d 1b78 d23d 47d1 96bd c129 cc3d
00000370: 471e a0bd 3d05 d43d 75b2 c13d 6a6a d23d
00000380: 604d a6bd 3756 d43d 289b 90bd f93d cb3d
00000390: 138c a0bd 542d c63d caf8 a0bd 16b7 a0bd
000003a0: 6ffd a1bd d49e a2bd 3e85 9dbd 54a9 c13d
000003b0: 535a cf3d 02d5 d23d f71e 9bbd 51f6 d03d
000003c0: 63d1 96bd b299 c93d 1f00 b43d 6fb2 c53d
000003d0: 61dd 92bd 2431 ce3d 06e9 81bd 3b3d c03d
000003e0: 5665 91bd 39a9 b03d 0334 8ebd f3c7 92bd
000003f0: 0679 94bd d2d2 92bd 4103 8dbd 991b b33d

layers.0.egnn.edge_mlp.3.bias f4 [16]
0.20994122 0.16685417 -0.21755072 0.104577094 -0.3075518 0.30349234 0.2337324 -0.10994334
-0.20586242 0.22027536 -0.21563064 -0.28482673 -0.10320465 0.20768498 0.17189738 0.21441482
00000000: d5fa 563e d2db 2a3e 9ec5 5ebe 842c d63d
00000010: 6e77 9dbe 5963 9b3e 8c57 6f3e f929 e1bd
00000020: 99cd 52be dd8f 613e 47ce 5cbe cfd4 91be
00000030: f65c d3bd 5fab 543e de05 303e 8f8f 5b3e

layers.0.egnn.node_mlp.0.weight f4 [8, 20]
0.000103119804 -0.0005792272 -0.0007977124 0.000334702 0.0013639182 -0.0012306519 -0.0003299224 0.0014199018
-0.00095557224 9.9451245e-06 0.0008814536 -0.000713701 -0.002487609 -0.0006690934 0.0009261052 2.572686e-05
0.0014777771 -0.00096084474 -0.00066744664 -0.001779399 0.00022959708 0.000551431 -0.00018545073 -0.0003665724
0.0016714648 0.00077234267 -0.00022318821 -5.349788e-05 -0.00049074227 0.00070677843 0.0006256046 0.0007709877
0.0016765074 0.0011283382 -0.0011673287 -0.00043241557 0.0012417192 0.00044454128 0.0006059134 -0.0009125855
-0.00078454136 0.0015845527 9.265963e-06 0.00093064044 -0.00017686098 -0.0010791462 0.0003655831 0.00042573083
0.00048554083 -0.00061899936 -0.00059962453 -0.0008299275 -0.0011790599 -2.1838498e-06 0.00059331727 -0.0009140721
-0.00042718754 0.00075155357 -0.0017989875 -0.00030514813 -0.0012534768 0.0007510612 -0.0016317843 0.0007084954
0.0010426021 0.00070738274 -0.00071879424 0.0009327558 0.0012649641 -0.0009983648 -0.00031684327 0.0003883593
0.0007890146 -0.0010315683 0.0028492324 -0.00063608144 -0.0012142466 0.0002674114 0.0001513223 0.0001556152
0.0013417443 -0.00012565774 6.3375315e-05 -0.0021032256 0.0012198022 -0.000112429494 0.00053494674 0.0005362686
-0.00029849148 0.00067766773 0.00034020923 -0.00066941435 -0.00018291191 0.0009555241 0.0005410308 -0.00089777494
-5.81909e-06 -0.0008982454 0.0014536866 0.00026093217 0.00016703234 0.0018508334 -3.377373e-05 0.00023256574
0.00052765623 -0.001643428 0.00032649975 -0.0014117488 0.00070058176 -0.00043928498 -0.00010613944 -0.0013236032
0.0013221604 -8.204013e-05 0.00023732419 8.904877e-05 0.0001647932 0.0003544078 -0.002113983 -0.00022094557
0.00014506615 0.0001737282 0.00084986433 -0.001699192 -0.00075431506 0.0013246477 -0.00013439538 0.00050222885
0.0016883626 0.0014703969 0.0007951631 -0.0022153275 0.0001257602 0.00026360145 -0.0004150894 0.00057192415
-0.0022324992 -0.0010848324 0.000753939 0.00018139972 0.00095937896 -0.0008548911 0.0015281426 0.0009771327
-0.0005902007 -0.00062301883 0.0012868419 0.00019184372 0.00011877525 -9.3707444e-05 -2.0485104e-05 -0.00054685905
0.00092773844 -0.000487739 -0.00020819833 -0.00091244694 -5.2768217e-05 -0.0013158032 0.0018384034 -0.0009803757
00000000: 0642 d838 48d7 17ba 931d 51ba f17a af39
00000010: 80c5 b23a d34d a1ba 6ff9 acb9 001c ba3a
00000020: 5e7f 7aba fcd9 2637 5a11 673a aa17 3bba
00000030: 2707 23bb 1966 2fba dec5 723a 03d0 d737
00000040: f9b1 c13a 33e1 7bba 96f7 2eba b93a e9ba
00000050: ffbf 7039 e88d 103a 8d75 42b9 8430 c0b9
00000060: 0d15 db3a 0a77 4a3a a107 6ab9 e962 60b8
00000070: 28a5 00ba 1947 393a 9dff 233a 1c1c 4a3a
00000080: 41be db3a bfe4 933a 0d01 99ba d6b5 e2b9
00000090: 2fc1 a23a 5211 e939 29d6 1e3a 943a 6fba
000000a0: aea9 4dba c4b0 cf3a 0275 1b37 39f6 733a
000000b0: c273 39b9 2372 8dba bcab bf39 a034 df39
000000c0: 3090 fe39 5844 22ba 1f30 1dba 7e8f 59ba
000000d0: af8a 9aba 418e 12b6 d988 1b3a 579e 6fba
000000e0: 24f8 dfb9 e803 453a 01cc ebba 4afc 9fb9
000000f0: b44b a4ba dde2 443a 98e1 d5ba 52ba 393a
00000100: eca7 883a a76f 393a 776d 3cba 2f84 743a
00000110: 27cd a53a 90db 82ba fc1d a6b9 b49c cb39
00000120: e0d5 4e3a b035 87ba 30ba 3a3b b4be 26ba
00000130: 5b27 9fba 5a33 8c39 45ac 1e39 a32c 2339
00000140: 78dd af3a fec2 03b9 5de8 8438 45d6 09bb
00000150: c5e1 9f3a 20c8 ebb8 ab3b 0c3a 6094 0c3a
00000160: d97e 9cb9 83a5 313a 1c5e b239 a37b 2fba
00000170: 0bcc 3fb9 237c 7a3a f6d3 0d3a a858 6bba
00000180: 9a41 c3b6 3a78 6bba a189 be3a b9cd 8839
00000190: 6725 2f39 aa97 f23a 44a8 0db8 e4dc 7339
000001a0: 6952 0a3a 4b68 d7ba 0e2e ab39 6e0a b9ba
000001b0: 3fa7 373a d54f e6b9 2e97 deb8 c17c adba
000001c0: 574c ad3a f60c acb8 3ada 7839 b2bf ba38
000001d0: 56cc 2c39 cfcf b939 c08a 0abb a0ad 67b9
000001e0: e61c 1839 cf2a 3639 6ec9 5e3a 6cb7 deba
000001f0: 3abd 45ba cd9f ad3a 7cec 0cb9 02a8 033a
00000200: 0c4c dd3a 55ba c03a 7e72 503a 072f 11bb
00000210: 7fde 0339 fd33 8a39 5ba0 d9b9 2eed 153a
00000220: 1f4f 12bb ef30 8eba fda3 453a 1e36 3e39
00000230: d57e 7b3a c51a 60ba f54b c83a 2213 803a
00000240: b3b7 1aba 1652 23ba 40ab a83a a829 4939
00000250: fa16 f938 cd84 c4b8 6dd7 abb7 175b 0fba
00000260: 7933 733a 38b7 ffb9 d04f 5ab9 4731 6fba
00000270: 7153 5db8 0777 acba 95f6 f03a f37f 80ba

layers.0.egnn.node_mlp.0.bias f4 [8]
0.09203842 0.20514977 0.17256548 0.14262319 0.068912014 0.030236762 0.12465261 0.21301267
00000000: a47e bc3d c812 523e 01b5 303e d00b 123e
00000010: be21 8d3d 16b3 f73c de49 ff3d fe1f 5a3e

layers.0.egnn.node_mlp.3.weight f4 [4, 8]
0.0004908821 0.00028115467 -0.00042116217 0.0012240438 0.0016029088 -0.0012308786 -0.0004815772 0.00015866868
0.0009445366 0.00012002831 -0.0009044507 -0.0014458918 0.00012245863 0.0014258837 -0.0012635809 0.0010472593
0.0004891103 -0.0001529962 0.0022251322 -0.00071011245 0.00039798865 -0.00010547846 -0.00038294384 0.001153843
-0.0005763997 0.0019360471 0.0014392933 -0.00044531174 0.0005855393 -0.0012893918 0.0015372091 -0.0002596202
00000000: 8aae 003a f167 9339 6ecf dcb9 1870 a03a
00000010: b218 d23a 6f55 a1ba 337c fcb9 4d60 2639
00000020: c79a 773a b5b7 fb38 a918 6dba 1484 bdba
00000030: 3d68 0039 b8e4 ba3a bd9e a5ba 3144 893a
00000040: a337 003a 9b6d 20b9 86d3 113b d726 3aba
00000050: 22a9 d039 5134 ddb8 dac5 c8b9 8c3c 973a
00000060: 8719 17ba f6c2 fd3a aba6 bc3a bb78 e9b9
00000070: e17e 193a cf00 a9ba 2e7c c93a a21d 88b9

layers.0.egnn.node_mlp.3.bias f4 [4]
0.18378112 -0.1170187 0.035720382 0.24664344
00000000: 1e31 3c3e 80a7 efbd 894f 123d 1990 7c3e

layers.0.egnn.coors_mlp.0.weight f4 [64, 16]
0.030531218 0.034153715 -0.041976728 0.038722605 -0.039150696 0.030368302 0.033355065 -0.051527023
-0.043037437 0.034005255 -0.04324849 -0.03931668 -0.055245735 0.031722967 0.033403452 0.0324596
-0.07492937 -0.075894274 0.081120625 -0.0752478 0.07735423 -0.07417476 -0.07272092 0.08141788
0.07796347 -0.073976174 0.08103337 0.077995375 0.08081192 -0.07319459 -0.075382955 -0.0757047
-0.06235622 -0.06413202 0.06575836 -0.06764 0.06150684 -0.060330406 -0.061604332 0.07365639
0.06653971 -0.06137974 0.06376053 0.06228455 0.07292956 -0.062308375 -0.062482957 -0.062922835
-0.038522795 -0.040238045 0.044659194 -0.049293976 0.039898206 -0.038815603 -0.039033834 0.055436205
0.046249196 -0.039815463 0.04555786 0.041748673 0.058668595 -0.041898046 -0.04223782 -0.0388985
-0.0624315 -0.062981315 0.06685051 -0.063561164 0.065554194 -0.06235361 -0.060917083 0.06892387
0.06846769 -0.061573513 0.067400485 0.06663331 0.072230786 -0.06166206 -0.06220204 -0.06224312
0.03755897 0.039179683 -0.045920555 0.04347162 -0.04554398 0.03612427 0.03864123 -0.054511838
-0.04452586 0.03748254 -0.048904482 -0.044402555 -0.05787759 0.039590113 0.04001875 0.037833642
0.053333938 0.054663822 -0.061513174 0.058547743 -0.061593052 0.05012996 0.052030463 -0.066171326
-0.06255801 0.0541415 -0.060138717 -0.0614523 -0.067490414 0.05242116 0.05333043 0.053953573
0.03810487 0.037404153 -0.047475982 0.04326275 -0.045954917 0.036720213 0.03737222 -0.055132248
-0.04955465 0.039746646 -0.04734588 -0.046661925 -0.05744953 0.0389207 0.038898125 0.03868159
-0.064209476 -0.06577767 0.069367 -0.06791791 0.06774745 -0.06283942 -0.06438743 0.07592875
0.06958369 -0.06610869 0.07026186 0.06740764 0.07787591 -0.06387165 -0.065108314 -0.06382562
-0.05541173 -0.058267485 0.059547532 -0.061817724 0.056676622 -0.05552542 -0.05385045 0.06750754
0.05982047 -0.0556207 0.06067215 0.057766452 0.06733013 -0.055083685 -0.056351226 -0.053667713
-0.06156877 -0.060613137 0.06476454 -0.06428297 0.062773734 -0.06141617 -0.06205548 0.06923588
0.06572227 -0.061160173 0.0676309 0.06348387 0.07297871 -0.06144753 -0.060834814 -0.060348827
0.049451776 0.047190826 -0.05590353 0.049545463 -0.055713944 0.047442712 0.048262358 -0.059851624
-0.058737747 0.047843657 -0.057038747 -0.056165777 -0.064523086 0.047674213 0.047429606 0.04839771
-0.056153007 -0.057106998 0.060887896 -0.060613267 0.05661812 -0.05326844 -0.05400984 0.06600734
0.05954893 -0.055296455 0.060958136 0.057449006 0.066944405 -0.055877943 -0.055931117 -0.05554276
-0.048040207 -0.05061014 0.05232072 -0.054862525 0.049688037 -0.045599323 -0.04802678 0.06298981
0.052930314 -0.047549386 0.050308853 0.049565226 0.063951984 -0.047543578 -0.051131014 -0.046849877
-0.05879641 -0.06283019 0.06390467 -0.063607305 0.061470576 -0.059459746 -0.060978238 0.071369044
0.064864114 -0.05929846 0.06491652 0.06138098 0.072017804 -0.0611086 -0.061180275 -0.06043332
0.052180674 0.053010162 -0.06297454 0.058876846 -0.063250855 0.054949455 0.052610576 -0.06655723
-0.06664128 0.05276364 -0.063715644 -0.061777126 -0.068453625 0.053728037 0.052672543 0.053228244
00000000: 9b1c fa3c c4e4 0b3d caef 2bbd 989b 1e3d
00000010: 7b5c 20bd f2c6 f83c 529f 083d 000e 53bd
00000020: 0648 30bd 1849 0b3d 5425 31bd 870a 21bd
00000030: 5a49 62bd f1ef 013d 0fd2 083d 5cf4 043d
00000040: 9274 99bd 756e 9bbd 9222 a63d 851b 9abd
00000050: e56b 9e3d f0e8 97bd b5ee 94bd 6bbe a63d
00000060: 50ab 9f3d d280 97bd d3f4 a53d 0abc 9f3d
00000070: b880 a53d 0ce7 95bd 6162 9abd 110b 9bbd
00000080: 3c69 7fbd a657 83bd 52ac 863d d786 8abd
00000090: 99ee 7b3d 041d 77bd d354 7cbd 29d9 963d
000000a0: f945 883d 5269 7bbd e194 823d 161e 7f3d
000000b0: 185c 953d 1137 7fbd 21ee 7fbd b0dd 80bd
000000c0: 14ca 1dbd a6d0 24bd 8fec 363d 7be8 49bd
000000d0: 4d6c 233d 1cfd 1ebd f1e1 1fbd 1311 633d
000000e0: cc6f 3d3d 8a15 23bd e19a 3a3d a800 2b3d
000000f0: 7b4e 703d 499d 2bbd 9001 2dbd 0954 1fbd
00000100: 2cb8 7fbd 59fc 80bd ece8 883d 5b2c 82bd
00000110: 4741 863d 8066 7fbd 3184 79bd f527 8d3d
00000120: ca38 8c3d 8234 7cbd 4409 8a3d 0b77 883d
00000130: bced 933d 5b91 7cbd 91c7 7ebd a4f2 7ebd
00000140: 6fd7 193d e07a 203d 3117 3cbd 4c0f 323d
00000150: 538c 3abd 0bf7 133d 4446 1e3d ce47 5fbd
00000160: c060 36bd 4b87 193d 1150 48bd 74df 35bd
00000170: 0d11 6dbd 3e29 223d b3ea 233d 73f7 1a3d
00000180: b074 5a3d 2ce7 5f3d 3df5 7bbd c2cf 6f3d
00000190: ff48 7cbd 1355 4d3d e51d 553d d584 87bd
000001a0: 6a1e 80bd 7ac3 5d3d 0454 76bd 68b5 7bbd
000001b0: 6a38 8abd 92b7 563d 0271 5a3d 6cfe 5c3d
000001c0: da13 1c3d 1935 193d 2d76 42bd 4834 313d
000001d0: 393b 3cbd ef67 163d 9d13 193d 5ad2 61bd
000001e0: d1f9 4abd 61cd 223d c1ed 41bd 9320 3fbd
000001f0: 3350 6bbd 506b 1f3d a453 1f3d 9670 1e3d
00000200: 4280 83bd 71b6 86bd 4910 8e3d 8c18 8bbd
00000210: 2dbf 8a3d f4b1 80bd 8fdd 83bd 8880 9b3d
00000220: e581 8e3d fe63 87bd 73e5 8f3d 040d 8a3d
00000230: 687d 9f3d 24cf 82bd 8257 85bd 02b7 82bd
00000240: 69f7 62bd e3a9 6ebd 1de8 733d 9534 7dbd
00000250: bf25 683d 9f6e 63bd 4a92 5cbd 6541 8a3d
00000260: 4f06 753d 88d2 63bd 5c83 783d 849c 6c3d
00000270: 61e4 893d 6e9f 61bd 8bd0 66bd add2 5bbd
00000280: 892f 7cbd 7b45 78bd 45a3 843d caa6 83bd
00000290: 848f 803d 868f 7bbd e32d 7ebd 8bcb 8d3d
000002a0: 6699 863d 1783 7abd 1282 8a3d d503 823d
000002b0: dd75 953d 68b0 7bbd ed2d 79bd 5530 77bd
000002c0: f28d 4a3d 2b4b 413d 1afb 64bd 2ff0 4a3d
000002d0: 4e34 64bd 4a53 423d c0ae 453d fa26 75bd
000002e0: fe96 70bd b6f7 433d 76a1 69bd 160e 66bd
000002f0: ae24 84bd 0946 433d 8c45 423d ad3c 463d
00000300: b200 66bd 07e9 69bd 9665 793d 9e45 78bd
00000310: 67e8 673d 0230 5abd 6c39 5dbd db2e 873d
00000320: 94e9 733d 897e 62bd 3daf 793d a64f 6b3d
00000330: 261a 893d 45e0 64bd 0718 65bd ce80 63bd
00000340: cfc5 44bd 944c 4fbd 404e 563d 87b7 60bd
00000350: af85 4b3d 5bc6 3abd bbb7 44bd cd00 813d
00000360: 75cd 583d 25c3 42bd a810 4e3d e804 4b3d
00000370: 42f9 823d 0ebd 42bd c16e 51bd a8e5 3fbd
00000380: 81d4 70bd 1dad 80bd 74e0 823d 8c44 82bd
00000390: 92c8 7b3d 108c 73bd 51c4 79bd ef29 923d
000003a0: 7ad7 843d f1e2 72bd f4f2 843d 9f6a 7b3d
000003b0: 127e 933d 034d 7abd 2b98 7abd ee88 77bd
000003c0: 67bb 553d 2f21 593d ccf8 80bd d928 713d
000003d0: aa89 81bd ae12 613d 307e 573d 284f 88bd
000003e0: 397b 88bd b01e 583d 597d 82bd 030a 7dbd
000003f0: 6a31 8cbd ee11 5c3d 2abf 573d dc05 5a3d

layers.0.egnn.coors_mlp.0.bias f4 [64]
0.091203615 -0.06806218 -0.2141673 -0.12500294 -0.062480584 0.11573957 0.2039924 0.085944735
-0.08631876 -0.15217327 -0.13634491 0.16136838 -0.20953038 -0.20539278 -0.16521169 0.08854756
0.1153133 -0.05881615 -0.07022994 -0.27792645 0.13671808 0.059557345 0.2558939 -0.25165394
-0.18153268 0.21847036 -0.19880144 0.053967346 0.07353772 -0.16653247 0.22573186 0.14923936
-0.15153283 0.18280996 0.16843192 0.2632206 0.0919571 -0.071033165 -0.18290098 -0.26336974
-0.27345878 -0.093627855 -0.15870206 0.18997806 -0.25118634 -0.10879517 -0.08838048 -0.22311163
0.16288118 -0.11139637 -0.27355358 -0.14275531 0.2515829 -0.16064698 0.17158784 -0.17235328
0.20718493 -0.2778935 -0.2863678 0.2178007 -0.07939555 -0.22197284 0.24331897 -0.06273021
00000000: f6c8 ba3d 2f64 8bbd ac4e 5bbe c500 00be
00000010: a4eb 7fbd de08 ed3d 62e3 503e cb03 b03d
00000020: e4c7 b0bd 4fd3 1bbe 009e 0bbe c13d 253e
00000030: 228f 56be 7c52 52be 412d 29be 6c58 b53d
00000040: 6129 ec3d 34e9 70bd b7d4 8fbd 604c 8ebe
00000050: d3ff 0b3e 67f2 733d 8604 833e c9d8 80be
00000060: b4e3 39be b2b6 5f3e 9b92 4bbe dd0c 5d3d
00000070: f29a 963d 7d87 2abe 4126 673e 34d2 183e
00000080: 6c2b 1bbe 8932 3b3e 6b79 2c3e dac4 863e
00000090: 0154 bc3d d679 91bd 654a 3bbe 66d8 86be
000000a0: ca02 8cbe f6bf bfbd cb82 22be 9c89 423e
000000b0: 7f9b 80be 01d0 debd d300 b5bd 6077 64be
000000c0: 53ca 263e c823 e4bd 370f 8cbe 732e 12be
000000d0: 79cf 803e a480 24be b9b4 2f3e 617d 30be
000000e0: 4928 543e 0f48 8ebe cd9e 92be 2607 5f3e
000000f0: 229a a2bd d94c 63be 9c28 793e b278 80bd

layers.0.egnn.coors_mlp.3.weight f4 [1, 64]
-0.018801313 0.06869096 0.020677615 0.017101757 0.06102393 -0.019490546 -0.022654993 -0.022995818
0.03991294 0.020584444 0.024337236 -0.021114822 0.018496364 0.016793411 0.02181829 -0.03867207
-0.027567742 0.03755263 0.06417227 0.017443273 -0.016910031 -0.042613525 -0.01551889 0.017705938
0.019324975 -0.013605746 0.015884189 -0.038255326 -0.026765326 0.017196327 -0.014846089 -0.022014286
0.017648991 -0.02350828 -0.013178212 -0.020951439 -0.021829993 0.07078604 0.018337194 0.016192233
0.017032111 0.0349826 0.02111409 -0.019685619 0.014255094 0.027416084 0.027916715 0.017862119
-0.016387036 0.02867584 0.016158937 0.023933016 -0.015055105 0.018685844 -0.02426486 0.017823484
-0.022537103 0.01667057 0.019403977 -0.018834932 0.020933188 0.01555675 -0.01941433 0.04293758
00000000: 3605 9abc d9ad 8c3d 1a64 a93c fc18 8c3c
00000010: 3af4 793d a3aa 9fbc f796 b9bc ba61 bcbc
00000020: c07b 233d b5a0 a83c e25e c73c fef8 acbc
00000030: b085 973c 5692 893c 45bc b23c 9b66 1ebd
00000040: bfd5 e1bc c9d0 193d c06c 833d 32e5 8e3c
00000050: e886 8abc 858b 2ebd f142 7ebc 0b0c 913c
00000060: 694f 9e3c a3ea 5ebc 8f1f 823c 9eb1 1cbd
00000070: f542 dbbc 50df 8c3c 033d 73bc 4e57 b4bc
00000080: 9e94 903c 7094 c0bc 6de9 57bc 5aa2 abbc
00000090: d0d4 b2bc 45f8 903d e237 963c 93a5 843c
000000a0: ed86 8b3c ea49 0f3d 75f7 ac3c bc43 a1bc
000000b0: 338e 693c b297 e03c 98b1 e43c 9453 923c
000000c0: 1b3e 86bc 98e9 ea3c bf5f 843c 2c0f c43c
000000d0: b0a9 76bc 0e13 993c 1ac7 c6bc 8e02 923c
000000e0: bb9f b8bc b890 883c 17f5 9e3c b74b 9abc
000000f0: 147c ab3c bde1 7e3c cd0a 9fbc 51df 2f3d

layers.0.egnn.vel_mlp.0.weight f4 [16, 4]
-0.0015076065 0.00013951836 -0.00043860514 -8.818592e-05 -0.0013065974 -0.0007252209 0.0015640829 0.0016355786
-0.0019037619 0.0011754378 0.00070998515 0.0014845035 -0.0004106558 0.00010879295 -0.0020635475 -6.733872e-05
0.0013468609 0.0010942931 0.001675904 0.0012716483 0.0008690058 0.0006916265 0.000556108 0.0012074817
0.00022758327 0.0021034956 0.0010874026 0.0003248897 -0.00027292932 -0.00070995995 -0.0010276143 0.0008961374
-0.00081196654 -0.0008349718 -0.0008011748 -0.00044149865 3.0327377e-05 0.00025566807 0.0010891164 -0.0011284834
-0.0022990694 0.00095954695 -0.0008162593 0.000761795 -0.00040197783 0.0010714205 0.00039314383 0.0014789266
0.0003832722 0.000872627 0.00086555927 0.0013149615 -0.00043919243 0.0006128044 -0.00027250312 0.0011674352
-0.0010483228 -4.6070098e-05 0.0014211052 -0.00030672544 4.9941536e-05 -0.0014019597 -0.0017194641 2.7073793e-05
00000000: e19a c5ba ad4b 1239 96f4 e5b9 75f0 b8b8
00000010: 2242 abba c01c 3eba ea01 cd3a e960 d63a
00000020: a687 f9ba 2611 9a3a 4c1e 3a3a ac93 c23a
00000030: 4a4d d7b9 c527 e438 953c 07bb 3338 8db8
00000040: 2789 b03a 626e 8f3a 02aa db3a 70ad a63a
00000050: fecd 633a 454e 353a c7c7 113a 5d44 9e3a
00000060: 6ba3 6e39 cdda 093b 2d87 8e3a f555 aa39
00000070: f417 8fb9 9b1c 3aba 04b1 86ba c3ea 6a3a
00000080: 27da 54ba 02e2 5aba ee05 52ba f278 e7b9
00000090: 8c67 fe37 300b 8639 afc0 8e3a 9fe9 93ba
000000a0: fcab 16bb 1b8a 7b3a 3cfa 55ba 32b3 473a
000000b0: 8dc0 d2b9 e86e 8c3a df1e ce39 8bd8 c13a
000000c0: edf1 c839 02c1 643a b3e6 623a c95a ac3a
000000d0: 6943 e6b9 9ba4 203a c0de 8eb9 a004 993a
000000e0: e067 89ba 643b 41b8 6144 ba3a fecf a0b9
000000f0: 5178 5138 f6c1 b7ba a45f e1ba 871c e337

layers.0.egnn.vel_mlp.0.bias f4 [16]
0.11171903 -0.2511365 -0.24914221 0.37755454 0.30491278 -0.09045664 -0.22834943 -0.37721524
-0.02272083 0.3044152 0.22584188 0.079651885 0.053369172 0.051762693 -0.13664033 0.10418083
00000000: f2cc e43d f794 80be 231f 7fbe d44e c13e
00000010: 871d 9c3e 5541 b9bd 6fd4 69be 5b22 c1be
00000020: 0921 babc 4fdc 9b3e 1843 673e 8720 a33d
00000030: a299 5a3d 1e05 543d 71eb 0bbe c25c d53d

layers.0.egnn.vel_mlp.3.weight f4 [1, 16]
0.000117831834 0.00014214992 -0.00015935887 0.000103241575 -1.4847636e-05 0.00039581876 0.00089219125 -0.0004178483
-1.9856041e-05 0.0003779353 -6.0832488e-05 -0.00016536523 -0.00042794613 -0.00054904673 -9.626797e-05 -0.00111745
00000000: 7c1c f738 140e 1539 9219 27b9 6683 d838
00000010: 1c1a 79b7 e585 cf39 f1e1 693a a612 dbb9
00000020: 8690 a6b7 9e25 c639 6326 7fb8 e465 2db9
00000030: f55d e0b9 e7ed 0fba 79e3 c9b8 6677 92ba

layers.1.egnn.edge_mlp.0.weight f4 [20, 10]
-0.047673713 0.04982217 -0.047525752 -0.04630016 -0.047814578 0.051063757 -0.04763541 -0.047574036
-0.03621644 -0.045233443 -0.048064128 0.049329247 -0.0475363 -0.046517983 -0.04758494 0.0512197
-0.04915438 -0.050227884 -0.039044823 -0.04533341 0.05143136 -0.052318662 0.0502263 0.05064313
0.049934063 -0.05049669 0.051027004 0.05183718 0.03900849 0.04927923 0.050447214 -0.049998134
0.04823969 0.049526855 0.05100967 -0.052698582 0.049942892 0.05156265 0.03809038 0.04758549
0.048966035 -0.051474284 0.04978884 0.04872108 0.04936432 -0.052628454 0.050450727 0.04974365
0.037951402 0.046261877 -0.04791317 0.050231006 -0.04978191 -0.047390655 -0.04919045 0.05251638
-0.048106298 -0.050032347 -0.03751631 -0.04626596 0.04955353 -0.051211275 0.048952255 0.04667172
0.049386945 -0.052213594 0.04944384 0.048528347 0.035758473 0.04833135 -0.048347488 0.047626983
-0.048434198 -0.04626115 -0.045626752 0.049403876 -0.049887896 -0.047194425 -0.038194023 -0.04586639
-0.048857354 0.051299863 -0.04811065 -0.04940706 -0.05018691 0.04883519 -0.048681512 -0.045842346
-0.038071997 -0.046944074 0.0487981 -0.052237418 0.049918815 0.04674333 0.050329033 -0.052311104
0.052736636 0.048930917 0.038962167 0.048858207 -0.048286628 0.049635738 -0.04925339 -0.04810863
-0.05039959 0.05260345 -0.050706092 -0.04797165 -0.037137713 -0.04806712 0.051242203 -0.052043825
0.04943658 0.04891932 0.05137026 -0.05306538 0.050629944 0.04991736 0.040165834 0.04899817
-0.046421483 0.05265811 -0.048329517 -0.046191785 -0.04772233 0.051728718 -0.048220847 -0.04836172
-0.038097426 -0.045720182 -0.048606947 0.050679553 -0.05049127 -0.04764959 -0.049546584 0.050637398
-0.051745668 -0.04910695 -0.03458399 -0.047678817 0.050227094 -0.051275626 0.050923295 0.04955338
0.05170346 -0.05278297 0.04986506 0.050090507 0.03793817 0.048282888 -0.04828751 0.0524713
-0.04753173 -0.04820515 -0.046776194 0.04993734 -0.050032027 -0.04735041 -0.03619505 -0.04450696
-0.047887642 0.051283788 -0.048572548 -0.04593693 -0.048715673 0.05051598 -0.047985446 -0.047884215
-0.0360187 -0.044262722 0.052018046 -0.05132128 0.049752355 0.050331004 0.0495781 -0.05271898
0.051308773 0.051985785 0.04042967 0.047415115 0.04848768 -0.05195546 0.05045871 0.04818158
0.051314294 -0.05306504 0.04987046 0.050103724 0.038558893 0.048316747 -0.04862317 0.05096683
-0.04988024 -0.0487445 -0.048922695 0.05108405 -0.04905283 -0.050782893 -0.038487405 -0.045844857
00000000: 8345 43bd 5512 4c3d 5daa 42bd 3da5 3dbd
00000010: 38d9 43bd 3b28 513d 591d 43bd fedc 42bd
00000020: b157 14bd b446 39bd e4de 44bd 770d 4a3d
00000030: 6cb5 42bd a489 3ebd 6de8 42bd c0cb 513d
00000040: 1a56 49bd c1bb 4dbd 77ed 1fbd 87af 39bd
00000050: b1a9 523d 184c 56bd 18ba 4d3d 2c6f 4f3d
00000060: a987 4c3d 9ed5 4ebd b101 513d 3953 543d
00000070: 5ec7 1f3d 05d9 493d bda1 4e3d d8ca 4cbd
00000080: fb96 453d acdc 4a3d 84ef 503d 78da 57bd
00000090: eb90 4c3d 5b33 533d a904 1c3d 01e9 423d
000000a0: 9c90 483d b3d6 52bd 62ef 4b3d c18f 473d
000000b0: 3e32 4a3d ef90 57bd 6ca5 4e3d ffbf 4b3d
000000c0: ee72 1b3d 187d 3d3d 9a40 44bd 07bf 4d3d
000000d0: 1ee8 4bbd b41c 42bd ed7b 49bd 6a1b 573d
000000e0: 1c0b 45bd b8ee 4cbd b4aa 19bd 6081 3dbd
000000f0: a4f8 4a3d eac2 51bd 2982 483d d82a 3f3d
00000100: f749 4a3d ecdd 55bd a085 4a3d a9c5 463d
00000110: 7a77 123d 18f7 453d 0408 46bd 8314 433d
00000120: f062 46bd 557c 3dbd 1ee3 3abd b85b 4a3d
00000130: 4057 4cbd f14e 41bd 5671 1cbd 65de 3bbd
00000140: a61e 48bd ce1f 523d ac0f 45bd 0f5f 4abd
00000150: ca90 4dbd 6807 483d 4466 47bd 2fc5 3bbd
00000160: 62f1 1bbd 6e48 40bd 84e0 473d e7f6 55bd
00000170: ac77 4c3d ef75 3f3d d125 4e3d 2b44 56bd
00000180: 5f02 583d c96b 483d cb96 1f3d 8b1f 483d
00000190: 33c8 45bd d84e 4b3d ecbd 49bd 8e0d 45bd
000001a0: cd6f 4ebd b776 573d 31b1 4fbd ec7d 44bd
000001b0: b71d 18bd 07e2 44bd 58e3 513d e82b 55bd
000001c0: 037e 4a3d a05f 483d 9f69 523d 155b 59bd
000001d0: 5861 4f3d 2576 4c3d ee84 243d 4eb2 483d
000001e0: 7424 3ebd 08b0 573d 2cf5 45bd 9933 3dbd
000001f0: 7d78 43bd 7ee1 533d 3983 45bd f016 46bd
00000200: 0c0c 1cbd 1645 3bbd 1418 47bd 5d95 4f3d
00000210: efcf 4ebd 372c 43bd 5cf1 4abd 2969 4f3d
00000220: 44f3 53bd 5f24 49bd f1a7 0dbd dd4a 43bd
00000230: edba 4d3d 6406 52bd f294 503d 7cf8 4a3d
00000240: 02c7 533d f532 58bd 4e3f 4c3d b42b 4d3d
00000250: 0e65 1b3d 47c4 453d 20c9 45bd 25ec 563d
00000260: a2b0 42bd c372 45bd 6598 3fbd 198b 4c3d
00000270: 62ee 4cbd 81f2 41bd 4341 14bd ee4c 36bd
00000280: d525 44bd f30e 523d 02f4 46bd 5d28 3cbd
00000290: 168a 47bd d8e9 4e3d 638c 44bd 3d22 44bd
000002a0: 5888 13bd d44c 35bd e010 553d 4336 52bd
000002b0: 20c9 4b3d e227 4e3d 6812 4b3d dbef 57bd
000002c0: 2629 523d 0cef 543d 9599 253d 5a36 423d
000002d0: 049b 463d 40cf 54bd cbad 4e3d 0c5a 453d
000002e0: f02e 523d ba5a 59bd f844 4c3d 9039 4d3d
000002f0: eeef 1d3d c8e7 453d 1729 47bd 98c2 503d
00000300: 394f 4cbd 50a8 47bd 2a63 48bd 823d 513d
00000310: 9feb 48bd b901 50bd f8a4 1dbd d1c7 3bbd

layers.1.egnn.edge_mlp.0.bias f4 [20]
-0.090189174 -0.22254923 0.20300741 0.33244807 0.3601825 -0.052305136 0.23319004 -0.34340948
-0.23771697 0.34813184 -0.083099075 0.32174417 -0.26263264 -0.10288894 0.21480438 -0.34309274
-0.20124054 0.22705193 0.320946 -0.122710794
00000000: 1ab5 b8bd f2e3 63be 2de1 4f3e a236 aa3e
00000010: d769 b83e e93d 56bd 5fc9 6e3e 5ed3 afbe
00000020: 146c 73be 563e b23e d92f aabd a7bb a43e
00000030: c977 86be 70b7 d2bd aef5 5b3e daa9 afbe
00000040: 0012 4ebe 4d80 683e 0953 a43e cc4f fbbd

layers.1.egnn.edge_mlp.3.weight f4 [16, 20]
0.043154664 0.040603094 -0.042169623 -0.041902594 -0.038781904 0.04478612 -0.042401195 0.03845353
0.040191807 -0.041402563 0.04269789 -0.040516138 0.041224238 0.04394583 -0.043382157 0.040386483
0.0396308 -0.043574072 -0.039801303 0.0427072 -0.0460957 -0.04502732 0.04541147 0.042784724
0.043326695 -0.046834208 0.04517854 -0.04193077 -0.04289377 0.044894714 -0.04601584 0.044186328
-0.042472612 -0.0446488 0.042424746 -0.042379614 -0.04373072 0.044065204 0.044054408 -0.04477439
-0.044940267 -0.041194443 0.043821625 0.041433636 0.041385084 -0.046597127 0.04548109 -0.04371783
-0.042052075 0.04348461 -0.044705864 0.042074006 -0.041905094 -0.045755412 0.04263645 -0.04158482
-0.04496566 0.04194338 0.042859413 -0.044772793 -0.045381 -0.043297954 0.04527722 0.042625446
0.043898318 -0.045821007 0.042968098 -0.0425082 -0.043395787 0.043918338 -0.04438714 0.044318363
-0.042313144 -0.043811895 0.04318242 -0.040902365 -0.042010903 0.044068154 0.042948514 -0.04425226
0.040813044 0.04030266 -0.0430883 -0.04015987 -0.04070556 0.044132914 -0.041779377 0.03959121
0.040925227 -0.03954695 0.043148313 -0.041687272 0.041116305 0.042998597 -0.04132128 0.039060507
0.0412219 -0.041766968 -0.040513083 0.040972594 0.039233606 0.038702186 -0.04127425 -0.04048716
-0.041138392 0.043703604 -0.04148436 0.038004536 0.037588965 -0.03938499 0.04120835 -0.040685948
0.039772995 0.041447528 -0.03999636 0.040610798 0.03997167 -0.039743796 -0.040577907 0.039992455
-0.04371539 -0.043686956 0.044351675 0.045382567 0.043718904 -0.0447458 0.043441363 -0.04252323
-0.04372066 0.041989107 -0.043739133 0.042703062 -0.043731682 -0.04458331 0.04458269 -0.042256474
-0.042759623 0.044955976 0.043402553 -0.045381706 0.043582574 0.040752947 -0.04046053 -0.04266548
-0.043112386 0.043424215 -0.04205234 0.040880147 0.040785093 -0.04266655 0.04473147 -0.040182527
0.041612696 0.04355943 -0.043212444 0.039625574 0.040853374 -0.041435022 -0.04189138 0.042192735
0.042660154 0.040921167 -0.04070774 -0.040857475 -0.040735226 0.044025354 -0.039865904 0.040389456
0.04193772 -0.04235811 0.042861868 -0.040209785 0.04006186 0.042239256 -0.041349623 0.03788835
0.040486116 -0.04103818 -0.042165596 0.042809196 0.040159095 0.039403953 -0.04121492 -0.040746775
-0.04036955 0.043179512 -0.040787954 0.038609512 0.038642038 -0.039640903 0.041393366 -0.039619673
0.04092266 0.041451618 -0.041881192 0.036531333 0.039520647 -0.037489336 -0.040106956 0.039507538
-0.04573889 -0.041449483 0.042495027 0.044250928 0.043054458 -0.046379123 0.044272184 -0.042748526
-0.042920563 0.042475455 -0.046603862 0.045066174 -0.04245785 -0.044907205 0.043911543 -0.04253929
-0.044098154 0.04314608 0.044910546 -0.04439726 0.039363645 0.040022597 -0.040034477 -0.042204842
-0.04172718 0.043798625 -0.04148968 0.03914706 0.041485835 -0.04214164 0.04337117 -0.04248792
0.04002504 0.043287408 -0.04098325 0.03930347 0.041156072 -0.041714057 -0.04098914 0.042084232
-0.04461324 -0.04361889 0.04348684 0.04311307 0.043330453 -0.044141553 0.0448354 -0.04135044
-0.04233987 0.043636937 -0.047326542 0.044132404 -0.04247725 -0.04467279 0.045085665 -0.043142796
00000000: f2c2 303d 6e4f 263d 0eba 2cbd 0ea2 2bbd
00000010: c6d9 1ebd a771 373d e0ac 2dbd 7381 1d3d
00000020: 2aa0 243d bc95 29bd fce3 2e3d 40f4 25bd
00000030: bfda 283d 8b00 343d 7db1 31bd 4c6c 253d
00000040: e853 223d ba7a 32bd b106 23bd bfed 2e3d
00000050: d8ce 3cbd 916e 38bd 6101 3a3d 093f 2f3d
00000060: 5577 313d 3ad5 3fbd 220d 393d 99bf 2bbd
00000070: 61b1 2fbd 85e3 373d 1b7b 3cbd b9fc 343d
00000080: c3f7 2dbd a9e1 36bd 92c5 2d3d 3f96 2dbd
00000090: fc1e 33bd b77d 343d 6572 343d 5a65 37bd
000000a0: 4913 38bd 81bb 28bd 4e7e 333d 51b6 293d
000000b0: 6883 293d a1dc 3ebd 614a 3a3d 7811 33bd
000000c0: cc3e 2cbd eb1c 323d 7f1d 37bd cb55 2c3d
000000d0: ada4 2bbd 076a 3bbd 8fa3 2e3d d854 2abd
000000e0: e92d 38bd d2cc 2b3d 5a8d 2f3d ad63 37bd
000000f0: 6de1 39bd 3259 31bd 9b74 393d 0598 2e3d
00000100: b9ce 333d cfae 3bbd 51ff 2f3d 141d 2ebd
00000110: c8bf 31bd b7e3 333d 4acf 35bd 2c87 353d
00000120: 8c50 2dbd 1a74 33bd 0de0 303d 3d89 27bd
00000130: a013 2cbd cf80 343d c8ea 2f3d dc41 35bd
00000140: 942b 273d 6714 253d 5b7d 30bd ad7e 24bd
00000150: e0ba 26bd b7c4 343d da20 2bbd 652a 223d
00000160: 36a1 273d fcfb 21bd 49bc 303d 46c0 2abd
00000170: 9269 283d 4c1f 303d 8140 29bd e9fd 1f3d
00000180: 4cd8 283d d713 2bbd 0cf1 25bd e1d2 273d
00000190: 6bb3 203d 2f86 1e3d 300f 29bd ddd5 25bd
000001a0: bb80 28bd 8d02 333d 81eb 29bd a5aa 1b3d
000001b0: e3f6 193d 2852 21bd 16ca 283d 4fa6 26bd
000001c0: 02e9 223d e2c4 293d 39d3 23bd 8257 263d
000001d0: 55b9 233d 64ca 22bd 0535 26bd 21cf 233d
000001e0: e90e 33bd 18f1 32bd 1aaa 353d 12e3 393d
000001f0: 9812 333d 5f47 37bd 92ef 313d d72c 2ebd
00000200: 6f14 33bd c5fc 2b3d ce27 33bd 68e9 2e3d
00000210: fe1f 33bd fd9c 36bd 579c 363d 2015 2dbd
00000220: b724 2fbd c223 383d e0c6 313d 2be2 39bd
00000230: a483 323d 90ec 263d f1b9 25bd 00c2 2ebd
00000240: 9d96 30bd 97dd 313d 133f 2cbd f171 273d
00000250: 450e 273d 1fc3 2ebd 5938 373d 6f96 24bd
00000260: 1372 2a3d 5f6b 323d 88ff 30bd 6d4e 223d
00000270: de55 273d c5b7 29bd 4c96 2bbd 4ad2 2c3d
00000280: 6abc 2e3d f49c 273d 29bd 26bd 2b5a 27bd
00000290: fbd9 26bd ee53 343d 6e4a 23bd 6a6f 253d
000002a0: e3c6 2b3d b37f 2dbd ed8f 2f3d 04b3 24bd
000002b0: e817 243d 1203 2d3d 395e 29bd d130 1b3d
000002c0: c5d4 253d a717 28bd d5b5 2cbd b258 2f3d
000002d0: dd7d 243d 0a66 213d fad0 28bd 17e6 26bd
000002e0: 8b5a 25bd 00dd 303d 4511 27bd 0225 1e3d
000002f0: 1d47 1e3d 805e 22bd 178c 293d 3d48 22bd
00000300: 859e 273d 2cc9 293d 9d8b 2bbd e1a1 153d
00000310: 67e0 213d 6b8e 19bd 3147 24bd a8d2 213d
00000320: b458 3bbd efc6 29bd 440f 2e3d 7640 353d
00000330: df59 303d 09f8 3dbd c056 353d 1419 2fbd
00000340: 79cd 2fbd befa 2d3d b1e3 3ebd 4f97 383d
00000350: 48e8 2dbd 9ef0 37bd 97dc 333d ae3d 2ebd
00000360: 44a0 34bd f2b9 303d 1ff4 373d e7d9 35bd
00000370: c63b 213d bcee 233d 31fb 23bd fcde 2cbd
00000380: 1fea 2abd 3066 333d 15f1 29bd ab58 203d
00000390: 0ded 293d b69c 2cbd f8a5 313d d007 2ebd
000003a0: 4cf1 233d 234e 313d 0dde 27bd adfc 203d
000003b0: 4593 283d 5cdc 2abd 3ae4 27bd 8460 2c3d
000003c0: 5fbc 36bd b9a9 32bd 421f 323d 5597 303d
000003d0: 467b 313d c6cd 34bd 53a5 373d 145f 29bd
000003e0: 926c 2dbd a5bc 323d 7ad9 41bd 2ec4 343d
000003f0: a0fc 2dbd d1fa 36bd bfab 383d 80b6 30bd

layers.1.egnn.edge_mlp.3.bias f4 [16]
-0.110793784 0.078658104 0.14716357 0.14141488 -0.20327295 -0.10646093 0.06157894 -0.05716131
-0.12670393 -0.19221446 0.11550731 -0.1760196 0.048298545 0.14702402 -0.20121686 -0.13283384
00000000: dae7 e2bd 8017 a13d 0cb2 163e 10cf 103e
00000010: c926 50be 3008 dabd 333a 7c3d fa21 6abd
00000020: adbe 01be ded3 44be 198f ec3d 7b3e 34be
00000030: b2d4 453d 778d 163e cb0b 4ebe 9805 08be

layers.1.egnn.node_mlp.0.weight f4 [8, 20]
0.00024120662 0.00016970077 2.8670518e-05 0.0002763474 -0.0011163735 -7.9300786e-05 0.0008729184 0.0020818468
0.0004156474 -0.00047954355 -0.00035617556 -0.00037894282 0.0009286966 -0.0012966959 6.126363e-05 -0.00082641863
0.00060079846 0.00010096947 -0.00043381998 -0.001627217 -0.0006330067 -0.00089769054 0.0008436349 -0.0015511927
-0.000104700484 -0.00082595536 2.5986923e-05 -2.5454643e-05 -0.0002057257 0.001458856 -0.0010451885 0.00023891494
0.0006017617 0.0003206299 -0.0014068296 0.0014841481 0.00032321946 -0.00034697613 -0.001973742 -0.0004921176
-0.0002735526 -0.00043063308 -6.565745e-05 -0.00048571455 0.001135235 -0.0009441044 0.001288992 -6.700201e-05
-0.0022689113 0.0010057627 0.0007692263 -0.00024442523 -0.001309417 0.0005249726 -0.0009471192 -0.0020164642
-0.00023271232 -0.00014069937 0.0013205324 -0.0002397302 -0.00045094296 0.001148031 0.00014627817 -0.0005901385
-0.0011119747 -0.0012088855 -0.0010867786 -0.0007238639 0.0007310947 0.0023465652 0.0012998615 0.00082707446
0.0005764796 -0.001201838 -0.00014815906 -3.8432463e-05 -0.0001456285 0.00017057682 -0.00093962316 9.911781e-05
0.0003366406 -0.0008890302 -0.00066428754 0.00052927225 -0.00047590688 -0.00073752244 0.00067347754 -0.0005195751
-0.00096798304 0.0009483857 -0.0014828934 -9.473252e-05 -0.00054156565 0.0019665428 -0.0007318787 -0.0007384752
-0.00080690667 -0.0005535546 0.0014972351 -0.000120233475 -0.00038675332 0.001515465 -0.0013218153 -0.000812484
0.00030371296 -0.0016122154 -0.00094436615 -0.0015141135 0.00069933484 0.00024452107 -0.0016190965 0.0009686305
-0.00029996096 -0.0015428546 0.001187032 0.001222175 -0.00025322227 -0.0022191496 0.00070063764 0.0009958242
0.00078373466 -0.0003549549 0.00034427867 -0.0006200779 0.0015539747 0.0014360327 -0.00078006 0.00031735413
8.1906386e-05 0.0020008509 -0.0004383196 0.0005122437 0.0031485443 -1.4317145e-05 -0.00061064895 -0.0015153458
0.0010115487 0.000527241 0.0012076403 0.00059299625 -0.00013478368 0.00044667537 0.0006904849 0.000531993
-0.0010801161 -0.00077412295 0.00050561305 -0.0015348858 0.00018225996 -8.8243265e-05 0.0018677254 -0.0010649003
0.00015072999 -0.00043925503 -3.4811266e-05 0.00072464376 0.00032043 -0.00052401255 0.0028962884 0.00061443815
00000000: 69ec 7c39 b4f1 3139 7881 f037 b8e2 9039
00000010: 4753 92ba 494e a6b8 90d4 643a 986f 083b
00000020: 40eb d939 3f6b fbb9 13bd bab9 d8ac c6b9
00000030: c673 733a e5f5 a9ba a97a 8038 04a4 58ba
00000040: e77e 1d3a 92bf d338 5572 e3b9 5848 d5ba
00000050: 5cf0 25ba fe52 6bba 6127 5d3a 6451 cbba
00000060: a592 dbb8 ed84 58ba 7efe d937 6e87 d5b7
00000070: 12b8 57b9 1637 bf3a b5fe 88ba 3e85 7a39
00000080: 8bbf 1d3a 371a a839 5e65 b8ba bf87 c23a
00000090: c875 a939 59ea b5b9 e559 01bb 7401 01ba
000000a0: 9c6b 8fb9 98c6 e1b9 93b1 89b8 81a7 feb9
000000b0: 2acc 943a c67d 77ba 65f3 a83a 6e83 8cb8
000000c0: 04b2 14bb ccd3 833a e7a5 493a 3326 80b9
000000d0: bea0 abba 519e 093a 1848 78ba a826 04bb
000000e0: 3d04 74b9 b388 13b9 b715 ad3a 1660 7bb9
000000f0: 8a6c ecb9 8779 963a 3f62 1939 86b3 1aba
00000100: aebf 91ba 7773 9eba 3d72 8eba afc1 3dba
00000110: efa6 3f3a d5c8 193b 1d60 aa3a 07d0 583a
00000120: e41e 173a fe86 9dba 255b 1bb9 8b32 21b8
00000130: dab3 18b9 dedc 3239 0b51 76ba 78dd cf38
00000140: 237f b039 cf0d 69ba 9523 2eba dcbe 0a3a
00000150: 2483 f9b9 4b56 41ba 508c 303a 1834 08ba
00000160: 3ec0 7dba 169d 783a a55d c2ba 22ab c6b8
00000170: dbf7 0dba 1de1 003b 8cdb 3fba 3b96 41ba
00000180: 9786 53ba 6c1c 11ba e03e c43a db25 fcb8
00000190: 27c5 cab9 91a2 c63a c340 adba e1fc 54ba
000001a0: aa3b 9f39 f950 d3ba 578f 77ba 3875 c6ba
000001b0: 9153 373a 1033 8039 dd37 d4ba b1eb 7d3a
000001c0: 1444 9db9 9c39 caba 2f96 9b3a 6331 a03a
000001d0: ebc2 84b9 276f 11bb ffaa 373a 5186 823a
000001e0: 8b73 4d3a 3d19 bab9 4d80 b439 b98c 22ba
000001f0: bdae cb3a 4339 bc3a f17c 4cba 8d62 a639
00000200: 28c5 ab38 b520 033b 43ce e5b9 1848 063a
00000210: cf57 4e3b ab33 70b7 f513 20ba 919e c6ba
00000220: f195 843a 8b36 0a3a af49 9e3a 4e73 1b3a
00000230: b854 0db9 c12f ea39 a801 353a 7275 0b3a
00000240: af92 8dba 83ee 4aba 1e8b 043a 392e c9ba
00000250: 091d 3f39 3e0f b9b8 77ce f43a 2094 8bba
00000260: 460d 1e39 d04b e6b9 5002 12b8 05f6 3d3a
00000270: 63ff a739 e35d 09ba a8cf 3d3b 3f12 213a

layers.1.egnn.node_mlp.0.bias f4 [8]
-0.03264252 -0.17470284 -0.09345076 0.011705772 -0.07346366 0.19623801 -0.14841694 0.17738506
00000000: 2ab4 05bd 4de5 32be 1d63 bfbd 91c9 3f3c
00000010: 1e74 96bd 9ef2 483e 9cfa 17be 6ea4 353e

layers.1.egnn.node_mlp.3.weight f4 [4, 8]
-0.001344776 0.00072136894 0.0001897486 -4.8647056e-05 -8.714704e-05 -0.0007740709 0.0007089641 -0.00027396955
-0.0010573305 -0.00038875052 -0.00025555445 -0.00055960356 -0.0001686462 -0.002209925 0.0003385536 0.0006576171
0.0017727397 0.0027274436 0.00070992653 0.0017165531 -0.00031759686 -0.00034110883 -0.0006035317 0.0003065841
-0.000361899 -0.0005566483 0.0020491595 0.0014935392 9.931064e-06 0.0024026397 -0.0005335231 0.00032119878
00000000: 3243 b0ba 401a 3d3a 41f7 4639 610a 4cb8
00000010: b6c2 b6b8 05eb 4aba c6d9 393a 92a3 8fb9
00000020: 2096 8aba 36d1 cbb9 f0fb 85b9 5cb2 12ba
00000030: 9fd6 30b9 64d4 10bb e57f b139 f063 2c3a
00000040: 465b e83a e9be 323b 5d1a 3a3a f7fd e03a
00000050: 2183 a6b9 dad6 b2b9 5436 1eba 05bd a039
00000060: 43bd bdb9 09ec 11ba 314b 063b dcc2 c33a
00000070: 989d 2637 9b75 1d3b 21dc 0bba 9266 a839

layers.1.egnn.node_mlp.3.bias f4 [4]
-0.18259574 -0.13725045 -0.12347239 -0.25353113
00000000: 61fa 3abe 628b 0cbe 18df fcbd d5ce 81be
