data/models/best_model_N12_batch64_lr0.0001_fd4_b0.5.pth (torch, 31506 bytes, 32 tensors)

time_embedding.0.weight f4 [8, 1]
00000000: 01a4 3abf 5f87 753f 987a 2cbe 3023 18bf
00000010: e0f5 b23d 2a8b 6cbf 68a8 5abf 6008 1c3f
-0.729065 0.95909685 -0.16843641 -0.5942869 0.08738303 -0.9239985 -0.8541322 0.6095028

time_embedding.0.bias f4 [8]
00000000: f19a ac3e 9360 75be 10be 3bbe f17f ff3e
00000010: 48fb 12be 0e58 75bf c2dd 6bbf 5f7c 19be
0.3371196 -0.23962621 -0.18334222 0.499023 -0.14353669 -0.95837486 -0.9213525 -0.1498885

time_embedding.3.weight f4 [4, 8]
00000000: 6b1a 0c3d 255f 093e 91fa d5bd 40bf cfbd
00000010: f397 093e dbca 833e 3f58 2abd d89a 10bd
00000020: 9c5b 1a3e f896 50bc 61c8 783e c667 933e
00000030: f7e3 92be 250f 01be 4632 b13e 2ecc 783e
00000040: a17a 903e 70d0 653c 8895 023e 01e1 2d3c
00000050: f92d 943e fa31 a1bd 7cad 65be c6f5 a8be
00000060: 3e31 8a3d e930 17bd ea0c c4bd b8d2 29be
00000070: c78f c33d ac01 5a3e 69f8 51be 609f cd3d
0.03420488 0.13415201 -0.104481824 -0.101439 0.1343687 0.25740704 -0.041588064 -0.03530392
0.15074009 -0.012731306 0.24295188 0.2879011 -0.28689548 -0.12603433 0.34608668 0.24296638
0.28218558 0.014026746 0.12752354 0.010612727 0.28941324 -0.078708604 -0.2242946 -0.3300001
0.067476735 -0.03691188 -0.09572776 -0.16584289 0.09548908 0.212897 -0.20504917 0.10040164

time_embedding.3.bias f4 [4]
00000000: d64b 573e 836c 7f3e dc9d dabd 0566 bdbc
0.21025023 0.24943738 -0.106746405 -0.023119936

layers.0.egnn.edge_mlp.0.weight f4 [20, 10]
00000000: 0bc3 14bc e5d5 34bc 95e7 e63a dd20 373c
00000010: 9f3e 3bbc 5b24 16bc c93d 203b 175a 2e3c
00000020: ccef d8b8 40bb 67bc cd0b 0f3c d636 1a3c
00000030: 8a55 93ba d083 1abc 9d29 2b3c c62c 0e3c
00000040: 3985 85bb 6dec 01bc 517f 34ba 2f03 303c
00000050: e34e 2bbc 2a7a 15bc eb52 2e3b 861c 303c
00000060: 52fb 0abc 8889 46bc 42eb b33b 773b 2d3c
00000070: 1ff2 98ba 1a35 4fbc 5a8b f5bb 553f 3fbc
00000080: 7ac6 0c3b f85e 2f3c d468 0abc 5028 2cbc
00000090: 9c14 743b 8ce3 2b3c e949 813a eb51 3fbc
000000a0: 81f3 1a3c f9eb 123c 88ff afbb 78d3 16bc
000000b0: 9e2c 1a3c f138 243c 35e4 c5ba 8fa5 27bc
000000c0: 6c20 183b ce04 473c 7a7e 02bc 399e 20bc
000000d0: 9e6c 5239 5d06 263c ca3c 0fbc a9db 36bc
000000e0: ffc4 bd3a faba 183c 532a 0f3b 30c8 58bc
000000f0: a0dd 31bc 1250 1dbc 1fc5 b83b 5ff7 233c
00000100: 1dbf 01bc b4b7 2bbc 513c 0a3b 63a2 193c
00000110: c0ba 10ba 4137 45bc 6f36 39bc 1ad6 30bc
00000120: 46cb 083b 955a 433c 2c1c fbbb be55 2bbc
00000130: 43be 693b 34f8 233c 5ce7 bcb9 ec93 54bc
00000140: 1223 343c e5e8 273c 1aa6 48bb e337 4bbc
00000150: eb8f 393c 3552 153c 4bfb 0fbb 1f21 43bc
00000160: f5c2 9eba 85c8 413c 5ea3 14bc 2163 34bc
00000170: cbe5 973a 5c9f 2b3c 4edb 21bc c02d 13bc
00000180: b9e2 803b e9e2 263c 6671 803a 8bea 2fbc
00000190: e133 0ebc c524 1bbc ca6c 2e3b 6bc0 3b3c
000001a0: 3494 08bc d217 39bc 9f48 8c3b bfb6 353c
000001b0: 0205 2639 cf69 48bc 2bea 223c d569 213c
000001c0: 55d6 42bb 99a7 55bc 9739 1a3c dadf 2d3c
000001d0: 8930 4bbb 56e3 36bc 36d2 c9ba b835 253c
000001e0: 8611 29bc bddd 34bc c0e1 373b 90a6 393c
000001f0: 5c81 15bc ae10 16bc 52ec 923b 65fd 2c3c
00000200: 25c8 153b 4b52 3dbc 4b16 193c 6bd8 1b3c
00000210: 827e e8ba cec6 38bc 8c17 0e3c 8c28 173c
00000220: d9ee 5abb 294d 0cbc debf 103b 812a 543c
00000230: 7756 07bc 7e2f 22bc d9cf 823b 8c4c 4b3c
00000240: 8521 23bc 8b03 33bc 1019 3e3b 8c1f 383c
00000250: 12e3 443a 77b6 48bc 6f9d 093c 6adb 253c
00000260: 7f24 a9bb b8f4 4cbc 2a02 2b3c 066c 253c
00000270: 44cc efba b4ea 17bc f8a5 713a 64b8 303c
00000280: c010 eabb 6e73 25bc 63c7 203b 7166 2f3c
00000290: 65ab e1bb c2e3 44bc b824 3f3b de2c 323c
000002a0: 408c 47ba 572b 3abc f4e7 113c a864 103c
000002b0: 1b32 61bb 7a7a 47bc 3401 1f3c de40 1b3c
000002c0: 39ea 50bb 038d 3cbc e349 c3b9 f79c 3e3c
000002d0: 5471 1c3c f332 2c3c 72f2 3ebb 44ec 08bc
000002e0: 8ab9 1c3c eca8 2b3c 02d7 56ba 0036 18bc
000002f0: 2fb5 2e3b b784 463c 2070 09bc f231 0ebc
00000300: 4865 f93a f27b 2a3c 02c4 21bc 8221 25bc
00000310: 4e18 363b b95f 3a3c 729e 053b e4fe 30bc
-0.009079705 -0.011037325 0.0017616624 0.011177269 -0.011428504 -0.009163941 0.002445089 0.010641596
-0.00010344348 -0.014143765 0.008730841 0.009412488 -0.0011240703 -0.009430841 0.010446933 0.008677667
-0.0040747193 -0.007929903 -0.00068854267 0.0107429465 -0.01045582 -0.009123364 0.0026599716 0.010748988
-0.008482771 -0.012117751 0.0054906914 0.01057326 -0.0011668837 -0.012646938 -0.0074934186 -0.011672814
0.0021480606 0.010703795 -0.008447845 -0.010507658 0.003724373 0.010491263 0.0009863946 -0.011677246
0.00945747 0.008967393 -0.005371038 -0.0092056915 0.009410052 0.0100233415 -0.0015097918 -0.010232343
0.0023212684 0.012147142 -0.007964725 -0.009803348 0.00020067624 0.010133353 -0.008742521 -0.0111607695
0.0014478265 0.009321922 0.0021845296 -0.013231322 -0.010856062 -0.00960161 0.005638733 0.010007708
-0.0079191 -0.01048081 0.002109308 0.009377095 -0.0005520992 -0.012037099 -0.011304482 -0.010793233
0.0020873114 0.011923452 -0.0076632705 -0.010457454 0.0035666383 0.010007907 -0.0003603053 -0.01297472
0.01099469 0.0102483975 -0.0030616582 -0.012403461 0.011325817 0.009113838 -0.002196985 -0.011909752
-0.0012112545 0.011827593 -0.009072153 -0.011009962 0.0011588869 0.010475006 -0.0098789465 -0.008983076
0.0039332774 0.010185936 0.000979942 -0.010737072 -0.008679361 -0.009469216 0.0026615136 0.01145945
-0.008336116 -0.011297183 0.004281118 0.011090933 0.00015832859 -0.012232258 0.009943525 0.0098518925
-0.0029729803 -0.013040447 0.009413145 0.010612452 -0.003100427 -0.0111626 -0.0015397731 0.010083608
-0.010319119 -0.011039195 0.0028058141 0.0113312155 -0.00912508 -0.00915925 0.004483738 0.010558461
0.002285489 -0.011555265 0.009343694 0.009512047 -0.0017737898 -0.0112778675 0.008672606 0.009225976
-0.0033406524 -0.008563318 0.0022087018 0.012949587 -0.008260361 -0.009899018 0.0039920625 0.012408387
-0.009956722 -0.010926138 0.0029006638 0.01123799 0.0007510643 -0.012250534 0.0083993515 0.010123113
-0.0051618214 -0.012509517 0.010437528 0.010096556 -0.0018295129 -0.009272266 0.00092181517 0.01078615
-0.00714311 -0.010098321 0.0024532906 0.010705576 -0.006886887 -0.012017192 0.0029166173 0.010874955
-0.00076121464 -0.011362872 0.0089054 0.008813061 -0.003436214 -0.012175197 0.009704877 0.009475915
-0.0031877889 -0.011508229 -0.00037248348 0.011634103 0.009548504 0.010510194 -0.0029136208 -0.008357111
0.00956572 0.010477286 -0.0008195491 -0.009290218 0.0026658287 0.012116603 -0.008388549 -0.0086789
0.0019027377 0.010405527 -0.009873392 -0.01007879 0.0027785483 0.011375361 0.002038863 -0.010802958

layers.0.egnn.edge_mlp.0.bias f4 [20]
00000000: 9d0c 27be 005f 8f3e e12e 8ebe 46bf 80bd
00000010: e5da 433d e8c9 a6bd f8fd 60bd 0a64 93be
00000020: 5f7a 2a3e 2850 47bd 6f2c a2be 0607 a33e
00000030: 2fa7 89be 456f 8e3e fbac 73be 97e1 a13e
00000040: f284 01be df08 9d3e d6d9 8f3e 79b3 62bd
-0.16313405 0.28002167 -0.2777014 -0.062864825 0.047816176 -0.08143979 -0.054929703 -0.2878726
0.16648243 -0.048660427 -0.31674525 0.31841296 -0.26885363 0.27819267 -0.23796456 0.31617424
-0.12648371 0.3067083 0.28095883 -0.05534694

layers.0.egnn.edge_mlp.3.weight f4 [16, 20]
00000000: 05c1 51bc 92da 5a3c 89dd 56bc a44d 31bc
00000010: 0d43 2e3c db5f 51bc c833 20bc 2306 5ebc
00000020: ad59 3b3c a854 29bc c528 55bc 8313 5f3c
00000030: 92fc 6cbc bfb6 7a3c db85 64bc ba7d 663c
00000040: 2c96 4cbc d5b6 6a3c 9ee3 753c eb92 19bc
00000050: 2e70 4e3c b7cd 78bc f609 543c d191 2a3c
00000060: 0d46 34bc eea3 353c aee9 263c fadd 523c
00000070: cd38 46bc e4b9 2a3c b6a9 593c 23e7 6bbc
00000080: 79c9 6f3c d194 52bc 65f0 683c d7e6 5abc
00000090: 6a35 4d3c 9ac6 82bc 4b14 4ebc 05c0 2d3c
000000a0: 6241 63bc aeff 733c 0d01 5fbc d7ad 2abc
000000b0: 84ea 353c 29b1 43bc a2e7 21bc f491 55bc
000000c0: dbf4 803c 5094 30bc 3e4f 71bc e661 653c
000000d0: 5ed2 72bc 8ccc 6a3c 412b 6abc 202f 643c
000000e0: 4b14 4bbc 96fd 653c 5039 5b3c be2f 2fbc
000000f0: 7315 523c ee41 51bc 0b0b 763c 7869 3d3c
00000100: 0696 25bc 2588 4e3c e89f 2a3c fd1e 5a3c
00000110: 38d8 69bc 601b 063c c983 6a3c 8e59 63bc
00000120: d7c6 4a3c 5ea7 4bbc 5d5a 563c d867 60bc
00000130: b235 543c 2587 67bc d7b8 4cbc bb4e 283c
00000140: d269 65bc f1df 593c cb51 71bc aff5 11bc
00000150: c92e 1c3c 01d7 4cbc cb9b 1cbc 197e 56bc
00000160: 2a4a 593c 705b 18bc 2e74 73bc 2de7 693c
00000170: 3211 61bc 5fe8 643c fbf4 60bc 6a31 4b3c
00000180: 7fc4 2fbc 9407 4a3c b9ad 8a3c 8aa3 2abc
00000190: 8d42 4a3c f100 6cbc b0e8 4f3c 4336 3e3c
000001a0: 2cd4 08bc 5e69 393c 0d2b 313c c7ac 4b3c
000001b0: 6a8b 32bc f725 2d3c 3feb 653c ad67 57bc
000001c0: cc6f 313c 16fa 63bc b854 4d3c 59d5 59bc
000001d0: 6b2f 393c 0592 72bc 11b8 62bc 8dc2 423c
000001e0: 99f5 4b3c 3660 5bbc 643b 563c 456e 233c
000001f0: c54a 1abc 29e2 463c b4c1 263c 2433 803c
00000200: 4513 34bc c447 353c 039f 613c a228 77bc
00000210: 5135 6f3c ce3b 37bc 70fd 4d3c 4ed7 46bc
00000220: 43cf 403c c018 6dbc 2a12 57bc 7676 263c
00000230: 6115 45bc 5b21 683c 9890 75bc 3120 47bc
00000240: 4a44 1a3c 4158 50bc 2be8 1fbc 7b59 62bc
00000250: 17ca 563c 2294 39bc 5ded 7dbc 7e86 5f3c
00000260: 2af9 60bc 1dc8 603c d879 5fbc 65f9 553c
00000270: f867 2cbc 78ea 4f3c 77f2 703c 7e74 37bc
00000280: e47e 54bc 12a8 4c3c 135f 52bc 3bbe 33bc
00000290: 487b 003c d98a 38bc 155f 0fbc eb4b 6abc
000002a0: f7d7 663c 960e 38bc 9316 81bc f0cd 633c
000002b0: bb8c 6dbc bf07 663c 5b76 55bc 7c1f 633c
000002c0: 50d2 4cbc cab0 613c f700 513c a5a6 2cbc
000002d0: ff64 55bc 17aa 4f3c fd3f 56bc 51ea 1fbc
000002e0: 9ed7 1e3c 1d62 41bc 0146 30bc cfc0 5abc
000002f0: a4f0 473c 29d6 23bc 3c9b 5cbc 8da4 583c
00000300: b857 6abc 0835 563c ec83 5abc 0f6f 7e3c
00000310: e103 4ebc 1654 6c3c 49bc 4a3c 8ccd 38bc
00000320: 80f8 56bc 425b 4d3c 1e6f 6cbc abe4 0cbc
00000330: bc61 163c 35e3 49bc 969c 31bc b057 65bc
00000340: 927f 553c 2d47 33bc 78aa 61bc dca2 6a3c
00000350: d68e 40bc 2d15 4c3c 382c 76bc 7e5a 6e3c
00000360: 2ac4 47bc 5ddc 843c 82d4 523c 3d16 2fbc
00000370: a19f 2b3c 0563 4fbc bcc4 4b3c 7365 523c
00000380: ce99 14bc 3edf 393c 51b4 103c 8d06 723c
00000390: 6e62 5bbc 8590 143c c31e 513c 8873 85bc
000003a0: 2dcd 6a3c ada4 79bc a38e 4c3c e481 54bc
000003b0: 00d9 4b3c c36c 69bc f94a 53bc 311e 303c
000003c0: b1d9 5bbc 1f2c 743c 4530 5bbc 7533 2abc
000003d0: bc77 533c 48d8 20bc c32f 24bc f96e 6abc
000003e0: c1a6 4f3c ef8d 24bc 4c19 59bc d50c 4f3c
000003f0: 84a1 73bc d56a 643c faf7 68bc eac0 563c
-0.012802367 0.013357775 -0.013114342 -0.010821734 0.010636103 -0.012779201 -0.009777971 -0.013551268
0.011434955 -0.010335125 -0.0130102085 0.013615492 -0.014464514 0.015302359 -0.013947929 0.0140680615
-0.012486976 0.014325817 0.015007881 -0.009373407 0.012599988 -0.015185765 0.012941828 0.010410742
-0.0110030295 0.011086447 0.0101875495 0.012870306 -0.012098503 0.010420296 0.013285091 -0.014398369
0.014635437 -0.012852863 0.014217471 -0.013360701 0.012524942 -0.015963841 -0.01257808 0.010604863
-0.013870569 0.014892502 -0.01361109 -0.010417423 0.011103276 -0.011944094 -0.009881886 -0.013035286
0.015741756 -0.010777548 -0.0147283655 0.014000392 -0.014820663 0.014330994 -0.014292539 0.013927251
-0.012394975 0.01403751 0.013380364 -0.010692535 0.012822497 -0.0127720665 0.015017281 0.01156079
-0.010106569 0.012605702 0.010414101 0.013313052 -0.014272742 0.008185238 0.014313647 -0.013876332
0.012376509 -0.01243004 0.013083068 -0.013696633 0.012952255 -0.014131342 -0.012495241 0.010272677
-0.01400228 0.013298021 -0.014728974 -0.008908673 0.009532639 -0.012502433 -0.009558628 -0.013091587
0.013262311 -0.009299144 -0.014859242 0.014276308 -0.01373701 0.013971417 -0.013730283 0.012401918
-0.010728001 0.012330908 0.01692854 -0.010414967 0.0123449685 -0.014404521 0.012689754 0.011609617
-0.008351367 0.011316625 0.010813487 0.01243133 -0.010897497 0.010568134 0.014033138 -0.013147277
0.010829877 -0.013914606 0.012532406 -0.013295495 0.011302809 -0.014805322 -0.01383783 0.011887205
0.012448692 -0.013389638 0.013075683 0.009975021 -0.0094172405 0.012138882 0.010178018 0.015649386
-0.010990922 0.011064474 0.0137708215 -0.015085371 0.014600114 -0.011183692 0.012572631 -0.012136294
0.011768165 -0.014471233 -0.013126889 0.010160079 -0.012029023 0.014168109 -0.014988087 -0.012153671
0.009415695 -0.012716354 -0.009759943 -0.013815279 0.013109705 -0.0113268215 -0.015498486 0.013642905
-0.01373128 0.013719586 -0.01363989 0.013059949 -0.010522835 0.012690179 0.014706246 -0.0111972075
-0.012969706 0.012491243 -0.01284005 -0.010970647 0.007841893 -0.011263573 -0.008750697 -0.014300327
0.014089576 -0.011233946 -0.015757835 0.01390408 -0.014498885 0.014039933 -0.013028706 0.013862487
-0.012501314 0.01377506 0.012756578 -0.010537778 -0.013024568 0.01267483 -0.013076779 -0.009760455
0.009694962 -0.011803177 -0.010758878 -0.013351633 0.012203369 -0.00999979 -0.013464745 0.013222826
-0.01430314 0.013074167 -0.013337117 0.015529408 -0.012574167 0.0144243445 0.012373992 -0.011279475
-0.01312077 0.012533965 -0.014430789 -0.008599441 0.009178575 -0.012322237 -0.010840556 -0.013997957
0.013030903 -0.010942263 -0.013773553 0.014321055 -0.011752805 0.012456221 -0.015025191 0.014547942
-0.012192765 0.016218359 0.012868049 -0.010686454 0.01047507 -0.012657885 0.012437042 0.01284157
-0.009069873 0.011344729 0.008832053 0.01477207 -0.013390167 0.009067659 0.012763682 -0.016290441
0.014331144 -0.015237016 0.012485179 -0.012970421 0.012441874 -0.014247122 -0.012896293 0.010749386
-0.013418601 0.014903097 -0.013378208 -0.010388245 0.012906965 -0.0098171905 -0.010021153 -0.0143086845
0.012674035 -0.010043605 -0.01325066 0.012637337 -0.014870051 0.013941486 -0.0142192785 0.013107518

layers.0.egnn.edge_mlp.3.bias f4 [16]
00000000: 7d02 e53d df37 0ebe be19 6d3e 46d2 5cbd
00000010: 45a9 053e 73d9 98bd e836 0cbe d6fc fe3d
00000020: 4ede 2f3e 1efe 083e c2c1 503e c678 65bd
00000030: 1789 573e b265 4dbe 8eeb 06be 359a 293e
0.11182115 -0.138885 0.23154351 -0.05391147 0.13052852 -0.0746335 -0.1369282 0.124505684
0.17174646 0.13378188 0.20386413 -0.05602338 0.2104839 -0.20058325 -0.13175794 0.16562732

layers.0.egnn.node_mlp.0.weight f4 [8, 20]
00000000: 247a 123a 55f5 7a3a 8013 94ba ab70 78ba
00000010: ec87 6139 e89f 59ba c4d0 bf37 a4bb 993a
00000020: bc9a b2ba fb07 8cba 2938 21ba 3d5f 1cba
00000030: 4211 713a dad9 af3a 11d3 0cba cf29 5c3a
00000040: 2b0c b23a 1d32 7bba 3270 d7ba 63dc 403a
00000050: 6563 1bba f1fc 1db9 064d cf39 b8e0 b4b9
00000060: 0bb4 89b9 0a5b 393a 8649 9fba c5c7 8db8
00000070: af81 4ab9 9043 ca3a 866f aab8 0741 af3a
00000080: 9044 b53a a20a acba 4ab1 15bb 99c0 d439
00000090: ee75 c0ba 1a28 a33a 3dcd e9ba 0687 eeb9
000000a0: 55d6 a0ba 31e8 9dba f666 0abb dd4c 4e3a
000000b0: 5e2d 143a 33ca 85ba 4e24 49ba b8de aa3a
000000c0: efec 073a b6ab 56ba 8bb5 52ba 20f9 bfba
000000d0: a3de ec3a 7fd5 1f3b ca2e c23a 5403 78b9
000000e0: 8b88 943a 7eb9 d738 4fa4 163a cbd8 15ba
000000f0: fcf1 82ba 6409 2339 71cf bb3a bc62 a839
00000100: 6e9f cfb9 5163 a9b9 1af3 fd38 7adb aeba
00000110: d6a1 c739 c342 2dba fd87 55ba e89a 853a
00000120: d24f 4839 9e46 083a 4e8e 053a c4d7 55ba
00000130: 1150 59ba b1b5 6cba 6b0f 4d39 937c 82ba
00000140: dbfe 2f37 08e5 b33a ce30 70ba 7286 a0b9
00000150: c0fc 39b9 ce53 04bb 4b6b b13a d91b 3938
00000160: b130 ca3a 9ce3 a8ba 3b30 72b9 6117 8eb9
00000170: fa5b b63a 1347 8cba d8b1 ff36 019a 2c3a
00000180: ac56 27b9 5641 b2ba b7e7 a4ba 496c 78ba
00000190: fbac 8739 dac6 ab39 a52b 60b9 a8c7 643a
000001a0: d3b8 edb9 7d18 8f39 ec32 d0ba e954 0d39
000001b0: a2c6 79ba 00f7 92ba 82d0 05ba a4c4 03ba
000001c0: 2f01 48ba 4721 64ba a526 3e3a baa1 173a
000001d0: 3590 063a c424 ca39 b4a1 1ebb 6e10 e3b9
000001e0: d302 c639 5daa fd39 feef f9ba c750 973a
000001f0: 9c3c 7c3a 7fa4 1cb9 71c0 b137 98d9 9db9
00000200: 2381 6eb9 4767 5f3a a0e3 67b9 6650 1c39
00000210: fed6 2f3a 3c66 88ba 96f5 1e3a d357 ae3a
00000220: 7abb b039 c90d 0a3a 2381 2d3b 73e8 be39
00000230: e5dd 4a3b 0e37 53ba cec9 4eb7 a3f1 32ba
00000240: 5990 62ba dbc2 643a ed3c 96ba 7278 2939
00000250: 0bab 9c3a 880a c0b8 cd21 073a 9b50 03ba
00000260: 27e0 eab9 032c 09bb 9d6c df3a 2fc6 b3ba
00000270: b483 683a 1c74 073b b3df 27ba 3e99 53ba
0.00055876584 0.00095733005 -0.0011297315 -0.0009477238 0.00021508307 -0.0008301721 2.2866188e-05 0.0011728895
-0.0013626437 -0.0010683531 -0.0006150031 -0.00059651193 0.0009195992 0.0013416365 -0.00053720275 0.0008398564
0.0013583949 -0.00095823576 -0.0016436635 0.0007357059 -0.00059275917 -0.00015066915 0.00039539504 -0.00034499704
-0.0002626482 0.0007070756 -0.0012152649 -6.760614e-05 -0.00019312532 0.0015431512 -8.1270045e-05 0.001337082
0.0013829637 -0.0013125727 -0.0022841268 0.00040579287 -0.0014683583 0.0012447864 -0.0017837655 -0.00045495498
-0.0012270907 -0.0012047348 -0.0021118498 0.000786973 0.0005652512 -0.0010207355 -0.00076729513 0.0013036346
0.0005185147 -0.0008189039 -0.0008037916 -0.0014646389 0.0018071722 0.0024388728 0.001481497 -0.00023652363
0.0011332197 0.000102865495 0.000574653 -0.00057162036 -0.000999033 0.0001554839 0.001432879 0.0003211702
-0.000396009 -0.00032308188 0.00012109261 -0.0013340556 0.00038076815 -0.00066093745 -0.0008145569 0.001019326
0.00019103222 0.0005198511 0.00050947524 -0.0008157457 -0.0008289824 -0.00090297597 0.00019556067 -0.0009955339
1.0490151e-05 0.0013724873 -0.0009162546 -0.00030617748 -0.00017737132 -0.0020191553 0.0013536004 4.4133372e-05
0.0015425888 -0.0012885216 -0.00023096886 -0.0002710177 0.0013912909 -0.0010702334 7.620296e-06 0.00065842277
-0.00015958649 -0.0013599794 -0.0012581263 -0.0009476585 0.00025878087 0.00032763818 -0.00021378564 0.0008727261
-0.00045341867 0.0002729333 -0.0015884317 0.0001347844 -0.0009528195 -0.0011212528 -0.00051046174 -0.0005026555
-0.0007629571 -0.00087024685 0.0007253683 0.0005784292 0.0005133183 0.00038555835 -0.002420527 -0.00043309055
0.00037767607 0.0004838285 -0.0019068716 0.0011544459 0.00096220686 -0.00014938599 2.1189657e-05 -0.00030107494
-0.00022745556 0.00085221644 -0.00022114674 0.0001490727 0.00067077565 -0.0010406445 0.0006063817 0.001330132
0.00033709017 0.00052663364 0.0026474677 0.00036412812 0.0030955013 -0.0008057215 -1.2325543e-05 -0.0006826168
-0.00086427253 0.00087265455 -0.0011462249 0.00016161965 0.001195283 -9.157235e-05 0.0005154878 -0.00050092646
-0.00044798965 -0.0020930774 0.0017045919 -0.001371568 0.0008869723 0.0020668572 -0.0006403878 -0.0008071846

layers.0.egnn.node_mlp.0.bias f4 [8]
00000000: 3d68 fa3d eed0 00be d4ab 123d 32f5 e4bd
00000010: 60dc 0fbd fce0 5e3e 05c4 4ebe 732e 563e
0.12226913 -0.125797 0.0358084 -0.1117958 -0.035122275 0.21765512 -0.20191963 0.20916156

layers.0.egnn.node_mlp.3.weight f4 [4, 8]
00000000: 9005 9aba ab5e 953a ca6b 40ba 0d7b 9fba
00000010: 673d 1bb8 bf71 393a ca72 b73a 13f3 c8b8
00000020: f960 e4ba e063 70ba 7d0f 8c39 e244 2cba
00000030: 26e3 6bb8 7a51 b1ba 1282 09ba c0b1 a7ba
00000040: 2523 a339 3e5b 4eba d17f d339 b3eb 193a
00000050: 022a d939 22fb 0239 9617 5b39 e590 e63a
00000060: a33a ec3a fa9e 20ba 2037 e939 9cb9 6d3a
00000070: 8791 fe38 15c1 d8ba 93ce 00b9 61a1 423a
-0.0011750925 0.0011396011 -0.00073402806 -0.0012167409 -3.7012065e-05 0.00070741394 0.0013996002 -9.582019e-05
-0.001742392 -0.0009170156 0.0002671442 -0.00065715436 -5.6239915e-05 -0.001352831 -0.0005245517 -0.0012794062
0.00031115967 -0.00078718725 0.00040340287 0.0005871609 0.00041420764 0.0001249132 0.00020894254 0.0017590789
0.0018022846 -0.0006127205 0.00044482294 0.00090684905 0.000121387704 -0.0016537035 -0.00012283986 0.000742456

layers.0.egnn.node_mlp.3.bias f4 [4]
00000000: 81db 80bc 3db4 043e 0fb1 89be 4c55 063e
-0.015729668 0.1295938 -0.26892897 0.13118476

layers.0.egnn.coors_mlp.0.weight f4 [64, 16]
00000000: 6e0c 97bc cef4 813c e630 84bc dd77 7c3c
00000010: 5e77 7dbc 39b2 763c 8490 9b3c 2b8b 8abc
00000020: a2a6 91bc 7547 82bc ebe6 8fbc e40f 833c
00000030: 31cb 9dbc 42e7 903c 33e8 833c 9a45 85bc
00000040: cb73 4dbc f704 713c 3856 4dbc d7e8 4b3c
00000050: e094 5abc cd3e 613c 5b90 333c a52e 63bc
00000060: f0b1 61bc 96e7 54bc 6db0 72bc eb2b 6e3c
00000070: 6398 60bc 292e 753c 37d9 6b3c e4c6 61bc
00000080: 492c 56bc fbcd 883c b703 90bc 187e 5f3c
00000090: 6e6b 70bc 146e 663c ec10 763c 0035 69bc
000000a0: 394a 88bc afba 7fbc 71bd 8abc 1a7f 7b3c
000000b0: 473e 7ebc 430e 813c d64c 813c dc9e 80bc
000000c0: fe21 753c db3f 59bc ca48 863c cd93 45bc
000000d0: 77cc 7f3c 3bdf 7dbc 5116 6dbc dc17 723c
000000e0: db3c 603c 8c48 853c 52e0 6f3c 8d5a 73bc
000000f0: ee98 693c 94da 64bc eb45 5dbc a7b5 8c3c
00000100: b41e 90bc ce23 893c e7fc 83bc 313e 883c
00000110: 2b3b 98bc 7056 963c 5bd1 8f3c bf4f 91bc
00000120: f8bd 95bc f0f9 8ebc da9a 8ebc af1c 723c
00000130: df4b 99bc 92d2 923c 281e 953c ab11 90bc
00000140: 2fbf 8bbc 7e9d 853c 8ff0 96bc f03b 753c
00000150: b960 88bc 2b4b 803c a2e0 7e3c 05ae 8cbc
00000160: 200b 91bc 1540 91bc 0e3e 91bc c18c 8b3c
00000170: 08c7 84bc 5dfe 9b3c 972f 793c 37db 84bc
00000180: f401 86bc 737f 873c 35f9 94bc 115e 823c
00000190: 96cc 86bc 47a3 813c d7c7 913c 80cd 89bc
000001a0: a7b1 84bc 1f7c 9abc da69 98bc f76a 843c
000001b0: 65e8 85bc eb2c 8b3c 38f7 8d3c ed3a 89bc
000001c0: 21a4 84bc 491d 833c 8c4f 57bc dde5 433c
000001d0: ba61 57bc a7d3 7b3c 63fb 813c 6aea 80bc
000001e0: 111e 4fbc 5214 83bc 446b 74bc e30f 5d3c
000001f0: d970 80bc ab5f 863c d6ad 723c 9bd7 75bc
00000200: b3ec 643c ce6f 66bc 6480 5d3c 566b 6abc
00000210: b345 743c 3e5e 7cbc b0f9 6fbc 12a2 673c
00000220: c478 553c dfdc 7b3c c704 823c 1c58 52bc
00000230: 7b11 4f3c 1861 8abc 2207 8cbc 495b 793c
00000240: 65b9 873c 8c93 7cbc 0bbb 993c dea8 88bc
00000250: 08dc 8c3c 2bc7 89bc 36e4 94bc 26fb 8b3c
00000260: b1c4 843c 0ec3 783c 7fff 983c ef9d 7bbc
00000270: 37a0 7f3c e446 83bc 3469 8dbc 73e6 923c
00000280: 06f9 4c3c 7e18 67bc d299 6b3c 0dea 5dbc
00000290: 528b 813c c1b1 60bc e144 7cbc 4ff1 513c
000002a0: 762c 6a3c dcf3 763c a7be 7a3c ecc1 61bc
000002b0: eefe 653c 84c6 59bc 58a8 6bbc e5ff 713c
000002c0: b3ce 8d3c 5522 8cbc 4f9d 8a3c fe67 6dbc
000002d0: dce0 823c a079 85bc 01d7 8fbc ab5d a13c
000002e0: 105d 8c3c 441a 883c 154e 8e3c 561e 81bc
000002f0: e44d 953c a529 9dbc 061c 93bc 5715 893c
00000300: a6d2 56bc befa 573c 0e5d 5fbc 1faa 423c
00000310: 85ee 80bc 8f57 473c a66a 813c 7524 58bc
00000320: d83c 67bc 7af8 48bc 2765 47bc 0209 553c
00000330: e2c1 6abc de65 733c f74b 583c aa95 50bc
00000340: 14e1 953c 3d47 8dbc 1601 903c a8db 7bbc
00000350: 8ef5 8a3c 716a 86bc 2496 88bc 24af 8f3c
00000360: 1e2c 833c 6a13 923c e95b 893c 933b 80bc
00000370: 8f4d 923c 3b2f 91bc a9d4 9fbc 4adb 933c
00000380: d7dd 843c d08d 7abc eb86 873c 8b5f 8bbc
00000390: 5a4f 8a3c 6be0 86bc 0be2 7cbc ab7f 803c
000003a0: 00d5 913c 9ea6 913c e5b3 7f3c 9e65 75bc
000003b0: c838 873c 137e 82bc 4e75 92bc 901a 7a3c
000003c0: 52fc 6d3c 4255 70bc 4840 7f3c c217 6cbc
000003d0: c3ac 7b3c 1a77 7fbc 7236 6abc 8821 703c
000003e0: b74a 653c 75eb 673c 3490 8a3c 9403 78bc
000003f0: c8be 893c 3c50 90bc 7e1a 74bc 22d5 843c
-0.018438544 0.015863802 -0.016136598 0.015409437 -0.015470354 0.01505714 0.018989809 -0.016912064
-0.017779652 -0.015903214 -0.017566165 0.015998788 -0.019261928 0.017688397 0.016101932 -0.01626854
-0.012539814 0.014710656 -0.012532763 0.01244565 -0.013341159 0.013747883 0.01095971 -0.013866101
-0.013775334 -0.0129946675 -0.014812571 0.014536838 -0.013708207 0.014964619 0.01439505 -0.013780329
-0.013072082 0.016699782 -0.017579896 0.013640903 -0.014674051 0.014064331 0.015018683 -0.014233828
-0.016636955 -0.015608474 -0.016936036 0.015350128 -0.015517778 0.01575387 0.015783709 -0.01570075
0.014961718 -0.013259853 0.01639213 -0.012059164 0.015612713 -0.015495117 -0.014470653 0.014776196
0.013686384 0.016269945 0.0146408845 -0.014853132 0.014257653 -0.013968129 -0.013505439 0.017176462
-0.017592765 0.016740706 -0.016111804 0.016631218 -0.018582901 0.018351763 0.017555883 -0.017738221
-0.01827906 -0.017453164 -0.017407823 0.0147773465 -0.018712936 0.017922673 0.018202856 -0.01758655
-0.017058937 0.01631045 -0.018425254 0.0149679035 -0.016647683 0.015660843 0.015556486 -0.017172823
-0.0177055 -0.017730752 -0.017729785 0.01703489 -0.016208187 0.019042188 0.0152091 -0.016217811
-0.016358353 0.016540265 -0.018185237 0.015913995 -0.016454976 0.015824927 0.017795486 -0.016821623
-0.016197992 -0.018858014 -0.018605161 0.016164286 -0.016346166 0.016989192 0.017329797 -0.01675173
-0.016191544 0.016005175 -0.013141524 0.011956659 -0.013145858 0.015370286 0.01586694 -0.015736777
-0.012641446 -0.0160009 -0.014918152 0.013492557 -0.01567881 0.01640304 0.0148119535 -0.015005018
0.013972449 -0.014064742 0.01351938 -0.014307817 0.014909196 -0.015403328 -0.0146469325 0.014137762
0.013029281 0.015372484 0.015871419 -0.01283839 0.012638445 -0.016892001 -0.017093245 0.015219518
0.016567895 -0.015416037 0.018765947 -0.016682085 0.017194763 -0.016818604 -0.018175226 0.01708753
0.016207071 0.015183223 0.018676518 -0.0153574785 0.015602163 -0.016025014 -0.017262079 0.017932152
0.012510544 -0.0141049605 0.014379935 -0.013544572 0.015813503 -0.013714255 -0.015397281 0.01281388
0.014292827 0.015072789 0.015304244 -0.013779145 0.014037831 -0.013291959 -0.014383398 0.014770483
0.017310476 -0.017106215 0.016920714 -0.014490126 0.015976362 -0.016293347 -0.017558577 0.019697985
0.01713422 0.016614087 0.017371217 -0.015761536 0.018225618 -0.019184897 -0.017957699 0.016733808
-0.013111746 0.01318234 -0.013633026 0.01188138 -0.015738735 0.012166872 0.015797924 -0.013192286
-0.014113627 -0.012266273 -0.012170113 0.013002636 -0.014328452 0.01485583 0.013201705 -0.012730995
0.018295802 -0.017245883 0.017578643 -0.015372194 0.016962793 -0.016408177 -0.016673155 0.017539568
0.016012248 0.017831523 0.016767459 -0.015653407 0.017859248 -0.017722717 -0.019510584 0.018048901
0.016219063 -0.0152926 0.016543826 -0.017013332 0.01688354 -0.016464433 -0.015434752 0.015685877
0.017801762 0.017779645 0.015606855 -0.014977841 0.016506568 -0.015929257 -0.0178782 0.015265122
0.01452549 -0.014668765 0.015579291 -0.014409961 0.015361014 -0.015592361 -0.014295207 0.014656432
0.013994864 0.014155258 0.016914465 -0.015137572 0.016814604 -0.017616384 -0.014898894 0.01621491

layers.0.egnn.coors_mlp.0.bias f4 [64]
00000000: 2d57 b2bd 402c b4bd 5d54 37be 8f59 6d3d
00000010: cdc9 d6bd 1848 58be fa5d debd 9e67 33be
00000020: 5a3f 583d ec31 e83d 093f 343e 4917 a73d
00000030: 11d5 acbd a718 da3c e2a0 123e 9e67 573d
00000040: cb24 7f3e aaaf d33d 19ef 88be 81d8 1a3e
00000050: 18bc 75bd 8ed1 efbd 8e1c 833e 9c6e 653d
00000060: 0c7d 0cbe 1a21 723d e94a c5bd 6eca 6ebe
00000070: dde7 53be 7743 5c3e 86f3 d1bc e5e9 3e3e
00000080: 2cad e63d 04b1 5cbe 5359 42bd 716d 3e3e
00000090: db6a 193e 8179 a0bc 07f1 28be fb39 29be
000000a0: 64ed 99bd 155a 823e c4ca 4fbe 7657 323e
000000b0: d421 22be 7ef6 603e 2816 bc3d 17be 7c3e
000000c0: c37b 9f3d c6af b1bd b417 563e 7a6a df3d
000000d0: 3259 86bd f63b 09bd 9272 9bbc b02f 34be
000000e0: 434a 05bd bfd7 c7bd 974e 183e 21b3 7e3e
000000f0: 1c86 16be e479 203e 619c 463e 76d6 833d
-0.08708034 -0.087975025 -0.17903276 0.057946738 -0.10487709 -0.21121252 -0.10857768 -0.17519996
0.05279479 0.11337647 0.17602171 0.08158738 -0.08439077 0.026623083 0.14319184 0.05258905
0.24916379 0.1033624 -0.26744917 0.15121652 -0.059993833 -0.11709891 0.25607723 0.05601369
-0.13719577 0.0591136 -0.096334286 -0.23319408 -0.20693918 0.21510111 -0.025628816 0.18643911
0.11263499 -0.21551901 -0.047448467 0.18596436 0.14982168 -0.019589188 -0.16498195 -0.16526024
-0.07515982 0.25459352 -0.20292193 0.17416176 -0.15833217 0.2196903 0.091839135 0.24681889
0.077872775 -0.08676104 0.2090748 0.10908981 -0.065599814 -0.03350445 -0.01897553 -0.17596316
-0.032541525 -0.09757947 0.1487373 0.2487302 -0.14699596 0.15671498 0.19395591 0.064373896

layers.0.egnn.coors_mlp.3.weight f4 [1, 64]
00000000: 9425 993c 0fed 893c 3f9f 903c dbc5 8cbc
00000010: 02aa a63c 7f1e 9b3c 7b63 9d3c 6fd1 8f3c
00000020: ddf8 8bbc 6f44 9abc f780 8ebc e85c a0bc
00000030: 9d5d 893c b9fa 9dbc 4d58 96bc e813 90bc
00000040: 6c6f 95bc c503 a1bc 6e27 9e3c cca7 a3bc
00000050: 1bf7 953c c28c 953c afa1 82bc 139c 9abc
00000060: dffe 983c 9b2b 96bc 233c 8a3c fd5e 9f3c
00000070: 7c1f 8d3c 0cbd 94bc 2c18 873c 22bb a9bc
00000080: 7d49 9cbc a022 973c 8429 a33c 1446 a8bc
00000090: 9ccb a5bc 05b6 ac3c 14e8 993c 2c96 973c
000000a0: 1603 953c 85ee 95bc 8435 8a3c 419b 94bc
000000b0: d95d 893c 2514 97bc 024d 95bc 0a9e 8fbc
000000c0: e1dc 96bc 402c 9b3c 70bb 9abc 3e72 97bc
000000d0: 9f1d a03c 0924 893c 6ddf 9b3c 1532 a03c
000000e0: 81ae 923c 1618 993c db08 a4bc 81a4 a0bc
000000f0: e0a8 983c 286a 88bc c439 8cbc 1f13 9dbc
0.018694676 0.016836671 0.01765406 -0.017184189 0.020344738 0.01893544 0.019212475 0.01755592
-0.01708644 -0.01883146 -0.01739548 -0.019575551 0.016768271 -0.019284593 -0.018352652 -0.017587617
-0.018241607 -0.019655118 0.01930591 -0.019977473 0.018306306 0.018255595 -0.015946237 -0.01887325
0.01867622 -0.01833134 0.016874379 0.019454474 0.017226927 -0.01815655 0.016491018 -0.020719115
-0.01907801 0.018449128 0.019917257 -0.020541228 -0.02023869 0.021082887 0.018787421 0.018504225
0.018189948 -0.018302212 0.016871221 -0.018140437 0.016768383 -0.018442223 -0.018225197 -0.017531414
-0.01841587 0.018941998 -0.018888205 -0.018487092 0.019545374 0.016740816 0.019027436 0.019555131
0.017905476 0.018688243 -0.020023754 -0.019609692 0.018635213 -0.016652182 -0.017117389 -0.019174157

layers.0.egnn.vel_mlp.0.weight f4 [16, 4]
00000000: 2f1c fd3a ac64 003b 93a3 d839 da8b e3b9
00000010: 8d12 e13a 5ff1 65bb fb64 6b3a 32ba 0339
00000020: d8e3 8839 6086 08bb 227a 8a39 1a51 b33a
00000030: 9101 e7ba 58d6 cdba 6541 4aba 50ef 6238
00000040: 9802 7ebb 99b0 123b cfc8 a5b8 34d3 333b
00000050: 1277 f937 8bc2 6739 eac7 ac3a 5fe3 0b3b
00000060: d2a1 e839 0f6d 5939 0b50 993a 3f18 053b
00000070: 0e60 d5ba 1355 ebba d581 82ba e569 83b9
00000080: c4c5 1e3b f7ba 893a 38ca 96b9 cad7 86ba
00000090: 2a6f 39ba 0cc4 0fba 3437 84b9 7be8 a1bb
000000a0: c4f9 00bb 8e92 2abb 928c 18ba 5b7c f3b8
000000b0: 783b 4539 966c 36bb 1651 bdba 4577 b5ba
000000c0: dabf 83ba e3b6 923a 103c fab9 c768 e0ba
000000d0: 5376 b6b7 ecaf 88bb 7a09 573a ba3f 2bbb
000000e0: 7cd8 54ba c5f5 8e3a 500f f33a b55e ff3a
000000f0: 0bf7 b9b8 ea94 8439 b1ed 80ba 254e 10bb
0.0019310768 0.0019591255 0.00041320603 -0.00043401011 0.0017171666 -0.0035086495 0.0008979586 0.00012562497
0.00026109698 -0.0020832047 0.00026412407 0.0013680786 -0.0017624368 -0.0015704138 -0.0007715433 5.4105476e-05
-0.003875887 0.0022383092 -7.9052166e-05 0.002743912 2.973856e-05 0.0002210235 0.0013182138 0.002134524
0.00044371054 0.0002073536 0.0011696828 0.0020308641 -0.0016279237 -0.0017954431 -0.0009956906 -0.00025065165
0.0024226764 0.001050799 -0.00028760894 -0.0010287699 -0.00070737547 -0.00054842304 -0.00025218131 -0.004941044
-0.0019680122 -0.0026027295 -0.00058192865 -0.00011610306 0.00018809538 -0.0027835718 -0.0014443721 -0.0013844749
-0.0010051683 0.001119342 -0.00047728466 -0.001712107 -2.175119e-05 -0.004171362 0.0008203011 -0.0026130513
-0.0008119417 0.0010906985 0.0018543992 0.0019483181 -8.867503e-05 0.00025287952 -0.0009836463 -0.0022019234

layers.0.egnn.vel_mlp.0.bias f4 [16]
00000000: d8fa b03e 4aeb b43e 9015 d33e e36a c4be
00000010: d0ec 8dbe f6e1 01bf 95d9 cd3e 45b9 713e
00000020: 902c cebe 262c b03c cc32 743d 0774 dfbe
00000030: 6501 ed3c f167 a6be 3edc 26be b24b 89bd
0.3456638 0.3533576 0.41227388 -0.38362798 -0.27719736 -0.50735414 0.40205064 0.23605831
-0.40268373 0.021505427 0.059618756 -0.4364321 0.028931329 -0.32501176 -0.16294953 -0.06703891

layers.0.egnn.vel_mlp.3.weight f4 [1, 16]
00000000: a64d 40ba e1d1 ea3a f1fa 7d3a 0a31 143a
00000010: 5e75 6fba 0eb8 b838 0f1b fc38 04b0 273a
00000020: 4aa5 ccb9 a121 6ab9 f3be 923a 05f5 af3a
00000030: 41d5 2dba 4d0a f33a 1d50 cbb9 b4d6 a9b9
-0.0007335789 0.0017915332 0.0009688577 0.00056530593 -0.00091346155 8.8080866e-05 0.000120213364 0.0006396773
-0.00039033062 -0.00022328507 0.0011195823 0.0013424462 -0.00066312036 0.0018542499 -0.00038778866 -0.00032394158

layers.1.egnn.edge_mlp.0.weight f4 [20, 10]
00000000: 982d 8abc 315d 96bc e405 633c 5142 9e3c
00000010: 7c16 8dbc b942 9bbc 7145 873c 8b75 833c
00000020: f44f 11bd 8493 9bbc d1e9 bd3c 07bf d03c
00000030: 4fb2 a5bc 5ac0 efbc 1350 b93c 3fb4 d43c
00000040: 90aa abbc d1fd d6bc 7d32 613d b175 d23c
00000050: 82ed 97bc b948 90bc fa3a 613c e086 a33c
00000060: c680 8fbc 9677 84bc de3f 633c 0b08 983c
00000070: bcae 0dbd 0a2b 98bc a111 88bc 03dd 94bc
00000080: 2673 703c 442a 973c a99b 9cbc 3281 87bc
00000090: c4df 733c 95d7 8e3c d59a 0fbd d910 a1bc
000000a0: 84ea 85bc f15c 8ebc 1f04 603c f54c a63c
000000b0: d75e 80bc cf8d 93bc f174 7c3c e9d3 943c
000000c0: 384c 0fbd 07fb 9ebc 9722 bf3c f96c cb3c
000000d0: 803d acbc caed d1bc 4977 c03c 4bda d73c
000000e0: 8bfc acbc cc8c dbbc 6152 3b3d 5491 d23c
000000f0: 0ee1 cd3c 4b24 d53c 883c a8bc 5ef2 eabc
00000100: fd77 d63c ec1d d93c a90c b0bc 2a3b dcbc
00000110: 698e 5c3d 0079 e03c 822d b83c dca0 d33c
00000120: 7eb3 b8bc a65a d2bc 95ba bd3c 60a4 d43c
00000130: 69a4 c4bc fc3f cabc b97a 3b3d df4b d53c
00000140: a9a1 c33c 25a4 ce3c d908 a5bc a356 dcbc
00000150: 13c9 cb3c 70cc c53c 1d38 cebc 3f3b d2bc
00000160: 9af6 423d f50d c83c 1f0f be3c 3df2 be3c
00000170: 1357 a6bc a2d8 dcbc a067 c13c 3129 c93c
00000180: cc8c b2bc 1a81 d2bc 5042 343d a92f d33c
00000190: 500e 81bc 9294 90bc 0bd9 6d3c a210 9b3c
000001a0: aa6e 81bc 8087 96bc 59d8 703c 5885 8d3c
000001b0: 8340 07bd 7602 a0bc 7554 84bb 8dfc 92bb
000001c0: 405b 4d39 fbf9 c13b 42bc 9ebb f0f6 56bb
000001d0: a330 073b 2695 b33b 0f62 06bd 98fc 5dbb
000001e0: b641 87bc 8bcb 8ebc e99b 653c 10fb 9a3c
000001f0: 8dd8 95bc db9e 8fbc ca7c 7e3c 132c 963c
00000200: 2bf6 14bd fef6 98bc c614 7dbc 3750 88bc
00000210: 5f24 833c bdb7 9a3c 5cde 8dbc 29c6 9bbc
00000220: 8dec 893c 9491 813c f2bd 0fbd aee7 95bc
00000230: c103 c63c 030e d73c 17b6 abbc e35a cdbc
00000240: 7429 c53c 0edb d63c 882a c6bc ef05 d4bc
00000250: cbf7 3d3d 09ac c83c 4507 c03c 9962 c63c
00000260: ffc1 b4bc 7bee d9bc 2ece c03c 67db c13c
00000270: a65f b6bc 9f9e d7bc 2168 363d 6c93 d33c
00000280: 720c c93c 991e cc3c 7377 acbc a131 ddbc
00000290: abfb c53c fbd6 da3c 03d1 d4bc 8c4f dfbc
000002a0: 2c10 5d3d d527 d73c 90dd 87bc d327 89bc
000002b0: 1065 793c d7e2 a83c 7d4c 90bc a43d a0bc
000002c0: fa5c 813c 678e 923c 4186 0ebd 4563 98bc
000002d0: af16 85bc f3e9 92bc d0f1 533c 3a93 a03c
000002e0: 3d1a 99bc bcfa 9dbc d53c 863c 36df 8e3c
000002f0: 3d0d 1fbd 944e 80bc b532 803c c8fb 843c
00000300: a9c5 2abc 9924 a8bc ad05 653c ed9f 813c
00000310: 3fbd 66bc bcbe 8dbc 93ac 533d fa85 7b3c
-0.016867444 -0.018354984 0.013856385 0.019318732 -0.017222635 -0.018952714 0.016512604 0.01604726
-0.03547664 -0.01899124 0.023182781 0.025481714 -0.020226626 -0.029266525 0.02262119 0.025964854
-0.020955354 -0.026244076 0.05497979 0.025690885 -0.01854587 -0.017612802 0.013746971 0.019961774
-0.017517459 -0.016170304 0.013870208 0.018558523 -0.034590468 -0.01857521 -0.016609969 -0.018171793
0.014675891 0.018452771 -0.019117193 -0.016541097 0.014884893 0.017436782 -0.03505977 -0.019661354
-0.016347177 -0.017378302 0.013672858 0.020300368 -0.015670223 -0.018011956 0.01540874 0.018167453
-0.034984797 -0.019406809 0.023331923 0.024832236 -0.02102542 -0.025626082 0.02349438 0.026349207
-0.021116516 -0.026800536 0.04573286 0.025704063 0.025131729 0.026018282 -0.020536676 -0.028680023
0.026180262 0.026503526 -0.021490412 -0.02688368 0.05384675 0.027401447 0.022482637 0.02583354
-0.022546526 -0.02567799 0.023160258 0.025957286 -0.024004178 -0.024688713 0.045771334 0.026037155
0.023880797 0.025224755 -0.02014582 -0.02689678 0.024876153 0.024145335 -0.025173241 -0.025663016
0.04759846 0.024420718 0.02320057 0.023308868 -0.020305192 -0.026958767 0.023608983 0.024555774
-0.021795653 -0.025696326 0.044008553 0.025779562 -0.015753895 -0.017648969 0.014517079 0.01892883
-0.015799839 -0.018375158 0.014700019 0.017275497 -0.033020508 -0.019532423 -0.0040383884 -0.004485673
0.00019584317 0.0059196926 -0.0048442194 -0.0032800995 0.0020628355 0.0054804264 -0.03280836 -0.0033872481
-0.016510826 -0.017431041 0.014014223 0.018918544 -0.018291736 -0.017531803 0.015532682 0.018331563
-0.036367577 -0.018672463 -0.015446847 -0.016639812 0.016008554 0.018886441 -0.017317943 -0.019015389
0.016836429 0.015816487 -0.035093255 -0.01829895 0.024171712 0.026251798 -0.02096085 -0.025067752
0.024067618 0.0262275 -0.024190202 -0.025881736 0.046378892 0.024496095 0.023440966 0.024216937
-0.02206516 -0.026602974 0.023535814 0.02366419 -0.022262406 -0.026320754 0.0445329 0.025827132
0.024542067 0.024916934 -0.021053052 -0.027001204 0.024167856 0.026713839 -0.02597857 -0.02725961
0.0539705 0.02626411 -0.016585141 -0.016742622 0.015221849 0.020615978 -0.017614597 -0.019560643
0.015791405 0.017890168 -0.034796003 -0.018602023 -0.016246168 -0.017933821 0.012936071 0.019601453
-0.01868927 -0.019284599 0.016386429 0.01744042 -0.038830984 -0.015662469 0.015649179 0.01623334
-0.010423102 -0.020525264 0.013978404 0.015823329 -0.014083206 -0.017302863 0.05167825 0.015351767

layers.1.egnn.edge_mlp.0.bias f4 [20]
00000000: 7b8c 42be 47ab 823d 3fbf 56be 1ed5 7abe
00000010: 4c43 5abe 7acd 893e 8cd8 653d 4ff2 963e
00000020: 2e3c 263e 8a09 ab3e 4781 9cbe d938 c4bb
00000030: 0ec3 d3bd e804 9ebe 8571 9f3e b90e 873e
00000040: a789 8b3d 2bf6 42be 5d89 dfbd 3d2b 673c
-0.18998902 0.06380325 -0.20971392 -0.2449536 -0.21314734 0.2691458 0.05611472 0.29481742
0.16233894 0.33405715 -0.3056738 -0.005988222 -0.10339938 -0.30863118 0.31141296 0.2637842
0.068133645 -0.19039218 -0.10914872 0.01410943

layers.1.egnn.edge_mlp.3.weight f4 [16, 20]
00000000: 0063 be3c 9837 0ebd 0b1f b43c d01e ab3c
00000010: 41c7 bb3c 55fe babc a995 06bd 2db1 b3bc
00000020: c5ee d1bc 0535 b4bc 165c a63c 596c b53c
00000030: a847 c73c f64c 9d3c 2b3a bfbc 54ee c9bc
00000040: 6887 06bd 26e0 af3c b297 c53c 0cb6 05bd
00000050: 7914 bf3c d30f 02bd 7ce6 b93c 45f6 a43c
00000060: 9944 a13c 20ff bfbc f83d 0dbd abff acbc
00000070: 7843 dbbc eec6 bebc 3ff8 9e3c 7ba5 ab3c
00000080: 6157 c33c 6978 be3c 8c40 b8bc 97cd b6bc
00000090: 6d2c 0cbd 098d bc3c c9ba c63c 6a52 05bd
000000a0: 4683 c8bc 03a3 143d b3ea babc ba9c c5bc
000000b0: f495 c1bc 1029 d03c 5f2d 203d 814a d83c
000000c0: ecbe e33c b7aa d53c 3326 b9bc 4378 c9bc
000000d0: 871c d8bc f811 b1bc dee1 ba3c e226 c33c
000000e0: b863 183d 1ec9 bfbc 033d dbbc c3b2 1a3d
000000f0: 8405 babc a784 173d 160b c5bc 9dee acbc
00000100: 073f b8bc cc7b d23c a6a7 243d 4ab1 dc3c
00000110: 5683 fc3c 3f34 d33c f593 b1bc 2924 cbbc
00000120: 77cb dfbc 01ad bcbc 87d3 cb3c 9209 d13c
00000130: dd91 103d 592a bebc ad8b e1bc 21a1 183d
00000140: 356e bd3c bd77 04bd d47a bc3c 1d2d aa3c
00000150: 9570 bc3c 25f8 c3bc cc77 09bd 8c92 ccbc
00000160: e531 e1bc ffe3 c1bc c899 be3c 55b1 ba3c
00000170: 7e50 c33c 6709 a93c 9697 b6bc 440d d3bc
00000180: 8fde f4bc 3430 b23c 18fc be3c fd7f febc
00000190: cb61 c63c 8397 18bd 5374 c03c 77cb b73c
000001a0: 4ad0 bd3c e149 d1bc f1f9 21bd a115 c8bc
000001b0: f2e2 e6bc 799f c7bc aa21 a93c 2e40 da3c
000001c0: 079d d73c a9f2 b43c 00c2 c4bc e6b3 d6bc
000001d0: 933f 10bd 18fc bb3c 8316 d93c 82a9 15bd
000001e0: d2f4 ba3c 2b42 0dbd f722 b83c 98cf a93c
000001f0: 5887 b43c faff d0bc 10bf 0dbd b50a cbbc
00000200: cb56 cdbc bfa4 bcbc 80f7 a33c c490 a93c
00000210: b669 cb3c b122 a43c bd79 b9bc 2f72 babc
00000220: 90c4 05bd 7d47 ba3c be7b b63c dd47 07bd
00000230: 464c cabc b70b 2b3d 7099 cbbc 176b afbc
00000240: 50a6 cbbc 0ccc d63c e1aa 2a3d 19fa d93c
00000250: b009 013d 6258 c43c 8fab b9bc dc57 f0bc
00000260: 7d3f dfbc fa01 c1bc f764 e23c 2169 e93c
00000270: 7b21 243d bb6c c6bc 67ed d9bc d5d5 2b3d
00000280: 406d c0bc 9c10 2c3d bba4 c9bc 41d6 c3bc
00000290: e470 c8bc 7969 e13c 8eb2 303d 32e1 dd3c
000002a0: b2fd f23c 0b8c d63c 2692 c9bc 769b fbbc
000002b0: 68d6 f1bc 86c3 c1bc 6d57 db3c 1c2c f43c
000002c0: 0a40 293d 83b8 cfbc de15 debc 7868 313d
000002d0: d1ba cc3c 7e4d 0fbd 4607 b03c 7064 c03c
000002e0: f528 b93c 3876 c8bc 64e9 1bbd 177a cabc
000002f0: 15d1 debc 906f c4bc 8570 aa3c bacb c73c
00000300: 5643 cc3c bbca a53c 769c cdbc 7897 d8bc
00000310: 729a 15bd 8197 be3c b4aa c83c 2996 16bd
00000320: 91a2 c5bc 5462 383d 7fd1 bfbc 9730 c3bc
00000330: 551f c3bc f3e7 f53c c6c6 3d3d aaa0 e13c
00000340: 9122 043d e170 db3c 8b5f b4bc f26b 0ebd
00000350: 02ed f0bc 14cc b1bc 05ef e53c 2d95 eb3c
00000360: 278b 333d 7908 bcbc 3f07 ffbc 6c53 4f3d
00000370: 74f2 bfbc f3f5 183d 16cc c3bc 2618 bdbc
00000380: dc37 b7bc c48f d83c 69f5 1d3d 067f db3c
00000390: 55c5 f53c 4098 ca3c 2c24 b7bc 5846 d1bc
000003a0: d0db dbbc 00c0 b2bc 1b6d da3c 8e54 df3c
000003b0: f25d 183d e7ae c3bc 52de d4bc b21f 1d3d
000003c0: d338 c2bc f16c 1c3d 19e0 cebc 3ec8 c1bc
000003d0: 9fbb b9bc e734 c23c 601a 233d 43b7 c93c
000003e0: 0783 033d 1535 d03c 1bf2 b2bc 40e2 d8bc
000003f0: d304 eebc 98da bbbc c15b de3c f6f5 cb3c
0.023240566 -0.034720987 0.021987459 0.020888716 0.02292216 -0.022826353 -0.03285757 -0.02193507
-0.02562655 -0.021997938 0.020307582 0.02214639 0.02432616 0.019201737 -0.023343166 -0.024649777
-0.032843977 0.021469187 0.024120186 -0.032644317 0.023325192 -0.031753372 0.022692911 0.020136962
0.01968603 -0.023437083 -0.034482926 -0.021118006 -0.02676557 -0.023288216 0.019405482 0.02095293
0.023845376 0.023250775 -0.022491716 -0.02231483 -0.034222055 0.02301647 0.024258988 -0.0325493
-0.024476659 0.036288273 -0.022816991 -0.024122585 -0.023631074 0.025410205 0.03910577 0.026402714
0.027801 0.02608238 -0.022601223 -0.024593478 -0.02638079 -0.021615013 0.02281278 0.023822252
0.037204474 -0.02341133 -0.026762491 0.037768137 -0.022707708 0.03699174 -0.024053138 -0.021109873
-0.022490991 0.025693797 0.040198945 0.026940007 0.030824345 0.025781749 -0.021676997 -0.024797516
-0.0273187 -0.023031713 0.024881138 0.025517259 0.035295356 -0.023213552 -0.027532423 0.03726304
0.02312384 -0.032340754 0.023007788 0.020773465 0.023002902 -0.023922035 -0.033561513 -0.024972223
-0.027489612 -0.023668287 0.023266688 0.022789637 0.023842093 0.020634366 -0.022289079 -0.025763161
-0.02989128 0.0217515 0.023313567 -0.031066889 0.024216553 -0.037253868 0.023492968 0.022435887
0.023170609 -0.025547924 -0.039545003 -0.024424376 -0.028184388 -0.024368035 0.020645935 0.026641931
0.026319994 0.022088366 -0.024018288 -0.02620883 -0.03521688 0.022947356 0.026499992 -0.03653861
0.022821818 -0.03448693 0.02247761 0.020728871 0.022037193 -0.025512684 -0.03460604 -0.024785379
-0.0250658 -0.023027776 0.020015478 0.020698912 0.02483068 0.020036073 -0.022641057 -0.022759525
-0.03265816 0.022739166 0.022275802 -0.03302752 -0.024694573 0.04175922 -0.024853438 -0.02141337
-0.024859577 0.026220344 0.04166687 0.026608514 0.03150338 0.023967925 -0.022664813 -0.02933877
-0.027251953 -0.023560513 0.027636034 0.028492512 0.040070992 -0.024221769 -0.02660246 0.041951973
-0.023489594 0.042008027 -0.024614682 -0.023905875 -0.024467893 0.027516114 0.043139033 0.02708492
0.029661987 0.026189825 -0.024605822 -0.030713778 -0.029521182 -0.023652803 0.026775086 0.02980619
0.041320838 -0.025356537 -0.027110036 0.04331252 0.024991425 -0.03498601 0.021487843 0.023485392
0.022602538 -0.024470434 -0.038064376 -0.02471642 -0.027199307 -0.023978978 0.020805607 0.024389137
0.024934452 0.020238271 -0.02509902 -0.026439413 -0.036524244 0.023265602 0.02449546 -0.036764298
-0.02412537 0.045015648 -0.023415325 -0.02382688 -0.023818651 0.030017829 0.046332143 0.02754243
0.032259528 0.026787223 -0.022018215 -0.034770913 -0.02940989 -0.021703757 0.028068075 0.028757656
0.043833878 -0.022953259 -0.031131385 0.050616667 -0.02343104 0.03734393 -0.023901027 -0.023082804
-0.022365503 0.02643574 0.03856412 0.026793968 0.030001322 0.024730802 -0.022356115 -0.025546238
-0.026838213 -0.021820068 0.026663354 0.027261999 0.03719897 -0.02388711 -0.025984917 0.038360305
-0.023708737 0.038189832 -0.025253342 -0.023655053 -0.022672473 0.023706866 0.039820075 0.024623519
0.03210738 0.025415936 -0.02184396 -0.026475072 -0.029055035 -0.022931382 0.027143361 0.024897557

layers.1.egnn.edge_mlp.3.bias f4 [16]
00000000: f107 4fbe bf2d 45be 58f9 413e bb74 423e
00000010: 99fc 32be 19ec 36bd f399 13be 01a2 7a3d
00000020: 6c4a 3a3d 0390 8abd 1ffc cc3c cf99 3d3e
00000030: 31cf 023e d9f0 56be 890a c33d 8e07 4fbe
-0.20217873 -0.19255732 0.18942773 0.18989842 -0.17479171 -0.044658754 -0.14414196 0.061189655
0.04548113 -0.06765749 0.025022564 0.18515705 0.1277435 -0.20990314 0.09523494 -0.20217726

layers.1.egnn.node_mlp.0.weight f4 [8, 20]
00000000: 9f40 aeb9 447f 63b9 4488 fa39 7d72 8939
00000010: 7314 0838 15b6 8c3a b9fe f6b8 c732 63b9
00000020: 4289 e939 c468 05bb 52ca 393a 6436 df39
00000030: f2ef 333a e822 3a3b 4b5c c03a 701e 8438
00000040: 719c 753a 9c4d 1f39 5af2 caba dce3 81b9
00000050: 62e7 03bb efa4 a4ba 0eb6 6c3a 22f8 3d3a
00000060: 7c45 813a fe84 d037 a850 2c38 f426 973a
00000070: 0ab4 5bb9 b11f 0a3b 983b a5b9 2a8a bf37
00000080: db89 4b3a e119 0f3b 4618 39ba 83ef b33a
00000090: df6f c8b9 8630 1b38 6eb2 f339 c085 c8ba
000000a0: d539 913a 69b3 a6ba bd92 1bba 455d 5b3a
000000b0: a02c 0ebb 527f 26b9 ac7b 833a 6303 8dba
000000c0: e698 f5b8 47c3 2f3a c3f4 ab39 0385 88b9
000000d0: 898a c839 8614 30ba 48f6 a4b9 fade 18bb
000000e0: 2747 f8ba aed9 bd39 055a f238 7c82 0c38
000000f0: d65a b33a 256a cb39 0635 c33a deb5 923a
00000100: 4178 72ba acbd 0bb9 ee95 a93a 158e 0bba
00000110: e01c 59ba 8ad2 c93a 36ac 9b38 3ffb 953a
00000120: 4ee1 d6b9 5cde ddba 2fd0 bfba 19b6 dc39
00000130: 6340 dd39 0c16 69ba 4fbd e2ba 9367 20bb
00000140: 4db9 8f3a 8783 60b8 15b7 863a b591 52b9
00000150: 9c18 103a 9212 843a 8450 a73a d607 3b39
00000160: ba0d ed39 53af 9039 3624 94ba 47e2 52ba
00000170: 0541 4739 be3e 39ba b46b cf3a 7437 45bb
00000180: 5350 c2b9 000d 8cba eb2a 433a e2da 91b9
00000190: ff81 a7ba 1642 84b6 8c32 b1ba 1b1b 3e3a
000001a0: a562 b1ba 96c8 4039 235b 83ba 639a 38ba
000001b0: 0c54 443a feb7 13ba f859 9639 09d1 dd3a
000001c0: 5262 d0b9 8bb5 f6b8 9c71 473a adbd 9fba
000001d0: 42a5 293a 2d15 a3ba 6f10 f2b9 e2f4 9cb9
000001e0: 2493 90ba 4644 063a 387b beb9 d653 37b9
000001f0: 1592 e83a 19d5 243a 720e ee3a 7475 b5b8
00000200: ddf6 13b9 3161 453a cb8c 65ba dfeb 09bb
00000210: 930a 32ba bb19 04ba f0e3 033a 8357 c83a
00000220: 0e58 6e38 1763 be39 ebea ad3a 397f cc39
00000230: 2bfc 103a 28a9 123a 491e 9eba 03bd 3239
00000240: 9f54 df39 5869 dfba 35ab d936 416d c33a
00000250: f8d0 92ba 146a 85ba 765d 42ba 7159 64b9
00000260: 1be7 34ba 4ce2 3c3a eaab 45ba 499b 87ba
00000270: 868f cf39 dc4e b1ba 2d1f 87ba 3538 fc38
-0.00033236013 -0.00021695817 0.00047785242 0.00026215977 3.244397e-05 0.0010735417 -0.0001177764 -0.00021667323
0.00044543488 -0.0020356635 0.0007087338 0.000425744 0.0006864063 0.0028402153 0.0014675943 6.29992e-05
0.000936932 0.00015192333 -0.0015483603 -0.00024774566 -0.0020126929 -0.0012561361 0.0009029814 0.00072467525
0.0009862627 2.4857462e-05 4.1083113e-05 0.0011531995 -0.00020952537 0.0021076018 -0.00031515653 2.2833312e-05
0.00077643775 0.0021835493 -0.0007060807 0.0013727996 -0.00038230323 3.700007e-05 0.00046481512 -0.001529865
0.0011079857 -0.0012718263 -0.00059346465 0.0008368085 -0.002169408 -0.00015878424 0.0010031364 -0.0010758456
-0.0001171099 0.0006704819 0.00032798023 -0.00026039043 0.0003825019 -0.00067169254 -0.0003146401 -0.0023326264
-0.0018942103 0.00036211073 0.00011556227 3.3500124e-05 0.0013683687 0.0003879826 0.0014893122 0.0011193117
-0.00092494866 -0.00013326731 0.0012938359 -0.0005323601 -0.0008282196 0.0015397829 7.423053e-05 0.0011442675
-0.00040985126 -0.001692723 -0.0014634187 0.00042097343 0.00042200377 -0.000889153 -0.001729885 -0.0024475798
0.0010965258 -5.3528256e-05 0.0010277951 -0.00020081441 0.0005496831 0.0010076335 0.0012765084 0.00017836629
0.0004521439 0.00027596447 -0.0011302296 -0.0008044582 0.0001900234 -0.0007066539 0.0015824945 -0.0030092867
-0.0003706241 -0.0010685027 0.0007445055 -0.00027819636 -0.0012779831 -3.9416e-06 -0.0013519092 0.0007251964
-0.0013533427 0.00018385271 -0.0010021668 -0.00070420484 0.00074893306 -0.0005635022 0.0002867726 0.0016923259
-0.00039746106 -0.00011764009 0.00076081767 -0.0012187265 0.0006471464 -0.0012442224 -0.0004617008 -0.0002993709
-0.001103018 0.0005121868 -0.0003633143 -0.00017483471 0.0017743731 0.00062878575 0.0018162264 -8.65263e-05
-0.00014110976 0.0007529436 -0.00087566365 -0.002104513 -0.0006791737 -0.00050392345 0.0005031219 0.001528487
5.682563e-05 0.00036313452 0.0013268864 0.000390047 0.000553074 0.0005594664 -0.0012063469 0.00017045815
0.00042596922 -0.0017044945 6.487035e-06 0.001490988 -0.0011201194 -0.0010178708 -0.00074144395 -0.00021777094
-0.00069008925 0.0007205352 -0.0007540571 -0.0010345961 0.0003958905 -0.001352753 -0.0010308974 0.00012026766

layers.1.egnn.node_mlp.0.bias f4 [8]
00000000: 1126 553e 2dd5 39be e7a9 39be 9b59 533e
00000010: 644c 75bd d7e4 5dbe 3850 bf3d f862 34bd
0.20815302 -0.18147726 -0.18131219 0.2063965 -0.059887305 -0.21669327 0.093414724 -0.044039696

layers.1.egnn.node_mlp.3.weight f4 [4, 8]
00000000: af06 0bbb 1d4c b73a 4bbe 56ba 9802 7bba
00000010: d6fd 0339 e89c b6ba b3d8 05ba ac7e 0739
00000020: e5f9 81ba 6f96 f3ba e85e 0f3a 607a 40b9
00000030: 24fc 9e3a 7158 ae39 ba35 523a 080a 7db9
00000040: 10f7 40ba 9ec6 60ba 0a7e 88b7 e49e 5b39
00000050: f521 713a 9406 e8b9 6c47 c5ba 3506 f6ba
00000060: ddf1 cab9 e05b 3eb8 38eb 91ba 9121 9db9
00000070: 3c7e 0abb 13d1 39b9 ad9b 8dba c26d 71b9
-0.00212137 0.0013984476 -0.0008191808 -0.00095752766 0.00012587695 -0.001393226 -0.0005105838 0.00012921792
-0.0009916393 -0.0018584261 0.0005469159 -0.00018356135 0.0012129587 0.0003325376 0.000801887 -0.00024131697
-0.0007361034 -0.0008574518 -1.6271155e-05 0.00020944659 0.00091984804 -0.0004425539 -0.0015051193 -0.001877016
-0.00038708645 -4.5385095e-05 -0.0011132723 -0.00029970382 -0.002113237 -0.00017720861 -0.0010803841 -0.00023024439

layers.1.egnn.node_mlp.3.bias f4 [4]
00000000: 57e1 1f3e a4b9 aebe a3cc 3ebe 8ac7 ce3d
0.15613304 -0.34126008 -0.1863275 0.10096653
