data/models/model_N20_batch32_lr0.0001_fd4_b0.5.pth (torch, 30922 bytes, 32 tensors)

time_embedding.0.weight f4 [8, 1]
0	0x3f042d0c	0.51631236
1	0xbf5afa49	-0.85538155
2	0xbf0e374a	-0.55553114
3	0xbf33b026	-0.70190656
4	0xbde2db49	-0.110769816
5	0x3e774509	0.24147429
6	0x3f11e42b	0.5698878
7	0xbf42875d	-0.759878

time_embedding.0.bias f4 [8]
0	0xbf26a8ee	-0.65101516
1	0x3d926c4e	0.07149564
2	0x3f5ccda0	0.8625126
3	0xbe4e61f0	-0.20154548
4	0x3f562ee0	0.83665276
5	0x3f05f3d4	0.5232518
6	0xbf09e669	-0.53867203
7	0x3f1c78a7	0.611216

time_embedding.3.weight f4 [4, 8]
0	0xbe6457ad	-0.2229907
1	0xbdbd09db	-0.092303954
2	0x3cd19e1f	0.025588093
3	0x3d267e02	0.040647514
4	0xbd989cd9	-0.07451791
5	0x3e4d0e06	0.20024881
6	0x3ea91642	0.33024794
7	0x3eb48203	0.3525544
8	0xbd4a2bf9	-0.04935834
9	0xbea70b48	-0.32625794
10	0xbe7cd9d6	-0.24692473
11	0x3e4be059	0.199098
12	0xbc0776a5	-0.008268033
13	0xbe1be81c	-0.15225261
14	0x3d84c8a9	0.064835854
15	0xbe1e9814	-0.154877
16	0xbe6a6cfe	-0.2289314
17	0xbd504fe3	-0.050857436
18	0x3d14be5a	0.036314346
19	0xbcc6b26f	-0.024255006
20	0x3dba0277	0.090825014
21	0x3e13b3c5	0.14424045
22	0xbe4130ef	-0.18866323
23	0xbe843e9b	-0.25829014
24	0xbe20aaf7	-0.15690218
25	0xbe2e6865	-0.17032011
26	0x3e866673	0.26250038
27	0xbd3f5e91	-0.046721045
28	0x3c9fe5ac	0.019518696
29	0x3e9442ff	0.28957364
30	0xbdeaf5cb	-0.114726625
31	0x3e074d4d	0.13213082

time_embedding.3.bias f4 [4]
0	0x3ebaf9a1	0.36518577
1	0xbdb43ddc	-0.08800861
2	0x3e95d155	0.2926127
3	0x3e814710	0.2524953

layers.0.egnn.edge_mlp.0.weight f4 [20, 10]
0	0x3cc651c4	0.02420891
1	0xbc7bef67	-0.015376902
2	0x3cad3b10	0.021146327
3	0x3c1ed487	0.009694225
4	0x3ce51902	0.027966026
5	0xbc2fc092	-0.010727065
6	0x3cd0d02b	0.025489887
7	0x3c0dac55	0.008647044
8	0x3c4a129e	0.01233354
9	0x3dab7e1f	0.08373665
10	0xbe46bfd0	-0.19409108
11	0x3e2bc416	0.1677402
12	0xbe68e739	-0.22744454
13	0xbe43998f	-0.19101547
14	0xbe458d33	-0.19292144
15	0x3e32d9e8	0.17465937
16	0xbe6d99c3	-0.23203187
17	0xbe488d4b	-0.19585149
18	0xbe168fce	-0.14703295
19	0xbe4119fe	-0.18857571
20	0xbdf3e332	-0.119085684
21	0x3dce9f2c	0.100889534
22	0xbe1196bd	-0.14217658
23	0xbde34211	-0.110965855
24	0xbdf07d8c	-0.11742696
25	0x3dc30320	0.095220804
26	0xbe0efb67	-0.1396309
27	0xbdd114c0	-0.10209036
28	0xbd996909	-0.07490737
29	0xbe2d799e	-0.16940925
30	0xbe412bd6	-0.18864378
31	0x3e26a65c	0.16274399
32	0xbe64c6ce	-0.22341463
33	0xbe3c739f	-0.18403481
34	0xbe421c8a	-0.189562
35	0x3e2cff1f	0.16894196
36	0xbe65c58a	-0.22438636
37	0xbe400fd9	-0.18756045
38	0xbe103de4	-0.1408611
39	0xbe401fb1	-0.1876209
40	0x3cbfdef2	0.023421738
41	0xbc546928	-0.012964524
42	0x3ca16e2a	0.01970585
43	0x3bb10d3f	0.0054031904
44	0x3cd69c6b	0.026197633
45	0xbc100dda	-0.008792365
46	0x3cc01de9	0.023451762
47	0x3c0901f9	0.008362287
48	0x3c513d8b	0.012771021
49	0x3db20e24	0.08694103
50	0xbe49164f	-0.19637416
51	0x3e2fb25d	0.17157884
52	0xbe6c2e50	-0.23064542
53	0xbe48753d	-0.19575973
54	0xbe496f7d	-0.19671436
55	0x3e3bd59e	0.18343207
56	0xbe6d4ee0	-0.2317462
57	0xbe4f3612	-0.2023547
58	0xbe1c1540	-0.15242481
59	0xbe44893e	-0.19192979
60	0x3cdbafcd	0.026817227
61	0xbca46b95	-0.02007083
62	0x3ce52afc	0.027974598
63	0x3c8b55e8	0.017008737
64	0x3d026f94	0.03184469
65	0xbc989217	-0.018624349
66	0x3d0561be	0.032563917
67	0x3c90f4bb	0.017694822
68	0x3c94b663	0.018153375
69	0x3da2ee71	0.07955635
70	0xbe1f4567	-0.15553819
71	0x3e020c48	0.12699997
72	0xbe422196	-0.18958125
73	0xbe1534f3	-0.1457098
74	0xbe1f4409	-0.15553297
75	0x3dfcb777	0.12339681
76	0xbe41a47a	-0.18910399
77	0xbe15ba3c	-0.14621824
78	0xbdd27100	-0.10275459
79	0xbe3f4dbc	-0.18681997
80	0x3cbf00a8	0.023315743
81	0xbc77d5f8	-0.015126698
82	0x3ca7a1a1	0.020462813
83	0x3c2631dd	0.010143724
84	0x3ce7e0a2	0.028305355
85	0xbc59a10f	-0.013283028
86	0x3cc68a90	0.024235994
87	0x3c12f65e	0.008969871
88	0x3c6c6900	0.014429331
89	0x3dabfdf8	0.0839805
90	0xbdec2f1d	-0.11532424
91	0x3dc6d7b6	0.09709112
92	0xbe0d8314	-0.13819534
93	0xbdd8bf78	-0.10583395
94	0xbde649fe	-0.11244582
95	0x3dbc20d4	0.09185949
96	0xbe0ac71d	-0.13552518
97	0xbdcd661e	-0.10029243
98	0xbd9477be	-0.072494015
99	0xbe286d6a	-0.16447988
100	0x3cdad66b	0.02671357
101	0xbc6fb7fc	-0.014631268
102	0x3cc96664	0.024584956
103	0x3c317123	0.010830197
104	0x3cf26df4	0.029593445
105	0xbc4b0905	-0.012392287
106	0x3cd31b19	0.025769757
107	0x3c346c92	0.011012213
108	0x3c57e2a9	0.013176599
109	0x3daacf1c	0.08340284
110	0x3cb798fe	0.02241182
111	0xbc781e0f	-0.015143885
112	0x3cb8d225	0.022561142
113	0x3c2878c7	0.010282702
114	0x3cdddc40	0.027082562
115	0xbc50047b	-0.012696381
116	0x3cc4b0a6	0.024010014
117	0x3c2a0a42	0.010378422
118	0x3c83fae9	0.016110854
119	0x3daa0ee6	0.08303623
120	0x3ccd6883	0.02507425
121	0xbc7d8c9e	-0.01547542
122	0x3cb23950	0.021755844
123	0x3c106a31	0.0088143805
124	0x3cea56c5	0.028605828
125	0xbc64b9e8	-0.013960339
126	0x3ccad5cf	0.024760155
127	0x3c30226a	0.010750392
128	0x3c727d0d	0.014800322
129	0x3dad1ea8	0.08453113
130	0x3ccc3b17	0.02493052
131	0xbc882e8b	-0.016623756
132	0x3cb60342	0.02221835
133	0x3c3805a5	0.0112318145
134	0x3cf23426	0.029565882
135	0xbc7e82c5	-0.015534108
136	0x3cd40b03	0.025884157
137	0x3c28252f	0.0102627715
138	0x3c5f4906	0.01362825
139	0x3da8d47b	0.082436524
140	0x3ccb6978	0.024830565
141	0xbc7fcfca	-0.015613506
142	0x3cc2914e	0.023750927
143	0x3c30bd4f	0.010787322
144	0x3cf19294	0.02948884
145	0xbc4bf935	-0.012449552
146	0x3cdbeab9	0.026845323
147	0x3c33226b	0.010933499
148	0x3c85e469	0.016344266
149	0x3da8485f	0.08216929
150	0xbdf3000a	-0.11865242
151	0x3dcad42c	0.0990375
152	0xbe0ffb90	-0.14060807
153	0xbddf5535	-0.10904924
154	0xbdece966	-0.11567955
155	0x3dbeb71a	0.093122676
156	0xbe0bb8e8	-0.13644755
157	0xbdd13bcc	-0.102164835
158	0xbd9f56c1	-0.07780219
159	0xbe2a0387	-0.16602908
160	0xbe3158dd	-0.17319055
161	0x3e137a96	0.14402232
162	0xbe512f38	-0.20428169
163	0xbe2543b3	-0.16139106
164	0xbe301d0a	-0.17198578
165	0x3e159bfd	0.14610286
166	0xbe527735	-0.20553286
167	0xbe2ae656	-0.16689429
168	0xbdfc4d06	-0.123193786
169	0xbe426076	-0.1898211
170	0xbe3c2b3e	-0.1837587
171	0x3e215f87	0.15759097
172	0xbe5fa4f6	-0.21840271
173	0xbe3bb728	-0.18331587
174	0xbe3e0064	-0.18554837
175	0x3e2a437b	0.16627304
176	0xbe63bc82	-0.22239879
177	0xbe3de0a3	-0.18542723
178	0xbe0bb3c0	-0.13642788
179	0xbe423c02	-0.18968204
180	0x3cd5abe9	0.02608295
181	0xbc8b32ed	-0.016992057
182	0x3cd4fbdb	0.025999
183	0x3c4af9a8	0.012388624
184	0x3cfb1e55	0.030654112
185	0xbc90bb3c	-0.017667405
186	0x3cf74560	0.030184448
187	0x3c791a2d	0.015203995
188	0x3c9563c9	0.018236058
189	0x3da400f7	0.080079965
190	0xbe3a325f	-0.18183278
191	0x3e1d9478	0.15388668
192	0xbe5b299f	-0.21402596
193	0xbe3429f7	-0.17594133
194	0xbe397138	-0.18109596
195	0x3e23beb1	0.15990712
196	0xbe5de276	-0.21668419
197	0xbe375fe9	-0.1790768
198	0xbe092cad	-0.13395949
199	0xbe41e3fa	-0.18934622

layers.0.egnn.edge_mlp.0.bias f4 [20]
0	0x3eb09369	0.34487465
1	0xbeef4601	-0.46733096
2	0xbe34c5d0	-0.17653584
3	0xbee60e3d	-0.44932738
4	0x3eccaf28	0.39977384
5	0xbef38c8b	-0.47568163
6	0x3da8e14a	0.082460955
7	0xbeb4765d	-0.35246554
8	0x3eabed64	0.33579552
9	0xbe3eeda1	-0.18645336
10	0x3e6c5c3b	0.23082058
11	0x3eaa92dd	0.33315173
12	0x3eb6b4c8	0.356848
13	0x3e8b8d4c	0.27256238
14	0x3e756e05	0.2396775
15	0xbe212277	-0.15735804
16	0xbec0b68b	-0.3763927
17	0xbee40df6	-0.445419
18	0x3e40cd6e	0.18828365
19	0xbed2cb2a	-0.41170627

layers.0.egnn.edge_mlp.3.weight f4 [16, 20]
0	0x3d4ebb33	0.050471496
1	0xbdaab7b7	-0.08335822
2	0xbd72662e	-0.059179477
3	0xbdac1326	-0.0840209
4	0x3d58b218	0.05290422
5	0xbdad6877	-0.08467191
6	0x3d134b2b	0.035960358
7	0xbd95ac6d	-0.07308278
8	0x3d466b7f	0.04844236
9	0xbd75ed07	-0.0600405
10	0x3d3d5d93	0.046231817
11	0x3d482c7e	0.048870556
12	0x3d5386cb	0.05164222
13	0x3d3d2068	0.046173483
14	0x3d3ba23c	0.045809016
15	0xbd70a007	-0.058746364
16	0xbd9a6191	-0.075381406
17	0xbda542bd	-0.0806937
18	0x3d2cbead	0.04217403
19	0xbd9ff41c	-0.07810232
20	0x3d4f2d09	0.05058006
21	0xbdabf835	-0.08396951
22	0xbd724286	-0.059145473
23	0xbda69518	-0.08133906
24	0x3d4e8e87	0.050428893
25	0xbdae9d72	-0.08526124
26	0x3d145005	0.036209125
27	0xbd94ab0f	-0.07259189
28	0x3d4c9413	0.049945902
29	0xbd7098b5	-0.058739383
30	0x3d40b967	0.047051813
31	0x3d548f59	0.05189452
32	0x3d4f417c	0.05059956
33	0x3d415fe9	0.047210608
34	0x3d363966	0.044488333
35	0xbd6c5e03	-0.057706844
36	0xbd9cf54e	-0.07663976
37	0xbda63d1c	-0.081171244
38	0x3d2ff7d9	0.042960975
39	0xbda4d675	-0.08048717
40	0xbda23e7e	-0.07922076
41	0x3dd40f05	0.10354427
42	0x3dbe9367	0.093054585
43	0x3dd30eff	0.10305595
44	0xbda1fd99	-0.07909698
45	0x3dd60eb3	0.104520224
46	0xbd8b6ade	-0.06807493
47	0x3dc6a637	0.09699672
48	0xbda2d510	-0.07950795
49	0x3dbe32dc	0.092870444
50	0xbd98b962	-0.07457234
51	0xbd9c65e4	-0.076366216
52	0xbd9ecf55	-0.07754389
53	0xbda16f74	-0.07882586
54	0xbd9afd89	-0.07567889
55	0x3dbfddb5	0.09368459
56	0x3dcccff4	0.100006014
57	0x3dd04014	0.10168472
58	0xbd9535ce	-0.07285653
59	0x3dce0c70	0.10060966
60	0x3d4de91f	0.05027115
61	0xbda6b403	-0.08139803
62	0xbd740c1a	-0.059581853
63	0xbda63c55	-0.08116976
64	0x3d52bcfd	0.051449765
65	0xbda6f0ef	-0.08151423
66	0x3d1a82c0	0.03772235
67	0xbd906534	-0.07050553
68	0x3d4f5677	0.05061957
69	0xbd6e7b01	-0.058222774
70	0x3d3c86f6	0.046027146
71	0x3d493954	0.049126938
72	0x3d4ccd66	0.05000057
73	0x3d3d3817	0.04619607
74	0x3d32986f	0.043602403
75	0xbd705e2d	-0.058683563
76	0xbd9c0e7b	-0.076199494
77	0xbda0c479	-0.07849974
78	0x3d2dabbb	0.042400103
79	0xbd9ff16a	-0.07809718
80	0xbda4afb7	-0.080413274
81	0x3dd5c05b	0.104370795
82	0x3dc5aa27	0.096515946
83	0x3dd3adb7	0.10335868
84	0xbda5a99d	-0.08088992
85	0x3dd8a6b1	0.10578669
86	0xbd90af83	-0.07064726
87	0x3dcef5dd	0.101054884
88	0xbda4998d	-0.080371
89	0x3dc302cf	0.0952202
90	0xbd9ce498	-0.07660788
91	0xbda5ca3b	-0.08095213
92	0xbda726e0	-0.08161712
93	0xbda11257	-0.07864826
94	0xbd9b444e	-0.075813875
95	0x3dc2a923	0.095049165
96	0x3dd097c3	0.10185196
97	0x3dd1e73b	0.10249182
98	0xbd9c281e	-0.07624839
99	0x3dd53156	0.10409801
100	0x3d4d85d1	0.050176445
101	0xbdad2fac	-0.08456358
102	0xbd7ccf72	-0.061721273
103	0xbda731f4	-0.08163825
104	0x3d56fb82	0.05248595
105	0xbdaf8fc2	-0.085723415
106	0x3d1aa9cf	0.0377596
107	0xbd958c6b	-0.07302173
108	0x3d504ccd	0.050854493
109	0xbd71788c	-0.058952853
110	0x3d4486e3	0.0479802
111	0x3d4c830d	0.049929667
112	0x3d4ca0f9	0.049958203
113	0x3d3d444d	0.046207715
114	0x3d38c961	0.045113925
115	0xbd6c323c	-0.057665095
116	0xbd9dfe13	-0.077144764
117	0xbda95f35	-0.082701124
118	0x3d375e3a	0.044767596
119	0xbda26f99	-0.07931442
120	0x3d534278	0.05157706
121	0xbdad05a4	-0.084483415
122	0xbd6ea6e1	-0.058264617
123	0xbda85780	-0.08219814
124	0x3d51ed3b	0.05125163
125	0xbdb023fd	-0.08600614
126	0x3d15975a	0.036521293
127	0xbd91ac5f	-0.07112955
128	0x3d4e7ae9	0.050410185
129	0xbd729058	-0.05921969
130	0x3d361019	0.044448946
131	0x3d4b4877	0.049629655
132	0x3d4a446c	0.04938166
133	0x3d438f92	0.04774434
134	0x3d408a4c	0.04700689
135	0xbd6da774	-0.058021024
136	0xbd9bf232	-0.076145545
137	0xbda78365	-0.081793584
138	0x3d2e23e4	0.042514697
139	0xbda12a16	-0.078693554
140	0xbd942a0b	-0.072345816
141	0x3dcadf9a	0.0990593
142	0x3db2e114	0.087343365
143	0x3dca214f	0.09869634
144	0xbd96363e	-0.073345646
145	0x3dcac8de	0.099015936
146	0xbd842dfb	-0.064540826
147	0x3dc0427d	0.09387682
148	0xbd945b04	-0.07243922
149	0x3db0b77d	0.086287476
150	0xbd8f2af9	-0.06990618
151	0xbd954037	-0.07287639
152	0xbd93dbd9	-0.07219667
153	0xbd8e9f54	-0.06963983
154	0xbd90527e	-0.07046984
155	0x3db0ac18	0.08626574
156	0x3dc2ac9c	0.09505579
157	0x3dcb606b	0.099305
158	0xbd89682e	-0.06709324
159	0x3dc85d3a	0.097834066
160	0xbd9f5ce4	-0.07781389
161	0x3dd1ae13	0.1023828
162	0x3db82ad3	0.08992543
163	0x3dd457e0	0.10368323
164	0xbd9f7375	-0.077856936
165	0x3dd6b38f	0.10483467
166	0xbd877d9c	-0.06615755
167	0x3dc8de4b	0.09808024
168	0xbd9d8d8c	-0.076930135
169	0x3dbb76b3	0.091534995
170	0xbd990c4b	-0.07473048
171	0xbd9e7d70	-0.07738769
172	0xbd9bdf33	-0.07610931
173	0xbd99e7e7	-0.07514935
174	0xbd962e85	-0.07333092
175	0x3dbb5f11	0.09148992
176	0x3dcf150f	0.101114385
177	0x3dcfe53f	0.10151147
178	0xbd920086	-0.07129006
179	0x3dd0116e	0.101595744
180	0x3d4b4c07	0.049633052
181	0xbdad401b	-0.08459493
182	0xbd70791e	-0.058709256
183	0xbda9c09a	-0.08288689
184	0x3d5a90da	0.053360797
185	0xbdb0fd36	-0.08642046
186	0x3d188edb	0.037245613
187	0xbd9312a4	-0.0718129
188	0x3d485f8a	0.04891924
189	0xbd74cf64	-0.059768096
190	0x3d3c2703	0.045935642
191	0x3d42163d	0.04738449
192	0x3d4dafc2	0.050216444
193	0x3d453f35	0.048155982
194	0x3d35f409	0.044422183
195	0xbd66a222	-0.056306966
196	0xbd9de7ff	-0.07710265
197	0xbda7558b	-0.08170613
198	0x3d2f89ab	0.0428559
199	0xbda3ce4a	-0.07998331
200	0xbda3d6a6	-0.07999925
201	0x3dd4a40f	0.10382854
202	0x3dbe777f	0.09300136
203	0x3dd50961	0.104021795
204	0xbda1b018	-0.07894915
205	0x3dd5ac79	0.10433287
206	0xbd91ca0b	-0.07118615
207	0x3dc84488	0.09778696
208	0xbd9e32b7	-0.07724517
209	0x3dc2f5f4	0.09519568
210	0xbd9b68eb	-0.07588371
211	0xbd9e6f6b	-0.07736095
212	0xbd9f893c	-0.07789847
213	0xbd9c9a07	-0.07646566
214	0xbd994824	-0.07484463
215	0x3dc13234	0.094334036
216	0x3dd0a892	0.10188402
217	0x3dd36097	0.103211574
218	0xbd9812ba	-0.07425447
219	0x3dcccef0	0.10000408
220	0xbda1d59f	-0.07902073
221	0x3dd5865c	0.10426018
222	0x3dc174bb	0.09446093
223	0x3dd3b19e	0.10336612
224	0xbda81ef4	-0.08209029
225	0x3dd5fe3f	0.10448884
226	0xbd91bca9	-0.07116062
227	0x3dcbbb3a	0.0994782
228	0xbda24e13	-0.07925048
229	0x3dc60959	0.09669752
230	0xbda26e33	-0.07931175
231	0xbda27fa8	-0.07934505
232	0xbda3c347	-0.079962306
233	0xbda43c95	-0.080193676
234	0xbd9f13a2	-0.077674165
235	0x3dc140ee	0.094362125
236	0x3dcffeab	0.10155996
237	0x3dd40a45	0.10353521
238	0xbd9c9639	-0.0764584
239	0x3dd1e7fd	0.102493264
240	0xbd97ede4	-0.07418421
241	0x3dca52fd	0.0987911
242	0x3db314ec	0.08744225
243	0x3dc6337a	0.09677787
244	0xbd941230	-0.072300315
245	0x3dcf1037	0.101105146
246	0xbd82823e	-0.06372498
247	0x3dbfff15	0.09374825
248	0xbd928db7	-0.07155936
249	0x3dafd88c	0.08586225
250	0xbd8f1384	-0.06986144
251	0xbd93f784	-0.07224944
252	0xbd95a4d3	-0.07306828
253	0xbd93d977	-0.072192125
254	0xbd8dfc85	-0.0693293
255	0x3db2067f	0.08692645

layers.0.egnn.edge_mlp.3.bias f4 [16]
0	0x3e5721e9	0.2100903
1	0x3e2b0149	0.16699709
2	0xbe60057d	-0.21877094
3	0x3dd6718b	0.10470875
4	0xbe9e2e38	-0.30894637
5	0x3e9b7902	0.3036576
6	0x3e6f7fa4	0.23388535
7	0xbde345dd	-0.1109731
8	0xbe540596	-0.20705256
9	0x3e61b774	0.22042638
10	0xbe5e0fc1	-0.21685697
11	0xbe928602	-0.28617865
12	0xbdd573d5	-0.10422484
13	0x3e54d221	0.20783283
14	0x3e302b53	0.17204027
15	0x3e5bb6f7	0.21456514

layers.0.egnn.node_mlp.0.weight f4 [8, 20]
0	0x38d84206	0.000103119804
1	0xba17d748	-0.0005792272
2	0xba511d93	-0.0007977124
3	0x39af7af1	0.000334702
4	0x3ab2c580	0.0013639182
5	0xbaa14dd3	-0.0012306519
6	0xb9acf96f	-0.0003299224
7	0x3aba1c00	0.0014199018
8	0xba7a7f5e	-0.00095557224
9	0x3726d9fc	9.9451245e-06
10	0x3a67115a	0.0008814536
11	0xba3b17aa	-0.000713701
12	0xbb230727	-0.002487609
13	0xba2f6619	-0.0006690934
14	0x3a72c5de	0.0009261052
15	0x37d7d003	2.572686e-05
16	0x3ac1b1f9	0.0014777771
17	0xba7be133	-0.00096084474
18	0xba2ef796	-0.00066744664
19	0xbae93ab9	-0.001779399
20	0x3970bfff	0.00022959708
21	0x3a108de8	0.000551431
22	0xb942758d	-0.00018545073
23	0xb9c03084	-0.0003665724
24	0x3adb150d	0.0016714648
25	0x3a4a770a	0.00077234267
26	0xb96a07a1	-0.00022318821
27	0xb86062e9	-5.349788e-05
28	0xba00a528	-0.00049074227
29	0x3a394719	0.00070677843
30	0x3a23ff9d	0.0006256046
31	0x3a4a1c1c	0.0007709877
32	0x3adbbe41	0.0016765074
33	0x3a93e4bf	0.0011283382
34	0xba99010d	-0.0011673287
35	0xb9e2b5d6	-0.00043241557
36	0x3aa2c12f	0.0012417192
37	0x39e91152	0.00044454128
38	0x3a1ed629	0.0006059134
39	0xba6f3a94	-0.0009125855
40	0xba4da9ae	-0.00078454136
41	0x3acfb0c4	0.0015845527
42	0x371b7502	9.265963e-06
43	0x3a73f639	0.00093064044
44	0xb93973c2	-0.00017686098
45	0xba8d7223	-0.0010791462
46	0x39bfabbc	0.0003655831
47	0x39df34a0	0.00042573083
48	0x39fe9030	0.00048554083
49	0xba224458	-0.00061899936
50	0xba1d301f	-0.00059962453
51	0xba598f7e	-0.0008299275
52	0xba9a8aaf	-0.0011790599
53	0xb6128e41	-2.1838498e-06
54	0x3a1b88d9	0.00059331727
55	0xba6f9e57	-0.0009140721
56	0xb9dff824	-0.00042718754
57	0x3a4503e8	0.00075155357
58	0xbaebcc01	-0.0017989875
59	0xb99ffc4a	-0.00030514813
60	0xbaa44bb4	-0.0012534768
61	0x3a44e2dd	0.0007510612
62	0xbad5e198	-0.0016317843
63	0x3a39ba52	0.0007084954
64	0x3a88a7ec	0.0010426021
65	0x3a396fa7	0.00070738274
66	0xba3c6d77	-0.00071879424
67	0x3a74842f	0.0009327558
68	0x3aa5cd27	0.0012649641
69	0xba82db90	-0.0009983648
70	0xb9a61dfc	-0.00031684327
71	0x39cb9cb4	0.0003883593
72	0x3a4ed5e0	0.0007890146
73	0xba8735b0	-0.0010315683
74	0x3b3aba30	0.0028492324
75	0xba26beb4	-0.00063608144
76	0xba9f275b	-0.0012142466
77	0x398c335a	0.0002674114
78	0x391eac45	0.0001513223
79	0x39232ca3	0.0001556152
80	0x3aafdd78	0.0013417443
81	0xb903c2fe	-0.00012565774
82	0x3884e85d	6.3375315e-05
83	0xbb09d645	-0.0021032256
84	0x3a9fe1c5	0.0012198022
85	0xb8ebc820	-0.000112429494
86	0x3a0c3bab	0.00053494674
87	0x3a0c9460	0.0005362686
88	0xb99c7ed9	-0.00029849148
89	0x3a31a583	0.00067766773
90	0x39b25e1c	0.00034020923
91	0xba2f7ba3	-0.00066941435
92	0xb93fcc0b	-0.00018291191
93	0x3a7a7c23	0.0009555241
94	0x3a0dd3f6	0.0005410308
95	0xba6b58a8	-0.00089777494
96	0xb6c3419a	-5.81909e-06
97	0xba6b783a	-0.0008982454
98	0x3abe89a1	0.0014536866
99	0x3988cdb9	0.00026093217
100	0x392f2567	0.00016703234
101	0x3af297aa	0.0018508334
102	0xb80da844	-3.377373e-05
103	0x3973dce4	0.00023256574
104	0x3a0a5269	0.00052765623
105	0xbad7684b	-0.001643428
106	0x39ab2e0e	0.00032649975
107	0xbab90a6e	-0.0014117488
108	0x3a37a73f	0.00070058176
109	0xb9e64fd5	-0.00043928498
110	0xb8de972e	-0.00010613944
111	0xbaad7cc1	-0.0013236032
112	0x3aad4c57	0.0013221604
113	0xb8ac0cf6	-8.204013e-05
114	0x3978da3a	0.00023732419
115	0x38babfb2	8.904877e-05
116	0x392ccc56	0.0001647932
117	0x39b9cfcf	0.0003544078
118	0xbb0a8ac0	-0.002113983
119	0xb967ada0	-0.00022094557
120	0x39181ce6	0.00014506615
121	0x39362acf	0.0001737282
122	0x3a5ec96e	0.00084986433
123	0xbadeb76c	-0.001699192
124	0xba45bd3a	-0.00075431506
125	0x3aad9fcd	0.0013246477
126	0xb90cec7c	-0.00013439538
127	0x3a03a802	0.00050222885
128	0x3add4c0c	0.0016883626
129	0x3ac0ba55	0.0014703969
130	0x3a50727e	0.0007951631
131	0xbb112f07	-0.0022153275
132	0x3903de7f	0.0001257602
133	0x398a33fd	0.00026360145
134	0xb9d9a05b	-0.0004150894
135	0x3a15ed2e	0.00057192415
136	0xbb124f1f	-0.0022324992
137	0xba8e30ef	-0.0010848324
138	0x3a45a3fd	0.000753939
139	0x393e361e	0.00018139972
140	0x3a7b7ed5	0.00095937896
141	0xba601ac5	-0.0008548911
142	0x3ac84bf5	0.0015281426
143	0x3a801322	0.0009771327
144	0xba1ab7b3	-0.0005902007
145	0xba235216	-0.00062301883
146	0x3aa8ab40	0.0012868419
147	0x394929a8	0.00019184372
148	0x38f916fa	0.00011877525
149	0xb8c484cd	-9.3707444e-05
150	0xb7abd76d	-2.0485104e-05
151	0xba0f5b17	-0.00054685905
152	0x3a733379	0.00092773844
153	0xb9ffb738	-0.000487739
154	0xb95a4fd0	-0.00020819833
155	0xba6f3147	-0.00091244694
156	0xb85d5371	-5.2768217e-05
157	0xbaac7707	-0.0013158032
158	0x3af0f695	0.0018384034
159	0xba807ff3	-0.0009803757

layers.0.egnn.node_mlp.0.bias f4 [8]
0	0x3dbc7ea4	0.09203842
1	0x3e5212c8	0.20514977
2	0x3e30b501	0.17256548
3	0x3e120bd0	0.14262319
4	0x3d8d21be	0.068912014
5	0x3cf7b316	0.030236762
6	0x3dff49de	0.12465261
7	0x3e5a1ffe	0.21301267

layers.0.egnn.node_mlp.3.weight f4 [4, 8]
0	0x3a00ae8a	0.0004908821
1	0x399367f1	0.00028115467
2	0xb9dccf6e	-0.00042116217
3	0x3aa07018	0.0012240438
4	0x3ad218b2	0.0016029088
5	0xbaa1556f	-0.0012308786
6	0xb9fc7c33	-0.0004815772
7	0x3926604d	0.00015866868
8	0x3a779ac7	0.0009445366
9	0x38fbb7b5	0.00012002831
10	0xba6d18a9	-0.0009044507
11	0xbabd8414	-0.0014458918
12	0x3900683d	0.00012245863
13	0x3abae4b8	0.0014258837
14	0xbaa59ebd	-0.0012635809
15	0x3a894431	0.0010472593
16	0x3a0037a3	0.0004891103
17	0xb9206d9b	-0.0001529962
18	0x3b11d386	0.0022251322
19	0xba3a26d7	-0.00071011245
20	0x39d0a922	0.00039798865
21	0xb8dd3451	-0.00010547846
22	0xb9c8c5da	-0.00038294384
23	0x3a973c8c	0.001153843
24	0xba171987	-0.0005763997
25	0x3afdc2f6	0.0019360471
26	0x3abca6ab	0.0014392933
27	0xb9e978bb	-0.00044531174
28	0x3a197ee1	0.0005855393
29	0xbaa900cf	-0.0012893918
30	0x3ac97c2e	0.0015372091
31	0xb9881da2	-0.0002596202

layers.0.egnn.node_mlp.3.bias f4 [4]
0	0x3e3c311e	0.18378112
1	0xbdefa780	-0.1170187
2	0x3d124f89	0.035720382
3	0x3e7c9019	0.24664344

layers.0.egnn.coors_mlp.0.weight f4 [64, 16]
0	0x3cf61ac6	0.030042063
1	0x3d09b1df	0.033616897
2	0xbd2b5062	-0.041824706
3	0x3d1c10d2	0.03810198
4	0xbd200edc	-0.03907667
5	0x3cf57301	0.029962065
6	0x3d06b915	0.03289135
7	0xbd51e5d2	-0.051244564
8	0xbd2f9ae3	-0.04287232
9	0x3d0953f3	0.033527326
10	0xbd308433	-0.043094825
11	0xbd20aaaa	-0.039225258
12	0xbd6117f7	-0.054954495
13	0x3cffdb27	0.03123243
14	0x3d06a3dc	0.032871112
15	0x3d02f95a	0.03197608
16	0xbd99aa4a	-0.07503183
17	0xbd9b8c37	-0.07595103
18	0x3da7078b	0.081557356
19	0xbd9a0e5e	-0.075222716
20	0x3d9f75f2	0.07786168
21	0xbd98482d	-0.074356414
22	0xbd95313b	-0.072847806
23	0x3da7640c	0.08173379
24	0x3da08a40	0.07838869
25	0xbd97bc3a	-0.07408948
26	0x3da6d906	0.08146863
27	0x3da0bde1	0.078487165
28	0x3da621c4	0.08111909
29	0xbd961c0f	-0.073295705
30	0xbd9a8241	-0.07544375
31	0xbd9b439e	-0.07581256
32	0xbd7f5782	-0.062339313
33	0xbd833686	-0.06406884
34	0x3d8752c1	0.06607581
35	0xbd8a3a7e	-0.06749438
36	0x3d7d8609	0.061895404
37	0xbd775f59	-0.060393665
38	0xbd7c5cfe	-0.06161212
39	0x3d973f3d	0.073851086
40	0x3d88e60d	0.06684504
41	0xbd7b6311	-0.061373774
42	0x3d833a98	0.0640766
43	0x3d80527a	0.06265731
44	0x3d95bda1	0.073115595
45	0xbd7f23f6	-0.062290154
46	0xbd7fb03f	-0.06242394
47	0xbd80d7c8	-0.06291157
48	0xbd1cf755	-0.03832181
49	0xbd23cc1f	-0.039989587
50	0x3d377ad2	0.044794865
51	0xbd488bed	-0.04896157
52	0x3d2447d0	0.04010755
53	0xbd1e8076	-0.03869673
54	0xbd1f29a0	-0.038858056
55	0x3d631a04	0.055444732
56	0x3d3df0d3	0.046372246
57	0xbd224e88	-0.039625674
58	0x3d3b2761	0.04569185
59	0x3d2bcb2a	0.0419418
60	0x3d704e39	0.05866835
61	0xbd2ac909	-0.04169563
62	0xbd2c01bc	-0.04199384
63	0xbd1e8737	-0.03870317
64	0xbd7fd699	-0.062460516
65	0xbd80f31a	-0.06296368
66	0x3d89a962	0.0672176
67	0xbd81f7d6	-0.06346099
68	0x3d872865	0.065995015
69	0xbd7fd997	-0.06246337
70	0xbd79bc85	-0.0609708
71	0x3d8da6c9	0.06916577
72	0x3d8cf297	0.06882208
73	0xbd7c5e99	-0.061613653
74	0x3d8ac8dd	0.06776593
75	0x3d895597	0.06705778
76	0x3d9467fd	0.07246397
77	0xbd7cae48	-0.061689645
78	0xbd7eb9b3	-0.062188815
79	0xbd7f16ea	-0.062277712
80	0x3d17df57	0.037078228
81	0x3d1e50fd	0.038651455
82	0xbd3b7fd7	-0.045776214
83	0x3d2f8de1	0.042859916
84	0xbd3a46b7	-0.045477595
85	0x3d125575	0.03572603
86	0x3d1c68be	0.038185827
87	0xbd5e2816	-0.054237448
88	0xbd35bbd4	-0.04436858
89	0x3d179afc	0.03701304
90	0xbd47b710	-0.048758566
91	0xbd358789	-0.04431871
92	0xbd6be82e	-0.05759447
93	0x3d202fb6	0.039108
94	0x3d21c5a9	0.039495144
95	0x3d19055d	0.03735863
96	0x3d58a47e	0.052891247
97	0x3d5de59c	0.05417405
98	0xbd7b831a	-0.061404325
99	0x3d6d7748	0.057975084
100	0xbd7c27da	-0.061561443
101	0x3d4bda9e	0.049769036
102	0x3d536809	0.051612888
103	0xbd870806	-0.06593327
104	0xbd7fbd25	-0.06243624
105	0x3d5bfee2	0.053709872
106	0xbd75e038	-0.060028285
107	0xbd7b823d	-0.0614035
108	0xbd89b703	-0.0672436
109	0x3d54e5ec	0.051977083
110	0x3d58742b	0.05284516
111	0x3d5b3414	0.053516462
112	0x3d1a2b5d	0.03763901
113	0x3d171ad6	0.036890827
114	0xbd41efaf	-0.04734772
115	0x3d2ec276	0.04266592
116	0xbd3c0674	-0.04590459
117	0x3d14d60a	0.036336936
118	0x3d1745b2	0.0369317
119	0xbd60c367	-0.05487385
120	0xbd4a65ab	-0.049413364
121	0x3d20f0ca	0.039292134
122	0xbd416571	-0.047215883
123	0xbd3ed9a2	-0.04659427
124	0xbd6a3801	-0.057182316
125	0x3d1d817a	0.038453557
126	0x3d1d3e30	0.038389385
127	0x3d1c8e12	0.038221426
128	0xbd8385dd	-0.06422017
129	0xbd86a35b	-0.06574126
130	0x3d8ec83e	0.06971787
131	0xbd8ad9aa	-0.067797974
132	0x3d8b9e53	0.06817307
133	0xbd80e241	-0.062931545
134	0xbd83f062	-0.06442334
135	0x3d9bf658	0.07615346
136	0x3d8f3370	0.06992233
137	0xbd876f65	-0.06613044
138	0x3d909c90	0.07061112
139	0x3d8ae369	0.06781656
140	0x3d9feea6	0.078091905
141	0xbd82d406	-0.063880965
142	0xbd8546b2	-0.06507625
143	0xbd82bf9c	-0.06384203
144	0xbd62993d	-0.05532192
145	0xbd6e1a6a	-0.05813066
146	0x3d74eb59	0.059794758
147	0xbd7c4dae	-0.06159752
148	0x3d697616	0.05699738
149	0xbd6365af	-0.055516895
150	0xbd5c4e31	-0.053785507
151	0x3d8a8115	0.06762902
152	0x3d75fc7b	0.060055237
153	0xbd637ffe	-0.055541985
154	0x3d798501	0.060917858
155	0x3d6ddbf7	0.058071103
156	0x3d8a1f82	0.06744291
157	0xbd613fc3	-0.05499245
158	0xbd6645a5	-0.056218762
159	0xbd5b7a60	-0.053583503
160	0xbd7bfd69	-0.061520968
161	0xbd77e217	-0.06051835
162	0x3d853b8a	0.06505497
163	0xbd83496e	-0.0641049
164	0x3d814e71	0.0631379
165	0xbd7bb298	-0.061449617
166	0xbd7e1608	-0.06203273
167	0x3d8e21da	0.069400504
168	0x3d872b28	0.06600028
169	0xbd7a5c8e	-0.061123423
170	0x3d8b196b	0.067919575
171	0x3d82ba39	0.063831754
172	0x3d95c7ac	0.07313475
173	0xbd7b7cdc	-0.061398372
174	0xbd78cf12	-0.060744353
175	0xbd770420	-0.06030667
176	0x3d48a6ad	0.04898708
177	0x3d3f326c	0.046678945
178	0xbd6473b0	-0.05577439
179	0x3d488027	0.04895034
180	0xbd63fe30	-0.055662334
181	0x3d40c208	0.047060043
182	0x3d43e1d7	0.0478228
183	0xbd74175e	-0.059592597
184	0xbd7001de	-0.05859553
185	0x3d421c08	0.047390014
186	0xbd691854	-0.056907967
187	0xbd65c5cb	-0.056096833
188	0xbd83985b	-0.06425544
189	0x3d415d5f	0.047208186
190	0x3d40318a	0.046922244
191	0x3d445b4f	0.04793864
192	0xbd65b4cd	-0.05608063
193	0xbd696c0e	-0.056987815
194	0x3d7a78ff	0.061150547
195	0xbd7771e0	-0.060411334
196	0x3d6947b8	0.056953162
197	0xbd5a3892	-0.053276606
198	0xbd5d0777	-0.053962197
199	0x3d877776	0.06614582
200	0x3d74f030	0.059799373
201	0xbd623e46	-0.05523517
202	0x3d7ac122	0.061219342
203	0x3d6c9e5a	0.057768203
204	0x3d895e0f	0.067073934
205	0xbd6492ec	-0.055804178
206	0xbd649fbe	-0.055816405
207	0xbd633a92	-0.05547578
208	0xbd4444ad	-0.047917057
209	0xbd4e9a56	-0.050440155
210	0x3d572c60	0.052532554
211	0xbd5fae11	-0.054609362
212	0x3d4caf96	0.04997214
213	0xbd3a9a14	-0.045557097
214	0xbd4450c6	-0.047928594
215	0x3d812e3d	0.063076474
216	0x3d599eab	0.053129833
217	0xbd424da5	-0.04743733
218	0x3d4eed34	0.050519183
219	0x3d4c1e53	0.049833607
220	0x3d832233	0.06403007
221	0xbd423a8b	-0.047419112
222	0xbd50c12a	-0.050965466
223	0xbd3f6a78	-0.046732396
224	0xbd709ff4	-0.058746293
225	0xbd807a51	-0.0627333
226	0x3d8376bf	0.064191334
227	0xbd81e616	-0.063427135
228	0x3d7d41f2	0.06183047
229	0xbd73ac76	-0.059490643
230	0xbd79a9e3	-0.060953032
231	0x3d927ea2	0.071530595
232	0x3d85675b	0.06513854
233	0xbd72ba08	-0.059259444
234	0x3d858866	0.065201566
235	0x3d7cd30d	0.06172471
236	0x3d93ce58	0.07217091
237	0xbd7a170e	-0.061057143
238	0xbd7a370c	-0.061087653
239	0xbd775a3f	-0.0603888
240	0x3d5415e9	0.051778708
241	0x3d574a80	0.052561283
242	0xbd80d5b2	-0.06290759
243	0x3d6efb5c	0.058345184
244	0xbd818f18	-0.06326121
245	0x3d5fc2cd	0.054629136
246	0x3d55f2ed	0.052233625
247	0xbd87e855	-0.06636111
248	0xbd885169	-0.06656153
249	0x3d5684e2	0.05237282
250	0xbd825960	-0.06364703
251	0xbd7d02fe	-0.06177043
252	0xbd8bc60e	-0.06824885
253	0x3d5a6b18	0.05332479
254	0x3d55ed10	0.052228034
255	0x3d586636	0.05283185

layers.0.egnn.coors_mlp.0.bias f4 [64]
0	0x3dbb17d9	0.09135408
1	0xbd8cce93	-0.068753384
2	0xbe5be397	-0.21473537
3	0xbe0068f0	-0.1254003
4	0xbd814876	-0.06312649
5	0x3ded5c52	0.11589874
6	0x3e511597	0.20418392
7	0x3db060b8	0.08612198
8	0xbdb212e5	-0.0869501
9	0xbe1c5ab5	-0.15268977
10	0xbe0c31ca	-0.13690868
11	0x3e256bb4	0.16154367
12	0xbe571811	-0.21005274
13	0xbe52cd3f	-0.20586108
14	0xbe29be7d	-0.16576572
15	0x3db5d47e	0.0887842
16	0x3dec927d	0.11551378
17	0xbd73307c	-0.05937241
18	0xbd91514b	-0.070955835
19	0xbe8e9461	-0.2784758
20	0x3e0c26bb	0.1368665
21	0x3d74fd46	0.059811853
22	0x3e831aaa	0.2560628
23	0xbe811f53	-0.2521921
24	0xbe3a6b37	-0.18204962
25	0x3e5fdd60	0.21861792
26	0xbe4c036c	-0.1992318
27	0x3d5e1087	0.05421498
28	0x3d970301	0.0737362
29	0xbe2afbfb	-0.16697685
30	0x3e674fe5	0.22589071
31	0x3e19009b	0.14941637
32	0xbe1b9f96	-0.15197596
33	0x3e3b6617	0.18300663
34	0x3e2c9b7b	0.16856186
35	0x3e86dec5	0.26341835
36	0x3dbcad5a	0.09212752
37	0xbd92dfa5	-0.07171563
38	0xbe3bcc41	-0.18339635
39	0xbe871958	-0.26386523
40	0xbe8c48ee	-0.2739939
41	0xbdc10473	-0.09424677
42	0xbe230eca	-0.1592361
43	0x3e42b70f	0.19015144
44	0xbe80d004	-0.25158703
45	0xbddff954	-0.109362274
46	0xbdb619ea	-0.088916615
47	0xbe64ffa9	-0.22363152
48	0x3e26f270	0.1630342
49	0xbde5569f	-0.11198162
50	0xbe8c50eb	-0.27405486
51	0xbe12c271	-0.14331986
52	0x3e80e544	0.25174916
53	0xbe24fe47	-0.16112624
54	0x3e2fe666	0.17177734
55	0xbe30f8fa	-0.17282477
56	0x3e545aec	0.20737809
57	0xbe8e8d37	-0.27842113
58	0xbe92e5e1	-0.2869101
59	0x3e5f34c4	0.21797472
60	0xbda377b8	-0.07981819
61	0xbe63bff5	-0.22241195
62	0x3e79580f	0.24349998
63	0xbd81b3bb	-0.06333109

layers.0.egnn.coors_mlp.3.weight f4 [1, 64]
0	0xbc99ed46	-0.018789899
1	0x3d8ce3e1	0.06879402
2	0x3caad543	0.020853644
3	0x3c8d115e	0.017220195
4	0x3d7a462e	0.061102085
5	0xbc9fbd44	-0.019499429
6	0xbcba06f5	-0.022708395
7	0xbcbc1cd3	-0.022962963
8	0x3d23f018	0.040023893
9	0x3ca9d715	0.020732442
10	0x3cc89257	0.024483843
11	0xbcad415d	-0.021149332
12	0x3c98e924	0.018665858
13	0x3c8ae49b	0.01695471
14	0x3cb40b15	0.02197794
15	0xbd1e2b50	-0.038615525
16	0xbce1b690	-0.027552873
17	0x3d1a0a93	0.03760774
18	0x3d83a95b	0.06428786
19	0x3c9068be	0.01762807
20	0xbc8ad874	-0.016948916
21	0xbd2e2b23	-0.042521607
22	0xbc7ff0d5	-0.015621384
23	0x3c9284a3	0.017885512
24	0x3c9fa00a	0.019485492
25	0xbc609225	-0.013706719
26	0x3c83662b	0.016039928
27	0xbd1c4b3f	-0.038157698
28	0xbcdacdd5	-0.026709476
29	0x3c8e114b	0.01734223
30	0xbc74d062	-0.01494226
31	0xbcb487a8	-0.022037342
32	0x3c91b6d9	0.017787384
33	0xbcc0f510	-0.023554355
34	0xbc5940ff	-0.013260125
35	0xbcac531f	-0.021035729
36	0xbcb2a51b	-0.021807244
37	0x3d912f03	0.07089045
38	0x3c97821e	0.018494662
39	0x3c861622	0.016367976
40	0x3c8d04b4	0.017214157
41	0x3d0fc62a	0.035101093
42	0x3cae39ab	0.021267733
43	0xbca1b8a9	-0.019741373
44	0x3c6c4643	0.014421049
45	0x3ce1a174	0.027542807
46	0x3ce5843d	0.028017158
47	0x3c93bb49	0.01803364
48	0xbc86bbff	-0.016447065
49	0x3cebfdd2	0.028807554
50	0x3c85d5bf	0.016337274
51	0x3cc54c1b	0.024084141
52	0xbc7861c8	-0.015160032
53	0x3c9a4879	0.018833386
54	0xbcc6ff23	-0.02429158
55	0x3c933dfc	0.017973892
56	0xbcb916b2	-0.02259383
57	0x3c8a0c9b	0.016851714
58	0x3ca0786f	0.019588677
59	0xbc9ae068	-0.018905833
60	0x3cac1969	0.02100821
61	0x3c80c4ee	0.015718903
62	0xbc9fadbf	-0.019492028
63	0x3d302918	0.04300794

layers.0.egnn.vel_mlp.0.weight f4 [16, 4]
0	0xbacd05e8	-0.0015642019
1	0xbaa4a527	-0.0012561426
2	0x3ab3a1ef	0.0013704876
3	0x3aa35abc	0.0012462954
4	0xbaaaa84e	-0.0013020129
5	0xbb11fdd7	-0.0022276544
6	0x3b11ef28	0.0022267792
7	0x3b3e6f7c	0.002905815
8	0xbac800b9	-0.0015259004
9	0x382ed697	4.1684685e-05
10	0x3a85a59f	0.0010196454
11	0x3b220f5b	0.002472839
12	0xb9cadf78	-0.0003869494
13	0x3a405f37	0.0007338407
14	0xbb0a70db	-0.0021124396
15	0xba0caa2d	-0.00053659343
16	0x3a89568c	0.0010478063
17	0x3a6e4168	0.0009088726
18	0x3ac6a41e	0.0015155112
19	0x3aa8efca	0.0012888846
20	0x3a282ffd	0.0006415842
21	0x39447699	0.00018736198
22	0x3a6e1a51	0.0009082901
23	0x3ad1160c	0.0015952005
24	0x393f42d1	0.0001824007
25	0x3ab7d893	0.0014026336
26	0x3ade3148	0.0016951943
27	0x3a7cb87f	0.0009640529
28	0xb98d491d	-0.0002694809
29	0xb958cfac	-0.00020676729
30	0xbac3e106	-0.0014944382
31	0x39df8e01	0.00042639676
32	0xba325ef1	-0.00068043085
33	0xba5e35cd	-0.0008476645
34	0xba3914b7	-0.00070602767
35	0xb9c2cedc	-0.00037156686
36	0x387eecea	6.0778963e-05
37	0xb999e7c9	-0.00029355127
38	0x3acc8daf	0.001560619
39	0xba2170a6	-0.00061584485
40	0xbaf8acc1	-0.0018972383
41	0x392be58a	0.00016393341
42	0xb9ca8e01	-0.00038634244
43	0x3aceaff7	0.0015768994
44	0xba11fec4	-0.0005569274
45	0x3a4ec754	0.00078879786
46	0x39a5b28a	0.00031604274
47	0x3ad56357	0.0016280216
48	0x3969da40	0.00022301916
49	0x3a9aad51	0.001180092
50	0x3847f6d7	4.7675185e-05
51	0x3a5c39e3	0.000840096
52	0xb9c2584f	-0.00037068359
53	0x3a6c4583	0.00090130436
54	0xba2736b4	-0.0006378696
55	0x3a699897	0.0008910982
56	0xba37bece	-0.0007009328
57	0xba6097ff	-0.0008567571
58	0x3ad91261	0.0016561263
59	0x39d6a509	0.00040940222
60	0x3889d98e	6.573192e-05
61	0xba0d8fca	-0.00054001494
62	0xbb1d304b	-0.0023985084
63	0xba45cf2f	-0.00075458264

layers.0.egnn.vel_mlp.0.bias f4 [16]
0	0x3de43aab	0.111440025
1	0xbe806a76	-0.25081223
2	0xbe7f5244	-0.24933726
3	0x3ec13911	0.3773885
4	0x3e9c01d9	0.3047016
5	0xbdb96bdb	-0.09053775
6	0xbe69fe66	-0.22850952
7	0xbec12fa1	-0.3773165
8	0xbcbad3ce	-0.022806074
9	0x3e9bd07a	0.30432492
10	0x3e671be9	0.2256924
11	0x3da2ce0e	0.07949458
12	0x3d5977e7	0.053092863
13	0x3d53b4fc	0.051686272
14	0xbe0c071c	-0.13674587
15	0x3dd53d7e	0.10412119

layers.0.egnn.vel_mlp.3.weight f4 [1, 16]
0	0xb774e303	-1.4596389e-05
1	0x3a8e2dc4	0.001084738
2	0x398c08e2	0.000267095
3	0xb9ebf223	-0.000450031
4	0x399a7e34	0.00029467198
5	0x3a44ed0e	0.00075121305
6	0x3a153f67	0.00056933466
7	0xb8a1a901	-7.708558e-05
8	0xb8265c8b	-3.966367e-05
9	0x38fc62f6	0.00012034729
10	0xb71585b0	-8.912219e-06
11	0x36aef462	5.214054e-06
12	0xb66eff1f	-3.5613264e-06
13	0xb92841ab	-0.00016046192
14	0x392c6aa3	0.00016442924
15	0xba8e711a	-0.0010867447

layers.1.egnn.edge_mlp.0.weight f4 [20, 10]
0	0xbd5b12af	-0.053484615
1	0x3d69a822	0.05704511
2	0xbd5b9ab0	-0.05361432
3	0xbd558b5b	-0.052134853
4	0xbd5bdca8	-0.05367723
5	0x3d6ed56d	0.058309007
6	0xbd5bea51	-0.05369026
7	0xbd5ad2d8	-0.053423733
8	0xbd1457b1	-0.03621644
9	0xbd4c364f	-0.04985648
10	0xbd5c0529	-0.05371586
11	0x3d66a34d	0.05630808
12	0xbd5ae56a	-0.053441443
13	0xbd55ceb2	-0.052199073
14	0xbd5a4381	-0.053287033
15	0x3d6e787f	0.058220383
16	0xbd616439	-0.05502722
17	0xbd65100f	-0.055923518
18	0xbd1fed77	-0.039044823
19	0xbd4c2bfa	-0.049846627
20	0x3d6d4c1f	0.057933923
21	0xbd77c773	-0.060492944
22	0x3d69ba27	0.057062294
23	0x3d6a2a92	0.057169504
24	0x3d676645	0.056494016
25	0xbd7068bf	-0.058693644
26	0x3d6cd70f	0.057822283
27	0x3d6f1e05	0.05837824
28	0x3d1fc75c	0.039008483
29	0x3d5eec13	0.054424357
30	0x3d690b24	0.05689539
31	0xbd6e0eda	-0.058119632
32	0x3d615ec7	0.055022027
33	0x3d655b9e	0.055995576
34	0x3d6b94b6	0.05751487
35	0xbd79360a	-0.06084255
36	0x3d682e95	0.05668505
37	0x3d6dc193	0.058045935
38	0x3d1c04a7	0.038090374
39	0x3d57c44a	0.05267743
40	0x3d631793	0.055442404
41	0xbd743eb0	-0.059630096
42	0x3d67d675	0.056601007
43	0x3d622c8d	0.05521827
44	0x3d64f51a	0.05589781
45	0xbd791076	-0.060806714
46	0x3d6a622c	0.05722253
47	0x3d666c36	0.05625554
48	0x3d1b72ec	0.037951395
49	0x3d527118	0.051377386
50	0xbd5bf3db	-0.053699356
51	0x3d6b4bcc	0.057445332
52	0xbd64c258	-0.055849403
53	0xbd59e53f	-0.05319714
54	0xbd616530	-0.05502814
55	0x3d74bf89	0.059752975
56	0xbd5dc20d	-0.05414014
57	0xbd64c6cb	-0.055853646
58	0xbd19aab4	-0.03751631
59	0xbd504f0a	-0.050856628
60	0x3d660ac2	0.056162603
61	0xbd73c91f	-0.059517976
62	0x3d64f79b	0.055900197
63	0x3d5a567f	0.053305145
64	0x3d659933	0.056054305
65	0xbd77fbee	-0.060542993
66	0x3d66cfcb	0.05635051
67	0x3d6200dc	0.0551766
68	0x3d127778	0.035758466
69	0x3d5b6402	0.05356217
70	0xbd5c8cef	-0.053845342
71	0x3d5ea62b	0.05435769
72	0xbd5dd86a	-0.054161467
73	0xbd542762	-0.05179537
74	0xbd519b86	-0.05117371
75	0x3d6603b6	0.056155883
76	0xbd63ac4a	-0.05558423
77	0xbd58096b	-0.052743357
78	0xbd1c7156	-0.038194023
79	0xbd4df5b8	-0.050283164
80	0xbd5f0f65	-0.05445804
81	0x3d6e6ec5	0.058211107
82	0xbd5d0654	-0.053961113
83	0xbd616eb0	-0.0550372
84	0xbd64b63f	-0.055837866
85	0x3d646d06	0.055768035
86	0xbd5f3bae	-0.054500274
87	0xbd52e4b2	-0.051487632
88	0xbd1bf162	-0.038071997
89	0xbd529bf6	-0.051418267
90	0x3d622650	0.05521232
91	0xbd77110a	-0.060318984
92	0x3d681a7e	0.05666589
93	0x3d59d0c0	0.053177595
94	0x3d68a719	0.05679998
95	0xbd7775ca	-0.060415067
96	0x3d737b4a	0.05944375
97	0x3d62d5f4	0.055379823
98	0x3d1f96c9	0.03896216
99	0x3d5cdcf8	0.05392167
100	0xbd5d3bbb	-0.05401204
101	0x3d68846c	0.056766912
102	0xbd625251	-0.055254284
103	0xbd5c9720	-0.05385506
104	0xbd6618f8	-0.056176156
105	0x3d74c369	0.05975667
106	0xbd6822cc	-0.05667381
107	0xbd5c16d7	-0.05373272
108	0xbd181db7	-0.037137713
109	0xbd577ee8	-0.05261126
110	0x3d6c2080	0.057648182
111	0xbd7637df	-0.060111877
112	0x3d661723	0.05617441
113	0x3d62b237	0.05534574
114	0x3d6ce217	0.057832804
115	0xbd7a7e9d	-0.061155904
116	0x3d6ad0d1	0.05732805
117	0x3d66d80c	0.056358382
118	0x3d2484ec	0.040165827
119	0x3d5d6aca	0.05405692
120	0xbd55050d	-0.05200677
121	0x3d73dd43	0.059537183
122	0xbd5dd6f2	-0.054160066
123	0xbd543539	-0.05180857
124	0xbd5a8d7e	-0.053357594
125	0x3d70259b	0.058629613
126	0xbd5d43c8	-0.05401972
127	0xbd5d2819	-0.05399332
128	0xbd1c0c0c	-0.038097426
129	0xbd4d92a1	-0.050188664
130	0xbd5e6904	-0.05429937
131	0x3d6c9621	0.05776036
132	0xbd673e57	-0.056455936
133	0xbd5a944d	-0.053364087
134	0xbd6277b0	-0.055289924
135	0x3d6c80e9	0.057740126
136	0xbd6c3f1c	-0.057677373
137	0xbd609bf2	-0.05483622
138	0xbd0da7f1	-0.03458399
139	0xbd55d1d0	-0.052202046
140	0x3d6877af	0.056754764
141	0xbd73a3b2	-0.059482284
142	0x3d6cb0ed	0.057785917
143	0x3d65ce20	0.05610478
144	0x3d6ec039	0.058288787
145	0xbd79e7e7	-0.061012175
146	0x3d683090	0.056686938
147	0x3d6810d0	0.05665666
148	0x3d1b650c	0.037938163
149	0x3d5aebac	0.05344741
150	0xbd5c24e4	-0.05374612
151	0x3d724a40	0.05915284
152	0xbd59fbda	-0.0532187
153	0xbd5bf4f2	-0.053700395
154	0xbd5627a2	-0.05228389
155	0x3d67ff9b	0.05664025
156	0xbd6419a6	-0.055688523
157	0xbd588453	-0.05286057
158	0xbd144143	-0.03619505
159	0xbd484606	-0.048894905
160	0xbd5b30af	-0.053513225
161	0x3d6e8f8f	0.058242377
162	0xbd5f0c2a	-0.05445496
163	0xbd534ff0	-0.051589906
164	0xbd5ec9b5	-0.05439158
165	0x3d6b8165	0.057496447
166	0xbd5c82be	-0.053835623
167	0xbd5b595c	-0.053552017
168	0xbd138858	-0.0360187
169	0xbd47ae5c	-0.048750266
170	0x3d6f7928	0.058465153
171	0xbd736cce	-0.059429936
172	0x3d678cfd	0.05653094
173	0x3d68a82c	0.056801006
174	0x3d65b667	0.056082156
175	0xbd793dd4	-0.06084998
176	0x3d6dc2cf	0.058047112
177	0x3d6f7ea4	0.058470383
178	0x3d259993	0.040429663
179	0x3d571891	0.052513663
180	0x3d60f699	0.054922674
181	0xbd7601f7	-0.060060468
182	0x3d6a66f0	0.057227075
183	0x3d5fcb23	0.054637086
184	0x3d6cc60d	0.057806063
185	0xbd7aa4bd	-0.061192263
186	0x3d67d40b	0.056598704
187	0x3d67b9eb	0.05657379
188	0x3d1defec	0.038558885
189	0x3d5ab801	0.053398136
190	0xbd5e942e	-0.054340534
191	0x3d6ddbcb	0.05807094
192	0xbd64d51b	-0.055867296
193	0xbd5f2bda	-0.05448518
194	0xbd6003c2	-0.054691084
195	0x3d6e6db2	0.058210082
196	0xbd614ec2	-0.05500675
197	0xbd6794e7	-0.05653849
198	0xbd1da4f8	-0.038487405
199	0xbd4e660b	-0.050390285

layers.1.egnn.edge_mlp.0.bias f4 [20]
0	0xbdc22cf9	-0.09481234
1	0xbe688314	-0.22706252
2	0x3e5525e6	0.20815238
3	0x3eacd209	0.33753994
4	0x3ebb0868	0.3652985
5	0xbd690b93	-0.056895804
6	0x3e74249e	0.23842093
7	0xbeb2165e	-0.3478269
8	0xbe7800e0	-0.24219084
9	0x3eb4d60f	0.35319564
10	0xbdb37e2b	-0.08764299
11	0x3ea752bf	0.32680318
12	0xbe88c177	-0.26710102
13	0xbddbfae4	-0.10741213
14	0x3e613f71	0.21996857
15	0xbeb1e8f6	-0.34748048
16	0xbe52aa6f	-0.20572828
17	0x3e6db8da	0.23215047
18	0x3ea6ed13	0.32602748
19	0xbe024f6f	-0.12725614

layers.1.egnn.edge_mlp.3.weight f4 [16, 20]
0	0x3d3cdb1a	0.04610739
1	0x3d31214d	0.04324465
2	0xbd38b32c	-0.045092747
3	0xbd37301d	-0.04472362
4	0xbd2a5a1b	-0.041589838
5	0x3d43b02a	0.047775425
6	0xbd39fd44	-0.04540755
7	0x3d27f4ad	0.041004825
8	0x3d2f7157	0.0428327
9	0xbd34fbf2	-0.044185586
10	0x3d3aceb9	0.045607302
11	0xbd314eb4	-0.043287948
12	0x3d339570	0.043843687
13	0x3d401bf9	0.046901677
14	0xbd3dc60a	-0.046331443
15	0x3d2fff28	0.042967945
16	0x3d2d854b	0.042363446
17	0xbd3e240f	-0.046421107
18	0xbd2e8f6c	-0.042617247
19	0x3d3a5a19	0.04549608
20	0xbd4cedac	-0.05003135
21	0xbd4713ac	-0.048602745
22	0x3d49ef2e	0.049300365
23	0x3d3ebb25	0.046565194
24	0x3d40e52b	0.04709355
25	0xbd501576	-0.050801717
26	0x3d49726b	0.049181383
27	0xbd39fc19	-0.045406435
28	0xbd3e593a	-0.04647181
29	0x3d472d83	0.048627388
30	0xbd4c6166	-0.049897574
31	0x3d443364	0.047900572
32	0xbd3c861d	-0.046026338
33	0xbd470dca	-0.048597135
34	0x3d3dd9b9	0.046350215
35	0xbd3bfbe6	-0.045894526
36	0xbd423ab4	-0.047419265
37	0x3d440946	0.047860406
38	0x3d43e5ab	0.04782645
39	0xbd46b8f3	-0.048516225
40	0xbd47bf31	-0.04876632
41	0xbd36f3d6	-0.044666134
42	0x3d42facd	0.047602464
43	0x3d38c21e	0.045107
44	0x3d3880c2	0.045044668
45	0xbd4eaa7b	-0.05045555
46	0x3d4a3ad3	0.049372505
47	0xbd40e24b	-0.04709081
48	0xbd3a794f	-0.045525845
49	0x3d40f7b0	0.047111213
50	0xbd46923f	-0.048479315
51	0x3d3b1e22	0.045683034
52	0xbd39c612	-0.04535491
53	0xbd4b224f	-0.049593266
54	0x3d3e4574	0.046452954
55	0xbd384dc5	-0.04499604
56	0xbd46da27	-0.04854789
57	0x3d3ae93e	0.045632593
58	0x3d3e9088	0.046524554
59	0xbd464801	-0.048408512
60	0xbd497800	-0.049186707
61	0xbd3f7a94	-0.04674776
62	0x3d48da97	0.04903659
63	0x3d3d8c2a	0.04627625
64	0x3d42b47c	0.047535405
65	0xbd4b6855	-0.049660046
66	0x3d3fd868	0.04683724
67	0xbd3bd648	-0.04585865
68	0xbd3fe345	-0.0468476
69	0x3d42a6f7	0.04752251
70	0xbd452ea5	-0.048140187
71	0x3d443851	0.04790527
72	0xbd3b5ad2	-0.04574091
73	0xbd43165f	-0.047628757
74	0x3d406aef	0.04697698
75	0xbd356a60	-0.0442909
76	0xbd3aa8fa	-0.045571305
77	0x3d4386bc	0.047735915
78	0x3d3ed6a4	0.046591416
79	0xbd441080	-0.047867298
80	0x3d32bacd	0.04363518
81	0x3d2f69f8	0.04282567
82	0xbd3bf58f	-0.04588848
83	0xbd2f8f64	-0.042861357
84	0xbd31be58	-0.043394417
85	0x3d407908	0.046990424
86	0xbd36ecbf	-0.044659372
87	0x3d2c24de	0.042027347
88	0x3d31f606	0.043447517
89	0xbd2ce64e	-0.042211823
90	0x3d3c1fd8	0.045928806
91	0xbd359fa1	-0.044341687
92	0x3d32a8ba	0.04361794
93	0x3d3bb159	0.04582343
94	0xbd34d322	-0.044146664
95	0x3d2a1673	0.041525315
96	0x3d338966	0.043832205
97	0xbd363f51	-0.044493977
98	0xbd30fcaf	-0.043209728
99	0x3d32bd20	0.043637395
100	0x3d2ce9e5	0.042215247
101	0x3d297672	0.041372724
102	0xbd3526ea	-0.044226564
103	0xbd31832d	-0.04333799
104	0xbd34204d	-0.043976117
105	0x3d3f5ee1	0.046721343
106	0xbd365bc3	-0.044521105
107	0x3d263c91	0.040585104
108	0x3d24e6b2	0.04025907
109	0xbd2cd753	-0.042197537
110	0x3d34d302	0.044146545
111	0xbd321f55	-0.04348691
112	0x3d2dc23f	0.042421576
113	0x3d35ff45	0.044432897
114	0xbd3006fc	-0.04297541
115	0x3d31090e	0.043221526
116	0x3d2f0988	0.0427337
117	0xbd2e9217	-0.04261979
118	0xbd31dcca	-0.04342345
119	0x3d2f5986	0.042809986
120	0xbd435f3c	-0.047698244
121	0xbd41c6cd	-0.04730873
122	0x3d45c95f	0.048287746
123	0x3d4990e3	0.04921044
124	0x3d42b230	0.047533214
125	0xbd47b8b1	-0.04876012
126	0x3d4287fe	0.047492974
127	0xbd3c99f1	-0.046045247
128	0xbd41ecee	-0.047345094
129	0x3d3b7810	0.045768797
130	0xbd433f3a	-0.04766772
131	0x3d3e5116	0.04646405
132	0xbd41defd	-0.0473318
133	0xbd46fb4d	-0.048579503
134	0x3d46e291	0.048555914
135	0xbd3babe6	-0.045818232
136	0xbd3e71cf	-0.046495255
137	0x3d47e006	0.04879763
138	0x3d416b9d	0.04722177
139	0xbd49666b	-0.04916994
140	0x3d3f0423	0.046634804
141	0x3d321ff5	0.043487508
142	0xbd3216b1	-0.04347867
143	0xbd3ab245	-0.045580167
144	0xbd3c78fd	-0.04601382
145	0x3d3e84a8	0.04651323
146	0xbd38f621	-0.0451566
147	0x3d324530	0.043523014
148	0x3d324165	0.043519396
149	0xbd3a8a56	-0.045542084
150	0x3d438a30	0.047739208
151	0xbd305146	-0.04304626
152	0x3d358e36	0.044325076
153	0x3d3eefdb	0.046615463
154	0xbd3d78d1	-0.046257798
155	0x3d2d422b	0.04229943
156	0x3d32eb60	0.043681502
157	0xbd35c2a9	-0.044375096
158	0xbd3780cc	-0.044800565
159	0x3d38a309	0.045077357
160	0x3d3ac801	0.045600895
161	0x3d326586	0.04355385
162	0xbd32ac22	-0.04362119
163	0xbd32df4e	-0.04366999
164	0xbd32518a	-0.043534793
165	0x3d408512	0.047001906
166	0xbd2f9087	-0.04286244
167	0x3d2fda8a	0.042933024
168	0x3d368f0d	0.044570018
169	0xbd38dd1d	-0.045132745
170	0x3d3b6e4f	0.045759495
171	0xbd3004a0	-0.04297316
172	0x3d2ec9a5	0.042672772
173	0x3d391231	0.045183364
174	0xbd3568cb	-0.04428939
175	0x3d25bb47	0.040461805
176	0x3d30fc20	0.043209195
177	0xbd33b757	-0.04387602
178	0xbd3835a9	-0.04497305
179	0x3d3aba0d	0.045587588
180	0x3d302df3	0.04301257
181	0x3d2bdbb7	0.041957583
182	0xbd3469e7	-0.04404631
183	0xbd3217bb	-0.043479662
184	0xbd307f02	-0.043089874
185	0x3d3cb1ba	0.04606793
186	0xbd32feec	-0.043700144
187	0x3d283f77	0.04107615
188	0x3d28bc41	0.041195158
189	0xbd2d696b	-0.042336863
190	0x3d351032	0.0442049
191	0xbd2d47bb	-0.042304736
192	0x3d31fddc	0.04345499
193	0x3d357cb5	0.044308383
194	0xbd373f5c	-0.04473816
195	0x3d1fdaca	0.039027013
196	0x3d2cb23e	0.042162172
197	0xbd24da26	-0.040247105
198	0xbd2f7383	-0.04283477
199	0x3d2cdd0a	0.042202987
200	0xbd4b2f2f	-0.049605545
201	0xbd3826df	-0.044958945
202	0x3d3db566	0.046315573
203	0x3d44755c	0.047963485
204	0x3d3f8064	0.046753302
205	0xbd4df059	-0.05027804
206	0x3d457232	0.04820461
207	0xbd3d110e	-0.046158843
208	0xbd3e2fce	-0.04643231
209	0x3d3cfe12	0.046140738
210	0xbd4e8280	-0.050417423
211	0x3d47880a	0.04871372
212	0xbd3c316c	-0.04594557
213	0xbd47d3b7	-0.04878589
214	0x3d43a870	0.047768056
215	0xbd3c5e03	-0.045988094
216	0xbd437548	-0.04771927
217	0x3d3fff3c	0.04687427
218	0x3d472067	0.048614886
219	0xbd44e718	-0.04807195
220	0x3d2ce965	0.04221477
221	0x3d2e5ecc	0.042570874
222	0xbd2f8f2e	-0.042861156
223	0xbd380a19	-0.044931505
224	0xbd3607cb	-0.044441026
225	0x3d3f3980	0.046685696
226	0xbd35d956	-0.04439672
227	0x3d2a6c4f	0.041607197
228	0x3d345c6a	0.044033445
229	0xbd37a107	-0.044831302
230	0x3d3d2794	0.046180323
231	0xbd3900fd	-0.045166958
232	0x3d2e4aac	0.04255168
233	0x3d3cfe9e	0.04614126
234	0xbd338cae	-0.043835334
235	0x3d2b2ed1	0.041792694
236	0x3d335ff0	0.043792665
237	0xbd3622bb	-0.044466715
238	0xbd330a55	-0.043711025
239	0x3d376721	0.044776086
240	0xbd471d70	-0.04861206
241	0xbd418f24	-0.04725565
242	0x3d424e48	0.047437936
243	0x3d4054d2	0.04695589
244	0x3d412a5f	0.04715955
245	0xbd454f9e	-0.048171632
246	0x3d484df9	0.048902486
247	0xbd37dbe7	-0.04488745
248	0xbd3c54e3	-0.04597939
249	0x3d424768	0.04743138
250	0xbd520151	-0.051270787
251	0x3d443b28	0.04790798
252	0xbd3ccb74	-0.046092466
253	0xbd4769bf	-0.04868483
254	0x3d4901e3	0.049074065
255	0xbd3f5d15	-0.04671963

layers.1.egnn.edge_mlp.3.bias f4 [16]
0	0xbde7b736	-0.113142416
1	0x3da7ba40	0.08189821
2	0x3e19e974	0.15030462
3	0x3e140001	0.14453126
4	0xbe5272e0	-0.20551634
5	0xbddee6fd	-0.10883901
6	0x3d84d81d	0.06486533
7	0xbd741b7e	-0.05959653
8	0xbe042510	-0.12904763
9	0xbe4727d3	-0.19448785
10	0x3df31073	0.11868372
11	0xbe369021	-0.17828418
12	0x3d535a07	0.05159953
13	0x3e19baac	0.15012616
14	0xbe50547f	-0.20344733
15	0xbe0a66ed	-0.13515826
