data/models/model_N70_batch32_lr0.0001_fd4_b0.5.pth (torch, 30922 bytes, 32 tensors)

time_embedding.0.weight f4 [8, 1]
00000000: 6e7e 0e3f c57e 59bf 4785 653e 46af c53e
00000010: 6f6f 11bf 1cc4 523f d032 b3bd 9026 57bf
0.55661666 -0.8495906 0.22414123 0.38610286 -0.5681066 0.8233049 -0.08749926 -0.84043217

time_embedding.0.bias f4 [8]
00000000: 3cc0 bfbe dd82 513f 0d5a 5b3f 3924 7dbe
00000010: f5ab bd3e b845 0c3f d05c 87bd 623e 30bf
-0.3745135 0.81840307 0.8568428 -0.24720849 0.37045255 0.5479388 -0.066094995 -0.6884519

time_embedding.3.weight f4 [4, 8]
00000000: d67f 25be 46c2 d13d 8dc5 e03d 0eb8 f6bc
00000010: 8ad7 b1bc 21a3 90be b694 1abe 6578 22be
00000020: 0329 68be e3ab 8dbd 2bcb 69bc 9483 59bd
00000030: aa1d 953e cbbd 4cbd 3e5f dabd f98f b7bd
00000040: 54ed 4b3c ca0c 7ebd b5bd 51bd 9feb 2a3d
00000050: 3fbe 773d 2b9e 093e 99ac 7b3e b511 123e
00000060: c19b a5be 48e3 e83c 15a1 83bd 30b5 b83c
00000070: b3d9 983e d8cd a7be dfe7 b83d 2db4 943e
-0.16162047 0.10242133 0.1097518 -0.030117061 -0.021709222 -0.28249457 -0.15095791 -0.1586624
-0.22671895 -0.069175504 -0.01426963 -0.053104 0.29124194 -0.04998569 -0.10662697 -0.089630075
0.01244672 -0.062023915 -0.05120631 0.041728612 0.060484167 0.13439243 0.2457756 0.14264567
-0.32345393 0.028428689 -0.06427208 0.022547334 0.2985359 -0.32774234 0.09028601 0.29043713

time_embedding.3.bias f4 [4]
00000000: cfa8 a83e cc45 6a3e 4ce6 b83e f42a a43d
0.3294129 0.22878188 0.36113203 0.08016005

layers.0.egnn.edge_mlp.0.weight f4 [20, 10]
00000000: 73a2 27bb 7ccf a3bc 04ef 043c 44a8 923c
00000010: 7b3d 3ebb a3a1 96bc 8566 723c aefa 883c
00000020: 14dc ecbc 1acc b53d b60e 7bbc 1c5b d53a
00000030: 85c8 eebc b696 123c 6ef3 7cbc 09dd 683b
00000040: 0031 10bd 864c 173c 9f98 acbb 9c29 d3bd
00000050: 364e eabb 561e a1bc 071f 0d3c a1f3 973c
00000060: 1de6 aaba 95f5 abbc 8ec9 503c 1de6 973c
00000070: 2cc8 ebbc 4a01 b83d 2bb2 c3bc b8df ccbb
00000080: 6dc4 20bd 652b 833c 8587 dbbc 1152 8bbb
00000090: a9c8 28bd ef40 863c 108e 0ebd 186c dfbd
000000a0: 4997 9abc 2640 b0ba eda1 0bbd 0c96 503c
000000b0: 9cce a5bc 6525 dbb9 15be 19bd f18a 0b3c
000000c0: 5209 9bbc 1de5 dabd 0108 c0bc ffa2 e6bb
000000d0: bd29 1ebd eb88 6b3c 6144 c8bc 22d5 89bb
000000e0: 1fbd 29bd 26d5 793c 3969 b0bc e20e e2bd
000000f0: 6a5e dfbc ac60 04bc 6fd0 20bd 3d4c 673c
00000100: 3bf7 ebbc b75a 0fbc ee0b 32bd c286 483c
00000110: 9d44 54bd 1262 ddbd 923a bebc b03a 6ebb
00000120: de0c 19bd 3cc7 843c 0d47 bcbc e20a 90bb
00000130: 244e 2bbd 8133 7b3c efbc 72bc 4e4d e2bd
00000140: faae f2bc dfd2 0ebc 7d19 22bd bc1e 713c
00000150: 5988 07bd 20db 0abc 481f 33bd 4136 703c
00000160: 61bf 6ebd 6a41 e3bd 0766 8d3a 54b6 4fbc
00000170: 122f 383c 0b8d 773c 7cb7 293b 1f09 58bc
00000180: 0ed2 7a3c 6298 593c 7761 d3bc dbae b93d
00000190: 1bac 32bd 7dcc e6bc 9868 5dbd 2fd1 dc3c
000001a0: c812 40bd 1c57 d1bc 57d0 6cbd be0e d43c
000001b0: 94f0 8fbd 6837 febd 75ac a8bc 5c53 e5ba
000001c0: 6b07 0cbd 9ac0 1f3c 7306 b9bc 11cc cfba
000001d0: 8e3b 14bd 450b 173c 9ff2 ecbc 6151 d8bd
000001e0: 4d3c e7bc c2c5 21bc c0e5 30bd 9368 a03c
000001f0: 29d4 02bd 8d36 2dbc 9ad4 37bd 3cc2 983c
00000200: a406 13bd 373f e8bd f417 8fbc 93a6 f3b9
00000210: fec5 08bd 2c35 353c 774a 8bbc 7f83 f43a
00000220: 6987 0ebd acc0 123c df11 3cbb 38ab dcbd
00000230: 695f a3bc 31d3 cfba b8aa 13bd 902b 2f3c
00000240: e2f6 a2bc ff75 06bb 2d7f 1fbd 6ce5 433c
00000250: a925 55bc 80ad dcbd 1095 56bd 0a5e 06bd
00000260: 1deb 6fbd cb14 013d 7a91 63bd 0863 0abd
00000270: d1bf 7fbd 30f8 fc3c 657d aebd 13e0 04be
00000280: b28b 4ebb 3293 97bc 03ac 213c 0a0a a13c
00000290: 51b2 73ba 0551 a8bc d62f 703c b33e 943c
000002a0: f4a8 f3bc a608 b23d df9a bfbc beb7 d4bb
000002b0: ec22 21bd f62d 963c 87a0 e0bc d367 c9bb
000002c0: 78c6 2bbd 37e3 873c 2d1f eabc 4006 e0bd
000002d0: 7eae b0ba e7cd 8cbc 5caa 223c ef5a 853c
000002e0: 241f 49ba 9886 93bc a215 563c c078 853c
000002f0: 4cc5 edbc 9344 ba3d 147e f0bc 312e 1cbc
00000300: 6474 26bd a342 7e3c 764f 01bd 7cbc fcbb
00000310: c917 2bbd f309 6c3c 223b 75bd 04bb debd
-0.0025579005 -0.019996397 0.008113626 0.0179025 -0.0029028344 -0.018387621 0.01479495 0.016721096
-0.028913535 0.0887682 -0.015323332 0.0016277763 -0.02914835 0.008947065 -0.015438898 0.0035532138
-0.03520298 0.009234553 -0.0052672173 -0.10310671 -0.0071504368 -0.019667786 0.0086133545 0.018548789
-0.001303855 -0.020991126 0.012743367 0.018542344 -0.028781973 0.08984621 -0.023888668 -0.0062522553
-0.039249826 0.016011903 -0.02679802 -0.0042517264 -0.04120699 0.016388385 -0.03480345 -0.10909289
-0.018870967 -0.0013446852 -0.03408997 0.012731086 -0.02024012 -0.00041798796 -0.037534792 0.008517013
-0.018925343 -0.10688231 -0.023441317 -0.0070384736 -0.038614023 0.0143759055 -0.024446668 -0.0042063156
-0.041440126 0.015248572 -0.02153455 -0.11037995 -0.0272667 -0.008079689 -0.039261278 0.014117298
-0.028804412 -0.008749655 -0.04346841 0.01223916 -0.051823247 -0.10809721 -0.023221288 -0.0036350898
-0.037365787 0.016208284 -0.022983098 -0.0043958286 -0.041822568 0.015332104 -0.014815553 -0.11049901
-0.029624451 -0.008717268 -0.03957509 0.0147168 -0.033089016 -0.008475095 -0.043731004 0.014661373
-0.058287982 -0.11096461 0.0010787853 -0.012677748 0.011241691 0.015109311 0.0025896719 -0.013185768
0.01530887 0.01328096 -0.02580331 0.09066554 -0.043621164 -0.02817368 -0.054054826 0.026955215
-0.04689291 -0.025554232 -0.057815876 0.025885936 -0.070283085 -0.12412912 -0.020590046 -0.0017496157
-0.03418676 0.00975051 -0.022586083 -0.0015853663 -0.03618961 0.009218995 -0.028924285 -0.10562397
-0.028226996 -0.009873809 -0.043187857 0.019581115 -0.031940613 -0.010572088 -0.044880487 0.018647306
-0.035895005 -0.11340182 -0.017467476 -0.0004647268 -0.033391945 0.01106004 -0.017003281 0.0018654912
-0.034797106 0.008957069 -0.0028697175 -0.10774845 -0.019942956 -0.0015855787 -0.036051482 0.010691538
-0.019893114 -0.0020517108 -0.038939644 0.011956554 -0.013009467 -0.1077528 -0.05238825 -0.032804526
-0.05857383 0.03151397 -0.05555866 -0.03378585 -0.06243879 0.030880064 -0.08520011 -0.12976103
-0.003151637 -0.018502805 0.009867671 0.019658107 -0.00092962856 -0.020546446 0.0146598425 0.018096304
-0.029743649 0.08693056 -0.023389278 -0.0064916303 -0.039339945 0.018332463 -0.027420295 -0.00614641
-0.04193732 0.016587837 -0.028579319 -0.10938692 -0.0013479737 -0.017188026 0.009928312 0.016278712
-0.0007672182 -0.018008515 0.013066681 0.01629293 -0.029024743 0.09095111 -0.029356994 -0.009532497
-0.040638342 0.015518817 -0.03156992 -0.007712899 -0.04177073 0.014406669 -0.059870847 -0.10875514

layers.0.egnn.edge_mlp.0.bias f4 [20]
00000000: e182 a13e c40f 95be d0df b13e d996 a3be
00000010: f94b 98be 3ed0 5ebe b1f4 c5be 7415 41be
00000020: 774a bbbe ce63 473e 4bd5 25be 86d3 d3be
00000030: ff8f 62be a8ff 49be e785 7abe 0be8 0bbe
00000040: 30f9 963e 116c 85be 40b5 8e3e 47ae d8be
0.31545165 -0.2911359 0.34741068 -0.31951025 -0.29745463 -0.21759126 -0.38663247 -0.1885584
-0.3658025 0.19471666 -0.16194646 -0.41372317 -0.22125243 -0.19726431 -0.24465142 -0.13662736
0.2948699 -0.2605901 0.27872658 -0.42320463

layers.0.egnn.edge_mlp.3.weight f4 [16, 20]
00000000: 1484 85bd 1571 753d 1a7b 83bd 6844 723d
00000010: 0207 713d ff77 753d a67f 7a3d 4729 773d
00000020: 0b0a 733d 5922 87bd 5579 713d bed4 733d
00000030: 44c1 6e3d 7bd4 783d 3f22 783d 3e01 843d
00000040: 4de5 8cbd 860f 703d d7cf 89bd d4b0 733d
00000050: 8442 863d 69ae 71bd d776 863d d3a5 76bd
00000060: 01cf 70bd 76c1 62bd ece6 7dbd f4da 5fbd
00000070: 9a3a 79bd 5485 783d 458d 60bd b661 74bd
00000080: 6be1 68bd 46e8 6abd 08b4 64bd fba8 5fbd
00000090: aeb5 893d 3998 68bd 929d 873d 5d71 79bd
000000a0: 6291 873d 974a 73bd ee37 883d 4356 76bd
000000b0: 6160 73bd fde2 61bd 1c01 7fbd 32bd 6cbd
000000c0: 32da 7bbd 1e2a 813d 80bb 60bd 945b 80bd
000000d0: 8699 65bd c7ca 6cbd e0f9 6cbd 0e43 66bd
000000e0: 3249 8d3d cb2c 71bd 4dfa 893d 31f3 82bd
000000f0: 41e6 893d 5749 70bd 0bab 843d d114 6fbd
00000100: f896 6ebd f548 69bd 751a 81bd 56cf 69bd
00000110: 514a 76bd 01a9 803d 4ec1 5ebd 3b18 77bd
00000120: bdc9 64bd ff6e 63bd 6c28 71bd dafc 69bd
00000130: e971 893d 242e 6abd 41a5 863d 8834 7fbd
00000140: 18d8 8cbd 4f32 743d 3db6 89bd 4b10 713d
00000150: 4e04 723d b559 763d f356 6f3d fa1e 733d
00000160: 0d23 753d 7eee 87bd 8303 793d 8b50 7a3d
00000170: 29de 743d 6b4a 7d3d 1116 6f3d be7a 813d
00000180: 8e72 90bd 366b 6c3d a7e5 8ebd 6f18 783d
00000190: 4da5 823d a7eb 72bd deaf 853d fb75 6fbd
000001a0: 4614 72bd 6190 57bd a0a9 74bd 9f20 5fbd
000001b0: ac27 72bd 9bd2 743d bff9 55bd e916 6fbd
000001c0: d093 5dbd 2b89 68bd a0ad 63bd 749c 59bd
000001d0: 6159 893d 6366 61bd 80ef 813d 9525 79bd
000001e0: 2f48 8fbd 57c1 7b3d d86e 8bbd 4d52 7d3d
000001f0: b4d3 733d 534a 783d 00d0 783d 86e2 7c3d
00000200: 3aec 773d 5068 86bd 0c28 7a3d e981 793d
00000210: 682b 6f3d f08f 7b3d c71a 7b3d c5d2 803d
00000220: 02dc 8cbd 4e74 7a3d c986 8dbd d241 813d
00000230: 2050 8cbd 11a1 733d 037b 87bd 044f 7a3d
00000240: 0e61 713d 5e5d 713d 3608 783d 023f 7b3d
00000250: b508 773d e4b8 85bd 95cd 713d 79ef 783d
00000260: 4fa8 713d b550 773d c4e8 6f3d 823c 803d
00000270: 14a7 8bbd c60a 743d dc60 88bd 3771 7a3d
00000280: 78f6 833d 50b9 6fbd 12f0 813d 0380 67bd
00000290: 5602 74bd 545b 66bd 5bfb 75bd 4beb 62bd
000002a0: 5b3d 6fbd 7c52 803d 2052 50bd b0c4 77bd
000002b0: 82cd 5ebd 6c22 6dbd fca0 68bd 51e0 60bd
000002c0: 9170 873d 34a8 62bd 7b4b 813d 825b 75bd
000002d0: eda1 873d c938 80bd 35a9 883d 1834 7abd
000002e0: 6994 72bd a97e 6abd a380 82bd 9be2 64bd
000002f0: 362e 81bd e3e1 813d 0818 64bd e39a 84bd
00000300: bdc5 66bd ce8c 74bd 75bc 73bd 3886 67bd
00000310: fac0 8d3d 337f 74bd a3a7 8c3d 46ab 85bd
00000320: ce55 8abd a0ab 7e3d acdf 8bbd c803 703d
00000330: baa0 753d 56dd 7a3d d3c3 7e3d 45cf 773d
00000340: 9758 7e3d b435 88bd eb42 793d 9879 7d3d
00000350: f9b3 733d aeba 7b3d 43f0 743d 6c88 803d
00000360: 105f 8abd 9715 733d f729 8fbd c2a9 793d
00000370: 3235 873d c096 78bd d358 8b3d 60db 79bd
00000380: c03e 72bd 42f2 6bbd 7fe6 7ebd 5b7b 62bd
00000390: c6cd 7abd f540 7e3d f819 64bd 2063 7bbd
000003a0: 1e4a 69bd 0f0b 73bd 1a7b 66bd 0cc9 66bd
000003b0: 1c6b 8a3d 1c07 72bd 7565 8a3d eb5d 82bd
000003c0: 9205 8dbd 02fe 7b3d c860 8abd 43e2 763d
000003d0: ddf4 763d 8f1d 733d a763 7d3d a17b 7a3d
000003e0: 70f7 7f3d 5c01 89bd d5fa 803d 9543 723d
000003f0: d6d0 773d 6df0 7a3d 3825 793d 55fa 813d
-0.065193325 0.059922297 -0.06419964 0.05914727 0.058844574 0.05992889 0.06115689 0.0603421
0.05933575 -0.06598348 0.058953602 0.05952906 0.05828978 0.060749512 0.060579535 0.064455494
-0.06879673 0.058608554 -0.067290954 0.05949481 0.065556556 -0.05900422 0.06565636 -0.060216736
-0.058791164 -0.05536028 -0.061987802 -0.05465217 -0.060846902 0.060674027 -0.054822225 -0.059663497
-0.0568556 -0.05735042 -0.055835754 -0.05460451 0.06724106 -0.056785796 0.06621851 -0.060899127
0.066195264 -0.059397306 0.06651293 -0.06014086 -0.059418086 -0.055148114 -0.062256917 -0.05779762
-0.061487384 0.06306861 -0.054866314 -0.06267467 -0.056054614 -0.05781057 -0.057855487 -0.056216292
0.068987265 -0.05888061 0.06737194 -0.06394041 0.067333706 -0.058663692 0.06477936 -0.05836946
-0.058249444 -0.056954343 -0.063038744 -0.057082497 -0.060129467 0.06282235 -0.05438357 -0.060325842
-0.055856455 -0.055525776 -0.05887644 -0.057125904 0.0671118 -0.05717291 0.065744884 -0.062305957
-0.06877154 0.05961829 -0.06724212 0.05885343 0.059086137 0.060144145 0.05843253 0.059355713
0.05984788 -0.06637286 0.060794365 0.061111968 0.05978218 0.06183855 0.058370654 0.06322239
-0.070530996 0.05771943 -0.069773965 0.060570177 0.06379185 -0.059306767 0.06527685 -0.058462124
-0.059101366 -0.052627925 -0.05973208 -0.05447447 -0.059119865 0.05977116 -0.05224013 -0.05837146
-0.054096043 -0.05677144 -0.055585504 -0.05312772 0.06706501 -0.055029284 0.06344509 -0.060826857
-0.0699619 0.06146368 -0.06808251 0.061846066 0.059528068 0.060617756 0.06074524 0.061739467
0.060528018 -0.06562865 0.061073348 0.060914908 0.058391005 0.061416566 0.061304834 0.06290201
-0.06877901 0.061146073 -0.06910474 0.06311382 -0.0685122 0.059479777 -0.066152595 0.06111051
0.05893045 0.058926933 0.060554706 0.061339386 0.060311038 -0.06529406 0.05903395 0.060775254
0.058998402 0.060379703 0.058571592 0.06261541 -0.06818977 0.059580587 -0.066590995 0.061143126
0.064434946 -0.058526337 0.06344618 -0.056518566 -0.05957254 -0.05623944 -0.060054164 -0.055400174
-0.058408123 0.06265733 -0.05085957 -0.06049031 -0.054395206 -0.057894155 -0.05679415 -0.054901425
0.06613267 -0.055336192 0.06313225 -0.05990172 0.06622682 -0.06260831 0.06672899 -0.061084837
-0.059223566 -0.0572497 -0.06372192 -0.05588017 -0.06307642 0.063419126 -0.05568698 -0.06474855
-0.05634092 -0.059704594 -0.0595059 -0.056524485 0.06921573 -0.05969162 0.06867912 -0.065268084
-0.06754647 0.062175393 -0.068297714 0.058597356 0.059967734 0.06124624 0.06219847 0.060500402
0.062096205 -0.06650868 0.060854834 0.06188354 0.059497807 0.06145733 0.059799444 0.062760204
-0.06756413 0.05934676 -0.06990426 0.06095291 0.06601943 -0.06069064 0.06804051 -0.061000228
-0.059141874 -0.057604082 -0.062231537 -0.055293422 -0.061231397 0.062073667 -0.05568883 -0.06137383
-0.05695545 -0.05933672 -0.056269743 -0.056344077 0.06758711 -0.05908881 0.06757633 -0.0636557
-0.06885828 0.061521538 -0.06756741 0.060274374 0.060292114 0.05935436 0.061862614 0.061153058
0.062491834 -0.066897124 0.062978424 0.059146482 0.060501896 0.061264444 0.06082651 0.06346575

layers.0.egnn.edge_mlp.3.bias f4 [16]
00000000: c17c 8cbe 5807 813e b4a3 0c3e 22c1 523e
00000010: e99e 85be 7f27 673e cb09 2cbe 9118 83be
00000020: f235 713e df55 943d 76bd 46be c741 153e
00000030: a586 74be 2713 793e 2668 0e3e 02c0 7abe
-0.2743893 0.25200915 0.13734323 0.20581487 -0.260978 0.2257366 -0.1680061 -0.2560468
0.23555735 0.07242941 -0.19408211 0.14575873 -0.23879488 0.24323712 0.13906917 -0.24487308

layers.0.egnn.node_mlp.0.weight f4 [8, 20]
00000000: 8461 7f3a 4244 ba3a cd57 a8ba 5ac3 ce39
00000010: 5aa5 b3b9 7ed3 ffba dd1e 20b9 d786 9c3a
00000020: 365e 323a 06d6 4bba bc8b 1538 c777 d739
00000030: 806e 36ba 1906 dcba 5f2a 54ba d26f 083b
00000040: 080a 08bb 8bba 0539 1b17 77ba 9af3 b6b9
00000050: ce6c 30bb dbe4 dc39 d2bd 083b a8f4 c43a
00000060: 8bd8 a23a 3fe4 f139 66a0 ac3a 832a 293a
00000070: d8c2 383a e8de 2b39 fafa 96ba 6338 463a
00000080: 3890 e5ba 283b 073a 4c5e b439 82b2 fb39
00000090: 09c5 9f39 77d8 2fb9 9252 ebba 3344 ca3a
000000a0: 75a8 2dba 0b4c de38 f3c0 433a bc98 093b
000000b0: ccf1 783a 3237 b739 057c 2c39 853c c239
000000c0: 7266 85ba f11e ce39 4771 093b 0b84 0b3b
000000d0: fa27 12ba 73ec d839 5d67 263a d975 96ba
000000e0: e104 80ba df2d a3b9 2688 e139 f0fd d839
000000f0: ea62 243a a2a3 963a f5c7 ad3a fed7 aaba
00000100: 31b6 ba3a efe6 893a 91cd b239 284d 22ba
00000110: 1e53 10ba a5f0 ab3a 1f94 4dba 5995 9f3a
00000120: 0dc2 a23a 9c41 11ba adb5 02ba f67a e5ba
00000130: d011 e0b9 b7d2 e1b8 db9a 84ba 5592 ae3a
00000140: 0dc5 7a3a d195 5239 bc9d c13a 72f8 45ba
00000150: 2cd2 03bb 3f2d cb39 5030 863a 4ff5 e9ba
00000160: acc1 b339 38fb a439 95c1 4f39 b329 a53a
00000170: 2125 aa38 b9c0 c2b9 bd15 783a 13c6 81ba
00000180: 4123 ad39 a8d2 ebb9 6f4d 31ba 53db 873a
00000190: 3d2e 5fba eea1 163b b404 d1b9 fea4 dc39
000001a0: 3743 c339 4579 e9b9 dd22 8239 e242 e33a
000001b0: 044a 1b3a 71fd 843a e91b 3839 39ac 533b
000001c0: 0885 78b9 c569 96ba 3009 183a 41ed d339
000001d0: abb0 b43a 2f41 f438 e6b0 41ba bf7c 893a
000001e0: 38e8 1dba a942 583a 060f 67ba 2790 d13a
000001f0: 9663 e637 b9b2 a3ba cf67 9a37 11fb d539
00000200: 4548 2cba 904c b03a a13b 223a 3e44 f4b9
00000210: d5df 893a 3418 81ba b49e 4239 40a5 2bb9
00000220: 0f66 1c3a bb32 7bb7 9012 baba 5d86 7bba
00000230: e80e 143a f593 7339 7b47 06ba 5c6a 283b
00000240: 3240 873a 3c29 933a 623a dfba 6907 13ba
00000250: 090f 8bba cb5c 183a b3c9 bd39 f134 523a
00000260: 92b2 67ba e5b5 09bb cf63 913a c54b 9dba
00000270: e32b 563a e327 fa39 b89b 6db9 c46e 16b5
0.0009742009 0.0014211016 -0.001284355 0.0003943693 -0.00034264737 -0.0019517986 -0.00015270287 0.0011942041
0.00068041997 -0.00077757274 3.5654506e-05 0.00041097237 -0.0006959215 -0.0016786485 -0.0008093472 0.0020818603
-0.0020757932 0.00012753361 -0.0009425745 -0.00034895242 -0.0026920321 0.0004213218 0.0020865095 0.0015026527
0.0012424154 0.0004613716 0.0013170361 0.0006453173 0.0007048077 0.0001639087 -0.0011518889 0.0007561503
-0.0017514294 0.0005158656 0.00034402532 0.0004800745 0.00030473646 -0.0001676994 -0.0017953685 0.0015431702
-0.00066245283 0.00010599949 0.00074674113 0.0020995578 0.000949648 0.00034945604 0.00016449399 0.00037047654
-0.0010177626 0.00039314435 0.002097206 0.002128842 -0.0005575415 0.000413749 0.00063478 -0.0011479213
-0.0009767079 -0.0003112396 0.00043016783 0.0004138793 0.0006270843 0.0011492858 0.0013258444 -0.0013034341
0.0014244971 0.0010521094 0.00034103965 -0.0006191307 -0.00055055495 0.0013117982 -0.0007842201 0.0012175246
0.0012417451 -0.00055410876 -0.0004986178 -0.0017507959 -0.0004273788 -0.00010768085 -0.0010116951 0.0013318757
0.0009566106 0.00020082972 0.001477174 -0.0007551975 -0.0020114286 0.00038752888 0.0010237787 -0.0017849597
0.00034285837 0.0003146769 0.00019813173 0.0012600928 8.1131475e-05 -0.00037146153 0.00094636885 -0.000990095
0.00033023398 -0.00044979644 -0.00067635527 0.0010365046 -0.0008513665 0.0022984701 -0.0003986709 0.000420846
0.00037243377 -0.00044531576 0.00024821507 0.0017338658 0.000592381 0.0010146332 0.00017558005 0.0032298698
-0.00023700681 -0.0011475614 0.0005799709 0.00040421824 0.0013785561 0.00011646968 -0.00073887256 0.0010489448
-0.0006023678 0.0008249679 -0.00088141894 0.0015988395 2.746451e-05 -0.0012489177 1.840657e-05 0.00040813585
-0.00065720483 0.0013450552 0.0006188695 -0.0004659015 0.0010518978 -0.0009849132 0.00018560403 -0.00016369391
0.00059661356 -1.4972577e-05 -0.0014196206 -0.0009594912 0.0005647973 0.00023229404 -0.0005122346 0.002569816
0.0010318814 0.0011227499 -0.0017030949 -0.0005608709 -0.0010609339 0.0005812167 0.00036199167 0.0008018753
-0.000883856 -0.0021012959 0.0011092367 -0.001200073 0.0008169992 0.00047713434 -0.00022660091 -5.604054e-07

layers.0.egnn.node_mlp.0.bias f4 [8]
00000000: c731 2bbe 4760 7cbc dce7 0e3a 01c5 62be
00000010: bb17 55bd d371 033e b0bc 2abe 6f6e 21be
-0.16718207 -0.015403814 0.000545142 -0.22145464 -0.052024584 0.12836389 -0.16673541 -0.15764783

layers.0.egnn.node_mlp.3.weight f4 [4, 8]
00000000: c459 3039 9667 35ba 787a 063a 83e7 69ba
00000010: 378b 893a 50ec 283a 0cce 91b9 93a4 9939
00000020: e594 b0b9 8b51 18b9 d837 53b9 798e 47b9
00000030: 3e21 93b9 2a7e 0c39 a4d8 ec39 f531 40ba
00000040: 4d0e 1d3a ae59 9f3a df5c 103b ab31 5a39
00000050: 0a00 bc39 b3ca d039 29d5 2a3b 0b65 743a
00000060: 547f 8038 d3db f0b9 541b c63a 857d 8439
00000070: c1a1 a1ba b9ff 92ba 5477 683a 99e8 4bba
0.00016818108 -0.00069200376 0.00051299436 -0.00089227426 0.001049376 0.0006443905 -0.00027810072 0.0002930505
-0.0003368027 -0.00014526227 -0.00020143331 -0.00019031194 -0.00028062792 0.0001339844 0.00045174838 -0.0007331663
0.00059912057 0.0012157464 0.0022028012 0.00020808603 0.00035858183 0.00039823874 0.0026066995 0.0009322918
6.127232e-05 -0.0004594015 0.0015114346 0.0002527052 -0.0012331532 -0.0011215127 0.0008867879 -0.0007778495

layers.0.egnn.node_mlp.3.bias f4 [4]
00000000: b982 ba3d d538 8c3e c711 a13e d254 153e
0.091069646 0.2738711 0.31458876 0.14583138

layers.0.egnn.coors_mlp.0.weight f4 [64, 16]
00000000: 83b7 4e3d 7bf8 4dbd 1ba3 65bd 5625 52bd
00000010: 6069 433d cc32 4bbd accf 543d 3cfa 473d
00000020: c3c1 54bd 402a 81bd 045a 4f3d af4c 5dbd
00000030: a8af 513d caf2 47bd f292 61bd a60d 503d
00000040: 06d6 51bd 8c9c 553d 2df2 633d b4dc 4a3d
00000050: 8dff 53bd d6fd 4c3d 156f 54bd 6f94 45bd
00000060: c840 4f3d ccc2 7a3d a3d3 4dbd 77c9 593d
00000070: 074a 45bd 1871 4c3d 6a1e 613d ddcb 48bd
00000080: 2346 3b3d 13cd 47bd dbb3 5dbd 4649 56bd
00000090: 4464 463d c89e 4cbd 7fcb 4f3d b837 453d
000000a0: efb2 47bd 79ff 7fbd 155e 4d3d 5a77 60bd
000000b0: 2c09 493d 48ad 4dbd c6a6 5fbd ba45 4a3d
000000c0: 9f00 42bd 6fe8 433d 4890 5d3d 6713 503d
000000d0: b946 40bd 8e2a 4b3d 6d51 4fbd f8f3 41bd
000000e0: c1b1 433d 1050 793d 2fd1 4fbd 4ad3 513d
000000f0: 27ea 4cbd eb26 453d 909c 583d 660a 48bd
00000100: 6a51 4fbd ad0f 573d 81bf 5d3d b55f 5b3d
00000110: 0ace 54bd 775b 5c3d ece8 5abd d06b 4ebd
00000120: 4269 613d 17b2 803d 4e37 54bd c1dd 603d
00000130: ce51 51bd 67af 583d 1e0b 653d c007 54bd
00000140: f34f 50bd 72dd 4f3d 5ecb 663d a6ef 5a3d
00000150: 52fc 48bd e221 5a3d d517 60bd 17df 51bd
00000160: 5c3c 5b3d f86a 7b3d 1091 56bd 6bb6 633d
00000170: 88ad 54bd 986a 4f3d 2267 5f3d 0101 51bd
00000180: ef0d 473d fc1d 4dbd e16c 65bd 290e 4abd
00000190: 0e58 413d ccda 47bd cd18 553d 1bd1 453d
000001a0: 4eeb 4abd f8b1 80bd cb62 4a3d 6261 60bd
000001b0: 9346 393d a659 4cbd b447 5fbd 4252 443d
000001c0: f929 44bd 493a 4e3d bfd7 5a3d 31c2 4c3d
000001d0: 623b 42bd 7305 4d3d 1655 4abd 6baf 41bd
000001e0: 30bc 493d abb3 6e3d 462a 4bbd 3bbc 5b3d
000001f0: 477f 47bd 3aff 4f3d 2c72 513d a502 3ebd
00000200: 9f92 313d 408c 40bd 5634 56bd 7cd4 4dbd
00000210: 7049 3b3d a18a 47bd 4ccc 4a3d df52 403d
00000220: a8fc 42bd 19c5 7bbd 9d13 453d 8e07 4ebd
00000230: 1c7e 403d d213 46bd 4df2 56bd 85c9 3f3d
00000240: 0b45 403d e733 46bd 592f 5cbd bc0d 48bd
00000250: cd05 393d 3925 49bd d358 493d d49f 433d
00000260: d188 4abd 2e20 80bd 89f9 443d 5539 54bd
00000270: fc9d 3d3d 814e 44bd bb65 5abd b349 403d
00000280: 9fbf 463d 63c0 51bd 536f 62bd c31a 55bd
00000290: fd79 4b3d 3ee6 53bd 5b42 4f3d 3fa7 443d
000002a0: 6a85 52bd 34ea 83bd b64b 513d e4bf 5bbd
000002b0: a4fa 443d 13f5 4cbd e5d2 63bd 78fe 443d
000002c0: da21 46bd 6eb7 453d de9d 4b3d c4dd 483d
000002d0: 8221 40bd 0243 4d3d 8a4c 4ebd e060 48bd
000002e0: 03a0 4f3d ec31 773d 1403 4bbd d37c 493d
000002f0: 0832 45bd 3518 473d c9de 553d 6fc9 48bd
00000300: 00f0 3d3d 08cd 49bd c462 64bd a8d9 53bd
00000310: 0fed 453d dd73 4cbd ebc5 503d 5ae9 493d
00000320: bc5e 4cbd 6529 7ebd 5794 473d 1271 5dbd
00000330: 5853 4a3d d8d1 4abd a5e8 5fbd 24a9 483d
00000340: fe46 463d f809 4cbd 73ab 5dbd 4ccc 4dbd
00000350: 2772 4c3d f1ac 4fbd 225d 4a3d befd 3d3d
00000360: 7515 4dbd 8f83 80bd c065 523d 8007 5cbd
00000370: 05da 473d 27d1 53bd 734c 60bd 64d0 453d
00000380: 1fdb 4fbd 29c0 5d3d ebe1 633d 0190 573d
00000390: 8114 52bd cdd4 5d3d ced6 5dbd ace5 55bd
000003a0: 731c 563d 1417 823d d7dc 55bd ddad 653d
000003b0: a4ae 50bd 6fd8 4f3d 2e1e 623d d9c1 50bd
000003c0: c857 443d 9c7e 55bd ceb5 60bd 770e 54bd
000003d0: 0634 4a3d a099 4fbd 22db 513d 1cd9 473d
000003e0: 87a4 54bd 77ec 7fbd 8fa0 4f3d 022c 61bd
000003f0: d3ff 3f3d 6e56 51bd f5b4 62bd d0aa 463d
0.05046798 -0.050285798 -0.056063753 -0.051305138 0.047707915 -0.04960899 0.051955864 0.048822626
-0.051942598 -0.06306887 0.050622955 -0.05402821 0.05119291 -0.048815526 -0.05507178 0.050794266
-0.0512295 0.052151248 0.05565088 0.049526885 -0.051757384 0.050046764 -0.05186375 -0.04823726
0.05059889 0.06122093 -0.05025066 0.053170647 -0.0481663 0.049912542 0.054960646 -0.049022544
0.045721184 -0.04877956 -0.0541266 -0.052315973 0.048435465 -0.049956113 0.05073118 0.04814884
-0.04875463 -0.062499497 0.05013855 -0.054801323 0.049081013 -0.050214082 -0.054602407 0.049382903
-0.047363874 0.047829088 0.054092675 0.050799754 -0.046942446 0.04960113 -0.050614763 -0.047351807
0.04777694 0.06086737 -0.050736602 0.05122689 -0.050027993 0.04813282 0.052883685 -0.04883804
-0.050614752 0.052505184 0.05413771 0.05355807 -0.051954307 0.053798165 -0.053444788 -0.050395787
0.055032022 0.06283968 -0.051810555 0.05489898 -0.051103406 0.05290165 0.055918805 -0.051765203
-0.050857496 0.050748296 0.05634629 0.053451203 -0.049068756 0.05325497 -0.054710228 -0.051238146
0.05352436 0.06138131 -0.052384436 0.05559389 -0.051923305 0.050638765 0.054541714 -0.051026348
0.048597272 -0.050077423 -0.05601204 -0.04932991 0.047203116 -0.048792645 0.052025605 0.04829512
-0.04954081 -0.06283945 0.049410623 -0.05478037 0.04523332 -0.049890183 -0.05451174 0.04793001
-0.04789159 0.050348554 0.053428408 0.049989883 -0.047419913 0.050054025 -0.04939755 -0.047286432
0.049251735 0.058276813 -0.049600862 0.053646307 -0.048705366 0.050780512 0.051134273 -0.04638924
0.04335272 -0.047008753 -0.052296005 -0.05025147 0.045724332 -0.04871619 0.04951124 0.046954032
-0.047604233 -0.061467264 0.048114408 -0.050300173 0.046995267 -0.048358746 -0.05247717 0.046823043
0.046940845 -0.04838934 -0.05375609 -0.048841223 0.045171548 -0.049107764 0.049156975 0.047759846
-0.049446885 -0.06256138 0.048089538 -0.05181249 0.046293244 -0.04792643 -0.053319674 0.046945285
0.048522588 -0.051208865 -0.05528195 -0.052027475 0.049676884 -0.051733248 0.05060039 0.04801106
-0.051396765 -0.06441155 0.051097594 -0.053649798 0.048090592 -0.05003841 -0.055621047 0.048094243
-0.048372127 0.048270635 0.0497111 0.049039617 -0.046906956 0.05011273 -0.050365962 -0.048920512
0.05068971 0.060350344 -0.049563482 0.049191307 -0.048143417 0.04860707 0.052214418 -0.049020227
0.04637146 -0.0492678 -0.055758253 -0.051721245 0.04832178 -0.049915183 0.05097 0.049294807
-0.049895033 -0.062051196 0.048725452 -0.05406291 0.04939589 -0.04951653 -0.054665226 0.04898943
0.048407547 -0.049814194 -0.054118585 -0.05024366 0.04991355 -0.05070204 0.049405225 0.046384566
-0.05006929 -0.06275093 0.051366568 -0.05371809 0.048791904 -0.051713135 -0.054760408 0.04829444
-0.05074608 0.054138336 0.055635374 0.052627567 -0.051289085 0.05415802 -0.05415993 -0.052220985
0.052273225 0.06352058 -0.052212562 0.056074012 -0.0509478 0.050743517 0.055204563 -0.050966118
0.047935277 -0.052122697 -0.054860882 -0.051771607 0.04936602 -0.050683618 0.051234372 0.048791036
-0.051914718 -0.06248137 0.05069023 -0.05497361 0.046874832 -0.051107816 -0.055348355 0.048502743

layers.0.egnn.coors_mlp.0.bias f4 [64]
00000000: 5de2 89bd 9770 763e a2ef 27be 451d 2b3e
00000010: 1f8c e03d 76b5 933d a825 1cbe ccea 8b3e
00000020: 3e72 77bd 2e94 2cbe af8c f0bd 880a 343e
00000030: f74f f5bd 7d47 f6bd d897 663d 1792 3fbe
00000040: b92b 913e 07a6 743e be50 c8bd a3b8 6fbd
00000050: 6bac 073e 88a8 09be d610 4dbe db35 18be
00000060: d2db 933d ee6a b4bd 9bb8 35be 86eb 6ebd
00000070: e752 56bd d8a9 51be 27a7 89be c5c3 8e3e
00000080: 0eed 383e e9c2 0c3e 856f 3c3e 2c10 3a3d
00000090: 61a4 893e f6f4 91be 3b10 e03d 3762 0ebe
000000a0: 6d7c 92be 4ab0 24be 7323 5a3e 0c9f 6cbe
000000b0: c434 f8bd a731 27be 1823 f1bd f0e1 953e
000000c0: 69db 4e3e 46d4 acbd c6a9 47be 0198 543e
000000d0: d3f1 fcbd 34f9 683e b966 0ebe 16ac 99bd
000000e0: 2d95 723d e715 a23d 6531 36be 062b 03be
000000f0: 6cab 8dbe 9a48 6f3d a81e 2f3e a808 5f3e
-0.067326285 0.24066387 -0.16400006 0.16710384 0.10964226 0.07212345 -0.1524874 0.27327573
-0.060411684 -0.16853401 -0.11745583 0.17582142 -0.11978143 -0.12025354 0.056297153 -0.18708073
0.2835367 0.2389146 -0.09781025 -0.058525693 0.13249366 -0.13443196 -0.20025954 -0.14864294
0.07219662 -0.08809458 -0.17746203 -0.05833008 -0.052325156 -0.20474946 -0.2688534 0.27883735
0.18059179 0.13746227 0.18401916 0.04542558 0.26883224 -0.28507203 0.10940596 -0.13904653
-0.28610554 -0.16082874 0.21302585 -0.23107547 -0.12119439 -0.16327535 -0.11774272 0.2927394
0.20200886 -0.084389254 -0.19498357 0.2076111 -0.12350812 0.22751313 -0.13906373 -0.07503526
0.059224296 0.07914334 -0.1779228 -0.12809381 -0.27669847 0.058418848 0.17101538 0.21780646

layers.0.egnn.coors_mlp.3.weight f4 [1, 64]
00000000: b9a6 303d a796 0fbd 1007 173d 407e 11bd
00000010: 799a 23bd 85d1 34bd 3514 193d d1d2 0abd
00000020: 71de 333d 61fe 103d adb0 1c3d 957d 10bd
00000030: df2e 1b3d 4aec 1e3d b3a4 43bd 2584 113d
00000040: cd97 0dbd 6042 10bd aee6 1c3d 81c8 3a3d
00000050: 377d 1ebd efbd 153d bb56 113d 077e 133d
00000060: e568 32bd fda6 243d f94c 163d 767a 353d
00000070: 0b23 473d f4f3 113d 1807 0a3d 4ebd 10bd
00000080: 5669 17bd 9c4e 1fbd a122 0ebd 6166 52bd
00000090: 4cc8 0fbd 4ccb 063d 1133 22bd 9997 173d
000000a0: da59 0e3d e60e 0e3d d44f 15bd c5cb 0c3d
000000b0: e424 1d3d 4924 163d 719d 1d3d 47fc 0bbd
000000c0: 0239 17bd 4ab3 253d 8122 163d 2284 0fbd
000000d0: ebd0 1d3d f71b 0fbd a6e9 163d 3455 2d3d
000000e0: c455 3ebd ca0c 31bd 63d0 123d 2888 123d
000000f0: b96c 0a3d 9bf4 40bd fa16 19bd 97d3 12bd
0.04312775 -0.035055783 0.03687197 -0.035520792 -0.03994224 -0.044145126 0.037372787 -0.033892456
0.04391331 0.035398845 0.03825443 -0.035276014 0.037886497 0.03879956 -0.04776449 0.035526413
-0.034568597 -0.03521955 0.03830593 0.04560137 -0.038693633 0.036558088 0.035483103 0.03600886
-0.043557066 0.040198315 0.0366945 0.04430624 0.048617404 0.035633042 0.03369817 -0.035336785
-0.03696569 -0.038893327 -0.034700993 -0.051367167 -0.035103127 0.032908723 -0.039599482 0.03700981
0.034753658 0.034682177 -0.036453083 0.034374017 0.03836526 0.036655698 0.038480226 -0.034176137
-0.0369196 0.040454186 0.036654 -0.03503812 0.038529318 -0.03493878 0.03684392 0.042317584
-0.04646851 -0.043225087 0.035843264 0.03577438 0.033795092 -0.047108274 -0.037375428 -0.03584632

layers.0.egnn.vel_mlp.0.weight f4 [16, 4]
00000000: 4bd5 a4ba e17b 933a c213 7139 df57 4c3a
00000010: 32bf e3b9 924c a33b c2ae 143a f63c feb9
00000020: 4669 6bb9 a6d0 a7bb 41fa 3fba 7b80 6c3a
00000030: 1cc8 74b9 1df4 0b3b f346 113a 432b 93b9
00000040: 29ab abba 8e24 50b8 93fb 66ba 251e 953a
00000050: 0d63 0b3a 8fb2 1d3c 0314 0b3b 7b54 25ba
00000060: 80a5 71b9 53e2 b4bb fc82 01bb bafe 513a
00000070: 3785 383a 8d64 b2bb 7bfe ad38 b998 173a
00000080: 159b 69ba 78bc f539 19ce 903a 40f6 813a
00000090: 4bcd a0ba 2606 943b 43ab 94ba 7c30 15ba
000000a0: 16dd a63a bbcb 823a 9baa a23a 4261 b0ba
000000b0: 3a90 bdb9 09f0 80ba a466 e938 184c 8a3a
000000c0: 91f9 88b8 6ebf 8bba 1cc2 013a 7c00 473a
000000d0: 6d3d 28b9 0940 a63b dbe9 7b3a 3aca fdb9
000000e0: 8bb6 ebb9 40a6 323b 1399 d5ba 6f2b adba
000000f0: 807d 6eb8 12a5 d5ba 0c33 053a 0302 353a
-0.0012575773 0.0011252129 0.00022990911 0.0007795076 -0.00043439266 0.004983493 0.0005671793 -0.00048492075
-0.00022450564 -0.0051213084 -0.00073233625 0.00090218306 -0.000233442 0.002135522 0.00055418833 -0.00028070257
-0.0013097274 -4.962511e-05 -0.0008811291 0.0011376782 0.0005317189 0.009625091 0.0021221645 -0.0006306839
-0.00023045205 -0.005520144 -0.001976191 0.00080106745 0.00070388935 -0.0054441155 8.2966835e-05 0.00057829503
-0.00089113537 0.00046870462 0.001104775 0.0009915307 -0.0012268213 0.0045173345 -0.0011342544 -0.00056911237
0.0012730684 0.0009978929 0.0012410464 -0.001345672 -0.00036156346 -0.0009837161 0.00011129424 0.0010551242
-6.531471e-05 -0.0010661909 0.0004949884 0.000759132 -0.00016044611 0.0050735516 0.00096097373 -0.0004840659
-0.00044958698 0.0027259737 -0.001629623 -0.0013211797 -5.6860503e-05 -0.0016299805 0.0005081154 0.0006904902

layers.0.egnn.vel_mlp.0.bias f4 [16]
00000000: 52c5 e53e 9c5c b3bc ce53 95bd 87b6 9a3e
00000010: cb41 783e 9d1e 58be d1f2 66be c274 aa3e
00000020: 279f 03bf cd3c cf3d e101 dfbe 4760 f4bb
00000030: bf2d adbd 2828 06bf c3c4 f2be 5f61 0f3d
0.44877106 -0.021894746 -0.07291375 0.30217382 0.24243848 -0.21105428 -0.22553565 0.33292204
-0.5141472 0.10119019 -0.4355612 -0.007457766 -0.08455991 -0.52405024 -0.47415742 0.03500497

layers.0.egnn.vel_mlp.3.weight f4 [1, 16]
00000000: 0d05 de38 1aab 0a3a dd68 07ba 5d29 b437
00000010: 403b e5b7 550f af3a abd8 23ba c1b7 16ba
00000020: 9435 9338 ae91 de39 68cb 74b8 21c8 c639
00000030: 906b da39 d1ee 123a e339 14b8 ec0a 8db8
0.00010586726 0.00052897783 -0.0005165467 2.1476933e-05 -2.7326518e-05 0.001335601 -0.00062502426 -0.00057494274
7.019486e-05 0.0004245168 -5.836357e-05 0.0003791461 0.0004166034 0.00056050444 -3.533986e-05 -6.725438e-05

layers.1.egnn.edge_mlp.0.weight f4 [20, 10]
00000000: fc57 edbc 9b54 0dbd 3793 14bd 2ddf 943c
00000010: 97f7 11bd 08c4 1dbd 59e9 12bd 888a b03c
00000020: 64ed f2bc dd1d 43bd 0384 b33c 9eeb e33c
00000030: 2fa4 c03c d6e8 ecbb 0948 e33c 368c fc3c
00000040: d501 d33c 0be0 49bc 9290 e23c a7c6 1b3d
00000050: 6948 ecbc d2e3 13bd bd65 16bd b131 983c
00000060: f867 0fbd d8e4 1fbd 084c 1fbd f0cd b73c
00000070: f6a0 f6bc 7b92 43bd ad7b b13c b8ac d93c
00000080: c8e0 cf3c fdf1 e3bb a92c d33c 85c3 eb3c
00000090: a6a1 cd3c a2ff 46bc c14b f23c af9c 193d
000000a0: cacc 04bd c1be 13bd ac03 28bd bc61 bc3c
000000b0: 25e2 18bd e511 29bd 98ab 24bd a114 c93c
000000c0: b766 13bd 61d8 5fbd f19c 02bd 686c 20bd
000000d0: d204 1bbd e535 a53c 5783 19bd aa69 2bbd
000000e0: 2f5c 27bd 97d9 d23c 77a0 13bd b9a4 55bd
000000f0: f777 b73c 0213 cb3c 40fc d33c 46f8 01bc
00000100: 1c20 de3c 3b09 003d a2da e03c fa9d 3bbc
00000110: 44e6 e33c 832d 113d 4948 fcbc 2bb1 0fbd
00000120: 330a 1cbd 73b7 b13c d23b 0cbd a4ce 1abd
00000130: 1ae9 1fbd 21f2 c33c 445f 05bd b37b 49bd
00000140: 0446 c73c 2105 d23c 72f9 d23c 6f7c 03bc
00000150: 458b d93c e430 fb3c bfdf d53c 829f 37bc
00000160: 2cb6 d63c 1012 193d 53e3 04bd 6d72 16bd
00000170: 0722 22bd 71cf b33c 585a 11bd 3591 26bd
00000180: 8608 28bd d932 c23c da8f 06bd e599 58bd
00000190: 04b3 bb3c 98d9 dc3c 140e e03c a2bc 28bc
000001a0: 9441 d63c 86bd fb3c 4a70 e13c e4fd 46bc
000001b0: 451c ed3c 8d31 1a3d a001 fabc e813 14bd
000001c0: 4833 15bd 1261 a93c 73c1 14bd 18bd 2dbd
000001d0: d150 1dbd 8c48 c43c b4e7 05bd b3f9 49bd
000001e0: 86aa b73c 168b db3c 656d d23c 32ed ebbb
000001f0: 4456 d23c d1d7 f53c 4bbe d13c e425 38bc
00000200: 8f89 e53c 3ab7 183d e95c b03c 627f d53c
00000210: 950a c03c 7ada 2cbc 4c36 d93c 246f fd3c
00000220: 3878 e13c 47a9 31bc bcde dc3c 385d 1f3d
00000230: 9aa5 febc 0ec1 14bd 1203 1dbd bda9 b13c
00000240: e4ef 17bd 9be0 26bd 6d68 1dbd b291 d53c
00000250: 986f 10bd 0e05 4bbd 6a6f b63c 3cf0 b93c
00000260: c1c6 cb3c 83b3 f5bb b680 e43c c5ac f33c
00000270: 28b8 e43c 1804 3cbc 8026 e73c 8ab7 113d
00000280: 08a8 09bd 245b 0fbd 2b16 1cbd d1e0 ab3c
00000290: c667 14bd f17a 27bd 135c 1dbd aad6 ca3c
000002a0: 51ab 0bbd a01e 57bd fd84 f1bc 61e3 16bd
000002b0: e7bc 1ebd c760 a23c 8456 14bd b496 23bd
000002c0: 6d2f 1dbd c13b c23c c90b 04bd 60bc 4abd
000002d0: 779e b43c a995 de3c a5a3 d53c e147 e5bb
000002e0: 0c96 df3c 5df2 ee3c 9ef6 e83c 13b7 3ebc
000002f0: 6a1f dc3c 1dc8 273d a475 d73c 188e da3c
00000300: 58da e23c f331 ebbb 8048 e83c 6cd0 033d
00000310: 0a4f f03c 8116 50bc e14a da3c 5e80 183d
-0.028972618 -0.034504514 -0.036273208 0.018172825 -0.03563651 -0.038517028 -0.03586707 0.021550432
-0.029654212 -0.0476359 0.021913534 0.027822312 0.023515789 -0.0072299046 0.02774431 0.030828577
0.02575771 -0.012321482 0.027656827 0.038031247 -0.028843122 -0.03610594 -0.03671812 0.018578382
-0.03501126 -0.0390366 -0.03889087 0.022437066 -0.030106049 -0.047747117 0.021665419 0.026571617
0.025375739 -0.0069563375 0.025778132 0.028779754 0.025101494 -0.012145909 0.029577138 0.03750294
-0.032421865 -0.03607059 -0.041019127 0.022995822 -0.037325043 -0.04127683 -0.040202707 0.02454597
-0.03598663 -0.054649714 -0.031887952 -0.039165884 -0.037846394 0.0201673 -0.03747877 -0.041848816
-0.040859398 0.02573852 -0.036041703 -0.052159045 0.02239607 0.024789337 0.025877118 -0.007932728
0.02711492 0.031258803 0.027448002 -0.011451239 0.02781976 0.035443794 -0.030796187 -0.03508107
-0.038095664 0.02169392 -0.034236737 -0.037794724 -0.039040662 0.023919167 -0.032561556 -0.049190234
0.024325378 0.025637211 0.02575371 -0.008025273 0.026555667 0.030662961 0.026107667 -0.011207463
0.026209913 0.03737074 -0.032443356 -0.03673022 -0.039583232 0.021949502 -0.03548655 -0.040665824
-0.041023754 0.023705887 -0.03285203 -0.05288114 0.02291251 0.026959226 0.027350463 -0.01029888
0.026154317 0.03073002 0.027519364 -0.012145493 0.028944144 0.03764491 -0.030518353 -0.036151797
-0.03642586 0.02067617 -0.0363173 -0.042416662 -0.03840715 0.023960374 -0.032691672 -0.049310397
0.02242018 0.02679972 0.025686929 -0.0071999067 0.0256759 0.030010136 0.025603434 -0.011239503
0.028019695 0.037284113 0.021528678 0.026061717 0.023442546 -0.010550136 0.026515149 0.030936785
0.027523145 -0.0108435815 0.026961677 0.03890726 -0.031084824 -0.036316924 -0.038333006 0.021687383
-0.037094012 -0.040741544 -0.038429666 0.02607045 -0.035262674 -0.049565367 0.022269923 0.02269756
0.024875047 -0.007498206 0.027893405 0.029745469 0.027919844 -0.011475585 0.0282166 0.035575427
-0.033607513 -0.034999028 -0.03810708 0.020981224 -0.03623178 -0.04088873 -0.038417887 0.024760563
-0.034098927 -0.05251944 -0.029482359 -0.03683794 -0.03875437 0.019821538 -0.03621532 -0.039938644
-0.038375307 0.023710134 -0.0322378 -0.049496055 0.022048218 0.027170973 0.026079008 -0.006997094
0.027293228 0.029168302 0.028437909 -0.011640328 0.026870448 0.040962327 0.026301213 0.026679084
0.027692005 -0.0071775853 0.028354883 0.03218119 0.029334564 -0.012700678 0.026647033 0.037231795

layers.1.egnn.edge_mlp.0.bias f4 [20]
00000000: dfbe f8bd 6145 b23e 971d 92be b97a 2a3e
00000010: ac04 b4be fa29 a6be c02e 5c3e d09d 6dbe
00000020: db6d 543e 8e08 bcbe 1a83 093e c8d2 81bd
00000030: aa86 b23e c414 263e e6a5 45bd 81a2 423e
00000040: e321 afbe c273 23be 0c85 573e a974 6b3d
-0.12145781 0.34818557 -0.285382 0.16648377 -0.35159814 -0.324539 0.21502209 -0.23204732
0.20745032 -0.36725277 0.13428918 -0.063390315 0.34868366 0.16218859 -0.048253916 0.19007303
-0.3420554 -0.15962127 0.21046847 0.057484303

layers.1.egnn.edge_mlp.3.weight f4 [16, 20]
00000000: f749 293d 256f 10bd e2de 263d 708f 0fbd
00000010: 2d4c 2b3d a464 253d 7744 0ebd 6769 1a3d
00000020: 36c0 1abd b139 2a3d 25a0 0ebd c10c 173d
00000030: 845a 0fbd 9493 12bd de3f 143d bf98 15bd
00000040: 498c 243d 8529 1d3d 0848 1abd ed45 0cbd
00000050: 60bc 1b3d 1fd4 0ebd 3538 233d d72a 08bd
00000060: 5de4 233d 2b14 253d 95d1 0ebd be8f 203d
00000070: fdcf 07bd 50de 243d feff 0fbd 9992 103d
00000080: cfcb 13bd 3ee5 03bd 9118 0f3d b1ee 0dbd
00000090: 1267 283d 1a3e 1f3d 2c6a 11bd 5e6c 04bd
000000a0: 9c97 1b3d 0ca9 10bd 18e5 263d b80d 0cbd
000000b0: 86cf 2a3d 4591 283d 56e6 15bd 9306 223d
000000c0: d306 10bd 8ec9 303d d032 12bd 43f5 1a3d
000000d0: a409 17bd 5024 10bd b344 163d 0303 0fbd
000000e0: bd31 293d 0f0c 293d b3f6 14bd 98c4 07bd
000000f0: 3925 09bd 39d8 fd3c 7ad3 13bd 170c e83c
00000100: ea8a 17bd eb49 13bd e9c7 e63c ba38 0dbd
00000110: dd0d ed3c b805 16bd 9f9c e43c d7c8 fcbc
00000120: 9f00 033d 2843 ed3c 9f3a fcbc afe9 f83c
00000130: ecb3 0fbd de40 0bbd a201 ff3c 82dc d73c
00000140: 3279 11bd faba 033d 4a98 18bd 7a99 f63c
00000150: b0be 1dbd 56dd 15bd 1000 fc3c 6239 10bd
00000160: 8abe 033d b9fc 17bd 750c ea3c 38f2 fdbc
00000170: fcff 0a3d d77b f63c 182d fcbc 6fad f33c
00000180: 4c0a 15bd 0a60 10bd 50ac ef3c 9007 de3c
00000190: 8ef4 0bbd 3df6 083d 9071 0fbd 64b8 ee3c
000001a0: 9d0c 19bd 97b8 12bd f7df fc3c ee83 15bd
000001b0: 20f4 fd3c 65aa 1cbd 685b ef3c 53f6 07bd
000001c0: b3a5 023d c97d f23c e355 fcbc ad2b f03c
000001d0: 300c 10bd 5d1a 0abd 708a 003d cc23 e53c
000001e0: fac0 02bd 3995 f93c 9953 11bd 07d4 d43c
000001f0: f803 0ebd 7019 0dbd 9b15 e13c f262 10bd
00000200: 90a0 ed3c 9a76 0cbd cbe5 d33c 7647 f4bc
00000210: f391 fd3c 2d1d e13c f71b e6bc 0638 d33c
00000220: 66b0 0bbd 1eca 06bd c91d e93c 2999 c53c
00000230: e6b4 203d b217 17bd 0845 293d f30b 13bd
00000240: b9fe 253d 5ffa 223d 8ffb 18bd 5fb4 273d
00000250: e089 12bd 6266 293d 62f6 08bd 4c27 143d
00000260: 1473 19bd 2168 12bd 1969 133d 17d2 14bd
00000270: 532e 2e3d 69dd 1e3d cb3b 15bd 227c 07bd
00000280: e4c9 0cbd a9da 043d 7790 0cbd 0ccc f73c
00000290: b5f8 18bd eb1d 19bd 140b 053d 04ce 14bd
000002a0: 961d 033d a4e1 17bd f048 fe3c ef1d 04bd
000002b0: d08a 033d 67cd ec3c 59d7 f3bc d3f1 f83c
000002c0: 944c 14bd c102 15bd fd9c f33c 8608 e53c
000002d0: 89ee 183d 5552 1cbd a8c0 253d 56e6 0ebd
000002e0: c184 2a3d d9d6 2d3d e1f2 14bd e5d7 223d
000002f0: 2c84 18bd 796d 263d 40e5 0cbd c8a6 173d
00000300: c95d 17bd 01d9 12bd fc51 173d 97b0 0ebd
00000310: 2a9c 263d 7b5e 1e3d 19f2 0fbd 6d6e 0bbd
00000320: 63f8 08bd 795d 013d d788 14bd 75ff fd3c
00000330: 4c3e 16bd 70be 18bd 0151 033d 11dd 0cbd
00000340: fafc f43c 2251 1cbd 5e17 ff3c b5c2 03bd
00000350: cec2 043d 099d e93c d0c8 04bd fa98 ee3c
00000360: ee72 1cbd 27bc 05bd da14 033d 692b da3c
00000370: b106 273d 2c7a 15bd 055f 273d 3783 0fbd
00000380: 00fe 263d 1691 283d dde7 12bd 22df 203d
00000390: b535 12bd 569e 293d 7601 0cbd 543f 153d
000003a0: 12c6 14bd 2f71 09bd 646c 153d 2bee 0abd
000003b0: ab40 273d 467a 273d 95c4 0fbd 6f25 06bd
000003c0: 52c1 10bd 46d5 023d e90b 17bd fce4 e63c
000003d0: e3cc 0ebd 5060 15bd 2675 f13c e312 10bd
000003e0: 1138 f93c 23ca 14bd 2470 f83c 4bcb 0abd
000003f0: 4483 f13c 3ae2 f23c 2ffa 02bd ab8c f63c
0.041330304 -0.035262246 0.0407399 -0.035048902 0.041820694 0.04037918 -0.034733262 0.037698176
-0.037780963 0.041558925 -0.034820694 0.036877397 -0.03499843 -0.035785273 0.03619372 -0.036522623
0.04017285 0.038369674 -0.03766635 -0.034246374 0.038021445 -0.034870263 0.039848525 -0.03324398
0.040012706 0.040302437 -0.03486784 0.039199583 -0.033157337 0.040251076 -0.035156243 0.035296056
-0.03608304 -0.032201044 0.034935538 -0.034651462 0.04111392 0.038877584 -0.035501644 -0.03232991
0.037986383 -0.035317466 0.040745825 -0.03419277 0.041701816 0.041154165 -0.03659662 0.03955705
-0.035162758 0.043160968 -0.03569299 0.037831556 -0.03687443 -0.03519088 0.03668661 -0.03491498
0.0413072 0.041271266 -0.036368083 -0.03314647 -0.033482764 0.030986892 -0.03609035 0.028326077
-0.036997713 -0.035959166 0.028171496 -0.034477927 0.028937275 -0.036626548 0.027906714 -0.030857487
0.031983014 0.028962687 -0.030789671 0.030384867 -0.035083696 -0.03399741 0.031128708 0.026350264
-0.03551597 0.032160737 -0.03725461 0.03010248 -0.038511932 -0.036588036 0.030761749 -0.035210975
0.032164134 -0.03710625 0.028570393 -0.030999288 0.033935532 0.030088348 -0.030783221 0.029745786
-0.036386773 -0.03524784 0.02925697 0.027103215 -0.034168772 0.033437956 -0.03502041 0.029140659
-0.037365545 -0.03582057 0.030868514 -0.03650277 0.031000197 -0.03824844 0.02921839 -0.033193897
0.031896304 0.029600995 -0.030802673 0.029317701 -0.035167873 -0.03371655 0.031382024 0.02797117
-0.031922318 0.030466663 -0.035480116 0.025980009 -0.034671754 -0.034448087 0.027476123 -0.03525061
0.029007226 -0.034292795 0.02586641 -0.029819231 0.030953383 0.027479732 -0.028089507 0.02578355
-0.034103774 -0.032907598 0.028456585 0.024120884 0.03923502 -0.036887832 0.0413256 -0.035900068
0.040526126 0.039789554 -0.03734928 0.0409435 -0.03577602 0.041357405 -0.033438094 0.03617029
-0.037463263 -0.035743836 0.0359889 -0.03633317 0.042524647 0.038785372 -0.036433976 -0.033077367
-0.034372225 0.032435093 -0.03431746 0.030248664 -0.03734656 -0.037382048 0.032481268 -0.036329284
0.032010637 -0.037080422 0.031040639 -0.03225511 0.032114804 0.028906537 -0.029765772 0.030388748
-0.036205843 -0.03637958 0.029737944 0.027958166 0.03733686 -0.038164455 0.040466934 -0.034887634
0.04163051 0.042441223 -0.03636444 0.039756674 -0.037235424 0.040631745 -0.034398317 0.03702429
-0.036954675 -0.035851482 0.03694342 -0.034836378 0.040676273 0.038664322 -0.03514299 -0.034040857
-0.033440005 0.031583283 -0.036263313 0.0310056 -0.036680505 -0.03729099 0.032059673 -0.034390513
0.029905785 -0.03816331 0.031139072 -0.03216811 0.032412343 0.028517263 -0.032418072 0.02912568
-0.038195543 -0.03265014 0.032002307 0.026632028 0.040777866 -0.036493465 0.040862102 -0.035037246
0.040769577 0.04115399 -0.035865653 0.039275296 -0.03569575 0.041410767 -0.03418108 0.036437348
-0.036321707 -0.033555206 0.036480322 -0.03391854 0.040833157 0.040888093 -0.035099585 -0.032750543
-0.035340615 0.031941675 -0.036876593 0.02818536 -0.034863364 -0.036468804 0.029474806 -0.03517426
0.030422242 -0.036325585 0.03032691 -0.03388528 0.029481538 0.029648889 -0.031976875 0.030096373

layers.1.egnn.edge_mlp.3.bias f4 [16]
00000000: e9be 17be 7a89 3dbd 6ef7 41be c709 723e
00000010: 849d 773d 5b3b 153e ca76 263d e4c2 e6bd
00000020: 2d2f 113e d862 2bbe be64 ee3d 4e52 82be
00000030: 8f7d 113e ba96 9abd 2fc5 cb3d 74d9 1fbe
-0.1481892 -0.046273686 -0.18942043 0.23636542 0.060452953 0.14573424 0.04064063 -0.11267641
0.14178152 -0.16736925 0.11640309 -0.25453418 0.14208053 -0.0754828 0.09949719 -0.15610296

layers.1.egnn.node_mlp.0.weight f4 [8, 20]
00000000: c5dd 8fba 5efa e637 2cab 56ba 679e 21bb
00000010: d67e 77b9 c43e 17ba 7bac ae3a b0bc ab3a
00000020: 52b6 a93a 7d00 e5ba a2d9 36ba b7ce 6aba
00000030: bd63 dbba cabf b3b8 4c57 9eba 0fca 32b9
00000040: 7a00 21b6 69c3 91ba 21e4 8839 0c4c 703a
00000050: 90a9 72ba ecde 4b37 b066 cb3a 43d6 943a
00000060: 3837 b83a 130e 9ab9 4331 f2b9 746b 51ba
00000070: 679b edba 1081 333a 2b56 963a 3976 013a
00000080: 9ec7 5fb9 f424 ecba 8359 b138 f4e4 dd3a
00000090: fb83 043b 1076 fa39 5463 8639 7089 31ba
000000a0: cb39 a6ba 820a 393a 40f6 e439 ec01 baba
000000b0: f9b4 273b b792 a8ba 7f0c 8e3a 18f7 5639
000000c0: ab4e 9939 d4d8 263a 0f0a 783a c1e8 7bba
000000d0: 8a2b 44ba 4f7a 0f39 b8bc d4b9 dcda 213a
000000e0: ba48 9eba 592c 5dba c3c9 2eba b129 8239
000000f0: 496e 0939 0222 1cbb 761f 7637 fef3 1738
00000100: c2ff d839 6a28 c2b9 b505 b9ba 1356 993a
00000110: 14f0 ccba 3379 c0ba efd6 64ba 05e3 b2b8
00000120: eeea b0ba c789 e239 2043 923a 534b 5dba
00000130: 79bc 79ba dbfa 8ab9 9046 56ba 78dc 43ba
00000140: 0a3e 453a e461 b3ba b688 e1b8 92a6 01bb
00000150: 7437 833a 1dbd 2039 89cd 8539 ce93 27b9
00000160: 419c 6fb9 6a2f 0b3a 964d 273a 504e ad3a
00000170: e6bd 7db9 efbe c9b9 daed 7c3a 0f5a b439
00000180: 60a6 aa3a 3d31 8fba 6597 b2ba d322 c1ba
00000190: ba94 9db9 2dad bcb8 c37e d639 9077 31ba
000001a0: d75f 523a 7467 b2ba f96f 39b9 b629 96b9
000001b0: e556 b838 94b5 90ba 0d2c ceb9 ae89 abba
000001c0: 4fb3 a0b9 0411 8d3a bcd9 b9ba 58e3 1bba
000001d0: b53d 2bba 7167 223a 6633 533a 503d 1139
000001e0: 6b4c 98b8 e5b0 c0ba 8bc1 9838 de8b 92ba
000001f0: 5987 f6b9 23a6 4a3a 8fd3 7b39 b461 a3ba
00000200: effd 6cba 875d 62ba 0a8d 0dba b884 85ba
00000210: ebaf 9aba fc46 e6ba 608b b238 d4b1 dc39
00000220: 4fc9 8339 124f d139 dcc6 66ba 20f5 feb9
00000230: 4291 00ba a38a 70ba e219 b8b8 897b eab8
00000240: 922a 8439 7120 94b9 3433 65ba 1b67 b738
00000250: 7d6d c33a 044e 293a 8151 ecb9 883d 723a
00000260: a7e3 d339 63bf 503a f0ed 243b bd0a ca3a
00000270: 44c7 e43a c246 9b39 01dd 15b9 b039 6439
-0.0010976127 2.7534723e-05 -0.0008188959 -0.0024661066 -0.00023603006 -0.00057695457 0.001332655 0.0013102498
0.0012948012 -0.0017471459 -0.0006975179 -0.00089571945 -0.0016738098 -8.5711086e-05 -0.001208046 -0.00017050676
-2.3991147e-06 -0.0011120859 0.0002610991 0.00091666053 -0.0009256834 1.2151646e-05 0.0015518274 0.0011355359
0.0014054542 -0.00029383655 -0.0004619454 -0.0007988729 -0.0018127979 0.000684754 0.0011469772 0.0004938576
-0.000213413 -0.0018016384 8.4566906e-05 0.0016929195 0.0020220268 0.0004777168 0.00025632477 -0.0006772494
-0.0012682019 0.0007058756 0.0004367102 -0.0014191247 0.0025590046 -0.0012861107 0.0010837464 0.0002050068
0.00029241046 0.00063647074 0.0009461948 -0.0009609573 -0.00074832945 0.00013683106 -0.00040576397 0.0006174275
-0.0012076118 -0.0008437089 -0.0006667638 0.00024826595 0.00013106423 -0.0023823981 1.4670068e-05 3.622844e-05
0.00041389285 -0.00037032674 -0.0014116081 0.0011698626 -0.0015635514 -0.0014684558 -0.00087295374 -8.529987e-05
-0.0013497749 0.0004320873 0.0011158921 -0.0008441705 -0.0009526681 -0.00026508313 -0.0008173967 -0.0007471512
0.0007524198 -0.001368579 -0.000107543005 -0.0019783122 0.0010011033 0.00015329239 0.00025520872 -0.00015981423
-0.00022851025 0.00053094944 0.00063821056 0.0013222191 -0.00024198703 -0.00038479964 0.000964848 0.00034399374
0.0013019554 -0.0010924708 -0.0013625441 -0.001473511 -0.00030056183 -8.996795e-05 0.00040911706 -0.00067698304
0.00080251455 -0.0013611154 -0.00017684688 -0.00028641307 8.789989e-05 -0.0011040443 -0.00039324202 -0.0013087296
-0.00030651173 0.0010762517 -0.001417927 -0.00059466576 -0.00065323274 0.00061952235 0.000805667 0.00013851118
-7.262159e-05 -0.0014701156 7.283975e-05 -0.00111806 -0.00047021618 0.0007730445 0.00024016037 -0.0012465031
-0.00090405246 -0.00086351525 -0.00053997396 -0.0010186648 -0.0011801695 -0.0017568762 8.513662e-05 0.00042094162
0.00025136254 0.00039922498 -0.0008803436 -0.00048629288 -0.00049044576 -0.0009175932 -8.778625e-05 -0.00011181
0.0002520872 -0.0002825293 -0.00087432866 8.745325e-05 0.0014909949 0.00064584636 -0.00045074153 0.0009240736
0.0004041467 0.0007963089 0.0025166236 0.0015414577 0.0017454405 0.00029616622 -0.00014292078 0.00021765265

layers.1.egnn.node_mlp.0.bias f4 [8]
00000000: 0ae9 993d 45b0 d5bd 376f 4e3e 8d7a 463e
00000010: a452 f6bd 907b 23bd 1c44 42be 8501 5c3d
0.07515152 -0.10434011 0.20159613 0.19382687 -0.12027481 -0.03991276 -0.18971294 0.053712387

layers.1.egnn.node_mlp.3.weight f4 [4, 8]
00000000: 818b 893a 488f 71b9 854d 32ba f957 523a
00000010: 77ef 063b 6d17 10b9 bb60 6f39 179f 36ba
00000020: 3f49 093b 8b21 453a 060f e338 c16d acba
00000030: d0ad e3ba 3eb4 73ba 2dae 81b9 21c5 543a
00000040: 6504 07ba 72dc 3839 e388 0eba 9a01 9e3a
00000050: 9f5a 863a d530 21ba 01ff 903a 5204 083b
00000060: 2a16 79ba ddec 37b8 bd5b 19ba ec8a cbb9
00000070: c2b0 9dba 3ea6 03bb bdaa e5b9 bb4b 983a
0.0010493846 -0.00023036927 -0.00068017124 0.0008023973 0.002058951 -0.00013741637 0.00022828851 -0.0006966455
0.00209482 0.0007519952 0.00010827002 -0.0013155268 -0.0017370526 -0.00092965725 -0.00024734568 0.00081165327
-0.0005150496 0.0001762973 -0.0005437268 0.0012054921 0.0010250396 -0.0006148939 0.0011062325 0.0020754528
-0.0009501899 -4.3851196e-05 -0.0005850157 -0.00038822682 -0.0012030827 -0.0020088102 -0.00043805494 0.0011619249

layers.1.egnn.node_mlp.3.bias f4 [4]
00000000: ac05 753d d16f 90be c4cd 8b3d d0c8 92be
0.059819862 -0.2821031 0.06826356 -0.28668833
