data/models/model_N20_batch32_lr0.001_fd4_b0.5.pth (torch, 30882 bytes, 32 tensors)

time_embedding.0.weight f4 [8, 1]
000000 3b f5 77 bf 84 6d a2 3e 88 a5 09 3f ba 07 ed 3d
       -0.96858567 0.3172418 0.53768206 0.11573739
000010 f3 d4 12 3f ba 7a 56 3f a0 40 20 bf bc 85 55 bf
       0.57356185 0.83781016 -0.6259861 -0.8340719

time_embedding.0.bias f4 [8]
000000 a2 38 50 3e c0 8c 4c 3f a8 d3 6b bf 5e 7e 6a 3e
       0.20334104 0.7990227 -0.92119837 0.22899768
000010 c7 b7 82 3e a9 7d cd bd 9a c3 5e 3d 7c 9d 37 3f
       0.25530836 -0.100337334 0.05438576 0.7172468

time_embedding.3.weight f4 [4, 8]
000000 2d 22 47 3e bc e4 bf 3d d5 15 b5 3c 69 00 95 bd
       0.19446631 0.093697995 0.022105137 -0.07275469
000010 85 dd 5c 3e 55 14 9f 3c 46 39 68 be 5b dd 0a bd
       0.21568878 0.019418875 -0.22678098 -0.033902507
000020 6a 79 9e 3d fc f5 e5 3d 23 13 82 be 60 49 ab 3c
       0.07738002 0.112285584 -0.25405225 0.020909011
000030 26 89 1f 3e 97 b4 42 3e dd 8d f4 bd 99 e9 3c 3d
       0.15579662 0.19014202 -0.11941121 0.046121214
000040 de e7 db 3b 4d f7 f0 3c 81 19 0a 3e f4 1b 03 3d
       0.0067109903 0.029414797 0.13486291 0.03200908
000050 3e ec 48 3d a5 b7 0c 3e a1 eb 34 3e 11 e1 e0 3d
       0.049053423 0.1374193 0.1766801 0.10980428
000060 9b 6b 85 bc e9 d6 a5 be f2 5e 9b be 33 38 8e bd
       -0.016286662 -0.32390526 -0.30345875 -0.06944313
000070 34 01 7c be b1 46 ae be fe 86 80 3e a2 cd 56 3e
       -0.24609834 -0.34038308 0.2510299 0.2097688

time_embedding.3.bias f4 [4]
000000 e9 5f 7a be a6 cd be 3e e3 21 ef bd 86 10 1c 3f
       -0.2445065 0.37266272 -0.11676385 0.6096271

layers.0.egnn.edge_mlp.0.weight f4 [20, 10]
000000 4a 26 73 3d 42 4c 31 be 3a 62 da bc 61 3f 92 3d
       0.059362687 -0.17314246 -0.026658166 0.07140995
000010 21 dc 67 3d 65 59 1d be ec 27 41 bc e4 8b 48 3d
       0.056606416 -0.15366133 -0.011789303 0.048961535
000020 ba 37 36 be 1a 72 1e be 33 1c a2 bd 22 b2 e2 3d
       -0.17794695 -0.15473214 -0.07915535 0.110691324
000030 00 04 a3 bd 13 8e dc 3c 2b 47 6d bd d1 8d c4 3d
       -0.07959747 0.026923215 -0.0579292 0.09597362
000040 41 9b a9 bd 49 db bb 3c 65 8b 30 3e 05 1c a6 3d
       -0.082815655 0.022931712 0.17240675 0.08110813
000050 ed 4a 75 3d cf e1 29 be 43 eb 51 bc 0a a4 8f 3d
       0.059885908 -0.16590045 -0.012812438 0.0701371
000060 2d 7b 72 3d 15 b2 12 be 24 07 2f 3b f4 b8 26 3d
       0.0591995 -0.14325745 0.0026707137 0.04070373
000070 5d 9b 08 be c6 aa 13 be 31 9d 13 3e d4 f3 92 be
       -0.13340516 -0.14420614 0.14415433 -0.2870165
000080 6f 5f 58 bc 5e 65 49 bb 71 3d 15 3e 56 73 87 be
       -0.013206347 -0.0030730586 0.1457422 -0.26455182
000090 79 44 80 3a 32 17 40 bd 4a 4d 89 be f7 24 8f be
       0.0009786031 -0.04689712 -0.2681678 -0.2795789
0000a0 06 5f 05 3e 72 66 8a be a0 ca 8c bc 34 97 27 3c
       0.1302453 -0.27031285 -0.017186463 0.010228921
0000b0 55 5f 05 3e 9c 74 7a be 4b 4e f6 ba 95 42 f1 bc
       0.13024648 -0.24458545 -0.0018791644 -0.029450694
0000c0 d2 64 7c be 86 5b 84 be c5 da 5f bd 7c 70 bd 3d
       -0.24647835 -0.25851077 -0.054651994 0.0924997
0000d0 bb 59 fd bc 36 8e 7d 3c 17 df 1a bd 42 2c a2 3d
       -0.030926576 0.0154758 -0.03781041 0.07918598
0000e0 9d 59 fb bc 23 8b c7 3c 8a 6f ab 3d 4f 81 8f 3d
       -0.03068238 0.024358338 0.08370884 0.070070855
0000f0 86 12 af bd 82 49 e5 3d d3 da 64 bd 6e 37 3e 3d
       -0.08548455 0.11195661 -0.05587275 0.04643958
000100 b8 5c 6e bd cb 69 cc 3d 40 04 50 bd bb 01 4d 3d
       -0.058193892 0.09981116 -0.050785303 0.05005048
000110 7a f1 b2 3d 20 52 b8 3d 0b 3b 86 bd ba a5 c9 3d
       0.08737464 0.09000039 -0.0655423 0.09846063
000120 2c 70 31 bd 78 d0 d0 3c 00 58 31 bd bf 73 ab 3d
       -0.043319866 0.02549003 -0.043296814 0.08371686
000130 38 f1 25 bd 55 e8 e4 3c 2e ea c6 3d 2e ab 9a 3d
       -0.040513247 0.027942816 0.09712635 0.07552181
000140 66 39 d5 3d 98 9f 70 be 50 2c a2 bc 94 c2 04 3d
       0.104113385 -0.2349838 -0.01979652 0.032412127
000150 49 b9 d2 3d fa d4 59 be 38 09 a2 bb 46 26 4d bb
       0.102892466 -0.2127265 -0.0049449466 -0.003130333
000160 95 29 61 be 45 c6 64 be 11 c3 a4 3d 51 8c 41 be
       -0.21988519 -0.22341259 0.080450185 -0.18901183
000170 7b ca 76 bc 7d 6d 53 3d 40 ee 9b 3d fa 48 2b be
       -0.015062924 0.051618088 0.07613802 -0.16727057
000180 fd 3b f0 39 7f 77 92 3c 70 28 21 be ad 28 2f be
       0.00045821062 0.017879246 -0.15738082 -0.1710536
000190 b7 95 73 bd 62 1c ca 3d d0 e3 e5 bc 27 78 19 3c
       -0.05946895 0.09868695 -0.028062731 0.009367025
0001a0 4b 82 23 bd 86 60 ab 3d 47 91 f0 bc 45 ab dc 3c
       -0.03991918 0.0836802 -0.029366149 0.026937136
0001b0 7a 6d 99 3d 01 83 9a 3d e2 26 8a bd a4 ce d5 3d
       0.07491584 0.07544518 -0.067456976 0.10439804
0001c0 81 83 28 bd 32 21 ca 3c 34 81 3f bd 5f 8a b6 3d
       -0.041141037 0.024674032 -0.046754077 0.08913111
0001d0 a3 c3 1f bd a1 2b 03 3d 8b 16 b7 3d 40 ba a1 3d
       -0.039004933 0.03202403 0.089398466 0.078968525
0001e0 c4 2e 24 3e 59 84 9c be 8d 96 81 bc 76 50 7c bc
       0.16033465 -0.30569723 -0.015818859 -0.015400043
0001f0 1b e7 2a 3e 7e 43 90 be 16 1d 92 ba 5e 1b 86 bd
       0.16689722 -0.28176492 -0.0011147584 -0.065481886
000200 f6 fe 9e be e7 18 98 be ef f4 8d bd e2 38 cf 3d
       -0.31053895 -0.297065 -0.06931483 0.101182714
000210 04 7b 34 bd fe 0a fe 3c e0 cb 3e bd 61 40 b6 3d
       -0.04406263 0.0310111 -0.04658115 0.08898998
000220 e2 64 23 bd 60 aa 09 3d 74 18 bc 3d be d4 a7 3d
       -0.03989113 0.033609748 0.091843516 0.08194874
000230 dc e0 71 bd 33 30 c2 3d 88 2e 17 bd e6 63 b0 3c
       -0.059052333 0.094818495 -0.03690961 0.02153201
000240 93 ff 24 bd 43 b4 a6 3d 7d 32 0e bd 45 d2 ed 3c
       -0.040282797 0.08139851 -0.034716118 0.029030928
000250 52 22 b4 3d 74 5e 92 3d ab bb 6b 3d 3f 29 2f be
       0.087956086 0.07146922 0.05755202 -0.17105578
000260 3e c7 c8 bc 60 24 93 3d 03 a6 62 3d fb 5a 18 be
       -0.024509069 0.07184672 0.055334102 -0.14878456
000270 e2 b2 0f bc e7 f1 45 3d 7d 70 2d be f9 bc 19 be
       -0.008770676 0.0483264 -0.16937442 -0.15013494
000280 cf 01 16 3e 05 b1 94 be e9 54 80 bc ff 9d 78 bb
       0.14649127 -0.29041305 -0.015665488 -0.003793597
000290 18 b3 18 3e 9f 14 88 be e4 10 8c ba 08 87 43 bd
       0.14912069 -0.26578233 -0.0010686186 -0.047736198
0002a0 7b 30 8d be 22 da 90 be 13 d6 a6 bd 2f d0 e0 3d
       -0.2757605 -0.28291422 -0.081463 0.10977208
0002b0 07 84 51 bd 4e ca 3e 3d aa ec 72 bd 98 98 c8 3d
       -0.0511513 0.04657965 -0.05930773 0.0979473
0002c0 19 8b 45 bd 7f 6f 4f 3d c6 0a b0 3d e3 b4 ba 3d
       -0.048228357 0.05064344 0.08595805 0.09116533
0002d0 64 c1 36 3d 34 43 25 be 68 42 05 bd 64 a2 b9 3d
       0.044618025 -0.16138917 -0.032534033 0.09064177
0002e0 45 a3 3a 3d 54 ef 11 be 22 34 8a bc aa db a4 3d
       0.045565862 -0.14251453 -0.016870562 0.0804971
0002f0 e9 af 5b be dd 03 10 be fe 7b 73 bd 7a f8 bc 3d
       -0.21453823 -0.14063974 -0.05944442 0.09227081
000300 ab 42 72 bd a8 d2 58 3c e9 a6 24 bd d0 b5 9f 3d
       -0.05914561 0.013233818 -0.04019824 0.0779835
000310 b7 f8 75 bd c1 8c 76 3c a6 87 00 3e c0 88 86 3d
       -0.060051646 0.015048207 0.12551746 0.06569052

layers.0.egnn.edge_mlp.0.bias f4 [20]
000000 20 6f 68 be f2 b1 5f 3d a3 d9 42 be 0b 9e 0a bf
       -0.22698641 0.05461306 -0.19028334 -0.54147404
000010 98 48 00 bf ff 06 36 3e 9b f5 cc 3e 75 28 7e 3e
       -0.5011077 0.17776106 0.40031132 0.2482012
000020 93 e7 d6 be 7d 49 94 be be 50 23 3e a2 d1 6f 3e
       -0.41973552 -0.28962317 0.1594877 0.23419812
000030 04 f1 1a bf 21 90 8b 3e 26 62 5e 3e a8 bc 5b be
       -0.6052401 0.272584 0.21717128 -0.21458685
000040 68 b2 0c bf e5 79 bd 3e 87 14 1b be b7 b5 5e 3d
       -0.54959726 0.3700706 -0.1514455 0.054372516

layers.0.egnn.edge_mlp.3.weight f4 [16, 20]
000000 7a cf 29 3e eb e8 91 be 24 a3 33 3e 8a f9 ab 3d
       0.16583052 -0.28498015 0.17542702 0.08397205
000010 c4 70 bc 3d 6f 33 43 be 45 fd 28 be e0 0f 35 be
       0.09201196 -0.19062589 -0.16502865 -0.17681837
000020 31 d2 de 3d da f5 0f 3e f1 6b 46 be 80 bf 39 be
       0.108799346 0.14058629 -0.19377114 -0.18139458
000030 a2 b9 8f 3d 0b 2a 33 be b9 45 3c be d6 06 31 3e
       0.070178285 -0.17496507 -0.18385972 0.17287764
000040 c1 03 a8 3d 9d 60 2d be 25 e0 7b 3e d0 2a 81 be
       0.08203841 -0.16931386 0.24597223 -0.25227976
000050 68 63 44 3e d5 29 73 be b5 29 56 3e 0d cf fb 3d
       0.19178545 -0.23746426 0.20914347 0.12295351
000060 d2 70 05 3e 7f 57 37 be ad 33 2c be 05 05 2a be
       0.13031319 -0.17904471 -0.16816588 -0.16603477
000070 69 7b 15 3e 07 9e 39 3e 91 a0 45 be 57 05 33 be
       0.14597858 0.18126689 -0.19299532 -0.17482506
000080 bb 09 e3 3d fa 48 2b be 88 ff 30 be d2 ed 49 3e
       0.1108584 -0.16727057 -0.17284977 0.19719627
000090 b1 8b f9 3d c3 e9 2f be 65 cb 80 3e be e9 54 be
       0.12184847 -0.17179017 0.25155178 -0.2079229
0000a0 d2 1a bc 3e 3a f9 c2 be ec 72 bd 3e b2 7d 97 3e
       0.36739212 -0.3808077 0.3700174 0.29588085
0000b0 21 9e 9a 3e 89 e8 b1 be a6 f1 aa be 5f 8b a4 be
       0.30198768 -0.34747723 -0.33387488 -0.32137582
0000c0 27 4f a0 3e 71 a0 ae 3e ac c7 bc be 91 84 ad be
       0.31310388 0.34106782 -0.36871088 -0.33890203
0000d0 39 a3 8c 3e 8e 2d a7 be 80 94 ac be bb cf bd 3e
       0.2746828 -0.32651943 -0.33707047 0.37072548
0000e0 4f 79 94 3e 5a 66 ae be 63 e4 db 3e 79 d6 b8 be
       0.289988 -0.34062463 0.42947683 -0.3610113
0000f0 31 0e cb bd 1f d2 04 3e 80 fc 9f bd f6 58 a3 bc
       -0.09914816 0.1297078 -0.078118324 -0.01993988
000100 c5 b5 cf bc 44 8e 1a 3c 54 c5 9d bb 54 c1 d8 3b
       -0.02535523 0.009433333 -0.004814783 0.0066148434
000110 45 2d 28 bd a9 f2 59 bd 74 41 3f 3b 5a b4 e6 3a
       -0.041058797 -0.053209934 0.00291833 0.0017601356
000120 7f 28 7a bc 6a 41 b1 3a 7d bd df 3b d8 3e cb bd
       -0.015268444 0.0013523523 0.0068280087 -0.09924096
000130 59 ed a0 bc f6 76 9f bb 3e 4f 4d be 16 9b b8 3d
       -0.019644426 -0.004866476 -0.2004976 0.09013955
000140 df 81 1a be fa 1b 00 3e 55 21 11 be a7 fe 23 be
       -0.15088604 0.12510672 -0.14172871 -0.16015111
000150 22 ca 1d be 0c 1c 2f 3d fd e6 2d 3d f5 2c 1b 3d
       -0.15409139 0.042751357 0.042456616 0.03788467
000160 d1 78 18 be 73 6b 0b be 66 25 3e 3d 6a 84 1d 3d
       -0.14889838 -0.13615207 0.046422385 0.038456358
000170 4b de 29 be 4f 24 24 3d cf 8e 24 3d 80 97 19 be
       -0.16588704 0.04007369 0.040175255 -0.14999199
000180 19 f9 22 be 86 59 37 3d c4 72 56 be 21 54 bb 3d
       -0.15915336 0.04476311 -0.20942217 0.09146906
000190 1a a7 ba 3e 49 9b bf be c0 87 bc 3e 2a 5c 97 3e
       0.36455613 -0.3742316 0.3682232 0.29562503
0001a0 ca 5b 9b 3e 19 08 b0 be 4b 30 aa be 63 af a2 be
       0.30343467 -0.34381178 -0.3323997 -0.31774434
0001b0 cc a8 a0 3e c1 45 ad 3e 7a 94 bc be 39 b6 ac be
       0.31378782 0.3384228 -0.3683203 -0.33732775
0001c0 5d 7e 8e 3e 6e 16 a6 be 3a c7 aa be 37 99 bb 3e
       0.27830783 -0.32438987 -0.33355123 0.3664033
0001d0 9c a2 95 3e 26 01 ae be 7b bd da 3e d1 51 b6 be
       0.29225624 -0.3398525 0.42722687 -0.35609296
0001e0 46 80 0e be a4 43 f8 3d 1b ce 02 be 97 28 f1 bd
       -0.1391612 0.121222764 -0.12773935 -0.1177532
0001f0 b4 40 f3 bd fd a3 06 3d ed eb 10 3d c9 8e fb 3c
       -0.118775755 0.032871235 0.035381246 0.030707734
000200 45 3c f8 bd 3c 54 f5 bd c6 a2 10 3d b5 54 f5 3c
       -0.121208705 -0.11978957 0.035311483 0.029947618
000210 df ac f8 bd d5 3f ef 3c ba 8a f6 3c 1f f3 0d be
       -0.121423475 0.029205242 0.030095447 -0.13862275
000220 55 db f4 bd d4 ba 08 3d 33 fb 5e be c4 96 af 3d
       -0.11955897 0.0333813 -0.21775512 0.08573678
000230 7e 47 bd 3e 38 8f a0 be 1e 99 c5 3e 6c 18 97 3e
       0.36968607 -0.31359267 0.38593382 0.2951082
000240 bd 4a 9b 3e 8f 03 9a be 4b 95 97 be 1c b1 8d be
       0.30330458 -0.3008084 -0.2960609 -0.27674186
000250 0b bc a5 3e 15 eb b6 3e 38 81 a6 be f1 b2 97 be
       0.32370028 0.35726228 -0.3252046 -0.2962871
000260 8e fa 8c 3e e3 e1 91 be 73 26 95 be 6f f7 c0 3e
       0.27534908 -0.2849265 -0.29130897 0.37688777
000270 7d 4e 95 3e 77 e0 9a be 29 c5 dc 3e ad 32 96 be
       0.29161444 -0.30249378 0.4311917 -0.29335538
000280 9d cd 17 be 5b c0 29 3e 0e 3a 12 be 00 6e 23 be
       -0.14824529 0.16577284 -0.14279959 -0.1595993
000290 27 33 1e be 14 45 95 3d 78 28 95 3d f7 32 8f 3d
       -0.154492 0.07288566 0.072831094 0.06992143
0002a0 42 d2 19 be d1 5f 0e be 40 9f 9a 3d 32 70 8e 3d
       -0.15021613 -0.13903739 0.07549906 0.06954993
0002b0 93 c0 2a be 37 7d 8e 3d 64 40 90 3d e8 0b 18 be
       -0.16675024 0.069574766 0.070435315 -0.14848292
0002c0 ea fd 23 be 96 52 8e 3d 6e 86 4b be 51 24 05 3e
       -0.1601483 0.06949346 -0.198755 0.13002135
0002d0 e6 ac 18 be da 8c 27 3e e6 73 13 be cb 4b 25 be
       -0.14909706 0.16362324 -0.1439968 -0.16142194
0002e0 d5 f6 21 be b1 bc 9d 3d f9 1f 9e 3d 94 26 9a 3d
       -0.15816815 0.07702006 0.07720942 0.075268894
0002f0 da 53 1a be 04 b1 11 be 8d c8 a5 3d 23 55 9a 3d
       -0.1507105 -0.14227682 0.08094893 0.0753577
000300 be 7c 2b be e9 2a 95 3d 49 2f 94 3d 3a 3c 18 be
       -0.16746804 0.07283575 0.072355814 -0.14866725
000310 a5 d3 25 be 2f 0e 9c 3d 3f e6 50 be da 5c 03 3e
       -0.16194017 0.07619893 -0.20400332 0.12828389
000320 d6 35 23 be 89 06 47 3e 69 97 18 be ba 8e 26 be
       -0.15938506 0.19436087 -0.14901508 -0.16265383
000330 2c bb 21 be fb 0a c7 3d ba f1 c1 3d 04 f3 bf 3d
       -0.15794057 0.09718891 0.09469934 0.093725234
000340 07 78 1e be c2 ce 14 be d3 f8 ca 3d e7 b8 c0 3d
       -0.15475474 -0.14531997 0.09910741 0.09410267
000350 f3 85 2c be ef e2 b7 3d 6c e7 bf 3d 0e d1 1e be
       -0.16847973 0.08978831 0.09370312 -0.15509436
000360 05 90 27 be cf 96 c0 3d 96 97 4a be d2 73 23 3e
       -0.16363533 0.094037645 -0.19784388 0.1596215
000370 10 b2 af bd 43 21 07 3e 13 1c 89 bd ca f8 b8 ba
       -0.085788846 0.13196282 -0.06694808 -0.0014112231
000380 de 2d f3 bb fa b4 c6 3b bc 41 22 bc fa d8 53 3b
       -0.0074212393 0.0060640546 -0.009903368 0.0032325373
000390 4d 70 d3 bc 10 3d 23 bd 67 b3 18 ba c8 93 4b bb
       -0.025810385 -0.039853156 -0.0005825073 -0.0031063426
0003a0 03 33 39 3b c7 01 26 bb 4a 9f b8 3a 73 4d b0 bd
       0.0028259165 -0.002533065 0.0014085558 -0.08608522
0003b0 51 b6 23 bb a3 59 35 bc 1e e9 47 be 28 df ba 3d
       -0.0024980495 -0.011068734 -0.19522521 0.09124595
0003c0 af 3d e2 bd 35 6f fc 3d 29 3d bf bd a1 51 46 bd
       -0.110469215 0.123258986 -0.09337837 -0.04841769
0003d0 e9 c2 55 bd eb 2e 65 3c 0e 83 96 3b 60 86 32 3c
       -0.052187834 0.013988237 0.0045932597 0.010896295
0003e0 ff eb 84 bd 12 6f 98 bd 06 d7 39 3c 36 32 02 3c
       -0.06490325 -0.0744306 0.0113427695 0.0079465415
0003f0 33 d8 35 bd 01 18 fb 3b 97 10 4d 3c db a4 e0 bd
       -0.044395637 0.0076627736 0.012516162 -0.10968944

layers.0.egnn.edge_mlp.3.bias f4 [16]
000000 b9 b5 ee 3d 78 1e b5 3d 5d 1c 2d be b7 c9 7b be
       0.116557546 0.08843702 -0.16905351 -0.24588667
000010 1e 94 97 3c c0 d2 2b be fa 97 4f bd 7a 15 59 bd
       0.018503245 -0.16779613 -0.050682046 -0.052998997
000020 1c bb d1 3d 54 6d dc 3d 56 46 0d 3e 4e a9 80 be
       0.102407664 0.1076304 0.13796362 -0.2512917
000030 40 4e 38 be 95 eb d1 3d b1 f3 06 be 65 9e 45 be
       -0.179986 0.10250012 -0.13178898 -0.19298704

layers.0.egnn.node_mlp.0.weight f4 [8, 20]
000000 f7 f3 0f 3a b7 89 d6 39 86 8e e3 3a 7f 69 84 b9
       0.00054913707 0.00040919866 0.0017361201 -0.00025255603
000010 46 a6 bd b9 1a 4f 69 b9 25 52 3d 3a 57 4a 52 39
       -0.00036172773 -0.00022250079 0.00072220183 0.00020054854
000020 df d3 f7 b9 9c 9f 14 ba 1c e6 a8 ba ac b9 2c ba
       -0.00047269367 -0.00056695356 -0.0012885961 -0.00065889466
000030 3f e5 c1 ba 46 49 1e ba c1 40 a5 b8 fa a9 9c ba
       -0.0014793052 -0.000603814 -7.8798745e-05 -0.0011952512
000040 e3 a5 95 3a 56 67 4e 3a 99 ee 96 ba 10 e8 c0 3a
       0.0011417236 0.00078736746 -0.00115152 0.0014717598
000050 a9 f2 02 3b 8c 55 55 b9 2c a2 54 3a 61 2c 55 3a
       0.0019981063 -0.00020345132 0.00081113237 0.0008131918
000060 6f 51 4a ba 71 cc 31 3a 91 ec 04 bb 64 c6 c8 39
       -0.0007717823 0.00067824783 -0.0020282606 0.00038294785
000070 ac 8e 84 3a b5 6d e7 3a f3 42 4e 3b 7c f8 7c 3a
       0.001011332 0.0017656597 0.003147301 0.0009650064
000080 36 52 0f ba 53 c8 91 b9 8b 5f cf ba c6 62 ab ba
       -0.00054672675 -0.00027805808 -0.0015821321 -0.0013075701
000090 2c 44 45 37 88 fc b2 3a cf c6 04 ba 70 cd 45 b8
       1.17579875e-05 0.0013655582 -0.0005065025 -4.715979e-05
0000a0 5b 50 ce ba 4d f0 81 3a b8 1d 24 3a 62 3b a0 39
       -0.00157405 0.0009913534 0.0006260532 0.00030561822
0000b0 6b 13 e5 b9 67 b9 29 3b 61 91 83 ba 31 a6 34 3a
       -0.0004369275 0.0025897862 -0.0010037833 0.00068912195
0000c0 46 21 20 bb 76 61 c7 3a 60 b8 1b ba de 5d 3f 3a
       -0.0024433895 0.0015211541 -0.0005940255 0.0007300059
0000d0 dc 3d 1b bb 1d 41 2b ba ea 18 11 bb 07 fd 38 3a
       -0.0023687994 -0.0006532835 -0.0022140094 0.0007056747
0000e0 27 22 8e b8 af b8 f0 38 8d 31 d3 39 52 3d dd b9
       -6.777449e-05 0.00011478492 0.00040281974 -0.00042198092
0000f0 d4 6f 06 3a 69 e2 a4 ba b3 af 19 3a 96 f8 65 ba
       0.0005128358 -0.0012579683 0.0005862668 -0.0008772699
000100 fb b3 68 3a 5c 56 75 3a 93 ff 16 3a 8d e2 dd ba
       0.0008876917 0.0009358877 0.00057601294 -0.0016928479
000110 a4 dd 31 ba ec 19 53 3a ae 95 f6 39 7f 78 fd 37
       -0.0006785041 0.0008052874 0.00047032296 3.021606e-05
000120 80 89 04 3a 46 54 d2 3a 19 6d 22 3b 5b 41 74 39
       0.00050558895 0.0016046844 0.0024784266 0.00023294
000130 2e c6 2c bb 16 3b f3 3a 50 17 aa 3a 6a 52 63 ba
       -0.0026363241 0.0018557038 0.0012976918 -0.00086716434
000140 18 43 4c 3a 02 f7 33 3a 34 ac d0 3a 78 b9 15 ba
       0.000779198 0.0006865115 0.0015920461 -0.0005711536
000150 82 96 72 ba a3 e2 41 3a 14 0c c6 ba 36 cd 3e 3a
       -0.0009253995 0.0007396137 -0.0015109801 0.00072785036
000160 85 bf b1 3a c6 c8 3a b9 f8 c7 77 3a 76 4b 4a 3a
       0.0013561106 -0.00017813136 0.00094521 0.0007716933
000170 f7 dc 39 3a ee 5d 06 ba 0b 51 87 3a ed 56 fa 3a
       0.0007090116 -0.0005125691 0.0010323835 0.0019099392
000180 34 91 44 3b 18 55 98 b9 b4 7c cd ba 5a 0c 9d b9
       0.0029993774 -0.000290551 -0.0015677423 -0.00029954576
000190 e8 ff 53 3a fa 2b 2c 39 89 19 66 3a bb 55 86 ba
       0.0008087144 0.00016419581 0.0008777609 -0.0010248938
0001a0 8a 58 e5 b9 1b c8 fc 36 c5 e5 8c ba 98 5d 05 3a
       -0.0004374425 7.5334806e-06 -0.0010749629 0.0005087494
0001b0 2f dd 96 ba 8b 2a b0 3a 62 6d 9a 3a d9 8b 6a ba
       -0.001151001 0.0013440413 0.0011781866 -0.00089472305
0001c0 00 05 11 bb 50 a2 af 3a e8 d5 86 39 e9 3f c0 39
       -0.0022128224 0.0013399813 0.00025717844 0.0003666871
0001d0 dc 52 0d 3b 56 f0 90 ba 12 c1 08 ba f5 c2 96 39
       0.002156428 -0.0011057954 -0.0005216758 0.00028755484
0001e0 82 8f 1d 3b 9a f5 ed 3a e5 d9 e4 ba 74 51 cc 3a
       0.0024041836 0.001815486 -0.0017459957 0.001558824
0001f0 48 69 84 39 4e 66 82 3a 5b 12 fd 39 7d b6 c8 3a
       0.00025255443 0.0009948702 0.00048269596 0.0015313175
000200 ab 0d c9 b8 9e 88 27 ba f6 ad a8 37 92 1e 26 b9
       -9.586973e-05 -0.0006390902 2.0108168e-05 -0.00015842382
000210 64 08 9e 3a 9b 91 eb 3a 2a ec 5e b7 49 34 94 3a
       0.0012056944 0.0017972471 -1.3287217e-05 0.0011307086
000220 70 8b bf 3a 2a 29 f7 38 67 e5 82 39 5c 64 7d 39
       0.0014613699 0.00011785545 0.0002496645 0.00024165347
000230 75 e5 1e b9 d0 0e 07 b9 8c ed 89 b9 f4 95 0c 39
       -0.00015153534 -0.00012880121 -0.00026307662 0.00013407302
000240 fe 07 3b ba 2e c2 8f 3a c6 9e 04 b9 9c 44 34 3a
       -0.0007134675 0.0010967904 -0.00012647649 0.00068766787
000250 8a 0c 87 b9 46 0d 11 b9 93 d0 e0 ba 88 8e 13 b9
       -0.0002575855 -0.00013833222 -0.0017152004 -0.0001407211
000260 ef 70 ef 3a ce 22 41 39 b7 27 1b 39 d3 f9 6c 3a
       0.001826791 0.0001841888 0.00014796747 0.0009039912
000270 00 cc be ba 66 b3 bb 39 09 f9 ff ba 7e 24 dc 39
       -0.0014556646 0.00035801082 -0.0019529174 0.0004198886

layers.0.egnn.node_mlp.0.bias f4 [8]
000000 cc d6 3f be 1c 31 59 3e 12 58 d5 bc 18 ae 4f 3e
       -0.18734282 0.2121014 -0.026042972 0.20281255
000010 9c 73 46 be a2 bb 81 3d 1a cb 1b be e8 19 0f 3e
       -0.19380039 0.06334616 -0.15214196 0.13974726

layers.0.egnn.node_mlp.3.weight f4 [4, 8]
000000 2f 10 40 ba cd 74 1c 3a 5a e3 16 3a 69 0e 1a 3b
       -0.00073266303 0.00059683324 0.0005755924 0.0023507124
000010 88 35 0b 3a e2 07 58 b9 a5 28 ab ba 6e 41 86 ba
       0.0005310406 -0.00020602302 -0.0013058378 -0.0010242888
000020 70 c9 86 b9 b2 87 b8 b8 34 d1 c0 39 f6 0e 4c 3a
       -0.00025708554 -8.799079e-05 0.00036776962 0.0007784212
000030 2f 46 da b7 3f 40 35 ba 16 7a 89 ba 62 c3 54 39
       -2.6020307e-05 -0.00069141755 -0.0010488655 0.00020290681
000040 1a bb 4c 3a c7 91 35 ba c1 7e 90 39 98 64 02 bb
       0.0007809863 -0.00069263246 0.0002756026 -0.0019896384
000050 f0 69 e2 ba cc e3 53 38 29 57 13 ba a1 b5 9c 3a
       -0.0017274003 5.0518473e-05 -0.0005620593 0.0011955985
000060 4f 00 48 3a b7 99 13 bb 32 d2 ce b9 19 db 1a ba
       0.00076294405 -0.002252204 -0.0003944799 -0.0005907282
000070 68 16 8c 3a cd 06 f3 39 cc fc ad b9 65 e2 ae 36
       0.001068783 0.0004635364 -0.0003318548 5.21196e-06

layers.0.egnn.node_mlp.3.bias f4 [4]
000000 2e 74 38 3e b1 a4 63 bd 3f 3a 44 3e 82 2f 26 3e
       0.18013069 -0.055576984 0.19162844 0.1622906

layers.0.egnn.coors_mlp.0.weight f4 [64, 16]
000000 10 25 04 3d 4e 8d 62 3d 77 6f a4 3e c4 97 cf bb
       0.032261908 0.05531054 0.3211629 -0.0063352305
000010 a5 a8 e2 bd 51 07 a6 3e 7c 6d 8f bd 7c 06 f5 3d
       -0.11067323 0.32427457 -0.07003304 0.119641274
000020 b8 29 39 be 9a 57 40 be 66 f2 6f be d5 3b c5 3b
       -0.1808232 -0.18783417 -0.23432311 0.0060190954
000030 d8 ad d2 bc 6d 4d 0a 3d 6c 2a 1b bd 9f aa b9 bc
       -0.02571766 0.033765245 -0.037882254 -0.022664366
000040 58 10 47 3d 12 48 0b 3d ca 6b 43 be 56 11 c0 bb
       0.04859957 0.03400428 -0.19084087 -0.0058614416
000050 b9 59 ba bb 64 75 46 be a0 39 a6 bc 9e 49 f3 bc
       -0.0056869653 -0.19380718 -0.02029115 -0.02969819
000060 cf 90 11 3d 58 d9 21 3d 3b 22 a6 3d fe a8 bc 3a
       0.03553849 0.039513916 0.08111998 0.0014393625
000070 d6 77 92 bc b3 00 49 3d 80 b3 c9 bc eb 35 9a bc
       -0.017879408 0.049072932 -0.024621725 -0.018824538
000080 85 39 66 3c 67 9c 0b 3d 30 ed 97 3e e5 9c 45 bc
       0.0140518 0.034084704 0.29673147 -0.012061332
000090 bb 37 97 bd 71 e1 98 3e 71 21 37 bd 97 91 c8 3d
       -0.073836766 0.29859498 -0.044709627 0.09793394
0000a0 8b cb 01 be f6 ba 0e be 3b 8e 3b be 56 74 10 bb
       -0.12675302 -0.13938507 -0.18315975 -0.0022041998
0000b0 4a c5 a6 bc d5 5d 87 3c 22 22 e1 bc 43 be 8f bc
       -0.020357747 0.016524235 -0.027482096 -0.017546779
0000c0 4b 5d 4a 3c 2b 84 fb 3c df 71 98 3e 7a 7b 70 bc
       0.012351344 0.030702671 0.29774377 -0.014677877
0000d0 0f 19 6a bd e6 95 99 3e 33 9f 0c bd c8 d5 cc 3d
       -0.057152804 0.29997176 -0.03433151 0.10001713
0000e0 32 62 de bd ce 9a ed bd e6 d4 1f be 5a 3d 1d bc
       -0.10858573 -0.11601792 -0.15608558 -0.009597147
0000f0 82 ea 95 bc 23 2d 39 3c 3c 98 9b bc b4 be 8f bc
       -0.018300299 0.011302265 -0.01899349 -0.017546989
000100 d2 5d 43 3d 9b fa 07 3d 19 a2 3c be eb f6 f3 bb
       0.047696896 0.03319798 -0.1842121 -0.0074452064
000110 45 70 52 bc 34 a1 3f be 1c 3d d0 bc d2 ab c8 bc
       -0.01284415 -0.18713838 -0.025419764 -0.024495993
000120 73 8e e2 3c 9c 18 0e 3d 55 f5 9a 3d 55 80 3e b8
       0.027655816 0.034691438 0.075663246 -4.541905e-05
000130 bc f0 95 bc b6 8c 4d 3d 94 33 e4 bc 2d 69 90 bc
       -0.018303268 0.05018302 -0.027856626 -0.017628277
000140 95 ff 58 3d 82 5f a6 3d 76 2e b3 3e 6a a5 e6 3b
       0.052978117 0.081236854 0.34996384 0.007038762
000150 18 9a 25 be 40 b4 b4 3e ce f0 d0 bd 1d b5 15 3e
       -0.16172063 0.3529377 -0.1020218 0.1461987
000160 d9 c3 83 be 37 00 89 be f2 b5 9e be 7b 89 8d 3c
       -0.25735357 -0.26757976 -0.30998188 0.01727747
000170 41 39 a3 bc 28 6e 6f 3d 9b ee 37 bd fa cb 84 bc
       -0.019924762 0.058454663 -0.044905286 -0.016210545
000180 58 85 d4 3c e5 e1 4c 3d d4 0d a6 3e 75 aa 24 bc
       0.02594249 0.050020117 0.32432425 -0.010050406
000190 4a c1 c6 bd 1d 5d a8 3e 10 ad 7c bd 07 88 fc 3d
       -0.09704836 0.3288354 -0.061688483 0.12330633
0001a0 9f 9c 26 be 31 57 2c be 36 ff 59 be cd dd 4a 3a
       -0.16270684 -0.16830136 -0.21288761 0.00077387394
0001b0 7a 1a c0 bc 10 9e eb 3c 18 2e 0c bd 8e 33 a2 bc
       -0.023450125 0.028761894 -0.034223646 -0.019799974
0001c0 27 06 6c 3d fe cc 2e 3d 3e 0d 29 be 5c 15 50 bc
       0.057623055 0.042675965 -0.16508958 -0.012700405
0001d0 b5 b7 51 bc 67 cf 2c be 10 16 e3 bc 1b 9b 81 bc
       -0.012800147 -0.16875993 -0.027720481 -0.01582103
0001e0 16 ec da 3c 76 6c 02 3d 89 71 88 3d 0a 5d 56 bb
       0.026723903 0.031841718 0.0666228 -0.0032709264
0001f0 ca bb db bc 9e 03 67 3d 28 51 04 bd 3b c1 c4 bc
       -0.026822943 0.056399934 -0.03230396 -0.02401792
000200 ba cc 6c 3d d6 c7 3d 3d 8a db 25 be cd 89 6f bc
       0.05781243 0.046333157 -0.16197029 -0.014620257
000210 25 15 5f bc e2 b6 29 be b1 5a f9 bc 17 86 5d bc
       -0.013615881 -0.1657367 -0.030438753 -0.013520739
000220 a0 22 bc 3c f5 a7 f1 3c 05 b8 84 3d 57 dd 15 bb
       0.02296573 0.029499033 0.064804114 -0.0022867525
000230 cb 56 d9 bc 23 76 76 3d ec 4e 09 bd 67 ba d6 bc
       -0.026530644 0.060171258 -0.03352253 -0.02621193
000240 88 f8 8f 3d c1 6d c7 3d 39 8f ac 3e a8 24 f0 3b
       0.070298254 0.09737731 0.3370302 0.0073285885
000250 b8 1b 7f be f0 21 ad 3e b7 4b 09 be 9f 6e 24 3e
       -0.24912918 0.33814955 -0.13407789 0.16057824
000260 7d fe c3 be 80 cc c8 be 62 dc d9 be c5 58 4a 3c
       -0.38280097 -0.3921852 -0.4255095 0.012350266
000270 29 bd a5 bc 91 59 98 3d 58 19 5e bd 58 65 82 bc
       -0.0202318 0.074389584 -0.05422339 -0.015917465
000280 90 0b 5a 3d 10 50 49 3d 71 b3 e6 bd 61 f8 fc bc
       0.053233683 0.04914862 -0.112646945 -0.030880155
000290 ab 2b 1d bd db 6f ec bd 14 d1 56 bd ee ea 2f 3c
       -0.038371723 -0.11544772 -0.052445486 0.010737164
0002a0 c4 d9 98 ba 75 7b 7a 3b 10 14 1c 3d 8a 56 be bc
       -0.0011661579 0.0038220559 0.03810507 -0.023234624
0002b0 31 98 3d bd 11 92 69 3d b8 fc 50 bd 6a 38 25 bd
       -0.04628772 0.057024065 -0.05102226 -0.040337004
0002c0 a0 ba 68 3d 27 33 b1 3d be 82 b7 3e af e4 51 3c
       0.056818604 0.08652335 0.35841936 0.01281087
0002d0 dd b7 31 be 2f 08 ba 3e 47 22 c4 bd 7b 8a 1e 3e
       -0.17355295 0.3633437 -0.095768504 0.15482514
0002e0 f9 80 8f be c3 5d 95 be 9c df a9 be 78 ef be 3c
       -0.28028086 -0.29173097 -0.33178413 0.023307547
0002f0 54 31 32 bc 62 02 71 3d c0 bc 17 bd e8 bb dc bb
       -0.010876019 0.058840163 -0.03704524 -0.0067362674
000300 b7 9b 7c 3d d7 b4 5c 3d 23 da f6 bd 51 54 ea bc
       0.06167194 0.0538834 -0.12053325 -0.028604658
000310 5c 90 1a bd d5 5c fe bd 74 32 56 bd de af 40 3c
       -0.037735328 -0.1242005 -0.05229421 0.01176068
000320 0d 97 80 39 b3 11 8a 3a aa f4 28 3d 8c 65 95 bc
       0.00024526604 0.0010533839 0.041248955 -0.018236898
000330 5e fb 26 bd e8 46 77 3d cf 5f 4f bd b8 61 23 bd
       -0.040767066 0.060370356 -0.05062848 -0.039888114
000340 5c f8 82 3d 41 56 56 3d 75 5e 12 be 20 78 a0 bc
       0.06395027 0.052328352 -0.14293845 -0.01958853
000350 20 9d 92 bc d6 ed 13 be 4e cd 02 bd ed 45 99 bb
       -0.017897189 -0.14446196 -0.031934075 -0.0046775253
000360 e3 8c 70 3c 06 e6 ab 3c fd 6f 69 3d 24 ac c9 bb
       0.0146820275 0.020983707 0.056991566 -0.006154554
000370 77 b0 f9 bc 7e 44 84 3d 24 e5 1a bd 10 14 02 bd
       -0.030479653 0.06458376 -0.03781618 -0.031757414
000380 3c 03 1b 3c b9 38 fc 3b 87 0b 81 bd f8 98 61 bc
       0.00946122 0.0076971916 -0.06301027 -0.013769381
000390 7a 62 e5 bc a8 3e 86 bd 3c 0d fe bc 0d b1 0e bc
       -0.028001059 -0.065549195 -0.03101217 -0.008709204
0003a0 0c c9 ea bb 07 89 bd bb 59 ec b4 3c 7c 6e 10 bc
       -0.00716508 -0.005784157 0.022085356 -0.008815404
0003b0 4f 62 bf bc 07 e1 39 3c 27 f3 ea bc 5b f6 a7 bc
       -0.023362307 0.011345155 -0.028680397 -0.020503214
0003c0 07 4f 7e 3d ff 30 66 3d fb e8 ee bd 06 05 fe bc
       0.062087085 0.05619907 -0.11665531 -0.031008255
0003d0 ad 21 1c bd 3c 7f f9 bd 1c a4 4e bd b2 1c 4e 3c
       -0.038118053 -0.12182471 -0.050449476 0.012580084
0003e0 20 a2 d8 b6 a0 62 80 3b 6d 98 21 3d c4 0f b7 bc
       -6.4561755e-06 0.003918007 0.039452005 -0.022346385
0003f0 57 1e 40 bd 6c 05 84 3d cd 37 5a bd 53 f9 2c bd
       -0.046903934 0.06446347 -0.053275872 -0.04222996

layers.0.egnn.coors_mlp.0.bias f4 [64]
000000 24 50 20 be c5 f6 7e 3e 10 b8 d9 bd 9e 0d a3 bd
       -0.15655571 0.24898823 -0.1063081 -0.07961582
000010 89 e5 67 3e 67 d1 72 be 08 de f3 bd 19 3a 13 3e
       0.22646154 -0.23712693 -0.119075835 0.14377631
000020 b9 13 07 3e df 86 5d be dc 90 f3 3c 33 42 6f be
       0.13191117 -0.2163348 0.02973216 -0.23365097
000030 49 3f 13 3d 9a 14 b8 3d 8d bf 34 3c be 21 13 3d
       0.035949025 0.089883044 0.011031997 0.03592085
000040 12 b7 75 3b 71 4c 7e be 9c c1 72 3e 72 42 70 3e
       0.0037493152 -0.24833848 0.23706669 0.23462847
000050 ed c2 14 3d 95 79 51 3d 5a 2f 73 be c9 f6 90 be
       0.03631871 0.05114134 -0.23748532 -0.28313282
000060 3d 5d 89 be 10 47 6c be 47 0f 76 be da 41 b5 bc
       -0.26828948 -0.23073983 -0.24029265 -0.022126127
000070 cb b2 61 be 5c 8b c8 3d c5 ef 69 be 03 cf df 3d
       -0.2204086 0.09792206 -0.22845371 0.10928156
000080 e2 2d 41 be 55 11 44 be 0c c8 90 be 8b 2e a2 3d
       -0.18865159 -0.19147237 -0.28277624 0.079190336
000090 7c 98 60 be f4 3a 52 be 0a c2 6b 3e 75 1c 86 3d
       -0.21933168 -0.20530301 0.23023239 0.065483965
0000a0 89 ae 81 be 54 66 01 3e 70 2e 35 be c8 0f de 3c
       -0.25328472 0.12636691 -0.17693496 0.027107134
0000b0 1c f8 7e 3e cc 24 1c bd b0 d6 76 3e 14 b8 4e 3e
       0.24899334 -0.03812103 0.24105334 0.20187408
0000c0 74 42 24 be ae b5 77 be 07 c5 d7 bd 74 5d 16 3e
       -0.16040975 -0.24190399 -0.10535627 0.14684087
0000d0 62 1a 3b be 0b 1c 87 3d 89 8e 8e be 60 af 74 3e
       -0.18271783 0.06597146 -0.2784312 0.23895025
0000e0 af ab 19 be 63 b4 5e 3e bb ae 54 3c 5f 1d 22 be
       -0.15006898 0.217485 0.012981112 -0.15831517
0000f0 a9 6b 2f 3e 72 73 b9 bd e3 28 35 be 3a d4 c7 3d
       0.17130913 -0.090552226 -0.17691378 0.09757276

layers.0.egnn.coors_mlp.3.weight f4 [1, 64]
000000 56 f0 0c 3d c9 09 7c bc bc eb 0b 3d 93 7c 06 3d
       0.03440889 -0.015383192 0.03416036 0.032833647
000010 db a9 7a bc 59 1f 09 3d 2b 4a 10 3d 04 0c 25 bc
       -0.015299286 0.03347716 0.035226982 -0.0100736655
000020 b5 49 19 bc 36 2c 10 3d a7 b0 a2 3a d6 9a 09 3d
       -0.009355952 0.035198413 0.0012412266 0.03359493
000030 86 1f 93 3a 4a 71 b5 bb 78 fb 88 b7 28 73 a0 3a
       0.0011224605 -0.0055371867 -1.6329563e-05 0.001224135
000040 1c 35 26 b8 15 e7 0b 3d 9b f4 82 bc 9c a8 89 bc
       -3.9626946e-05 0.034155924 -0.015985778 -0.016804032
000050 99 17 8b 3a 3a 10 1e ba 8e f9 01 3d 7a 34 05 3d
       0.0010611891 -0.00060296396 0.031732135 0.03252075
000060 76 30 06 3d 89 53 0b 3d ab c5 09 3d 30 4e 9d 3c
       0.03276106 0.034015212 0.033635776 0.019202322
000070 d3 82 0c 3d 90 a7 b7 bb 9f 8e 0c 3d 03 2d f2 bb
       0.03430445 -0.005604692 0.0343157 -0.0073906197
000080 99 ab 0e 3d bf 6c 0f 3d f0 d6 04 3d b5 be 8c bb
       0.034831617 0.035015818 0.032431543 -0.004295195
000090 e9 e2 0b 3d 5f fd 12 3d 94 30 6e bc 35 05 32 bb
       0.034151945 0.035886165 -0.014537949 -0.0027163748
0000a0 ff 79 07 3d 7d 00 22 bc 12 82 16 3d 03 fb 60 3a
       0.03307533 -0.009887812 0.03674514 0.00085823255
0000b0 17 5b 6e bc 3a a5 a3 3c ee af 76 bc c5 42 4f bc
       -0.014548085 0.019976247 -0.015056593 -0.012650196
0000c0 42 9a 08 3d 07 21 0a 3d e5 17 0e 3d 18 2e 2c bc
       0.033350237 0.033722904 0.034690756 -0.0105090365
0000d0 b9 a4 14 3d da 24 20 bb c0 c0 06 3d f2 bd 73 bc
       0.036289904 -0.0024436028 0.032898664 -0.014876829
0000e0 62 d1 0d 3d e2 dd 75 bc 38 9d 29 b6 59 7d 12 3d
       0.03462351 -0.015006514 -2.5274476e-06 0.035764072
0000f0 1e 22 42 bc c7 cd 12 3d 3c 12 0f 3d 00 8e ce bb
       -0.0118489545 0.035840776 0.0349295 -0.006303549

layers.0.egnn.vel_mlp.0.weight f4 [16, 4]
000000 74 a7 31 3b 42 49 aa 3a 93 da 92 3a 8b e7 2d 3b
       0.0027107866 0.0012991803 0.0011204056 0.0026535715
000010 18 89 91 ba 05 b9 79 39 6c 97 4a ba bb 31 22 ba
       -0.0011103479 0.00023815416 -0.0007728252 -0.000618722
000020 7f 4b 81 3b 23 e4 4f 3b ca 58 ea 3b 81 b2 91 3b
       0.0039457674 0.0031721673 0.0071516978 0.004446328
000030 20 ed 9c 3b e6 46 0b 3b f2 7d 00 3c cd c3 8e 3b
       0.0047890097 0.0021251976 0.007842528 0.0043568374
000040 6b 33 3e bb 97 d9 87 bc e6 38 ae 37 30 99 10 bc
       -0.0029022347 -0.016583247 2.0768912e-05 -0.008825585
000050 71 82 35 bb d5 b5 5e ba 9b c4 20 bb 4c 27 16 bb
       -0.0027696157 -0.0008495723 -0.0024531248 -0.0022911606
000060 35 6d 41 3a d1 cb 41 bb d7 9c ee 3a fd fd 89 ba
       0.0007378639 -0.0029570947 0.0018204701 -0.0010527965
000070 21 1d 01 ba e3 d1 a1 3a 29 ec 77 ba 02 97 94 39
       -0.00049253 0.0012345876 -0.0009457493 0.0002834127
000080 72 7f 9c 3a 48 cc c7 3b 85 63 ed 3a 05 50 7e 3b
       0.0011939837 0.0060973503 0.0018111324 0.003880502
000090 d3 ec 09 3b 48 81 1c 3c f9 d7 07 3a 11 66 b5 3b
       0.00210457 0.009552307 0.0005182024 0.005535849
0000a0 14 01 33 bb 77 c9 fe ba 19 4e 54 bb a4 6d 34 bb
       -0.0027313875 -0.0019438703 -0.0032395183 -0.0027531171
0000b0 2a b8 8b bb bc 04 10 3b 65 5f 8a bb ab 0c b2 b9
       -0.0042638974 0.0021975478 -0.0042227977 -0.00033960244
0000c0 54 d4 20 bb 50 04 db ba 20 4a 9b ba d4 59 25 bb
       -0.002454062 -0.0016709659 -0.0011847652 -0.0025230544
0000d0 f4 aa bd 3b 8b a4 23 3c 15 11 48 39 03 61 e6 3b
       0.0057882015 0.009987961 0.0001907985 0.0070306077
0000e0 bf 43 db 3a e6 03 00 3b a0 34 ab ba 99 be 1f 3b
       0.0016728564 0.0019533574 -0.0013061948 0.002437508
0000f0 76 42 8d 3b b9 7b 12 3b dd f8 d6 3b 37 88 83 3b
       0.0043109013 0.0022351576 0.0065604285 0.004014041

layers.0.egnn.vel_mlp.0.bias f4 [16]
000000 15 bb 87 bd ae 23 ec 3e 32 0c ad 3e f9 02 66 3c
       -0.0662748 0.4612097 0.33798367 0.014038795
000010 b0 3b 8a 3d 6f 9c d4 be 23 b3 d4 be 49 80 b5 3e
       0.06749666 -0.415256 -0.4154292 0.35449436
000020 8d 4a 96 bc cc e1 8d be 78 e1 d0 3e 5c 9d c4 3e
       -0.018346095 -0.27711332 0.4079702 0.38401306
000030 e1 ee a7 be 9c 94 91 be 95 b1 d3 3e 53 ef ec bd
       -0.32799438 -0.28433692 0.41346422 -0.11569085

layers.0.egnn.vel_mlp.3.weight f4 [1, 16]
000000 7b c5 ab b9 96 32 64 37 8c aa 69 38 da 58 97 38
       -0.00032762796 1.3601637e-05 5.5710363e-05 7.216791e-05
000010 e2 ce 43 b9 8d d4 57 38 e8 af be 37 96 f7 71 36
       -0.00018673719 5.1457948e-05 2.2731678e-05 3.6055912e-06
000020 71 af 92 b7 8a 40 40 b8 9e 77 e1 37 2d ba 0c 3a
       -1.7486253e-05 -4.5836474e-05 2.6877791e-05 0.00053683185
000030 5a 54 73 38 ca 97 06 b9 45 ed 07 b9 19 9e 2c 38
       5.8014273e-05 -0.00012835782 -0.00012962993 4.1155236e-05

layers.1.egnn.edge_mlp.0.weight f4 [20, 10]
000000 1a bc 8a bb aa b6 fa 3c 38 f5 52 3c b9 41 49 3c
       -0.0042338492 0.03060468 0.0128758475 0.012283736
000010 d7 bd 18 bb 4d a0 bc 3c ac 1f 23 3c fe d2 b0 3b
       -0.0023306513 0.023025656 0.009956282 0.005396246
000020 ae 4e 7c 3d b4 23 dd 3c f2 9f 83 3b 93 3c 97 3c
       0.061598472 0.026994564 0.0040168697 0.018461501
000030 d8 ad 61 3c 87 22 58 bb d7 36 b0 3a 1d e8 5d 3c
       0.013774358 -0.0032979564 0.0013444078 0.01354411
000040 c9 c7 2c 3c 7d c4 4e bc 38 e4 42 3d c0 0f 7e 3c
       0.010545679 -0.012620089 0.047580928 0.015506685
000050 8b 90 0d 3b 0c ac 81 3c 72 b4 76 3c f4 16 97 bb
       0.0021601047 0.015829109 0.01505767 -0.0046108905
000060 8e 6f 91 b9 b3 83 40 3c 03 a4 20 3c 26 49 6e bc
       -0.0002773967 0.01175015 0.009804728 -0.014543807
000070 6a 8d 30 3d db d4 55 3c 85 c5 6a bb 2c b4 18 bc
       0.043103613 0.013051237 -0.0035823297 -0.0093203
000080 57 e6 36 bc 1b d5 bd 3b 6f 00 af ba f8 66 0e bc
       -0.011163316 0.0057932264 -0.001335157 -0.008691542
000090 a6 24 32 bc 54 e1 6a 3c b2 80 9f bc ec 8b 48 bc
       -0.0108729955 0.014335949 -0.019470546 -0.012240391
0000a0 3b 32 92 ba e2 b2 7c bc 6a 03 72 bc 6c 35 81 3a
       -0.0011153886 -0.015423508 -0.014771322 0.000985784
0000b0 7e 02 02 bb fc ea 52 bc fc c7 3e bc bd 12 01 3c
       -0.0019837911 -0.012873407 -0.01164436 0.007878003
0000c0 f6 9b c6 bc 9e 03 93 bc 84 44 51 bb fc 8e 96 bc
       -0.02424429 -0.01794606 -0.0031931708 -0.018378727
0000d0 9e 7c 63 bc c9 bb 74 3b f5 6a eb b9 24 d3 70 bc
       -0.0138846915 0.0037343374 -0.00044902382 -0.014698777
0000e0 3f 7b 49 bc 24 6e 0d 3c fc 96 dc bc 34 58 9f bc
       -0.012297451 0.008632217 -0.026927464 -0.019451238
0000f0 7c ed 8a bb 79 81 33 bc 20 84 49 bc fa 1a 32 3b
       -0.004239736 -0.010956162 -0.012299567 0.0027176724
000100 67 d8 34 bb 08 31 10 bc 9d c1 19 bc 95 56 17 3c
       -0.0027594806 -0.008800752 -0.00938454 0.009236951
000110 6c ff 90 bc 17 5c 29 bc f1 5b d8 3a 2c 5e ba 3c
       -0.01769992 -0.010336897 0.0016506893 0.022749983
000120 ba 55 48 3c ff d1 7e bb 00 f9 fd 39 55 48 77 3c
       0.01222747 -0.0038882492 0.0004844144 0.015092929
000130 02 0e 4e 3c f3 8f 4c bc 34 b3 70 3d 8a 4f 96 3c
       0.012576582 -0.012485492 0.05876465 0.018348474
000140 f2 94 81 bb 2e f6 71 bc bc 9b 63 bc 48 e3 03 3c
       -0.0039545232 -0.0147681665 -0.01389211 0.008049794
000150 78 9b df ba ef 41 3f bc a9 95 4d bc 3b 94 53 3c
       -0.0017059883 -0.011673435 -0.012547889 0.012913759
000160 24 9b d2 bc 0c 89 77 bc 1f 99 68 b9 3c 22 9b bc
       -0.025708742 -0.015108358 -0.00022182286 -0.018937223
000170 1b 87 80 bc 2b 35 46 bb e1 f4 0f 3b 4d 1c 83 bc
       -0.015689423 -0.0030244093 0.0021966028 -0.016004706
000180 62 10 33 bc 3c bf 38 3b 00 e5 d6 bc 7d 94 9c bc
       -0.010929199 0.0028190156 -0.026232243 -0.019113773
000190 c9 5e 39 b9 f6 97 61 bc 88 e2 6b bc 54 39 5f 3b
       -0.00017678285 -0.0137691405 -0.014397271 0.003406127
0001a0 bd 48 fb ba a7 bb 6c bc 7e 01 1e bc 3d a3 f9 3b
       -0.0019171458 -0.014449037 -0.00964391 0.0076183365
0001b0 82 05 bb bc 5b 04 72 bc ff 2d fa ba cf f6 fb 3c
       -0.022829775 -0.014771546 -0.0019087194 0.030757336
0001c0 99 4a 5c 3c ab d2 60 3c b1 3b 1b bb 09 3b ca 3c
       0.01344552 0.013722102 -0.0023686702 0.024686353
0001d0 94 06 67 3c 8c 54 aa 3b ff e4 7b 3d 63 c8 de 3c
       0.014100689 0.005198067 0.061497685 0.027195161
0001e0 56 b3 f8 b8 88 06 dc 3c 9f 90 68 3c 82 ed 89 3b
       -0.000118589654 0.026858583 0.014194637 0.0042092213
0001f0 ee 3e 27 ba ca 12 a9 3c ce 27 51 3c 41 7b e7 ba
       -0.00063799217 0.020638842 0.012765838 -0.0017660634
000200 87 c4 5a 3d d9 7f c3 3c 31 7e 0f bb 4c b5 72 bc
       0.05341008 0.023864673 -0.0021895284 -0.014813732
000210 5e ab 56 bc 89 f9 3f 3c 30 c0 13 bb db 84 21 bc
       -0.013102381 0.011717209 -0.0022544973 -0.009858335
000220 8c fe 19 bc 66 b0 a1 3c 4e 61 c4 bc 51 f1 55 bc
       -0.009399068 0.019737434 -0.02397218 -0.013058023
000230 12 8f 67 bb 1f 91 01 3d bf 80 68 3c 68 66 5b 3c
       -0.003533308 0.03163254 0.014190852 0.013391115
000240 38 fa a5 bb 6a 59 d4 3c 59 45 34 3c ba 5a d4 3b
       -0.005065229 0.025921542 0.011002862 0.006480542
000250 e3 09 81 3d 18 27 f7 3c 2c c1 da ba 14 82 d3 3c
       0.06300714 0.030170009 -0.001668965 0.025818862
000260 30 75 4b 3c 96 f0 b4 3b 77 4c f0 b8 43 a9 a5 3c
       0.012418076 0.005521844 -0.000114583345 0.020222312
000270 ee ea 38 3c fb 36 32 bb 95 3b 7f 3d e2 13 ba 3c
       0.01128648 -0.0027193415 0.06231268 0.022714559
000280 98 f2 60 bb ed a0 f3 3c 1d ed 49 3c 58 28 2d 3c
       -0.0034324285 0.029739821 0.012324599 0.010568701
000290 6f 8a 87 bb 38 ae ba 3c c4 92 1f 3c 1f 2c 8e 3a
       -0.0041363756 0.022788152 0.0097395815 0.0010846889
0002a0 57 9c 8d 3d 40 12 e5 3c a9 a2 9f bb d0 46 31 bc
       0.06914585 0.027962804 -0.0048716855 -0.010820106
0002b0 9b 72 20 bc d4 dc 5e 3c d0 a7 70 bb 77 1c 07 bc
       -0.009792949 0.013602454 -0.0036721118 -0.008246533
0002c0 9e cf 23 bc 3a 7e a7 3c b1 db a9 bc 82 cf 28 bc
       -0.00999823 0.020445932 -0.02073464 -0.01030338
0002d0 aa 86 ea bb 87 5c 06 3d 7d ba 3b 3c bd 95 7b 3c
       -0.0071571665 0.032803085 0.0114580365 0.015355525
0002e0 2b f8 5e bb c4 89 db 3c fd 52 35 3c bd 6f ac 3b
       -0.0034022431 0.02679909 0.011067149 0.0052623437
0002f0 c2 fb 8a 3d 6a 17 f4 3c 49 b7 12 bb 21 52 9b bc
       0.067863 0.029796321 -0.0022387078 -0.01896006
000300 83 1a 6f bc a0 18 f0 ba e9 eb 1a ba a1 94 66 bc
       -0.014593723 -0.0018317886 -0.0005909787 -0.014073522
000310 ad a0 55 bc d7 b7 d0 3b ca 88 e2 bc d4 96 9c bc
       -0.013038796 0.0063695717 -0.027653117 -0.01911489

layers.1.egnn.edge_mlp.0.bias f4 [20]
000000 e7 52 6b be f2 1a 35 bd cc f6 05 bd 59 29 1a 3d
       -0.22980843 -0.04421515 -0.032706067 0.03763709
000010 31 38 1c 3e 8f a6 34 3e 81 f3 32 3d 87 a0 3b bd
       0.1525581 0.17641662 0.043689255 -0.045807388
000020 86 8a a3 3d fc ef 93 3e 32 79 df 3d bf 6f 77 be
       0.079854056 0.2889403 0.10911788 -0.24163722
000030 44 3f 0f be d1 fb 18 3d 69 bf 66 be 9c 73 f1 bd
       -0.13988978 0.037349526 -0.22533955 -0.11789629
000040 20 60 29 be f7 58 83 3c c6 3a 6b be bf f4 88 3e
       -0.16540575 0.016033633 -0.22971639 0.26749226

layers.1.egnn.edge_mlp.3.weight f4 [16, 20]
000000 d9 86 47 3c 6c d0 49 3c 3f 8c 39 3c 6d d6 b4 bb
       0.012178146 0.012317758 0.011324941 -0.0055187256
000010 58 d8 81 bb 4b 37 9a bb 95 9e a2 bb b1 e0 96 3c
       -0.0039625578 -0.0047062985 -0.004962752 0.018417688
000020 61 95 1b bc 53 4e a3 bb e6 a4 93 bb 31 60 33 3c
       -0.009496064 -0.004983702 -0.0045057414 0.010948227
000030 a6 48 34 3c 83 3e 0a bc 50 e3 40 3c 4f a9 84 3c
       0.011003649 -0.0084377555 0.0117729455 0.016194014
000040 d1 a3 87 3c 31 e1 0a bc 8f 88 70 3c 20 4f 4f bb
       0.016557606 -0.008476541 0.014680996 -0.0031632856
000050 fc 13 bb bb c6 8b 01 bc b4 05 af bb fd 36 39 3b
       -0.0057091694 -0.00790686 -0.005341256 0.0028261535
000060 d0 0c e6 39 5c fb 69 3a fc fc 7c 3a cc 4f 4b bc
       0.00043878565 0.00089257 0.0009650735 -0.012409162
000070 41 a6 6a 3b 83 50 3b b9 ce 05 a6 38 06 04 e4 bb
       0.0035804661 -0.00017863703 7.916578e-05 -0.0069584874
000080 f7 2e bc bb d8 7c a4 3b 41 01 cc bb fb ce 1f bc
       -0.0057429033 0.0050197653 -0.0062257354 -0.009753938
000090 51 41 1e bc 68 75 24 3b 30 cb c4 bb a7 43 09 3b
       -0.009659127 0.0025094394 -0.006005667 0.0020944865
0000a0 55 e0 0c bc 81 ef 21 bc 85 5a 1c bc 71 fd 65 3b
       -0.008598407 -0.009883762 -0.009543066 0.003509369
0000b0 c7 3c 8a 3b 1f ff 9d 3b 33 dc 94 3b 45 ea 70 bc
       0.004218671 0.0048216726 0.0045428514 -0.014704292
0000c0 b5 c1 8a 3b 95 a7 f6 3a 00 04 0e 3b 76 32 0b bc
       0.0042345175 0.0018818254 0.0021669865 -0.008495918
0000d0 5f de df bb f3 5b 9b 3b 54 fb 07 bc 49 54 47 bc
       -0.0068319286 0.004741186 -0.008299667 -0.012166091
0000e0 48 12 51 bc 92 e5 94 3b 53 ad 3e bc 7a 31 7b 3b
       -0.012760706 0.0045439685 -0.011638003 0.003832905
0000f0 79 8e 04 3c 60 9a 32 3c b3 38 1a 3c ca 49 86 bb
       0.008090609 0.010901064 0.009412932 -0.004098152
000100 c1 b9 58 bb 84 e8 8e bb 7d 5b 55 bb c8 26 8c 3c
       -0.0033069702 -0.004361214 -0.0032555752 0.017108336
000110 cd 58 81 bb 2f 7d 25 bb 9a ea 13 bb 98 00 0b 3c
       -0.0039473535 -0.0025251617 -0.0022570253 0.008484028
000120 d8 ef 08 3c 33 6a ec bb ac d9 20 3c 41 18 6e 3c
       0.008357964 -0.0072148084 0.009817522 0.01453215
000130 eb 25 7d 3c 00 b7 af bb 82 b6 21 3c 9c d7 32 bb
       0.015450935 -0.0053623915 0.009870173 -0.0027289158
000140 9a 22 2f 3c 5b 75 38 3c e7 f7 33 3c af f6 64 bb
       0.010689402 0.0112584485 0.0109843975 -0.0034937074
000150 0e 5d 79 bb 19 11 71 bb d3 05 86 bb 63 be 96 3c
       -0.003804985 -0.0036783873 -0.00409005 0.01840133
000160 6b 4c 60 bb ee 1a a0 ba fe 02 c5 ba 59 4f 00 3c
       -0.0034225236 -0.0012215057 -0.0015030799 0.007831418
000170 ea 9b 19 3c cd 21 c3 bb 9b 92 1b 3c cc 8c 6d 3c
       0.009375552 -0.005954957 0.009495403 0.014498901
000180 27 3c 81 3c c7 20 b9 bb 38 33 2e 3c 20 83 48 bb
       0.015775753 -0.0056496593 0.010632329 -0.0030595735
000190 f0 65 c5 bb b7 45 0d bc 87 f9 04 bc 48 03 16 3b
       -0.006024115 -0.008622578 -0.008116133 0.002289014
0001a0 c3 bc 17 3b 34 12 58 3b eb 4e 49 3b 98 48 53 bc
       0.0023153282 0.0032969834 0.0030717205 -0.012895726
0001b0 a8 5b d1 3b 4c a6 40 3b a5 f0 62 3b eb 20 f8 bb
       0.0063891 0.0029395996 0.0034628299 -0.0075722835
0001c0 b1 c5 d3 bb b0 d8 ad 3b 74 f3 b8 bb 22 ce 2b bc
       -0.0064627756 0.005305372 -0.0056442562 -0.010486158
0001d0 6d 1e 2b bc ba 0e 2a 3b 7c 70 0c bc a3 43 87 3b
       -0.010444266 0.002594872 -0.00857174 0.004127936
0001e0 18 5a fa 3b f4 45 3e 3c 1f 38 0b 3c f0 17 84 bb
       0.0076401345 0.011613358 0.008497267 -0.004031174
0001f0 a9 34 2b bb 34 5c 88 bb 7b 73 19 bb d9 a8 8e 3c
       -0.0026123917 -0.004161382 -0.002341478 0.017414497
000200 ca d3 b3 bb eb f0 0a ba 0b 90 8a bb e3 0c f2 3b
       -0.0054878937 -0.0005300182 -0.004228597 0.00738679
000210 71 3c 07 3c 93 5f d1 bb 9c fb 34 3c 5c 31 68 3c
       0.008254156 -0.006389567 0.0110463165 0.014171924
000220 62 5a 80 3c f5 44 f0 bb 64 ae 31 3c 30 fd 37 bb
       0.015668098 -0.007332439 0.010844801 -0.0028074495
000230 03 a3 2a 3c 59 7c 5a 3c 79 8b 26 3c 53 1d b2 bb
       0.010414842 0.013335311 0.010165089 -0.0054356246
000240 18 65 a4 bb ed 41 ca bb 9c 93 71 bb 1a 73 9d 3c
       -0.005016934 -0.0061724097 -0.0036861664 0.019219924
000250 06 e6 c5 bb 2a 48 a7 bb d5 dc cd bb 7d dd 2e 3c
       -0.006039384 -0.005105038 -0.0062824287 0.010672924
000260 31 8c 35 3c c2 f9 bd bb a0 e6 30 3c 99 af 80 3c
       0.0110807875 -0.0057975957 0.010797173 0.015708731
000270 1a 1f 92 3c 5a 06 d0 bb 48 cd 4b 3c 61 21 c4 bb
       0.017837096 -0.0063484134 0.01243908 -0.0059854244
000280 b2 41 0a bc e0 88 24 bc ea 06 11 bc f2 6a 84 3b
       -0.008438515 -0.010042399 -0.008851746 0.004041069
000290 e8 df 8d 3b bc f9 76 3b 3d 08 4a 3b 67 71 61 bc
       0.00432967 0.0037685474 0.0030827664 -0.013759947
0002a0 13 30 b9 3b 87 84 80 3b 6e a2 b2 3b 5c 52 07 bc
       0.005651483 0.0039220485 0.005451492 -0.008259382
0002b0 21 80 2a bc 4d 42 e4 3b ba b4 22 bc 29 64 54 bc
       -0.010406525 0.0069659115 -0.009930784 -0.012963333
0002c0 47 f9 4e bc 76 24 a4 3b 91 c9 4c bc 59 9a 7a 3b
       -0.012632675 0.0050092293 -0.012499229 0.003823897
0002d0 a4 fc fd bb a6 6c 0c bc d6 07 ea bb 0d df 65 3b
       -0.0077510644 -0.008570826 -0.0071420474 0.0035075576
0002e0 4d 80 d8 3a a3 19 7e 3b da 38 49 3b f9 0e 4c bc
       0.0016517729 0.0038772605 0.0030704052 -0.012454742
0002f0 07 8f 87 3b 36 e8 7c 3b 1b 75 6e 3b e3 25 05 bc
       0.0041369232 0.0038590557 0.0036385718 -0.008126709
000300 16 0d f9 bb ca 5b a4 3b c2 19 13 bc 6d d1 28 bc
       -0.007600437 0.005015825 -0.008978309 -0.010303837
000310 49 19 2b bc 22 94 8e 3b 91 2d 0e bc c5 af 01 3b
       -0.01044304 0.004351155 -0.008677856 0.0019788605
000320 ed 13 0b 3c b5 d4 1d 3c cd d4 0d 3c fe 89 7a bb
       0.008488637 0.009633233 0.008656693 -0.0038229222
000330 58 29 85 bb 60 11 b8 bb f9 09 37 bb 03 2f 8d 3c
       -0.0040637664 -0.0056173056 -0.0027929528 0.017234331
000340 0f f6 a3 bb 66 71 83 bb 01 13 16 bb 75 51 24 3c
       -0.0050036977 -0.004011321 -0.002289951 0.0100291865
000350 c1 ca 0a 3c d4 f9 e2 bb 5e 02 00 3c d3 a6 64 3c
       0.008471192 -0.0069267545 0.007813064 0.01395579
000360 4d a7 66 3c 6a 21 f2 bb 1e 62 59 3c 37 2c 86 ba
       0.014077974 -0.007389237 0.013268022 -0.0010236566
000370 04 98 9c bb 92 1f 0f bc 02 c3 d7 bb 19 8c 49 3b
       -0.004778864 -0.008735554 -0.006584526 0.003075367
000380 eb d4 0b ba 79 83 ad 3a 07 30 a6 b9 5a aa 6d bc
       -0.00053341564 0.0013238034 -0.0003169777 -0.014505947
000390 21 b3 83 3b 6f de 4e ba 39 37 2f 3b 1a 7c 7d bb
       0.0040191566 -0.00078914216 0.0026735796 -0.0038678707
0003a0 58 82 a1 bb 58 d4 63 3b f4 ff b0 bb 94 d5 26 bc
       -0.0049288683 0.0034764018 -0.0054016057 -0.010182757
0003b0 3d 77 1e bc c9 8a 56 3b fd 0f d3 bb 39 e0 e2 39
       -0.009671983 0.003273653 -0.006441115 0.00043273138
0003c0 5e 28 e5 bb 40 bd 26 bc 25 8e 17 bc 7c 84 80 3b
       -0.0069933375 -0.010176957 -0.0092501985 0.0039220434
0003d0 94 00 a4 3b 62 5f 99 3b f8 98 48 3b 10 e9 62 bc
       0.0050049517 0.00468056 0.0030608755 -0.013849512
0003e0 47 30 ba 3b 88 64 bc 3a ad d6 89 3b b5 87 09 bc
       0.0056820246 0.0014373222 0.0042064996 -0.0083941715
0003f0 89 68 07 bc d1 d4 c7 3b 93 af 12 bc 09 55 2b bc
       -0.008264669 0.0060983677 -0.008952993 -0.010457286

layers.1.egnn.edge_mlp.3.bias f4 [16]
000000 d6 26 03 be 99 44 e8 3d c1 ef 3b 3e 98 a1 32 be
       -0.12807783 0.11341209 0.18353178 -0.17444456
000010 3a e9 0a be 5c ac b1 3b cd 42 62 be 36 9d a0 bd
       -0.13565531 0.005422158 -0.22095795 -0.078424856
000020 34 6f 70 3c a3 04 92 3c 86 c2 1f bd 67 2e c5 3d
       0.01467495 0.017824477 -0.03900387 0.09627991
000030 3a d6 97 3d 54 87 3c 3e 51 7e c4 bd 00 ff 0b bd
       0.07413907 0.18410999 -0.095944054 -0.034178734
