data/models/model_N12_batch64_lr0.001_fd4_b0.7.pth (torch, 30882 bytes, 32 tensors)

time_embedding.0.weight f4 [8, 1]
00000000: 60d1 95be c4fd 55bf 6023 f43e 61ab 6e3e
00000010: 4760 093f 38a6 b5be bbee c93d 52db 673f
-0.29261303 -0.8359034 0.4768324 0.23307563 0.5366253 -0.35478377 0.09859987 0.9056903

time_embedding.0.bias f4 [8]
00000000: 6e77 01bf 7115 4e3f ceb5 5ebf fcec 2a3e
00000010: f5c9 09bf 1c3c abbe 858b c13e b60c 89bc
-0.5057286 0.80501467 -0.8699616 0.16691965 -0.53823787 -0.33444297 0.37801757 -0.016729694

time_embedding.3.weight f4 [4, 8]
00000000: db8a 293e 4a58 a239 461c 4ebe 0444 443e
00000010: 2f7e 96bd dd9d 7abe 80f7 53bd d0ab 903e
00000020: c6fd a4be b147 fdbd 6abf 8dbd 3e5d 97be
00000030: 323b 513e ed21 ab3d 42c2 81be 5fc6 af3c
00000040: 55c5 a73e b1d2 5fbd 91f9 02be ea51 893e
00000050: febc 88be a258 aebe 5209 183e 83d2 a33d
00000060: 92c6 0e3d 49b9 60be 39ce 993e 0fd5 963d
00000070: 3cf0 33be f8f6 02be 7347 f63c b1cc 113d
0.16556875 0.00030964828 -0.20127973 0.19166571 -0.07348286 -0.24474283 -0.051749706 0.28256083
-0.32224864 -0.1236719 -0.06921275 -0.29563326 0.20432737 0.0835608 -0.2534352 0.021456895
0.3276774 -0.05464429 -0.12790515 0.26820308 -0.2670669 -0.34051996 0.14847305 0.07999136
0.03485734 -0.2194568 0.30040148 0.073648565 -0.17572111 -0.12789524 0.030063367 0.0355956

time_embedding.3.bias f4 [4]
00000000: a7da 5e3e 3619 bc3d 68d5 51bd 6507 7f3e
0.21763097 0.09184496 -0.05122891 0.24905165

layers.0.egnn.edge_mlp.0.weight f4 [20, 10]
00000000: 4061 ebbc ad6e 163d 4c89 4c3b 38b7 dbbc
00000010: c4ae dabc 83c5 1a3d 8108 adba 8150 dcbc
00000020: af77 adbc 42c6 35bd 61f5 01bd 6492 143d
00000030: bcd4 04bb 35eb e2bc 2413 f0bc 8186 1b3d
00000040: 794f 2fbb e911 debc a820 bcbc 4e36 3dbd
00000050: 19c9 dcbc fd38 083d 7775 5f3b 9ea7 b0bc
00000060: 52cc c9bc 8f3a 093d 0fa4 243b 19f1 bdbc
00000070: 26a8 94bc 64cc 23bd 0a5f aa3c a3f8 06bd
00000080: 8feb adbc 6c6d 833c 3ad9 a53c 247f 05bd
00000090: abf7 85bc 20e0 7e3c 914b 073c 5722 243d
000000a0: 2915 b13c d3c0 04bd 4cae 9fbc 0f4d 793c
000000b0: 13af aa3c 05fb 10bd 0f0e 8ebc 4069 8b3c
000000c0: 70de fd3b a239 223d be6b babc 90b5 fa3c
000000d0: 7cbc 093c 2257 a3bc 6668 bbbc 14e1 023d
000000e0: 0d47 9d3b d6dc a2bc 7a7c 6cbc 05f5 20bd
000000f0: 90cf ffbc 3501 183d d2ce d9b6 717f dcbc
00000100: fa68 ebbc fa18 203d 193b 24bb 0f7b dfbc
00000110: f8e5 b9bc b94e 2cbd da33 953c 36f1 eabc
00000120: ae86 97bc 29eb 7b3c e182 9c3c 91a9 febc
00000130: 5308 89bc f245 793c 538b ee3b 7ec2 1a3d
00000140: 8ace dabc 762d 093d bcd8 113b 63c6 ccbc
00000150: 8f50 d6bc 4f36 113d 6f31 d4b9 e515 c0bc
00000160: 62b7 a3bc 96d6 30bd dbc1 c13c 885a 01bd
00000170: 8c08 86bc d72c 9b3c 5317 ad3c 4cf3 10bd
00000180: ece9 74bc 6d3d 913c 653a 2d3c daa1 273d
00000190: 1bcd 7f3c d96d d4bc bc07 90bc 2e61 413c
000001a0: b379 7c3c 8775 dbbc debd 54bc 4fc8 4a3c
000001b0: 7430 eb3b 247a 0e3d ba68 bcbc bc61 e43c
000001c0: 7bd6 e73b 9b45 aabc 493c b2bc f959 f23c
000001d0: 21f4 993b 345e abbc 89e9 76bc 79ae 17bd
000001e0: 14cf 893c 0130 f1bc ead2 a4bc 2eab 7e3c
000001f0: f448 8c3c 7001 f5bc 5500 96bc b612 643c
00000200: 9ca7 cb3b b83f 1b3d fb9a d3bc 931c 013d
00000210: a1ab c73b 6de2 b8bc 5677 cabc 7f04 0c3d
00000220: a188 833b 4ac7 b2bc d338 9bbc f24b 29bd
00000230: d300 ab3c 99e3 00bd cf92 a1bc 98a3 893c
00000240: 2f06 9d3c 1926 02bd 4bc6 90bc 3eb7 8e3c
00000250: 2b39 fc3b 3a6c 253d b5bd 00bd d6f7 183d
00000260: bda7 0fbb 84f8 efbc 516b fabc 89ef 1b3d
00000270: bed0 c5bb 55e9 ecbc 630f cbbc 4d48 43bd
00000280: c421 eabc fc33 153d 3b7e f3b9 2cf9 dfbc
00000290: a301 03bd 56b6 1a3d 6e2c b8ba cf4f e4bc
000002a0: 6fde adbc c481 38bd 7d72 c73c bb10 0abd
000002b0: c5fb 9ebc 6404 933c d9b2 bc3c c23f 07bd
000002c0: 17b9 5dbc 2596 963c f00e 453c e379 2a3d
000002d0: 78a4 b13c 6267 f1bc 8d7d a7bc 6bac 843c
000002e0: 65a1 993c b443 09bd a6e1 89bc cc34 803c
000002f0: fb81 163c eb19 213d 7a02 af3c 5a09 09bd
00000300: a386 91bc 0b0a 953c 525b ad3c 2d25 0dbd
00000310: fac5 86bc 3314 933c ae64 1c3c 2e5d 303d
-0.028732896 0.036726642 0.0031209765 -0.026820764 -0.026694663 0.037786018 -0.0013201387 -0.026893856
-0.021175234 -0.044378527 -0.031728152 0.03627242 -0.00202684 -0.027700046 -0.029306002 0.03797007
-0.002675025 -0.02710815 -0.02296479 -0.046194367 -0.02695136 0.033257473 0.0034097114 -0.021564301
-0.02463356 0.03350311 0.00251222 -0.023186253 -0.018146586 -0.039989844 0.020797271 -0.032951962
-0.021230487 0.016043387 0.020245183 -0.032591954 -0.016353449 0.015556365 0.0082577625 0.04007181
0.021616535 -0.032410454 -0.01949229 0.015216126 0.020835435 -0.03539564 -0.017340688 0.01701796
0.007747464 0.039605744 -0.022756454 0.030604154 0.008406755 -0.01993901 -0.02287693 0.031952932
0.0047997297 -0.019880693 -0.014433974 -0.03929617 -0.031226903 0.037110526 -6.491181e-06 -0.026916238
-0.02873658 0.03908632 -0.002505964 -0.027280359 -0.022692665 -0.042067263 0.018213201 -0.028679471
-0.018496837 0.015375891 0.019105377 -0.031086715 -0.016727602 0.01521443 0.0072797923 0.03778314
-0.026709814 0.03349062 0.0022254428 -0.024996942 -0.02616146 0.035452183 -0.00040472622 -0.02344794
-0.019984905 -0.043173395 0.023652008 -0.031580478 -0.016361497 0.01894228 0.021129286 -0.035388276
-0.014948349 0.017729485 0.010573004 0.040925838 0.015612866 -0.025931286 -0.017581813 0.011802955
0.015409875 -0.02678944 -0.012984721 0.012376859 0.007177407 0.03478445 -0.022999156 0.027878635
0.0070751286 -0.020785144 -0.021757262 0.029583918 0.004698292 -0.020918943 -0.015070328 -0.037031624
0.016822375 -0.029441835 -0.020120103 0.015543742 0.01712463 -0.029907912 -0.018310705 0.013920477
0.006215049 0.037902564 -0.025830736 0.03152139 0.006093458 -0.022568906 -0.024715107 0.034183975
0.00401409 -0.021823544 -0.018947994 -0.041332193 0.020874416 -0.031467054 -0.019723324 0.01680164
0.019167988 -0.031774614 -0.017672678 0.017421361 0.0076972446 0.040386416 -0.03143092 0.03734573
-0.0021920048 -0.029293306 -0.03056875 0.038070235 -0.006036847 -0.028919855 -0.02478761 -0.047676373
-0.028580554 0.03642653 -0.0004644262 -0.027340494 -0.031983983 0.037771545 -0.0014051327 -0.027870087
-0.021224229 -0.04504563 0.024346584 -0.03370736 -0.019407162 0.01794643 0.0230345 -0.03301979
-0.013532898 0.018382141 0.012027487 0.041620146 0.02168487 -0.029468242 -0.02044561 0.016195497
0.018753717 -0.033511832 -0.01683123 0.015650176 0.009186263 0.039331358 0.021363486 -0.033456184
-0.017764395 0.018193265 0.021161709 -0.03445928 -0.016451824 0.017953968 0.009545488 0.043057613

layers.0.egnn.edge_mlp.0.bias f4 [20]
00000000: 06ba 3ebe ccec 8fbe b317 d3bd 9451 4b3e
00000010: bb4a 853e 014a 9abd 8821 8ebe 45da f63d
00000020: a5aa fabd d437 8e3e 96f9 473d b083 63bd
00000030: ff9e df3d 6fc4 b4bd 2cf8 503e 13db b2be
00000040: ca87 89be d88d 9a3e a681 2d3e 5fab a03e
-0.1862565 -0.2811035 -0.10307255 0.19855338 0.26033577 -0.075336464 -0.27759957 0.1205335
-0.12239579 0.27776968 0.048822008 -0.05554551 0.10918998 -0.08826529 0.2040717 -0.34932765
-0.2686141 0.30186343 0.16943988 0.31380746

layers.0.egnn.edge_mlp.3.weight f4 [16, 20]
00000000: 1b09 0ebd 63e5 08bd 3796 f1bc 79e2 e93c
00000010: a7f9 f83c eb2b d0bc 8992 0abd d360 f13c
00000020: 3c55 f1bc a8b8 053d 2110 be3c 135d d3bc
00000030: 9cdf d73c dc01 f0bc b4b8 f03c 6383 0ebd
00000040: 3833 06bd 3c9f 003d 057b f73c bca6 053d
00000050: 9d8d 053d bf5d 043d 92ea 023d c56d 02bd
00000060: c070 0abd e69b e33c b07e 0f3d ca73 fcbc
00000070: 40bc fe3c c14b 07bd ba80 c4bc 5e95 cd3c
00000080: b49a f8bc 377a f23c def1 01bd 3257 083d
00000090: 2fc7 0b3d f7c7 0cbd c356 06bd b1c3 05bd
000000a0: 3c09 013d 842a 073d 6c29 fd3c 92b0 fcbc
000000b0: 1af4 04bd dac5 ee3c 3e76 073d 00ad f2bc
000000c0: 97d1 003d 7675 0bbd 4f15 cabc 7240 d33c
000000d0: aad0 f4bc 8d22 eb3c 3a68 02bd de32 103d
000000e0: efba 083d 862b 06bd ee4c 08bd 3687 01bd
000000f0: 4e18 f5bc 3d2c 0bbd 9a71 e4bc 39c0 f83c
00000100: 688a f03c 63c2 c6bc 8c17 03bd 169b e03c
00000110: 7d30 f8bc b87f 063d 7114 ba3c c18d bfbc
00000120: e30e df3c 1688 ddbc 3f7e f83c d8b4 04bd
00000130: 50b9 0cbd 59ed 053d 0645 f63c 6ccd 043d
00000140: 3b3d 03bd a71b 03bd 7136 e8bc 2638 ef3c
00000150: 3089 003d 006c cfbc 2afc 07bd bd1f e03c
00000160: 9385 f5bc 72bd 013d 9206 a83c f251 bebc
00000170: 1228 e13c 5152 e4bc fce1 f53c 6ee4 09bd
00000180: 76a4 06bd 27d8 043d 5f8a f43c 95f7 fd3c
00000190: 6e5f fc3c b5ae 033d d4a6 f63c 5e90 00bd
000001a0: 87fe 01bd d43d e33c 1cca 013d e860 ddbc
000001b0: 25d8 013d d40c 09bd 4a09 bbbc 1d9d d83c
000001c0: 743c e3bc ba55 da3c aa0e febc 67ad 073d
000001d0: b21b f83c 860a 03bd 0e16 f2bc a340 00bd
000001e0: 8090 f9bc da56 fbbc f7ac e3bc 9f81 ee3c
000001f0: 1bf0 e63c 8f60 e0bc a8d3 00bd 210f df3c
00000200: 5dfa f5bc dcc6 f23c fb90 c23c fdc2 d5bc
00000210: b3c5 e13c e553 e5bc 0b5a ee3c e642 01bd
00000220: d692 06bd 3aa9 fa3c 12a7 ef3c ef09 f83c
00000230: 2868 eebc d265 fbbc a6a7 d9bc 4dc9 e03c
00000240: a720 f33c 7d3c b7bc 3ecb f7bc 4742 cc3c
00000250: e9f0 dcbc 2f5e f13c f935 a53c f969 afbc
00000260: 406d c43c a0c7 d7bc 257a eb3c 10ed f7bc
00000270: 4f67 fabc 2311 db3c 72d0 e03c 29ca e93c
00000280: 4ac4 0a3d 39d1 023d 5517 f33c 3111 fabc
00000290: bbaa ffbc 0f5e e53c 4966 0a3d bcc7 ffbc
000002a0: d44e f63c 8b68 febc 4a3c b3bc 2bee d63c
000002b0: ced5 e2bc 0eaf e63c f611 f8bc 2b13 093d
000002c0: 8c3e 023d 8eaf 07bd c805 f8bc db4f 02bd
000002d0: 3545 04bd 71d0 0bbd c2be 00bd 2558 053d
000002e0: 835a 033d e518 dabc 803f 05bd 5f13 ef3c
000002f0: a007 ebbc c843 063d 32b9 b53c 56d0 cdbc
00000300: a33c ec3c 32a7 e9bc 361d fe3c 66d5 03bd
00000310: 029a 0abd f982 0b3d 76a0 f63c 0f34 063d
00000320: 7764 06bd bc0e 05bd 6990 e7bc 12c9 ff3c
00000330: f5b1 f53c 5386 d8bc 1da1 02bd 150c db3c
00000340: b52a f3bc 7753 fd3c bc8f c13c affe b4bc
00000350: 3940 d23c 2797 d5bc d2b9 fa3c f349 09bd
00000360: b5dc 07bd 878b fa3c 6576 e93c 4a8b 013d
00000370: 0dc6 02bd 35c8 07bd 7faf fbbc f83f f03c
00000380: d346 fd3c b263 d0bc 2532 fcbc b853 e03c
00000390: 9deb e9bc c81c 063d 5e62 ae3c 21f4 c5bc
000003a0: 32db dd3c c5d2 d8bc e3a9 ea3c 48fd 00bd
000003b0: d173 01bd 18b3 fe3c 6c2e f03c 72c7 043d
000003c0: 5dd7 05bd fdc2 febc 84dd e2bc 814b f53c
000003d0: 59bb fd3c 2d95 ddbc 67ca fabc a5a0 f93c
000003e0: 90e8 f7bc b57f 013d 4cde c13c 57cf c1bc
000003f0: 0fbf d83c a359 e0bc 0b34 ff3c 00f9 05bd
-0.034676652 -0.033421885 -0.029490573 0.028550373 0.030392481 -0.025411567 -0.033831153 0.029465115
-0.029459588 0.032646805 0.02320105 -0.025801217 0.026351742 -0.029297762 0.029384948 -0.03479327
-0.03276369 0.031401858 0.030210027 0.032629713 0.032605756 0.032315966 0.031961985 -0.031842966
-0.033798933 0.0277843 0.035032928 -0.030816931 0.031095624 -0.03303123 -0.023987163 0.025095638
-0.030347206 0.029599292 -0.031724803 0.03328628 0.034125503 -0.03437039 -0.032797586 -0.03265733
0.031502947 0.03299953 0.03090354 -0.030845914 -0.032459356 0.029147077 0.03307175 -0.029623508
0.03144988 -0.034047566 -0.024668364 0.025787566 -0.029884655 0.028702999 -0.03183768 0.03520476
0.0333814 -0.03275635 -0.03327649 -0.031623088 -0.029918816 -0.033977736 -0.0278862 0.030365096
0.029362872 -0.024262613 -0.032004878 0.0274177 -0.030296559 0.032836646 0.022714825 -0.023383023
0.027228778 -0.02704243 0.030333636 -0.03239903 -0.034356415 0.032697055 0.03006221 0.032422468
-0.032040816 -0.032008793 -0.028346272 0.029201578 0.031380832 -0.025320053 -0.033199467 0.027358884
-0.02997092 0.03167481 0.020510945 -0.023232434 0.027484927 -0.027871283 0.030014984 -0.033665113
-0.032871686 0.0324327 0.029851137 0.031001845 0.030807223 0.032149035 0.030108847 -0.03138768
-0.031736877 0.027739443 0.031686887 -0.027023748 0.031700272 -0.0334595 -0.022831578 0.026442105
-0.027738787 0.026652206 -0.031012852 0.033124354 0.030286644 -0.031992458 -0.029551532 -0.031311642
-0.03046441 -0.030681062 -0.027792437 0.029114543 0.028190663 -0.027389793 -0.03145185 0.027228894
-0.03002661 0.02963584 0.023750773 -0.026093954 0.02756009 -0.027994106 0.02909567 -0.03155794
-0.032854877 0.030598272 0.02925447 0.030278174 -0.0291024 -0.0306882 -0.026569199 0.027439738
0.029678656 -0.02236771 -0.03024828 0.024933947 -0.026970344 0.029463856 0.020167338 -0.021412836
0.023977876 -0.026340306 0.028744766 -0.030264407 -0.03056684 0.02674157 0.027443144 0.02853878
0.033878602 0.03193781 0.029674212 -0.030525776 -0.03120934 0.027998952 0.033788953 -0.03122317
0.030066885 -0.03105571 -0.021879334 0.026236614 -0.02768984 0.028159644 -0.030282002 0.033465546
0.03179793 -0.033126406 -0.030276194 -0.031814437 -0.032292563 -0.034134332 -0.03143192 0.032554764
0.03206874 -0.026623199 -0.03253126 0.029184042 -0.02869016 0.032779485 0.022183035 -0.025123756
0.028837508 -0.028522108 0.031019788 -0.032185934 -0.03383828 0.034060452 0.03010581 0.03276449
-0.032810654 -0.032484755 -0.028267102 0.031223807 0.029992083 -0.026431238 -0.03189193 0.02673916
-0.02968345 0.030923588 0.023628108 -0.022094099 0.02566539 -0.026073052 0.030606184 -0.03351779
-0.033169467 0.03058411 0.028498838 0.031626977 -0.031927157 -0.033149917 -0.030723331 0.029327378
0.03091756 -0.025438163 -0.03078563 0.02738367 -0.028554732 0.03274229 0.02128714 -0.024164261
0.02708206 -0.02646769 0.028645461 -0.031491548 -0.03160459 0.031091258 0.02931901 0.03241677
-0.03267609 -0.031098837 -0.027693518 0.02994323 0.030973123 -0.027048672 -0.030614091 0.03047211
-0.030262262 0.03161593 0.02366557 -0.023658438 0.026458291 -0.027386492 0.031152746 -0.032708168

layers.0.egnn.edge_mlp.3.bias f4 [16]
00000000: a9b7 0f3e 8251 5dbe 835c 37be cd80 053e
00000010: dbba f43d 410a 35be e94d 243e c369 b03d
00000020: c873 76be 6432 2f3e 8f9a 1d3e 9941 803e
00000030: 48f1 4c3e 54a0 3ebe 54a0 613e d07c d7bd
0.14034905 -0.21613124 -0.17906384 0.13037415 0.11949702 -0.17679693 0.16045345 0.086139224
-0.24067605 0.17109066 0.1539099 0.25050047 0.20013916 -0.18615848 0.22033817 -0.10521853

layers.0.egnn.node_mlp.0.weight f4 [8, 20]
00000000: 8742 6238 bfcb 11ba e987 64b9 bf81 04ba
00000010: 3589 69b6 8a5d bf3a d667 823a 3d35 143a
00000020: 03c3 7fba e8a3 1f38 7712 8439 177a 243a
00000030: 9142 6539 6f26 af3a 3eca 5fba 5bce 39ba
00000040: 4ad2 383a 5c9c ac39 9ffe 81b6 bdab cd3a
00000050: d950 a5ba 73a9 543a 58e4 abb9 cc2e a0b9
00000060: 6808 cdba c709 f438 e7ff 20b9 ee45 6eb9
00000070: 2650 ba3a 1173 c2ba 9fd8 863a e624 dd3a
00000080: 991f 043a 28ef 0c3a 4640 343a b6cd 293a
00000090: f27b c939 3ca6 efba 277e 263a 50bf 163a
000000a0: 8ebc d13a ef7a 9e38 963f 18b9 264a 18bb
000000b0: 196d fab9 65cd 2fb9 4a0c 843a 2add ad3a
000000c0: bb98 0c3b 08b1 82ba 3918 c63a 53a2 f9ba
000000d0: fb01 90b9 e529 ceb9 fd4b ddba 3145 7f39
000000e0: 85f7 883a 7488 173a 18c7 a5ba cc46 40b9
000000f0: 65f6 9dba 5c1c 9eba f8ef a9ba 000a c139
00000100: c1e2 a5ba 3821 503a c455 96ba b5fe 8038
00000110: f7ef cb3a 8ba2 2d3a 28a6 f3ba 3a7b f6ba
00000120: 7178 a63a b2b1 b93a 85ed 443a 9b18 a938
00000130: 63dd 12ba 3591 8a39 80de b7b9 04ee b9ba
00000140: b718 a13a e664 e2ba a9d3 473a 2715 6339
00000150: f82d 673a a723 02ba 20ba 55b8 b5b1 52b9
00000160: a0c7 103a d236 733a 513e e239 ba16 743a
00000170: 7382 c73a ee6e deb9 fbee dab9 d647 f739
00000180: ca8b a5ba 42d3 1e3a f145 ff39 d89d 983a
00000190: 42e1 523a 8bf2 9539 7b18 d8b9 493e 033a
000001a0: a84a c53a 8900 94ba 9bf6 8a39 58cc 88ba
000001b0: bf8a ef39 5b5d 1fba ff51 e9ba da2d 7eba
000001c0: 140b 20ba 6b98 8bba aca5 52ba a57e 5eba
000001d0: 3f38 083a ec72 503a 8aa7 6139 c620 86b9
000001e0: 0e59 5eba 427f 043b 1e5b b83a 9c59 3fb9
000001f0: 3a68 6e39 8ca5 b3b9 b408 c5ba e480 be39
00000200: b7e3 fc39 9563 2fba 67d0 60b9 f1e0 f6b9
00000210: 0190 6036 0074 333a cd8c 85ba 26fa a1b9
00000220: 2375 843a 1fe2 1239 0a7e c5b8 8661 b03a
00000230: a7a4 d23a fea9 8cba fa7f bf3a 4dd4 a3b9
00000240: b92a 18b8 a187 8dba fb88 53ba fe84 a93a
00000250: 4cc3 5cba fcba aab9 6f4e f6b9 d2c1 46b9
00000260: 54b6 5c3a 8de2 083a 5a83 a0ba 8b04 32b9
00000270: 0b41 263a d9a5 93ba b967 bfba fdfb 2839
5.3944557e-05 -0.00055616716 -0.00021794405 -0.0005054734 -3.479957e-06 0.001460002 0.0009949158 0.0005653685
-0.0009756537 3.8061204e-05 0.0002519076 0.00062742963 0.0002186394 0.0013362895 -0.00085369113 -0.00070879393
0.00070503785 0.00032922893 -3.8741414e-06 0.0015691441 -0.0012612595 0.0008112408 -0.0003278579 -0.00030552445
-0.0015642764 0.00011636648 -0.0001535412 -0.000227235 0.001421456 -0.0014835318 0.0010287947 0.0016871959
0.0005040109 0.0005376213 0.00068760326 0.00064774917 0.00038430054 -0.0018283795 0.00063511956 0.00057505537
0.0016001628 7.556925e-05 -0.00014519537 -0.0023237555 -0.00047765 -0.00016765816 0.0010074463 0.0013264765
0.002145334 -0.0009970972 0.001511342 -0.0019045569 -0.00027467296 -0.00039322596 -0.0016883608 0.00024344471
0.0010449743 0.0005780526 -0.0012647836 -0.00018336921 -0.0012051581 -0.0012062895 -0.0012965193 0.0003681928
-0.0012656079 0.00079395203 -0.0011469652 6.1509585e-05 0.0015559186 0.0006623647 -0.0018588947 -0.0018805035
0.0012700689 0.0014167337 0.00075122 8.063131e-05 -0.0005602447 0.000264296 -0.00035070255 -0.0014185314
0.0012290691 -0.0017272502 0.00076227874 0.00021656287 0.00088188006 -0.0004964419 -5.09565e-05 -0.00020093362
0.00055229105 0.0009277883 0.00043152508 0.0009311248 0.0015221372 -0.0004242579 -0.00041758255 0.00047165033
-0.0012630161 0.00060587015 0.000486895 0.0011643721 0.000804443 0.00028600203 -0.0004121697 0.00050065346
0.0015052157 -0.0011291663 0.00026505147 -0.0010436876 0.00045689006 -0.00060792797 -0.0017800926 -0.00096961635
-0.00061051664 -0.0010650282 -0.0008035551 -0.00084874994 0.00051963696 0.0007951695 0.00021520085 -0.0002558289
-0.0008481898 0.0020217453 0.0014065241 -0.00018248562 0.00022736276 -0.00034264883 -0.0015032501 0.00036335655
0.00048234846 -0.0006690559 -0.0002143994 -0.0004708837 3.3462422e-06 0.00068455935 -0.0010189057 -0.00030894688
0.001010571 0.00014007882 -9.4171686e-05 0.0013456799 0.0016070799 -0.0010731814 0.0014610284 -0.0003124796
-3.6279413e-05 -0.0010797867 -0.0008069423 0.0012933312 -0.00084214355 -0.0003256424 -0.00046979214 -0.00018954955
0.0008419503 0.0005221747 -0.0012246177 -0.00016977095 0.00063420896 -0.0011264636 -0.0014603055 0.00016115601

layers.0.egnn.node_mlp.0.bias f4 [8]
00000000: 458b 603c af5e 6dbd 32e1 0bbe ec8a 0dbd
00000010: db75 1c3e 0f42 bebd 897f 44bd 7dc0 3abe
0.013705079 -0.057951625 -0.13660124 -0.034556314 0.15279333 -0.092899434 -0.04797319 -0.18237491

layers.0.egnn.node_mlp.3.weight f4 [4, 8]
00000000: fb9a 1f37 83a1 1bb9 5f36 6aba 33e1 2d3a
00000010: c78a 7bba 990f 843a 7504 1abb 2677 843a
00000020: e4a9 cd3a e863 b2b9 07df 0a3b a871 ef3a
00000030: d65d 923a 8dc8 c03a fe7d 6f3a 95cf 863a
00000040: a99a c53a daf8 1d3a 1125 bc3a c768 d63a
00000050: ba13 bbba 1156 4d39 e9b7 12ba 4c12 b939
00000060: 595d 9eba 928f 3fba 45b2 2a39 9c57 88ba
00000070: 38de 243a 05b1 ae38 e266 93b9 b17a d639
9.513223e-06 -0.0001484212 -0.00089344935 0.00066329836 -0.00095955696 0.0010075449 -0.0023501192 0.001010631
0.001569089 -0.00034025242 0.0021190064 0.0018268125 0.0011166881 0.0014708206 0.0009135901 0.0010285253
0.0015076 0.00060261565 0.0014354308 0.001635813 -0.0014272847 0.00019582386 -0.0005596863 0.00035299582
-0.0012082263 -0.00073074654 0.00016278874 -0.0010402086 0.00062892167 8.329939e-05 -0.0002811468 0.00040908673

layers.0.egnn.node_mlp.3.bias f4 [4]
00000000: d711 3abe f9f3 7dbd 645f 86be e235 0b3e
-0.18170868 -0.06200025 -0.26244652 0.13594773

layers.0.egnn.coors_mlp.0.weight f4 [64, 16]
00000000: 163c 09bd 0a3e 073d 3653 fe3c e93f 08bd
00000010: 7a27 f9bc f53d 073d a692 01bd c354 fbbc
00000020: 92d2 013d 7bf6 ffbc 4963 03bd 51bf 03bd
00000030: b085 07bd 95f0 003d 8614 00bd e9b2 fa3c
00000040: afbf eabc 3f9b ef3c 3ae3 e03c d24a e3bc
00000050: 29d2 ecbc 1178 e13c 077d eabc 8505 e5bc
00000060: 22b0 e53c 052e f4bc 9152 f7bc 4ee7 f1bc
00000070: a0e0 f4bc 5321 e53c 8fbd e5bc 6646 fa3c
00000080: 72f1 0cbd 707d 103d 3917 0b3d 7529 0abd
00000090: 342d 0dbd 2f1d 0e3d 3d18 0cbd 2f3d 08bd
000000a0: 72bd 0c3d 2dac 02bd 663f 0dbd 0f96 08bd
000000b0: eef1 09bd 7653 103d 3673 08bd fe43 083d
000000c0: 2ecf 12bd e31f 0e3d cc93 103d db13 0cbd
000000d0: 57e9 0ebd 981a 133d 36c9 16bd 9d66 0abd
000000e0: 2865 143d 1130 0ebd cf98 0fbd c8f9 15bd
000000f0: 5dff 11bd dbfe 103d dca2 13bd a93c 123d
00000100: 1e1b a2bc e4b1 a23c 19c8 a43c a575 a2bc
00000110: 5390 a6bc 6132 983c ef52 a2bc 447a 9cbc
00000120: 84d8 9a3c 45df 9dbc c5ce 9fbc 83e7 9cbc
00000130: 6afb a8bc a36b a53c 5070 acbc d112 a33c
00000140: 694f 0bbd 0966 0c3d 7535 093d 23ca 07bd
00000150: d6dc 0abd 0f71 083d b241 11bd e2c0 febc
00000160: cfe2 0c3d bcff 09bd f6ea 08bd f0fb 0abd
00000170: 54fc 06bd 64f7 0d3d 759d 0abd 24e1 073d
00000180: c0f4 3c3c f36b 41bc 3715 2cbc 11ed 303c
00000190: e05a 383c bb0c 5fbc b59d 363c ea28 4c3c
000001a0: db07 2cbc 9f55 433c 2803 343c 1f8d 5a3c
000001b0: be7c 533c e4c8 35bc bed6 553c 42bd 54bc
000001c0: d51c fb3c 5789 01bd 4aec 04bd 435b 053d
000001d0: a26a ff3c 1a79 06bd 7c90 043d 1757 fb3c
000001e0: 82fe 09bd a71c f83c 6e08 fe3c 1498 063d
000001f0: 1ae7 013d e543 01bd c61c 053d f082 fdbc
00000200: 8d6c 0a3d 6cdc 02bd c82e 0abd d974 073d
00000210: 05c8 0a3d da01 09bd fe28 0b3d acff 073d
00000220: 97b6 08bd 2351 063d 1f0f 033d 719a 083d
00000230: 0d80 063d 2cbd 08bd fa7b 053d 0152 04bd
00000240: 0fdb 943b ac7d 43bb e803 41bb c0d0 c93b
00000250: 8323 b73b d9d1 82bb 4c21 503b dd79 d93b
00000260: d383 82bb b5b5 4b3b 5776 3f3b 33bd 863b
00000270: 9ce8 8a3b 1d11 9cbb 3d8a 5e3b 5f5e e6bb
00000280: de5d abbc b6cc 9e3c bc4a 963c 383f a1bc
00000290: 9839 adbc 8cde ad3c c661 9dbc e22e a0bc
000002a0: 0799 a83c 7582 a6bc 5d38 9cbc 73b3 a3bc
000002b0: 17a9 8cbc 0b34 9e3c 450f 95bc 0635 a43c
000002c0: d2a2 163d 31bb 17bd ea57 1abd a68a 0f3d
000002d0: a3dd 123d 22ba 17bd 2e4b 0f3d 2a57 033d
000002e0: 3db2 14bd fda9 123d c5e4 173d 2a18 1a3d
000002f0: 2682 143d 5202 14bd 6095 163d 28ab 0fbd
00000300: 9754 09bd 1e2f 093d f307 093d a866 04bd
00000310: 5ec3 04bd 254c 033d b3ba 05bd 1e7f 05bd
00000320: 3acf 043d dd9f 0abd 82f5 06bd 8497 0cbd
00000330: 4236 08bd 94c5 063d e4fd 06bd 5beb 043d
00000340: 9b05 193d a380 1bbd 5b4c 1abd 44e7 0f3d
00000350: 93ef 133d 5cb1 1bbd 2c61 1a3d aa57 183d
00000360: f7ba 13bd 4305 173d f583 1a3d b307 0e3d
00000370: 268f 183d c073 18bd 3bf9 1c3d 1f52 10bd
00000380: 0308 ffbc 6d03 ea3c 5a47 f63c db54 f9bc
00000390: a048 f5bc dda5 023d 3633 f5bc ed7f e2bc
000003a0: b5cf e63c d61a e5bc 028e efbc 30c1 00bd
000003b0: ad9b f8bc ea62 ec3c a710 f0bc 8ed1 ec3c
000003c0: 0763 13bd e055 183d 448e 0e3d 550b 17bd
000003d0: 808a 13bd 21e1 123d b2a1 1bbd beb7 0abd
000003e0: e82b 0e3d 81c3 12bd e914 12bd 41c2 0dbd
000003f0: 2b22 17bd 6b62 083d 787d 11bd 8933 113d
-0.033504568 0.03301815 0.031045537 -0.033264074 -0.030414332 0.03301807 -0.031633995 -0.030680066
0.031694956 -0.03124546 -0.032077108 -0.032164875 -0.03308648 0.031479437 -0.031269573 0.03060289
-0.028655855 0.029248832 0.0274521 -0.027745638 -0.028908806 0.027523072 -0.02862407 -0.027956733
0.028038088 -0.0298071 -0.030190738 -0.02952924 -0.029892266 0.027969992 -0.02804449 0.030551147
-0.034409948 0.035275877 0.033957694 -0.033730943 -0.034466937 0.0346958 -0.034202803 -0.033261474
0.034360357 -0.03190248 -0.03448429 -0.033346232 -0.033677988 0.035235845 -0.033313 0.033267967
-0.035842113 0.03469838 0.0352972 -0.034198623 -0.0348905 0.035914034 -0.036812983 -0.033789266
0.036229283 -0.03471381 -0.03505784 -0.036615163 -0.035643924 0.0353993 -0.036043987 0.03570238
-0.019788321 0.019860215 0.020114945 -0.019831488 -0.020332491 0.01857871 -0.019814936 -0.01910127
0.01890207 -0.019271502 -0.019507775 -0.019153362 -0.020627696 0.020192927 -0.021049649 0.019906433
-0.03401128 0.034276996 0.033498246 -0.033151757 -0.03390201 0.033310946 -0.035463043 -0.031097833
0.03439599 -0.033691153 -0.0334272 -0.033931673 -0.032955483 0.03465976 -0.03384157 0.033173695
0.011532962 -0.011805522 -0.010503105 0.010798709 0.011252135 -0.013613875 0.011145999 0.012460927
-0.01049992 0.011922269 0.010987081 0.01333931 0.012908159 -0.011095259 0.013051687 -0.012984576
0.030653397 -0.031625118 -0.032451905 0.032557737 0.031178776 -0.032830335 0.032364354 0.030681176
-0.033689983 0.0302871 0.031009879 0.032859877 0.031714536 -0.03155889 0.032498144 -0.030946225
0.03379493 -0.031948492 -0.03373602 0.03307042 0.03388216 -0.03344903 0.03397464 0.033202812
-0.033377256 0.03279222 0.031996842 0.03335041 0.032836962 -0.033383533 0.032588936 -0.032304768
0.0045427154 -0.0029829545 -0.0029451791 0.006158918 0.00558895 -0.003992301 0.0031758128 0.0066368417
-0.003983 0.0031083648 0.0029214823 0.00411191 0.004239155 -0.0047627822 0.0033956908 -0.007030293
-0.020918783 0.019384723 0.018346183 -0.019683465 -0.021145627 0.021224283 -0.019211661 -0.019553605
0.020580782 -0.020325879 -0.019069845 -0.019983029 -0.017170472 0.019311925 -0.018195758 0.020044815
0.03677637 -0.037043754 -0.037681498 0.035044335 0.0358559 -0.037042744 0.034983806 0.032065548
-0.036302794 0.035806645 0.037083406 0.0376207 0.03625693 -0.036135025 0.03676355 -0.035075337
-0.033527937 0.0334922 0.033454847 -0.032324463 -0.03241288 0.03205504 -0.032648753 -0.03259193
0.03242419 -0.033843864 -0.03294898 -0.034324184 -0.03325487 0.03290327 -0.032956973 0.032451015
0.03735886 -0.037964474 -0.037670474 0.03513266 0.036117148 -0.03801094 0.037690327 0.037192978
-0.036066975 0.036870252 0.0377235 0.03467531 0.037245892 -0.037219763 0.038323622 -0.035234567
-0.03113175 0.028566087 0.03006332 -0.03043597 -0.029941857 0.03189646 -0.029931646 -0.02764889
0.028175214 -0.027966898 -0.02924252 -0.031434238 -0.03034767 0.02885576 -0.029304815 0.028908517
-0.03598311 0.03719127 0.034803644 -0.03687604 -0.036020756 0.03585923 -0.037996 -0.033866636
0.03470984 -0.03583098 -0.035664473 -0.034609083 -0.03689782 0.033296984 -0.035520047 0.03544954

layers.0.egnn.coors_mlp.0.bias f4 [64]
00000000: e097 04be d819 ddbd 6ec3 7cbe 8b0b 8fbe
00000010: 9661 55bd cee1 5bbe 27f3 fb3c bad1 d93d
00000020: bae6 4b3e c18b 1b3c 8dc9 77bd 88d4 903e
00000030: 3f4c 60be c89b 453e b6c7 34be d0c4 90be
00000040: fe8e 79be 656b 02be ad96 5f3e c63a 54be
00000050: d83e 61be 99b1 153e 4e62 65bc 8bd3 e33d
00000060: 93f5 5dbe f13d 543e 8e3f 00be e811 a3bd
00000070: 1814 383e c56a bd3c 000d 54be e1f0 76be
00000080: 9e22 0d3e 978e 1f3e e7bb 85be 04d6 083e
00000090: 1b9f 3bbe 2d89 78be 5d06 2cbd b746 173d
000000a0: 34ec 64be 9101 2abe 0314 c1bd df2b f13d
000000b0: 2c0a 8ebe 8afc 80be a765 403e c831 8b3d
000000c0: d5d1 8abe bd8d a3bd dddb 68be 85e2 de3d
000000d0: e7a5 1f3e 9c0e 443e 15ea ed3d 8d68 eebd
000000e0: 1744 7d3e f0c9 023b b36e 68bd 480f 8b3d
000000f0: 0949 1b3e fc3b ac3d d46e 64bd e202 e93d
-0.1294856 -0.10795945 -0.24683926 -0.27938494 -0.05209502 -0.21472856 0.030755593 0.10635705
0.19912234 0.009493769 -0.06049495 0.28287148 -0.21904086 0.19297707 -0.17654309 -0.28275156
-0.24370953 -0.1273628 0.21834822 -0.20725545 -0.21996629 0.1461853 -0.014000488 0.11124333
-0.2167571 0.20726754 -0.12524244 -0.079624 0.17976415 0.0231222 -0.20708084 -0.24115326
0.13782737 0.15581737 -0.2611992 0.1336289 -0.18322413 -0.24271078 -0.041998256 0.036932673
-0.2235573 -0.1660216 -0.09427645 0.11775946 -0.27742136 -0.25192672 0.18788777 0.067966044
-0.27113214 -0.07986019 -0.22740121 0.10883049 0.1559063 0.19146198 0.11616913 -0.11641035
0.24733005 0.001995679 -0.056746196 0.06790024 0.1516458 0.084098786 -0.055769756 0.11377503

layers.0.egnn.coors_mlp.3.weight f4 [1, 64]
00000000: 012b fd3c c7dc ed3c f3b7 043d 99ce 0c3d
00000010: 1cbf b13c b1a6 083d afdb 8fbc 1fb6 06bd
00000020: d5a4 06bd f15b 9cbb 8ff3 ba3c 9ec6 0bbd
00000030: 7198 063d c2eb 0fbd 84ef f83c 66ad 0c3d
00000040: a99c 013d cd3e fa3c 023b 14bd aa09 033d
00000050: f363 033d 4df6 fabc 35b8 cd3b 12e9 d8bc
00000060: d365 f43c 9e96 01bd 71f3 ec3c 461b e93c
00000070: 017f 0dbd 7b22 3dbc 85cf fb3c 9668 093d
00000080: 5d6b fcbc fef9 fbbc 9bfc 043d 32b0 f8bc
00000090: c3a0 083d 14f4 123d 7d61 a13c 3470 90bc
000000a0: 46d8 0c3d f992 ff3c 6add f63c ae36 01bd
000000b0: 8bd8 ff3c c882 053d 33bd 04bd 4e9b dcbc
000000c0: 2a70 083d 7ae8 f03c 0eb5 0e3d 0877 0ebd
000000d0: c276 f8bc acea f8bc 8dd3 ebbc c8d0 ee3c
000000e0: 5c85 0bbd 075f 7eba e34d cb3c 4847 e2bc
000000f0: 797b 05bd 5aec ddbc 69aa d43c 5c65 02bd
0.030904295 0.029035939 0.03240199 0.034376714 0.021697573 0.033362094 -0.017560808 -0.032888528
-0.03287204 -0.0047717025 0.022821216 -0.034124963 0.032860223 -0.035136946 0.030387647 0.034345053
0.031643543 0.030547524 -0.036189087 0.03199164 0.03207774 -0.030635023 0.0062780627 -0.026478324
0.02983371 -0.03163778 0.028924676 0.028455388 -0.03454495 -0.011543865 0.030738601 0.033547007
-0.030812914 -0.030758854 0.032467466 -0.030357454 0.03335644 0.035877302 0.019699806 -0.017631628
0.034385942 0.031198012 0.030134875 -0.031546287 0.031231185 0.032595426 -0.032406997 -0.026929524
0.033310093 0.029407728 0.034840636 -0.034781486 -0.030330066 -0.030385338 -0.028787399 0.029152289
-0.03406273 -0.0009703491 0.024817413 -0.02762188 -0.032588456 -0.02709024 0.025960164 -0.031834945

layers.0.egnn.vel_mlp.0.weight f4 [16, 4]
00000000: bc8f 523a 1285 353b b3cc e6ba ac7d 183b
00000010: 886c 013b 096e 90bb c6c0 883b 6f51 ddbb
00000020: 66d6 903a 1048 8ebb f1c4 2c3b 3220 aabb
00000030: 5e6a 823a a46e 073a 15b2 a4ba 147d c23a
00000040: 215e 9c3a 9dd0 8439 bd12 a43a 7d4e ccba
00000050: 2cef 9a3a c6c1 17b9 e626 5abb 4542 073a
00000060: 7165 59ba 8ea8 9dbb a2b3 253b 2fe7 88bb
00000070: 726f 0b3b 70c7 faba bd8e f1b9 debb bbba
00000080: 229a 48bb 1245 4339 20ab 5eba 7e47 303b
00000090: 0006 5ebb b8e9 73bb c0f9 3b3b d4ba 973a
000000a0: bd81 f0ba 6166 6c3b a664 d6ba 8e3d a93b
000000b0: 8dad 05bb dc82 cabb 22d2 543b 4900 29bb
000000c0: ea59 d2ba 8f26 4a3b 5388 8dba 76e3 a13b
000000d0: 2206 f43a bf69 83b9 f67a 18bb 40bf 94bb
000000e0: 2f25 bbba d3bd c43b 3da6 8cbb e134 083c
000000f0: e59b fa3a 4919 3eba c107 11ba a3ef 7bbb
0.00080322823 0.0027697724 -0.0017608613 0.0023268266 0.0019748528 -0.0044076485 0.004173371 -0.0067540924
0.0011050224 -0.0043420866 0.0026362503 -0.0051918263 0.0009949913 0.0005166328 -0.001256528 0.0014838302
0.0011929908 0.0002533243 0.0012517791 -0.0015587356 0.0011820546 -0.00014472668 -0.0033287345 0.0005159716
-0.0008293009 -0.004811353 0.0025284071 -0.00417795 0.0021276143 -0.0019132923 -0.0004607345 -0.0014322957
-0.0030609448 0.0001862238 -0.00084941275 0.0026898081 -0.0033878088 -0.0037218165 0.0028682798 0.0011576065
-0.0018349212 0.0036071765 -0.00163569 0.0051648086 -0.0020397634 -0.0061801504 0.0032473882 -0.0025787523
-0.0016048525 0.0030845737 -0.0010798074 0.0049404455 0.001861755 -0.00025065054 -0.002326665 -0.0045394003
-0.0014278049 0.006004074 -0.004292278 0.008313389 0.0019119947 -0.00072516926 -0.00055324665 -0.0038442395

layers.0.egnn.vel_mlp.0.bias f4 [16]
00000000: d068 0d3e 465b 743e c3ac c83e 5515 41bd
00000010: cb9f 443e f1fb 533e f320 4c3e d8cf c3be
00000020: c1a6 693e 44d8 ffbe 1a73 92be a976 87be
00000030: ddb0 e73e ea8b 57bd 08a4 963d 20ed 2d3d
0.13809514 0.23862943 0.39194307 -0.047139484 0.19201581 0.20701577 0.19934444 -0.3824451
0.22817518 -0.49969685 -0.2860344 -0.26457718 0.45252123 -0.052623667 0.07355505 0.04246247

layers.0.egnn.vel_mlp.3.weight f4 [1, 16]
00000000: a32f 1fbb 0549 95ba c492 52ba 8785 11bb
00000010: 1abc ce3a 7af0 3d3a 374c 6dba 33a1 38bb
00000020: 6b25 af3a 2d8d 0abb 2dfa d8b9 5d4d 09bb
00000030: 1c87 8aba d36e a33a 91e0 fa3a 4d12 393b
-0.0024289868 -0.0011389559 -0.0008032734 -0.0022204833 0.0015772611 0.00072456116 -0.00090521894 -0.0028172254
0.0013362592 -0.0021141276 -0.00041385126 -0.0020950653 -0.001056883 0.0012468941 0.0019140412 0.0028239668

layers.1.egnn.edge_mlp.0.weight f4 [20, 10]
00000000: 7682 b7bc 3f88 b33c 27f7 aabc e81d a4bc
00000010: 5793 b0bc 362e 9c3c 5ed6 9ebc e1d9 a4bc
00000020: aab3 9fbc 71ac a2bc cb10 a43c c920 96bc
00000030: 6a60 a53c e694 973c c2f8 9b3c 3c47 8bbc
00000040: a63c 923c ab8e 9d3c 06fd 9c3c 579b 8d3c
00000050: bd0f 723b bcac e4ba d691 673b b14d 8e3b
00000060: 9c77 ad3a 855e f0ba cc71 a13b b3f6 9e3a
00000070: 824a 59b9 35f3 e039 9e5c 2bbb af41 843b
00000080: 3d81 debb d428 abbb 1584 5fbb 256d a93b
00000090: 4d25 c7bb 6e75 aebb 4989 6bbb def3 acba
000000a0: 4dfc 9bbc 99eb 9a3c 46a0 94bc b192 90bc
000000b0: 51a5 9cbc 33de a63c ef8e a3bc c25b a9bc
000000c0: 7f24 92bc a72b 84bc 6d82 9b3c 3502 aabc
000000d0: b4bd a73c 1cad b43c 9966 9c3c 29b9 9dbc
000000e0: f07e ac3c f670 ac3c ae18 9a3c 117d 923c
000000f0: d46f 8f3c 7d15 98bc aef0 883c fba9 9f3c
00000100: 53ac 983c 3d5d 9cbc 8491 993c 9a46 9d3c
00000110: 30b8 893c d58e 9b3c c4ce a2bc 6915 b13c
00000120: e78e aabc 0d7e 9ebc 4eb5 98bc 5351 a63c
00000130: 91c1 96bc 5d31 a9bc 3a48 9bbc ab99 85bc
00000140: f1d8 8c3c 937b 9fbc 94cc 803c f10e a63c
00000150: ad18 a73c bbcb aebc 6a68 af3c 5e24 a33c
00000160: 0a4a 6a3c 5d48 923c b212 9fbc 6b3b 953c
00000170: 27bf 94bc d1d3 9fbc 45b5 a0bc 0560 a33c
00000180: 6514 a0bc 8098 a0bc 5a56 89bc 72ef 90bc
00000190: 0f8b 983c fb6f a4bc 7cc8 9e3c 9b1d a53c
000001a0: 4cd7 983c f70f a0bc f58f a53c 06d6 b53c
000001b0: 8f9b 733c 2a1c 993c 773a b7bc f4ff ab3c
000001c0: a9d1 b3bc 8bde bcbc e64d bdbc 8e41 b03c
000001d0: cd3a c2bc 9c9d b1bc 5ae4 b0bc 7665 b8bc
000001e0: f1e2 983c 5b6e a8bc e536 aa3c a124 973c
000001f0: 99cb 7d3c 2204 8dbc ed8c 813c caf6 8c3c
00000200: c98e ad3c e0f1 8a3c df2f 343b 319f b7bb
00000210: cf7f cf3b 77f6 a33a 9fdb 5ebb 30ab bf3b
00000220: 9f61 27bc ee85 99bb 41f4 3c3c 94e1 363b
00000230: 66bd ceba 461b 013b 6443 cbba f0ad 04bb
00000240: a3d5 99bb 7501 c33b a53e 1dbc 3ddd 79bb
00000250: 21e5 4839 4b44 2abb e22b b9bc bfb3 b93c
00000260: 495f b3bc 53b4 b0bc 9a8c b6bc 4007 aa3c
00000270: 9dff aabc 0539 b0bc 1eb5 aebc e109 a8bc
00000280: 386a 903c 2a41 98bc 0cc4 993c 38f3 873c
00000290: 76f5 343c f31a 2fbc 0d1d 0a3c 12cb 583c
000002a0: cd24 aa3c 0880 6a3c 907d a4bc 84d0 903c
000002b0: 34a1 9abc 8e7d 8fbc 27c5 aabc 161f 9d3c
000002c0: 6799 99bc fab0 9bbc ba2e 98bc f63e 94bc
000002d0: fafb b3bc 040c ad3c 87f6 a3bc 3e10 a8bc
000002e0: 4316 b6bc 77c7 ba3c 7372 c0bc 6b3b c3bc
000002f0: 3ce7 9bbc d95a a5bc ae82 aabc 7932 a23c
00000300: 3708 b0bc 6781 a9bc cc06 a6bc eebf ac3c
00000310: c784 aabc e4aa acbc 68bf 99bc eb02 9fbc
-0.022401076 0.021915553 -0.020869805 -0.020033792 -0.021554632 0.019065004 -0.019389328 -0.020123424
-0.01949485 -0.019857617 0.020027539 -0.01832618 0.020187575 0.018503617 0.019039515 -0.01700174
0.017851185 0.019233068 0.01916362 0.017285986 0.003693565 -0.0017446498 0.0035334728 0.0043427576
0.0013234499 -0.0018338716 0.0049268957 0.0012127965 -0.00020722489 0.00042905813 -0.0026147733 0.0040361504
-0.0067903087 -0.005223373 -0.0034105827 0.0051704817 -0.0060774446 -0.0053240573 -0.0035939983 -0.0013195237
-0.019041205 0.01891117 -0.01814283 -0.017648073 -0.019121798 0.020369625 -0.019965617 -0.020673636
-0.017839668 -0.016134096 0.01898309 -0.020753006 0.0204762 0.022055201 0.019091891 -0.01925333
0.021056622 0.021049958 0.018810596 0.017881902 0.017509378 -0.018564934 0.016716328 0.019490233
0.018636858 -0.019087428 0.018746145 0.019198705 0.01681146 0.018989006 -0.019873984 0.021616654
-0.020820094 -0.019347215 -0.01864114 0.02030245 -0.018402847 -0.020653421 -0.018955339 -0.016308626
0.01719329 -0.019468104 0.01572255 0.020270796 0.020397509 -0.02133738 0.021412093 0.019914802
0.014299879 0.017856771 -0.019418094 0.01821681 -0.018157555 -0.019510182 -0.019617686 0.019943247
-0.019540975 -0.019603968 -0.016764808 -0.017692301 0.018620996 -0.020072928 0.019382708 0.020155719
0.018657349 -0.019538863 0.020210246 0.02219678 0.014868631 0.018690187 -0.022366745 0.020996071
-0.02195056 -0.023055336 -0.023108434 0.021515634 -0.023709679 -0.0216816 -0.021593262 -0.022509318
0.018662902 -0.020560434 0.020778129 0.018450083 0.015490436 -0.017213885 0.015814269 0.017207522
0.02118625 0.016961038 0.0027494354 -0.005603694 0.0063323746 0.0012509365 -0.0034005416 0.0058492646
-0.010216146 -0.004685155 0.011532844 0.002790545 -0.0015772998 0.0019700094 -0.0015507755 -0.0020245276
-0.004694657 0.0059511014 -0.009597455 -0.0038126253 0.00019158843 -0.0025980647 -0.022603933 0.022668717
-0.021896021 -0.02157036 -0.02228384 0.02075541 -0.020873839 -0.021511564 -0.021326598 -0.020512523
0.017628774 -0.01858576 0.01877024 0.016595468 0.011044851 -0.010687578 0.008429778 0.0132320095
0.020769501 0.014312752 -0.020079404 0.017677553 -0.018875696 -0.017515924 -0.020845963 0.019179862
-0.018749906 -0.019005287 -0.018576968 -0.018096428 -0.021970738 0.021123894 -0.020015014 -0.020515557
-0.022227412 0.02280019 -0.023492074 -0.023832044 -0.01903116 -0.020184921 -0.020814266 0.019799458
-0.021488292 -0.020691587 -0.020266913 0.021087613 -0.020815266 -0.02107758 -0.018768027 -0.019410571

layers.1.egnn.edge_mlp.0.bias f4 [20]
00000000: 9621 a93d 6b5d e6bd 3bfd 78bc 4bcb bd3c
00000010: 7d42 6f3e d724 18be fd88 3fbe 32e8 f63d
00000020: 3980 71be cf98 8f3e ad60 4abe 00c4 453e
00000030: 2287 abbd 90a6 1a3d dfaf 3d3d 0c08 053e
00000040: 5e5c 0abd cb6d 7d3e 49d2 873e 3b1c 2b3e
0.08258359 -0.11248287 -0.015197094 0.023168227 0.23365207 -0.14857803 -0.187046 0.120560065
-0.2358407 0.2804627 -0.19763441 0.1931305 -0.08375384 0.037756503 0.046310302 0.12991351
-0.033779494 0.24748914 0.26527622 0.16709988

layers.1.egnn.edge_mlp.3.weight f4 [16, 20]
00000000: 510a 3b3c 2c8e 13bc 5ee9 7a3a f1ad 9aba
00000010: a04e 073b e0bd eebb b091 90bb c980 e13b
00000020: 6580 4fbb 8b26 a43b 106c 9bbb 0fac 853b
00000030: d1af 4fbc efc2 09bc 41df c6bb df28 273c
00000040: e9fc 8abc 5500 6f3b 3736 8b3b 1926 d53b
00000050: 55f3 ca3b 9cce bdbb 1c6a 123b f2b1 b6ba
00000060: 9806 f939 ac83 b5bb f28c e7ba 3d39 ae3b
00000070: 1c49 a13a 0eb0 66b9 d007 b1ba bd7f 333a
00000080: ddfc 08bc 7241 24bc 6772 82bb 5ea4 683b
00000090: af7c 46bc 6797 c03a 478e cd39 4b08 e53a
000000a0: e8bb e13c 1c96 f3bc c690 abbb 55c7 2e3b
000000b0: 5d30 163d ffc8 04bd 5850 13bd 8bf1 f73c
000000c0: c0bc 19bd 45bc 173d d203 14bd f26c 083d
000000d0: c034 d2bc c81c d33c 58f7 793c d7c5 ef3c
000000e0: caa5 95bc dcff 103d 111d 133d bf00 083d
000000f0: b070 e73b 2e87 c8bb 3043 273b 8d18 68b9
00000100: abca 153b d63a 44bb bf30 62bb 4a71 f53b
00000110: c68a dcba 052b ca39 e9bd 60ba bb43 2f3b
00000120: 5750 31bc 2fb0 21bc edc7 96bb 651a 983b
00000130: ef57 78bc de40 c3b9 069d 903a 52cf 403b
00000140: e4d3 1abc 65a2 013c 0f7a 20bb 1f93 df3a
00000150: 88c9 64bb 0f80 9a3b c407 c63a acbe ebbb
00000160: 4a94 873b 2174 6dbb fafd 473b ddd8 a1bb
00000170: 12a7 243c 0306 393c c522 ed3b 6d13 eabb
00000180: 98f6 793c 2128 0ebb 9eca 1ebb 2482 adbb
00000190: d3fd bbbb 4211 c83b cf96 f2ba 9662 4638
000001a0: 905b 6239 e272 2e3b 5614 ba3a b752 acbb
000001b0: e9b2 33b9 1647 aab9 3f6f 9237 a12c 3ebb
000001c0: a480 1f3c cb23 0d3c d661 953b a3d6 82bb
000001d0: dd50 713c 1375 9fba 21ec 9aba f664 5cbb
000001e0: 5ff4 06bc fe57 d13b 7ed4 05bb f50f fab9
000001f0: 2236 a8ba 9561 d53a 9b50 e23a 3f37 a2bb
00000200: 622c 51b8 03e3 493a f001 713a 7b66 3dbb
00000210: 49e1 243c fd61 203c b5fa 983b 4e5b c1bb
00000220: e0f4 643c 95e8 f8ba 3cf0 ceb9 701c 46bb
00000230: ff05 de3b 57ce dbbb 929d 5a3b 95cf 7dba
00000240: 58da c23a be23 a3bb 96e0 03bb 5a6b 933b
00000250: bc9c 7eba 5ecb 9ab9 9f36 e4b9 7054 963b
00000260: eaf4 f2bb ba85 24bc 19cc 9dbb 75ac ba3b
00000270: 927e 64bc 6ef4 abba e6cb 003b 2502 983b
00000280: c883 f13b f10e b9bb 5840 f538 f185 79b8
00000290: 926a 0dba 6d0f 52bb 882d b1ba 313b b13b
000002a0: aa6b 4c3b cb5a 50bb c6f2 01bb dd1b 693b
000002b0: 8fba 1dbc 6b84 24bc 83ca 86bb eccc 813b
000002c0: a064 66bc 4456 58ba e1fd 69ba b922 103b
000002d0: df06 f33b 8938 6dbb e7a3 603a f1d5 4dba
000002e0: 5f83 b43a 77cb 93ba 0ff6 a9ba f2ce 623b
000002f0: 5b20 ab3a b5cd 78ba c6a8 10b9 861a f13a
00000300: fb77 22bc 57e4 18bc 9811 d8bb 57b9 123b
00000310: fc9e 62bc 6201 c63a aad1 aeba 1769 283b
00000320: 2eae 073c a29a adbb 2be6 8c3a 2336 71ba
00000330: 2609 073a 257c 8cbb 21d4 b7ba 6653 9c3b
00000340: 75e0 5b39 1df3 fd39 e3a4 12b9 6a5d f13a
00000350: 2e6a 3ebc ebe7 2abc 7880 93bb c100 bd3b
00000360: a9dc 79bc ed8a bbb9 6e86 50b9 d1fc 393b
00000370: fef0 673c 1ecc 64bc f2a2 d93b d486 81bb
00000380: e90f 273c c6a5 46bc 06b3 2ebc ae1d 513c
00000390: 9597 1bbc 3901 e53b 6913 2bbc a004 543c
000003a0: 13a1 89bc b2ca 31bc e5a0 d5bb b39e 503c
000003b0: 5313 b0bc 245b 1b3c 0ef7 293c 3fb4 1a3c
000003c0: bcb7 22bc 7a1b fd3b cf12 a8bb 424c 0d3b
000003d0: f901 bcbb 7899 ea3b ccd1 ba3b a5b1 dabb
000003e0: aab2 ae3a 059f 0fbb c4fb 543b 78c1 cabb
000003f0: 7891 223c 47f4 2b3c 01df ce3b c945 d4bb
0.011416034 -0.009006064 0.00095715176 -0.0011801106 0.002064623 -0.0072858185 -0.0044118986 0.0068818075
-0.0031662222 0.0050094775 -0.0047431067 0.004079349 -0.012676195 -0.008408292 -0.0060690944 0.0102026155
-0.0169663 0.0036468704 0.0042484063 0.0065047857 0.006193558 -0.005792452 0.0022341078 -0.001393853
0.00047497894 -0.005539378 -0.0017665906 0.005316882 0.0012305113 -0.00022000095 -0.0013506357 0.00068473426
-0.008361069 -0.010025369 -0.003980923 0.003549836 -0.012114688 0.0014693559 0.00039206652 0.0017473785
0.027555421 -0.029734664 -0.005235764 0.0026669104 0.036667217 -0.032418247 -0.035965294 0.030266544
-0.03753352 0.037044782 -0.036136456 0.033307023 -0.025659919 0.02577056 0.015256725 0.029269142
-0.018267531 0.035400257 0.03591639 0.033203837 0.007062994 -0.0061196303 0.0025522225 -0.0002213439
0.0022856395 -0.0029942296 -0.0034513918 0.0074903117 -0.0016826026 0.00038560494 -0.00085732207 0.0026743251
-0.010822377 -0.009868666 -0.0046014697 0.0046418183 -0.015157684 -0.00037241628 0.0011033125 0.0029420448
-0.009449933 0.007912253 -0.0024486815 0.0017057395 -0.003491016 0.004714973 0.0015108516 -0.0071943607
0.0041375505 -0.0036232548 0.0030516372 -0.004939182 0.010049598 0.011292937 0.007236811 -0.007143429
0.015256546 -0.00216914 -0.0024229656 -0.005295055 -0.0057370453 0.006105573 -0.0018508079 4.7298694e-05
0.00021587149 0.0026618768 0.0014196734 -0.005258884 -0.0001713742 -0.0003247789 1.745636e-05 -0.00290183
0.00973526 0.008614491 0.004558782 -0.003992872 0.014728752 -0.0012165628 -0.001181964 -0.0033629513
-0.008236974 0.0063886633 -0.0020420845 -0.00047695605 -0.0012833516 0.0016279692 0.0017266454 -0.0049504335
-4.9870818e-05 0.0007701369 0.0009193709 -0.0028900194 0.010063478 0.009788987 0.0046685585 -0.005900777
0.013974398 -0.0018990213 -0.0003947037 -0.0030229352 0.006775617 -0.0067079472 0.003335808 -0.0009682116
0.0014866097 -0.004978626 -0.0020122877 0.0044988813 -0.00097126863 -0.0002952469 -0.00043528245 0.0045877025
-0.00741445 -0.0100416485 -0.00481559 0.005696828 -0.013946192 -0.001311911 0.0019652783 0.0046389275
0.007370446 -0.005647533 0.00011694495 -5.949097e-05 -0.00053946034 -0.0032052652 -0.0013517598 0.0054086675
0.0031192102 -0.0031792398 -0.0019828542 0.0035569586 -0.009626999 -0.0100413365 -0.0041134967 0.003961196
-0.014062077 -0.00082526007 -0.00089260755 0.0021993353 0.0074165906 -0.0036197028 0.0008569345 -0.0007852009
0.0013772062 -0.0011275847 -0.0012967008 0.0034608212 0.0013055907 -0.0009491102 -0.00013795783 0.0018394745
-0.009916301 -0.009331784 -0.006593894 0.0022388303 -0.01383185 0.0015106613 -0.0013337631 0.0025697404
0.008281274 -0.0052979747 0.0010749748 -0.00092014874 0.00051512045 -0.00428726 -0.0014025011 0.004770684
0.00020969084 0.00048437054 -0.0001398507 0.001841468 -0.011621995 -0.01043127 -0.0045013987 0.005767912
-0.015250363 -0.00035770927 -0.00019886505 0.002837945 0.014156578 -0.013964681 0.006641739 -0.0039528403
0.010196664 -0.012124484 -0.0106628 0.012763424 -0.009496589 0.006988671 -0.010441639 0.012940556
-0.016800439 -0.010851549 -0.0065194243 0.012733149 -0.02149359 0.009482179 0.010373844 0.009442388
-0.009931501 0.0077242227 -0.0051291953 0.0021560346 -0.00573754 0.007159408 0.0057012793 -0.006674009
0.0013328393 -0.0021914851 0.0032498697 -0.006187614 0.009922378 0.010495252 0.006313205 -0.0064780456

layers.1.egnn.edge_mlp.3.bias f4 [16]
00000000: 8974 95bd b37c 12be dc8e 293d 15bc 0abe
00000010: 8098 cc3d b397 583e f6d8 5d3e be6e 1cbe
00000020: 2040 5dbe b356 31be 52d3 13be 3470 38bd
00000030: 01a3 e03d 77f9 42be 98ed cb3c 5f6d d63b
-0.07297618 -0.14305381 0.041396007 -0.1354831 0.099900246 0.21151619 0.21664795 -0.1527662
-0.21606493 -0.1731823 -0.14436081 -0.04502888 0.109685905 -0.19040476 0.024893567 0.0065438

layers.1.egnn.node_mlp.0.weight f4 [8, 20]
00000000: cb1e ee39 ff13 e0ba 69ca 77b9 2ed8 40ba
00000010: 55da 5ab9 f7fa 34ba 6821 8e3a a0b8 30b9
00000020: f7c7 e3ba b2f8 223a cfce bb39 86ec c0ba
00000030: a0b9 0b3b 3158 9b38 91f8 3eba 27c8 14ba
00000040: 254a a1ba 92a2 37b9 ffc1 7ab9 3460 93b9
00000050: ee7a 193a 74bf 4fb8 78f3 c139 bd0b d5b9
00000060: 2bc9 00ba 9a96 6439 9a83 ccb9 d736 6b38
00000070: 07b7 7f3a 6e6a baba 2cd4 d1b9 df07 97b9
00000080: 1d19 6bb8 0ddd a3ba 3429 a5ba 8bf1 98ba
00000090: d6f3 88b8 2aae 353a 0f5c dc39 a285 0ab9
000000a0: a998 153a b999 10b9 4c80 8539 bcd2 6f3a
000000b0: 4639 043b 14a5 603a f887 afb9 3b83 013b
000000c0: 6ae9 7b3a 5144 9cba b052 e8b8 44a3 9e3a
000000d0: 6b57 1b3a 9da3 72ba d2bd 12ba 03c5 853a
000000e0: 158a 6eba da1b 733a c92f 20b7 0d6d fdb8
000000f0: ce6d f439 1aa5 153b 8e04 baba fbd0 443a
00000100: 1982 673a 3a89 ab39 48ad 8fb9 cea7 1e3a
00000110: df2c 9a3a 397e d23a 185a 2ebb 2879 413a
00000120: e96a d139 a429 92b9 8c21 d6ba 1c72 873a
00000130: 59b1 56b9 d8c8 963a 4aa5 cb3a 2ba7 01bb
00000140: e44d 94ba 149d 023a b7cd e63a 47c2 e63a
00000150: d0b8 a139 f89d edb9 64db 9ab8 9992 3338
00000160: f30a 9c3a 1757 ffb8 5a5b cbb8 f769 abb9
00000170: eb44 25b9 48ae 0a3b bef8 8e3a 3fbc dfb7
00000180: fc1f e13a c63e 3a39 cf4f c1b9 6922 20ba
00000190: df19 5439 1ac3 32ba 462c 87b9 7d03 55ba
000001a0: 75c3 0e3b c3f5 d9ba b426 65b7 af23 5d3a
000001b0: 69d4 96b9 d85a ceb9 2491 dc3a 5d94 c8ba
000001c0: 14f6 e83a 2612 60ba 6e30 61ba 8986 b0b9
000001d0: 0bcf fbb9 a296 b3ba 6ed7 3f3a 09cc 183a
000001e0: 66f0 c2ba 2672 ae38 04ec aa3a 121e ecba
000001f0: 8813 60b9 e135 03b9 328f 90b9 5f2e 9439
00000200: bcec 80ba e74b 25ba c5b2 82ba 5c8e 9d3a
00000210: a04d 503a 7be4 343a 847b 92b9 d267 19b9
00000220: 8399 7e3a 6e63 54ba 144a 78ba c051 f03a
00000230: 87d1 8038 0900 8a38 7bc5 053b 435a ea39
00000240: cba7 853a 793c 9a38 43aa b33a d9ca 623a
00000250: 883c b9ba 030c a43a 67b1 8db9 de4f 7738
00000260: 76a2 aab9 299c 45ba d6d6 f9b9 6e69 e8b9
00000270: 2f8f a83a 597d d139 2d72 21ba 7ea9 74b8
0.0004541784 -0.0017095803 -0.0002363116 -0.0007356432 -0.00020871435 -0.0006903852 0.0010843696 -0.00016853446
-0.001737832 0.0006216868 0.00035821504 -0.0014718927 0.0021320358 7.407403e-05 -0.0007284964 -0.0005675577
-0.0012305422 -0.00017512802 -0.00023914127 -0.00028109702 0.0005854805 -4.953095e-05 0.00036993227 -0.00040635272
-0.0004912789 0.00021799878 -0.00039007963 5.607944e-05 0.0009754751 -0.0014222392 -0.00040021667 -0.0002880683
-5.6051755e-05 -0.0012501791 -0.001260078 -0.0011668665 -6.530403e-05 0.00069305545 0.0004203026 -0.00013210488
0.0005706647 -0.00013790176 0.00025463325 0.00091485283 0.002017574 0.00085695204 -0.00033479906 0.0019762057
0.00096096715 -0.0011922215 -0.00011078024 0.00121031 0.0005925807 -0.00092559477 -0.00055977434 0.0010205809
-0.00090995553 0.00092738646 -9.547869e-06 -0.000120842924 0.00046621118 0.0022834004 -0.0014192031 0.0007507947
0.0008831337 0.00032717903 -0.0002740419 0.00060522265 0.001176264 0.0016059346 -0.0026603993 0.00073804194
0.0003994324 -0.00027878315 -0.0016336902 0.001033369 -0.00020474698 0.0011503948 0.0015536931 -0.0019783478
-0.0011314717 0.0004982513 0.0017608915 0.0017605507 0.0003084601 -0.00045321858 -7.384157e-05 4.2813455e-05
0.0011905119 -0.00012175569 -9.69681e-05 -0.00032694612 -0.000157613 0.0021161009 0.0010907871 -2.667133e-05
0.001717567 0.00017761727 -0.0003687129 -0.0006108643 0.00020227533 -0.00068192335 -0.00025782193 -0.0008125825
0.0021783982 -0.0016629029 -1.3658475e-05 0.0008435798 -0.00028768487 -0.00039359066 0.0016827923 -0.0015303005
0.0017773532 -0.0008547626 -0.00085902854 -0.00033669572 -0.0004802871 -0.0013701508 0.00073181733 0.00058287435
-0.001487267 8.318228e-05 0.0013040309 -0.0018014333 -0.0002136958 -0.00012513205 -0.0002757251 0.0002826331
-0.0009836177 -0.0006305561 -0.000997149 0.0012020576 0.00079461373 0.00069005013 -0.00027939316 -0.00014629893
0.0009712206 -0.00081019744 -0.0009471488 0.001833491 6.142543e-05 6.580359e-05 0.0020411897 0.00044699208
0.0010197101 7.354556e-05 0.0013707358 0.00086514425 -0.001413242 0.0012515787 -0.0002702579 5.896377e-05
-0.0003254597 -0.0007538223 -0.00047653046 -0.0004432904 0.0012860055 0.00039956978 -0.0006158676 -5.8331985e-05

layers.1.egnn.node_mlp.0.bias f4 [8]
00000000: 0216 45be 9118 2fbe 6ec5 a73d cf09 973c
00000010: d863 df3d e579 b1bd 90de 94bd 7fcc 9e3d
-0.19246677 -0.17099215 0.081919536 0.018437294 0.109077156 -0.08665828 -0.07269013 0.07753848

layers.1.egnn.node_mlp.3.weight f4 [4, 8]
00000000: ae31 3f3a 1f90 3d3a 6e88 f53a 851d 053b
00000010: 8755 3639 ae52 e4b9 1807 3e39 3324 fdb9
00000020: c44d c939 fcbd 5338 9bcf 173a 7680 15ba
00000030: 33fb a63a 8faf 5dba 6b73 853a 8af7 8d39
00000040: 964c f7ba 8042 8639 d1e7 2db9 8d0d 233a
00000050: 1111 a8ba 359d 98b9 ec02 26ba 4139 bbb9
00000060: 87a1 a83a d4ad 243a 284e 773a 40b3 3f3a
00000070: 0d54 59b9 d7b0 693a 8058 36ba 8363 9dba
0.00072934746 0.00072312535 0.0018732676 0.0020311784 0.00017388734 -0.0004354915 0.00018122455 -0.0004828289
0.00038395647 5.0483257e-05 0.00057911285 -0.0005703041 0.0012739658 -0.0008456641 0.0010181492 0.00027078047
-0.0018867429 0.00025608018 -0.00016584924 0.0006219976 -0.0012822469 -0.00029108828 -0.0006332833 -0.00035710077
0.0012865522 0.0006282006 0.00094339484 0.0007312782 -0.00020726044 0.0008914596 -0.00069559366 -0.0012007806

layers.1.egnn.node_mlp.3.bias f4 [4]
00000000: 4af3 a73e cc17 bebc 98e3 8f3e 74ab 02bc
0.32802802 -0.023204707 0.28103328 -0.007975448
