data/models/model_N20_batch64_lr0.0001_fd4_b0.7.pth (torch, 30922 bytes, 32 tensors)

time_embedding.0.weight f4 [8, 1]
0	0xbe214b55	-0.15751393
1	0x3d2d9500	0.042378426
2	0xbd7b559c	-0.06136094
3	0x3f69a678	0.91269636
4	0x3eaed4b8	0.34146667
5	0x3f107b70	0.5643835
6	0xbf2e618e	-0.68117607
7	0x3f1a1edd	0.60203344

time_embedding.0.bias f4 [8]
0	0x3daa3bcb	0.08312186
1	0xbf419bf8	-0.75628614
2	0xb98acbcc	-0.00026473252
3	0xbc03f0d6	-0.008053025
4	0xbed93a3c	-0.42427242
5	0xbf48cf2e	-0.7844113
6	0x3f043c85	0.51654845
7	0xbeac6a1f	-0.33674714

time_embedding.3.weight f4 [4, 8]
0	0xbe131b3c	-0.14365858
1	0xbdbaef76	-0.09127705
2	0xbe4c91c2	-0.19977477
3	0x3e8d2a56	0.27571362
4	0xbead87e1	-0.3389273
5	0x3d020f24	0.03175272
6	0xbc4f1130	-0.012638375
7	0xbe04b299	-0.12958755
8	0x3ecc659e	0.39921278
9	0xbe5b3119	-0.21405448
10	0xbe76ef4e	-0.24114725
11	0x3e77eca4	0.24211365
12	0xbeb0e1e0	-0.3454733
13	0x3e4518be	0.1924772
14	0x3d18f47c	0.037342533
15	0x3ceff9c2	0.029293898
16	0x3d262573	0.040563058
17	0x3ddf2f0b	0.108976446
18	0xbe4427a2	-0.19155744
19	0x3d741da2	0.059598573
20	0x3e94d652	0.29069763
21	0x3e4d6fcc	0.20062178
22	0xbe86ab2d	-0.26302472
23	0x3dd3aa15	0.10335175
24	0x3dfcf017	0.12350481
25	0xbe147528	-0.14497817
26	0x3ea71e1b	0.32640156
27	0x3ddc0fb5	0.107451834
28	0xbe683209	-0.22675337
29	0xbc8790b6	-0.016548496
30	0xbda63059	-0.0811469
31	0xbe916005	-0.2839357

time_embedding.3.bias f4 [4]
0	0x3e9966e2	0.29961306
1	0x3ea25b3a	0.31710225
2	0x3e053295	0.13007577
3	0x3e4325f6	0.1905745

layers.0.egnn.edge_mlp.0.weight f4 [20, 10]
0	0xbcd4dc6d	-0.025984013
1	0xbce39465	-0.027780721
2	0xbcc095ff	-0.023509024
3	0xbce31d47	-0.027723921
4	0xbcde6025	-0.027145455
5	0xbce58897	-0.028019233
6	0xbcb88eb3	-0.022528982
7	0xbce41b79	-0.027845131
8	0xbcd73b73	-0.026273465
9	0xbcedc217	-0.029023213
10	0x3ceb1eed	0.02870127
11	0x3cf0f111	0.029411824
12	0x3cca0e9b	0.024665168
13	0x3cfc2ccb	0.030783078
14	0x3cf419e4	0.029797502
15	0x3cf0a5d0	0.02937594
16	0x3ccca0ec	0.024979077
17	0x3cf31b08	0.029675975
18	0x3cdd2b76	0.026998263
19	0x3d04369c	0.032278642
20	0x3cd6e6a5	0.026233027
21	0x3cede109	0.02903797
22	0x3cccf779	0.025020348
23	0x3ce46827	0.027881695
24	0x3cddfc30	0.027097791
25	0x3cebfd33	0.028807258
26	0x3cca2e7b	0.024680367
27	0x3cdea174	0.027176596
28	0x3ce7f558	0.028315231
29	0x3cec6163	0.028855031
30	0xbce7dfbb	-0.028304925
31	0xbcf35cbe	-0.029707309
32	0xbcc5b9d6	-0.024136465
33	0xbcfab8af	-0.030605642
34	0xbce10a2b	-0.027470669
35	0xbcebb7f4	-0.02877424
36	0xbcd45355	-0.025918642
37	0xbd000410	-0.031253874
38	0xbce2ef35	-0.027701953
39	0xbcf6d96a	-0.030132968
40	0xbd0057be	-0.031333677
41	0xbcfa651e	-0.030565795
42	0xbcd22079	-0.02565025
43	0xbcf43f52	-0.02981535
44	0xbce8442d	-0.028352821
45	0xbcf5357d	-0.029932732
46	0xbcd639c7	-0.026150597
47	0xbcfb719f	-0.030693827
48	0xbcdbf006	-0.02684785
49	0xbce43dc6	-0.027861487
50	0x3cfa5180	0.03055644
51	0x3ce1ff8c	0.027587675
52	0x3cc10388	0.023561254
53	0x3cf440e2	0.029816095
54	0x3cec5738	0.028850183
55	0x3ceafea7	0.02868588
56	0x3ccaf3bf	0.02477443
57	0x3cfbdf4a	0.030746121
58	0x3cdad425	0.026712487
59	0x3cfa8427	0.030580593
60	0xbcebb9f5	-0.028775195
61	0xbcf1f302	-0.02953482
62	0xbcccb3c1	-0.024988057
63	0xbced0d78	-0.028937086
64	0xbcf804e4	-0.03027577
65	0xbcf3a4c4	-0.029741652
66	0xbcd28f95	-0.02570323
67	0xbce984f8	-0.028505787
68	0xbcdc271c	-0.026874118
69	0xbcfdb46a	-0.030969817
70	0xbcf6bb72	-0.030118678
71	0xbcee293c	-0.029072396
72	0xbcca4d14	-0.024694957
73	0xbcfed5ba	-0.031107772
74	0xbce684a5	-0.028139422
75	0xbcf518cf	-0.029919056
76	0xbcdbb2d8	-0.026818678
77	0xbcf160ed	-0.029465163
78	0xbce193de	-0.027536329
79	0xbce9e522	-0.028551642
80	0x3cf30708	0.029666439
81	0x3ce664ce	0.02812424
82	0x3cc36b33	0.023854828
83	0x3ce7b01e	0.028282221
84	0x3cdb3849	0.026760237
85	0x3cf0086d	0.029300893
86	0x3cc96808	0.024585739
87	0x3ce78340	0.028260827
88	0x3cd7acdc	0.026327543
89	0x3cf7d259	0.030251669
90	0x3ce4f684	0.027949579
91	0x3ced1907	0.028942598
92	0x3cc9fe0b	0.02465727
93	0x3ce8f535	0.028437236
94	0x3cedf49f	0.029047308
95	0x3cea078c	0.028568052
96	0x3cd2c445	0.025728354
97	0x3cf3217a	0.029679049
98	0x3cc7ca79	0.024388539
99	0x3cff197d	0.031140083
100	0xbce6ba54	-0.02816502
101	0xbcefd0dd	-0.029274398
102	0xbccc47ee	-0.024936642
103	0xbce78489	-0.02826144
104	0xbcede739	-0.02904092
105	0xbce68b73	-0.028142666
106	0xbcd6ef71	-0.026237221
107	0xbd01379d	-0.031547178
108	0xbce5a1c2	-0.028031234
109	0xbcfeabb5	-0.031087736
110	0x3ce52a52	0.027974281
111	0x3cf2fc73	0.029661393
112	0x3cb4381e	0.021999415
113	0x3ce859a6	0.02836306
114	0x3cf7ca11	0.03024772
115	0x3cea6c1d	0.028616006
116	0x3cdd49df	0.027012764
117	0x3cf0b47c	0.029382937
118	0x3ce028b8	0.027363166
119	0x3cfd793c	0.030941598
120	0x3cdcf92e	0.026974287
121	0x3ce995d7	0.028513832
122	0x3cc11b00	0.023572445
123	0x3cf8f4f2	0.030390237
124	0x3ce6d803	0.028179174
125	0x3ce85d3a	0.028364766
126	0x3cc8e039	0.02452098
127	0x3cefce28	0.029273108
128	0x3ce16350	0.027513176
129	0x3cf4fa32	0.029904459
130	0xbcf0ff6f	-0.029418675
131	0xbcea4c84	-0.028600939
132	0xbcc550c0	-0.024086356
133	0xbced1938	-0.02894269
134	0xbce68863	-0.028141206
135	0xbcedee17	-0.029044194
136	0xbcc7478c	-0.024326108
137	0xbcd523a6	-0.026017975
138	0xbcdc9c37	-0.026929958
139	0xbcf16132	-0.029465292
140	0x3cd8e602	0.026476864
141	0x3cee3f70	0.029082984
142	0x3cc0caa9	0.023534136
143	0x3cdb7a82	0.026791815
144	0x3cec8c6e	0.028875556
145	0x3ce5526f	0.027993409
146	0x3ca8e879	0.020618664
147	0x3ce28676	0.027652007
148	0x3ccbd059	0.024879621
149	0x3ceed37e	0.029153582
150	0x3ce213c8	0.027597323
151	0x3ce94571	0.028475495
152	0x3cbe5d0a	0.023237724
153	0x3ce01ac6	0.027356517
154	0x3cde197b	0.02711176
155	0x3cf2f810	0.029659301
156	0x3cad413f	0.021149276
157	0x3ce82355	0.02833716
158	0x3cd893ab	0.026437601
159	0x3cf14a37	0.029454334
160	0xbce1b663	-0.02755279
161	0xbd0293b5	-0.031879146
162	0xbcc660d2	-0.02421609
163	0xbce57750	-0.028010994
164	0xbcf11450	-0.029428631
165	0xbcefd481	-0.029276134
166	0xbcc61ad6	-0.024182718
167	0xbcf8827b	-0.030335655
168	0xbcf0c8cc	-0.029392622
169	0xbd01356a	-0.03154508
170	0x3cec7705	0.028865347
171	0x3ce7d4b3	0.028299665
172	0x3cc115dc	0.023569994
173	0x3cf354cb	0.029703518
174	0x3cf1dfd4	0.029525675
175	0x3cf87e82	0.030333761
176	0x3ccdba2d	0.02511319
177	0x3cead9ba	0.028668273
178	0x3ce643a1	0.02810842
179	0x3cfcc4fc	0.030855648
180	0xbcee8c79	-0.029119717
181	0xbd0705a8	-0.03296438
182	0xbcce8578	-0.025210127
183	0xbcf62f3d	-0.030051822
184	0xbcef4713	-0.029208696
185	0xbcec80a6	-0.028869938
186	0xbcd04b24	-0.025426455
187	0xbcf42c81	-0.029806377
188	0xbcde24f9	-0.02711724
189	0xbd009ecc	-0.03140144
190	0xbce95c67	-0.028486444
191	0xbd04bf80	-0.03240919
192	0xbcc5a450	-0.024126202
193	0xbcf661f0	-0.030075997
194	0xbce07040	-0.027397275
195	0xbcecc2f9	-0.028901564
196	0xbcd2395a	-0.025662113
197	0xbcf37515	-0.029718915
198	0xbce39a92	-0.027783666
199	0xbcebf12b	-0.028801521

layers.0.egnn.edge_mlp.0.bias f4 [20]
0	0xbe27732f	-0.16352533
1	0x3e3319d2	0.17490318
2	0x3e9f6ecd	0.31139222
3	0xbe939ce5	-0.2883064
4	0xbe9be1cc	-0.30445707
5	0x3ddeccf3	0.10878935
6	0xbe91d859	-0.28485373
7	0xbea16676	-0.31523484
8	0x3e9f94ed	0.3116831
9	0x3eac76d7	0.33684418
10	0xbe4a7545	-0.19771297
11	0x3e888b3d	0.2666873
12	0x3d6db8ab	0.05803744
13	0xbe8fdab8	-0.28096557
14	0x3e3f56c4	0.18685442
15	0x3e90db15	0.28292146
16	0xbe8ce1df	-0.27516076
17	0x3e08b0ed	0.13348742
18	0xbdd48571	-0.103770144
19	0xbe65ca66	-0.2244049

layers.0.egnn.edge_mlp.3.weight f4 [16, 20]
0	0xbcf9d312	-0.030496154
1	0x3cd30582	0.025759462
2	0x3ce73aa2	0.0282262
3	0xbce573d6	-0.028009336
4	0xbcee1832	-0.029064272
5	0x3ce62b31	0.028096767
6	0xbcdda7dd	-0.027057583
7	0xbcec5915	-0.028851071
8	0x3cddbdae	0.027067985
9	0x3cf386ef	0.029727427
10	0xbcf55340	-0.029946923
11	0x3cec32ad	0.028832758
12	0x3cdffd87	0.027342571
13	0xbce42aac	-0.027852379
14	0x3cef2dba	0.029196609
15	0x3ce290d4	0.02765695
16	0xbcd831d4	-0.026390947
17	0x3ceb6448	0.028734341
18	0xbce83911	-0.028347524
19	0xbcee438b	-0.029084941
20	0xbce38cd5	-0.027777115
21	0x3ceba7c5	0.028766522
22	0x3ce076b9	0.027400361
23	0xbcd6e5f6	-0.0262327
24	0xbcdf71cb	-0.02727594
25	0x3cec9467	0.028879358
26	0xbce574ef	-0.02800986
27	0xbcedb496	-0.029016774
28	0x3cd8a540	0.026445985
29	0x3ce492dc	0.02790206
30	0xbcef4db0	-0.029211849
31	0x3ceefd07	0.029173387
32	0x3cf1e062	0.02952594
33	0xbcef0c64	-0.029180713
34	0x3ce16877	0.027515633
35	0x3cdcfc31	0.026975723
36	0xbceaf542	-0.028681401
37	0x3cf69424	0.030099936
38	0xbcea7c30	-0.02862367
39	0xbcea9bd4	-0.028638758
40	0xbce0376a	-0.027370173
41	0x3cf471e2	0.02983946
42	0x3ce961ce	0.02848902
43	0xbcef2f12	-0.02919725
44	0xbce9fdd5	-0.02856342
45	0x3ce198e1	0.027538719
46	0xbcdfa605	-0.027300844
47	0xbce4ed86	-0.027945291
48	0x3cd7f723	0.026362961
49	0x3cf1c76d	0.029514039
50	0xbce5d06e	-0.028053489
51	0x3ce5c638	0.02804862
52	0x3ceeeeb6	0.02916656
53	0xbcddba39	-0.027066337
54	0x3cecc8c0	0.028904319
55	0x3cdc6d2e	0.02690753
56	0xbce28ba2	-0.027654473
57	0x3cf3f9ee	0.029782262
58	0xbcef6a9d	-0.029225642
59	0xbcfa9b96	-0.030591767
60	0xbceca85a	-0.02888887
61	0x3cf22f37	0.02956353
62	0x3ce29766	0.027660083
63	0xbcebc826	-0.028781962
64	0xbcf700c5	-0.030151734
65	0x3ce81e2d	0.028334701
66	0xbcdf3484	-0.027246721
67	0xbce021b5	-0.027359823
68	0x3cd5f4e7	0.026117755
69	0x3ce2be26	0.02767856
70	0xbce3e7cb	-0.027820488
71	0x3ce67861	0.028133573
72	0x3cee9922	0.029125754
73	0xbcecd448	-0.028909817
74	0x3cf0ea2b	0.029408535
75	0x3ceb617c	0.028733008
76	0xbced8a8a	-0.028996725
77	0x3ce9d8c9	0.028545754
78	0xbcf17449	-0.029474394
79	0xbced7e11	-0.028990777
80	0x3ccc683f	0.024952052
81	0xbce2ceed	-0.02768656
82	0xbcdcfd12	-0.026976142
83	0x3cca7443	0.024713641
84	0x3cde390b	0.02712681
85	0xbd025848	-0.031822473
86	0x3cec2a82	0.028828863
87	0x3ce2a52e	0.027666654
88	0xbce57d2b	-0.028013786
89	0xbce1e79f	-0.027576266
90	0x3ce77914	0.028255977
91	0xbcf70dde	-0.03015798
92	0xbcf2491c	-0.029575877
93	0x3cdcb466	0.02694149
94	0xbce6186e	-0.02808782
95	0xbcdf59ea	-0.027264554
96	0x3ced8094	0.028991975
97	0xbcdcd4fa	-0.026957024
98	0x3ce6af21	0.02815968
99	0x3cea9a72	0.028638098
100	0xbcdb2b3b	-0.026754012
101	0x3ce4dc37	0.027937038
102	0x3cd125ed	0.02553078
103	0xbcddba04	-0.027066238
104	0xbcdf5809	-0.027263658
105	0x3ce440a9	0.027862864
106	0xbcd9c0c9	-0.026581185
107	0xbce57847	-0.028011454
108	0x3ce4a758	0.027911827
109	0x3ce39ecd	0.027785683
110	0xbced2238	-0.02894698
111	0x3ce4f79e	0.027950104
112	0x3cd7c5ef	0.0263395
113	0xbcea155e	-0.028574642
114	0x3cd9f57d	0.026606316
115	0x3cea902d	0.028633201
116	0xbce15ca0	-0.027509987
117	0x3ce27d7a	0.027647723
118	0xbce6d904	-0.028179653
119	0xbcd9b319	-0.026574658
120	0xbced3f40	-0.028960824
121	0x3ce4b45c	0.027918033
122	0x3cdf7977	0.027279599
123	0xbcf3e2e2	-0.029771272
124	0xbce7d70e	-0.028300788
125	0x3ce5525b	0.027993372
126	0xbcece08f	-0.028915672
127	0xbcebf223	-0.028801983
128	0x3cdb5a89	0.026776569
129	0x3cedcb00	0.029027462
130	0xbce30c36	-0.027715784
131	0x3cea5a52	0.028607521
132	0x3ce6a2a4	0.028153725
133	0xbcdf9127	-0.027290894
134	0x3cdc5eab	0.02690061
135	0x3cdd40b9	0.027008401
136	0xbce4aae1	-0.027913513
137	0x3ce6dc68	0.02818127
138	0xbcec8e28	-0.02887638
139	0xbcdfab3a	-0.027303327
140	0x3cd03128	0.025414065
141	0xbce06db5	-0.027396062
142	0xbcdc97e0	-0.026927888
143	0x3ccf0c99	0.025274562
144	0x3cde94b5	0.027170518
145	0xbce0b2d0	-0.027429014
146	0x3cd45ac1	0.025922181
147	0x3cd779b6	0.026303153
148	0xbcdcb4bb	-0.026941648
149	0xbcd00e21	-0.025397362
150	0x3cd64507	0.026155962
151	0xbccc67dd	-0.02495187
152	0xbceb75e5	-0.02874274
153	0x3ce07d6a	0.027403552
154	0xbce28763	-0.027652448
155	0xbcc9fbfc	-0.024656288
156	0x3ccfada6	0.025351357
157	0xbce1daf1	-0.02757022
158	0x3cdada77	0.0267155
159	0x3cdb38b7	0.026760442
160	0x3ce0f817	0.027462048
161	0xbceb440e	-0.028718974
162	0xbce471b6	-0.027886253
163	0x3ce08688	0.0274079
164	0x3ce20926	0.027592253
165	0xbce20aaa	-0.027592976
166	0x3ce9a692	0.02852181
167	0x3ce4b2a9	0.027917223
168	0xbce84ff4	-0.028358437
169	0xbcdb6ffe	-0.0267868
170	0x3cedfad3	0.029050266
171	0xbcda1811	-0.026622804
172	0xbce210ba	-0.027595866
173	0x3ce3a2c3	0.027787572
174	0xbcd9e8e7	-0.026600314
175	0xbce1008d	-0.027466083
176	0x3ce0d052	0.027443085
177	0xbcde11ec	-0.027108155
178	0x3ce1d1d7	0.02756588
179	0x3cf17b61	0.029477777
180	0xbcdf5c5b	-0.027265718
181	0x3cdee56e	0.02720901
182	0x3cdd223d	0.026993865
183	0xbcde694d	-0.02714982
184	0xbcdab39e	-0.026696976
185	0x3ce1c835	0.027561286
186	0xbcdca45f	-0.026933847
187	0xbce1183e	-0.02747738
188	0x3cf0c7b6	0.029392105
189	0x3ce083b4	0.027406551
190	0xbcdaf7a7	-0.026729418
191	0x3cd6fafb	0.026242724
192	0x3ce62581	0.028094055
193	0xbce8b2f4	-0.028405644
194	0x3ce342db	0.02774184
195	0x3ce63062	0.028099243
196	0xbce67b9b	-0.028135112
197	0x3ce2560a	0.027628917
198	0xbcdb2a37	-0.026753528
199	0xbce62259	-0.02809255
200	0xbcdf71a5	-0.02727587
201	0x3cd5764b	0.026057383
202	0x3ce5dcef	0.02805945
203	0xbce6b6b6	-0.028163295
204	0xbce4b4d1	-0.027918251
205	0x3cd86857	0.02641694
206	0xbce92507	-0.028460039
207	0xbce8687d	-0.028370136
208	0x3ce43afa	0.027860153
209	0x3cef951f	0.029245911
210	0xbce468e2	-0.027882043
211	0x3cdb9631	0.026805015
212	0x3ce0d155	0.027443567
213	0xbcd12fff	-0.025535582
214	0x3cd283ae	0.025697555
215	0x3ceb6386	0.02873398
216	0xbcda84ec	-0.02667471
217	0x3cd2791b	0.025692513
218	0xbce74fb1	-0.028236242
219	0xbcdc227d	-0.026871914
220	0xbcde2a8c	-0.027119897
221	0x3ce427ed	0.02785107
222	0x3cf07362	0.029351894
223	0xbce7da21	-0.028302254
224	0xbce1bddd	-0.027556354
225	0x3ce16bf1	0.02751729
226	0xbcd437f5	-0.025905589
227	0xbcdfa8a7	-0.0273021
228	0x3cde7e52	0.027159844
229	0x3cd3293a	0.025776494
230	0xbce3e1ed	-0.02781769
231	0x3cd98540	0.026552796
232	0x3cf3d685	0.029765377
233	0xbce12447	-0.027483119
234	0x3cd4188a	0.025890607
235	0x3ce555aa	0.02799495
236	0xbceb34e4	-0.028711744
237	0x3cf2cc7f	0.029638527
238	0xbcec12c7	-0.028817547
239	0xbcd9508e	-0.02652767
240	0xbcdbf8df	-0.02685207
241	0x3cf1874d	0.029483462
242	0x3cd5c2c2	0.026093844
243	0xbce7ecd2	-0.028311167
244	0xbce11fb3	-0.027480936
245	0x3ce8a861	0.028400602
246	0xbcf05c55	-0.029340902
247	0xbced7691	-0.0289872
248	0x3cf60e38	0.030036077
249	0x3cdccbc4	0.026952632
250	0xbcdcc816	-0.026950877
251	0x3cdbddb9	0.026839124
252	0x3ce9bd0c	0.028532527
253	0xbcdbe309	-0.026841657
254	0x3ce1e375	0.02757428
255	0x3cd0d6f5	0.025493124

layers.0.egnn.edge_mlp.3.bias f4 [16]
0	0x3e4aac0f	0.19792198
1	0x3e2ebac2	0.1706343
2	0x3d9a31f7	0.07529061
3	0x3dd72f97	0.10507124
4	0xbdcc6a3e	-0.099812016
5	0x3e69b6b5	0.22823603
6	0x3e45e87a	0.19326964
7	0xbe40c217	-0.1882404
8	0xbd97acd1	-0.07406009
9	0x3de739bf	0.11290311
10	0x3da623b9	0.08112282
11	0x3e39105e	0.1807265
12	0x3d275e5e	0.04086148
13	0x3e3d2786	0.18472108
14	0x3e56165e	0.2090697
15	0x3e20df29	0.15710129

layers.0.egnn.node_mlp.0.weight f4 [8, 20]
0	0xba2b0cc2	-0.00065250334
1	0x3b075ae4	0.002065354
2	0xb9309431	-0.00016839874
3	0x3a574bc4	0.0008212889
4	0xb9e3cfd8	-0.0004345167
5	0xba88cf1c	-0.00104377
6	0x38a9eace	8.102284e-05
7	0x3a73f69e	0.0009306463
8	0xbac55768	-0.0015055956
9	0x3a015b6b	0.0004934582
10	0x3a325146	0.0006802272
11	0x3981d33f	0.00024762188
12	0x3ace43be	0.0015736741
13	0xba4eed45	-0.0007893632
14	0x3a51b607	0.00079998415
15	0x3afe666d	0.0019409187
16	0x39d64793	0.00040870588
17	0x3afc46c5	0.0019247165
18	0xba698c04	-0.00089091086
19	0xba8c78fc	-0.0010717208
20	0xb9c09183	-0.00036729508
21	0x3ab624b6	0.0013896439
22	0xb81a5df4	-3.6803962e-05
23	0xb97273f5	-0.00023122116
24	0x3a3aa91d	0.0007120537
25	0x38a80865	8.012428e-05
26	0x3a9d2e70	0.0011991989
27	0xb9a8ca0c	-0.00032193994
28	0x3a74c7bb	0.00093376235
29	0x3ab13376	0.0013519365
30	0xbac5d929	-0.0015094626
31	0xb859f93c	-5.196895e-05
32	0xb999aac5	-0.00029309667
33	0xba06e1e8	-0.0005145357
34	0x39b97a26	0.00035376957
35	0xb95880ff	-0.0002064742
36	0xba01a446	-0.0004945438
37	0xbab72690	-0.0013973285
38	0xb9eeb8f4	-0.00045532698
39	0xba1f7966	-0.00060834584
40	0xba895a7f	-0.001047924
41	0x3a454c62	0.00075263355
42	0x3b05fb4c	0.0020443974
43	0xb9dc12d2	-0.00041975692
44	0x3b39736d	0.002829756
45	0x3ae237fb	0.0017259115
46	0xba5e4a75	-0.0008479723
47	0xba5b8b16	-0.00083749124
48	0x3ad27ab4	0.0016058297
49	0xbb30eabf	-0.0026995388
50	0x3928908f	0.00016075581
51	0xbb03bb95	-0.0020100821
52	0x38bde957	9.055685e-05
53	0xba84f328	-0.0010143267
54	0xb9d44c63	-0.00040492704
55	0x3af5a485	0.0018741047
56	0xb963c3e7	-0.00021721386
57	0x3b1ad543	0.002362565
58	0x3a4c1330	0.00077848416
59	0x39a66bca	0.00031742296
60	0x3acaa92b	0.0015461793
61	0xbaa2046f	-0.001236094
62	0xba310571	-0.0006752825
63	0x3a004a91	0.0004893924
64	0x39b31ede	0.00034164538
65	0xba4ba8a9	-0.0007768968
66	0x3a098cd6	0.00052471214
67	0xbacbb08c	-0.0015540286
68	0x3a6fd7c1	0.00091492763
69	0xba198c8b	-0.00058574294
70	0xbadbe33c	-0.0016776095
71	0xb7333ae2	-1.0682941e-05
72	0xbb21cb53	-0.002468784
73	0xbac8f4a8	-0.0015331702
74	0x3a0164c9	0.00049359776
75	0x36c7c1ea	5.9532367e-06
76	0x39f6e7f9	0.0004709361
77	0x38cf4c0f	9.884696e-05
78	0x39f751ea	0.00047172542
79	0x3a0dbd4f	0.00054069323
80	0xba3057e6	-0.0006726965
81	0xb86ed0b2	-5.6937984e-05
82	0x3adc8c12	0.0016826412
83	0xba7f62c3	-0.00097421947
84	0x3a26ddc7	0.0006365445
85	0xbabde77c	-0.0014488543
86	0xb97c18a5	-0.00024041774
87	0x3b10510b	0.0022020962
88	0x39899b08	0.00026246184
89	0xbac46a3e	-0.0014985276
90	0x39a2e265	0.00031067725
91	0x3ab51a5e	0.0013817062
92	0xba38233e	-0.00070242945
93	0x3b0768e1	0.0020661878
94	0xbae913c7	-0.0017782383
95	0x38ea1cea	0.00011163375
96	0xbab6d533	-0.0013949036
97	0xba2ab99d	-0.0006512644
98	0xbb03ffff	-0.00201416
99	0x3a4a915b	0.0007727348
100	0xba2e6da5	-0.00066539116
101	0x3ab43263	0.0013747927
102	0xb96a2c90	-0.0002233258
103	0x3742c33c	1.1608758e-05
104	0x39f5da12	0.00046892517
105	0xba3631b4	-0.00069501554
106	0x39eabb35	0.00044771438
107	0x3a1c8b91	0.0005971725
108	0x3a6d37c8	0.00090491446
109	0xb9e7fd56	-0.00044248503
110	0x3964fc20	0.00021837698
111	0xba029eeb	-0.0004982787
112	0xba37217b	-0.0006985885
113	0x39887726	0.00026028714
114	0x3ab26479	0.0013610265
115	0xba9f07e8	-0.0012133094
116	0xba7da03c	-0.0009675061
117	0xb9de3f63	-0.00042390366
118	0xba95ffa3	-0.0011443984
119	0x3984deee	0.00025343098
120	0xbb1a6011	-0.0023555795
121	0x399fe951	0.00030500678
122	0xbab03f77	-0.0013446648
123	0x3a2b1943	0.00065268966
124	0xb9885d26	-0.00026009342
125	0x3ab210a8	0.0013585286
126	0x39ee2131	0.00045419627
127	0x3ad6499f	0.0016348845
128	0x3aa3cc54	0.0012496808
129	0xb8105d37	-3.441909e-05
130	0xba8686d4	-0.0010263571
131	0xb9cfb290	-0.00039615156
132	0xb99af98b	-0.00029559093
133	0x3b08e536	0.0020888573
134	0x3a035cbc	0.0005011072
135	0x3ac72674	0.0015193955
136	0xb9938e1a	-0.000281439
137	0x39b472e6	0.0003441788
138	0x39670b61	0.00022034116
139	0xbac250c2	-0.0014825093
140	0xbb1328c6	-0.0022454723
141	0x3a6ee543	0.0009113142
142	0xb94b8ec6	-0.00019412776
143	0x39a5318c	0.00031508168
144	0xba3f7896	-0.00073040405
145	0xba17ee4a	-0.00057957007
146	0xba77596a	-0.0009435626
147	0xb79c3525	-1.8621397e-05
148	0x3a4a4f58	0.00077175116
149	0xbacb1c08	-0.0015496025
150	0xba030e22	-0.00049993594
151	0xba2631e1	-0.000633983
152	0x3a990b11	0.0011676272
153	0x39378e79	0.00017505315
154	0x3a16f86e	0.0005759065
155	0x3a6b50fd	0.0008976607
156	0xba151b4e	-0.00056879676
157	0x3adc3b3c	0.0016802321
158	0x38d78e05	0.00010278452
159	0xba011e1f	-0.0004925448

layers.0.egnn.node_mlp.0.bias f4 [8]
0	0x3e1466a6	0.14492282
1	0xbdabedaf	-0.08394944
2	0x3e5b9cf4	0.21446592
3	0x3cda6f16	0.026664298
4	0xbd87ee8e	-0.066372976
5	0x3ddb36eb	0.10703834
6	0xbe25e3d2	-0.16200188
7	0x3ddf7f43	0.10912945

layers.0.egnn.node_mlp.3.weight f4 [4, 8]
0	0x39cccd40	0.00039062835
1	0xba49159f	-0.00076707633
2	0xb837f108	-4.3855078e-05
3	0xb9ea3864	-0.00044673972
4	0xb9d8ad87	-0.00041328018
5	0xb87a94e2	-5.9743303e-05
6	0x3a2f950b	0.00066979293
7	0xb76b2f0a	-1.4018044e-05
8	0x3a20822e	0.0006122914
9	0xb8c2ce13	-9.289025e-05
10	0x39a06dbe	0.00030599342
11	0x3a04c7ca	0.0005065171
12	0x3acdffe9	0.0015716526
13	0xbab51637	-0.0013815825
14	0x3a5e6f2c	0.0008485194
15	0xba52f2bd	-0.0008047035
16	0x3a6d9838	0.0009063515
17	0xba01170c	-0.0004924394
18	0xb9da9975	-0.00041694535
19	0xba7a862a	-0.0009556735
20	0x39073705	0.000128951
21	0xba64a68c	-0.0008722327
22	0x39bc282b	0.00035888082
23	0xb896d237	-7.191713e-05
24	0x39e8b663	0.00044386377
25	0xba7f62f9	-0.0009742226
26	0x3a6f5aaa	0.00091306365
27	0x391cc9cf	0.00014952499
28	0xba3db5f8	-0.0007236893
29	0xba98dcc5	-0.0011662474
30	0xba1ecf60	-0.0006058123
31	0x39e2817d	0.00043202555

layers.0.egnn.node_mlp.3.bias f4 [4]
0	0xbe6a48f3	-0.2287939
1	0x3d179f85	0.037017364
2	0x3e588104	0.21142966
3	0xbe88dc9e	-0.26730818

layers.0.egnn.coors_mlp.0.weight f4 [64, 16]
0	0x3cbf01ee	0.02331635
1	0x3cbbcf74	0.02292607
2	0x3cbfe727	0.023425652
3	0x3cc2a6ee	0.023761239
4	0xbcc2e486	-0.02379061
5	0x3cc6f561	0.024286928
6	0x3cbc825c	0.023011379
7	0xbcbbd273	-0.022927498
8	0xbcc6b9e4	-0.024258561
9	0x3cba5b73	0.022748685
10	0x3cc94e17	0.024573369
11	0x3cb02a1c	0.021504454
12	0x3cc48649	0.023989813
13	0x3cb95c2b	0.022626957
14	0x3cba9384	0.022775419
15	0x3cc28c8e	0.023748662
16	0x3ca5c1eb	0.020234069
17	0x3ca9f745	0.02074779
18	0x3cc0a092	0.023514066
19	0x3cb66438	0.022264585
20	0xbcb464f6	-0.022020798
21	0x3cbfde20	0.023421347
22	0x3cb9a373	0.022660946
23	0xbcaf0679	-0.021365391
24	0xbcc936bb	-0.02456223
25	0x3cb52c09	0.022115724
26	0x3cb70a09	0.022343652
27	0x3cb34be8	0.02188678
28	0x3cdaa731	0.026691051
29	0x3cab2c75	0.020895222
30	0x3ca84c54	0.020544209
31	0x3cb6cde5	0.022314975
32	0x3cc65757	0.024211569
33	0x3cba5a05	0.022748003
34	0x3cd06974	0.025440909
35	0x3cc3c6a4	0.02389843
36	0xbccaa7c1	-0.024738194
37	0x3cc2d589	0.023783462
38	0x3cc7604f	0.024337916
39	0xbcb9dee0	-0.022689283
40	0xbccd2993	-0.025044238
41	0x3cce4f59	0.02518432
42	0x3cd96f7d	0.02654242
43	0x3cc2d4f5	0.023783186
44	0x3cdfe157	0.02732913
45	0x3cbd6a1c	0.023121886
46	0x3cbb2660	0.022845447
47	0x3cca0afb	0.024663439
48	0x3ca82ee4	0.020530172
49	0x3cb7d5bc	0.022440784
50	0x3ccdb2bf	0.025109647
51	0x3cccce26	0.025000643
52	0xbcd61ff1	-0.026138278
53	0x3caf6d8c	0.02141454
54	0x3cb7d86c	0.022442065
55	0xbcb63fe4	-0.022247262
56	0xbccfdb55	-0.02537314
57	0x3cc24901	0.023716452
58	0x3ccaab7d	0.024739975
59	0x3cc46cc6	0.023977648
60	0x3ccc6c7b	0.024954071
61	0x3cb34591	0.021883758
62	0x3cb622dc	0.02223342
63	0x3cbe7d2e	0.02325305
64	0xbcbfcc4e	-0.02341285
65	0xbcc6b3a6	-0.024255585
66	0xbccd20b5	-0.02504001
67	0xbcc3d450	-0.02390495
68	0x3cc33644	0.023829587
69	0xbca8f06e	-0.020622458
70	0xbcb8c319	-0.022553967
71	0x3cbd0a3a	0.023076165
72	0x3cc785b6	0.02435575
73	0xbcc47e7c	-0.023986094
74	0xbcbdf256	-0.023186844
75	0xbcc58aa9	-0.02411397
76	0xbce37dd0	-0.027769953
77	0xbcbd0583	-0.023073917
78	0xbcbb0142	-0.022827748
79	0xbcbc43e3	-0.02298159
80	0x3cd296e1	0.02570671
81	0x3cc9e838	0.024646863
82	0x3cd3b715	0.025844136
83	0x3cdcebf2	0.026967976
84	0xbcd0bc61	-0.025480451
85	0x3cc8e888	0.024524942
86	0x3cc5e0e2	0.024155084
87	0xbcc4ed59	-0.024038957
88	0xbcd30e24	-0.025763579
89	0x3cc53a06	0.02407552
90	0x3cd98ef6	0.026557427
91	0x3ccf763b	0.025324931
92	0x3ce95d45	0.028486857
93	0x3cc5573a	0.024089444
94	0x3cbd2f92	0.023093972
95	0x3cc5d7f0	0.024150819
96	0x3cc6430c	0.024201892
97	0x3ccc75e4	0.024958558
98	0x3cd47cdc	0.025938444
99	0x3cd9d734	0.026591875
100	0xbccb07b3	-0.024783945
101	0x3cc0fe74	0.023558833
102	0x3ccd7d09	0.025084035
103	0xbcc82bae	-0.02443489
104	0xbcd7cf7e	-0.026344057
105	0x3cd13d13	0.025541818
106	0x3cbe0d5c	0.02319973
107	0x3cc50596	0.024050515
108	0x3ce62d3f	0.028097747
109	0x3cbd2e01	0.023093225
110	0x3cb51717	0.022105737
111	0x3ccf7f34	0.02532921
112	0x3cbe32f8	0.023217663
113	0x3cbc8885	0.023014316
114	0x3cdb55a7	0.02677424
115	0x3cb9bc94	0.022672929
116	0xbcd4e7b0	-0.025989383
117	0x3cc0e0d9	0.023544716
118	0x3cc86057	0.02446
119	0xbcaf77b2	-0.02141938
120	0xbcc570d9	-0.024101662
121	0x3cc2fa1e	0.023800906
122	0x3cc8441b	0.024446538
123	0x3cc34700	0.023837566
124	0x3ce4f2bf	0.027947782
125	0x3cbedb17	0.02329783
126	0x3cb37c91	0.021909984
127	0x3cbab5fa	0.022791851
128	0xbcb736d0	-0.022365004
129	0xbc9e6493	-0.019335067
130	0xbcbf7ed3	-0.023375904
131	0xbcb81fca	-0.022476096
132	0x3cb22f29	0.021751003
133	0xbcb0bd06	-0.021574508
134	0xbca387a3	-0.019962138
135	0x3cb5ed0a	0.022207756
136	0x3cb5d7e0	0.022197664
137	0xbcba92a7	-0.022775007
138	0xbcbf8e75	-0.023383358
139	0xbcab961f	-0.020945607
140	0xbccc3906	-0.024929535
141	0xbca933ee	-0.020654645
142	0xbca8336b	-0.02053233
143	0xbca2b576	-0.019861918
144	0x3cbe853e	0.023256894
145	0x3ccf1a9f	0.025281249
146	0x3cd24813	0.025669133
147	0x3cc431c3	0.02394951
148	0xbcd46312	-0.025926147
149	0x3cbd4e2a	0.02310856
150	0x3cb30e4d	0.021857405
151	0xbcbcae0c	-0.02303221
152	0xbcbb1117	-0.022835298
153	0x3cc6467a	0.024203528
154	0x3cd26e67	0.02568741
155	0x3ccd88b9	0.025089609
156	0x3cde9e99	0.027175235
157	0x3cc055c8	0.023478404
158	0x3cc9f52b	0.024653038
159	0x3cc2d610	0.023783714
160	0xbcb6479d	-0.022250945
161	0xbcb439b6	-0.022000175
162	0xbcb83144	-0.02248443
163	0xbcb8eab7	-0.022572858
164	0x3cc1c788	0.023654714
165	0xbcb47b37	-0.02203141
166	0xbcbabfff	-0.022796629
167	0x3cb2f433	0.021844959
168	0x3cc35846	0.023845803
169	0xbcbf40a8	-0.02334626
170	0xbcc5a25f	-0.024125276
171	0xbcc0b80a	-0.023525257
172	0xbcc8bfa0	-0.024505436
173	0xbcc9bb61	-0.024625482
174	0xbcbe3a84	-0.023221262
175	0xbcb90b58	-0.022588417
176	0x3cbd9e43	0.023146754
177	0x3cd1f4c7	0.025629414
178	0x3cd3d4ca	0.025858302
179	0x3cc76fb5	0.024345258
180	0xbcc557df	-0.024089752
181	0x3cae7502	0.021296028
182	0x3cc4f342	0.024041776
183	0xbcbe530b	-0.023232957
184	0xbcc56e29	-0.02410038
185	0x3cc7901b	0.024360707
186	0x3cca166d	0.024668897
187	0x3cc38282	0.023865942
188	0x3ce5c8bb	0.028049817
189	0x3cceadd1	0.025229366
190	0x3cb51d3f	0.022108672
191	0x3cb4b4b5	0.022058824
192	0x3cba466c	0.022738658
193	0x3cbf7c2d	0.023374641
194	0x3cc86fab	0.02446731
195	0x3ccee46b	0.025255403
196	0xbccb21f2	-0.02479646
197	0x3cb68d3b	0.02228414
198	0x3cc0c668	0.023532107
199	0xbcb58ea9	-0.022162752
200	0xbccd21e2	-0.02504057
201	0x3cbf7b33	0.023374176
202	0x3cc560d2	0.02409402
203	0x3cb39445	0.021921286
204	0x3cd9d181	0.026589157
205	0x3cb197df	0.021678863
206	0x3ccad530	0.024759859
207	0x3cbd3fa4	0.023101635
208	0xbca7841e	-0.02044874
209	0xbcb4db44	-0.02207721
210	0xbccd6a1f	-0.025075017
211	0xbcce0ebc	-0.02515351
212	0x3cc46565	0.02397413
213	0xbcc29b3a	-0.023755658
214	0xbcb2cd45	-0.021826396
215	0x3cbaad8a	0.022787828
216	0x3cb6e94b	0.02232804
217	0xbcb7664b	-0.022387644
218	0xbcb7ca17	-0.022435231
219	0xbcaf4d94	-0.021399297
220	0xbcc8c1a5	-0.0245064
221	0xbcb0959b	-0.021555712
222	0xbcb3b4a3	-0.02193672
223	0xbcb51094	-0.022102632
224	0x3cbe7a66	0.023251723
225	0x3cb5ba5e	0.022183593
226	0x3cc00449	0.023439543
227	0x3cbe4c03	0.023229605
228	0xbcb5fbfd	-0.022214884
229	0x3caede33	0.021346187
230	0x3cc35e76	0.023848753
231	0xbcbd5f1c	-0.02311664
232	0xbcc4bcba	-0.024015773
233	0x3cccd258	0.025002643
234	0x3cccef86	0.025016557
235	0x3cb1c603	0.021700865
236	0x3cd94ebc	0.026526801
237	0x3caeb9f4	0.021328904
238	0x3cb196df	0.021678386
239	0x3cb042de	0.02151626
240	0x3cb33567	0.02187605
241	0x3cb9c90a	0.02267887
242	0x3cb5a14d	0.02217164
243	0x3cbe2128	0.02320917
244	0xbcb21669	-0.021739202
245	0x3cb41564	0.021982856
246	0x3cb31a84	0.02186323
247	0xbca8e0ca	-0.020615
248	0xbcb4fe39	-0.022093879
249	0x3cc19937	0.023632629
250	0x3cc060e3	0.0234837
251	0x3cb24920	0.021763384
252	0x3cd21d25	0.025648663
253	0x3cbf05e6	0.023318242
254	0x3cb365d0	0.021899134
255	0x3cb80308	0.022462383

layers.0.egnn.coors_mlp.0.bias f4 [64]
0	0x3dae0a0d	0.08498011
1	0x3d2faf89	0.042892013
2	0x3d57886d	0.05262034
3	0x3e34fba6	0.17674121
4	0xbe01578b	-0.12631051
5	0x3d1e7f52	0.03869564
6	0x3e2aca7e	0.16678807
7	0x3e81ecb7	0.25375912
8	0xbdc010d1	-0.093782075
9	0x3de4c7f7	0.11170953
10	0xbe46d605	-0.1941758
11	0x3d5c8184	0.053834453
12	0x3e2647e4	0.16238362
13	0xbe22477b	-0.1584758
14	0x3d93c631	0.072155364
15	0x3e848989	0.2588618
16	0xbe4bafd3	-0.1989129
17	0x3ddfa4ba	0.10920091
18	0x3e6de798	0.23232877
19	0x3ce469ec	0.027882539
20	0x3de93979	0.11387915
21	0xbe1216a7	-0.14266454
22	0x3e7a6054	0.24450809
23	0xbdede47b	-0.11615845
24	0x3d703c7e	0.05865144
25	0x3dba3e46	0.09093909
26	0x3e1a1c17	0.15049778
27	0x3d8fbd9f	0.07018589
28	0x3cfd7524	0.030939646
29	0xbe590a8d	-0.21195431
30	0x3e570603	0.20998387
31	0x3e5f0903	0.21780781
32	0xbdfa723c	-0.1222882
33	0xbdecb898	-0.11558646
34	0x3e614a11	0.2200091
35	0xbe121856	-0.14267096
36	0x3e6fc5d5	0.2341531
37	0xbdaf3c3d	-0.085564114
38	0x3d3c432b	0.045962494
39	0xbe84fe9c	-0.25975502
40	0x3e0d6233	0.13806991
41	0xbdd5938a	-0.104285315
42	0x3d4e685e	0.0503925
43	0xbe52564a	-0.20540729
44	0x3dfb41c7	0.122684054
45	0xbd8cc230	-0.06872976
46	0x3e85aa77	0.26106617
47	0x3e4c8326	0.19971904
48	0xbe69f212	-0.22846249
49	0xbe3b1ca0	-0.18272638
50	0x3d66c3ce	0.056339078
51	0xbe843f58	-0.25829577
52	0x3e1b0422	0.15138295
53	0xbe577e62	-0.21044305
54	0xbd9f155a	-0.07767744
55	0xbdcc238a	-0.09967716
56	0xbe839362	-0.25698382
57	0xbd1a9549	-0.037740026
58	0xbdcfc967	-0.10145836
59	0x3e58f02b	0.21185367
60	0xbdeb1804	-0.1147919
61	0x3e369c98	0.17833173
62	0xbd6b6e19	-0.057478044
63	0x3dfd9606	0.1238213

layers.0.egnn.coors_mlp.3.weight f4 [1, 64]
0	0xbc869cc1	-0.016432168
1	0xbc968a9b	-0.01837664
2	0xbc99d95e	-0.018780407
3	0xbc85de34	-0.016341306
4	0x3c843e7c	0.016143076
5	0xbca3224f	-0.01991382
6	0xbc7d9f87	-0.015479929
7	0xbc85f9e2	-0.016354505
8	0x3c77ee5d	0.015132514
9	0xbc8462c7	-0.016160382
10	0x3c82a63c	0.015948407
11	0xbc9b6fc1	-0.018974187
12	0xbc829dbc	-0.015944354
13	0x3c7774af	0.015103503
14	0xbc866fd3	-0.016410744
15	0xbc6cbd19	-0.014449381
16	0x3c87b93c	0.016567819
17	0xbc8b288b	-0.016987106
18	0xbc68ce59	-0.014209353
19	0xbcb0edc8	-0.021597758
20	0xbc8b2836	-0.016986948
21	0x3c69436c	0.014237266
22	0xbc69983b	-0.014257486
23	0x3c8719bb	0.016491761
24	0xbc9510be	-0.01819646
25	0xbc78e6fc	-0.01519179
26	0xbc8c12e4	-0.017098852
27	0xbc8fe475	-0.017564991
28	0xbcb08fa6	-0.021552872
29	0x3c86e2b3	0.01646552
30	0xbc6c3745	-0.014417474
31	0xbc869bde	-0.016431745
32	0x3c816867	0.015796853
33	0x3c6e506d	0.014545542
34	0xbc6a36f8	-0.014295332
35	0x3c861c64	0.01637096
36	0xbc760329	-0.015015402
37	0x3c82c6c2	0.015963916
38	0xbca11cd5	-0.019667068
39	0x3c5be2bf	0.01342076
40	0xbc891065	-0.01673145
41	0x3c8386d2	0.016055498
42	0xbc98e60f	-0.018664388
43	0x3c83f223	0.01610667
44	0xbc7db70d	-0.015485537
45	0x3c907541	0.017634036
46	0xbc5e7292	-0.01357712
47	0xbc798389	-0.015229114
48	0x3c5e4441	0.013566078
49	0x3c7c0f63	0.015384528
50	0xbca38cc8	-0.01996459
51	0x3c784870	0.015153989
52	0xbc873ffe	-0.016510006
53	0x3c80e299	0.01573305
54	0x3c869693	0.016429221
55	0x3c6bff93	0.014404195
56	0x3c78419e	0.015152363
57	0x3ca12cd7	0.019674702
58	0x3c7d441c	0.015458133
59	0xbc747545	-0.014920537
60	0x3c83165d	0.016001875
61	0xbc6827f7	-0.014169685
62	0x3c9605b1	0.01831326
63	0xbc86bcb5	-0.016447404

layers.0.egnn.vel_mlp.0.weight f4 [16, 4]
0	0xba248719	-0.00062762346
1	0x3981c1a1	0.00024749062
2	0x39e057cc	0.00042790023
3	0x3a4fb3c2	0.00079232093
4	0xb93e87ef	-0.00018170451
5	0xb9a83e3f	-0.00032089834
6	0x3a81992d	0.0009887569
7	0xba73e857	-0.00093043357
8	0xba423eac	-0.00074098515
9	0x3aba7966	0.0014226853
10	0x39e98499	0.00044540016
11	0xba3ebead	-0.0007276338
12	0xb8ddd9ce	-0.000105786705
13	0x3922e362	0.0001553423
14	0x3a0dea2f	0.0005413619
15	0xba8bf304	-0.0010677283
16	0x3ab0f094	0.0013499432
17	0xb9f68a36	-0.00047023752
18	0xb9c78014	-0.00038051663
19	0xbae049db	-0.0017111854
20	0x39cd7b7a	0.00039192644
21	0x391d2401	0.00014986099
22	0x3a28002b	0.00064087164
23	0xb9c858d3	-0.00038213152
24	0x3a3c0d68	0.00071736285
25	0xba819fb2	-0.0009889512
26	0xba9cff63	-0.0011977967
27	0xbb07ad91	-0.002070282
28	0xbab92c61	-0.0014127606
29	0x3a1fd6b1	0.000609736
30	0x39f20467	0.00046161117
31	0xb9379257	-0.00017506756
32	0xba37279e	-0.00069867994
33	0x3a131e00	0.00056120753
34	0x3a0100f4	0.00049211015
35	0x38d37fb7	0.00010085053
36	0x3a92b449	0.0011192645
37	0xbaab1437	-0.0013052289
38	0x3a63b56f	0.00086863985
39	0x378ff9dc	1.7163278e-05
40	0xba2ab29a	-0.0006511599
41	0x39cfa6eb	0.0003960648
42	0x3b162035	0.002290738
43	0xb9b90f98	-0.00035297568
44	0xba89de5c	-0.0010518539
45	0x3a65f613	0.00087723247
46	0x3a79883d	0.0009518897
47	0x3a1e06c7	0.00060282316
48	0xb96ffc78	-0.00022886868
49	0x39bcf6ce	0.00036042038
50	0xb9cae63e	-0.00038699986
51	0xba9130fa	-0.0011077218
52	0xb9b7b52b	-0.0003503946
53	0xb9d60499	-0.00040820686
54	0x3a7dc968	0.0009681196
55	0x3a25d1b4	0.00063254987
56	0x3a18a17c	0.0005822403
57	0xb9cc8d50	-0.00039015198
58	0xb96025a0	-0.00021376321
59	0xb9d4d85a	-0.00040596985
60	0x3a28056b	0.0006409499
61	0x3ae93539	0.0017792351
62	0xba8582db	-0.0010186093
63	0xbac96dc1	-0.0015367792

layers.0.egnn.vel_mlp.0.bias f4 [16]
0	0xbbd773a1	-0.0065750633
1	0x3ef4ec83	0.47836694
2	0x3eb369dc	0.35041702
3	0x3dc9ce19	0.09853763
4	0xbf002844	-0.5006144
5	0xbea7c843	-0.32769975
6	0xbed47726	-0.41497153
7	0x3ea66a9f	0.3250322
8	0xbdf5ef8e	-0.12008582
9	0xbe5f50a2	-0.21808103
10	0x3e69a87e	0.22818181
11	0x3df890d1	0.121369965
12	0x3e8398aa	0.2570241
13	0xbd889f52	-0.06671013
14	0xbed01294	-0.40639174
15	0xbe0c18a4	-0.13681275

layers.0.egnn.vel_mlp.3.weight f4 [1, 16]
0	0x38c7e531	9.53175e-05
1	0x39ff3dc6	0.00048683415
2	0x37f23d11	2.8877084e-05
3	0x3a286b3e	0.0006424672
4	0x3a13dbca	0.0005640356
5	0x38e72e9b	0.00011023619
6	0xb94ca5e1	-0.00019516751
7	0xb7a38176	-1.94914e-05
8	0x3677e486	3.6938886e-06
9	0x398c332a	0.00026741
10	0x3952c19b	0.00020099284
11	0x391bd405	0.00014860935
12	0xb98857c3	-0.0002600533
13	0xb6d8345a	-6.443396e-06
14	0xb787147b	-1.6102791e-05
15	0x3a2b6057	0.0006537488

layers.1.egnn.edge_mlp.0.weight f4 [20, 10]
0	0x3c3e554a	0.011617014
1	0x3cc3466e	0.023837294
2	0xbd87b163	-0.06625631
3	0x3cf143b9	0.029451238
4	0x3c8c2780	0.017108679
5	0x3d05f16e	0.03270095
6	0xbd814435	-0.063118376
7	0x3d0bfc76	0.034176312
8	0x3bd737de	0.006567939
9	0x3d9bc037	0.076050214
10	0xbd8d9c4d	-0.06914578
11	0xbda26e75	-0.07931224
12	0xb9fb2ec5	-0.00047909297
13	0xbda7ffe1	-0.08203102
14	0xbd945d77	-0.072443895
15	0xbdacd164	-0.084383756
16	0xbb341b63	-0.0027482144
17	0xbdb05318	-0.08609599
18	0xbd4651f6	-0.048418008
19	0xbdecda1a	-0.11565037
20	0x3c5d6d53	0.013514834
21	0x3ce544f3	0.02798698
22	0xbd6a5183	-0.057206642
23	0x3cf0b9da	0.029385496
24	0x3cae9436	0.021310907
25	0x3d0a46d4	0.033758953
26	0xbd66bbb5	-0.056331355
27	0x3d0ebe77	0.03484961
28	0x3bf0c18d	0.007347292
29	0x3d964ba8	0.07338649
30	0x3c4c7fc0	0.01248163
31	0x3cdc5332	0.02689514
32	0xbd7e4802	-0.06208039
33	0x3cebf967	0.028805448
34	0x3c88615a	0.016647983
35	0x3d00ead4	0.03147395
36	0xbd71c4ba	-0.059025504
37	0x3d07d94b	0.03316621
38	0x3bf28144	0.0074006636
39	0x3d9ad6e9	0.07560522
40	0x3c729ac7	0.01480741
41	0x3cf18fb2	0.029487465
42	0xbd5ffc6d	-0.05468409
43	0x3d041afb	0.032252293
44	0x3cb7210f	0.02235463
45	0x3d0c46b7	0.034247126
46	0xbd566482	-0.052341945
47	0x3d0e7e25	0.03478827
48	0x3c2f358c	0.010693919
49	0x3d96c57e	0.073618874
50	0xbd99bf8f	-0.0750724
51	0xbdb43fe4	-0.08801249
52	0xbc70ee8a	-0.01470531
53	0xbdb3e0df	-0.08783125
54	0xbda84c46	-0.08217673
55	0xbdbee2c0	-0.09320593
56	0xbc8e9280	-0.017403841
57	0xbdbf6b1e	-0.09346603
58	0xbd633dfc	-0.055479035
59	0xbdf8daca	-0.12151106
60	0xbd9a0e65	-0.07522277
61	0xbdb2418a	-0.08703907
62	0xbc532ede	-0.012889592
63	0xbdb18e04	-0.086696655
64	0xbda40f40	-0.08010721
65	0xbdba9fd8	-0.09112519
66	0xbc7f1fb4	-0.015571523
67	0xbdba09a8	-0.09083873
68	0xbd607205	-0.054796237
69	0xbdf65a0b	-0.12028893
70	0xbdaeff7a	-0.08544822
71	0xbdc6b070	-0.097016215
72	0xbcd58008	-0.026062027
73	0xbdc0b471	-0.094094165
74	0xbdb803de	-0.089851126
75	0xbdc6fe5e	-0.097164854
76	0xbcf03424	-0.029321738
77	0xbdcb8199	-0.09936828
78	0xbd7bffea	-0.061523356
79	0xbdfe4ef9	-0.124174066
80	0xbd94ad2a	-0.07259591
81	0xbdad1886	-0.08451943
82	0xbc08433a	-0.008316809
83	0xbdb27f97	-0.08715742
84	0xbda0c2bc	-0.07849643
85	0xbdb69b4e	-0.08916341
86	0xbc1e6032	-0.009666489
87	0xbdb974f5	-0.09055511
88	0xbd578f44	-0.052626863
89	0xbdf21f61	-0.11822391
90	0x3c51e578	0.012811057
91	0x3cd3ea38	0.02586852
92	0xbd826642	-0.063671604
93	0x3ce184c7	0.027529133
94	0x3c9be1e0	0.019028604
95	0x3d02ee6a	0.03196565
96	0xbd7bcf55	-0.061477024
97	0x3d09591a	0.03353224
98	0x3c06094b	0.008180927
99	0x3d990ee5	0.07473544
100	0x3c3771f2	0.0111966
101	0x3cec108d	0.028816486
102	0xbd814b99	-0.06313247
103	0x3cf3e3c3	0.029771691
104	0x3c878a27	0.016545368
105	0x3d0802f9	0.03320596
106	0xbd70d466	-0.05879631
107	0x3d0fbd3e	0.035092585
108	0x3bdacf7f	0.0066775675
109	0x3d9a5aa4	0.075368196
110	0x3c49aa15	0.012308617
111	0x3cef399a	0.029202271
112	0xbd81bf75	-0.06335346
113	0x3cef1038	0.029182538
114	0x3c92db5b	0.017926862
115	0x3d07a600	0.033117294
116	0xbd8017cc	-0.06254539
117	0x3d09abf8	0.033611268
118	0x3bccc6f2	0.006249302
119	0x3d9a7be3	0.07543161
120	0x3c48992f	0.012243553
121	0x3ced6b83	0.02898193
122	0xbd73152d	-0.059346367
123	0x3ce715fc	0.028208725
124	0x3c9c33ce	0.019067671
125	0x3d06eafd	0.032938946
126	0xbd67e1ea	-0.056611933
127	0x3d0d68e5	0.034523863
128	0x3c01e183	0.007927301
129	0x3d94cab6	0.072652265
130	0xbd8ff104	-0.07028392
131	0xbda81820	-0.082077265
132	0xbb76c225	-0.003765234
133	0xbda6d7f6	-0.0814666
134	0xbd997733	-0.074934386
135	0xbdaf4d72	-0.085596934
136	0xbb9e5f03	-0.0048331036
137	0xbdb6ceba	-0.08926149
138	0xbd5232cd	-0.05131798
139	0xbdee8fd7	-0.11648529
140	0xbd91ab9a	-0.071128085
141	0xbda9aab8	-0.08284515
142	0xbbacb7d2	-0.0052709365
143	0xbda8bdfc	-0.08239362
144	0xbd9a3994	-0.075305134
145	0xbdafe986	-0.08589463
146	0xbbeec987	-0.0072872075
147	0xbdb05ead	-0.08611808
148	0xbd539a1f	-0.051660653
149	0xbdf17128	-0.11789161
150	0xbd8f59c2	-0.06999542
151	0xbda95a19	-0.08269138
152	0xbb938073	-0.0045013963
153	0xbdac8cda	-0.08425303
154	0xbd98d47f	-0.074624054
155	0xbdafe128	-0.08587867
156	0xbbe69475	-0.0070367404
157	0xbdb4e02f	-0.08831822
158	0xbd5137e8	-0.051078707
159	0xbdf26f83	-0.118376754
160	0x3c51b023	0.012798342
161	0x3ce2ddba	0.027693618
162	0xbd89474e	-0.067030534
163	0x3ce1de21	0.02757174
164	0x3c7ccbff	0.015429496
165	0x3cf7d134	0.030251123
166	0xbd84d9c6	-0.064868495
167	0x3d062b04	0.032755867
168	0x3bbaa49a	0.0056958916
169	0x3d995f4b	0.07488879
170	0x3c3d270b	0.011544953
171	0x3cdb7322	0.026788298
172	0xbd88f1ef	-0.0668677
173	0x3ce35566	0.027750682
174	0x3c93ccbd	0.018041963
175	0x3d05b8c1	0.0326469
176	0xbd850e7b	-0.064969026
177	0x3d0f6aaa	0.035013832
178	0x3bca541e	0.0061745783
179	0x3d9c8af2	0.07643689
180	0x3c3ba3ca	0.011452625
181	0x3ce3cf9f	0.027808962
182	0xbd889853	-0.066696785
183	0x3cebc223	0.028779095
184	0x3c89368c	0.016749643
185	0x3d01d7fc	0.03170012
186	0xbd83b4b8	-0.06430954
187	0x3d05bbea	0.032649912
188	0x3bb107d0	0.0054025427
189	0x3d9efeaa	0.07763417
190	0x3c5acfee	0.013355238
191	0x3ce0b048	0.027427807
192	0xbd84a419	-0.06476612
193	0x3cdd6a33	0.027028179
194	0x3c938093	0.018005645
195	0x3d067f06	0.032835983
196	0xbd73435d	-0.059390415
197	0x3d0e4634	0.03473492
198	0x3b9a08ac	0.004700741
199	0x3d99e8fd	0.07515142

layers.1.egnn.edge_mlp.0.bias f4 [20]
0	0x3e9f4fac	0.31115472
1	0xbe8d17d6	-0.27557248
2	0x3e055888	0.13022053
3	0x3e6996f8	0.22811496
4	0x3db8e1e7	0.090274625
5	0xbea1204c	-0.31469953
6	0xbeaaea77	-0.33382007
7	0xbec367f6	-0.38165253
8	0xbe9a2272	-0.30104405
9	0x3e9e8945	0.30964103
10	0x3e707940	0.23483753
11	0x3e855106	0.26038378
12	0x3e21065f	0.15725087
13	0xbe8855b2	-0.2662788
14	0xbe899e2c	-0.26878488
15	0xbe8b81de	-0.27247518
16	0x3eb6970d	0.35662118
17	0x3ebd0b80	0.36922836
18	0x3ea89505	0.32926193
19	0x3e6e7009	0.23284926

layers.1.egnn.edge_mlp.3.weight f4 [16, 20]
0	0xbd696469	-0.056980524
1	0x3d83768f	0.06419098
2	0xbd5b740e	-0.053577475
3	0xbd5fe0a6	-0.0546576
4	0xbd550b05	-0.052012462
5	0x3d884a5c	0.06654808
6	0x3d84b831	0.06480444
7	0x3d8946f2	0.06702985
8	0x3d868e9f	0.065701716
9	0xbd67461f	-0.056463357
10	0xbd6af882	-0.0573659
11	0xbd6b7e63	-0.05749358
12	0xbd5d7226	-0.05406394
13	0x3d82a932	0.06379928
14	0x3d84a95b	0.064776145
15	0x3d85fd6c	0.06542477
16	0xbd745896	-0.059654795
17	0xbd770798	-0.060309976
18	0xbd72c1bc	-0.05926679
19	0xbd725c01	-0.059169773
20	0x3d3a81c6	0.045533918
21	0xbd5a6b65	-0.053325076
22	0x3d289ff8	0.041168183
23	0x3d2ea219	0.042635057
24	0x3d159abd	0.036524523
25	0xbd5efefc	-0.05444239
26	0xbd63fdb5	-0.055661876
27	0xbd66f6e7	-0.05638781
28	0xbd57b329	-0.052661095
29	0x3d3e0b80	0.046397686
30	0x3d32a59e	0.043614976
31	0x3d3bdb48	0.04586342
32	0x3d23ee2c	0.04002206
33	0xbd547a7e	-0.05187463
34	0xbd52303a	-0.051315524
35	0xbd4f9a71	-0.050684396
36	0x3d3f94d6	0.0467728
37	0x3d3cc1be	0.046083204
38	0x3d3983b9	0.045291636
39	0x3d31e725	0.043433327
40	0x3d3b6e6e	0.04575961
41	0xbd5a9699	-0.053366277
42	0x3d25903a	0.04042075
43	0x3d387947	0.045037534
44	0x3d1a3084	0.037643924
45	0xbd59b09c	-0.053146943
46	0xbd643ba8	-0.055720955
47	0xbd6984d0	-0.057011425
48	0xbd56b104	-0.05241491
49	0x3d37e2dc	0.044894084
50	0x3d32352e	0.043507747
51	0x3d3910ef	0.045182165
52	0x3d275188	0.04084924
53	0xbd54c21c	-0.05194293
54	0xbd4bcb5a	-0.049754478
55	0xbd514044	-0.05108668
56	0x3d43673c	0.047705874
57	0x3d41ee44	0.04734637
58	0x3d4186bd	0.047247637
59	0x3d4147a9	0.04718748
60	0x3d3df83e	0.04637932
61	0xbd574dc3	-0.052564394
62	0x3d2465d8	0.04013619
63	0x3d2e3b05	0.042536754
64	0x3d12fb28	0.035884053
65	0xbd640e96	-0.055677973
66	0xbd647297	-0.055773344
67	0xbd640455	-0.055668194
68	0xbd5a3b19	-0.053279016
69	0x3d3b6273	0.045748185
70	0x3d3c09b8	0.045907706
71	0x3d37aeae	0.044844322
72	0x3d2ef671	0.042715494
73	0xbd534698	-0.051580995
74	0xbd54c6b0	-0.051947296
75	0xbd51f0a1	-0.051254872
76	0x3d43488d	0.04767661
77	0x3d48fd03	0.049069416
78	0x3d47dfc5	0.048797388
79	0x3d3b5604	0.045736328
80	0xbd6dcfb2	-0.0580594
81	0x3d84e394	0.064887196
82	0xbd6101e2	-0.054933436
83	0xbd64cc66	-0.055858992
84	0xbd4bbae2	-0.049738772
85	0x3d85dbe7	0.06536084
86	0x3d8611b1	0.06546343
87	0x3d88285b	0.06648322
88	0x3d853b17	0.06505411
89	0xbd6ab7d5	-0.057304222
90	0xbd63129b	-0.055437665
91	0xbd65a957	-0.0560697
92	0xbd65febe	-0.056151144
93	0x3d81ac6e	0.063317165
94	0x3d837edc	0.06420681
95	0x3d8254f6	0.06363861
96	0xbd721d86	-0.059110187
97	0xbd6a4337	-0.057193007
98	0xbd6fe814	-0.058570936
99	0xbd68597c	-0.056725964
100	0x3d43ad84	0.0477729
101	0xbd5401a1	-0.051759366
102	0x3d27d7d9	0.040977333
103	0x3d3288fc	0.04358767
104	0x3d1196ff	0.03554439
105	0xbd5c8fe6	-0.05384817
106	0xbd61b84b	-0.055107396
107	0xbd68f0ff	-0.056870457
108	0xbd5563d7	-0.052097168
109	0x3d3b10f4	0.045670465
110	0x3d357984	0.04430534
111	0x3d364b01	0.044505123
112	0x3d277d8f	0.040891226
113	0xbd56e8d4	-0.052468136
114	0xbd5cd95f	-0.05391824
115	0xbd5a94b7	-0.05336448
116	0x3d466b23	0.048442017
117	0x3d4083ad	0.047000576
118	0x3d3cf864	0.04613532
119	0x3d380db3	0.04493494
120	0xbd716160	-0.058930755
121	0x3d7fd3ea	0.062457956
122	0xbd5fd6aa	-0.05464808
123	0xbd655d2e	-0.055997066
124	0xbd574264	-0.05255355
125	0x3d8b50d9	0.0680253
126	0x3d87ce66	0.06631164
127	0x3d8a1839	0.06742901
128	0x3d85d1c5	0.06534151
129	0xbd6c42d3	-0.057680916
130	0xbd655f25	-0.05599894
131	0xbd6df794	-0.058097437
132	0xbd6564c0	-0.056004286
133	0x3d85f405	0.06540684
134	0x3d858cef	0.065210216
135	0x3d830d8f	0.063990705
136	0xbd79656e	-0.060887747
137	0xbd778600	-0.060430527
138	0xbd755fbe	-0.05990576
139	0xbd74782a	-0.05968491
140	0xbd780434	-0.060550883
141	0x3d83d194	0.06436458
142	0xbd59c75c	-0.05316864
143	0xbd6c1263	-0.057634722
144	0xbd5331bf	-0.051561113
145	0x3d8a858d	0.06763754
146	0x3d85170e	0.06498538
147	0x3d89ed9d	0.06734774
148	0x3d88f421	0.06687189
149	0xbd70ef6d	-0.058822084
150	0xbd6b06a7	-0.05737939
151	0xbd6ef8c0	-0.058342695
152	0xbd567ff1	-0.05236811
153	0x3d803799	0.062606044
154	0x3d81580a	0.0631562
155	0x3d83c6c1	0.06434394
156	0xbd72bcec	-0.0592622
157	0xbd7d4d08	-0.06184104
158	0xbd6b6c80	-0.05747652
159	0xbd69ef9b	-0.05711327
160	0xbd6b6a0d	-0.057474185
161	0x3d870d8d	0.065943815
162	0xbd5f2a0c	-0.05448346
163	0xbd6dc012	-0.0580445
164	0xbd55b1a6	-0.052171372
165	0x3d85c937	0.06532519
166	0x3d8c6082	0.06854345
167	0x3d8c8925	0.06862096
168	0x3d83f859	0.06443853
169	0xbd6c47b3	-0.057685565
170	0xbd68050b	-0.056645434
171	0xbd73d817	-0.05953225
172	0xbd5fe76d	-0.054664064
173	0x3d89981d	0.067184664
174	0x3d8472f7	0.0646724
175	0x3d826773	0.063673876
176	0xbd7cef01	-0.06175137
177	0xbd7608a6	-0.06006684
178	0xbd7e7c5e	-0.062130325
179	0xbd774643	-0.06036974
180	0xbd6e2afb	-0.058146458
181	0x3d8556fb	0.06510731
182	0xbd632b9f	-0.055461522
183	0xbd6251c3	-0.055253755
184	0xbd5328b0	-0.051552474
185	0x3d87f81e	0.066391215
186	0x3d87fbcc	0.06639823
187	0x3d8a70c5	0.0675979
188	0x3d877791	0.06614602
189	0xbd646ec8	-0.05576971
190	0xbd68854b	-0.056767743
191	0xbd6cec6f	-0.05784267
192	0xbd5f589e	-0.05452787
193	0x3d83227c	0.06403062
194	0x3d8498b6	0.0647444
195	0x3d8501d7	0.064944915
196	0xbd7c0749	-0.061530385
197	0xbd71553d	-0.05891918
198	0xbd76ea27	-0.0602819
199	0xbd6a6816	-0.05722817
200	0xbd6d1202	-0.0578785
201	0x3d84287e	0.06453036
202	0xbd5fe025	-0.05465712
203	0xbd6a66a0	-0.057226777
204	0xbd54d14e	-0.05195742
205	0x3d862af6	0.06551163
206	0x3d87264f	0.06599104
207	0x3d8b6eaf	0.068082206
208	0x3d834604	0.06409839
209	0xbd6cf536	-0.05785104
210	0xbd66e7fa	-0.056373574
211	0xbd6b4c4d	-0.057445813
212	0xbd649022	-0.05580152
213	0x3d86bcee	0.06579004
214	0x3d823d56	0.06359355
215	0x3d8229db	0.063556395
216	0xbd6cdce0	-0.05782783
217	0xbd763b0a	-0.060114898
218	0xbd7b84a9	-0.06140581
219	0xbd6da404	-0.058017746
220	0x3d37ead9	0.044901703
221	0xbd53d626	-0.0517179
222	0x3d22cb4f	0.03974467
223	0x3d2f2c01	0.042766575
224	0x3d14849e	0.036259286
225	0xbd5a2bbb	-0.05326436
226	0xbd559246	-0.05214145
227	0xbd62a158	-0.05532965
228	0xbd5461a1	-0.05185092
229	0x3d3cd1e5	0.04609861
230	0x3d343947	0.043999936
231	0x3d37aefc	0.044844612
232	0x3d29d686	0.04146435
233	0xbd4cfc9a	-0.050045587
234	0xbd5562cf	-0.052096184
235	0xbd5264f7	-0.05136582
236	0x3d3e039e	0.04639017
237	0x3d3c5687	0.045980956
238	0x3d3b0f8f	0.045669135
239	0x3d38f512	0.045155592
240	0xbd70bcf0	-0.058773935
241	0x3d8421a6	0.064517304
242	0xbd66399b	-0.05620728
243	0xbd65c053	-0.056091618
244	0xbd4bd1a1	-0.049760465
245	0x3d865463	0.06559064
246	0x3d851974	0.064989954
247	0x3d869e7c	0.06573197
248	0x3d846b2b	0.06465753
249	0xbd6803bf	-0.056644198
250	0xbd6672dc	-0.056261882
251	0xbd6aaf9a	-0.057296373
252	0xbd5fd200	-0.05464363
253	0x3d82c514	0.06385246
254	0x3d7e9aa4	0.062159196
255	0x3d83f73f	0.06443643

layers.1.egnn.edge_mlp.3.bias f4 [16]
0	0xbdbe6b1f	-0.092977755
1	0x3d869255	0.06570879
2	0x3e3a7eec	0.1821248
3	0x3e264ccc	0.16240233
4	0xbe8850ea	-0.26624233
5	0x3e39de98	0.18151319
6	0xbdf8acc6	-0.12142329
7	0xbe5497eb	-0.20761077
8	0xbe852470	-0.26004362
9	0xbe6beefb	-0.23040383
10	0xbe277608	-0.16353619
11	0x3df1e95f	0.1181209
12	0xbe47d00b	-0.19512956
13	0xbe80c63b	-0.25151238
14	0x3dff0589	0.124522276
15	0xbe4a01f9	-0.19727315
