data/models/model_N35_batch32_lr0.0001_fd4_b0.5.pth (torch, 30922 bytes, 32 tensors)

time_embedding.0.weight f4 [8, 1]
00000000: d883 62bf c511 803e 407c a63e 520d 413f
00000010: ded1 1a3f ac0a ecbe 4296 923d 2a67 553f
-0.8848243 0.25013557 0.3251667 0.7541095 0.6047648 -0.46101892 0.07157566 0.8336054

time_embedding.0.bias f4 [8]
00000000: a41b 2d3f 6043 693e 88fe 4fbf c67c da3e
00000010: 2f0a 863e 6c3c 7abf 4297 fa3e 39cd 48bf
0.676203 0.22779608 -0.8124776 0.4267332 0.26179644 -0.97748446 0.48943526 -0.78438145

time_embedding.3.weight f4 [4, 8]
00000000: fd0c 21bc f519 643e 9f76 2ebe 1621 aebc
00000010: 9500 51be 97fa 1cbe 2516 8b3e f8ba 683e
00000020: cd1b 1cbe 0b5a 513e 2e37 7e3e 3690 973d
00000030: 5f7f c2be d065 15bd 0b6f f43d 8fd2 6f3d
00000040: ae96 1cbd 83af 9cba f3ba 933e 7804 f73d
00000050: 5553 b2bd 2b08 85be 32ab 2abd 064a c33d
00000060: 6f53 8a3e a36c 87bd afee 74be de19 a23e
00000070: 17f9 753e 0b80 953d d1f0 033e 7b60 273e
-0.009829757 0.22275527 -0.17037438 -0.021256011 -0.20410378 -0.15329967 0.27165332 0.22727573
-0.1524498 0.20444505 0.24825737 0.07400553 -0.379878 -0.03647405 0.11935242 0.058550414
-0.038229637 -0.0011954162 0.28853568 0.12061399 -0.087073006 -0.25982794 -0.04166717 0.09535603
0.2701678 -0.06612518 -0.23919176 0.3166036 0.24020801 0.07299813 0.12884833 0.16345398

time_embedding.3.bias f4 [4]
00000000: 8b23 3d3e cc54 98be 911d c83e f6cc 913e
0.1847059 -0.29752195 0.39085057 0.28476685

layers.0.egnn.edge_mlp.0.weight f4 [20, 10]
00000000: d7d7 e73c 6bfc 0fbd 4630 753d ef3a 99bc
00000010: 6556 e53c 220a 14bd ed03 7b3d 8868 95bc
00000020: cd89 27bb 22a6 d33d e312 133d 1a4b 2ebd
00000030: b0f6 843d a574 d8bb 4027 183d ddbd 32bd
00000040: abba 883d ee25 92bb 1bdd ac3b 4a99 db3d
00000050: b0f2 02be 4a64 fb3d a647 04be 318a 9dbd
00000060: e8ad 07be 963b f83d 3f8b 04be a625 90bd
00000070: 61fe 5dbd 1623 29be b99a f0bd 3dfb ec3d
00000080: f822 02be 3da5 8ebd 910d f3bd 74a7 e93d
00000090: f480 ffbd f7cd 81bd 6d9c 74bd 490c 28be
000000a0: ac82 ecbd c3bc e63d 9050 fbbd 7103 8cbd
000000b0: 0b0a f0bd 8c5f e23d 6a8e fbbd ff44 7dbd
000000c0: 48ce 59bd 4b0b 23be b0af d33c 52bc 0cbd
000000d0: b7ad 6e3d f8fa b1bc fae2 e83c 5f5c 11bd
000000e0: 6cdf 713d 62fc 9cbc eefc 7dbb 525f d23d
000000f0: 0f90 fabd d6ec f73d cdec 06be 0994 9dbd
00000100: 8f32 fcbd c6f3 f33d 5e72 06be 6372 90bd
00000110: 68a5 81bd 2da9 2ebe 6a08 ebbd 1b7c e93d
00000120: 89b1 febd ad54 8abd de90 eabd 5aaa e63d
00000130: fea4 fdbd 9cbb 84bd b195 6cbd 8305 26be
00000140: 0d51 05be 3a55 f93d b1ec 02be d39d 99bd
00000150: 9f33 07be 6e70 f43d ecc4 02be 949a 89bd
00000160: 7798 5fbd 1898 27be 59fb ffbd ae45 fa3d
00000170: e1ab 06be d0a1 9bbd 009e fcbd 2e65 f43d
00000180: 4550 07be 9460 91bd d72f 82bd b0d4 2dbe
00000190: 3041 9d3c 4d9f e7bc 18f8 5b3d aacc e5bc
000001a0: f456 923c ea60 e5bc 32a3 603d d94a f2bc
000001b0: c600 0fbc 1a72 d43d 1654 993c 291b f2bc
000001c0: 1991 543d aac5 f1bc 095c a83c 77f6 f1bc
000001d0: b8a1 653d 946c ebbc 6ddd 2cbc 0069 d43d
000001e0: 33ae 14be 2d66 0d3e d374 18be 70a7 c1bd
000001f0: 43f2 17be 830d 0b3e f318 16be b18d b1bd
00000200: 3891 9ebd caaf 3fbe dde1 e23c 94a7 0dbd
00000210: 4da0 6e3d a132 8ebc bf8c dd3c 2e3c 18bd
00000220: 0ea2 7a3d eb26 70bc c529 3dbb 1eef d23d
00000230: 6d04 ae3c 589c fdbc c240 6c3d 7109 d4bc
00000240: a978 b23c 5f0b 04bd 0b07 6b3d ab06 dabc
00000250: 06c2 05bc ca39 d13d f42e 8f3c 73c0 d2bc
00000260: b161 573d d7d2 e6bc 86d0 a03c c1e5 f6bc
00000270: 46c7 5c3d 7065 ffbc 4c6b 2ebc 9098 d13d
00000280: 76aa ac3c 67dd f7bc 3002 6a3d 5bb8 bcbc
00000290: 3238 c63c 5676 03bd e3ef 713d e465 bebc
000002a0: baca e1bb 58c5 d13d 34c8 f1bd db54 e73d
000002b0: 7463 f7bd bbf0 86bd 594f f2bd 3218 e23d
000002c0: 3c2d f7bd daa9 7fbd 60a7 51bd 383a 22be
000002d0: 3521 06be cd1b fe3d 636b 07be 75e8 9ebd
000002e0: ec73 08be 64a7 f93d a96b 07be 624f 93bd
000002f0: 9b3d 73bd a4a6 2abe 8ca7 f6bd 629a ed3d
00000300: 5b89 fdbd 9e22 93bd 140c fbbd f5c4 ea3d
00000310: 6dc7 fcbd 79f7 83bd 2277 63bd 6383 22be
0.028301163 -0.035152834 0.05986049 -0.01870486 0.027995298 -0.036142476 0.06128304 -0.018238321
-0.0025564313 0.10334422 0.035906684 -0.04255209 0.064923644 -0.006605702 0.037146807 -0.0436381
0.06676229 -0.004460088 0.0052753813 0.10722597 -0.1278789 0.12274988 -0.12917957 -0.076923735
-0.13249934 0.1212074 -0.12943743 -0.07038431 -0.054197673 -0.1651729 -0.11748261 0.115713574
-0.12708652 -0.069651105 -0.11867822 0.11408892 -0.12475768 -0.06338113 -0.05971949 -0.16410936
-0.11548361 0.11266472 -0.122712255 -0.06836594 -0.117206655 0.1105338 -0.12283023 -0.061833378
-0.05317524 -0.15922277 0.02584061 -0.034359284 0.058271136 -0.021726117 0.028428543 -0.035488483
0.059050962 -0.019163314 -0.0038755494 0.10272087 -0.12234508 0.1210572 -0.1317627 -0.07694251
-0.12314331 0.119117305 -0.13129565 -0.070530675 -0.06330377 -0.17056723 -0.11476214 0.11400624
-0.12436206 -0.06754432 -0.114534125 0.11262961 -0.123849854 -0.06481096 -0.057759944 -0.1621304
-0.130192 0.12174459 -0.12785603 -0.07500806 -0.13203286 0.11935507 -0.12770432 -0.067189366
-0.05458876 -0.16366613 -0.12499113 0.122203216 -0.13151504 -0.07599223 -0.123348236 0.11933361
-0.13214214 -0.07098499 -0.06356781 -0.16975665 0.019196123 -0.028274203 0.053703398 -0.028051693
0.017863728 -0.028000314 0.054843135 -0.029576706 -0.008728212 0.10373326 0.018716853 -0.029553967
0.05189619 -0.029513199 0.020551698 -0.029536469 0.05606243 -0.028738298 -0.010550839 0.1037159
-0.14519577 0.13808508 -0.14888315 -0.09455764 -0.1483851 0.13579373 -0.14657955 -0.086696036
-0.07742542 -0.18719402 0.02769559 -0.034583643 0.058258343 -0.017358126 0.027044652 -0.037166767
0.061189704 -0.014657716 -0.0028864008 0.10299514 0.021242345 -0.03095834 0.057678945 -0.025883408
0.02178605 -0.032237407 0.057379764 -0.026614508 -0.008163935 0.102161005 0.017478444 -0.025726533
0.0525834 -0.028176708 0.019630682 -0.030138852 0.05390098 -0.031176299 -0.010645699 0.10234177
0.021077376 -0.03025694 0.057130992 -0.023037126 0.024196718 -0.032095276 0.059066664 -0.023241945
-0.006890622 0.102427185 -0.11805764 0.11295482 -0.12079516 -0.065888844 -0.118315406 0.11039771
-0.12069175 -0.062417842 -0.051185012 -0.15842521 -0.13098605 0.12407646 -0.13224559 -0.077591814
-0.1332547 0.1219013 -0.13224663 -0.071928754 -0.059384923 -0.16665131 -0.12043676 0.11601712
-0.12379714 -0.07184337 -0.12258163 0.11463348 -0.12342725 -0.06443686 -0.055533536 -0.15870433

layers.0.egnn.edge_mlp.0.bias f4 [20]
00000000: 8b6e 433e 06e3 db3d 705a c8be 2ca5 85be
00000010: b0b8 adbe 2cd3 403e 5425 61be 641f 7abe
00000020: c620 ccbe 5440 65be b1d7 c63e 0ffc a53e
00000030: 38fe 43be 7816 293e 1a0e 973e 956f bb3e
00000040: 0b2d 843e 2947 c6be 255d b6be 96a9 babe
0.19085138 0.10736661 -0.39131498 -0.2610258 -0.33929968 0.18830556 -0.21986896 -0.24426037
-0.39868754 -0.2238782 0.38836434 0.32418868 -0.19139946 0.16512477 0.29502946 0.36608568
0.25815615 -0.38726166 -0.3561794 -0.3645751

layers.0.egnn.edge_mlp.3.weight f4 [16, 20]
00000000: 986a 5c3d fc5e 3e3d 0f73 8abd aab6 81bd
00000010: 6b26 8abd 48d0 583d 60ae 84bd 158e 86bd
00000020: 475f 8bbd b88b 82bd 4c14 6f3d 29de 6d3d
00000030: 3d76 8abd 3641 563d 5f1c 663d 2070 743d
00000040: ccad 683d c114 85bd 4a96 88bd 36d8 88bd
00000050: 4311 9dbd 6f79 9ebd cfdb a63d 2757 b03d
00000060: 236f a73d 9bdf a1bd b8df b73d 1cb9 b03d
00000070: ff2c a33d 1d74 b53d 186f a0bd f438 a3bd
00000080: f0c3 c83d e24c a0bd b9a4 9dbd e227 a1bd
00000090: 698e 9cbd f38a a73d 77c7 a83d cc74 a73d
000000a0: e3ee 9abd 304f 9abd dacc a13d f025 ac3d
000000b0: e62d a43d 3440 9abd 1dd3 b63d d261 b13d
000000c0: 1a72 a23d bbd8 b63d 808a 9cbd 09f8 9fbd
000000d0: 71a1 bf3d 0491 9cbd da38 9fbd 374a 9bbd
000000e0: a71c 9ebd 4e2f a43d ffe6 a23d 9804 a73d
000000f0: 37fe 543d 6cea 413d 80d5 8dbd 6ced 87bd
00000100: 430e 8bbd 0a86 5a3d e9b7 86bd 6e55 82bd
00000110: a922 8dbd 1b57 83bd d62c 783d 574f 733d
00000120: 856e 8cbd fa2a 563d 2da6 663d af26 763d
00000130: 768b 633d dc04 8ebd 02d5 8abd 6a8c 87bd
00000140: 606d 99bd 9d48 9cbd 6f52 993d 3a42 a13d
00000150: 630e 9b3d 2cee 9fbd e198 ae3d 95c9 a83d
00000160: 313c 963d c0a8 b33d a608 95bd 72a3 9abd
00000170: 5ca7 bd3d 75b8 9dbd 9635 94bd dcae 9bbd
00000180: 5368 9bbd a21a 983d d02e a03d 4b47 983d
00000190: 24cd 98bd 7f8a 9fbd 9ef6 9e3d 1996 aa3d
000001a0: e5bf a13d 5b12 a2bd a927 b13d 1c62 ad3d
000001b0: 32d9 9e3d e829 b43d f815 96bd 0e9b 9dbd
000001c0: ad56 c13d f647 9dbd 48c2 9dbd 2af9 9abd
000001d0: 2c52 9bbd 5bfb 9d3d db56 a13d 1396 9f3d
000001e0: a4b4 533d f025 4f3d c63a 8cbd 11b2 86bd
000001f0: ac72 89bd a8c4 623d 3287 84bd a442 85bd
00000200: a10b 91bd c483 86bd f269 733d 1e21 733d
00000210: ca5f 8cbd 70b1 5d3d b598 6c3d 8893 7f3d
00000220: fc93 613d 61a7 8ebd e65d 8abd 12e1 89bd
00000230: 140e 9cbd cf26 9cbd 80d0 9f3d 4b0f aa3d
00000240: 5233 a03d f0da 9cbd f003 b23d a796 ac3d
00000250: 215a 993d f761 af3d 72f6 95bd 70f6 98bd
00000260: 5225 bd3d acaa 9ebd 7bdb 98bd 1165 98bd
00000270: c958 9bbd 7731 9d3d 4a80 9d3d 6056 9d3d
00000280: 05cb 99bd e08a 9ebd 0e38 973d 74f2 a63d
00000290: ccb7 9c3d 8922 a0bd 13a3 af3d 0de1 ac3d
000002a0: 5859 983d be9c ad3d 82aa 97bd b174 9fbd
000002b0: ad29 be3d 2854 a1bd 9acd 99bd 7a14 98bd
000002c0: 51f8 97bd d866 9a3d 1238 9c3d 266a 9d3d
000002d0: 6be7 96bd d535 99bd 0313 9f3d 0650 a63d
000002e0: 1b43 a03d 6ad8 9abd c4e0 af3d c089 ac3d
000002f0: bed8 993d 8fe5 ad3d 2b8c 93bd 0c6e 9cbd
00000300: 08cd bb3d 8c81 9abd a7be 9abd 53fa 98bd
00000310: 0686 96bd c1ec 9b3d 8ead 9d3d 736e 9a3d
00000320: fa11 9fbd ec33 9dbd 952a ac3d 22e7 b43d
00000330: 273c a93d 0d8f a3bd aad4 bd3d a914 bb3d
00000340: f074 ac3d c62e bb3d 2a18 a5bd d588 a5bd
00000350: 63fa c93d 9908 a3bd f6a4 a5bd ade1 a4bd
00000360: bce2 a3bd 62a5 ab3d d937 a83d 5882 aa3d
00000370: 87e9 4b3d 33d2 443d 9d19 87bd c28e 82bd
00000380: a39e 89bd ddb3 553d fee1 82bd c794 7ebd
00000390: 6a8e 8bbd 712f 83bd 8327 6a3d 86ea 743d
000003a0: 7bdf 8bbd d604 593d d278 713d fff4 723d
000003b0: 1d72 613d 585b 8cbd 1e4e 88bd 2632 8cbd
000003c0: c88c 9ebd d8f3 9fbd 36fe a13d cd58 ab3d
000003d0: dde9 a33d 4777 9fbd 2eca b33d af86 ac3d
000003e0: 608e a13d 9784 b33d 30e2 9cbd b888 9dbd
000003f0: 712a c33d 8628 a0bd 6327 9fbd 0a43 9cbd
0.053812593 0.046477303 -0.06760227 -0.063336685 -0.06745609 0.052933007 -0.06478572 -0.06570069
-0.06805282 -0.063743055 0.058368966 0.058073197 -0.067608334 0.052308284 0.0561794 0.059677243
0.05680637 -0.06498099 -0.0666929 -0.06681864 -0.07669308 -0.07738005 0.08147394 0.08610373
0.081754945 -0.079039775 0.08978218 0.08629057 0.07967567 0.088600375 -0.078336895 -0.07969847
0.09802997 -0.07827164 -0.07697434 -0.07868935 -0.0764435 0.08180799 0.0824117 0.08176574
-0.07565095 -0.07534635 0.079004005 0.084056735 0.08016567 -0.07531777 0.089269854 0.08661236
0.079319194 0.08928057 -0.07643604 -0.07810981 0.093569644 -0.07644847 -0.077745155 -0.07582515
-0.07720309 0.08016835 0.07954215 0.08155173 0.05200025 0.047342703 -0.069254875 -0.066370815
-0.067898296 0.053350486 -0.06578047 -0.06363951 -0.068913765 -0.064130984 0.060589634 0.059401836
-0.068570174 0.05228708 0.05631082 0.060095485 0.055552922 -0.069345206 -0.06778909 -0.06618579
-0.07491565 -0.076310374 0.07486426 0.0787396 0.075711034 -0.078090996 0.08525253 0.08241574
0.07335699 0.08772421 -0.0727704 -0.07550706 0.09260437 -0.07701198 -0.07236783 -0.07601711
-0.07588258 0.07426955 0.07821429 0.07435473 -0.074610025 -0.07790088 0.07761882 0.0832941
0.07897929 -0.07913657 0.08650143 0.084659785 0.077562705 0.087970555 -0.07328409 -0.0769559
0.0944036 -0.07679741 -0.07703072 -0.075670555 -0.075840324 0.07713958 0.078778945 0.07792296
0.051685944 0.05057329 -0.06847148 -0.06576932 -0.06711325 0.055363327 -0.06471099 -0.06506851
-0.07082296 -0.06568101 0.05942721 0.059357755 -0.06854208 0.054124296 0.05776282 0.062396556
0.05507277 -0.06965519 -0.06756191 -0.06732382 -0.07619873 -0.0762459 0.0780344 0.08303698
0.078222886 -0.076589465 0.08692157 0.08427172 0.07487894 0.08563607 -0.07322396 -0.07468879
0.09235634 -0.07747397 -0.074637376 -0.07441152 -0.07585294 0.0767545 0.07690485 0.0768249
-0.07509426 -0.07741332 0.073837385 0.08151713 0.07652244 -0.07819087 0.08576026 0.084413625
0.07438916 0.08477162 -0.07405569 -0.07785929 0.09285293 -0.0787738 -0.075099185 -0.074257806
-0.074204095 0.07539147 0.07627882 0.07686262 -0.07368358 -0.07480971 0.07767298 0.08120732
0.07825299 -0.07560809 0.085877925 0.08424711 0.075120434 0.084910505 -0.07204469 -0.07638177
0.09169966 -0.0754424 -0.07555895 -0.074696206 -0.07349782 0.076135166 0.076991186 0.07540598
-0.07767101 -0.07675919 0.084065594 0.088331476 0.08263426 -0.07986269 0.09269078 0.091348
0.084207416 0.09139781 -0.080612496 -0.08082739 0.098622106 -0.07960624 -0.080881044 -0.08050857
-0.080022305 0.08381154 0.08213777 0.08325642 0.049783256 0.048052024 -0.06596682 -0.06374885
-0.06719711 0.052173484 -0.06390761 -0.062153604 -0.06814273 -0.06405533 0.057166588 0.05979397
-0.06829735 0.052983128 0.058953114 0.059315678 0.055040468 -0.0685336 -0.06655525 -0.068455026
-0.07741696 -0.078101814 0.07909815 0.08366547 0.0800359 -0.07786422 0.08778797 0.08424126
0.07888484 0.08765524 -0.07660329 -0.07692093 0.095295794 -0.07820229 -0.07771184 -0.07629974

layers.0.egnn.edge_mlp.3.bias f4 [16]
00000000: fce1 543e df1b dbbd 04b0 04be 3ae4 ee3d
00000010: dd58 8bbe 1a0f 4abe b3d9 ca3d 9265 6abe
00000020: b2ca 90be f43d 29be 8834 a7bd 5872 3a3e
00000030: 89e6 1ebe 0c0f 2dbe ba9b 8d3e 5b09 1cbe
0.20789331 -0.10698675 -0.1295777 0.116646245 -0.27216235 -0.19732323 0.09904804 -0.22890308
-0.28279644 -0.1652754 -0.081643164 0.18207681 -0.1551763 -0.16900271 0.27657872 -0.15237944

layers.0.egnn.node_mlp.0.weight f4 [8, 20]
00000000: ff0e 8d39 3d7c ab38 5828 2b3a a282 b0ba
00000010: adf7 503a 3568 23b9 f0c5 22b9 ed1d 09ba
00000020: 254a 3e3a e18a 61b9 1f95 663a 118d 093a
00000030: 72f4 baba 487f 3bba d05b 45b9 8f53 4dba
00000040: fdc3 b5ba 86b8 fe39 0d6f 553a 8159 073a
00000050: 7fad a136 b25a 3739 340d 003b 32ed 00ba
00000060: 7749 ddb9 2c2f 94ba c298 5a3b 7257 ab39
00000070: 3b0e 813a 82d0 c13a 3dcd 7b3a fe10 9b38
00000080: eb43 08bb d881 a8b9 136f 3f3a 970e 4dba
00000090: 9077 113a 0e59 cf39 0961 92ba ce81 3238
000000a0: 4d26 2e3a 18ec 22ba d436 4fba 4155 853a
000000b0: 9725 92b7 32c6 47ba 4378 8b39 804b 923a
000000c0: 686d 2939 ba24 1fba 05aa 7ab9 d820 a2ba
000000d0: 1857 e3b8 3680 5b37 381d b23a 416b 91ba
000000e0: 910c 393a 3178 79b9 f873 d539 a7e3 e7ba
000000f0: 616a 1cba 65dd d53a 2511 c6b6 f74a ac3a
00000100: 2dab 7438 8512 53ba a1d2 323a 86b2 463a
00000110: de29 6bba 22f9 26ba b3f7 233b 736e 3cba
00000120: 8f90 4238 ad8c 603a c92d 5dbb f0e7 913a
00000130: 3e81 8c38 6655 003b 56c9 06bb 690d c6ba
00000140: 55ff 833a 2fa0 d93a 8588 8d3a 469a a039
00000150: ad1c e2ba 16c1 b439 cd8e 0eb9 32d7 90ba
00000160: 8d64 89ba 1aef a439 83d0 c83a 2566 8a39
00000170: fb08 02bb f89a 723a aa2f b639 5199 19bb
00000180: 6479 4f3a dfe3 f93a 6c3c 27ba f8cb eeba
00000190: 5677 87b9 770b 123a 0641 ac39 d8bf ddb9
000001a0: 1f97 78ba 71c4 543b 3c78 ef3a a3ef 21b9
000001b0: 8605 e439 0943 a839 c145 6a3b 5530 003a
000001c0: f6ca beba 8296 6839 4592 353a 0caf 1f3a
000001d0: eacf d639 076c dab6 978d 8e3a 226a 50ba
000001e0: cd7c bdb9 daf7 bfb6 e359 72ba fd58 0abb
000001f0: 095b 9239 6af0 46b9 1d29 17b9 e3c4 c5ba
00000200: 3f25 19ba 8d1f 0fbb e9d2 d3b8 3ee7 ddb7
00000210: b152 77bb 6166 b63a 3379 e9b9 cf1e 06bb
00000220: acf3 c9ba 7c4a 143b 51a0 dfb8 3bdf 3c3a
00000230: 5bb1 2db9 0c21 1139 e14d 263a 8527 a239
00000240: 1b88 bf39 e82e 9eba 0f25 8c39 7e83 0f3a
00000250: 42fa 50ba 56e0 3d3a 03e8 7eba 15fe 43ba
00000260: 2656 3f38 6103 383a 27ec f8b9 3ca7 9aba
00000270: 08fe c93a 75f7 f238 2706 a0ba 5853 b43a
0.0002690479 8.1770566e-05 0.0006529144 -0.0013466666 0.0007971477 -0.00015583712 -0.00015523261 -0.00052305945
0.0007258973 -0.00021509409 0.00087960245 0.0005247156 -0.0014263524 -0.000715245 -0.00018821587 -0.00078325806
-0.0013867613 0.00048584136 0.0008141853 0.00051631784 4.8183715e-06 0.00017486027 0.001953912 -0.00049181574
-0.0004220714 -0.0011305562 0.003335521 0.00032680813 0.000984616 0.0014786872 0.0009605473 7.394141e-05
-0.0020792435 -0.00032140198 0.0007302623 -0.00078223035 0.0005549127 0.00039548468 -0.0011167835 4.2559397e-05
0.00066432805 -0.000621499 -0.00079045934 0.0010172502 -1.742206e-05 -0.0007620781 0.00026601748 0.0011161417
0.00016157853 -0.00060708413 -0.00023905195 -0.0012369407 -0.00010840426 1.3083269e-05 0.001358903 -0.0011094586
0.00070590625 -0.00023791265 0.0004071293 -0.0017691747 -0.00059667794 0.0016316591 -5.9028557e-06 0.00131449
5.8333553e-05 -0.0008051771 0.0006821547 0.00075797027 -0.0008970777 -0.0006369521 0.0025019466 -0.0007188089
4.6387835e-05 0.0008565884 -0.0033749214 0.0011131745 6.6997934e-05 0.0019582151 -0.0020566783 -0.0015110198
0.0010070602 0.0016603525 0.0010798132 0.0003063252 -0.0017250978 0.00034476136 -0.00013595373 -0.0011050461
-0.0010482237 0.00031458662 0.001532093 0.00026397515 -0.0019841779 0.00092546595 0.00034749258 -0.002343733
0.0007914512 0.0019065103 -0.0006379548 -0.0018218746 -0.0002583812 0.00055711664 0.00032854843 -0.0004229534
-0.0009482968 0.003246572 0.0018270086 -0.00015443428 0.00043491664 0.00032093402 0.0035747143 0.00048900145
-0.0014556337 0.00022181313 0.0006926398 0.00060914527 0.0004097217 -6.5094823e-06 0.0010875937 -0.00079503853
-0.00036141873 -5.7210973e-06 -0.00092449615 -0.002111017 0.00027915117 -0.00018972313 -0.00014415798 -0.0015088584
-0.0005842037 -0.0021838874 -0.00010100549 -2.6452934e-05 -0.0037738497 0.0013916009 -0.00044531524 -0.002046514
-0.0015407703 0.0022627404 -0.0001066333 0.0007204895 -0.00016564636 0.00013840589 0.00063440023 0.00030928492
0.00036531765 -0.0012068423 0.00026730492 0.0005474611 -0.00079718616 0.00072432065 -0.00097239035 -0.0007476521
4.561818e-05 0.00070195465 -0.00047478193 -0.0011799107 0.001541079 0.00011585552 -0.0012208865 0.0013757749

layers.0.egnn.node_mlp.0.bias f4 [8]
00000000: be15 453b 27a2 2dbd eb71 463e bb0f 313e
00000010: d339 56be 8fd0 6fbd 04ad 12be db0a 073e
0.0030072774 -0.04239097 0.19379394 0.17291157 -0.20920496 -0.058548506 -0.14323813 0.13187735

layers.0.egnn.node_mlp.3.weight f4 [4, 8]
00000000: d3be 683a 33f4 a2ba d209 e63a 3ffc 01bb
00000010: 0574 093b 6c9d cd37 3ba4 02ba be9c 6839
00000020: 72f8 bb3a 05d9 333a 0a15 d8ba 0cd1 05ba
00000030: e7e7 8fba 68c2 743a c96c 2d3a cdb5 2b3a
00000040: e952 883a 2e77 ac39 ef16 5e3a 3abf 683a
00000050: 48af 7fb9 2242 f7b9 c914 683a a92f 1f3a
00000060: 3b4c 14bb 7cb2 fb39 7d33 e139 0ef6 1fb9
00000070: 452a 88ba 9956 9b3a 2391 7837 d0d7 c63a
0.00088785327 -0.0012432396 0.0017550534 -0.0019834188 0.0020973694 2.451121e-05 -0.00049835787 0.00022183635
0.001434101 0.00068606465 -0.0016485762 -0.0005104698 -0.0010979146 0.000933683 0.00066156365 0.0006550223
0.0010400686 0.00032895192 0.00084720453 0.00088785926 -0.00024383992 -0.00047160784 0.0008853195 0.00060724706
-0.0022628445 0.00048007432 0.00042953706 -0.00015255084 -0.0010388574 0.001185137 1.4815744e-05 0.0015170518

layers.0.egnn.node_mlp.3.bias f4 [4]
00000000: be70 3fbe 2e9b 0abe 6cfb d23d a005 803d
-0.18695351 -0.13535759 0.10301861 0.06251073

layers.0.egnn.coors_mlp.0.weight f4 [64, 16]
00000000: ccc0 47bd 5b4f 773d cfb8 673d 1a10 69bd
00000010: 12d7 3b3d b0b0 493d aadc 75bd e6ba 443d
00000020: 5c9c 3a3d 0d3c 563d 3a3b 8b3d 9114 53bd
00000030: 6789 523d 35ae 543d 630f 42bd 70f1 573d
00000040: 458d 463d b1ad 78bd acf3 69bd 99ab 5f3d
00000050: d417 44bd cb4d 56bd d83b 693d d110 48bd
00000060: 695b 48bd 3585 64bd 3e7d 89bd d46c 483d
00000070: cb75 5bbd 2260 59bd 5c0c 403d 9391 60bd
00000080: fef0 3f3d 5b6d 77bd 4f97 64bd 5911 5a3d
00000090: d00c 43bd 8941 4fbd 8c5d 673d ca41 47bd
000000a0: 6904 42bd 720d 53bd 055a 8bbd f14a 493d
000000b0: eac4 57bd aac9 55bd be4e 373d ea60 56bd
000000c0: 98e4 4ebd 6fb6 7c3d 6820 6b3d 2a3b 70bd
000000d0: 17fb 3a3d d3ba 4d3d 38b6 7bbd f13b 443d
000000e0: 92de 3f3d 2fa8 5f3d ce1b 8c3d 9d8e 59bd
000000f0: f366 5a3d 7211 523d da7b 45bd be11 5c3d
00000100: 6014 4cbd b73a 7a3d 03ed 693d c62f 77bd
00000110: b83f 413d 0c28 4a3d 529c 7dbd 8c84 463d
00000120: 3802 403d 6094 573d 25fd 8c3d e0a7 51bd
00000130: 4f3b 603d 1fa9 583d 4150 40bd 4a5b 633d
00000140: a9a3 473d 2112 7bbd 752d 67bd 2f27 5e3d
00000150: 51a8 44bd d70c 5abd 6a9c 5c3d 5f7a 4cbd
00000160: 4133 4bbd 361e 56bd de48 89bd 1aba 463d
00000170: 22e0 5cbd 7d04 5ebd 603a 383d e16f 5ebd
00000180: cf83 403d c208 77bd febe 67bd 2e0a 5a3d
00000190: b6a3 49bd fe76 4dbd 4c54 623d d29a 43bd
000001a0: 4e33 41bd 3999 5cbd fcad 85bd a355 413d
000001b0: 8a93 61bd 34c1 53bd b56a 403d c207 5fbd
000001c0: 41a5 453d 4051 7fbd 3367 6cbd bdc5 603d
000001d0: e9e1 4dbd 50a5 55bd 4e67 663d 427e 4fbd
000001e0: fdb6 44bd c2fe 5dbd 206c 8dbd 5ce5 483d
000001f0: b3af 62bd 7c15 65bd 714a 443d 02ea 64bd
00000200: b2b2 483d 0436 74bd 9c2a 69bd 58fe 533d
00000210: b46d 3fbd dc65 49bd 2e77 653d dbf9 4dbd
00000220: 740b 3abd acc3 55bd ccc2 84bd 1588 453d
00000230: 7551 5bbd 909b 53bd 87c7 403d 07f3 54bd
00000240: d19e 483d 2c97 7abd ccae 6dbd 6819 5c3d
00000250: 7a06 47bd b489 56bd fa1c 653d c8a2 4dbd
00000260: c240 44bd b162 58bd bf58 8abd d49d 4e3d
00000270: 3018 5dbd 15fc 52bd 3529 413d 1c2d 5abd
00000280: 6c03 403d 888f 76bd 702f 6bbd d174 5b3d
00000290: 8fbc 49bd 644f 4dbd 2407 6a3d 22a4 4fbd
000002a0: bded 45bd 921e 59bd 825f 87bd 091a 4c3d
000002b0: 8662 69bd f7e2 5abd 69d9 423d 5111 5dbd
000002c0: b466 40bd 1a8a 7d3d 91f4 623d a092 6cbd
000002d0: d2ce 3d3d 4b2f 3e3d 1d0f 75bd 3c2e 423d
000002e0: 1ce3 363d 98f8 503d 3646 8c3d 1c78 4ebd
000002f0: dc8f 523d 2e80 4d3d 4405 43bd 5a3a 593d
00000300: a462 3e3d 7839 73bd 5d5d 63bd 737a 513d
00000310: bf0a 3bbd 1466 48bd 11d9 673d db79 42bd
00000320: 2a99 3fbd 2ffc 4dbd 1273 8abd c3ed 3f3d
00000330: 147b 59bd 8df2 4ebd 31d3 383d f31e 5abd
00000340: b0ce 48bd 37a4 6d3d cedd 5d3d 4d61 6abd
00000350: e44d 3c3d 6ada 4b3d 265e 6abd 1336 3d3d
00000360: ae83 393d 64b4 503d 471a 863d 8d8c 47bd
00000370: c72c 593d 13cc 4d3d 1e23 39bd a183 4b3d
00000380: b79b 433d 7fd1 7ebd 5e90 6ebd 038b 603d
00000390: f06d 4dbd 902f 4abd 41b5 6c3d e580 4bbd
000003a0: e234 42bd 7477 5bbd b722 89bd 79fe 453d
000003b0: e0ac 5fbd c5eb 58bd 49ce 423d 31ea 60bd
000003c0: 57de 50bd 5f7a 693d 4c62 693d 0ed2 6dbd
000003d0: d7c8 383d b999 483d fd6e 79bd e8bb 4a3d
000003e0: 774f 373d 99b4 553d 876a 893d 1542 54bd
000003f0: 64f9 5b3d 5be0 4e3d 7f41 37bd 28a0 603d
-0.04876785 0.060378414 0.05657273 -0.05690012 0.045859404 0.049240768 -0.060024895 0.048029803
0.045559272 0.052303363 0.06798406 -0.051533286 0.05140057 0.05192395 -0.047377955 0.052720487
0.04847457 -0.06071252 -0.05711715 0.054607008 -0.047874287 -0.052320283 0.056941837 -0.048844162
-0.0489153 -0.0557911 -0.06713341 0.04893191 -0.053579133 -0.053070195 0.046886787 -0.05482633
0.046860687 -0.060407024 -0.05580836 0.0532392 -0.04761964 -0.05059961 0.056485698 -0.048646726
-0.047367487 -0.051526494 -0.06804279 0.049143735 -0.052678026 -0.052194275 0.04475283 -0.05233852
-0.050510973 0.06169742 0.057403952 -0.058650173 0.045649614 0.050226998 -0.061453074 0.047908727
0.04684312 0.05460375 0.06841241 -0.053114522 0.053320836 0.05128617 -0.048213817 0.053727858
-0.04982412 0.06109115 0.057110798 -0.060348295 0.047179908 0.049354598 -0.061916657 0.04846625
0.046877116 0.052631736 0.06884221 -0.05118549 0.05474406 0.05289566 -0.046951536 0.055506982
0.048740063 -0.061296586 -0.056439836 0.054236587 -0.04801208 -0.0532349 0.053860106 -0.04992139
-0.049609426 -0.052274905 -0.067033514 0.048517324 -0.053924687 -0.0542035 0.044977546 -0.054305915
0.047000702 -0.060311086 -0.05657863 0.053232364 -0.049228393 -0.050162308 0.055256173 -0.04775507
-0.04716807 -0.053857062 -0.065273255 0.04720081 -0.055072345 -0.051697925 0.046976764 -0.054450758
0.0482533 -0.062333345 -0.057715606 0.054876078 -0.050264273 -0.052159607 0.056250863 -0.05065752
-0.048026074 -0.054198034 -0.06905389 0.04904686 -0.05534334 -0.055928692 0.047922555 -0.05588723
0.048998542 -0.059621826 -0.0569254 0.051756233 -0.04673548 -0.049169406 0.05602186 -0.05028711
-0.04542108 -0.05218856 -0.06482467 0.04822548 -0.05354448 -0.051662028 0.047065284 -0.05198958
0.048979584 -0.061179325 -0.058028027 0.053735167 -0.04859016 -0.052377418 0.055935837 -0.05020407
-0.04791332 -0.052828494 -0.06755208 0.050443485 -0.053978145 -0.051509935 0.04715844 -0.053265676
0.046878263 -0.060195476 -0.057418287 0.0535782 -0.04925209 -0.05012454 0.057135716 -0.05069364
-0.048322428 -0.05300767 -0.066100135 0.049829517 -0.056978725 -0.053439107 0.04757062 -0.053971592
-0.046972945 0.061899282 0.055409018 -0.05775702 0.046339817 0.04643182 -0.059828866 0.047407374
0.044650182 0.051018327 0.06849329 -0.050407514 0.051406726 0.05017107 -0.047612444 0.053034164
0.04648079 -0.05938098 -0.05550896 0.051142167 -0.045664545 -0.048925474 0.056603495 -0.04747949
-0.046776928 -0.05028933 -0.06760229 0.046857607 -0.053095892 -0.050524283 0.045123283 -0.05325217
-0.049025238 0.058017936 0.054166608 -0.0572217 0.04597272 0.049768843 -0.057218693 0.046194147
0.045291595 0.050953284 0.06547981 -0.048718024 0.05302122 0.05024345 -0.045199506 0.049686078
0.047755923 -0.06221151 -0.058243148 0.054820072 -0.050153673 -0.049361765 0.057790045 -0.04968347
-0.047413714 -0.053580716 -0.066960745 0.048338387 -0.054608226 -0.052959222 0.04756001 -0.054910842
-0.05099329 0.057001468 0.05697851 -0.058061652 0.04511341 0.048974726 -0.060896862 0.049495608
0.044753518 0.052174184 0.067097716 -0.051820833 0.053704634 0.05050693 -0.044740196 0.054840237

layers.0.egnn.coors_mlp.0.bias f4 [64]
00000000: cba9 20be 60b4 393e e668 463e b42d 6bbe
00000010: 1ba3 01be c096 393d bf9b 3b3e 47e0 7d3d
00000020: 0f8f 303e f2dd f13d 25b2 703e f857 6cbe
00000030: 35e2 6e3e 523e 26bd ad9b 503e 3ec9 36be
00000040: 736d 183e da43 a9bd 738f 493e 3497 54bd
00000050: ec21 ad3d ce56 0ebe f0d2 92be 8fd3 4bbe
00000060: e141 b43d 3670 a4bd 5df2 89be af28 46be
00000070: 156c 2d3e 5567 c83d 7af5 613e b37c 3b3e
00000080: ae18 d5bd d14d 9a3d d9f5 753e 445f 52be
00000090: 6372 4a3e b32b 883e 2c68 163e f1e0 8e3e
000000a0: 8933 683e 3204 f13d e320 48be 591b 083e
000000b0: 4250 c83d 3ce2 58be 7f0f 3fbe a2c6 88be
000000c0: 8ce3 6cbe 37fd 68be be46 1cbe 45a8 3ebd
000000d0: 9619 33be 633a 903d d684 14be b5f1 2dbe
000000e0: 362f 3d3e 1fc9 07be ef66 a3bd 37c7 7a3e
000000f0: 7b65 a43d 6858 8c3d 10f6 f03d 7ca9 133e
-0.15689771 0.18135214 0.19375953 -0.22966653 -0.12659876 0.045309782 0.18321131 0.061981466
0.17242073 0.11809911 0.23505457 -0.23080432 0.23328479 -0.040586777 0.20371886 -0.17850205
0.14885502 -0.08264895 0.19683628 -0.05190201 0.08453736 -0.13900301 -0.28676558 -0.19904922
0.08801628 -0.08029215 -0.2694272 -0.19351457 0.16935761 0.09785334 0.22066298 0.18309288
-0.10405098 0.075343736 0.24019565 -0.20544153 0.19770198 0.2659584 0.14688176 0.27905992
0.22675909 0.11768378 -0.19543795 0.13291682 0.09780933 -0.21180052 -0.18658255 -0.26714045
-0.23133677 -0.22752844 -0.15261361 -0.046547193 -0.17490229 0.070423864 -0.14503798 -0.16986735
0.18475041 -0.13260315 -0.079786174 0.24490057 0.08027168 0.068528 0.11765683 0.14420122

layers.0.egnn.coors_mlp.3.weight f4 [1, 64]
00000000: 4cdf ec3c 7694 f9bc 6aa0 fabc 3691 e53c
00000010: e436 003d a73f 48bd 936d efbc d6cc 29bd
00000020: b9b4 ffbc b53c 04bd d566 edbc 0f50 de3c
00000030: 29ad f7bc d628 4c3d a701 f4bc 2fd9 e83c
00000040: 045b 02bd 727b 0d3d 9b3d f6bc 942e 2d3d
00000050: abe4 13bd 40aa ff3c 1786 e63c 07a3 f43c
00000060: f16b 0fbd 5580 0d3d c6b1 e33c 316d ee3c
00000070: 88bb f5bc 5039 0bbd 887f e6bc 11f6 f5bc
00000080: ea70 0a3d 2593 1bbd 86c0 efbc 0dbe de3c
00000090: 4907 f5bc c8d7 edbc 0869 01bd 75be e0bc
000000a0: c059 e3bc 32e7 03bd 4bd3 e83c b40e 08bd
000000b0: be0b 11bd f875 ef3c d2e9 eb3c 7cd1 e83c
000000c0: a783 e43c a53f e73c 4164 f73c 34a2 393d
000000d0: c830 f73c 86f9 1dbd 4d62 f93c 1275 e93c
000000e0: 47d6 f7bc bcdc fd3c ee97 103d bb25 e9bc
000000f0: b1eb 15bd 4f38 21bd e5cc 09bd 5ed8 02bd
0.02891507 -0.0304663 -0.03059407 0.028023344 0.031302348 -0.04888883 -0.029227054 -0.041455112
-0.031214105 -0.032284457 -0.028979698 0.027137784 -0.030233936 0.04984363 -0.029785944 0.028423874
-0.03182508 0.034541555 -0.030058673 0.04228075 -0.036106747 0.031209111 0.02814011 0.029862894
-0.03501505 0.034546215 0.02779473 0.0291048 -0.029996648 -0.033990204 -0.028136984 -0.03002456
0.03379909 -0.037982125 -0.029266607 0.027190233 -0.0299107 -0.029033557 -0.031594306 -0.027434567
-0.027752757 -0.032202907 0.028421065 -0.033217147 -0.03541159 0.029231057 0.028798018 0.028420202
0.027894808 0.02822859 0.030199172 0.045320705 0.030174628 -0.038568042 0.030442381 0.028498206
-0.030253543 0.030989043 0.03530114 -0.028460374 -0.036601726 -0.03936034 -0.03364267 -0.031944625

layers.0.egnn.vel_mlp.0.weight f4 [16, 4]
00000000: 4f64 2ab9 4406 1f3a 2d97 9d3a 57c8 f539
00000010: 517c 8cba ce2a 983b 7d3e 453b d512 4eba
00000020: 8e00 a139 0d58 50ba 64b3 273a 4198 beb9
00000030: d000 ad3a d83c 873b 9e8c 9c3b 94c4 be3a
00000040: 821a da39 ee06 f43a 1a03 cc3a 2f4d 443a
00000050: 54ce a63a b08d bfbb 77b8 6cbb 7d24 853a
00000060: d2d0 b739 e822 e4b8 7afc 653a bc11 6439
00000070: 7261 91ba 0d70 68bb f607 91bb 949e 8dba
00000080: fedb d839 82ec 8cb9 68db 053a e33a 4b39
00000090: b58b 4eba 5b0e ed39 b992 983a 227e bdb9
000000a0: c03b 5a39 75f9 90bb 0223 40bb 6390 c638
000000b0: cde4 753a d8e1 0e3b cdee 4e3b e2d5 e439
000000c0: 588d 0b3a c54b 7ab9 bf75 2b3a 5192 9839
000000d0: 9ce2 dd39 03ed 00ba 0d5b 913a f102 26b9
000000e0: 83fd 183a 8fee a7bb ce3f 75bb c4ae 2a3a
000000f0: 06aa 27b9 2f17 8839 06e4 e938 3ac5 e139
-0.00016249831 0.00060663023 0.0012023203 0.00046879306 -0.0010718202 0.0046437746 0.003009706 -0.00078610826
0.00030708726 -0.0007947691 0.0006397276 -0.00036353062 0.0013199095 0.004127126 0.004777505 0.0014554434
0.0004159995 0.0018617788 0.0015564889 0.0007488308 0.0012726285 -0.005845748 -0.0036120692 0.0010157969
0.00035060063 -0.00010878389 0.00087732787 0.00021750381 -0.0011091663 -0.0035467178 -0.004425998 -0.0010804706
0.00041362637 -0.00026879093 0.00051062414 0.00019381526 -0.00078790943 0.00045214858 0.0011640406 -0.00036142865
0.00020812359 -0.004424269 -0.0029317741 9.46827e-05 0.0009380102 0.0021802094 0.0031575442 0.00043646904
0.0005323491 -0.00023870084 0.0006540678 0.00029100713 0.00042321242 -0.000491813 0.0011089757 -0.0001583209
0.0005836116 -0.005124874 -0.0037422064 0.00065110275 -0.000159897 0.00025957215 0.000111527785 0.0004306229

layers.0.egnn.vel_mlp.0.bias f4 [16]
00000000: 3ce5 89be b97d eabe a846 c7be e9b3 da3d
00000010: c1ee a33d df43 68be 9f7f 01bf 8849 b5be
00000020: 482b e7bd 99cf 57bd 63ae 703d 3afa c13e
00000030: 0548 1c3e 8dea cbbe 9436 6fbe c6d3 07be
-0.26932704 -0.45799044 -0.38921094 0.106788464 0.08004523 -0.22682141 -0.5058536 -0.35407662
-0.11287552 -0.052688215 0.058760058 0.3788622 0.15261848 -0.39827386 -0.23360664 -0.13264379

layers.0.egnn.vel_mlp.3.weight f4 [1, 16]
00000000: 2d80 1b39 10ff aaba 2db7 ab38 84ad b9ba
00000010: 1108 ceb9 7aad 103b bb6f 7a37 6179 9b3a
00000020: 0b30 88b7 054f 9a38 778e ae3a 23aa 29ba
00000030: afec 6cb8 485b 0138 939f c73a b0ab fb38
0.00014829701 -0.0013045985 8.1880346e-05 -0.0014166092 -0.00039297392 0.0022076056 1.49271755e-05 0.0011861735
-1.6234835e-05 7.358011e-05 0.0013317604 -0.0006472191 -5.6487213e-05 3.084101e-05 0.0015230052 0.00012000592

layers.1.egnn.edge_mlp.0.weight f4 [20, 10]
00000000: 7ef6 28bd 2f1e 0d3d 5ca3 26bd 2dc2 20bd
00000010: 8521 0bbd 2085 193d 9508 1cbd c112 16bd
00000020: e79a 1dbd d3f2 3dbd 816f 183d 2373 e2bc
00000030: 2d34 173d bba1 073d 2be4 f53c 246c 0dbd
00000040: be87 0d3d ff70 103d 7916 1f3d fb6d 2f3d
00000050: 3819 103d 8c74 f6bc 5b0f 123d 385c 143d
00000060: 8185 fa3c 7af7 0abd 11c0 0a3d 70d9 063d
00000070: fa9e 213d fabd 303d bcac 1a3d b54f efbc
00000080: 0263 0a3d 54dc 033d d015 fd3c 6b85 04bd
00000090: 3f5f 0b3d 7af1 0c3d 9095 1f3d c2bc 283d
000000a0: 646b 22bd a74d 063d 913a 23bd 9e6b 1bbd
000000b0: 283e 0abd 2ca8 1e3d 7314 1abd 9afb 17bd
000000c0: 737f 16bd a6ce 38bd 1f43 103d 1765 ecbc
000000d0: 396a 123d 1749 053d 9b29 023d 56f1 0ebd
000000e0: 95cd 0c3d 6075 083d 755a 213d 9a39 2c3d
000000f0: e064 0c3d b15f ebbc 3bb2 0b3d 3fc3 053d
00000100: 0c12 013d 3c72 04bd cb19 0c3d 94e1 043d
00000110: 4575 233d 6560 2e3d ff56 113d 165f f4bc
00000120: e30c 163d 4eda 0f3d 18ec fc3c 1243 0ebd
00000130: 0a62 0e3d 022e 0d3d b3ed 1d3d ecde 333d
00000140: 1f6a 22bd 22bc 0d3d c775 22bd b3d7 1bbd
00000150: 125d 06bd 58ce 1c3d 27d4 21bd 6fb1 18bd
00000160: 601b 19bd 2854 40bd a12c 123d e29c e8bc
00000170: 5a56 093d 2fff 043d 74d1 f63c e933 08bd
00000180: 8346 083d 0e36 013d 8082 253d e4b2 313d
00000190: 1a7b 0a3d 5298 fcbc 8d01 0a3d a895 023d
000001a0: a2ee f63c f8b2 08bd 372b 063d f621 053d
000001b0: 7a1b 163d 22d9 2b3d 25e0 20bd a2ac 063d
000001c0: b88a 1ebd c499 1cbd 53e8 08bd 2509 183d
000001d0: a0af 15bd 7aad 15bd cb35 26bd c46f 3ebd
000001e0: 4819 1ebd aa22 073d c747 1dbd b5f8 1bbd
000001f0: 4d88 05bd e02e 173d edcc 15bd fe9b 17bd
00000200: ecd3 18bd cc17 3ebd b57d 20bd 78d8 0f3d
00000210: 0d33 20bd d2e4 1bbd a9fc 09bd 9458 1a3d
00000220: 16de 16bd 4b34 17bd f393 1cbd f135 3cbd
00000230: ab60 20bd 9498 0d3d 2ce4 21bd c8d6 1cbd
00000240: 0595 09bd 39d0 163d 17fd 1cbd be4b 16bd
00000250: 4409 18bd b9f5 3ebd c08b 22bd f3a6 0d3d
00000260: e877 1ebd a923 14bd a815 0dbd 0014 1f3d
00000270: 2a76 13bd 3c7c 19bd 6401 25bd 7c5e 3cbd
00000280: b1c6 0d3d 90c4 ebbc 4746 0c3d 9350 053d
00000290: f3e7 ed3c c6a3 13bd 5315 073d eec6 073d
000002a0: de0c 213d 8d30 2d3d d36e 0c3d 6220 f6bc
000002b0: 4cab 0d3d e118 0a3d 48ee 013d 2608 06bd
000002c0: 2db2 0b3d 1e4b 083d 9d89 223d de05 333d
000002d0: 2a3b 0b3d 8e58 edbc 1cc1 0d3d cd1b 033d
000002e0: ab9e fe3c c07e 02bd a581 033d 881b 093d
000002f0: b009 243d a93a 263d d5ed 0f3d 3e5e e8bc
00000300: bdf7 083d 6c43 053d e5d1 f53c 2b2f 0abd
00000310: 4d92 073d 37e8 073d a4d1 213d 5769 2e3d
-0.0412507 0.034452613 -0.040683135 -0.03924768 -0.033967514 0.037480474 -0.038094122 -0.03663898
-0.038477805 -0.046374153 0.037215713 -0.027642792 0.036914993 0.033113223 0.030016026 -0.03452696
0.034553282 0.03526401 0.03883979 0.042829495 0.0351803 -0.03008487 0.035659175 0.03622076
0.030581238 -0.03392742 0.033874575 0.03292221 0.039458252 0.043149926 0.03776239 -0.029212812
0.033785827 0.032192543 0.03089419 -0.0323538 0.03402638 0.034409977 0.038960993 0.04119564
-0.039653197 0.0327889 -0.039850775 -0.03794443 -0.033750683 0.0387346 -0.03761716 -0.03710518
-0.03674264 -0.04511895 0.03522026 -0.028856797 0.035745833 0.032540407 0.03177796 -0.034898125
0.034375746 0.033315063 0.039392907 0.04204712 0.03427589 -0.028732153 0.03410552 0.032656904
0.03151135 -0.032335505 0.034204286 0.03244169 0.03990676 0.042572398 0.035483357 -0.029830497
0.036633383 0.0351203 0.030874297 -0.034731932 0.034761466 0.034467705 0.038556766 0.043913767
-0.039651986 0.034603246 -0.039663102 -0.038047504 -0.032803603 0.038282722 -0.039508965 -0.03727859
-0.037379622 -0.046955258 0.035687093 -0.02839512 0.033529617 0.032469925 0.030129172 -0.03325263
0.03327037 0.03154569 0.040407658 0.043383494 0.033808805 -0.03083435 0.033692885 0.031881005
0.030143086 -0.033373803 0.032756057 0.03250309 0.036647297 0.04195512 -0.03927626 0.03287948
-0.03870651 -0.03823258 -0.033424687 0.037118096 -0.036544442 -0.036542393 -0.040578645 -0.046493307
-0.03859833 0.032992043 -0.03839853 -0.038078982 -0.03260069 0.036909938 -0.036572386 -0.037014
-0.03731148 -0.046409413 -0.039182384 0.03511855 -0.039111186 -0.038060017 -0.03368822 0.03768213
-0.03683289 -0.036915105 -0.038227033 -0.04594988 -0.03915469 0.034569338 -0.039524242 -0.03829077
-0.03358938 0.03681967 -0.038327303 -0.036693327 -0.03711821 -0.046621058 -0.039684057 0.034583043
-0.03868857 -0.03616682 -0.03444448 0.038837433 -0.036001362 -0.037471995 -0.04028453 -0.045988545
0.034613315 -0.028780252 0.03424671 0.032547545 0.029041266 -0.03604486 0.03297932 0.0331487
0.03931891 0.04228263 0.034285378 -0.030044738 0.03458719 0.033715133 0.031721383 -0.032722615
0.03410547 0.033274762 0.03968202 0.043706767 0.03399197 -0.02897289 0.03460799 0.032008935
0.031081518 -0.03185916 0.03210606 0.03347352 0.0400483 0.040583286 0.035138924 -0.02836525
0.033439387 0.032535 0.030007312 -0.03373639 0.033098508 0.03318044 0.03950657 0.04258093

layers.1.egnn.edge_mlp.0.bias f4 [20]
00000000: d302 3fbe 5178 843e adf5 b53e 0664 0f3e
00000010: 78b3 78be 9905 f83d e703 203e 36e9 a53e
00000020: c83a 9abe c434 1b3e 24cb 073e dd34 1dbe
00000030: 28f3 2fbe 5660 5fbe 2a67 8dbe d533 1bbe
00000040: 82ce 303e 2b9c 803e 39bb 1b3e d100 ac3d
-0.18653421 0.25873044 0.35538998 0.14003 -0.24287212 0.12110443 0.15626489 0.32404488
-0.30122972 0.15156847 0.13261086 -0.15352197 -0.171826 -0.21814093 -0.2761777 -0.15156491
0.17266276 0.25119147 0.15208139 0.08398593

layers.1.egnn.edge_mlp.3.weight f4 [16, 20]
00000000: 31b7 263d cc69 1dbd 80c8 20bd 4fde 16bd
00000010: c9d1 233d 4a88 1abd 333e 18bd 7909 1bbd
00000020: 2f69 223d 5dbe 20bd 3e75 18bd 5010 1e3d
00000030: b196 1b3d 76c7 203d bf2c 233d e13b 213d
00000040: de11 17bd 1139 15bd 1919 19bd a0ec 20bd
00000050: 4d9b 26bd e350 1d3d 8830 223d 8526 1e3d
00000060: c1ca 2bbd b8cd 1b3d 73ff 143d 059d 1d3d
00000070: cabf 28bd adf2 1b3d a597 193d 24d9 23bd
00000080: d8ae 22bd 7ebe 1abd bcc3 22bd 0b47 25bd
00000090: f3a0 1e3d e094 1d3d 2ae2 1c3d 55f3 183d
000000a0: a0b5 1f3d edcd 1ebd 9724 1ebd 1399 18bd
000000b0: f427 253d 5367 16bd d903 22bd d592 23bd
000000c0: 02b2 203d f51b 1fbd 28d9 1dbd 3988 253d
000000d0: 017c 243d 1511 233d 5223 1d3d 66dd 273d
000000e0: a5df 1abd 7da1 21bd 5296 1dbd 8812 20bd
000000f0: 360a 20bd 0fc8 173d 3891 193d d7a3 183d
00000100: 7274 1cbd 2d4b 163d c234 1c3d 6b75 183d
00000110: 699e 1ebd 3f17 1e3d 3c3b 1b3d 04d5 19bd
00000120: 4aa2 1cbd ec18 26bd 7883 1ebd b03d 1cbd
00000130: 51d2 173d 48b3 1b3d 7274 1d3d 63c6 243d
00000140: be28 26bd be00 173d 4e1a 213d 9fb9 1b3d
00000150: 2392 22bd 8e18 233d 2101 173d e1f3 203d
00000160: beb0 27bd 1550 1e3d bd1c 203d 5cda 21bd
00000170: e6e2 27bd 4694 1ebd cd93 24bd 2441 24bd
00000180: 76a9 1d3d f1df 1b3d 8698 123d 271e 183d
00000190: 431f 1b3d 1c73 20bd 5ccb 1dbd 9adf 25bd
000001a0: 2b69 1f3d be87 24bd 217b 1fbd 9c0d 1fbd
000001b0: 1772 233d d868 1fbd 8699 17bd 3b4e 1d3d
000001c0: f04c 1e3d 7838 1f3d 4371 1b3d f139 1e3d
000001d0: fc17 1ebd c1f9 1fbd 0bc4 19bd db18 15bd
000001e0: e06e 25bd f613 253d 549c 163d 671a 183d
000001f0: 4256 20bd 1591 1f3d 4f9b 1e3d cc1b 223d
00000200: cdfc 20bd 284d 1a3d 016f 163d 2387 28bd
00000210: 3d47 1ebd 0bf3 24bd 128e 21bd 1d13 21bd
00000220: 1ef6 1a3d 5333 203d ff58 193d 28ec 1e3d
00000230: 7e1f 273d d99f 1abd f506 1bbd 8d11 21bd
00000240: a14c 283d 8469 18bd d504 15bd 1bf4 20bd
00000250: f6b4 1f3d 0bfc 1ebd 5ad1 19bd 49e9 253d
00000260: 9a5e 243d 63e7 283d 8409 2b3d 7d4a 263d
00000270: e0a0 20bd b3a3 1dbd 8574 1cbd c1a0 20bd
00000280: 0d24 20bd 40af 1a3d 46da 153d 1c0f 193d
00000290: 237f 21bd 2a18 183d cd81 1e3d 6fc3 1d3d
000002a0: 6d09 21bd 90a4 193d 5dcc 153d f245 29bd
000002b0: b658 1bbd 76ea 1ebd a523 21bd 459a 17bd
000002c0: 7db4 133d d719 1c3d 0061 1d3d 3eb4 1f3d
000002d0: db99 2e3d e94f 27bd 7a28 1abd 2a67 16bd
000002e0: 66f9 1c3d 5350 21bd fc3f 18bd 95e1 1dbd
000002f0: 93e9 213d 8499 21bd 64c2 1cbd 11a3 1f3d
00000300: 049f 243d 02c8 243d 1cfa 283d d8b9 243d
00000310: 2c27 18bd e383 1bbd 3319 20bd d1d2 1cbd
00000320: 1b28 293d 5aa0 23bd 7428 1dbd 4df6 1fbd
00000330: 52d7 273d 12be 1cbd 00d9 16bd 9289 1abd
00000340: 2d43 213d 9c58 1cbd 908c 19bd ae6d 243d
00000350: eb81 1a3d 8a6a 283d c1ad 1c3d 3c0e 243d
00000360: 872a 20bd 4fb0 22bd 8b58 1fbd 84e5 16bd
00000370: 1614 193d 99f6 18bd cc7e 1abd 1df7 1abd
00000380: 5eb5 213d 4fa3 14bd 8479 1bbd dcf6 1cbd
00000390: 086d 1e3d b078 13bd 768f 1abd 6b7d 203d
000003a0: ef04 253d d8e7 203d 5790 193d 9ae0 253d
000003b0: 2c14 1fbd e264 1bbd 1b96 17bd 70f5 16bd
000003c0: 9ec8 21bd aebb 223d 8fb1 1b3d 3a68 163d
000003d0: f6b2 1ebd 0f4b 1d3d 2a85 1a3d 36cd 1f3d
000003e0: e37e 28bd ff13 223d e3e5 1a3d bb3b 24bd
000003f0: fd84 1abd a7bf 19bd 8f55 22bd af55 1bbd
0.04070205 -0.038430974 -0.03925371 -0.036833104 0.03999499 -0.03772763 -0.037168693 -0.03785083
0.039651092 -0.039244045 -0.037221186 0.038589776 0.037985507 0.03925272 0.039837595 0.039363746
-0.036882274 -0.036431376 -0.03737745 -0.039288163 -0.04067545 0.038407218 0.039597064 0.038610954
-0.041941408 0.038037986 0.036376428 0.038479824 -0.04119853 0.03807323 0.037498135 -0.040002003
-0.039717525 -0.037779324 -0.039737448 -0.040350955 0.038727712 0.038472056 0.038301624 0.037341435
0.03899157 -0.038770605 -0.038609114 -0.037255358 0.040321305 -0.03671963 -0.03955445 -0.03993495
0.03923226 -0.03884502 -0.038537174 0.040413115 0.04015732 0.039811213 0.038363762 0.040982626
-0.03781094 -0.039460648 -0.038473435 -0.039080173 -0.039072238 0.037056025 0.037492007 0.037265625
-0.03819699 0.036692787 0.03813625 0.037221354 -0.03872529 0.038596388 0.037898287 -0.037556663
-0.03824071 -0.04055111 -0.038699597 -0.038144767 0.037065808 0.038012773 0.03844113 0.04022826
-0.0405662 0.036865942 0.039331727 0.03801882 -0.039690148 0.03981834 0.03686631 0.03929508
-0.04094004 0.03865059 0.039089907 -0.039514884 -0.04098787 -0.038715623 -0.040180016 -0.040101185
0.03849169 0.038055364 0.03578999 0.03713813 0.03787161 -0.039172277 -0.038524017 -0.040496446
0.038918655 -0.040168516 -0.038935784 -0.03883134 0.039903726 -0.038918346 -0.037011646 0.038404685
0.038647592 0.038872212 0.03794981 0.038629476 -0.038597092 -0.039056543 -0.037540477 -0.036400657
-0.04038894 0.04030224 0.03677018 0.037134554 -0.03914476 0.03895672 0.038722333 0.03957729
-0.03930359 0.03767124 0.036726955 -0.0411445 -0.038642157 -0.040270846 -0.03944213 -0.03932487
0.037832372 0.039111447 0.03743839 0.038799435 0.040801518 -0.0377501 -0.03784843 -0.03932338
0.041088704 -0.037210003 -0.03638156 -0.039295297 0.038990937 -0.038814586 -0.03755317 0.04050568
0.04012928 0.041236293 0.04175712 0.04059838 -0.039215922 -0.038486194 -0.03819706 -0.039215807
-0.03909688 0.037764788 0.036585115 0.037367925 -0.039427888 0.03713242 0.038698006 0.038516458
-0.03931563 0.037510455 0.03657185 -0.04132647 -0.0379264 -0.038797818 -0.039340634 -0.037012357
0.0360608 0.03811058 0.038422585 0.03899025 0.042627197 -0.040847693 -0.037636258 -0.03671948
0.038323782 -0.039383244 -0.037170395 -0.03854521 0.039529394 -0.039453045 -0.038271323 0.03897387
0.04019071 0.040229805 0.041254148 0.040216297 -0.037146732 -0.037967574 -0.03908653 -0.038286988
0.041298013 -0.039947845 -0.038368657 -0.03905325 0.04097683 -0.038267203 -0.03682804 -0.037728854
0.039370704 -0.038170442 -0.037487566 0.04014366 0.037721556 0.04111723 0.038251642 0.040052637
-0.039103057 -0.039718922 -0.0389028 -0.036839977 0.03737267 -0.03734455 -0.03771858 -0.03783332
0.039479606 -0.036288556 -0.037957683 -0.03832136 0.0386782 -0.03600377 -0.03773447 0.039182108
0.04028791 0.039283603 0.03749117 0.0404974 -0.038837597 -0.037938006 -0.037008386 -0.03685516
-0.039497964 0.039729767 0.03801113 0.036720492 -0.03874489 0.03840166 0.03772465 0.039014064
-0.041136634 0.03956985 0.037816893 -0.040096026 -0.037724484 -0.03753629 -0.039632376 -0.03792351

layers.1.egnn.edge_mlp.3.bias f4 [16]
00000000: 083f 31be 0deb 263e 2f1a 33be 7532 2e3e
00000010: 6313 803e f647 8ebd da30 9b3d 5fa3 3bbd
00000020: 1f64 9e3d 9fd5 0dbe 4015 05be 547f 5ebd
00000030: 84bd 2e3d 5299 6ebe 4ed9 633e ce20 183e
-0.17309201 0.16300602 -0.17490457 0.17011435 0.2501479 -0.06947319 0.07577677 -0.0458101
0.0773394 -0.13851021 -0.12996387 -0.05432065 0.042661205 -0.23300675 0.22250864 0.14856264

layers.1.egnn.node_mlp.0.weight f4 [8, 20]
00000000: 0a13 8a39 4575 ee39 8a30 74ba d6ea d73a
00000010: 536b f739 8256 4d3a a751 2e3b aee2 013a
00000020: 6bd3 f1b9 6d22 90b9 55a8 893a dddd 2b3b
00000030: 7741 473a 800e c4ba 7eb2 e838 09ec 11bb
00000040: e07e 103a 1e1b 83b9 4140 a8ba bc12 1538
00000050: 8703 f3b9 93d0 1eba 0de6 823a 8e3b c039
00000060: 7cd0 2c3a 4566 9c38 9b3e 24bb d1f4 8238
00000070: 1e4d 38b8 8e33 0839 6959 383a 4ad0 b03a
00000080: 68c7 42ba a6d8 a53a b992 9bba 02da ab3a
00000090: e093 20b9 4ff1 683a aac9 8cba 0b75 c738
000000a0: 60b4 b439 b890 8739 43c4 b8ba de1b b5ba
000000b0: a50c b2b7 e131 d53a 40d8 11ba 9816 8fba
000000c0: 34c5 11bb 6dfa c7ba cbfc 11ba abca 9b39
000000d0: e6f9 a038 4f70 f839 d735 493a 9f8d d0ba
000000e0: c5ae 733a 71c3 4aba fef9 453a 358e f0ba
000000f0: 1181 7439 3d62 d437 9d23 51b9 9af1 d439
00000100: 60f4 f738 e2df 493a 69ba 043b 9a81 8a3a
00000110: 1c07 0eb9 394e 0cb9 e904 29bb 61b1 4539
00000120: 16fd 433a 88b1 beb9 edb3 90ba 9c86 653a
00000130: 1385 1a3a b666 9739 e630 1039 1fa0 74ba
00000140: 8c0b 6eb8 0f4f 1bba 5d52 f0b9 b897 133a
00000150: e718 e9b9 9b0f ee39 7834 523a 5339 51ba
00000160: 6e9c 13ba 8fb6 2e3a 3e18 f739 d495 8dba
00000170: fb0c 63ba da1c b93a 414b 5539 2cb1 44ba
00000180: f3d4 5d3a 3e61 7fb6 a014 71ba b85b 4cb8
00000190: 8d45 5c3a 49a6 3d3a b377 b5b9 b5b2 a9b8
000001a0: 95ff 893a 84da 2cb9 523d 5dba 9ec7 beb8
000001b0: 2fd3 2aba 6c72 30b9 ae07 6d3a e1ce 5ebb
000001c0: 1cde d739 973e f9ba 92c5 c2b9 c937 d139
000001d0: d2a3 03b9 4df1 1139 9682 343a 2e82 11ba
000001e0: 5015 fbb9 9e74 073a 41cb 4b3a 56d8 d639
000001f0: 3988 ae39 9adb 9739 3c59 7f3a 1f42 38ba
00000200: 73ad 33ba a54c 3d3a 9e6c b13a 754c aaba
00000210: b95c 7b3a 5c25 a6ba edd7 5f3a c9be 8fba
00000220: 62dd 8a3a 6d2f 0db9 5186 5dba 257a 423a
00000230: cd37 9138 44f7 5bba c2d3 f93a 9d11 843a
00000240: 0872 663a 63f9 343a bf1d 633a b41a 13ba
00000250: 756d 28ba 77a1 a7ba 6126 123a 6c07 71b8
00000260: 6079 c63a 5dca 6bba c368 37bb 52de dcba
00000270: 11e7 67ba dc3b 873a 0b5b 5c3a 2cc6 3aba
0.00026335596 0.0004548227 -0.0009315094 0.0016473185 0.00047191474 0.000783302 0.0026598962 0.00049547374
-0.0004612462 -0.0002749147 0.0010502437 0.002622477 0.00076010026 -0.0014957935 0.00011095869 -0.0022265932
0.000551207 -0.0002500647 -0.0012836532 3.5541816e-05 -0.000463512 -0.00060583017 0.0009986773 0.00036665465
0.0006592346 7.457709e-05 -0.002506173 6.244484e-05 -4.394084e-05 0.00012989176 0.0007032366 0.0013489809
-0.00074302265 0.0012653067 -0.0011869288 0.0013111236 -0.00015313877 0.00088860554 -0.0010741253 9.5108604e-05
0.00034466665 0.0002585703 -0.0014096576 -0.0013817509 -2.1225142e-05 0.0016265475 -0.0005563535 -0.0010916768
-0.0022242786 -0.0015257128 -0.000556898 0.00029714903 7.675942e-05 0.00047385923 0.0007675564 -0.0015911347
0.0009295757 -0.00077348115 0.00075522054 -0.0018352928 0.00023317734 2.5318115e-05 -0.0001994506 0.00040615798
0.00011823396 0.00077009026 0.002025271 0.0010567189 -0.00013544824 -0.0001338058 -0.002579028 0.00018853463
0.00074763724 -0.00036371895 -0.001103995 0.0008755715 0.00058944634 0.0002887749 0.00013751126 -0.0009331721
-5.6754376e-05 -0.00059245614 -0.00045837733 0.0005630213 -0.00044459777 0.00045406524 0.0008018683 -0.0007981259
-0.0005630915 0.00066647766 0.00047129573 -0.0010802099 -0.0008661297 0.0014122978 0.00020341297 -0.00075032073
0.0008462213 -3.8054563e-06 -0.0009196494 -4.872281e-05 0.0008402698 0.0007234556 -0.00034612193 -8.091835e-05
0.001052844 -0.00016484602 -0.00084396184 -9.0970876e-05 -0.0006516454 -0.00016827293 0.0009041977 -0.003399782
0.0004117348 -0.0019015846 -0.00037149765 0.0003990515 -0.00012554161 0.00013918169 0.0006885914 -0.00055507093
-0.0004789033 0.00051672186 0.00077741226 0.00040978444 0.0003328936 0.0002896458 0.0009740775 -0.0007028896
-0.0006854154 0.0007221199 0.0013536399 -0.0012992757 0.0009588707 -0.0012675929 0.00085389504 -0.0010966893
0.0010594542 -0.00013464475 -0.00084504957 0.00074187136 6.9245325e-05 -0.00083910325 0.0019060301 0.001007605
0.00087907957 0.00069036166 0.00086637953 -0.0005611584 -0.0006425002 -0.0012789209 0.0005575177 -5.746579e-05
0.0015142374 -0.0008994693 -0.0027986027 -0.0016850925 -0.0008846382 0.0010317522 0.00084059004 -0.0007124867

layers.1.egnn.node_mlp.0.bias f4 [8]
00000000: c0b0 45be 0ba9 ccbd a702 81bd cbc7 193d
00000010: 02de e93d 3830 0c3d adf3 a93d ac85 5b3d
-0.19305706 -0.0999318 -0.06299334 0.037544053 0.11419298 0.034225672 0.082984306 0.053594276

layers.1.egnn.node_mlp.3.weight f4 [4, 8]
00000000: 1d9b 56ba 46fd f538 2f49 dbba d381 9439
00000010: 04b3 efba 01cb 49b9 e83a c9ba ebe8 e4ba
00000020: 2341 feb9 cfc7 7ab9 b8ad 1fba 2f93 baba
00000030: 3baa b53a 7da3 3f38 369a f9ba 6eda cc39
00000040: d1e5 d9b8 75fb 453a 830c c439 5c0b 1d3a
00000050: 3448 b8ba 2d1a 203a 876c 07ba 7888 9f39
00000060: f8a1 3bba 2851 83ba f374 c139 dd50 4739
00000070: 0dd2 c3b9 cb26 393a e9bf 8cba b2ff a73a
-0.0008186566 0.00011729686 -0.0016730184 0.00028325486 -0.0018287604 -0.00019244479 -0.0015352638 -0.0017464434
-0.00048495186 -0.00023916292 -0.0006091255 -0.0014234538 0.0013859937 4.569021e-05 -0.0019043151 0.00039072655
-0.00010390173 0.00075524236 0.00037393355 0.00059907674 -0.0014059604 0.0006107416 -0.0005166013 0.0003042852
-0.0007157619 -0.0010018693 0.00036898963 0.00019008243 -0.00037349798 0.00070629705 -0.0010738346 0.0012817292

layers.1.egnn.node_mlp.3.bias f4 [4]
00000000: 21b8 a43e 9e28 6b3e abb5 d1bd 194a 82be
0.3217173 0.22964713 -0.102397285 -0.25447157
