data_additional_experiment/models/best_model_N70_batch32_lr0.001_fd4_b0.5.pth (torch, 33758 bytes, 36 tensors)

time_embedding.0.weight f4 [8, 1]
-0.37340936 0.30111063 -0.56621444 0.42222044 0.2924726 -0.6566224 0.3485328 -0.9919816
00000000: 832f bfbe 2c2b 9a3e 6ef3 10bf 472d d83e
00000010: f8be 953e 6818 28bf e472 b23e 82f2 7dbf

time_embedding.0.bias f4 [8]
0.29302856 -0.36558115 0.10208131 0.08403157 -0.29440537 0.5816359 -0.3760991 -0.72034836
00000000: d707 963e 742d bbbe 0110 d13d be18 ac3d
00000010: 4dbc 96be 17e6 143f 1090 c0be c068 38bf

time_embedding.3.weight f4 [4, 8]
-0.033769347 -0.28054067 -0.067857966 -0.011401463 -0.12353823 -0.027408462 -0.12641682 0.030568982
0.026163802 0.2357666 0.25038806 -0.045677003 0.07704745 -0.04571165 -0.063192666 0.0061808354
-0.008656855 0.094550215 -0.12990035 -0.039831456 0.066658996 -0.013302554 0.33594722 -0.017199539
-0.011113408 0.3227743 -0.021715341 -0.06676478 0.14729083 -0.057061628 -0.15170808 -0.27514258
00000000: ba51 0abd 07a3 8fbe 1ef9 8abd 34cd 3abc
00000010: 9d01 fdbd b687 e0bc 6973 01be cd6b fa3c
00000020: 7855 d63c cd6c 713e dd32 803e cf17 3bbd
00000030: 0ecb 9d3d 243c 3bbd 286b 81bd 9b88 ca3b
00000040: 7bd5 0dbc 8ba3 c13d 9904 05be 4f26 23bd
00000050: 8384 883d f5f2 59bc 4601 ac3e 0ce6 8cbc
00000060: 0315 36bc ac42 a53e 5fe4 b1bc f9bb 88bd
00000070: 68d3 163e 74b9 69bd 5d59 1bbe 7ddf 8cbe

time_embedding.3.bias f4 [4]
-0.28679278 -0.2103667 -0.31838876 0.10220837
00000000: 81d6 92be 5e6a 57be da03 a3be 9f52 d13d

layers.0.egnn.edge_mlp.0.weight f4 [20, 10]
0.13243641 0.10599266 0.13583128 -0.022334388 0.124335006 0.14082241 0.13939269 -0.07925556
0.042960454 -0.102184564 0.01671021 -0.008376022 0.02538969 -0.11682927 0.037537962 0.0561894
0.06567784 -0.09515123 -0.004667946 -0.032889728 -0.14910333 -0.12494201 -0.15772983 0.13035464
-0.16152917 -0.17513661 -0.18682271 0.11629557 -0.50481707 0.17910913 0.0425181 0.016618349
0.046011858 -0.113450035 0.06095052 0.08207703 0.08969149 -0.10548976 -0.007348076 -0.054422993
0.012371835 -0.015655328 0.014633863 -0.095774405 0.026985751 0.044465907 0.051522247 -0.09862019
-0.0056674867 -0.020066548 0.016726207 -0.006662942 0.0249483 -0.042343866 0.02759052 0.04330597
0.049435046 -0.07347077 -0.004214223 -0.015347134 0.05659262 0.033166576 0.06479685 -0.091958135
0.07148478 0.091817155 0.103444256 -0.093698 -0.008014058 -0.06295119 -0.14527604 -0.11667977
-0.14935617 0.09294183 -0.1470106 -0.15749945 -0.16761573 0.11127038 -0.3411335 0.15453559
-0.19525057 -0.16909456 -0.20721631 0.14842159 -0.20388268 -0.21550642 -0.2296016 0.1254532
-0.5879104 0.22791512 -0.18085419 -0.15610726 -0.1940778 0.14394686 -0.19171695 -0.20440419
-0.22010255 0.11932569 -0.55967724 0.21728039 0.0056492966 -0.022639278 0.011226229 -0.18870571
0.028964244 0.043927606 0.05152869 -0.10050942 -0.0070025693 -0.016030334 0.068872325 0.042694904
0.07355009 -0.12188518 0.088367365 0.11053723 0.11947323 -0.10825538 -0.007678131 -0.07934656
-0.20999427 -0.1838054 -0.225141 0.15300152 -0.22274344 -0.23489475 -0.24904877 0.12948622
-0.6175826 0.24860683 -0.18989153 -0.16267493 -0.20190318 0.15000296 -0.20333624 -0.21614721
-0.23201913 0.12294971 -0.57910144 0.22884019 -0.1823676 -0.15502004 -0.19357957 0.14772783
-0.19575255 -0.20961808 -0.22206926 0.12418564 -0.5698716 0.21686374 0.064919256 0.041829634
0.06998 -0.18203363 0.089889735 0.114527434 0.11948615 -0.1139356 -0.0003881583 -0.07862503
0.13640238 0.11288857 0.14229429 -0.02490348 0.13272741 0.14587456 0.14440683 -0.08351607
0.041454665 -0.10727157 -0.18730201 -0.1594672 -0.1983202 0.15067546 -0.19985169 -0.2115454
-0.22657992 0.12441733 -0.5783613 0.21874467 -0.15226826 -0.12613931 -0.16210382 0.13024534
-0.16151279 -0.17394166 -0.18638298 0.11628849 -0.5091918 0.18215968 0.016027547 -0.00909503
0.022172175 -0.11620863 0.033710904 0.05641689 0.06455428 -0.098251656 -0.0025042738 -0.032382943
00000000: 699d 073e ae12 d93d 5b17 0b3e 9bf6 b6bc
00000010: 5aa3 fe3d c033 103e f5bc 0e3e bd50 a2bd
00000020: 4df7 2f3d 2446 d1bd dae3 883c 953b 09bc
00000030: 0afe cf3c 2f44 efbd 68c1 193d db26 663d
00000040: 1a82 863d a6de c2bd 92f5 98bb 61b7 06bd
00000050: 8bae 18be 99e1 ffbd ee83 21be b07b 053e
00000060: e767 25be 0357 33be 744e 3fbe 5f2c ee3d
00000070: b13b 01bf 6268 373e 7627 2e3d 3423 883c
00000080: ee76 3c3d 7e58 e8bd 41a7 793d 0018 a83d
00000090: 2cb0 b73d 040b d8bd 21c8 f0bb a5ea 5ebd
000000a0: 3db3 4a3c 9a3f 80bc dfc2 6f3c 5f25 c4bd
000000b0: 3911 dd3c e221 363d fe08 533d 62f9 c9bd
000000c0: 53b6 b9bb 9a62 a4bc 6605 893c cf54 dabb
000000d0: 6160 cc3c c370 2dbd 8405 e23c 9a61 313d
000000e0: 677c 4a3d d877 96bd 7717 8abb 8c72 7bbc
000000f0: aacd 673d add9 073d 36b4 843d 8c54 bcbd
00000100: 9d66 923d a20a bc3d 95da d33d bde4 bfbd
00000110: 654d 03bc 8eec 80bd 3ec3 14be cef5 eebd
00000120: d3f0 18be 4958 be3d f289 16be 8947 21be
00000130: 75a3 2bbe bae1 e33d 0da9 aebe 943e 1e3e
00000140: c4ef 47be 2027 2dbe 8330 54be d4fb 173e
00000150: 9fc6 50be b7ad 5cbe af1c 6bbe ce76 003e
00000160: 4c81 16bf 9562 693e d731 39be 95da 1fbe
00000170: 55bc 46be ce66 133e 7351 44be 554f 51be
00000180: 9062 61be 0761 f43d 0247 0fbf c07e 5e3e
00000190: bc1d b93b 0276 b9bc 38ee 373c 123c 41be
000001a0: 6c46 ed3c 6fed 333d bf0f 533d e2d7 cdbd
000001b0: cf75 e5bb 0c52 83bc ef0c 8d3d dae0 2e3d
000001c0: 6ea1 963d f09e f9bd f3f9 b43d 5861 e23d
000001d0: 61ae f43d ffb4 ddbd d598 fbbb 7380 a2bd
000001e0: bd08 57be 7c37 3cbe 5d8b 66be 6eac 1c3e
000001f0: db16 64be 4088 70be a406 7fbe 0998 043e
00000200: e519 1ebf ca92 7e3e ed72 42be 4294 26be
00000210: b5bf 4ebe 609a 193e 6037 50be b255 5dbe
00000220: 6c96 6dbe 0fcd fb3d fe3f 14bf 1555 6a3e
00000230: 92be 3abe 93bd 1ebe b939 46be f745 173e
00000240: 5b73 48be 1fa6 56be 2066 63be 0a55 fe3d
00000250: 1be3 11bf 8711 5e3e 63f4 843d 8d55 2b3d
00000260: ad51 8f3d 0667 3abe 1c18 b83d 5c8d ea3d
00000270: 28b5 f43d 1157 e9bd ba81 cbb9 2906 a1bd
00000280: 11ad 0b3e 1f32 e73d 98b5 113e 6202 ccbc
00000290: b2e9 073e 2460 153e 62df 133e 790a abbd
000002a0: 5ecc 293d 32b1 dbbd 19cc 3fbe 5f4b 23be
000002b0: 7314 4bbe ab4a 1a3e eca5 4cbe 5b9f 58be
000002c0: 9104 68be 83ce fe3d 7c0f 14bf 9afe 5f3e
000002d0: 36ec 1bbe aa2a 01be 8bfe 25be 095f 053e
000002e0: 9c63 25be c31d 32be 2edb 3ebe a928 ee3d
000002f0: 655a 02bf 1188 3a3e 344c 833c 5203 15bc
00000300: 6ca2 b53c cafe edbd 7214 0a3d 6615 673d
00000310: 0935 843d 2a38 c9bd be1e 24bb faa3 04bd

layers.0.egnn.edge_mlp.0.bias f4 [20]
-0.024338769 0.113464154 0.04175438 0.15780184 0.07730667 0.0833674 0.17070986 0.058769416
-0.04377989 -0.06880196 0.08955673 0.20690492 -0.05694042 -0.07051072 -0.03953108 0.23340654
-0.03462739 -0.03603201 0.02722057 0.118733004
00000000: 1962 c7bc e55f e83d a406 2b3d ce96 213e
00000010: f652 9e3d 87bc aa3d 91ce 2e3e 33b8 703d
00000020: 8b52 33bd 0be8 8cbd 8569 b73d e2de 533e
00000030: 5c3a 69bd ed67 90bd 57eb 21bd 2002 6f3e
00000040: 73d5 0dbd 4d96 13bd acfd de3c 4a2a f33d

layers.0.egnn.edge_mlp.3.weight f4 [16, 20]
-0.071443886 -0.0051936093 0.20861183 0.00054255145 -0.00090021343 -0.0051072026 0.0028163767 0.17920008
0.21726844 0.19352967 -0.010047661 0.0037644452 0.22980678 0.20486996 0.20893079 -0.0005834833
-0.07770033 0.21319178 0.2037633 -0.004528383 -0.067749016 -0.0021725975 0.19621229 0.0010944639
0.0023032578 -0.0021091949 0.0043613785 0.1671401 0.20295991 0.1849717 -0.0067304503 0.003466792
0.21529073 0.1939472 0.19624542 0.0011934557 -0.07434516 0.20225975 0.18947668 -0.0023163059
-0.06249694 0.0016455125 0.22052136 0.0047318786 0.0034269742 0.0030419123 0.008140672 0.18839319
0.23194875 0.2113371 -0.00501117 0.007042115 0.24544407 0.21964963 0.224457 0.003265671
-0.07007275 0.22784756 0.21709594 -0.0012818133 -0.0726487 -0.0050128666 0.2122259 -0.0015904362
-0.0025920295 -0.005517439 0.0025024195 0.17924999 0.21874326 0.19582611 -0.01018168 0.0021481307
0.23048268 0.20685975 0.21061201 0.00055500143 -0.07953683 0.21565142 0.20500875 -0.006298369
0.009158253 0.0015565876 -0.07060094 0.0071275504 0.0060583907 0.0060335677 0.013289292 -0.06928047
-0.083039306 -0.07079227 -0.003559792 0.014177884 -0.09199235 -0.07786482 -0.07799347 0.0025652857
0.012215862 -0.08178005 -0.06817441 0.0010462434 0.0140920095 0.0026446858 -0.0491025 -0.0032880488
0.0073820306 0.0010486577 0.0038248573 -0.041643523 -0.056429584 -0.0473306 -0.009880825 0.0035110598
-0.06428681 -0.0530248 -0.05371213 -0.012222644 0.0175954 -0.0560306 -0.04707994 -0.0030262107
0.0060995053 -0.0018466631 -0.07344849 0.0039378065 0.0038798552 0.0061006406 0.0131410025 -0.07075323
-0.08497693 -0.07204076 -0.0086803585 0.01592007 -0.095871404 -0.08125214 -0.08119196 0.003043186
0.011491493 -0.083326936 -0.071159914 -0.000795872 -0.06423602 0.0028829689 0.23684978 0.0026897423
0.0022176616 0.0026545667 0.0063181524 0.20292331 0.24848785 0.22421177 -0.0046248315 0.0074295118
0.2603218 0.23465756 0.24105126 -0.0004789385 -0.06979446 0.24728623 0.23125446 -0.0017351403
0.021645054 -0.012129174 -0.023011541 -0.024016097 -0.011512668 -0.014656949 -0.022901857 -0.011829581
-0.03296796 -0.023464436 -0.012789585 -0.026292745 -0.036830112 -0.027637579 -0.029886331 -0.015419415
0.025044987 -0.032399215 -0.021815812 -0.014336066 0.015418007 -0.0061057857 -0.03234147 -0.017699596
-0.0024274737 -0.011028011 -0.014770869 -0.023013303 -0.041108172 -0.032635145 -0.015186488 -0.014639309
-0.0477196 -0.036068216 -0.0372474 -0.018306721 0.016766548 -0.038303904 -0.029594805 -0.0109320395
0.011642949 0.0016475731 -0.040482942 -0.0058145183 0.0063236463 -0.0035456393 -0.0018703765 -0.036082625
-0.048852663 -0.041292593 -0.010319692 -0.0017972031 -0.05809155 -0.046288833 -0.048173778 -0.01447748
0.0160495 -0.048653618 -0.039203893 -0.0018100479 -0.0741142 -0.005880091 0.22198723 -0.0030519585
-0.008361542 -0.006877418 0.0012221213 0.19228512 0.2304184 0.20807593 -0.012670328 0.0028897547
0.24305514 0.21855207 0.22394387 -0.0020520713 -0.07992069 0.22798659 0.21645027 -0.0073122205
-0.08009568 -0.009338233 0.21145746 -0.0032488226 -0.00833805 -0.013139955 -0.00070028263 0.18242568
0.22123872 0.19875218 -0.017343346 0.00094241987 0.23314397 0.20961732 0.21403232 -0.00353368
00000000: 2c51 92bd 272f aabb 579e 553e 033a 0e3a
00000010: 4dfc 6bba 525a a7bb f692 383b 3a80 373e
00000020: 9e7b 5e3e a42c 463e f29e 24bc e9b4 763b
00000030: 7852 6b3e 6ec9 513e f4f1 553e e7f4 18ba
00000040: 5a21 9fbd f24e 5a3e 54a7 503e d462 94bb
00000050: ffbf 8abd 2362 0ebb e0eb 483e 1d74 8f3a
00000060: 41f2 163b 6b3a 0abb e5e9 8e3b c626 2b3e
00000070: b9d4 4f3e 3969 3d3e 1c8b dcbb 1e33 633b
00000080: 2c75 5c3e 189a 463e 8ff4 483e ba6d 9c3a
00000090: 4642 98bd 2e1d 4f3e 2d06 423e 2acd 17bb
000000a0: cbfc 7fbd 3dae d73a 5ad0 613e e00d 9b3b
000000b0: 1697 603b d25a 473b 7460 053c 25ea 403e
000000c0: f983 6d3e c168 583e be34 a4bb 8bc1 e63b
000000d0: b155 7b3e d5eb 603e 0ed8 653e de04 563b
000000e0: 4d82 8fbd df50 693e 664e 5e3e 8402 a8ba
000000f0: d7c8 94bd f942 a4bb bf51 593e 2f76 d0ba
00000100: 0adf 29bb a2cb b4bb a2ff 233b 4f8d 373e
00000110: 3cfe 5f3e a486 483e 10d1 26bc a7c7 0c3b
00000120: a703 6c3e 0bd3 533e adaa 573e 847d 113a
00000130: 35e4 a2bd bad3 5c3e d0ed 513e 8c62 cebb
00000140: 7f0c 163c 6a06 cc3a 3a97 90bd 3a8e e93b
00000150: 7785 c63b 3cb5 c53b 55bb 593c ebe2 8dbd
00000160: 8310 aabd 8afb 90bd 664b 69bb 5b4a 683c
00000170: 7c66 bcbd 9777 9fbd 0abb 9fbd 5a1e 283b
00000180: 0a25 483c 4d7c a7bd 069f 8bbd 1a22 893a
00000190: 2ce2 663c 7752 2d3b b41f 49bd 4e7c 57bb
000001a0: f6e4 f13b 1d73 893a 75aa 7a3b 6692 2abd
000001b0: b522 67bd bbdd 41bd 2fe3 21bc cf19 663b
000001c0: cea8 83bd 8830 59bd 4001 5cbd 7c41 48bc
000001d0: 3a24 903c 5880 65bd e5d6 40bd 6453 46bb
000001e0: 5cde c73b bb0b f2ba 296c 96bd b708 813b
000001f0: 2b45 7e3b e2e7 c73b 5c4d 573c 12e7 90bd
00000200: 6208 aebd 1b8a 93bd 1038 0ebc cf6a 823c
00000210: 3a58 c4bd 8667 a6bd f847 a6bd 3070 473b
00000220: d146 3c3c 50a7 aabd 4abc 91bd 11a2 50ba
00000230: 2d8e 83bd 31f0 3c3b c088 723e 6346 303b
00000240: 3056 113b 3df8 2d3b 8108 cf3b 21cb 4f3e
00000250: 9973 7e3e c597 653e e68b 97bb 4373 f33b
00000260: e648 853e 124a 703e 24d6 763e 0a1a fbb9
00000270: 66f0 8ebd 9a38 7d3e f8cd 6c3e a66d e3ba
00000280: f850 b13c 71b9 46bc b382 bcbc 68bd c4bc
00000290: a19f 3cbc b323 70bc ad9c bbbc dcd0 41bc
000002a0: 6909 07bd 7d38 c0bc 688b 51bc e263 d7bc
000002b0: 2cdb 16bd 3468 e2bc 2ed4 f4bc b7a1 7cbc
000002c0: 252b cd3c 0ab5 04bd 13b7 b2bc d2e1 6abc
000002d0: cf9b 7c3c 0b13 c8bb 7d78 04bd befe 90bc
000002e0: 4016 1fbb d5ae 34bc 8401 72bc 6586 bcbc
000002f0: 0b61 28bd 6eac 05bd bfd0 78bc b6d9 6fbc
00000300: a175 43bd 44bc 13bd bb90 18bd faf7 95bc
00000310: 005a 893c 8ee4 1cbd ce70 f2bc 4c1c 33bc
00000320: 11c2 3e3c 61f3 d73a 71d1 25bd b787 bebb
00000330: 9736 cf3b f55d 68bb 6c27 f5ba 60cb 13bd
00000340: bb19 48bd 6c22 29bd ed13 29bc 2190 ebba
00000350: 68f1 6dbd 5c99 3dbd de51 45bd f432 6dbc
00000360: 3e7a 833c 0449 47bd 4394 20bd 213f edba
00000370: 30c9 97bd c7ad c0bb 9f50 633e 5e03 48bb
00000380: d9fe 08bc f75b e1bb 962f a03a 64e6 443e
00000390: cdf2 6b3e db11 553e 3597 4fbc 0a62 3d3b
000003a0: 72e3 783e 1dcc 5f3e 8b51 653e 0b7c 06bb
000003b0: 75ad a3bd 5175 693e 24a5 5d3e 5a9b efbb
000003c0: 3409 a4bd 63ff 18bc 4e88 583e 33ea 54bb
000003d0: 519c 08bc f748 57bc 2c93 37ba cccd 3a3e
000003e0: 678c 623e b185 4b3e a213 8ebc ba0c 773a
000003f0: 4bbd 6e3e eca5 563e 4a2b 5b3e 5095 67bb

layers.0.egnn.edge_mlp.3.bias f4 [16]
0.11329788 0.07244992 0.2198423 0.12718496 -0.19650099 -0.14997794 -0.1969203 0.25593916
-0.06419353 -0.09491918 -0.13107532 0.17657372 0.07205896 0.12764877 -0.14502655 -0.029831665
00000000: b808 e83d a060 943d 571e 613e c63c 023e
00000010: 8e37 49be d193 19be 7aa5 49be 750a 833e
00000020: e677 83bd fd64 c2bd 9c38 06be becf 343e
00000030: a693 933d 5cb6 023e d781 14be 8961 f4bc

layers.0.egnn.node_mlp.0.weight f4 [8, 20]
-1.5755559e-05 0.00043774457 -0.0012018328 0.0022188243 0.0015834001 0.001062858 0.0009223016 0.00032307341
0.0010752194 0.002286904 0.00050999323 -0.0020113972 -0.0007656799 0.0016414012 0.000691572 0.0007319726
0.000106099396 0.00041932694 -0.00092413503 -0.0017061939 -0.0011888507 0.0007081782 0.00028070286 0.0002016222
-6.600079e-05 0.0019259645 0.00096461346 8.698175e-05 -0.00075807975 -0.00035559188 0.0006077823 0.0005948477
-0.00023439502 0.0013126481 0.00069742376 0.0013495878 -0.0012894295 -0.0016247313 -0.0016781933 -0.00033688114
-0.0019086293 0.00073739066 0.00056450546 0.0007411991 -0.0013314958 0.00082828477 -0.001181715 -0.00024347918
0.0019507292 0.0019043104 -0.0020523625 0.00080441294 -4.4048484e-06 -0.00024239326 0.001926173 0.0004787811
-0.0007362168 0.0012359667 0.00076558336 -0.00039526192 0.0009570042 -0.00045881834 0.0010055288 0.0004396705
-0.0007063438 1.289507e-05 -0.0006149236 -0.0009125 -0.0012628678 -0.0004927494 0.00021832279 0.00052617124
9.4701005e-05 -0.0016158167 -0.0011774325 -0.0014245576 0.0007618555 -0.00043073206 0.00014074784 0.00035630557
0.0007126923 -0.0015138122 0.00063174084 0.0008391037 -0.00039371027 0.0012177924 0.0009817126 -0.00038649674
-0.0011321338 -0.0003426975 0.0009449568 0.0004912709 -1.3671556e-05 0.0014204612 0.0008608151 0.001220457
-0.0018554587 -8.015839e-05 -0.00040468766 -0.00058782037 0.00035078253 0.0005609838 0.0027845833 -0.0014480929
-0.00017935112 -0.00020836446 -0.0016999219 6.476033e-05 -3.2220585e-05 0.0005357295 -0.00020002395 0.000664102
0.0011995209 -0.0014138501 -0.00035444603 -4.4389766e-05 -0.0017821607 -4.7073572e-05 -0.00180818 -0.00043059248
-0.00011328811 -0.00029629696 -2.6826465e-05 0.0006871364 -0.001524862 0.00026972604 -0.0010780039 0.00014742202
0.00071702537 0.0011835942 0.0003031992 0.00029419843 -0.0004455268 -5.3297434e-05 0.0008038317 -0.0007252075
0.00073172845 0.00019330472 -0.00061745016 0.00054290326 -0.00025975576 -0.0011794188 0.0024064197 -3.9095434e-05
0.0010357036 -0.00014436418 -0.0005625211 -2.5293948e-06 0.00028355414 0.00077345764 -0.0014189146 0.0010167769
0.00068016216 -0.00076291244 0.0005571915 0.0012955731 -0.0002560421 -0.0008750211 0.0014912179 0.00047385486
00000000: ce2a 84b7 1581 e539 d186 9dba b269 113b
00000010: 178a cf3a 994f 8b3a 9dc6 713a 2e62 a939
00000020: 60ee 8c3a e2df 153b 11b1 053a a5d1 03bb
00000030: e9b7 48ba 4924 d73a 9c4a 353a dae1 3f3a
00000040: ae81 de38 1cd9 db39 a741 72ba 5ea2 dfba
00000050: 36d3 9bba 09a5 393a 4d2b 9339 8c6a 5339
00000060: e869 8ab8 a570 fc3a 1dde 7c3a f969 b638
00000070: dfb9 46ba bc6e bab9 9453 1f3a 8eef 1b3a
00000080: efc7 75b9 290d ac3a 51d3 363a a7e4 b03a
00000090: 1302 a9ba f0f4 d4ba d3f6 dbba 6c9f b0b9
000000a0: f92a faba 734d 413a 52fb 133a 084d 423a
000000b0: 9685 aeba 4021 593a c7e3 9aba 724e 7fb9
000000c0: 9caf ff3a 0e9a f93a ee80 06bb 3ddf 523a
000000d0: 5ccd 93b6 f22a 7eb9 a477 fc3a e904 fb39
000000e0: acfe 40ba 2900 a23a 6eb1 483a 283b cfb9
000000f0: 77df 7a3a 8e8d f0b9 f3cb 833a 9383 e639
00000100: ee29 39ba e757 5837 d332 21ba d734 6fba
00000110: d086 a5ba da2b 01ba 94ed 6439 c1ee 093a
00000120: 379a c638 d0c9 d3ba 1454 9aba 39b8 baba
00000130: 42b7 473a e1d3 e1b9 b695 1339 86ce ba39
00000140: f8d3 3a3a 1c6b c6ba 699b 253a 4cf7 5b3a
00000150: e66a ceb9 559e 9f3a cfac 803a b7a2 cab9
00000160: 1b64 94ba 14ac b3b9 fab6 773a a2c8 003a
00000170: e35e 65b7 c52e ba3a 53a8 613a bef7 9f3a
00000180: dd32 f3ba b51a a8b8 422c d4b9 f517 1aba
00000190: 3ce9 b739 fc0e 133a 8e7d 363b efcd bdba
000001a0: 3310 3cb9 697c 5ab9 eacf deba f0cf 8738
000001b0: 9724 07b8 3370 0c3a 85bd 51b9 2117 2e3a
000001c0: 3e39 9d3a f050 b9ba f1d4 b9b9 262f 3ab8
000001d0: 6497 e9ba dd70 45b8 7400 edba 25c1 e1b9
000001e0: 1795 edb8 4e58 9bb9 6509 e1b7 f120 343a
000001f0: e1dd c7ba 046a 8d39 cf4b 8dba 4c95 1a39
00000200: c2f6 3b3a d522 9b3a b5f6 9e39 a53e 9a39
00000210: 9895 e9b9 af8b 5fb8 3bb8 523a da1b 3eba
00000220: 77d1 3f3a d7b1 4a39 61dc 21ba 9f51 0e3a
00000230: d42f 88b9 ba96 9aba 06b5 1d3b 67fa 23b8
00000240: 72c0 873a 7760 17b9 2776 13ba acbe 29b6
00000250: fea9 9439 ddc1 4a3a e0fa b9ba 5f45 853a
00000260: e94c 323a 30fe 47ba 7d10 123a 38d0 a93a
00000270: 643d 86b9 ac61 65ba f874 c33a b96f f839

layers.0.egnn.node_mlp.0.bias f4 [8]
0.08138585 0.03162831 -0.09981499 -0.09599881 0.046951357 0.0060836473 -0.063121155 -0.05723663
00000000: a0ad a63d b08c 013d cd6b ccbd 069b c4bd
00000010: 1150 403d 5559 c73b aa45 81bd f570 6abd

layers.0.egnn.node_mlp.3.weight f4 [4, 8]
0.00025594133 0.0007544671 -0.00080143544 -0.0010236467 -0.002621158 -0.00037693948 0.00039200863 -0.0011560441
-0.0012947549 -0.0003073312 0.00094152865 0.0006227321 -0.00011309942 -0.00035449665 0.0006522116 0.0015616165
0.0010959841 0.0002496571 0.00026564862 -0.0021045732 0.0005566863 -0.00018226572 0.0009554737 -0.0010836961
0.001191409 0.00091445824 0.0005164651 -0.00031213425 -0.0009315297 0.0008653145 0.00025602238 -0.0010871051
00000000: dd2f 8639 6ec7 453a 6c17 52ba e22b 86ba
00000010: bcc7 2bbb f69f c5b9 8286 cd39 6786 97ba
00000020: c4b4 a9ba 4c21 a1b9 ebd0 763a d83e 233a
00000030: ca2f edb8 bcdb b9b9 2ef9 2a3a 28af cc3a
00000040: 20a7 8f3a 69e4 8239 c146 8b39 e1ec 09bb
00000050: 96ee 113a 951e 3fb9 c178 7a3a cf0a 8eba
00000060: 0d29 9c3a 41b8 6f3a 6363 073a f3a5 a3b9
00000070: e631 74ba 46d6 623a be3a 8639 327d 8eba

layers.0.egnn.node_mlp.3.bias f4 [4]
-0.34004712 -0.32916903 -0.32077056 -0.18193619
00000000: a81a aebe d888 a8be 0a3c a4be 7b4d 3abe

layers.0.egnn.coors_mlp.0.weight f4 [64, 16]
0.13069998 0.12184171 0.1797459 0.13519488 -0.099357866 -0.0435038 -0.110366315 0.214546
-0.013292368 -0.021305434 -0.030174911 0.15124533 0.12858623 0.13531685 -0.039065335 0.0021131614
0.039545465 0.029981466 0.08971638 0.046440594 -0.030814568 0.02543017 -0.03837761 0.104947135
0.07167354 0.056650877 0.03844857 0.0643419 0.032994993 0.04612591 0.030355092 -0.04233106
0.11948652 0.11401338 0.16949369 0.12219133 -0.08313025 -0.030319272 -0.09346917 0.20009974
-0.006585974 -0.010165493 -0.0190847 0.1411028 0.119331166 0.124313675 -0.027048375 0.0005035638
0.14167623 0.13252094 0.19676262 0.14316654 -0.11959637 -0.05662173 -0.12925585 0.22917481
-0.025498617 -0.03152129 -0.045908548 0.1636612 0.13547449 0.14567177 -0.05593378 -0.012710492
-0.079538405 -0.07682499 -0.11186689 -0.084035784 -0.033850264 -0.06511818 -0.025828442 -0.13690968
-0.06694236 -0.07007519 -0.06923178 -0.096476786 -0.08238712 -0.08184989 -0.06774193 -0.028171252
0.11810019 0.10818711 0.16573596 0.12157228 -0.080866836 -0.025647834 -0.09080258 0.19831745
-0.005673481 -0.008488356 -0.018358555 0.13791032 0.11581436 0.122898996 -0.024227122 0.0044597536
-0.023181254 -0.02605559 -0.034339596 -0.022415657 -0.084320076 -0.10046407 -0.079856776 -0.050798062
-0.0838787 -0.0944014 -0.100412145 -0.030316226 -0.03360328 -0.024047 -0.09903401 -0.05610284
0.11949575 0.112744324 0.16804959 0.123632215 -0.08333016 -0.029698128 -0.09399288 0.20259929
-0.00620839 -0.011131521 -0.019936176 0.14266247 0.117548235 0.12512025 -0.02647418 0.0008190906
0.13924298 0.12957683 0.19569863 0.14329799 -0.11807054 -0.056902986 -0.12816799 0.2293078
-0.023181811 -0.031589635 -0.04303959 0.16390434 0.13642918 0.1434805 -0.05376973 -0.042346403
-0.052709717 -0.04761107 -0.07155601 -0.051874705 -0.055157036 -0.07776684 -0.04819733 -0.09387323
-0.06689022 -0.07443726 -0.0781896 -0.059184283 -0.055716895 -0.05093157 -0.07703524 -0.044945713
0.1171662 0.110169046 0.16649126 0.12095378 -0.081005976 -0.02852576 -0.094231285 0.20094092
-0.0036319613 -0.009520144 -0.018129604 0.13914098 0.118118756 0.12072615 -0.026541242 0.0049438924
0.021934843 0.021993725 0.06590912 0.024912983 -0.018013231 0.013801671 -0.034952104 0.09816592
0.010016728 0.012130426 0.015503958 0.0393737 0.025001694 0.024920963 0.014113599 0.05014572
0.100216135 0.115640305 0.06584323 0.09674045 0.0068677897 -0.016795505 0.012378287 0.05499499
-0.04144099 -0.03256046 -0.022418467 0.08358867 0.118546866 0.09584826 -0.019245695 -0.040984772
-0.08320466 -0.07797989 -0.1144265 -0.08461055 -0.032536294 -0.06316181 -0.026558293 -0.13463256
-0.06230652 -0.06620637 -0.06614444 -0.09859596 -0.08525335 -0.08601972 -0.06418672 -0.03456274
0.13852738 0.12669027 0.19128828 0.14162423 -0.11239848 -0.05140434 -0.122387506 0.22745258
-0.02299165 -0.029032582 -0.040754016 0.16006452 0.13311622 0.14210843 -0.048408844 -0.009325812
-0.021866245 -0.024074106 -0.030080676 -0.019715173 -0.08795894 -0.104521416 -0.083524 -0.045990195
-0.087249205 -0.096713014 -0.10476903 -0.023005402 -0.03099407 -0.020728886 -0.104406275 -0.056421876
00000000: 37d6 053e 2588 f93d 4f0f 383e 8770 0a3e
00000010: 237c cbbd 0a31 32bd bc07 e2bd f2b1 5b3e
00000020: 3bc8 59bc bc88 aebc 6031 f7bc 0ee0 1a3e
00000030: 1cac 033e 8090 0a3e f902 20bd f77c 0a3b
00000040: 6dfa 213d b19b f53c 39bd b73d 7e38 3e3d
00000050: d56e fcbc ef52 d03c d731 1dbd 86ee d63d
00000060: 94c9 923d c00a 683d 3f7c 1d3d b0c5 833d
00000070: c225 073d 86ee 3c3d 3eab f83c 5563 2dbd
00000080: 59b5 f43d d97f e93d c18f 2d3e 733f fa3d
00000090: 3140 aabd 1f60 f8bc c46c bfbd f2e6 4c3e
000000a0: 27cf d7bb 2b8d 26bc 8457 9cbc 417d 103e
000000b0: e663 f43d 2b98 fe3d 8e94 ddbc 9801 043a
000000c0: 9313 113e 92b3 073e 247c 493e 409a 123e
000000d0: f1ee f4bd 30ec 67bd a55b 04be cdac 6a3e
000000e0: 7ae2 d0bc 781c 01bd 9a0a 3cbd cd96 273e
000000f0: d3b9 0a3e fb2a 153e d21a 65bd ab3f 50bc
00000100: 08e5 a2bd 6c56 9dbd 781a e5bd f41a acbd
00000110: 93a6 0abd ae5c 85bd 2b96 d3bc 0d32 0cbe
00000120: 1319 89bd 9583 8fbd 64c9 8dbd 9f95 c5bd
00000130: 94ba a8bd eaa0 a7bd 48bc 8abd 66c7 e6bc
00000140: 83de f13d 3491 dd3d b0b6 293e e3fa f83d
00000150: 839d a5bd 681b d2bc b4f6 b9bd bb13 4b3e
00000160: 9ce8 b9bb bf12 0bbc ae64 96bc 5d38 0d3e
00000170: 1430 ed3d 78b2 fb3d f577 c6bc 2023 923b
00000180: 9de6 bdbc 8872 d5bc ada7 0cbd 0aa1 b7bc
00000190: 01b0 acbd 1bc0 cdbd f38b a3bd a111 50bd
000001a0: 99c8 abbd 8555 c1bd e2a4 cdbd bc59 f8bc
000001b0: 98a3 09bd 37fe c4bc 58d2 cabd 17cc 65bd
000001c0: 30ba f43d 7fe6 e63d 3115 2c3e e332 fd3d
000001d0: 01a9 aabd 7d49 f3bc 577f c0bd 3076 4f3e
000001e0: c06f cbbb fc60 36bc 3151 a3bc 1c16 123e
000001f0: 21bd f03d 861f 003e 61e0 d8bc 3db8 563a
00000200: b695 0e3e caaf 043e 3965 483e b5bc 123e
00000210: f8ce f1bd 1b13 69bd 783e 03be aacf 6a3e
00000220: c8e7 bdbc 2264 01bd 484a 30bd 8ad6 273e
00000230: 17b4 0b3e 8dec 123e a63d 5cbd 6c73 2dbd
00000240: 25e6 57bd d303 43bd f58b 92bd 927a 54bd
00000250: 58ec 61bd 3944 9fbd 906a 45bd 9c40 c0bd
00000260: bdfd 88bd 9072 98bd de21 a0bd 386b 72bd
00000270: 6637 64bd 9f9d 50bd a7c4 9dbd ff18 38bd
00000280: d5f4 ef3d 4fa0 e13d af7c 2a3e 9eb6 f73d
00000290: 76e6 a5bd dbae e9bc 55fc c0bd 75c3 4d3e
000002a0: 3306 6ebb 61fa 1bbc 8984 94bc f97a 0e3e
000002b0: 3fe8 f13d 463f f73d 056d d9bc 6000 a23b
000002c0: b3b0 b33c 2f2c b43c 5cfb 863d 5016 cc3c
000002d0: 7c90 93bc 6720 623c f029 0fbd 370b c93d
000002e0: 341d 243c b2be 463c 5004 7e3c 5146 213d
000002f0: 5ad0 cc3c 0c27 cc3c ba3c 673c 9965 4d3d
00000300: 1e3e cd3d d3d4 ec3d d1d8 863d db1f c63d
00000310: 320b e13b ba96 89bc 4cce 4a3c 6d42 613d
00000320: 07be 29bd 1e5e 05bd efa6 b7bc 8930 ab3d
00000330: b3c8 f23d 184c c43d 26a9 9dbc a6df 27bd
00000340: 3467 aabd ecb3 9fbd 7158 eabd 4c48 adbd
00000350: c744 05bd fb5a 81bd c790 d9bc 1edd 09be
00000360: 1f35 7fbd 3597 87bd bc76 87bd aeec c9bd
00000370: 4f99 aebd 1b2b b0bd 5474 83bd a991 0dbd
00000380: 1fda 0d3e 18bb 013e 13e1 433e f105 113e
00000390: 2d31 e6bd 5b8d 52bd 4da6 fabd 54e9 683e
000003a0: fc58 bcbc bdd5 edbc afed 26bd f4e7 233e
000003b0: 9e4f 083e df84 113e 5a48 46bd 4acb 18bc
000003c0: d720 b3bc 0f37 c5bc c06b f6bc b781 a1bc
000003d0: d123 b4bd 530f d6bd a20e abbd 3760 3cbd
000003e0: b6af b2bd 7911 c6bd 2591 d6bd d375 bcbc
000003f0: 47e7 fdbc a0cf a9bc f5d2 d5bd a01a 67bd

layers.0.egnn.coors_mlp.0.bias f4 [64]
0.16616407 0.10487165 0.14026333 0.1235883 -0.23846442 0.23815694 -0.08636703 0.18537678
0.110385336 -0.13446102 0.24914876 0.07810716 -0.035567805 -0.2378426 0.12633406 -0.08314578
-0.25804374 -0.13701789 0.13041961 -0.2669236 -0.20551275 0.098540775 0.18860069 0.18306571
-0.17124441 0.1970444 -0.11660652 0.17704925 -0.16733605 0.16772826 -0.012654891 0.11201396
-0.19530718 0.16981202 0.21401408 0.021030173 -0.22048678 0.15490629 -0.009679636 0.13794222
0.23406817 0.101581655 0.14679587 -0.19208862 0.16289984 -0.21915111 -0.18232882 -0.028942812
-0.10421639 0.2302994 -0.19250949 -0.016921202 -0.018479314 -0.035637368 0.17725064 -0.08497111
-0.09738038 -0.19760512 0.18398935 0.15976572 0.25696787 0.22638163 0.26087734 -0.029856646
00000000: ea26 2a3e f3c6 d63d 31a1 0f3e dd1b fd3d
00000010: 0430 74be 6adf 733e 33e1 b0bd 69d3 3d3e
00000020: b511 e23d 26b0 09be da20 7f3e a6f6 9f3d
00000030: 8caf 11bd 038d 73be b75d 013e 5648 aabd
00000040: 4f1e 84be 6b4e 0cbe b88c 053e 36aa 88be
00000050: ef71 52be bfcf c93d 8a20 413e 9475 3b3e
00000060: b25a 2fbe 02c6 493e 66cf eebd 664c 353e
00000070: 245a 2bbe f5c0 2b3e 7656 4fbc 9367 e53d
00000080: 9bfe 47be 34e3 2d3e 8226 5b3e 7847 ac3c
00000090: 49c7 61be c19f 1e3e 5697 1ebc ba40 0d3e
000000a0: 91af 6f3e 0b0a d03d a851 163e e1b2 44be
000000b0: 37cf 263e 2669 60be 68b4 3abe 7a19 edbc
000000c0: 676f d5bd 9bd3 6b3e 3521 45be 559e 8abc
000000d0: ee61 97bc 7df8 11bd 3181 353e 5505 aebd
000000e0: 5d6f c7bd ff58 4abe b467 3c3e a099 233e
000000f0: 4b91 833e 96d0 673e b791 853e ed95 f4bc

layers.0.egnn.coors_mlp.3.weight f4 [1, 64]
0.11180277 0.03547989 0.099451914 0.12532257 -0.069968216 0.08754134 -0.015320366 0.09538603
0.12938677 -0.036942583 0.08871715 -0.020443197 0.07246644 -0.073131666 0.119211115 -0.013728639
-0.0743228 -0.037754767 0.11650524 -0.07530172 -0.06610357 0.09273968 0.10097371 0.093012616
-0.05742901 0.08173444 -0.030623205 0.10559595 -0.057333723 0.11044823 0.004316511 0.13568339
-0.06471489 0.08446948 0.08116249 -0.0053765127 -0.07191758 0.11141735 -0.0058977655 0.11160807
0.07835025 0.10500966 0.092969686 -0.06301043 0.09877711 -0.072301775 -0.066232435 0.019111644
-0.021952262 0.08778801 -0.06716883 0.018369144 -0.0057319757 -0.0070590074 0.10560854 -0.0162495
-0.029011814 -0.06663417 0.10447991 0.11034298 0.08685103 0.08282832 0.08704478 0.018773543
00000000: daf8 e43d 5c53 113d 72ad cb3d 8f54 003e
00000010: 7f4b 8fbd e048 b33d 4602 7bbc c059 c33d
00000020: f77d 043e 1b51 17bd 56b1 b53d 7e78 a7bc
00000030: 4969 943d 0ec6 95bd f524 f43d 16ee 60bc
00000040: 8d36 98bd bea4 1abd 4d9a ee3d ca37 9abd
00000050: 4f61 87bd 4dee bd3d 4ecb ce3d 667d be3d
00000060: ae3a 6bbd 6364 a73d 84dd fabc b042 d83d
00000070: c4d6 6abd ae32 e23d 8571 8d3b 96f0 0a3e
00000080: 3e89 84bd 56fe ac3d 8538 a63d 752d b0bb
00000090: 8649 93bd c82e e43d 0b42 c1bb c692 e43d
000000a0: 1976 a03d 4e0f d73d e466 be3d 9d0b 81bd
000000b0: a74b ca3d f412 94bd dfa4 87bd 0690 9c3c
000000c0: 3bd5 b3bc 33ca b33d d08f 89bd e37a 963c
000000d0: 4cd3 bbbb 3f4f e7bb 4a49 d83d ac1d 85bc
000000e0: 2faa edbc 7f77 88bd 90f9 d53d 80fb e13d
000000f0: f4de b13d e5a1 a93d 8944 b23d f9ca 993c

layers.0.egnn.vel_mlp.0.weight f4 [16, 4]
-0.0069769863 0.010997977 0.022040132 -0.020512193 0.011314235 -0.007987988 -0.010809207 0.005593992
0.057120144 -0.03996453 -0.017595513 -0.028187906 0.021343932 0.0042350763 -0.0017857819 -0.0016481101
0.00805289 0.033102877 -0.0043942626 0.02165709 0.010532421 0.009533147 0.011933112 -0.011768917
-0.010035944 0.00519312 0.019516451 -0.0185676 0.023594297 0.018462645 0.003311716 0.0030366252
-0.0111296605 0.0033929527 0.011802858 -0.016079223 -0.0007659674 0.034783445 0.011280639 0.020612106
-0.0012095768 -0.012062285 0.020765236 -0.037121914 -0.005170555 -0.03184446 0.017075153 -0.034776967
0.0050421613 0.011087186 0.0037437917 -0.0044633066 -0.01109095 -0.00749175 0.011806472 -0.021153565
0.051221065 -0.051847693 -0.03530742 -0.011604387 -0.063813984 0.04407242 0.029571213 0.019444373
00000000: 349f e4bb dc30 343c 828d b43c 3009 a8bc
00000010: 575f 393c 0de0 02bc 1a19 31bc ce4d b73b
00000020: d0f6 693d d9b1 23bd 7724 90bc 53ea e6bc
00000030: 78d9 ae3c 65c6 8a3b e610 eaba 6605 d8ba
00000040: 45f0 033c e296 073d bffd 8fbb 366a b13c
00000050: 2d90 2c3c eb30 1c3c 1983 433c 6ad2 40bc
00000060: cd6d 24bc 0c2b aa3b f7e0 9f3c 141b 98bc
00000070: d448 c13c f93e 973c 6009 593b 1e02 473b
00000080: 2e59 36bc 4d5c 5e3b c660 413c 93b8 83bc
00000090: 34cb 48ba 1679 0e3d 6ed2 383c b8da a83c
000000a0: aa8a 9eba e4a0 45bc db1b aa3c 260d 18bd
000000b0: c26d a9bb 566f 02bd 31e1 8b3c 4b72 0ebd
000000c0: b738 a53b 07a7 353c 675a 753b ee40 92bb
000000d0: d1b6 35bc 5b7d f5bb ef6f 413c 3e4a adbc
000000e0: 2ecd 513d 3f5e 54bd 839e 10bd 5420 3ebc
000000f0: e8b0 82bd 4885 343d 543f f23c ce49 9f3c

layers.0.egnn.vel_mlp.0.bias f4 [16]
-0.18475813 0.13356109 -0.674646 -0.11813158 -0.18892933 -0.46022078 -0.24848841 -0.63221496
-0.25490963 -0.3685588 -0.39274213 -0.822049 -0.42411155 -0.29062867 -0.06840387 -0.6456775
00000000: 3c31 3dbe 3dc4 083e 9ab5 2cbf f8ee f1bd
00000010: b176 41be 0fa2 ebbe bf73 7ebe d7d8 21bf
00000020: 8483 82be bdb3 bcbe 7f15 c9be ce71 52bf
00000030: 2625 d9be 48cd 94be 5417 8cbd 1f4b 25bf

layers.0.egnn.vel_mlp.3.weight f4 [1, 16]
0.001368802 0.00029551817 0.035792027 -0.0011694579 -0.015756918 0.001233455 0.0024142847 -0.0054094815
0.002132022 -0.015262866 0.010479264 0.021071162 -0.0003146684 0.005634823 0.03789441 -0.037252467
00000000: 6069 b33a c7ef 9a39 a99a 123d 7f48 99ba
00000010: a714 81bc e2ab a13a fa38 1e3b 0542 b1bb
00000020: 65b9 0b3b 1a11 7abc 38b1 2b3c 6e9d ac3c
00000030: 14fa a4b9 52a4 b83b 2b37 1b3d 0b96 18bd

layers.1.egnn.edge_mlp.0.weight f4 [20, 10]
-0.21088748 -0.08935587 -0.060728844 0.12906073 -0.20669383 -0.0899626 -0.06531782 0.120842665
-0.5843353 0.36590803 0.024137828 -0.0016262843 -0.0022760022 -0.02717301 0.020418474 0.0027136474
0.0071293744 -0.048426867 0.12792222 -0.032155633 0.051075082 0.04072934 0.033814132 -0.055132426
0.048748847 0.0526683 0.038553152 -0.03615117 0.004177658 -0.117115445 0.089824915 0.0649469
0.058818646 -0.049685758 0.08548427 0.06813354 0.07233728 -0.06650665 0.050863516 -0.10465917
-0.11133824 -0.014249138 -0.022376379 0.027551392 -0.108694345 -0.019390523 -0.026368521 0.008012411
-1.668516 0.16255781 -0.06025 -0.015477095 -0.024168728 -0.031145781 -0.05972378 -0.018550323
-0.021882894 -0.033530038 -0.12171473 0.12776563 0.059424218 0.0543093 0.043600056 -0.04603858
0.054263465 0.06427755 0.049652033 -0.028133485 0.0030191871 -0.12267624 -0.017707132 0.013697679
0.03409907 0.101006255 -0.016620025 0.01275469 0.04413226 0.09284452 -0.29052317 0.12676203
-0.03078494 -0.0008538923 0.036207307 0.061853036 -0.027182166 0.0001450323 0.039376207 0.059137937
-0.27793002 0.1482703 -0.15024447 -0.15253197 -0.18160792 0.29740202 -0.15205303 -0.15125397
-0.18107498 0.29276058 -0.11531475 0.14575253 0.07242448 0.04683864 0.04237555 -0.0436815
0.067959286 0.050417546 0.052825708 -0.06313277 0.07236185 -0.085702345 -0.0737331 -0.031530738
-0.021184623 -0.04713017 -0.06894188 -0.03462997 -0.021161022 -0.059529122 -0.14225034 0.16716787
-0.09445584 -0.0032597792 0.0005107374 0.06994957 -0.09077808 -0.010360073 0.00012594153 0.03719496
-0.8567368 0.15297562 -0.034627363 -0.011677813 0.020459061 0.0457586 -0.033087097 -0.0144037595
0.0214646 0.04028912 -0.23655304 0.14734924 -0.20951109 -0.21717133 -0.23938721 0.35405907
-0.21358027 -0.22666745 -0.24793372 0.33578104 -0.164517 0.22962297 -0.13232835 -0.1395996
-0.16717559 0.28641903 -0.13704741 -0.13499627 -0.16158532 0.28139007 -0.09472371 0.13051236
-0.32501954 -0.23777246 -0.25260237 0.16958201 -0.32321867 -0.239662 -0.25897795 0.15653615
-5.64514 0.41946518 -0.124531135 -0.12744284 -0.15792511 0.2707142 -0.13144772 -0.13010387
-0.16520308 0.2592137 -0.1268326 0.13202013 -0.06807834 -0.037898786 -0.017699892 -0.029097864
-0.06652562 -0.039121605 -0.018393056 -0.040753875 -0.16504875 0.16708378 -0.026985181 0.014870587
-0.014844162 0.054376163 -0.03292544 0.007499568 -0.0037882607 0.050174285 -0.10610092 0.07474961
00000000: e3f2 57be 3600 b7bd cfbe 78bd 7f28 043e
00000010: 8ca7 53be 503e b8bd 59c5 85bd 5c7c f73d
00000020: 0097 15bf 4c58 bb3e b2bc c53c 0c29 d5ba
00000030: fb28 15bb ef99 debc a544 a73c 73d7 313b
00000040: 879d e93b 405b 46bd 0bfe 023e a0b5 03bd
00000050: 1b34 513d cfd3 263d b080 0a3d 8ad2 61bd
00000060: dfac 473d b7ba 573d e9e9 1d3d 4013 14bd
00000070: bce4 883b 39da efbd 20f6 b73d e102 853d
00000080: d2eb 703d 4b83 4bbd 6012 af3d 9989 8b3d
00000090: 9125 943d a334 88bd 4356 503d 8c57 d6bd
000000a0: 4e05 e4bd 3775 69bc ab4e b7bc 75b3 e13c
000000b0: 249b debd e0d8 9ebc cc02 d8bc 7d46 033c
000000c0: ef91 d5bf 8e75 263e b4c8 76bd a493 7dbc
000000d0: 7ffd c5bc 7025 ffbc eca0 74bd d9f6 97bc
000000e0: c143 b3bc cb56 09bd 9345 f9bd fed4 023e
000000f0: cf66 733d 6e73 5e3d f995 323d f392 3cbd
00000100: 5e43 5e3d f3a3 833d ee5f 4b3d 3278 e6bc
00000110: 8edd 453b ae3d fbbd 8c0e 91bc 3b6c 603c
00000120: 77ab 0b3d 5edc ce3d b826 88bc 0cf9 503c
00000130: 07c4 343d 4525 be3d 74bf 94be e8cd 013e
00000140: b330 fcbc bed7 5fba 1d4e 143d 9c59 7d3d
00000150: 22ad debc d013 1839 f248 213d 9f3a 723d
00000160: d84c 8ebe 2bd4 173e b0d9 19be 5731 1cbe
00000170: 6df7 39be 1445 983e cab3 1bbe 52e2 1abe
00000180: b86b 39be b7e4 953e 242a ecbd 2740 153e
00000190: 4953 943d e0d9 3f3d fc91 2d3d 5feb 32bd
000001a0: 3d2e 8b3d a182 4e3d c55f 583d c14b 81bd
000001b0: 7332 943d b684 afbd 6101 97bd 6026 01bd
000001c0: 608b adbc 910b 41bd 6631 8dbd 28d8 0dbd
000001d0: e159 adbc cfd4 73bd 13aa 11be 0e2e 2b3e
000001e0: 1072 c1bd 05a2 55bb 02e3 053a b841 8f3d
000001f0: dce9 b9bd 4cbd 29bc 2c0f 0439 be59 183d
00000200: 1a53 5bbf a4a5 1c3e 6cd5 0dbd 4c54 3fbc
00000210: c399 a73c 5f6d 3b3d 5686 07bd bffd 6bbc
00000220: 87d6 af3c 3406 253d f63a 72be b8e2 163e
00000230: 138a 56be 2962 5ebe ec21 75be 3b47 b53e
00000240: c9b4 5abe 831b 68be 56e2 7dbe 7eeb ab3e
00000250: 2577 28be 4922 6b3e 1581 07be 33f3 0ebe
00000260: 1430 2bbe 84a5 923e 2856 0cbe 763c 0abe
00000270: 9f76 25be 5c12 903e 81fe c1bd 08a5 053e
00000280: f668 a6be a07a 73be 1955 81be e8a6 2d3e
00000290: eb7c a5be f569 75be c298 84be 034b 203e
000002a0: fda4 b4c0 24c4 d63e 2e0a ffbd 6080 02be
000002b0: 1fb7 21be 0d9b 8a3e 3b9a 06be f339 05be
000002c0: ff2a 29be a8b7 843e 68e0 01be 4930 073e
000002d0: a86c 8bbd c23b 1bbd 5dff 90bc a55e eebc
000002e0: 963e 88bd fa3d 20bd 09ad 96bc 89ed 26bd
000002f0: 8a02 29be 0318 2b3e 0710 ddbc c3a3 733c
00000300: ee34 73bc 8ab9 5e3d d4dc 06bd f0be f53b
00000310: 7844 78bb 8d83 4d3d 704b d9bd 5316 993d

layers.1.egnn.edge_mlp.0.bias f4 [20]
0.1388089 -0.056582533 0.085579574 -0.106087916 0.16586372 0.04321098 0.12638508 0.19187611
-0.024182003 0.32822835 -0.097194366 0.011061887 0.16310674 -0.0046139127 0.36954254 0.30670655
0.13298176 0.40608078 0.031117493 0.22658907
00000000: ec23 0e3e 16c3 67bd 5844 af3d 9f44 d9bd
00000010: 2ed8 293e fffd 303d 176b 013e 2c7b 443e
00000020: 5619 c6bc 8c0d a83e d70d c7bd eb3c 353c
00000030: 7405 273e 4e30 97bb ae34 bd3e a408 9d3e
00000040: 5f2c 083e d2e9 cf3e 1dea fe3c f706 683e

layers.1.egnn.edge_mlp.3.weight f4 [16, 20]
0.1883385 -0.10675851 -0.02883484 -0.07729198 0.5469259 0.09355959 -0.031959895 0.19739224
0.09756454 0.009582221 -0.08645645 0.094891034 0.26279283 0.09827663 0.015653415 0.00050234137
1.8163414 -0.0007104294 0.09858664 0.1211332 0.085009836 0.065700725 -0.013699973 0.07565688
0.12565637 0.044683855 -0.018805996 0.070665635 0.036592513 0.013966147 0.07421006 0.045101624
0.0049338643 0.039792486 0.0020665799 0.005947489 1.9246339 0.015903046 0.04295135 -0.0117568625
0.15909205 -0.05223193 -0.00829051 -0.020311981 0.45566517 0.063668296 -0.010427219 0.12140089
0.06766271 0.00909911 -0.028286966 0.07075431 0.20317723 0.07104161 0.016960988 0.000788901
2.064252 0.017968 0.07193103 0.05911772 0.5612948 -0.038773872 -0.2568331 -0.11873228
0.8203392 0.13722917 -0.22485419 0.2487696 0.12515742 0.47072196 -0.09968879 0.096776225
0.59402907 0.116245426 0.5651938 0.44702062 -1.5139441 0.48317948 0.118302055 0.39780304
0.43351465 0.019724973 -0.15266193 -0.04587603 0.6394991 0.06253752 -0.12937264 0.19272986
0.08054496 0.27338907 -0.028026609 0.037222758 0.39007035 0.06500088 0.27343374 0.26618508
-1.3876038 0.2751389 0.05366489 0.291274 0.14592305 -0.056689642 0.0014473975 -0.026749667
0.48655668 0.05197936 0.0019264901 0.10545121 0.054309264 0.027246425 -0.034109358 0.055951566
0.2176114 0.05646679 0.010896354 0.025159828 2.094019 0.035756025 0.059136126 0.07986868
0.22467487 0.028096544 0.03883656 0.052634414 0.9915519 0.03697074 0.043323778 0.06136188
0.04494345 -0.0018551026 0.044876423 0.046992652 0.599686 0.045213588 -0.028201895 -0.0024166678
2.3563979 0.0013120923 0.04731917 0.04739759 0.22651906 0.011293932 0.021619633 0.03020947
0.9610298 0.04872099 0.037256792 0.08008113 0.048553366 0.055170674 0.020862292 0.04701911
0.35393602 0.046461727 0.07479403 0.0418415 2.7960098 0.07024141 0.046515558 0.09490821
0.12686668 -0.034145895 0.008515177 -0.0069248583 0.43355334 0.040520113 0.012322121 0.054464992
0.039486296 0.029699348 -0.014906914 0.04359525 0.1806016 0.039092377 0.029470587 0.024396684
2.0406678 0.038865574 0.041396976 0.08114932 0.1551222 -0.06064781 -0.004851322 -0.028829332
0.45444253 0.062234405 -0.009554123 0.13314229 0.066250965 0.009971055 -0.037922412 0.067172945
0.20371886 0.06896167 0.017057486 0.0010941122 1.9752334 0.0130924415 0.07039342 0.066999845
-0.14256807 0.064786136 -0.12060416 0.03890622 -0.82606125 -0.03182412 -0.12379882 0.0011288836
-0.052844837 0.09806839 0.040778838 -0.049755946 -0.25809547 -0.04881791 0.05783236 0.11793878
0.03620859 0.08270223 -0.052102383 -0.021625465 0.14766821 -0.053659387 0.00063219946 -0.022604698
0.44699234 0.051705617 -0.0021795903 0.12578249 0.05661351 0.014234221 -0.028881792 0.058661215
0.19864306 0.059885778 0.025684496 0.008462709 2.0692768 0.02290446 0.061147068 0.061235562
0.22489834 -0.13089733 -0.04670758 -0.10387356 0.6209344 0.124128334 -0.05202805 0.23052323
0.12707569 0.002624067 -0.11091994 0.12427814 0.30260885 0.12737975 0.010223407 -0.0041936035
00000000: cfdb 403e 35a4 dabd 0b37 ecbc 424b 9ebd
00000010: 5603 0c3f 2c9c bf3d 61e8 02bd 3121 4a3e
00000020: ebcf c73d bffe 1c3c 1410 b1bd 3b56 c23d
00000030: c88c 863e 4245 c93d 973b 803c 8faf 033a
00000040: e07d e83f 1c3c 3aba cbe7 c93d af14 f83d
00000050: a319 ae3d 1a8e 863d da75 60bc fff1 9a3d
00000060: 10ac 003e 6b06 373d 080f 9abc 25b9 903d
00000070: 08e2 153d 44d2 643c 72fb 973d 7bbc 383d
00000080: 41ac a13b 72fd 223d 756f 073b 27e3 c23b
00000090: 675a f63f 1b47 823c c1ed 2f3d db9f 40bc
000000a0: 07e9 223e 26f1 55bd ebd4 07bc 5065 a6bc
000000b0: f24c e93e 8664 823d edd6 2abc 08a1 f83d
000000c0: bf92 8a3d 6f14 153c 11ba e7bc a3e7 903d
000000d0: b10d 503e 437e 913d c5f1 8a3c 40ce 4e3a
000000e0: b41c 0440 a131 933c 9350 933d 6c25 723d
000000f0: 04b1 0f3f 5ad1 1ebd a17f 83be e929 f3bd
00000100: c001 523f ce85 0c3e 2d40 66be 75bd 7e3e
00000110: 4429 003e 7802 f13e a329 ccbd 9d32 c63d
00000120: 4a12 183f 1512 ee3d 8ab0 103f e3df e43e
00000130: ecc8 c1bf 4d63 f73e 5948 f23d d7ac cb3e
00000140: a2f5 dd3e 4496 a13c 6953 1cbe 81e8 3bbd
00000150: 37b6 233f ac13 803d 437a 04be fa5a 453e
00000160: c2f4 a43d a7f9 8b3e 0f98 e5bc e476 183d
00000170: 4db7 c73e 2e1f 853d 82ff 8b3e 6949 883e
00000180: 009d b1bf 02df 8c3e b7cf 5b3d de21 953e
00000190: da6c 153e 6633 68bd 9ab6 bd3a 1e22 dbbc
000001a0: f51d f93e 4fe8 543d 4882 fc3a cef6 d73d
000001b0: 6473 5e3d e533 df3c 41b6 0bbd 782d 653d
000001c0: 86d5 5e3e b949 673d 9f86 323c fc1b ce3c
000001d0: 6804 0640 e974 123d b938 723d 3192 a33d
000001e0: 2b11 663e b92a e63c 1613 1f3d 2f97 573d
000001f0: 58d6 7d3f a16e 173d 4674 313d 9856 7b3d
00000200: 9f16 383d ea26 f3ba 57d0 373d 5e7b 403d
00000210: 0685 193f e231 393d a907 e7bc f560 1ebb
00000220: 39cf 1640 83fa ab3a bfd1 413d fa23 423d
00000230: 9df4 673e 2f0a 393c a81b b13c da79 f73c
00000240: 0d06 763f a98f 473d 949a 183d 9301 a43d
00000250: e5df 463d a5fa 613d 66e7 aa3c 1c97 403d
00000260: 1a37 b53e a74e 3e3d 9d2d 993d fe61 2b3d
00000270: d3f1 3240 bada 8f3d 1987 3e3d 3c5f c23d
00000280: 57e9 013e 91dc 0bbd 3e83 0b3c ece9 e2bb
00000290: b4fa dd3e 6bf8 253d b9e2 493c af16 5f3d
000002a0: 62bc 213d 0c4c f33c 213c 74bc ef90 323d
000002b0: a0ef 383e 541f 203d 4d6c f13c 8edb c73c
000002c0: 4d9a 0240 8231 1f3d e08f 293d 9d31 a63d
000002d0: 5bd8 1e3e d769 78bd d7f7 9ebb 7e2b ecbc
000002e0: b1ac e83e 81e9 7e3d e588 1cbc 7456 083e
000002f0: 96ae 873d a35d 233c 8854 1bbd f891 893d
00000300: ad9b 503e c73b 8d3d 24bc 8b3c 5068 8f3a
00000310: 73d4 fc3f ae81 563c 6d2a 903d 3737 893d
00000320: 5dfd 11be 98ae 843d 50ff f6bd 215c 1f3d
00000330: c078 53bf 025a 02bd 3c8a fdbd 0cf7 933a
00000340: d473 58bd 14d8 c83d b607 273d e4cc 4bbd
00000350: 1725 84be 4af5 47bd a0e1 6c3d e389 f13d
00000360: 754f 143d c95f a93d 4f69 55bd e327 b1bc
00000370: 5636 173e f2c9 5bbd 30ba 253a 7d2d b9bc
00000380: 2edc e43e 45c9 533d 75d7 0ebb 20cd 003e
00000390: 91e3 673d a636 693c 8299 ecbc be46 703d
000003a0: 1669 4b3e ca4a 753d 4b68 d23c 2da7 0a3c
000003b0: 086f 0440 22a2 bb3c 5975 7a3d 24d2 7a3d
000003c0: c04b 663e f309 06be 7350 3fbd a9bb d4bd
000003d0: 8ff5 1e3f ff36 fe3d 5d1b 55bd 480e 6c3e
000003e0: 2120 023e 8af8 2b3b fe29 e3bd 8a85 fe3d
000003f0: 8cef 9a3e d66f 023e 1480 273c 7f6a 89bb

layers.1.egnn.edge_mlp.3.bias f4 [16]
0.12923843 -0.014497861 0.13103262 0.33804715 0.1592737 0.1202775 0.009648345 0.07830082
0.071605556 0.1261946 -0.15830289 0.12240376 0.14544342 -0.15723385 -0.18299748 0.13368805
00000000: 1457 043e 7088 6dbc 6a2d 063e 8414 ad3e
00000010: a518 233e 0d54 f63d 1814 1e3c 2e5c a03d
00000020: efa5 923d 2839 013e 271a 22be d3ae fa3d
00000030: 1fef 143e e901 21be b163 3bbe 85e5 083e

layers.1.egnn.node_mlp.0.weight f4 [8, 20]
-0.0016748743 -0.00013729837 0.0002748739 0.00012973166 0.0007522238 0.00034784255 -0.00037643197 -0.00047261783
0.0011551821 0.0004070034 2.3961024e-05 0.0010898447 -0.00051704264 0.00092917203 -0.0012625083 -0.00040073143
0.00015544578 0.0024699618 -0.0019517553 -0.0016524934 0.00039535452 -0.00027468757 -0.001308188 0.00013140994
-0.0020405452 0.0008780964 -0.0016417231 0.00043242116 -0.0008616129 -0.0008420838 -0.00097488327 0.00029294266
0.00078333524 -0.00063782407 0.00079307606 -0.0019306905 0.0014628917 -0.0008651892 6.952905e-05 -0.00081959215
0.00014690367 0.0008945879 -0.00020681201 -0.0005602705 -0.00031502958 0.0017374067 -0.00025449425 -0.0018877183
0.00020614969 0.00010320717 0.00090988184 0.0022563892 0.0011770593 -0.00050186075 -0.00033596443 -0.00083204336
-0.0019751186 0.0010991654 -0.0011604462 0.0010270686 -0.00081388076 -0.00012551164 0.0013574404 -0.00041206676
0.0006293199 -0.0009581234 0.00060000864 -9.528378e-05 0.000459884 -0.0007308636 0.0010960125 4.0897437e-05
-0.0018859477 -0.0014928725 0.0017351267 -2.9459174e-05 -5.555138e-05 0.0004015603 -0.0004945113 0.00045637108
-0.00040769548 0.0008823031 -0.00066223077 0.0016523883 8.708243e-05 0.0010446261 0.00037387837 0.00119431
-0.00022225872 -0.0011211109 0.0005029073 -0.001194385 -0.00032255918 -0.0007469104 -0.00080726156 0.00067170255
-0.0010216362 -0.00021079372 0.0005412198 0.0013706489 -0.00031370827 0.00063811254 -0.00054024486 -0.0016805555
0.0012313639 -0.0010947039 0.0014171785 0.0022981246 0.00014805346 -6.827739e-05 0.000990403 -0.0010655753
0.0019169169 -0.0006550411 -0.00041162633 -0.0013669867 -0.00014035149 -0.0016125144 -0.0015126059 -0.0017820888
0.0011168001 0.0008389028 0.0019705093 -0.0011135176 -0.0008537403 -0.0003627387 0.0010690108 -0.0002556759
-0.0011270895 0.0005577034 0.0001419337 0.001148201 -0.0011429883 0.00055254885 0.0003125087 -0.0004940059
0.0011023103 0.000990445 -0.00023663184 0.00034776021 -0.0002560819 -0.00095951697 -4.9586604e-05 -0.0007389785
-0.00037502192 0.00088725454 -0.0008833781 0.000537837 4.559451e-05 -0.00048399938 0.000494788 -0.00026956009
-0.0011123912 0.00026383318 0.0002919685 0.0003781816 0.00059988926 0.00017710068 0.0027391706 0.0024093273
00000000: 7587 dbba c0f7 0fb9 f31c 9039 9408 0839
00000010: e230 453a a35e b639 d85b c5b9 b1c9 f7b9
00000020: 7b69 973a 1263 d539 e8ff c837 1fd9 8e3a
00000030: 258a 07ba ae93 733a c07a a5ba 4319 d2b9
00000040: 29ff 2239 15df 213b 0ad2 ffba 7a98 d8ba
00000050: 9647 cf39 f103 90b9 8177 abba 16cb 0939
00000060: abba 05bb 0d30 663a 162f d7ba 96b6 e239
00000070: dddd 61ba 4abf 5cba 4f8f 7fba 1996 9939
00000080: bd58 4d3a a633 27ba 6fe6 4f3a 390f fdba
00000090: 80be bf3a ddcd 62ba 20d0 9138 e6d9 56ba
000000a0: 270a 1a39 c782 6a3a addb 58b9 1edf 12ba
000000b0: 8e2a a5b9 b2b9 e33a a46d 85b9 516d f7ba
000000c0: e329 5839 ed70 d838 2385 6e3a eedf 133b
000000d0: 8e47 9a3a 4e8f 03ba 6224 b0b9 7c1d 5aba
000000e0: fe70 01bb df11 903a 1d1a 98ba b49e 863a
000000f0: 9d5a 55ba c69b 03b9 24ec b13a aa0a d8b9
00000100: f2f8 243a 932a 7bba e649 1d3a 17d3 c7b8
00000110: 961c f139 6d97 3fba 14a8 8f3a 4a89 2b38
00000120: e731 f7ba 7dac c3ba 316d e33a 181f f7b7
00000130: d7ff 68b8 8388 d239 17a2 01ba 1745 ef39
00000140: f6bf d5b9 5c4a 673a 8e99 2dba f394 d83a
00000150: 06a0 b638 d6eb 883a 1b05 c439 658a 9c3a
00000160: 1f0e 69b9 3df2 92ba 8ad5 033a e98c 9cba
00000170: 291d a9b9 4fcc 43ba 689e 53ba 3215 303a
00000180: 6ce8 85ba 8208 5db9 a5e0 0d3a 58a7 b33a
00000190: 3679 a4b9 0247 273a 389f 0dba 1646 dcba
000001a0: b765 a13a 2b7c 8fba 9fc0 b93a 229c 163b
000001b0: cc3e 1b39 2530 8fb8 69d0 813a c6aa 8bba
000001c0: 0f41 fb3a 10b7 2bba 8dcf d7b9 762c b3ba
000001d0: 512b 13b9 015b d3ba a242 c6ba fa94 e9ba
000001e0: 9861 923a d0e9 5b3a a923 013b 73f3 91ba
000001f0: 8bcd 5fba f72d beb9 0d1e 8c3a 3d0c 86b9
00000200: d9ba 93ba d732 123a 0ad4 1439 3b7f 963a
00000210: 53d0 95ba edd8 103a 35d8 a339 2d80 01ba
00000220: 657b 903a d2d1 813a 6020 78b9 9653 b639
00000230: bb42 86b9 1888 7bba 36fb 4fb8 02b8 41ba
00000240: 979e c4b9 a596 683a 8092 67ba a1fd 0c3a
00000250: bb3c 3f38 4cc1 fdb9 a9b4 013a be53 8db9
00000260: a8cd 91ba 1753 8a39 5913 9939 ad46 c639
00000270: e341 1d3a 1ab4 3939 a883 333b cee5 1d3b

layers.1.egnn.node_mlp.0.bias f4 [8]
-0.17909145 0.06718902 -0.19529627 -0.04021885 0.15682822 -0.13476571 0.004069706 -0.05768123
00000000: c063 37be 669a 893d bffb 47be 85bc 24bd
00000010: 9497 203e 0600 0abe 2b5b 853b 2743 6cbd

layers.1.egnn.node_mlp.3.weight f4 [4, 8]
0.00040998062 0.0005034255 -0.00080514746 -0.000866629 0.0002910888 0.0012575123 -0.00076867535 0.00083396194
-0.00076425984 0.0005032525 -0.0011122556 0.0005688474 0.0020112584 -0.00091843185 0.0018463182 0.0007791354
0.00060756574 0.001147864 2.8159358e-05 -4.516036e-05 0.00026215528 -0.00024401718 -0.00052167295 -0.0010214073
-0.00027749635 0.0007129733 -0.0008220149 0.000822703 -0.000703577 -0.0008029573 -0.00028032254 -0.0001039404
00000000: abf2 d639 50f8 033a 8810 53ba 7d2e 63ba
00000010: 479d 9839 1cd3 a43a ee80 49ba 3d9e 5a3a
00000020: 9c58 48ba b4ec 033a 1bc9 91ba b41e 153a
00000030: 51cf 033b ebc2 70ba 2900 f23a e43e 4c3a
00000040: 0c45 1f3a ed73 963a c337 ec37 916a 3db8
00000050: e371 8939 ddde 7fb9 e1c0 08ba bee0 85ba
00000060: ee7c 91b9 d4e6 3a3a 7c7c 57ba aaaa 573a
00000070: 4170 38ba 8d7d 52ba 41f8 92b9 94fa d9b8

layers.1.egnn.node_mlp.3.bias f4 [4]
-0.33208898 0.17034146 0.15106438 -0.16145906
00000000: 9107 aabe fe6d 2e3e 9fb0 1a3e 8655 25be
