experiments/models/best_model_N20_batch32_lr0.001_fd4_b0.5.pth (torch, 31338 bytes, 32 tensors)

time_embedding.0.weight f4 [8, 1]
0	0xbf750b60	-0.9572048
1	0x3ec0a3ce	0.37624973
2	0x3f09a588	0.53768206
3	0x3e1ac12b	0.1511275
4	0x3f22c363	0.63579386
5	0x3f609965	0.8773406
6	0xbf250e26	-0.64474714
7	0xbf4c256b	-0.79744595

time_embedding.0.bias f4 [8]
0	0x3e6027ee	0.21890232
1	0x3f5b386b	0.8563296
2	0xbf6bd3a8	-0.92119837
3	0x3e84e979	0.25959376
4	0x3e9ddf35	0.30834356
5	0xbd91b43a	-0.071144536
6	0x3d375e8d	0.044767905
7	0x3f43db58	0.76506567

time_embedding.3.weight f4 [4, 8]
0	0x3e4256db	0.18978445
1	0x3db5d727	0.08878928
2	0x3cb515d5	0.022105137
3	0xbd997163	-0.0749233
4	0x3e57c043	0.21069436
5	0x3c44a940	0.012003243
6	0xbe741cae	-0.23839065
7	0xbd2d697c	-0.042336926
8	0x3da19639	0.07889981
9	0x3defd724	0.11710957
10	0xbe821323	-0.25405225
11	0x3c9ff06a	0.019523818
12	0x3e27a5fe	0.16371915
13	0x3e47a395	0.19495995
14	0xbdec97bb	-0.11552378
15	0x3d548f5b	0.051894527
16	0x3c076ed3	0.008266169
17	0x3cf311f6	0.02967165
18	0x3e0a1981	0.13486291
19	0x3d1b6e14	0.037946776
20	0x3d3f9151	0.046769444
21	0x3e0decf1	0.13859917
22	0x3e368432	0.17823866
23	0x3ddf59d5	0.10905806
24	0xbc3d96dd	-0.011571613
25	0xbea774b9	-0.3270624
26	0xbe9b5ef2	-0.30345875
27	0xbd83bf97	-0.06433027
28	0xbe76cfe9	-0.24102749
29	0xbeaa449b	-0.33255467
30	0x3e8340b3	0.256353
31	0x3e65ef94	0.22454673

time_embedding.3.bias f4 [4]
0	0xbe8123bf	-0.25222585
1	0x3ec1137f	0.37710187
2	0xbdeeea7a	-0.116658166
3	0x3f1edf42	0.62059414

layers.0.egnn.edge_mlp.0.weight f4 [20, 10]
0	0x3d69b0c7	0.057053354
1	0xbe31583b	-0.17318814
2	0xbce2d320	-0.027688563
3	0x3d9c2b0a	0.076253965
4	0x3d633493	0.05547006
5	0xbe1d523b	-0.153634
6	0xbc5aeb6f	-0.013361796
7	0x3d5d4c8d	0.054028083
8	0xbe2b1b86	-0.16709718
9	0xbe1ddac8	-0.1541549
10	0xbdb45c4c	-0.08806667
11	0x3e04cd79	0.12969007
12	0xbd85ae8c	-0.06527433
13	0x3d0d5702	0.034506805
14	0xbd895aa0	-0.067067385
15	0x3dea7845	0.11448721
16	0xbd8b9993	-0.06816401
17	0x3d0ed997	0.03487548
18	0x3e4bed11	0.19914652
19	0x3dd73479	0.10508055
20	0x3d739bc1	0.05947471
21	0xbe2e43e4	-0.17018086
22	0xbc83e53f	-0.016100524
23	0x3d95bc8a	0.073113516
24	0x3d75f5a1	0.060048703
25	0xbe16ed97	-0.14739071
26	0xbaa36b0d	-0.0012467817
27	0x3d316467	0.04330864
28	0xbe06c043	-0.1315928
29	0xbe188f10	-0.14898324
30	0x3e05900f	0.13043235
31	0xbe85f5bb	-0.2616404
32	0xb954dce2	-0.00020300181
33	0x3c328fd1	0.010898546
34	0x3e0749af	0.13211702
35	0xbe750345	-0.23927028
36	0x3c81112b	0.015755257
37	0xbcd26ac6	-0.02568568
38	0xbe677cbb	-0.22606175
39	0xbe800de2	-0.25010592
40	0x3df3c9d3	0.11903729
41	0xbe7ddede	-0.24792048
42	0xbbdcb507	-0.0067354473
43	0x3cb59745	0.022166857
44	0x3df4ac47	0.11946922
45	0xbe63a921	-0.22232486
46	0x3c20afa1	0.009807498
47	0xbc3b1c08	-0.011420257
48	0xbe53bab0	-0.20676684
49	0xbe6ca374	-0.23109227
50	0xbd6f2f10	-0.05839449
51	0x3dccd1bd	0.10000942
52	0xbcb4fe9d	-0.022094065
53	0x3c982d51	0.018576296
54	0xbd2ba5c0	-0.04190612
55	0x3db0e3d8	0.08637208
56	0xbcbec371	-0.023286553
57	0x3cf69141	0.03009856
58	0x3dbf299a	0.09334107
59	0x3da381a7	0.079837136
60	0xbdba2a7b	-0.09090134
61	0x3dfacb90	0.12245858
62	0xbd36a344	-0.044589296
63	0x3d51107e	0.05104112
64	0xbd82c1dc	-0.06384632
65	0x3de11708	0.10990721
66	0xbd27863e	-0.040899508
67	0x3d72ea54	0.059305504
68	0x3dcc3b0e	0.09972201
69	0x3dd3fe46	0.10351233
70	0xbd91087e	-0.07081698
71	0x3ddebf7e	0.10876368
72	0xbd06142a	-0.032734074
73	0x3cf70832	0.030155275
74	0xbd476895	-0.04868372
75	0x3dbfc612	0.09363951
76	0xbcfea196	-0.03108291
77	0x3d15702f	0.03648394
78	0x3de01dc7	0.109431796
79	0x3db618c1	0.0889144
80	0x3dc5da80	0.09660816
81	0xbe624f8e	-0.2210066
82	0xbc673098	-0.014110707
83	0x3d2a47c7	0.04157236
84	0x3dc521a1	0.09625555
85	0xbe4ba6fb	-0.19887917
86	0x3a882610	0.001038732
87	0x3c1fdef3	0.009757745
88	0xbe409bb8	-0.18809402
89	0xbe51f398	-0.2050308
90	0x3d9f7949	0.07786805
91	0xbe412a39	-0.18863763
92	0xbc82356f	-0.01589462
93	0x3d6948f8	0.056954354
94	0x3d993822	0.074814096
95	0xbe2adad6	-0.16685042
96	0xba8a379e	-0.001054514
97	0x3cc41836	0.023937326
98	0xbe160ca1	-0.14653255
99	0xbe2e099f	-0.16995858
100	0xbd7e95d7	-0.062154617
101	0x3dd574fa	0.10422702
102	0xbca76cf4	-0.020437695
103	0x3c3914ef	0.011296495
104	0xbd30badb	-0.04314695
105	0x3db624e8	0.08893758
106	0xbcbf9a25	-0.023388932
107	0x3cfd0100	0.030884266
108	0x3da8eb7e	0.082480416
109	0x3da9190f	0.08256733
110	0xbd928e83	-0.07156088
111	0x3de64e36	0.11245386
112	0xbd027726	-0.03185191
113	0x3ce68f8f	0.028144626
114	0xbd517383	-0.05113555
115	0x3dc658fa	0.0968494
116	0xbcff571c	-0.031169467
117	0x3d1e2c6e	0.03861659
118	0x3dcb0d77	0.099146776
119	0x3db727c0	0.089431286
120	0x3e12ef18	0.1434902
121	0xbe8eee96	-0.27916402
122	0xba2a8789	-0.00065051817
123	0x3a98aec0	0.0011648759
124	0x3e191bf7	0.14952074
125	0xbe82b434	-0.2552811
126	0x3c868909	0.016422765
127	0xbd267641	-0.04064012
128	0xbe88dad9	-0.26729468
129	0xbe8935b6	-0.2679879
130	0xbd9778e1	-0.07396103
131	0x3de19baf	0.110160224
132	0xbd0b660c	-0.034032866
133	0x3d0ffb6a	0.035151877
134	0xbd52bd01	-0.05144978
135	0x3dc7e57a	0.09760566
136	0xbd004f1b	-0.03132544
137	0x3d28e92e	0.041238002
138	0x3dd27e7e	0.10278033
139	0x3dbfbded	0.09362397
140	0xbd813ce9	-0.06310446
141	0x3dd27913	0.10276999
142	0xbce2db74	-0.027692534
143	0x3ccd3722	0.025050703
144	0xbd36c472	-0.04462094
145	0x3db64e20	0.0890162
146	0xbcdcf72b	-0.026973328
147	0x3d111fa8	0.03543058
148	0x3dc86dc9	0.09786565
149	0x3da791be	0.08182095
150	0x3d63e86f	0.055641588
151	0xbe302a78	-0.172037
152	0xbcd52ecb	-0.02602329
153	0x3d9c520b	0.07632836
154	0x3d5fa30d	0.054598857
155	0xbe19453d	-0.14967819
156	0xbc319fd4	-0.010841329
157	0x3d589f2c	0.052886173
158	0xbe2439a4	-0.16037613
159	0xbe1a5a70	-0.15073562
160	0x3e076abf	0.13224314
161	0xbe877401	-0.2645569
162	0xbb10acc3	-0.002207563
163	0x3c2d71bc	0.010586198
164	0x3e0a1f4e	0.13488504
165	0xbe75c611	-0.24001338
166	0x3c69e5ee	0.014276011
167	0xbcd4c94a	-0.025974888
168	0xbe6eb8af	-0.23312639
169	0xbe81a0ae	-0.253179
170	0xbdb032f9	-0.08603472
171	0x3df30c62	0.11867596
172	0xbd275b1e	-0.04085838
173	0x3d4e7534	0.050404742
174	0xbd837fae	-0.06420837
175	0x3dda1022	0.10647608
176	0xbd21f787	-0.0395427
177	0x3d6f15e5	0.05837049
178	0x3dc5cabb	0.096578084
179	0x3dd24127	0.10266333
180	0x3d2b2e0f	0.04179197
181	0xbe245213	-0.16046934
182	0xbd07ec5a	-0.033184387
183	0x3dc4c96a	0.09608729
184	0x3d33778a	0.043815173
185	0xbe10e9e8	-0.14151728
186	0xbc932088	-0.017959848
187	0x3db008f1	0.085954554
188	0xbe4dd60c	-0.20101184
189	0xbe0e1519	-0.13875236
190	0xbd8999bf	-0.06718778
191	0x3ddea016	0.10870378
192	0xbd3c47b0	-0.045966804
193	0x3ca1e2b2	0.019761417
194	0xbd4519f6	-0.04812046
195	0x3dc06700	0.09394646
196	0xbd400942	-0.04688383
197	0x3cd3a0a8	0.025833443
198	0x3e177b14	0.14793044
199	0x3db195da	0.0867116

layers.0.egnn.edge_mlp.0.bias f4 [20]
0	0xbe67d7ce	-0.22640917
1	0x3da0f16f	0.0785855
2	0xbe47bded	-0.19506045
3	0xbf031278	-0.51200056
4	0xbef2875c	-0.47368896
5	0x3e400719	0.18752708
6	0x3ed3e0a2	0.4138232
7	0x3e85efb4	0.2615944
8	0xbecd7e3b	-0.4013537
9	0xbe93ba02	-0.2885285
10	0x3e2a9bbb	0.16660969
11	0x3e7a8861	0.24466087
12	0xbf137f6d	-0.5761631
13	0x3e918a5f	0.2842588
14	0x3e68fbc7	0.22752295
15	0xbe5c5a1f	-0.21518753
16	0xbf05158f	-0.5198602
17	0x3ec35cf1	0.38156846
18	0xbe1925c5	-0.14955814
19	0x3d9a67fa	0.07539363

layers.0.egnn.edge_mlp.3.weight f4 [16, 20]
0	0x3e02519a	0.12726441
1	0xbe665234	-0.22492296
2	0x3e08624f	0.13318752
3	0x3d7a2489	0.06107
4	0x3d882630	0.06647909
5	0xbe0882f6	-0.13331208
6	0xbde7da6e	-0.11320959
7	0xbdf75e9a	-0.12078591
8	0x3da24313	0.0792295
9	0x3dd28fda	0.10281344
10	0xbe0c4054	-0.13696414
11	0xbe004ac0	-0.12528515
12	0x3d535b85	0.05160095
13	0xbdf59719	-0.1199171
14	0xbe0248d1	-0.1272309
15	0x3e087634	0.13326341
16	0x3d754d57	0.05988821
17	0xbdef31c0	-0.11679411
18	0x3e546a07	0.20743571
19	0xbe45018f	-0.19238876
20	0x3e3835aa	0.17989221
21	0xbe592237	-0.21204458
22	0x3e43cf71	0.19122101
23	0x3e067d27	0.1313368
24	0x3e0b2d17	0.13591419
25	0xbe1637b0	-0.1466968
26	0xbe10a6ca	-0.14126125
27	0xbe0cb20a	-0.13739792
28	0x3e16024b	0.14649312
29	0x3e2dccc5	0.16972645
30	0xbe223c2c	-0.15843266
31	0xbe136f27	-0.1439787
32	0x3dfa80e6	0.12231617
33	0xbe0d71a9	-0.13812889
34	0xbe111534	-0.14168245
35	0x3e3c2128	0.18372023
36	0x3e05fe87	0.13085376
37	0xbe12d106	-0.14337549
38	0x3e76bd00	0.24095535
39	0xbe399196	-0.18121943
40	0x3eaf07bc	0.34185588
41	0xbeb7aee1	-0.3587561
42	0x3eb094e1	0.34488586
43	0x3e8ae5fa	0.27128583
44	0x3e8df117	0.27723
45	0xbea73dbc	-0.32664287
46	0xbe9faa42	-0.31184584
47	0xbe997489	-0.29971722
48	0x3e9391a3	0.2882205
49	0x3ea1dc95	0.31613603
50	0xbeb2527f	-0.34828565
51	0xbea2a5d0	-0.3176713
52	0x3e805082	0.25061423
53	0xbe9c3ce8	-0.30515218
54	0xbea1d372	-0.31606632
55	0x3eb0bfec	0.34521425
56	0x3e87e91f	0.26545045
57	0xbea34ed9	-0.31896093
58	0x3ece51b2	0.40296704
59	0xbead8f47	-0.33898374
60	0xbdd5c40a	-0.10437782
61	0x3e0e8279	0.13916959
62	0xbdac2893	-0.084061764
63	0xbcba31a5	-0.02272875
64	0xbceacd15	-0.028662244
65	0x3c97f74b	0.018550536
66	0x3b50a995	0.003183936
67	0x3c7a77b3	0.015287328
68	0xbd390848	-0.045173913
69	0xbd705ed2	-0.058684178
70	0x3c4754c6	0.012166208
71	0x3c2e165e	0.01062545
72	0xbc8e67b7	-0.01738344
73	0x3c24f9c9	0.010069319
74	0x3c81d7a6	0.0158499
75	0xbdd64975	-0.104632296
76	0xbcb6ad41	-0.02229941
77	0x3b5f6a9a	0.003409064
78	0xbe521380	-0.20515251
79	0x3dcb05d9	0.09913225
80	0xbe190b06	-0.14945611
81	0x3e1369b1	0.14395787
82	0xbe13ea83	-0.14444928
83	0xbe17faa3	-0.14841704
84	0xbe135298	-0.14386976
85	0x3d67e5a8	0.0566155
86	0x3d5caef5	0.05387779
87	0x3d537aeb	0.051630896
88	0xbe108953	-0.14114885
89	0xbe0a5283	-0.13508038
90	0x3d74ca62	0.05976332
91	0x3d546db5	0.051862437
92	0xbe1ba3b8	-0.15199172
93	0x3d5a0c6f	0.053234514
94	0x3d5cbabf	0.053889032
95	0xbe192514	-0.1495555
96	0xbe167e64	-0.14696652
97	0x3d673db5	0.056455333
98	0xbe5323a4	-0.20619065
99	0x3dde6499	0.10859031
100	0x3ead9a73	0.33906898
101	0xbeb46e59	-0.3524044
102	0x3eafb272	0.3431583
103	0x3e8ac1d3	0.27101
104	0x3e8ead8d	0.27866784
105	0xbea5710a	-0.32312804
106	0xbe9ef964	-0.31049645
107	0xbe97ac8c	-0.2962383
108	0x3e93eca7	0.2889149
109	0x3ea087ca	0.313536
110	0xbeb23216	-0.34803838
111	0xbea1ea90	-0.3162427
112	0x3e822645	0.25419822
113	0xbe9b38b5	-0.30316702
114	0xbea019a6	-0.31269568
115	0x3eae908b	0.34094653
116	0x3e890f3a	0.2676943
117	0xbea2fa67	-0.31831667
118	0x3ecd316c	0.40076768
119	0xbeab25bb	-0.33427224
120	0xbe07f9ff	-0.1327896
121	0x3e0312ab	0.1280009
122	0xbdfc5933	-0.12321701
123	0xbdd86a1f	-0.10567116
124	0xbddcb94b	-0.10777529
125	0x3d19209c	0.037384614
126	0x3d193d3d	0.037411917
127	0x3d0d6e1b	0.034528833
128	0xbde50e14	-0.11184326
129	0xbde8e2f4	-0.11371413
130	0x3d22f257	0.039781895
131	0x3d0aa18a	0.033845462
132	0xbddc8aed	-0.107686855
133	0x3d06704d	0.032821942
134	0x3d0cb904	0.034356132
135	0xbe07deeb	-0.1326863
136	0xbddb7bf8	-0.107170045
137	0x3d12c1a4	0.0358292
138	0xbe57720d	-0.210396
139	0x3dbbb4dc	0.091653556
140	0x3eb0811d	0.34473506
141	0xbe95c34a	-0.29250556
142	0x3eb90633	0.36137542
143	0x3e8ae3c9	0.2712691
144	0x3e8efaf5	0.2792584
145	0xbe8fac4f	-0.2806115
146	0xbe8ca5db	-0.27470288
147	0xbe82f647	-0.2557852
148	0x3e99531a	0.29946214
149	0x3eaa728e	0.33290523
150	0xbe9c59b5	-0.3053719
151	0xbe8d2909	-0.2757037
152	0x3e811658	0.2521236
153	0xbe874801	-0.26422122
154	0xbe8ab9e3	-0.27094945
155	0x3eb43424	0.3519603
156	0x3e892342	0.26784712
157	0xbe901d30	-0.28147268
158	0x3ecf829e	0.4052934
159	0xbe8b61ad	-0.27222958
160	0xbe2c657d	-0.1683559
161	0x3e3e7f02	0.18603137
162	0xbe27126a	-0.16315618
163	0xbe356bb7	-0.17716871
164	0xbe30a91e	-0.17252013
165	0x3db99e4b	0.09063395
166	0x3dbb1347	0.09134536
167	0x3db53a40	0.08849001
168	0xbe2cd4a0	-0.16877985
169	0xbe22700c	-0.15863055
170	0x3dbde729	0.09272606
171	0x3db36a4e	0.087605104
172	0xbe3bb4e2	-0.1833072
173	0x3db3af6b	0.08773693
174	0x3db4e577	0.088328294
175	0xbe2cc49d	-0.16871877
176	0xbe35d593	-0.17757253
177	0x3db393c2	0.08768417
178	0xbe60c43a	-0.21949854
179	0x3e195f53	0.1497777
180	0xbe2d3dec	-0.16918153
181	0x3e3b2b36	0.18278202
182	0xbe28189e	-0.1641564
183	0xbe37e216	-0.17957339
184	0xbe34e8ef	-0.17666982
185	0x3dc09e89	0.09405238
186	0x3dc2e319	0.09515972
187	0x3dbeb872	0.09312524
188	0xbe2da867	-0.16958772
189	0xbe25bd91	-0.16185595
190	0x3dc7acc7	0.097497515
191	0x3dbde740	0.09272623
192	0xbe3d3840	-0.18478489
193	0x3db8fd08	0.09032637
194	0x3db76202	0.089542404
195	0xbe2ce285	-0.16883285
196	0xbe384bf6	-0.17997727
197	0x3dc01f67	0.093809895
198	0xbe6626d7	-0.22475754
199	0x3e169a99	0.14707412
200	0xbe380575	-0.17970832
201	0x3e56e344	0.20985132
202	0xbe2ce90f	-0.1688578
203	0xbe3b7540	-0.18306446
204	0xbe369c3a	-0.17833033
205	0x3de536ee	0.11192118
206	0x3de323d2	0.110908166
207	0x3ddfd66c	0.109295696
208	0xbe3330e8	-0.17499125
209	0xbe29263d	-0.16518493
210	0x3de871bb	0.11349817
211	0x3ddfd39c	0.10929033
212	0xbe413529	-0.18867935
213	0x3dd75a31	0.105152495
214	0x3dde7b99	0.10863418
215	0xbe338fa1	-0.17535259
216	0xbe3c74a7	-0.18403874
217	0x3de0ffa2	0.10986258
218	0xbe603308	-0.21894467
219	0x3e33591f	0.17514466
220	0xbdbdd0ee	-0.09268366
221	0x3e0fa317	0.14027058
222	0xbd97f078	-0.07418913
223	0xbbe36716	-0.006939779
224	0xbc59c165	-0.013290738
225	0x3c6998f1	0.0142576555
226	0xbb11b7a5	-0.0022234705
227	0x3c37959c	0.011205103
228	0xbd03d1e0	-0.032182574
229	0xbd40307e	-0.046921246
230	0x3bfc2d48	0.0076958276
231	0x3ba34107	0.004982117
232	0xbb154f2b	-0.0022782783
233	0x3bb39d77	0.0054814178
234	0x3c1cb83e	0.009565411
235	0xbdbe94a2	-0.09305693
236	0xbc021c0a	-0.007941255
237	0xbb54937e	-0.0032436545
238	0xbe4e997c	-0.20175737
239	0x3dcb5041	0.099274166
240	0xbde1ceef	-0.110257976
241	0x3e05bcb7	0.1306027
242	0xbdc10648	-0.09425026
243	0xbd37b543	-0.0448506
244	0xbd49e33b	-0.04928897
245	0x3ca80f3b	0.020515075
246	0x3c19ccd9	0.009387218
247	0x3c89860e	0.016787555
248	0xbd8121df	-0.063052885
249	0xbd989d83	-0.07451918
250	0x3c936941	0.017994525
251	0x3c662eca	0.014049241
252	0xbd237c95	-0.039913733
253	0x3c5e0e19	0.013553166
254	0x3c9a9c7a	0.018873442
255	0xbde0b6ac	-0.10972342

layers.0.egnn.edge_mlp.3.bias f4 [16]
0	0x3e152503	0.145649
1	0x3dbd164a	0.09232767
2	0xbe15aa70	-0.14615798
3	0xbe7541f1	-0.23950936
4	0x3ca1bf83	0.01974464
5	0xbe147490	-0.1449759
6	0xbd62058c	-0.05518107
7	0xbd004c2c	-0.031322643
8	0x3df6d287	0.12051874
9	0x3e00c0e3	0.1257358
10	0x3e2015fa	0.15633383
11	0xbe79901b	-0.24371378
12	0xbe36f2bc	-0.17866033
13	0x3e0678ec	0.13132066
14	0xbe09239e	-0.13392493
15	0xbe43b8e6	-0.19113502

layers.0.egnn.node_mlp.0.weight f4 [8, 20]
0	0x3a0ff3f7	0.00054913707
1	0x39d689b7	0.00040919866
2	0x3ae38e86	0.0017361201
3	0xb984697f	-0.00025255603
4	0xb9bda646	-0.00036172773
5	0xb9694f1a	-0.00022250079
6	0x3a3d5225	0.00072220183
7	0x39524a57	0.00020054854
8	0xb9f7d3df	-0.00047269367
9	0xba149f9c	-0.00056695356
10	0xbaa8e61c	-0.0012885961
11	0xba2cb9ac	-0.00065889466
12	0xbac1e53f	-0.0014793052
13	0xba1e4946	-0.000603814
14	0xb8a540c1	-7.8798745e-05
15	0xba9ca9fa	-0.0011952512
16	0x3a95a5e3	0.0011417236
17	0x3a4e6756	0.00078736746
18	0xba96ee99	-0.00115152
19	0x3ac0e810	0.0014717598
20	0x3b02f2a9	0.0019981063
21	0xb955558c	-0.00020345132
22	0x3a54a22c	0.00081113237
23	0x3a552c61	0.0008131918
24	0xba4a516f	-0.0007717823
25	0x3a31cc71	0.00067824783
26	0xbb04ec91	-0.0020282606
27	0x39c8c664	0.00038294785
28	0x3a848eac	0.001011332
29	0x3ae76db5	0.0017656597
30	0x3b4e42f3	0.003147301
31	0x3a7cf87c	0.0009650064
32	0xba0f5236	-0.00054672675
33	0xb991c853	-0.00027805808
34	0xbacf5f8b	-0.0015821321
35	0xbaab62c6	-0.0013075701
36	0x3745442c	1.17579875e-05
37	0x3ab2fc88	0.0013655582
38	0xba04c6cf	-0.0005065025
39	0xb845cd70	-4.715979e-05
40	0xbace505b	-0.00157405
41	0x3a81f04d	0.0009913534
42	0x3a241db8	0.0006260532
43	0x39a03b62	0.00030561822
44	0xb9e5136b	-0.0004369275
45	0x3b29b967	0.0025897862
46	0xba839161	-0.0010037833
47	0x3a34a631	0.00068912195
48	0xbb202146	-0.0024433895
49	0x3ac76176	0.0015211541
50	0xba1bb860	-0.0005940255
51	0x3a3f5dde	0.0007300059
52	0xbb1b3ddc	-0.0023687994
53	0xba2b411d	-0.0006532835
54	0xbb1118ea	-0.0022140094
55	0x3a38fd07	0.0007056747
56	0xb88e2227	-6.777449e-05
57	0x38f0b8af	0.00011478492
58	0x39d3318d	0.00040281974
59	0xb9dd3d52	-0.00042198092
60	0x3a066fd4	0.0005128358
61	0xbaa4e269	-0.0012579683
62	0x3a19afb3	0.0005862668
63	0xba65f896	-0.0008772699
64	0x3a68b3fb	0.0008876917
65	0x3a75565c	0.0009358877
66	0x3a16ff93	0.00057601294
67	0xbadde28d	-0.0016928479
68	0xba31dda4	-0.0006785041
69	0x3a5319ec	0.0008052874
70	0x39f695ae	0.00047032296
71	0x37fd787f	3.021606e-05
72	0x3a048980	0.00050558895
73	0x3ad25446	0.0016046844
74	0x3b226d19	0.0024784266
75	0x3974415b	0.00023294
76	0xbb2cc62e	-0.0026363241
77	0x3af33b16	0.0018557038
78	0x3aaa1750	0.0012976918
79	0xba63526a	-0.00086716434
80	0x3a4c4318	0.000779198
81	0x3a33f702	0.0006865115
82	0x3ad0ac34	0.0015920461
83	0xba15b978	-0.0005711536
84	0xba729682	-0.0009253995
85	0x3a41e2a3	0.0007396137
86	0xbac60c14	-0.0015109801
87	0x3a3ecd36	0.00072785036
88	0x3ab1bf85	0.0013561106
89	0xb93ac8c6	-0.00017813136
90	0x3a77c7f8	0.00094521
91	0x3a4a4b76	0.0007716933
92	0x3a39dcf7	0.0007090116
93	0xba065dee	-0.0005125691
94	0x3a87510b	0.0010323835
95	0x3afa56ed	0.0019099392
96	0x3b449134	0.0029993774
97	0xb9985518	-0.000290551
98	0xbacd7cb4	-0.0015677423
99	0xb99d0c5a	-0.00029954576
100	0x3a53ffe8	0.0008087144
101	0x392c2bfa	0.00016419581
102	0x3a661989	0.0008777609
103	0xba8655bb	-0.0010248938
104	0xb9e5588a	-0.0004374425
105	0x36fcc81b	7.5334806e-06
106	0xba8ce5c5	-0.0010749629
107	0x3a055d98	0.0005087494
108	0xba96dd2f	-0.001151001
109	0x3ab02a8b	0.0013440413
110	0x3a9a6d62	0.0011781866
111	0xba6a8bd9	-0.00089472305
112	0xbb110500	-0.0022128224
113	0x3aafa250	0.0013399813
114	0x3986d5e8	0.00025717844
115	0x39c03fe9	0.0003666871
116	0x3b0d52dc	0.002156428
117	0xba90f056	-0.0011057954
118	0xba08c112	-0.0005216758
119	0x3996c2f5	0.00028755484
120	0x3b1d8f82	0.0024041836
121	0x3aedf59a	0.001815486
122	0xbae4d9e5	-0.0017459957
123	0x3acc5174	0.001558824
124	0x39846948	0.00025255443
125	0x3a82664e	0.0009948702
126	0x39fd125b	0.00048269596
127	0x3ac8b67d	0.0015313175
128	0xb8c90dab	-9.586973e-05
129	0xba27889e	-0.0006390902
130	0x37a8adf6	2.0108168e-05
131	0xb9261e92	-0.00015842382
132	0x3a9e0864	0.0012056944
133	0x3aeb919b	0.0017972471
134	0xb75eec2a	-1.3287217e-05
135	0x3a943449	0.0011307086
136	0x3abf8b70	0.0014613699
137	0x38f7292a	0.00011785545
138	0x3982e567	0.0002496645
139	0x397d645c	0.00024165347
140	0xb91ee575	-0.00015153534
141	0xb9070ed0	-0.00012880121
142	0xb989ed8c	-0.00026307662
143	0x390c95f4	0.00013407302
144	0xba3b07fe	-0.0007134675
145	0x3a8fc22e	0.0010967904
146	0xb9049ec6	-0.00012647649
147	0x3a34449c	0.00068766787
148	0xb9870c8a	-0.0002575855
149	0xb9110d46	-0.00013833222
150	0xbae0d093	-0.0017152004
151	0xb9138e88	-0.0001407211
152	0x3aef70ef	0.001826791
153	0x394122ce	0.0001841888
154	0x391b27b7	0.00014796747
155	0x3a6cf9d3	0.0009039912
156	0xbabecc00	-0.0014556646
157	0x39bbb366	0.00035801082
158	0xbafff909	-0.0019529174
159	0x39dc247e	0.0004198886

layers.0.egnn.node_mlp.0.bias f4 [8]
0	0xbe3fd6cc	-0.18734282
1	0x3e59311c	0.2121014
2	0xbcd55812	-0.026042972
3	0x3e4fae18	0.20281255
4	0xbe46739c	-0.19380039
5	0x3d81bba2	0.06334616
6	0xbe1bcb1a	-0.15214196
7	0x3e0f19e8	0.13974726

layers.0.egnn.node_mlp.3.weight f4 [4, 8]
0	0xba40102f	-0.00073266303
1	0x3a1c74cd	0.00059683324
2	0x3a16e35a	0.0005755924
3	0x3b1a0e69	0.0023507124
4	0x3a0b3588	0.0005310406
5	0xb95807e2	-0.00020602302
6	0xbaab28a5	-0.0013058378
7	0xba86416e	-0.0010242888
8	0xb986c970	-0.00025708554
9	0xb8b887b2	-8.799079e-05
10	0x39c0d134	0.00036776962
11	0x3a4c0ef6	0.0007784212
12	0xb7da462f	-2.6020307e-05
13	0xba35403f	-0.00069141755
14	0xba897a16	-0.0010488655
15	0x3954c362	0.00020290681
16	0x3a4cbb1a	0.0007809863
17	0xba3591c7	-0.00069263246
18	0x39907ec1	0.0002756026
19	0xbb026498	-0.0019896384
20	0xbae269f0	-0.0017274003
21	0x3853e3cc	5.0518473e-05
22	0xba135729	-0.0005620593
23	0x3a9cb5a1	0.0011955985
24	0x3a48004f	0.00076294405
25	0xbb1399b7	-0.002252204
26	0xb9ced232	-0.0003944799
27	0xba1adb19	-0.0005907282
28	0x3a8c1668	0.001068783
29	0x39f306cd	0.0004635364
30	0xb9adfccc	-0.0003318548
31	0x36aee265	5.21196e-06

layers.0.egnn.node_mlp.3.bias f4 [4]
0	0x3e38742e	0.18013069
1	0xbd63a4b1	-0.055576984
2	0x3e443a3f	0.19162844
3	0x3e262f82	0.1622906

layers.0.egnn.coors_mlp.0.weight f4 [64, 16]
0	0x3cbec7f3	0.023288703
1	0x3d3c6854	0.045997933
2	0x3ea091fd	0.3136138
3	0x3c78bf80	0.015182376
4	0xbdc8c527	-0.09803229
5	0x3ea22a86	0.31673068
6	0xbd4a3d37	-0.049374785
7	0x3de6f01a	0.112762645
8	0xbe337107	-0.17523585
9	0xbe3a79c8	-0.18210518
10	0xbe68ff32	-0.227536
11	0x3c95816d	0.018250192
12	0x3985e4b6	0.0002553814
13	0x3cc9cc5e	0.024633583
14	0xbc5bc869	-0.013414481
15	0x3b58b974	0.0033069523
16	0x3ce27363	0.027642911
17	0x3c52e3c9	0.012871691
18	0xbe5f1192	-0.21784046
19	0xbc7b850d	-0.015351546
20	0x3c0eed63	0.00872359
21	0xbe62115b	-0.22076933
22	0xbc3a9930	-0.011389062
23	0xbd639770	-0.055564344
24	0x3d6238b7	0.05522987
25	0x3d728f46	0.059218667
26	0x3dcd4c93	0.10024371
27	0xbc41d6ac	-0.011830967
28	0xbc9cda9f	-0.019147215
29	0x3ce63a96	0.028104108
30	0xbca9de82	-0.020735983
31	0xbcad894e	-0.021183636
32	0x3c5248bf	0.012834727
33	0x3d070fc9	0.03297404
34	0x3e99849e	0.2998399
35	0x3c414f46	0.011798685
36	0xbd8cbb99	-0.06871719
37	0x3e9a780e	0.3016972
38	0xbd026c2e	-0.03184145
39	0x3dce0dd8	0.10061234
40	0xbe034345	-0.1281863
41	0xbe1015ed	-0.14070864
42	0xbe3bd893	-0.18344335
43	0x3c7ebe11	0.015548245
44	0x3ad04544	0.0015889783
45	0x3c7a7045	0.015285556
46	0xbc1be088	-0.009513982
47	0x3ba690fb	0.005083201
48	0x3c5f5e13	0.013633269
49	0x3d03d188	0.032182246
50	0x3e9bb8fe	0.30414575
51	0x3c26e00e	0.010185255
52	0xbd5e1c10	-0.05422598
53	0x3e9cdae3	0.30635747
54	0xbcc350f1	-0.023842307
55	0x3dd893a1	0.10575033
56	0xbde567b3	-0.1120142
57	0xbdf46ce6	-0.11934833
58	0xbe223340	-0.15839863
59	0x3c3ccb36	0.011523059
60	0x3b0a6f4d	0.002112347
61	0x3c4e1691	0.012578622
62	0xbb50bbd4	-0.0031850236
63	0x3b7659bd	0.003759011
64	0x3ce18202	0.027527813
65	0x3c52755f	0.012845366
66	0xbe576563	-0.2103477
67	0xbc8b4940	-0.017002702
68	0x3a72e366	0.00092654524
69	0xbe5a5af1	-0.21323754
70	0xbc8c2188	-0.017105833
71	0xbd4ac09b	-0.04950009
72	0x3d3f1c17	0.046657648
73	0x3d5bfac1	0.053705934
74	0x3dc0b898	0.094102085
75	0xbc544cad	-0.012957734
76	0xbca3b51a	-0.019983817
77	0x3cf5bbc4	0.02999676
78	0xbcc89e85	-0.02448965
79	0xbca6e0e9	-0.020370917
80	0x3ccf69ec	0.025319062
81	0x3d4f3b71	0.050593797
82	0x3e9ed8a0	0.31024647
83	0x3c832d61	0.01601285
84	0xbdf4dd03	-0.11956217
85	0x3ea04e76	0.3130986
86	0xbd6b8947	-0.057503965
87	0x3dea769b	0.114484034
88	0xbe606661	-0.21914054
89	0xbe6a84a9	-0.22902168
90	0xbe8a88f2	-0.27057606
91	0x3ca1e07c	0.019760363
92	0x3b54e8e0	0.0032487437
93	0x3cf14f2d	0.0294567
94	0xbc2fbe44	-0.010726515
95	0x3b9e62c7	0.0048335525
96	0x3ca70d5d	0.020392114
97	0x3d35e6c8	0.044409543
98	0x3ea4c710	0.32183123
99	0x3c7393af	0.0148667535
100	0xbdb424c0	-0.08796072
101	0x3ea716c7	0.32634565
102	0xbd36a011	-0.044586245
103	0x3df76951	0.120806344
104	0xbe2451a4	-0.16046768
105	0xbe29eb0d	-0.16593571
106	0xbe567c0a	-0.20945755
107	0x3c8f2eec	0.017478429
108	0x3ae9975f	0.0017821601
109	0x3cbda2a3	0.02314884
110	0xbc499c44	-0.012305323
111	0x3bc1c028	0.0059127994
112	0x3d010b0f	0.031504687
113	0x3c86c175	0.01644967
114	0xbe499a04	-0.19687659
115	0xbc8e00e2	-0.017334405
116	0x3bc3733f	0.005964666
117	0xbe4d531d	-0.20051236
118	0xbc5f8264	-0.013641927
119	0xbd3e57a4	-0.0464703
120	0x3d4eaeab	0.050459545
121	0x3d63e11e	0.05563461
122	0x3db860dd	0.0900285
123	0xbc52905c	-0.012851801
124	0xbcba4ab0	-0.022740692
125	0x3cf7e648	0.030261174
126	0xbcbca694	-0.02302865
127	0xbcac52c3	-0.021035558
128	0x3d0086da	0.031378604
129	0x3ca22e19	0.019797372
130	0xbe46a49d	-0.19398732
131	0xbc996de9	-0.018729167
132	0x3bb11bb1	0.0054049124
133	0xbe4a7727	-0.19772016
134	0xbc82c657	-0.015963716
135	0xbd35de07	-0.044401195
136	0x3d401349	0.04689339
137	0x3d5b1813	0.053489756
138	0x3db51e91	0.08843721
139	0xbc3a355f	-0.011365264
140	0xbcb3eb85	-0.02196289
141	0x3d0a1794	0.033713892
142	0xbcc2ea17	-0.023793263
143	0xbcba3fde	-0.022735532
144	0x3d725dd5	0.059171516
145	0x3daef00b	0.08541878
146	0x3ea0ea29	0.3142865
147	0xbbdc1578	-0.0067164265
148	0xbe7a641f	-0.24452256
149	0x3ea18afb	0.31551346
150	0xbe0aa6d3	-0.13540201
151	0x3e101c53	0.14073305
152	0xbebf1d46	-0.3732702
153	0xbec3eef9	-0.3826826
154	0xbed576a8	-0.4169209
155	0xba086779	-0.0005203407
156	0xbcfb4aa2	-0.030675236
157	0x3d815a74	0.06316081
158	0xbd7820b6	-0.06057807
159	0xbcde3e34	-0.02712927
160	0x3d07d18a	0.033158816
161	0x3ceb2c27	0.028707577
162	0xbe087fba	-0.13329974
163	0xbccca476	-0.024980765
164	0xbcbea914	-0.023273982
165	0xbe0b6abb	-0.13614933
166	0xbd17d415	-0.03706749
167	0xbc180a7e	-0.009279845
168	0x3c83bedc	0.01608222
169	0x3cae0754	0.021243729
170	0x3d657cef	0.05602735
171	0xbcacf14b	-0.021111151
172	0xbd10bf99	-0.03533897
173	0x3d163c91	0.036678854
174	0xbd18faa6	-0.037348412
175	0xbcf54c5f	-0.029943643
176	0x3d041f14	0.0322562
177	0x3d6f70a8	0.058457047
178	0x3ea0423e	0.3130054
179	0x3c6c0eb7	0.014407805
180	0xbe173978	-0.14768016
181	0x3ea2b99d	0.31782237
182	0xbd8c889a	-0.06861992
183	0x3df86acd	0.12129746
184	0xbe821b47	-0.25411436
185	0xbe87c305	-0.26515976
186	0xbe9c01a8	-0.30470014
187	0x3cad341a	0.021143008
188	0xb91da76e	-0.00015035059
189	0x3d06dd2a	0.032925762
190	0xbc95a13a	-0.018265355
191	0x3b269dc0	0.0025423616
192	0x3d12cf24	0.035842076
193	0x3ce3f44e	0.027826454
194	0xbe18907a	-0.14898863
195	0xbcc681c0	-0.024231791
196	0xbc9b2173	-0.018936848
197	0xbe1c560a	-0.15267196
198	0xbd0c980e	-0.0343247
199	0xbc7fc4b7	-0.015610865
200	0x3cb5a927	0.022175385
201	0x3cbdbd6f	0.023161618
202	0x3d827aac	0.06371054
203	0xbc9785db	-0.018496444
204	0xbcf1f603	-0.029536253
205	0x3d0ca07c	0.034332737
206	0xbd11717d	-0.03550862
207	0xbcf14687	-0.029452575
208	0x3d0971ba	0.033555724
209	0x3cb3667d	0.021899456
210	0xbe36b072	-0.17840746
211	0xbca30144	-0.019898064
212	0x3b8b63d8	0.0042538457
213	0xbe383883	-0.17990308
214	0xbc5cc9fe	-0.013475893
215	0xbd1ff8f9	-0.0390558
216	0x3d29b63d	0.04143356
217	0x3d43f5a0	0.047841668
218	0x3dab64bb	0.08368822
219	0xbc499a4e	-0.0123048555
220	0xbcb1ef0c	-0.021720432
221	0x3d0be5f1	0.034154836
222	0xbcc38e25	-0.02387149
223	0xbcc55d32	-0.02409229
224	0x3c08e877	0.008356205
225	0x3bd63073	0.0065365373
226	0xbd80bf20	-0.06286454
227	0xbc43221b	-0.011909987
228	0xbcd73e2f	-0.026274769
229	0xbd85f8be	-0.065415844
230	0xbce74691	-0.02823189
231	0xbc104bf6	-0.008807173
232	0xbbcd276a	-0.006260802
233	0xbb9ee562	-0.004849122
234	0x3cbe63b8	0.023240909
235	0xbbf684ce	-0.007523156
236	0xbcaa2403	-0.020769125
237	0x3c26c557	0.010178885
238	0xbcd33a5a	-0.02578466
239	0xbc93522a	-0.017983515
240	0x3d1256c7	0.03572729
241	0x3cf32393	0.029680049
242	0xbe14272a	-0.14468065
243	0xbccda036	-0.025100809
244	0xbc9bcf0a	-0.019019622
245	0xbe19797d	-0.1498775
246	0xbd01f620	-0.031728864
247	0xbc70b79f	-0.014692216
248	0x3cb4582f	0.022014705
249	0x3cd60e64	0.026129909
250	0x3d7e6584	0.06210853
251	0xbcaec95a	-0.021336246
252	0xbd0ca42e	-0.03433626
253	0x3d1b4b42	0.03791357
254	0xbd17dcd9	-0.03707585
255	0xbcf911cf	-0.030404

layers.0.egnn.coors_mlp.0.bias f4 [64]
0	0xbe1927d1	-0.14956595
1	0x3e8940af	0.26807162
2	0xbdd5d457	-0.10440891
3	0xbda33790	-0.07969582
4	0x3e7a7f63	0.24462657
5	0xbe6572f7	-0.22407137
6	0xbde90c79	-0.11379332
7	0x3e2bc3c1	0.16773893
8	0x3e1fd7b4	0.15609628
9	0xbe5594b8	-0.20857513
10	0x3d330ecb	0.04371528
11	0xbe64678f	-0.2230513
12	0x3d643af2	0.055720277
13	0x3df0f82a	0.117660835
14	0x3c3cfa50	0.0115342885
15	0x3d67d584	0.05660011
16	0x3b81db64	0.003962921
17	0xbe75206d	-0.2393815
18	0x3e82440b	0.25442538
19	0x3e805b70	0.2506976
20	0x3d6f9d9f	0.05849993
21	0x3da0f058	0.07858342
22	0xbe68adef	-0.227226
23	0xbe8d2860	-0.27569866
24	0xbe8419f6	-0.25801057
25	0xbe63e26a	-0.22254339
26	0xbe6e293f	-0.23257922
27	0xbd02bdc3	-0.031919252
28	0xbe5a8a27	-0.21341763
29	0x3e02b901	0.12765886
30	0xbe636293	-0.22205572
31	0x3e0ac9bd	0.1355352
32	0xbe327d2e	-0.17430565
33	0xbe356640	-0.17714787
34	0xbe8dbc18	-0.27682567
35	0x3ddaf9a8	0.106921494
36	0xbe546200	-0.20740509
37	0xbe4a317f	-0.19745444
38	0x3e7fcd6a	0.24980703
39	0x3dc0694e	0.09395085
40	0xbe782fab	-0.24236934
41	0x3e177ada	0.14792958
42	0xbe2a23f6	-0.1661528
43	0x3d14783a	0.03624747
44	0x3e8a4a16	0.27009648
45	0xbd45167c	-0.048117146
46	0x3e852cf9	0.26010874
47	0x3e667b85	0.22508056
48	0xbe210a98	-0.15726697
49	0xbe714e74	-0.23565084
50	0xbdd1476f	-0.10218703
51	0x3e2dc61c	0.16970104
52	0xbe2d1bec	-0.16905183
53	0x3dbe89bf	0.09303617
54	0xbe898fa4	-0.26867402
55	0x3e847417	0.2586982
56	0xbe128cbe	-0.14311501
57	0x3e717bd9	0.235824
58	0x3c5f74dd	0.013638702
59	0xbe1610d8	-0.14654863
60	0x3e465ffc	0.19372553
61	0xbdb35d21	-0.08757997
62	0xbe28848b	-0.16456811
63	0x3dfe8b0c	0.12428865

layers.0.egnn.coors_mlp.3.weight f4 [1, 64]
0	0x3ceebaab	0.029141745
1	0xbc949641	-0.018138053
2	0x3cfb4608	0.030673042
3	0x3cfa01d7	0.030518455
4	0xbc99f560	-0.018793762
5	0x3cdda943	0.02705825
6	0x3cfa64f6	0.03056572
7	0xbc79f2db	-0.015255655
8	0xbc76c962	-0.015062662
9	0x3ce8ccb2	0.028417919
10	0xbbcca7ef	-0.006245605
11	0x3cdc1728	0.02686651
12	0xbc19eae3	-0.00939438
13	0xbc4f92b8	-0.012669258
14	0xb7d1ea75	-2.5023919e-05
15	0xbbff12e3	-0.007784234
16	0xb94b75aa	-0.00019403422
17	0x3ce3cbf3	0.027807212
18	0xbc9e368c	-0.01931312
19	0xbca62522	-0.020281378
20	0xbbfb4604	-0.0076682586
21	0xbc266716	-0.010156414
22	0x3ccf269a	0.025286961
23	0x3cd7a648	0.026324406
24	0x3cd7c0dd	0.026337082
25	0x3cdee2b7	0.027207715
26	0x3cdc6493	0.026903426
27	0x3cd39eaa	0.025832493
28	0x3ce0783f	0.027401088
29	0xbc42690b	-0.0118658645
30	0x3ce1a20b	0.027543088
31	0xbc611345	-0.013737504
32	0x3ce79b7c	0.028272383
33	0x3ce8bff0	0.028411835
34	0x3cd5dc1c	0.026105933
35	0xbc49e13c	-0.0123217665
36	0x3ce00d71	0.02735016
37	0x3ceda315	0.029008428
38	0xbc91e3f7	-0.017808897
39	0xbc3a748c	-0.011380326
40	0x3cd9653a	0.026537526
41	0xbc872917	-0.016499085
42	0x3cf19d6a	0.029494006
43	0xbb859228	-0.004076261
44	0xbc89f702	-0.016841415
45	0x3cc32cab	0.02382501
46	0xbc94656a	-0.018114764
47	0xbc80c634	-0.01571951
48	0x3cee3ebc	0.029082648
49	0x3cddafbc	0.027061336
50	0x3cfc0bb5	0.030767301
51	0xbc820264	-0.01587028
52	0x3cef3872	0.02920172
53	0xbc40401e	-0.011734037
54	0x3cdd2ec1	0.026999833
55	0xbc915884	-0.017742403
56	0x3cf0b9bc	0.02938544
57	0xbc993f48	-0.018706933
58	0x385e5a7b	5.301319e-05
59	0x3cf2bf11	0.029632123
60	0xbc849a2f	-0.016186802
61	0x3d03ab33	0.03214569
62	0x3ceb1c2a	0.028699953
63	0xbc5a71a8	-0.013332762

layers.0.egnn.vel_mlp.0.weight f4 [16, 4]
0	0x3aff5e4a	0.0019483056
1	0x3acb7d4a	0.001552501
2	0x3b646cc4	0.0034854868
3	0x3aaa0db0	0.001297405
4	0xba6d3089	-0.0009048065
5	0x398207a9	0.0002480124
6	0xbafa358b	-0.0019089443
7	0xb9d9f059	-0.00041568538
8	0x3a1ee548	0.0006061387
9	0x3b07731b	0.0020667973
10	0x3bdb8ceb	0.0067001483
11	0x3ad57ae2	0.0016287232
12	0x3ab8172b	0.001404499
13	0x3a89b739	0.0010506875
14	0x3beca5fd	0.007221936
15	0x3acd6a57	0.001567195
16	0x3b736083	0.0037136383
17	0xbc5259b5	-0.012838771
18	0x3b971fc8	0.004611943
19	0xbb1599db	-0.00228273
20	0xbac7f981	-0.0015256853
21	0xb945f8b9	-0.0001888004
22	0xbb901f35	-0.0043982514
23	0xba71fa6b	-0.00092307356
24	0x3af84387	0.0018941023
25	0xbb306bd2	-0.0026919735
26	0x3a04352f	0.00050433254
27	0xb989c648	-0.00026278407
28	0xba66a0ad	-0.0008797746
29	0x3a94d3dc	0.0011354643
30	0xba18b173	-0.0005824782
31	0x3888e28a	6.5271815e-05
32	0xbb9acd2c	-0.0047241654
33	0x3ba437fe	0.0050115576
34	0x3ae12524	0.0017177206
35	0xb939683f	-0.0001768181
36	0xbb6428df	-0.00348144
37	0x3c0df335	0.008663942
38	0xba86e879	-0.0010292671
39	0x3a827161	0.0009952002
40	0xba51929b	-0.0007994563
41	0xba969bb1	-0.0011490491
42	0xbb920352	-0.004455962
43	0xba92e286	-0.0011206425
44	0xbae0b00d	-0.0017142311
45	0x3b4906d1	0.003067423
46	0xbab61346	-0.0013891242
47	0x38e512c7	0.000109230685
48	0xba9f28b3	-0.0012142867
49	0xba808345	-0.0009804746
50	0xbb66d019	-0.003521925
51	0xba7a559b	-0.00095494994
52	0xba046f82	-0.00050520163
53	0x3c14c465	0.009080027
54	0xb9e79a80	-0.00044174865
55	0x3b1dd4af	0.0024083068
56	0x3a393068	0.0007064403
57	0x3b1b045f	0.0023653728
58	0x3b01d8bd	0.0019813024
59	0x3a98dc0f	0.0011662262
60	0x3aac19cd	0.0013130248
61	0x3ab63d62	0.0013903792
62	0x3bd23e1e	0.0064160964
63	0x3ace2f25	0.0015730603

layers.0.egnn.vel_mlp.0.bias f4 [16]
0	0xbcd30474	-0.02575896
1	0x3eed7200	0.46376038
2	0x3ebc3828	0.36761594
3	0x3d40ad8f	0.04704052
4	0x3de42bbc	0.11141154
5	0xbec7d676	-0.39030808
6	0xbecee66a	-0.40410167
7	0x3eb5e14f	0.3552346
8	0x3cd93f51	0.02651945
9	0xbe6c97ab	-0.23104732
10	0x3edb16a3	0.42790708
11	0x3ed34dd2	0.4127031
12	0xbe96a219	-0.29420546
13	0xbe65205d	-0.22375627
14	0x3ef39300	0.4757309
15	0xbdb21e33	-0.08697166

layers.0.egnn.vel_mlp.3.weight f4 [1, 16]
0	0xb9d77f97	-0.00041103057
1	0x392cbba4	0.000164731
2	0xba37e60f	-0.00070151774
3	0xba48e6c3	-0.00076637807
4	0x3aab1e6d	0.0013055332
5	0x39d989b6	0.00041492068
6	0x392aca9f	0.00016287946
7	0xb8318120	-4.2320346e-05
8	0xba49774a	-0.0007685317
9	0xba6e08c2	-0.00090802845
10	0x3a023f04	0.00049684965
11	0xb9b64a7f	-0.0003476925
12	0x39cdfa85	0.000392873
13	0xba416277	-0.0007377038
14	0xb9bf018f	-0.0003643152
15	0xba2cccba	-0.0006591786

layers.1.egnn.edge_mlp.0.weight f4 [20, 10]
0	0x3aba1a0a	0.0014198434
1	0x3ad93cde	0.0016573926
2	0xbb75b428	-0.0037491415
3	0x3c17e073	0.009269821
4	0x3b968718	0.004593741
5	0xbb97eb5c	-0.0046362113
6	0x3b149e71	0.0022677446
7	0x3b8d2534	0.0043074135
8	0x3d7ff84b	0.06249265
9	0xbb8a142e	-0.0042138314
10	0x3beeee07	0.0072915587
11	0xbb8a0916	-0.004212509
12	0xba86df18	-0.0010289876
13	0xbb1b05c2	-0.0023654555
14	0x3bb9d6fa	0.005671379
15	0xbc003309	-0.007824668
16	0x3ba4bd5e	0.005027457
17	0xbc13b0a0	-0.009014279
18	0x3d472431	0.0486185
19	0xbc0c4847	-0.008562154
20	0x3ba86580	0.005139053
21	0xbbbff5fb	-0.0058581806
22	0x3a98f449	0.0011669482
23	0xbb7f2f0c	-0.0038937954
24	0x3b7a2dac	0.0038174195
25	0xbc0da16a	-0.008644441
26	0x3b9e1c8e	0.0048251813
27	0xbc3355b5	-0.010945727
28	0x3d348812	0.04407508
29	0xbc259b6d	-0.010107857
30	0xbbc929f3	-0.006139034
31	0x3bd7d1dc	0.0065862965
32	0xbb44bdab	-0.0030020277
33	0x3c1b9495	0.009495874
34	0xbb98b1f6	-0.0046598865
35	0x3bd04803	0.0063562407
36	0xbbf6667f	-0.0075195427
37	0x3c797a64	0.015226934
38	0xbca2b3f5	-0.0198612
39	0x3bcbd2ce	0.0062201982
40	0xbba96582	-0.0051695714
41	0x3bb96895	0.005658219
42	0xbb8c3545	-0.004278811
43	0x3c0706d0	0.00824137
44	0xbbe5d6c7	-0.007014129
45	0x3bed36fa	0.0072392197
46	0xbbdb80f2	-0.006698721
47	0x3c4dc702	0.012559654
48	0xbcc9b5ce	-0.024622824
49	0x3bd66a28	0.0065434165
50	0xbbf87f82	-0.0075835595
51	0x3b842013	0.004032144
52	0xbb28fc99	-0.0025785326
53	0x3c36352e	0.011121077
54	0xbbbfd6bf	-0.005854457
55	0x3bdb768d	0.006697482
56	0xbbe323bc	-0.00693175
57	0x3c5b5494	0.013386864
58	0xbcdff3dd	-0.027337963
59	0x3bd20d7b	0.0064102984
60	0xbbdd40fe	-0.0067521324
61	0x3b8e1b8c	0.00433678
62	0xbb97dac0	-0.0046342313
63	0x3be6e8d5	0.0070467987
64	0xbbc544ee	-0.00602018
65	0x3bba209a	0.005680156
66	0xbbca08b8	-0.00616559
67	0x3c319d4c	0.010840725
68	0xbc93d1b3	-0.018044328
69	0x3bf8267e	0.007572948
70	0x3ba0ba92	0.0049050534
71	0xb9f2f007	-0.0004633667
72	0xbb93232c	-0.004490277
73	0xbab65f37	-0.0013913874
74	0x3b97ac08	0.004628662
75	0xbbdd544b	-0.0067544333
76	0x3bd26218	0.006420385
77	0xbbf65d32	-0.007518434
78	0x3d75fba9	0.060054455
79	0xbbbd5771	-0.005778246
80	0xbbf8d5c5	-0.0075938427
81	0x3bb45f77	0.0055045444
82	0xbb5a2801	-0.0033288004
83	0x3c579cb5	0.01315992
84	0xbbcdabd0	-0.006276585
85	0x3bf8ea7b	0.0075963116
86	0xbc017718	-0.007901929
87	0x3c787499	0.015164518
88	0xbcd668aa	-0.026172955
89	0x3c04c672	0.008103954
90	0xbba29ca5	-0.004962521
91	0x3b8d97da	0.0043210806
92	0xbb8b779e	-0.004256203
93	0x3bcaa4db	0.006184203
94	0xbb6ebac2	-0.0036427234
95	0x3bcc931c	0.0062431227
96	0xbbad8c07	-0.0052962336
97	0x3c1bcfa4	0.009509955
98	0xbcd9c34f	-0.026582388
99	0x3c02b252	0.007977085
100	0xbb7ceabc	-0.003859206
101	0x3bc6a290	0.0060618594
102	0xbb93ac8a	-0.0045066522
103	0x3c258538	0.010102563
104	0xbbd6eb8e	-0.006558842
105	0x3b9137b3	0.0044316887
106	0xbba852b9	-0.0051368144
107	0x3c3d96cf	0.0115716
108	0xbcbe1bf5	-0.02320669
109	0x3c07db0a	0.008291969
110	0x3b774bc4	0.0037734369
111	0x3ae3ccf3	0.0017379805
112	0xbb4acd67	-0.0030945183
113	0x3c2d0ef2	0.010562645
114	0x3b96716b	0.004591157
115	0xbb47f998	-0.003051376
116	0x3bd21603	0.0064113154
117	0x3b817d4b	0.0039517037
118	0x3d7f7ecb	0.06237678
119	0xbb878ae7	-0.0041364315
120	0x3b9c4d6d	0.004769972
121	0xb76cbc88	-1.4110592e-05
122	0xbae80f36	-0.0017704729
123	0x3b13d564	0.002255761
124	0x3bb3562f	0.0054729204
125	0xbba1f4f8	-0.0049425326
126	0x3bbdcd44	0.005792292
127	0xbac625b7	-0.0015117441
128	0x3d5e83e4	0.054325
129	0xbba59e0d	-0.0050542415
130	0xbba6fedc	-0.0050962996
131	0x3b5479a0	0.0032421127
132	0xbb5f52fb	-0.003407656
133	0x3c7426bc	0.014901813
134	0xbbc5339c	-0.006018115
135	0x3bec7ece	0.0072172647
136	0xbbb3b741	-0.005484492
137	0x3ca2d6fe	0.019877907
138	0xbcc87626	-0.0244704
139	0x3bf5a171	0.007496052
140	0x3b065c16	0.0020501665
141	0x3b3cc542	0.0028804098
142	0xbb2c57ef	-0.002629753
143	0x3c2fec03	0.010737422
144	0x3ae7aca9	0.0017675358
145	0xbac99ac4	-0.0015381207
146	0x3b576ca6	0.0032871156
147	0x3bbcb5e8	0.0057589896
148	0x3d82f0d3	0.0639359
149	0xba3d61e5	-0.0007224365
150	0x3b40394e	0.0029331031
151	0xb9e84414	-0.0004430121
152	0xbb99c99b	-0.0046932227
153	0x3bb34863	0.0054712757
154	0x3bb4dfa6	0.005519825
155	0xbb9a8508	-0.0047155656
156	0x3b852551	0.0040632864
157	0xba224802	-0.00061905396
158	0x3d81e52c	0.06342539
159	0xbba491f5	-0.0050222822
160	0x3ad96181	0.0016584845
161	0x3b12aba9	0.002238015
162	0xbbb1e6bf	-0.0054291184
163	0x3c23ecf6	0.010005226
164	0x3b03b772	0.0020098356
165	0xbb5e1377	-0.0033886114
166	0x3b0144d4	0.0019724863
167	0x3b238c62	0.00249555
168	0x3d8fe7f3	0.07026663
169	0xba8cb91e	-0.0010736322
170	0xbbe72e7f	-0.0070551033
171	0x3b914f61	0.0044345115
172	0xbacb8208	-0.0015526423
173	0x3c7d52c5	0.015461628
174	0xbbd819ba	-0.0065948637
175	0x3bc849b6	0.0061123027
176	0xbbe26c38	-0.0069098733
177	0x3c9d830e	0.01922753
178	0xbcadaed0	-0.021201521
179	0x3be9ab7b	0.007131038
180	0xbacc1344	-0.0015569706
181	0x3b82fce9	0.0039974344
182	0xbbbf0439	-0.005829361
183	0x3c575a0a	0.013144026
184	0x3b5f3b47	0.0034062432
185	0xba37d12b	-0.00070120645
186	0x3b502586	0.0031760647
187	0x3ba326bc	0.0049789827
188	0x3d8d0110	0.06884968
189	0xba80bd08	-0.0009821961
190	0xbbe585c0	-0.0070044696
191	0x3b9445ba	0.0045249136
192	0xbb3d7890	-0.0028910972
193	0x3bdc4cb4	0.006723011
194	0xbbd29628	-0.0064265914
195	0x3c0970dd	0.008388725
196	0xbbef3818	-0.007300388
197	0x3c4bddde	0.012443034
198	0xbce5a66e	-0.028033461
199	0x3c049868	0.008092977

layers.1.egnn.edge_mlp.0.bias f4 [20]
0	0xbe85a3fc	-0.26101673
1	0xbd8bd87e	-0.06828402
2	0xbd64d2f4	-0.055865243
3	0x3d65c69a	0.056097604
4	0x3e354bd5	0.17704709
5	0x3e4f2215	0.20227845
6	0x3d7c4f42	0.061599024
7	0xbd8f39a2	-0.069934145
8	0x3dd31472	0.10306634
9	0x3ea1ceea	0.31603175
10	0x3e075a8a	0.13218132
11	0xbe8bc298	-0.272969
12	0xbe2cdc24	-0.16880852
13	0x3d6d2c6b	0.05790369
14	0xbe8330e4	-0.25623238
15	0xbe1520eb	-0.14563338
16	0xbe471bca	-0.19444194
17	0x3d0915c8	0.033468038
18	0xbe855f80	-0.26049423
19	0x3e96e2ea	0.29469997

layers.1.egnn.edge_mlp.3.weight f4 [16, 20]
0	0x3cfebfec	0.031097375
1	0x3cfca89c	0.030842118
2	0x3cef0c54	0.029180683
3	0xbc911bb8	-0.017713413
4	0xbc9f1fde	-0.019424375
5	0xbcab3d0b	-0.020903131
6	0xbc891a30	-0.01673612
7	0x3d1dc9ab	0.038522404
8	0xbcc95562	-0.024576847
9	0xbcb11148	-0.021614686
10	0xbc9d3bbc	-0.019193523
11	0x3cf426c8	0.029803649
12	0x3cf2e078	0.02964805
13	0xbcb67d86	-0.022276651
14	0x3cfce90e	0.030872848
15	0x3d133546	0.035939477
16	0x3d1575d3	0.03648932
17	0xbca739a5	-0.02041323
18	0x3d0ba1c7	0.03408983
19	0xbca31bb4	-0.01991067
20	0xbcc9f587	-0.02465321
21	0xbcccf526	-0.02501924
22	0xbcb1f9ff	-0.021725653
23	0x3c6770c3	0.014126006
24	0x3c8022d0	0.0156416
25	0x3c8a84cb	0.016909024
26	0x3c43dab1	0.011953996
27	0xbcfd5dc6	-0.030928504
28	0x3c931e1e	0.017958697
29	0x3c881704	0.016612537
30	0x3c6a8f83	0.014316442
31	0xbcd41767	-0.025890065
32	0xbcc3f8bb	-0.023922315
33	0x3c91a15d	0.01777714
34	0xbccf1bf2	-0.02528188
35	0xbceb74c7	-0.028742207
36	0xbceeba8a	-0.029141683
37	0x3c595410	0.013264671
38	0xbccfc9f0	-0.025364846
39	0x3c9b40e4	0.01895184
40	0xbce58de8	-0.028021768
41	0xbce385b2	-0.027773712
42	0xbcdaaca2	-0.026693646
43	0x3c7ab450	0.015301779
44	0x3ca2c800	0.019870758
45	0x3cae5c76	0.021284323
46	0x3c830908	0.015995517
47	0xbd0ba3a1	-0.034091596
48	0x3c9cceab	0.019141516
49	0x3c9c11c4	0.01905144
50	0x3c8a3e18	0.016875312
51	0xbce480b5	-0.027893404
52	0xbcd1ad5c	-0.02559536
53	0x3c93fc9b	0.018064788
54	0xbce430ba	-0.027855266
55	0xbd026312	-0.031832762
56	0xbd06956c	-0.032857344
57	0x3c81abe8	0.015829042
58	0xbd010ac9	-0.031504426
59	0x3cacb4b8	0.021082267
60	0x3ce0eb7f	0.027456043
61	0x3cf3e641	0.02977288
62	0x3ce2081e	0.027591761
63	0xbc8794ee	-0.016550507
64	0xbc9ce68c	-0.019152902
65	0xbcabb080	-0.020958185
66	0xbc7a7f4a	-0.015289137
67	0x3d19e633	0.03757305
68	0xbc9eaaf0	-0.019368619
69	0xbca06f8f	-0.019584445
70	0xbc8db462	-0.017297927
71	0x3ce3a075	0.027786473
72	0x3ce09d89	0.027418869
73	0xbcaeb96d	-0.021328652
74	0x3cf08ed1	0.029364975
75	0x3d0e2532	0.03470344
76	0x3d12c29e	0.035830133
77	0xbc8f7741	-0.01751292
78	0x3cf39155	0.029732386
79	0xbca30d05	-0.01990367
80	0x3cf32690	0.029681474
81	0x3cf3e8d1	0.029774101
82	0x3cec2073	0.028824067
83	0xbc808c26	-0.015691828
84	0xbc9e4985	-0.019322166
85	0xbca352ec	-0.019937001
86	0xbc8206fd	-0.015872473
87	0x3d1dac72	0.038494535
88	0xbc97cdc9	-0.018530743
89	0xbc92eaa2	-0.017934147
90	0xbc84f89f	-0.016231833
91	0x3cdb3c4f	0.026762156
92	0x3ce5e918	0.02806525
93	0xbca222f2	-0.019792054
94	0x3cead3ae	0.02866539
95	0x3d0c6825	0.034279007
96	0x3d1278fb	0.035759907
97	0xbc8fec38	-0.017568693
98	0x3cf6ada7	0.0301121
99	0xbca2e8ac	-0.019886337
100	0xbca23c14	-0.019804038
101	0xbca88662	-0.020571891
102	0xbca03186	-0.019554865
103	0x3c25fc6d	0.010130984
104	0x3c574980	0.013140082
105	0x3c721769	0.014776089
106	0x3c2f30fa	0.010692829
107	0xbcd392b8	-0.025826797
108	0x3c87283c	0.016498677
109	0x3c783139	0.015148454
110	0x3c5d8bc5	0.013522093
111	0xbcaf0d78	-0.021368727
112	0xbc9f7037	-0.019462688
113	0x3c6875f5	0.014188279
114	0xbc9f81e7	-0.019471122
115	0xbcc4372e	-0.023952093
116	0xbcc7cde0	-0.024390161
117	0x3c24bfcb	0.010055493
118	0xbcb953a9	-0.0226229
119	0x3c8611a7	0.01636584
120	0x3cdd1368	0.026986793
121	0x3cfb0681	0.03064275
122	0x3cdbde35	0.026839355
123	0xbc87c59c	-0.01657372
124	0xbc974e87	-0.018470062
125	0xbcaa1247	-0.020760668
126	0xbc6cc87d	-0.014452097
127	0x3d1bec28	0.038067013
128	0xbcabcd9d	-0.020972067
129	0xbc8fcea1	-0.017554583
130	0xbc9e2036	-0.019302469
131	0x3cda6f43	0.026664382
132	0x3ce012ec	0.027352773
133	0xbca8dec4	-0.020614035
134	0x3cfa8986	0.030583154
135	0x3d0cfc28	0.034420162
136	0x3d13d023	0.036087167
137	0xbca0a4ed	-0.019609893
138	0x3cfb793e	0.030697461
139	0xbca3748d	-0.019953037
140	0x3ceddffa	0.029037464
141	0x3d0009cd	0.031259347
142	0x3ce0aa78	0.027425036
143	0xbc8d500a	-0.01725008
144	0xbca54ba2	-0.020177666
145	0xbcb4d83a	-0.022075761
146	0xbc778161	-0.01510653
147	0x3d1e4d08	0.03864768
148	0xbca9dfd3	-0.02073661
149	0xbcb02c66	-0.021505546
150	0xbca91cbe	-0.020643588
151	0x3cef908a	0.029243726
152	0x3cf044e8	0.029329732
153	0xbc9d4137	-0.019196136
154	0x3cf2564d	0.029582167
155	0x3d0f3cdd	0.034970153
156	0x3d18fa71	0.037348215
157	0xbc92459d	-0.01785546
158	0x3d01221a	0.031526662
159	0xbcb83dbd	-0.022490377
160	0xbcc25f6a	-0.023727138
161	0xbcc13b6c	-0.023587905
162	0xbcb2cfc7	-0.021827592
163	0x3c539471	0.012913809
164	0x3c867788	0.016414419
165	0x3c879ceb	0.016554317
166	0x3c3fa899	0.011697912
167	0xbce8f80f	-0.028438596
168	0x3c8b66ac	0.017016731
169	0x3c8ed1f0	0.01743409
170	0x3c88fbcb	0.016721627
171	0xbcc0f209	-0.023552911
172	0xbccc5c0a	-0.024946231
173	0x3c8b6934	0.017017938
174	0xbccf2cb0	-0.025289863
175	0xbce61dab	-0.028090319
176	0xbce73c58	-0.028227016
177	0x3c5cec8c	0.013484132
178	0xbce641e0	-0.028107584
179	0x3c8e5f34	0.01737938
180	0xbcbda993	-0.023152148
181	0xbcb595e0	-0.022166193
182	0xbca52753	-0.020160353
183	0x3c4ba68d	0.0124298455
184	0x3c62abc1	0.013834895
185	0x3c895e09	0.016768472
186	0x3c4050c5	0.011738007
187	0xbcdeb027	-0.027183605
188	0x3c7f3fdf	0.015579193
189	0x3c8f4beb	0.017492255
190	0x3c75a912	0.014993923
191	0xbcc0cb9e	-0.023534592
192	0xbcb61a7f	-0.022229431
193	0x3c77b764	0.015119407
194	0xbcc8476d	-0.024448121
195	0xbcd10688	-0.02551581
196	0xbcd61c0d	-0.026136423
197	0x3c52ac32	0.012858437
198	0xbcc7dfb7	-0.024398668
199	0x3c803d81	0.015654327
200	0x3cd57708	0.026057735
201	0x3cd6700f	0.02617648
202	0x3cc94719	0.024570035
203	0xbc715afe	-0.014731167
204	0xbc95bb5a	-0.018277813
205	0xbca8742c	-0.020563208
206	0xbc5ab015	-0.013347645
207	0x3d100155	0.03515752
208	0xbc99070b	-0.018680116
209	0xbc9fe4b5	-0.019518236
210	0xbc80a28a	-0.015702505
211	0x3ce1ce1e	0.027564105
212	0x3cd15352	0.025552426
213	0xbc9e1abf	-0.019299863
214	0x3cd10629	0.025515633
215	0x3d02b400	0.031909943
216	0x3d04811a	0.032349683
217	0xbc932c15	-0.017965356
218	0x3d00065f	0.031256076
219	0xbc882188	-0.016617551
220	0xbcc00ee8	-0.023444608
221	0xbcd12962	-0.025532428
222	0xbcb9aa12	-0.022664104
223	0x3c681119	0.014164233
224	0x3c6c56bb	0.014424975
225	0x3c8c0123	0.017090386
226	0x3c2b80e7	0.010467744
227	0xbd05dea0	-0.032683015
228	0x3c94aa73	0.018147683
229	0x3c811a70	0.015759677
230	0x3c8892d0	0.016671568
231	0xbcb88485	-0.022524128
232	0xbcbae6ad	-0.022815073
233	0x3c830c41	0.015997054
234	0xbcc608fe	-0.02417421
235	0xbcec5ba3	-0.02885229
236	0xbcec4992	-0.028843675
237	0x3c6277ad	0.013822478
238	0xbcd10016	-0.025512736
239	0x3c8ba106	0.017044555
240	0xbcce52f9	-0.025186049
241	0xbcd95bc7	-0.02653302
242	0xbccc1080	-0.024910212
243	0x3c70d1a3	0.014698419
244	0x3ca02c6f	0.019552438
245	0x3ca40429	0.020021515
246	0x3c5dcd5e	0.013537733
247	0xbd0142b1	-0.031557743
248	0x3c9f13f3	0.019418692
249	0x3c8fc82d	0.017551506
250	0x3c91f085	0.017814884
251	0xbcd9bc19	-0.02657895
252	0xbcd26b55	-0.025685946
253	0x3c95b2d9	0.018273758
254	0xbcdf378f	-0.027248172
255	0xbcea9b55	-0.028638521

layers.1.egnn.edge_mlp.3.bias f4 [16]
0	0xbe162bec	-0.14665192
1	0x3e087bee	0.13328525
2	0x3e506e6f	0.20354627
3	0xbe4625cd	-0.19350357
4	0xbe1e12eb	-0.15436904
5	0x3caa6af5	0.020802954
6	0xbe759f41	-0.23986532
7	0xbdc698fa	-0.09697147
8	0x3d001a07	0.03127482
9	0x3d0db907	0.034600284
10	0xbd691269	-0.056902323
11	0x3ded76c0	0.115949154
12	0x3dbf3654	0.09336534
13	0x3e51064b	0.20412557
14	0xbdea71c6	-0.11447482
15	0xbd5418c0	-0.051781416
