experiments/models/best_model_N20_batch64_lr0.001_fd4_b0.5.pth (torch, 31338 bytes, 32 tensors)

time_embedding.0.weight f4 [8, 1]
0	0xbf305042	-0.68872464
1	0xbdd8e05d	-0.10589669
2	0xbec91e69	-0.39281014
3	0xbece1588	-0.40250802
4	0xbf4fc66a	-0.8116213
5	0xbf537138	-0.82594633
6	0x3d35e840	0.044410944
7	0x3f49bfae	0.78808105

time_embedding.0.bias f4 [8]
0	0xbf33d6ec	-0.7024982
1	0x3df64cb1	0.120263465
2	0x3f318654	0.69345593
3	0xbd45bde0	-0.048276782
4	0x3edc7d24	0.43064225
5	0xbf512640	-0.8169899
6	0xbf587070	-0.84546566
7	0xbf370217	-0.71487564

time_embedding.3.weight f4 [4, 8]
0	0x3c9e6904	0.019337185
1	0xbbd7c547	-0.0065847966
2	0xbcb07360	-0.02153939
3	0xbe719975	-0.23593695
4	0xbd536999	-0.051614378
5	0xbd7cb861	-0.061699275
6	0x3e0e49a5	0.1389528
7	0xba71b8a0	-0.00092209317
8	0x3ea10d4a	0.3145545
9	0xbe0acb69	-0.13554157
10	0xbe5d684d	-0.21621819
11	0x3e6616ec	0.22469682
12	0xbe3821e3	-0.17981677
13	0xbe2d7a59	-0.16941203
14	0xbc999022	-0.018745486
15	0x3da8d125	0.08243016
16	0x3ea0fd69	0.31443337
17	0xbe49578d	-0.19662304
18	0xbcf5b2b7	-0.029992444
19	0x3e884a18	0.2661903
20	0x3e299f56	0.16564688
21	0xbe2d0e8f	-0.16900085
22	0x3e128357	0.14307915
23	0x3e8b6071	0.27222016
24	0x3eaff1e9	0.3436425
25	0xbe76b68a	-0.2409307
26	0xbe822208	-0.2541659
27	0xbe00e5b1	-0.1258762
28	0x3ea30dc2	0.31846434
29	0xbe4fbb7d	-0.20286365
30	0xbe4b0653	-0.19826631
31	0x3e313425	0.17305048

time_embedding.3.bias f4 [4]
0	0xbeabbedd	-0.33544055
1	0xbd9ab9fd	-0.07555006
2	0xbe43d168	-0.19122851
3	0xbd9c0338	-0.076178014

layers.0.egnn.edge_mlp.0.weight f4 [20, 10]
0	0xbd9a0f60	-0.07522464
1	0xbd0e0719	-0.034674738
2	0xbd9d1956	-0.07670848
3	0xbd468983	-0.048470985
4	0xbda052ba	-0.07828279
5	0xbd18e87f	-0.0373311
6	0xbdaa1961	-0.08305622
7	0xbd5ff24b	-0.054674428
8	0xbbbf0c50	-0.005830325
9	0x3da627f5	0.0811309
10	0xbd68b633	-0.056814384
11	0x3da6485f	0.081192724
12	0xbd1b313d	-0.037888754
13	0x3dbf3c7a	0.09337707
14	0xbd7acba0	-0.06122935
15	0x3dbb44b0	0.091439605
16	0xbd32c1eb	-0.043641966
17	0x3de1a067	0.110169224
18	0xbda91177	-0.08255284
19	0x3dad06f6	0.08448593
20	0xbe6df9fb	-0.23239891
21	0xbe4b540b	-0.19856279
22	0xbe78420d	-0.24243946
23	0xbe5dc82f	-0.21658395
24	0xbe72725c	-0.23676437
25	0xbe586f58	-0.21136224
26	0xbe82086f	-0.2539706
27	0xbe7c149b	-0.24617235
28	0x3e1c7aa6	0.15281162
29	0x3e6a5454	0.22883731
30	0xbeaf55dc	-0.34245193
31	0xbe9055c1	-0.28190425
32	0xbeb0c2fd	-0.34523764
33	0xbe986c97	-0.29770347
34	0xbeb46049	-0.3522971
35	0xbea1185d	-0.314639
36	0xbebba102	-0.36646277
37	0xbeb10540	-0.34574318
38	0x3e84e063	0.25952443
39	0x3eb1d308	0.34731317
40	0xbd918317	-0.071050815
41	0xbd0169a3	-0.031594884
42	0xbd8f6b3e	-0.07002877
43	0xbd320a84	-0.04346706
44	0xbd954b1c	-0.072897166
45	0xbd0751a1	-0.03303683
46	0xbd9dcc62	-0.077049986
47	0xbd5567b8	-0.052100867
48	0xbbc05d03	-0.005870463
49	0x3da0b353	0.078467034
50	0xbda01391	-0.07816232
51	0xbd29288f	-0.041298445
52	0xbda59e8e	-0.080868825
53	0xbd68fa16	-0.056879126
54	0xbda3c6dd	-0.079969145
55	0xbd24e9ba	-0.04026196
56	0xbdb16d15	-0.08663384
57	0xbd7b21f5	-0.06131168
58	0x3b0940e5	0.0020943221
59	0x3dafe159	0.085879035
60	0x3da1d2be	0.07901524
61	0xbbcc5b66	-0.0062364815
62	0x3d941b00	0.07231712
63	0x39fe9259	0.00048555693
64	0x3da51d56	0.08062236
65	0xbc85fcc5	-0.016355881
66	0x3d9aa104	0.075502425
67	0xbb92ff13	-0.0044859736
68	0x3d4b0462	0.049564727
69	0xbdbf15e8	-0.0933035
70	0xbdbecc57	-0.093163185
71	0x3e01bf0d	0.12670536
72	0xbd8288ab	-0.063737236
73	0x3e164185	0.14673431
74	0xbdcac3d1	-0.0990063
75	0x3e0d3cf9	0.1379279
76	0xbd8aa54b	-0.067698084
77	0x3e2bf9bd	0.16794486
78	0xbde807da	-0.113296226
79	0x3e094f57	0.13409172
80	0xbe4d9459	-0.20076121
81	0x3e73a03e	0.23791596
82	0xbe15f7ef	-0.1464536
83	0x3e90804f	0.28222892
84	0xbe554ab7	-0.20829283
85	0x3e77470b	0.24148194
86	0xbe1fb2b8	-0.1559552
87	0x3e90c406	0.28274554
88	0xbe223a0f	-0.1584246
89	0x3e833e5b	0.2563351
90	0xbd633ced	-0.055478025
91	0xbda93691	-0.08262361
92	0xbd86efc0	-0.065886974
93	0xbdd28927	-0.10280066
94	0xbd74d4b2	-0.059773155
95	0xbdc631b9	-0.096774526
96	0xbd93b2de	-0.072118506
97	0xbe05e98b	-0.13077371
98	0x3d43b4c6	0.04777982
99	0x3d50145b	0.050800662
100	0xbd8a7729	-0.06761009
101	0xbccb9fbf	-0.024856446
102	0xbd8870e3	-0.066621564
103	0xbd0cdde4	-0.0343913
104	0xbd8df19b	-0.06930848
105	0xbcbb96e7	-0.022899104
106	0xbd94ebb5	-0.0727152
107	0xbd21da4e	-0.039514832
108	0xbc600029	-0.013671913
109	0x3d9e260f	0.07722103
110	0x3dfd3c47	0.123650126
111	0x3d7690c7	0.060196664
112	0x3dfef705	0.12449459
113	0x3d9b41b1	0.07580889
114	0x3e025ddc	0.12731117
115	0x3d716b6e	0.058940344
116	0x3e036502	0.128315
117	0x3daad012	0.083404675
118	0xbc063df2	-0.00819348
119	0xbe0c95a3	-0.13728957
120	0x3e1e1da5	0.15440996
121	0x3de60dc0	0.11233091
122	0x3e20c2a6	0.15699252
123	0x3e032892	0.12808445
124	0x3e216b08	0.15763485
125	0x3defe791	0.1171409
126	0x3e28b495	0.16475137
127	0x3e15a04a	0.14611927
128	0xbd7b96e0	-0.061423182
129	0xbe26b329	-0.16279282
130	0x3dc63cab	0.0967954
131	0x3cd52f5f	0.026023565
132	0x3dbe19fa	0.092822984
133	0x3d14eb6f	0.03635734
134	0x3dcc9ba1	0.09990621
135	0x3ca0c8ec	0.019627057
136	0x3dca8e2f	0.098904006
137	0x3d209721	0.039206628
138	0x3cd62a54	0.02614323
139	0xbde0b9ad	-0.10972915
140	0xbd9e7572	-0.07737245
141	0xbd1bbe31	-0.038023178
142	0xbd9fdb0a	-0.0780545
143	0xbd4fb588	-0.05071023
144	0xbd9ebf03	-0.07751276
145	0xbd16a24d	-0.036775876
146	0xbdaab758	-0.08335751
147	0xbd6eeaeb	-0.058329504
148	0xbb5cc098	-0.003368413
149	0x3daa60d1	0.083192475
150	0x3e929b5d	0.28634158
151	0x3eab5099	0.3345993
152	0x3e98ce73	0.29845008
153	0x3eae053d	0.33988371
154	0x3e934495	0.2876326
155	0x3eb54a63	0.35408315
156	0x3e9c42d7	0.30519745
157	0x3ec0b21c	0.37635887
158	0xbeb1b2b7	-0.3470666
159	0xbe881882	-0.26581198
160	0xbda60a7b	-0.08107468
161	0xbd2f94b1	-0.042866413
162	0xbdaab082	-0.083344474
163	0xbd600424	-0.05469145
164	0xbdaada0d	-0.08342371
165	0xbd2a5a50	-0.041590035
166	0xbdb672b5	-0.089085974
167	0xbd78c986	-0.060739063
168	0xbb531753	-0.0032209947
169	0x3db1b8ed	0.0867785
170	0xbd78ca65	-0.060739893
171	0xbc87121b	-0.016488126
172	0xbd789468	-0.060688406
173	0xbcd93168	-0.026512817
174	0xbd822f45	-0.06356672
175	0xbc3a5ada	-0.0113742
176	0xbd85f833	-0.06541481
177	0xbcfb62f7	-0.030686839
178	0xbcb4ccad	-0.022070253
179	0x3d944db9	0.07241387
180	0x3dc36c5d	0.09542153
181	0x3cd64a36	0.026158433
182	0x3db40d6f	0.08791625
183	0x3d113729	0.035452995
184	0x3dc50421	0.09619928
185	0x3cab408b	0.0209048
186	0x3dc7b6ce	0.09751664
187	0x3d264942	0.040597208
188	0x3cbe7524	0.023249216
189	0xbddd22e0	-0.107976675
190	0x3e15a3f6	0.14613327
191	0x3db71237	0.08939021
192	0x3e143182	0.1447201
193	0x3ddab889	0.106797285
194	0x3e1732c0	0.14765453
195	0x3dc00104	0.09375194
196	0x3e1b77d2	0.15182427
197	0x3df5f50d	0.1200963
198	0xbd33f1da	-0.04393182
199	0xbe21c435	-0.15797503

layers.0.egnn.edge_mlp.0.bias f4 [20]
0	0x3eb25528	0.34830594
1	0x3e4607f8	0.19338977
2	0x3e45d536	0.19319615
3	0x3eab628f	0.33473632
4	0x3ea16e05	0.3152925
5	0x3eb7f84a	0.35931617
6	0xbe6e59a5	-0.23276384
7	0x3e82a15a	0.25513726
8	0x3eb89e10	0.36058092
9	0xbc6c4510	-0.014420763
10	0x3e91fdc9	0.28513935
11	0xbeaa1ef4	-0.3322674
12	0xbde2d343	-0.11075451
13	0xbe8e533c	-0.27797878
14	0x3eb8b6d2	0.3607698
15	0xbe85ddb1	-0.261457
16	0x3eca2270	0.394794
17	0x3e84920d	0.25892678
18	0xbe815c9b	-0.25265965
19	0xbeda80da	-0.4267643

layers.0.egnn.edge_mlp.3.weight f4 [16, 20]
0	0x3d2f6811	0.042823855
1	0x3da88db7	0.08230155
2	0x3df28ae8	0.118429005
3	0x3e797f09	0.24364866
4	0x3d1d718c	0.038438365
5	0x3d1cc6b4	0.038275436
6	0xbd584f9f	-0.052810308
7	0x3dede6b6	0.1161627
8	0x3e51a177	0.2047175
9	0xbcbe8a0f	-0.02325919
10	0x3d20e81e	0.039283864
11	0xbd58ed23	-0.052960526
12	0xbd4ee218	-0.05050859
13	0xbd4d3a54	-0.050104454
14	0x3d259c34	0.04043217
15	0xbe647a1b	-0.22312205
16	0x3d2cc79e	0.042182557
17	0x3d27a13b	0.040925246
18	0xbd3e0095	-0.046387274
19	0xbd6c6dfd	-0.05772208
20	0x3d0fbd40	0.035092592
21	0x3da1dbce	0.079032525
22	0x3de5df13	0.11224189
23	0x3e6d0fd0	0.23150563
24	0x3d1201f9	0.035646413
25	0x3d14cfe2	0.036331065
26	0xbd50db6c	-0.050990507
27	0x3de977dc	0.113998145
28	0x3e4f2295	0.20228036
29	0xbcc5c6fe	-0.024142738
30	0x3d1483a7	0.036258366
31	0xbd526dda	-0.051374294
32	0xbd3e6732	-0.046485133
33	0xbd43fd7b	-0.04784916
34	0x3d1cb0fe	0.03825473
35	0xbe5b0b6a	-0.21391073
36	0x3d1e56dd	0.038657058
37	0x3d1bcd41	0.038037542
38	0xbd33c6e7	-0.04389086
39	0xbd60d4c9	-0.054890428
40	0xbd988ce8	-0.07448751
41	0xbc40d7f4	-0.011770237
42	0xbedbf7fc	-0.42962635
43	0xbf0d8c69	-0.55292374
44	0xbd91a08b	-0.07110699
45	0xbd9a8b81	-0.075461395
46	0x3d64a9c5	0.055825967
47	0xbc05800b	-0.008148204
48	0x3b8458f9	0.0040389267
49	0xbd8d4f52	-0.06899895
50	0xbd841bfc	-0.0645065
51	0x3d976177	0.07391637
52	0x3e13b55f	0.14424656
53	0x3d88836c	0.06665692
54	0xbd974ec1	-0.07388068
55	0x3e83e28f	0.25758788
56	0xbd9adfca	-0.075622156
57	0xbd6f9b35	-0.058497626
58	0x3d84c547	0.0648294
59	0x3d8e0db1	0.06936205
60	0xbd8c8370	-0.06861007
61	0xbc41d5d0	-0.011830762
62	0xbedde7ef	-0.43341014
63	0xbf0d503e	-0.55200565
64	0xbd86f3a5	-0.0658944
65	0xbd91b82f	-0.07115208
66	0x3d5507da	0.05200944
67	0xbbcedc15	-0.006312857
68	0x3b3fed4a	0.0029285722
69	0xbd8292dd	-0.06375668
70	0xbd817e61	-0.06322933
71	0x3d8f070f	0.06983768
72	0x3e074f7a	0.13213912
73	0x3d772bd4	0.060344532
74	0xbd8fcb5f	-0.07021212
75	0x3e752231	0.23938824
76	0xbd90325d	-0.07040856
77	0xbd68a0d6	-0.05679401
78	0x3d7c8861	0.0616535
79	0x3d85c1dd	0.06531117
80	0xbda175ff	-0.07883834
81	0xbc60cbcf	-0.013720467
82	0xbedd817b	-0.43262848
83	0xbf0d531b	-0.55204934
84	0xbd9bda08	-0.076099455
85	0xbda333fe	-0.07968901
86	0x3d76b35a	0.060229637
87	0xbc06b233	-0.008221197
88	0x3b153544	0.0022767344
89	0xbd9a7ddb	-0.07543536
90	0xbd917df2	-0.071041
91	0x3da04cb4	0.0782713
92	0x3e1c7fec	0.15283173
93	0x3d955806	0.0729218
94	0xbd9dde40	-0.077084064
95	0x3e863bdd	0.26217547
96	0xbda60c50	-0.08107817
97	0xbd87b871	-0.06626976
98	0x3d8d1593	0.068888806
99	0x3d99a021	0.07501245
100	0x3d284930	0.041085422
101	0x3d9f19c3	0.077685855
102	0x3dfc8b4a	0.12331255
103	0x3e8278fa	0.25482923
104	0x3d284153	0.041077923
105	0x3d245b9f	0.04012644
106	0xbd63c877	-0.0556111
107	0x3dd6bf66	0.10485725
108	0x3e285cbd	0.16441627
109	0xbd01b872	-0.03167004
110	0x3d27931e	0.040911786
111	0xbd692bcb	-0.05692653
112	0xbd503c3f	-0.050838705
113	0xbd5710d0	-0.052506268
114	0x3d2b4c70	0.041820943
115	0xbe75adc9	-0.23992075
116	0x3d3723c7	0.044711854
117	0x3d3327d0	0.04373914
118	0xbd579b94	-0.052638605
119	0xbd799516	-0.060933195
120	0x3d35b113	0.044358324
121	0x3da1e6a1	0.07905317
122	0x3e026aa1	0.12735988
123	0x3e8455a8	0.258466
124	0x3d22450b	0.039616626
125	0x3d2dab26	0.042399548
126	0xbd60e192	-0.05490262
127	0x3ddfd1d7	0.10928696
128	0x3e2c07d6	0.16799864
129	0xbceff5d6	-0.029292028
130	0x3d30e607	0.04318812
131	0xbd708e6d	-0.058729578
132	0xbd5c3398	-0.05376014
133	0xbd5ffce8	-0.05468455
134	0x3d2e0442	0.04248453
135	0xbe7a414d	-0.24438973
136	0x3d3ab4c2	0.04558254
137	0x3d3894b9	0.045063708
138	0xbd50ec42	-0.051006563
139	0xbd82a122	-0.0637839
140	0xbd886aa1	-0.06660963
141	0xbbea92be	-0.0071586063
142	0xbedf6bcc	-0.4363693
143	0xbf0ed404	-0.5579226
144	0xbd7e3d7d	-0.06207036
145	0xbd8b8af8	-0.068136156
146	0x3d452236	0.04812833
147	0xbbafd8e1	-0.00536643
148	0x3bde863b	0.006790904
149	0xbd863f5d	-0.06555054
150	0xbd699136	-0.05702325
151	0x3d87c592	0.066294804
152	0x3e07565b	0.13216536
153	0x3d782971	0.060586397
154	0xbd8b0581	-0.06788159
155	0x3e75d66f	0.24007581
156	0xbd9007d8	-0.07032746
157	0xbd6077ad	-0.05480163
158	0x3d73dded	0.059537817
159	0x3d81541c	0.06314871
160	0xbdc8202e	-0.09771763
161	0xbc9f7821	-0.019466462
162	0xbeb9a699	-0.36259916
163	0xbef6ac69	-0.48178414
164	0xbdc1085a	-0.09425421
165	0xbdc92ec9	-0.09823377
166	0x3da3363f	0.07969331
167	0xbc8d59ef	-0.017254798
168	0xbbf4a1e9	-0.0074655903
169	0xbdbcb5fc	-0.09214398
170	0xbdbae7e7	-0.09126263
171	0x3dd131b0	0.10214555
172	0x3e466aa9	0.19376625
173	0x3dbe9286	0.09305291
174	0xbdc62845	-0.096756496
175	0x3e95202e	0.29126114
176	0xbdcc6389	-0.09979922
177	0xbdad790e	-0.08470355
178	0x3dbc2318	0.09186381
179	0x3dbfa7da	0.09358187
180	0x3d2eb6f0	0.04265493
181	0x3d9ca375	0.076483645
182	0x3e05be7b	0.13060944
183	0x3e846eab	0.25865683
184	0x3d22f32e	0.039782695
185	0x3d1c1357	0.03810438
186	0xbd5a328a	-0.053270854
187	0x3dda0b22	0.10646655
188	0x3e29a75e	0.16567752
189	0xbcd48239	-0.025941001
190	0x3d2be4f4	0.041966394
191	0xbd60e05f	-0.054901477
192	0xbd5bb344	-0.053637758
193	0xbd5b83b3	-0.053592395
194	0x3d2818f0	0.041039407
195	0xbe7b10f1	-0.24518181
196	0x3d3122a1	0.043245915
197	0x3d2eb839	0.042656157
198	0xbd447fb5	-0.047973353
199	0xbd70c14e	-0.0587781
200	0x3d0fc258	0.03509745
201	0x3d9e95e4	0.07743433
202	0x3dd93612	0.10606016
203	0x3e624d89	0.2209989
204	0x3cf39e22	0.02973849
205	0x3cf8980c	0.03034594
206	0xbd371e86	-0.044706844
207	0x3de83353	0.11337914
208	0x3e523b33	0.20530395
209	0xbcc769e9	-0.024342494
210	0x3d025c13	0.03182609
211	0xbd34bcde	-0.04412543
212	0xbd3ebac2	-0.046564825
213	0xbd320938	-0.043465823
214	0x3d044b57	0.032298412
215	0xbe54785d	-0.2074904
216	0x3d08a322	0.0333587
217	0x3d065a3a	0.03280089
218	0xbd24e8c7	-0.040261056
219	0xbd4e28e0	-0.05033195
220	0xbdc25476	-0.09488766
221	0xbc84b194	-0.016197957
222	0xbec44dd7	-0.38340637
223	0xbf004031	-0.5009795
224	0xbdbdb3cb	-0.092628084
225	0xbdc9f152	-0.09860481
226	0x3d9f8945	0.07789854
227	0xbc4e2844	-0.012582842
228	0xbb669c29	-0.0035188294
229	0xbdbf2edc	-0.093351096
230	0xbdb741c5	-0.089480914
231	0x3dc9fe4d	0.09862957
232	0x3e453d76	0.19261727
233	0x3dbcac27	0.09212523
234	0xbdc382ec	-0.09546456
235	0x3e93671d	0.28789607
236	0xbdc9abf9	-0.09847254
237	0xbda5a446	-0.08087973
238	0x3db74748	0.08949143
239	0x3dbbdc12	0.091728345
240	0x3d262d3d	0.040570486
241	0x3da16c9f	0.07882046
242	0x3dedcce4	0.116113454
243	0x3e786109	0.24255766
244	0x3d0d8017	0.034545984
245	0x3d21c1c5	0.039491434
246	0xbd541476	-0.051777326
247	0x3de8d372	0.11368455
248	0x3e497b11	0.19675852
249	0xbcd88763	-0.026431745
250	0x3d1e5123	0.038651597
251	0xbd5e1cc5	-0.054226656
252	0xbd493260	-0.049120307
253	0xbd57366a	-0.052542128
254	0x3d1ef24d	0.038805295
255	0xbe63c5fb	-0.22243492

layers.0.egnn.edge_mlp.3.bias f4 [16]
0	0x3dee1f8c	0.11627111
1	0x3dcb08cf	0.099137895
2	0xbe1437ad	-0.14474364
3	0xbe4137a3	-0.1886888
4	0xbe051803	-0.12997441
5	0x3e82ef1f	0.2557306
6	0x3e8c1e9d	0.27367106
7	0xbe42bbd9	-0.1901697
8	0xbda9400c	-0.08264169
9	0x3e800e2f	0.2501082
10	0x3dba85a4	0.09107521
11	0xbdb080b0	-0.08618295
12	0x3df6772d	0.1203445
13	0xbe2512ae	-0.16120407
14	0xbe686b5f	-0.22697209
15	0xbdf85ac7	-0.121266894

layers.0.egnn.node_mlp.0.weight f4 [8, 20]
0	0x3a821cc6	0.0009926788
1	0xbad9d3da	-0.0016618923
2	0xb9bbe109	-0.00035835084
3	0xba9655d5	-0.0011469672
4	0x3910b648	0.00013800815
5	0xba077a0f	-0.00051680295
6	0xba8a74e4	-0.00105634
7	0xb79cb283	-1.8679775e-05
8	0xb9e3543b	-0.0004335957
9	0xba2a23ad	-0.00064903015
10	0x3a6666de	0.0008789132
11	0x3a7ab5b2	0.0009563818
12	0x39ac9172	0.00032914762
13	0x380010a3	3.0533072e-05
14	0xbb054dc6	-0.0020340546
15	0xb995ccdb	-0.00028572124
16	0x399d103d	0.00029957472
17	0xb991933f	-0.00027766262
18	0xbaa13be5	-0.0012301175
19	0xba9ac553	-0.0011808075
20	0x39a9e894	0.00032407476
21	0xba416bb0	-0.00073784124
22	0xba6384b9	-0.000867914
23	0x3a87fe7c	0.0010375525
24	0x39b85a59	0.0003516253
25	0xba82e3b9	-0.000998608
26	0x3a6cbe51	0.0009031045
27	0x3a041725	0.0005038849
28	0x3b0deb38	0.0021655094
29	0xba0b565f	-0.00053152995
30	0xbb08e878	-0.0020890515
31	0x3a48e0cc	0.0007662892
32	0xba4f6a0b	-0.0007912225
33	0x37e3c53c	2.7152353e-05
34	0xb9d458af	-0.00040501865
35	0xbaab9e62	-0.0013093466
36	0xbb0e76f4	-0.0021738382
37	0x394a600a	0.00019299999
38	0x3a84db0f	0.0010136085
39	0xbaa5c514	-0.0012647235
40	0x3a174d3a	0.00057717005
41	0xbafef95e	-0.0019452979
42	0x396edd23	0.00022779829
43	0xbac0b865	-0.0014703391
44	0x39385511	0.00017579297
45	0x38dcb4ff	0.000105241306
46	0x3a271fb7	0.00063752703
47	0x3a934298	0.0011235056
48	0x39e54760	0.00043731462
49	0xb98263d3	-0.00024869907
50	0x3a6dd7b3	0.0009072974
51	0x3a328d08	0.00068111764
52	0xba88f26f	-0.0010448227
53	0x3749136f	1.1985058e-05
54	0x39e02ad4	0.0004275652
55	0xba6de1db	-0.00090744876
56	0x3b1d2e90	0.0023984052
57	0xba7c285f	-0.0009619053
58	0xbb0a2e99	-0.0021084903
59	0x3a58d17b	0.0008270961
60	0xb9b89061	-0.00035202786
61	0xb9b5342d	-0.00034561884
62	0xb9943cff	-0.00028274205
63	0xb9ca1a62	-0.000385481
64	0x3a5e6cda	0.0008484848
65	0x3a7119c5	0.00091972604
66	0x3998d961	0.0002915366
67	0xb9c4c417	-0.00037530132
68	0x39585c48	0.00020633743
69	0xbb0d50fd	-0.0021563165
70	0xbab5da47	-0.0013874256
71	0x3ac09c0f	0.0014694947
72	0x3a1248e9	0.00055803225
73	0x38d31afd	0.00010066291
74	0xba8fd4fb	-0.0010973507
75	0xb99d630d	-0.00030019172
76	0x3a958f3c	0.0011410485
77	0xbac2e60e	-0.0014869587
78	0x3a8069d7	0.0009797168
79	0xba2da9ac	-0.00066247093
80	0xbb07e243	-0.0020734228
81	0xba38c230	-0.0007047979
82	0x3a97d714	0.0011584484
83	0x3a922825	0.001115088
84	0xb9e26d68	-0.00043187593
85	0x39d662f8	0.00040890998
86	0xba9e1de6	-0.0012063354
87	0x3a9ab38d	0.0011802778
88	0xb929b7ee	-0.00016185615
89	0x3a8c95a1	0.0010725745
90	0x39db00e9	0.00041771613
91	0xba6398fa	-0.0008682158
92	0xba780db7	-0.0009462493
93	0x3a85b795	0.0010201806
94	0x3a3dbfed	0.0007238377
95	0xba661d9f	-0.00087782176
96	0xbaa11f78	-0.0012292704
97	0xba3420fc	-0.000687137
98	0x3a14b799	0.000567311
99	0xb8f03713	-0.0001145435
100	0xb906b1ee	-0.0001284552
101	0x3b03cf02	0.00201124
102	0x3a25182c	0.00062978524
103	0x3a278029	0.0006389642
104	0x3a8470db	0.0010104434
105	0xb984324f	-0.00025214485
106	0xb9bb4ca4	-0.0003572452
107	0xb9fe0e2a	-0.00048457208
108	0x3a8c478d	0.0010702476
109	0x37a8b266	2.0110234e-05
110	0xb9ef3862	-0.0004562764
111	0xb8f73223	-0.000117872165
112	0x398ea8f6	0.00027210236
113	0x39f97207	0.00047577938
114	0x394f9b4a	0.00019798908
115	0x3a59c76f	0.0008307611
116	0xb948814c	-0.00019121653
117	0x3ae99036	0.0017819467
118	0x394caa16	0.00019518318
119	0x39449448	0.00018747256
120	0x3afede67	0.0019444943
121	0xb86d6b2b	-5.660501e-05
122	0xba7d4fbe	-0.00096630666
123	0x3a88021d	0.0010376606
124	0x3ab77438	0.0013996428
125	0x3a8079e1	0.0009801948
126	0x39a3ff37	0.00031279933
127	0x3a7d0264	0.00096515403
128	0x3b56c4fc	0.003277122
129	0x3ab124c8	0.001351499
130	0xba22e420	-0.0006213803
131	0x39c9e0a7	0.00038505087
132	0xbaaceff7	-0.0013194074
133	0x399603a0	0.0002861293
134	0x3a81b333	0.0009895324
135	0x3aee85a8	0.0018197792
136	0x3a5a9952	0.00083388865
137	0x3adaf5a3	0.0016705286
138	0x3b07edd3	0.002074112
139	0xbaf6a8e1	-0.001881864
140	0x3a08eb8a	0.00052230863
141	0xb9be073d	-0.00036245017
142	0xba32024c	-0.00067905034
143	0xb8d51b75	-0.00010161746
144	0x3a56e662	0.0008197782
145	0x38db497b	0.000104564206
146	0xba85da63	-0.0010212179
147	0xb97c2285	-0.00024045452
148	0x3a35983d	0.00069272873
149	0x3a867b40	0.001026012
150	0xba25b321	-0.0006320943
151	0xb94846d5	-0.00019099873
152	0xba80e46e	-0.0009833702
153	0xba1da6a6	-0.0006013907
154	0x3a4077d7	0.0007342076
155	0x38c46af0	9.365927e-05
156	0xb9c0e1ad	-0.00036789235
157	0x3a856989	0.0010178547
158	0xb9d97b7a	-0.00041481463
159	0xba2a8834	-0.0006505281

layers.0.egnn.node_mlp.0.bias f4 [8]
0	0x3e1deee7	0.15423165
1	0x3db48ab0	0.08815515
2	0x3cc9b238	0.024621114
3	0xbe5ccd46	-0.2156268
4	0xbd610afa	-0.05494211
5	0x3d8c6895	0.06855885
6	0xbdaf9296	-0.08572881
7	0xbd03a144	-0.032136217

layers.0.egnn.node_mlp.3.weight f4 [4, 8]
0	0xb9128371	-0.00013972611
1	0x3984bd58	0.00025318074
2	0x39830b4b	0.0002499468
3	0x38c2f688	9.296561e-05
4	0xb9c3483f	-0.00037247126
5	0xb98073f2	-0.00024500448
6	0x3a63d2bb	0.0008690764
7	0x3a250b7a	0.00062959606
8	0x3acc3506	0.0015579767
9	0x3a58cdd6	0.0008270418
10	0xba90c0a2	-0.0011043737
11	0x3a9c9b66	0.0011948168
12	0x38892aff	6.540678e-05
13	0x3a269285	0.00063542306
14	0xbabdc336	-0.0014477733
15	0x394e7d71	0.00019692421
16	0x383e8318	4.542162e-05
17	0xba99e250	-0.001174042
18	0x3a2a34f3	0.00064928754
19	0x39bab37e	0.00035610417
20	0x3a536899	0.00080645975
21	0xb8c828c2	-9.544335e-05
22	0x3a2c2818	0.0006567254
23	0x39e23967	0.00043148847
24	0xba478a12	-0.00076118216
25	0xba2aa2a9	-0.00065092236
26	0xb9a4cf16	-0.0003143481
27	0x3a89c749	0.0010511662
28	0xba301d0f	-0.0006718197
29	0xba20fc17	-0.000614108
30	0xb9d9065a	-0.00041394198
31	0x3a430cd7	0.0007440573

layers.0.egnn.node_mlp.3.bias f4 [4]
0	0x3e5506ac	0.20803326
1	0xbeb180b1	-0.34668496
2	0xbd3303db	-0.04370485
3	0xbe14c88f	-0.14529632

layers.0.egnn.coors_mlp.0.weight f4 [64, 16]
0	0xbcfc0030	-0.030761808
1	0xbd05ff6b	-0.03271429
2	0x3d3adf92	0.04562337
3	0x3d173724	0.03691782
4	0x3d5c3d73	0.05376954
5	0xbcb345b3	-0.021883821
6	0xbcbf999c	-0.023388676
7	0x3d1eb040	0.038742304
8	0x3da5c07f	0.08093356
9	0xbcc0602d	-0.02348336
10	0xbd0defa6	-0.034652375
11	0x3da5818a	0.08081348
12	0xbcfe08d5	-0.03101007
13	0x3d302355	0.043002445
14	0x3d0bdcce	0.034146123
15	0x3d68615e	0.05673348
16	0xbd4cc025	-0.04998793
17	0xbd590d64	-0.052991286
18	0x3d4a34bd	0.0493667
19	0x3d1e1c31	0.038601104
20	0x3d54a5f5	0.05191608
21	0xbd03e755	-0.032203037
22	0xbd02caac	-0.031931564
23	0x3d1b4bff	0.037914272
24	0x3da90f80	0.082549095
25	0xbd13cf92	-0.036086626
26	0xbd636e23	-0.055524956
27	0x3da39192	0.0798675
28	0xbd4c49bd	-0.04987501
29	0x3d3a68e2	0.04551018
30	0x3d0cb2bc	0.034350142
31	0x3d6e8570	0.058232725
32	0x3de157f1	0.110031016
33	0x3df180a8	0.11792117
34	0xbe3a37fd	-0.1818542
35	0xbe2e2104	-0.17004782
36	0xbe3eaf77	-0.18621622
37	0x3daa338b	0.08310612
38	0x3da7695a	0.08174391
39	0xbe2f1ae0	-0.17100096
40	0xbe52b89c	-0.20578235
41	0x3da7f262	0.08200528
42	0x3dfb1d1a	0.1226141
43	0xbe51b9e5	-0.2048107
44	0x3ddaab30	0.10677183
45	0xbe3749f1	-0.178993
46	0xbe26f61e	-0.16304824
47	0xbe43fd6f	-0.19139646
48	0xbd4090c3	-0.047013056
49	0xbd4b0e84	-0.04957439
50	0x3d48f2bf	0.049059626
51	0x3d1b26c5	0.03787877
52	0x3d581472	0.052753873
53	0xbd0149a4	-0.03156437
54	0xbd00c87d	-0.0314412
55	0x3d2ea2c9	0.042635713
56	0x3da86a96	0.08223455
57	0xbd09ef47	-0.03367546
58	0xbd52bbfd	-0.05144881
59	0x3da3d483	0.07999518
60	0xbd347975	-0.044061143
61	0x3d3b4062	0.045715697
62	0x3d1bded0	0.038054287
63	0x3d6f2762	0.058387168
64	0x3cc28803	0.023746496
65	0x3cd8a5a2	0.026446167
66	0xbd64e815	-0.055885393
67	0xbd3b4e7e	-0.045729153
68	0xbd74ad4a	-0.059735574
69	0x3cba31bc	0.022728793
70	0x3caf6c50	0.021413952
71	0xbd3984a8	-0.045292526
72	0xbda8f065	-0.082489766
73	0x3cb1f2f5	0.021722296
74	0x3ce7e297	0.028306289
75	0xbda89fdd	-0.082336165
76	0x3cbef057	0.023307962
77	0xbd53078d	-0.051520873
78	0xbd258895	-0.040413458
79	0xbd85edc5	-0.065394916
80	0x3cb1fa10	0.021725684
81	0x3cb7cc79	0.022436367
82	0xbd63da9c	-0.055628404
83	0xbd3de087	-0.046356704
84	0xbd76e542	-0.06027723
85	0x3ca291c6	0.0198449
86	0x3c9d539e	0.01920491
87	0xbd3e79db	-0.04650293
88	0xbdaa2205	-0.0830727
89	0x3c985fe4	0.018600412
90	0x3cc5ba3b	0.024136653
91	0xbdabaefd	-0.08382986
92	0x3ca8f777	0.020625813
93	0xbd51455a	-0.05109153
94	0xbd2c4377	-0.042056527
95	0xbd81e5ed	-0.06342683
96	0x3caafa88	0.020871416
97	0x3cb98d37	0.022650344
98	0xbd60d0bc	-0.054886565
99	0xbd3c7ce2	-0.046017535
100	0xbd6be89a	-0.057594873
101	0x3c8f648e	0.017504003
102	0x3ca12cdc	0.01967471
103	0xbd3b073f	-0.045661207
104	0xbda933f1	-0.0826186
105	0x3c906d7a	0.017630327
106	0x3ccc1c42	0.024915818
107	0xbda9f663	-0.08298948
108	0x3cac3348	0.021020547
109	0xbd4a549b	-0.049397092
110	0xbd20efb0	-0.039291084
111	0xbd82b8fb	-0.063829385
112	0xbd3b5e92	-0.045744486
113	0xbd438262	-0.047731765
114	0x3d47cdc3	0.048780214
115	0x3d290dab	0.0412728
116	0x3d606217	0.054781046
117	0xbd035245	-0.03206088
118	0xbd004a85	-0.031321067
119	0x3d2cbd11	0.042172495
120	0x3db0db1d	0.086355425
121	0xbd06e07d	-0.032928932
122	0xbd50cb11	-0.05097491
123	0x3da965d5	0.08271376
124	0xbd2e1a3a	-0.04250548
125	0x3d45f051	0.048324887
126	0x3d1736ac	0.036917374
127	0x3d70d8e0	0.058800578
128	0xbd41a57f	-0.04727697
129	0xbd4f4d14	-0.050610617
130	0x3d48d159	0.049027774
131	0x3d1ff598	0.039052576
132	0x3d50f205	0.051012058
133	0xbd09ce97	-0.033644285
134	0xbd05e029	-0.03268448
135	0x3d2a2ced	0.04154675
136	0x3da2b67a	0.07944961
137	0xbd119ae1	-0.035548095
138	0xbd4fb91e	-0.05071365
139	0x3da0444d	0.07825527
140	0xbd3bf911	-0.045891825
141	0x3d3644c7	0.044499185
142	0x3d17f3a6	0.037097596
143	0x3d6536bb	0.0559604
144	0xbcf03ad1	-0.02932492
145	0xbcf6ee69	-0.03014298
146	0x3d432d6e	0.047650747
147	0x3d133d2c	0.03594701
148	0x3d545a7e	0.051844113
149	0xbcac67fe	-0.021045681
150	0xbcb1003d	-0.021606559
151	0x3d223458	0.0396007
152	0x3dadca0d	0.08485804
153	0xbcc64ff7	-0.024208052
154	0xbd06d141	-0.032914404
155	0x3da939cf	0.08262979
156	0xbce83e90	-0.028350145
157	0x3d2fee7b	0.042952042
158	0x3d0539e7	0.032525923
159	0x3d7282ea	0.05920688
160	0xbd4ae82f	-0.049537834
161	0xbd64c499	-0.055851553
162	0x3d43dbf1	0.047817174
163	0x3d218910	0.039437354
164	0x3d52ac4a	0.05143384
165	0xbd1014e2	-0.035176165
166	0xbd05a49c	-0.032627687
167	0x3d23442b	0.039859932
168	0x3da3f2f1	0.08005322
169	0xbd0c87d9	-0.034309242
170	0xbd675ce8	-0.056485087
171	0x3d9dcc13	0.0770494
172	0xbd4538fb	-0.048150044
173	0x3d34f924	0.04418291
174	0x3d103417	0.035205927
175	0x3d5cc42e	0.05389803
176	0x3cc897d5	0.024486462
177	0x3cd2313c	0.025658242
178	0xbd52a046	-0.05142238
179	0xbd2ee2fd	-0.04269694
180	0xbd5da944	-0.054116502
181	0x3cb2c1d8	0.021820948
182	0x3cc5b478	0.024133906
183	0xbd314958	-0.043282837
184	0xbda167f6	-0.07881157
185	0x3cb9a3df	0.022661148
186	0x3ce3c354	0.0278031
187	0xbd9fa3d8	-0.077949226
188	0x3cc1a3d6	0.023637693
189	0xbd41fc18	-0.047359556
190	0xbd1e0ff7	-0.038589444
191	0xbd72eb3c	-0.05930637
192	0x3c86c5ac	0.01645168
193	0x3c89a891	0.016804012
194	0xbd5c58b3	-0.053795528
195	0xbd2c9a8f	-0.042139586
196	0xbd66c32b	-0.05633847
197	0x3c7dd264	0.015492056
198	0x3c69b6b1	0.014264748
199	0xbd3d0e58	-0.046156257
200	0xbd9e5420	-0.07730889
201	0x3c559147	0.013035125
202	0x3c9d666e	0.019213881
203	0xbd9f5130	-0.07779157
204	0x3c709007	0.014682776
205	0xbd46e7f0	-0.048561037
206	0xbd1e55ec	-0.03865616
207	0xbd7deaad	-0.061991382
208	0x3ca68f7c	0.02033209
209	0x3cb05f2b	0.021529755
210	0xbd6a0288	-0.05713132
211	0xbd4158dc	-0.047203884
212	0xbd77fc6e	-0.06054347
213	0x3c992feb	0.018699607
214	0x3c9fa2cb	0.019486805
215	0xbd3cada8	-0.04606405
216	0xbdab426d	-0.08362279
217	0x3c8f6cf9	0.017508017
218	0x3cc53efd	0.024077887
219	0xbdab9c55	-0.08379427
220	0x3ca13cff	0.019682406
221	0xbd5380b9	-0.05163643
222	0xbd2e7f43	-0.042601835
223	0xbd8561ba	-0.065127805
224	0x3ccd40c5	0.025055299
225	0x3ce498e9	0.027904944
226	0xbd62b959	-0.055352543
227	0xbd2ff746	-0.042960428
228	0xbd6ea5b2	-0.058263488
229	0x3cd184ca	0.025576014
230	0x3cc141ea	0.023591
231	0xbd3cc69d	-0.04608785
232	0xbda7a8fa	-0.081865266
233	0x3cc34a2f	0.023839084
234	0x3ce7bf8f	0.028289584
235	0xbda4e6d9	-0.08051843
236	0x3cce9f5c	0.025222473
237	0xbd53220c	-0.05154614
238	0xbd280285	-0.041018028
239	0xbd8303e0	-0.063972235
240	0x3cd78284	0.026307352
241	0x3cca27db	0.024677208
242	0xbd5c6417	-0.05380639
243	0xbd374315	-0.04474171
244	0xbd6f6c1e	-0.058452718
245	0x3cb34e2e	0.021887865
246	0x3cbe60a8	0.023239449
247	0xbd3e32af	-0.046435054
248	0xbda9c91e	-0.08290313
249	0x3ca825c4	0.02052582
250	0x3cdcee3f	0.026969073
251	0xbda89bbc	-0.08232829
252	0x3cca9233	0.024727916
253	0xbd578834	-0.052620128
254	0xbd2c5974	-0.042077497
255	0xbd7fd2d9	-0.06245694

layers.0.egnn.coors_mlp.0.bias f4 [64]
0	0xbcaa3706	-0.02077819
1	0xbe2c1766	-0.16805801
2	0x3dba15d1	0.090861924
3	0xbd8d4e4d	-0.068997
4	0x3df0bfcc	0.11755332
5	0x3d800ab3	0.06252041
6	0x3d8361a7	0.0641511
7	0xbd5ca27d	-0.0538659
8	0xbdb3d620	-0.087810755
9	0xbd065c21	-0.032802705
10	0xbe3f8202	-0.18701938
11	0x3e870092	0.26367623
12	0x3cce61c0	0.025193095
13	0x3d773252	0.060350724
14	0x3e80c0ac	0.25146997
15	0x3decb987	0.11558824
16	0xbe628571	-0.22121216
17	0x3e405ec2	0.18786147
18	0x3d50dfff	0.05099487
19	0xbdb48636	-0.08814661
20	0x3df1de05	0.11809925
21	0xbdd6e1c2	-0.10492279
22	0x3e33a59a	0.1754364
23	0xbdcaf52d	-0.09910045
24	0xbde906c7	-0.11378246
25	0x3de1c70e	0.11024295
26	0xbccc79ae	-0.024960365
27	0x3e5c9218	0.21540105
28	0x3e6a17b4	0.22860605
29	0x3e05529d	0.13019796
30	0xbe19593f	-0.14975451
31	0x3e597217	0.21234928
32	0x3e582df4	0.2111128
33	0x3e8b15d2	0.27165085
34	0x3d88bdca	0.066768244
35	0xbde611cd	-0.11233864
36	0x3e4f70c0	0.20257854
37	0xbe144b33	-0.14481811
38	0xbcefb6a3	-0.029261893
39	0xbd930533	-0.07178726
40	0xbe8bfebb	-0.2734278
41	0x3d41b4aa	0.047291435
42	0xbe84fbef	-0.2597346
43	0xbe0ca8ff	-0.13736342
44	0xbe1c2741	-0.15249349
45	0x3e271d25	0.16319712
46	0x3e47febf	0.19530772
47	0x3d8303d0	0.063972116
48	0x3de14bf2	0.110008135
49	0x3d0b90c3	0.034073602
50	0xbe86fee3	-0.26366338
51	0x3dd38c92	0.10329546
52	0x3e70fed1	0.23534705
53	0x3e04d0c4	0.12970263
54	0x3e044130	0.12915492
55	0xbe877daf	-0.26463076
56	0x3d0da1d0	0.034578145
57	0xbe2fd7a8	-0.1717211
58	0xbdeb3429	-0.11484558
59	0x3e3b599e	0.18295905
60	0x3e015e8f	0.12633727
61	0x3e48830d	0.19581242
62	0xbe885baf	-0.2663245
63	0x3d80a31c	0.06281111

layers.0.egnn.coors_mlp.3.weight f4 [1, 64]
0	0x3cdcec25	0.026968071
1	0x3ca0d849	0.019634383
2	0xbdc77f80	-0.097411156
3	0x3cbf9d82	0.023390535
4	0xbcb3a8a2	-0.021930996
5	0xbcbe329f	-0.023217497
6	0xbcbdbe7e	-0.023162123
7	0x3cc658b7	0.024212224
8	0x3cbe297b	0.023213139
9	0x3cbc0eec	0.022956334
10	0x3ca70a30	0.0203906
11	0xbcb44515	-0.022005597
12	0xbce7f135	-0.028313259
13	0xbcbb2e9d	-0.022849375
14	0xbcadcde3	-0.021216339
15	0xbcb3c4d8	-0.021944448
16	0x3cad206c	0.021133624
17	0xbcaf3e03	-0.021391874
18	0xbccf954d	-0.025339747
19	0x3caf9320	0.02143246
20	0xbcb3bfae	-0.021941986
21	0x3cb4db2f	0.022077171
22	0xbcad75fa	-0.02117442
23	0x3cae45ad	0.021273458
24	0x3cb23dd7	0.021758003
25	0xbca3b1b0	-0.019982189
26	0x3cfcb1bf	0.030846475
27	0xbcb464a8	-0.022020653
28	0xbca182ee	-0.019715752
29	0xbca23267	-0.019799424
30	0x3cad7bc3	0.021177178
31	0xbcab4f3d	-0.020911807
32	0xbcaebc14	-0.021329917
33	0xbcadc2aa	-0.021210987
34	0xbcb6a851	-0.022297056
35	0x3cbfa2da	0.023393083
36	0xbcb117e9	-0.021617847
37	0x3c9cf33f	0.019158958
38	0x3cd28a9a	0.025700856
39	0x3cbe19f4	0.023205735
40	0x3caf65be	0.02141082
41	0xbcbc6052	-0.022995148
42	0x3caa9b61	0.020826044
43	0x3cab9936	0.02094708
44	0x3ca8b0fb	0.020592203
45	0xbcb48bad	-0.022039259
46	0xbcbf0a20	-0.023320258
47	0xbcc84818	-0.02444844
48	0xbca24955	-0.019810358
49	0xbccda4f3	-0.025103068
50	0x3ca656ef	0.020305125
51	0xbcb34e39	-0.021887885
52	0xbcb2207e	-0.02174401
53	0xbcaaacfe	-0.020834442
54	0xbcbdf85c	-0.023189716
55	0x3cae40e3	0.021271175
56	0xbcc5ba79	-0.024136769
57	0x3cb4f9af	0.022091715
58	0x3ca8a52f	0.020586578
59	0xbcb2637b	-0.021775952
60	0xbcb3003c	-0.021850698
61	0xbc9abe9e	-0.018889721
62	0x3ca6cabd	0.020360345
63	0xbcc86bdd	-0.024465496

layers.0.egnn.vel_mlp.0.weight f4 [16, 4]
0	0xb99f83ce	-0.00030425045
1	0xb8142e29	-3.532894e-05
2	0xbb5e20f9	-0.0033894165
3	0x3aab7e5c	0.0013083923
4	0x3a925d0a	0.0011166644
5	0x3a80afd9	0.0009818032
6	0xbb7630e2	-0.0037565758
7	0xbab0d077	-0.0013489862
8	0xb98d90e2	-0.00027001562
9	0xb9ea0058	-0.00044632214
10	0x3b83d248	0.00402287
11	0xbb3947d6	-0.0028271577
12	0x3a426c2c	0.00074166316
13	0x3a0485bd	0.0005055329
14	0x3b861419	0.0040917513
15	0xba8247b9	-0.0009939588
16	0xbb1f6a66	-0.0024324893
17	0xb9df8ad4	-0.0004263731
18	0xbb7f061a	-0.003891355
19	0x3b30af24	0.002695986
20	0xba3769e4	-0.0006996675
21	0x3a51de22	0.00080058177
22	0x3b962df9	0.004583117
23	0xbb27d9ce	-0.0025612
24	0x3b47c861	0.0030484425
25	0x39c5d606	0.00037734228
26	0x3b1e9552	0.0024197889
27	0xbb187c07	-0.0023267285
28	0x3aa420b3	0.0012521952
29	0xb7da548f	-2.6027e-05
30	0x3b5f2192	0.003404711
31	0xbaffa105	-0.0019502944
32	0xbb8d52b1	-0.004312836
33	0xbb1b7cd8	-0.0023725536
34	0xbbaa9c43	-0.005206616
35	0x3abcbb47	0.0014399075
36	0xbb170fcb	-0.0023050185
37	0x39ef00d2	0.00045586244
38	0xbb28470d	-0.0025677115
39	0x3b2e28ee	0.002657469
40	0x3b8ef4d8	0.0043626837
41	0x3a3ee400	0.00072818995
42	0x3b8baf5c	0.004262848
43	0xbae2c186	-0.0017300106
44	0x3a11e9ea	0.0005566167
45	0xb999b6a3	-0.0002931851
46	0x395681be	0.00020456963
47	0xbae76826	-0.001765494
48	0x3ac6668f	0.0015136766
49	0x38449e60	4.687754e-05
50	0x3b721fb7	0.0036945173
51	0xbb0c8e99	-0.00214473
52	0x3a0d883f	0.00053990254
53	0xba907e4c	-0.0011023968
54	0x3b3dee03	0.0028980977
55	0xbb187bcb	-0.0023267146
56	0xb9d89d5c	-0.00041315972
57	0xba419c3b	-0.0007385646
58	0xba8cf695	-0.001075464
59	0x3abe3013	0.0014510177
60	0xbaf84cd0	-0.001894379
61	0xbaed0ac4	-0.0018084873
62	0xbb72b192	-0.003703211
63	0x3b015e15	0.0019739915

layers.0.egnn.vel_mlp.0.bias f4 [16]
0	0x3ee02479	0.43777826
1	0xbe8f311c	-0.27967155
2	0xbc48dc9a	-0.012259627
3	0x3ccf5705	0.025310049
4	0xbecd9760	-0.40154552
5	0x3e34d122	0.17657903
6	0x3eba02b0	0.36330175
7	0x3effa3d6	0.49929684
8	0x3ebef19e	0.37293714
9	0x3ec6db17	0.38839027
10	0x3d4d0192	0.050050326
11	0x3ede7020	0.4344492
12	0xbee0ae1d	-0.43882838
13	0x3caa57a9	0.020793753
14	0xbd6a4d58	-0.057202667
15	0xbea93006	-0.3304445

layers.0.egnn.vel_mlp.3.weight f4 [1, 16]
0	0x3ac28c5d	0.0014842857
1	0x39758b90	0.00023417012
2	0xb9f67755	-0.00047009686
3	0xba57c8b2	-0.0008231505
4	0x3af58f9c	0.0018734816
5	0xba385ef8	-0.00070331944
6	0xba5f45b9	-0.00085171644
7	0xba783d55	-0.00094695884
8	0x3b20401f	0.0024452282
9	0x3ab6a2ca	0.0013934013
10	0xbaa5219e	-0.001259852
11	0x39d9e858	0.00041562575
12	0xba534b13	-0.0008060198
13	0x39cde518	0.00039271335
14	0x391c072a	0.00014879988
15	0x3a85550e	0.0010172443

layers.1.egnn.edge_mlp.0.weight f4 [20, 10]
0	0xbb2bea1c	-0.002623207
1	0x3b198024	0.0023422325
2	0xb8e6b5d8	-0.00011001126
3	0x3b99b1b6	0.0046903742
4	0xbb6fc0ad	-0.003658335
5	0xbc0d023c	-0.00860649
6	0xbb985033	-0.0046482324
7	0xbc3ad4c2	-0.0114032645
8	0x3aeb84aa	0.0017968614
9	0x3b4a7360	0.0030891523
10	0x3bbdc4f4	0.005791301
11	0x3c1a6ae8	0.0094249025
12	0x3beae281	0.0071681147
13	0x3c1c5997	0.009542844
14	0x3b31c5f8	0.0027126055
15	0xb9c6267e	-0.00037794182
16	0x39a3d955	0.00031251708
17	0xbb327f8a	-0.0027236664
18	0xbbc19d83	-0.0059086694
19	0xbb437e3a	-0.0029829876
20	0x3b747886	0.0037303283
21	0xbb2de900	-0.0026536584
22	0x3a800304	0.0009766524
23	0xbb14c562	-0.0022700657
24	0x3bc4cd5d	0.0060059265
25	0x3c114c6b	0.008868317
26	0x3c04f957	0.008116088
27	0x3c3d9e01	0.011573316
28	0xbb6af1cd	-0.003584969
29	0xbba892cf	-0.005144454
30	0x3b1c460d	0.0023845464
31	0x39f7522e	0.0004717274
32	0x3a6d4b3f	0.0009052045
33	0xbb010d87	-0.00196919
34	0x3b9f9c3b	0.004870919
35	0x3bd9aa2e	0.0066426015
36	0x3bb95242	0.005655558
37	0x3bef9381	0.007311285
38	0xbb34621f	-0.0027524305
39	0xbb1ce02a	-0.0023937323
40	0x3aed08f0	0.0018084329
41	0xbb19fb8c	-0.002349588
42	0x398069dd	0.00024492937
43	0xbbd2191a	-0.0064116837
44	0x3b27717d	0.0025549822
45	0x3bdc70cb	0.006727313
46	0x3babf222	0.0052473703
47	0x3c0a1546	0.008427924
48	0xba061830	-0.00051152986
49	0xbb35a680	-0.002771765
50	0x3b5b979a	0.003350711
51	0xba62bf61	-0.00086497335
52	0x3aa729ff	0.0012753605
53	0xbb51b367	-0.0031997801
54	0x3bd452d8	0.0064796023
55	0x3be6f0c3	0.007047744
56	0x3ba3f4ba	0.005003539
57	0x3c185fdb	0.0093001975
58	0xbabd8b41	-0.0014461057
59	0xbb4c17a8	-0.003114203
60	0x39960fda	0.0002862204
61	0x3bdaa176	0.0066720797
62	0x3b3fe7d3	0.0029282465
63	0x3c179ea5	0.009254132
64	0xbafb29c5	-0.0019162229
65	0xbbbdcebf	-0.0057924683
66	0xbb413b1f	-0.0029484702
67	0xbc1f83cd	-0.009736014
68	0xbb24d0a7	-0.002514878
69	0x3a9a8b54	0.0011790791
70	0x3b906977	0.0044071036
71	0xba028aa8	-0.0004979768
72	0x3b33a1cf	0.0027409678
73	0xba8795a2	-0.0010344277
74	0x3c093e03	0.008376601
75	0x3c30fa8e	0.010801924
76	0x3c05a301	0.008156539
77	0x3c3def8c	0.011592757
78	0xbb676bae	-0.0035311985
79	0xbbb10dbb	-0.005403248
80	0x3a985251	0.0011621212
81	0x3b68d6dd	0.003552846
82	0x3b0785e7	0.0020679177
83	0x3bf4ad20	0.007466927
84	0xbb138a0d	-0.0022512705
85	0xbbb70268	-0.0055850036
86	0xbb850446	-0.0040593473
87	0xbbed41fb	-0.0072405315
88	0xbb32abc4	-0.0027263025
89	0xb9014ae6	-0.000123303
90	0x3b837682	0.00401193
91	0x39adf09f	0.00033176408
92	0x3b4731c4	0.0030394653
93	0xbae30230	-0.0017319378
94	0x3ba3aabc	0.0049947184
95	0x3c311087	0.010807163
96	0x3c02faee	0.007994397
97	0x3c609782	0.013707997
98	0xbb8b837b	-0.004257617
99	0xbbbec3b8	-0.0058216713
100	0x3b0577b8	0.0020365547
101	0x3c075649	0.008260318
102	0x3a92401f	0.0011158026
103	0x3bc33f3a	0.005958465
104	0xbab99dd3	-0.0014161415
105	0xbbd4e404	-0.006496908
106	0xbb7e851e	-0.0038836668
107	0xbc0b6e2b	-0.008510153
108	0xbb44dd13	-0.0030038997
109	0x3a255a04	0.0006307664
110	0x3b779f08	0.0037784
111	0x3bcaab7a	0.0061849924
112	0x3b620b4a	0.0034491592
113	0x3bf05592	0.0073344195
114	0x39ed3596	0.00045244087
115	0xbb140cb1	-0.0022590572
116	0xbaa26d0a	-0.0012392115
117	0xbbae7909	-0.005324487
118	0xbb467f37	-0.0030288228
119	0xbb80773a	-0.003920463
120	0x3b2cc1ac	0.0026360555
121	0xb9ebb613	-0.0004495835
122	0x3a9269c6	0.0011170439
123	0xbb2a6d75	-0.0026005183
124	0x3b9d9682	0.0048092017
125	0x3c179c0e	0.009253515
126	0x3be0046d	0.006836465
127	0x3c2caefa	0.010539765
128	0xbaf0409f	-0.0018329805
129	0xbb1897b5	-0.0023283784
130	0x38855d1d	6.359278e-05
131	0xbaeec1af	-0.0018215681
132	0x3a8f106a	0.0010914926
133	0xbb5fac84	-0.0034129927
134	0x3b5cb4a7	0.0033677013
135	0x3c11f5f7	0.00890874
136	0x3bb99d77	0.005664523
137	0x3c03e70b	0.00805069
138	0xb992bcc7	-0.0002798794
139	0xbb22cda7	-0.0024841817
140	0x395ab15f	0.00020856176
141	0xba5a18dd	-0.0008319745
142	0xba765ea1	-0.0009398256
143	0xbb300e58	-0.0026864018
144	0x3b847a6d	0.0040429146
145	0x3bdf8876	0.0068216873
146	0x3bb9342f	0.0056519727
147	0x3bd46e72	0.0064828927
148	0xbaaaed61	-0.0013040715
149	0xbb384b4e	-0.0028121057
150	0x39a4e6b0	0.00031452393
151	0x3c054ddf	0.008136242
152	0x3b009b8b	0.001962396
153	0x3c4bf596	0.012448689
154	0xbb284b91	-0.0025679807
155	0xbbec70df	-0.0072156037
156	0xbb902e7a	-0.0044000717
157	0xbc509332	-0.012730407
158	0xba3031b2	-0.00067212724
159	0x3b1d26b2	0.0023979363
160	0xbb715393	-0.0036823496
161	0xbbdfa439	-0.006824997
162	0xbb44cb48	-0.0030028392
163	0xbbe5ea51	-0.007016458
164	0xba3928e1	-0.00070632814
165	0x3a56b217	0.00081899896
166	0x3a895b5f	0.0010479501
167	0x3b667fcc	0.0035171388
168	0x3b97ad4c	0.004628813
169	0x3af6f05e	0.0018839946
170	0x3b2475e3	0.002509468
171	0xb93ac421	-0.00017811406
172	0x3b24e588	0.0025161225
173	0xbadc39dc	-0.0016801911
174	0x3bf116df	0.007357463
175	0x3c14df63	0.009086463
176	0x3c051198	0.00812187
177	0x3c462ad8	0.012095176
178	0xbb3bd794	-0.002866243
179	0xbb915fee	-0.0044364845
180	0x398c973c	0.0002681556
181	0x3c01d646	0.007924622
182	0x3b09df89	0.0021037778
183	0x3c149853	0.00906952
184	0xbb71bd5a	-0.0036886544
185	0xbbf1b33b	-0.0073761023
186	0xbb91981f	-0.004443183
187	0xbc3057d0	-0.010763124
188	0xbadf1e4a	-0.0017022577
189	0x3782e532	1.5603935e-05
190	0x3b9b61b7	0.004741873
191	0x3ab0e140	0.0013494864
192	0x3b80bf1d	0.0039290325
193	0x3acea568	0.0015765848
194	0x3bfdb78b	0.0077428273
195	0x3c1f6a69	0.00972996
196	0x3bc97b8a	0.00614876
197	0x3c5774f5	0.013150443
198	0xbbceb196	-0.006307791
199	0xbb932c57	-0.0044913697

layers.1.egnn.edge_mlp.0.bias f4 [20]
0	0xbe314c44	-0.1731425
1	0xbd3413f5	-0.043964345
2	0x3e89b5f9	0.26896647
3	0x3dcec9fd	0.1009712
4	0x3e534fb4	0.20635873
5	0x3e08beb2	0.13353994
6	0xbe18f6c9	-0.14937891
7	0x3e7718d1	0.2413056
8	0xbda87bd2	-0.08226742
9	0x3e54ebb3	0.20793037
10	0xbdd01b99	-0.10161514
11	0xbd6432d1	-0.055712525
12	0x3e75b7e4	0.2399593
13	0x3e212e64	0.15740353
14	0x3dc44e7d	0.09585283
15	0xbe9485a5	-0.29008213
16	0x3d29a8cb	0.04142074
17	0x3e6a5b94	0.22886497
18	0xbe93a15f	-0.28834054
19	0x3e0233fb	0.12715141

layers.1.egnn.edge_mlp.3.weight f4 [16, 20]
0	0x3c8621f1	0.016373606
1	0x3c4ad089	0.01237882
2	0xbc8a611a	-0.016892005
3	0xbc2e2595	-0.010629077
4	0xbc8484c9	-0.016176598
5	0xbc589f32	-0.013221549
6	0x3c7f44f1	0.015580402
7	0xbc7647f1	-0.015031801
8	0x3c425f16	0.011863491
9	0xbc837c41	-0.01605046
10	0x3c6da1bd	0.014503893
11	0x3c3982b6	0.011322668
12	0xbc7f2bc9	-0.015574404
13	0xbc5a886e	-0.013338191
14	0xbc2f3aa6	-0.010695135
15	0x3c9e4697	0.01932077
16	0xbc2dc48f	-0.010605945
17	0xbc944640	-0.018099904
18	0x3c8919c8	0.016735926
19	0xbc354ec7	-0.011066145
20	0xbc48c46d	-0.012253863
21	0xbc0b7022	-0.008510621
22	0x3c3870c6	0.011257356
23	0x3be5eb04	0.0070165414
24	0x3c4f8952	0.012667017
25	0x3c14f271	0.009091006
26	0xbc3a6c75	-0.011378397
27	0x3c5466f4	0.012963999
28	0xbc112b05	-0.008860354
29	0x3c1ceff3	0.009578693
30	0xbc17d53d	-0.009267149
31	0xbbd06f8a	-0.0063609527
32	0x3c38886d	0.011262995
33	0x3c20dbee	0.00981806
34	0x3c021784	0.007940177
35	0xbc741313	-0.014897126
36	0x3bc8ff06	0.006133917
37	0x3c3afcf6	0.01141285
38	0xbc56ccdd	-0.013110367
39	0x3c05f168	0.0081752315
40	0xbcf44d5f	-0.02982205
41	0xbcbe5de3	-0.023238128
42	0x3d00b9f1	0.031427328
43	0x3cd033b7	0.025415285
44	0x3d05451f	0.032536622
45	0x3ce706d9	0.028201507
46	0xbd02607a	-0.03183029
47	0x3cf8ba2c	0.030362211
48	0xbcd6c2cd	-0.026215935
49	0x3ced08c8	0.028934851
50	0xbce05268	-0.027383044
51	0xbcc144c4	-0.02359236
52	0x3cfe6735	0.031055072
53	0x3cf2f45f	0.02965754
54	0x3cdb1768	0.02674456
55	0xbd088765	-0.033332247
56	0x3cb841f9	0.022492396
57	0x3cfdc983	0.030979877
58	0xbd0bb242	-0.034105547
59	0x3cd0084f	0.025394587
60	0xbc3e5fc8	-0.011619516
61	0xbbd2eff2	-0.006437295
62	0x3c45f35e	0.012081949
63	0x3bfb2ee3	0.0076655014
64	0x3c32d1b5	0.010914256
65	0x3bfb7ada	0.007674557
66	0xbc3b844b	-0.011445115
67	0x3c3040fb	0.01075768
68	0xbc1e40da	-0.0096590165
69	0x3c34d9d5	0.011038263
70	0xbc1d8ca9	-0.0096160555
71	0xbc07da89	-0.008291849
72	0x3c5145b7	0.012772969
73	0x3c2bac8c	0.01047815
74	0x3bd4b90c	0.006491786
75	0xbc68adc9	-0.01420159
76	0x3c088662	0.008332821
77	0x3c3b2ad1	0.011423782
78	0xbc5dc03a	-0.0135346
79	0x3bd77f50	0.006576456
80	0xbc1bfbb9	-0.009520465
81	0xbc00039e	-0.007813362
82	0x3c44e472	0.012017356
83	0x3bdfd4a2	0.0068307677
84	0x3c313a08	0.010817058
85	0x3bf77eee	0.007552973
86	0xbc2abc9e	-0.010420946
87	0x3c26f2eb	0.010189752
88	0xbc1716e5	-0.009221767
89	0x3c360974	0.011110652
90	0xbc15cfa2	-0.009143742
91	0xbbd2e6c1	-0.0064361994
92	0x3c37e983	0.011225107
93	0x3c2771a6	0.010219967
94	0x3bbb10de	0.005708798
95	0xbc708c35	-0.014681865
96	0x3bf35f1a	0.0074271085
97	0x3c41786b	0.011808495
98	0xbc6861ff	-0.01418352
99	0x3bdf49e0	0.0068142265
100	0x3c1f061a	0.009706045
101	0x3c21ca4d	0.009874892
102	0xbc59f8ca	-0.013303945
103	0xbc15e304	-0.009148363
104	0xbc40a3ad	-0.011757773
105	0xbc291115	-0.010319014
106	0x3c4c2994	0.012461085
107	0xbc507b6d	-0.0127247395
108	0x3c0ca830	0.008585021
109	0xbc2f7af4	-0.010710467
110	0x3c12ef02	0.008968117
111	0x3c13fa2d	0.0090318145
112	0xbc5fa90e	-0.013651146
113	0xbc3efb59	-0.011656606
114	0xbc1363ea	-0.008995989
115	0x3c5afedc	0.013366427
116	0xbbfd51b8	-0.007730689
117	0xbc3932a7	-0.01130358
118	0x3c73d513	0.014882344
119	0xbbf906b6	-0.007599677
120	0xbc124b18	-0.008929037
121	0xbbecebe5	-0.0072302693
122	0x3c347918	0.011015199
123	0x3bc81329	0.0061057997
124	0x3c29b95f	0.010359137
125	0x3bd4109f	0.006471708
126	0xbc0d9efe	-0.008643864
127	0x3c354e48	0.011066027
128	0xbbc83359	-0.0061096367
129	0x3c108132	0.008819865
130	0xbc0bbb46	-0.008528536
131	0xbbc1cd84	-0.005914392
132	0x3c2ae8c9	0.010431477
133	0x3be7253a	0.0070539983
134	0x3bcafe61	0.006194875
135	0xbc4eaa44	-0.012613837
136	0x3bdddee7	0.006770957
137	0x3bf8d942	0.0075942585
138	0xbc4fb2ea	-0.012676934
139	0x3bec6dfc	0.0072152596
140	0xbce030dc	-0.027367048
141	0xbcb26b08	-0.021779552
142	0x3cf9c29a	0.030488301
143	0x3ccb0930	0.024784654
144	0x3cf9e60c	0.030505203
145	0x3ce181b7	0.027527673
146	0xbce276f8	-0.02764462
147	0x3cf04714	0.029330768
148	0xbcc846f3	-0.024447894
149	0x3ce9fbd0	0.028562456
150	0xbce037dd	-0.027370388
151	0xbca4ea51	-0.020131262
152	0x3cfa8a9d	0.030583674
153	0x3ceed847	0.029155863
154	0x3cc6668c	0.02421882
155	0xbd061b2b	-0.032740753
156	0x3cbff9f8	0.023434624
157	0x3cf37f63	0.029723829
158	0xbd08684d	-0.033302594
159	0x3cccd35c	0.025003128
160	0xbc2755dd	-0.0102133425
161	0xbc120096	-0.0089112725
162	0x3c4407ac	0.01196472
163	0x3bc1a82f	0.0059099416
164	0x3c377dfb	0.01119947
165	0x3c128a5f	0.008944123
166	0xbc4033ae	-0.011731071
167	0x3c1c04ee	0.00952266
168	0xbbee1847	-0.0072660777
169	0x3c2a48bb	0.010393317
170	0xbc2be957	-0.010492644
171	0xbbef9501	-0.007311464
172	0x3c2f376a	0.010694364
173	0x3c1af337	0.009457401
174	0x3bf07127	0.0073377076
175	0xbc66146f	-0.014042958
176	0x3c071098	0.008243702
177	0x3c2278e6	0.00991652
178	0xbc6b49d4	-0.014360864
179	0x3bdedcf1	0.0068012406
180	0x3c474a51	0.0121637145
181	0x3bf08468	0.007340003
182	0xbc3bfabd	-0.011473355
183	0xbc15236a	-0.009102682
184	0xbc419c5c	-0.011817064
185	0xbc2b62d9	-0.010460579
186	0x3c4c858e	0.012483014
187	0xbc454f8e	-0.012042893
188	0x3c22b644	0.009931151
189	0xbc43dcdc	-0.011954512
190	0x3c2db788	0.010602839
191	0x3c0fb3aa	0.008770863
192	0xbc532fdb	-0.012889828
193	0xbc353cbe	-0.011061845
194	0xbc0f130e	-0.00873257
195	0x3c74bf25	0.0149381505
196	0xbc0b5861	-0.008504958
197	0xbc2d9aed	-0.010596019
198	0x3c796225	0.015221153
199	0xbc0872f3	-0.008328187
200	0x3c1dc46b	0.009629349
201	0x3c098483	0.00839341
202	0xbc3c17f1	-0.011480317
203	0xbbedb1c7	-0.0072538587
204	0xbc291fd3	-0.010322529
205	0xbc1c5fed	-0.009544355
206	0x3c2dee1f	0.0106158545
207	0xbc475228	-0.012165584
208	0x3bf88104	0.0075837392
209	0xbc2f4b45	-0.010699098
210	0x3c01cdb7	0.007922581
211	0x3c00fc4e	0.007872654
212	0xbc4a4458	-0.012345396
213	0xbc1cb287	-0.009564049
214	0xbbfd0fd9	-0.0077228365
215	0x3c70e8b8	0.014703922
216	0xbbe84b9d	-0.007089092
217	0xbc369c36	-0.011145642
218	0x3c5d0861	0.013490767
219	0xbc01895e	-0.007906286
220	0xbc3a4eb9	-0.011371308
221	0xbc2277cb	-0.009916256
222	0x3c38a0c4	0.011268798
223	0x3be98105	0.007125976
224	0x3c36c8cf	0.011156275
225	0x3c19d12e	0.009388251
226	0xbc556f5a	-0.013027037
227	0x3c223847	0.009901113
228	0xbc2349d7	-0.009966335
229	0x3c3525ad	0.011056346
230	0xbc2debf7	-0.01061534
231	0xbc012ea4	-0.007884655
232	0x3c3a5124	0.0113718845
233	0x3c3db839	0.011579567
234	0x3c204c97	0.009783885
235	0xbc761fdb	-0.015022243
236	0x3c11b259	0.008892619
237	0x3c333512	0.010937946
238	0xbc79403f	-0.015213071
239	0x3be42778	0.006962713
240	0x3bc2d1df	0.0059454287
241	0x3b62e799	0.0034622906
242	0xbbdad583	-0.0066782846
243	0xbb454818	-0.0030102786
244	0xbbe5957b	-0.007006345
245	0xbb742970	-0.0037256144
246	0x3bd1544a	0.006388222
247	0xbbcdeb2d	-0.0062841387
248	0x3b8dcee2	0.004327641
249	0xbbac9c14	-0.0052676294
250	0x3bca4e49	0.006173883
251	0x3afdbda1	0.0019358882
252	0xbbe66bb3	-0.0070318817
253	0xbbf569c8	-0.0074894167
254	0xbb28bd84	-0.0025747726
255	0x3c203572	0.009778367

layers.1.egnn.edge_mlp.3.bias f4 [16]
0	0xbe49f090	-0.19720674
1	0x3e4c565f	0.19954823
2	0x3d0581e7	0.032594588
3	0x3e459f44	0.19299036
4	0x3dc1d4ab	0.09464391
5	0xbdb1b95f	-0.08677935
6	0x3dd379fb	0.10326
7	0x3ce09f3b	0.027419677
8	0x3e1ab346	0.1510745
9	0xbe252a53	-0.16129427
10	0xbe27ec8c	-0.16398829
11	0x3e142c74	0.14470083
12	0xbd40ed67	-0.047101405
13	0xbe60c8cf	-0.21951602
14	0x3d570ff2	0.05250544
15	0x3e32318d	0.17401715
