experiments/models/best_model_N12_batch32_lr0.0001_fd4_b0.5.pth (torch, 31506 bytes, 32 tensors)

time_embedding.0.weight f4 [8, 1]
0.74878705 -0.64812183 0.053675324 -0.86295676 0.4261619 -0.65489674 0.3433504 0.84736115
00000000: 82b0 3f3f 50eb 25bf a8da 5b3d bcea 5cbf
00000010: e431 da3e 50a7 27bf a0cb af3e a9ec 583f

time_embedding.0.bias f4 [8]
0.87179524 0.39895442 0.7838746 0.71826196 -0.8489053 0.7050527 -0.7987995 0.73355347
00000000: f92d 5f3f c143 cc3e 01ac 483f 04e0 373f
00000010: dc51 59bf 557e 343f 207e 4cbf 29ca 3b3f

time_embedding.3.weight f4 [4, 8]
0.06765675 0.14529502 -0.18270832 -0.09822367 0.080411084 0.10908219 0.349691 0.17822638
-0.26796934 0.2585506 0.14532277 -0.32367894 -0.33450675 -0.35365498 -0.25731316 0.20926285
-0.07406418 0.2599745 0.32739183 -0.0034484575 -0.11234036 0.095853284 -0.014733232 -0.18438219
-0.21248694 0.16583106 0.0990342 -0.035141934 0.102031365 0.22163336 0.31871012 -0.082076125
00000000: 9f8f 8a3d 38c8 143e e417 3bbe 7e29 c9bd
00000010: 91ae a43d 7c66 df3d b30a b33e fa80 363e
00000020: 4733 89be bf60 843e 7ecf 143e 3fb9 a5be
00000030: 7844 abbe 4412 b5be 8dbe 83be 0049 563e
00000040: f6ae 97bd 611b 853e e79f a73e 84ff 61bb
00000050: b412 e6bd ba4e c43d a763 71bc afce 3cbe
00000060: 2d96 59be 9ecf 293e 71d2 ca3d fdf0 0fbd
00000070: d2f5 d03d dbf3 623e f92d a33e 8717 a8bd

time_embedding.3.bias f4 [4]
-0.07320408 -0.22650394 0.07589656 -0.40062785
00000000: 05ec 95bd a6f0 67be a86f 9b3d 181f cdbe

layers.0.egnn.edge_mlp.0.weight f4 [20, 10]
0.014419131 -0.0188454 0.01347124 -0.019155366 0.013186938 -0.017231744 0.018801093 -0.018415498
-0.04574097 0.01782622 0.016247634 -0.018341845 0.012268699 -0.018586427 0.012811379 -0.018028315
0.019214224 -0.016313594 -0.047390874 0.018926816 -0.0058919126 0.00928314 -0.0046077543 0.009951276
-0.001161858 0.0068547986 -0.010463266 0.0062013846 0.06381734 -0.0062564285 -0.0055380277 0.010234558
-0.00469983 0.011069046 -0.000863202 0.0077674305 -0.012568268 0.007278696 0.058412094 -0.009916867
-0.007837619 0.0076847402 -0.0038404353 0.010033572 -0.0023091335 0.0068608453 -0.010727962 0.0073103653
0.060282864 -0.007964417 -0.007931407 0.010255049 -0.004895648 0.010557049 -0.0038262429 0.0076127434
-0.013096009 0.008650279 0.06457298 -0.008663394 -0.0076062656 0.0114899045 -0.0058991294 0.011352351
-0.0025542567 0.008900873 -0.012068278 0.009439556 0.056595687 -0.010455254 -0.00984815 0.01189361
-0.006017129 0.012136285 -0.005920151 0.0092746345 -0.012964505 0.010216866 0.056996617 -0.010402383
0.0135354595 -0.021102242 0.013072346 -0.019763485 0.012320013 -0.019337924 0.01868063 -0.01829944
-0.04713699 0.020011416 0.015524249 -0.019513456 0.01383139 -0.020975567 0.010833994 -0.019405138
0.021027507 -0.01832866 -0.04679216 0.018756399 0.012922976 -0.018638503 0.011791774 -0.019426726
0.012572719 -0.017578978 0.019270498 -0.016290212 -0.0451481 0.019582432 0.014472926 -0.019720914
0.013664097 -0.021107638 0.011907976 -0.017014112 0.018406412 -0.015765416 -0.046164885 0.016230395
0.016874122 -0.020307127 0.012021988 -0.018491145 0.012462398 -0.017187212 0.019553037 -0.01910564
-0.044962812 0.017281307 -0.0063796085 0.009376912 -0.00431046 0.008177522 -0.0025065963 0.0071856286
-0.010146901 0.0046120496 0.06276794 -0.009006917 -0.0047479663 0.009517654 -0.0054911706 0.008913233
-0.0031330164 0.0060078627 -0.009040558 0.009538194 0.05803045 -0.0067865606 0.014756126 -0.020426981
0.013978762 -0.019831922 0.013135071 -0.018551394 0.017755548 -0.016330654 -0.048417646 0.020691734
0.014683822 -0.017710926 0.013484653 -0.019494144 0.011647294 -0.016474083 0.019672187 -0.0146689275
-0.04486021 0.017592225 -0.0035977932 0.006926106 -0.00013273975 0.008439826 0.00093506026 0.0054303445
-0.009652936 0.0070641083 0.06784518 -0.005313618 -0.005963235 0.009931891 -0.0038232922 0.009940539
-0.0008020134 0.0071856515 -0.012858621 0.005840321 0.06771626 -0.0077837124 0.015414526 -0.018252607
0.013356165 -0.018069671 0.012379867 -0.017169602 0.020218333 -0.016000899 -0.050609566 0.019170066
00000000: 383e 6c3c ab61 9abc 7ab6 5c3c b7eb 9cbc
00000010: 070e 583c 9629 8dbc c004 9a3c 19dc 96bc
00000020: e25a 3bbd 4b08 923c c219 853c a341 96bc
00000030: a702 493c 9042 98bc d1e6 513c 1eb0 93bc
00000040: 2667 9d3c 16a4 85bc ef1c 42bd 690c 9b3c
00000050: f210 c1bb 5018 183c a5fc 96bb ad0a 233c
00000060: 7c49 98ba 389e e03b 1e6e 2bbc fc34 cb3b
00000070: aab2 823d ba02 cdbb 5878 b5bb d9ae 273c
00000080: 0801 9abb f25a 353c 8148 62ba ee85 fe3b
00000090: 23eb 4dbc 2182 ee3b 8541 6f3d 5b7a 22bc
000000a0: 5b69 00bc 46d0 fb3b d0af 7bbb da63 243c
000000b0: d554 17bb f1d0 e03b 55c4 2fbc ca8b ef3b
000000c0: 2aeb 763d 307d 02bc bbf2 01bc cb04 283c
000000d0: ac6b a0bb 79f7 2c3c b4c1 7abb 5274 f93b
000000e0: a590 56bc e6b9 0d3c d73e 843d e8f0 0dbc
000000f0: fb3d f9bb 2740 3c3c 7c4d c1bb 36ff 393c
00000100: 5165 27bb f8d4 113c 07ba 45bc 5ea8 1a3c
00000110: e1d0 673d 844c 2bbc 235a 21bc 6add 423c
00000120: 562b c5bb 45d7 463c d3fd c1bb a3f4 173c
00000130: 1369 54bc a464 273c 4975 693d c26e 2abc
00000140: d5c3 5d3c 9cde acbc 652d 563c 08e7 a1bc
00000150: e1d9 493c 916a 9ebc 1f08 993c b5e8 95bc
00000160: b712 41bd fbee a33c 6b59 7e3c afda 9fbc
00000170: 0e9d 623c f4d4 abbc 1081 313c 86f7 9ebc
00000180: e141 ac3c fc25 96bc 23a9 3fbd 05a7 993c
00000190: e4ba 533c c6af 98bc 4932 413c cc24 9fbc
000001a0: cefd 4d3c ca01 90bc 2add 9d3c 0d73 85bc
000001b0: 37ed 38bd 566b a03c da1f 6d3c c18d a1bc
000001c0: 60df 5f3c ede9 acbc ac19 433c 2e61 8bbc
000001d0: 0bc9 963c 7926 81bc 6417 3dbd 9bf5 843c
000001e0: 993b 8a3c 225b a6bc dff7 443c be7a 97bc
000001f0: 162f 4c3c 32cc 8cbc b12d a03c 6e83 9cbc
00000200: ed2a 38bd 8791 8d3c 090c d1bb 9fa1 193c
00000210: c23e 8dbb 03fb 053c b545 24bb 6c75 eb3b
00000220: 303f 26bc ad20 973b 7a8c 803d bf91 13bc
00000230: d494 9bbb efef 1b3c 47ef b3bb cf08 123c
00000240: 4b53 4dbb 9bdd c43b d91e 14bc 1646 1c3c
00000250: 56b1 6d3d cc61 debb aec3 713c 7c56 a7bc
00000260: 2d07 653c 8e76 a2bc 7b34 573c 18f9 97bc
00000270: 1574 913c ddc7 85bc 9551 46bd b681 a93c
00000280: 6a94 703c 8116 91bc bcee 5c3c 2fb2 9fbc
00000290: 4bd4 3e3c a8f4 86bc 9127 a13c f155 70bc
000002a0: 57bf 37bd 921d 903c f4c8 6bbb 63f4 e23b
000002b0: 0e30 0bb9 3247 0a3c d51e 753a 08f1 b13b
000002c0: 5927 1ebc 097a e73b 6af2 8a3d dc1d aebb
000002d0: 3e67 c3bb 5fb9 223c 3390 7abb a4dd 223c
000002e0: 353e 52ba 9d75 eb3b f7ac 52bc 2a60 bf3b
000002f0: d3ae 8a3d 830e ffbb 358d 7c3c 7e86 95bc
00000300: d1d3 5a3c d906 94bc edd4 4a3c 44a7 8cbc
00000310: eba0 a53c 5114 83bc fa4b 4fbd 8b0a 9d3c

layers.0.egnn.edge_mlp.0.bias f4 [20]
0.19421107 0.26770386 -0.1477324 -0.17499019 -0.1520589 -0.04290455 -0.21357901 -0.06692302
0.11578749 0.04225561 0.29299778 0.28546274 0.20398906 -0.15536857 -0.26228613 0.28805998
0.26533356 -0.12137293 -0.024098735 0.22428742
00000000: 44df 463e 7b10 893e 2a47 17be a130 33be
00000010: 54b5 1bbe aebc 2fbd 75b4 5abe f00e 89bd
00000020: fe21 ed3d 3814 2d3d ce03 963e 2c28 923e
00000030: 82e2 503e f018 1fbe 5e4a 86be 997c 933e
00000040: cdd9 873e 5f92 f8bd b66a c5bc 9aab 653e

layers.0.egnn.edge_mlp.3.weight f4 [16, 20]
0.02454086 0.024560707 -0.03194655 -0.028987516 -0.030594962 -0.049842086 -0.024967445 -0.036344875
0.02996433 0.039535087 0.021071091 0.023554394 0.027532732 -0.032074515 -0.02320684 0.025374033
0.021520887 -0.04018705 -0.05660222 0.026810672 -0.024371557 -0.022148998 0.030282792 0.025717229
0.030588727 0.047244214 0.021977276 0.03337257 -0.027510865 -0.038918067 -0.02158453 -0.023424745
-0.022059292 0.030797321 0.022656037 -0.023445047 -0.021386676 0.039171528 0.057252645 -0.02426853
0.027711853 0.024108676 -0.031769544 -0.025728434 -0.030413525 -0.046792563 -0.024488568 -0.034666847
0.029100025 0.038893737 0.022339988 0.02283125 0.023345757 -0.032260586 -0.022390908 0.023401594
0.02385508 -0.03822317 -0.05499772 0.026761405 0.026239954 0.02286978 -0.032533407 -0.025299719
-0.028619254 -0.047459118 -0.022339271 -0.035618838 0.030830134 0.036764994 0.019306738 0.020759756
0.024452515 -0.03231973 -0.023710532 0.02078526 0.022279557 -0.037162673 -0.05533884 0.027652971
-0.029444158 -0.025454586 0.03812117 0.030821932 0.032944854 0.05634469 0.027330015 0.044759963
-0.035738472 -0.04740211 -0.022356708 -0.024634678 -0.025898196 0.03784208 0.02770494 -0.023944782
-0.023053449 0.0447544 0.06717312 -0.030197829 -0.023692815 -0.021593442 0.034729198 0.02704307
0.02975047 0.050282348 0.023306854 0.036453187 -0.029269902 -0.03974211 -0.02263904 -0.021558918
-0.025387049 0.028733408 0.021782268 -0.022439225 -0.021083506 0.03677285 0.059024233 -0.025991596
-0.027062954 -0.021847159 0.034832295 0.026650598 0.031183766 0.05070916 0.024433115 0.037823543
-0.030138161 -0.041857325 -0.022482293 -0.021202253 -0.02478316 0.031939063 0.024033654 -0.023988893
-0.021689696 0.04108807 0.058792315 -0.029347343 -0.025202462 -0.021691652 0.031557463 0.025904201
0.02886889 0.05001499 0.021580707 0.036375277 -0.030200206 -0.037737936 -0.018837411 -0.021007853
-0.024137272 0.030453194 0.022501782 -0.02119417 -0.022637801 0.040185906 0.056046255 -0.02592691
-0.024854477 -0.022148017 0.03239879 0.02769717 0.028452817 0.0473148 0.026184425 0.036466014
-0.029596632 -0.037503514 -0.022600532 -0.021104721 -0.021687228 0.031484175 0.022993537 -0.020491641
-0.02286778 0.03853112 0.058314983 -0.026121117 0.024355363 0.022551823 -0.033373978 -0.027028717
-0.02975217 -0.046395414 -0.022960337 -0.03320899 0.028975792 0.038572986 0.02155664 0.023269152
0.022838943 -0.032715593 -0.023774086 0.022745151 0.021602085 -0.038546726 -0.056143593 0.026720969
0.02750789 0.022369105 -0.03339371 -0.026614236 -0.031716537 -0.04844842 -0.026412113 -0.03770284
0.031438943 0.040483754 0.021787887 0.02461367 0.024299044 -0.032295745 -0.024365608 0.023617757
0.0223213 -0.040763695 -0.058122236 0.026757093 -0.024996988 -0.022497622 0.03175187 0.025660185
0.027734462 0.0504625 0.022795828 0.035181608 -0.02901518 -0.037954554 -0.021553958 -0.020200942
-0.02422362 0.02951292 0.022918027 -0.022932122 -0.021822117 0.036389694 0.058101114 -0.024246922
-0.024336305 -0.02338786 0.032355055 0.028687384 0.029409347 0.049269073 0.024153365 0.03711325
-0.029460922 -0.03930964 -0.020888735 -0.022802455 -0.022501417 0.03236965 0.021586515 -0.022987524
00000000: ea09 c93c 8933 c93c 63da 02bd 3a77 edbc
00000010: 49a2 fabc 3727 4cbd 8788 ccbc 5dde 14bd
00000020: c177 f53c 8bef 213d 489d ac3c 25f5 c03c
00000030: 538c e13c 9160 03bd 451c bebc 34dd cf3c
00000040: 924c b03c 2d9b 24bd bbd7 67bd 0ea2 db3c
00000050: dca6 c7bc d171 b5bc 9e13 f83c f0ac d23c
00000060: 3695 fa3c 2683 413d b009 b43c adb1 083d
00000070: 775e e1bc 8d68 1fbd 0ad2 b0bc 40e5 bfbc
00000080: b0b5 b4bc aa4a fc3c 2799 b93c d40f c0bc
00000090: 1c33 afbc 5372 203d c081 6a3d ccce c6bc
000000a0: f803 e33c 8f7f c53c c820 02bd 70c4 d2bc
000000b0: c925 f9bc 8fa9 3fbd 409c c8bc d3fe 0dbd
000000c0: 2d63 ee3c 0a4f 1f3d 5a02 b73c 9a08 bb3c
000000d0: 9a3f bf3c ad23 04bd 236d b7bc b3b4 bf3c
000000e0: bb6b c33c e68f 1cbd 4a45 61bd bc3a db3c
000000f0: 2cf5 d63c 6859 bb3c c041 05bd 5b41 cfbc
00000100: ed72 eabc 7e64 42bd d900 b7bc 0fe5 11bd
00000110: 7a8f fc3c e496 163d 2a29 9e3c 5d10 aa3c
00000120: a450 c83c b161 04bd 973c c2bc d945 aa3c
00000130: 9e83 b63c e337 18bd fbaa 62bd 7c88 e23c
00000140: e034 f1bc 2386 d0bc f224 1c3d 477e fc3c
00000150: 2ff1 063d b1c9 663d 32e3 df3c 3956 373d
00000160: 8162 12bd b728 42bd 6a25 b7bc aace c9bc
00000170: 7428 d4bc 4c00 1b3d 78f5 e23c d927 c4bc
00000180: 96da bcbc 6450 373d 1092 893d 7061 f7bc
00000190: 6f17 c2bc bbe4 b0bc 3440 0e3d 6e89 dd3c
000001a0: 42b7 f33c ddf4 4d3d 04ee be3c f04f 153d
000001b0: 6fc7 efbc 9fc8 22bd 8275 b9bc 549c b0bc
000001c0: 80f8 cfbc 5362 eb3c ba70 b23c 77d2 b7bc
000001d0: 51b7 acbc 219f 163d 65c3 713d 54ec d4bc
000001e0: 21b3 ddbc d0f8 b2bc 4fac 0e3d 5b52 da3c
000001f0: 1975 ff3c 68b4 4f3d f527 c83c dcec 1a3d
00000200: 4ee4 f6bc 9672 2bbd c92c b8bc 59b0 adbc
00000210: 0e06 cbbc 89d2 023d 3ae2 c43c 5b84 c4bc
00000220: 97ae b1bc f74b 283d 36d0 703d d769 f0bc
00000230: 6575 cebc b1b2 b1bc 6642 013d 0c35 d43c
00000240: 737e ec3c 85dc 4c3d 06ca b03c 3efe 143d
00000250: 6c66 f7bc 1893 1abd ea50 9abc a918 acbc
00000260: 87bb c5bc fa78 f93c a855 b83c 659f adbc
00000270: e972 b9bc fa99 243d c290 653d ac64 d4bc
00000280: 9e9b cbbc c26f b5bc 98b4 043d 2de5 e23c
00000290: e215 e93c 2acd 413d b880 d63c 635d 153d
000002a0: a374 f2bc 499d 19bd c024 b9bc cfe3 acbc
000002b0: 6aa9 b1bc 8df5 003d f15c bc3c 16de a7bc
000002c0: 3655 bbbc cfd2 1d3d b1db 6e3d f4fb d5bc
000002d0: e684 c73c 9abe b83c 27b3 08bd 546b ddbc
000002e0: d3ba f3bc 1e09 3ebd 5117 bcbc 2606 08bd
000002f0: a45e ed3c b5fe 1d3d 8d97 b03c f39e be3c
00000300: bc18 bb3c c900 06bd dfc1 c2bc 0a54 ba3c
00000310: dbf6 b03c 2ce3 1dbd d3f6 65bd efe5 da3c
00000320: 3a58 e13c 6a3f b73c d8c7 08bd 1906 dabc
00000330: 33e9 01bd da71 46bd 375e d8bc 4b6e 1abd
00000340: 1fc6 003d 4bd2 253d 837c b23c 9ba2 c93c
00000350: ca0e c73c 8b48 04bd 629a c7bc 077a c13c
00000360: 29db b63c d5f7 26bd 9511 6ebd b131 db3c
00000370: 7cc6 ccbc ef4c b8bc 400e 023d 4f35 d23c
00000380: 6233 e33c c4b1 4e3d 51be ba3c 971a 103d
00000390: 3eb1 edbc 3c76 1bbd ed91 b0bc 727c a5bc
000003a0: 9d70 c6bc 14c5 f13c 96be bb3c 25dc bbbc
000003b0: 4cc4 b2bc 5c0d 153d 6ffb 6d3d 7ba1 c6bc
000003c0: ee5c c7bc e697 bfbc bc86 043d ce01 eb3c
000003d0: dfeb f03c 5ece 493d 47dd c53c 1004 183d
000003e0: 0858 f1bc 2503 21bd da1e abbc 37cc babc
000003f0: e454 b8bc 0a96 043d 34d6 b03c 5550 bcbc

layers.0.egnn.edge_mlp.3.bias f4 [16]
0.09290344 -0.11576727 0.15664998 0.1280571 -0.026104212 -0.09411353 -0.06495832 -0.12367862
-0.12584738 0.15789019 0.0933335 -0.18279548 -0.08070787 0.22823714 -0.044549707 0.22551502
00000000: 2944 be3d 6417 edbd da68 203e 6721 033e
00000010: 80d8 d5bc 98be c0bd de08 85bd 374b fdbd
00000020: 23de 00be f7ad 213e a225 bf3d bd2e 3bbe
00000030: 2b4a a5bd ffb6 693e c179 36bd 69ed 663e

layers.0.egnn.node_mlp.0.weight f4 [8, 20]
0.00024914867 -0.001307384 -0.00089600217 -5.4885975e-05 0.0007697734 -6.964189e-05 0.0009248346 0.0014558749
-0.00022098896 -0.00030790296 -0.00052003394 0.0018277982 0.00021218137 1.3830418e-05 0.0005521005 0.0005244232
0.0007225112 -0.0002884877 -0.00019678802 -0.00223003 -0.00082508754 -3.0403184e-05 -0.0001383846 -0.0010912119
0.00013392536 0.0012201089 0.0010289989 -6.061553e-05 -1.6609883e-05 -0.0014210334 -0.00070650864 0.0013569286
0.00012013928 -0.00057359773 -0.0014291315 0.0006369902 -0.0006986014 0.00078446843 0.00040388497 0.00034693055
-0.0016725963 0.00032452503 7.047863e-05 -0.00033973926 -0.0001774341 0.00039474195 -0.00019043598 -0.0007892512
0.0004964817 0.00038863916 -0.0007262613 0.0012313616 -0.0015856139 0.002189714 0.0015262915 0.00024214685
8.956681e-05 -0.00044509597 -0.00065658527 0.00072810176 -0.0006289587 -0.00030070817 -0.0015317295 -0.00045942972
-0.0016806627 -0.001126178 -0.00039477242 -0.0017501127 0.0014839062 -0.0015704039 0.00021524995 1.3438105e-05
-0.0015394347 8.4904736e-05 -0.00032306227 0.00088031887 0.00013528556 -0.00017643833 -0.0008085977 -0.0017817015
-0.00012621148 0.0010191877 -0.00026952528 -0.00023532248 0.00018455631 0.00010288667 0.0016615723 0.0007487294
-0.0008340799 0.00012328944 -0.0004065622 0.0003286209 0.00011805167 -0.00049306854 0.0003868442 0.0011797389
-0.00085426593 3.4934154e-05 -0.00061347825 -0.0010054524 0.00058456423 -3.2568107e-05 -0.0008027869 0.00081942696
-0.001571337 0.00033624642 0.000625987 0.00021301271 0.00047935164 0.0014211236 0.0014437607 0.0026473864
0.000864081 0.00038330455 0.00014057699 -0.0010303739 -0.0010374872 0.0009706087 -0.00029840603 -0.00030878192
-0.0010460895 0.0008482477 -0.00029422998 -0.0005362785 -0.0009784825 -0.00038495837 -0.00052395626 4.847927e-05
-0.00051249814 0.0010776719 0.00034122114 -0.0002846727 -0.0003245881 -0.00021728015 -0.0009393273 -0.0016545831
-0.00090464257 0.0010646256 -0.0011925831 0.0015608617 -0.0005441641 0.0009197332 9.635905e-05 -0.0006724337
0.0015910359 0.00061478134 0.0006097343 -0.00036801628 0.00041743318 -0.00044167103 -0.0003140618 0.00025831212
4.4521326e-05 0.00020639635 0.00037629413 -0.00026665442 0.0015545574 0.0002507144 0.00021878508 0.00015961434
00000000: 2ba0 8239 875c abba b0e1 6aba 5e35 66b8
00000010: 9eca 493a b40c 92b8 9970 723a 0ed3 be3a
00000020: 46b9 67b9 096e a1b9 e352 08ba bb92 ef3a
00000030: 017d 5e39 3109 6837 d6ba 103a 7279 093a
00000040: e866 3d3a 2a40 97b9 e258 4eb9 b225 12bb
00000050: b04a 58ba 570a ffb7 551b 11b9 ff06 8fba
00000060: 516e 0c39 10ec 9f3a 79df 863a 6e3d 7eb8
00000070: 7455 8bb7 f841 baba fe34 39ba f8da b13a
00000080: 49f3 fb38 7e5d 16ba b251 bbba b0fb 263a
00000090: 5922 37ba c9a4 4d3a 86c0 d339 3be4 b539
000000a0: 053b dbba 0325 aa39 edcd 9338 081f b2b9
000000b0: 9b0d 3ab9 5ef5 ce39 c5af 47b9 c0e5 4eba
000000c0: 5326 023a 44c2 cb39 9262 3eba a465 a13a
000000d0: 60d4 cfba 4e81 0f3b d80d c83a cde8 7d39
000000e0: d1d5 bb38 c55b e9b9 b11e 2cba 15de 3e3a
000000f0: b4e0 24ba 5ea8 9db9 50c4 c8ba 9ddf f0b9
00000100: af49 dcba 439c 93ba 75f9 ceb9 0a64 e5ba
00000110: a17f c23a 03d6 cdba b8b4 6139 3974 6137
00000120: dbc6 c9ba e20e b238 af60 a9b9 33c5 663a
00000130: 71db 0d39 4e02 39b9 13f8 53ba fb87 e9ba
00000140: a357 04b9 4496 853a 124f 8db9 e6c0 76b9
00000150: 7585 4139 dcc4 d738 1dc9 d93a 6146 443a
00000160: 28a6 5aba 4247 0139 db27 d5b9 c04a ac39
00000170: 8292 f738 4541 01ba 5ad1 ca39 78a1 9a3a
00000180: d1f0 5fba 4386 1238 d4d1 20ba 62c9 83ba
00000190: 713d 193a bd99 08b8 1e72 52ba d0ce 563a
000001a0: 52f5 cdba 3b4a b039 4719 243a 2a5c 5f39
000001b0: 7d51 fb39 ff44 ba3a 923c bd3a c67f 2d3b
000001c0: 7f83 623a 44f6 c839 d967 1339 9c0d 87ba
000001d0: 4bfc 87ba 7270 7e3a 6173 9cb9 02e4 a1b9
000001e0: f01c 89ba f15c 5e3a e142 9ab9 0a95 0cba
000001f0: 6d40 80ba 3dd4 c9b9 1c5a 09ba 3856 4b38
00000200: 2b59 06ba ab40 8d3a ede5 b239 1f40 95b9
00000210: 7a2d aab9 b2d5 63b9 303d 76ba 99de d8ba
00000220: 8925 6dba e88a 8b3a 7350 9cba d495 cc3a
00000230: 3ca6 0eba 401a 713a 5f14 ca38 4346 30ba
00000240: 4e8a d03a 4729 213a 94d6 1f3a 4ff2 c0b9
00000250: efda da39 1590 e7b9 a9a8 a4b9 116e 8739
00000260: 69bc 3a38 196c 5839 5849 c539 c0cd 8bb9
00000270: 4ac2 cb3a 5172 8339 ac69 6539 265e 2739

layers.0.egnn.node_mlp.0.bias f4 [8]
-0.1926469 0.014750262 0.001501293 -0.08775933 0.15048774 0.21238019 -0.13794577 0.1369929
00000000: 3b45 45be 15ab 713c 09c7 c43a 2abb b3bd
00000010: 7519 1a3e 317a 593e a841 0dbe de47 0c3e

layers.0.egnn.node_mlp.3.weight f4 [4, 8]
-0.00073438144 0.0016633288 -0.0010577582 -0.0018265812 -0.000631714 -0.0010650147 0.0014988978 0.0005968657
-0.00074710365 4.937222e-05 0.0017399278 -0.0015494439 0.00031644735 -0.0020761213 7.4485826e-05 0.00075895595
-0.00047337418 0.00066872966 -0.00020552364 0.00025518038 0.0007952506 0.00021280242 -7.030498e-05 0.0020418365
-0.00091302727 0.0011971958 -0.00082047406 -0.00013875583 -0.0011714422 -0.00096712745 0.0011584655 -0.0005731077
00000000: 8183 40ba 0e04 da3a 7aa4 8aba e569 efba
00000010: 9c99 25ba f797 8bba aa76 c43a fb76 1c3a
00000020: 47d9 43ba 0415 4f38 4a0e e43a b616 cbba
00000030: d8e8 a539 890f 08bb 4635 9c38 acf4 463a
00000040: 352f f8b9 b04d 2f3a d581 57b9 bbc9 8539
00000050: 5d78 503a b723 5f39 b370 93b8 55d0 053b
00000060: 3958 6fba 3aeb 9c3a 1515 57ba fc7e 11b9
00000070: 148b 99ba d386 7dba a7d7 973a 9b3c 16ba

layers.0.egnn.node_mlp.3.bias f4 [4]
0.3334868 -0.0033007725 0.12941894 -0.06878126
00000000: c8be aa3e c651 58bb 6686 043e 30dd 8cbd

layers.0.egnn.coors_mlp.0.weight f4 [64, 16]
-0.014318923 0.01153797 -0.010167477 -0.011732326 0.020561686 0.014338299 0.014920281 0.0117783295
0.014052551 -0.012569259 -0.013024627 0.010059304 0.014185529 -0.010679608 0.01627359 -0.011394528
0.012698015 -0.0110549405 0.012162779 0.012381756 -0.01821354 -0.013726162 -0.013883644 -0.011990531
-0.010787461 0.009867992 0.012578851 -0.010183594 -0.013849846 0.01157715 -0.0143867545 0.012474123
0.011046731 -0.013632976 0.013652901 0.011501821 -0.019715874 -0.0134281395 -0.014703922 -0.012922312
-0.010385714 0.010766241 0.013283556 -0.0109207705 -0.013671655 0.011234705 -0.016398963 0.011122202
0.013001837 -0.011854104 0.012087316 0.013379082 -0.018141188 -0.013646905 -0.014592892 -0.012975712
-0.013428932 0.012002442 0.014276187 -0.012466315 -0.012584658 0.009665244 -0.017119782 0.012131356
0.01596757 -0.014146879 0.012555188 0.013691013 -0.022071894 -0.013756425 -0.015364722 -0.013377709
-0.013726832 0.013270252 0.013924496 -0.013645572 -0.01607038 0.012132669 -0.018057287 0.01167022
0.014821408 -0.012835877 0.012158023 0.011108681 -0.019432398 -0.013241724 -0.015005071 -0.013142002
-0.014113823 0.012197525 0.013644773 -0.0108625395 -0.015754798 0.00978592 -0.016895879 0.011112171
0.015582623 -0.012214274 0.013422734 0.0115438495 -0.022246165 -0.012256624 -0.013297797 -0.014267371
-0.013178226 0.011480313 0.014025213 -0.012392442 -0.014111639 0.011385757 -0.018978288 0.01163692
0.014238546 -0.012945168 0.013575226 0.012571616 -0.01996007 -0.014179898 -0.01570821 -0.013867588
-0.012611607 0.013098721 0.016461244 -0.012794963 -0.015256866 0.011883421 -0.017000465 0.014745739
0.006668345 -0.0059764655 0.0074149794 0.0065820226 -0.016127447 -0.007767035 -0.009092205 -0.004543407
-0.006841296 0.006674544 0.007869795 -0.0035569472 -0.008355399 0.0049318164 -0.011010888 0.0059305276
0.013001296 -0.01179593 0.009646873 0.012694242 -0.021155968 -0.011738469 -0.013263672 -0.013388952
-0.009810982 0.011976335 0.011747005 -0.01052665 -0.013880592 0.009220236 -0.016837137 0.010205749
-0.012053762 0.01215019 -0.011323502 -0.012105755 0.019647434 0.0121674435 0.013985673 0.011640665
0.011346246 -0.009522218 -0.011421744 0.009977113 0.012266415 -0.012926474 0.016789328 -0.009723148
-0.013084094 0.011832845 -0.013742572 -0.011493655 0.019935617 0.012080552 0.013975037 0.011349046
0.012299151 -0.011563912 -0.013160772 0.010182483 0.012003769 -0.013245641 0.0154573545 -0.011545436
0.013233136 -0.01272663 0.011078805 0.015023454 -0.020055272 -0.013203205 -0.01621914 -0.012369228
-0.012680648 0.012744118 0.014914119 -0.014174792 -0.015545019 0.011682809 -0.015772559 0.01095335
-0.013281465 0.011505799 -0.01288865 -0.0131818475 0.017905733 0.010673127 0.014791646 0.012034107
0.012900084 -0.011848397 -0.014464651 0.012068545 0.013214864 -0.011716793 0.015853802 -0.009885137
-0.013757057 0.011345613 -0.012145077 -0.012893044 0.018792834 0.012386203 0.0141458055 0.012881936
0.01206926 -0.0115771005 -0.011863553 0.00974966 0.012002281 -0.011418827 0.01574804 -0.011435369
0.010611433 -0.00868509 0.009748512 0.009486077 -0.019286439 -0.010810869 -0.012347558 -0.010988726
-0.007550543 0.009265974 0.013828965 -0.009546093 -0.011438085 0.009833357 -0.014069023 0.0071646376
00000000: ea99 6abc c109 3d3c 7d95 26bc f138 40bc
00000010: fb70 a83c 2feb 6a3c 3274 743c e5f9 403c
00000020: ac3c 663c 4bef 4dbc 3f65 55bc c7cf 243c
00000030: 6c6a 683c 86f9 2ebc 3150 853c 1db0 3abc
00000040: 560b 503c c81f 35bc 6546 473c d9dc 4a3c
00000050: 9034 95bc b2e3 60bc 3978 63bc ef73 44bc
00000060: e4bd 30bc 5cad 213c 8617 4e3c 17d9 26bc
00000070: 77ea 62bc 16ae 3d3c 6cb6 6bbc 4460 4c3c
00000080: 59fd 343c d95c 5fbc 6bb0 5f3c 2272 3c3c
00000090: 2f83 a1bc b301 5cbc b8e8 70bc 1bb8 53bc
000000a0: d728 2abc e364 303c 46a3 593c 08ed 32bc
000000b0: 14ff 5fbc c511 383c 1e57 86bc e539 363c
000000c0: a805 553c b737 42bc e109 463c f033 5b3c
000000d0: d49c 94bc 4597 5fbc 0617 6fbc 1598 54bc
000000e0: 0605 5cbc e4a5 443c abe6 693c 843f 4cbc
000000f0: e22f 4ebc f95a 1e3c c93e 8cbc 98c2 463c
00000100: 6cce 823c 50c8 67bc 46b4 4d3c 4550 603c
00000110: 1ed0 b4bc a162 61bc 51bc 7bbc 2e2e 5bbc
00000120: 82e6 60bc 796b 593c 9223 643c ad91 5fbc
00000130: 08a6 83bc 1ac8 463c e0ec 93bc 7334 3f3c
00000140: 7ed5 723c 924d 52bc 7232 473c 2f01 363c
00000150: b130 9fbc d1f3 58bc d4d7 75bc 8d51 57bc
00000160: aa3d 67bc 21d8 473c 538e 5f3c cbf8 31bc
00000170: 3510 81bc 2055 203c 3a69 8abc d30f 363c
00000180: 424e 7f3c 611e 48bc 07eb 5b3c 6a22 3d3c
00000190: 973d b6bc 02d0 48bc 01df 59bc b1c1 69bc
000001a0: 7ce9 57bc ec17 3c3c 02ca 653c ab09 4bbc
000001b0: 8134 67bc 538b 3a3c 5b78 9bbc c8a8 3e3c
000001c0: ca48 693c f817 54bc a06a 5e3c 2ef9 4d3c
000001d0: 4d83 a3bc ce52 68bc 81ae 80bc e134 63bc
000001e0: eaa0 4ebc 059c 563c bbd9 863c f7a1 51bc
000001f0: eff7 79bc aeb2 423c 8f44 8bbc 1d98 713c
00000200: 2282 da3b 3ad6 c3bb 5bf9 f23b 02ae d73b
00000210: b51d 84bc 9d82 febb 79f7 14bc dce0 94bb
00000220: f32c e0bb 22b6 da3b 50f0 003c ac1b 69bb
00000230: 15e5 08bc 139b a13b 0367 34bc df54 c23b
00000240: 6303 553c b743 41bc eb0d 1e3c 83fb 4f3c
00000250: 484f adbc b552 40bc df4f 59bc 565d 5bbc
00000260: 3ebe 20bc 6438 443c 8376 403c f877 2cbc
00000270: 6c6b 63bc 7910 173c 09ee 89bc 0436 273c
00000280: 247d 45bc 9711 473c 3686 39bc 3757 46bc
00000290: a8f3 a03c f559 473c 2a24 653c 7db8 3e3c
000002a0: 9be5 393c 1403 1cbc 4422 3bbc 0c77 233c
000002b0: 13f9 483c 90c9 53bc c689 893c d74d 1fbc
000002c0: ab5e 56bc 8dde 413c 8628 61bc e24f 3cbc
000002d0: 0550 a33c 82ed 453c 8ef7 643c 59f1 393c
000002e0: 6182 493c 9076 3dbc 47a0 57bc 6ed4 263c
000002f0: 75ab 443c 3f04 59bc d840 7d3c 1229 3dbc
00000300: cccf 583c 5b83 50bc e083 353c ef24 763c
00000310: f44a a4bc 4152 58bc 00de 84bc 4da8 4abc
00000320: 7ec2 4fbc b5cc 503c 595a 743c 633d 68bc
00000330: 89b0 7ebc 4169 3f3c 7435 81bc ae75 333c
00000340: 809a 59bc d282 3c3c eb2a 53bc adf8 57bc
00000350: 0baf 923c 57de 2e3c a958 723c b42a 453c
00000360: e05a 533c c71f 42bc 25fd 6cbc 26bb 453c
00000370: 2883 583c cbf7 3fbc d5df 813c 45f5 21bc
00000380: 4765 61bc f3e2 393c 25fc 46bc 593d 53bc
00000390: 6ef3 993c 80ef 4a3c cfc3 673c c10e 533c
000003a0: 25be 453c e1ad 3dbc 595f 42bc 0abd 1f3c
000003b0: 37a5 443c 0816 3bbc 0902 813c 6a5b 3bbc
000003c0: 93db 2d3c e84b 0ebc 39b8 1f3c 7e6b 1b3c
000003d0: 98fe 9dbc 1220 31bc 694d 4abc 0f0a 34bc
000003e0: 8c6a f7bb 50d0 173c e292 623c 3767 1cbc
000003f0: ce66 3bbc 171c 213c c281 66bc 56c5 ea3b

layers.0.egnn.coors_mlp.0.bias f4 [64]
-0.08358348 0.21857971 0.07378566 0.13503996 0.052042846 0.13619655 0.036588073 0.06496604
0.10829878 0.028028809 -0.04860756 -0.24456821 0.16161561 -0.25263813 -0.08789285 0.17644304
0.2334511 -0.03480088 0.14364934 0.16301167 -0.16188166 -0.16128212 0.1447678 0.2527143
-0.2496464 -0.13481966 -0.100324534 0.21667889 0.14590928 -0.14757234 -0.036878753 0.19845225
0.118559025 -0.2428497 0.18447943 0.032438185 0.17290214 -0.10998083 0.16977386 0.23640661
-0.22118059 -0.23671135 0.080418885 -0.095933504 0.20956312 0.08288639 -0.16248028 0.1910037
-0.25701213 -0.06811648 0.05433212 0.15199952 -0.17217676 0.09734591 -0.16871001 -0.042153195
0.15552467 -0.16579463 -0.038877536 -0.15426555 0.24073002 0.06666742 0.2546261 -0.19363984
00000000: d12d abbd 5cd3 5f3e f01c 973d ea47 0a3e
00000010: e12a 553d 1c77 0b3e 60dd 153d ea0c 853d
00000020: c0cb dd3d ac9c e53c b918 47bd 1770 7abe
00000030: 907e 253e c959 81be 2b01 b4bd 7cad 343e
00000040: ce0d 6f3e 5e8b 0ebd d018 133e 88ec 263e
00000050: 4ec4 25be 2427 25be 033e 143e c563 813e
00000060: 4ea3 7fbe 2a0e 0abe f376 cdbd 12e1 5d3e
00000070: 3e69 153e 341d 17be 2d0e 17bd 1137 4b3e
00000080: 13cf f23d 97ad 78be 2de8 3c3e e7dd 043d
00000090: 420d 313e a13d e1bd 33d9 2d3e 9314 723e
000000a0: 2a7d 62be 7664 72be a8b2 a43d c978 c4bd
000000b0: b797 563e 57c0 a93d 3b61 26be 7996 433e
000000c0: 1897 83be a780 8bbd 5b8b 5e3d c3a5 1b3e
000000d0: 1b4f 30be 4b5d c73d 51c2 2cbe d4a8 2cbd
000000e0: dc41 1f3e 11c6 29be 0d3e 1fbd caf7 1dbe
000000f0: ee81 763e ee88 883d 5a5e 823e 8649 46be

layers.0.egnn.coors_mlp.3.weight f4 [1, 64]
0.007992021 -0.006607925 -0.008714037 -0.00711824 -0.007946368 -0.007528082 -0.008070781 -0.0076033757
-0.0048050494 -0.0076091983 0.0071859015 0.008154791 -0.0072679874 0.006933572 0.008428969 -0.0058614523
-0.0056147184 0.008078924 -0.01000705 -0.0065149036 0.006322148 0.00851962 -0.0073059066 -0.006906232
0.0062128413 0.0077086566 0.0079280315 -0.007589378 -0.0063740592 0.006873505 0.008950638 -0.0076805097
-0.006388235 0.0082555795 -0.0058266926 -0.008238449 -0.007173302 0.0058387993 -0.008667836 -0.0060542435
0.005575029 0.005383177 -0.0056543783 0.00788182 -0.008666251 -0.0095353145 0.0068961675 -0.006856992
0.0066888435 0.0075924876 -0.008847332 -0.0041952915 0.007813399 -0.008168147 0.006893562 0.0056024757
-0.007781628 0.0060166516 0.007509327 0.00770437 -0.007146208 -0.006248305 -0.0063037053 0.0074537345
00000000: f7f0 023c 4b87 d8bb 52c5 0ebc 2040 e9bb
00000010: 7c31 02bc 21ae f6bb 4f3b 04bc bd25 f9bb
00000020: ad73 9dbb 9556 f9bb b677 eb3b ac9b 053c
00000030: 4c28 eebb 0433 e33b a919 0a3c 6d11 c0bb
00000040: acfb b7bb 775d 043c 9cf4 23bc f97a d5bb
00000050: 052a cf3b e095 0b3c 6366 efbb ac4d e2bb
00000060: 1795 cb3b e698 fc3b 93e4 013c 51b0 f8bb
00000070: 7cdd d0bb 243b e13b b2a5 123c c9ac fbbb
00000080: 6654 d1bb 6942 073c d7ed bebb 8ffa 06bc
00000090: 050e ebbb 6653 bf3b 8a03 0ebc ad62 c6bb
000000a0: bcae b63b 5d65 b03b 5d48 b9bb c022 013c
000000b0: e4fc 0dbc 023a 1cbc 3ff9 e13b 9eb0 e0bb
000000c0: 162e db3b 67ca f83b 66f4 10bc a878 89bb
000000d0: c503 003c b1d3 05bc 64e3 e13b f994 b73b
000000e0: 07fd febb 5527 c53b cd10 f63b f174 fc3b
000000f0: bd2a eabb 95be ccbb 508f cebb 753e f43b

layers.0.egnn.vel_mlp.0.weight f4 [16, 4]
0.00084769295 -0.00014911177 0.00061286177 0.00046548634 0.0011626029 -0.00041529362 0.0009103076 0.0013133158
-0.00034524265 0.00079126336 -0.00043774734 -0.00040098513 0.0015101614 0.00043145457 -0.00035612818 -0.000115510935
-1.8056282e-05 -0.00012792533 0.00034722907 -0.0004296327 0.0002361415 0.00013576791 -0.0011581185 0.00021472447
0.00045206805 0.0002918131 0.0008041858 -0.0009466543 0.0011452126 -8.544271e-05 0.00081223267 0.0004990785
-0.00083545357 -0.00025700132 -0.001037118 0.0006364714 0.0013930282 -0.00029200714 0.0011476513 0.000923733
-0.0002353707 0.0006940561 -0.0007894718 0.00030131073 0.0018162738 0.0009272217 0.0010586855 -0.0008094679
-0.00039418813 0.00016817948 -0.00032657874 -0.000530592 -0.0012063739 -0.0001010726 -0.0010897393 0.0004935125
0.00015232095 9.66411e-05 0.00067765376 -0.0002172949 0.0008750297 -0.00091477664 0.00021667228 0.0005417395
00000000: b637 5e3a e35a 1cb9 75a8 203a 850c f439
00000010: 7b62 983a c4bb d9b9 b5a1 6e3a 9123 ac3a
00000020: af01 b5b9 c96c 4f3a 7481 e5b9 503b d2b9
00000030: 9cf0 c53a da34 e239 b7b6 bab9 763e f2b8
00000040: 9277 97b7 b223 06b9 4c0c b639 5340 e1b9
00000050: c09c 7739 ec5c 0e39 02cc 97ba a927 6139
00000060: 8c03 ed39 7efe 9839 ffcf 523a e528 78ba
00000070: f51a 963a b52f b3b8 03ec 543a 97d4 023a
00000080: 5702 5bba 22be 86b9 e8ef 87ba dfd8 263a
00000090: 4596 b63a 8918 99b9 ca6c 963a ac26 723a
000000a0: d7cd 76b9 51f1 353a 8ef4 4eba 3ef9 9d39
000000b0: 0910 ee3a cc10 733a 97c3 8a3a 7932 54ba
000000c0: 09ab ceb9 5659 3039 a838 abb9 6d17 0bba
000000d0: 311f 9eba f0f6 d3b8 95d5 8eba 105f 013a
000000e0: 58b8 1f39 ccab ca38 93a4 313a a8d9 63b9
000000f0: 4062 653a 9fcd 6fba 8632 6339 8603 0e3a

layers.0.egnn.vel_mlp.0.bias f4 [16]
-0.13813847 -0.13631324 0.47094205 0.15569888 -0.386221 -0.15382165 -0.12601969 0.1529687
-0.36557108 -0.2708235 -0.061103046 0.30133632 -0.30535248 0.397052 0.00925053 -0.15288413
00000000: 2c74 0dbe b395 0bbe 511f f13e 876f 1f3e
00000010: c2be c5be 6c83 1dbe 4e0b 01be d4a3 1c3e
00000020: 222c bbbe 61a9 8abe 3047 7abd c148 9a3e
00000030: 2957 9cbe 664a cb3e 898f 173c a88d 1cbe

layers.0.egnn.vel_mlp.3.weight f4 [1, 16]
-0.00013392158 -0.00030569002 -1.816748e-05 -0.00026236055 8.0754755e-05 -2.6132104e-05 7.168942e-05 -0.00012882959
-5.471955e-05 -0.0004985981 0.00022285257 0.00017647112 0.00014564733 -1.5903065e-06 -0.00029147282 -0.0001632644
00000000: 4d6d 0cb9 0545 a0b9 5e66 98b7 708d 89b9
00000010: e15a a938 4436 dbb7 f757 9638 6e16 07b9
00000020: ab82 65b8 5ab4 02ba 88ad 6939 1b0b 3939
00000030: e8b8 1839 8472 d5b5 d2d0 98b9 f431 2bb9

layers.1.egnn.edge_mlp.0.weight f4 [20, 10]
0.032455433 0.0025098715 0.048060715 -0.03893365 0.033660937 -0.0037722895 0.05483566 -0.042158727
-0.011362734 0.059960447 0.030620689 0.004949091 0.04951127 -0.04085265 0.034899168 -0.0008808233
0.057517093 -0.042558752 -0.012498827 0.06137749 -0.07065337 0.020532485 -0.07882878 0.061521336
-0.07375817 0.026142694 -0.08521804 0.065788135 -0.013228816 -0.07944945 0.02959865 0.0022406634
0.048999146 -0.039063033 0.03477328 -0.0046565416 0.0562691 -0.043071818 -0.009115984 0.059456393
-0.0767475 0.022330353 -0.08265346 0.06616059 -0.0797282 0.027579492 -0.08825618 0.068320744
-0.015541809 -0.08420246 0.030296193 0.005121007 0.04908002 -0.038523536 0.033653174 -0.001421457
0.05490698 -0.042536203 -0.010830393 0.061332177 0.030731713 0.0010290006 0.048460387 -0.03948518
0.034817327 -0.007661116 0.055655025 -0.043362956 -0.0056721144 0.059478737 0.030531857 0.0060959654
0.049795832 -0.03864176 0.036419887 4.92104e-05 0.056537185 -0.043259315 -0.011537888 0.060356244
-0.08673698 0.034526806 -0.0939547 0.0741432 -0.09165763 0.038037147 -0.09835327 0.07868955
-0.025790181 -0.090807274 0.029891165 0.0052045947 0.047698054 -0.04056118 0.031809196 -0.0021589617
0.0551949 -0.042342376 -0.010918436 0.061841976 -0.067803085 0.01944839 -0.07979937 0.061484944
-0.069663085 0.02629633 -0.085239016 0.066181906 -0.012340885 -0.07962186 0.029314645 0.004642001
0.049013395 -0.039153233 0.033197474 -0.0034094516 0.05548543 -0.042658467 -0.011016577 0.06294865
0.030017108 0.0018948417 0.049535755 -0.038917203 0.034045998 -0.0028993404 0.0549473 -0.043961495
-0.009372928 0.05935333 0.030822419 0.005605228 0.049362592 -0.03757431 0.03593064 0.0011741132
0.056624137 -0.04132251 -0.012526191 0.06060628 0.028930755 -7.041765e-05 0.04793315 -0.03927075
0.03370429 -0.00714338 0.051722918 -0.041909847 -0.002832425 0.059464157 -0.0660739 0.022175344
-0.07640679 0.059915405 -0.06905881 0.02591349 -0.084259145 0.06389834 -0.0143610025 -0.07909891
0.028945386 0.005150895 0.050200492 -0.039726753 0.034661777 -0.0015580754 0.057042792 -0.044403695
-0.010970836 0.06121994 -0.0646365 0.02233403 -0.078088075 0.061488852 -0.07080296 0.026529033
-0.084745415 0.065345086 -0.010960784 -0.08216077 0.029538892 -9.800486e-05 0.048707947 -0.038265433
0.034419343 -0.005219901 0.052888848 -0.04237323 -0.0075672125 0.0584852 -0.08673617 0.03295903
-0.090553425 0.07270352 -0.091604546 0.03865541 -0.096536666 0.075933136 -0.025691478 -0.09123248
00000000: fdef 043d a87c 243b 50db 443d e478 1fbd
00000010: 0de0 093d 8438 77bb 5b9b 603d a1ae 2cbd
00000020: c32a 3abc 1699 753d 3dd8 fa3c fc2b a23b
00000030: 54cc 4a3d 1c55 27bd 6ef2 0e3d 0de7 66ba
00000040: 0b97 6b3d 1652 2ebd e1c7 4cbc f766 7b3d
00000050: b7b2 90bd be33 a83c fc70 a1bd ccfd 7b3d
00000060: 860e 97bd 3429 d63c cc86 aebd eebb 863d
00000070: adbd 58bc 65b6 a2bd de78 f23c 18d8 123b
00000080: 54b3 483d 8f00 20bd 6d6e 0e3d e795 98bb
00000090: 6e7a 663d 136c 30bd 355b 15bc 8c88 733d
000000a0: cb2d 9dbd 25ee b63c 3846 a9bd 347f 873d
000000b0: 8a48 a3bd 63ee e13c a8bf b4bd bfeb 8b3d
000000c0: 12a3 7ebc 5772 acbd b92f f83c 1fce a73b
000000d0: 2208 493d dbca 1dbd e9d7 093d 2f50 baba
000000e0: 24e6 603d 713a 2ebd f671 31bc 7337 7b3d
000000f0: 13c1 fb3c 88df 863a 667e 463d 36bb 21bd
00000100: 9d9c 0e3d 190a fbbb 86f6 633d 5b9d 31bd
00000110: 25dd b9bb fa9f 733d f21d fa3c aac0 c73b
00000120: b7f6 4b3d d246 1ebd 052d 153d 4467 4e38
00000130: 8993 673d ae30 31bd 6909 3dbc 1c38 773d
00000140: 28a3 b1bd fb6b 0d3d 526b c0bd 64d8 973d
00000150: ffb6 bbbd d7cc 1b3d 706d c9bd fd27 a13d
00000160: ee45 d3bc 2af9 b9bd 51de f43c 4e8b aa3b
00000170: 095f 433d 7b23 26bd 5c4a 023d 5e7d 0dbb
00000180: 0c14 623d 336f 2dbd 3de3 32bc 034e 7d3d
00000190: 58dc 8abd 3b52 9f3c da6d a3bd a3d7 7b3d
000001a0: 85ab 8ebd 676b d73c cb91 aebd 618a 873d
000001b0: 6c31 4abc c910 a3bd 4425 f03c ed1b 983b
000001c0: 45c2 483d 245f 20bd 13fa 073d 1b71 5fbb
000001d0: b144 633d a5ba 2ebd df7e 34bc 39eb 803d
000001e0: 70e6 f53c 565c f83a 01e6 4a3d a567 1fbd
000001f0: d173 0b3d dc02 3ebb 6c10 613d f810 34bd
00000200: e990 19bc 7a1c 733d 4c7f fc3c 0fac b73b
00000210: 6e30 4a3d 85e7 19bd 022c 133d b4e4 993a
00000220: b6ee 673d cb41 29bd a73a 4dbc 4a3e 783d
00000230: 3100 ed3c 30ad 93b8 8d55 443d 5eda 20bd
00000240: 820d 0a3d 0413 eabb 69db 533d a9a9 2bbd
00000250: 35a0 39bb b090 733d c151 87bd 11a9 b53c
00000260: 2a7b 9cbd db69 753d b56e 8dbd 8748 d43c
00000270: 0f90 acbd 22dd 823d 694a 6bbc 9cfe a1bd
00000280: e01e ed3c d7c8 a83b 089f 4d3d 85b8 22bd
00000290: 82f9 0d3d 5638 ccba b4a5 693d a6e0 35bd
000002a0: 05bf 33bc c3c1 7a3d 2460 84bd dbf5 b63c
000002b0: a4ec 9fbd bcdb 7b3d 2401 91bd 6a53 d93c
000002c0: 018f adbd a5d3 853d dc94 33bc e843 a8bd
000002d0: 8cfb f13c f587 cdb8 fc81 473d 37bc 1cbd
000002e0: 4cfb 0c3d b40b abbb faa1 583d 8d8f 2dbd
000002f0: 61f6 f7bb 2d8e 6f3d bca2 b1bd 0c00 073d
00000300: 1374 b9bd 95e5 943d 2a9b bbbd 2355 1e3d
00000310: 04b5 c5bd d582 9b3d ef76 d2bc 18d8 babd

layers.1.egnn.edge_mlp.0.bias f4 [20]
0.1710846 0.29398704 -0.14877385 0.10796145 -0.24587154 0.28172788 0.07815203 0.35093355
-0.3824614 0.24504504 -0.1564625 0.24883804 0.17505203 0.30247778 0.06669031 -0.07519607
0.2482921 -0.13037857 0.078285515 -0.37155476
00000000: cd30 2f3e 7885 963e 2c58 18be e51a dd3d
00000010: c0c5 7bbe a33e 903e 2c0e a03d 90ad b33e
00000020: fbd1 c3be 16ed 7a3e b537 20be 66cf 7e3e
00000030: d740 333e 5ede 9a3e ee94 883d 6600 9abd
00000040: 4940 7e3e f681 05be 2854 a03d 6d3c bebe

layers.1.egnn.edge_mlp.3.weight f4 [16, 20]
0.040120024 0.04138324 -0.037602935 0.03682094 -0.04240923 0.04255836 0.031999 0.04197437
-0.0456272 0.041881546 -0.03828429 0.040804062 0.037731413 0.043308973 0.03169973 -0.03124729
0.04102619 -0.037051365 0.03553935 -0.047238953 -0.045100942 -0.046642736 0.044747535 -0.044790335
0.047070645 -0.045903884 -0.0409386 -0.047014926 0.049335502 -0.04790332 0.0430581 -0.044025462
-0.0441403 -0.046993267 -0.037845235 0.0399403 -0.044470046 0.04347933 -0.040168416 0.049491398
0.037598763 0.043509535 -0.03983681 0.036453113 -0.040784158 0.040584557 0.03379427 0.042688314
-0.04661625 0.04077622 -0.039676167 0.04064378 0.037066206 0.040999148 0.031700924 -0.032428887
0.0415807 -0.03763524 0.03330892 -0.046368048 -0.045107264 -0.049243648 0.044231 -0.044934437
0.0479678 -0.048171565 -0.041830786 -0.047655504 0.05058057 -0.047967028 0.044563323 -0.047778174
-0.0440556 -0.047984514 -0.039418068 0.039155506 -0.046617452 0.044793446 -0.043276466 0.05177697
-0.04673034 -0.049134385 0.045165703 -0.045285396 0.048083227 -0.048471153 -0.03919115 -0.049090087
0.051575903 -0.04603086 0.045828667 -0.047607515 -0.04406095 -0.049558725 -0.040187668 0.039650697
-0.04556166 0.046716645 -0.042511772 0.04988242 -0.04627738 -0.047464292 0.045412887 -0.04302978
0.047498267 -0.045502093 -0.042297896 -0.04916999 0.051372685 -0.04772817 0.045703243 -0.045679796
-0.04444211 -0.04816396 -0.038726486 0.039467808 -0.047523495 0.044226907 -0.04040575 0.050819565
-0.045040995 -0.048035827 0.042973377 -0.042211395 0.049374845 -0.044994943 -0.04091594 -0.048776906
0.051298473 -0.047059122 0.04638641 -0.048394274 -0.045285426 -0.048599884 -0.039407663 0.039577134
-0.047933485 0.04449235 -0.041725647 0.050466612 -0.045340374 -0.04887021 0.043813772 -0.043238208
0.048217155 -0.048225943 -0.039968316 -0.04903208 0.049876496 -0.04684544 0.045405142 -0.047997523
-0.04554688 -0.0492132 -0.03815204 0.04119603 -0.04637036 0.046581205 -0.04244117 0.050771922
0.038640734 0.041870836 -0.037757635 0.038811553 -0.04232802 0.040727817 0.03526437 0.04151879
-0.04673179 0.040230703 -0.03774679 0.039817777 0.03936645 0.041124843 0.03181099 -0.032300055
0.04064091 -0.040254615 0.03531781 -0.04646155 -0.046913434 -0.048202317 0.04527973 -0.042202972
0.04875369 -0.0482334 -0.04182566 -0.048105896 0.050683007 -0.0469321 0.044897497 -0.048355542
-0.045628857 -0.04783659 -0.039032005 0.039859887 -0.04660842 0.044147607 -0.0419411 0.0498354
0.0380402 0.041923627 -0.0368445 0.037121773 -0.042892214 0.041249122 0.033659738 0.040970206
-0.04756132 0.04043948 -0.038441423 0.04034445 0.039159894 0.04234106 0.031860594 -0.0312637
0.040539537 -0.037924003 0.035067715 -0.04610966 0.038109135 0.04252879 -0.0377037 0.037457787
-0.040731683 0.040315345 0.034132935 0.04235449 -0.046291128 0.040018898 -0.039021727 0.04152064
0.039093617 0.040913362 0.030101072 -0.029335892 0.03970573 -0.037396725 0.034087174 -0.046703637
-0.046459015 -0.0493953 0.045314774 -0.043078743 0.04768461 -0.045924623 -0.041251108 -0.04788404
0.050172057 -0.046084445 0.044755597 -0.04669297 -0.044070374 -0.046839736 -0.038200717 0.04089366
00000000: e554 243d 7981 293d 8905 1abd 8ed1 163d
00000010: 4db5 2dbd ad51 2e3d 6211 033d 51ed 2b3d
00000020: 96e3 3abd fc8b 2b3d fdcf 1cbd 2922 273d
00000030: 418c 1a3d c064 313d 93d7 013d 51fa ffbc
00000040: 140b 283d 2cc3 17bd b691 113d a27d 41bd
00000050: c4bb 38bd 740c 3fbd 3149 373d 1276 37bd
00000060: 26cd 403d b605 3cbd 3caf 27bd b992 40bd
00000070: 0614 4a3d 4636 44bd b15d 303d 0b54 34bd
00000080: 76cc 34bd 037c 40bd 9b03 1bbd 7198 233d
00000090: 3926 36bd 6217 323d a387 24bd 7eb7 4a3d
000000a0: 2901 1a3d 0e37 323d ec2b 23bd dc4f 153d
000000b0: 4a0d 27bd fe3b 263d dc6b 0a3d f1d9 2e3d
000000c0: aef0 3ebd f704 273d 7a83 22bd 187a 263d
000000d0: bcd2 173d b9ee 273d d4d8 013d 27d4 04bd
000000e0: 8650 2a3d 6927 1abd ef6e 083d 6cec 3dbd
000000f0: 65c2 38bd b5b3 49bd 912b 353d 2c0d 38bd
00000100: e279 443d 8c4f 45bd c256 2bbd 6b32 43bd
00000110: 922d 4f3d 1379 44bd 0888 363d 0cb3 43bd
00000120: a573 34bd 698b 44bd d774 21bd 8661 203d
00000130: f1f1 3ebd 5579 373d aa42 31bd 1714 543d
00000140: 5068 3fbd 2341 49bd acff 383d 2e7d 39bd
00000150: ebf2 443d b089 46bd e686 20bd b012 49bd
00000160: 4141 533d db8a 3cbd d7b6 3b3d 1900 43bd
00000170: 4179 34bd 17fe 4abd d39b 24bd c568 223d
00000180: dd9e 3abd f459 3f3d d320 2ebd 8251 4c3d
00000190: 5a8d 3dbd eb69 42bd dd02 3a3d ff3f 30bd
000001a0: 8b8d 423d 6760 3abd 8f40 2dbd 7966 49bd
000001b0: 2a6c 523d 9d7e 43bd 5333 3b3d bd1a 3bbd
000001c0: ee08 36bd 9347 45bd aa9f 1ebd ffa8 213d
000001d0: ffa7 42bd 4627 353d 8080 25bd 2d28 503d
000001e0: e87c 38bd 37c1 44bd da04 303d dbe5 2cbd
000001f0: 473d 4a3d 9e4c 38bd 7997 27bd 4bca 47bd
00000200: 591e 523d 11c1 40bd adff 3d3d 1339 46bd
00000210: 367d 39bd ac10 47bd ee69 21bd a21b 223d
00000220: e755 44bd 9c3d 363d 83e8 2abd 14b6 4e3d
00000230: d4b6 39bd 212c 48bd 1276 333d 8c1a 31bd
00000240: 5a7f 453d 9188 45bd d1b5 23bd ddd5 48bd
00000250: 4c4b 4c3d 01e1 3fbd befa 393d 0d99 44bd
00000260: 5e8f 3abd c893 49bd 5045 1cbd 2bbd 283d
00000270: d9ee 3dbd efcb 3e3d cbd6 2dbd 38f6 4f3d
00000280: bf45 1e3d c180 2b3d c0a7 1abd ddf8 1e3d
00000290: 2560 2dbd 36d2 263d 5f71 103d 9b0f 2a3d
000002a0: d569 3fbd f3c8 243d 619c 1abd f717 233d
000002b0: b73e 213d 8672 283d 3e4c 023d 104d 04bd
000002c0: 1577 263d 06e2 24bd 68a9 103d 774e 3ebd
000002d0: 4d28 40bd cb6f 45bd 3d77 393d 06dd 2cbd
000002e0: f3b1 473d 6390 45bd 6251 2bbd b00a 45bd
000002f0: fc98 4f3d e03b 40bd 70e6 373d 7610 46bd
00000300: 53e5 3abd 4df0 43bd 06e0 1fbd 1f44 233d
00000310: 78e8 3ebd 1fd4 343d 6eca 2bbd 3420 4c3d
00000320: 0ad0 1b3d 1cb8 2b3d 42ea 16bd 000d 183d
00000330: bfaf 2fbd d7f4 283d cbde 093d 60d0 273d
00000340: a9cf 42bd dea3 253d c174 1dbd 3940 253d
00000350: 2066 203d d26d 2d3d 4180 023d 5e0e 00bd
00000360: c90c 263d 3356 1bbd 2aa3 0f3d 7cdd 3cbd
00000370: 5318 1c3d ab32 2e3d 326f 1abd 566d 193d
00000380: 44d6 26bd b421 253d face 0b3d e77b 2d3d
00000390: c49b 3dbd dbea 233d 3fd5 1fbd 8c11 2a3d
000003a0: a120 203d c594 273d 8696 f63c d351 f0bc
000003b0: 7aa2 223d 4f2d 19bd fe9e 0b3d 504c 3fbd
000003c0: cf4b 3ebd ba52 4abd fc9b 393d 5673 30bd
000003d0: f050 433d 751b 3cbd ecf6 28bd 0e22 44bd
000003e0: 3781 4d3d 0bc3 3cbd a551 373d 2141 3fbd
000003f0: 2383 34bd 06db 3fbd 5b78 1cbd 1c80 273d

layers.1.egnn.edge_mlp.3.bias f4 [16]
0.14030226 -0.22473367 0.15735526 -0.11308909 -0.07072921 -0.15866472 -0.19298792 -0.17873858
0.065493315 -0.18770406 0.25538746 0.23861615 -0.2332468 -0.25147069 -0.21647167 0.10750749
00000000: 65ab 0f3e 9520 66be bd21 213e 419b e7bd
00000010: 7ada 90bd 0179 22be a09e 45be 3f07 37be
00000020: 5c21 863d 7e35 40be 25c2 823e cb57 743e
00000030: 40d8 6ebe c4c0 80be c0aa 5dbe e32c dc3d

layers.1.egnn.node_mlp.0.weight f4 [8, 20]
-0.0017333635 -0.00085552747 -0.0003517282 -0.00014297219 0.00017444944 0.0010834121 0.00072650233 -0.00061256037
-0.000569308 -0.0013988902 -0.0009069104 0.00035604704 0.00086819415 5.7263343e-05 0.0015661736 -0.0008372481
0.0015488283 -0.0016972524 0.0002785692 0.00083094335 0.00022149389 0.00087908935 -0.00010427948 0.00028534015
0.0006518027 0.0009289498 9.0619236e-05 0.00022102288 -0.0008685926 -0.0004299589 -0.00047259382 0.0015736092
-0.0016271377 -0.00036709616 0.0011979026 -0.0012120794 0.0003086842 0.00051553454 -0.00055391074 -0.00032848673
-0.0005043471 -0.00038128172 0.00019728436 -0.0007317948 -0.0010247935 -0.00024903737 4.943683e-05 0.0011783225
-0.0018194669 0.00036756438 0.0016638016 -9.631499e-05 0.00074575597 -0.000284842 0.0007056243 -0.0008308724
-7.5170494e-05 0.00058611634 -0.0010996949 -0.0012478568 -0.0012397097 0.0018873597 -0.001468294 0.0002225633
0.0009882974 0.0018140491 0.00060679053 2.9405588e-05 -0.0009471709 0.00024520178 0.00025386384 0.00030623135
-0.0007221337 -0.00019198439 0.0007959667 0.00060247903 0.0015294361 -0.0007563131 0.0030755347 0.00190307
-0.0003527415 0.0002879107 0.0018053594 -0.0016378466 2.3946013e-05 -0.0014596758 0.0025301776 -0.00034719837
-0.0007528135 0.00050016446 -0.00029823752 0.00097091 8.2660095e-05 0.0008485132 0.00024787188 -2.8103721e-05
-0.0011947775 0.0010202684 -0.0015491139 -0.00031429168 -0.0011475364 -0.0004439547 0.0005830951 -0.0009277439
-0.0005338441 0.0010861756 -0.0006979535 0.0002242558 0.00025806075 -0.00074130105 0.0019073957 0.00027188126
0.00048514595 -0.0011421589 -0.0004425391 -0.0007060955 0.00075405755 -0.00056453526 0.000975828 -0.0004867465
-0.0010922715 0.0016534793 0.0006727623 0.0013958585 -0.001743504 -0.0005448196 -0.0006393879 -0.001596539
7.5647436e-06 2.6123782e-05 0.001478245 0.0015233369 0.0012968837 0.00040285304 0.00083685305 -0.00061404856
0.0005466434 -0.00010090439 -0.0017559301 0.00067693274 -0.0007607579 0.0007435841 0.00046351313 0.0011594722
0.0005841468 0.0025187072 0.0012305242 0.00039685046 -0.00031547534 0.00058213866 -0.0013475348 -0.001821319
5.9982573e-05 0.0011743633 0.00046200215 0.00063364045 -0.0005526129 -0.0013045807 0.0008505516 -0.00047996707
00000000: 0732 e3ba 7a45 60ba 2968 b8b9 ceea 15b9
00000010: 6aec 3639 4701 8e3a bf72 3e3a 3b94 20ba
00000020: 9d3d 15ba f75a b7ba babd 6dba d3ab ba39
00000030: 8697 633a 0c2e 7038 1148 cd3a c57a 5bba
00000040: 0e02 cb3a 5776 deba ed0c 9239 aad3 593a
00000050: d040 6839 b072 663a 9fb0 dab8 b599 9539
00000060: bddd 2a3a c484 733a d50a be38 61c2 6739
00000070: 43b2 63ba 1b6c e1b9 78c6 f7b9 9041 ce3a
00000080: ae45 d5ba d076 c0b9 f102 9d3a a3de 9eba
00000090: e4d6 a139 f024 073a 5234 11ba be38 acb9
000000a0: 2936 04ba c4e6 c7b9 1ede 4e39 ebd5 3fba
000000b0: 5d52 86ba 3b91 82b9 645a 4f38 f171 9a3a
000000c0: 2e7b eeba a8b5 c039 eb13 da3a b7fc c9b8
000000d0: d67e 433a d956 95b9 a5f9 383a e7ce 59ba
000000e0: daa4 9db8 9aa5 193a a323 90ba 208f a3ba
000000f0: c17d a2ba 4861 f73a c573 c0ba e25f 6939
00000100: c289 813a 63c5 ed3a 0611 1f3a 05ac f637
00000110: 904b 78ba 6d8e 8039 0719 8539 ad8d a039
00000120: 924d 3dba 6b4f 49b9 6ca8 503a afef 1d3a
00000130: 5c77 c83a 5043 46ba e98e 493b 6f70 f93a
00000140: 2af0 b8b9 b8f2 9639 cfa1 ec3a 03ad d6ba
00000150: acdf c837 9852 bfba 56d1 253b 2d08 b6b9
00000160: 7558 45ba 781d 033a c35c 9cb9 ab84 7e3a
00000170: cd59 ad38 c26e 5e3a cdf4 8139 48c0 ebb7
00000180: 159a 9cba 87ba 853a a30b cbba 84c7 a4b9
00000190: ef68 96ba 97c2 e8b9 dada 183a d733 73ba
000001a0: acf1 0bba 015e 8e3a def6 36ba 3526 6b39
000001b0: 544c 8739 df53 42ba 9401 fa3a 498b 8e39
000001c0: 305b fe39 7eb4 95ba 9804 e8b9 4419 39ba
000001d0: f2ab 453a 52fd 13ba b5ce 7f3a 0232 ffb9
000001e0: 8d2a 8fba 8fb9 d83a 505c 303a 3df5 b63a
000001f0: 4986 e4ba 39d2 0eba 989c 27ba f642 d1ba
00000200: a7d4 fd36 6524 db37 acc1 c13a b4aa c73a
00000210: 32fc a93a 0536 d339 4260 5b3a 1af8 20ba
00000220: 9e4c 0f3a a29c d3b8 3d27 e6ba 3074 313a
00000230: 996d 47ba 16ed 423a ae03 f339 6ef9 973a
00000240: 6e21 193a e510 253b 8a49 a13a 5e10 d039
00000250: 6266 a5b9 aa9a 183a c49f b0ba 53b9 eeba
00000260: cc95 7b38 18ed 993a e138 f239 e41a 263a
00000270: 39dd 10ba 77fe aaba 8df7 5e3a 17a4 fbb9

layers.1.egnn.node_mlp.0.bias f4 [8]
0.004932934 -0.19747226 0.0993814 -0.05977391 -0.041168682 -0.20257227 -0.10317869 0.032742932
00000000: 73a4 a13b 2b36 4abe 7a88 cb3d 7dd5 74bd
00000010: 7ea0 28bd 1b6f 4fbe 594f d3bd 741d 063d

layers.1.egnn.node_mlp.3.weight f4 [4, 8]
0.00016166708 0.0006013018 0.000155731 0.0003733012 0.00069450354 0.0006629407 -0.0020798414 -0.00044449698
0.0014716752 -0.0011086712 -0.0005758145 0.0008694618 -0.0016329315 -0.00074645487 -0.00022054453 -0.0009880178
-0.0001257904 0.0009561526 0.000118911565 -0.0004750496 -0.00011969565 -1.077198e-06 0.00050072226 0.0013508096
-0.0014662121 0.0010015923 -0.0011539176 0.00016436703 -0.00016413776 -0.0006829091 0.0002495293 -0.001525287
00000000: 2d85 2939 aea0 1d3a b94b 2339 a4b7 c339
00000010: 580f 363a 33c9 2d3a f34d 08bb 600b e9b9
00000020: 3ae5 c03a d550 91ba 42f2 16ba 98ec 633a
00000030: 1708 d6ba bdad 43ba f941 67b9 6080 81ba
00000040: 9ae6 03b9 51a6 7a3a 2960 f938 1410 f9b9
00000050: 1d05 fbb8 3e94 90b5 e742 033a a60d b13a
00000060: ea2d c0ba dc47 833a 0d3f 97ba f059 2c39
00000070: 651c 2cb9 4105 33ba 41d3 8239 24ec c7ba

layers.1.egnn.node_mlp.3.bias f4 [4]
0.039512794 -0.18909596 0.3056945 0.30566534
00000000: 2bd8 213d 5fa2 41be fd83 9c3e 2b80 9c3e
