experiments/models/best_model_N20_batch64_lr0.0001_fd4_b0.7.pth (torch, 31506 bytes, 32 tensors)

time_embedding.0.weight f4 [8, 1]
0	0xbe20e7bc	-0.157134
1	0x3d2d9500	0.042378426
2	0xbd7b559c	-0.06136094
3	0x3f69bd55	0.9130452
4	0x3eaed4b8	0.34146667
5	0x3f107b70	0.5643835
6	0xbf2e68d8	-0.6812873
7	0x3f1a085a	0.60168993

time_embedding.0.bias f4 [8]
0	0x3da79c96	0.08184163
1	0xbf419bf8	-0.75628614
2	0xb98acbcc	-0.00026473252
3	0xbc01ee90	-0.007930413
4	0xbed93a3c	-0.42427242
5	0xbf48cf2e	-0.7844113
6	0x3f044150	0.5166216
7	0xbeac9b3c	-0.33712184

time_embedding.3.weight f4 [4, 8]
0	0xbe15db49	-0.14634432
1	0xbdbaef76	-0.09127705
2	0xbe4c91c2	-0.19977477
3	0x3e8d5920	0.2760706
4	0xbead87e1	-0.3389273
5	0x3d020f24	0.03175272
6	0xbc56425a	-0.013077343
7	0xbe047c29	-0.12937988
8	0x3ecaf45e	0.39639562
9	0xbe5b3119	-0.21405448
10	0xbe76ef4e	-0.24114725
11	0x3e785ba0	0.24253702
12	0xbeb0e1e0	-0.3454733
13	0x3e4518be	0.1924772
14	0x3d17134a	0.03688363
15	0x3cf1c7f8	0.029514298
16	0x3d21c8af	0.039498027
17	0x3ddf2f0b	0.108976446
18	0xbe4427a2	-0.19155744
19	0x3d73ef67	0.059554484
20	0x3e94d652	0.29069763
21	0x3e4d6fcc	0.20062178
22	0xbe86d0b6	-0.2633111
23	0x3dd3d3e6	0.10343151
24	0x3df71e6b	0.12066349
25	0xbe147528	-0.14497817
26	0x3ea71e1b	0.32640156
27	0x3ddce683	0.10786154
28	0xbe683209	-0.22675337
29	0xbc8790b6	-0.016548496
30	0xbda70cc9	-0.081567355
31	0xbe91438e	-0.28371853

time_embedding.3.bias f4 [4]
0	0x3e996547	0.2996008
1	0x3ea2593c	0.31708705
2	0x3e053438	0.13008201
3	0x3e43220a	0.19055954

layers.0.egnn.edge_mlp.0.weight f4 [20, 10]
0	0xbcd59915	-0.026073972
1	0xbce3fa69	-0.027829366
2	0xbcc380d0	-0.023865134
3	0xbce3bc1a	-0.027799655
4	0xbcdf2bf7	-0.027242644
5	0xbce5f36e	-0.028070178
6	0xbcbbc52d	-0.02292117
7	0xbce4dacd	-0.027936364
8	0xbcd65214	-0.026162185
9	0xbcedb75b	-0.029018095
10	0x3cebfcaf	0.028807012
11	0x3cf16d42	0.029471043
12	0x3ccd506c	0.025062762
13	0x3cfce6c5	0.030871758
14	0x3cf5091c	0.02991157
15	0x3cf126da	0.029437471
16	0x3cd04069	0.025421338
17	0x3cf3fbc8	0.029783145
18	0x3cdceea6	0.026969265
19	0x3d043357	0.032275524
20	0x3cd7c345	0.026338229
21	0x3cee5bd5	0.029096523
22	0x3cd03a61	0.025418462
23	0x3ce520e4	0.027969785
24	0x3cdeea48	0.027211323
25	0x3cec7cd2	0.028868113
26	0x3ccdcf18	0.025123164
27	0x3cdf80f8	0.027283177
28	0x3ce7b0fe	0.028282639
29	0x3cec5945	0.02885116
30	0xbce89786	-0.028392565
31	0xbcf3bfec	-0.029754601
32	0xbcc895b1	-0.02448544
33	0xbcfb53af	-0.030679552
34	0xbce1d0d0	-0.02756539
35	0xbcec1feb	-0.028823813
36	0xbcd7780d	-0.026302362
37	0xbd006157	-0.03134283
38	0xbce1effd	-0.027580256
39	0xbcf6cefd	-0.030127997
40	0xbd00b2dd	-0.031420577
41	0xbcfac6bd	-0.030612344
42	0xbcd4fae5	-0.025998542
43	0xbcf4d8ab	-0.029888472
44	0xbce90936	-0.028446775
45	0xbcf59bf2	-0.029981587
46	0xbcd95d22	-0.026533667
47	0xbcfc2a7c	-0.030781977
48	0xbcdaf171	-0.026726456
49	0xbce431de	-0.02785581
50	0x3cfb3002	0.03066254
51	0x3ce27c57	0.02764718
52	0x3cc4465b	0.02395933
53	0x3cf4fb8c	0.029905103
54	0x3ced473e	0.028964635
55	0x3ceb804b	0.028747698
56	0x3cce9478	0.02521728
57	0x3cfcc0d1	0.03085366
58	0x3cda9b5c	0.02668541
59	0x3cfa7de2	0.030577604
60	0xbcec71c9	-0.02886285
61	0xbcf255c8	-0.02958192
62	0xbccf923a	-0.025338281
63	0xbceda84b	-0.029010912
64	0xbcf8cb92	-0.030370507
65	0xbcf40c51	-0.02979103
66	0xbcd5b77d	-0.02608847
67	0xbcea3f6e	-0.028594699
68	0xbcdb2a5d	-0.026753599
69	0xbcfda8f4	-0.030964352
70	0xbcf771a4	-0.030205555
71	0xbcee8b45	-0.029119143
72	0xbccd2519	-0.025042104
73	0xbcff6f5c	-0.03118103
74	0xbce74995	-0.028233329
75	0xbcf57fa9	-0.0299681
76	0xbcded327	-0.027200295
77	0xbcf219da	-0.029553343
78	0xbce0917b	-0.02741312
79	0xbce9da40	-0.028546453
80	0x3cf3e3f6	0.029771786
81	0x3ce6e024	0.02818305
82	0x3cc6ad7c	0.024252646
83	0x3ce86960	0.02837056
84	0x3cdc26a9	0.026873903
85	0x3cf0889b	0.029362014
86	0x3ccd07a2	0.025028054
87	0x3ce8632d	0.028367603
88	0x3cd765bd	0.02629363
89	0x3cf7cb04	0.030248173
90	0x3ce5d30f	0.028054742
91	0x3ced9467	0.029001428
92	0x3ccd3d59	0.025053667
93	0x3ce9ae53	0.028525507
94	0x3ceee28c	0.02916076
95	0x3cea87cd	0.028629208
96	0x3cd6604e	0.026168969
97	0x3cf40112	0.029785667
98	0x3cc77ffe	0.024353024
99	0x3cff12ff	0.031136988
100	0xbce77378	-0.028253302
101	0xbcf034d6	-0.02932207
102	0xbccf27d0	-0.025287539
103	0xbce82088	-0.028335825
104	0xbceeaf48	-0.029136315
105	0xbce6f430	-0.02819261
106	0xbcda1932	-0.026623342
107	0xbd019589	-0.03163675
108	0xbce4ad1d	-0.027914578
109	0xbcfea11a	-0.031082679
110	0x3ce6076d	0.028079713
111	0x3cf377e9	0.029720264
112	0x3cb77a6e	0.022397246
113	0x3ce91305	0.028451452
114	0x3cf8b8b0	0.030361503
115	0x3ceaec6a	0.028677184
116	0x3ce0e9a2	0.027455155
117	0x3cf1949c	0.029489808
118	0x3cdfe638	0.027331457
119	0x3cfd71f1	0.03093812
120	0x3cddd6da	0.027079988
121	0x3cea121d	0.02857309
122	0x3cc45abb	0.023969045
123	0x3cf9aeb6	0.030478816
124	0x3ce7c71c	0.028293185
125	0x3ce8de44	0.028426297
126	0x3ccc7dd4	0.024962343
127	0x3cf0aebc	0.029380195
128	0x3ce12ff5	0.027488688
129	0x3cf4f3aa	0.029901344
130	0xbcf1b796	-0.029506486
131	0xbceaafdf	-0.028648315
132	0xbcc82de5	-0.024435947
133	0xbcedb477	-0.029016716
134	0xbce74f71	-0.028236123
135	0xbcee563c	-0.029093854
136	0xbcca6def	-0.024710624
137	0xbcd5de92	-0.026107106
138	0xbcdba21d	-0.0268107
139	0xbcf1568f	-0.02946022
140	0x3cd9c555	0.026583353
141	0x3ceebc7d	0.029142613
142	0x3cc41298	0.023934647
143	0x3cdc35db	0.026881149
144	0x3ced7d55	0.028990427
145	0x3ce5d458	0.028055355
146	0x3cac8e91	0.021064075
147	0x3ce368cd	0.027759934
148	0x3ccb8e54	0.02484814
149	0x3ceeccdb	0.029150417
150	0x3ce2f15f	0.027702985
151	0x3ce9c0ff	0.02853441
152	0x3cc1a1c9	0.023636715
153	0x3ce0d476	0.02744506
154	0x3cdf088d	0.027225757
155	0x3cf37882	0.029720549
156	0x3cb0e3cb	0.021592995
157	0x3ce903d5	0.02844421
158	0x3cd84e4a	0.026404519
159	0x3cf142a5	0.029450724
160	0xbce26eea	-0.027640779
161	0xbd02c5d6	-0.031926952
162	0xbcc93bc9	-0.02456464
163	0xbce6133f	-0.02808535
164	0xbcf1dba8	-0.029523686
165	0xbcf03d8e	-0.029326227
166	0xbcc93e27	-0.02456577
167	0xbcf93de1	-0.030425014
168	0xbcefc35c	-0.02926796
169	0xbd0130ef	-0.031540807
170	0x3ced534b	0.028970381
171	0x3ce84ff3	0.028358435
172	0x3cc452a1	0.023965182
173	0x3cf40d65	0.029791543
174	0x3cf2cd71	0.029638978
175	0x3cf8fe8e	0.030394819
176	0x3cd1544d	0.025552893
177	0x3cebb8f6	0.02877472
178	0x3ce60c56	0.028082054
179	0x3cfcbe1c	0.03085237
180	0xbcef4781	-0.0292089
181	0xbd0737e6	-0.033012293
182	0xbcd16dd7	-0.025565071
183	0xbcf6cc6a	-0.03012677
184	0xbcf01148	-0.029305115
185	0xbcecea08	-0.028920189
186	0xbcd37f3f	-0.025817512
187	0xbcf4ea26	-0.029896807
188	0xbcdd3cfd	-0.02700662
189	0xbd0098d5	-0.031395752
190	0xbcea146f	-0.028574197
191	0xbd04f11f	-0.032456513
192	0xbcc880a9	-0.024475412
193	0xbcf6fd14	-0.030149974
194	0xbce13730	-0.027492136
195	0xbced2b19	-0.028951215
196	0xbcd55f1e	-0.026046332
197	0xbcf42fe9	-0.029808002
198	0xbce2a4a6	-0.027666401
199	0xbcebe689	-0.028796451

layers.0.egnn.edge_mlp.0.bias f4 [20]
0	0xbe2771d1	-0.16352011
1	0x3e331907	0.17490016
2	0x3e9f6e4d	0.3113884
3	0xbe939c39	-0.28830126
4	0xbe9be10a	-0.3044513
5	0x3ddecb62	0.10878636
6	0xbe91d7a1	-0.28484824
7	0xbea165cc	-0.31522977
8	0x3e9f9472	0.31167942
9	0x3eac766b	0.33684096
10	0xbe4a73ee	-0.19770786
11	0x3e888ace	0.266684
12	0x3d6db569	0.058034334
13	0xbe8fda0b	-0.2809604
14	0x3e3f55f1	0.18685128
15	0x3e90da94	0.28291762
16	0xbe8ce153	-0.2751566
17	0x3e08b010	0.13348413
18	0xbdd48272	-0.10376443
19	0xbe65c908	-0.22439969

layers.0.egnn.edge_mlp.3.weight f4 [16, 20]
0	0xbcf9c84e	-0.03049102
1	0x3cd313a7	0.025766207
2	0x3ce74059	0.028228926
3	0xbce56980	-0.028004408
4	0xbcee0f5e	-0.029060062
5	0x3ce63f22	0.028106276
6	0xbcdd9e9e	-0.027053174
7	0xbcec4f5a	-0.028846432
8	0x3cddc4b3	0.027071333
9	0x3cf38eaf	0.029731123
10	0xbcf54819	-0.029941605
11	0x3cec3b64	0.028836913
12	0x3ce01643	0.027354365
13	0xbce420c2	-0.027847651
14	0x3cef3a13	0.029202497
15	0x3ce297c6	0.027660262
16	0xbcd8259e	-0.026385125
17	0x3ceb7470	0.028742045
18	0xbce82f65	-0.028342912
19	0xbcee38dc	-0.029079847
20	0xbce3822c	-0.027772032
21	0x3cebb62e	0.028773393
22	0x3ce07c98	0.02740316
23	0xbcd6dbb0	-0.026227802
24	0xbcdf68fb	-0.027271738
25	0x3ceca8a0	0.028889
26	0xbce56bbd	-0.028005475
27	0xbcedaaeb	-0.029012164
28	0x3cd8ac65	0.026449392
29	0x3ce49abd	0.027905816
30	0xbcef429f	-0.029206572
31	0x3cef05ef	0.029177634
32	0x3cf1f970	0.029537886
33	0xbcef028c	-0.02917602
34	0x3ce17506	0.027521621
35	0x3cdd034c	0.026979111
36	0xbceae90b	-0.028675577
37	0x3cf6a48d	0.03010776
38	0xbcea72ab	-0.028619131
39	0xbcea912b	-0.028633675
40	0xbce02d03	-0.027365213
41	0x3cf4812e	0.029846754
42	0x3ce9684a	0.028492112
43	0xbcef24da	-0.029192377
44	0xbce9f52f	-0.028559295
45	0x3ce1ae3e	0.027548905
46	0xbcdf9cf9	-0.02729653
47	0xbce4e3ef	-0.027940718
48	0x3cd7fee5	0.02636666
49	0x3cf1cfe6	0.029518079
50	0xbce5c586	-0.028048288
51	0x3ce5cfdc	0.028053217
52	0x3cef0937	0.029179199
53	0xbcddb079	-0.027061688
54	0x3cecd62c	0.028910719
55	0x3cdc74fa	0.026911248
56	0xbce27f83	-0.027648693
57	0x3cf40b6f	0.029790608
58	0xbcef617b	-0.029221287
59	0xbcfa911b	-0.03058677
60	0xbcec9dc8	-0.02888383
61	0x3cf23e3b	0.02957069
62	0x3ce29dac	0.027663074
63	0xbcebbdd9	-0.02877705
64	0xbcf6f804	-0.03014756
65	0x3ce83338	0.028344736
66	0xbcdf2b68	-0.027242377
67	0xbce0180d	-0.027355218
68	0x3cd5fc84	0.026121385
69	0x3ce2c679	0.02768253
70	0xbce3dccf	-0.02781525
71	0x3ce681ce	0.028138068
72	0x3ceeb33f	0.029138206
73	0xbcecca72	-0.028905127
74	0x3cf0f758	0.029414818
75	0x3ceb6912	0.028736625
76	0xbced7e62	-0.028990928
77	0x3ce9e9f2	0.028553937
78	0xbcf16af9	-0.029469954
79	0xbced737a	-0.028985728
80	0x3ccc54e2	0.024942819
81	0xbce2cef2	-0.02768657
82	0xbcdcf85a	-0.026973892
83	0x3cca649b	0.024706176
84	0x3cde2b26	0.027120184
85	0xbd025966	-0.03182354
86	0x3cec1be9	0.028821902
87	0x3ce2968f	0.027659683
88	0xbce57a2a	-0.028012354
89	0xbce1e631	-0.027575584
90	0x3ce7666f	0.028247086
91	0xbcf70b58	-0.030156776
92	0xbcf24ba3	-0.029577082
93	0x3cdca505	0.026934156
94	0xbce6179f	-0.028087435
95	0xbcdf563e	-0.027262803
96	0x3ced6ec0	0.028983474
97	0xbcdcd4be	-0.026956912
98	0x3ce69a19	0.028149651
99	0x3cea88fd	0.028629774
100	0xbcdb2036	-0.026748758
101	0x3ce4ea0f	0.02794364
102	0x3cd12b61	0.02553338
103	0xbcddaf7e	-0.02706122
104	0xbcdf4f0a	-0.027259368
105	0x3ce45432	0.027872179
106	0xbcd9b76a	-0.026576716
107	0xbce56e69	-0.02800675
108	0x3ce4ae1d	0.027915055
109	0x3ce3a668	0.02778931
110	0xbced16e8	-0.028941587
111	0x3ce50015	0.02795414
112	0x3cd7de40	0.026351094
113	0xbcea0b42	-0.028569821
114	0x3cda018d	0.026612068
115	0x3cea96e7	0.028636409
116	0xbce1503a	-0.027504075
117	0x3ce28d46	0.027655255
118	0xbce6cf19	-0.028174924
119	0xbcd9a832	-0.02656946
120	0xbced3476	-0.02895568
121	0x3ce4c282	0.02792478
122	0x3cdf7f29	0.027282314
123	0xbcf3d887	-0.029766334
124	0xbce7ce37	-0.028296573
125	0x3ce56656	0.0280029
126	0xbcecd74f	-0.02891126
127	0xbcebe855	-0.028797308
128	0x3cdb6184	0.026779898
129	0x3cedd2ba	0.029031146
130	0xbce30111	-0.02771047
131	0x3cea6312	0.028611694
132	0x3ce6bb5f	0.028165517
133	0xbcdf8733	-0.027286148
134	0x3cdc6b05	0.0269065
135	0x3cdd47b0	0.027011722
136	0xbce49e98	-0.027907655
137	0x3ce6ec99	0.02818899
138	0xbcec8480	-0.028871775
139	0xbcdfa085	-0.027298221
140	0x3cd01df2	0.025404904
141	0xbce06d81	-0.027395966
142	0xbcdc9318	-0.026925609
143	0x3ccefd0a	0.025267143
144	0x3cde86e1	0.027163925
145	0xbce0b4c4	-0.027429946
146	0x3cd44c43	0.02591527
147	0x3cd76b37	0.026296241
148	0xbcdcb19d	-0.026940161
149	0xbcd00c96	-0.025396626
150	0x3cd63289	0.026147144
151	0xbccc6528	-0.024950579
152	0xbceb7800	-0.028743744
153	0x3ce06e32	0.027396295
154	0xbce2865d	-0.02765196
155	0xbcc9f836	-0.024654489
156	0x3ccf9bfe	0.025342938
157	0xbce1da5a	-0.027569938
158	0x3cdac57c	0.026705496
159	0x3cdb2763	0.02675218
160	0x3ce0e4d1	0.027452858
161	0xbceb4470	-0.028719157
162	0xbce46d40	-0.027884126
163	0x3ce076e9	0.02740045
164	0x3ce1fb48	0.02758564
165	0xbce20d74	-0.027594306
166	0x3ce99804	0.02851487
167	0x3ce4a409	0.02791025
168	0xbce84d3a	-0.028357137
169	0xbcdb6eca	-0.026786227
170	0x3cede83e	0.029041406
171	0xbcda15d9	-0.026621746
172	0xbce213e4	-0.027597375
173	0x3ce3936b	0.027780255
174	0xbcd9e877	-0.026600106
175	0xbce0fd38	-0.027464494
176	0x3ce0be88	0.027434602
177	0xbcde1219	-0.027108239
178	0x3ce1bcfa	0.027555931
179	0x3cf169fe	0.029469486
180	0xbcdf51b8	-0.027260646
181	0x3cdef437	0.02721606
182	0x3cdd2863	0.026996797
183	0xbcde5f04	-0.027144916
184	0xbcdaaad8	-0.026692793
185	0x3ce1dcee	0.027571168
186	0xbcdc9b30	-0.026929468
187	0xbce10e8c	-0.027472757
188	0x3cf0cf22	0.029395644
189	0x3ce08bd6	0.027410429
190	0xbcdaec9b	-0.02672415
191	0x3cd70436	0.026247125
192	0x3ce63f33	0.028106308
193	0xbce8a913	-0.028400933
194	0x3ce34fc3	0.027747994
195	0x3ce637c4	0.028102763
196	0xbce66f62	-0.028129283
197	0x3ce266f4	0.027636983
198	0xbcdb20c8	-0.02674903
199	0xbce617b7	-0.02808748
200	0xbcdf66ff	-0.027270792
201	0x3cd58561	0.026064577
202	0x3ce5e340	0.028062463
203	0xbce6ac58	-0.028158352
204	0xbce4ac01	-0.02791405
205	0x3cd87d7d	0.026427025
206	0xbce91bd7	-0.028455658
207	0xbce85eb8	-0.028365478
208	0x3ce442a2	0.027863804
209	0x3cef9d75	0.029249886
210	0xbce45dd6	-0.027876776
211	0x3cdb9fa9	0.02680953
212	0x3ce0eb7f	0.027456043
213	0xbcd12614	-0.025530852
214	0x3cd290e6	0.025703859
215	0x3ceb6b1d	0.028737599
216	0xbcda78a4	-0.026668854
217	0x3cd28a55	0.025700727
218	0xbce7464c	-0.028231762
219	0xbcdc17d7	-0.026866836
220	0xbcde1fb6	-0.02711473
221	0x3ce43633	0.027857875
222	0x3cf0791b	0.029354623
223	0xbce7cfbe	-0.028297301
224	0xbce1b4fd	-0.027552122
225	0x3ce1800c	0.027526878
226	0xbcd42eaf	-0.025901167
227	0xbcdf9edd	-0.027297432
228	0x3cde8563	0.027163213
229	0x3cd33104	0.025780208
230	0xbce3d6b7	-0.027812345
231	0x3cd98e11	0.026557
232	0x3cf3ef6a	0.029777247
233	0xbce11a50	-0.027478367
234	0x3cd424f9	0.025896536
235	0x3ce55cb2	0.027998302
236	0xbceb288f	-0.028705863
237	0x3cf2dcc6	0.029646289
238	0xbcec090f	-0.028812913
239	0xbcd945ca	-0.026522536
240	0xbcdbee84	-0.026847132
241	0x3cf196e0	0.029490888
242	0x3cd5c961	0.026097002
243	0xbce7e2a6	-0.028306317
244	0xbce11708	-0.027476802
245	0x3ce8be1a	0.02841096
246	0xbcf05345	-0.029336581
247	0xbced6cf8	-0.028982624
248	0x3cf6162e	0.030039873
249	0x3cdcd474	0.026956774
250	0xbcdcbd39	-0.026945697
251	0x3cdbe78b	0.026843807
252	0x3ce9d7ee	0.028545346
253	0xbcdbd956	-0.026837032
254	0x3ce1f11c	0.02758079
255	0x3cd0dee8	0.025496915

layers.0.egnn.edge_mlp.3.bias f4 [16]
0	0x3e4aab58	0.19791925
1	0x3e2eba07	0.17063151
2	0x3d9a307b	0.07528778
3	0x3dd72e10	0.105068326
4	0xbdcc68a5	-0.09980897
5	0x3e69b5fa	0.22823325
6	0x3e45e7bc	0.19326681
7	0xbe40c14e	-0.1882374
8	0xbd97ab37	-0.074057035
9	0x3de73838	0.1129002
10	0x3da6222d	0.08111987
11	0x3e390f99	0.18072356
12	0x3d275b47	0.040858533
13	0x3e3d26c5	0.1847182
14	0x3e56159c	0.20906681
15	0x3e20de68	0.15709841

layers.0.egnn.node_mlp.0.weight f4 [8, 20]
0	0xba2b0cc2	-0.00065250334
1	0x3b075ae4	0.002065354
2	0xb9309431	-0.00016839874
3	0x3a574bc4	0.0008212889
4	0xb9e3cfd8	-0.0004345167
5	0xba88cf1c	-0.00104377
6	0x38a9eace	8.102284e-05
7	0x3a73f69e	0.0009306463
8	0xbac55768	-0.0015055956
9	0x3a015b6b	0.0004934582
10	0x3a325146	0.0006802272
11	0x3981d33f	0.00024762188
12	0x3ace43be	0.0015736741
13	0xba4eed45	-0.0007893632
14	0x3a51b607	0.00079998415
15	0x3afe666d	0.0019409187
16	0x39d64793	0.00040870588
17	0x3afc46c5	0.0019247165
18	0xba698c04	-0.00089091086
19	0xba8c78fc	-0.0010717208
20	0xb9c09183	-0.00036729508
21	0x3ab624b6	0.0013896439
22	0xb81a5df4	-3.6803962e-05
23	0xb97273f5	-0.00023122116
24	0x3a3aa91d	0.0007120537
25	0x38a80865	8.012428e-05
26	0x3a9d2e70	0.0011991989
27	0xb9a8ca0c	-0.00032193994
28	0x3a74c7bb	0.00093376235
29	0x3ab13376	0.0013519365
30	0xbac5d929	-0.0015094626
31	0xb859f93c	-5.196895e-05
32	0xb999aac5	-0.00029309667
33	0xba06e1e8	-0.0005145357
34	0x39b97a26	0.00035376957
35	0xb95880ff	-0.0002064742
36	0xba01a446	-0.0004945438
37	0xbab72690	-0.0013973285
38	0xb9eeb8f4	-0.00045532698
39	0xba1f7966	-0.00060834584
40	0xba895a7f	-0.001047924
41	0x3a454c62	0.00075263355
42	0x3b05fb4c	0.0020443974
43	0xb9dc12d2	-0.00041975692
44	0x3b39736d	0.002829756
45	0x3ae237fb	0.0017259115
46	0xba5e4a75	-0.0008479723
47	0xba5b8b16	-0.00083749124
48	0x3ad27ab4	0.0016058297
49	0xbb30eabf	-0.0026995388
50	0x3928908f	0.00016075581
51	0xbb03bb95	-0.0020100821
52	0x38bde957	9.055685e-05
53	0xba84f328	-0.0010143267
54	0xb9d44c63	-0.00040492704
55	0x3af5a485	0.0018741047
56	0xb963c3e7	-0.00021721386
57	0x3b1ad543	0.002362565
58	0x3a4c1330	0.00077848416
59	0x39a66bca	0.00031742296
60	0x3acaa92b	0.0015461793
61	0xbaa2046f	-0.001236094
62	0xba310571	-0.0006752825
63	0x3a004a91	0.0004893924
64	0x39b31ede	0.00034164538
65	0xba4ba8a9	-0.0007768968
66	0x3a098cd6	0.00052471214
67	0xbacbb08c	-0.0015540286
68	0x3a6fd7c1	0.00091492763
69	0xba198c8b	-0.00058574294
70	0xbadbe33c	-0.0016776095
71	0xb7333ae2	-1.0682941e-05
72	0xbb21cb53	-0.002468784
73	0xbac8f4a8	-0.0015331702
74	0x3a0164c9	0.00049359776
75	0x36c7c1ea	5.9532367e-06
76	0x39f6e7f9	0.0004709361
77	0x38cf4c0f	9.884696e-05
78	0x39f751ea	0.00047172542
79	0x3a0dbd4f	0.00054069323
80	0xba3057e6	-0.0006726965
81	0xb86ed0b2	-5.6937984e-05
82	0x3adc8c12	0.0016826412
83	0xba7f62c3	-0.00097421947
84	0x3a26ddc7	0.0006365445
85	0xbabde77c	-0.0014488543
86	0xb97c18a5	-0.00024041774
87	0x3b10510b	0.0022020962
88	0x39899b08	0.00026246184
89	0xbac46a3e	-0.0014985276
90	0x39a2e265	0.00031067725
91	0x3ab51a5e	0.0013817062
92	0xba38233e	-0.00070242945
93	0x3b0768e1	0.0020661878
94	0xbae913c7	-0.0017782383
95	0x38ea1cea	0.00011163375
96	0xbab6d533	-0.0013949036
97	0xba2ab99d	-0.0006512644
98	0xbb03ffff	-0.00201416
99	0x3a4a915b	0.0007727348
100	0xba2e6da5	-0.00066539116
101	0x3ab43263	0.0013747927
102	0xb96a2c90	-0.0002233258
103	0x3742c33c	1.1608758e-05
104	0x39f5da12	0.00046892517
105	0xba3631b4	-0.00069501554
106	0x39eabb35	0.00044771438
107	0x3a1c8b91	0.0005971725
108	0x3a6d37c8	0.00090491446
109	0xb9e7fd56	-0.00044248503
110	0x3964fc20	0.00021837698
111	0xba029eeb	-0.0004982787
112	0xba37217b	-0.0006985885
113	0x39887726	0.00026028714
114	0x3ab26479	0.0013610265
115	0xba9f07e8	-0.0012133094
116	0xba7da03c	-0.0009675061
117	0xb9de3f63	-0.00042390366
118	0xba95ffa3	-0.0011443984
119	0x3984deee	0.00025343098
120	0xbb1a6011	-0.0023555795
121	0x399fe951	0.00030500678
122	0xbab03f77	-0.0013446648
123	0x3a2b1943	0.00065268966
124	0xb9885d26	-0.00026009342
125	0x3ab210a8	0.0013585286
126	0x39ee2131	0.00045419627
127	0x3ad6499f	0.0016348845
128	0x3aa3cc54	0.0012496808
129	0xb8105d37	-3.441909e-05
130	0xba8686d4	-0.0010263571
131	0xb9cfb290	-0.00039615156
132	0xb99af98b	-0.00029559093
133	0x3b08e536	0.0020888573
134	0x3a035cbc	0.0005011072
135	0x3ac72674	0.0015193955
136	0xb9938e1a	-0.000281439
137	0x39b472e6	0.0003441788
138	0x39670b61	0.00022034116
139	0xbac250c2	-0.0014825093
140	0xbb1328c6	-0.0022454723
141	0x3a6ee543	0.0009113142
142	0xb94b8ec6	-0.00019412776
143	0x39a5318c	0.00031508168
144	0xba3f7896	-0.00073040405
145	0xba17ee4a	-0.00057957007
146	0xba77596a	-0.0009435626
147	0xb79c3525	-1.8621397e-05
148	0x3a4a4f58	0.00077175116
149	0xbacb1c08	-0.0015496025
150	0xba030e22	-0.00049993594
151	0xba2631e1	-0.000633983
152	0x3a990b11	0.0011676272
153	0x39378e79	0.00017505315
154	0x3a16f86e	0.0005759065
155	0x3a6b50fd	0.0008976607
156	0xba151b4e	-0.00056879676
157	0x3adc3b3c	0.0016802321
158	0x38d78e05	0.00010278452
159	0xba011e1f	-0.0004925448

layers.0.egnn.node_mlp.0.bias f4 [8]
0	0x3e1466a6	0.14492282
1	0xbdabedaf	-0.08394944
2	0x3e5b9cf4	0.21446592
3	0x3cda6f16	0.026664298
4	0xbd87ee8e	-0.066372976
5	0x3ddb36eb	0.10703834
6	0xbe25e3d2	-0.16200188
7	0x3ddf7f43	0.10912945

layers.0.egnn.node_mlp.3.weight f4 [4, 8]
0	0x39cccd40	0.00039062835
1	0xba49159f	-0.00076707633
2	0xb837f108	-4.3855078e-05
3	0xb9ea3864	-0.00044673972
4	0xb9d8ad87	-0.00041328018
5	0xb87a94e2	-5.9743303e-05
6	0x3a2f950b	0.00066979293
7	0xb76b2f0a	-1.4018044e-05
8	0x3a20822e	0.0006122914
9	0xb8c2ce13	-9.289025e-05
10	0x39a06dbe	0.00030599342
11	0x3a04c7ca	0.0005065171
12	0x3acdffe9	0.0015716526
13	0xbab51637	-0.0013815825
14	0x3a5e6f2c	0.0008485194
15	0xba52f2bd	-0.0008047035
16	0x3a6d9838	0.0009063515
17	0xba01170c	-0.0004924394
18	0xb9da9975	-0.00041694535
19	0xba7a862a	-0.0009556735
20	0x39073705	0.000128951
21	0xba64a68c	-0.0008722327
22	0x39bc282b	0.00035888082
23	0xb896d237	-7.191713e-05
24	0x39e8b663	0.00044386377
25	0xba7f62f9	-0.0009742226
26	0x3a6f5aaa	0.00091306365
27	0x391cc9cf	0.00014952499
28	0xba3db5f8	-0.0007236893
29	0xba98dcc5	-0.0011662474
30	0xba1ecf60	-0.0006058123
31	0x39e2817d	0.00043202555

layers.0.egnn.node_mlp.3.bias f4 [4]
0	0xbe6a48f3	-0.2287939
1	0x3d179f85	0.037017364
2	0x3e588104	0.21142966
3	0xbe88dc9e	-0.26730818

layers.0.egnn.coors_mlp.0.weight f4 [64, 16]
0	0x3cbeff0a	0.023314971
1	0x3cbbccbf	0.022924779
2	0x3cbfe584	0.023424871
3	0x3cc2a4be	0.023760196
4	0xbcc2e035	-0.02378855
5	0x3cc6f259	0.024285482
6	0x3cbc7f7d	0.02301001
7	0xbcbbce3e	-0.022925492
8	0xbcc6b569	-0.024256425
9	0x3cba592a	0.022747595
10	0x3cc94c25	0.024572441
11	0x3cb02751	0.021503123
12	0x3cc48574	0.023989417
13	0x3cb9595d	0.02262562
14	0x3cba90a2	0.022774044
15	0x3cc28a01	0.023747446
16	0x3ca5beca	0.020232577
17	0x3ca9f45d	0.020746404
18	0x3cc09ed2	0.023513231
19	0x3cb661de	0.022263464
20	0xbcb4603d	-0.022018546
21	0x3cbfdac8	0.023419753
22	0x3cb9a058	0.022659466
23	0xbcaf01d9	-0.021363186
24	0xbcc931e0	-0.024559915
25	0x3cb52990	0.022114545
26	0x3cb707fc	0.022342674
27	0x3cb348d3	0.021885311
28	0x3cdaa654	0.02669064
29	0x3cab2967	0.020893766
30	0x3ca84928	0.020542696
31	0x3cb6cb26	0.022313666
32	0x3cc65481	0.024210216
33	0x3cba5755	0.022746721
34	0x3cd067da	0.025440145
35	0x3cc3c482	0.023897413
36	0xbccaa379	-0.024736153
37	0x3cc2d29a	0.023782063
38	0x3cc75d76	0.024336558
39	0xbcb9dab7	-0.0226873
40	0xbccd251e	-0.025042113
41	0x3cce4d1a	0.02518325
42	0x3cd96d91	0.026541503
43	0x3cc2d231	0.023781868
44	0x3cdfe08c	0.027328752
45	0x3cbd6755	0.023120562
46	0x3cbb2386	0.022844087
47	0x3cca087d	0.02466225
48	0x3ca82c38	0.020528898
49	0x3cb7d33d	0.022439593
50	0x3ccdb11d	0.025108868
51	0x3ccccc14	0.024999656
52	0xbcd61be6	-0.02613635
53	0x3caf6abf	0.021413205
54	0x3cb7d5ba	0.02244078
55	0xbcb63c0d	-0.022245431
56	0xbccfd71a	-0.025371123
57	0x3cc246d5	0.023715416
58	0x3ccaa99d	0.024739081
59	0x3cc46a26	0.023976397
60	0x3ccc6b9c	0.024953656
61	0x3cb342fa	0.021882523
62	0x3cb62031	0.022232147
63	0x3cbe7ac9	0.023251908
64	0xbcbfc910	-0.023411304
65	0xbcc6b075	-0.024254063
66	0xbccd1de8	-0.025038674
67	0xbcc3d147	-0.023903502
68	0x3cc3318b	0.023827335
69	0xbca8ed1b	-0.020620873
70	0xbcb8bfcf	-0.022552399
71	0x3cbd0600	0.02307415
72	0x3cc780a3	0.024353331
73	0xbcc47b61	-0.023984613
74	0xbcbdef51	-0.023185404
75	0xbcc58769	-0.02411242
76	0xbce37b42	-0.027768735
77	0xbcbd024a	-0.02307238
78	0xbcbafdff	-0.022826193
79	0xbcbc40ca	-0.022980113
80	0x3cd293f0	0.025705308
81	0x3cc9e576	0.024645548
82	0x3cd3b576	0.025843363
83	0x3cdce9c2	0.026966933
84	0xbcd0b7e9	-0.02547832
85	0x3cc8e56a	0.024523456
86	0x3cc5ddf0	0.02415368
87	0xbcc4e8fe	-0.02403688
88	0xbcd30984	-0.025761373
89	0x3cc537b2	0.02407441
90	0x3cd98d0a	0.02655651
91	0x3ccf7365	0.02532358
92	0x3ce95c8d	0.028486514
93	0x3cc5545d	0.02408808
94	0x3cbd2c8a	0.023092527
95	0x3cc5d551	0.024149569
96	0x3cc64045	0.024200568
97	0x3ccc734e	0.024957325
98	0x3cd47b34	0.025937654
99	0x3cd9d51a	0.026590873
100	0xbccb037f	-0.02478194
101	0x3cc0fb8b	0.023557445
102	0x3ccd7a45	0.025082717
103	0xbcc827b1	-0.024432989
104	0xbcd7cb25	-0.026341984
105	0x3cd13ade	0.025540765
106	0x3cbe0b77	0.023198826
107	0x3cc502e7	0.024049236
108	0x3ce62c5c	0.028097324
109	0x3cbd2b53	0.023091948
110	0x3cb51448	0.022104397
111	0x3ccf7cbf	0.025328038
112	0x3cbe305e	0.023216423
113	0x3cbc8603	0.02301312
114	0x3cdb5402	0.026773456
115	0x3cb9ba82	0.022671942
116	0xbcd4e3af	-0.025987474
117	0x3cc0de11	0.02354339
118	0x3cc85dbc	0.024458759
119	0xbcaf73e5	-0.021417568
120	0xbcc56cab	-0.024099668
121	0x3cc2f7f6	0.023799878
122	0x3cc84244	0.02444566
123	0x3cc34477	0.023836358
124	0x3ce4f1cf	0.027947335
125	0x3cbed884	0.023296602
126	0x3cb379f4	0.021908738
127	0x3cbab3a3	0.022790736
128	0xbcb73349	-0.022363322
129	0xbc9e611e	-0.019333418
130	0xbcbf7be2	-0.023374502
131	0xbcb81c98	-0.022474572
132	0x3cb22a22	0.021748606
133	0xbcb0b96f	-0.021572797
134	0xbca3841f	-0.019960461
135	0x3cb5e86d	0.022205556
136	0x3cb5d28d	0.022195125
137	0xbcba8f62	-0.022773448
138	0xbcbf8b4b	-0.02338185
139	0xbcab92a6	-0.02094395
140	0xbccc3672	-0.024928305
141	0xbca93071	-0.020652981
142	0xbca82fe6	-0.020530652
143	0xbca2b21e	-0.019860324
144	0x3cbe827b	0.023255577
145	0x3ccf1802	0.025280003
146	0x3cd24671	0.025668355
147	0x3cc42fa8	0.023948506
148	0xbcd45ed6	-0.025924128
149	0x3cbd4b42	0.023107175
150	0x3cb30b8c	0.021856092
151	0xbcbca9fb	-0.023030272
152	0xbcbb0cb8	-0.022833213
153	0x3cc64431	0.024202438
154	0x3cd26c7b	0.025686493
155	0x3ccd8603	0.025088316
156	0x3cde9dc5	0.02717484
157	0x3cc05317	0.02347712
158	0x3cc9f256	0.024651688
159	0x3cc2d396	0.023782533
160	0xbcb6446e	-0.022249427
161	0xbcb4369b	-0.021998694
162	0xbcb82e71	-0.022483082
163	0xbcb8e7b8	-0.02257143
164	0x3cc1c2ec	0.023652516
165	0xbcb47800	-0.022029877
166	0xbcbabcd0	-0.022795111
167	0x3cb2f01f	0.021843014
168	0x3cc35356	0.023843449
169	0xbcbf3da2	-0.023344819
170	0xbcc59f68	-0.024123862
171	0xbcc0b4de	-0.023523744
172	0xbcc8bd0e	-0.02450421
173	0xbcc9b843	-0.024623996
174	0xbcbe375c	-0.023219757
175	0xbcb90844	-0.02258695
176	0x3cbd9b7c	0.02314543
177	0x3cd1f222	0.025628153
178	0x3cd3d32b	0.025857529
179	0x3cc76da6	0.024344277
180	0xbcc553a1	-0.024087729
181	0x3cae7213	0.02129463
182	0x3cc4f079	0.024040448
183	0xbcbe4eeb	-0.02323099
184	0xbcc569c4	-0.024098285
185	0x3cc78dde	0.02435964
186	0x3cca148b	0.024667999
187	0x3cc37fc6	0.023864638
188	0x3ce5c7f2	0.028049443
189	0x3cceab1f	0.025228081
190	0x3cb51a6d	0.022107327
191	0x3cb4b23b	0.022057643
192	0x3cba43b0	0.022737354
193	0x3cbf799e	0.023373421
194	0x3cc86e0b	0.024466535
195	0x3ccee24e	0.025254395
196	0xbccb1dd7	-0.024794502
197	0x3cb68a69	0.022282796
198	0x3cc0c3ae	0.023530807
199	0xbcb58aba	-0.022160877
200	0xbccd1d9a	-0.02503853
201	0x3cbf78f6	0.023373108
202	0x3cc55ee8	0.024093106
203	0x3cb39198	0.02192001
204	0x3cd9d097	0.026588721
205	0x3cb1953a	0.021677602
206	0x3ccad276	0.024758559
207	0x3cbd3d3e	0.023100492
208	0xbca780cb	-0.020447155
209	0xbcb4d800	-0.022075653
210	0xbccd673b	-0.025073638
211	0xbcce0ba3	-0.025152033
212	0x3cc46096	0.023971837
213	0xbcc297d1	-0.023754032
214	0xbcb2c9ee	-0.021824803
215	0x3cbaa930	0.022785753
216	0x3cb6e428	0.02232559
217	0xbcb76323	-0.02238614
218	0xbcb7c706	-0.022433769
219	0xbcaf4a47	-0.021397723
220	0xbcc8bf16	-0.02450518
221	0xbcb0924e	-0.021554139
222	0xbcb3b14f	-0.021935133
223	0xbcb50d5e	-0.0221011
224	0x3cbe776d	0.023250306
225	0x3cb5b793	0.022182262
226	0x3cc00293	0.023438727
227	0x3cbe49d2	0.02322856
228	0xbcb5f790	-0.022212774
229	0x3caedb15	0.0213447
230	0x3cc35b7e	0.023847338
231	0xbcbd5ac0	-0.023114562
232	0xbcc4b81c	-0.024013571
233	0x3ccccff9	0.025001513
234	0x3ccced8f	0.02501562
235	0x3cb1c31d	0.021699483
236	0x3cd94ddb	0.026526382
237	0x3caeb717	0.021327538
238	0x3cb193e0	0.021676958
239	0x3cb04043	0.021515017
240	0x3cb3328b	0.021874687
241	0x3cb9c658	0.022677585
242	0x3cb59f8e	0.022170808
243	0x3cbe1ef4	0.023208119
244	0xbcb21226	-0.02173717
245	0x3cb41277	0.021981461
246	0x3cb317ad	0.021861875
247	0xbca8dcb1	-0.020613046
248	0xbcb4f9d1	-0.022091778
249	0x3cc196e7	0.023631526
250	0x3cc05eed	0.023482764
251	0x3cb24654	0.02176205
252	0x3cd21c29	0.025648193
253	0x3cbf0321	0.023316922
254	0x3cb362f5	0.021897772
255	0x3cb80085	0.022461185

layers.0.egnn.coors_mlp.0.bias f4 [64]
0	0x3dae0917	0.084978275
1	0x3d2fad5b	0.042889934
2	0x3d578687	0.05261853
3	0x3e34fb3c	0.17673963
4	0xbe01571a	-0.12630883
5	0x3d1e7d43	0.038693678
6	0x3e2aca0e	0.1667864
7	0x3e81ec7f	0.25375745
8	0xbdc00fe3	-0.0937803
9	0x3de4c70d	0.111707784
10	0xbe46d596	-0.19417414
11	0x3d5c7fb2	0.053832717
12	0x3e26476e	0.16238186
13	0xbe224711	-0.15847422
14	0x3d93c52f	0.07215344
15	0x3e84894b	0.25885996
16	0xbe4baf6a	-0.19891134
17	0x3ddfa3dc	0.109199256
18	0x3e6de71a	0.2323269
19	0x3ce46531	0.027880283
20	0x3de9389a	0.11387749
21	0xbe121629	-0.14266266
22	0x3e7a5fdb	0.24450628
23	0xbdede3a5	-0.116156854
24	0x3d703a90	0.0586496
25	0x3dba3d45	0.090937175
26	0x3e1a1ba7	0.15049611
27	0x3d8fbca7	0.070184045
28	0x3cfd710d	0.030937696
29	0xbe590a22	-0.21195272
30	0x3e570586	0.20998201
31	0x3e5f0899	0.21780623
32	0xbdfa715b	-0.12228652
33	0xbdecb7a2	-0.11558463
34	0x3e614997	0.22000729
35	0xbe1217ed	-0.1426694
36	0x3e6fc562	0.2341514
37	0xbdaf3b46	-0.085562274
38	0x3d3c4142	0.045960672
39	0xbe84fe60	-0.25975323
40	0x3e0d61c8	0.13806832
41	0xbdd592a5	-0.10428361
42	0x3d4e6666	0.050390624
43	0xbe5255e0	-0.20540571
44	0x3dfb40cf	0.12268221
45	0xbd8cc150	-0.06872809
46	0x3e85aa3d	0.26106444
47	0x3e4c82b8	0.1997174
48	0xbe69f19e	-0.22846076
49	0xbe3b1c2f	-0.1827247
50	0x3d66c214	0.05633743
51	0xbe843f1e	-0.25829405
52	0x3e1b03b6	0.15138134
53	0xbe577dfb	-0.21044151
54	0xbd9f1468	-0.07767564
55	0xbdcc228f	-0.09967529
56	0xbe839327	-0.25698206
57	0xbd1a9351	-0.037738148
58	0xbdcfc87e	-0.10145663
59	0x3e58efbd	0.21185203
60	0xbdeb172a	-0.114790276
61	0x3e369c19	0.17832984
62	0xbd6b6c4d	-0.05747633
63	0x3dfd951f	0.12381958

layers.0.egnn.coors_mlp.3.weight f4 [1, 64]
0	0xbc869a70	-0.016431063
1	0xbc9687a0	-0.018375218
2	0xbc99d6bf	-0.018779157
3	0xbc85dc48	-0.01634039
4	0x3c843c75	0.01614211
5	0xbca31f6c	-0.019912444
6	0xbc7d9b98	-0.015478991
7	0xbc85f808	-0.016353622
8	0x3c77e9ee	0.015131457
9	0xbc8460a8	-0.01615937
10	0x3c82a45e	0.015947517
11	0xbc9b6d2a	-0.018972952
12	0xbc829bcb	-0.015943429
13	0x3c7770c7	0.015102572
14	0xbc866d6f	-0.016409604
15	0xbc6cb964	-0.014448497
16	0x3c87b75a	0.016566921
17	0xbc8b266f	-0.0169861
18	0xbc68ca9d	-0.014208463
19	0xbcb0e9ea	-0.021595914
20	0xbc8b2624	-0.01698596
21	0x3c693f6c	0.014236312
22	0xbc69947f	-0.014256596
23	0x3c8717ad	0.016490782
24	0xbc950e40	-0.018195271
25	0xbc78e27e	-0.015190719
26	0xbc8c10ed	-0.017097915
27	0xbc8fe212	-0.017563853
28	0xbcb08c7b	-0.021551361
29	0x3c86e0e0	0.01646465
30	0xbc6c3383	-0.014416578
31	0xbc869a02	-0.016430859
32	0x3c816658	0.015795872
33	0x3c6e4c33	0.0145445345
34	0xbc6a3333	-0.014294433
35	0x3c861a6a	0.016370017
36	0xbc75ff6d	-0.0150145115
37	0x3c82c47c	0.015962832
38	0xbca11a20	-0.019665778
39	0x3c5bdf20	0.013419896
40	0xbc890e69	-0.016730504
41	0x3c8384ae	0.016054478
42	0xbc98e372	-0.018663142
43	0x3c83f04c	0.016105793
44	0xbc7db2e3	-0.015484544
45	0x3c9072dc	0.017632894
46	0xbc5e6ee2	-0.013576241
47	0xbc797fc0	-0.015228212
48	0x3c5e4095	0.013565202
49	0x3c7c0b9c	0.015383627
50	0xbca38a47	-0.019963397
51	0x3c7844d7	0.015153131
52	0xbc873e04	-0.016509064
53	0x3c80e0c0	0.01573217
54	0x3c869434	0.01642809
55	0x3c6bfb33	0.014403152
56	0x3c783e03	0.0151515035
57	0x3ca129bb	0.019673219
58	0x3c7d3fca	0.015457103
59	0xbc74717d	-0.014919636
60	0x3c831456	0.016000908
61	0xbc682416	-0.01416876
62	0x3c960327	0.01831205
63	0xbc86baa1	-0.016446413

layers.0.egnn.vel_mlp.0.weight f4 [16, 4]
0	0xba241382	-0.00062590104
1	0x398581da	0.00025464484
2	0x39ff6bb5	0.00048717638
3	0x3a5ae8e3	0.0008350743
4	0xb93dabbf	-0.00018088425
5	0xb9a5a848	-0.00031596632
6	0x3a88f711	0.0010449608
7	0xba687985	-0.00088682055
8	0xba3f9a27	-0.0007309042
9	0x3abc29ca	0.0014355716
10	0x39f0e3b4	0.0004594602
11	0xba3c25a4	-0.000717724
12	0xb8d556f5	-0.000101728285
13	0x392b4035	0.0001633175
14	0x3a1b8f47	0.0005934131
15	0xba8656c0	-0.0010249242
16	0x3ab21d85	0.001358912
17	0xb9f04d96	-0.00045834173
18	0xb9b25e55	-0.00034021089
19	0xbadb451d	-0.0016728971
20	0x39d5abed	0.0004075462
21	0x3931ae60	0.00016944995
22	0x3a34ef2b	0.0006902094
23	0xb9b2a670	-0.0003407481
24	0x3a07db4d	0.00051825197
25	0xbaa234ea	-0.0012375389
26	0xbaf2598b	-0.0018489821
27	0xbb2a22ca	-0.0025960677
28	0xbabc53e0	-0.0014368258
29	0x3a191de8	0.0005840943
30	0x39e515b3	0.0004369445
31	0xb95507bc	-0.00020316144
32	0xba3a0389	-0.00070958637
33	0x3a10cb0c	0.00055234204
34	0x3a0599f3	0.00050964876
35	0x38dc629d	0.000105087856
36	0x3a957951	0.0011403953
37	0xbaa7028d	-0.0012741849
38	0x3a835b87	0.0010021784
39	0x391b54c0	0.00014813524
40	0xba295d7d	-0.0006460769
41	0x39d6e674	0.00040988962
42	0x3b1ca3d6	0.0023901365
43	0xb989ae34	-0.00026260468
44	0xba887483	-0.00104107
45	0x3a6b3e82	0.0008973853
46	0x3a8a006c	0.001052869
47	0x3a33461a	0.0006838754
48	0xb98077e5	-0.0002450339
49	0x39b0ebcf	0.00033745027
50	0xb9f31e6e	-0.00046371244
51	0xba9926c4	-0.0011684527
52	0xb9bb5eaf	-0.00035737964
53	0xb9d98ae5	-0.0004149295
54	0x3a7f4435	0.00097376417
55	0x3a25cda0	0.0006324891
56	0x3a19d951	0.00058688695
57	0xb9cb36e3	-0.0003876007
58	0xb975fd53	-0.00023459391
59	0xb9db3438	-0.0004180984
60	0x3a2d046d	0.0006600086
61	0x3aec71c9	0.0018039282
62	0xba7836a6	-0.00094685925
63	0xbac02c87	-0.0014661708

layers.0.egnn.vel_mlp.0.bias f4 [16]
0	0xbbd5bd47	-0.0065228078
1	0x3ef4eeb5	0.4783837
2	0x3eb36b43	0.35042772
3	0x3dc9cfed	0.09854112
4	0xbf002a91	-0.5006495
5	0xbea7c5ba	-0.3276804
6	0xbed3b14e	-0.4134621
7	0x3ea66b88	0.32503915
8	0xbdf5e92f	-0.12007367
9	0xbe5f31da	-0.2179636
10	0x3e69bf14	0.22826797
11	0x3df8caa1	0.121480234
12	0x3e839e21	0.2570658
13	0xbd889b8f	-0.066702954
14	0xbed010d3	-0.40637836
15	0xbe0c1d6b	-0.13683097

layers.0.egnn.vel_mlp.3.weight f4 [1, 16]
0	0x39477872	0.00019022988
1	0x3a066628	0.0005126917
2	0x386f5a0b	5.70659e-05
3	0x3a29b816	0.00064742693
4	0x39f1bb9d	0.00046106885
5	0x391d46e2	0.00014999093
6	0xba12c926	-0.00055994315
7	0xb7735fc2	-1.4506224e-05
8	0x38776090	5.897932e-05
9	0x39c23ace	0.00037046376
10	0x399bafe2	0.00029694947
11	0x398d275d	0.00026922944
12	0xb9b5245a	-0.00034550094
13	0x38a63065	7.924511e-05
14	0xb8b4294f	-8.590763e-05
15	0x3a1f8612	0.00060853467

layers.1.egnn.edge_mlp.0.weight f4 [20, 10]
0	0x3c67ed6f	0.01415573
1	0x3cd3191f	0.025768815
2	0xbd829c07	-0.06377416
3	0x3cffd3f0	0.03122899
4	0x3c9eb9c2	0.019375686
5	0x3d0cdee6	0.03439226
6	0xbd7811e3	-0.060563933
7	0x3d126b73	0.035747003
8	0x3bef0f15	0.007295499
9	0x3d9b56c0	0.075849056
10	0xbd8f4133	-0.06994858
11	0xbda2f717	-0.07957285
12	0xbaa84a09	-0.0012839447
13	0xbda84d5e	-0.082178816
14	0xbd958eca	-0.073026255
15	0xbdacf641	-0.08445407
16	0xbb6dbf51	-0.0036277364
17	0xbdb04fe9	-0.08608992
18	0xbd4832dd	-0.048876632
19	0xbde9e7ba	-0.114211515
20	0x3c81729e	0.015801724
21	0x3cf39232	0.029732797
22	0xbd61177f	-0.05495405
23	0x3cfde366	0.030992221
24	0x3cbf5399	0.023355292
25	0x3d108cb2	0.035290428
26	0xbd5d3c93	-0.054012846
27	0x3d149222	0.036272176
28	0x3c0334cf	0.008008196
29	0x3d95f87c	0.07322785
30	0x3c74763c	0.014920767
31	0x3ceb8c18	0.028753325
32	0xbd747d48	-0.05968979
33	0x3cf9fbe8	0.030515626
34	0x3c9a3c7a	0.018827666
35	0x3d0796a9	0.033102665
36	0xbd67b03e	-0.056564562
37	0x3d0e0b77	0.034678902
38	0x3c04b111	0.008098857
39	0x3d9a765b	0.07542106
40	0x3c8b1728	0.016978815
41	0x3cff2c33	0.031149006
42	0xbd5733cf	-0.052539643
43	0x3d0a5edd	0.033781875
44	0x3cc70b43	0.024297362
45	0x3d124117	0.035706606
46	0xbd4d59ef	-0.050134595
47	0x3d140c1d	0.036144365
48	0x3c395166	0.011310911
49	0x3d967e87	0.07348352
50	0xbd9a54a4	-0.07535675
51	0xbdb3d7c8	-0.087813914
52	0xbc74ed9a	-0.014949227
53	0xbdb3474d	-0.08753834
54	0xbda87ed5	-0.08227316
55	0xbdbe2588	-0.09284502
56	0xbc912ca0	-0.017721474
57	0xbdbe8e78	-0.093045175
58	0xbd64b58b	-0.055837195
59	0xbdf56e98	-0.11983985
60	0xbd9a9d9f	-0.07549595
61	0xbdb1d2bf	-0.08682775
62	0xbc56f6bd	-0.01312035
63	0xbdb0eda9	-0.0863908
64	0xbda43add	-0.0801904
65	0xbdb9db1a	-0.090749934
66	0xbc820b73	-0.0158746
67	0xbdb92590	-0.090403676
68	0xbd61ecd6	-0.055157505
69	0xbdf2e514	-0.118600994
70	0xbdae397a	-0.085070565
71	0xbdc51720	-0.09623551
72	0xbcd16b7d	-0.02556395
73	0xbdbef66f	-0.09324347
74	0xbdb6eebf	-0.08932256
75	0xbdc520a8	-0.09625369
76	0xbcecaa11	-0.028889688
77	0xbdc98faf	-0.098418586
78	0xbd7cdc76	-0.061733685
79	0xbdfa4cbf	-0.122216694
80	0xbd95b43e	-0.07309769
81	0xbdad13b7	-0.08451026
82	0xbc102213	-0.008797186
83	0xbdb244f8	-0.08704561
84	0xbda15f44	-0.078794986
85	0xbdb63a90	-0.08897889
86	0xbc2773a5	-0.010220443
87	0xbdb8f107	-0.09030347
88	0xbd593603	-0.053030025
89	0xbdeee00e	-0.11663829
90	0x3c7b32d3	0.015331942
91	0x3ce3a505	0.027788648
92	0xbd7ab3d6	-0.06120666
93	0x3ceffff5	0.029296855
94	0x3cae54c5	0.021280656
95	0x3d09d297	0.0336481
96	0xbd716b3c	-0.058940157
97	0x3d0fbfde	0.03509509
98	0x3c11cb99	0.008898639
99	0x3d98aaa0	0.07454419
100	0x3c5fa0f1	0.013649211
101	0x3cfb5f4b	0.030685088
102	0xbd78bf2d	-0.060729194
103	0x3d00fd43	0.03149153
104	0x3c997e48	0.018736973
105	0x3d0eb856	0.034843765
106	0xbd66b2a2	-0.0563227
107	0x3d15f83b	0.036613684
108	0x3bf1f22e	0.0073836064
109	0x3d99f9d2	0.075183526
110	0x3c725e41	0.01479298
111	0x3cfeb934	0.031094171
112	0xbd7986ed	-0.06091969
113	0x3cfd5408	0.030923858
114	0x3ca50ac5	0.020146737
115	0x3d0e708e	0.03477531
116	0xbd75eca1	-0.06004012
117	0x3d0ffaae	0.035151176
118	0x3be446ac	0.0069664326
119	0x3d9a183f	0.07524156
120	0x3c6ebc90	0.014571324
121	0x3cfbf882	0.030758146
122	0xbd69b4b0	-0.057057083
123	0x3cf47a68	0.029843524
124	0x3cad3fad	0.021148527
125	0x3d0d4ca6	0.034496926
126	0xbd5e3b3d	-0.054255713
127	0x3d135666	0.035971068
128	0x3c0cd1dd	0.008594957
129	0x3d947463	0.072487615
130	0xbd916336	-0.07099001
131	0xbda8755c	-0.082255095
132	0xbb928164	-0.004470991
133	0xbda6fc10	-0.08153546
134	0xbd9a79d1	-0.07542766
135	0xbdaf4a61	-0.085591085
136	0xbbb7ec13	-0.005612859
137	0xbdb6a541	-0.089182384
138	0xbd54101f	-0.051773187
139	0xbdeb8cfc	-0.115015
140	0xbd930f54	-0.07180658
141	0xbda9faab	-0.08299764
142	0xbbc2ded4	-0.0059469733
143	0xbda8d543	-0.082438014
144	0xbd9b2de4	-0.07577112
145	0xbdafd95b	-0.08586379
146	0xbc03aab1	-0.0080363015
147	0xbdb0289a	-0.08601494
148	0xbd5571b4	-0.05211039
149	0xbdee662d	-0.11640582
150	0xbd90c13b	-0.07068106
151	0xbda9ac9f	-0.08284878
152	0xbba9da0f	-0.0051834653
153	0xbdaca673	-0.08430185
154	0xbd99cc2a	-0.07509644
155	0xbdafd331	-0.085852034
156	0xbbff599e	-0.0077926656
157	0xbdb4ac27	-0.08821898
158	0xbd530c07	-0.051525142
159	0xbdef6328	-0.116888344
160	0x3c7c083e	0.015382824
161	0x3cf2f5ec	0.02965828
162	0xbd841b7b	-0.06450554
163	0x3cf0ae25	0.029379914
164	0x3c914f26	0.017737936
165	0x3d02f4b3	0.031971645
166	0xbd7f0dfc	-0.062269196
167	0x3d0cb645	0.034353513
168	0x3bd303ad	0.006439647
169	0x3d98f0d2	0.07467808
170	0x3c67a3ad	0.014138144
171	0x3ceb99fe	0.028759953
172	0xbd83c1af	-0.064334266
173	0x3cf2334b	0.029565474
174	0x3ca6c464	0.020357318
175	0x3d0cca9d	0.034372915
176	0xbd7f6f25	-0.062361855
177	0x3d15fb77	0.03661677
178	0x3be2c021	0.006919876
179	0x3d9c1cfb	0.07622715
180	0x3c65ac06	0.014018064
181	0x3cf3ca34	0.029759504
182	0xbd83757c	-0.06418893
183	0x3cfa76b7	0.030574186
184	0x3c9bfb6c	0.019040786
185	0x3d08d6fa	0.033408143
186	0xbd7cd68d	-0.06172805
187	0x3d0c3afa	0.034235932
188	0x3bc94b65	0.006143021
189	0x3d9e91a6	0.07742624
190	0x3c819a25	0.015820572
191	0x3cf01020	0.029304564
192	0xbd7f61bb	-0.062349062
193	0x3ceb901b	0.028755238
194	0x3ca58b1f	0.02020794
195	0x3d0d3b21	0.034480218
196	0xbd69131c	-0.05690299
197	0x3d148738	0.036261767
198	0x3bb19560	0.005419418
199	0x3d9984a6	0.07496004

layers.1.egnn.edge_mlp.0.bias f4 [20]
0	0x3e9f354d	0.31095353
1	0xbe8c5b39	-0.27413347
2	0x3e052ef6	0.13006195
3	0x3e6966ac	0.22793072
4	0x3db89af0	0.09013927
5	0xbea0453b	-0.3130282
6	0xbeaa0d3d	-0.33213225
7	0xbec26765	-0.3796951
8	0xbe995298	-0.29945827
9	0x3e9e7032	0.30944973
10	0x3e7048d0	0.23465276
11	0x3e853817	0.26019356
12	0x3e20db34	0.1570862
13	0xbe8794f9	-0.26480845
14	0xbe88db77	-0.26729938
15	0xbe8abecc	-0.2709869
16	0x3eb67b6d	0.3564104
17	0x3ebcf00a	0.36901885
18	0x3ea879c5	0.32905403
19	0x3e6e3de1	0.23265792

layers.1.egnn.edge_mlp.3.weight f4 [16, 20]
0	0xbd69184b	-0.056907933
1	0x3d83a6f3	0.064283274
2	0xbd5bbdaa	-0.053647675
3	0xbd5fc92e	-0.05463522
4	0xbd55a90f	-0.05216318
5	0x3d885fa1	0.06658865
6	0x3d84c1f3	0.064823054
7	0x3d8930e2	0.06698777
8	0x3d86ae4b	0.065762125
9	0xbd670ded	-0.056409765
10	0xbd6adcca	-0.057339467
11	0xbd6b5406	-0.057453178
12	0xbd5d9e64	-0.05410613
13	0x3d82e204	0.06390765
14	0x3d84dfce	0.06488
15	0x3d86302e	0.06552158
16	0xbd73f537	-0.059560027
17	0xbd76a791	-0.060218398
18	0xbd7267f2	-0.05918116
19	0xbd723417	-0.059131708
20	0x3d3ac52b	0.04559819
21	0xbd5b9fd1	-0.05361921
22	0x3d295c89	0.041348014
23	0x3d2f0fc6	0.042739652
24	0x3d169c63	0.036770236
25	0xbd600114	-0.05468853
26	0xbd64e95e	-0.05588662
27	0xbd67a5d6	-0.056554638
28	0xbd58c8e6	-0.052925967
29	0x3d3e6095	0.046478827
30	0x3d331096	0.04371699
31	0x3d3c3b67	0.045955088
32	0x3d24928d	0.040178824
33	0xbd55bf6c	-0.052184507
34	0xbd5370c9	-0.051621232
35	0xbd50d40e	-0.05098348
36	0x3d3fc5bf	0.046819445
37	0x3d3cf6bf	0.046133753
38	0x3d39bc9e	0.045345895
39	0x3d32482c	0.04352586
40	0x3d3bb242	0.045824297
41	0xbd5bd51b	-0.05367003
42	0x3d265727	0.04061046
43	0x3d38eacd	0.0451458
44	0x3d1b4208	0.03790477
45	0xbd5ab9fc	-0.053400025
46	0xbd652d75	-0.055951554
47	0xbd6a36a1	-0.057181004
48	0xbd57cf0c	-0.05268769
49	0x3d3839af	0.044976886
50	0x3d32a3c6	0.043613218
51	0x3d3973b6	0.045276366
52	0x3d27fe44	0.04101397
53	0xbd5611d3	-0.052263092
54	0xbd4d1672	-0.050070234
55	0xbd528408	-0.051395446
56	0x3d439738	0.047751635
57	0x3d42227e	0.047396176
58	0x3d41bf40	0.04730153
59	0x3d41ab84	0.04728271
60	0x3d3e3c70	0.046444356
61	0xbd588b92	-0.05286748
62	0x3d252bb6	0.04032489
63	0x3d2eac69	0.042644892
64	0x3d140aca	0.0361431
65	0xbd6517a1	-0.055930737
66	0xbd656440	-0.05600381
67	0xbd64b670	-0.05583805
68	0xbd5b58ae	-0.05355137
69	0x3d3bb975	0.045831162
70	0x3d3c782e	0.04601305
71	0x3d38117a	0.044938542
72	0x3d2fa24f	0.0428794
73	0xbd54958b	-0.051900428
74	0xbd561105	-0.052262325
75	0xbd5333bd	-0.051563013
76	0x3d43790d	0.047722865
77	0x3d4931b6	0.049119674
78	0x3d4818b5	0.048851687
79	0x3d3bb9d4	0.045831516
80	0xbd6d6b76	-0.05796381
81	0x3d8503b1	0.06494845
82	0xbd613922	-0.054986127
83	0xbd649ece	-0.05581551
84	0xbd4c49ff	-0.049875256
85	0x3d85e07f	0.0653696
86	0x3d860a9c	0.06544992
87	0x3d880101	0.066408165
88	0x3d854a22	0.0650828
89	0xbd6a6824	-0.057228222
90	0xbd62e081	-0.055389885
91	0xbd6567ea	-0.056007303
92	0xbd66178d	-0.056174804
93	0x3d81d524	0.063394815
94	0x3d83a50f	0.06427967
95	0x3d827774	0.0637044
96	0xbd71a119	-0.058991525
97	0xbd69ca1b	-0.05707751
98	0xbd6f7591	-0.05846173
99	0xbd681aa0	-0.056666017
100	0x3d43f1b3	0.047837924
101	0xbd5540e4	-0.052063838
102	0x3d289f4b	0.04116754
103	0x3d32faf2	0.04369635
104	0x3d12a92e	0.035805874
105	0xbd5d9a03	-0.054101955
106	0xbd62aacf	-0.055338677
107	0xbd69a368	-0.057040602
108	0xbd5682a0	-0.052370667
109	0x3d3b6828	0.045753628
110	0x3d35e881	0.044411186
111	0x3d36ae28	0.044599682
112	0x3d282ac3	0.041056406
113	0xbd58395c	-0.052789077
114	0xbd5e2541	-0.054234747
115	0xbd5bd955	-0.05367406
116	0x3d469b68	0.04848805
117	0x3d40b82d	0.047050644
118	0x3d3d312f	0.046189483
119	0x3d3871ee	0.045030527
120	0xbd710fba	-0.05885289
121	0x3d801733	0.06254425
122	0xbd601cf2	-0.054715104
123	0xbd6540f7	-0.05597016
124	0xbd57de6e	-0.05270236
125	0x3d8b62c6	0.06805949
126	0x3d87d4b3	0.06632366
127	0x3d89fe79	0.0673799
128	0x3d85ee2a	0.06539567
129	0xbd6c0566	-0.057622336
130	0xbd653e9d	-0.055967916
131	0xbd6dc820	-0.058052182
132	0xbd658d45	-0.05604293
133	0x3d8629d5	0.065509476
134	0x3d85c04e	0.0653082
135	0x3d833d40	0.06408167
136	0xbd78fc2c	-0.060787365
137	0xbd77201d	-0.06033336
138	0xbd750035	-0.05981465
139	0xbd744b35	-0.059642036
140	0xbd77a769	-0.06046239
141	0x3d83f707	0.06443601
142	0xbd5a04d5	-0.053227264
143	0xbd6bebcc	-0.05759792
144	0xbd53c673	-0.051702928
145	0x3d8a8f86	0.06765656
146	0x3d85155a	0.06498213
147	0x3d89cbbc	0.067283124
148	0x3d890894	0.06691089
149	0xbd70a717	-0.0587531
150	0xbd6adb9f	-0.057338353
151	0xbd6ebe92	-0.05828721
152	0xbd569f30	-0.052397907
153	0x3d8065a9	0.0626939
154	0x3d818394	0.06323925
155	0x3d83eea4	0.064420015
156	0xbd72482e	-0.059150867
157	0xbd7cdb9f	-0.061732884
158	0xbd6b0194	-0.057374552
159	0xbd69b7f8	-0.057060212
160	0xbd6b02f2	-0.057375856
161	0x3d872b30	0.06600034
162	0xbd5f5e54	-0.054533318
163	0xbd6d8f8f	-0.057998236
164	0xbd563dc3	-0.052304994
165	0x3d85cb64	0.06532934
166	0x3d8c5707	0.06852537
167	0x3d8c5f74	0.06854144
168	0x3d840504	0.06446269
169	0xbd6bf514	-0.05760677
170	0xbd67cffe	-0.05659484
171	0xbd7393c6	-0.0594671
172	0xbd5ffd43	-0.05468489
173	0x3d89be54	0.06725755
174	0x3d8496b8	0.0647406
175	0x3d828779	0.063734956
176	0xbd7c6fb3	-0.061629962
177	0xbd758ca2	-0.05994857
178	0xbd7e06fc	-0.06201838
179	0xbd770486	-0.06030705
180	0xbd6dca2b	-0.05805413
181	0x3d8579ca	0.0651737
182	0xbd63660e	-0.05551725
183	0xbd62277f	-0.055213448
184	0xbd53bacf	-0.051691826
185	0x3d87ff5a	0.06640501
186	0x3d87f757	0.06638973
187	0x3d8a4c01	0.06752778
188	0x3d87895a	0.066179946
189	0xbd64227e	-0.055696957
190	0xbd68568a	-0.056723155
191	0xbd6cae6d	-0.057783533
192	0xbd5f74a1	-0.054554585
193	0x3d834de0	0.06411338
194	0x3d84c19b	0.0648224
195	0x3d852708	0.06501585
196	0xbd7b8e51	-0.06141502
197	0xbd70df9d	-0.058807004
198	0xbd767b0f	-0.06017595
199	0xbd6a2ca2	-0.05717147
200	0xbd6cbb67	-0.05779591
201	0x3d8452a1	0.06461073
202	0xbd602319	-0.05472097
203	0xbd6a45f4	-0.05719562
204	0xbd556afa	-0.052103974
205	0x3d8639a6	0.06553964
206	0x3d87294a	0.06599672
207	0x3d8b5177	0.068026476
208	0x3d835f31	0.06414641
209	0xbd6cb2ed	-0.057787824
210	0xbd66c2ef	-0.056338247
211	0xbd6b182f	-0.05739611
212	0xbd64b4f0	-0.055836618
213	0x3d86efa5	0.06588677
214	0x3d826d9a	0.06368561
215	0x3d825664	0.06364134
216	0xbd6c6e60	-0.05772245
217	0xbd75cfe2	-0.060012706
218	0xbd7b1ff1	-0.06130976
219	0xbd6d7269	-0.05797044
220	0x3d382ee3	0.04496659
221	0xbd551148	-0.052018434
222	0x3d238e27	0.03993049
223	0x3d2f9c48	0.04287365
224	0x3d158fa7	0.03651395
225	0xbd5b32e0	-0.053515315
226	0xbd568251	-0.052370373
227	0xbd6352b8	-0.05549881
228	0xbd557d05	-0.05212118
229	0x3d3d2860	0.046181083
230	0x3d34a6b3	0.04410429
231	0x3d3810ff	0.044938084
232	0x3d2a8001	0.04162598
233	0xbd4e48a5	-0.050362248
234	0xbd56aa5a	-0.052408554
235	0xbd53a55e	-0.05167138
236	0x3d3e345d	0.046436656
237	0x3d3c8b73	0.046031427
238	0x3d3b4892	0.045723505
239	0x3d395809	0.045249972
240	0xbd70629d	-0.058687795
241	0x3d84493a	0.06459279
242	0xbd66799e	-0.056268327
243	0xbd659c3b	-0.056057196
244	0xbd4c68d2	-0.049904652
245	0x3d866069	0.065613575
246	0x3d8519cd	0.06499062
247	0x3d867e95	0.06567112
248	0x3d8481bc	0.06470057
249	0xbd67bddc	-0.05657755
250	0xbd664a62	-0.05622328
251	0xbd6a77f1	-0.05724329
252	0xbd5ff3b9	-0.05467579
253	0x3d82f535	0.06394426
254	0x3d7ef606	0.062246345
255	0x3d842136	0.06451647

layers.1.egnn.edge_mlp.3.bias f4 [16]
0	0xbdbdc22c	-0.09265551
1	0x3d864a54	0.06557146
2	0x3e3a5740	0.18197346
3	0x3e2625b5	0.16225322
4	0xbe8822aa	-0.26588947
5	0x3e39b6ee	0.18136188
6	0xbdf7ff5d	-0.121092536
7	0xbe543dde	-0.20726725
8	0xbe84f5da	-0.2596882
9	0xbe6b9356	-0.23005423
10	0xbe271d8f	-0.1631987
11	0x3df19d22	0.11797549
12	0xbe47767f	-0.19478796
13	0xbe8097c3	-0.25115785
14	0x3dfeb8bd	0.1243758
15	0xbe49a783	-0.19692807
