experiments/models/best_model_N12_batch64_lr0.001_fd4_b0.7.pth (torch, 31338 bytes, 32 tensors)

time_embedding.0.weight f4 [8, 1]
0	0xbe95d160	-0.29261303
1	0xbf5665ac	-0.8374889
2	0x3ef42360	0.4768324
3	0x3e7150bb	0.23565952
4	0x3f096047	0.5366253
5	0xbeb5a638	-0.35478377
6	0x3dd0d3f4	0.10196677
7	0x3f6862b6	0.9077562

time_embedding.0.bias f4 [8]
0	0xbf01776e	-0.5057286
1	0x3f4dbba3	0.80364436
2	0xbf5eb5ce	-0.8699616
3	0x3e2d6f94	0.16937095
4	0xbf09c9f5	-0.53823787
5	0xbeab3c1c	-0.33444297
6	0x3ec33acd	0.381308
7	0xbc738dbb	-0.014865334

time_embedding.3.weight f4 [4, 8]
0	0x3e298adb	0.16556875
1	0x3b2db081	0.002650291
2	0xbe4e1c46	-0.20127973
3	0x3e452eed	0.19256182
4	0xbd967e2f	-0.07348286
5	0xbe7a9ddd	-0.24474283
6	0xbd4ad630	-0.04952067
7	0x3e91fd36	0.28513497
8	0xbea4fdc6	-0.32224864
9	0xbe03185a	-0.12802258
10	0xbd8dbf6a	-0.06921275
11	0xbe972ec1	-0.29527858
12	0x3e513b32	0.20432737
13	0x3dab21ed	0.0835608
14	0xbe83a3b5	-0.25710836
15	0x3c8f8541	0.017519595
16	0x3ea7c555	0.3276774
17	0xbd6b16a1	-0.057394627
18	0xbe02f991	-0.12790515
19	0x3e8c2d28	0.273782
20	0xbe88bcfe	-0.2670669
21	0xbeae58a2	-0.34051996
22	0x3e176bf4	0.14787275
23	0x3d9f80e8	0.07788259
24	0x3d0ec692	0.03485734
25	0xbe5d1106	-0.21588525
26	0x3e99ce39	0.30040148
27	0x3d95c7f0	0.07313526
28	0xbe33f03c	-0.17572111
29	0xbe02f6f8	-0.12789524
30	0x3d07a6b1	0.033117954
31	0x3d200402	0.039066322

time_embedding.3.bias f4 [4]
0	0x3e60ab33	0.21940307
1	0x3db7aa9f	0.0896809
2	0xbd4babec	-0.049724504
3	0x3e807753	0.25091037

layers.0.egnn.edge_mlp.0.weight f4 [20, 10]
0	0xbcf800b0	-0.030273765
1	0x3d14a574	0.0362906
2	0xbbbc9748	-0.005755339
3	0xbcef9eed	-0.029250586
4	0xbce86d19	-0.028372334
5	0x3d1885e4	0.037237063
6	0xbc213a23	-0.009840521
7	0xbcef8133	-0.029236412
8	0xbcc63988	-0.024197355
9	0xbd2e8f7c	-0.042617306
10	0xbd078922	-0.033089764
11	0x3d122bfb	0.035686474
12	0xbc2f0504	-0.010682348
13	0xbcf55424	-0.029947348
14	0xbcfc5a7f	-0.03080487
15	0x3d18aab2	0.037272163
16	0xbc33c1ad	-0.010971469
17	0xbcefbb20	-0.029264033
18	0xbcd32139	-0.025772678
19	0xbd353ab7	-0.044245448
20	0xbceaba9b	-0.028653434
21	0x3d0721d9	0.032991264
22	0xbbb55623	-0.00553395
23	0xbcc5c74a	-0.02414288
24	0xbcd8d9e7	-0.026471091
25	0x3d07aca4	0.033123627
26	0xbbc74765	-0.006081509
27	0xbcd266f6	-0.025683861
28	0xbcaeca48	-0.02133669
29	0xbd1d8e2b	-0.03846566
30	0x3cc48111	0.023987325
31	0xbd09205f	-0.033478137
32	0xbc0f51fa	-0.008747572
33	0x3ca6b061	0.020347776
34	0x3cc14717	0.023593469
35	0xbd070bcd	-0.03297024
36	0xbb8c7672	-0.0042865807
37	0x3ca20618	0.019778296
38	0x3c5d1a7b	0.013495083
39	0x3d20a52d	0.039220024
40	0x3ccbe35c	0.024888687
41	0xbd06e24c	-0.032930657
42	0xbbd8d482	-0.00661713
43	0x3ca0e29a	0.019639302
44	0x3cc6d1e9	0.024270015
45	0xbd127cf6	-0.035763703
46	0xbba0846e	-0.0048985993
47	0x3caef00d	0.0213547
48	0x3c572bbe	0.013132988
49	0x3d1e7d67	0.03869381
50	0xbcc96d09	-0.024588125
51	0x3cf98622	0.030459467
52	0xba299512	-0.00064690516
53	0xbcb97fd6	-0.022643965
54	0xbccb82b2	-0.024842594
55	0x3d01d319	0.03169546
56	0xbb8010a2	-0.003908233
57	0xbcb862ac	-0.022507988
58	0xbc918df6	-0.017767888
59	0xbd1b6101	-0.037934307
60	0xbd05a896	-0.03263148
61	0x3d15a370	0.03653282
62	0xbc109914	-0.008825559
63	0xbcef5faa	-0.02922042
64	0xbcf80e8a	-0.03028037
65	0x3d1d43eb	0.03839485
66	0xbc339999	-0.0109619135
67	0xbcf19a3b	-0.029492488
68	0xbcd178b1	-0.025570245
69	0xbd24490b	-0.04010872
70	0x3cadba2f	0.021206943
71	0xbcef1715	-0.029185811
72	0xbbdf6585	-0.006817522
73	0x3c9f0542	0.019411687
74	0x3cb643fc	0.022249214
75	0xbd00d521	-0.031453256
76	0xbbb222ad	-0.0054362626
77	0x3c9d142f	0.019174663
78	0x3c47a89e	0.012186198
79	0x3d1795d9	0.03700814
80	0xbce85261	-0.028359594
81	0x3d07c8c4	0.03315045
82	0xbbdddb8d	-0.0067705573
83	0xbce194bf	-0.027536748
84	0xbce4f4f4	-0.027948834
85	0x3d0f5a3f	0.034998175
86	0xbc143390	-0.009045497
87	0xbcd432ad	-0.02590307
88	0xbcbd809c	-0.023132615
89	0xbd2a21f7	-0.041536298
90	0x3cdbc2e3	0.026826328
91	0xbd038379	-0.032107804
92	0xbb818ab7	-0.0039533037
93	0x3cbe3d03	0.023222452
94	0x3cc85ebe	0.02445924
95	0xbd1282f2	-0.03576941
96	0xbb41b44c	-0.0029556928
97	0x3cb3a1da	0.021927763
98	0x3c8154d6	0.015787523
99	0x3d24302e	0.04008501
100	0x3c93e99f	0.018055735
101	0xbcd7f0ea	-0.026359994
102	0xbc046414	-0.008080501
103	0x3c774f5a	0.0150946025
104	0x3c93457f	0.017977474
105	0xbcde0722	-0.02710301
106	0xbb79203a	-0.0038013593
107	0x3c7fbadd	0.0156085165
108	0x3c370cb3	0.011172461
109	0x3d0c052a	0.034184612
110	0xbcca9e98	-0.024733827
111	0x3ce36655	0.027758757
112	0xbabcb7d7	-0.001439805
113	0xbcbf3551	-0.023340853
114	0xbcc17eff	-0.023620127
115	0x3cf07d10	0.02935651
116	0xbb64e9fe	-0.003492951
117	0xbcbfb87c	-0.023403399
118	0xbc9538c3	-0.018215543
119	0xbd128a39	-0.03577635
120	0x3ca1f240	0.019768834
121	0xbcf52c68	-0.029928401
122	0xbc0c7db4	-0.008574892
123	0x3c9fedbc	0.01952254
124	0x3ca5a521	0.020220341
125	0xbcf7dc1f	-0.03025633
126	0xbbea42e8	-0.007149089
127	0x3c92042f	0.01782426
128	0x3c351430	0.011052176
129	0x3d180867	0.037117388
130	0xbce19a25	-0.027539322
131	0x3d000ccd	0.031262208
132	0xbb3ad3c1	-0.0028507563
133	0xbcce0ec2	-0.025153521
134	0xbcd994b5	-0.026560167
135	0x3d0a7e11	0.033811633
136	0xbb9625af	-0.004582129
137	0xbcc74a82	-0.02432752
138	0xbcb564ef	-0.022142855
139	0xbd231919	-0.039818857
140	0x3cc5418b	0.024079105
141	0xbd03080e	-0.031990103
142	0xbbeaaba4	-0.0071615744
143	0x3cad14a4	0.021128006
144	0x3cb89568	0.02253218
145	0xbd03ae8d	-0.032148886
146	0xbbb52f0f	-0.0055292915
147	0x3cb179cd	0.021664524
148	0x3c546217	0.01296284
149	0x3d21decd	0.03951912
150	0xbd05857e	-0.03259801
151	0x3d161b05	0.03664686
152	0xbc2a8672	-0.010408031
153	0xbd00470e	-0.031317763
154	0xbd028aeb	-0.031870764
155	0x3d18a0e3	0.03726281
156	0xbc63d83a	-0.013906533
157	0xbcfcc07d	-0.030853504
158	0xbcdfe058	-0.027328655
159	0xbd3adcb5	-0.04562064
160	0xbcf5d755	-0.030009905
161	0x3d130cf6	0.035901032
162	0xbc1687a5	-0.009187614
163	0xbcf2ee4f	-0.02965465
164	0xbd096a95	-0.03354891
165	0x3d1819fa	0.03713415
166	0xbc201b21	-0.009772093
167	0xbcf688f7	-0.030094607
168	0xbcc5852a	-0.02411135
169	0xbd30d83e	-0.043174975
170	0x3ce1c1f4	0.027558304
171	0xbd0c45fd	-0.034246434
172	0xbbe15a39	-0.0068772105
173	0x3cb67866	0.022274207
174	0x3cd849cf	0.026402382
175	0xbd08dadc	-0.033411846
176	0xbaba706a	-0.0014224176
177	0x3cb95b6a	0.022626597
178	0x3c8db3a9	0.017297583
179	0x3d27099a	0.04078064
180	0x3ccb4c71	0.024816724
181	0xbcf5c577	-0.030001385
182	0xbc072857	-0.008249364
183	0x3ca73b10	0.020413905
184	0x3cb48dcc	0.02204027
185	0xbd0ada67	-0.03389969
186	0xbba52ace	-0.005040503
187	0x3ca21d97	0.0197895
188	0x3c6a8fb8	0.014316492
189	0x3d1dce48	0.038526803
190	0x3cc9bcd7	0.024626179
191	0xbd0b2d99	-0.033979032
192	0xbba1ea44	-0.0049412567
193	0x3cb9262c	0.02260121
194	0x3cc966ad	0.024585092
195	0xbd0eab35	-0.034831244
196	0xbb8503ab	-0.004059275
197	0x3cb67c08	0.02227594
198	0x3c745f3a	0.014915282
199	0x3d2cabf5	0.04215618

layers.0.egnn.edge_mlp.0.bias f4 [20]
0	0xbe3cec4f	-0.1844952
1	0xbe8eed5e	-0.27915472
2	0xbdcff88f	-0.10154831
3	0x3e4a7247	0.19770156
4	0x3e84d332	0.2594238
5	0xbd977fff	-0.0739746
6	0xbe8d20da	-0.27564126
7	0x3df543e8	0.11975843
8	0xbdf75053	-0.120758675
9	0x3e8dc9a1	0.27692893
10	0x3d45849c	0.04822217
11	0xbd5e5f71	-0.05429024
12	0x3dde0351	0.10840476
13	0xbdb1aaf0	-0.08675182
14	0x3e5014dc	0.20320457
15	0xbeb1cd96	-0.34727162
16	0xbe889293	-0.26674327
17	0x3e9a1fd4	0.30102408
18	0x3e2caeaa	0.16863504
19	0x3ea0352c	0.31290567

layers.0.egnn.edge_mlp.3.weight f4 [16, 20]
0	0xbd0f0c8f	-0.034924086
1	0xbd08f19a	-0.033433534
2	0xbcf6fcfc	-0.03014993
3	0x3ceb3724	0.028712817
4	0x3cf949d2	0.030430708
5	0xbcd67a24	-0.026181288
6	0xbd0aaaa0	-0.033854127
7	0x3cf45ab9	0.029828416
8	0xbcf5d504	-0.0300088
9	0x3d0621cf	0.032747086
10	0x3cc40d18	0.023932025
11	0xbcdbbc1c	-0.026823096
12	0x3cda9f15	0.026687184
13	0xbcf6612a	-0.030075628
14	0x3cf1d0c5	0.029518494
15	0xbd0e24ce	-0.03470307
16	0xbd064808	-0.032783538
17	0x3d010a7c	0.03150414
18	0x3cf9b37c	0.030481093
19	0x3d05b71d	0.032645334
20	0x3d0598ed	0.032616545
21	0x3d03b56d	0.032155443
22	0x3d0434ed	0.032277036
23	0xbd023cea	-0.031796373
24	0xbd09dd52	-0.033658333
25	0x3ce6dcae	0.0281814
26	0x3d0ede4d	0.03487997
27	0xbcfd5242	-0.030923013
28	0x3d00545b	0.031330448
29	0xbd06ef11	-0.032942835
30	0xbcc7cfa9	-0.024391012
31	0x3cd27b2d	0.0256935
32	0xbcf94770	-0.030429572
33	0x3cf5d170	0.030007094
34	0xbd01a906	-0.031655334
35	0x3d07625a	0.03305278
36	0x3d0b238b	0.033969443
37	0xbd0c6fc8	-0.03428629
38	0xbd067e89	-0.032835517
39	0xbd05225f	-0.032503482
40	0x3d011c86	0.031521343
41	0x3d0687ff	0.03284454
42	0x3cffd4eb	0.031229457
43	0xbcfc5d17	-0.030806107
44	0xbd0466d8	-0.032324642
45	0x3cf21f3f	0.029555915
46	0x3d06dbd0	0.032924473
47	0xbcf39cc1	-0.029737832
48	0x3d01d241	0.031694654
49	0xbd0b1f2e	-0.033965282
50	0xbccd79dd	-0.025082523
51	0x3cd84220	0.026398718
52	0xbcf58e64	-0.029975124
53	0x3cee922c	0.029122435
54	0xbd02265b	-0.03177486
55	0x3d0f42f1	0.03497595
56	0x3d081d45	0.03323104
57	0xbd05d9a1	-0.03267825
58	0xbd087c90	-0.033321917
59	0xbd00ebb7	-0.031474795
60	0xbcf7219d	-0.030167395
61	0xbd0b3992	-0.03399045
62	0xbce9dabd	-0.028546685
63	0x3cfa1735	0.030528644
64	0x3cf0dce2	0.0294022
65	0xbccd12f3	-0.02503345
66	0xbd0330b0	-0.032028854
67	0x3ce3974f	0.02778211
68	0xbcfcb29a	-0.030846883
69	0x3d06e9fb	0.032937985
70	0x3cc0135d	0.023446733
71	0xbcc7eef7	-0.02440594
72	0x3ce1d0b9	0.027565347
73	0xbce3e9af	-0.02782139
74	0x3cf998a6	0.030468296
75	0xbd045751	-0.032309834
76	0xbd0ccf3d	-0.034377325
77	0x3d0659b5	0.032800395
78	0x3cf87faf	0.030334322
79	0x3d04def0	0.032439172
80	0xbd044575	-0.032292802
81	0xbd032b51	-0.03202373
82	0xbcedaa65	-0.029011915
83	0x3cf09572	0.029368136
84	0x3d00b4f7	0.03142258
85	0xbcd5c84c	-0.026096486
86	0xbd0817cb	-0.033225816
87	0x3ce323ee	0.027727094
88	0xbcfa1188	-0.030525938
89	0x3d022a79	0.031778786
90	0x3cae0fd5	0.021247784
91	0xbcc6c0a4	-0.02426178
92	0x3ce3f1a4	0.027825184
93	0xbceabfb0	-0.028655857
94	0x3cf70269	0.030152516
95	0xbd0988c2	-0.033577688
96	0xbd06bcdc	-0.032894954
97	0x3d05473d	0.03253864
98	0x3cf6cc2f	0.03012666
99	0x3cfe1f56	0.031020802
100	0x3cfc8fdd	0.030830318
101	0x3d030f45	0.031996984
102	0x3cf9629d	0.03044253
103	0xbd006ac4	-0.03135182
104	0xbd017470	-0.031605184
105	0x3ce6a930	0.028156847
106	0x3d0132d0	0.0315426
107	0xbcde5bec	-0.027143441
108	0x3d02e00c	0.03195195
109	0xbd08ba2a	-0.033380665
110	0xbcbe7dea	-0.0232534
111	0x3cddb3fe	0.027063366
112	0xbce40529	-0.027834492
113	0x3cddd748	0.027080193
114	0xbcfd92c0	-0.030953765
115	0x3d06bfac	0.032897636
116	0x3cf6e6a6	0.030139279
117	0xbd02bc37	-0.031917777
118	0xbcf27f32	-0.029601667
119	0xbcff5045	-0.031166205
120	0xbcfb8a70	-0.03070566
121	0xbcfb6402	-0.030687336
122	0xbce90411	-0.028444322
123	0x3cefca1d	0.02927118
124	0x3ce734c4	0.028223403
125	0xbce69e78	-0.028151736
126	0xbd00e60b	-0.031469386
127	0x3ce1fbd6	0.027585905
128	0xbcfa6b3c	-0.030568711
129	0x3cf38da4	0.029730625
130	0x3cc88031	0.024475189
131	0xbcde111b	-0.027107766
132	0x3ce477f6	0.027889233
133	0xbceba31b	-0.028764298
134	0x3cef6608	0.029223457
135	0xbd00df17	-0.031462755
136	0xbd06a1f3	-0.03286929
137	0x3cfb7467	0.030695153
138	0x3cf1d2ec	0.02951952
139	0x3cf81f75	0.030288437
140	0xbcf079f3	-0.029355025
141	0xbcfb8cbd	-0.030706758
142	0xbcdf1252	-0.027230415
143	0x3ce22a68	0.027608112
144	0x3cf37f74	0.02972386
145	0xbcbd8cc0	-0.023138404
146	0xbcf809c0	-0.030278087
147	0x3ccf4503	0.025301462
148	0xbce17646	-0.027522217
149	0x3cf23d5a	0.02957027
150	0x3cab3305	0.020898351
151	0xbcb7c55e	-0.02243298
152	0x3cc73669	0.024317937
153	0xbcde285b	-0.027118852
154	0x3cec9f42	0.028884534
155	0xbcf73fdd	-0.03018182
156	0xbcfa9f7c	-0.030593626
157	0x3cdbf434	0.026849844
158	0x3ce31316	0.027719062
159	0x3ce9f97d	0.028561348
160	0x3d0ad076	0.03389021
161	0x3d022818	0.031776518
162	0x3cf5b347	0.029992713
163	0xbcf9b00c	-0.030479454
164	0xbcfe82cd	-0.03106823
165	0x3ce8a76f	0.028400151
166	0x3d09c538	0.033635348
167	0xbd0054b3	-0.031330775
168	0x3cf8410a	0.03030445
169	0xbcfdaef1	-0.030967208
170	0xbcb6936d	-0.022287095
171	0x3cdbdfe3	0.026840156
172	0xbce38541	-0.027773501
173	0x3cea0f23	0.02857167
174	0xbcf78088	-0.030212656
175	0x3d081cda	0.03323064
176	0x3d019a38	0.031641215
177	0xbd075742	-0.0330422
178	0xbcf85766	-0.030315112
179	0xbd01add0	-0.0316599
180	0xbd0544af	-0.032536205
181	0xbd0bd8a3	-0.034142148
182	0xbd036e3a	-0.032087542
183	0x3d05fe7a	0.03271339
184	0x3d037e93	0.032103132
185	0xbce05f6e	-0.027389254
186	0xbd055397	-0.03255042
187	0x3cf205a6	0.029543709
188	0xbcef7fb8	-0.029235706
189	0x3d06a905	0.032876033
190	0x3cbbaff0	0.022911042
191	0xbcd62894	-0.026142396
192	0x3ceef442	0.029169206
193	0xbcefff1e	-0.029296454
194	0x3cff2d35	0.031149486
195	0xbd0372cd	-0.032091904
196	0xbd0aaab5	-0.033854205
197	0x3d0bea67	0.03415909
198	0x3cf8d134	0.030373193
199	0x3d064072	0.032776304
200	0xbd076583	-0.033055793
201	0xbd051714	-0.032492712
202	0xbcecf730	-0.028926462
203	0x3d008c03	0.031383526
204	0x3cf5fac3	0.030026799
205	0xbcded5e9	-0.02720161
206	0xbd02b567	-0.03191128
207	0x3cde02d5	0.02710096
208	0xbcf7a94b	-0.030232092
209	0x3cfe1f7d	0.031020874
210	0x3cc78f41	0.024360301
211	0xbcbd62e4	-0.023118444
212	0x3cd4fc0b	0.02599909
213	0xbcdbf835	-0.026851753
214	0x3cfbcbb5	0.030736784
215	0xbd08e6f8	-0.033423394
216	0xbd07edbb	-0.0331857
217	0x3cfb5bdc	0.03068345
218	0x3cebaa91	0.028767856
219	0x3d0197d1	0.031638924
220	0xbd03b70b	-0.032156985
221	0xbd07c382	-0.033145435
222	0xbd007644	-0.031362787
223	0x3cf1714e	0.029472973
224	0x3cfd7497	0.030939383
225	0xbcd68704	-0.026187427
226	0xbcfc4038	-0.03079234
227	0x3ce328b7	0.027729375
228	0xbcee4331	-0.029084774
229	0x3d067514	0.0328265
230	0x3cb43b8d	0.022001052
231	0xbcce2857	-0.02516572
232	0x3ce07564	0.027399726
233	0xbcdf0815	-0.027225534
234	0x3ceb9ea5	0.028762171
235	0xbd008ea9	-0.03138605
236	0xbd017794	-0.03160818
237	0x3cff6863	0.031177705
238	0x3cf2431f	0.029573021
239	0x3d04c71e	0.032416455
240	0xbd06cf26	-0.032912396
241	0xbcfec678	-0.031100497
242	0xbce82923	-0.028339928
243	0x3cf689ef	0.030095069
244	0x3cfdf61e	0.031001147
245	0xbce3c74b	-0.027804991
246	0xbcfae559	-0.03062694
247	0x3cfc82f1	0.030824156
248	0xbcfc4e58	-0.030799076
249	0x3d01de4c	0.03170614
250	0x3cc7c3ae	0.0243853
251	0xbcca11f6	-0.024666768
252	0x3cdb66bd	0.026782388
253	0xbce69d68	-0.028151229
254	0x3d001af7	0.031275716
255	0xbd059084	-0.032608524

layers.0.egnn.edge_mlp.3.bias f4 [16]
0	0x3e0f3ef5	0.1398886
1	0xbe5ccf43	-0.21563439
2	0xbe36daa9	-0.1785685
3	0x3e050857	0.12991463
4	0x3df3c9cf	0.11903726
5	0xbe348828	-0.17630064
6	0x3e23d442	0.15998939
7	0x3daf7d9c	0.0856888
8	0xbe75f088	-0.24017537
9	0x3e2eb8b5	0.17062648
10	0x3e1d2032	0.15344313
11	0x3e8003a9	0.25002792
12	0x3e4c76ae	0.19967148
13	0xbe3e1d8a	-0.18565956
14	0x3e61262f	0.21987222
15	0xbdd679bc	-0.10472438

layers.0.egnn.node_mlp.0.weight f4 [8, 20]
0	0x38624287	5.3944557e-05
1	0xba11cbbf	-0.00055616716
2	0xb96487e9	-0.00021794405
3	0xba0481bf	-0.0005054734
4	0xb6698935	-3.479957e-06
5	0x3abf5d8a	0.001460002
6	0x3a8267d6	0.0009949158
7	0x3a14353d	0.0005653685
8	0xba7fc303	-0.0009756537
9	0x381fa3e8	3.8061204e-05
10	0x39841277	0.0002519076
11	0x3a247a17	0.00062742963
12	0x39654291	0.0002186394
13	0x3aaf266f	0.0013362895
14	0xba5fca3e	-0.00085369113
15	0xba39ce5b	-0.00070879393
16	0x3a38d24a	0.00070503785
17	0x39ac9c5c	0.00032922893
18	0xb681fe9f	-3.8741414e-06
19	0x3acdabbd	0.0015691441
20	0xbaa550d9	-0.0012612595
21	0x3a54a973	0.0008112408
22	0xb9abe458	-0.0003278579
23	0xb9a02ecc	-0.00030552445
24	0xbacd0868	-0.0015642764
25	0x38f409c7	0.00011636648
26	0xb920ffe7	-0.0001535412
27	0xb96e45ee	-0.000227235
28	0x3aba5026	0.001421456
29	0xbac27311	-0.0014835318
30	0x3a86d89f	0.0010287947
31	0x3add24e6	0.0016871959
32	0x3a041f99	0.0005040109
33	0x3a0cef28	0.0005376213
34	0x3a344046	0.00068760326
35	0x3a29cdb6	0.00064774917
36	0x39c97bf2	0.00038430054
37	0xbaefa63c	-0.0018283795
38	0x3a267e27	0.00063511956
39	0x3a16bf50	0.00057505537
40	0x3ad1bc8e	0.0016001628
41	0x389e7aef	7.556925e-05
42	0xb9183f96	-0.00014519537
43	0xbb184a26	-0.0023237555
44	0xb9fa6d19	-0.00047765
45	0xb92fcd65	-0.00016765816
46	0x3a840c4a	0.0010074463
47	0x3aaddd2a	0.0013264765
48	0x3b0c98bb	0.002145334
49	0xba82b108	-0.0009970972
50	0x3ac61839	0.001511342
51	0xbaf9a253	-0.0019045569
52	0xb99001fb	-0.00027467296
53	0xb9ce29e5	-0.00039322596
54	0xbadd4bfd	-0.0016883608
55	0x397f4531	0.00024344471
56	0x3a88f785	0.0010449743
57	0x3a178874	0.0005780526
58	0xbaa5c718	-0.0012647836
59	0xb94046cc	-0.00018336921
60	0xba9df665	-0.0012051581
61	0xba9e1c5c	-0.0012062895
62	0xbaa9eff8	-0.0012965193
63	0x39c10a00	0.0003681928
64	0xbaa5e2c1	-0.0012656079
65	0x3a502138	0.00079395203
66	0xba9655c4	-0.0011469652
67	0x3880feb5	6.1509585e-05
68	0x3acbeff7	0.0015559186
69	0x3a2da28b	0.0006623647
70	0xbaf3a628	-0.0018588947
71	0xbaf67b3a	-0.0018805035
72	0x3aa67871	0.0012700689
73	0x3ab9b1b2	0.0014167337
74	0x3a44ed85	0.00075122
75	0x38a9189b	8.063131e-05
76	0xba12dd63	-0.0005602447
77	0x398a9135	0.000264296
78	0xb9b7de80	-0.00035070255
79	0xbab9ee04	-0.0014185314
80	0x3aa118b7	0.0012290691
81	0xbae264e6	-0.0017272502
82	0x3a47d3a9	0.00076227874
83	0x39631527	0.00021656287
84	0x3a672df8	0.00088188006
85	0xba0223a7	-0.0004964419
86	0xb855ba20	-5.09565e-05
87	0xb952b1b5	-0.00020093362
88	0x3a10c7a0	0.00055229105
89	0x3a7336d2	0.0009277883
90	0x39e23e51	0.00043152508
91	0x3a7416ba	0.0009311248
92	0x3ac78273	0.0015221372
93	0xb9de6eee	-0.0004242579
94	0xb9daeefb	-0.00041758255
95	0x39f747d6	0.00047165033
96	0xbaa58bca	-0.0012630161
97	0x3a1ed342	0.00060587015
98	0x39ff45f1	0.000486895
99	0x3a989dd8	0.0011643721
100	0x3a52e142	0.000804443
101	0x3995f28b	0.00028600203
102	0xb9d8187b	-0.0004121697
103	0x3a033e49	0.00050065346
104	0x3ac54aa8	0.0015052157
105	0xba940089	-0.0011291663
106	0x398af69b	0.00026505147
107	0xba88cc58	-0.0010436876
108	0x39ef8abf	0.00045689006
109	0xba1f5d5b	-0.00060792797
110	0xbae951ff	-0.0017800926
111	0xba7e2dda	-0.00096961635
112	0xba200b14	-0.00061051664
113	0xba8b986b	-0.0010650282
114	0xba52a5ac	-0.0008035551
115	0xba5e7ea5	-0.00084874994
116	0x3a08383f	0.00051963696
117	0x3a5072ec	0.0007951695
118	0x3961a78a	0.00021520085
119	0xb98620c6	-0.0002558289
120	0xba5e590e	-0.0008481898
121	0x3b047f42	0.0020217453
122	0x3ab85b1e	0.0014065241
123	0xb93f599c	-0.00018248562
124	0x396e683a	0.00022736276
125	0xb9b3a58c	-0.00034264883
126	0xbac508b4	-0.0015032501
127	0x39be80e4	0.00036335655
128	0x39fce3b7	0.00048234846
129	0xba2f6395	-0.0006690559
130	0xb960d067	-0.0002143994
131	0xb9f6e0f1	-0.0004708837
132	0x36609001	3.3462422e-06
133	0x3a337400	0.00068455935
134	0xba858ccd	-0.0010189057
135	0xb9a1fa26	-0.00030894688
136	0x3a847523	0.001010571
137	0x3912e21f	0.00014007882
138	0xb8c57e0a	-9.4171686e-05
139	0x3ab06186	0.0013456799
140	0x3ad2a4a7	0.0016070799
141	0xba8ca9fe	-0.0010731814
142	0x3abf7ffa	0.0014610284
143	0xb9a3d44d	-0.0003124796
144	0xb8182ab9	-3.6279413e-05
145	0xba8d87a1	-0.0010797867
146	0xba5388fb	-0.0008069423
147	0x3aa984fe	0.0012933312
148	0xba5cc34c	-0.00084214355
149	0xb9aabafc	-0.0003256424
150	0xb9f64e6f	-0.00046979214
151	0xb946c1d2	-0.00018954955
152	0x3a5cb654	0.0008419503
153	0x3a08e28d	0.0005221747
154	0xbaa0835a	-0.0012246177
155	0xb932048b	-0.00016977095
156	0x3a26410b	0.00063420896
157	0xba93a5d9	-0.0011264636
158	0xbabf67b9	-0.0014603055
159	0x3928fbfd	0.00016115601

layers.0.egnn.node_mlp.0.bias f4 [8]
0	0x3c608b45	0.013705079
1	0xbd6d5eaf	-0.057951625
2	0xbe0be132	-0.13660124
3	0xbd0d8aec	-0.034556314
4	0x3e1c75db	0.15279333
5	0xbdbe420f	-0.092899434
6	0xbd447f89	-0.04797319
7	0xbe3ac07d	-0.18237491

layers.0.egnn.node_mlp.3.weight f4 [4, 8]
0	0x371f9afb	9.513223e-06
1	0xb91ba183	-0.0001484212
2	0xba6a365f	-0.00089344935
3	0x3a2de133	0.00066329836
4	0xba7b8ac7	-0.00095955696
5	0x3a840f99	0.0010075449
6	0xbb1a0475	-0.0023501192
7	0x3a847726	0.001010631
8	0x3acda9e4	0.001569089
9	0xb9b263e8	-0.00034025242
10	0x3b0adf07	0.0021190064
11	0x3aef71a8	0.0018268125
12	0x3a925dd6	0.0011166881
13	0x3ac0c88d	0.0014708206
14	0x3a6f7dfe	0.0009135901
15	0x3a86cf95	0.0010285253
16	0x3ac59aa9	0.0015076
17	0x3a1df8da	0.00060261565
18	0x3abc2511	0.0014354308
19	0x3ad668c7	0.001635813
20	0xbabb13ba	-0.0014272847
21	0x394d5611	0.00019582386
22	0xba12b7e9	-0.0005596863
23	0x39b9124c	0.00035299582
24	0xba9e5d59	-0.0012082263
25	0xba3f8f92	-0.00073074654
26	0x392ab245	0.00016278874
27	0xba88579c	-0.0010402086
28	0x3a24de38	0.00062892167
29	0x38aeb105	8.329939e-05
30	0xb99366e2	-0.0002811468
31	0x39d67ab1	0.00040908673

layers.0.egnn.node_mlp.3.bias f4 [4]
0	0xbe3a11d7	-0.18170868
1	0xbd7df3f9	-0.06200025
2	0xbe865f64	-0.26244652
3	0x3e0b35e2	0.13594773

layers.0.egnn.coors_mlp.0.weight f4 [64, 16]
0	0xbd089071	-0.033340875
1	0x3d066ed4	0.032820538
2	0x3cfcba50	0.03085056
3	0xbd079628	-0.033102185
4	0xbcf7dde7	-0.030257178
5	0x3d066fbb	0.0328214
6	0xbd00dccd	-0.031460572
7	0xbcfa2204	-0.030533798
8	0x3d010017	0.031494226
9	0xbcfe90b1	-0.031074854
10	0xbd02af35	-0.03190537
11	0xbd02fb83	-0.03197814
12	0xbd06c934	-0.032906726
13	0x3d0023a1	0.03128398
14	0xbcfeab72	-0.03108761
15	0x3cf92c66	0.030416679
16	0xbce98690	-0.028506547
17	0x3cee1f53	0.02906767
18	0x3cdf6ca1	0.027273478
19	0xbce21546	-0.027598035
20	0xbceba605	-0.028765688
21	0x3cdffe3d	0.02734291
22	0xbce930d7	-0.028465671
23	0xbce3ef1e	-0.02782398
24	0x3ce42e0d	0.02785399
25	0xbcf2e73f	-0.029651282
26	0xbcf609a5	-0.030033896
27	0xbcf080d9	-0.029358314
28	0xbcf387e0	-0.029727876
29	0x3ce3a9b9	0.027790891
30	0xbce46060	-0.027877986
31	0x3cf8e18f	0.030380992
32	0xbd0c3f4a	-0.034240045
33	0x3d0fa887	0.03507283
34	0x3d0a44db	0.033757072
35	0xbd097924	-0.033562794
36	0xbd0c81c7	-0.034303453
37	0x3d0d48f4	0.0344934
38	0xbd0b5c12	-0.034023352
39	0xbd079c8d	-0.033108283
40	0x3d0be568	0.034154326
41	0xbd01f321	-0.031726006
42	0xbd0c84dd	-0.034306396
43	0xbd07cc70	-0.03315395
44	0xbd092f69	-0.03349248
45	0x3d0f8093	0.035034727
46	0xbd07ae82	-0.033125408
47	0x3d0779ea	0.03307525
48	0xbd12059f	-0.035649892
49	0x3d0d2fe4	0.0344695
50	0x3d0fa692	0.035070963
51	0xbd0b4c3a	-0.034008242
52	0xbd0e2718	-0.03470525
53	0x3d122b49	0.03568581
54	0xbd15f485	-0.036610145
55	0xbd09b02c	-0.033615276
56	0x3d13719e	0.035997026
57	0xbd0d5edb	-0.03451429
58	0xbd0ec5e5	-0.034856696
59	0xbd151643	-0.036398184
60	0xbd1123b0	-0.035434425
61	0x3d10110e	0.035172515
62	0xbd12c4c5	-0.035832185
63	0x3d115845	0.03548457
64	0xbca13830	-0.019680113
65	0x3ca199f4	0.01972673
66	0x3ca3b4be	0.019983646
67	0xbca195c1	-0.019724729
68	0xbca5b7e2	-0.020229284
69	0x3c971c89	0.018446224
70	0xbca16112	-0.019699607
71	0xbc9bb3e1	-0.019006671
72	0x3c99bb9d	0.018766219
73	0xbc9cf13c	-0.019157998
74	0xbc9edf9d	-0.019393736
75	0xbc9be05f	-0.019027887
76	0xbca7ff52	-0.020507488
77	0x3ca4575e	0.020061191
78	0xbcab7094	-0.020927705
79	0x3ca20ef6	0.019782525
80	0xbd0a90c9	-0.033829484
81	0x3d0b81b7	0.034059253
82	0x3d0853f7	0.0332832
83	0xbd070d76	-0.03297182
84	0xbd0a2573	-0.03372712
85	0x3d078d9e	0.03309404
86	0xbd107837	-0.035270896
87	0xbcfd69a0	-0.030934155
88	0x3d0bfb0d	0.034174968
89	0xbd093991	-0.033502165
90	0xbd082349	-0.033236776
91	0xbd0a23d6	-0.033725582
92	0xbd062bf4	-0.03275676
93	0x3d0d155a	0.03444419
94	0xbd09caac	-0.03364055
95	0x3d0708cc	0.032967374
96	0x3c3b3f15	0.011428614
97	0xbc3f3340	-0.011669934
98	0xbc29ea05	-0.010370736
99	0x3c2f3fcc	0.010696363
100	0x3c36c007	0.011154181
101	0xbc5cdc6b	-0.013480286
102	0x3c34c463	0.01103315
103	0x3c4abf11	0.012374655
104	0xbc29c2a1	-0.010361345
105	0x3c418324	0.0118110515
106	0x3c3230eb	0.010875921
107	0x3c587ca2	0.0132133085
108	0x3c518844	0.012788836
109	0xbc339ad5	-0.010962208
110	0x3c53d881	0.0129300365
111	0xbc52c0d6	-0.0128633585
112	0x3cf998c8	0.03046836
113	0xbd008d97	-0.03138503
114	0xbd03f66e	-0.032217436
115	0x3d049cea	0.032376207
116	0x3cfdfe1b	0.031004956
117	0xbd0580ef	-0.032593664
118	0x3d03bec1	0.03216434
119	0x3cfa1572	0.030527804
120	0xbd08fd2a	-0.03344456
121	0x3cf67f3a	0.030089963
122	0x3cfc6b1c	0.030812792
123	0x3d05ae13	0.032636713
124	0x3d010965	0.0315031
125	0xbd004cc7	-0.03132322
126	0x3d043ac3	0.032282602
127	0xbcfbbfee	-0.030731168
128	0x3d09b5c0	0.033620596
129	0xbd01f15e	-0.031724326
130	0xbd0948f4	-0.03351684
131	0x3d06c147	0.032899167
132	0x3d0a1bcf	0.033717927
133	0xbd0819dc	-0.033227786
134	0x3d0a63d4	0.03378661
135	0x3d076689	0.03305677
136	0xbd07c690	-0.03314835
137	0x3d058eea	0.032606997
138	0x3d024cc0	0.031811476
139	0x3d07bf93	0.033141684
140	0x3d05b037	0.032638755
141	0xbd07d640	-0.03316331
142	0x3d04a859	0.03238711
143	0xbd037e1b	-0.032102685
144	0x3b94215a	0.0045205774
145	0xbb419f4e	-0.0029544416
146	0xbb3f302a	-0.0029172995
147	0x3bc91a75	0.006137187
148	0x3bb674bf	0.0055681164
149	0xbb81e5ce	-0.0039641624
150	0x3b4e9096	0.0031519285
151	0x3bd8deda	0.006618363
152	0xbb818f91	-0.003953882
153	0x3b4a2ae8	0.0030848328
154	0x3b3deb65	0.0028979417
155	0x3b85de80	0.004085362
156	0x3b8a1555	0.0042139688
157	0xbb9b2624	-0.0047347713
158	0x3b5cdbc9	0.0033700338
159	0xbbe58700	-0.0070046186
160	0xbcaa71ff	-0.02080631
161	0x3c9daa18	0.019246146
162	0x3c952cdf	0.018209873
163	0xbca05669	-0.019572454
164	0xbcac588e	-0.02103832
165	0x3cacbe1a	0.021086741
166	0xbc9c6673	-0.01909182
167	0xbc9f6052	-0.019455109
168	0x3ca77151	0.020439776
169	0xbca58b1c	-0.020207934
170	0xbc9b3fe6	-0.018951368
171	0xbca2a239	-0.019852744
172	0xbc8ba339	-0.017045604
173	0x3c9d1537	0.019175155
174	0xbc9405ac	-0.01806911
175	0x3ca32709	0.019916074
176	0x3d15de6b	0.036589067
177	0xbd16bf57	-0.03680357
178	0xbd196199	-0.037446592
179	0x3d0ec9ba	0.03486035
180	0x3d122481	0.035679344
181	0xbd16c184	-0.036805645
182	0x3d0e77a0	0.034782052
183	0x3d02b24b	0.031908315
184	0xbd13b11c	-0.036057577
185	0x3d11d99d	0.035607923
186	0x3d171423	0.03688444
187	0x3d192d7b	0.03739689
188	0x3d13a342	0.036044367
189	0xbd130ad6	-0.035899006
190	0x3d15b279	0.036547158
191	0xbd0ec7b9	-0.03485844
192	0xbd089c45	-0.033352155
193	0x3d085245	0.033281583
194	0x3d082dd8	0.033246845
195	0xbd03b03c	-0.032150492
196	0xbd04121f	-0.032243844
197	0x3d027019	0.031845186
198	0xbd04f7d4	-0.03246291
199	0xbd04d946	-0.03243377
200	0x3d03eeff	0.032210346
201	0xbd09e03e	-0.03366112
202	0xbd063471	-0.032764856
203	0xbd0bc681	-0.034124855
204	0xbd076cb9	-0.03306267
205	0x3d05eae7	0.032694723
206	0xbd063200	-0.032762527
207	0x3d041a1e	0.03225147
208	0x3d183195	0.03715666
209	0xbd1a6edc	-0.03770338
210	0xbd1940ed	-0.037415434
211	0x3d0f1730	0.034934223
212	0x3d13281f	0.035926934
213	0xbd1aa35d	-0.03775345
214	0x3d197c5b	0.03747211
215	0x3d17a6f0	0.03702444
216	0xbd12a355	-0.035800297
217	0x3d1623bc	0.036655173
218	0x3d19a25f	0.037508365
219	0x3d0d08fa	0.03443239
220	0x3d179d94	0.037015513
221	0xbd1766f6	-0.036963426
222	0x3d1c031b	0.0380889
223	0xbd0f5c22	-0.034999974
224	0xbcfdc94a	-0.030979771
225	0x3ce8831a	0.028382827
226	0x3cf4cc2b	0.029882511
227	0xbcf819a0	-0.030285656
228	0xbcf4169c	-0.029795937
229	0x3d01e690	0.031714022
230	0xbcf3e1a6	-0.029770683
231	0xbce162d5	-0.027512947
232	0x3ce54958	0.027989075
233	0xbce3cecb	-0.027808568
234	0xbcee3fa3	-0.029083079
235	0xbd000b9f	-0.031261083
236	0xbcf73df2	-0.030180905
237	0x3ceae6ab	0.028674444
238	0xbceeaea7	-0.029136015
239	0x3ceb66fd	0.028735632
240	0xbd1299c8	-0.03579119
241	0x3d17664f	0.036962803
242	0x3d0da177	0.034577813
243	0xbd1643fd	-0.036685932
244	0xbd12c87a	-0.03583572
245	0x3d11f247	0.035631444
246	0xbd1acd50	-0.037793458
247	0xbd0a016c	-0.033692762
248	0x3d0d38d3	0.03447802
249	0xbd11f2a0	-0.035631776
250	0xbd11425b	-0.035463672
251	0xbd0cdf28	-0.034392506
252	0xbd1646d9	-0.03668866
253	0x3d077506	0.033070587
254	0xbd109fbd	-0.03530859
255	0x3d104f92	0.035232134

layers.0.egnn.coors_mlp.0.bias f4 [64]
0	0xbe0461c2	-0.12927917
1	0xbddcb64d	-0.107769586
2	0xbe7c8c1d	-0.24662824
3	0xbe8eec75	-0.27914777
4	0xbd54cd83	-0.051953804
5	0xbe5ba672	-0.21450213
6	0x3cfabd55	0.030607859
7	0x3dd948a7	0.106095605
8	0x3e4ba714	0.19887954
9	0x3c1b0a2c	0.009462874
10	0xbd772ffb	-0.060348492
11	0x3e90b286	0.28261203
12	0xbe6012ce	-0.21882173
13	0x3e45517b	0.19269364
14	0xbe34958e	-0.17635176
15	0xbe90a5bf	-0.28251454
16	0xbe795a5c	-0.24350876
17	0xbe023641	-0.12716009
18	0x3e5f4761	0.21804573
19	0xbe540412	-0.20704678
20	0xbe610837	-0.2197579
21	0x3e15792c	0.14597005
22	0xbc648dc8	-0.013949819
23	0x3de37bba	0.11107583
24	0xbe5dc66d	-0.21657725
25	0x3e5403c7	0.20704566
26	0xbe000f7f	-0.12505911
27	0xbda2aabe	-0.07942723
28	0x3e37cc4d	0.17949028
29	0x3cbcce8d	0.02304771
30	0xbe53daac	-0.20688885
31	0xbe76b553	-0.24092607
32	0x3e0ce8f5	0.13760741
33	0x3e1f5629	0.15560211
34	0xbe85a03b	-0.2609881
35	0x3e089de5	0.13341482
36	0xbe3b62ed	-0.18299456
37	0xbe784468	-0.24244845
38	0xbd2b7b71	-0.04186577
39	0x3d16cb89	0.0368152
40	0xbe64ad23	-0.22331671
41	0xbe29cc3c	-0.16581815
42	0xbdc0a66b	-0.09406742
43	0x3df0afeb	0.11752304
44	0xbe8df0e3	-0.27722844
45	0xbe80e099	-0.25171354
46	0x3e4027b6	0.18765149
47	0x3d8ac9a4	0.06776741
48	0xbe8ab4bb	-0.2709101
49	0xbda32087	-0.079651885
50	0xbe689b17	-0.22715412
51	0x3dde49e6	0.10853939
52	0x3e1f6f39	0.15569772
53	0x3e43d934	0.19125825
54	0x3ded8312	0.11597265
55	0xbdee05b4	-0.116221815
56	0x3e7cffde	0.2470698
57	0x3b025806	0.0019888892
58	0xbd67b841	-0.056572203
59	0x3d8aa181	0.06769086
60	0x3e1b08f6	0.15140137
61	0x3dabd98c	0.08391103
62	0xbd63a6b0	-0.055578887
63	0x3de883e9	0.11353285

layers.0.egnn.coors_mlp.3.weight f4 [1, 64]
0	0x3cfc167e	0.030772444
1	0x3ceccd1d	0.0289064
2	0x3d0438e2	0.03228081
3	0x3d0c4c69	0.034252558
4	0x3cb0cc55	0.021581808
5	0x3d08213e	0.033234827
6	0xbc8ed00e	-0.017433193
7	0xbd060eb5	-0.03272887
8	0xbd06192c	-0.03273885
9	0xbb9b2b71	-0.004735403
10	0x3cb9fb93	0.022702968
11	0xbd0b3ec7	-0.033995416
12	0x3d06152e	0.032735042
13	0xbd0f53d6	-0.03499206
14	0x3cf7ef94	0.030265607
15	0x3d0c2b9b	0.034221273
16	0x3d011f6e	0.031524114
17	0x3cf92bbb	0.03041636
18	0xbd13a24b	-0.036043447
19	0x3d02882d	0.03186815
20	0x3d02e367	0.03195515
21	0xbcf9e2b7	-0.030503614
22	0x3bcc0be9	0.0062270057
23	0xbcd7ecac	-0.026357971
24	0x3cf37084	0.029716738
25	0xbd0111a2	-0.031510957
26	0x3cebece5	0.028799484
27	0x3ce7f3a2	0.028314415
28	0xbd0ce78a	-0.0344005
29	0xbc3bf015	-0.011470814
30	0x3cfad3e1	0.03061861
31	0x3d08e56d	0.033421922
32	0xbcfb5298	-0.030679032
33	0xbcfae8ec	-0.030628644
34	0x3d047e77	0.03234717
35	0xbcf799d8	-0.030224726
36	0x3d0816b6	0.033224784
37	0x3d126932	0.035744853
38	0x3ca07664	0.019587703
39	0xbc8f9b11	-0.017529996
40	0x3d0c5042	0.034256227
41	0x3cfe8aa5	0.03107197
42	0x3cf5b310	0.02999261
43	0xbd009ed3	-0.031401467
44	0x3cfee3f6	0.03111456
45	0x3d05039c	0.032474145
46	0xbd04320e	-0.0322743
47	0xbcdb7024	-0.026786871
48	0x3d07f062	0.03318823
49	0x3cefb34f	0.029260306
50	0x3d0e2be8	0.03470984
51	0xbd0dc24c	-0.034609124
52	0xbcf76942	-0.030201558
53	0xbcf7e678	-0.030261263
54	0xbceac392	-0.028657708
55	0x3cedc45c	0.029024296
56	0xbd0afa93	-0.033930372
57	0xba7b6bba	-0.00095909426
58	0x3cca3195	0.024681846
59	0xbce10de2	-0.02747244
60	0xbd04e83e	-0.032448046
61	0xbcdcd7e0	-0.026958406
62	0x3cd373f2	0.025812123
63	0xbd01c99a	-0.031686403

layers.0.egnn.vel_mlp.0.weight f4 [16, 4]
0	0x3afaed34	0.0019144178
1	0x3b87b4d4	0.0041414294
2	0xbb1f5562	-0.0024312367
3	0x3b249153	0.0025111034
4	0x3b28e19f	0.0025769246
5	0xbb882118	-0.0041543357
6	0x3b88b9eb	0.004172554
7	0xbbdbb49f	-0.0067048813
8	0x3ab404da	0.0013734356
9	0xbb8f3ba4	-0.0043711234
10	0x3b35e812	0.0027756733
11	0xbba977f4	-0.00517177
12	0x3af87500	0.0018955767
13	0x3b05829a	0.0020372034
14	0xbaffb9f1	-0.0019510371
15	0x3ad7f673	0.0016476646
16	0x3a11c755	0.0005561014
17	0xba5f26df	-0.0008512567
18	0x3ae3149e	0.001732487
19	0xbadf661d	-0.0017043982
20	0x3a717cdc	0.0009212026
21	0xb9ffefde	-0.00048816105
22	0xbb574b09	-0.003285112
23	0x39e57daa	0.0004377191
24	0xba2544f4	-0.00063045253
25	0xbba1fcee	-0.0049434816
26	0x3b348094	0.002754246
27	0xbb8747be	-0.0041284254
28	0x3b443050	0.0029936023
29	0xb98750e4	-0.00025809475
30	0xba94a7b9	-0.0011341489
31	0xbaa83f23	-0.0012836199
32	0xbb6fea22	-0.003660806
33	0xba8ae5f4	-0.0010597096
34	0xb99c966d	-0.00029866715
35	0x3b2baa64	0.002619409
36	0xbb10a5c5	-0.0022071463
37	0xbb00a1d8	-0.0019627716
38	0x3b258916	0.0025258712
39	0x3ac2e1be	0.0014868302
40	0xbac41bba	-0.0014961876
41	0x3b885dcf	0.0041615735
42	0xbb0088bc	-0.001961275
43	0x3bac2cc4	0.00525436
44	0xba6b2e1f	-0.0008971411
45	0xbbafceef	-0.0053652446
46	0x3b51b771	0.0032000209
47	0xbb186e22	-0.0023259004
48	0xba7c0f0b	-0.00096152787
49	0x3b813bed	0.0039439113
50	0xbac7d62d	-0.0015246324
51	0x3ba66c54	0.0050788317
52	0x3a7d49c0	0.00096621737
53	0xbadc73ad	-0.0016819142
54	0xbaf7508a	-0.0018868607
55	0xbb9f1a8e	-0.0048554605
56	0xbb198741	-0.0023426565
57	0x3bb5157e	0.0055262437
58	0xbb899b7d	-0.004199444
59	0x3c067ae4	0.00820801
60	0x3a268fe4	0.0006353839
61	0xbb1cd518	-0.0023930725
62	0x3938cbc8	0.00017623522
63	0xbb86e00d	-0.0041160644

layers.0.egnn.vel_mlp.0.bias f4 [16]
0	0x3e0eab86	0.13932618
1	0x3e745947	0.23862182
2	0x3ec8bb80	0.3920555
3	0xbd3d3743	-0.04619528
4	0x3e44be78	0.19213283
5	0x3e53e51b	0.20692866
6	0x3e4c3f5f	0.19946049
7	0xbec37545	-0.38175407
8	0x3e6a7224	0.22895104
9	0xbf00494a	-0.5011183
10	0xbe923f1b	-0.2856377
11	0xbe87f80a	-0.26556426
12	0x3ee7f568	0.45304418
13	0xbd565947	-0.052331235
14	0x3d95f454	0.073219925
15	0x3d2f684f	0.042824086

layers.0.egnn.vel_mlp.3.weight f4 [1, 16]
0	0xbb75b9b6	-0.0037494726
1	0xb95d48d8	-0.00021103339
2	0x39c7dcdf	0.000381208
3	0xbb55b8c8	-0.003261136
4	0x3ae0a2a5	0.0017138316
5	0x39755142	0.00023395292
6	0x3a2bdec7	0.0006556329
7	0xbb6174ea	-0.0034401962
8	0x3b1a8d13	0.0023582622
9	0xba541fc5	-0.0008091892
10	0xbaad3974	-0.0013215975
11	0xb9b13e77	-0.0003380661
12	0xbafe63db	-0.0019408421
13	0x3aac71b6	0.0013156447
14	0x3a2b463b	0.00065335975
15	0x3b4dff73	0.0031432777

layers.1.egnn.edge_mlp.0.weight f4 [20, 10]
0	0xbcb7c634	-0.022433378
1	0x3cb3b397	0.021936221
2	0xbcab40d8	-0.020904943
3	0xbca45a65	-0.020062635
4	0xbcb0ca3a	-0.021580804
5	0x3c9c5114	0.01908163
6	0xbc9f0936	-0.019413572
7	0xbca51090	-0.0201495
8	0xbc9fb3aa	-0.01949485
9	0xbca2ed89	-0.019888656
10	0x3ca440e9	0.020050483
11	0xbc963f7f	-0.018340824
12	0x3ca594b1	0.020212503
13	0x3c97bfd4	0.018524088
14	0x3c9c1fd5	0.019058147
15	0xbc8b5fe4	-0.017013498
16	0x3c9260dc	0.017868452
17	0x3c9db599	0.019251632
18	0x3c9cfd06	0.01916362
19	0x3c8dc992	0.01730803
20	0x3b71367f	0.0036806164
21	0xbae397f8	-0.0017364016
22	0x3b66a844	0.003519551
23	0x3b8ded1f	0.0043312456
24	0x3aac1767	0.0013129533
25	0xbaef802b	-0.001827245
26	0x3ba1214c	0.0049172994
27	0x3a9d9980	0.0012023896
28	0xb9594bfa	-0.00020723036
29	0x39da5b4f	0.0004164823
30	0xbb2adb47	-0.002607064
31	0x3b841873	0.004031235
32	0xbbde3ac8	-0.0067819096
33	0xbbaaef22	-0.005216495
34	0xbb5f1b72	-0.0034043458
35	0x3ba94bfd	0.005166529
36	0xbbc6f4e2	-0.006071673
37	0xbbae413b	-0.0053178347
38	0xbb6b8940	-0.0035939962
39	0xbaabfc75	-0.0013121503
40	0xbc9be52c	-0.019030176
41	0x3c9adce2	0.018904153
42	0xbc948759	-0.018130945
43	0xbc907e23	-0.017638272
44	0xbc9c92ab	-0.019112905
45	0x3ca6d257	0.02036397
46	0xbca37dd4	-0.01995746
47	0xbca94938	-0.020664796
48	0xbc92247f	-0.017839668
49	0xbc84154d	-0.016123438
50	0x3c9b8c10	0.018987685
51	0xbcaa0867	-0.02075596
52	0x3ca7c82e	0.020481195
53	0x3cb4b5bd	0.022059316
54	0x3c9c6e81	0.019095661
55	0xbc9dbe16	-0.01925568
56	0x3cac8649	0.021060126
57	0x3cac78d7	0.021053715
58	0x3c9a18ae	0.018810596
59	0x3c92864f	0.017886309
60	0x3c8f5c3e	0.01750004
61	0xbc98090f	-0.018559007
62	0x3c88db76	0.01670621
63	0x3c9f9893	0.019481933
64	0x3c989c82	0.018629316
65	0xbc9c533d	-0.01908266
66	0x3c9982ea	0.018739183
67	0x3c9d36dd	0.0191912
68	0x3c89b830	0.01681146
69	0x3c9b7bf1	0.018979998
70	0xbca2ea0a	-0.01988699
71	0x3cb126c9	0.02162494
72	0xbcaaac67	-0.020834161
73	0xbc9e9661	-0.019358816
74	0xbc98cb6f	-0.018651692
75	0x3ca65f4e	0.020309117
76	0xbc96d5f4	-0.018412568
77	0xbca94765	-0.020663926
78	0xbc9b483a	-0.018955339
79	0xbc85b3fe	-0.016321179
80	0x3c8caa8f	0.017171172
81	0xbc9f5de4	-0.01945395
82	0x3c809a2f	0.01569852
83	0x3ca5e5a0	0.020251095
84	0x3ca6f31d	0.020379597
85	0xbcaeb3e9	-0.021326022
86	0x3caf45af	0.021395532
87	0x3ca2fef9	0.019896971
88	0x3c6a4a05	0.014299874
89	0x3c921bc4	0.017835505
90	0xbc9ef0a8	-0.019401863
91	0x3c9525ba	0.018206466
92	0xbc949a68	-0.018140033
93	0xbc9fb585	-0.019495735
94	0xbca099d3	-0.0196046
95	0x3ca34e90	0.019934922
96	0xbc9ffb29	-0.019528942
97	0xbca07d2c	-0.019590937
98	0xbc89565a	-0.016764808
99	0xbc90ce9d	-0.017676646
100	0x3c986b7a	0.018605936
101	0xbca45bdd	-0.020063335
102	0x3c9ea62c	0.019366346
103	0x3ca50171	0.020142289
104	0x3c98bdb5	0.018645147
105	0xbc9fffbf	-0.019531129
106	0x3ca5785e	0.020198997
107	0x3cb5bca4	0.022184677
108	0x3c739b8f	0.014868631
109	0x3c98fdbc	0.018675677
110	0xbcb737f5	-0.02236555
111	0x3cabfe62	0.020995323
112	0xbcb3cf17	-0.021949334
113	0xbcbcdc67	-0.023054315
114	0xbcbd4bf8	-0.023107514
115	0x3cb0402c	0.021514975
116	0xbcc23934	-0.023708917
117	0xbcb19ba0	-0.021680653
118	0xbcb0e45a	-0.021593262
119	0xbcb8630f	-0.022508172
120	0x3c9957bd	0.018718595
121	0xbca8b9b8	-0.02059637
122	0x3caab7d6	0.020839613
123	0x3c978d49	0.018499987
124	0x3c7e895d	0.01553568
125	0xbc8d4079	-0.017242657
126	0x3c81e610	0.015856773
127	0x3c8d5588	0.017252699
128	0x3cad8ed1	0.021186264
129	0x3c8b612f	0.017014114
130	0x3b3c5ba5	0.0028741148
131	0xbbba684c	-0.0056887027
132	0x3bd48215	0.0064852335
133	0x3ab2f8f4	0.0013654516
134	0xbb583e77	-0.0032996216
135	0x3bbd6ebf	0.005781024
136	0xbc25a96d	-0.010111195
137	0xbb96249e	-0.004582002
138	0x3c3cf47c	0.011532899
139	0x3b3e4485	0.002903254
140	0xbac6cb42	-0.0015166777
141	0x3afd10a7	0.0019307331
142	0xbac25f02	-0.001482934
143	0xbb011aba	-0.0019699768
144	0xbb9839f8	-0.0046455823
145	0x3bc1f89f	0.0059195305
146	0xbc1c7ab8	-0.009550743
147	0xbb76a2c7	-0.0037633644
148	0x3948ecbb	0.00019161675
149	0xbb2685fa	-0.0025409446
150	0xbcb94965	-0.022618005
151	0x3cb9c695	0.0226777
152	0xbcb37f42	-0.021911267
153	0xbcb0cea7	-0.021582915
154	0xbcb6a48b	-0.022295257
155	0x3caa166d	0.020762647
156	0xbcab15ae	-0.020884361
157	0xbcb050d2	-0.021522913
158	0xbcaeb51e	-0.021326598
159	0xbca8264c	-0.020526074
160	0x3c914a37	0.017735584
161	0xbc98d6c9	-0.018657105
162	0x3c9acaf3	0.018895602
163	0x3c88beae	0.016692486
164	0x3c3660ca	0.011131475
165	0xbc300ab1	-0.0107447365
166	0x3c0b8715	0.008516093
167	0x3c5a3a7c	0.013319608
168	0x3caa24e3	0.020769542
169	0x3c6c1dd5	0.014411409
170	0xbca46444	-0.020067342
171	0x3c90c074	0.017669894
172	0xbc9a85ee	-0.01886269
173	0xbc8f6703	-0.017505175
174	0xbcaab0cd	-0.020836258
175	0x3c9d1217	0.019173665
176	0xbc9986b6	-0.018740993
177	0xbc9b9ca9	-0.0189956
178	0xbc982eba	-0.018576968
179	0xbc94267b	-0.018084755
180	0xbcb3e046	-0.021957528
181	0x3cacfa5b	0.021115473
182	0xbca3d8a8	-0.02000077
183	0xbca7f78e	-0.020503785
184	0xbcb5ffe7	-0.02221675
185	0x3cbab933	0.022793388
186	0xbcc05df1	-0.023482295
187	0xbcc3252b	-0.023821434
188	0xbc9be73c	-0.01903116
189	0xbca54014	-0.020172156
190	0xbcaa81a6	-0.020813774
191	0x3ca231cd	0.019799137
192	0xbcb00730	-0.021487802
193	0xbca98083	-0.020691162
194	0xbca605fb	-0.020266524
195	0x3cacbf62	0.021087352
196	0xbcaa8429	-0.020814972
197	0xbcacaa16	-0.021077197
198	0xbc99bf68	-0.018768027
199	0xbc9f01ed	-0.019410098

layers.1.egnn.edge_mlp.0.bias f4 [20]
0	0x3da9114d	0.08255253
1	0xbde651d6	-0.11246078
2	0xbc7931f3	-0.015209663
3	0x3cbddac0	0.023175597
4	0x3e6f455c	0.23366302
5	0xbe182391	-0.14857318
6	0xbe3f8b67	-0.18705522
7	0x3df6e1a4	0.12054756
8	0xbe7185c0	-0.23586178
9	0x3e8f9ae5	0.28047863
10	0xbe4a6484	-0.19764906
11	0x3e45c441	0.19313146
12	0xbdab6b53	-0.0837008
13	0x3d1b1cb2	0.037869163
14	0x3d3debbe	0.0463674
15	0x3e05046b	0.12989967
16	0xbd09f4f2	-0.033680864
17	0x3e7d70f4	0.2475012
18	0x3e87d403	0.2652894
19	0x3e2b1c54	0.16710025

layers.1.egnn.edge_mlp.3.weight f4 [16, 20]
0	0x3c3ad2dd	0.011402813
1	0xbc12fc35	-0.008971264
2	0x3a7c4062	0.0009622631
3	0xba9bd382	-0.0011888596
4	0x3b03d9f0	0.0020118915
5	0xbbed4707	-0.007241133
6	0xbb8edce2	-0.0043598274
7	0x3be06c02	0.006848813
8	0xbb4bd33e	-0.0031101252
9	0x3ba254df	0.004953965
10	0xbb99be5b	-0.0046918816
11	0x3b841943	0.0040313317
12	0xbc4f4cdb	-0.012652601
13	0xbc0a6e1b	-0.008449103
14	0xbbc7dba3	-0.006099181
15	0x3c269948	0.010168381
16	0xbc8b179c	-0.016979031
17	0x3b6b6c7c	0.0035922816
18	0x3b896e7c	0.004194079
19	0x3bd3c1ba	0.006462303
20	0x3bca7259	0.006178182
21	0xbbbc7d84	-0.0057522673
22	0x3b12cd1b	0.0022400084
23	0xbab804d4	-0.0014039525
24	0x39d996e3	0.00041501885
25	0xbbb3d60d	-0.0054881633
26	0xbadfc9cc	-0.001707369
27	0x3bacf906	0.0052787093
28	0x3aa99712	0.0012938699
29	0xb9944eb6	-0.00028287404
30	0xbaa968e4	-0.0012924937
31	0x3a2513db	0.0006297209
32	0xbc088a28	-0.00833372
33	0xbc25020a	-0.010071287
34	0xbb839585	-0.004015627
35	0x3b660b7a	0.0035102055
36	0xbc46b8fd	-0.012129066
37	0x3ab875a3	0.0014073144
38	0x39ad3d10	0.00033042626
39	0x3adea357	0.0016985935
40	0x3ce1d609	0.02756788
41	0xbcf3d893	-0.029766357
42	0xbbabb65e	-0.0052402457
43	0x3b2f4907	0.0026746409
44	0x3d166252	0.03671486
45	0xbd04f353	-0.032458615
46	0xbd138179	-0.036012147
47	0x3cf8310a	0.030296821
48	0xbd19f193	-0.0375839
49	0x3d17f0c9	0.037094865
50	0xbd143416	-0.036182486
51	0x3d089acb	0.033350747
52	0xbcd2628e	-0.02568176
53	0x3cd36e1a	0.025809336
54	0x3c7a6982	0.015283944
55	0x3cf00828	0.029300764
56	0xbc958c3b	-0.018255344
57	0x3d1133a4	0.03544964
58	0x3d135079	0.035965417
59	0x3d08295b	0.033242565
60	0x3be6f093	0.0070477217
61	0xbbc7386b	-0.0060797236
62	0x3b27a559	0.0025580733
63	0xb97297de	-0.00023135493
64	0x3b11e2be	0.0022260393
65	0xbb40e514	-0.0029433416
66	0xbb5e5524	-0.003392526
67	0x3bf4334a	0.007452403
68	0xbad448a1	-0.0016195962
69	0x39a9651b	0.0003230952
70	0xba5196eb	-0.0007995206
71	0x3b2bae7e	0.0026196535
72	0xbc30de73	-0.0107952235
73	0xbc226f99	-0.009914302
74	0xbb97e8a2	-0.0046358863
75	0x3b96d030	0.0046024546
76	0xbc7893e2	-0.015171977
77	0xb9e395d7	-0.00043408453
78	0x3a889483	0.0010420237
79	0x3b3da211	0.002893571
80	0xbc1a9cd9	-0.009436809
81	0x3c0111c2	0.007877769
82	0xbb20cd31	-0.0024536366
83	0x3ae0b09a	0.0017142475
84	0xbb615a4f	-0.0034386104
85	0x3b990bc4	0.004670592
86	0x3abf3fd6	0.0014591168
87	0xbbeaac22	-0.007161633
88	0x3b85bfb3	0.00408169
89	0xbb69d5a6	-0.0035680323
90	0x3b44a6e4	0.00300067
91	0xbba047e0	-0.0048913807
92	0x3c244541	0.010026277
93	0x3c39ae5e	0.011333076
94	0x3bee1908	0.0072661676
95	0xbbe8f5bb	-0.0071093715
96	0x3c7a2b4a	0.01526911
97	0xbb0a99cd	-0.0021148801
98	0xbb1b3ea0	-0.002368845
99	0xbbac1fd8	-0.0052528195
100	0xbbbb82e9	-0.005722393
101	0x3bc6d01f	0.0060672904
102	0xbaf34f0f	-0.001856299
103	0x386de8a0	5.6721852e-05
104	0x398f5f53	0.00027346108
105	0x3b2b3bea	0.002612824
106	0x3ab2a04b	0.0013628093
107	0xbbab2184	-0.0052225012
108	0xb973c823	-0.00023248843
109	0xb98a8ae2	-0.00026424887
110	0xb82172dc	-3.8492362e-05
111	0xbb3ab69e	-0.0028490196
112	0x3c1f13de	0.009709327
113	0x3c0ddb22	0.008658202
114	0x3b967271	0.004591279
115	0xbb8198d1	-0.0039549847
116	0x3c718a6d	0.014742476
117	0xba97a511	-0.0011569579
118	0xba9322e4	-0.0011225608
119	0xbb5954e8	-0.003316218
120	0xbc06b6bb	-0.008222277
121	0x3bd015f1	0.006350272
122	0xbb0630ef	-0.0020475944
123	0xb9f51b5a	-0.0004675042
124	0xbaa0a4d8	-0.0012256159
125	0x3aceef26	0.0015787825
126	0x3adad7bf	0.0016696377
127	0xbba10538	-0.004913952
128	0xb8e90e62	-0.00011112985
129	0x3a59cb17	0.0008308156
130	0x3a624de7	0.0008632824
131	0xbb39edfa	-0.0028370605
132	0x3c24742c	0.010037463
133	0x3c2119d0	0.009832814
134	0x3b9a0c27	0.0047011557
135	0xbbc01c83	-0.005862774
136	0x3c652e92	0.013988154
137	0xbaf11366	-0.0018392622
138	0xb9afb77c	-0.00033515308
139	0xbb430a2f	-0.0029760709
140	0x3bdd8350	0.0067600384
141	0xbbda7944	-0.006667288
142	0x3b5b016e	0.00334176
143	0xba803d79	-0.0009783945
144	0x3abae928	0.001426016
145	0xbba1712b	-0.0049268208
146	0xbaffe8ea	-0.001952437
147	0x3b92274a	0.00446025
148	0xba6dd564	-0.000907263
149	0xb9bc1902	-0.00035876787
150	0xb9c5683a	-0.00037652423
151	0x3b94818f	0.004532046
152	0xbbf20cb5	-0.0073867687
153	0xbc2547d9	-0.010087931
154	0xbb9ef1ce	-0.0048506027
155	0x3bb95bc8	0.005656693
156	0xbc64bb66	-0.013960695
157	0xbab42c06	-0.001374603
158	0x3af96d4f	0.0019029769
159	0x3b966428	0.0045895763
160	0x3bf0fc5a	0.0073543014
161	0xbbb7adbe	-0.0056054285
162	0x39011f0e	0.00012313967
163	0xb892fbd4	-7.008729e-05
164	0xba1dcbcd	-0.00060194434
165	0xbb4e8d6e	-0.0031517404
166	0xbaa9167f	-0.0012900381
167	0x3bafeb7f	0.0053686495
168	0x3b50bcb5	0.003185076
169	0xbb54a47b	-0.003244667
170	0xbafbf5db	-0.0019223051
171	0x3b6557b1	0.0034994895
172	0xbc1d423b	-0.00959831
173	0xbc254c47	-0.010088987
174	0xbb87fbbe	-0.004149883
175	0x3b807053	0.00391964
176	0xbc66a331	-0.014076994
177	0xba694821	-0.00088989927
178	0xba7ad0c4	-0.00095678517
179	0x3b0ccaf7	0.002148328
180	0x3bf28287	0.007400814
181	0xbb6a8586	-0.0035785153
182	0x3a6239f5	0.0008629852
183	0xba508ca8	-0.000795553
184	0x3aac7ae5	0.0013159184
185	0xba8cec20	-0.0010751523
186	0xbaa206ba	-0.0012361624
187	0x3b603e30	0.0034216754
188	0x3ab39aa7	0.0013702706
189	0xba84d1b0	-0.0010133293
190	0xb8a4b9a8	-7.8547106e-05
191	0x3ae9b90b	0.0017831636
192	0xbc22024f	-0.009888246
193	0xbc19a8b1	-0.009378598
194	0xbbd93bf4	-0.0066294614
195	0x3b100f74	0.0021981867
196	0xbc62dc7b	-0.013846512
197	0x3abdb1be	0.0014472527
198	0xbab712f4	-0.001396744
199	0x3b2522f5	0.0025197838
200	0x3c076d83	0.008265856
201	0xbbac48d2	-0.0052577043
202	0x3a8dac67	0.0010808826
203	0xba73dcac	-0.0009302597
204	0x39ee9323	0.00045504523
205	0xbb8acd99	-0.004235935
206	0xbab00d2b	-0.0013431659
207	0x3b9b1293	0.004732439
208	0x398f3817	0.00027316876
209	0x39dcec84	0.00042137888
210	0xb8ab1eea	-8.1596736e-05
211	0x3aea2383	0.0017863367
212	0xbc3df73f	-0.011594593
213	0xbc2ba8bb	-0.01047724
214	0xbb94a3fb	-0.0045361496
215	0x3bbbb38d	0.005728191
216	0xbc7a190e	-0.015264763
217	0xb9dc21c4	-0.00041986827
218	0xb988a4e8	-0.00026062806
219	0x3b36c8a3	0.0027890585
220	0x3c67c463	0.014145943
221	0xbc64550d	-0.013936293
222	0x3bd9c694	0.006645987
223	0xbb81c3ca	-0.0039601075
224	0x3c265848	0.010152884
225	0xbc460bc3	-0.012087765
226	0xbc2dfd9b	-0.010619546
227	0x3c50ad2d	0.012736601
228	0xbc1ad2be	-0.009449659
229	0x3be37ce6	0.0069423793
230	0xbc2a60b8	-0.010399036
231	0x3c535f66	0.012901163
232	0xbc8978f3	-0.016781306
233	0xbc325ab1	-0.01088588
234	0xbbd67177	-0.006544288
235	0x3c502a6a	0.012705425
236	0xbcb029a0	-0.021504223
237	0x3c1a9cf3	0.009436834
238	0x3c2939c0	0.01032871
239	0x3c1a2246	0.0094075855
240	0xbc227f5e	-0.009918062
241	0x3bfbf3f5	0.007688994
242	0xbba83d3c	-0.005134253
243	0x3b0dddbd	0.002164706
244	0xbbba418c	-0.0056840833
245	0x3be91d41	0.007114083
246	0x3bb91723	0.00564851
247	0xbbd9992a	-0.006640573
248	0x3aa73c78	0.001275911
249	0xbb0bee80	-0.0021351874
250	0x3b5193be	0.003197893
251	0xbbc927f9	-0.0061387983
252	0x3c222d86	0.009898549
253	0x3c2c9f6d	0.010536057
254	0x3bcfd9f6	0.0063431216
255	0xbbd321a0	-0.0064432174

layers.1.egnn.edge_mlp.3.bias f4 [16]
0	0xbd959cbc	-0.07305285
1	0xbe1292c6	-0.14313802
2	0x3d29d705	0.041464824
3	0xbe0ad210	-0.13556695
4	0x3dccc0be	0.099977
5	0x3e58ad51	0.21159865
6	0x3e5deea0	0.2167306
7	0xbe1c8502	-0.15285113
8	0xbe5d56e2	-0.21615174
9	0xbe316d1e	-0.17326781
10	0xbe13e971	-0.1444452
11	0xbd38b5aa	-0.045095123
12	0x3de0cbe9	0.10976393
13	0xbe431006	-0.19049081
14	0x3ccc5511	0.024942907
15	0x3bd76ff8	0.006574627
