experiments/models/best_model_N20_batch64_lr0.001_fd4_b0.7.pth (torch, 31338 bytes, 32 tensors)

time_embedding.0.weight f4 [8, 1]
000000 d4 6a 55 bf c9 1e 77 3f 5e d9 39 bf c0 7b 36 bf
       -0.8336613 0.9653135 -0.725973 -0.7128258
000010 a2 d1 18 3f 14 61 08 3f 04 ec 23 bf 6a fe e5 3e
       0.59694874 0.5327313 -0.64032006 0.44920665

time_embedding.0.bias f4 [8]
000000 aa dd af 3e 73 81 e4 bd c0 6d 7c bd 08 41 ee 3e
       0.34348804 -0.11157503 -0.061628103 0.4653399
000010 db 3e e5 be d4 cf 5d 3f 8f a2 f7 3d 5d b9 b6 3e
       -0.44774517 0.86645246 0.120915525 0.35688296

time_embedding.3.weight f4 [4, 8]
000000 26 26 a8 be 66 68 d3 3d 7d 26 9f be 8a 1d 47 bc
       -0.32841605 0.10322647 -0.31084052 -0.012153039
000010 6a 13 a4 bd 85 66 6d 3e 33 0c 97 be 55 93 cf 3d
       -0.080115154 0.2318364 -0.29501495 0.10135523
000020 f0 59 cb 3d e9 3c ae 3e 42 96 42 bb f7 b8 2a be
       0.099292636 0.34030846 -0.0029691611 -0.16672121
000030 2c d7 4e be 48 0e a4 3e 79 4e ae bd 30 fe 11 be
       -0.20199269 0.32042146 -0.08511061 -0.14257121
000040 20 6e 15 bd 68 f3 67 be 98 15 b4 be 3b be 27 3e
       -0.036481977 -0.22651446 -0.35172725 0.16381161
000050 7a 77 96 3e c9 95 10 bc 5f 95 1a be 01 37 4a 3e
       0.29388028 -0.008824774 -0.15096043 0.19747545
000060 7f 8d 80 be 07 5e cf bd cd 92 a2 3c da 7a 5c be
       -0.25107953 -0.10125356 0.01984539 -0.21531239
000070 de a3 94 be 59 54 02 3e 76 4a 88 3e a5 8e ce 3d
       -0.2903127 0.12727489 0.2661931 0.10085801

time_embedding.3.bias f4 [4]
000000 81 ea c0 3e 3a e9 08 3e 8e 34 97 3e b3 1e ef be
       0.37678912 0.13370219 0.29532284 -0.4670311

layers.0.egnn.edge_mlp.0.weight f4 [20, 10]
000000 32 c3 5e 3d e0 02 0c 3e aa 16 f8 3d 47 60 b3 bd
       0.05438537 0.13672972 0.12113698 -0.08758598
000010 14 cb 39 3d 21 c8 e0 3d 13 d4 d3 3d 91 ca bb bd
       0.045359686 0.109756716 0.10343184 -0.09169496
000020 a7 56 02 3d 0e 46 1f 3d 72 66 f5 3c 20 4c b7 3d
       0.03182092 0.03888517 0.029956076 0.089500666
000030 32 4a a8 3d 23 d7 5e bd 9e 98 b3 3c 56 a1 8e 3d
       0.08217277 -0.05440439 0.02192336 0.06964366
000040 84 f2 86 3d 56 43 63 bd 62 26 6b 3c aa b7 a0 3c
       0.06589225 -0.05548414 0.014352413 0.019618828
000050 3a 83 c6 3d a9 14 45 3e 0a 90 2d 3e 49 66 f8 bd
       0.09692998 0.19246162 0.16949478 -0.12128884
000060 ce 94 9d 3d ab 9c 1e 3e 2a aa 10 3e 20 14 09 be
       0.07694398 0.15489452 0.14127412 -0.13386583
000070 b5 f4 71 3d d9 d5 82 3d 24 39 40 bd a2 3c d7 bd
       0.05907126 0.063884445 -0.046929494 -0.10509612
000080 28 48 e4 bd d9 24 af 3d dc 0a 28 bd 0a 66 ac bd
       -0.11146575 0.0855195 -0.04102598 -0.084179
000090 c2 b1 c1 bd 1e d4 ad 3d 9c 4d dc bc 5b 3c 29 bd
       -0.09457733 0.08487724 -0.026892476 -0.041317325
0000a0 d1 5a 55 bd f9 75 f1 bd 0d 04 f8 bd fe 25 b9 3d
       -0.052088562 -0.117900796 -0.121101476 0.090404496
0000b0 0c 7b 3f bd a0 0d c1 bd e6 96 d3 bd 4d fb b8 3d
       -0.046748206 -0.09426427 -0.10331516 0.09032307
0000c0 7d d9 01 bd 9e fb 28 bd e5 dc 5c bd 04 a8 f5 bd
       -0.031701554 -0.041255586 -0.0539216 -0.11994937
0000d0 49 5f f8 bd 0f 77 c0 3d 39 e9 3f bd 08 c4 c4 bd
       -0.12127549 0.093977086 -0.046853278 -0.096077025
0000e0 a9 af d9 bd e1 be c1 3d 95 33 02 bd 8c 21 3c bd
       -0.10629208 0.094602354 -0.031787474 -0.04593043
0000f0 18 cf 8c 3d 5c c1 1b 3e 8d 88 0a 3e 12 5c c4 bd
       0.068754375 0.1521048 0.13528652 -0.095878735
000100 90 48 6b 3d d4 cf f8 3d ac aa e7 3d 94 2d d8 bd
       0.057442248 0.12149015 0.1131185 -0.10555568
000110 85 be 1c 3d 6b 23 39 3d fc c5 8d bd 8c 14 1a be
       0.03826763 0.045199793 -0.06922528 -0.150469
000120 43 a0 11 be d0 4c e1 3d 19 d7 66 bd f2 06 eb bd
       -0.14221291 0.11000979 -0.056357477 -0.11475934
000130 8b 20 f9 bd f2 ce e1 3d 10 e2 12 bd dd 33 5c bd
       -0.1216441 0.110258 -0.03586012 -0.0537604
000140 ae 68 a7 3d ad ab 33 3e 67 ab 1d 3e e6 c2 e2 bd
       0.08174263 0.17545958 0.15397416 -0.1107233
000150 7e 95 86 3d c7 c8 0e 3e 20 07 04 3e 1b d9 f4 bd
       0.06571482 0.13943778 0.12893343 -0.11955472
000160 dc b1 48 3d 97 88 69 3d d6 cd 68 bd 26 14 06 be
       0.048997745 0.057015028 -0.056836925 -0.13093624
000170 0d 49 05 be b8 f0 c5 3d f3 c6 48 bd 52 f9 d2 bd
       -0.13016148 0.09665054 -0.049017858 -0.1030146
000180 63 96 e1 bd 6b 50 ce 3d 05 09 02 bd a2 70 43 bd
       -0.11015012 0.10073932 -0.031746883 -0.047714837
000190 70 55 5d bd 2d be f6 bd af 17 fc bd 0d aa bc 3d
       -0.054036558 -0.12047992 -0.12309205 0.09212122
0001a0 5f 37 42 bd 36 28 c8 bd b2 a3 d8 bd 57 25 b9 3d
       -0.047416087 -0.09773295 -0.105780974 0.09040325
0001b0 49 a7 fc bc 04 ce 35 bd d2 a8 4f 3d 24 ed 01 3e
       -0.030841487 -0.044385925 0.05069811 0.12688118
0001c0 91 88 db 3d fc 0b 9c bd 7e 4c 34 3d 73 5f d0 3d
       0.10719407 -0.07619473 0.04401826 0.101744555
0001d0 27 b1 b9 3d db 07 a7 bd da 61 ab 3c fd 35 0e 3d
       0.09066992 -0.08155795 0.020920683 0.034719456
0001e0 44 47 45 3d 2e 8d f9 3d fd 85 e1 3d c0 13 99 bd
       0.048163667 0.12185131 0.11011884 -0.0747447
0001f0 67 e6 18 3d de 1e c6 3d 46 71 ba 3d 42 ce a4 bd
       0.037329104 0.09673856 0.091036364 -0.08047153
000200 19 0b d5 3c 9a 9e 05 3d 35 8a a8 3b 60 a0 9d 3c
       0.026006268 0.032621957 0.0051434287 0.019241512
000210 87 d1 d0 3c 2e d3 5a bc 43 4b 88 3a df 75 8d 3c
       0.025490535 -0.013356013 0.0010398406 0.01726812
000220 6f 48 83 3c ec 44 6e bc de 94 11 3b e2 bc 20 3b
       0.01602575 -0.014542799 0.0022213976 0.0024526645
000230 a0 e5 9f bb eb 33 ae bb 4f 1f 00 bb 8f a3 5f 3b
       -0.0048796684 -0.0053162477 -0.0019549911 0.0034124588
000240 29 d9 9d bb df d9 8d bb be 4d 97 bb 07 2e 97 3b
       -0.0048171473 -0.004328951 -0.004617422 0.004613641
000250 7a 8c 37 bb 80 2e 38 bb 05 07 ef 3a ea a9 0d 3c
       -0.0028007315 -0.0028103888 0.0018236345 0.008646468
000260 92 ad 49 3c 37 95 c3 bb c1 14 39 bb 42 38 bf 3b
       0.012309449 -0.0059687155 -0.002824113 0.005835564
000270 66 dc 0c 3c a0 67 d2 bb df 9b b1 39 2c 79 01 bb
       0.008597469 -0.0064210445 0.00033876204 -0.0019756062
000280 08 97 84 3e 7b c0 af 3e a7 0d a7 3e c9 38 7b be
       0.25896478 0.34326538 0.32627603 -0.2453338
000290 99 b5 54 3e b1 95 97 3e 93 81 89 3e ca da 87 be
       0.20772399 0.29606393 0.2685667 -0.2653411
0002a0 ab d5 44 3e bf 20 40 3e df 05 7a 3d 8d bb 11 3e
       0.19222133 0.18762492 0.061040755 0.14231701
0002b0 2f b8 04 3e 4f 9b ba bd a9 a3 4d 3d 3e fb eb 3d
       0.12960885 -0.09111654 0.050204907 0.1152253
0002c0 bf 09 de 3d 13 a9 cc bd a9 ae 0d 3d 9e 95 2d 3d
       0.10841703 -0.09993186 0.034590397 0.042379014
0002d0 f1 b4 6d bd ac 5b 01 be 62 49 01 be 42 dc c5 3d
       -0.058033887 -0.12632626 -0.1262565 0.096611515
0002e0 7b ae 49 bd 82 78 cf bd ce 60 db bd eb 47 c7 3d
       -0.049238663 -0.10130407 -0.107118234 0.09730514
0002f0 3f fe 04 bd 79 36 3b bd 33 44 6c bd 9f 2d 01 be
       -0.03246903 -0.045706246 -0.057682227 -0.1261506
000300 17 aa 00 be 97 fd c4 3d ba 19 46 bd 86 26 cb bd
       -0.12564884 0.09618681 -0.04836438 -0.09919457
000310 98 e0 de bd 70 92 c2 3d 0b 89 f8 bc a5 70 3d bd
       -0.108826816 0.09500587 -0.030338785 -0.046250004

layers.0.egnn.edge_mlp.0.bias f4 [20]
000000 83 fb 8a 3e 56 41 fd 3d 76 89 41 3e a6 fa b5 bd
       0.27145013 0.123659775 0.18900093 -0.08885698
000010 c0 5d 9f be 2f 18 a2 be f0 ae 25 3e 9a f3 13 be
       -0.31126213 -0.31659076 0.16180015 -0.14448395
000020 c5 2b 43 3e 29 59 42 be 88 a1 81 be da fd 92 bc
       0.19059666 -0.18979324 -0.2531855 -0.017943311
000030 0e 12 30 3e 5a 42 8e 3d 5c 1a f2 3c a9 26 54 3d
       0.17194387 0.06946249 0.029553585 0.05179468
000040 23 92 2c 3e 50 98 9e 3e b4 a0 52 be 51 a5 95 be
       0.16852622 0.3097558 -0.20569116 -0.2922769

layers.0.egnn.edge_mlp.3.weight f4 [16, 20]
000000 80 44 4d 3d 7b 9f 09 3d 66 6d ad 3d ce 5c 40 bd
       0.050114155 0.033599358 0.08468132 -0.046963505
000010 93 73 43 bd 1c ad 42 bd 68 58 81 3d b9 2a 8c bd
       -0.047717642 -0.04752837 0.0631569 -0.06844086
000020 27 ce 97 3d d2 0b 61 bd 6c 97 52 bd 7f 86 1f 3d
       0.07412367 -0.054942913 -0.05141394 0.038946625
000030 34 97 39 3d ca ef ee 3b 6f 6b c9 3a 33 81 8f 3b
       0.045310214 0.0072917687 0.0015367101 0.0043794154
000040 de f1 65 3e e6 dc 52 3d b8 52 52 bd dd fc 57 bd
       0.22455546 0.051480196 -0.051348418 -0.052731384
000050 1f 59 57 bd 73 ff 20 bd db 5d b6 bd 62 85 47 3d
       -0.052575227 -0.039306115 -0.0890462 0.04871119
000060 fd c7 35 3d bf 9d 3d 3d 8c 21 85 bd 15 be 8a 3d
       0.044380177 0.046293017 -0.06500539 0.067745365
000070 64 cf 9e bd b1 f8 5f 3d 4e 4b 49 3d 94 5f 38 bd
       -0.077544 0.05468053 0.04914408 -0.045013025
000080 57 0c 55 bd 59 d0 81 bc 8c 8a d6 3a c0 7d 17 bc
       -0.05201372 -0.015846418 0.0016368194 -0.00924629
000090 b7 4c 6a be 8b f1 5f bd 93 bb 52 3d 6b e8 4a 3d
       -0.22880827 -0.054673713 0.051448416 0.049538057
0000a0 89 d4 60 bd a1 10 1c bd 8a 42 b8 bd a5 d1 4b 3d
       -0.05489019 -0.038101796 -0.08997066 0.04976048
0000b0 5f 82 32 3d c8 25 40 3d c0 0f 89 bd b7 9f 8c 3d
       0.043581363 0.04691103 -0.06692457 0.06866401
0000c0 68 2a a2 bd 49 7b 5d 3d 40 6b 4a 3d f5 ff 37 bd
       -0.079182446 0.054072652 0.049418688 -0.044921834
0000d0 79 c4 5d bd 24 22 5f bc ba 70 c5 3a 38 62 0f bc
       -0.05414245 -0.01361898 0.0015063502 -0.0087514445
0000e0 f8 07 6f be d8 71 59 bd cb f2 52 3d 0b 97 4a 3d
       -0.23342884 -0.053087085 0.051501077 0.049460452
0000f0 3a 6c 54 bd 7b 26 1a bd 87 54 af bd 09 a0 44 3d
       -0.051861025 -0.037634354 -0.08561044 0.048004184
000100 40 b1 41 3d de f6 3a 3d 6c 5e 88 bd 70 9b 85 3d
       0.04728818 0.045645587 -0.066586345 0.06523788
000110 98 f8 98 bd 45 33 5b 3d 82 cb 44 3d 93 05 32 bd
       -0.074692905 0.05351569 0.048045643 -0.043462347
000120 e8 11 58 bd 04 80 6d bc bc 39 3a 3a 3b bc 1e bc
       -0.05275145 -0.014495853 0.000710394 -0.009688432
000130 7e b5 66 be ff 00 5f bd aa f8 50 3d d8 83 44 3d
       -0.22530171 -0.05444431 0.051018395 0.0479773
000140 8c cc 3e 3d df da f8 3c 9b ba a1 3d f3 b3 42 bd
       0.04658179 0.030377803 0.0789692 -0.047534894
000150 95 19 37 bd 62 24 42 bd ee 07 76 3d eb d8 84 bd
       -0.04470213 -0.04739798 0.060066156 -0.06486686
000160 d4 87 90 3d 22 10 58 bd 8b bd 3f bd f8 22 0b 3d
       0.07057157 -0.05274976 -0.04681162 0.033968896
000170 cb d9 39 3d be 1d 0c 3c 7e 0d 9a 3b ac 74 c0 3b
       0.04537372 0.008552013 0.0047013154 0.0058732834
000180 d8 f1 5a 3e 3d a9 45 3d 43 a1 53 bd be 01 48 bd
       0.21381319 0.0482571 -0.051667463 -0.048829786
000190 2c cd 4e bd 2d 59 19 bd 57 83 a1 bd b1 47 46 3d
       -0.050488636 -0.03743856 -0.07886379 0.048408214
0001a0 55 bb 2f 3d 15 eb 33 3d af 11 78 bd 4f 0c 81 3d
       0.042903263 0.043925364 -0.06056374 0.06301176
0001b0 fc 9f 8d bd a2 1c 4e 3d f5 af 3c 3d 19 cd 15 bd
       -0.0691528 0.050320275 0.046066243 -0.03657255
0001c0 69 c0 44 bd 88 9c 86 bc 10 29 84 3a 16 6a 19 bc
       -0.04803506 -0.016432062 0.0010083038 -0.009363672
0001d0 1b b6 55 be 80 dc 57 bd db f4 43 3d 32 a7 39 3d
       -0.20870249 -0.05270052 0.047840934 0.045325466
0001e0 87 8d 5c bd 4d 32 2a bd 37 4d be bd 6b 08 59 3d
       -0.05384591 -0.041551877 -0.09292071 0.052986544
0001f0 c8 8a 41 3d f3 a2 47 3d 86 1e 8f bd cd e9 8d 3d
       0.047251493 0.048739385 -0.06988244 0.069293596
000200 ed dd a3 bd 71 54 67 3d f9 a8 5a 3d 3f 01 24 bd
       -0.08001313 0.056477014 0.0533838 -0.04004025
000210 35 84 5d bd 76 73 9b bc bb 5b cf ba d3 72 59 bc
       -0.05408116 -0.018975955 -0.0015820184 -0.013272005
000220 b2 ed 6b be 84 ef 6b bd 30 ba 60 3d 5b b6 56 3d
       -0.23039892 -0.057601467 0.054865062 0.05242
000230 61 37 60 bd c3 94 27 bd ff ab bb bd 57 32 53 3d
       -0.054740313 -0.040913355 -0.09163665 0.05156168
000240 86 92 49 3d 54 df 4f 3d b2 28 90 bd 6e a2 8c 3d
       0.049212 0.05075009 -0.07039012 0.068669185
000250 a9 09 a7 bd 21 b5 6a 3d 21 83 54 3d df c7 29 bd
       -0.081561394 0.057301644 0.051882867 -0.041450378
000260 5d 69 5d bd 20 90 81 bc a7 bb c4 ba 50 9b 50 bc
       -0.05405556 -0.015815794 -0.0015009538 -0.012732342
000270 b7 f3 6d be e6 e3 70 bd e8 e8 5b 3d cd 2f 54 3d
       -0.23237501 -0.05881109 0.053688914 0.0518034
000280 0c 53 66 bd 3b 94 2c bd 32 3b be bd e2 66 58 3d
       -0.056231543 -0.04213355 -0.09288634 0.05283249
000290 c5 5d 4b 3d fb 4d 49 3d 4a 47 8b bd a2 ef 8e 3d
       0.049649972 0.049146634 -0.06800707 0.069793
0002a0 60 cc a8 bd 48 60 71 3d 98 9f 51 3d 9c b3 28 bd
       -0.082421064 0.05892971 0.05117759 -0.041186914
0002b0 dc ca 64 bd 3b 52 8d bc ab 96 05 bb 0c 46 38 bc
       -0.055857524 -0.017251125 -0.0020383995 -0.011247169
0002c0 39 72 72 be 4f 1a 6c bd 19 8b 65 3d 14 bd 56 3d
       -0.23676385 -0.057642277 0.056040857 0.052426413
0002d0 fc bf 52 3d 84 2b 0b 3d 5c f3 af 3d b3 23 4c bd
       0.05145262 0.033977047 0.08591339 -0.049838733
0002e0 6b d4 51 bd 53 73 4e bd 16 4e 82 3d cc 30 92 bd
       -0.05122797 -0.05040295 0.0636255 -0.071382135
0002f0 6b 73 9b 3d a6 a2 6e bd cf 49 56 bd f6 14 21 3d
       0.075903736 -0.058260582 -0.052316483 0.03932663
000300 f5 40 47 3d 9f 6f 23 3c 8c 95 a0 3a d8 36 a2 3b
       0.048645932 0.009975343 0.00122516 0.0049503855
000310 4f f3 67 3e fc 27 5c 3d e4 30 66 bd 91 74 59 bd
       0.22651409 0.05374907 -0.05619897 -0.053089682
000320 84 84 52 3d aa 41 0b 3d 8b cb ae 3d 7f c6 52 bd
       0.051395908 0.03399817 0.085349165 -0.051458832
000330 04 a5 4e bd f8 ac 4a bd 45 b0 80 3d aa a3 8c bd
       -0.05045034 -0.049481362 0.06283621 -0.06867154
000340 bf 0f 96 3d 6e 44 6c bd 12 d9 4a bd 2d 69 11 3d
       0.07327222 -0.057682447 -0.04952342 0.035500694
000350 e0 71 3d 3d 7d 7c 55 3c 6a 50 53 3b f6 20 a5 3b
       0.046251178 0.013030169 0.0032243975 0.0050393296
000360 03 93 62 3e 33 1b 4d 3d 53 4f 5d bd a2 89 5a bd
       0.22126393 0.050074767 -0.054030728 -0.053353913
000370 fd e6 5a 3d 90 96 19 3d c1 7c b7 3d 72 3a 5a bd
       0.053442944 0.037497103 0.08959342 -0.053278394
000380 85 22 5d bd fe 9a 5c bd 0e ad 8c 3d 5a 3c 93 bd
       -0.053988 -0.05385875 0.06868945 -0.071892455
000390 53 70 99 3d 36 29 74 bd b4 bc 62 bd 61 0b 0f 3d
       0.07492127 -0.059609614 -0.055355743 0.03492296
0003a0 69 f9 4f 3d a7 54 61 3c fc 82 30 3b 41 ab 20 3c
       0.050774965 0.013753093 0.0026933542 0.009806455
0003b0 b3 c5 66 3e 24 3d 66 3d e2 66 6b bd cf f5 61 bd
       0.22536354 0.056210652 -0.057471164 -0.055166062
0003c0 13 e6 61 bd d7 54 21 bd bb b8 b7 bd 74 e0 50 3d
       -0.055151056 -0.03938755 -0.089707814 0.050995305
0003d0 44 53 3c 3d 5a 80 3a 3d c7 94 8a bd 4c f4 89 3d
       0.045977846 0.04553256 -0.06766658 0.06736049
0003e0 fd 75 a3 bd 4c 5a 61 3d 87 36 4e 3d f6 a9 2e bd
       -0.07981489 0.055017754 0.05034497 -0.042642556
0003f0 11 7d 5a bd e6 19 65 bc 82 a9 17 3a 87 d9 0f bc
       -0.05334193 -0.013983225 0.00057854515 -0.00877989

layers.0.egnn.edge_mlp.3.bias f4 [16]
000000 b2 f3 2f 3e e3 5b 0f be 29 88 26 be 3c ed f1 bd
       0.17182806 -0.13999896 -0.16262878 -0.11812827
000010 b0 59 eb 3d ff 3a 97 bd 09 bb 21 be 73 c5 28 be
       0.11491716 -0.073842995 -0.15794004 -0.16481571
000020 43 9a 7d be e5 87 6b 3e 66 0e 21 3e 52 84 88 3e
       -0.24765877 0.23001058 0.15728149 0.26663452
000030 4f 7b 7b be 37 96 2a 3e 1f ac 49 3e ad bf 13 3c
       -0.24558757 0.16658865 0.19694565 0.009017867

layers.0.egnn.node_mlp.0.weight f4 [8, 20]
000000 1b ea 93 3a 95 02 34 3a 75 57 fd b8 92 5b 8d 39
       0.0011284979 0.000686684 -0.0001208027 0.0002696184
000010 e3 14 c5 b8 35 29 2c b9 14 49 6f b9 56 c8 f1 ba
       -9.3975825e-05 -0.00016418549 -0.0002282004 -0.0018446546
000020 93 cc d6 b8 79 f5 67 3a 1e e5 00 3a 90 2c 2b 3a
       -0.0001024242 0.0008848529 0.00049169536 0.00065297727
000030 68 f7 af ba 1c b5 bc 3a 84 f8 f0 ba df 71 76 ba
       -0.0013425173 0.0014397237 -0.001838461 -0.00094011234
000040 b5 d1 14 3a ab 20 ba b9 e5 c9 ad 39 96 77 67 ba
       0.0005677001 -0.00035501024 0.00033147554 -0.00088297704
000050 d7 1d 91 39 65 d5 84 ba 2b d7 03 39 5a e4 07 ba
       0.00027678788 -0.0010134397 0.0001257329 -0.00051838683
000060 1f 12 42 bb 60 81 27 ba 89 a1 2c bb 2b c8 c6 b9
       -0.0029612852 -0.0006389823 -0.00263414 -0.0003791464
000070 b7 33 a0 3a 71 d2 8f 3a b6 da ea b9 be 2d a9 b8
       0.0012222443 0.0010972751 -0.0004479491 -8.067068e-05
000080 c7 95 6e 3a b5 db bc 3a 66 d4 f6 b9 d1 48 bf ba
       0.0009101298 0.001440874 -0.00047079026 -0.0014593845
000090 b2 af 42 ba 56 d0 14 3a 1d 49 a7 ba d7 1e f3 ba
       -0.00074266933 0.00056767964 -0.0012762878 -0.001854862
0000a0 7c d7 a5 3a c2 3c 93 b9 6e 80 87 ba f0 0c a0 b9
       0.001265272 -0.00028083293 -0.0010337958 -0.00030527217
0000b0 cf b4 14 ba 6a 3b a3 b9 85 0f 91 ba 38 19 13 b9
       -0.00056726945 -0.0003113405 -0.0011067247 -0.00014028407
0000c0 8b f6 af 3a f6 5e 8f 37 25 38 91 3a c3 78 b9 ba
       0.0013424916 1.7091148e-05 0.0011079354 -0.001415037
0000d0 18 93 9c 3a cf 47 69 3a 62 2e 14 ba 65 06 85 ba
       0.0011945693 0.0008898945 -0.00056526635 -0.0010149
0000e0 35 ef cd 39 28 7c c5 ba 21 7a 1c 3b 72 46 07 3a
       0.0003927887 -0.0015066909 0.0023876505 0.00051603385
0000f0 eb a0 d4 ba 3e 07 d4 3a be 91 a4 3a 6b d3 46 ba
       -0.0016222274 0.0016176475 0.0012555642 -0.00075846043
000100 f9 7f 1d ba 47 be aa ba 36 6b 9e 3a 66 42 07 3a
       -0.0006008144 -0.0013026678 0.0012086395 0.00051597354
000110 1a 32 22 3a ea 7c 9d b9 10 42 8c ba 89 94 34 39
       0.0006187275 -0.00030038442 -0.001070084 0.00017221471
000120 6e 43 0a 39 03 77 5a 3b be 25 65 b9 a2 3a 3c b9
       0.00013185825 0.0033335097 -0.00021853202 -0.0001795092
000130 31 9a 9f ba 0b 58 ba b9 03 c9 46 3a 3b 32 af b9
       -0.001217669 -0.00035542282 0.00075830537 -0.00033416026
000140 83 9b 6d 3a 9a 58 45 ba 31 ed 7f 39 6a 45 9e ba
       0.00090640056 -0.0007528156 0.00024407056 -0.001207513
000150 07 7b e1 ba fe 90 a5 3a de 34 d0 39 bf 1b b1 39
       -0.0017202803 0.0012631712 0.0003971224 0.00033780743
000160 8e 40 49 39 2d 51 31 3b 98 8f 1b 39 a6 31 95 ba
       0.00019192902 0.0027056441 0.00014835445 -0.0011382594
000170 9c f7 84 3a 02 3d 38 38 31 bd 34 3a 05 c1 88 39
       0.0010144594 4.3925837e-05 0.0006894647 0.00026083752
000180 34 15 96 b9 1b 2d 22 38 bc 28 f1 ba 8c 58 3f ba
       -0.00028626027 3.8665818e-05 -0.0018398981 -0.0007299266
000190 09 a0 ee 3a ee 8c b7 39 8b dc 1c b8 72 a6 96 3a
       0.0018205653 0.0003500948 -3.7398695e-05 0.0011493696
0001a0 d6 10 27 ba d3 f1 1e ba 58 9f 3c ba b0 34 7d 3a
       -0.0006373053 -0.00060632563 -0.0007195375 0.0009659035
0001b0 a9 7e 0c 3b 26 59 4c bb 90 c6 ed b8 17 ad 58 3a
       0.00214378 -0.0031181066 -0.00011338026 0.00082655385
0001c0 85 4c d4 39 7f d5 a7 3a 89 9d 6b 39 60 10 c6 b9
       0.00040492803 0.0012804716 0.00022470033 -0.00037777703
0001d0 11 07 18 ba 95 79 94 38 53 b5 ad 38 e4 45 ce 3a
       -0.0005799393 7.079836e-05 8.283057e-05 0.0015737382
0001e0 38 4c c2 3a 4c 00 bc 3a 4e ca 52 3a c3 6d a1 39
       0.001482374 0.001434335 0.000804101 0.00030790092
0001f0 b9 b9 b1 3a 65 44 c3 39 05 68 8d ba 3a 91 e5 b9
       0.0013559378 0.00037244256 -0.0010788447 -0.00043786486
000200 92 d4 e8 ba 43 f5 22 b9 b4 d7 8f 3a f4 2e b9 ba
       -0.0017763546 -0.00015540891 0.0010974319 -0.0014128373
000210 96 30 a8 3a b5 ab 20 3a bb e7 63 b9 53 ff 9a ba
       0.0012831863 0.0006129102 -0.00021734733 -0.001182536
000220 de 99 5d ba 71 ae 78 ba ae 2d 4d ba 55 68 69 39
       -0.0008453409 -0.0009486443 -0.0007826936 0.00022259478
000230 dc b7 e1 b9 d8 99 a8 3a 81 b1 91 39 27 1d 87 3a
       -0.0004305233 0.0012863232 0.00027788806 0.0010308371
000240 2c 43 e6 3a f9 f2 9e ba 78 7d 11 ba 28 8e c8 b9
       0.0017567626 -0.0012126855 -0.00055500073 -0.00038252887
000250 e2 b7 0a b9 83 45 5a ba 32 3a 91 3a 90 56 d5 39
       -0.00013229207 -0.0008326398 0.0011079966 0.0004069102
000260 46 44 72 ba 92 fd 41 ba 4e 52 b5 ba a4 e8 5c ba
       -0.0009241741 -0.00074001506 -0.0013833733 -0.0008427
000270 48 04 4b b9 b8 db 7a b9 d2 e3 f7 39 77 34 31 ba
       -0.00019361184 -0.0002392371 0.0004728125 -0.0006759832

layers.0.egnn.node_mlp.0.bias f4 [8]
000000 6d 9c 01 be 62 cc 23 3e 55 1e 20 3e 8c 43 9a 3d
       -0.12657328 0.15995935 0.15636571 0.07532415
000010 4b c2 64 be 0c d7 59 be bd 0f 99 bd 95 fb 27 be
       -0.22339742 -0.2127344 -0.07473705 -0.16404565

layers.0.egnn.node_mlp.3.weight f4 [4, 8]
000000 3d 89 a5 39 7f fa 92 ba 45 58 f5 ba bd 5a 0a 3a
       0.00031573503 -0.001121357 -0.0018718323 0.0005277803
000010 d0 4d 66 39 dc 9e 7c 37 3b 4d 24 ba 74 bc be b9
       0.00021963497 1.5057358e-05 -0.0006267612 -0.00036380033
000020 44 f2 18 38 15 0a 74 39 63 72 ae b5 2c 9e ba b9
       3.646525e-05 0.00023273409 -1.2997301e-06 -0.00035594532
000030 c8 4f c4 ba 08 7e a1 ba 41 b8 fc 37 70 e4 6b b9
       -0.001497739 -0.0012320885 3.012654e-05 -0.00022496446
000040 a5 00 e0 b9 40 53 dc 3a 8a 7f b6 ba 8c 36 52 3a
       -0.0004272509 0.0016809478 -0.0013923508 0.00080189924
000050 23 a3 65 3a d1 0b 41 ba b0 80 cf 38 df 98 e9 3a
       0.0008759966 -0.00073641265 9.894499e-05 0.0017822048
000060 6d c6 29 ba dd 66 08 39 fb 88 e3 b9 3f 39 b9 3a
       -0.0006476406 0.0001300829 -0.00043398872 0.001413144
000070 ad 60 c5 ba 9f f1 80 3a 83 9a 39 39 72 12 8b ba
       -0.0015058719 0.0009837634 0.00017700535 -0.0010610356

layers.0.egnn.node_mlp.3.bias f4 [4]
000000 bf 4f a9 3e e7 25 a5 be 7f 05 5e be 98 02 d9 3d
       0.33068654 -0.3225548 -0.21681784 0.10596198

layers.0.egnn.coors_mlp.0.weight f4 [64, 16]
000000 d4 10 4e bd 4b 19 42 3d be 22 3d 3d a9 12 48 3d
       -0.050309017 0.047387403 0.04617571 0.04884592
000010 51 1b 51 bd ef d4 4e 3d a6 dd 38 3d 62 57 3b 3d
       -0.05105144 0.050496038 0.045133255 0.04573763
000020 5b d7 2a 3d fe b1 3a bd 6a e9 4c bd fa 5d 41 bd
       0.041709285 -0.045579903 -0.05002729 -0.047208764
000030 e3 cb 33 3d 6c 9c 47 bd 79 57 4f bd 6d 87 07 bc
       0.043895613 -0.04873316 -0.05062053 -0.008272034
000040 2b 1f 31 3d 36 d2 3c bd 2a b4 36 bd 6f 37 3d bd
       0.043242615 -0.04609891 -0.04460541 -0.046195444
000050 c4 4e 36 3d de 08 48 bd 8a fd 38 bd c5 fa 36 bd
       0.04450871 -0.04883658 -0.04516367 -0.044672746
000060 74 78 33 bd a5 28 20 3d 95 61 28 3d 71 87 20 3d
       -0.043816045 0.03910126 0.041108686 0.039191667
000070 1e 32 30 bd 75 25 2f 3d 5a c6 28 3d da 99 a6 3b
       -0.043016545 0.04276033 0.041204788 0.0050842585
000080 05 f1 4b bd fb 61 42 3d 1f df 39 3d ad 7c 46 3d
       -0.0497904 0.047456723 0.0453788 0.048458744
000090 5e f1 56 bd 50 75 56 3d f8 62 35 3d 62 10 32 3d
       -0.05247628 0.05235797 0.044283837 0.043472655
0000a0 33 6d 29 3d 17 7e 49 bd a0 a7 4b bd 23 ab 3d bd
       0.041363906 -0.049192514 -0.049720407 -0.046305787
0000b0 42 16 31 3d 6d e4 54 bd 64 6f 42 bd 87 d9 e2 bb
       0.043234117 -0.051975656 -0.04746951 -0.006922904
0000c0 72 e9 18 3d 4d 52 28 bd a8 35 26 bd 4e f4 2b bd
       0.037332006 -0.041094113 -0.040578514 -0.041981034
0000d0 8f 12 1b 3d b5 7a 2f bd c3 47 25 bd 84 06 26 bd
       0.037859496 -0.042841632 -0.04035164 -0.040533558
0000e0 a5 61 1d bd 0f d1 17 3d 49 5c 1c 3d b7 b4 07 3d
       -0.0384232 0.03706461 0.038173947 0.033131327
0000f0 c5 8a 20 bd fd 45 15 3d 7e b8 14 3d 19 11 90 ba
       -0.03919484 0.0364437 0.036308758 -0.0010991424
000100 05 55 46 bd 15 61 3f 3d 3c fb 3e 3d d2 ef 4a 3d
       -0.048420925 0.046723444 0.046626315 0.049545117
000110 68 fd 5b bd c8 a2 4d 3d 4d ad 3a 3d ae 3d 41 3d
       -0.053708464 0.05020407 0.04557543 0.047177963
000120 dc f9 31 3d 25 2c 3e bd 9d d0 4c bd 65 1e 3a bd
       0.043451175 -0.04642882 -0.050003637 -0.045439143
000130 ef d1 2e 3d 6e 9f 46 bd c4 9f 3f bd 85 93 07 bc
       0.042680677 -0.048491888 -0.046783224 -0.0082749175
000140 c6 89 26 3d cf 2d 36 bd c1 96 33 bd 38 bc 34 bd
       0.040658735 -0.04447728 -0.043844942 -0.044124812
000150 71 6c 2b 3d a9 16 36 bd 73 f5 34 bd ce 72 33 bd
       0.041851465 -0.044455204 -0.04417939 -0.04381066
000160 aa 22 24 bd 5b e4 17 3d d9 78 22 3d c8 b3 17 3d
       -0.04007212 0.03708301 0.03966603 0.037036687
000170 8c 0b 26 bd 29 71 22 3d 16 31 29 3d 2d fa 5b ba
       -0.040538356 0.0396587 0.041306578 -0.0008391466
000180 59 08 4a bd b8 77 39 3d 6c d4 3a 3d 5a bb 44 3d
       -0.049324367 0.04528019 0.045612738 0.048030235
000190 88 de 4a bd a5 96 49 3d e7 34 32 3d 4e a8 38 3d
       -0.04952863 0.04921593 0.043507483 0.045082383
0001a0 c7 46 30 3d 8d b8 3c bd 0b b7 4e bd d0 a5 39 bd
       0.04303625 -0.04607444 -0.050467532 -0.045324147
0001b0 bd 65 33 3d ef 3e 49 bd ac 4b 4a bd a1 18 10 bc
       0.043798197 -0.049132284 -0.049388573 -0.0087949345
0001c0 c8 3b 49 bd d2 e7 40 3d 2d fb 46 3d d7 a4 42 3d
       -0.049129277 0.04709608 0.048579384 0.047520485
0001d0 7b 0d 4d bd 24 72 49 3d 64 46 3e 3d 53 df 38 3d
       -0.050061684 0.04918112 0.04645385 0.045134854
0001e0 be d9 2d 3d 81 31 41 bd 74 26 48 bd 2a 80 39 bd
       0.042443983 -0.04716635 -0.048864797 -0.045288242
0001f0 7e aa 2b 3d c6 2c 4a bd 8b 28 42 bd d9 15 02 bc
       0.04191064 -0.049359106 -0.047401946 -0.007939779
000200 9c 1a 2a 3d 5a 07 3e bd 7d dd 39 bd 95 f7 43 bd
       0.041529283 -0.04639373 -0.045377243 -0.047843534
000210 42 9a 35 3d 55 ce 47 bd c5 44 38 bd 16 83 3b bd
       0.044336565 -0.048780758 -0.04498746 -0.04577931
000220 fe f2 37 bd 01 78 22 3d 34 03 27 3d 51 37 20 3d
       -0.04490947 0.039665226 0.04077454 0.039115254
000230 c8 06 34 bd 36 83 2c 3d 14 cc 25 3d bf a3 94 3b
       -0.04395178 0.04211732 0.040477827 0.0045361216
000240 cc 1b 53 bd 1c a0 3f 3d 37 96 3c 3d c4 61 47 3d
       -0.05154018 0.04678355 0.046041694 0.04867722
000250 86 1f 58 bd ab 02 48 3d b9 19 34 3d a1 22 39 3d
       -0.052764438 0.04883067 0.043969844 0.04519904
000260 21 8f 2c 3d 04 88 37 bd 9a b7 4c bd e2 e4 3c bd
       0.042128686 -0.04480745 -0.049979784 -0.046116717
000270 6c af 2f 3d 5a 94 4d bd 4d ad 46 bd 47 58 d8 bb
       0.042891905 -0.050190307 -0.048505116 -0.0066023204
000280 16 91 38 bd d7 52 23 3d 09 0d 21 3d 72 5e 30 3d
       -0.04506024 0.039873924 0.039319072 0.04305882
000290 fe 90 39 bd 99 10 36 3d eb 4f 26 3d de d1 2d 3d
       -0.04530429 0.044449423 0.04060356 0.042436473
0002a0 95 c6 1c 3d 0b 8a 2e bd db 6b 39 bd 7b 8a 28 bd
       0.03827532 -0.042612117 -0.045268875 -0.04114769
0002b0 02 05 19 3d 78 73 3c bd 33 ad 31 bd 6d 59 19 bb
       0.03735829 -0.046008557 -0.043378066 -0.002339925
0002c0 25 53 4e bd bd 25 3c 3d 3e c4 3e 3d 27 b3 48 3d
       -0.05037226 0.045934428 0.04657387 0.048998978
0002d0 f6 54 52 bd 37 b5 46 3d b0 70 3b 3d c2 c6 3f 3d
       -0.051350556 0.048512664 0.045761764 0.04682041
0002e0 ed 29 2f 3d 17 80 44 bd 02 90 4f bd f0 d7 39 bd
       0.042764593 -0.04797372 -0.050674446 -0.04537195
0002f0 16 2d 2e 3d a0 e6 4f bd 55 6e 43 bd 71 ea 14 bc
       0.042523466 -0.05075705 -0.047712643 -0.009089098
000300 dc c4 3f bd e2 10 3b 3d 91 83 2b 3d 3d cc 3a 3d
       -0.0468186 0.045670398 0.04187352 0.045604933
000310 4e 36 45 bd 14 51 42 3d 2e 9f 2e 3d c2 33 2c 3d
       -0.048147492 0.047440603 0.042632274 0.042041548
000320 c0 b6 24 3d ab f2 31 bd f8 28 3f bd 4b d0 32 bd
       0.040213346 -0.043444317 -0.04666993 -0.043655675
000330 f6 a2 22 3d fd 2b 45 bd 0b 3d 37 bd dc 75 bf bb
       0.039706193 -0.048137654 -0.04473595 -0.0058429074
000340 10 73 19 3d 57 00 31 bd c9 4d 27 bd 26 89 36 bd
       0.037463248 -0.043213215 -0.040845666 -0.04456439
000350 9a d2 1e 3d d5 88 2e bd da d2 26 bd de 8a 25 bd
       0.038775064 -0.042610962 -0.040728427 -0.040415637
000360 06 ca 10 bd f2 49 18 3d 7c 11 11 3d 09 05 0e 3d
       -0.035348915 0.037179895 0.035417065 0.03467277
000370 ec 65 1e bd c0 ea 16 3d 93 40 0f 3d 9c 35 73 bb
       -0.03867142 0.03684497 0.034973692 -0.003711081
000380 e9 5e 3d bd 6a 6c 30 3d d9 c2 35 3d 9f 89 35 3d
       -0.04623309 0.04307214 0.044375274 0.0443207
000390 e4 0f 48 bd 20 dd 40 3d 18 c3 31 3d 99 24 2f 3d
       -0.04884328 0.04708588 0.043398947 0.04275951
0003a0 f9 0e 18 3d e9 df 36 bd 9f 4f 3f bd af 45 2e bd
       0.037123654 -0.04464713 -0.046706792 -0.042546924
0003b0 6b d0 1f 3d b8 05 43 bd af 14 3c bd 8f ec 97 bb
       0.039017122 -0.047612876 -0.045918163 -0.0046363543
0003c0 00 e4 27 3d 01 cc 35 bd 1f dc 37 bd 4a ee 3b bd
       0.040988922 -0.044384006 -0.04488766 -0.045881547
0003d0 3e a2 23 3d 13 2d 3e bd ce 3b 35 bd 80 2e 36 bd
       0.039949648 -0.046429705 -0.044246487 -0.04447794
0003e0 68 b0 2c bd 5f 55 1d 3d 98 09 25 3d b5 bd 17 3d
       -0.04216042 0.038411494 0.040292352 0.037046153
0003f0 78 47 2c bd 63 b6 26 3d 62 4e 1c 3d 7b 5d 02 3b
       -0.042060345 0.04070128 0.03816069 0.0019892144

layers.0.egnn.coors_mlp.0.bias f4 [64]
000000 c4 73 77 be af 2b 28 3e cc 0b 76 be 0c 18 c9 3d
       -0.24165255 0.16422914 -0.24027938 0.0981904
000010 a8 1e ca bd 2c 98 85 3e 9e a3 5e be dd 4e 38 be
       -0.098691285 0.2609266 -0.21742103 -0.17998834
000020 36 58 3e 3e 7d d5 90 be 55 31 80 be 8d 60 75 be
       0.18588337 -0.2828788 -0.25037637 -0.23962612
000030 50 b2 41 be 7c 3b 88 3e 8a 10 50 be 4c bd 87 3d
       -0.18915677 0.26607883 -0.20318809 0.066279024
000040 79 49 51 3e 3c 2d ac 3d 0f a8 67 3e 70 9c 0f 3e
       0.20438184 0.08407065 0.22622703 0.1402452
000050 06 5e 26 be cc 3d 87 bd 22 7c 81 be 72 ac 90 3e
       -0.16246805 -0.06603584 -0.25290018 0.28256565
000060 9f d2 f4 3d ba d4 f7 3d ef 06 70 3e 2a a5 77 3d
       0.11954235 0.12101121 0.23440145 0.060460247
000070 33 c3 be 3d 88 f6 b1 3d 2d b8 5d 3e d6 f3 08 3e
       0.09314575 0.086896 0.21652289 0.13374266
000080 8b 65 87 be 8b 1f 7c be f5 68 2c be fd 6a 42 be
       -0.2644466 -0.24621408 -0.16836913 -0.18986125
000090 4b c1 6a be cb 3e 62 3d 5b 6a 01 3e 80 b3 fb 3d
       -0.22925298 0.055235665 0.12638228 0.12290096
0000a0 e9 5f 52 3e e0 53 00 be 71 5b 78 be 65 83 30 bd
       0.205444 -0.12531996 -0.24253632 -0.043094058
0000b0 e2 02 49 3e 79 17 28 3e 75 87 4c be b9 40 4b be
       0.19630006 0.16415204 -0.19973548 -0.19848908
0000c0 ff 0d ca 3d ea bb 5e 3d 41 45 83 bd 05 d5 3c 3e
       0.09865951 0.054378428 -0.064096935 0.18440636
0000d0 73 eb 43 3e 4f 4b e7 bd 42 ce 06 be ff 25 6f 3e
       0.19132785 -0.11293661 -0.13164619 0.23354338
0000e0 f1 df 59 be 16 b7 e4 3d 3d aa d3 3d fc 7d a0 bd
       -0.21276833 0.11167733 0.10335205 -0.078365296
0000f0 0f e6 1e be 7d 00 9f 3d 41 c3 88 3e c7 63 a9 3d
       -0.15517448 0.07763765 0.26711467 0.08270984

layers.0.egnn.coors_mlp.3.weight f4 [1, 64]
000000 3c b1 e8 3c 45 7d f3 bc db c0 e4 3c 31 44 e4 bc
       0.028404824 -0.02972282 0.027923992 -0.027864547
000010 c8 05 00 3d 7a e5 dc bc 69 aa f1 3c dc 19 f0 3c
       0.031255513 -0.026964892 0.029500203 0.029309206
000020 2b da f0 bc b5 90 e2 3c d5 65 d7 3c cd e8 e6 3c
       -0.029400906 0.027656892 0.026293674 0.02818718
000030 f2 28 e3 3c d7 25 d4 bc ef 3b e1 3c 3b a3 fc bc
       0.027729485 -0.02589695 0.027494399 -0.030839553
000040 5c 9a da bc 98 3b fe bc de 59 dd bc bf ce de bc
       -0.026684932 -0.031034276 -0.027020391 -0.027198194
000050 a4 52 e5 3c 60 36 d7 3c 94 f6 e7 3c ba de dd bc
       0.027993508 0.026271045 0.02831582 -0.027083743
000060 bd a3 ff bc 99 24 f4 bc 15 86 e0 bc db 45 ec bc
       -0.031206006 -0.029802607 -0.027407685 -0.028841903
000070 69 98 f5 bc b8 fb d2 bc fd 33 e0 bc c4 e4 e8 bc
       -0.029979901 -0.025754794 -0.02736854 -0.028429396
000080 0b a3 ea 3c 90 7e e9 3c c5 d0 ec 3c 97 97 f4 3c
       0.028642198 0.028502733 0.028908143 0.02985744
000090 76 8c e4 3c 31 74 04 bd 2a 6e ee bc 8a 4f e3 bc
       0.027899008 -0.03233737 -0.029105265 -0.027747888
0000a0 a8 02 c3 bc 87 68 e3 3c 7d 4b e7 3c bc 76 15 3d
       -0.023804978 0.027759803 0.028234238 0.036490187
0000b0 84 a2 db bc ef 32 e9 bc 7e bd e3 3c 6c 3c dc 3c
       -0.026810892 -0.02846667 0.027800318 0.02688428
0000c0 24 b4 ff bc cf 81 fa bc 49 ab 0b 3d 66 97 e8 bc
       -0.031213827 -0.030579476 0.034098897 -0.028392505
0000d0 fe 94 ed bc ef 73 ff 3c 03 b2 fc 3c ab ab db bc
       -0.02900171 0.031183211 0.030846601 -0.026815256
0000e0 b5 f7 d0 3c 17 fb f5 bc cf d3 ec bc ad b0 05 3d
       0.02550874 -0.030026956 -0.028909592 0.032639194
0000f0 e7 77 f6 3c 5d 51 ec bc 8e 17 e3 bc ad df d7 bc
       0.03008647 -0.02884739 -0.027721193 -0.026351774

layers.0.egnn.vel_mlp.0.weight f4 [16, 4]
000000 8e 27 9a b9 2b b2 39 3a 1b 6d 04 b9 6d b9 04 bb
       -0.0002940264 0.0007083739 -0.00012629146 -0.0020252124
000010 ba bf 95 ba 97 62 27 3a b7 12 b7 ba 96 b5 51 3b
       -0.0011424937 0.00063852355 -0.001396737 0.0031999103
000020 3d cc fb b8 bf 48 ed b9 f1 7b b5 b9 59 b0 5d 3b
       -0.00012006655 -0.00045258363 -0.00034615354 0.0033827035
000030 e5 b1 01 bb 7c 2a af 3a 4a d2 7d b9 91 32 f7 3a
       -0.0019789871 0.0013364102 -0.00024206299 0.0018859674
000040 a6 97 64 3a b7 f4 90 37 c4 29 b3 ba 89 28 41 bb
       0.0008720107 1.7280092e-05 -0.0013669063 -0.0029473624
000050 6f bd a5 ba 93 79 d6 39 42 b7 26 3a 27 2f 0c 3b
       -0.0012644957 0.0004090784 0.0006359705 0.002139041
000060 71 ea 44 3a b7 2a 94 ba e9 7c bb 39 38 7a 41 3b
       0.0007511741 -0.0011304234 0.00035760485 0.002952231
000070 66 91 4e b8 a9 68 42 3a 91 62 fe ba 3f b1 72 bb
       -4.924964e-05 0.0007416108 -0.0019408037 -0.0037031916
000080 17 2e 84 b9 47 a5 4b b9 4e d4 37 39 b6 0a ab 3a
       -0.00025211342 -0.00019421159 0.0001753133 0.0013049457
000090 f9 88 49 ba 40 fd f2 39 ae 8f a9 ba 96 83 20 3b
       -0.0007687952 0.00046346523 -0.0012936497 0.0024492494
0000a0 58 4b 50 b9 c6 f4 14 3a 66 89 35 39 7c 90 eb ba
       -0.00019864494 0.0005682226 0.0001731269 -0.0017972137
0000b0 75 86 35 bb f5 b2 f4 3a 72 a6 17 3a 34 a4 b3 3a
       -0.002769855 0.0018669056 0.0005784995 0.0013705553
0000c0 78 07 d0 ba ed 4d 85 3a de 15 ae 39 bd 0d 87 3a
       -0.0015871366 0.0010170318 0.00033204159 0.0010303777
0000d0 f1 e4 51 3a 52 d5 2f ba 4e a5 0f bb bf 89 21 3b
       0.0008006832 -0.00067075074 -0.0021918598 0.0024648753
0000e0 35 0f 07 3a 6e fa ae b9 4a 53 7e 3a 7a 89 de ba
       0.00051521073 -0.0003337445 0.0009701742 -0.0016978227
0000f0 fe 5a 03 b9 6e 69 4a 3a db 52 2e ba bc d0 81 bb
       -0.00012527031 0.0007721399 -0.00066499197 -0.0039616507

layers.0.egnn.vel_mlp.0.bias f4 [16]
000000 41 e2 53 3d 98 8c 59 3e 0e 39 05 3e cd d5 44 be
       0.051729444 0.21245039 0.13010046 -0.19222184
000010 25 82 77 be 5d 08 af be a8 a5 32 3e 0f 70 4e be
       -0.2417074 -0.34186068 0.17446005 -0.20159934
000020 8e c6 cc 3e 48 f4 6f 3d 1a 11 f0 be 01 44 95 be
       0.39995235 0.058582574 -0.46888047 -0.29153445
000030 e5 38 93 bd dd 03 01 bf d7 cd 9f 3e f1 c3 f1 3e
       -0.07188586 -0.5039652 0.3121173 0.47219804

layers.0.egnn.vel_mlp.3.weight f4 [1, 16]
000000 d8 bc cf 38 c5 fd 69 b9 14 b3 53 b9 9e 93 b3 b8
       9.905704e-05 -0.00022315148 -0.0002018924 -8.562881e-05
000010 49 1b a1 38 71 f2 20 b6 12 5a 46 b9 9b ac 08 39
       7.6821605e-05 -2.3982977e-06 -0.00018916305 0.00013034271
000020 7a 71 2f b7 14 7c 5c b9 c9 26 a1 38 09 0f 34 38
       -1.0457234e-05 -0.00021027058 7.6843025e-05 4.2929347e-05
000030 20 83 92 37 f4 0d 9d b9 ac 9a 57 39 f2 ef 66 39
       1.7465616e-05 -0.0002995577 0.00020561618 0.00022023896

layers.1.egnn.edge_mlp.0.weight f4 [20, 10]
000000 ef 83 b0 3c fd 45 de 3c 11 c5 09 3d 94 d5 fc bc
       0.021547286 0.027132982 0.033635203 -0.03086356
000010 21 25 b2 3b 5b 96 16 bb 83 0c e6 3c 7b c9 c4 bc
       0.005436555 -0.0022977802 0.028082138 -0.024021855
000020 16 25 62 bb 50 42 dc 3b 3b f4 b7 bc bf eb ea bc
       -0.0034506968 0.0067217723 -0.022455325 -0.028676866
000030 83 09 02 bd 3e 7d fa 3c e9 68 10 bc 4e ba 02 bb
       -0.031747352 0.030577298 -0.008814075 -0.0019947472
000040 c7 46 e4 bc ab b7 e4 3c 36 ac c9 3c 4d 21 3a bc
       -0.02786578 0.027919611 0.02461825 -0.011360479
000050 c4 af 02 bd 11 9e 24 bd ec 36 31 bd b8 cc 22 3d
       -0.031905904 -0.040189806 -0.04326527 0.039746016
000060 19 84 8d bc f1 2a 20 bc 59 26 1b bd 4f 9a 11 3d
       -0.017274903 -0.009775863 -0.037878368 0.03554755
000070 f1 c3 85 3c 80 5e 98 bc 54 45 ea bc 10 67 1a bd
       0.016328784 -0.018599749 -0.028597511 -0.037695944
000080 eb a7 20 bd 2b c5 19 3d 11 ac 6c bc 94 8a 09 bc
       -0.03922264 0.03754155 -0.014445321 -0.008394856
000090 8f 47 15 bd e2 dc 0a 3d 62 80 94 3c 37 e4 91 bc
       -0.036445197 0.033902057 0.018127624 -0.017809017
0000a0 10 b1 02 3c ec 99 5d 3c bf 94 92 3c 86 60 55 bc
       0.007976785 0.013525467 0.017893193 -0.013023501
0000b0 9f ff ed 3a 91 3d 72 ba cc 8b 7e 3c 48 3c 25 bc
       0.0018157846 -0.00092407415 0.01553626 -0.010085173
0000c0 53 ba 3c bc 0c 60 a2 bb 91 2c ec bc 87 83 18 bd
       -0.0115190325 -0.0049552973 -0.028829845 -0.03723481
0000d0 40 d8 29 bd 16 60 16 3d 4d 6f 5f bc 3a d3 2a bb
       -0.041465998 0.03671273 -0.013637376 -0.0026065842
0000e0 66 87 03 bd f3 47 07 3d bb 1b ce 3c 30 ca 8d bc
       -0.032111548 0.0330276 0.025159707 -0.017308325
0000f0 65 c8 a2 bc 58 c5 e8 bc 3e 5f f5 bc 9c f3 e5 3c
       -0.019870946 -0.028414413 -0.029952642 0.028070264
000100 55 b6 cd bb 83 04 ea b9 85 50 de bc 7a 6d c2 3c
       -0.006277839 -0.0004463532 -0.027138004 0.023733843
000110 6d de d3 3c 0f b4 08 bc a5 f5 e7 bc ac 16 17 bd
       0.025862897 -0.008343711 -0.028315375 -0.036886856
000120 c3 1c 1e bd 5e 46 12 3d 1b bc 28 bc 7b 5a 1e bb
       -0.038601648 0.03571164 -0.010298754 -0.0024162817
000130 90 57 08 bd 13 47 05 3d e0 d2 e9 3c 22 6c 8f bc
       -0.03328663 0.032538485 0.028542936 -0.017507616
000140 75 13 ab 3c 1a c7 f4 3c c2 f7 09 3d 1e 40 02 bd
       0.020883301 0.029880095 0.033683546 -0.03179943
000150 a0 6b 31 3c a4 63 ec 3b 31 11 00 3d 66 48 e4 bc
       0.010828882 0.0072140265 0.031266395 -0.027866554
000160 9e 36 2c bb 9a b8 0e 3c 39 91 80 3c 75 73 b7 3c
       -0.0026277672 0.008711005 0.015694248 0.022393921
000170 f6 a0 e2 3c 45 2f b1 bc 5a ea a1 3b fc a1 47 3b
       0.027664643 -0.021628985 0.004941267 0.003046154
000180 88 a5 cc 3c 51 27 8c bc 34 97 db bb 84 5e e2 b8
       0.024981275 -0.017108591 -0.0067013744 -0.00010794125
000190 33 db fc bc 74 89 1d bd df 68 25 bd bb 44 1b 3d
       -0.030866241 -0.038461164 -0.040383216 0.037907343
0001a0 77 91 4d bc 24 af 55 bb 7c 89 0d bd 3e 5a 08 3d
       -0.012546889 -0.0032605613 -0.034554943 0.033289187
0001b0 c5 88 c2 3c f4 c6 8e bc 3d 2f dc bc 45 11 0b bd
       0.023746857 -0.017428853 -0.026877994 -0.033952016
0001c0 97 3a 15 bd 8a 2e 0f 3d 63 7e 44 bc f3 fb 81 bb
       -0.03643283 0.034956492 -0.011993024 -0.0039668023
0001d0 33 47 09 bd 8c 27 fa 3c 28 61 c8 3c c6 75 84 bc
       -0.033515166 0.030536436 0.02446039 -0.01616944
0001e0 bb ad c0 3c a3 b3 f4 3c 40 81 08 3d f6 23 f7 bc
       0.023520341 0.029870814 0.033326387 -0.030168515
0001f0 d9 bf 02 3c e2 05 92 bb f2 f0 eb 3c 5b 3a d8 bc
       0.00798031 -0.0044562677 0.028801415 -0.026395014
000200 79 4a 58 bb 0e f1 f9 3b 56 fe b0 3c d0 0e e9 3c
       -0.0033003374 0.007627613 0.021605652 0.028449446
000210 cb 42 0f 3d 4c 62 ea bc e9 45 ea 3b 2e 5b 64 bb
       0.034975808 -0.028611325 0.007149447 -0.0034844386
000220 72 22 f2 3c b6 73 d7 bc b3 17 83 bb dd aa 07 3c
       0.02955744 -0.026300292 -0.004000628 0.008280483
000230 bc 6a b6 3c 45 46 dd 3c a7 97 08 3d fa 09 e6 bc
       0.022267692 0.027011046 0.033347752 -0.02808093
000240 57 f6 55 3b cf cc 83 bb c9 4b e1 3c 8f a2 bb bc
       0.003264805 -0.004022218 0.027501957 -0.022904662
000250 87 f6 69 bb be 9e d3 3b cf 65 e5 bc 62 c3 14 bd
       -0.003569992 0.0064581325 -0.028002648 -0.036319144
000260 6a 0a 1c bd b5 aa 0f 3d dd 6d 46 bc 3e e2 3b bb
       -0.03809587 0.03507491 -0.012111154 -0.0028668786
000270 b0 0c 02 bd 5c e9 09 3d 31 8f cf 3c e4 e7 91 bc
       -0.03175038 0.033669814 0.025336834 -0.01781077
000280 4c d6 2f 3c 78 87 8c 3c 6b 63 c2 3c 59 89 90 bc
       0.010732245 0.01715444 0.023729047 -0.017643617
000290 49 12 68 3b 5a 87 52 ba 4d a5 a9 3c 15 58 5c bc
       0.003541129 -0.0008031033 0.020708704 -0.013448735
0002a0 c5 e6 1d bc 5c 0f 21 bb 6d 6d e2 bc 11 17 1a bd
       -0.009637539 -0.0024575805 -0.027640069 -0.037619654
0002b0 cc 43 1e bd f1 bb 12 3d b6 8d 79 bc ac 22 ed bb
       -0.038638875 0.035823766 -0.01523154 -0.007236799
0002c0 5b 48 10 bd 2a 23 08 3d 66 92 99 3c 4e 10 85 bc
       -0.035225254 0.03323666 0.018746566 -0.016243126
0002d0 34 4d 04 bd c8 4c 24 bd bb 70 2c bd 33 99 21 3d
       -0.03230019 -0.040112287 -0.042099696 0.039452743
0002e0 6f 02 85 bc 92 3a c3 bb 4a d8 0a bd c7 a8 11 3d
       -0.016236512 -0.00595791 -0.033897676 0.03556135
0002f0 e4 51 b7 3c 94 b6 97 bc 81 ec 5f bc a0 1f b7 bc
       0.022377916 -0.018519677 -0.013667227 -0.022353947
000300 9f 49 bb bc 9e 4f ae 3c 8b 71 2e bb d2 a3 de 3b
       -0.022862254 0.021278199 -0.002661797 0.0067944312
000310 d9 37 90 bc 59 e6 96 3c 7a 2b d7 3c 51 34 5b bb
       -0.017604755 0.018420385 0.026265848 -0.003344793

layers.1.egnn.edge_mlp.0.bias f4 [20]
000000 6a 8e 51 be c3 91 53 3d a9 19 68 3e e8 e7 33 3e
       -0.20464483 0.05165268 0.22666039 0.17568934
000010 f8 39 86 bc c6 86 92 3e 4c fd f8 3c 50 9e 5d 3e
       -0.016385064 0.2861845 0.030394219 0.21642423
000020 32 9d 06 be 5d 2b 85 bd 5d ee 96 3e 2d 63 ed 3d
       -0.13145903 -0.065024115 0.29478732 0.11591182
000030 c0 3a 69 be eb 11 68 be b0 cc 7e be 0c f9 1e 3e
       -0.22776318 -0.22663085 -0.2488277 0.15524691
000040 70 ad 11 bd 6c 7e 28 3e 4e 9b 95 3e 57 a3 4f bb
       -0.035565794 0.16454476 0.2922005 -0.0031683051

layers.1.egnn.edge_mlp.3.weight f4 [16, 20]
000000 ea 37 43 3a 66 cf d3 3b 13 2a 4c 3b fb be 95 3b
       0.00074469915 0.006463933 0.0031153008 0.004569886
000010 11 d8 84 bb aa b2 cf 3b d5 c2 da 3b 92 c6 e1 3b
       -0.0040540774 0.006338437 0.006676058 0.0068901265
000020 90 9d d0 3a 99 79 ec 39 4f 93 bf 3b 34 e1 f3 3b
       0.0015916098 0.00045104025 0.005846418 0.007442618
000030 b0 d9 9d 3a cf 1b 19 3a 08 14 81 39 39 02 ca 3b
       0.0012043025 0.00058406306 0.00024619722 0.0061648157
000040 d8 e0 44 ba 0a a1 77 3b 9b af a8 3b e4 12 06 3c
       -0.0007510311 0.0037785196 0.005147887 0.008183215
000050 1b 93 25 3c 6a 3b 40 bc 80 5f 3f bc cb 16 1c bc
       0.010105873 -0.011732915 -0.011680484 -0.009526919
000060 7f dd 99 3b b7 73 82 bc 66 b4 42 bc 9d fe 8a bc
       0.004695594 -0.015924318 -0.011883831 -0.016967112
000070 eb c8 e3 3b c2 24 d7 3b 90 73 7a bc 2e 16 51 bc
       0.0069514415 0.006565661 -0.015286341 -0.012761636
000080 e6 7e 20 3c 25 c5 4b 3c 3e 99 53 3c 30 ad 5e bc
       0.00979588 0.01243714 0.012914954 -0.013591096
000090 a7 b6 f9 3b fa d5 25 bc 0a 33 65 bc 90 a3 1c bc
       0.007620651 -0.010121817 -0.013989219 -0.009560481
0000a0 4a 99 1f 3c ca ca 1f bc 48 3b 24 bc 2e 89 01 bc
       0.009741137 -0.0097529385 -0.010023899 -0.007906241
0000b0 e1 b2 c3 3b 95 9f 82 bc aa 4b 40 bc e8 c7 75 bc
       0.0059722518 -0.015945235 -0.01173679 -0.015001275
0000c0 05 8b cd 3b 19 a9 e9 3b bd 65 85 bc 61 6b 30 bc
       0.006272676 0.0071307537 -0.016283864 -0.010767789
0000d0 95 5f 14 3c 80 e1 2e 3c 5c 90 22 3c 2a 92 6b bc
       0.009055992 0.010673881 0.009922113 -0.01437811
0000e0 8d 1f 4b 3b 10 65 31 bc 26 b6 60 bc a7 2e 3a bc
       0.0030994148 -0.010827318 -0.013715303 -0.011363662
0000f0 7d 7c d5 3b 75 ce 1f bc 5f 8c ff bb 85 e0 17 bc
       0.0065150843 -0.009753813 -0.007798716 -0.009269838
000100 11 04 2f 3b 0f f9 3e bc cc ad 12 bc d8 af 5b bc
       0.0026705305 -0.01165606 -0.008952569 -0.013408624
000110 7d 52 97 3a a0 c2 63 3b f1 e2 43 bc 5c 5b 13 bc
       0.0011544969 0.0034753457 -0.0119559625 -0.00899395
000120 6b 29 d0 3b 7e ef cc 3b 1c 19 08 3c 9e ad 27 bc
       0.0063525937 0.0062541356 0.008306768 -0.010234265
000130 cd bc 88 3b dd fa 06 bc 6e 40 3f bc 84 8c 39 bc
       0.0041728974 -0.008238521 -0.011673076 -0.011325005
000140 f1 bd 12 3c 83 9e 23 bc 6b 1e 1f bc 8f 7c 19 bc
       0.008956418 -0.009986523 -0.009711842 -0.009368076
000150 e3 78 6f 3b e5 48 5c bc 04 c1 2c bc 3f ee 80 bc
       0.003654056 -0.013445114 -0.010544065 -0.015738605
000160 2d e1 7c 3b 2d b8 b5 3b 66 7a 5b bc 98 2d 1f bc
       0.0038586364 0.005545637 -0.013395881 -0.00971546
000170 f6 f3 01 3c 46 4b 15 3c 78 85 0e 3c 4d 06 31 bc
       0.0079317 0.009112185 0.008698814 -0.010804725
000180 c1 ba b0 3b 29 eb 01 bc 51 e8 49 bc 5d ed 02 bc
       0.0053933566 -0.007929602 -0.012323455 -0.007991162
000190 b4 0c 41 3a 52 55 eb 3b d3 0b 85 3b 03 a8 37 3b
       0.00073642586 0.007181802 0.0040602474 0.0028023727
0001a0 2d 92 82 bb 19 68 eb 3b f1 e8 f8 3b 01 9e eb 3b
       -0.0039847107 0.0071840403 0.007596128 0.0071904664
0001b0 ff 4e 27 3b 9b 6d 10 3b 27 30 d5 3b 65 5e b8 3b
       0.0025529263 0.0022037986 0.0065059843 0.005626487
0001c0 ed 97 40 39 b9 42 95 ba 5e f0 16 bb 36 d1 08 3c
       0.00018367144 -0.0011387683 -0.0023031454 0.008350661
0001d0 eb 3a d1 ba 04 d4 75 3b b6 c1 b4 3b 4f f6 8d 3b
       -0.0015962993 0.0037510404 0.005516256 0.004332341
0001e0 aa 5d 6d 3b 91 1a a5 bb 62 bb 1e bb 4b 39 5e bb
       0.0036219158 -0.0050385674 -0.0024220576 -0.003390866
0001f0 8f 22 dd 3a 84 ac ca bb 97 69 d4 bb dc f4 02 bc
       0.0016871261 -0.0061851162 -0.006482314 -0.007992949
000200 b8 9f f4 3a 64 de 34 3b c3 c5 d7 bb 46 bf a6 bb
       0.0018663323 0.0027598375 -0.0065848543 -0.0050887195
000210 9a 6a 20 3b 50 a3 02 3b a5 98 53 3b 07 b5 bf bb
       0.0024477602 0.0019933768 0.0032287028 -0.0058504376
000220 b0 4c 87 3a 20 6f ad bb 90 57 c9 bb 17 5e 0e bc
       0.0010322537 -0.005292788 -0.0061444715 -0.008689425
000230 b7 58 42 3b a0 2b 7a 3b b3 53 b9 ba 6c 44 ca ba
       0.002965493 0.0038172975 -0.0014139324 -0.0015431768
000240 e6 dc ca 38 d6 7d 6b 3b 3c b2 bf 3b 27 44 87 3b
       9.673256e-05 0.0035933158 0.0058501046 0.0041279974
000250 20 d7 62 3b 7d 1a a8 3a bd 20 88 3b f5 93 93 3b
       0.0034613088 0.0012825277 0.0041542933 0.004503722
000260 96 6a 75 3a c9 9d 55 3b 6e 5d f8 3a 1a 61 48 3b
       0.0009361891 0.0032595268 0.0018948743 0.0030575455
000270 1f e3 27 ba 9f e5 4d 3a fd 9d 23 3b c2 a4 05 3c
       -0.0006404388 0.00078543456 0.0024965995 0.008156957
000280 28 37 f8 3a bc c2 d1 bb 9e 87 86 bb b5 f5 41 bb
       0.0018937336 -0.006401388 -0.0041055223 -0.0029595916
000290 a4 1d 39 3b 24 9f 10 bc 36 3b c5 bb c2 b2 ff bb
       0.0028246427 -0.008827005 -0.0060190214 -0.007803292
0002a0 3d 97 c5 ba 32 96 28 3b 02 21 df bb d1 43 eb bb
       -0.001507498 0.002572429 -0.0068093548 -0.007179715
0002b0 a4 92 74 3b a3 ae 3c 3b 30 76 20 3b 22 ef 04 bc
       0.003731885 0.0028790615 0.0024484508 -0.008113654
0002c0 04 cf 89 3a b4 b2 92 bb d2 6e f1 bb 8d 47 18 bc
       0.0010513966 -0.0044768695 -0.007367947 -0.009294403
0002d0 40 f7 81 ba 57 86 b4 3b e4 94 36 3a 92 b6 55 3b
       -0.0009915605 0.0055091786 0.00069649355 0.003261004
0002e0 a9 83 0b bb 9a 4c 01 3c 86 35 e4 3b 46 b7 0f 3c
       -0.0021288192 0.007891798 0.0069643883 0.008771723
0002f0 f6 6b 25 3b 70 b7 0b ba 78 4e a1 3b fa 32 e6 3b
       0.0025241352 -0.00053297635 0.0049226843 0.00702512
000300 14 17 56 ba b3 97 10 3a fa 5d ed ba 5a 8a 02 3c
       -0.0008166891 0.0005515769 -0.0018109672 0.007967556
000310 9f c0 23 ba 88 f5 32 3b 8b 76 a8 3b 8a 27 d1 3b
       -0.00062466593 0.0027306993 0.0051410845 0.0063828873
000320 75 2e 20 3b b4 06 4b 3b ba ab 16 3b dc 64 71 3b
       0.0024441753 0.0030979337 0.002299054 0.0036833799
000330 89 7e a4 ba f8 28 9d 3b b9 25 d3 3b 53 04 e5 3b
       -0.0012549917 0.0047961436 0.006443706 0.006989041
000340 14 2b 7d 3a 4f b8 c2 39 72 8d ae 3b 62 5a a1 3b
       0.0009657603 0.00037139884 0.00532692 0.0049241045
000350 78 06 c1 3a b5 2d 0e 3b c9 ec c5 3a 17 e2 a0 3b
       0.0014726659 0.0021694724 0.0015100475 0.0049097645
000360 64 2b 9b ba a9 7b 36 3b 27 0f 72 3b 48 59 ee 3b
       -0.0011838493 0.0027844703 0.00369353 0.0072738267
000370 a1 d6 61 3b 72 cc 89 3b a4 3f b7 b9 22 c8 18 3b
       0.0034460204 0.00420528 -0.00034951896 0.0023312648
000380 e8 3a 8b ba 6f 57 06 3b d1 78 89 3b 85 9c 8b 3b
       -0.0010622414 0.0020498892 0.0041953106 0.004260602
000390 f6 a2 a3 3b 06 97 87 3b 65 c3 aa 39 95 17 58 3b
       0.0049937917 0.0041378764 0.00032570507 0.003297304
0003a0 72 8a 34 3b 88 f1 15 39 f4 63 e9 3a 18 53 46 3b
       0.002754834 0.00014299725 0.0017806278 0.003026193
0003b0 0e e5 19 3b f8 93 17 3b a7 5b 04 3b c5 55 e8 3b
       0.0023482474 0.0023128968 0.002019623 0.0070903026
0003c0 5e 63 08 3b 93 3a 57 3b 95 5b e3 b8 42 15 8e 3a
       0.002081118 0.003284131 -0.00010841262 0.0010840076
0003d0 26 eb 04 b9 96 ab 29 3b 5f 14 ac 3b 2f 63 7c 3b
       -0.000126761 0.0025889627 0.005251452 0.0038511266
0003e0 d9 85 b6 3b 72 cf 97 3b 4e e2 8e 3b 65 67 8c 3b
       0.005570155 0.0046328837 0.0043604737 0.0042847865
0003f0 f4 74 61 3b 02 47 60 3b 65 9e 43 3b eb 03 22 3b
       0.0034401985 0.0034222011 0.002984905 0.0024721574

layers.1.egnn.edge_mlp.3.bias f4 [16]
000000 94 5d 4a 3e 02 25 7a be b8 05 72 be 5a af 54 be
       0.1976226 -0.2442818 -0.23634994 -0.20770016
000010 53 91 1d be c2 ab 2f 3e e3 1a 16 bd e3 b4 b4 3d
       -0.15387468 0.17155364 -0.036646735 0.08823564
000020 56 74 c7 bc 50 19 28 3e c0 22 11 3d bd 11 8c 3d
       -0.024347465 0.16415906 0.03543353 0.06839321
000030 7d bc 39 3e a3 e3 77 be ad c9 2f be e4 45 63 be
       0.18138309 -0.2420793 -0.17166777 -0.2219463
