experiments/models/best_model_N35_batch32_lr0.0001_fd4_b0.5.pth (torch, 31506 bytes, 32 tensors)

time_embedding.0.weight f4 [8, 1]
-0.88460916 0.2502436 0.3251667 0.75661564 0.60685116 -0.46101892 0.072838716 0.8355096
00000000: bf75 62bf ee1f 803e 407c a63e 90b1 413f
00000010: 995a 1b3f ac0a ecbe 772c 953d f5e3 553f

time_embedding.0.bias f4 [8]
0.6763679 0.22797745 -0.8124776 0.42832536 0.26307464 -0.97748446 0.49017447 -0.78257513
00000000: 7226 2d3f ec72 693e 88fe 4fbf 764d db3e
00000010: b8b1 863e 6c3c 7abf 26f8 fa3e d856 48bf

time_embedding.3.weight f4 [4, 8]
-0.010181766 0.22275487 -0.17037438 -0.020911373 -0.20406953 -0.15329967 0.27163205 0.2303808
-0.15210268 0.20446102 0.24825737 0.07369978 -0.37988454 -0.03647405 0.119397424 0.0553566
-0.038576517 -0.0012180242 0.28853568 0.1208722 -0.087106235 -0.25982794 -0.041737005 0.0987219
0.27051446 -0.066015 -0.23919176 0.31678814 0.24057579 0.07299813 0.12915137 0.16101524
00000000: 6cd1 26bc da19 643e 9f76 2ebe 544e abbc
00000010: 9af7 50be 97fa 1cbe 5b13 8b3e f2e8 6b3e
00000020: cec0 1bbe 3b5e 513e 2e37 7e3e e9ef 963d
00000030: 3a80 c2be d065 15bd a386 f43d 9abd 623d
00000040: 6902 1ebd 1ca6 9fba f3ba 933e d88b f73d
00000050: c164 b2bd 2b08 85be 6cf4 2abd b52e ca3d
00000060: df80 8a3e df32 87bd afee 74be 0e32 a23e
00000070: 8059 763e 0b80 953d 4240 043e 2ee1 243e

time_embedding.3.bias f4 [4]
0.18473475 -0.29754972 0.39087427 0.28479624
00000000: 1b2b 3d3e 7058 98be ac20 c83e d0d0 913e

layers.0.egnn.edge_mlp.0.weight f4 [20, 10]
0.028447181 -0.035293754 0.05969461 -0.018803665 0.028180148 -0.03609497 0.06121739 -0.01831292
-0.0024246874 0.10333567 0.03606154 -0.042683948 0.06475212 -0.006729254 0.037338424 -0.04358058
0.06668922 -0.004567507 0.0053807353 0.10721868 -0.1268398 0.123018086 -0.12888493 -0.07822048
-0.13164675 0.12136365 -0.12938245 -0.07235028 -0.055025183 -0.16450198 -0.11697808 0.1159483
-0.12689112 -0.07037509 -0.11829148 0.11419978 -0.12473904 -0.06450685 -0.060083874 -0.16375788
-0.11494939 0.11291251 -0.12251193 -0.069129094 -0.11679797 0.11064946 -0.12281163 -0.063008115
-0.05368849 -0.15885638 0.025984999 -0.034501754 0.058106106 -0.021820724 0.028612196 -0.03544257
0.058986597 -0.019232348 -0.003739649 0.10271198 -0.12178513 0.121284254 -0.13154995 -0.077703916
-0.12270624 0.119222954 -0.13126437 -0.07171641 -0.06365877 -0.17017946 -0.11433589 0.114238046
-0.12417543 -0.0681786 -0.11421802 0.1127284 -0.12383139 -0.06580252 -0.058155645 -0.16182423
-0.12914927 0.12201473 -0.12756892 -0.07632353 -0.1311762 0.11951961 -0.12765715 -0.06918291
-0.055342797 -0.16299544 -0.1244154 0.12242927 -0.1313 -0.07676909 -0.12289716 0.11944069
-0.13211001 -0.07219523 -0.06391447 -0.16935955 0.01933676 -0.028420977 0.053541042 -0.0281351
0.018044623 -0.02795913 0.054782175 -0.029631047 -0.00857719 0.10372408 0.018855056 -0.029702706
0.051735226 -0.029590193 0.02073054 -0.029497812 0.05600338 -0.028783645 -0.010397386 0.103706144
-0.14399195 0.13825504 -0.1485244 -0.09589647 -0.14736018 0.13590619 -0.146463 -0.08878356
-0.07734467 -0.18639697 0.027841182 -0.034723975 0.058092345 -0.01745661 0.02722883 -0.03711914
0.061123945 -0.014731439 -0.0027587526 0.10298618 0.021382734 -0.031104553 0.057516437 -0.025966883
0.021966534 -0.03219607 0.057318565 -0.026668599 -0.008016715 0.10215134 0.01761698 -0.025874902
0.05242236 -0.028254403 0.019809775 -0.030100007 0.053841572 -0.031222817 -0.010491242 0.102332145
0.021218862 -0.030401712 0.056967795 -0.023123926 0.024378067 -0.03205241 0.059004523 -0.023300307
-0.0067484556 0.102417715 -0.117427476 0.11321285 -0.12058242 -0.06676324 -0.11782398 0.11052786
-0.12067223 -0.06375601 -0.051785696 -0.15800425 -0.12993585 0.12432704 -0.13195191 -0.07889002
-0.1323854 0.12205836 -0.13219044 -0.07391074 -0.059952527 -0.16597193 -0.11971331 0.116271414
-0.12356861 -0.072813205 -0.12200458 0.114771046 -0.12340145 -0.0659206 -0.056067646 -0.15822618
00000000: 100a e93c 2f90 10bd 5682 743d 250a 9abc
00000010: 0eda e63c 52d8 13bd 16bf 7a3d fa04 96bc
00000020: 81e7 1ebb a7a1 d33d 44b5 133d 5dd5 2ebd
00000030: c29c 843d 1381 dcbb 2df0 183d 8d81 32bd
00000040: 5c94 883d 07ab 95bb e150 b03b 7895 db3d
00000050: 4be2 01be e8f0 fb3d 69fa 03be 0f32 a0bd
00000060: 68ce 06be 818d f83d d57c 04be 622c 94bd
00000070: 1662 61bd 3573 28be 3492 efbd 4d76 ed3d
00000080: bfef 01be d120 90bd ce42 f2bd 93e1 e93d
00000090: 2f77 ffbd 2b1c 84bd 821a 76bd 25b0 27be
000000a0: 966a ebbd ad3e e73d 89e7 fabd 8e93 8dbd
000000b0: c633 efbd 2f9c e23d aa84 fbbd 660a 81bd
000000c0: 76e8 5bbd 3fab 22be 7ede d43c b651 0dbd
000000d0: ab00 6e3d 60c1 b2bc 2064 ea3c 3a2c 11bd
000000e0: ee9b 713d 288d 9dbc e614 75bb a95a d23d
000000f0: 7b6a f9bd e163 f83d 08b5 06be 3b23 9fbd
00000100: 694d fbbd 2a2b f43d 2b6a 06be 0ee0 92bd
00000110: 875f 82bd 8643 2ebe ef28 eabd a3f5 e93d
00000120: b04f febd 39a1 8bbd 23eb e9bd 26de e63d
00000130: 509b fdbd 79c3 86bd 9d34 6ebd 40b5 25be
00000140: b53f 04be dce2 f93d 6da1 02be 834f 9cbd
00000150: 0e53 06be b3c6 f43d 8eb8 02be c5af 8dbd
00000160: 21af 62bd 47e8 26be 80cd febd 32bc fa3d
00000170: 8273 06be 1d39 9dbd 82b1 fbbd 529d f43d
00000180: d947 07be 18db 93bd 97e5 82bd 976c 2dbe
00000190: 2068 9e3c 1cd3 e8bc da4d 5b3d 957b e6bc
000001a0: 51d2 933c 8c0a e5bc 4663 603d cfbc f2bc
000001b0: 5887 0cbc 4a6d d43d eb75 9a3c 1753 f3bc
000001c0: 51e8 533d 2267 f2bc 18d3 a93c 65a5 f1bc
000001d0: cd63 653d aecb ebbc cc59 2abc e363 d43d
000001e0: a072 13be bb92 0d3e c816 18be 5e65 c4bd
000001f0: 96e5 16be fe2a 0b3e 66fa 15be 28d4 b5bd
00000200: e266 9ebd d9de 3ebe 3113 e43c ba3a 0ebd
00000210: 3df2 6d3d 2a01 8fbc ff0e df3c 3d0a 18bd
00000220: 1a5d 7a3d 225c 71bc 30cc 34bb 6bea d23d
00000230: d82a af3c face febc 5b96 6b3d 80b8 d4bc
00000240: 29f3 b33c 07e0 03bd dfc6 6a3d 1b78 dabc
00000250: 8a58 03bc b934 d13d 7c51 903c 9af7 d3bc
00000260: d4b8 563d c775 e7bc 1c48 a23c 4a94 f6bc
00000270: fb88 5c3d fec6 ffbc 75e3 2bbc 8493 d13d
00000280: 2ed3 ad3c 030d f9bc 1057 693d 636e bdbc
00000290: 83b4 c73c 6349 03bd baae 713d 49e0 bebc
000002a0: 2622 ddbb 61c0 d13d d17d f0bd 24dc e73d
000002b0: eaf3 f6bd 2abb 88bd b34d f1bd 6e5c e23d
000002c0: 0123 f7bd 8392 82bd 3d1d 54bd decb 21be
000002d0: e70d 05be 2d9f fe3d 671e 07be 1791 a1bd
000002e0: 0a90 07be bcf9 f93d ee5c 07be 845e 97bd
000002f0: c890 75bd 8cf4 29be 402c f5bd b51f ee3d
00000300: 8a11 fdbd 171f 95bd 8add f9bd 150d eb3d
00000310: e6b9 fcbd 6101 87bd 30a7 65bd 0b06 22be

layers.0.egnn.edge_mlp.0.bias f4 [20]
0.19084291 0.10735932 -0.39064443 -0.26067495 -0.33893362 0.18829662 -0.21948119 -0.2439542
-0.3980172 -0.2234811 0.38835472 0.32417896 -0.1906024 0.16511574 0.29501963 0.36607578
0.25814608 -0.38684052 -0.35549966 -0.3640975
00000000: 536c 433e 34df db3d 8c02 c8be 3077 85be
00000010: b588 adbe d4d0 403e adbf 60be 21cf 79be
00000020: e9c8 cbbe 3bd8 64be 6ed6 c63e c9fa a53e
00000030: 472d 43be 1a14 293e d00c 973e 496e bb3e
00000040: b92b 843e f60f c6be 0d04 b6be fd6a babe

layers.0.egnn.edge_mlp.3.weight f4 [16, 20]
0.0538322 0.0465091 -0.067647725 -0.06339561 -0.06750489 0.052951444 -0.06485207 -0.06576143
-0.068097 -0.063808866 0.05837478 0.05807685 -0.067682 0.052327294 0.056186642 0.059679836
0.056815907 -0.06502452 -0.066742904 -0.06686643 -0.07666862 -0.07736168 0.081470914 0.08611133
0.08175396 -0.0790154 0.08979701 0.08629982 0.07967134 0.08861478 -0.07830163 -0.0796631
0.09805257 -0.07824725 -0.07694107 -0.078652404 -0.07641207 0.08180249 0.08241274 0.081764154
-0.07562717 -0.0753287 0.07900152 0.08406497 0.08016523 -0.07529392 0.08928525 0.08662223
0.079315424 0.0892955 -0.07640143 -0.078075066 0.09359277 -0.07642469 -0.077712424 -0.07578882
-0.077172205 0.08016335 0.07954377 0.08155074 0.05201915 0.047373887 -0.069299735 -0.066429235
-0.06794647 0.05336818 -0.06584628 -0.063699715 -0.068957314 -0.06419626 0.060594745 0.059404712
-0.06864327 0.0523054 0.05631729 0.060097266 0.055561733 -0.06938816 -0.06783864 -0.066232994
-0.07488925 -0.07628939 0.074858785 0.07874444 0.07570742 -0.07806469 0.08526457 0.08242224
0.07335018 0.08773576 -0.07273353 -0.07547034 0.09262415 -0.07698565 -0.07233312 -0.07597872
-0.07584943 0.074261434 0.07821281 0.07435058 -0.074585214 -0.07788192 0.07761524 0.08330107
0.078977555 -0.07911176 0.0865154 0.08466821 0.07755772 0.08798416 -0.07324866 -0.076920465
0.09442535 -0.076772675 -0.07699725 -0.07563344 -0.075808614 0.077133454 0.07877937 0.07792078
0.051704522 0.05060421 -0.06851596 -0.06582741 -0.067161135 0.055380695 -0.06477646 -0.06512842
-0.07086609 -0.065745935 0.05943199 0.059360236 -0.06861478 0.05414229 0.057768896 0.062397953
0.055081174 -0.06969778 -0.067611136 -0.06737065 -0.07617352 -0.0762263 0.0780303 0.083043374
0.07822062 -0.0765642 0.08693489 0.08427964 0.07487337 0.085649095 -0.07318819 -0.07465293
0.0923776 -0.07744874 -0.07460354 -0.07437401 -0.07582085 0.076747775 0.07690476 0.07682216
-0.075067066 -0.07739138 0.07383108 0.08152113 0.076517805 -0.07816381 0.08577132 0.08441914
0.07438142 0.084782176 -0.074018136 -0.0778219 0.09287177 -0.07874666 -0.075063735 -0.07421874
-0.074170254 0.07538247 0.076276444 0.07685754 -0.07366056 -0.074792735 0.07767129 0.081216484
0.07825343 -0.07558506 0.08589406 0.08425784 0.075117625 0.084926315 -0.07201091 -0.076347776
0.09172364 -0.075419314 -0.07552705 -0.07466064 -0.07346769 0.07613105 0.07699363 0.07540586
-0.077645384 -0.07673962 0.084061384 0.08833793 0.08263212 -0.07983705 0.09270437 0.091355965
0.08420187 0.09141089 -0.08057605 -0.08079088 0.09864347 -0.07958071 -0.08084667 -0.080470465
-0.07998969 0.08380488 0.08213752 0.0832536 0.049802788 0.048083853 -0.06601224 -0.06380779
-0.06724588 0.0521919 -0.06397395 -0.062214386 -0.06818686 -0.06412109 0.057172347 0.059797578
-0.06837095 0.05300212 0.058960315 0.059318174 0.05504995 -0.06857707 -0.06660523 -0.06850278
-0.07739274 -0.078083605 0.07909529 0.083673224 0.08003497 -0.07784 0.08780289 0.08425059
0.078880645 0.087669685 -0.07656837 -0.07688596 0.095318384 -0.07817806 -0.07767887 -0.07626304
00000000: 277f 5c3d 5380 3e3d e48a 8abd 8fd5 81bd
00000010: 0140 8abd 9de3 583d 29d1 84bd eead 86bd
00000020: 7176 8bbd 39ae 82bd 651a 6f3d fee1 6d3d
00000030: dc9c 8abd 2555 563d f723 663d d872 743d
00000040: ccb7 683d 932b 85bd 81b0 88bd 44f1 88bd
00000050: 7004 9dbd cd6f 9ebd 39da a63d 235b b03d
00000060: 9f6e a73d d3d2 a1bd 7fe7 b73d f6bd b03d
00000070: ba2a a33d aa7b b53d 9b5c a0bd 6826 a3bd
00000080: c9cf c83d 1840 a0bd 4893 9dbd 8314 a1bd
00000090: ee7d 9cbd 1088 a73d 03c8 a83d f773 a73d
000000a0: 6be2 9abd ef45 9abd 8dcb a13d 412a ac3d
000000b0: ab2d a43d b333 9abd 2fdb b63d ff66 b13d
000000c0: 2070 a23d 8fe0 b63d 5a78 9cbd d2e5 9fbd
000000d0: 91ad bf3d 8c84 9cbd b127 9fbd 2b37 9bbd
000000e0: 760c 9ebd af2c a43d d8e7 a23d 1304 a73d
000000f0: 0812 553d 1f0b 423d 05ed 8dbd 0d0c 88bd
00000100: 8527 8bbd 9898 5a3d 6ada 86bd ff74 82bd
00000110: 7e39 8dbd 5479 83bd 3232 783d 5b52 733d
00000120: d894 8cbd 303e 563d f5ac 663d 8d28 763d
00000130: b394 633d 611b 8ebd fcee 8abd 2aa5 87bd
00000140: 895f 99bd 9d3d 9cbd 904f 993d c444 a13d
00000150: 7e0c 9b3d 61e0 9fbd 319f ae3d fecc a83d
00000160: 9f38 963d ceae b33d 51f5 94bd 3290 9abd
00000170: bbb1 bd3d a7aa 9dbd 6323 94bd bb9a 9bbd
00000180: f256 9bbd 6116 983d 0a2e a03d 1e45 983d
00000190: 22c0 98bd 8e80 9fbd bdf4 9e3d c099 aa3d
000001a0: fcbe a13d 5905 a2bd fc2e b13d 8766 ad3d
000001b0: 95d6 9e3d 0a31 b43d 6503 96bd 7a88 9dbd
000001c0: 1462 c13d fe3a 9dbd bcb0 9dbd b4e5 9abd
000001d0: 8c41 9bbd 25f8 9d3d 1457 a13d ee94 9f3d
000001e0: 1fc8 533d 5c46 4f3d 1852 8cbd 85d0 86bd
000001f0: c78b 89bd ded6 623d 85a9 84bd 0d62 85bd
00000200: 3e22 91bd cea5 86bd f56e 733d b823 733d
00000210: e885 8cbd 4ec4 5d3d 149f 6c3d ff94 7f3d
00000220: cc9c 613d b6bd 8ebd b577 8abd a0f9 89bd
00000230: dd00 9cbd 891c 9cbd 5ace 9f3d a512 aa3d
00000240: 2232 a03d b1cd 9cbd eb0a b23d ce9a ac3d
00000250: 3657 993d cb68 af3d b1e3 95bd a3e3 98bd
00000260: 7830 bd3d 729d 9ebd bec9 98bd 6751 98bd
00000270: f647 9bbd f02d 9d3d 3e80 9d3d f054 9d3d
00000280: c3bc 99bd 5f7f 9ebd c034 973d 8df4 a63d
00000290: 5eb5 9c3d 5914 a0bd e0a8 af3d f1e3 ac3d
000002a0: 4955 983d 47a2 ad3d d296 97bd 1761 9fbd
000002b0: 8e33 be3d ee45 a1bd 04bb 99bd ffff 97bd
000002c0: 93e6 97bd 2062 9a3d d336 9c3d 7c67 9d3d
000002d0: 59db 96bd ef2c 99bd 2012 9f3d d454 a63d
000002e0: 5643 a03d 57cc 9abd 3ae9 af3d 608f ac3d
000002f0: 45d7 993d d9ed ad3d 757a 93bd 395c 9cbd
00000300: 9bd9 bb3d 7175 9abd edad 9abd ade7 98bd
00000310: 3a76 96bd 99ea 9b3d d6ae 9d3d 636e 9a3d
00000320: 8b04 9fbd a929 9dbd 6028 ac3d 84ea b43d
00000330: 073b a93d 9b81 a3bd cadb bd3d d618 bb3d
00000340: 0872 ac3d a235 bb3d 0e05 a5bd b075 a5bd
00000350: 9605 ca3d 36fb a2bd f092 a5bd b3cd a4bd
00000360: a2d1 a3bd e5a1 ab3d b737 a83d dd80 aa3d
00000370: 02fe 4b3d 93f3 443d 6d31 87bd a9ad 82bd
00000380: 35b8 89bd 2cc7 553d c604 83bd 83d4 7ebd
00000390: 8da5 8bbd eb51 83bd 8d2d 6a3d 4eee 743d
000003a0: 1206 8cbd c018 593d 5f80 713d 9df7 723d
000003b0: 0e7c 613d 2372 8cbd 5368 88bd 2f4b 8cbd
000003c0: 1680 9ebd 4cea 9fbd b6fc a13d de5c ab3d
000003d0: 60e9 a33d 946a 9fbd 00d2 b33d 938b ac3d
000003e0: 2d8c a13d 2a8c b33d e1cf 9cbd 6376 9dbd
000003f0: 4936 c33d d21b a0bd 1916 9fbd cc2f 9cbd

layers.0.egnn.edge_mlp.3.bias f4 [16]
0.20789358 -0.10694129 -0.12953275 0.11664607 -0.27211475 -0.19727737 0.09904752 -0.22885674
-0.28274822 -0.16523135 -0.081596516 0.18207698 -0.15513107 -0.16895753 0.27657902 -0.15233535
00000000: 0ee2 543e 0904 dbbd 3ca4 04be 22e4 ee3d
00000010: a052 8bbe 1403 4abe 6dd9 ca3d 6c59 6abe
00000020: 60c4 90be 6832 29be 131c a7bd 6372 3a3e
00000030: aeda 1ebe 3403 2dbe c49b 8d3e ccfd 1bbe

layers.0.egnn.node_mlp.0.weight f4 [8, 20]
0.0002690479 8.1770566e-05 0.0006529144 -0.0013466666 0.0007971477 -0.00015583712 -0.00015523261 -0.00052305945
0.0007258973 -0.00021509409 0.00087960245 0.0005247156 -0.0014263524 -0.000715245 -0.00018821587 -0.00078325806
-0.0013867613 0.00048584136 0.0008141853 0.00051631784 4.8183715e-06 0.00017486027 0.001953912 -0.00049181574
-0.0004220714 -0.0011305562 0.003335521 0.00032680813 0.000984616 0.0014786872 0.0009605473 7.394141e-05
-0.0020792435 -0.00032140198 0.0007302623 -0.00078223035 0.0005549127 0.00039548468 -0.0011167835 4.2559397e-05
0.00066432805 -0.000621499 -0.00079045934 0.0010172502 -1.742206e-05 -0.0007620781 0.00026601748 0.0011161417
0.00016157853 -0.00060708413 -0.00023905195 -0.0012369407 -0.00010840426 1.3083269e-05 0.001358903 -0.0011094586
0.00070590625 -0.00023791265 0.0004071293 -0.0017691747 -0.00059667794 0.0016316591 -5.9028557e-06 0.00131449
5.8333553e-05 -0.0008051771 0.0006821547 0.00075797027 -0.0008970777 -0.0006369521 0.0025019466 -0.0007188089
4.6387835e-05 0.0008565884 -0.0033749214 0.0011131745 6.6997934e-05 0.0019582151 -0.0020566783 -0.0015110198
0.0010070602 0.0016603525 0.0010798132 0.0003063252 -0.0017250978 0.00034476136 -0.00013595373 -0.0011050461
-0.0010482237 0.00031458662 0.001532093 0.00026397515 -0.0019841779 0.00092546595 0.00034749258 -0.002343733
0.0007914512 0.0019065103 -0.0006379548 -0.0018218746 -0.0002583812 0.00055711664 0.00032854843 -0.0004229534
-0.0009482968 0.003246572 0.0018270086 -0.00015443428 0.00043491664 0.00032093402 0.0035747143 0.00048900145
-0.0014556337 0.00022181313 0.0006926398 0.00060914527 0.0004097217 -6.5094823e-06 0.0010875937 -0.00079503853
-0.00036141873 -5.7210973e-06 -0.00092449615 -0.002111017 0.00027915117 -0.00018972313 -0.00014415798 -0.0015088584
-0.0005842037 -0.0021838874 -0.00010100549 -2.6452934e-05 -0.0037738497 0.0013916009 -0.00044531524 -0.002046514
-0.0015407703 0.0022627404 -0.0001066333 0.0007204895 -0.00016564636 0.00013840589 0.00063440023 0.00030928492
0.00036531765 -0.0012068423 0.00026730492 0.0005474611 -0.00079718616 0.00072432065 -0.00097239035 -0.0007476521
4.561818e-05 0.00070195465 -0.00047478193 -0.0011799107 0.001541079 0.00011585552 -0.0012208865 0.0013757749
00000000: ff0e 8d39 3d7c ab38 5828 2b3a a282 b0ba
00000010: adf7 503a 3568 23b9 f0c5 22b9 ed1d 09ba
00000020: 254a 3e3a e18a 61b9 1f95 663a 118d 093a
00000030: 72f4 baba 487f 3bba d05b 45b9 8f53 4dba
00000040: fdc3 b5ba 86b8 fe39 0d6f 553a 8159 073a
00000050: 7fad a136 b25a 3739 340d 003b 32ed 00ba
00000060: 7749 ddb9 2c2f 94ba c298 5a3b 7257 ab39
00000070: 3b0e 813a 82d0 c13a 3dcd 7b3a fe10 9b38
00000080: eb43 08bb d881 a8b9 136f 3f3a 970e 4dba
00000090: 9077 113a 0e59 cf39 0961 92ba ce81 3238
000000a0: 4d26 2e3a 18ec 22ba d436 4fba 4155 853a
000000b0: 9725 92b7 32c6 47ba 4378 8b39 804b 923a
000000c0: 686d 2939 ba24 1fba 05aa 7ab9 d820 a2ba
000000d0: 1857 e3b8 3680 5b37 381d b23a 416b 91ba
000000e0: 910c 393a 3178 79b9 f873 d539 a7e3 e7ba
000000f0: 616a 1cba 65dd d53a 2511 c6b6 f74a ac3a
00000100: 2dab 7438 8512 53ba a1d2 323a 86b2 463a
00000110: de29 6bba 22f9 26ba b3f7 233b 736e 3cba
00000120: 8f90 4238 ad8c 603a c92d 5dbb f0e7 913a
00000130: 3e81 8c38 6655 003b 56c9 06bb 690d c6ba
00000140: 55ff 833a 2fa0 d93a 8588 8d3a 469a a039
00000150: ad1c e2ba 16c1 b439 cd8e 0eb9 32d7 90ba
00000160: 8d64 89ba 1aef a439 83d0 c83a 2566 8a39
00000170: fb08 02bb f89a 723a aa2f b639 5199 19bb
00000180: 6479 4f3a dfe3 f93a 6c3c 27ba f8cb eeba
00000190: 5677 87b9 770b 123a 0641 ac39 d8bf ddb9
000001a0: 1f97 78ba 71c4 543b 3c78 ef3a a3ef 21b9
000001b0: 8605 e439 0943 a839 c145 6a3b 5530 003a
000001c0: f6ca beba 8296 6839 4592 353a 0caf 1f3a
000001d0: eacf d639 076c dab6 978d 8e3a 226a 50ba
000001e0: cd7c bdb9 daf7 bfb6 e359 72ba fd58 0abb
000001f0: 095b 9239 6af0 46b9 1d29 17b9 e3c4 c5ba
00000200: 3f25 19ba 8d1f 0fbb e9d2 d3b8 3ee7 ddb7
00000210: b152 77bb 6166 b63a 3379 e9b9 cf1e 06bb
00000220: acf3 c9ba 7c4a 143b 51a0 dfb8 3bdf 3c3a
00000230: 5bb1 2db9 0c21 1139 e14d 263a 8527 a239
00000240: 1b88 bf39 e82e 9eba 0f25 8c39 7e83 0f3a
00000250: 42fa 50ba 56e0 3d3a 03e8 7eba 15fe 43ba
00000260: 2656 3f38 6103 383a 27ec f8b9 3ca7 9aba
00000270: 08fe c93a 75f7 f238 2706 a0ba 5853 b43a

layers.0.egnn.node_mlp.0.bias f4 [8]
0.0030072774 -0.04239097 0.19379394 0.17291157 -0.20920496 -0.058548506 -0.14323813 0.13187735
00000000: be15 453b 27a2 2dbd eb71 463e bb0f 313e
00000010: d339 56be 8fd0 6fbd 04ad 12be db0a 073e

layers.0.egnn.node_mlp.3.weight f4 [4, 8]
0.00088785327 -0.0012432396 0.0017550534 -0.0019834188 0.0020973694 2.451121e-05 -0.00049835787 0.00022183635
0.001434101 0.00068606465 -0.0016485762 -0.0005104698 -0.0010979146 0.000933683 0.00066156365 0.0006550223
0.0010400686 0.00032895192 0.00084720453 0.00088785926 -0.00024383992 -0.00047160784 0.0008853195 0.00060724706
-0.0022628445 0.00048007432 0.00042953706 -0.00015255084 -0.0010388574 0.001185137 1.4815744e-05 0.0015170518
00000000: d3be 683a 33f4 a2ba d209 e63a 3ffc 01bb
00000010: 0574 093b 6c9d cd37 3ba4 02ba be9c 6839
00000020: 72f8 bb3a 05d9 333a 0a15 d8ba 0cd1 05ba
00000030: e7e7 8fba 68c2 743a c96c 2d3a cdb5 2b3a
00000040: e952 883a 2e77 ac39 ef16 5e3a 3abf 683a
00000050: 48af 7fb9 2242 f7b9 c914 683a a92f 1f3a
00000060: 3b4c 14bb 7cb2 fb39 7d33 e139 0ef6 1fb9
00000070: 452a 88ba 9956 9b3a 2391 7837 d0d7 c63a

layers.0.egnn.node_mlp.3.bias f4 [4]
-0.18695351 -0.13535759 0.10301861 0.06251073
00000000: be70 3fbe 2e9b 0abe 6cfb d23d a005 803d

layers.0.egnn.coors_mlp.0.weight f4 [64, 16]
-0.0487711 0.060370326 0.056563236 -0.056910206 0.045842007 0.049227048 -0.060036555 0.048014455
0.045541387 0.052291762 0.067977756 -0.05153816 0.051389247 0.051911894 -0.047377203 0.052709688
0.04849532 -0.060721863 -0.057125054 0.05463467 -0.047874242 -0.052323986 0.056971047 -0.04884619
-0.04891475 -0.055796932 -0.067144476 0.048954304 -0.053585265 -0.053075574 0.046903536 -0.05483294
0.046881206 -0.060416136 -0.055815995 0.053266615 -0.047619373 -0.050603095 0.05651466 -0.048648532
-0.047366697 -0.051532067 -0.068053566 0.049165897 -0.052683946 -0.052199423 0.044769365 -0.05234489
-0.050513476 0.06168862 0.057393692 -0.058659572 0.045631506 0.05021258 -0.06146398 0.047892634
0.04682445 0.054591376 0.06840522 -0.05311868 0.053308852 0.051273365 -0.048212375 0.053716384
-0.049825903 0.061081566 0.05709976 -0.060356934 0.04716102 0.049339406 -0.061926823 0.048449423
0.04685774 0.05261864 0.06883432 -0.05118886 0.054731283 0.052882098 -0.04694931 0.055494722
0.048753783 -0.061298963 -0.056440745 0.054257255 -0.048005052 -0.053231623 0.053882323 -0.049916413
-0.0496019 -0.052273702 -0.06703751 0.04853272 -0.053923786 -0.05420186 0.044987302 -0.05430554
0.0470223 -0.06032125 -0.05658738 0.053260874 -0.049229186 -0.050166838 0.055286195 -0.047757965
-0.04716832 -0.05386371 -0.06528514 0.047224063 -0.055079307 -0.051704146 0.046994317 -0.054458197
0.0482693 -0.06233802 -0.0577188 0.05489902 -0.050259527 -0.052158616 0.056275368 -0.050654843
-0.048020788 -0.05419911 -0.06906019 0.04906456 -0.05534481 -0.055929337 0.047934618 -0.055889167
0.04901878 -0.05963069 -0.056932773 0.051783327 -0.046734918 -0.04917266 0.056050584 -0.050288655
-0.045420013 -0.05219387 -0.06483517 0.04824741 -0.05355018 -0.051666904 0.047081567 -0.051995713
0.04899959 -0.061187945 -0.05803524 0.053762067 -0.048589427 -0.052380413 0.055964317 -0.050205436
-0.047912035 -0.0528335 -0.06756232 0.05046512 -0.05398357 -0.051514544 0.047174484 -0.053271595
0.0468997 -0.060205504 -0.057426885 0.053606566 -0.049252704 -0.050128933 0.057165597 -0.050696403
-0.048322562 -0.053014215 -0.066111974 0.049852654 -0.05698556 -0.053445183 0.047588088 -0.05397894
-0.04697656 0.06189157 0.055399884 -0.057767462 0.0463228 0.04641847 -0.05984085 0.0473924
0.044632602 0.051007062 0.068487234 -0.050412707 0.051395837 0.05015937 -0.0476121 0.053023715
0.04650126 -0.059390057 -0.055516575 0.051169492 -0.045664217 -0.048928887 0.05663243 -0.04748124
-0.04677609 -0.050294843 -0.06761306 0.046879724 -0.053101778 -0.050529405 0.045139767 -0.05325853
-0.049020965 0.058002315 0.054149583 -0.05722427 0.045947824 0.04974764 -0.05722285 0.046171345
0.045266125 0.05093414 0.06546587 -0.048715368 0.053002387 0.050223883 -0.0451912 0.049667787
0.047776986 -0.062221173 -0.058251407 0.054848056 -0.050153915 -0.049365766 0.05781956 -0.049685873
-0.04741347 -0.05358684 -0.06697221 0.048361152 -0.0546147 -0.05296491 0.047577087 -0.054917783
-0.050996564 0.056993373 0.056969013 -0.05807179 0.04509605 0.048961043 -0.060908534 0.04948033
0.04473558 0.052162606 0.06709131 -0.051825713 0.05369336 0.05049489 -0.044739496 0.054829452
00000000: 34c4 47bd e046 773d daae 673d ad1a 69bd
00000010: d4c4 3b3d 4da2 493d e4e8 75bd ceaa 443d
00000020: 9b89 3a3d e32f 563d ec37 8b3d ad19 53bd
00000030: 887d 523d 91a1 543d 990e 42bd 1de6 573d
00000040: 07a3 463d 7db7 78bd f6fb 69bd 9bc8 5f3d
00000050: c817 44bd ad51 56bd 795a 693d f112 48bd
00000060: d55a 48bd 538b 64bd 0b83 89bd 4f84 483d
00000070: 397c 5bbd c665 59bd ec1d 403d 8198 60bd
00000080: 8206 403d e976 77bd 509f 64bd 182e 5a3d
00000090: 880c 43bd 3145 4fbd eb7b 673d af43 47bd
000000a0: 9503 42bd 4a13 53bd ab5f 8bbd 2e62 493d
000000b0: 1fcb 57bd 10cf 55bd 1560 373d 9867 56bd
000000c0: 38e7 4ebd 35ad 7c3d a615 6b3d 0545 70bd
000000d0: 1ae8 3a3d b5ab 4d3d a7c1 7bbd 112b 443d
000000e0: ffca 3f3d 359b 5f3d 0918 8c3d f992 59bd
000000f0: 625a 5a3d 0504 523d 577a 45bd b605 5c3d
00000100: 3f16 4cbd aa30 7a3d 70e1 693d d538 77bd
00000110: ea2b 413d 1e18 4a3d fba6 7dbd e772 463d
00000120: e7ed 3f3d a586 573d 02f9 8c3d 69ab 51bd
00000130: e92d 603d e69a 583d eb4d 40bd 6f4e 633d
00000140: 0cb2 473d 9f14 7bbd 692e 67bd db3c 5e3d
00000150: f2a0 44bd 6709 5abd b6b3 5c3d 2775 4cbd
00000160: 5d2b 4bbd f31c 56bd f64a 89bd 3fca 463d
00000170: 30df 5cbd c502 5ebd 9b44 383d 7c6f 5ebd
00000180: 759a 403d 6a13 77bd 2bc8 67bd 1328 5a3d
00000190: 8ba4 49bd be7b 4dbd c773 623d db9d 43bd
000001a0: 9133 41bd 32a0 5cbd 37b4 85bd 056e 413d
000001b0: d79a 61bd bac7 53bd 1d7d 403d 8f0f 5fbd
000001c0: 08b6 453d 2756 7fbd 8c6a 6cbd cbdd 603d
000001d0: efdc 4dbd 46a4 55bd 0081 663d 747b 4fbd
000001e0: 72b1 44bd e3ff 5dbd 6e6f 8dbd ecf7 483d
000001f0: 3db1 62bd 2916 65bd 1757 443d 0aec 64bd
00000200: ebc7 483d 4f3f 74bd 5732 69bd c11a 543d
00000210: 1d6d 3fbd 4569 49bd 4c95 653d 7afb 4dbd
00000220: 560a 3abd 3dc9 55bd 4dc8 84bd 149f 453d
00000230: 6f57 5bbd ada0 53bd 9ad8 403d 75f9 54bd
00000240: cbb3 483d 36a0 7abd 5cb6 6dbd 9d35 5c3d
00000250: b505 47bd d88c 56bd d73a 653d 37a4 4dbd
00000260: 693f 44bd f167 58bd 1d5e 8abd 83b4 4e3d
00000270: e01d 5dbd ea00 53bd 083a 413d 5133 5abd
00000280: e619 403d 0c9a 76bd 7438 6bbd 8f92 5b3d
00000290: 34bd 49bd ff53 4dbd 7926 6a3d 08a7 4fbd
000002a0: e1ed 45bd 6f25 59bd b765 87bd 4c32 4c3d
000002b0: b169 69bd 56e9 5abd baeb 423d 0519 5dbd
000002c0: 7e6a 40bd 0482 7d3d fdea 623d 939d 6cbd
000002d0: fabc 3d3d 4b21 3e3d ae1b 75bd 891e 423d
000002e0: add0 363d c8ec 503d 0943 8c3d 8e7d 4ebd
000002f0: 7184 523d e973 4d3d e804 43bd 652f 593d
00000300: 1b78 3e3d fd42 73bd 5965 63bd 1a97 513d
00000310: 670a 3bbd a869 48bd 68f7 673d b07b 42bd
00000320: 4998 3fbd f701 4ebd b778 8abd f404 403d
00000330: 4081 59bd ecf7 4ebd 7ae4 383d 9e25 5abd
00000340: 35ca 48bd d693 6d3d f4cb 5d3d ff63 6abd
00000350: c933 3c3d 2ec4 4b3d 8262 6abd 2a1e 3d3d
00000360: f968 393d 51a0 503d f812 863d c489 47bd
00000370: 0819 593d 8fb7 4d3d 681a 39bd 7370 4b3d
00000380: cdb1 433d a1db 7ebd 0799 6ebd 5ba8 603d
00000390: 316e 4dbd c233 4abd 34d4 6c3d 6a83 4bbd
000003a0: a034 42bd e07d 5bbd ba28 89bd 5816 463d
000003b0: aab3 5fbd bcf1 58bd 31e0 423d 78f1 60bd
000003c0: c6e1 50bd e271 693d 5758 693d afdc 6dbd
000003d0: a3b6 383d 608b 483d 3a7b 79bd e3ab 4a3d
000003e0: a83c 373d 75a8 553d 2b67 893d 3347 54bd
000003f0: 92ed 5b3d bbd3 4e3d c340 37bd d994 603d

layers.0.egnn.coors_mlp.0.bias f4 [64]
-0.15686491 0.18133666 0.19374391 -0.22963285 -0.12656465 0.045287196 0.18319672 0.06196116
0.17240474 0.11808284 0.23503977 -0.23077187 0.233269 -0.040546525 0.20370372 -0.17846943
0.14883882 -0.08261329 0.19682093 -0.05186313 0.0845192 -0.13896877 -0.2867316 -0.19901548
0.08799855 -0.08025657 -0.26939368 -0.19348076 0.16934252 0.09783609 0.2206489 0.18307778
-0.10401577 0.07532475 0.24018064 -0.20540951 0.19768675 0.26594317 0.14686568 0.2790454
0.2267452 0.11766751 -0.19540495 0.13289984 0.09779136 -0.2117668 -0.18654951 -0.26710692
-0.23130338 -0.22749472 -0.15257987 -0.046507668 -0.17486851 0.07040468 -0.14500411 -0.16983475
0.18473504 -0.1325691 -0.07975013 0.24488617 0.08025327 0.06850848 0.1176397 0.14418499
00000000: 32a1 20be 51b0 393e ce64 463e e024 6bbe
00000010: 2a9a 01be 117f 393d ec97 3b3e fcca 7d3d
00000020: de8a 303e 6bd5 f13d 44ae 703e 764f 6cbe
00000030: 12de 6e3e 1d14 26bd b597 503e b1c0 36be
00000040: 3469 183e 2831 a9bd 6d8b 493e 6f6e 54bd
00000050: 6718 ad3d d44d 0ebe 7cce 92be b7ca 4bbe
00000060: 9538 b43d 8e5d a4bd f8ed 89be d21f 46be
00000070: 2068 2d3e 4a5e c83d c9f1 613e be78 3b3e
00000080: 3806 d5bd dd43 9a3d eaf1 753e df56 52be
00000090: 656e 4a3e b429 883e f563 163e 0adf 8e3e
000000a0: e52f 683e aafb f03d 3c18 48be e516 083e
000000b0: d646 c83d 65d9 58be d606 3fbe 3dc2 88be
000000c0: cbda 6cbe 60f4 68be e63d 1cbe d37e 3ebd
000000d0: bb10 33be 5430 903d f57b 14be 29e9 2dbe
000000e0: 2f2b 3d3e 32c0 07be 0954 a3bd 71c3 7a3e
000000f0: d45b a43d 2d4e 8c3d 15ed f03d 3ba5 133e

layers.0.egnn.coors_mlp.3.weight f4 [1, 64]
0.028891925 -0.030450068 -0.030577032 0.027996104 0.031281415 -0.048885208 -0.029210592 -0.041449208
-0.03119836 -0.032272812 -0.028960563 0.027110485 -0.03021475 0.049832575 -0.029768432 0.028399352
-0.031810954 0.034524634 -0.030041547 0.042267215 -0.036098275 0.03118729 0.028110515 0.02983726
-0.035006113 0.034529585 0.02776576 0.029079398 -0.0299812 -0.03398026 -0.028118541 -0.030008245
0.03378031 -0.037974615 -0.029247232 0.027164193 -0.029893484 -0.029013054 -0.031580336 -0.02741347
-0.027733913 -0.032191236 0.028395558 -0.033204183 -0.035401814 0.029204708 0.028773043 0.028391337
0.027867468 0.028201472 0.03017633 0.04530827 0.030150373 -0.038561128 0.03042003 0.028474225
-0.030237129 0.0309677 0.035284556 -0.02844072 -0.036593616 -0.039353617 -0.03363101 -0.03193084
00000000: c2ae ec3c 6c72 f9bc af7c fabc 1658 e53c
00000010: f120 003d db3b 48bd 0d4b efbc a5c6 29bd
00000020: b493 ffbc 7f30 04bd b43e edbc cf16 de3c
00000030: ec84 f7bc 3e1d 4c3d eddc f3bc c2a5 e83c
00000040: 344c 02bd b469 0d3d b119 f6bc 6320 2d3d
00000050: c9db 13bd 7d7c ff3c 0648 e63c 456d f43c
00000060: 9262 0fbd e56e 0d3d 0575 e33c eb37 ee3c
00000070: 229b f5bc e32e 0bbd db58 e6bc dad3 f5bc
00000080: 395d 0a3d 458b 1bbd e497 efbc 7187 de3c
00000090: 2ee3 f4bc c9ac edbc 625a 01bd 3792 e0bc
000000a0: 3b32 e3bc f5da 03bd cd9d e83c 1c01 08bd
000000b0: 7e01 11bd b63e ef3c 72b5 eb3c f394 e83c
000000c0: 514a e43c c606 e73c 5a34 f73c 2a95 393d
000000d0: eafd f63c 46f2 1dbd 6d33 f93c c742 e93c
000000e0: dbb3 f7bc f9af fd3c 8a86 103d 83fc e8bc
000000f0: 30e3 15bd 4231 21bd acc0 09bd eac9 02bd

layers.0.egnn.vel_mlp.0.weight f4 [16, 4]
-0.00033203443 -0.00031915912 -3.259786e-05 -0.00011925431 -0.0026019344 0.0019709433 0.00036057827 -0.0022285513
0.00032502756 -0.0008744912 0.0006455241 -0.000103646 -0.0004063617 -0.00053545437 -0.00021485785 -0.00032528912
-5.047827e-05 0.00093827577 0.00018087919 -0.0006803963 0.0029560954 -0.0031497166 -0.0011235907 0.0022595292
0.00026406432 -0.00048346363 0.00036311173 -0.00013144799 0.00047730267 0.00085304945 0.00023325524 0.00046006546
0.00036878994 -0.00031811077 0.0003725009 -7.452602e-05 -0.001149519 -0.00023486564 0.00030749486 -0.0011417165
0.0014747073 -0.002257075 -0.0005824904 0.0018070431 0.00017179032 0.0006550525 0.0011022065 -0.0012802847
0.0005100142 -0.00020067868 0.00049570284 -0.00018729741 0.00035084097 -0.0008558983 0.00070030364 -0.00023862392
0.002139168 -0.0024534992 -0.0009984605 0.0023447848 -0.0001809303 9.8838864e-05 -0.00024833914 9.76574e-06
00000000: e814 aeb9 d054 a7b9 b0b9 08b8 2c18 fab8
00000010: 3785 2abb f12a 013b ff0b bd39 e30c 12bb
00000020: 7668 aa39 1c3e 65ba 6438 293a 865c d9b8
00000030: f20c d5b9 bc5d 0cba 774b 61b9 918b aab9
00000040: a1b8 53b8 9ff6 753a 63aa 3d39 9f5c 32ba
00000050: 0dbb 413b 7a6b 4ebb 7345 93ba 9c14 143b
00000060: 1d72 8a39 6479 fdb9 0860 be39 4dd5 09b9
00000070: 7b3e fa39 2e9f 5f3a fa95 7439 f134 f139
00000080: 265a c139 1bc8 a6b9 394c c339 da4a 9cb8
00000090: 75ab 96ba 4446 76b9 4337 a139 a6a5 95ba
000000a0: f74a c13a 6feb 13bb 45b2 18ba 4eda ec3a
000000b0: 9d22 3439 d4b7 2b3a ea77 903a 3acf a7ba
000000c0: 79b2 053a 466d 52b9 0ef2 013a 4465 44b9
000000d0: 14f1 b739 5d5e 60ba 9594 373a 1f37 7ab9
000000e0: 4931 0c3b e3ca 20bb c6de 82ba f6aa 193b
000000f0: 1cb8 3db9 b647 cf38 8433 82b9 89d7 2337

layers.0.egnn.vel_mlp.0.bias f4 [16]
-0.26919588 -0.45767397 -0.38918868 0.10789777 0.08039241 -0.2267784 -0.50582683 -0.3530196
-0.11286147 -0.052594405 0.059210695 0.37936804 0.15264858 -0.3982658 -0.23326464 -0.13260317
00000000: 0bd4 89be 3e54 eabe bd43 c7be 82f9 dc3d
00000010: c7a4 a43d 9938 68be de7d 01bf fcbe b4be
00000020: ea23 e7bd 3b6d 57bd ea86 723d 873c c23e
00000030: e94f 1c3e 7fe9 cbbe eddc 6ebe 20c9 07be

layers.0.egnn.vel_mlp.3.weight f4 [1, 16]
5.686229e-06 -0.00047324097 -6.999042e-05 -2.4853078e-05 0.00022000034 0.00048139907 -3.1898828e-05 2.8280156e-06
-2.4029341e-05 -4.8953687e-05 -7.67076e-05 0.00030988894 1.2680212e-06 -4.578767e-05 0.00016966558 1.0953136e-06
00000000: 56cc be36 541d f8b9 d2c7 92b8 947b d0b7
00000010: e4af 6639 4a64 fc39 1bcb 05b8 f0c8 3d36
00000020: 9e92 c9b7 9f53 4db8 14de a0b8 9778 a239
00000030: e030 aa35 230c 40b8 42e8 3139 b002 9335

layers.1.egnn.edge_mlp.0.weight f4 [20, 10]
-0.04351731 0.03712826 -0.043439865 -0.042513967 -0.036291003 0.04012834 -0.04089814 -0.040088344
-0.03847811 -0.050280277 0.040380474 -0.03123338 0.040504284 0.036925428 0.033257134 -0.038078524
0.038200423 0.039280057 0.038840037 0.047194455 0.03841667 -0.03374399 0.03931386 0.040083956
0.033895664 -0.0375473 0.037588138 0.03699175 0.039458513 0.04757116 0.040784217 -0.032665696
0.03724445 0.03590509 0.033989698 -0.03576797 0.03754103 0.038321443 0.038961228 0.045453675
-0.041823063 0.035362456 -0.042510062 -0.041134957 -0.03597566 0.041281022 -0.040322293 -0.040475197
-0.03674294 -0.0489526 0.038223978 -0.032292534 0.03918733 0.03623796 0.034855034 -0.03829504
0.037873015 0.037210662 0.039393142 0.04628746 0.037306968 -0.0321943 0.03757284 0.03637627
0.034616422 -0.035758715 0.037727755 0.036360253 0.039906997 0.046837993 0.038708895 -0.033479307
0.040277887 0.038974702 0.03417755 -0.038341478 0.038464684 0.038527973 0.038557027 0.048324473
-0.041712206 0.03705912 -0.042209677 -0.04114807 -0.034916453 0.040712833 -0.042099643 -0.040554576
-0.037379928 -0.05070252 0.038721263 -0.031860407 0.036999024 0.036188535 0.033237264 -0.036678936
0.036796 0.03546343 0.040407892 0.04764651 0.03681897 -0.03427569 0.037142094 0.03559055
0.033226833 -0.036776684 0.036261138 0.036411457 0.036647536 0.04621333 -0.041605074 0.03562042
-0.04152513 -0.041545626 -0.035811678 0.039830565 -0.039411243 -0.04004041 -0.04057895 -0.050442796
-0.040875982 0.035679366 -0.041166116 -0.041352686 -0.034935515 0.039569218 -0.03938734 -0.040470954
-0.03731178 -0.050321214 -0.041388303 0.037729695 -0.04180688 -0.041279536 -0.03594967 0.040266182
-0.039574906 -0.040315486 -0.03822734 -0.04981176 -0.041245468 0.037058014 -0.04210243 -0.041417103
-0.035733286 0.03928244 -0.04095011 -0.03999631 -0.037118517 -0.05039331 -0.042004302 0.037314966
-0.04149874 -0.039473295 -0.036822878 0.041540872 -0.03885955 -0.040962987 -0.040284835 -0.049931496
0.037672304 -0.03226948 0.0377398 0.036286835 0.032174617 -0.039495256 0.03652888 0.037088208
0.03931915 0.04656967 0.037429806 -0.033616237 0.038158454 0.037514187 0.03494208 -0.03625489
0.037734322 0.037276957 0.039682265 0.048058223 0.037017662 -0.032430008 0.03807016 0.035723455
0.03418113 -0.03527729 0.035624355 0.037386958 0.040048536 0.04484292 0.03809168 -0.031751446
0.036833026 0.0361936 0.03303233 -0.037083823 0.036547247 0.03703522 0.039506793 0.046778113
00000000: 353f 32bd cd13 183d 00ee 31bd 2023 2ebd
00000010: e0a5 14bd 9d5d 243d cf84 27bd ad33 24bd
00000020: 399b 1dbd b1f2 4dbd ff65 253d 25dd ffbc
00000030: d2e7 253d 1e3f 173d a238 083d 3af8 1bbd
00000040: 0c78 1c3d 20e4 203d bb16 1f3d f94e 413d
00000050: cc5a 1d3d 2337 0abd 9207 213d 132f 243d
00000060: 2ed6 0a3d 33cb 19bd 05f6 193d a984 173d
00000070: 409f 213d fad9 423d 5a0d 273d 77cc 05bd
00000080: a38d 183d 3711 133d c838 0b3d 6f81 12bd
00000090: a0c4 193d f2f6 1c3d cf95 1f3d a22d 3a3d
000000a0: a94e 2bbd 39d8 103d 081f 2ebd 217d 28bd
000000b0: 375b 13bd 4a16 293d fd28 25bd 52c9 25bd
000000c0: c47f 16bd 8682 48bd bf90 1c3d 2d45 04bd
000000d0: e582 203d 416e 143d 27c4 0e3d 43db 1cbd
000000e0: bc20 1b3d 356a 183d b45a 213d eb97 3d3d
000000f0: 31cf 183d 2cde 03bd fae5 193d 49ff 143d
00000100: f3c9 0d3d bb77 12bd 6b88 1a3d 7dee 143d
00000110: 8575 233d 32d9 3f3d 388d 1e3d 9921 09bd
00000120: 6dfa 243d f0a3 1f3d c2fd 0b3d f40b 1dbd
00000130: 258d 1d3d 82cf 1d3d f9ed 1d3d e2ef 453d
00000140: 6bda 2abd 4ecb 173d 0ee4 2cbd e18a 28bd
00000150: 8e04 0fbd 80c2 263d ad70 2cbd 8e1c 26bd
00000160: b21b 19bd 72ad 4fbd 309a 1e3d 0f80 02bd
00000170: 4a8c 173d 6e3a 143d cc23 083d a73c 16bd
00000180: 67b7 163d 1a42 113d bf82 253d fd28 433d
00000190: 7dcf 163d aa64 0cbd 4f22 183d 66c7 113d
000001a0: dc18 083d 26a3 16bd 8f86 143d 2e24 153d
000001b0: ba1b 163d 304a 3d3d 156a 2abd b8e6 113d
000001c0: 4116 2abd bf2b 2abd 44af 12bd 6025 233d
000001d0: af6d 21bd 6a01 24bd 1d36 26bd 1b9d 4ebd
000001e0: 936d 27bd 8724 123d cd9d 28bd 6f61 29bd
000001f0: 8b18 0fbd 5513 223d 9f54 21bd dfc4 25bd
00000200: 3dd4 18bd 9e1d 4ebd c886 29bd 748a 1a3d
00000210: b13d 2bbd bb14 29bd f63f 13bd 27ee 243d
00000220: 4c19 22bd da21 25bd 4594 1cbd 6b07 4cbd
00000230: 02f1 28bd 25ca 173d 9973 2cbd fba4 29bd
00000240: 115d 12bd a0e6 203d 4dbb 27bd 2cd3 23bd
00000250: 9609 18bd 3769 4ebd b40c 2cbd 94d7 183d
00000260: 95fa 29bd c0ae 21bd 96d3 16bd c326 2a3d
00000270: 312b 1fbd cec8 27bd b601 25bd f884 4cbd
00000280: 464e 1a3d 012d 04bd 0c95 1a3d 81a1 143d
00000290: 88c9 033d c7c5 21bd 4f9f 153d cee9 173d
000002a0: 1e0d 213d d7bf 3e3d ff4f 193d 2eb1 09bd
000002b0: 0a4c 1c3d 7aa8 193d 6d1f 0f3d 0280 14bd
000002c0: 4e8f 1a3d b9af 183d df89 223d b3d8 443d
000002d0: d59f 173d 54d5 04bd 75ef 1b3d c252 123d
000002e0: 8301 0c3d eb7e 10bd d8ea 113d 1123 193d
000002f0: ef09 243d 36ad 373d 0506 1c3d ce0d 02bd
00000300: 3ade 163d be3f 143d e94c 073d 35e5 17bd
00000310: 91b2 153d 3eb2 173d e0d1 213d 689a 3f3d

layers.1.egnn.edge_mlp.0.bias f4 [20]
-0.19044018 0.26309538 0.35981104 0.1442879 -0.2467058 0.12534472 0.1605305 0.3284555
-0.30497712 0.15583146 0.13686892 -0.1574714 -0.17573768 -0.22200282 -0.27995008 -0.15550786
0.17694987 0.25554305 0.156341 0.0881831
00000000: c002 43be 70b4 863e 2739 b83e 35c0 133e
00000010: 72a0 7cbe 5e5a 003e 1b62 243e 522b a83e
00000020: f625 9cbe 4892 1f3e 5e27 0c3e 2f40 21be
00000030: 94f4 33be b554 63be 9e55 8fbe 743d 1fbe
00000040: 5932 353e 8ad6 823e db17 203e 5799 b43d

layers.1.egnn.edge_mlp.3.weight f4 [16, 20]
0.043523088 -0.041707635 -0.042766042 -0.03967827 0.0429448 -0.040491603 -0.04006987 -0.041305415
0.042714808 -0.042119797 -0.040050257 0.041303873 0.040761154 0.042145163 0.042854592 0.042073928
-0.03985622 -0.039674573 -0.040249255 -0.04185751 -0.044175938 0.042168636 0.04353716 0.04201684
-0.04555547 0.041371096 0.0398249 0.042380173 -0.04490646 0.041497365 0.040904198 -0.043403734
-0.04318082 -0.041342117 -0.043407064 -0.043750305 0.042241182 0.04220305 0.041724216 0.04049966
0.041805893 -0.04204277 -0.042117603 -0.04009515 0.043264512 -0.0394782 -0.042450435 -0.043385454
0.04228961 -0.04171558 -0.04136073 0.043120477 0.042926148 0.042697046 0.041374225 0.043686107
-0.04077973 -0.04269923 -0.041339986 -0.04164387 -0.042580497 0.040823407 0.041437462 0.040678423
-0.041818637 0.040032946 0.04159145 0.041127246 -0.042440508 0.042027224 0.041311342 -0.04096636
-0.04171193 -0.04412154 -0.04237666 -0.04155208 0.04058588 0.041749787 0.04187039 0.04339376
-0.044132903 0.040689822 0.04333162 0.04149079 -0.04336939 0.043217998 0.040380478 0.043255895
-0.04471215 0.042140614 0.042562086 -0.042983577 -0.04451767 -0.04234409 -0.04391418 -0.043567598
0.042070266 0.04184913 0.039278455 0.040363654 0.040862933 -0.042548366 -0.0421156 -0.04346699
0.04203448 -0.04306057 -0.041957315 -0.042371884 0.04312706 -0.04191459 -0.039972603 0.04129091
0.041596144 0.04193224 0.041129082 0.04151233 -0.041689 -0.04239973 -0.040533777 -0.039104745
-0.043820076 0.04398273 0.040629044 0.04046033 -0.0426895 0.04220988 0.042089872 0.04339684
-0.042941846 0.041014228 0.040054414 -0.044476632 -0.042036533 -0.043764148 -0.043042168 -0.042654727
0.04126504 0.04276097 0.040780026 0.04187869 0.0438398 -0.041147247 -0.04145443 -0.042324144
0.04424974 -0.04013328 -0.039431546 -0.042852573 0.042257104 -0.041839264 -0.040546764 0.04343969
0.04312591 0.04434217 0.04498023 0.043529198 -0.042335402 -0.041850694 -0.041219123 -0.041953858
-0.042533085 0.041448995 0.040447246 0.04069807 -0.042977527 0.04039002 0.042069796 0.04233943
-0.04295851 0.040857635 0.039903697 -0.04466379 -0.04132584 -0.04229603 -0.04294545 -0.04034738
0.039497618 0.0417638 0.041768514 0.042074136 0.0454984 -0.044157416 -0.041176524 -0.03960408
0.041322835 -0.04218727 -0.040109877 -0.042029485 0.042640854 -0.0423671 -0.041141413 0.04173843
0.043017145 0.043171827 0.044319503 0.042977124 -0.04015838 -0.041244064 -0.04199686 -0.040897846
0.044182103 -0.04326572 -0.041915677 -0.041947726 0.04398847 -0.041081328 -0.039777044 -0.041220255
0.042494383 -0.0410941 -0.040368013 0.042921238 0.04056103 0.044072006 0.041329373 0.042826492
-0.04212407 -0.04300356 -0.041822787 -0.03946132 0.040400818 -0.04073854 -0.041323014 -0.04082846
0.042630963 -0.039206028 -0.041002516 -0.04187652 0.041935284 -0.03902326 -0.04072185 0.042105798
0.0432741 0.04237958 0.040704962 0.043417778 -0.041952178 -0.04129923 -0.040025186 -0.03958658
-0.042914916 0.043377876 0.04183474 0.04001856 -0.042274404 0.041627713 0.0410632 0.042799473
-0.044758145 0.04288376 0.041118402 -0.043414447 -0.041105457 -0.041014656 -0.043216325 -0.04123981
00000000: 4445 323d a0d5 2abd 722b 2fbd af85 22bd
00000010: e3e6 2f3d 86da 25bd 4e20 24bd de2f 29bd
00000020: b9f5 2e3d cf85 2cbd bd0b 24bd 402e 293d
00000030: 2bf5 263d 68a0 2c3d 4c88 2f3d b655 2c3d
00000040: 4740 23bd ce81 22bd 67dc 24bd c872 2bbd
00000050: d4f1 34bd 05b9 2c3d 0554 323d da19 2c3d
00000060: 5f98 3abd bd74 293d 6f1f 233d d596 2d3d
00000070: d6ef 37bd 24f9 293d 298b 273d 1dc8 31bd
00000080: 5fde 30bd 5a56 29bd 9bcb 31bd 8533 33bd
00000090: 1705 2d3d 1bdd 2c3d 03e7 2a3d f9e2 253d
000000a0: a83c 2b3d 0a35 2cbd 8283 2cbd d03a 24bd
000000b0: 2136 313d e5b3 21bd 82e0 2dbd f2b4 31bd
000000c0: df37 2d3d f5dd 2abd de69 29bd 199f 303d
000000d0: 54d3 2f3d 19e3 2e3d 0578 293d 34f0 323d
000000e0: a508 27bd 63e5 2ebd 1e54 29bd c392 2abd
000000f0: e368 2ebd 7236 273d 54ba 293d 6b9e 263d
00000100: 054a 2bbd 96f9 233d cc5b 2a3d 0b75 283d
00000110: 19d6 2dbd bd24 2c3d 1536 293d 58cc 27bd
00000120: 21da 2abd cab8 34bd 2693 2dbd 8432 2abd
00000130: 613d 263d d301 2b3d 4980 2b3d a8bd 313d
00000140: b4c4 34bd 5faa 263d 7f7c 313d 3ff2 293d
00000150: 1aa4 31bd 5b05 313d 0066 253d 182d 313d
00000160: 1624 37bd a39b 2c3d 9555 2e3d 8c0f 30bd
00000170: 2958 36bd ff70 2dbd 5bdf 33bd f073 32bd
00000180: df51 2c3d fe69 2b3d 72e2 203d 5c54 253d
00000190: e45f 273d 3247 2ebd 6881 2cbd 710a 32bd
000001a0: 592c 2c3d 4860 30bd 6fdb 2bbd 248e 2dbd
000001b0: 00a6 303d a2ae 2bbd 50ba 23bd a820 293d
000001c0: b860 2a3d 24c1 2b3d f876 283d d508 2a3d
000001d0: 16c2 2abd 57ab 2dbd bf06 26bd 4c2c 20bd
000001e0: ae7c 33bd 3c27 343d a46a 263d bbb9 253d
000001f0: 2fdb 2ebd 44e4 2c3d 6e66 2c3d e3c0 313d
00000200: cae3 2fbd 89fe 273d 1910 243d 212d 36bd
00000210: 802e 2cbd 0942 33bd fc4c 30bd b9b6 2ebd
00000220: 8805 293d 2026 2f3d f508 273d fd88 2b3d
00000230: 5d91 333d 048a 28bd 1fcc 29bd 155c 2dbd
00000240: 373f 353d cb62 24bd f982 21bd 2e86 2fbd
00000250: c915 2d3d a65f 2bbd 5d14 26bd d1ed 313d
00000260: cba4 303d 23a0 353d 313d 383d ac4b 323d
00000270: e367 2dbd a26b 2bbd 62d5 28bd cfd7 2bbd
00000280: 2c37 2ebd 6cc6 293d 03ac 253d 05b3 263d
00000290: 3409 30bd 0170 253d 6151 2c3d 1c6c 2d3d
000002a0: 43f5 2fbd 565a 273d 0f72 233d 61f1 36bd
000002b0: 4945 29bd 9a3e 2dbd 91e7 2fbd 4b43 25bd
000002c0: 41c8 213d 8510 2b3d 7615 2b3d ee55 2c3d
000002d0: 885c 3a3d 68de 34bd b7a8 28bd e337 22bd
000002e0: 2242 293d 8fcc 2cbd 414a 24bd 1c27 2cbd
000002f0: 2da8 2e3d 2089 2dbd e683 28bd eaf5 2a3d
00000300: bf32 303d f1d4 303d 5e88 353d c808 303d
00000310: 1d7d 24bd 89ef 28bd e604 2cbd 8084 27bd
00000320: 4bf8 343d 6537 31bd c6af 2bbd 61d1 2bbd
00000330: 412d 343d e544 28bd 41ed 22bd 92d6 28bd
00000340: 970e 2e3d 4952 28bd ee58 25bd 2ece 2f3d
00000350: 5323 263d d984 343d fd48 293d d56a 2f3d
00000360: 4a8a 2cbd 8024 30bd 5f4e 2bbd 31a2 21bd
00000370: 547b 253d 75dd 26bd 5242 29bd be3b 27bd
00000380: ce9d 2e3d 8096 20bd 41f2 27bd b786 2bbd
00000390: 55c4 2b3d dbd6 1fbd f4cb 26bd 2177 2c3d
000003a0: 2f40 313d 3696 2d3d 3fba 263d d7d6 313d
000003b0: 0cd6 2bbd 6229 29bd 73f1 23bd 8a25 22bd
000003c0: 8dc7 2fbd 00ad 313d e85a 2b3d 80ea 233d
000003d0: ed27 2dbd d281 2a3d e331 283d 804e 2f3d
000003e0: 5154 37bd e2a6 2f3d c56b 283d 59d3 31bd
000003f0: 325e 28bd fcfe 27bd 9a03 31bd 13eb 28bd

layers.1.egnn.edge_mlp.3.bias f4 [16]
-0.17750087 0.16762789 -0.17931198 0.17473894 0.25481606 -0.073886774 0.08032583 -0.050216164
0.08188993 -0.14292647 -0.13438152 -0.05873055 0.047171175 -0.23739053 0.22716399 0.15317346
00000000: cac2 35be a5a6 2b3e 8f9d 37be c4ee 323e
00000010: 4077 823e f351 97bd de81 a43d 77af 4dbd
00000020: e8b5 a73d 515b 12be 4f9b 09be 728f 70bd
00000030: 9036 413d 8116 73be ad9d 683e 81d9 1c3e

layers.1.egnn.node_mlp.0.weight f4 [8, 20]
0.00026335596 0.0004548227 -0.0009315094 0.0016473185 0.00047191474 0.000783302 0.0026598962 0.00049547374
-0.0004612462 -0.0002749147 0.0010502437 0.002622477 0.00076010026 -0.0014957935 0.00011095869 -0.0022265932
0.000551207 -0.0002500647 -0.0012836532 3.5541816e-05 -0.000463512 -0.00060583017 0.0009986773 0.00036665465
0.0006592346 7.457709e-05 -0.002506173 6.244484e-05 -4.394084e-05 0.00012989176 0.0007032366 0.0013489809
-0.00074302265 0.0012653067 -0.0011869288 0.0013111236 -0.00015313877 0.00088860554 -0.0010741253 9.5108604e-05
0.00034466665 0.0002585703 -0.0014096576 -0.0013817509 -2.1225142e-05 0.0016265475 -0.0005563535 -0.0010916768
-0.0022242786 -0.0015257128 -0.000556898 0.00029714903 7.675942e-05 0.00047385923 0.0007675564 -0.0015911347
0.0009295757 -0.00077348115 0.00075522054 -0.0018352928 0.00023317734 2.5318115e-05 -0.0001994506 0.00040615798
0.00011823396 0.00077009026 0.002025271 0.0010567189 -0.00013544824 -0.0001338058 -0.002579028 0.00018853463
0.00074763724 -0.00036371895 -0.001103995 0.0008755715 0.00058944634 0.0002887749 0.00013751126 -0.0009331721
-5.6754376e-05 -0.00059245614 -0.00045837733 0.0005630213 -0.00044459777 0.00045406524 0.0008018683 -0.0007981259
-0.0005630915 0.00066647766 0.00047129573 -0.0010802099 -0.0008661297 0.0014122978 0.00020341297 -0.00075032073
0.0008462213 -3.8054563e-06 -0.0009196494 -4.872281e-05 0.0008402698 0.0007234556 -0.00034612193 -8.091835e-05
0.001052844 -0.00016484602 -0.00084396184 -9.0970876e-05 -0.0006516454 -0.00016827293 0.0009041977 -0.003399782
0.0004117348 -0.0019015846 -0.00037149765 0.0003990515 -0.00012554161 0.00013918169 0.0006885914 -0.00055507093
-0.0004789033 0.00051672186 0.00077741226 0.00040978444 0.0003328936 0.0002896458 0.0009740775 -0.0007028896
-0.0006854154 0.0007221199 0.0013536399 -0.0012992757 0.0009588707 -0.0012675929 0.00085389504 -0.0010966893
0.0010594542 -0.00013464475 -0.00084504957 0.00074187136 6.9245325e-05 -0.00083910325 0.0019060301 0.001007605
0.00087907957 0.00069036166 0.00086637953 -0.0005611584 -0.0006425002 -0.0012789209 0.0005575177 -5.746579e-05
0.0015142374 -0.0008994693 -0.0027986027 -0.0016850925 -0.0008846382 0.0010317522 0.00084059004 -0.0007124867
00000000: 0a13 8a39 4575 ee39 8a30 74ba d6ea d73a
00000010: 536b f739 8256 4d3a a751 2e3b aee2 013a
00000020: 6bd3 f1b9 6d22 90b9 55a8 893a dddd 2b3b
00000030: 7741 473a 800e c4ba 7eb2 e838 09ec 11bb
00000040: e07e 103a 1e1b 83b9 4140 a8ba bc12 1538
00000050: 8703 f3b9 93d0 1eba 0de6 823a 8e3b c039
00000060: 7cd0 2c3a 4566 9c38 9b3e 24bb d1f4 8238
00000070: 1e4d 38b8 8e33 0839 6959 383a 4ad0 b03a
00000080: 68c7 42ba a6d8 a53a b992 9bba 02da ab3a
00000090: e093 20b9 4ff1 683a aac9 8cba 0b75 c738
000000a0: 60b4 b439 b890 8739 43c4 b8ba de1b b5ba
000000b0: a50c b2b7 e131 d53a 40d8 11ba 9816 8fba
000000c0: 34c5 11bb 6dfa c7ba cbfc 11ba abca 9b39
000000d0: e6f9 a038 4f70 f839 d735 493a 9f8d d0ba
000000e0: c5ae 733a 71c3 4aba fef9 453a 358e f0ba
000000f0: 1181 7439 3d62 d437 9d23 51b9 9af1 d439
00000100: 60f4 f738 e2df 493a 69ba 043b 9a81 8a3a
00000110: 1c07 0eb9 394e 0cb9 e904 29bb 61b1 4539
00000120: 16fd 433a 88b1 beb9 edb3 90ba 9c86 653a
00000130: 1385 1a3a b666 9739 e630 1039 1fa0 74ba
00000140: 8c0b 6eb8 0f4f 1bba 5d52 f0b9 b897 133a
00000150: e718 e9b9 9b0f ee39 7834 523a 5339 51ba
00000160: 6e9c 13ba 8fb6 2e3a 3e18 f739 d495 8dba
00000170: fb0c 63ba da1c b93a 414b 5539 2cb1 44ba
00000180: f3d4 5d3a 3e61 7fb6 a014 71ba b85b 4cb8
00000190: 8d45 5c3a 49a6 3d3a b377 b5b9 b5b2 a9b8
000001a0: 95ff 893a 84da 2cb9 523d 5dba 9ec7 beb8
000001b0: 2fd3 2aba 6c72 30b9 ae07 6d3a e1ce 5ebb
000001c0: 1cde d739 973e f9ba 92c5 c2b9 c937 d139
000001d0: d2a3 03b9 4df1 1139 9682 343a 2e82 11ba
000001e0: 5015 fbb9 9e74 073a 41cb 4b3a 56d8 d639
000001f0: 3988 ae39 9adb 9739 3c59 7f3a 1f42 38ba
00000200: 73ad 33ba a54c 3d3a 9e6c b13a 754c aaba
00000210: b95c 7b3a 5c25 a6ba edd7 5f3a c9be 8fba
00000220: 62dd 8a3a 6d2f 0db9 5186 5dba 257a 423a
00000230: cd37 9138 44f7 5bba c2d3 f93a 9d11 843a
00000240: 0872 663a 63f9 343a bf1d 633a b41a 13ba
00000250: 756d 28ba 77a1 a7ba 6126 123a 6c07 71b8
00000260: 6079 c63a 5dca 6bba c368 37bb 52de dcba
00000270: 11e7 67ba dc3b 873a 0b5b 5c3a 2cc6 3aba

layers.1.egnn.node_mlp.0.bias f4 [8]
-0.19305706 -0.0999318 -0.06299334 0.037544053 0.11419298 0.034225672 0.082984306 0.053594276
00000000: c0b0 45be 0ba9 ccbd a702 81bd cbc7 193d
00000010: 02de e93d 3830 0c3d adf3 a93d ac85 5b3d

layers.1.egnn.node_mlp.3.weight f4 [4, 8]
-0.0008186566 0.00011729686 -0.0016730184 0.00028325486 -0.0018287604 -0.00019244479 -0.0015352638 -0.0017464434
-0.00048495186 -0.00023916292 -0.0006091255 -0.0014234538 0.0013859937 4.569021e-05 -0.0019043151 0.00039072655
-0.00010390173 0.00075524236 0.00037393355 0.00059907674 -0.0014059604 0.0006107416 -0.0005166013 0.0003042852
-0.0007157619 -0.0010018693 0.00036898963 0.00019008243 -0.00037349798 0.00070629705 -0.0010738346 0.0012817292
00000000: 1d9b 56ba 46fd f538 2f49 dbba d381 9439
00000010: 04b3 efba 01cb 49b9 e83a c9ba ebe8 e4ba
00000020: 2341 feb9 cfc7 7ab9 b8ad 1fba 2f93 baba
00000030: 3baa b53a 7da3 3f38 369a f9ba 6eda cc39
00000040: d1e5 d9b8 75fb 453a 830c c439 5c0b 1d3a
00000050: 3448 b8ba 2d1a 203a 876c 07ba 7888 9f39
00000060: f8a1 3bba 2851 83ba f374 c139 dd50 4739
00000070: 0dd2 c3b9 cb26 393a e9bf 8cba b2ff a73a

layers.1.egnn.node_mlp.3.bias f4 [4]
0.3217173 0.22964713 -0.102397285 -0.25447157
00000000: 21b8 a43e 9e28 6b3e abb5 d1bd 194a 82be
