experiments/models/model_N12_batch64_lr0.0001_fd4_b0.7.pth (torch, 30922 bytes, 32 tensors)

time_embedding.0.weight f4 [8, 1]
000000 54 8e a5 3e db 87 ee 3e b6 9b 7f bf 55 20 3b bf
       0.3233515 0.46588024 -0.9984697 -0.7309621
000010 12 56 81 3b b9 e0 62 be 2e 65 f8 be e8 08 ab be
       0.003947028 -0.22156037 -0.48514694 -0.33405232

time_embedding.0.bias f4 [8]
000000 88 10 6a bf fe 4d 7e bc b0 72 a6 bd fb 70 5a 3f
       -0.91431475 -0.0155215245 -0.08127344 0.85328645
000010 f2 99 1e 3e f4 0f 0a 3f 07 cd 7f 3f a8 6d 4b be
       0.15488413 0.5393059 0.9992222 -0.1986605

time_embedding.3.weight f4 [4, 8]
000000 dd 07 1c be d3 3e 12 3e 97 7e 68 3e 4e a6 9f be
       -0.15237375 0.14281778 0.2270454 -0.31181568
000010 68 89 a1 be cf 0f 6b be cd 90 83 bd 1b 64 29 be
       -0.31550145 -0.22955249 -0.06424103 -0.16542093
000020 c1 d5 6e 3e 3f 85 ba 3e db 24 ec 3d f6 36 13 3e
       0.23323728 0.36429784 0.11530467 0.14376435
000030 06 fd 93 bd 93 b7 2c 3e 04 29 76 3e 74 22 8e 3e
       -0.07225995 0.16866903 0.24039084 0.2776066
000040 28 a3 2e 3e 69 3e c7 3c b3 89 ab 3e e8 69 58 be
       0.17054427 0.024321752 0.33503494 -0.2113415
000050 76 41 25 3e 08 ef fb bc 00 ca 4a be 90 2b 68 3e
       0.16138253 -0.030753627 -0.1980362 0.22672868
000060 98 dd b8 3b db 4f a5 bd 43 cf ac be d0 f7 e3 bd
       0.0056416504 -0.08071872 -0.33751878 -0.11131251
000070 00 99 6c be ea 7a 7b 3e 92 ef fc bc fe 9a 84 3e
       -0.2310524 0.24558607 -0.030875955 0.258995

time_embedding.3.bias f4 [4]
000000 ba f3 88 be 17 4b 60 3d ca 86 c0 be 9e 1c 9a be
       -0.2674845 0.05475911 -0.37602836 -0.30099958

layers.0.egnn.edge_mlp.0.weight f4 [20, 10]
000000 ae d2 20 bb 6d b3 47 3b 58 16 06 bb 2b 1e 3a ba
       -0.0024539637 0.0030471936 -0.0020460095 -0.00070998323
000010 8f 0c 6a bb ec fe 2c 3b 92 a6 fe b9 8c 69 b4 ba
       -0.0035713052 0.0026397062 -0.0004857076 -0.0013764366
000020 aa 4c 3c 3a c0 da 45 3b 01 13 a1 ba e1 20 3c 3b
       0.00071830547 0.00301902 -0.0012288989 0.002870612
000030 04 7f 77 ba e9 fd c1 ba 0e 65 54 ba 9c ab 25 ba
       -0.0009441229 -0.0014800403 -0.00081022165 -0.0006319822
000040 1b f1 ed ba bb 97 40 ba 7d b8 52 ba 5c 0f 8b 3b
       -0.001815352 -0.00073468284 -0.0008038355 0.0042437743
000050 16 14 d7 3a 12 5e be 3a e3 05 0c 3b 35 7c 1a ba
       0.0016409184 0.0014523885 0.0021365813 -0.0005893142
000060 5d e9 92 ba 47 33 1e bb 04 3b 27 3a 53 9c 08 ba
       -0.0011208464 -0.002413945 0.00063793384 -0.00052112824
000070 fb 10 17 b9 99 d7 52 ba e0 88 2f bb 9a 4e 80 3a
       -0.00014406808 -0.0008042991 -0.0026784465 0.000978905
000080 4f 56 14 bb 3a a6 ac ba 42 82 50 bb 0d 68 3c 3a
       -0.0022634452 -0.0013172098 -0.003181592 0.00071871356
000090 af 7d 20 bb 9c ac 20 ba b4 b6 3a 3b d7 46 db 3a
       -0.0024488976 -0.00061292364 0.0028490247 0.0016729486
0000a0 b0 ff 06 3a 4d 40 01 bb 1f 59 d3 3a c9 0e 0e ba
       0.0005149795 -0.0019722164 0.0016124583 -0.0005419073
0000b0 6f 5d 6e 3a c6 04 8b ba bd cd 86 3a da bb 11 3b
       0.0009092902 -0.0010606281 0.0010284703 0.0022237212
0000c0 94 14 b1 3a 70 ca 28 bb d3 76 09 bb 44 af 1b 3b
       0.0013510161 -0.0025755428 -0.0020975366 0.002375559
0000d0 ab 0d c6 ba d8 51 38 bb 37 a3 ce ba a7 7f 02 3b
       -0.0015110275 -0.0028124955 -0.0015765195 0.0019912513
0000e0 ac d7 05 bb 62 da ee ba 81 59 b4 3a 33 ba 6b 3a
       -0.002042274 -0.0018223042 0.0013759584 0.00089922844
0000f0 08 3a 03 3b aa 11 18 bb 0c 70 d6 3a 8d 3d db 3a
       0.0020023603 -0.0023203888 0.0016360297 0.0016726718
000100 c6 1c 0e 3b e5 e4 0f bb d3 60 b6 3a 65 91 3e 3a
       0.002168463 -0.00219565 0.0013914354 0.000726959
000110 bc 11 82 3a 7e ef a6 ba 9b 60 bc ba db 43 39 3b
       0.0009923498 -0.0012736169 -0.0014372052 0.0028269205
000120 cd 74 40 bb 35 32 47 bb 22 ff 66 bb 45 6a 10 3b
       -0.0029366494 -0.0030394916 -0.0035247286 0.0022035998
000130 c2 ed a3 ba 1d cf 36 bb db ad 0a 3b 22 cc ee 3a
       -0.001250677 -0.0027894445 0.0021160755 0.0018218795
000140 06 5b 33 3b 6c 0e 05 bb fd b8 ab 3a 61 79 47 3b
       0.0027367487 -0.0020302786 0.0013101395 0.0030437338
000150 21 33 62 3b 98 b5 f8 ba bc 4b 74 3b b7 55 40 3b
       0.0034515338 -0.0018975018 0.0037276587 0.0029347965
000160 0c 72 84 ba cd 7c 09 ba 51 25 ad 3a c1 e0 4e ba
       -0.0010104789 -0.0005244732 0.0013209974 -0.00078917673
000170 98 14 d3 3a 88 70 d4 3a 63 d6 89 3a 3e cc 06 bb
       0.001610416 0.0016207853 0.0010516163 -0.0020568515
000180 ff 8a 46 3a 32 2d b6 b9 29 e3 f6 b8 c6 4c 75 ba
       0.00075738126 -0.00034747418 -0.00011772506 -0.00093574484
000190 97 91 3d 3b 00 2e 27 bb 65 5b 86 3b 2e 7f 08 3a
       0.002892589 -0.0025509596 0.0041002505 0.00052069395
0001a0 d3 28 85 3a e8 23 3b ba 4c ea 0d 3b b2 67 01 3b
       0.0010159261 -0.00071388343 0.0021654544 0.0019745645
0001b0 30 e5 bd ba ef 46 16 bb 1c 4a 98 b7 d8 76 f2 36
       -0.0014487859 -0.0022930463 -1.8154322e-05 7.2259973e-06
0001c0 df e4 f5 ba 9c df c1 ba 1a 17 ee 39 ec ca 51 3a
       -0.0018760226 -0.0014791372 0.0004541211 0.0008002955
0001d0 e3 65 d7 ba a6 bc c3 ba 39 93 3c ba 11 80 96 3a
       -0.0016433563 -0.0014933541 -0.0007193569 0.0011482259
0001e0 d5 2e 05 bb ce 2f d2 3a 2b 58 02 bb d6 65 26 bb
       -0.0020322104 0.0016035975 -0.0019888978 -0.0025390289
0001f0 af 38 31 3a 55 f8 22 3b 99 c2 b3 ba ae 85 0e bb
       0.00067604607 0.0024867256 -0.0013714611 -0.002174716
000200 fd 5e 8e 3a 6e 73 3d 3b 68 62 68 3a 41 af 85 b9
       0.0010862049 0.0028907913 0.00088647613 -0.0002549831
000210 65 e2 9a 3a 5d 4a d3 3a c5 9e fe 3a 7e 4a 15 ba
       0.0011816738 0.0016120184 0.0019425979 -0.0005694999
000220 8d e2 62 3b 16 60 4b 3b c9 d1 95 3a 63 69 e2 39
       0.0034619898 0.0031032613 0.0011430319 0.00043184598
000230 01 6a 85 bb c9 28 c4 3a b0 db 66 b9 fd 60 df ba
       -0.0040714745 0.0014965768 -0.00022016349 -0.0017042455
000240 a0 f7 c6 ba bf c4 16 ba 4b 85 39 bb 0f 68 fe ba
       -0.0015179999 -0.00057513634 -0.0028308209 -0.0019409674
000250 2f bb 86 ba 74 cd 33 3b d2 cf 7a ba e3 3a ff 3a
       -0.0010279174 0.0027435692 -0.0009567711 0.0019472506
000260 14 7d 30 bb 3a b0 dc ba 1c f3 4c bb 08 00 2a 3b
       -0.002693002 -0.0016837188 -0.0031272834 0.002593996
000270 79 7e f4 ba 18 12 0f bb db 7c c4 3a 5c 29 23 3a
       -0.0018653414 -0.0021830853 0.0014990823 0.00062241196
000280 e1 bc a2 3a 42 c0 ec ba 93 f2 be 3a c6 a0 a4 3a
       0.001241591 -0.0018062668 0.0014568142 0.0012560121
000290 cb a5 9a 3a 37 b0 4a ba c0 7e 6b 39 3d 8b 02 3b
       0.0011798678 -0.00077319465 0.00022458564 0.0019919418
0002a0 fd 67 97 39 1a 64 05 bb 3e c1 49 3b 47 ff b3 ba
       0.00028878442 -0.0020353855 0.0030785347 -0.0013732695
0002b0 86 36 ac 3a f2 37 b8 3a bf 26 30 3b 04 db da ba
       0.0013138808 0.0014054759 0.0026878563 -0.0016697352
0002c0 fe f2 4c 3b aa 39 3b 3b 59 03 e7 38 56 80 fc ba
       0.0031272764 0.0028568306 0.00011015562 -0.0019264321
0002d0 70 84 39 3b 52 46 ee ba e4 81 0b 3b c9 c7 01 3b
       0.0028307699 -0.0018178916 0.0021287138 0.001980292
0002e0 27 db 14 3b f5 10 6a bb 30 4e 06 3b cd de 81 3b
       0.0022713633 -0.0035715674 0.002049338 0.0039633275
0002f0 3a 64 52 ba 3c 1a c1 ba fe 6e 0c 3b fb 58 09 bb
       -0.0008025799 -0.001473255 0.0021428461 -0.0020957578
000300 54 b0 8b 3b f4 a1 96 3b 55 27 16 3b a8 63 9a ba
       0.0042629633 0.004596943 0.0022911627 -0.0011778967
000310 19 05 9e 3b c8 c3 2d 39 8f 2d 06 bb f6 26 14 bb
       0.004822385 0.000165715 -0.0020473932 -0.002260623

layers.0.egnn.edge_mlp.0.bias f4 [20]
000000 1a d3 78 3e 24 2f 6f 3e d0 21 5f be 43 25 93 3e
       0.24299279 0.23357826 -0.21790242 0.28739366
000010 25 d6 25 be 58 02 82 3e c5 2d ca bd 67 ae 3d 3e
       -0.16194971 0.25392413 -0.09872011 0.1852356
000020 bd 16 ec bd 6a 28 a5 bd ef bb e2 bc 5a 73 63 3e
       -0.115277745 -0.08064349 -0.027677504 0.22211972
000030 28 87 66 3e 9b 55 d3 bd 6c 5c be 3d 50 30 34 3e
       0.22512496 -0.10319062 0.09294972 0.17596555
000040 13 e0 cd bd 43 34 56 bd 9b b0 76 be 6b 67 95 be
       -0.100525044 -0.052295934 -0.24090807 -0.29180464

layers.0.egnn.edge_mlp.3.weight f4 [16, 20]
000000 47 74 e9 3a df 18 59 3b 35 08 39 bb 90 e5 3f 3b
       0.0017811143 0.0033126397 -0.0028233652 0.0029281117
000010 e4 b8 2b bb 88 b4 8f 3b 20 80 87 bb 44 49 83 3b
       -0.0026202733 0.0043855347 -0.0041351467 0.0040065367
000020 5f ee 12 bb 13 8f 39 bb 56 80 8d ba b5 5b 1e 3b
       -0.0022419912 -0.0028314039 -0.0010795693 0.0024163548
000030 75 53 2f 3b e0 78 6f bb df ff 4a 3b cd 39 3a 3b
       0.0026752625 -0.0036540553 0.0030975265 0.00284158
000040 92 e6 4e b9 51 f4 2b ba 27 ff 43 bb f7 de 49 bb
       -0.00019731585 -0.00065595383 -0.0029906721 -0.0030803063
000050 98 e8 9f 3b c2 e3 80 3b 5c 6d 61 bb 43 0d 84 3b
       0.0048800223 0.003933401 -0.0034397459 0.004029901
000060 01 7f 58 bb 8c ed 96 3b 9e cf 5d bb de ad b7 3b
       -0.0033034685 0.0046059545 -0.0033845673 0.0056054434
000070 fc 5a 7b bb 4a 87 22 bb 40 37 88 bb 4a 8f 2c 3b
       -0.0038353791 -0.0024799877 -0.004156977 0.0026330524
000080 e4 87 70 3b fe a0 5b bb 7a 45 2d 3b 9b 1c 43 3b
       0.003670209 -0.0033512707 0.0026439116 0.002977169
000090 23 5f 72 bb 63 49 71 bb b7 cb 84 bb 46 83 85 bb
       -0.0036982975 -0.0036817424 -0.004052605 -0.004074487
0000a0 0b 44 68 3b a8 d9 21 3b e0 41 d7 ba b4 50 69 3b
       0.0035440947 0.0024696384 -0.001642283 0.0035601081
0000b0 60 7a ef ba a0 d4 50 3b d4 4b c5 ba da 36 3c 3b
       -0.0018270724 0.0031865016 -0.0015052506 0.0028719218
0000c0 36 b4 60 bb 50 c8 2e bb 72 33 a2 ba ef 1f 5b 3b
       -0.0034287102 -0.0026669689 -0.0012374951 0.0033435782
0000d0 08 a2 21 3b 92 20 63 bb 80 b9 9b 3b c3 76 1c 3b
       0.0024663229 -0.0034656865 0.004752338 0.0023874498
0000e0 29 19 6d bb f9 fd 3a bb 81 83 48 bb d5 a7 5d bb
       -0.0036178327 -0.0028532727 -0.003059596 -0.003382196
0000f0 8a f9 c6 b9 e7 e5 ea ba b6 a6 d5 3a 0f a6 0c bb
       -0.00037951424 -0.00179213 0.0016300294 -0.0021461283
000100 84 47 6f 3b 6a 23 1f bb 40 fe 6e 3b 84 39 8a bb
       0.0036511132 -0.0024282583 0.0036467463 -0.004218282
000110 ef ed 05 3b 18 ad 0e 3b 6e 85 42 3b 8d e6 58 bb
       0.002043601 0.0021770652 0.002968158 -0.0033096403
000120 a6 85 47 bb e2 76 4c 3b 0d c7 2f bb 45 af 3a bb
       -0.003044465 0.003119879 -0.0026821524 -0.0028485816
000130 9f b5 5a 3b 77 f3 40 3b 4e b9 a1 3a 41 ae a0 3a
       0.0033372415 0.0029441991 0.001233855 0.0012258963
000140 16 be 82 3b 45 e8 f3 38 2b 37 51 bb f3 df f0 3a
       0.003989945 0.000116304065 -0.0031923752 0.0018377289
000150 d9 bd 15 bb 42 49 4c 3b a0 b9 0c bb 65 6a 5d 3b
       -0.0022848754 0.0031171595 -0.0021472946 0.003378534
000160 f9 57 3d bb 23 7c 33 bb c6 0e 26 bb 75 c3 8d 3b
       -0.0028891547 -0.0027387224 -0.0025338395 0.004326279
000170 73 e2 6b 3b 8f 41 e1 ba 75 c5 d1 3a 11 32 17 3b
       0.0035993129 -0.0017185676 0.0016004281 0.0023070613
000180 09 42 09 bb 6d 1e 70 bb c2 fe 11 bb e1 a3 8c bb
       -0.00209439 -0.003663923 -0.0022277092 -0.004291997
000190 45 4b 53 bb 3b c3 20 bb 8b 7a 00 3b 6a f0 85 bb
       -0.003224091 -0.002453043 0.0019604291 -0.0040874975
0001a0 8b 97 a3 3b 70 bd 81 bb c9 97 4a 3b 90 8d 23 bb
       0.0049924306 -0.0039593503 0.0030913225 -0.0024956204
0001b0 05 d2 96 3b 95 fc 2a 3b fd 88 c8 3a 5c 87 a1 bb
       0.004602673 0.0026090492 0.0015299615 -0.004929466
0001c0 f3 8b 88 bb 30 d1 5b 3b e1 d8 84 bb 72 d5 23 bb
       -0.004167074 0.0033541434 -0.0040541743 -0.002499905
0001d0 b1 ef 59 3b 76 7c 14 3b 13 6b 82 3b 3b 7f 61 3b
       0.003325444 0.0022657192 0.0039800494 0.003440811
0001e0 9f 42 20 3b 83 73 20 3b 14 91 92 bb 3e d7 67 3a
       0.0024453772 0.0024482913 -0.004472861 0.0008844024
0001f0 1e 06 13 bb 8f 1c 02 3b 82 a1 67 bb e9 a4 49 3b
       -0.0022434066 0.0019853448 -0.003534407 0.003076846
000200 fc 4d 13 bb cc 6d 97 bb 51 2c 99 bb 2a 93 80 3b
       -0.0022476902 -0.004621243 -0.0046744724 0.0039237933
000210 56 c2 88 3b 3c 54 44 bb 2b 4e 0a 3b 8a f6 55 3b
       0.0041735573 -0.0029957434 0.002110372 0.003264817
000220 a9 83 fc ba d2 94 1c bb 02 f9 96 ba 92 6f 26 bb
       -0.0019265312 -0.0023892415 -0.0011518302 -0.002539609
000230 ef e7 9c bb b9 33 3c bb ae 08 28 3b 98 e5 f6 ba
       -0.004788391 -0.0028717353 0.002563994 -0.0018836735
000240 7b 57 58 3b c8 7e 82 bb 02 c7 45 3b 38 a6 4b bb
       0.0033011127 -0.0039823987 0.0030178432 -0.0031074416
000250 9e 20 b0 3b 07 b9 ae 3b 60 ad 34 3b ae 55 b6 ba
       0.005374982 0.0053321156 0.002756916 -0.0013911033
000260 71 b1 23 bb 87 b3 48 3b 36 9f 92 bb 48 53 65 bb
       -0.002497759 0.0030624585 -0.004474546 -0.0034992266
000270 71 2c 26 3b 8a 41 52 3b 23 0a 19 3b 7d 03 76 3b
       0.002535608 0.0032082521 0.002335199 0.00375387
000280 6a 23 0e bb 35 8a 6a bb 60 7e fd 3a 7e ef 77 bb
       -0.002168859 -0.0035787944 0.0019340031 -0.0037831957
000290 3f f4 3d 3b f2 b6 9a bb 9e be 59 3b 7c 27 83 bb
       0.0028984693 -0.004721516 0.003322519 -0.0040025096
0002a0 1a f1 59 3b ef 0f 6a 3b f8 9c 2d 3b d2 67 4e bb
       0.003325528 0.0035715064 0.0026491266 -0.0031494987
0002b0 b5 84 6d bb 74 9f 3e 3b b4 88 ea ba 78 5d 48 bb
       -0.003624243 0.002908674 -0.0017893524 -0.003057329
0002c0 51 e4 6d 3b 30 79 6f 3b 74 df 38 3b a5 83 e0 3a
       0.0036299417 0.003654074 0.002820936 0.0017129077
0002d0 55 0e 79 3b 5f 69 37 3b a0 11 a4 ba a2 87 ad 3a
       0.0038002927 0.002798639 -0.001251746 0.0013239274
0002e0 61 be 51 bb c1 ae 3a 3b 87 08 de ba eb 3e 81 39
       -0.0032004344 0.002848551 -0.0016939797 0.00024651675
0002f0 6b 38 49 bb 95 00 c9 ba 2f b3 8d ba f1 8e 3b 3b
       -0.0030703794 -0.0015335256 -0.0010810847 0.0028619135
000300 2e 04 86 3b 94 3a 09 bb f6 60 4c 3b 4f aa 07 3b
       0.0040898537 -0.0020939456 0.0031185723 0.0020700877
000310 55 f4 8c ba ac 87 81 bb b4 63 67 bb 44 96 38 bb
       -0.0010753969 -0.003952941 -0.003530723 -0.0028165737
000320 57 af 1c bb 5b bd 7a bb af cc 59 3b d0 3d 79 bb
       -0.0023908222 -0.0038259837 0.0033233573 -0.0038031228
000330 b9 74 79 3b b8 be 8e bb 59 88 4f 3b f4 a1 5a bb
       0.0038063957 -0.0043562315 0.0031666963 -0.0033360692
000340 00 18 cd 3a b3 1c f6 3a 6c 92 1f 3b b9 78 2c bb
       0.0015647411 0.0018776864 0.002434875 -0.0026317073
000350 7c 55 e8 ba ca fa 5b 3b b2 9f 45 bb 1b 26 33 bb
       -0.0017725672 0.003356623 -0.0030155 -0.0027335945
000360 3c 5e 7e 3b cf 6a 71 3b eb bd c8 3b 41 4b 8d 3b
       0.0038813492 0.0036837345 0.0061261556 0.0043119495
000370 31 b6 c1 3a ef 75 56 3b 79 21 f0 b7 18 af 83 3a
       0.0014779029 0.0032724102 -2.8625816e-05 0.0010046689
000380 c4 a8 52 bb b7 49 2e 3b 0f 67 8c bb 80 10 d1 3a
       -0.003214405 0.002659423 -0.0042847465 0.0015950352
000390 4d 31 fe ba 8f 6a 88 bb 6d d9 1f bb ee dc 17 3b
       -0.0019393355 -0.0041630934 -0.002439107 0.0023172456
0003a0 4d a8 1a 3b 71 3e 1d bb 7b 6b a2 3a f9 86 8b 3b
       0.002359885 -0.0023993517 0.0012391651 0.0042580334
0003b0 48 d2 6f bb 4a fd 41 bb 4b 31 8c bb 4c f1 2f bb
       -0.0036593843 -0.0029600435 -0.004278337 -0.0026846705
0003c0 ef 12 8f 3b f7 69 9e 3b aa 97 59 bb d3 9d a8 3b
       0.0043662707 0.0048344093 -0.003320197 0.0051457672
0003d0 97 23 81 bb 82 6b a9 3b 89 11 66 bb b1 ea 54 3b
       -0.00394101 0.0051702866 -0.0035105667 0.003248852
0003e0 ec 6b 82 bb b1 9d 45 bb b5 20 3f bb 94 a1 34 3b
       -0.0039801504 -0.0030153806 -0.0029163782 0.0027562128
0003f0 29 8a 68 3b 29 68 56 bb 2a ff 58 3b 85 d0 8c 3b
       0.003548274 -0.0032715893 0.0033111074 0.0042973184

layers.0.egnn.edge_mlp.3.bias f4 [16]
000000 16 6a 40 3e 6b 36 55 3e 8a 27 13 3e ab 9f 96 bd
       0.18790469 0.2082154 0.14370552 -0.07354673
000010 df 25 08 3e f8 a7 17 be c5 fd 7d 3c ff da 4b be
       0.13295697 -0.14810169 0.015502398 -0.19907759
000020 62 23 22 be 02 87 0b 3e ea d0 0a be 71 4b f3 3b
       -0.1583381 0.1362572 -0.13556257 0.007424765
000030 36 d7 29 3d 59 24 18 3e 52 ec 8f bd c4 70 0e 3e
       0.041465007 0.14857616 -0.070274964 0.13910204

layers.0.egnn.node_mlp.0.weight f4 [8, 20]
000000 f0 1a 9d ba 0a a7 3e 3a 8e 3a 5b b9 f1 d0 89 37
       -0.0011986177 0.00072728156 -0.00020907281 1.6428969e-05
000010 61 10 cc ba 37 b6 93 3a aa ba c7 3a 20 24 36 ba
       -0.0015568846 0.0011269514 0.0015238125 -0.0006948132
000020 54 e4 f1 3a fa 81 c2 ba 74 a4 14 3b 15 69 a4 ba
       0.0018454888 -0.0014839761 0.002268103 -0.0012543524
000030 ba 04 a4 ba bc 3c 83 ba 86 1f 16 39 96 cc ab ba
       -0.0012513616 -0.0010012607 0.00014316858 -0.0013107236
000040 fd ef 61 ba 96 29 bd 39 8e 38 93 39 c7 57 2f ba
       -0.000861883 0.00036079873 0.0002808016 -0.00066888
000050 e5 10 b8 39 f9 3c c1 ba 4b 2b 15 3b bc 27 db b9
       0.00035107802 -0.0014742903 0.00227614 -0.0004180054
000060 25 c3 21 3a 76 62 42 39 c4 d0 c2 ba c2 b2 9c b7
       0.00061707414 0.00018537961 -0.0014863242 -1.867989e-05
000070 6a 95 ca 39 70 e6 53 3a 0a 2d 09 ba 1c a6 cc 3a
       0.00038639765 0.0008083349 -0.00052328466 0.0015613469
000080 60 bc ef b9 39 23 04 3a 22 e3 cf b9 8d da df ba
       -0.00045725983 0.0005040649 -0.00039651344 -0.0017078683
000090 64 15 fa 39 9e cf 37 ba f6 5e 81 38 39 84 74 3a
       0.00047699653 -0.00070118334 6.168887e-05 0.0009327564
0000a0 a0 0c 4c b9 8e 31 a8 b9 8a 87 c8 39 7b c2 b5 b8
       -0.00019459659 -0.00032080378 0.00038247957 -8.6669774e-05
0000b0 4d 1b f7 3a 60 17 6c 3a 41 b6 d4 38 47 7c 0d 3a
       0.0018852741 0.00090061687 0.00010142895 0.0005397242
0000c0 bc ac 4b ba 41 12 86 ba ee 8d 94 ba 49 95 54 39
       -0.0007769575 -0.0010228829 -0.0011333802 0.00020273509
0000d0 6f ab 5b 3a ca c0 5d 3a 16 c0 c1 39 50 f2 bf b9
       0.00083797326 0.0008459209 0.00036954944 -0.00036610896
0000e0 7d 86 eb 3a 9c 52 98 3a f9 b0 6e 3a 47 6b 08 b9
       0.0017969158 0.0011621299 0.00091053505 -0.00013009935
0000f0 9c da 94 39 30 c9 2a 39 8a 1c c9 3a c4 1c 53 3a
       0.00028391636 0.00016287412 0.0015343588 0.00080532976
000100 d7 71 49 ba c4 ec be ba ac 43 87 3a 96 bc 00 3a
       -0.0007684505 -0.0014566411 0.001031985 0.0004910914
000110 de 4e 26 39 56 b6 5a b9 06 e1 ce ba 48 ce 2b bb
       0.00015860374 -0.00020858026 -0.0015783615 -0.0026215483
000120 23 4e 6b ba 87 e9 5f ba 65 7d 1b b9 11 09 8e 3a
       -0.0008976182 -0.0008541573 -0.00014828665 0.0010836442
000130 6a 78 01 ba 1c 51 af 39 20 83 01 ba 6d 6d b6 3a
       -0.00049389026 0.00033439032 -0.00049404986 0.001391811
000140 08 98 2a b9 79 1f 37 ba be 11 b0 b9 f6 71 ad b9
       -0.000162691 -0.0006985586 -0.00033582555 -0.0003308204
000150 19 86 8f 3a 85 13 cb 3a 6b a3 0e 3a bd 65 05 3a
       0.0010949998 0.0015493488 0.00054412213 0.00050887075
000160 64 4c 12 3a 06 73 61 3a 04 24 3b 3a 96 da ab b9
       0.0005580841 0.00086002087 0.00071388506 -0.0003277852
000170 34 84 98 3a dc 0f 9c 39 bd 2b 29 ba 25 c6 13 ba
       0.0011636079 0.00029766455 -0.0006453356 -0.0005637131
000180 2a b1 f2 39 45 03 a7 39 ef 4a 31 b9 3a d8 78 ba
       0.00046289834 0.00031855158 -0.0001690795 -0.00094926695
000190 23 75 3e 3a 18 2f 02 b9 e7 3a 8f 3a 5f f5 0d ba
       0.00072653795 -0.0001241531 0.0010927588 -0.0005415286
0001a0 4a 54 a2 37 01 0f 01 39 5f cd c6 ba 46 4d e2 b9
       1.9351155e-05 0.00012307988 -0.0015167407 -0.00043163652
0001b0 25 2f d8 b9 70 3d ad ba ce de 19 39 21 20 ab 39
       -0.00041233856 -0.0013217162 0.00014674218 0.000326396
0001c0 42 bb 03 ba 6f 8b b3 39 df 7d a1 ba 9f d1 83 39
       -0.0005025157 0.00034245427 -0.0012320838 0.00025142447
0001d0 7e bf bb b7 d8 a0 a9 ba 7f fa 0c 3a 2a 56 1b bb
       -2.2381308e-05 -0.0012941612 0.0005377903 -0.002370248
0001e0 94 ef 84 3a ca 71 60 39 aa b5 16 bb 2d 02 b0 39
       0.0010142201 0.00021404694 -0.0022996464 0.00033570957
0001f0 70 a1 83 39 38 9b a0 ba 9f 3a 09 3b f8 e5 58 ba
       0.00025106547 -0.001225329 0.0020939482 -0.0008274014
000200 e9 19 71 b9 4d b9 ed b8 65 39 19 ba e1 2c 96 3a
       -0.00022993203 -0.000113355556 -0.0005845039 0.0011457467
000210 78 45 ce 3a 21 0d e5 37 52 ef 83 ba c0 c1 22 38
       0.0015737256 2.7305041e-05 -0.001006583 3.8804254e-05
000220 2c 0b ba ba f0 19 aa ba aa 71 57 b9 e0 6a dc b9
       -0.0014194003 -0.0012977701 -0.00020546341 -0.00042041298
000230 3f a1 b4 ba b2 80 f4 ba 33 35 80 ba f5 98 59 38
       -0.0013780965 -0.0018654077 -0.000978148 5.1879284e-05
000240 92 46 89 3a df cf b3 b9 1a 14 57 ba 05 65 8d 3a
       0.0010473302 -0.00034296417 -0.00082045945 0.0010787552
000250 11 c4 71 39 64 24 99 ba 7d d7 c1 3a 69 0f 1a ba
       0.00023056591 -0.0011683819 0.0014788952 -0.000587693
000260 9d 55 94 3a 62 0b a4 3a e3 51 79 ba 23 54 c7 3a
       0.0011317019 0.0012515599 -0.0009510798 0.001520757
000270 66 db 69 ba f8 08 98 b9 af fb e9 b9 db 22 b7 39
       -0.00089209375 -0.00028998381 -0.00044628742 0.0003493045

layers.0.egnn.node_mlp.0.bias f4 [8]
000000 47 ae 05 be 14 1e 64 3e 18 01 1b be c0 d4 d7 3d
       -0.13054763 0.22277099 -0.15137136 0.10538626
000010 df a2 47 3d e8 93 c9 3d 20 b8 ec 3a 3d a6 99 3d
       0.04873931 0.09842664 0.0018060245 0.075024106

layers.0.egnn.node_mlp.3.weight f4 [4, 8]
000000 9e c3 d8 38 3b 60 42 3a 0a 81 28 39 1c 33 ba ba
       0.00010336119 0.0007414852 0.000160698 -0.0014205906
000010 ef 69 7c 3a 12 02 53 b9 de 52 5a b9 91 ff 27 3b
       0.00096288224 -0.000201233 -0.0002082097 0.0025634507
000020 ec dd c9 ba 7c b2 3c 3a fa f0 a6 3a 3c 7f 4a 3a
       -0.0015401221 0.0007198227 0.0012736612 0.0007724648
000030 cf 04 95 3a 0c 5a 11 ba 18 83 d5 ba 43 07 97 b9
       0.0011369231 -0.0005544729 -0.0016289679 -0.00028806375
000040 7e 80 ae ba 93 31 a8 ba d5 ea c9 b8 13 c4 22 ba
       -0.001331344 -0.0012832157 -9.628168e-05 -0.0006209027
000050 de 51 71 ba da 09 0a 39 8e ad 87 3a 8e 9e 41 3a
       -0.00092056196 0.00013164376 0.0010351406 0.0007385992
000060 cf af cd b9 22 a3 5d 3a 90 89 a5 b9 f2 15 12 3b
       -0.00039231635 0.00084547896 -0.00031573744 0.0022290912
000070 8c bf b5 3a 9e 91 78 3a 7e 77 1e b8 e2 7b c0 ba
       0.001386629 0.0009482148 -3.778142e-05 -0.0014685357

layers.0.egnn.node_mlp.3.bias f4 [4]
000000 2a 86 54 3e fb 30 7a bd 57 a3 3e 3e a7 9f 0f bd
       0.20754305 -0.061081868 0.18616997 -0.035064366

layers.0.egnn.coors_mlp.0.weight f4 [64, 16]
000000 3b 92 ab bb 54 b4 a9 bb 9d c9 b2 bb ef 45 a8 3b
       -0.005235938 -0.0051789675 -0.005456163 0.00513529
000010 a1 35 7b bb 39 13 c0 3b d4 f7 c1 bb eb 1f 74 3b
       -0.0038331526 0.0058616665 -0.005919436 0.003725047
000020 86 cb a2 3b 91 4e ad bb 8e 72 57 3b e8 fd 0b bb
       0.0049681095 -0.005288907 0.0032874676 -0.0021361057
000030 1b d5 8b bb 99 74 bb bb d3 2d d8 3b 58 42 a3 bb
       -0.0042673475 -0.0057206866 0.0065972595 -0.004982274
000040 8d a6 fe 3a 5e 2b a6 3a 8d 00 94 3b 21 c0 22 bb
       0.0019428298 0.0012677719 0.004516667 -0.0024833756
000050 30 56 42 3b be ec 7a bb a2 0b 07 3b 18 bb 83 bb
       0.0029653423 -0.0038288082 0.00206063 -0.004020106
000060 3e fd 36 bb 61 0a 69 3b 15 f3 24 bb 6e c5 df 39
       -0.002792194 0.0035559165 -0.0025169302 0.0004268097
000070 6a d1 04 3b 58 d0 5b 3b 83 e0 b6 ba 03 1f 4d 3b
       0.0020266422 0.003354093 -0.0013952408 0.0031299002
000080 78 53 a8 3b 2c e1 d7 3b bc 48 bf 3b fe e5 d4 bb
       0.0051369034 0.006588122 0.005837528 -0.006497144
000090 f0 f1 da 3b 94 cb 45 bb d6 a7 87 3b 8d 98 d6 bb
       0.006681673 -0.0030181156 0.0041398806 -0.006548947
0000a0 b4 3e b4 bb 9f 4d aa 3b 86 be c1 bb 9d ed b7 3b
       -0.005500639 0.0051972414 -0.0059126047 0.0056130425
0000b0 78 f8 aa 3b 20 0f d0 3b a9 56 92 bb d1 93 ff 3b
       0.005217608 0.0063494593 -0.004465897 0.0077996035
0000c0 47 56 93 3b a6 e1 be 3b 60 e8 b7 3b f6 be b5 bb
       0.004496369 0.0058252392 0.005612418 -0.005546446
0000d0 6d 54 a7 3b 8b bb b9 bb 49 ea 98 3b c5 4e b3 bb
       0.0051065 -0.005668109 0.004666601 -0.0054720365
0000e0 09 4c da bb 3e 6a aa 3b 7f 0d e8 bb 8e 22 65 3b
       -0.006661896 0.0052006533 -0.007081687 0.0034963223
0000f0 ac 63 99 3b f5 2b 92 3b 85 32 d7 bb 29 10 c1 3b
       0.0046810713 0.0044608065 -0.0065673017 0.005891819
000100 84 b8 1f bb d8 33 f5 ba 0f ec da ba da 4b 06 3b
       -0.0024371454 -0.0018707467 -0.0016702431 0.0020491988
000110 ab 32 de 39 fd d2 a6 39 9d b8 c1 3a f3 20 69 3a
       0.0004238089 0.00031819186 0.001477975 0.00088931544
000120 de 71 cc b9 17 1d 78 ba b9 62 91 3a 3f 99 87 ba
       -0.0003899475 -0.0009464784 0.0011092044 -0.0010345354
000130 46 ae 99 ba 2d 24 a6 ba d8 33 92 3a 02 ab 48 b9
       -0.0011724911 -0.0012675576 0.0011154367 -0.00019137192
000140 3a 14 c9 3a 49 6f 35 3b 21 fd 46 3b b7 27 41 bb
       0.0015341111 0.002768474 0.003036328 -0.0029473135
000150 12 20 7f 3b a4 15 20 bb f3 25 06 3a 54 cf c6 ba
       0.0038929028 -0.0024426961 0.0005117349 -0.001516799
000160 cf b2 30 bb a2 f2 91 3b db 2d a9 bb b2 db 29 3b
       -0.0026962047 0.004453973 -0.005162937 0.0025918302
000170 91 9b 84 3b e4 89 91 3b ab 88 7a bb a8 af 8d 3b
       0.0040468653 0.0044414867 -0.0038228433 0.0043239184
000180 d6 cc a2 3a c3 f1 fa 3a 05 d4 c9 39 63 52 a8 b9
       0.0012420665 0.0019145537 0.00038495674 -0.0003210484
000190 27 62 f4 b9 43 7f 9c ba 98 d2 20 3a c0 9a 0e b9
       -0.00046612436 -0.0011939782 0.00061348965 -0.00013599824
0001a0 6d 76 48 ba d5 24 48 ba ec 51 89 39 f4 39 8a b9
       -0.00076470413 -0.0007634883 0.00026191713 -0.0002636459
0001b0 30 19 a7 3a 69 5b 58 39 ce f1 38 39 99 2c 24 39
       0.0012748595 0.00020633418 0.00017637687 0.00015656873
0001c0 e2 2a dc 3a ba 45 21 3b df 95 17 3b fe 2b fe ba
       0.0016797448 0.002460821 0.0023130102 -0.0019391773
0001d0 c1 1a 5a 3b 89 98 c4 ba 29 98 c1 3a d4 aa 39 bb
       0.0033280107 -0.0014999072 0.0014770079 -0.0028330581
0001e0 85 b1 45 bb 1d 52 f2 3a 0d 54 06 39 33 58 05 3a
       -0.0030165624 0.0018487606 0.00012810547 0.000508669
0001f0 8a 8a 98 b8 51 84 a5 3a 85 5c 0e bb 76 32 1f 3b
       -7.27373e-05 0.0012627934 -0.0021722626 0.0024291552
000200 43 17 a0 3a 0d ea ae 39 e0 aa 24 3b 2e 37 a3 39
       0.0012213964 0.00033362248 0.0025126263 0.00031130895
000210 cd 77 86 3a fb e9 d7 ba 5c 21 e7 3a 7e 7b 40 ba
       0.0010259092 -0.001647293 0.0017633843 -0.00073426205
000220 72 f1 ab ba 65 67 c1 3a 6a 63 83 ba d5 49 d2 b9
       -0.0013118221 0.0014755545 -0.0010024135 -0.0004010933
000230 c4 4d 8b 39 b7 cc de 3a dd cd 35 ba 65 d5 96 3a
       0.00026570086 0.0016998266 -0.0006935278 0.0011507688
000240 26 ae db bb f2 d1 bc bb a1 07 ad bb 8c 90 a0 3b
       -0.0067041097 -0.005762332 -0.0052804505 0.004900044
000250 27 21 ce bb f7 36 99 3b a2 fc 81 bb 43 f2 83 3b
       -0.006290573 0.004675742 -0.0039668838 0.0040266826
000260 6c 95 57 3b c2 8d bb bb 7a 5f 9b 3b 6a d0 53 bb
       0.003289546 -0.005723686 0.0047416063 -0.003232027
000270 2b 29 99 bb 2a a5 b1 bb 99 28 b7 3b d4 9b bb bb
       -0.004674097 -0.0054213004 0.0055895564 -0.0057253633
000280 5b 10 b1 3b 16 41 af 3b 19 97 9e 3b 23 3c 4a bb
       0.005403561 0.005348335 0.0048397896 -0.0030858598
000290 d4 c2 96 3b f5 bf 83 bb c8 6c 94 3b bf ad 8f bb
       0.004600862 -0.004020686 0.0045295693 -0.004384726
0002a0 16 d9 a6 bb f3 6c 95 3b 30 b6 8e bb 8c ca 68 3b
       -0.0050917966 0.004560107 -0.0043552145 0.0035521118
0002b0 97 80 95 3b bd 84 8a 3b cb 9b d0 bb b0 fe 92 3b
       0.0045624482 0.0042272494 -0.006366228 0.0044859275
0002c0 09 6d 8b 3b d6 f5 cb 3b 57 e7 9b 3b 8b 2c 86 bb
       0.0042549414 0.0062243743 0.0047578025 -0.0040946654
0002d0 14 4d a4 3b f4 b0 a7 bb a8 cf 7a 3b b2 fe b1 bb
       0.0050140712 -0.00511753 0.0038270745 -0.0054319734
0002e0 8d ae 89 bb ba 3d ab 3b 02 c9 a5 bb 2c 06 65 3b
       -0.0042017163 0.0052258642 -0.0050593624 0.0034946306
0002f0 c5 44 93 3b a3 78 a0 3b b4 33 bd bb 5d f5 9b 3b
       0.004494282 0.0048971935 -0.0057739858 0.004759474
000300 6f 49 b5 bb bf b8 dc bb 1a aa 94 bb b6 af 78 3b
       -0.0055324356 -0.0067358906 -0.0045368792 0.0037946529
000310 95 e3 b4 bb c7 cf ae 3b ae 00 bc bb 8c b9 97 3b
       -0.005520294 0.0053348276 -0.0057373857 0.004630273
000320 69 83 b7 3b db 64 6e bb a6 4c b6 3b cd e4 1d bb
       0.005600382 -0.0036376033 0.0055633364 -0.0024092675
000330 f4 57 31 bb c4 37 a9 bb a3 7a ac 3b b2 b1 ad bb
       -0.002706048 -0.0051641185 0.005263643 -0.005300724
000340 50 ae 9b 3b 87 0c a3 3b 17 7e b0 3b 6f 9d b3 bb
       0.0047510043 0.0049758586 0.005386125 -0.005481414
000350 78 84 92 3b 2b 0e da bb bb 7a 9c 3b 51 1d ae bb
       0.004471358 -0.006654521 0.004775373 -0.0053135534
000360 0e f8 ac bb 40 6b 8c 3b 69 ca aa bb 77 67 95 3b
       -0.005278594 0.004285246 -0.0052121175 0.004559453
000370 aa e7 a2 3b ef 45 a5 3b 77 bc 85 bb 77 23 a8 3b
       0.004971464 0.005043737 -0.0040813047 0.005131181
000380 af c7 97 3b 32 70 8f 3b 23 fa 82 3b e3 6a 9f bb
       0.0046319584 0.0043773884 0.003997104 -0.004865037
000390 47 a9 a9 3b e1 98 85 bb c2 52 90 3b 2d f1 96 bb
       0.00517765 -0.0040770625 0.0044043968 -0.004606387
0003a0 cb 23 c7 bb 5d 50 5d 3b 2c 3b a2 bb 0a 51 6e 3b
       -0.006077265 0.0033769824 -0.0049509015 0.003636422
0003b0 1e a9 64 3b 65 0e d0 3b 04 7f 2c bb 7d 07 d6 3b
       0.003489084 0.006349372 -0.0026320824 0.0065316544
0003c0 29 1a 87 bb 6a e4 a9 bb 39 ac b1 bb e2 43 9c 3b
       -0.0041229916 -0.0051847 -0.005422142 0.0047688344
0003d0 38 a1 a6 bb 34 39 95 3b 1a e9 90 bb 69 eb a5 3b
       -0.0050851367 0.0045539383 -0.004422319 0.0050634635
0003e0 80 7f b0 3b 21 4d 87 bb 21 ed e3 3b d5 8b 4d bb
       0.005386293 -0.0041290675 0.006955758 -0.0031363864
0003f0 9c 13 99 bb 19 32 7e bb 23 43 a9 3b a8 3b 88 bb
       -0.004671527 -0.0038787185 0.005165474 -0.004157502

layers.0.egnn.coors_mlp.0.bias f4 [64]
000000 52 f2 22 bd c8 4c 75 3e 73 85 89 3c 5e 02 f9 3d
       -0.039781876 0.23955071 0.016787266 0.12158655
000010 ed e5 3f be 6b b7 1c 3d cc a7 2f bc 9c ff 36 3e
       -0.18740053 0.03826086 -0.010721158 0.17870945
000020 66 2f 63 3e a5 6f 03 bc c0 2d 1f 3e f7 47 21 3e
       0.2218605 -0.008022224 0.15544796 0.15750109
000030 fe bd c7 bc ad d6 5a 3e c3 c0 15 3e ff a0 ee bd
       -0.024382588 0.21370955 0.14624314 -0.11651801
000040 07 49 e4 bd 54 d3 0f 3d aa e5 a4 bd 34 85 cd bd
       -0.11146741 0.035113648 -0.080516174 -0.10035172
000050 04 5f 43 3e e2 c6 e0 3d d8 e5 5d be 2e e9 61 3d
       0.19079214 0.10975434 -0.2166971 0.055154018
000060 90 50 6d be e8 a5 f3 3a d9 7b 30 be 75 36 77 be
       -0.23175263 0.0018588873 -0.17234744 -0.24141867
000070 98 01 8d bc 0f 0f 40 3e 37 f2 0d be a3 29 c5 3d
       -0.017212674 0.18755744 -0.13861929 0.09627082
000080 39 9e 9d bd 99 4d 2e 3d 47 21 68 be 76 fc 0d bc
       -0.07696194 0.04255447 -0.22668944 -0.008666148
000090 44 fc 02 be ec 55 d5 3d 39 1b ae 3d 2c 08 66 be
       -0.12791544 0.10416779 0.08501286 -0.22464055
0000a0 0c 6e 66 bd e4 f5 19 3e 9e 4e ff bd ab 50 03 3e
       -0.056257293 0.15035206 -0.12466167 0.12823741
0000b0 9f 92 86 bc 5d 2a 1b 3d 7f 24 1a bd 54 b4 f9 bd
       -0.016427336 0.037882198 -0.03763246 -0.12192598
0000c0 75 91 6e be 45 df 13 be bc db 56 be 2f 26 63 be
       -0.23297675 -0.1444064 -0.2098226 -0.22182535
0000d0 17 4f 14 bd bc 34 f3 3d 4a 5a 6b 3e cb 98 50 be
       -0.03620824 0.11875293 0.22983661 -0.20370786
0000e0 b4 f3 16 be b6 1a e1 bb c5 9a 72 3d 7c 98 7d 3e
       -0.14741403 -0.0068696393 0.05922963 0.247652
0000f0 8e 1d 92 bd 40 ce 87 3d 00 cb 06 3e 5c 01 d5 bb
       -0.07134543 0.06631136 0.13163376 -0.006500406

layers.0.egnn.coors_mlp.3.weight f4 [1, 64]
000000 67 51 c7 bb 9b 65 a9 3b fe b7 d1 3b ed 5c cd 3b
       -0.006082702 0.005169583 0.0064001074 0.006267181
000010 c7 e7 96 bb ff ed af 3b 6d 47 49 bb d8 04 a6 3b
       -0.0046052667 0.0053689475 -0.003071274 0.0050664954
000020 1e 76 98 3b 58 dd b6 bb 51 60 c1 3b cb a7 e9 3b
       0.0046527525 -0.0055805854 0.0059013744 0.007130598
000030 6b 95 d1 bb 60 b1 07 3c 95 dd c1 3b ad a2 f6 bb
       -0.006395986 0.008282036 0.005916307 -0.0075267167
000040 55 f7 ce bb 3e f9 a2 3b 78 d2 a6 bb 2e 9d ed bb
       -0.0063161054 0.0049735596 -0.005091008 -0.0072514033
000050 57 f6 d5 3b bb 0c df 3b c2 33 95 bb 30 06 cc 3b
       0.00652961 0.0068069375 -0.004553289 0.0062263235
000060 e5 41 c0 bb 26 36 4b 3b a9 9a ba bb 73 3a b6 bb
       -0.0058672302 0.0031007617 -0.0056947065 -0.005561167
000070 5e 40 bd bb b7 01 c6 3b de a2 b6 bb 74 23 d3 3b
       -0.0057754954 0.006042685 -0.0055736145 0.0064434353
000080 df e8 01 bc f9 ad cb 3b 55 60 d3 bb 5f 4d ee bb
       -0.007929056 0.0062158075 -0.0064506927 -0.007272407
000090 b2 04 c6 bb 43 ce bf 3b dc 30 c5 3b 69 bc c6 bb
       -0.00604304 0.0058534457 0.0060177874 -0.0060649407
0000a0 25 7d 8e bb 7c e2 dc 3b 36 a0 b7 bb 5d 84 be 3b
       -0.0043484145 0.006740866 -0.0056038154 0.005814119
0000b0 0b fb ce bb cc 72 bf 3b 6f b6 ff bb 82 1a d5 bb
       -0.0063165477 0.0058425423 -0.00780373 -0.006503404
0000c0 9a 2e f2 bb f9 6b cd bb 93 e2 8a bb e6 f5 8d bb
       -0.0073908092 -0.006268975 -0.0042384355 -0.004332292
0000d0 1f 4f d3 bb 5c 9d 78 3b 4d 80 d5 3b 31 5e c6 bb
       -0.006448641 0.003793559 0.006515539 -0.006053709
0000e0 43 ff bc bb 01 bb b4 bb a7 c8 be 3b ec 13 e2 3b
       -0.0057677343 -0.0055154567 0.0058222595 0.0068993475
0000f0 e2 4c b6 bb 1b 0a a5 3b 27 95 da 3b 10 15 73 bb
       -0.0055633644 0.005036605 0.0066706124 -0.0037091412

layers.0.egnn.vel_mlp.0.weight f4 [16, 4]
000000 38 cb 2d ba 37 ea 98 b9 ba 31 27 b9 78 8c d4 b9
       -0.0006629708 -0.00029166203 -0.00015944886 -0.00040540448
000010 e2 69 96 ba f7 8f b5 39 00 7a 81 3a 7b 23 80 ba
       -0.0011475647 0.00034630272 0.0009878278 -0.0009776199
000020 f7 30 a1 ba bc e9 bd b9 ae d6 8b ba 11 c6 9f ba
       -0.0012297918 -0.00036223035 -0.0010668838 -0.0012189766
000030 b3 e9 b5 b9 f7 d7 f3 39 d1 da 95 3a e0 1c 20 b8
       -0.0003469713 0.00046509478 0.001143301 -3.8173865e-05
000040 dd 56 f9 ba a6 0d be b8 40 85 00 3a 3b 1f a1 ba
       -0.001902308 -9.062448e-05 0.00049026683 -0.0012292633
000050 6e 8b fb 39 a0 a1 43 ba 99 f3 85 ba be 70 96 3a
       0.00047978334 -0.00074627437 -0.0010219692 0.0011477692
000060 2c b4 dc b9 61 c0 ef b9 92 a1 54 ba 49 98 7c b9
       -0.00042095908 -0.00045728966 -0.0008111234 -0.00024089323
000070 0f 9d d6 ba 7f cb 83 b9 14 47 2a ba 4a 9f b9 ba
       -0.0016373711 -0.00025137883 -0.0006495577 -0.0014161852
000080 ad 3b cc b9 d0 9b 1b 3a 2f ca 92 3a 61 90 08 ba
       -0.00038954374 0.00059359986 0.0011199171 -0.00052095024
000090 ff 3b 8a 3a fa 4b 37 b9 04 ef 4b ba 08 e1 3c 3a
       0.0010546445 -0.00017480543 -0.00077794516 0.0007205163
0000a0 4d c6 55 3a 26 e5 db b9 50 1d 0c ba 5e fb 85 3a
       0.00081548543 -0.00041941664 -0.0005344944 0.0010222008
0000b0 7a d7 f1 b8 86 f8 ef b9 e3 e6 a6 ba 61 39 63 b9
       -0.00011531911 -0.00045770797 -0.0012733605 -0.00021669782
0000c0 3f 84 8c b9 8a 47 8d 39 e5 31 43 3a 5b 8d c1 36
       -0.00026801412 0.00026946916 0.00074460945 5.768304e-06
0000d0 91 f4 28 3a 75 cc b3 39 dd 5f 35 3a e3 3d cd 39
       0.00064451346 0.00034293873 0.0006918887 0.00039146756
0000e0 bd b0 87 ba d0 74 cb b6 46 40 59 b9 3b b3 8a ba
       -0.0010352355 -6.06347e-06 -0.00020718676 -0.0010581979
0000f0 4a b8 09 39 0c 79 22 3a 51 58 46 3a 81 01 b7 b9
       0.00013133991 0.0006197847 0.0007566261 -0.000349056

layers.0.egnn.vel_mlp.0.bias f4 [16]
000000 e4 8b 65 be 5d 20 b3 3e 1b c7 c8 bc 73 ca 88 be
       -0.22416645 0.3498563 -0.024509003 -0.26716956
000010 20 2c 06 bc 9d 07 bf bb 41 1c 05 3e e2 57 b6 3e
       -0.008189231 -0.005829765 0.1299906 0.35613924
000020 db db 91 bd 6d dc a6 3e 5b e1 da 3e bd 8e 4b 3d
       -0.07122012 0.32590047 0.42750058 0.049696673
000030 85 0e 02 be e2 82 c3 be 61 38 b7 bd 8f 12 ec 3e
       -0.12700851 -0.38185793 -0.089463 0.4610791

layers.0.egnn.vel_mlp.3.weight f4 [1, 16]
000000 62 80 7c 39 92 7f ad 39 21 43 4a 3a ca e5 a8 b8
       0.00024080419 0.0003309218 0.00077156915 -8.053666e-05
000010 ea b2 26 3a c0 59 54 b9 cc b0 8c 39 96 b3 67 3a
       0.0006359058 -0.0002025133 0.00026834605 0.0008838711
000020 cc 83 16 38 06 71 ac b9 31 33 c4 b9 61 d8 a4 39
       3.5885532e-05 -0.00032890606 -0.00037422174 0.00031441732
000030 ed 5e 56 b8 b2 96 b7 b9 34 3b 0a 3a 3a 98 95 b8
       -5.1109982e-05 -0.00035016757 0.0005273104 -7.133228e-05

layers.1.egnn.edge_mlp.0.weight f4 [20, 10]
000000 4d 85 88 3d 8a 2f 90 bd 5d 84 8f 3d e5 c5 b0 3d
       0.0666605 -0.07040317 0.07007668 0.086314954
000010 2a 75 8b 3d 05 36 96 bd bf c3 91 3d 25 32 b6 3d
       0.06809457 -0.07334522 0.07117414 0.08896283
000020 52 22 7a bd 1c 75 b0 bd ba f3 7b 3d 84 18 89 bd
       -0.061067887 -0.08616087 0.061511733 -0.06694129
000030 4a cc 85 3d 7a be a9 3d c2 14 84 3d 7f 62 8c bd
       0.06533106 0.08288284 0.06449272 -0.06854724
000040 0f 07 88 3d 70 41 b1 3d e4 43 6e bd 6e 46 af bd
       0.06641971 0.08655059 -0.058170214 -0.08558355
000050 e5 7a a9 bc e2 47 f3 3c 19 bf f0 bc 93 b3 44 bd
       -0.020688483 0.029697362 -0.029387997 -0.048022818
000060 45 2f cb bc 7b 01 12 3d d2 cc 07 bd 28 5d 5b bd
       -0.024802813 0.035645943 -0.033154316 -0.053555638
000070 f6 b5 ed 3c e8 3d 7d 3d 29 79 7d 3d 5b e3 84 bd
       0.02901743 0.061826617 0.061883125 -0.06488677
000080 72 67 8b 3d 64 76 ab 3d 07 d9 7e 3d 0d 64 93 bd
       0.0680684 0.083721906 0.062218692 -0.071968175
000090 a8 10 8d 3d fd 7b b2 3d 0f 66 6d bd df 04 ad bd
       0.068879426 0.08715055 -0.05795866 -0.08448195
0000a0 9a 89 b1 bc 62 05 f7 3c 19 d9 f3 bc 54 c3 4e bd
       -0.021672059 0.030153934 -0.029766606 -0.05047925
0000b0 b0 3c da bc 0b 5a 0d 3d e3 1e 07 bd 6e 31 58 bd
       -0.026640266 0.0345097 -0.03298844 -0.052781515
0000c0 1d 41 e5 3c ea 15 7f 3d 8a 1b 82 3d 51 66 8e bd
       0.02798515 0.06227676 0.06352909 -0.06953109
0000d0 b1 ce 8c 3d 21 db ae 3d 4f c9 89 3d 98 8f 97 bd
       0.06875361 0.08537889 0.0672785 -0.07400435
0000e0 d8 75 95 3d 64 f3 b4 3d a7 47 78 bd df 58 b0 bd
       0.072978675 0.088354856 -0.060615208 -0.08610701
0000f0 08 61 ab bc 57 64 f0 3c 87 7a f8 bc 9a e2 49 bd
       -0.020920292 0.02934472 -0.030331863 -0.04928837
000100 c6 ae cb bc 89 91 10 3d b5 83 06 bd 66 19 57 bd
       -0.024863612 0.035295043 -0.03284045 -0.052514456
000110 fc 4a e9 3c e9 55 80 3d 91 64 a3 bc 10 d6 ed 3c
       0.028478138 0.06266386 -0.019945415 0.029032737
000120 e0 7b f7 bc 1e e3 4a bd 74 b7 ce bc 5e 72 0a 3d
       -0.030210435 -0.049533002 -0.025233962 0.033800475
000130 6a e9 02 bd 1a 83 54 bd e3 88 e0 3c 62 9b 80 3d
       -0.031960882 -0.05188284 0.027409023 0.06279637
000140 a6 e3 b3 bc af 6a ee 3c 42 88 f4 bc 79 43 4e bd
       -0.021959137 0.029103605 -0.029850129 -0.050357316
000150 16 56 c9 bc ef fa 0b 3d 40 cd ff bc 53 12 55 bd
       -0.024577182 0.034174856 -0.0312258 -0.05201943
000160 c6 24 e3 3c 64 e7 80 3d ba a6 8f bc c1 d7 c1 3c
       0.027727496 0.06294134 -0.017535556 0.02366245
000170 ad 8f cd bc 6b e8 3c bd b4 df a4 bc d5 9b e9 3c
       -0.025092924 -0.04612009 -0.020126201 0.02851669
000180 1e 3b e8 bc d9 93 43 bd f4 4c b8 3c d6 40 6e 3d
       -0.028348502 -0.04774842 0.022497632 0.0581673
000190 3c f7 54 3d c7 e0 72 bd 6f 89 6b 3d 49 32 9b 3d
       0.051993594 -0.059296396 0.057504114 0.075779505
0001a0 17 2c 65 3d 9e 03 81 bd 16 f8 78 3d f8 05 aa 3d
       0.05595025 -0.06299518 0.06078347 0.0830192
0001b0 30 9b 4f bd 67 68 a6 bd f4 ff 87 3d 74 11 94 bd
       -0.050685108 -0.08125382 0.06640616 -0.072298914
0001c0 e3 0c 92 3d 31 0d b3 3d 95 fa 8f 3d 1f d7 97 bd
       0.07131364 0.087427504 0.070302166 -0.07414078
0001d0 52 96 96 3d 5a d4 b7 3d ee 31 79 bd ec 55 b2 bd
       0.0735289 0.0897605 -0.060838632 -0.087077945
0001e0 b6 09 b7 bc 9a f6 ee 3c a6 8a ee bc fd 69 45 bd
       -0.022343498 0.029170323 -0.029118847 -0.04819678
0001f0 17 19 c4 bc d1 87 11 3d f6 c1 0e bd 5f 9b 56 bd
       -0.023937745 0.035529915 -0.034852944 -0.052394267
000200 dc 4a d6 3c de b9 7e 3d 3a da 66 3d c0 07 85 bd
       0.026158743 0.062188976 0.05636046 -0.06495619
000210 91 34 83 3d 50 a3 a7 3d f2 9d 80 3d fa 49 8a bd
       0.064065106 0.08185446 0.06280126 -0.06752391
000220 aa be 83 3d 03 1b ad 3d ae 3c 5f bd 5f d8 a8 bd
       0.06432851 0.08452418 -0.054501228 -0.082443945
000230 59 86 79 3d b4 0e 89 bd 90 b4 84 3d ce 4b ad 3d
       0.06091914 -0.066922575 0.06479752 0.08461724
000240 80 40 80 3d b3 5d 8e bd f7 1c 89 3d 75 8f b4 3d
       0.062623024 -0.069514655 0.06694978 0.08816425
000250 a8 93 6b bd ed 49 ab bd 55 1e a7 bc 91 90 eb 3c
       -0.057513863 -0.083637096 -0.020400206 0.028755458
000260 2a 6a e8 bc 03 9e 4f bd f6 a9 c7 bc 40 6f 07 3d
       -0.028370935 -0.0506878 -0.024373036 0.03306508
000270 e8 0b 01 bd de 17 52 bd ea a4 dd 3c c6 6e 79 3d
       -0.031505495 -0.051292293 0.027056176 0.060896657
000280 7d 3a 86 3d 26 17 92 bd e8 67 91 3d 2f 7e b3 3d
       0.065541245 -0.071333215 0.07099897 0.08764302
000290 e5 f3 8a 3d d2 d3 95 bd 61 d3 94 3d 02 c2 b6 3d
       0.067848004 -0.07315792 0.0726688 0.08923723
0002a0 ef 0b 76 bd 92 c2 b0 bd 01 56 61 3d 67 31 6f bd
       -0.060069975 -0.08630861 0.05501366 -0.058396723
0002b0 30 be 79 3d 89 b1 9f 3d 1e c8 5f 3d aa 07 83 bd
       0.060972393 0.07797534 0.054634206 -0.06397946
0002c0 2a 16 7b 3d 17 0e a4 3d 17 f4 57 bd 14 ef a6 bd
       0.061300434 0.080105 -0.052723017 -0.08151069
0002d0 77 46 b3 bc 22 fb cc 3c 43 fd eb bc 8e e6 4b bd
       -0.021884186 0.025022093 -0.028807288 -0.04978042
0002e0 e8 ab d4 bc 07 87 07 3d 3f 09 fb bc 82 ef 47 bd
       -0.025960878 0.033087756 -0.030644057 -0.048812397
0002f0 22 58 d1 3c 9c f0 79 3d 6a 53 83 3d 2d 00 8b bd
       0.02555472 0.06102048 0.06412394 -0.06787143
000300 06 b1 8b 3d 0e 3b b1 3d 8b b1 86 3d f8 81 91 bd
       0.06820874 0.08653842 0.065768324 -0.07104868
000310 b3 80 8f 3d 5a aa b7 3d d9 c9 6f bd e3 b2 af bd
       0.07006969 0.08968039 -0.058542106 -0.08579042

layers.1.egnn.edge_mlp.0.bias f4 [20]
000000 2e c5 af be 8f c4 8e be 54 f0 2e 3e 15 69 91 be
       -0.34330124 -0.27884337 0.17083865 -0.28400484
000010 77 de 51 3e 10 f0 a0 be 47 fb 5f 3e 6d 05 73 3e
       0.2049502 -0.31433153 0.21873198 0.23732539
000020 74 b1 a6 3e 50 07 82 3d 6a da f7 bd 92 c4 c0 be
       0.3255726 0.06349051 -0.12102206 -0.3764997
000030 a8 f1 2b 3e 67 72 7a be b3 74 90 be b5 50 48 3e
       0.16791403 -0.24457704 -0.28214034 0.19562037
000040 57 1b b7 be a0 bd 05 be 8d e4 a0 3d bf 97 a0 be
       -0.35763046 -0.13060617 0.078560926 -0.31365773

layers.1.egnn.edge_mlp.3.weight f4 [16, 20]
000000 fa 7e 7b 3d c1 c3 70 3d f9 79 4c bd 30 92 6e 3d
       0.06140039 0.058780435 -0.04992101 0.058244884
000010 6a 59 50 bd b1 4a 6f 3d 43 d6 53 bd 81 04 53 bd
       -0.050866522 0.05842084 -0.051718008 -0.051517967
000020 18 03 56 bd a4 97 31 bd c5 a6 61 3d 13 bc 6f 3d
       -0.052249044 -0.043357506 0.055090684 0.05852897
000030 8d 93 4e bd ed 49 71 3d 59 06 6e 3d ca 0f 4e bd
       -0.050433684 0.05890839 0.058111522 -0.050308026
000040 d9 09 74 3d bb f3 69 3d 34 ec 4d bd da 26 79 3d
       0.059579704 0.057117205 -0.05027409 0.060828067
000050 25 b4 5d bd 28 49 60 bd e5 b8 2b 3d d4 d1 5e bd
       -0.054126877 -0.054757267 0.041924376 -0.054399326
000060 85 37 31 3d 70 cd 5b bd b2 98 30 3d 40 82 34 3d
       0.04326584 -0.053662717 0.04311437 0.04406953
000070 a1 7d 36 3d a9 77 11 3d d9 5b 4d bd 08 b6 67 bd
       0.044553403 0.035514507 -0.05013642 -0.056570083
000080 c6 8a 2f 3d a8 5f 5d bd 9d aa 5b bd b1 db 35 3d
       0.042856954 -0.054046303 -0.053629506 0.044398967
000090 00 64 60 bd f9 cc 45 bd 12 1a 14 3d 0e 1e 5d bd
       -0.054782867 -0.04829118 0.036157675 -0.05398374
0000a0 c6 f6 62 bd 0a b7 57 bd e0 ee 2c 3d 09 7f 5f bd
       -0.055411123 -0.052664794 0.042219996 -0.05456451
0000b0 4e 9d 2e 3d 39 37 5d bd eb 63 2d 3d 04 5b 3a 3d
       0.042630486 -0.054007743 0.042331617 0.045496956
0000c0 cc 05 3e 3d 21 4c 06 3d 65 3c 48 bd 18 b3 62 bd
       0.046392247 0.032787446 -0.04888572 -0.05534658
0000d0 20 b2 2f 3d 63 56 57 bd ac c8 5d bd 1f c5 2b 3d
       0.042894483 -0.05257262 -0.054146454 0.041936036
0000e0 e9 a4 63 bd 8c fa 48 bd 38 5a 1c 3d af b3 5f bd
       -0.055577192 -0.049067065 0.038171977 -0.05461472
0000f0 61 f1 70 3d 05 48 74 3d f6 d7 4d bd 49 a6 72 3d
       0.058823947 0.059638996 -0.050254785 0.059240613
000100 fa 1f 59 bd e5 0a 75 3d e8 d5 56 bd 28 ad 51 bd
       -0.05300901 0.059824843 -0.05245009 -0.051190525
000110 c4 31 58 bd f9 9e 2e bd 56 08 68 3d c6 ee 71 3d
       -0.052781835 -0.042632077 0.056648575 0.059065603
000120 07 b3 57 bd 62 0c 6d 3d 8f 2e 6c 3d c4 cf 54 bd
       -0.05266097 0.057873137 0.05766159 -0.051955953
000130 5c 07 75 3d aa 14 69 3d 0a 79 45 bd 4a 98 72 3d
       0.05982147 0.056904472 -0.048211135 0.059227265
000140 85 8c 62 bd a2 31 60 bd 0f 94 2e 3d 9a bd 60 bd
       -0.05530979 -0.054734834 0.04262167 -0.05486832
000150 70 63 31 3d 87 d7 56 bd b8 ed 35 3d ba ea 3f 3d
       0.04330772 -0.052451637 0.04441616 0.046854712
000160 75 85 34 3d 09 ef 00 3d ab c1 47 bd b7 c6 5e bd
       0.044072587 0.03147796 -0.04876868 -0.054388728
000170 0f ee 2d 3d 27 e4 54 bd b6 25 58 bd 8d 7b 28 3d
       0.04246336 -0.051975396 -0.05277034 0.041133452
000180 6b 98 5b bd 93 ec 46 bd 12 2c 1d 3d 99 17 5b bd
       -0.053612154 -0.04856546 0.038372107 -0.0534893
000190 a6 0f 67 bd e1 d3 5e bd ed 0f 2a 3d 6d 15 65 bd
       -0.056411408 -0.054401282 0.041519094 -0.055928636
0001a0 7b c8 2d 3d c5 15 63 bd 4d da 34 3d e3 02 34 3d
       0.04242752 -0.055440683 0.0441535 0.043948065
0001b0 07 d4 3c 3d cc 59 07 3d 34 b7 47 bd 7c 8a 67 bd
       0.046100643 0.03304462 -0.0487587 -0.056528553
0001c0 f8 f4 28 3d 2a 14 58 bd 30 82 60 bd 94 d1 30 3d
       0.041249245 -0.052753605 -0.054811656 0.04316862
0001d0 27 df 64 bd 09 36 4f bd a9 5e 1e 3d 53 d8 5b bd
       -0.055876877 -0.05058864 0.038664494 -0.0536731
0001e0 6a 72 6f 3d 52 85 6a 3d b3 8d 4f bd 01 c1 71 3d
       0.058458723 0.05725605 -0.050672244 0.059021953
0001f0 be 22 5a bd cf d0 73 3d f1 cb 54 bd bf 5f 51 bd
       -0.05325579 0.059525307 -0.051952306 -0.0511167
000200 5f fd 5b bd 21 1c 37 bd a6 d1 66 3d de 52 6e 3d
       -0.05370843 -0.04470456 0.05635228 0.058184497
000210 c1 af 56 bd 1e 6e 71 3d 89 e4 6f 3d 7e 4a 51 bd
       -0.052413706 0.058942907 0.058567557 -0.051096432
000220 92 72 73 3d 9d 32 68 3d 7a be 47 bd 35 e6 6e 3d
       0.059435435 0.056688894 -0.048765637 0.05832501
000230 b4 e9 78 3d 87 86 77 3d ce 0d 51 bd a6 35 6d 3d
       0.06076975 0.06043103 -0.051038556 0.05791249
000240 9c 8f 5a bd 02 eb 6b 3d 0b cd 4b bd 88 dc 54 bd
       -0.053359613 0.057597168 -0.04975609 -0.051968127
000250 3e 6a 57 bd 4a 1e 3b bd fc bd 64 3d 24 e4 73 3d
       -0.052591555 -0.045683183 0.055845246 0.059543744
000260 2b 3f 53 bd a7 81 6f 3d d0 09 6c 3d 59 72 4f bd
       -0.051573914 0.058473255 0.057626545 -0.05064616
000270 39 03 73 3d f3 dc 70 3d 80 06 4e bd 05 92 69 3d
       0.059329245 0.058804464 -0.050299168 0.05702402
000280 83 ef 74 3d bb ee 72 3d 40 cc 58 bd 4b 0a 6e 3d
       0.05979873 0.059309702 -0.052929163 0.058115285
000290 04 60 53 bd 86 62 74 3d a4 62 53 bd 3f a5 57 bd
       -0.05160524 0.05966427 -0.051607743 -0.052647825
0002a0 43 90 5a bd 82 08 34 bd 95 2b 6d 3d a5 ca 74 3d
       -0.053360235 -0.043953426 0.05790289 0.05976357
0002b0 d0 0f 55 bd ec 2e 72 3d ca 26 74 3d 2d f3 53 bd
       -0.052017033 0.05912678 0.059607305 -0.051745582
0002c0 5d 2e 79 3d 9d a2 6d 3d 9e 3c 4c bd 1e 56 79 3d
       0.06083523 0.05801641 -0.049862497 0.060873143
0002d0 f4 99 67 bd 09 4e 61 bd 9d 01 32 3d c9 c9 60 bd
       -0.056543306 -0.05500606 0.04345857 -0.054879937
0002e0 dc 97 2e 3d 6f 26 5e bd 40 5b 2d 3d db 65 2f 3d
       0.042625293 -0.054235872 0.04232335 0.042821746
0002f0 58 fe 3f 3d 93 08 08 3d 5c 8c 46 bd f0 77 5e bd
       0.04687342 0.033211302 -0.0484737 -0.0543136
000300 2a 5f 2d 3d a7 76 5d bd 06 9e 5f bd da 1c 2f 3d
       0.042327084 -0.054068234 -0.054594062 0.042752124
000310 2a 30 69 bd e9 68 50 bd 3c c1 18 3d 51 b8 5e bd
       -0.0569307 -0.0508813 0.037293658 -0.054374997
000320 3f 6c 65 bd f8 c8 56 bd 84 8c 27 3d 12 fc 5c bd
       -0.056011435 -0.052437752 0.04090549 -0.05395133
000330 a5 71 37 3d 05 1c 64 bd 26 88 33 3d a5 f3 32 3d
       0.044786114 -0.055690784 0.043831013 0.04368939
000340 e2 b7 32 3d a4 01 0e 3d 8f 70 47 bd b0 a7 5a bd
       0.043632396 0.034669533 -0.04869133 -0.053382576
000350 30 58 33 3d bc 45 5c bd 0d 80 5b bd 0d 9c 33 3d
       0.043785274 -0.05377744 -0.053588916 0.043849993
000360 c8 a4 64 bd 89 1b 46 bd 1a e7 13 3d a9 00 5d bd
       -0.05582121 -0.048366103 0.036109067 -0.053955708
000370 72 1f 6f 3d 04 70 76 3d eb 52 57 bd 88 9c 76 3d
       0.058379598 0.06016542 -0.05256931 0.060207874
000380 3c 93 56 bd ed ad 72 3d fd 25 4f bd 32 b7 52 bd
       -0.052386507 0.0592479 -0.050573338 -0.05144424
000390 42 0e 5b bd 80 41 36 bd df fe 70 3d 90 a6 6a 3d
       -0.053480394 -0.04449606 0.058836814 0.057287753
0003a0 f3 27 51 bd 55 54 6c 3d 7b 16 68 3d 93 1e 4b bd
       -0.05106349 0.057697613 0.056662064 -0.049589705
0003b0 28 3e 72 3d 89 67 68 3d 68 89 3e bd ed eb 76 3d
       0.059141308 0.056739364 -0.04651776 0.06028359
0003c0 ac ce 6d 3d 41 0f 70 3d d1 db 4d bd 67 0c 72 3d
       0.058058426 0.058608297 -0.05025846 0.05909386
0003d0 2a 80 56 bd 85 d8 70 3d 95 5d 57 bd d0 60 56 bd
       -0.05236832 0.05880024 -0.05257948 -0.05233842
0003e0 b4 65 57 bd 43 72 34 bd be 87 6a 3d 93 9c 74 3d
       -0.052587226 -0.04405428 0.05725836 0.059719633
0003f0 9b 4c 4f bd de 8a 76 3d dd f2 70 3d ab 70 57 bd
       -0.050610166 0.060191028 0.058825362 -0.052597683

layers.1.egnn.edge_mlp.3.bias f4 [16]
000000 91 fe c3 bd 89 87 2f 3e 31 6d 19 3e 93 8f 1d be
       -0.09570039 0.17141546 0.1498306 -0.153868
000010 1a f4 e0 3d 16 4d 81 3e b0 25 39 be 07 7e 68 be
       0.10984059 0.25254124 -0.18080783 -0.22704326
000020 f5 6c 2a be 04 7e 79 3e d0 de 95 3d f2 0f f3 bd
       -0.16643126 0.24364477 0.07317889 -0.11868276
000030 3d 0f b1 bd 56 64 4a 3e 85 64 5f be 17 97 66 be
       -0.086454846 0.19764838 -0.21815689 -0.22518574
