experiments/models/model_N12_batch32_lr0.001_fd4_b0.5.pth (torch, 30882 bytes, 32 tensors)

time_embedding.0.weight f4 [8, 1]
-0.9590524 -0.29297274 0.64342844 -0.7690878 0.77089506 0.68452096 0.17067967 0.6277978
00000000: 7584 75bf 8600 96be bab7 243f f0e2 44bf
00000010: 6159 453f c43c 2f3f a7c6 2e3e 5bb7 203f

time_embedding.0.bias f4 [8]
0.7616651 0.35515264 0.1103879 -0.19775116 -0.718519 0.35985634 0.43355614 -0.18980944
00000000: 7cfc 423f 91d6 b53e 0d13 e23d 487f 4abe
00000010: dcf0 37bf 173f b83e 12fb dd3e 685d 42be

time_embedding.3.weight f4 [4, 8]
0.2984934 -0.154268 0.22052367 -0.02913721 -0.17332986 -0.08860085 0.3515725 0.028116962
-0.032103747 -0.09603441 -0.18408658 -0.21870285 -0.0035888928 0.0798066 0.20171797 0.2342395
0.28780228 -0.2127068 -0.16612467 0.14470822 -0.27082664 -0.060380254 0.1560913 0.20762302
-0.02467673 0.13278611 0.28961504 0.13671426 0.097119816 -0.05291875 -0.14787017 -0.27628034
00000000: 20d4 983e 6ef8 1dbe f5d0 613e 29b1 eebc
00000010: 627d 31be 5d74 b5bd 5001 b43e 8b55 e63c
00000020: 387f 03bd b0ad c4bd 3181 3cbe a4f3 5fbe
00000030: a133 6bbb a571 a33d 288f 4e3e 7bdc 6f3e
00000040: d25a 933e d0cf 59be 961c 2abe 642e 143e
00000050: caa9 8abe 4951 77bd 66d6 1f3e 219b 543e
00000060: db26 cabc 15f9 073e 6c48 943e d3fe 0b3e
00000070: c1e6 c63d 55c1 58bd 476b 17be 9e74 8dbe

time_embedding.3.bias f4 [4]
-0.058980443 -0.42316267 -0.16911301 -0.2285883
00000000: 7a95 71bd c7a8 d8be f62b 2dbe 0d13 6abe

layers.0.egnn.edge_mlp.0.weight f4 [20, 10]
-0.08456617 0.12039875 0.09600786 0.13422601 -0.082607865 0.11765778 0.09196252 0.1333514
-0.07007004 -0.10526976 0.04293815 -0.11843806 -0.0665557 -0.14118128 0.040022545 -0.11513426
-0.064544536 -0.13653298 0.00064001844 0.09352175 -0.09337511 0.121480756 0.10253689 0.13846108
-0.09588662 0.118940555 0.09770742 0.13421443 -0.0733533 -0.1070072 -0.052790727 -0.05071775
0.0061874283 -0.06450151 -0.0558166 -0.042851966 0.0026596375 -0.06221084 -0.024704253 0.032209676
-0.02305471 -0.06294335 -0.012094723 -0.07833724 -0.027852528 -0.05793088 -0.01112304 -0.07835256
-0.021723948 0.04603818 -0.08527662 0.119659506 0.09494977 0.13451318 -0.087592706 0.11586485
0.09189293 0.13065685 -0.06754385 -0.10366551 0.009127376 -0.086900294 -0.037346553 -0.10834555
0.0035506133 -0.08331164 -0.035566878 -0.103852816 -0.016797671 0.0666201 0.019633366 -0.097625256
-0.045800168 -0.11916646 0.014747102 -0.09242763 -0.043381542 -0.113841064 -0.012727128 0.074945636
0.038091026 -0.11621011 -0.06496325 -0.13755237 0.034871936 -0.110073805 -0.05946615 -0.13278627
-0.0036176522 0.09112524 0.04585676 -0.12249481 -0.07103083 -0.14466402 0.043154508 -0.11751553
-0.06570031 -0.13851416 0.0015738804 0.09500294 0.049866464 -0.122204356 -0.071823284 -0.1481683
0.046292856 -0.11666536 -0.06731993 -0.1428249 0.003952535 0.09909266 -0.16016223 0.12666552
0.13456233 0.1372243 -0.15920877 0.12351613 0.12261802 0.13556227 -0.111250065 -0.11386747
-0.053262588 -0.004668758 0.018961404 -0.004371588 -0.051743418 -0.0024097734 0.015757479 -0.006610913
-0.007853847 -0.0017102425 -0.0660343 0.11626249 0.08486734 0.13241084 -0.064522415 0.110480994
0.08397687 0.12899078 -0.05499519 -0.09982471 -0.0032361846 0.092011735 0.045801997 0.108781874
-0.00473071 0.085789144 0.04700504 0.10422535 -0.018638141 -0.07342008 0.04400605 -0.12089336
-0.070595704 -0.14174487 0.039751343 -0.113301195 -0.06523215 -0.1366271 -0.0013880624 0.094497696
0.09210061 0.0457545 -0.018618137 0.058963194 0.090969555 0.041174386 -0.009793694 0.057560958
0.022651969 -0.029992409 -0.14627229 0.12496936 0.12978202 0.1381013 -0.14712591 0.123340316
0.119654894 0.1357792 -0.10271646 -0.113517895 0.007761602 -0.087959096 -0.037240837 -0.108810365
0.004220852 -0.082132734 -0.033267774 -0.10203854 -0.01757114 0.064750075 -0.10869448 0.12479084
0.109545454 0.14081097 -0.11112834 0.12238327 0.1052465 0.135832 -0.08092538 -0.10997839
00000000: 0731 adbd 9f93 f63d c59f c43d 8b72 093e
00000010: 502e a9bd 90f6 f03d d856 bc3d 458d 083e
00000020: e280 8fbd ac97 d7bd eadf 2f3d a78f f2bd
00000030: 5b4e 88bd d391 10be aeee 233d 83cb ebbd
00000040: ed2f 84bd 4dcf 0bbe e9c6 273a 5588 bf3d
00000050: 733b bfbd e7ca f83d dcfe d13d bec8 0d3e
00000060: 3460 c4bd 1b97 f33d d41a c83d 826f 093e
00000070: 413a 96bd 9726 dbbd 173b 58bd 6abd 4fbd
00000080: e9bf ca3b 5e19 84bd f29f 64bd 8b85 2fbd
00000090: 504d 2e3b cbd0 7ebd 9360 cabc 4bee 033d
000000a0: 3bdd bcbc 71e8 80bd f228 46bc 466f a0bd
000000b0: fc2a e4bc ee48 6dbd 693d 36bc 4f77 a0bd
000000c0: 6cf6 b1bc 8892 3c3d 82a5 aebd 0b10 f53d
000000d0: 0675 c23d d3bd 093e ce63 b3bd 8d4a ed3d
000000e0: 5c32 bc3d e9ca 053e 6e54 8abd 954e d4bd
000000f0: fd8a 153c c8f8 b1bd b3f8 18bd 46e4 ddbd
00000100: 68b1 683b 4b9f aabd 93ae 11bd c9b0 d4bd
00000110: 459b 89bc 1e70 883d 27d6 a03c c0ef c7bd
00000120: f598 3bbd 8c0d f4bd d49d 713c b34a bdbd
00000130: d8b0 31bd 8125 e9bd 7285 50bc 197d 993d
00000140: 5605 1c3d 91ff edbd 740b 85bd 87da 0cbe
00000150: e0d5 0e3d 606e e1bd c792 73bd 20f9 07be
00000160: 2216 6dbb df9f ba3d 4cd4 3b3d 8fde fabd
00000170: 9d78 91bd ce22 14be c8c2 303d fbab f0bd
00000180: e28d 86bd a8d6 0dbe aa4a ce3a e790 c23d
00000190: c740 4c3d 4746 fabd 1618 93bd 6eb9 17be
000001a0: 949d 3d3d 40ee eebd 08df 89bd b140 12be
000001b0: 4484 813b 18f1 ca3d 9101 24be 9bb4 013e
000001c0: b5ca 093e 8784 0c3e a007 23be 06f6 fc3d
000001d0: 281f fb3d d6d0 0a3e 13d7 e3bd 5933 e9bd
000001e0: df29 5abd 61fc 98bb f254 9b3c 8a3f 8fbb
000001f0: e8f0 53bd 4aed 1dbb d415 813c 5ca0 d8bb
00000200: 6cad 00bc 372a e0ba fe3c 87bd 071b ee3d
00000210: eece ad3d b596 073e 5424 84bd dc43 e23d
00000220: 11fc ab3d 2916 043e a342 61bd e670 ccbd
00000230: 2b16 54bb a670 bc3d e09a 3b3d 08c9 de3d
00000240: 1204 9bbb 38b2 af3d 5b88 403d 1a74 d53d
00000250: 04af 98bc 445d 96bd b03f 343d f096 f7bd
00000260: 7b94 90bd 9125 11be 4ed2 223d 750a e8bd
00000270: 6f98 85bd f9e7 0bbe a5ef b5ba 0288 c13d
00000280: 3f9f bc3d 1269 3b3d 1085 98bc 6483 713d
00000290: 3f4e ba3d 79a6 283d bb75 20bc 0ac5 6b3d
000002a0: 9f90 b93c a4b2 f5bc 67c8 15be f0ef ff3d
000002b0: 94e5 043e 6d6a 0d3e 2da8 16be d999 fc3d
000002c0: a00d f53d b409 0b3e 025d d2bd 127c e8bd
000002d0: 0955 fe3b e623 b4bd d989 18bd f8d7 debd
000002e0: 134f 8a3b 3535 a8bd ca43 08bd 95f9 d0bd
000002f0: 5af1 8fbc b09b 843d 369b debd 5792 ff3d
00000300: 5e59 e03d c030 103e 4197 e3bd 14a4 fa3d
00000310: 7a8b d73d 8b17 0b3e 35bc a5bd 5a3c e1bd

layers.0.egnn.edge_mlp.0.bias f4 [20]
-0.21417737 0.31587544 -0.26775107 0.1320759 0.13673401 -0.25758493 0.19759354 0.2267273
0.31334457 0.33117607 0.35439175 -0.4075486 0.05268325 -0.2041037 -0.16361162 0.31793514
-0.101390295 -0.3785938 0.20543987 -0.28815815
00000000: 5051 5bbe 6dba a13e ab16 89be e83e 073e
00000010: 0004 0c3e 2ce2 83be f655 4a3e 342b 683e
00000020: b36e a03e e98f a93e d672 b53e 36aa d0be
00000030: 64ca 573d 8f00 51be ce89 27be 65c8 a23e
00000040: b7a5 cfbd 0cd7 c1be d45e 523e 7789 93be

layers.0.egnn.edge_mlp.3.weight f4 [16, 20]
-0.0604201 0.04552925 -0.061286733 0.018774435 0.023700856 -0.06103482 0.037303407 0.04190446
0.046352327 0.0492627 0.04852769 -0.06670631 0.0006909388 -0.055423766 -0.040476333 0.050057814
-0.015279859 -0.06688063 0.0366836 -0.0643639 -0.06379664 0.05261872 -0.06734714 0.022089846
0.0269062 -0.06469817 0.0417512 0.046013065 0.051181402 0.05356682 0.05259372 -0.07145064
0.0013771278 -0.061261043 -0.046347167 0.05430112 -0.018217547 -0.073207684 0.040528893 -0.068829596
0.0747422 -0.07204269 0.075052135 -0.034316365 -0.043332808 0.07253732 -0.061956696 -0.0661221
-0.07076601 -0.073277555 -0.07146086 0.07562759 -0.0039095534 0.07167251 0.057786662 -0.075182706
0.026535397 0.074008375 -0.061298873 0.0767004 -0.021439776 0.011046768 -0.022289488 0.0019474793
0.003707607 -0.022250867 0.0071045943 0.007197379 0.0113176 0.011908107 0.012160168 -0.02731507
0.00034010393 -0.018462997 -0.011583462 0.0115649775 -0.0024825868 -0.024994433 0.0069587063 -0.025227068
-0.033182416 0.024060668 -0.033880495 0.008589488 0.008768414 -0.032903638 0.016947119 0.016141446
0.021286974 0.024303807 0.023502044 -0.041227356 0.0019930261 -0.03370993 -0.021339774 0.022302788
-0.006060392 -0.041610323 0.016146328 -0.036485225 0.06824803 -0.06309846 0.069326095 -0.028892735
-0.036480043 0.06551446 -0.05092016 -0.05600353 -0.061931405 -0.06556987 -0.06371335 0.06852585
-0.004269551 0.06692845 0.052295838 -0.0628061 0.023209013 0.06770173 -0.052274313 0.0671532
-0.034250353 0.023718307 -0.03761551 0.0054698004 0.008366081 -0.034699965 0.01581522 0.01851603
0.022712935 0.023642786 0.023729177 -0.0412972 0.00040599113 -0.032756172 -0.020804023 0.02325768
-0.0051687225 -0.04059526 0.0144700585 -0.038389947 0.005240716 -0.0026769068 0.0068535353 -0.002494355
-0.0032808762 0.004927289 -0.002293777 -0.00069556944 -0.0028872562 -0.0019471144 -0.0031980881 0.008640978
-0.004604542 0.0057647726 0.0026355428 -0.0041717854 0.0050535053 0.0059813466 -0.001996587 0.0056899427
0.07479949 -0.07304863 0.07424743 -0.03496374 -0.043899782 0.0726026 -0.060383838 -0.065125205
-0.07171264 -0.07258456 -0.072489 0.07343454 6.321325e-05 0.07316359 0.06054514 -0.07364926
0.025836136 0.07624906 -0.06041028 0.0754259 0.073888116 -0.07258639 0.075243935 -0.032025173
-0.042323787 0.072928466 -0.058562778 -0.06459636 -0.0709829 -0.07345441 -0.071989596 0.072445996
-0.00044544038 0.06973666 0.05722399 -0.071413144 0.023625879 0.0751887 -0.059878495 0.074664205
0.0739788 -0.07121758 0.073191024 -0.03396766 -0.044278026 0.0722472 -0.059964348 -0.064968124
-0.07119383 -0.07423576 -0.07375661 0.07305249 -0.0010931796 0.06875514 0.058745936 -0.074178495
0.022893056 0.075180374 -0.058488753 0.076325595 0.07409284 -0.07111416 0.0734136 -0.033475056
-0.0423408 0.07248796 -0.059176434 -0.06387963 -0.07074553 -0.073419616 -0.07244444 0.07205947
-0.0019587378 0.071684815 0.05576339 -0.07194766 0.022665305 0.07512759 -0.058816686 0.07586979
-0.06461136 0.051107723 -0.06630941 0.023343248 0.029152282 -0.06321397 0.04142093 0.04512684
0.05191707 0.05540003 0.054117367 -0.07240339 0.0044717547 -0.062881514 -0.044763133 0.05328025
00000000: 117b 77bd e17c 3a3d cc07 7bbd d8cc 993c
00000010: 4c28 c23c a6ff 79bd 75cb 183d 03a4 2b3d
00000020: f0db 3d3d afc7 493d f9c4 463d 519d 88bd
00000030: 1e20 353a 0804 63bd 83ca 25bd 6c09 4d3d
00000040: 6058 7abc b6f8 88bd 8b41 163d 38d1 83bd
00000050: d0a7 82bd ba86 573d 4ced 89bd c4f5 b43c
00000060: 646a dc3c 7980 84bd 4e03 2b3d 3278 3c3d
00000070: 97a3 513d e268 5b3d 836c 573d b754 92bd
00000080: be80 b43a dcec 7abd 87d6 3dbd da6a 5e3d
00000090: f73c 95bc e9ed 95bd a001 263d 88f6 8cbd
000000a0: 7012 993d 1e8b 93bd efb4 993d 518f 0cbd
000000b0: be7d 31bd 728e 943d 4ec6 7dbd 066b 87bd
000000c0: c5ed 90bd 8b12 96bd 125a 92bd a3e2 9a3d
000000d0: b61b 80bb 09c9 923d b5b1 6c3d 64f9 99bd
000000e0: c360 d93c b491 973d 8714 7bbd 1915 9d3d
000000f0: 78a2 afbc 81fd 343c 7298 b6bc 9042 ff3a
00000100: 53fb 723b 7347 b6bc a8cd e83b fed7 eb3b
00000110: 746d 393c 391a 433c 713b 473c dbc3 dfbc
00000120: fa4f b239 b63f 97bc 90c8 3dbc 087b 3d3c
00000130: e5b2 22bb 20c1 ccbc dc05 e43b ffa8 cebc
00000140: 49ea 07bd e11a c53c 46c6 0abd edba 0c3c
00000150: 65a9 0f3c f7c5 06bd afd4 8a3c 113b 843c
00000160: 0562 ae3c c718 c73c 5c87 c03c 04de 28bd
00000170: 6e9d 023b 6c13 0abd c0d0 aebc 56b4 b63c
00000180: 4196 c6bb 966f 2abd 4e45 843c 8871 15bd
00000190: a0c5 8b3d c439 81bd d7fa 8d3d 75b0 ecbc
000001a0: 196c 15bd 722c 863d a891 50bd f563 65bd
000001b0: c9ab 7dbd 7f49 86bd 257c 82bd 4857 8c3d
000001c0: 97e7 8bbb c811 893d 2934 563d 7ca0 80bd
000001d0: d420 be3c 34a7 8a3d 971d 56bd 9e87 893d
000001e0: 194a 0cbd e54c c23c b912 1abd 033c b33b
000001f0: e311 093c 8d21 0ebd ec8e 813c eeae 973c
00000200: 7a10 ba3c 84ae c13c b163 c23c 4127 29bd
00000210: 35db d439 562b 06bd 336d aabc e486 be3c
00000220: 635e a9bb 3747 26bd d313 6d3c c73e 1dbd
00000230: 50ba ab3b 0b6f 2fbb 9f93 e03b 5578 23bb
00000240: f803 57bb 1975 a13b 3153 16bb e056 36ba
00000250: 1f38 3dbb 5136 ffba 0497 51bb e392 0d3c
00000260: b3e1 96bb 6be6 bc3b 12b9 2c3b 79b3 88bb
00000270: e097 a53b 2cff c33b 2cd9 02bb b372 ba3b
00000280: 7a30 993d 859a 95bd 090f 983d 2336 0fbd
00000290: 42d0 33bd acb0 943d 0b55 77bd 5d60 85bd
000002a0: 14de 92bd 37a7 94bd 1d75 94bd d964 963d
000002b0: 5b91 8438 cbd6 953d 2efe 773d 6cd5 96bd
000002c0: 4ea6 d33c 7828 9c3d c570 77bd e578 9a3d
000002d0: a752 973d 2ca8 94bd 7e19 9a3d d42c 03bd
000002e0: b55b 2dbd 855b 953d 86df 6fbd 194b 84bd
000002f0: 7c5f 91bd 446f 96bd 486f 93bd 915e 943d
00000300: ff89 e9b9 18d2 8e3d b463 6a3d 0e41 92bd
00000310: 0f8b c13c 88fc 993d 2743 75bd 8ce9 983d
00000320: 3282 973d 86da 91bd 2de5 953d ac21 0bbd
00000330: e05c 35bd 57f6 933d 2d9d 75bd 020e 85bd
00000340: 12ce 91bd eb08 98bd b50d 97bd 8b9c 953d
00000350: 0549 8fba 7fcf 8c3d 949f 703d e5ea 97bd
00000360: 388a bb3c 2bf8 993d e791 6fbd 9850 9c3d
00000370: fdbd 973d 4da4 91bd df59 963d 241d 09bd
00000380: 8c6d 2dbd 9174 943d fd62 72bd 53d3 82bd
00000390: 08e3 90bd 065d 96bd c05d 94bd ea93 933d
000003a0: 2b5e 00bb 7dcf 923d 2768 643d 4b59 93bd
000003b0: 97ac b93c 7edc 993d c4e9 70bd 9f61 9b3d
000003c0: f652 84bd 5556 513d 3acd 87bd 573a bf3c
000003d0: c4d0 ee3c 5376 81bd fea8 293d ecd6 383d
000003e0: fea6 543d 24eb 623d 2caa 5d3d 3b48 94bd
000003f0: cc87 923b 06c8 80bd 8c59 37bd 643c 5a3d

layers.0.egnn.edge_mlp.3.bias f4 [16]
0.16083688 0.23031461 -0.19765611 0.034714527 0.054757603 -0.098450035 0.0614532 8.7688546e-05
-0.17662857 -0.20382625 -0.22582756 -0.19640192 0.2209844 -0.06389703 -0.25680435 0.06130701
00000000: 6cb2 243e 98d7 6b3e 5d66 4abe d230 0e3d
00000010: 8249 603d 2ca0 c9bd 5ab6 7b3d 6ee5 b738
00000020: 1fde 34be d4b7 50be 573f 67be 961d 49be
00000030: bc49 623e 72dc 82bd dc7b 83be 0f1d 7b3d

layers.0.egnn.node_mlp.0.weight f4 [8, 20]
-0.00060863927 -1.8258363e-05 0.00013269487 -0.0011399259 -0.0014873982 -0.0005571817 -0.0011493057 -0.002029454
-0.00053233874 -0.00055471953 0.00012122393 -0.00095937465 0.001557778 0.0010183793 -0.0005862189 -0.0006757265
-0.00029003006 0.00035999232 -0.0014297753 0.00050946075 0.0012885298 0.0001062563 -3.279362e-05 0.0008431263
0.00032304745 -7.8609424e-05 0.00097204547 -0.0008767665 -0.0008008796 0.00066261075 -0.0005061558 0.00010137941
-0.0011170653 0.000921066 0.00016350074 -0.000880109 -0.0020930178 3.948843e-05 0.0007342265 0.000272927
0.00014183497 0.0011845272 -0.00041756936 7.183422e-05 0.00061405555 0.001937318 0.001174364 -0.00052051805
0.00027256313 -0.000980607 0.0010187029 -0.0013190255 -0.0003254201 0.0012951745 0.001478459 -0.00065248995
0.00027750139 -0.0006559284 0.0005829737 0.00073875615 -9.86934e-05 0.0014479562 0.0008384006 0.00010687225
-0.00023702647 -0.00041186923 -6.6779407e-06 -0.00057314493 0.00059968367 -0.0017386293 7.171493e-05 -0.00039888525
-0.00090320595 2.1347917e-06 -0.001457749 0.0016639992 -0.0003747494 0.0002924374 -0.00124484 -0.00094330544
0.0016915638 -0.00097538484 -0.00039166113 9.8622724e-05 0.0005254684 0.00018433017 0.0020008015 0.00073569006
-0.00078085077 0.00031697063 0.00031522685 -0.00061888713 0.0015337437 0.0010623189 -0.0013052109 0.0004677747
0.00067678635 -0.0001160203 -0.000508098 -4.75191e-05 0.00024438737 -0.0008839031 0.0018850833 -0.00079152174
0.00058725494 -0.0004908782 0.0013326633 0.00024800134 9.14022e-05 -0.0012322993 -0.0007120136 -0.0007318861
0.0005140879 -0.0007462687 0.00071985216 2.377882e-05 0.00078911934 -0.0009935354 -0.0007073983 -0.0008284271
-0.0004003388 -0.0007062273 -0.0005685173 -0.0015086879 0.0008551446 -0.0006463519 -0.00069582555 0.00028601248
-0.001214319 -0.0018233408 -0.0014866849 -0.0021875252 -0.00045551013 -4.9778486e-05 0.0011598994 -0.00065666053
0.00041514222 0.0003696438 -0.0017491915 0.0015658275 -6.2556785e-05 0.00065417885 0.0006019654 -0.00047669682
0.0007875742 -0.0008926169 -0.00080227235 -3.5866153e-05 -0.0013818414 4.33053e-05 2.7234377e-05 -0.0003228943
-0.0016232256 -0.0015559804 -0.001439341 -0.00066004565 -0.00036913325 0.0004209641 -9.607128e-05 0.00086917676
00000000: 178d 1fba 8929 99b7 0224 0b39 9169 95ba
00000010: cdf4 c2ba d50f 12ba 4da4 96ba 9700 05bb
00000020: a68c 0bba 996a 11ba 9a39 fe38 8b7e 7bba
00000030: 5b2e cc3a 247b 853a 7cac 19ba 3d23 31ba
00000040: 2d0f 98b9 5abd bc39 4c67 bbba 558d 053a
00000050: e3e3 a83a ebd5 de38 e28b 09b8 4005 5d3a
00000060: b25e a939 1ddb a4b8 ded0 7e3a ced6 65ba
00000070: 1ff2 51ba 0eb3 2d3a 8aaf 04ba a89b d438
00000080: 7e6a 92ba b173 713a 6571 2b39 1db7 66ba
00000090: 032b 09bb 61a0 2538 1b79 403a a417 8f39
000000a0: 89b9 1439 2342 9b3a 36ed dab9 b4a5 9638
000000b0: 92f8 203a 9bed fd3a 1eed 993a 6073 08ba
000000c0: cee6 8e39 b687 80ba ff85 853a 27e3 acba
000000d0: 259d aab9 d8c2 a93a dac8 c13a dc0b 2bba
000000e0: 9b7d 9139 9cf2 2bba b4d2 183a 16a9 413a
000000f0: 9ef9 ceb8 59c9 bd3a 1dc8 5b3a 9a20 e038
00000100: 4f8a 78b9 27f0 d7b9 1313 e0b6 1b3f 16ba
00000110: 1734 1d3a b8e2 e3ba a965 9638 7921 d1b9
00000120: 20c5 6cba 7143 0f36 f111 bfba 8c1a da3a
00000130: 037a c4b9 4952 9939 e629 a3ba 2848 77ba
00000140: 76b7 dd3a f8b0 7fba de57 cdb9 acd3 ce38
00000150: 96bf 093a c148 4139 e11f 033b 53db 403a
00000160: 02b2 4cba 142f a639 0845 a539 d03c 22ba
00000170: e607 c93a 823d 8b3a 9c13 abba a83f f539
00000180: 5d6a 313a ed4f f3b8 e131 05ba 3f4f 47b8
00000190: 1e21 8039 bcb5 67ba e614 f73a 207e 4fba
000001a0: 03f2 193a 47ae 00ba c3ac ae3a 2d06 8239
000001b0: 2faf bf38 1a85 a1ba 6da6 3aba 0bdc 3fba
000001c0: dbc3 063a 3fa1 43ba 76b4 3c3a a178 c737
000001d0: e7dc 4e3a 8439 82ba b270 39ba cd2a 59ba
000001e0: 90e4 d1b9 1d22 39ba 8d08 15ba 2abf c5ba
000001f0: c82b 603a f16f 29ba 1068 36ba f2f3 9539
00000200: c929 9fba 2afd eeba dedc c2ba 955c 0fbb
00000210: 89d1 eeb9 3ec9 50b8 c407 983a be23 2cba
00000220: 72a7 d939 c0cc c139 2145 e5ba 743c cd3a
00000230: eb30 83b8 337d 2b3a 37cd 1d3a 2aed f9b9
00000240: 3675 4e3a 82fe 69ba 964f 52ba fd6e 16b8
00000250: e71e b5ba b6a2 3538 6175 e437 244a a9b9
00000260: 6ac2 d4ba 0af2 cbba 45a8 bcba ea06 2dba
00000270: 3a88 c1b9 d8b4 dc39 e079 c9b8 77d9 633a

layers.0.egnn.node_mlp.0.bias f4 [8]
0.07405945 -0.17359856 0.14158444 -0.031421356 0.062442575 0.1896475 -0.118110314 0.048354875
00000000: 7bac 973d d2c3 31be 83fb 103e aeb3 00bd
00000010: c9c3 7f3d f432 423e d2e3 f1bd c30f 463d

layers.0.egnn.node_mlp.3.weight f4 [4, 8]
-0.00028450915 1.40429665e-05 0.0014094845 -0.00068681367 -0.0012892886 0.00055501715 0.0016108613 -0.0002771126
0.0007040576 -0.0011804551 -0.00038679 -0.00067352114 0.0009346622 -0.0006145966 0.00023769107 -0.0017789078
0.0011333188 1.5744721e-05 0.00236152 -0.002164815 0.0007406521 0.000118229764 6.0713843e-05 3.2129457e-05
-0.00056230434 -0.0022975781 0.00040663112 -0.0012061268 0.0008499315 0.001529269 0.00043107482 8.827194e-05
00000000: 2c2a 95b9 159a 6b37 74be b83a 490b 34ba
00000010: 59fd a8ba 927e 113a 8923 d33a 6c49 91b9
00000020: 8190 383a 80b9 9aba 13ca cab9 3d8f 30ba
00000030: 1e04 753a e11c 21ba b63c 7939 3e2a e9ba
00000040: de8b 943a 8813 8437 bbc3 1a3b 92df 0dbb
00000050: 5228 423a 1ff2 f738 fea6 7e38 bec2 0638
00000060: 9b67 13ba f792 16bb 1b31 d539 e616 9eba
00000070: f0cd 5e3a c171 c83a e201 e239 a31e b938

layers.0.egnn.node_mlp.3.bias f4 [4]
-0.1883573 0.32233223 0.11947426 0.32968035
00000000: bce0 40be bb08 a53e ecae f43d ddcb a83e

layers.0.egnn.coors_mlp.0.weight f4 [64, 16]
0.017431244 0.017606694 -0.01996824 0.0056313295 0.011425125 -0.019197429 0.010433116 0.00084473053
-0.019821754 -0.019752659 -0.019347552 -0.02233999 0.016665515 -0.01656164 -0.019904396 0.011295392
0.043179277 0.040259264 -0.04291876 0.01629486 0.024686005 -0.04451998 0.028419817 0.00039885513
-0.044883143 -0.043225087 -0.0421322 -0.043143835 0.039442554 -0.03636664 -0.039752297 0.028529162
-0.044183098 -0.044954013 0.045666877 -0.021146147 -0.031978413 0.04638363 -0.03331395 0.007236657
0.046668835 0.046186544 0.045510042 0.046399977 -0.045029107 0.04072443 0.044605818 -0.032718882
0.016824566 0.01737529 -0.021592317 0.004177467 0.011234191 -0.021929089 0.010330682 -8.840574e-05
-0.019796006 -0.018552601 -0.019752413 -0.018912127 0.018203417 -0.017392458 -0.018971954 0.009996075
0.03192112 0.031370778 -0.0341996 0.008722974 0.018349256 -0.034571875 0.02004118 -0.0017916377
-0.033305068 -0.034271505 -0.034453537 -0.03434957 0.030457877 -0.027329855 -0.030669428 0.01962561
0.04131762 0.0413513 -0.046383746 0.015112984 0.028742518 -0.04605859 0.029152047 -0.0042242943
-0.046786003 -0.046690445 -0.046283714 -0.047029294 0.041046888 -0.037971612 -0.044900503 0.029234108
0.039513897 0.041031837 -0.043652132 0.016708782 0.024872044 -0.04296548 0.02621559 -0.0045351298
-0.044969015 -0.043148216 -0.04164665 -0.045219224 0.038722817 -0.03632378 -0.041467614 0.02723151
0.039207537 0.039889198 -0.044735517 0.0159961 0.0261658 -0.044890553 0.026578741 -0.0032837456
-0.043521177 -0.04444372 -0.04482465 -0.044897743 0.041154414 -0.037520368 -0.044730984 0.02808313
0.04156217 0.045062587 -0.04808622 0.017036911 0.028000103 -0.047656946 0.031051103 -0.004016236
-0.048105344 -0.047776077 -0.04784572 -0.046560306 0.043551177 -0.038897328 -0.04700002 0.030190956
0.03449983 0.03766403 -0.03896047 0.016539905 0.024442475 -0.041028667 0.025639826 -0.00042057288
-0.040297613 -0.03922423 -0.039535407 -0.03970715 0.03624918 -0.033800952 -0.03942555 0.028269177
-0.040277265 -0.04172816 0.040974878 -0.021659452 -0.029193088 0.045568835 -0.031743586 0.0016499147
0.043389015 0.04224789 0.041984092 0.042161327 -0.039971095 0.037066158 0.04386505 -0.031738613
0.022029215 0.022327775 -0.026085332 0.012843483 0.016368631 -0.026761478 0.017703356 0.0005588345
-0.025279451 -0.02325681 -0.023899306 -0.025378393 0.024249658 -0.02098118 -0.023208138 0.016852077
0.033875637 0.036001798 -0.0388987 0.015168753 0.023577157 -0.04028987 0.025893748 -0.00018933584
-0.040148433 -0.03697595 -0.036732987 -0.038653117 0.03562957 -0.03275758 -0.03787415 0.023369683
-0.04152937 -0.04006079 0.04567782 -0.019168748 -0.029603306 0.044371422 -0.029833332 0.0062320065
0.04429403 0.043018926 0.04069617 0.04476062 -0.040134344 0.038307477 0.040868606 -0.032998253
-0.044689883 -0.04230816 0.045324244 -0.021446658 -0.033107925 0.04706861 -0.03354689 0.0063475934
0.04476325 0.047359668 0.043616172 0.04672525 -0.043061674 0.039641984 0.043252084 -0.03362334
0.046247695 0.0458841 -0.053056672 0.017470168 0.028748399 -0.050531004 0.03118469 -0.0049397047
-0.05409179 -0.052363127 -0.051185984 -0.0507073 0.045056533 -0.039784867 -0.049901914 0.030304149
00000000: f8cb 8e3c ea3b 903c 6f94 a3bc 0487 b83b
00000010: 7330 3b3c ed43 9dbc a9ef 2a3c e870 5d3a
00000020: 3b61 a2bc 54d0 a1bc c27e 9ebc 5b02 b7bc
00000030: 1e86 883c 47ac 87bc 8b0e a3bc 4f10 393c
00000040: c1dc 303d e6e6 243d 95cb 2fbd cc7c 853c
00000050: 4e3a ca3c 955a 36bd add0 e83c 6e1d d139
00000060: 63d7 37bd ca0c 31bd d092 2cbd 97b7 30bd
00000070: 848e 213d 30f5 14bd 4ed3 22bd fdb5 e93c
00000080: 56f9 34bd b321 38bd 310d 3b3d af3a adbc
00000090: ccfb 02bd c3fc 3d3d 3574 08bd 7b21 ed3b
000000a0: d227 3f3d 1a2e 3d3d bd68 3a3d e70d 3e3d
000000b0: 7170 38bd a9ce 263d 97b4 363d 3c04 06bd
000000c0: acd3 893c a056 8e3c 5fe2 b0bc 22e3 883b
000000d0: 9d0f 383c a2a4 b3bc 0542 293c 7866 b9b8
000000e0: 3c2b a2bc a0fb 97bc d0cf a1bc 9bed 9abc
000000f0: 551f 953c a17a 8ebc 126b 9bbc 94c6 233c
00000100: b8bf 023d a57e 003d e114 0cbd ceea 0e3c
00000110: 2e51 963c 3d9b 0dbd 672d a43c 63d5 eaba
00000120: e56a 08bd 4760 0cbd 271f 0dbd 22b2 0cbd
00000130: cc82 f93c dce2 dfbc 743e fbbc e3c5 a03c
00000140: aa3c 293d fb5f 293d e2fc 3dbd 739c 773c
00000150: 6e75 eb3c efa7 3cbd 46d0 ee3c f36b 8abb
00000160: aea2 3fbd 7b3e 3fbd fe93 3dbd caa1 40bd
00000170: c820 283d 1f88 1bbd 97e9 37bd 5e7c ef3c
00000180: 53d9 213d 0011 283d 94cc 32bd dbe0 883c
00000190: 75c0 cb3c 92fc 2fbd 14c2 d63c 6d9b 94bb
000001a0: 6e31 38bd 2fbc 30bd ad95 2abd cb37 39bd
000001b0: d19b 1e3d 3ec8 14bd f2d9 29bd 9e14 df3c
000001c0: 1598 203d db62 233d 973c 37bd 410a 833c
000001d0: a959 d63c 28df 37bd a9bb d93c 1c34 57bb
000001e0: 4343 32bd 9e0a 36bd 0d9a 37bd b2e6 37bd
000001f0: 8891 283d f5ae 19bd d637 37bd 980e e63c
00000200: 183d 2a3d 8c93 383d 0ef6 44bd fe90 8b3c
00000210: 7960 e53c ee33 43bd e25e fe3c a19a 83bb
00000220: 1c0a 45bd d9b0 43bd e0f9 43bd 05b6 3ebd
00000230: b862 323d ce52 1fbd 1883 40bd 0653 f73c
00000240: b24f 0d3d 9945 1a3d 0495 1fbd b27e 873c
00000250: 963b c83c ad0d 28bd 9d0a d23c 5680 dcb9
00000260: 1c0f 25bd 96a9 20bd e1ef 21bd f7a3 22bd
00000270: 057a 143d de72 0abd af7c 21bd c394 e73c
00000280: c6f9 24bd 26eb 2abd 46d5 273d 2a6f b1bc
00000290: 5826 efbc 63a6 3a3d 9005 02bd f341 d83a
000002a0: aeb8 313d 200c 2d3d 83f7 2b3d 5bb1 2c3d
000002b0: bbb8 23bd afd2 173d d7ab 333d 5900 02bd
000002c0: 9d76 b43c bde8 b63c e8b0 d5bc 796d 523c
000002d0: 8217 863c e33a dbbc a106 913c c07e 123a
000002e0: da16 cfbc 1185 bebc 7ac8 c3bc 59e6 cfbc
000002f0: 38a7 c63c b9e0 abbc fe1e bebc 5e0d 8a3c
00000300: 2ec1 0a3d 9f76 133d 3e54 1fbd 5d86 783c
00000310: e224 c13c fe06 25bd 201f d43c 7488 46b9
00000320: af72 24bd 1874 17bd 5475 16bd bb52 1ebd
00000330: 50f0 113d d02c 06bd ed21 1bbd c771 bf3c
00000340: b31a 2abd c816 24bd aa18 3b3d c707 9dbc
00000350: a282 f2bc cfbe 353d 0865 f4bc dc35 cc3b
00000360: a86d 353d 9d34 303d 07b1 263d e956 373d
00000370: e963 24bd 4de8 1c3d d765 273d 2d29 07bd
00000380: bd0c 37bd 524b 2dbd eaa5 393d e7b0 afbc
00000390: 2d9c 07bd 04cb 403d 7768 09bd 79ff cf3b
000003a0: ab59 373d 36fc 413d dfa6 323d fa62 3f3d
000003b0: 7061 30bd a25f 223d 1929 313d a1b8 09bd
000003c0: 396e 3d3d f7f0 3b3d f451 59bd 991d 8f3c
000003d0: c381 eb3c 99f9 4ebd 0977 ff3c 3fdd a1bb
000003e0: 5a8f 5dbd b87a 56bd 65a8 51bd 75b2 4fbd
000003f0: 338d 383d 75f5 22bd f365 4cbd 6840 f83c

layers.0.egnn.coors_mlp.0.bias f4 [64]
0.028325005 0.19246848 -0.21681511 0.031626355 0.062001176 0.20209062 0.24136044 0.2148588
0.21417929 0.27844715 -0.19253002 0.27131167 0.20541647 -0.11476327 -0.18601848 0.15165807
-0.06349389 -0.07132802 -0.2211763 -0.20783372 -0.0585507 -0.05163151 -0.09578745 -0.15173432
0.08951233 0.26345798 -0.16981006 0.06849758 -0.20344295 -0.049476814 -0.1635564 0.2514801
-0.14288972 -0.018714653 0.19699168 -0.10159071 -0.15110597 0.1884875 -0.03819316 -0.18951619
0.28384387 -0.28068098 -0.010156153 0.19555853 0.21638572 -0.2418944 -0.2378714 0.08350385
0.26672417 -0.14267647 0.15783651 -0.00461645 -0.2747643 -0.026736746 0.1372805 -0.21641703
-0.123966604 -0.25846544 -0.06922504 -0.008801336 -0.18353191 0.11161533 0.1181281 0.10618192
00000000: d709 e83c 7516 453e c804 5ebe a38a 013d
00000010: f2f4 7d3d d8f0 4e3e 3127 773e f203 5c3e
00000020: d151 5b3e a090 8e3e 9726 45be 5de9 8a3e
00000030: b258 523e 0109 ebbd a17b 3ebe 414c 1b3e
00000040: 1609 82bd 6d14 92bd 0a7c 62be 5dd2 54be
00000050: dcd2 6fbd 907b 53bd 362c c4bd 3e60 1bbe
00000060: 3e52 b73d f7e3 863e b0e2 2dbe 7648 8c3d
00000070: 5953 50be 33a8 4abd 547b 27be 00c2 803e
00000080: af51 12be 794f 99bc 30b8 493e ca0e d0bd
00000090: 86bb 1abe de02 413e 6e70 1cbd 8810 42be
000000a0: fc53 913e 6bb5 8fbe fe65 26bc 7f40 483e
000000b0: 3894 5d3e 2ab3 77be 8f94 73be 1104 ab3d
000000c0: 1290 883e c819 12be e59f 213e 9745 97bb
000000d0: e8ad 8cbe 0507 dbbc 4293 0c3e 6d9c 5dbe
000000e0: 34e2 fdbd 9555 84be dcc5 8dbd 7b33 10bc
000000f0: caef 3bbe 9496 e43d 25ed f13d e875 d93d

layers.0.egnn.coors_mlp.3.weight f4 [1, 64]
-0.01877067 -0.031619526 0.033426363 -0.019123094 -0.02994783 -0.033131044 -0.03211991 -0.03234915
-0.033465415 -0.030555476 0.03162312 -0.026582299 -0.030303465 0.03325635 0.033341203 -0.035547953
0.028995229 0.029018065 0.031203058 0.034080137 0.031352866 0.023261113 0.035484236 0.034044642
-0.036320318 -0.03305444 0.032497678 -0.027891796 0.033392116 0.029257784 0.031417646 -0.031160507
0.030117951 0.013862118 -0.031280275 0.02728789 0.03333788 -0.030432263 0.021215202 0.031169036
-0.031089196 0.029601539 0.013199292 -0.034331422 -0.030899424 0.02949987 0.02941787 -0.027224818
-0.0295619 0.03265567 -0.031966794 0.0035674868 0.03175105 0.018230537 -0.029102117 0.032528553
0.029518679 0.030855589 0.026741471 0.013836075 0.030637253 -0.034526683 -0.033489667 -0.03386752
00000000: f3c4 99bc 7a83 01bd 15ea 083d 09a8 9cbc
00000010: 2755 f5bc 6bb4 07bd 2b90 03bd 8b80 04bd
00000020: 0813 09bd 7a4f fabc 3f87 013d 1fc3 d9bc
00000030: f93e f8bc cf37 083d c990 083d bb9a 11bd
00000040: 6787 ed3c 4bb7 ed3c 8e9d ff3c 9d97 0b3d
00000050: dd6b 003d 178e be3c eb57 113d 6572 0b3d
00000060: 9dc4 14bd 1864 07bd 491c 053d 567d e4bc
00000070: 2cc6 083d 05ae ef3c caaf 003d 5244 ffbc
00000080: ecb9 f63c f01d 633c bf1f 00bd da8a df3c
00000090: 4d8d 083d 154d f9bc 81cb ad3c 3556 ff3c
000000a0: c5ae febc ed7e f23c d841 583c 1b9f 0cbd
000000b0: ca20 fdbc b6a9 f13c bffd f03c 9506 dfbc
000000c0: cc2b f2bc f4c1 053d 9def 02bd 7fcc 693b
000000d0: 640d 023d 3558 953c 9067 eebc a93c 053d
000000e0: 28d1 f13c dcc4 fc3c ee10 db3c b4b0 623c
000000f0: fafa fa3c da6b 0dbd 762c 09bd abb8 0abd

layers.0.egnn.vel_mlp.0.weight f4 [16, 4]
-0.00049416505 0.0005886454 -0.0041211294 0.004429896 -8.540737e-05 0.000112745605 0.0022603592 -0.0034531264
0.00024917748 -0.0006204292 0.0009800032 -0.0021479991 -7.026501e-05 0.001518797 -0.0013746324 0.0025023306
0.0006444631 0.00033978798 0.0024845412 -0.0016358251 -0.000410948 0.0008726427 -0.0012066356 0.00073952053
-0.0003364027 -0.00020890984 0.0011885411 -0.0016545946 0.00037420218 0.0009843897 0.004102543 -0.0007404077
-0.0004737844 -0.00066020456 -0.0013628628 0.0017692423 0.00021046514 -9.7177704e-05 -0.0020558145 0.0024229188
0.00062351476 0.0016084623 -0.0003937504 0.0031614425 0.00010010395 -0.00089615386 0.0007544655 -0.0021824273
0.0006100088 0.0002034994 -0.00015164685 0.0012672581 1.4704068e-05 -0.0042610145 -0.0049985303 0.0015179698
-0.0003954603 -0.0017775531 0.00015037086 -0.003088008 -0.0005925709 -0.00050949666 -0.0024621123 0.0018067707
00000000: db8a 01ba 534f 1a3a 8a0a 87bb a928 913b
00000010: bc1c b3b8 d671 ec38 8922 143b d94d 62bb
00000020: 09a4 8239 4ca4 22ba 7373 803a 72c5 0cbb
00000030: 3d5b 93b8 5f12 c73a 022d b4ba 24fe 233b
00000040: 30f1 283a 9225 b239 afd3 223b 2f69 d6ba
00000050: 8274 d7b9 0fc2 643a f927 9eba 62dc 413a
00000060: 355f b0b9 cf0e 5bb9 d2c8 9b3a fbde d8ba
00000070: 9130 c439 a306 813a a06e 863b eb17 42ba
00000080: 4466 f8b9 9411 2dba 16a2 b2ba ece5 e73a
00000090: 4eb0 5c39 e2cb cbb8 d8ba 06bb d5c9 1e3b
000000a0: 5e73 233a 0ad3 d23a 4970 ceb9 3430 4f3b
000000b0: e6ee d138 deeb 6aba 53c7 453a 0e07 0fbb
000000c0: ffe8 1f3a 7462 5539 6403 1fb9 201a a63a
000000d0: 7eb1 7637 fb9f 8bbb b6ca a3bb 9df6 c63a
000000e0: c855 cfb9 c9fc e8ba dfac 1d39 2d60 4abb
000000f0: c356 1bba be8f 05ba 645b 21bb 2ad1 ec3a

layers.0.egnn.vel_mlp.0.bias f4 [16]
0.4073704 -0.4370187 -0.088494636 0.4623896 -0.32395265 -0.37941918 0.04231111 -0.49385285
0.44850186 -0.35445917 -0.3497558 -0.26494023 -0.24399866 -0.45666602 -0.43597955 -0.42272526
00000000: da92 d03e eac0 dfbe ad3c b5bd 54be ec3e
00000010: 1fdd a5be 3b43 c2be 6a4e 2d3d 48da fcbe
00000020: 09a2 e53e ac7b b5be 3113 b3be 3fa6 87be
00000030: c9da 79be 21d0 e9be b638 dfbe 726f d8be

layers.0.egnn.vel_mlp.3.weight f4 [1, 16]
-0.0019689146 0.0006264791 0.0006249986 -0.0010608477 0.0012331402 -0.0006928686 0.0004724309 0.0009672662
-0.0008825832 -0.00065943314 -0.00021470629 0.0006534615 -3.9406164e-05 0.000956627 0.00019911598 -0.0012691121
00000000: e808 01bb 4d3a 243a f2d6 233a 240c 8bba
00000010: 52a1 a13a a0a1 35ba 9ab0 f739 2390 7d3a
00000020: 285d 67ba cfdd 2cba c822 61b9 0f4d 2b3a
00000030: 0c48 25b8 27c6 7a3a cac9 5039 5658 a6ba

layers.1.egnn.edge_mlp.0.weight f4 [20, 10]
-0.0051253326 -0.0023531404 -0.00015237823 -0.0015601845 0.013133815 -0.004824764 -0.006082085 -0.006462951
0.002283733 0.0034419573 0.0011675075 0.0051287264 0.0047238492 0.007252123 -0.015078874 0.008679012
0.009252772 0.008592197 -0.004359201 -0.007005578 -0.010989251 0.000768277 0.0042026863 0.0008232318
0.0120576015 -0.0024330902 -0.0021431318 -0.0007808545 -0.0011431911 0.0021355725 -0.0028893582 -0.0061567323
-0.0030910238 -0.004144044 0.016462594 -0.00890461 -0.008830783 -0.00659284 0.005358721 0.0055238074
-0.004747161 -0.0049738367 -0.004223125 -0.004462545 0.017274875 -0.008228856 -0.0075719184 -0.009283453
0.0068169404 0.0072271405 -0.006263409 -0.0031437988 0.0005143145 -0.001122582 0.013705732 -0.005378926
-0.0076819225 -0.0054519125 0.0042781676 0.0049562943 0.00081132806 -0.009193357 -0.005699188 -0.0091858795
0.023636345 -0.012269428 -0.014299669 -0.012062582 0.009532671 0.011080118 -0.0007506975 0.0057401657
0.0035452137 0.008359703 -0.014534193 0.009342181 0.009659876 0.009852502 -0.0075948113 -0.0075380746
-0.0019699465 -0.0083864005 -0.0049889623 -0.0085160695 0.019186294 -0.009740199 -0.0119506065 -0.0074769524
0.008706903 0.009360711 -0.01919079 0.006958162 0.009558781 0.0084279515 0.008225955 0.0025758804
0.0028087872 0.0021226865 -0.005372688 -0.004160016 -0.0071919174 -0.004309835 -0.0032480622 -0.0046271873
0.022978926 -0.009433552 -0.010771704 -0.00755761 0.0044410056 0.007463893 0.0013962117 0.0012984888
0.002795457 0.0044303495 -0.0067700655 0.0035009822 0.0057148277 0.004059249 -0.004187064 -0.005215873
-0.0058510676 -0.00499942 -0.0006374981 -0.00478592 0.018847756 -0.0068251314 -0.009532667 -0.0044121468
0.0050473777 0.004939657 -0.016518785 0.0026100555 0.0059382482 0.0029242476 0.010072926 -0.0014874047
-0.0026281588 -0.002501144 -0.0023011612 -0.00023297383 -0.0012403241 -0.006145587 -0.0035754186 -0.0075593977
0.020701902 -0.011805365 -0.012388162 -0.00890761 0.007527801 0.0072395355 -0.017443651 0.00247985
0.00842464 0.0031487278 0.009757151 0.0012860228 -0.00067202846 0.0021627718 -0.0024707746 -0.0015912686
0.005878216 -0.0003783604 -0.002620291 0.00034034165 -0.0045575723 -0.00032212358 0.00043613795 0.00093221327
-0.0006720782 -0.00022134974 -0.0028037399 0.00728272 0.00558071 0.008828893 -0.012331288 0.008899653
0.009976235 0.007359284 -0.008440448 -0.007902439 -0.0022591013 0.0050403494 0.003971507 0.007173736
-0.00917528 0.007280104 0.006889983 0.006507103 -0.0035144056 -0.0068103503 -0.012305968 0.00047668934
0.0036733835 0.0017878828 0.011835605 -0.0024718104 -0.0033330782 -8.262545e-05 -0.0008250829 0.00013264497
00000000: 68f2 a7bb 2537 1abb b8c7 1fb9 1b7f ccba
00000010: 362f 573c 0e19 9ebb 3a4c c7bb 2ac7 d3bb
00000020: afaa 153b 7692 613b 0d07 993a e00e a83b
00000030: 85ca 9a3b 38a3 ed3b 620d 77bc 6a32 0e3c
00000040: f098 173c 49c6 0c3c a1d7 8ebb 0c8f e5bb
00000050: 420c 34bc 3266 493a b0b6 893b 27ce 573a
00000060: 3f8d 453c 7b74 1fbb c973 0cbb 42b2 4cba
00000070: 21d7 95ba f6f4 0b3b 635b 3dbb 6abe c9bb
00000080: c692 4abb c3ca 87bb 90dc 863c a4e4 11bc
00000090: fdae 10bc c008 d8bb 3698 af3b 0e01 b53b
000000a0: 138e 9bbb 91fb a2bb 2462 8abb 8a3a 92bb
000000b0: 0a84 8d3c 53d2 06bc db1d f8bb a019 18bc
000000c0: a460 df3b a6d1 ec3b 483d cdbb 3108 4ebb
000000d0: 10d3 063a 9a23 93ba 028e 603c b441 b0bb
000000e0: a3b8 fbbb f5a5 b2bb df2f 8c3b 6968 a23b
000000f0: 4eaf 543a bc9f 16bc 41c0 babb 5f80 16bc
00000100: 02a1 c13c b605 49bc 2949 6abc 23a2 45bc
00000110: ec2e 1c3c 6289 353c 75ca 44ba 0018 bc3b
00000120: d156 683b 23f7 083c d320 6ebc f20f 193c
00000130: 7544 1e3c 636c 213c e5dd f8bb f401 f7bb
00000140: 381a 01bb 1d67 09bc 737a a3bb fc86 0bbc
00000150: 932c 9d3c 5b95 1fbc 7acc 43bc 3901 f5bb
00000160: 66a7 0e3c ab5d 193c 0136 9dbc 4b01 e43b
00000170: 6f9c 1c3c 6415 0a3c 28c6 063c 1ad0 283b
00000180: a113 383b c51c 0b3b 600d b0bb be50 88bb
00000190: 2daa ebbb 8439 8dbb 71dd 54bb a99f 97bb
000001a0: 4d3e bc3c 2f8f 1abc cd7b 30bc d4a5 f7bb
000001b0: db85 913b ac93 f43b 1701 b73a 0e32 aa3a
000001c0: fc33 373b 772c 913b 6dd7 ddbb bc70 653b
000001d0: 7343 bb3b 7303 853b a333 89bb eae9 aabb
000001e0: 50ba bfbb 2dd2 a3bb c61d 27ba 35d3 9cbb
000001f0: 9c66 9a3c 5aa5 dfbb e72e 1cbc c593 90bb
00000200: 7964 a53b d9dc a13b 6752 87bc 770d 2b3b
00000210: a395 c23b bca4 3f3b ea08 253c 05f5 c2ba
00000220: 303d 2cbb 3cea 23bb 14cf 16bb 704a 74b9
00000230: 5f92 a2ba ec60 c9bb 9251 6abb d3b4 f7bb
00000240: 0997 a93c 4a6b 41bc b8f7 4abc 39f1 11bc
00000250: c6ab f63b a039 ed3b fde5 8ebc fb84 223b
00000260: 8007 0a3c e35a 4e3b 75dc 1f3c c48f a83a
00000270: 112b 30ba 4abd 0d3b b8ec 21bb 1d92 d0ba
00000280: 0d9e c03b ac5e c6b9 30b9 2bbb e26f b239
00000290: b057 95bb b2e2 a8b9 72a9 e439 c65f 743a
000002a0: 682e 30ba 1e1a 68b9 f3be 37bb e2a3 ee3b
000002b0: 63de b63b 10a7 103c 2c09 4abc dacf 113c
000002c0: 5d73 233c 2626 f13b ce49 0abc 3b79 01bc
000002d0: 6e0d 14bb 8429 a53b 6a23 823b a911 eb3b
000002e0: ea53 16bc f08d ee3b 5ec5 e13b 8939 d53b
000002f0: f151 66bb 5c29 dfbb f99e 49bc 29ec f939
00000300: 26bd 703b 6457 ea3a 20ea 413c 19fe 21bb
00000310: c66f 5abb 3347 adb8 604a 58ba 9d16 0b39

layers.1.egnn.edge_mlp.0.bias f4 [20]
-0.080609195 0.2827242 -0.063565925 -0.14555423 -0.14841844 -0.13590768 -0.26838374 0.3027929
-0.19560574 -0.013929735 -0.2498279 0.07349105 -0.1824044 -0.06656592 -0.20453274 -0.046719894
0.06255525 0.20052242 0.093838446 -0.068040274
00000000: 6f16 a5bd 3ac1 903e da2e 82bd 2b0c 15be
00000010: 01fb 17be 622b 0bbe 9869 89be ac07 9b3e
00000020: df4c 48be 8b39 64bc e3d2 7fbe 7a82 963d
00000030: 38c8 3abe b753 88bd 0871 51be 5c5d 3fbd
00000040: f81c 803d c055 4d3e 5f2e c03d b358 8bbd

layers.1.egnn.edge_mlp.3.weight f4 [16, 20]
0.0033799645 -0.006267342 0.004760511 0.0029149503 0.005941869 0.0033353548 0.004813023 -0.0061396314
0.0046533123 -0.004909386 0.0025436063 -0.004125943 0.0042264424 0.0016308954 0.004594643 -0.00052881433
-0.0019992557 -0.0056708846 -0.0057272953 0.004933598 -0.02268653 0.027510202 -0.021190751 -0.026100254
-0.022803146 -0.026222326 -0.027161865 0.024838686 -0.027635176 -0.0041026305 -0.029052157 0.018755922
-0.025968267 -0.018919079 -0.026827086 -0.015117424 0.020221593 0.02550799 0.021348786 -0.02219872
-0.020514775 0.025432527 -0.019697323 -0.023134323 -0.023312336 -0.022718167 -0.025576115 0.024763009
-0.025323318 -0.0030081435 -0.026349701 0.01807921 -0.025582708 -0.020546662 -0.02321188 -0.014645241
0.017430944 0.0226717 0.021123657 -0.01949708 -0.0041647167 0.0069045965 -0.003169074 -0.005256793
-0.0045889155 -0.0053856457 -0.0063906815 0.0058317515 -0.004742223 0.004148935 -0.0038273707 0.0060746567
-0.0055401116 -0.0038389154 -0.0052512405 0.00086831884 0.0054156375 0.006886856 0.0053561553 -0.0038284846
0.028665366 -0.036361925 0.029353373 0.034144927 0.036322568 0.033641033 0.03758656 -0.03788168
0.03565229 0.010791305 0.03572983 -0.025205765 0.03567755 0.030345405 0.03680482 0.02403285
-0.025421837 -0.034405615 -0.029119829 0.029811854 -0.031055039 0.037005123 -0.029336905 -0.034823686
-0.034795947 -0.034659304 -0.037527658 0.036982115 -0.033607353 -0.011242154 -0.03922166 0.026138443
-0.03678887 -0.029809635 -0.036347218 -0.023671627 0.026573587 0.034019373 0.02876685 -0.03044775
0.0071060234 -0.00952087 0.0051322556 0.0079755485 0.0077004614 0.006409293 0.008607307 -0.009443222
0.006702591 -0.0027088372 0.006686015 -0.0067894645 0.0086446805 0.0036429588 0.0065268828 0.0013076306
-0.0059492453 -0.009861725 -0.008952172 0.004126358 0.0046111415 -0.0026302792 0.0033928826 0.0037436136
0.005011877 0.0050136084 0.005573609 -0.0048364615 0.0041878102 -0.004089164 0.005088066 -0.0041486854
0.0038684525 0.0012679746 0.0046528415 -0.0009701833 -0.0028159183 -0.0034003558 -0.007223117 0.0033922992
0.004572551 -0.003615068 0.0014431585 0.003660415 0.005037488 0.0026593423 0.0031522089 -0.0040907273
0.0048996587 -0.0048829643 0.003185029 -0.0048729414 0.0029049427 0.0026490414 0.0036286577 0.00063542783
-0.0016823655 -0.0043716948 -0.0043600453 0.0022348557 -0.004719296 0.0034554503 -0.0026711659 -0.004987992
-0.0033112322 -0.003752399 -0.0033261727 0.0060394574 -0.004378031 0.0052981903 -0.0036741276 0.0041882345
-0.0022962398 -0.0024104316 -0.005136298 0.0009842599 0.006608165 0.0051387874 0.0038875514 -0.003961072
0.0039932616 -0.004186099 0.002023533 0.004088263 0.0037037926 0.003714742 0.0026299253 -0.004275222
0.002843456 -0.00415452 0.0033945623 -0.003342051 0.003167264 0.0007441245 0.0034465087 -0.00040778285
-0.0030928396 -0.005052582 -0.006970454 0.0026054317 0.0011145956 0.0004898116 -0.0010714506 -0.0010418376
0.00043775106 -0.00080371706 -0.000583104 0.001191619 -0.0022645995 0.00726216 0.00014897015 0.001397155
-0.0014553 0.00053205935 -8.1773425e-05 0.0044834837 -0.0003267656 0.0034609346 0.00050407037 0.0012464699
0.0082442565 -0.015229207 0.005667355 0.011136652 0.012062474 0.011808823 0.015588031 -0.01438008
0.013154432 -0.016082196 0.013299937 -0.0047171973 0.015002583 0.0039804676 0.012166553 -0.0039231954
00000000: 6582 5d3b 465e cdbb 10fe 9b3b c008 3f3b
00000010: 03b4 c23b f895 5a3b 90b6 9d3b f62e c9bb
00000020: d07a 983b eade a0bb a2b2 263b eb32 87bb
00000030: f87d 8a3b c5c3 d53a a98e 963b 21a0 0aba
00000040: f205 03bb d4d2 b9bb 09ac bbbb 05aa a13b
00000050: 1ad9 b9bc 135d e13c 3a98 adbc 33d0 d5bc
00000060: aacd babc 34d0 d6bc 8f82 debc 807a cb3c
00000070: 2a63 e2bc 5c6f 86bb cafe edbc 05a6 993c
00000080: 67bb d4bc 2ffc 9abc 7ac4 dbbc 12af 77bc
00000090: c1a7 a53c 22f6 d03c a6e3 ae3c 17da b5bc
000000a0: 9a0e a8bc e057 d03c 485c a1bc 3184 bdbc
000000b0: 83f9 bebc 731b babc 0085 d1bc cbdb ca3c
000000c0: d972 cfbc 4624 45bb 54db d7bc da1a 943c
000000d0: d492 d1bc 7951 a8bc d726 bebc 98f2 6fbc
000000e0: 57cb 8e3c 00ba b93c 850b ad3c 57b8 9fbc
000000f0: 2d78 88bb f43f e23b 3db0 4fbb 2d41 acbb
00000100: 9d5e 96bb 127a b0bb ec68 d1bb 4718 bf3b
00000110: a664 9bbb caf3 873b a0d4 7abb ea0d c73b
00000120: d389 b5bb 5096 7bbb 9912 acbb e49f 633a
00000130: a975 b13b 23ab e13b b082 af3b 50e7 7abb
00000140: a1d3 ea3c 3ef0 14bd 7c76 f03c 8ddb 0b3d
00000150: f9c6 143d 2ecb 093d 5df4 193d d229 1bbd
00000160: 2308 123d 04ce 303c 7159 123d 527c cebc
00000170: 9f22 123d ed96 f83c a7c0 163d 8ae0 c43c
00000180: 7541 d0bc e7ec 0cbd b58c eebc fd37 f43c
00000190: 2367 febc af92 173d f353 f0bc 48a3 0ebd
000001a0: 3286 0ebd eaf6 0dbd 9ab6 19bd 8f7a 173d
000001b0: dda7 09bd 0331 38bc e4a6 20bd 4a20 d63c
000001c0: edaf 16bd 5633 f4bc d2e0 14bd 00eb c1bc
000001d0: dab0 d93c e657 0b3d 75a8 eb3c 8f6d f9bc
000001e0: a5d9 e83b 6cfd 1bbc 7b2c a83b e0ab 023c
000001f0: 2754 fc3b 0c05 d23b aa05 0d3c beb7 1abc
00000200: 69a1 db3b bf86 31bb 5c16 db3b 287a debb
00000210: 6ba2 0d3c b5be 6e3b 76df d53b cd64 ab3a
00000220: e3f1 c2bb 1393 21bc 21ac 12bc 6636 873b
00000230: 0f19 973b c360 2cbb 205b 5e3b 6a57 753b
00000240: ac3a a43b 3249 a43b d2a2 b63b 2e7b 9ebb
00000250: e639 893b 65fe 85bb cbb9 a63b b2f1 87bb
00000260: dd85 7d3b 2b32 a63a dd76 983b e653 7eba
00000270: 458b 38bb 81d8 5ebb e6af ecbb 5651 5e3b
00000280: 57d5 953b c7ea 6cbb 5d28 bd3a 93e3 6f3b
00000290: 8311 a53b 5c48 2e3b 4a95 4e3b 820b 86bb
000002a0: 518d a03b 4601 a0bb ebbb 503b 32ad 9fbb
000002b0: da60 3e3b 8a9b 2d3b c6ce 6d3b d792 263a
000002c0: d282 dcba 6f40 8fbb b6de 8ebb a876 123b
000002d0: 53a4 9abb d674 623b ba0e 2fbb 4f72 a3bb
000002e0: 4201 59bb cfea 75bb ebfb 59bb a4e6 c53b
000002f0: 9675 8fbb 719c ad3b a2c9 70bb 753d 893b
00000300: 837c 16bb 55f8 1dbb 644e a8bb 4802 813a
00000310: 4e89 d83b 4663 a83b 4ac6 7e3b e1cb 81bb
00000320: e8d9 823b 8b2b 89bb 409d 043b d6f6 853b
00000330: 54bb 723b 0773 733b d35a 2c3b 2917 8cbb
00000340: 4759 3a3b a422 88bb 4e77 5e3b 5006 5bbb
00000350: df91 4f3b 5a11 433a d2de 613b b0cb d5b9
00000360: 3db1 4abb 2190 a5bb 6868 e4bb e4bf 2a3b
00000370: 9f17 923a b366 003a eb6f 8cba 458e 88ba
00000380: f481 e539 8ab0 52ba 72db 18ba 1930 9c3a
00000390: ad69 14bb 6af7 ed3b df34 1c39 be20 b73a
000003a0: c4bf beba e679 0b3a c67d abb8 30ea 923b
000003b0: bd51 abb9 d9d0 623b 9723 043a 9760 a33a
000003c0: eb12 073c ed83 79bc 38b5 b93b 8176 363c
000003d0: afa1 453c cb79 413c f164 7f3c 6d9a 6bbc
000003e0: b085 573c cfbe 83bc fbe7 593c b892 9abb
000003f0: 65cd 753c 956e 823b 3956 473c 268e 80bb

layers.1.egnn.edge_mlp.3.bias f4 [16]
0.12391207 0.006870029 0.0061348593 -0.07088134 -0.03109368 0.028902864 0.07586608 0.13237084
0.112604275 -0.08414626 0.12745947 -0.21400201 0.024912575 0.2112478 0.18516836 0.06748173
00000000: 9dc5 fd3d fb1d e13b ee06 c93b 3c2a 91bd
00000010: 2cb8 febc b3c5 ec3c ad5f 9b3d 398c 073e
00000020: 129d e63d e054 acbd bc84 023e 5823 5bbe
00000030: 7515 cc3c 5851 583e c69c 3d3e dc33 8a3d

layers.1.egnn.node_mlp.0.weight f4 [8, 20]
-0.00052514364 0.00053116365 0.0010003168 -0.00082637003 -0.001489375 -0.00039540167 -0.0029975818 0.001286399
-0.0004783666 -0.00030865963 -0.00038270847 0.0009789044 3.6321537e-05 -0.00029734138 -0.0017894438 0.00016345309
-0.00018227717 -0.0020208019 -0.00010299344 0.0006700816 0.00072430173 -0.00041563375 -0.00091943855 -0.0015655004
-0.0010353476 -7.826813e-05 -0.0012046052 0.00079375715 -0.00029851028 0.0005610216 7.3839765e-05 -0.00024131531
-0.0007030108 0.00075404777 0.001083319 -0.00015045545 -4.6505207e-05 0.0014421745 0.0012050755 6.819769e-05
0.0024104386 0.0008812072 0.00090050575 -0.00020252827 -0.00080106535 -0.0008318885 0.0003204142 0.0007097889
0.00054900214 0.0007593808 -0.00017854065 0.0010103012 0.0011747268 -0.0007922217 -3.606138e-05 0.00082120753
0.0014690204 -0.001249742 -0.0003299929 0.00045257795 -0.0020538215 -5.1289295e-05 -0.0009007108 0.0010620486
-0.00032518784 -0.00043518574 0.00077899534 0.00085591595 0.0003691071 -0.00043525852 4.975142e-05 -0.00065002375
-0.00043867275 0.0017815875 -0.0015062931 0.0006522263 -0.00047577755 -0.001803696 0.0013453376 1.2087119e-05
0.00022655338 -0.0001929022 0.00024950024 -0.0005661579 -0.0010507255 0.0005822233 -0.0001405947 -0.00020829325
0.00045150483 0.0018092411 0.0011631985 -0.0006018209 -0.00046802248 -0.00033296066 -0.002047064 -8.3554674e-05
0.0012495829 -0.00061763934 -0.00010724551 -0.00086866634 0.0002489108 -0.00077160896 0.0003979527 0.0015933121
-0.0013847686 0.0004408654 0.00045998525 0.00011647742 0.002627261 -0.00091246486 -0.0008243831 -8.6678e-06
-5.6990153e-05 0.0005071386 0.0010969742 -0.00015773016 -0.001533943 0.0012526261 0.0015774324 0.00030173283
-0.0004912049 -0.0006407278 0.0020953682 0.0005499647 -0.00027169797 -0.00011429251 0.00011743533 0.0006260566
0.0019266952 -0.00086063886 0.0014875912 0.0010578603 0.0009642568 0.0007064735 -0.00051643676 0.0009491322
0.00040735982 -0.0008418301 0.0007063345 0.0005958105 -0.0009363623 0.0018930393 -0.0009258386 -0.00086738006
-0.0007117638 0.0005491527 -0.0005463803 -0.000233112 0.00024422765 -0.000194355 -0.00089753256 0.0010828029
-0.00067614205 0.00044790292 0.00086455455 7.874961e-05 0.0022704282 -0.00082065066 0.00091145164 0.00028569935
00000000: cba9 09ba ca3d 0b3a 101d 833a c1a0 58ba
00000010: 2237 c3ba ea4d cfb9 1473 44bb 639c a83a
00000020: 47cd fab9 98d3 a1b9 43a6 c8b9 954e 803a
00000030: f457 1838 7ce4 9bb9 c58b eaba 9b64 2b39
00000040: a821 3fb9 6e6f 04bb 2ffe d7b8 6aa8 2f3a
00000050: 11df 3d3a 6be9 d9b9 7a06 71ba 7a31 cdba
00000060: 80b4 87ba e223 a4b8 d8e3 9dba 2414 503a
00000070: 5f81 9cb9 8611 133a 6cda 9a38 9609 7db9
00000080: 424a 38ba 4aab 453a 27fe 8d3a 94c3 1db9
00000090: 960e 43b8 5907 bd3a a0f3 9d3a 5b05 8f38
000000a0: 73f8 1d3b d000 673a eb0f 6c3a c55d 54b9
000000b0: 96fe 51ba 1813 5aba 44fd a739 2011 3a3a
000000c0: e9ea 0f3a 2f11 473a a436 3bb9 156c 843a
000000d0: 4af9 993a 19ad 4fba 9d40 17b8 4e46 573a
000000e0: 258c c03a 62ce a3ba e602 adb9 fc47 ed39
000000f0: 6899 06bb 761f 57b8 ae1d 6cba 7034 8b3a
00000100: f97d aab9 a429 e4b9 7e35 4c3a 8c5f 603a
00000110: b784 c139 6933 e4b9 2eac 5038 5b66 2aba
00000120: a9fd e5b9 2884 e93a cf6e c5ba 2bfa 2a3a
00000130: c871 f9b9 ff69 ecba 0a56 b03a c8c9 4a37
00000140: f68e 6d39 ca45 4ab9 5bcf 8239 376a 14ba
00000150: 7fb8 89ba 58a0 183a 9a6c 13b9 4b69 5ab9
00000160: f4b7 ec39 0f24 ed3a 7776 983a 84c3 1dba
00000170: ea60 f5b9 3991 aeb9 0928 06bb 133a afb8
00000180: 0bc9 a33a 13e9 21ba ffe8 e0b8 36b7 63ba
00000190: 3e80 8239 cd45 4aba 4fa4 d039 afd6 d03a
000001a0: 2081 b5ba f423 e739 2d2a f139 5745 f438
000001b0: 202e 2c3b 7b32 6fba 6a1b 58ba eb6b 11b7
000001c0: b608 6fb8 7ff1 043a 59c8 8f3a 5e64 25b9
000001d0: 960e c9ba 282f a43a d9c1 ce3a e531 9e39
000001e0: 34c4 00ba 84f6 27ba 7252 093b 822b 103a
000001f0: af72 8eb9 53b0 efb8 9d47 f638 f21d 243a
00000200: 2a89 fc3a 7f9c 61ba 47fb c23a e7a7 8a3a
00000210: 2ec6 7c3a a232 393a 7c61 07ba 2fcf 783a
00000220: e992 d539 43ae 5cba 4e29 393a 2a30 1c3a
00000230: 3676 75ba dc1f f83a fab3 72ba e460 63ba
00000240: a995 3aba 04f5 0f3a f63a 0fba 876f 74b9
00000250: ae0b 8039 c6cb 4bb9 6448 6bba d6ec 8d3a
00000260: 203f 31ba 83d4 ea39 46a3 623a 6026 a538
00000270: 77cb 143b ef20 57ba 7cee 6e3a ebc9 9539

layers.1.egnn.node_mlp.0.bias f4 [8]
0.030402776 -0.100640744 0.20227125 -0.18125072 0.17804573 0.005858697 0.18235217 0.08876403
00000000: 3e0f f93c bc1c cebd 3220 4f3e ca99 39be
00000010: 9f51 363e 50fa bf3b 87ba 3a3e eac9 b53d

layers.1.egnn.node_mlp.3.weight f4 [4, 8]
-9.642725e-05 -0.0009841245 0.00010331421 0.0006637222 2.054372e-05 0.00088832394 -0.0008500403 -0.00040987012
-0.00034844162 0.0009581981 0.0014107433 0.0013662706 -0.0018821947 0.001385227 0.002746808 0.001383009
-0.0010868162 4.737672e-05 0.0012726396 0.0024831647 -7.185653e-05 -0.001727309 0.00052454596 0.00056716485
0.00025971516 0.0006068104 -0.0023081831 0.0011173796 -0.0011731341 -0.00027818925 -0.00065961696 -0.0035586166
00000000: fc38 cab8 bdfd 80ba 65aa d838 a5fd 2d3a
00000010: 4e55 ac37 69de 683a 3dd5 5eba d6e3 d6b9
00000020: 0baf b6b9 962f 7b3a b1e8 b83a 6f14 b33a
00000030: f9b3 f6ba 8190 b53a cb03 343b 1546 b53a
00000040: 8073 8eba 5eb6 4638 b3ce a63a 97bc 223b
00000050: aeb1 96b8 df66 e2ba af81 093a caad 143a
00000060: 612a 8839 5b12 1f3a e344 17bb 0a75 923a
00000070: d9c3 99ba eed9 91b9 25ea 2cba ae37 69bb

layers.1.egnn.node_mlp.3.bias f4 [4]
0.2764276 0.0051672035 0.32218036 -0.19631083
00000000: eb87 8d3e a551 a93b d3f4 a43e b505 49be
