experiments/models/model_N12_batch64_lr0.001_fd4_b0.5.pth (torch, 30882 bytes, 32 tensors)

time_embedding.0.weight f4 [8, 1]
0	0xbe5c04e0	-0.21486235
1	0xbe51b680	-0.20479774
2	0x3f0764ee	0.5288838
3	0x3e2f4831	0.17117383
4	0x3e7c09f9	0.2461318
5	0x3f211f9e	0.6293887
6	0xbe823b7f	-0.25436017
7	0x3d89c4ae	0.06726967

time_embedding.0.bias f4 [8]
0	0xbd8ed6c0	-0.06974554
1	0xbf29037a	-0.6602093
2	0x3f45b78b	0.7723319
3	0x3ee75175	0.45179334
4	0x3f0fc6de	0.5616282
5	0xbf28a17a	-0.65871394
6	0x3ed3f21d	0.41395655
7	0x3f1915bf	0.59798807

time_embedding.3.weight f4 [4, 8]
0	0xbe61cffd	-0.22051997
1	0x3ea2a21b	0.31764302
2	0x3d9465f0	0.072460055
3	0x3e23e985	0.1600705
4	0xbde44828	-0.11146575
5	0xbe1e2cd3	-0.15446787
6	0xbeac39e3	-0.33637914
7	0xbe9b4594	-0.3032652
8	0xbc3c054a	-0.01147587
9	0xbe5db5ce	-0.21651384
10	0x3d9d1cef	0.07671534
11	0xbe19e85d	-0.15030046
12	0x3a55529d	0.00081376155
13	0x3e20856f	0.15675901
14	0x3d92bd7e	0.07165049
15	0xbdd9025d	-0.10596154
16	0xbd8cda89	-0.0687762
17	0xbe57d755	-0.21078236
18	0xbd02c8f4	-0.031929925
19	0xbe69abbd	-0.22819419
20	0x3dafe7d0	0.085891366
21	0xbdb2979a	-0.08720322
22	0x3e7046ef	0.23464559
23	0x3e23aca6	0.15983829
24	0x3d888f18	0.06667918
25	0x3e4e7964	0.20163494
26	0x3dd7c91c	0.105364054
27	0x3e349663	0.17635493
28	0xbda73f65	-0.081663884
29	0x3db43838	0.087997854
30	0xbd8f7f76	-0.07006733
31	0xbe3d0f42	-0.18462852

time_embedding.3.bias f4 [4]
0	0x3e82ba45	0.25532737
1	0xbee24a58	-0.44197345
2	0x3eed368a	0.46330673
3	0x3e96b30e	0.29433483

layers.0.egnn.edge_mlp.0.weight f4 [20, 10]
0	0x3cab6ba8	0.020925358
1	0xbd13aa3d	-0.036051024
2	0x3d1c62bd	0.0381801
3	0x3cefaba2	0.029256646
4	0x3cda4d16	0.026648086
5	0xbd246f85	-0.040145416
6	0x3d243fc2	0.040099867
7	0x3d04b9a8	0.032403618
8	0x3c950db4	0.01819501
9	0x3d1be5f1	0.038061086
10	0xbe280664	-0.16408688
11	0x3e556976	0.20841011
12	0xbe520229	-0.20508637
13	0xbe4a923a	-0.19782344
14	0xbe78d491	-0.24299838
15	0x3e588bd9	0.21147098
16	0xbe4d3c33	-0.20042495
17	0xbe68808d	-0.22705288
18	0xbed50ce1	-0.41611388
19	0xbe69271f	-0.2276883
20	0x3db9c6c2	0.09071113
21	0xbe0c099a	-0.13675538
22	0x3e0ab796	0.13546595
23	0x3dffcafd	0.12489889
24	0x3dcb2ae1	0.09920288
25	0xbe0bc18f	-0.13648055
26	0x3e106e3b	0.1410455
27	0x3e0531d3	0.13007288
28	0x3deb38ee	0.11485468
29	0x3e100ab5	0.14066584
30	0xbd69bb12	-0.05706317
31	0xbdf8688a	-0.12129314
32	0x3e46a0a4	0.19397217
33	0x3da0400d	0.07824717
34	0xbde8a2ec	-0.113592
35	0xbe09008e	-0.13379118
36	0x3e4ec601	0.2019272
37	0x3d91441e	0.070930704
38	0xbe409e5f	-0.18810414
39	0x3e4a622e	0.19764015
40	0xbcf530ea	-0.02993055
41	0x3d94c93f	0.07264947
42	0xbd92b979	-0.07164282
43	0xbd84fd76	-0.06493656
44	0xbc8873d1	-0.016656788
45	0x3d8c38d7	0.06846779
46	0xbd9b723a	-0.07590146
47	0xbd7c5e2c	-0.061613247
48	0xbd2345c5	-0.03986146
49	0xbda0eb39	-0.07857365
50	0xbddd85de	-0.10816549
51	0x3e24745c	0.16060013
52	0xbe211adf	-0.15732907
53	0xbe1b0573	-0.15138797
54	0xbe149419	-0.1450962
55	0x3e246913	0.16055708
56	0xbe227d6b	-0.15868156
57	0xbe24acd6	-0.16081557
58	0xbe5f0a4e	-0.21781275
59	0xbe340f25	-0.17583902
60	0x3da628fa	0.081132844
61	0xbde187b0	-0.110122085
62	0x3dedabdb	0.116050445
63	0x3dc71203	0.09720232
64	0x3dd96866	0.106156155
65	0xbdefb388	-0.11704165
66	0x3deeb219	0.11655063
67	0x3de1b405	0.11020664
68	0x3dbb6bfe	0.09151457
69	0x3de9340a	0.11386879
70	0xbdb5981b	-0.088669024
71	0x3e0bed09	0.1366464
72	0xbe0c1146	-0.13678464
73	0xbe0121fa	-0.12610617
74	0xbde30317	-0.11084574
75	0x3e0c4273	0.13697223
76	0xbe0bd7ad	-0.13656493
77	0xbe06dd62	-0.13170388
78	0xbe159127	-0.14606152
79	0xbe18434c	-0.14869422
80	0x3cafe8e3	0.021473354
81	0xbd0c794c	-0.034295365
82	0x3d162059	0.036651943
83	0x3ce31051	0.027717741
84	0x3cbe3399	0.023217963
85	0xbd1ffe1b	-0.039060693
86	0x3d1d1a20	0.038354993
87	0x3d02d9e6	0.031946085
88	0x3c847fb5	0.016174177
89	0x3d0e1228	0.034685284
90	0x3cc7886d	0.024357045
91	0xbd258d35	-0.04041787
92	0x3d2cf9d2	0.042230435
93	0x3d0d6a52	0.034525223
94	0x3cee4f68	0.029090598
95	0xbd29cd20	-0.041455388
96	0x3d3173b3	0.04332323
97	0x3d13b1fe	0.03605842
98	0x3c9a2445	0.018816123
99	0x3d2bc2fa	0.04193399
100	0x3ce389e2	0.027775709
101	0xbd41a30d	-0.047274638
102	0x3d46735a	0.04844985
103	0x3d1fb2d4	0.038988903
104	0x3d0a037a	0.03369472
105	0xbd4ab9d4	-0.049493626
106	0x3d4b714a	0.049668588
107	0x3d31e94b	0.043435376
108	0x3cd90f69	0.026496606
109	0x3d48eb6a	0.049052633
110	0x3e100e47	0.14067946
111	0xbe3ee8a5	-0.18643434
112	0x3e4a4dec	0.19756287
113	0x3e2b5488	0.16731465
114	0x3e43705d	0.19085832
115	0xbe469cdc	-0.19395775
116	0x3e47e2bd	0.19520088
117	0x3e45c968	0.19315112
118	0x3e2aa12a	0.16663042
119	0x3e47f59f	0.19527291
120	0xbdf1baa0	-0.11803174
121	0x3e26d49a	0.16292039
122	0xbe2248b5	-0.15848048
123	0xbe1e29dd	-0.15445657
124	0xbe33f565	-0.1757408
125	0x3e29c4d4	0.1657899
126	0xbe1f7ef6	-0.15575776
127	0xbe325827	-0.1741644
128	0xbea0924a	-0.3136161
129	0xbe3b42d9	-0.18287219
130	0xbda270f6	-0.07931702
131	0x3dfe96b0	0.12431085
132	0xbdfac586	-0.12244706
133	0xbde21ea3	-0.11041
134	0xbdc62a21	-0.09676004
135	0x3dfd9bf7	0.123832636
136	0xbdfca689	-0.123364516
137	0xbdf1fe55	-0.11816088
138	0xbde58bb8	-0.1120829
139	0xbe08291f	-0.13296936
140	0xbe12cbee	-0.14335606
141	0x3e5bb136	0.2145432
142	0xbe5543f1	-0.20826699
143	0xbe51f57e	-0.20503804
144	0xbe2d2296	-0.16907725
145	0x3e57c357	0.2107061
146	0xbe58d207	-0.21173869
147	0xbe55980a	-0.2085878
148	0xbe948212	-0.29005486
149	0xbe750b77	-0.23930155
150	0xbdd38aad	-0.10329185
151	0x3e1e63ab	0.15467708
152	0xbe1ea088	-0.15490925
153	0xbe15b72d	-0.14620657
154	0xbe149cb0	-0.14512897
155	0x3e21d6e0	0.15804625
156	0xbe1c45bd	-0.15260978
157	0xbe20429f	-0.15650414
158	0xbe69e612	-0.22841671
159	0xbe31c875	-0.17361625
160	0x3be62e6b	0.0070245764
161	0xbc82d78f	-0.015971927
162	0x3c993a62	0.018704597
163	0x3c4aee14	0.012385864
164	0x3bde4022	0.0067825476
165	0xbc98d2c1	-0.018655183
166	0x3c95a20e	0.01826575
167	0x3c570840	0.013124526
168	0xbb19aaa6	-0.0023447662
169	0x3c88edcd	0.016714955
170	0xbb8ee923	-0.004361288
171	0x3bdb5481	0.0066934233
172	0xbbc315d6	-0.005953531
173	0xbc0e7749	-0.008695432
174	0xbbef8daf	-0.007310591
175	0x3b9e48a0	0.004830435
176	0xbbe06cff	-0.006848931
177	0xbc2d7455	-0.010586818
178	0xbcab835a	-0.020936657
179	0xbbe181ae	-0.006881914
180	0xbe2ac1e4	-0.16675526
181	0x3e5701d0	0.20996785
182	0xbe545230	-0.20734477
183	0xbe4bc605	-0.19899757
184	0xbe7ab050	-0.2448132
185	0x3e597d38	0.21239173
186	0xbe4d938f	-0.2007582
187	0xbe656317	-0.22401081
188	0xbeca56e6	-0.39519423
189	0xbe6a4d01	-0.22880937
190	0x3dd93ab7	0.10606902
191	0xbe1ecb91	-0.15507342
192	0x3e217d62	0.15770486
193	0x3e12ab05	0.14323051
194	0x3df46666	0.119335935
195	0xbe21f3f3	-0.15815715
196	0x3e24f0c5	0.16107471
197	0x3e18c12d	0.1491744
198	0x3e080b91	0.13285662
199	0x3e254743	0.16140465

layers.0.egnn.edge_mlp.0.bias f4 [20]
0	0x3eae6bd3	0.34066638
1	0xbe3831a7	-0.17987691
2	0x3d222357	0.039584484
3	0x3e9673a8	0.29385114
4	0xbe3778a4	-0.17917114
5	0xbed5caf5	-0.41756406
6	0x3d75dc36	0.060024463
7	0xbed2f5ae	-0.41203064
8	0x3eab73b2	0.33486706
9	0x3eb2a4a6	0.34891242
10	0x3eba102f	0.36340472
11	0x3e1c5c2a	0.15269533
12	0xbef9ae1f	-0.48765656
13	0xbec050ce	-0.3756165
14	0xbdbfcacc	-0.09364852
15	0xbef10553	-0.47074375
16	0x3e8dc029	0.2768567
17	0x3e159f7a	0.14611617
18	0xbe31a304	-0.17347342
19	0x3d83baf2	0.06432141

layers.0.egnn.edge_mlp.3.weight f4 [16, 20]
0	0x3d385b95	0.045009214
1	0xbe11ae63	-0.1422668
2	0x3db28136	0.08716051
3	0x3e496f87	0.1967145
4	0xbd55b42d	-0.052173782
5	0xbdb5b2ed	-0.08872018
6	0x3db7f6bb	0.08982607
7	0xbd9dfd11	-0.07714284
8	0x3d334746	0.043769144
9	0x3d3eae08	0.046552688
10	0x3d4b83f4	0.049686387
11	0x3e2f7be7	0.17137109
12	0xbdbf6f45	-0.09347395
13	0xbd941d37	-0.07232135
14	0xbde43b00	-0.11144066
15	0xbdb0bd98	-0.08629912
16	0x3d071c27	0.032985833
17	0x3cb299e9	0.021801906
18	0xbe048c48	-0.12944138
19	0x3dd7077a	0.10499473
20	0xbe1e8466	-0.15480193
21	0x3e2a9e75	0.16662009
22	0xbe996ca1	-0.2996569
23	0x3dfc4f86	0.123198554
24	0x3e45d0ef	0.19317983
25	0x3e1c6bc0	0.15275478
26	0xbe863ab1	-0.26216653
27	0x3e2cbdb0	0.16869235
28	0xbe1913f4	-0.14949018
29	0xbe210118	-0.15723073
30	0xbe288839	-0.16458215
31	0xbeacc60c	-0.33744848
32	0x3e045fd1	0.12927176
33	0x3e32ba9c	0.17453998
34	0x3e43ae69	0.19109501
35	0x3e1687f0	0.14700294
36	0xbdda3f38	-0.10656589
37	0xbcaa9e0b	-0.020827314
38	0x3e25bffe	0.1618652
39	0xbea4ef06	-0.3221361
40	0x3c7efd5d	0.015563336
41	0xbdd8e271	-0.10590065
42	0x3da82a7f	0.082112305
43	0x3e2e9e94	0.1705268
44	0xbd45d2f5	-0.048296887
45	0xbd4be811	-0.049781863
46	0x3d7ddc0b	0.061977427
47	0xbd388433	-0.04504795
48	0x3c6c77f1	0.014432893
49	0x3c8aa1b5	0.016922811
50	0x3c9ba98e	0.019001748
51	0x3df83d7e	0.12121104
52	0xbd6d865b	-0.05798946
53	0xbd29eed6	-0.041487537
54	0xbdcb0570	-0.099131465
55	0xbd5219b9	-0.051294062
56	0x3c064c69	0.008196929
57	0xbad3c855	-0.0016157726
58	0xbdb6b4de	-0.089212164
59	0x3dcc8c99	0.099877544
60	0x3d1bc2a2	0.038027413
61	0xbe0c9fa8	-0.13732779
62	0x3db0fae0	0.086416006
63	0x3e43ca19	0.19120063
64	0xbd3a44a5	-0.04547562
65	0xbda106bc	-0.078626126
66	0x3db15e24	0.08660534
67	0xbd911f06	-0.070859954
68	0x3d128453	0.035770725
69	0x3d1f0c05	0.038829822
70	0x3d2cf149	0.042222295
71	0x3e27f366	0.16401443
72	0xbdaf4b4c	-0.085592836
73	0xbd84c7c4	-0.06483415
74	0xbde0818c	-0.10962209
75	0xbda07634	-0.078350455
76	0x3cd8bd8c	0.02645757
77	0x3c81ae9a	0.015830327
78	0xbdffac2d	-0.12484012
79	0x3dd8d860	0.10588145
80	0xbe2a25ed	-0.1661603
81	0x3e32ca52	0.17459992
82	0xbeae2f74	-0.3402058
83	0x3de42ed8	0.11141747
84	0x3e5aee75	0.21380027
85	0x3e2a5ce0	0.16636992
86	0xbe929e8b	-0.28636584
87	0x3e36c144	0.17847162
88	0xbe2507cd	-0.16116257
89	0xbe2ce05c	-0.16882461
90	0xbe363e9d	-0.17797323
91	0xbeb424a6	-0.3518421
92	0x3e0fab1c	0.14030117
93	0x3e40700b	0.18792741
94	0x3e5b9750	0.2144444
95	0x3e221324	0.15827614
96	0xbde38cf1	-0.11110867
97	0xbcb6eaad	-0.022328699
98	0x3e2dc271	0.16968705
99	0xbebaf860	-0.3651762
100	0xbe26c711	-0.16286875
101	0x3e2a39c6	0.16623601
102	0xbea32741	-0.31865886
103	0x3de96f61	0.11398197
104	0x3e552cdf	0.20817898
105	0x3e26afa6	0.16277942
106	0xbe8aad03	-0.27085122
107	0x3e354c6e	0.17704937
108	0xbe21cf5d	-0.15801759
109	0xbe29cbea	-0.16581693
110	0xbe32f34b	-0.17475621
111	0xbeafac36	-0.34311074
112	0x3e0a6cb6	0.13518032
113	0x3e3cc5e3	0.18434863
114	0x3e4dffd4	0.20117122
115	0x3e204edb	0.15655081
116	0xbde5d36e	-0.11221968
117	0xbcce873f	-0.025210975
118	0x3e256769	0.16152729
119	0xbeae4d82	-0.3404351
120	0x3d2a6c32	0.04160709
121	0xbe133030	-0.14373851
122	0x3db7355a	0.08945723
123	0x3e46933c	0.19392103
124	0xbd470411	-0.048587862
125	0xbdb176b3	-0.08665218
126	0x3dc0f4fc	0.09421727
127	0xbd9a6a32	-0.075397864
128	0x3d275b48	0.040858537
129	0x3d30fd0c	0.043210074
130	0x3d3fbde8	0.046811968
131	0x3e337173	0.17523746
132	0xbdbceed3	-0.092252396
133	0xbd9036c9	-0.070416994
134	0xbde9bd6a	-0.11413081
135	0xbdad200f	-0.0845338
136	0x3cedab64	0.02901239
137	0x3c95303a	0.018211473
138	0xbe0971bb	-0.13422291
139	0x3de269a5	0.11055306
140	0x3d1eea2d	0.038797546
141	0xbe0a61dc	-0.13513893
142	0x3daf80cb	0.08569487
143	0x3e4519e2	0.19248155
144	0xbd43e6b2	-0.04782743
145	0xbda5143f	-0.08060502
146	0x3daf908b	0.08572491
147	0xbd94c934	-0.07264939
148	0x3d1a6578	0.037694424
149	0x3d2ba2d8	0.041903347
150	0x3d2a21ee	0.041536264
151	0x3e259f57	0.16174065
152	0xbdad13b6	-0.08451025
153	0xbd8bfab0	-0.06834924
154	0xbdde50df	-0.10855269
155	0xbda3287c	-0.07966706
156	0x3ce089dd	0.027409488
157	0x3c91238e	0.01771715
158	0xbdfcd4ec	-0.12345299
159	0x3dd53f57	0.10412472
160	0x3d2d8930	0.04236716
161	0xbe146d32	-0.1449478
162	0x3dba1997	0.09086912
163	0x3e453ca2	0.19261411
164	0xbd4a56a3	-0.04939903
165	0xbdafa3d9	-0.08576173
166	0x3dbf395a	0.09337111
167	0xbd99f345	-0.07517103
168	0x3d2b6bb5	0.041850764
169	0x3d3990d8	0.04530415
170	0x3d3fb843	0.046806585
171	0x3e3318dd	0.17489953
172	0xbdb87de2	-0.09008385
173	0xbd908aab	-0.07057699
174	0xbde84f8d	-0.11343298
175	0xbdaaefa6	-0.083464906
176	0x3cf348a6	0.029697727
177	0x3ca08e75	0.019599179
178	0xbe08b08f	-0.13348602
179	0x3de0d402	0.10977937
180	0xbe29a737	-0.16567694
181	0x3e2dd1f8	0.16974628
182	0xbea3f101	-0.3201981
183	0x3de89c88	0.11357981
184	0x3e53cd78	0.20683849
185	0x3e2ac84e	0.16677973
186	0xbe8d03c8	-0.27541947
187	0x3e3716aa	0.1787974
188	0xbe25b43c	-0.16182035
189	0xbe2caf84	-0.16863829
190	0xbe35ebb6	-0.17765698
191	0xbeb27cc8	-0.34860826
192	0x3e0d15c6	0.13777837
193	0x3e3fd551	0.18733718
194	0x3e50c8e4	0.20389134
195	0x3e217991	0.1576903
196	0xbde84d7a	-0.113429025
197	0xbccc0ce9	-0.0249085
198	0x3e2981aa	0.16553369
199	0xbeaff18c	-0.34363973
200	0x3d3756fc	0.04476069
201	0xbe11e872	-0.14248827
202	0x3db11f9b	0.086486064
203	0x3e4718ba	0.19443026
204	0xbd5aeda8	-0.053449303
205	0xbdb40663	-0.08790281
206	0x3dbd44c1	0.092416294
207	0xbda07002	-0.07833864
208	0x3d2efb18	0.04271993
209	0x3d3fe542	0.046849497
210	0x3d492e87	0.049116638
211	0x3e2e6ef8	0.17034519
212	0xbdc07f2e	-0.093992576
213	0xbd94d5ae	-0.07267319
214	0xbde3da8c	-0.11125669
215	0xbdb0ef05	-0.08639339
216	0x3d0383c0	0.03210807
217	0x3cb06e69	0.021537023
218	0xbe054fc8	-0.13018715
219	0x3ddc00fb	0.107423745
220	0xbe2cb9e5	-0.16867788
221	0x3e33d81a	0.17562905
222	0xbeafa29c	-0.3430375
223	0x3de2310e	0.11044513
224	0x3e5ce9b3	0.21573524
225	0x3e2b5fbf	0.16735743
226	0xbe929d1a	-0.28635484
227	0x3e38e51e	0.18056151
228	0xbe28612e	-0.16443321
229	0xbe30435c	-0.17213196
230	0xbe38334d	-0.1798832
231	0xbeb5183d	-0.35370055
232	0x3e0f733a	0.14008799
233	0x3e423f6a	0.18969503
234	0x3e5de505	0.21669395
235	0x3e24f330	0.16108394
236	0xbdebb662	-0.11509396
237	0xbcc305f5	-0.023806551
238	0x3e2dc19b	0.16968386
239	0xbebbd2e1	-0.36684325
240	0x3d1f9f11	0.038970057
241	0xbe0d64d1	-0.1380799
242	0x3db16852	0.08662476
243	0x3e441aa5	0.19150789
244	0xbd42f0c4	-0.047592893
245	0xbda227de	-0.0791776
246	0x3db2527e	0.087071404
247	0xbd908af1	-0.07057751
248	0x3d1afb72	0.037837453
249	0x3d245eea	0.04012958
250	0x3d36606a	0.04452554
251	0x3e288500	0.16456985
252	0xbdaf1e4a	-0.08550699
253	0xbd898550	-0.067148805
254	0xbddf5128	-0.10904151
255	0xbda253d3	-0.079261445

layers.0.egnn.edge_mlp.3.bias f4 [16]
0	0x3e8b433c	0.27199733
1	0xbeacc15b	-0.3374127
2	0x3d90e2b3	0.070744894
3	0x3e08f60d	0.13375111
4	0xbe7436b1	-0.23848988
5	0xbe952308	-0.2912829
6	0x3e857d85	0.26072326
7	0x3e19e2f4	0.15027982
8	0x3e889c52	0.26681763
9	0xbe8aa3da	-0.27078134
10	0x3e985a40	0.29756355
11	0xbe670541	-0.22560598
12	0x3e24d002	0.16094974
13	0xbeb38041	-0.35058787
14	0xbe3a53a2	-0.18195966
15	0xbeb4552a	-0.35221225

layers.0.egnn.node_mlp.0.weight f4 [8, 20]
0	0xb9d77734	-0.0004109681
1	0xb900c31f	-0.0001227972
2	0xb9ebad01	-0.0004495159
3	0xb94a2b42	-0.00019280336
4	0xba4e8bec	-0.00078791264
5	0xbb17a212	-0.0023137373
6	0x3941203c	0.00018417923
7	0x3a9ac96f	0.00118093
8	0xb9e6af18	-0.00043999474
9	0xba440cc3	-0.0007478708
10	0xba6eb737	-0.00091062806
11	0xbaba9e7a	-0.0014237904
12	0x39905b07	0.0002753364
13	0x3aa249b7	0.0012381588
14	0xb9106e7d	-0.0001377407
15	0x3972bf01	0.00023150073
16	0x3814e0ef	3.5495435e-05
17	0x39cb8691	0.00038819437
18	0x3a835813	0.0010020755
19	0x3ac53ce5	0.0015048055
20	0xba812e16	-0.0009855654
21	0x3945b2f5	0.0001885405
22	0x39485a24	0.00019107066
23	0xba52ccef	-0.0008041402
24	0x381aebe8	3.6936166e-05
25	0xbb0e0cb4	-0.0021675052
26	0xb8d6a3af	-0.000102348036
27	0xbaf93d2b	-0.0019015422
28	0x38f8b489	0.00011859189
29	0x3a8c604e	0.0010709853
30	0x39d49850	0.00040549273
31	0xba8396d8	-0.0010039462
32	0xba6e3171	-0.0009086347
33	0x3a8ac91b	0.0010588499
34	0x3a4eb076	0.0007884571
35	0x3743589e	1.16435385e-05
36	0xba18ef17	-0.0005833967
37	0xbaec5d25	-0.001803313
38	0x3abb1dbe	0.0014275832
39	0x3a401448	0.0007327241
40	0xba5a9152	-0.00083376945
41	0xbaa92103	-0.0012903515
42	0xbaf8cb30	-0.0018981453
43	0xba920301	-0.0011139811
44	0x3a4d9644	0.0007842521
45	0x3a141fa9	0.00056504697
46	0x3ae459c4	0.0017421772
47	0xb85a55c1	-5.2055115e-05
48	0x3a842e6c	0.0010084636
49	0xba2fbc14	-0.0006703746
50	0x3a5ec351	0.00084977323
51	0x389dd31a	7.525664e-05
52	0xbaad4bfc	-0.0013221498
53	0x3a1517ee	0.0005687465
54	0x3a11be94	0.00055597094
55	0xb8bcad2f	-8.9967965e-05
56	0xb9ee915b	-0.00045503196
57	0x3a4f9680	0.00079188496
58	0x39d3097d	0.00040252125
59	0xb9d1d62d	-0.0004002316
60	0x3ae0e4be	0.0017158014
61	0x3a11f119	0.00055672374
62	0xb9c5dc7d	-0.00037739045
63	0xbaa055ac	-0.0012232563
64	0xb91ba620	-0.00014843838
65	0x3a315bb5	0.00067656796
66	0x38c4b22d	9.379196e-05
67	0x3a8a0d58	0.0010532541
68	0xba1c3d0b	-0.0005960024
69	0xbb5220d4	-0.0032063024
70	0xb98a6017	-0.00026393004
71	0xb9a140f0	-0.00030756695
72	0xb9147e23	-0.0001416137
73	0x39ae90ef	0.0003329585
74	0x3ad2fd3f	0.0016097202
75	0xbac740bf	-0.0015201791
76	0xba381f2e	-0.0007023689
77	0x3ac24293	0.0014820866
78	0xbaa7621d	-0.0012770329
79	0x38c7338b	9.49866e-05
80	0x3aeefb50	0.0018232856
81	0xba87dc74	-0.0010365383
82	0xba79cf86	-0.00095295196
83	0xbaee3760	-0.0018174462
84	0x395b394f	0.00020906817
85	0x3a45182d	0.0007518556
86	0xb8c6cecb	-9.479894e-05
87	0x3a219c78	0.0006164978
88	0xb8a846da	-8.0240614e-05
89	0xb9e92226	-0.00044466666
90	0xb9daec6c	-0.00041756348
91	0xba07f5d8	-0.0005186475
92	0x3a2c5460	0.0006573852
93	0x3a48c11d	0.00076581707
94	0x3a0a552d	0.00052769744
95	0x3a10c4a6	0.0005522467
96	0xb963de3a	-0.00021731193
97	0xb8ceaa18	-9.854528e-05
98	0x39e365c5	0.00043372638
99	0xba480bf1	-0.0007631174
100	0xbafab61e	-0.0019127761
101	0x3a1041ef	0.0005502989
102	0xba2311c5	-0.00062206044
103	0x3ab39c0e	0.0013703124
104	0xba998c1a	-0.0011714727
105	0x39c6fa06	0.00037951785
106	0xbaac71d5	-0.0013156483
107	0x3a6d0ed2	0.0009043041
108	0xb9a31e65	-0.00031112428
109	0x3925be95	0.00015806624
110	0x3a97671e	0.0011551117
111	0x39bac0c4	0.00035620306
112	0xbaa703f7	-0.001274227
113	0xbaaced6e	-0.0013193318
114	0x3a02e7d6	0.00049936527
115	0xbaf1c558	-0.0018445654
116	0xb92242e1	-0.00015474438
117	0x3a807fee	0.0009803751
118	0xbae9127f	-0.0017782002
119	0xb9d917f1	-0.00041407303
120	0x3846aa4c	4.736548e-05
121	0xba99ee7b	-0.0011744046
122	0x3a5f0961	0.00085081725
123	0xba2591f0	-0.0006315997
124	0xba172a4a	-0.00057664944
125	0x3ab03b98	0.0013445495
126	0x3af60076	0.0018768448
127	0xb889fb1b	-6.579441e-05
128	0x3924af03	0.00015705456
129	0x3a1b7d19	0.0005931422
130	0xb90bbeca	-0.00013327147
131	0xba1efed0	-0.00060651917
132	0xb9964ba7	-0.00028666595
133	0x3a4427b6	0.0007482724
134	0x38f44e87	0.000116494535
135	0x3a360300	0.0006943196
136	0x3a8946df	0.0010473392
137	0x391b4cad	0.00014810516
138	0xba4c1cf0	-0.00077862944
139	0xbab0e15d	-0.0013494898
140	0xb990ac15	-0.0002759403
141	0xba633551	-0.00086673076
142	0xb982a2f7	-0.0002491695
143	0xbaae5907	-0.0013301679
144	0xb9d4434a	-0.00040485925
145	0xba2957a4	-0.0006459898
146	0x3a4af93e	0.00077428285
147	0xba280f60	-0.00064109825
148	0xbaf787f6	-0.0018885124
149	0xba0ddd86	-0.0005411733
150	0x3ac6b960	0.0015161447
151	0x3ac5ad4e	0.0015081556
152	0xb9af0c7b	-0.000333879
153	0xb9a63c2d	-0.00031706822
154	0x3a66ecec	0.0008809108
155	0xb89a854f	-7.368123e-05
156	0x3a2bc4c4	0.00065524527
157	0x39064bbe	0.00012807452
158	0x3a7e7893	0.0009707298
159	0xb8d3d0e5	-0.00010100174

layers.0.egnn.node_mlp.0.bias f4 [8]
0	0x3d497dec	0.049192354
1	0x3e53968d	0.206629
2	0xbc533d67	-0.012893057
3	0x3d10d995	0.035363752
4	0x3a1922be	0.0005841664
5	0x3dc26008	0.09490973
6	0xbcd4ca87	-0.025975479
7	0x3e50f2d5	0.20405133

layers.0.egnn.node_mlp.3.weight f4 [4, 8]
0	0x3a0af094	0.0005300131
1	0xbadcc1f3	-0.0016842469
2	0x3aa590be	0.0012631638
3	0x38f698d8	0.000117586635
4	0x3a3ec56c	0.0007277343
5	0x3aaf2e51	0.0013365244
6	0x3a381a52	0.0007022965
7	0x3aaa2351	0.0012980496
8	0x3a6cafd5	0.00090288866
9	0x39a58724	0.0003157194
10	0x3a8ea853	0.0010883905
11	0xba937793	-0.0011250846
12	0xbb110edb	-0.0022134099
13	0xb9b97d80	-0.00035379454
14	0x397d5708	0.00024160382
15	0xba24fe39	-0.00062939856
16	0xba0e820a	-0.00054362474
17	0xb9a9b518	-0.00032369117
18	0x39c4901a	0.00037491397
19	0x3818bdb8	3.6416313e-05
20	0xba9ffe21	-0.0012206474
21	0x39e65232	0.0004393026
22	0xbafa599a	-0.001910019
23	0xb91ff0e3	-0.00015253159
24	0x3afde31c	0.0019370052
25	0x3a4eb165	0.000788471
26	0x398249d7	0.00024850547
27	0x3ab1de69	0.0013570312
28	0x387471f3	5.8280257e-05
29	0x39ac9582	0.00032917788
30	0x39a0a873	0.00030643083
31	0x3a2ed4f4	0.0006669306

layers.0.egnn.node_mlp.3.bias f4 [4]
0	0x3e6c36bb	0.23067753
1	0xbd5caa5d	-0.05387341
2	0x3e56b760	0.2096839
3	0xbe838e54	-0.25694525

layers.0.egnn.coors_mlp.0.weight f4 [64, 16]
0	0xbe6431b9	-0.22284593
1	0x3e28a5d9	0.16469516
2	0xbe62f974	-0.22165471
3	0xbe7d38fe	-0.24728772
4	0x3e41d720	0.1892972
5	0x3e30f9d5	0.17282803
6	0xbe675ae7	-0.2259327
7	0xbe72514e	-0.23663828
8	0xbe67cb4b	-0.22636144
9	0x3e377796	0.17916712
10	0xbe5fdcef	-0.21861623
11	0x3e4638f7	0.19357668
12	0xbe748ebb	-0.23882572
13	0x3e27b8e2	0.16379121
14	0x3e6424a1	0.22279598
15	0x3e22e2b3	0.15906791
16	0x3e158310	0.14600778
17	0xbe3acbaa	-0.18241754
18	0x3df29b5b	0.11846038
19	0x3e1d8c90	0.15385652
20	0xbe40f699	-0.1884407
21	0xbe3ba89c	-0.18326038
22	0x3e1563b2	0.14588812
23	0x3e1825c0	0.1485815
24	0x3e15c416	0.14625582
25	0xbe3c3cbf	-0.18382548
26	0x3e12e810	0.14346337
27	0xbe450d06	-0.1924325
28	0x3e178807	0.14797984
29	0xbe390237	-0.18067251
30	0xbe43f3b4	-0.19135934
31	0xbe377f2b	-0.17919604
32	0x3b351544	0.0027631084
33	0xbc8b5875	-0.017009953
34	0x3c2765d3	0.010217148
35	0x3c766f10	0.015041128
36	0xbcfd1720	-0.030894816
37	0xbcb2769e	-0.021785077
38	0x3b4ea085	0.0031528783
39	0x3bff388d	0.007788724
40	0x3abe7b1f	0.0014532543
41	0xbcc2571d	-0.02372318
42	0x3b3aacf0	0.0028484426
43	0xbd0660c7	-0.032807138
44	0x3c12020d	0.008911622
45	0xbc8e8fb5	-0.01740251
46	0xbd7164eb	-0.058934133
47	0xbc7e8dfa	-0.01553678
48	0xbcdd3d64	-0.027006812
49	0x3d16811e	0.03674423
50	0xbd154877	-0.03644606
51	0xbd3503d2	-0.044193096
52	0x3d647fee	0.055786066
53	0x3d2c2dda	0.042035915
54	0xbcdeec04	-0.02721215
55	0xbd10112f	-0.035172638
56	0xbcd95e2c	-0.026534162
57	0x3d40fb96	0.04711493
58	0xbcc90561	-0.024538698
59	0x3d7b216e	0.061311178
60	0xbd174a0e	-0.03693586
61	0x3d109ae5	0.03530397
62	0x3dc93804	0.09825137
63	0x3d0d2afc	0.03446482
64	0x3b86c3be	0.0041126898
65	0xbcaad418	-0.020853087
66	0x3c389ca2	0.011267813
67	0x3c88b85c	0.016689472
68	0xbcf8bb1d	-0.03036266
69	0xbca79b27	-0.020459725
70	0x3b8acd5a	0.0042359056
71	0x3c5e3252	0.013561802
72	0x3b8e69b7	0.0043460983
73	0xbcc6c2cd	-0.02426281
74	0x3b5b3f5b	0.003345451
75	0xbd097523	-0.033558976
76	0x3c2dfc8b	0.010619293
77	0xbc84bf10	-0.016204387
78	0xbd78ef5c	-0.060775146
79	0xbc95f867	-0.018306924
80	0xbca31e5b	-0.019911936
81	0x3cfc0542	0.030764226
82	0xbcec978d	-0.028880859
83	0xbd1cd9e7	-0.038293745
84	0x3d4b06c4	0.049567
85	0x3d15704f	0.03648406
86	0xbca5b0cd	-0.020225907
87	0xbcfd3886	-0.030910742
88	0xbca9cb96	-0.02072696
89	0x3d2963e4	0.04135503
90	0xbc9fa491	-0.019487651
91	0x3d5ed54b	0.05440263
92	0xbcf4bd75	-0.029875496
93	0x3d029e58	0.03188929
94	0x3dbdda21	0.092701204
95	0x3cfed187	0.03110577
96	0xbae5c109	-0.0017528842
97	0xbbd3c799	-0.006463003
98	0x3b547f87	0.0032424645
99	0x3ba5f356	0.0050644083
100	0xbc46676a	-0.012109617
101	0xbc149d9b	-0.009070779
102	0xbb76c1e4	-0.003765219
103	0x3ad6c4f3	0.00163856
104	0xbb901fc7	-0.0043983194
105	0xbc2bef83	-0.010494116
106	0xbb212e4f	-0.0024594252
107	0xbc6dadfc	-0.014506813
108	0x3acfc88b	0.0015852613
109	0xbbed1a80	-0.007235825
110	0xbd15c063	-0.036560427
111	0xbbfc2c29	-0.007695694
112	0x3d1a9ad3	0.037745308
113	0xbd7c6eb6	-0.06162902
114	0x3d193a90	0.037409365
115	0x3d67ab14	0.056559637
116	0xbd9a59b4	-0.07536641
117	0xbd83be35	-0.064327635
118	0x3d279275	0.040911157
119	0x3d4d4183	0.050111305
120	0x3d235b46	0.039881967
121	0xbd8fb761	-0.070173986
122	0x3d24dd14	0.0402499
123	0xbda4a378	-0.08038992
124	0x3d4ca120	0.04995835
125	0xbd75478f	-0.059882697
126	0xbdc2b5e5	-0.0950735
127	0xbd741352	-0.059588738
128	0xbe0c11e7	-0.13678704
129	0x3dd09778	0.1018514
130	0xbe1c6a61	-0.15274955
131	0xbe2db298	-0.1696266
132	0x3e0a69a9	0.13516869
133	0x3de7152b	0.11283334
134	0xbe0f9d70	-0.14024901
135	0xbe2762ae	-0.16346237
136	0xbe0b7101	-0.13617326
137	0x3dfb69e4	0.122760564
138	0xbe045f63	-0.12927012
139	0x3e140459	0.14454783
140	0xbe262252	-0.1622403
141	0x3dcf5ea7	0.101254754
142	0x3e421c02	0.18955997
143	0x3dcaded1	0.0990578
144	0xbd8b36fb	-0.06797596
145	0x3d9da054	0.07696596
146	0xbd8bcd90	-0.06826317
147	0xbdaf4a57	-0.08559101
148	0x3dd3acf2	0.10335721
149	0x3dae0dce	0.08498727
150	0xbd90ce71	-0.070706256
151	0xbd9fd8f6	-0.07805054
152	0xbd8f81f1	-0.07007206
153	0x3dbaf8b9	0.09129471
154	0xbd87355e	-0.06601976
155	0x3de2b341	0.11069346
156	0xbda5017e	-0.08056925
157	0x3d9a151e	0.07523559
158	0x3e0f8343	0.14014916
159	0x3d971a54	0.073780686
160	0x3d6ead41	0.058270697
161	0xbd9944e9	-0.07483847
162	0x3d477a22	0.04870046
163	0x3d8253f5	0.0636367
164	0xbdb09b31	-0.086233504
165	0xbda28dd7	-0.0793721
166	0x3d6d9c9b	0.05801068
167	0x3d805352	0.06265892
168	0x3d6c9c26	0.057766102
169	0xbda91b98	-0.08257216
170	0x3d5afd8c	0.053464457
171	0xbdb82c23	-0.089927934
172	0x3d81709e	0.06320308
173	0xbd97cfe7	-0.07412701
174	0xbdbe1e30	-0.092831016
175	0xbd97089b	-0.07374688
176	0x3c113f8f	0.008865251
177	0xbcbede34	-0.023299314
178	0x3c662557	0.014046988
179	0x3cbed117	0.023293061
180	0xbd161a48	-0.036646158
181	0xbcf1326e	-0.029442992
182	0x3c0cd95b	0.008596743
183	0x3c6f5ba9	0.014609256
184	0x3c025f60	0.0079573095
185	0xbcfe36d5	-0.031032005
186	0x3be88426	0.0070958314
187	0xbd1e35d0	-0.03862554
188	0x3c627e35	0.013824035
189	0xbcbfa07e	-0.023391958
190	0xbd8b6bbc	-0.06807658
191	0xbcb42588	-0.021990553
192	0x39acd27c	0.0003296322
193	0xbc703d9f	-0.014663129
194	0x3bde8b6d	0.006791523
195	0x3c28b25f	0.010296433
196	0xbcba31da	-0.02272885
197	0xbc89e5e7	-0.016833259
198	0x39ac5015	0.00032866062
199	0x3baf5183	0.005350293
200	0xbabed5b6	-0.001455954
201	0xbc894d2f	-0.016760437
202	0x3a0cc3f5	0.0005369776
203	0xbcd30c5e	-0.025762733
204	0x3bcb3f37	0.006202604
205	0xbc5d298b	-0.013498674
206	0xbd51e1db	-0.051240783
207	0xbc50be7e	-0.012740729
208	0xbdb03ceb	-0.08605369
209	0x3dbf6ccd	0.09346924
210	0xbda9075d	-0.082533576
211	0xbdd37e7a	-0.10326858
212	0x3df89002	0.12136842
213	0x3dcf63ff	0.101264946
214	0xbdb52979	-0.08845801
215	0xbdc7cdf6	-0.09756081
216	0xbdb17fa9	-0.08666927
217	0x3ddef0d7	0.1088578
218	0xbdacdb81	-0.084403045
219	0x3e0633af	0.13105653
220	0xbdc42172	-0.09576692
221	0x3dba7670	0.091046214
222	0x3e1e77b6	0.15475354
223	0x3db87d7c	0.09008309
224	0xbb7472fc	-0.0037299981
225	0x3c3a4cb2	0.011370825
226	0xbc063554	-0.008191425
227	0xbc48d46e	-0.012257678
228	0x3cc12ad9	0.023580002
229	0x3c659669	0.014012911
230	0xbb029755	-0.0019926627
231	0xbc157963	-0.009123179
232	0xbb97a321	-0.004627601
233	0x3c989a26	0.018628191
234	0xbb601084	-0.0034189532
235	0x3ccbbf81	0.02487159
236	0xbbe042f1	-0.0068439175
237	0x3c5b59dc	0.013388123
238	0x3d80b7ad	0.062850334
239	0x3c451d97	0.012030981
240	0x3c6e1dc2	0.014533462
241	0xbcf961b8	-0.030442104
242	0x3cb4a4a0	0.022051156
243	0x3d06cf4a	0.03291253
244	0xbd36e538	-0.044652194
245	0xbd124b74	-0.03571649
246	0x3c9a943f	0.018869517
247	0x3cdaa380	0.026689291
248	0x3c8e5051	0.017372282
249	0xbd1a5c79	-0.037685845
250	0x3c7a76b0	0.015287086
251	0xbd4ae6d5	-0.049536545
252	0x3cc1744f	0.02361503
253	0xbd014b74	-0.0315661
254	0xbd9a8960	-0.075457335
255	0xbcf80792	-0.030277047

layers.0.egnn.coors_mlp.0.bias f4 [64]
0	0xbe02677b	-0.12734787
1	0x3e23427e	0.15943334
2	0x3e174d9b	0.14775698
3	0xbe102325	-0.14075907
4	0x3dad6cff	0.08468055
5	0xbe07f2e1	-0.13276245
6	0x3cea7e3c	0.028624646
7	0x3e82ef38	0.25573134
8	0xbe888989	-0.2666743
9	0xbe1f6161	-0.15564491
10	0x3de21cfc	0.110406846
11	0x3df3e557	0.119089775
12	0x3d9c8a2b	0.07643541
13	0xbe106d93	-0.14104299
14	0xbe31e6d6	-0.17373213
15	0x3ddf48b3	0.10902538
16	0x3dfa0733	0.122084044
17	0x3c851f26	0.016250204
18	0xbe6cae23	-0.23113303
19	0x3e65225e	0.22376391
20	0x3e4cad70	0.19988036
21	0x3db6f1c2	0.089328304
22	0x3ddeec77	0.10884946
23	0x3e08e355	0.1336797
24	0x3df0b244	0.117527515
25	0x3e1e3317	0.15449177
26	0x3e45ddce	0.19322893
27	0xbdeda40d	-0.11603556
28	0x3e5c9734	0.21542054
29	0xbdfdeaf6	-0.12398331
30	0xbd684e42	-0.056715257
31	0xbe4d2c1d	-0.20036359
32	0x3d08f17f	0.033433434
33	0xbe0eac8f	-0.13933013
34	0xbe50a2ca	-0.20374599
35	0xbe059e83	-0.13048749
36	0xbe618bc1	-0.22025968
37	0xbe4ebcb1	-0.20189168
38	0xbc797fac	-0.015228193
39	0x3e6851fb	0.22687523
40	0x3d79bee9	0.06097308
41	0xbdfa56b7	-0.12223571
42	0xbe32d2ad	-0.17463179
43	0xbc884329	-0.016633587
44	0xbe852576	-0.26005143
45	0xbe338d4f	-0.17534374
46	0xbdc5e484	-0.096627265
47	0x3e1445dd	0.14479776
48	0x3dc3d805	0.09562687
49	0xbe1f2d2a	-0.15544572
50	0x3e5bf020	0.21478319
51	0xbd00f641	-0.031484846
52	0xbd5a7e5f	-0.053343173
53	0xbd85bcbe	-0.0653014
54	0xbe97660e	-0.2957005
55	0x3d974e13	0.07387938
56	0x3e407689	0.18795218
57	0x3d76bc53	0.060238194
58	0xbd94cc84	-0.07265571
59	0xbdae4a70	-0.085102916
60	0x3e6b041b	0.22950785
61	0x3e2148e4	0.15750462
62	0x3e6c509c	0.23077625
63	0x3e4e87b6	0.20168957

layers.0.egnn.coors_mlp.3.weight f4 [1, 64]
0	0x3e01e65a	0.12685528
1	0xbe152777	-0.14565836
2	0xbc0511c5	-0.008121912
3	0x3c25dd8f	0.0101236245
4	0xbbf5d010	-0.0075016096
5	0x3c1f1e01	0.009711743
6	0xbb8494b5	-0.0040460476
7	0xbc2b17a8	-0.010442652
8	0x3c71491f	0.014726906
9	0x3c5aad2b	0.0133469505
10	0xbc502778	-0.012704723
11	0xbc07e0ac	-0.008293312
12	0xbbe3f360	-0.006956503
13	0x3c803dba	0.015654434
14	0x3c0012d8	0.007816993
15	0xbc0a6646	-0.008447235
16	0xbc12ac77	-0.008952252
17	0xbc8e91b3	-0.01740346
18	0x3c222f91	0.009899036
19	0xbc2d739a	-0.010586644
20	0xbc1fd5b3	-0.00975554
21	0xbc007ec0	-0.00784272
22	0xbc130ac6	-0.008974737
23	0xbc102cc8	-0.008799739
24	0xbc0f2d52	-0.008738833
25	0xbc124e51	-0.008929805
26	0xbc10e34b	-0.008843253
27	0x3c2487c1	0.010042132
28	0xbc0598b1	-0.00815408
29	0x3c0d6766	0.008630609
30	0x3d262738	0.040564746
31	0x3c3610bf	0.011112391
32	0xbb905ce2	-0.0044056037
33	0x3c08aad8	0.008341514
34	0x3c11479e	0.0088671725
35	0x3c3918e9	0.011297443
36	0x3c18d646	0.0093284305
37	0x3c2aa0fb	0.010414357
38	0x3a0460d8	0.0005049831
39	0xbc346645	-0.011010711
40	0xbd29f037	-0.041488852
41	0x3c4abdc2	0.012374343
42	0x3c1b82ab	0.009491603
43	0x39e73559	0.000440995
44	0x3c326583	0.01088846
45	0x3c141b25	0.009039675
46	0x3c1824f6	0.009286156
47	0xbc104d41	-0.008807481
48	0xbc06e054	-0.008232195
49	0x3c207930	0.009794518
50	0xbc29cca2	-0.01036373
51	0x3c990991	0.01868132
52	0x3c0e0363	0.0086678
53	0x3bfc3cf8	0.0076976977
54	0x3c522484	0.012826089
55	0xbbea0be8	-0.0071425326
56	0xbc21c636	-0.009873917
57	0xbbe20e7c	-0.0068986993
58	0x3be4bf34	0.006980801
59	0x3c03094d	0.007997823
60	0xbc4b0998	-0.012392424
61	0xbc1723c2	-0.009224834
62	0xbbfd49e8	-0.0077297576
63	0xbc3835e6	-0.011243319

layers.0.egnn.vel_mlp.0.weight f4 [16, 4]
0	0x3b2aec3a	0.0026080743
1	0x3b9a6752	0.004712024
2	0xbb3934ea	-0.00282603
3	0x38c5574c	9.409952e-05
4	0xbaa1efc3	-0.001235478
5	0xba98f186	-0.0011668659
6	0xba88eb9b	-0.0010446192
7	0xba0b486a	-0.000531322
8	0xba9f8e8d	-0.0012173221
9	0xba419fb1	-0.00073861616
10	0x3ada2c41	0.0016645269
11	0x3b1bc33b	0.002376749
12	0x3a367265	0.0006959795
13	0x3af79037	0.0018887584
14	0xba03b56c	-0.00050242874
15	0x3ac22f31	0.001481509
16	0xbb690fae	-0.0035562324
17	0xbb98c927	-0.004662651
18	0x3a4e8cb6	0.0007879244
19	0xbb175807	-0.002309324
20	0x39877457	0.00025835886
21	0x3930fc0b	0.00016878561
22	0xbb35c26b	-0.002773429
23	0xba09a6ee	-0.000525101
24	0x3af6f9ac	0.0018842719
25	0x3abcb902	0.0014398398
26	0x39214088	0.00015378196
27	0xb924c3fc	-0.00015713269
28	0x3b450235	0.003006113
29	0x3adac9f9	0.0016692273
30	0xbb177e14	-0.002311592
31	0xba316efa	-0.0006768551
32	0xbae0c32c	-0.001714801
33	0xbb14940c	-0.002267125
34	0xb83b59f4	-4.466805e-05
35	0xbb3ae232	-0.002851617
36	0xbb979c4f	-0.0046267877
37	0xbbd80a16	-0.006592999
38	0xba401fe3	-0.000732897
39	0xbb64a073	-0.0034885674
40	0xbb474b0c	-0.0030409722
41	0xbb8cd9a3	-0.0042984053
42	0x3b1fcf96	0.0024385205
43	0x39b6aa34	0.00034840556
44	0xbaca0543	-0.0015412945
45	0xba912989	-0.0011075
46	0xb9685f79	-0.0002216081
47	0xba161ca3	-0.0005726313
48	0x3a1cf50c	0.00059874426
49	0xba1c5e3b	-0.0005964969
50	0x3a0cf4a0	0.0005377028
51	0xba49a564	-0.00076921866
52	0xbba32097	-0.0049782502
53	0xbc31c2a4	-0.010849629
54	0x3b2953c9	0.0025837293
55	0xbbe2d1b3	-0.0069219708
56	0x3ad473fe	0.0016208885
57	0x392f97b1	0.0001674581
58	0x3b7d4a61	0.003864907
59	0xb9825b0b	-0.00024863365
60	0x3b0e3b9e	0.0021703015
61	0x3b32a8b4	0.00272612
62	0xba2682cf	-0.00063518895
63	0x3a8f694e	0.0010941417

layers.0.egnn.vel_mlp.0.bias f4 [16]
0	0xbdd931ac	-0.10605177
1	0x3e4289a3	0.18997817
2	0x3e6342da	0.2219347
3	0xbe2dc3ab	-0.16969173
4	0x3c9a2370	0.018815726
5	0xbed123c7	-0.40847608
6	0xbe6e078c	-0.23245066
7	0x3ec1c468	0.3784516
8	0x3da6e20f	0.08148586
9	0x3e1bdad0	0.15220189
10	0xbe8b5cef	-0.2721934
11	0x3e3fd493	0.18733434
12	0x3ec0a3b8	0.37624907
13	0x3e0a4af7	0.1350516
14	0x3e757457	0.23970161
15	0xbe5b0da4	-0.21391922

layers.0.egnn.vel_mlp.3.weight f4 [1, 16]
0	0x3b05ac8e	0.002039704
1	0xb9d2351a	-0.00040093885
2	0xb9eb013a	-0.00044823607
3	0x3a58a440	0.0008264221
4	0xbb27214d	-0.0025502027
5	0x3a306767	0.00067292753
6	0x3a7ae8e8	0.0009571449
7	0x3af63c8a	0.0018786353
8	0xbab97955	-0.001415054
9	0xbb25843a	-0.0025255815
10	0xbb06404e	-0.0020485106
11	0xba432222	-0.0007443746
12	0xb91ec189	-0.00015140152
13	0xbbc76642	-0.006085188
14	0xb9fd8631	-0.000483559
15	0x3aecca45	0.0018065652

layers.1.egnn.edge_mlp.0.weight f4 [20, 10]
0	0xbccaad80	-0.024740934
1	0x3cd734e1	0.026270332
2	0xbcd5dc46	-0.026106011
3	0xbcc97d05	-0.024595747
4	0x3c0a8447	0.008454389
5	0x3ccc69a2	0.024952713
6	0xbcf2bacf	-0.029630093
7	0xbc9a3221	-0.018822731
8	0xbb43c3dd	-0.0029871382
9	0xbcf22a12	-0.029561076
10	0xbcde058b	-0.027102252
11	0x3cd26622	0.025683466
12	0xbce152d0	-0.027505308
13	0xbccacd84	-0.0247562
14	0x3bc33bc8	0.005958054
15	0x3cceb951	0.02523485
16	0xbce5d9dc	-0.028057985
17	0xbc99ee41	-0.018790366
18	0xbb839e4f	-0.0040166746
19	0xbcea62a6	-0.028611492
20	0x3c51d4c3	0.012807074
21	0xbc9e202a	-0.019302446
22	0x3ca8b029	0.020591812
23	0x3c889ca5	0.016676256
24	0xbbb425f8	-0.0054976903
25	0xbc947475	-0.018121937
26	0x3c9e8222	0.019349162
27	0x3c565eeb	0.013084154
28	0x3b86d0e2	0.0041142562
29	0x3cad443c	0.0211507
30	0x3c77f862	0.015134903
31	0xbc92674f	-0.017871527
32	0x3c9bcc94	0.019018449
33	0x3c964b1a	0.018346358
34	0xbbab6591	-0.0052306135
35	0xbc88c846	-0.01669706
36	0x3c9773ce	0.018487837
37	0x3c31be2a	0.010848561
38	0x3b43b329	0.0029861426
39	0x3c9d5243	0.019204265
40	0xbcc45e38	-0.023970708
41	0x3cc797f0	0.024364442
42	0xbcc78b84	-0.024358518
43	0xbcc712ad	-0.024300897
44	0x3be05e60	0.006847188
45	0x3cce3ab4	0.025174476
46	0xbce8a88f	-0.028400688
47	0xbca21931	-0.019787403
48	0xbb0f706e	-0.0021887082
49	0xbcd76b95	-0.026296416
50	0xbcbd166c	-0.02308198
51	0x3ccb9466	0.024851035
52	0xbcd62f3a	-0.026145566
53	0xbccf90ce	-0.025337603
54	0x3ad970d4	0.0016589412
55	0x3cc67638	0.024226293
56	0xbcdd2b63	-0.026998227
57	0xbc992dea	-0.018698651
58	0xbbb9da7e	-0.0056717983
59	0xbce7e3d8	-0.028306887
60	0x3c5a69c6	0.013330882
61	0xbc9fe308	-0.019517437
62	0x3cab9a27	0.020947529
63	0x3c97b689	0.018519657
64	0xbc0db72e	-0.0086496305
65	0xbc9645cb	-0.018343827
66	0x3caf1dbb	0.021376481
67	0x3c717f80	0.014739871
68	0x3b814422	0.0039448896
69	0x3caf2512	0.021379981
70	0x3c567943	0.0130904345
71	0xbca1b25c	-0.019738369
72	0x3c8cfba8	0.017209843
73	0x3c8026e0	0.015643537
74	0xbc18a31c	-0.009316232
75	0xbc736c00	-0.014857292
76	0x3ca47a35	0.020077804
77	0x3c4ce081	0.012504698
78	0x3b3f5dea	0.0029200264
79	0x3ca499f5	0.020092944
80	0xbcdf8e68	-0.027289584
81	0x3ccb1601	0.024790766
82	0xbce7220b	-0.028214475
83	0xbcc76a86	-0.024342787
84	0x3bbd6808	0.0057802238
85	0x3cd0af32	0.025474165
86	0xbce05b57	-0.027387304
87	0xbc8f98bc	-0.017528884
88	0xbb363752	-0.002780397
89	0xbce40586	-0.027834665
90	0x3c6714a6	0.014104044
91	0xbc8929cd	-0.016743565
92	0x3c9471c3	0.018120652
93	0x3c96aa7f	0.018391846
94	0xbbfc5283	-0.007700266
95	0xbc88b5f7	-0.01668833
96	0x3ca0403f	0.019561885
97	0x3c61c1dd	0.013779131
98	0x3af1945e	0.0018431058
99	0x3caeb7a9	0.02132781
100	0xbcbe62a0	-0.023240387
101	0x3cdc135c	0.0268647
102	0xbcefa60c	-0.029253982
103	0xbcd38388	-0.025819555
104	0x3bb59dac	0.0055424776
105	0x3ccb83e6	0.024843168
106	0xbcee3718	-0.029079005
107	0xbc9f5150	-0.019447953
108	0xbb83b9a5	-0.0040199333
109	0xbcecfc5b	-0.028928926
110	0xbce0eb44	-0.027455933
111	0x3cdb8cc1	0.026800515
112	0xbceda4aa	-0.029009182
113	0xbccf1024	-0.025276251
114	0x3bdfcea7	0.006830055
115	0x3cdb9ca2	0.026808087
116	0xbcfbfc47	-0.030759944
117	0xbc9cd57b	-0.019144764
118	0xbb8f0372	-0.0043644244
119	0xbce98d7c	-0.028509848
120	0x3c76416a	0.015030244
121	0xbc9a36bd	-0.01882493
122	0x3c9176b2	0.017756794
123	0x3c82bb56	0.01595847
124	0xbbf87f19	-0.0075835106
125	0xbc874436	-0.016512018
126	0x3ca58078	0.02020286
127	0x3c4fdda4	0.012687121
128	0x3ba23cab	0.00495108
129	0x3c9fe608	0.019518867
130	0x3c797110	0.01522471
131	0xbc9257a1	-0.01786405
132	0x3c9f08d4	0.01941339
133	0x3c9d5eb7	0.019210203
134	0xbc14ce59	-0.0090824
135	0xbca00aa9	-0.019536333
136	0x3ca926a8	0.020648316
137	0x3c6eb931	0.01457052
138	0x3aa4d4ce	0.0012575628
139	0x3ca92f7e	0.020652529
140	0x3c47e3b7	0.012200288
141	0xbc926748	-0.017871514
142	0x3c996256	0.018723648
143	0x3c8b70f6	0.017021637
144	0xbbc3ee03	-0.005979301
145	0xbc898528	-0.016787127
146	0x3c942c17	0.01808743
147	0x3c59cd8a	0.013293633
148	0x3bb0a311	0.005390533
149	0x3cacc045	0.021087775
150	0x3c74c5d4	0.014939744
151	0xbc8db97a	-0.017300356
152	0x3c9f6d90	0.019461423
153	0x3c9a29a2	0.01881868
154	0xbbcbb8fb	-0.0062171197
155	0xbc9b8ff9	-0.01898955
156	0x3c935600	0.017985344
157	0x3c3bc166	0.011459684
158	0x3ac6acd0	0.0015157703
159	0x3c9eb2c8	0.019372359
160	0x3c829aa9	0.015942888
161	0xbca55265	-0.02018089
162	0x3ca93184	0.020653494
163	0x3c94ae95	0.018149653
164	0xbc11d50a	-0.00890089
165	0xbc845a52	-0.01615635
166	0x3ca829b7	0.020527704
167	0x3c6c2a4a	0.014414379
168	0x3b2e4332	0.0026590344
169	0x3cacb459	0.02108209
170	0xbcd67462	-0.026178543
171	0x3cdbaa6b	0.02681466
172	0xbce9d2a3	-0.028542822
173	0xbcd4a544	-0.025957711
174	0x3bccf8cd	0.0062552453
175	0x3cc6703e	0.024223443
176	0xbce3c7e5	-0.027805278
177	0xbca3c357	-0.019990606
178	0xbb3c91fc	-0.0028773537
179	0xbce5691e	-0.028004225
180	0x3c544e69	0.012958148
181	0xbc9a4463	-0.018831437
182	0x3c9e57cd	0.019328976
183	0x3c869403	0.016428
184	0xbc29e1ea	-0.0103688035
185	0xbc866208	-0.016404167
186	0x3ca39af8	0.019971356
187	0x3c553b5b	0.01301464
188	0x3a62baa6	0.00086490286
189	0x3cb6af6f	0.02230045
190	0xbcd662b9	-0.026170122
191	0x3cd7e8d7	0.026356144
192	0xbce4aa50	-0.027913243
193	0xbccc1b0b	-0.024915239
194	0x3bccce3d	0.0062501715
195	0x3cc8cd3b	0.024511924
196	0xbce1853d	-0.027529353
197	0xbca29965	-0.019848535
198	0xbb2765fd	-0.0025542967
199	0xbce7ae28	-0.028281286

layers.1.egnn.edge_mlp.0.bias f4 [20]
0	0xbe631bf4	-0.22178632
1	0xbea50c1e	-0.32235807
2	0x3d3bf98f	0.045892294
3	0x3d8042dc	0.062627524
4	0xbe46affd	-0.19403072
5	0xbd51194d	-0.05104952
6	0x3e7046d8	0.23464525
7	0x3e35772b	0.1772124
8	0xbe957ec3	-0.29198274
9	0x3de9b573	0.11411562
10	0xbddce20f	-0.10785305
11	0xbea0974c	-0.3136543
12	0x3e07f23c	0.13275999
13	0x3e814560	0.2524824
14	0x3d05b2d4	0.032641247
15	0x3de24bc2	0.11049606
16	0x3e88f9a9	0.26752976
17	0xbe970b55	-0.29500833
18	0x3e7f9bf8	0.24961841
19	0xbe7be490	-0.24598908

layers.1.egnn.edge_mlp.3.weight f4 [16, 20]
0	0x3cf879f1	0.030331584
1	0x3cefa402	0.02925301
2	0xbca108bb	-0.019657483
3	0xbca0d768	-0.019633964
4	0x3cd31d53	0.025770819
5	0x3cb933ab	0.022607645
6	0xbcd691b3	-0.026192522
7	0xbcb4b034	-0.022056676
8	0x3cee34e2	0.02907795
9	0xbcb8563a	-0.022502054
10	0x3cce8be6	0.025213193
11	0x3cf7ab07	0.03023292
12	0xbcad84ad	-0.021181429
13	0xbcd896e1	-0.026439132
14	0xbc93fc3b	-0.018064609
15	0xbcb377f8	-0.021907791
16	0xbcdb89bb	-0.026799073
17	0x3cf3946a	0.029733855
18	0xbcd660d1	-0.026169213
19	0x3ce5ecda	0.028067041
20	0xbccbba9e	-0.02486926
21	0xbcd32b37	-0.025777442
22	0x3c83b6f0	0.016078442
23	0x3c8f8904	0.017521389
24	0xbcb99cc4	-0.02265776
25	0xbc824fee	-0.015907254
26	0x3cb354bb	0.021890989
27	0x3ca42e97	0.020041747
28	0xbcc43ae3	-0.02395386
29	0x3ca63011	0.020286592
30	0xbcb41392	-0.021981988
31	0xbce45856	-0.027874153
32	0x3ca55e5b	0.020186594
33	0x3cb08f38	0.021552667
34	0x3c9047cc	0.01761236
35	0x3ca4bad2	0.020108614
36	0x3cb4e925	0.022083828
37	0xbcca2ed8	-0.02468054
38	0x3ccada77	0.024762375
39	0xbcd71b1c	-0.026258044
40	0x3cdbd77d	0.026836151
41	0x3ce97ed3	0.028502857
42	0xbc948517	-0.018129868
43	0xbc9d8bb2	-0.019231651
44	0x3ce18f14	0.027534045
45	0x3cac7bbc	0.021055095
46	0xbcbfaec7	-0.02339877
47	0xbcb35634	-0.02189169
48	0x3ce874a2	0.028375927
49	0xbcbfdedc	-0.023421697
50	0x3cbae770	0.022815436
51	0x3ccbc6da	0.024875093
52	0xbca5519b	-0.020180514
53	0xbcbeaa7e	-0.023274656
54	0xbc97aad3	-0.018514073
55	0xbcbe827a	-0.023255575
56	0xbcd04102	-0.025421623
57	0x3ce5d907	0.028057588
58	0xbcc8f5c3	-0.02453125
59	0x3cd55545	0.026041636
60	0xbcb63e1c	-0.022246413
61	0xbcc30627	-0.023806645
62	0x3c8c8dd5	0.017157475
63	0x3c951493	0.018198287
64	0xbcba9089	-0.022773998
65	0xbc9e316d	-0.019310677
66	0x3ca3ea01	0.020009043
67	0x3ca0cd0a	0.01962902
68	0xbccb61c6	-0.024826895
69	0x3ca2099d	0.019779975
70	0xbcaa760a	-0.020808239
71	0xbcc1324e	-0.023583557
72	0x3c95f30b	0.018304368
73	0x3cbbb22a	0.022912104
74	0x3c6c3ae0	0.014418334
75	0x3ca7c7e8	0.020481065
76	0x3ca9abc2	0.020711783
77	0xbcd72191	-0.026261123
78	0x3cb0b018	0.021568343
79	0xbcd9527e	-0.026528593
80	0x3ce06016	0.027389567
81	0x3cecda5b	0.028912714
82	0xbc91de23	-0.017806118
83	0xbc9d24fe	-0.019182678
84	0x3ce531fa	0.027977932
85	0x3cb2e401	0.021837236
86	0xbcd99c98	-0.026563928
87	0xbcc4ce0a	-0.024024028
88	0x3cef8d17	0.029242082
89	0xbcb13e64	-0.021636195
90	0x3cda77ab	0.02666839
91	0x3cfb7704	0.0306964
92	0xbcb66da3	-0.022269076
93	0xbcc8d535	-0.024515728
94	0xbc976a66	-0.018483352
95	0xbcc3fcd0	-0.023924261
96	0xbccae8dc	-0.02476924
97	0x3ce5ef2e	0.028068151
98	0xbcdb799e	-0.02679139
99	0x3ce7305f	0.028221307
100	0x3ce47e48	0.027892247
101	0x3ce99c14	0.028516807
102	0xbca45f28	-0.020064905
103	0xbca1d4e9	-0.019754844
104	0x3cea8e46	0.028632294
105	0x3ca9bbee	0.020719495
106	0xbcdf8635	-0.027285675
107	0xbcc4f53f	-0.024042724
108	0x3cf577f5	0.029964427
109	0xbca3aa6e	-0.019978728
110	0x3ccfa217	0.025345845
111	0x3cfad3f7	0.03061865
112	0xbcc18946	-0.023625027
113	0xbcd7cd68	-0.026343063
114	0xbc90366c	-0.017604075
115	0xbcaa4634	-0.020785429
116	0xbcd7f30e	-0.026361015
117	0x3cf31b05	0.02967597
118	0xbcd18f73	-0.025581097
119	0x3ce10d37	0.027472122
120	0xbcc84c7f	-0.024450539
121	0xbcd3fbb5	-0.02587686
122	0x3c88cc33	0.016698932
123	0x3c821f7a	0.01588415
124	0xbcc1a7f2	-0.023639653
125	0xbc922321	-0.017839016
126	0x3ca4f9a3	0.020138567
127	0x3ca84348	0.020539895
128	0xbcd9ed9c	-0.026602559
129	0x3c951c72	0.01820204
130	0xbcace05f	-0.021103082
131	0xbcc7c8ae	-0.024387684
132	0x3c9a5cc9	0.018843072
133	0x3cac1f2b	0.021010956
134	0x3c8458c7	0.016155614
135	0x3c96fe01	0.018431665
136	0x3cadca58	0.02121465
137	0xbccd55c6	-0.025065314
138	0x3cb0cfb2	0.021583412
139	0xbcc7328b	-0.024316093
140	0x3cf23932	0.029568288
141	0x3cf1bca5	0.029508898
142	0xbc9198ad	-0.017772997
143	0xbca9d943	-0.020733481
144	0x3ce8fb69	0.028440194
145	0x3cb7d6f9	0.022441374
146	0xbcd7691f	-0.026295243
147	0xbcc7cd8e	-0.024390008
148	0x3cf4124f	0.029793886
149	0xbcc4374c	-0.023952149
150	0x3cc50912	0.024052177
151	0x3d033aae	0.032038383
152	0xbcbee452	-0.023302231
153	0xbcdd64ed	-0.027025664
154	0xbc9d7218	-0.019219443
155	0xbcb56095	-0.02214078
156	0xbce40245	-0.027833113
157	0x3cf32969	0.029682832
158	0xbce6a01f	-0.028152524
159	0x3cf15f5b	0.029464414
160	0xbcbd14a1	-0.023081126
161	0xbccd3635	-0.025050262
162	0x3c910da1	0.017706694
163	0x3c9562a4	0.018235512
164	0xbcc3a795	-0.02388362
165	0xbcac806d	-0.021057332
166	0x3cb3d965	0.021954248
167	0x3cbcc7f0	0.023044556
168	0xbcd84814	-0.026401557
169	0x3ca2dcb6	0.019880634
170	0xbcb6b618	-0.022303626
171	0xbcdca643	-0.026934749
172	0x3cae99ed	0.021313632
173	0x3cb50696	0.022097867
174	0x3c71cc37	0.014758161
175	0x3ca7397e	0.020413157
176	0x3cc66831	0.024219604
177	0xbcd6786e	-0.026180472
178	0x3cb7acc8	0.022421256
179	0xbcd19f26	-0.025588583
180	0xbcc651d7	-0.024208946
181	0xbcca949b	-0.024729064
182	0x3c8b6098	0.017013833
183	0x3c96d800	0.018413544
184	0xbcc68036	-0.024231058
185	0xbc8612c8	-0.016366377
186	0x3cb7dcd9	0.022444176
187	0x3cb2e8ac	0.021839462
188	0xbce0040d	-0.027345682
189	0x3cabe615	0.020983735
190	0xbcb02942	-0.021504048
191	0xbcd87d59	-0.026426958
192	0x3ca2ecf7	0.019888384
193	0x3cb89403	0.022531515
194	0x3c86c613	0.016451871
195	0x3c9fe193	0.019516742
196	0x3ccb8096	0.024841588
197	0xbcd76eda	-0.026297975
198	0x3cc68d10	0.024237186
199	0xbcc2ca49	-0.023778098
200	0x3ced8ece	0.028998759
201	0x3cf98610	0.030459434
202	0xbca3cf28	-0.01999624
203	0xbca1b158	-0.019737884
204	0x3cdf0acb	0.027226826
205	0x3cab3d86	0.02090336
206	0xbcc64230	-0.024201483
207	0xbcd013e0	-0.025400102
208	0x3ce1b49d	0.027551943
209	0xbcbbd46f	-0.022928445
210	0x3cb8f206	0.022576343
211	0x3cf0644e	0.029344704
212	0xbcbd248c	-0.023088716
213	0xbcd7a4c4	-0.026323684
214	0xbc8b7e8e	-0.01702812
215	0xbcbb6c9c	-0.022878937
216	0xbcd6395a	-0.026150394
217	0x3ce0c8f2	0.027439568
218	0xbcc2e6fd	-0.023791784
219	0x3cdf1faf	0.027236788
220	0xbcd3d71d	-0.02585941
221	0xbcc90763	-0.024539655
222	0x3c8b87d9	0.01703255
223	0x3c917fe2	0.017761175
224	0xbcb9efe5	-0.022697398
225	0xbca57cfa	-0.020201195
226	0x3cbfbc7c	0.023405306
227	0x3cb9dc7e	0.022688147
228	0xbcbf953f	-0.023386596
229	0x3ca5c255	0.020234266
230	0xbcb70fd0	-0.022346407
231	0xbccc357a	-0.024927843
232	0x3ca2ee89	0.019889133
233	0x3cc32c81	0.023824932
234	0x3c8b4b76	0.017003756
235	0x3ca7a8e6	0.02046628
236	0x3cc0292f	0.023457138
237	0xbcd33dae	-0.025786247
238	0x3cbd738a	0.023126382
239	0xbcc5fa52	-0.024167214
240	0xbcc3d68c	-0.023906015
241	0xbcdbee5f	-0.026847063
242	0x3c95902c	0.018257223
243	0x3c8f6e7f	0.017508743
244	0xbcd07498	-0.025446221
245	0xbc9cc677	-0.019137604
246	0x3caf630f	0.02140954
247	0x3ca27bdd	0.019834453
248	0xbcc488a7	-0.023990942
249	0x3c95e0a7	0.0182956
250	0xbcb01e0f	-0.021498708
251	0xbcc345ee	-0.023837056
252	0x3ca196f1	0.019725295
253	0x3cb8516b	0.02249976
254	0x3c7c38fe	0.015394447
255	0x3c9cf7ca	0.019161124

layers.1.egnn.edge_mlp.3.bias f4 [16]
0	0xbe65d75f	-0.22445439
1	0x3dfc658c	0.12324056
2	0xbd38b390	-0.04509312
3	0x3e5ea5a3	0.21742873
4	0xbe511d60	-0.20421362
5	0xbe1265e4	-0.1429668
6	0x3de9996b	0.11406215
7	0xbe812019	-0.252198
8	0x3e806710	0.2507863
9	0x3e74fe7b	0.23925202
10	0xbe7710a5	-0.24127443
11	0x3d6ebe9c	0.058287248
12	0x3e4915b5	0.19637187
13	0x3d7ff2e2	0.06248749
14	0x3e5608ae	0.20901749
15	0xbe6ce264	-0.23133236
