experiments/models/model_N20_batch32_lr0.0001_fd4_b0.7.pth (torch, 30922 bytes, 32 tensors)

time_embedding.0.weight f4 [8, 1]
000000 0d f6 68 be f0 79 25 3e 20 b8 8d bd 78 bf 25 3e
       -0.22750111 0.16159797 -0.06919885 0.16186321
000010 09 24 1b bf b9 10 1e bf 38 e6 30 be 42 51 45 bb
       -0.6060186 -0.61744267 -0.17275321 -0.0030108248

time_embedding.0.bias f4 [8]
000000 0c 93 0f 3f 88 d3 48 be bc 72 76 bf 8c a1 fd be
       0.5608375 -0.19611943 -0.9626882 -0.49537313
000010 4e e3 62 3f 18 14 0d 3e cc 02 c9 be 39 c0 80 3e
       0.8862809 0.13777196 -0.39259946 0.25146654

time_embedding.3.weight f4 [4, 8]
000000 b7 16 e7 3d bc ff eb bc 3d b4 ae 3d 02 85 a4 be
       0.112836294 -0.028808467 0.085304715 -0.32132727
000010 51 6a 2f 3d 10 23 d1 3d f6 d3 77 3d 5b 1a 7d 3c
       0.042826 0.10211766 0.060504876 0.015448178
000020 8e 46 bc 3a a0 fc a2 be c2 6b a2 be 84 e2 59 3e
       0.0014364289 -0.31833363 -0.31722838 0.21277815
000030 7e 6d 08 3e f1 25 04 3e dd ad 52 be dd d6 3a be
       0.13323018 0.12905098 -0.20574136 -0.18246026
000040 0f 58 cf bb ef 8f 69 bd ee c4 8b bd 46 db 38 be
       -0.006327636 -0.05702203 -0.06824671 -0.18052396
000050 a7 29 e5 bc b3 e6 b9 be e9 33 82 3e d1 48 4d bd
       -0.027973963 -0.36308822 0.2543023 -0.05011827
000060 33 4b a0 bd 72 23 91 3e c2 3a 80 be 0b ae 90 3e
       -0.07826843 0.28347355 -0.2504483 0.28257784
000070 59 f6 7e 3d 16 18 7a bd e5 a8 cd 3d 10 3a 1d be
       0.062246654 -0.061058126 0.1004198 -0.1535418

time_embedding.3.bias f4 [4]
000000 16 f4 8a 3e c4 3c 01 bf 95 a3 ca be 34 ab ea 3e
       0.27139348 -0.50483346 -0.39577928 0.45833743

layers.0.egnn.edge_mlp.0.weight f4 [20, 10]
000000 e7 53 19 be 62 01 1d 3e 02 59 1a 3e f9 cd 1a be
       -0.14973412 0.15332559 0.15073016 -0.15117635
000010 2a a9 18 be 03 2e 1b 3e cf 3f 1a 3e 4a dc 19 be
       -0.14908281 0.15154271 0.15063404 -0.1502544
000020 04 e3 67 be 25 1b 21 be 84 59 b1 3d 03 c7 bb bd
       -0.22645193 -0.15733011 0.08659652 -0.09168818
000030 fc 8e af bd be 59 b8 3d 20 50 b8 3d 1e b5 bc bd
       -0.08572194 0.09001492 0.08999658 -0.09214233
000040 93 61 b8 bd 8d 5d b7 3d f8 7e 82 3d 01 17 b2 3d
       -0.09002986 0.0895339 0.063718736 0.08695794
000050 db f9 a8 3d 62 7f b6 bd f3 62 af bd ea 89 b5 3d
       0.08250781 -0.08911015 -0.08563795 0.08864196
000060 d9 1f b8 3d 0c e2 b8 bd 12 0b b2 bd 13 84 b3 3d
       0.089904495 -0.0902749 -0.08693518 0.087654255
000070 0c db 88 3d fc 92 aa 3d 5a 3f 28 be 34 f3 25 3e
       0.06682405 0.08328816 -0.16430417 0.16206056
000080 89 a2 28 3e 6f 77 25 be de 02 22 be e4 7b 26 3e
       0.16468252 -0.16158842 -0.15821406 0.16258198
000090 e8 04 24 3e 16 b8 25 be 04 5a 8e be 6d 35 2a be
       0.16017497 -0.16183504 -0.2780305 -0.16621943
0000a0 9e 85 25 be 72 7a 21 3e 75 e1 25 3e 4d 90 23 be
       -0.16164252 0.15769365 0.16199286 -0.15973015
0000b0 ba 26 20 be fe 31 23 3e 5b 91 24 3e e5 15 26 be
       -0.15639773 0.1593704 0.16071074 -0.1621929
0000c0 d7 3a 8e be 0a 03 29 be 8d 55 15 be d1 60 16 3e
       -0.27779266 -0.16505066 -0.14583416 0.1468537
0000d0 24 d7 14 3e e2 51 15 be a8 5e 12 be 04 75 18 3e
       0.14535195 -0.14582017 -0.14293921 0.14888388
0000e0 47 5b 13 3e 1f 99 13 be e5 6b 58 be 7f 24 1a be
       0.14390288 -0.1441388 -0.21134908 -0.15052985
0000f0 e2 b5 b5 3d c2 10 c6 bd 53 66 b9 bd 11 8c bf 3d
       0.08872582 -0.09671165 -0.0905272 0.093528874
000100 24 6b c3 3d a9 fa c5 bd c3 4f c4 bd 96 e9 bd 3d
       0.0954192 -0.0966695 -0.09585526 0.092730686
000110 43 21 3e 3d 1b f0 b7 3d 32 63 07 be 3a ec 09 3e
       0.04641844 0.08981343 -0.13221434 0.1346902
000120 12 3a 07 3e f6 e7 08 be 48 92 05 be 93 cb 0a 3e
       0.13205746 -0.13369736 -0.13044083 0.1355422
000130 49 2a 07 3e bb ca 08 be 23 77 4b be 16 34 09 be
       0.13199724 -0.13358586 -0.19869666 -0.13398775
000140 40 2b ae 3d 40 1a bc bd e6 fc b0 bd de 25 bc 3d
       0.08504343 -0.09184694 -0.086419865 0.0918691
000150 a2 65 bb 3d 9c 0f bf bd a3 e2 ba bd a3 77 b9 3d
       0.09150244 -0.09329149 -0.09125259 0.09056022
000160 d5 d1 70 3d 2c ac b0 3d 7c d1 05 be 54 94 08 3e
       0.05879386 0.08626589 -0.13068193 0.13337833
000170 2c e5 05 3e 3b dc 06 be 4f da 03 be 7b cf 0a 3e
       0.13075703 -0.13169949 -0.12876247 0.1355571
000180 b9 08 06 3e b4 3e 07 be f8 de 47 be ff 88 0a be
       0.13089265 -0.13207513 -0.1951865 -0.13528822
000190 04 46 ab 3d 18 de b7 bd 9c d7 ab bd 63 cc b6 3d
       0.08362964 -0.08977908 -0.083907336 0.089257024
0001a0 cd ab b7 3d 34 58 b8 bd 1e 57 b0 bd 38 5b b5 3d
       0.08968315 -0.090011984 -0.08610366 0.08855289
0001b0 71 ee 7d 3d f0 bc aa 3d 6b 05 b0 3d 33 eb bb bd
       0.061994974 0.08336818 0.085947834 -0.0917572
0001c0 f9 c5 ad bd 2f 16 bb 3d f8 ea b7 3d 22 2f bd bd
       -0.08485026 0.091350906 0.089803636 -0.092375055
0001d0 9b 32 b7 bd a4 f2 b5 3d 94 67 5c 3d 53 b0 b2 3d
       -0.08945199 0.08884171 0.053809717 0.087250374
0001e0 da 91 b7 3d b5 81 c7 bd 19 40 bf bd 19 d4 c5 3d
       0.08963366 -0.097415365 -0.093383975 0.09659595
0001f0 ec e0 c4 3d d1 80 ca bd 45 9b c0 bd 8b b3 c2 3d
       0.09613213 -0.09887851 -0.09404615 0.09506901
000200 6f 8d 24 3d dd 43 bb 3d ed d7 2a be 40 de 24 3e
       0.040173944 0.09143803 -0.16683932 0.16100407
000210 5f 5d 29 3e 5f 7f 26 be 85 46 23 be 6a b9 26 3e
       0.16539524 -0.16259526 -0.1594487 0.16281667
000220 76 08 27 3e b9 d4 26 be f8 ff 8f be 95 1a 2a be
       0.16311821 -0.16292085 -0.28124976 -0.16611703
000230 db c0 26 be 09 97 25 3e d6 5d 26 3e 12 e4 26 be
       -0.16284506 0.16170897 0.16246733 -0.1629794
000240 89 c9 21 be ba 7d 25 3e 32 b2 24 3e a1 1f 24 be
       -0.15799536 0.16161242 0.16083601 -0.1602769
000250 6f ab 89 be 27 72 29 be 5d fb af 3d e7 b3 b9 bd
       -0.26888606 -0.16547452 0.085928656 -0.09067517
000260 88 76 ae bd cc 6c b6 3d 9d 54 b6 3d 6f 51 ba bd
       -0.08518702 0.0890747 0.089028575 -0.090975635
000270 7a 23 b1 bd 4a 10 b6 3d 0b c6 99 3d ba b3 ab 3d
       -0.08649345 0.08889826 0.07508477 0.083838895
000280 30 e9 21 be 05 7c 23 3e 3d 0c 22 3e 4f ea 20 be
       -0.1581161 0.15965278 0.15824981 -0.15714382
000290 f3 7f 20 be a0 43 23 3e 44 57 23 3e 06 b1 20 be
       -0.15673809 0.15943766 0.15951258 -0.15692529
0002a0 58 90 7d be 94 16 28 be 42 f0 b3 3d 5c 7c c4 bd
       -0.24762094 -0.16414863 0.0878606 -0.09594032
0002b0 18 e1 b9 bd b5 43 c0 3d 43 41 bf 3d e7 90 c3 bd
       -0.09076136 0.09387914 0.093386196 -0.09549122
0002c0 e3 37 bf bd 33 52 bd 3d 2d 40 27 3d 76 c8 b7 3d
       -0.093368314 0.09244194 0.040832687 0.08973782
0002d0 36 98 b1 3d 6c 19 c1 bd 60 94 b8 bd 54 1c c0 3d
       0.0867161 -0.09428677 -0.09012675 0.09380403
0002e0 6e 2e ba 3d f9 5e bd bd ab 39 bb bd ef cc ba 3d
       0.09090887 -0.0924663 -0.09141859 0.09121119
0002f0 6a f8 6e 3d 7e 36 b5 3d 7c 82 15 be dc 72 18 3e
       0.058342375 0.08848284 -0.14600557 0.14887565
000300 e3 41 17 3e 98 68 15 be 5f 16 14 be 8a ce 19 3e
       0.14771228 -0.1459068 -0.14461659 0.15020195
000310 38 c7 16 3e 0a 2e 17 be 4e 20 5a be 91 98 1a be
       0.14724433 -0.14763656 -0.21301386 -0.15097262

layers.0.egnn.edge_mlp.0.bias f4 [20]
000000 ee de 97 be 01 8a 39 3e 59 86 02 3e b0 29 eb be
       -0.2966227 0.1811905 0.12746562 -0.45930243
000010 ce 8f e8 be 8c f7 82 be b1 6a 9e 3e 1d cd 49 be
       -0.45422214 -0.25579488 0.30940774 -0.19707151
000020 1d bf 5f 3e 95 1c 46 be a5 3a 3c 3e f7 42 71 3e
       0.21850248 -0.1934684 0.18381746 0.23560701
000030 e3 c3 ae 3e 31 4d f3 be e6 30 dc be 42 39 b9 3d
       0.34133825 -0.4751983 -0.43006057 0.09044124
000040 b0 48 b3 be d8 67 b4 3e e4 4b 70 3e f1 ed 84 be
       -0.35016394 0.35235476 0.2346645 -0.25962785

layers.0.egnn.edge_mlp.3.weight f4 [16, 20]
000000 68 23 31 3e 9b 7a 4e be 45 85 60 be 62 81 03 3e
       0.17298663 -0.20163958 -0.21925838 0.12842324
000010 86 8b 04 3e 83 2e 3e 3e 4b 53 37 be f7 ca 5a 3e
       0.12943849 0.1857243 -0.17902867 0.21366487
000020 c6 88 46 be e2 c4 5c 3e 6f af 50 be 26 34 42 be
       -0.19388112 0.2155948 -0.20379423 -0.18965206
000030 cc a2 34 be 9f 51 fe 3d 12 d4 09 3e b4 ee 73 be
       -0.17640227 0.12417912 0.13459805 -0.23821527
000040 4d 67 1b 3e 1f 9d 33 be b7 5e 45 be f3 57 3e 3e
       0.15176125 -0.17540406 -0.19274412 0.18588237
000050 b1 3d e9 bd 29 2a 4b 3d cb 3b 81 3d c6 be f6 bd
       -0.1138872 0.049600754 0.06310233 -0.12048106
000060 f2 90 fa bd d1 05 e4 bd 1a 2d 48 3d 2b b5 ec bd
       -0.122346774 -0.11133922 0.048871137 -0.115579925
000070 62 18 50 3d 0a 16 ea bd bf 01 59 3d 23 e5 4a 3d
       0.050804503 -0.11429985 0.05298018 0.049534928
000080 ff 3b 45 3d 29 1e f6 bd bd 03 f5 bd b8 96 9b 3d
       0.04815292 -0.12017471 -0.11963604 0.07597107
000090 d8 15 ef bd 36 4b 48 3d 19 b6 41 3d a4 8d e9 bd
       -0.11674088 0.04889985 0.047292802 -0.11403969
0000a0 3f ae e8 bd a3 c1 57 3d 25 12 85 3d 8f f1 fb bd
       -0.1136136 0.0526749 0.064976014 -0.12301933
0000b0 b9 89 fb bd 55 ab eb bd 37 ef 48 3d b5 11 ef bd
       -0.12282128 -0.11507288 0.049056258 -0.11673299
0000c0 5b e2 4b 3d 3b f0 ec bd 98 1f 5f 3d d3 3b 4a 3d
       0.049776416 -0.11569258 0.05447349 0.04937346
0000d0 5d 63 4e 3d dc b7 fb bd 0a 92 f6 bd 6f bb 9b 3d
       0.05038773 -0.12290928 -0.120395735 0.076041095
0000e0 7c e4 ef bd 3d 35 4b 3d 65 73 47 3d 3b 82 e6 bd
       -0.11713502 0.04961132 0.048694033 -0.11255308
0000f0 6e 11 29 3e 54 bc 55 be 73 fd 66 be b7 9f f4 3d
       0.16510555 -0.20872623 -0.2255762 0.11944526
000100 de a1 f7 3d 88 60 38 3e 0b a8 3a be 2b f1 56 3e
       0.120914206 0.18005574 -0.18228166 0.20990436
000110 5a 14 4d be dd 32 56 3e ee 02 56 be f5 9e 47 be
       -0.20027295 0.2091784 -0.20899555 -0.19494231
000120 3d 72 39 be ca 38 f3 3d ee 74 02 3e 97 0e 7c be
       -0.18109985 0.11876066 0.12739918 -0.2461494
000130 16 37 17 3e 0d dc 35 be b3 56 4c be 32 92 38 3e
       0.14767107 -0.17759724 -0.19954948 0.18024519
000140 73 e7 e1 bd 25 dc 64 3d 71 d7 8b 3d 19 05 ee bd
       -0.110304736 0.05587401 0.068282016 -0.11622066
000150 44 87 ec bd c2 1a e1 bd 72 c4 50 3d 3b 0a ef bd
       -0.11549237 -0.10991432 0.050968595 -0.11671873
000160 f7 96 61 3d fa e0 eb bd 08 b4 70 3d 3a 6c 59 3d
       0.055075612 -0.1151752 0.05876544 0.05308173
000170 c9 af 55 3d 17 8b ed bd d7 5e ec bd 48 f5 a1 3d
       0.052169595 -0.11598795 -0.11541527 0.07908112
000180 9b a3 e8 bd b2 74 4f 3d 1c 77 58 3d 69 86 e1 bd
       -0.1135933 0.0506484 0.052847967 -0.11011965
000190 d8 e4 2b 3e b8 74 55 be f5 02 65 be 78 f0 fb 3d
       0.16786516 -0.20845306 -0.2236441 0.12301725
0001a0 54 ff fd 3d 2b 75 3b 3e 6f 34 3c be 24 4e 56 3e
       0.124022156 0.18306415 -0.18379377 0.20928246
0001b0 a8 cf 4b be 00 81 58 3e 6f 9a 54 be 73 3a 48 be
       -0.19903433 0.2114296 -0.20762037 -0.19553547
0001c0 a4 f1 37 be e3 79 f5 3d cc 41 04 3e 84 51 78 be
       -0.17963272 0.11986139 0.12915725 -0.24249846
0001d0 97 f3 18 3e 6d c8 36 be 34 63 48 be c4 ea 39 3e
       0.14936672 -0.17849894 -0.19569093 0.18155962
0001e0 ea 92 e6 bd 89 e7 66 3d 30 55 8a 3d 96 f0 ed bd
       -0.112584904 0.056373153 0.067545295 -0.11618154
0001f0 47 ed ec bd 27 fb e6 bd 74 dd 4b 3d 9a 64 ee bd
       -0.115686946 -0.11278372 0.04977174 -0.11640282
000200 88 48 57 3d 19 fc ee bd e8 fa 6d 3d 94 58 54 3d
       0.052559406 -0.116691776 0.05810061 0.051842287
000210 36 71 4d 3d 65 19 ee bd 6a 07 ed bd 68 45 a3 3d
       0.050156794 -0.11625937 -0.1157368 0.079722226
000220 e5 dc e7 bd e6 91 4d 3d d4 f7 52 3d 41 06 e7 bd
       -0.11321429 0.050187968 0.05150588 -0.1128049
000230 fc c7 e0 bd 41 5a 79 3d 43 d7 92 3d d7 68 e3 bd
       -0.10975644 0.06087709 0.07169964 -0.11103981
000240 87 74 e6 bd c6 90 e6 bd 4b 35 59 3d 8b 5d ed bd
       -0.112526946 -0.11258082 0.05302934 -0.115901075
000250 75 ee 60 3d 7a b1 f0 bd bf db 72 3d 18 66 56 3d
       0.05491491 -0.11752601 0.059291597 0.052343458
000260 2f 48 52 3d f2 5f e6 bd 99 94 e3 bd fa cb a5 3d
       0.05133837 -0.11248769 -0.11112327 0.08095546
000270 8e 5e e2 bd b5 15 58 3d e5 1a 5e 3d 41 f4 e2 bd
       -0.11053191 0.052755076 0.054224867 -0.11081744
000280 59 28 ec bd 44 37 4f 3d 51 9b 7c 3d 69 cb fd bd
       -0.11531133 0.050589815 0.06167156 -0.12392313
000290 87 6e fc bd 1b 87 ee bd 1d 41 44 3d fd 99 eb bd
       -0.12325769 -0.11646863 0.04791366 -0.1150398
0002a0 be c8 4a 3d 4a 70 ec bd 0b a7 50 3d b1 04 42 3d
       0.04950785 -0.11544855 0.050940555 0.047367755
0002b0 77 a0 48 3d a8 2d fe bd 00 af fb bd d3 06 9b 3d
       0.048981156 -0.12411052 -0.12289238 0.07569661
0002c0 9e 41 f4 bd 23 a3 44 3d 96 39 48 3d a5 01 ed bd
       -0.11926578 0.04800714 0.048883043 -0.11572579
0002d0 d5 fc 30 3e 92 04 45 be 0c 40 55 be eb bf 07 3e
       0.17283948 -0.19240025 -0.20825213 0.13256805
0002e0 71 7c 08 3e 83 a1 3f 3e 5f c4 2e be c4 dd 5c 3e
       0.1332872 0.18713956 -0.17067097 0.21568972
0002f0 bc ce 3c be 4d 45 60 3e 19 30 42 be 99 32 3b be
       -0.18438238 0.21901436 -0.1896366 -0.1828102
000300 44 32 2b be 9e 2f 02 3e b4 c1 0c 3e 5b 0a 65 be
       -0.16718394 0.12713477 0.13745767 -0.22367232
000310 6c cc 1e 3e ee d8 27 be de c3 39 be 04 af 3e 3e
       0.15507668 -0.16391346 -0.18141124 0.1862145
000320 b8 6d ee bd 2e 6d 57 3d 39 94 82 3d 08 a7 f9 bd
       -0.11642021 0.052594356 0.063759275 -0.12190062
000330 9f 54 f8 bd 2e 96 e9 bd 00 4c 43 3d 53 6c ea bd
       -0.12125515 -0.114055976 0.0476799 -0.114464425
000340 e4 71 52 3d 58 1d ed bd 57 bc 55 3d 13 68 49 3d
       0.051378146 -0.115778625 0.052181568 0.04917152
000350 0a 27 4b 3d ff d8 f9 bd 8f 80 f9 bd 6e 59 99 3d
       0.049597777 -0.12199592 -0.12182724 0.074877605
000360 a6 64 f3 bd 3e ca 3e 3d f0 b5 43 3d 30 b4 ed bd
       -0.118844315 0.046579592 0.04778093 -0.11606634
000370 4f 43 e5 bd e7 18 64 3d 5c 74 86 3d f2 50 f3 bd
       -0.11194479 0.05568781 0.065651625 -0.118806735
000380 91 45 f1 bd 9b c3 e4 bd c2 de 49 3d 12 32 ea bd
       -0.11780847 -0.11170121 0.049284704 -0.114353314
000390 c7 50 4b 3d 20 78 eb bd 4a 20 5b 3d 45 a9 53 3d
       0.049637582 -0.114975214 0.05349759 0.0516751
0003a0 bd 45 4f 3d fe 85 f2 bd c1 9a ef bd 67 b8 a1 3d
       0.050603617 -0.11841963 -0.11699439 0.078965
0003b0 c3 51 ee bd 57 d0 47 3d 6d 7b 55 3d 10 23 e6 bd
       -0.116366886 0.048782673 0.05211966 -0.112371564
0003c0 02 0e ef bd 2b 8c 5c 3d e9 34 85 3d ef 84 f6 bd
       -0.11672594 0.053844612 0.065042324 -0.12037074
0003d0 aa c4 f6 bd 46 9f e9 bd 42 5d 4d 3d 62 d4 ee bd
       -0.120492294 -0.11407332 0.050137766 -0.116616026
0003e0 57 35 4e 3d 19 4d ef bd 20 69 5c 3d 84 44 4a 3d
       0.050343838 -0.11684627 0.053811193 0.049381748
0003f0 0d 81 50 3d 3b 63 f9 bd 83 ea f6 bd 41 4e 9a 3d
       0.050904322 -0.1217713 -0.12056448 0.07534457

layers.0.egnn.edge_mlp.3.bias f4 [16]
000000 25 2a 4e be 1e ae 77 3e d8 3a 81 3e fb b2 81 be
       -0.20133264 0.24187514 0.25240207 -0.25331864
000010 71 05 1e 3e 20 a5 74 be cf 77 23 3e dc b7 eb 3d
       0.15431763 -0.23891115 0.15963672 0.11509678
000020 d9 8d 96 3e 0c 78 1c be fa 7c 86 3e 11 5c 44 3e
       0.29405096 -0.15280169 0.26267225 0.19175746
000030 02 53 76 3e 84 29 70 be d8 8c 1c 3e 79 66 fb 3d
       0.24055102 -0.23453337 0.15288103 0.122754045

layers.0.egnn.node_mlp.0.weight f4 [8, 20]
000000 17 63 02 39 c4 4b a3 ba f1 26 a4 ba 13 cc 06 ba
       0.0001243468 -0.0012458493 -0.0012523812 -0.0005142104
000010 5e ea 2b 38 04 04 1d 3a 74 b8 15 3a c1 10 92 3a
       4.098785e-05 0.0005989673 0.00057113846 0.0011143909
000020 2b e1 92 39 35 88 79 3a 9c a7 27 3a 93 02 96 ba
       0.00028015053 0.00095188926 0.000639552 -0.0011444859
000030 ee d9 d5 b9 71 40 4e ba 8d b8 1a 3a f6 3e d3 ba
       -0.00040788896 -0.0007867879 0.0005902134 -0.0016116786
000040 db e9 53 ba 04 27 8b 3a e3 3c 7b 3a c0 3d 65 38
       -0.00080838584 0.0010616486 0.0009583963 5.4655364e-05
000050 24 44 2c ba 63 30 40 b8 f5 b1 a9 ba 29 95 f1 39
       -0.0006571433 -4.582143e-05 -0.0012946712 0.00046078235
000060 12 cb 5c 3a 86 60 11 3a 95 4c 5b 39 f0 a5 fc b7
       0.0008422594 0.0005545694 0.00020913997 -3.0118012e-05
000070 07 06 64 3a 30 63 58 ba f1 98 a8 3a d6 0e 48 39
       0.0008698408 -0.0008254526 0.0012862963 0.00019079013
000080 8f 72 94 3a dc 18 c1 3a 4d b5 b7 b9 a5 53 b4 38
       0.0011325645 0.001473214 -0.0003503956 8.598649e-05
000090 28 4d 92 3a 5e 34 47 ba fb 68 7b b7 a4 08 0c ba
       0.001116191 -0.0007599051 -1.49852085e-05 -0.0005341864
0000a0 97 26 8d 39 bf 16 e0 b9 68 19 0c ba 44 5c a6 ba
       0.00026922367 -0.00042741557 -0.0005344362 -0.0012692292
0000b0 73 58 b8 b7 db 87 b8 ba 23 43 73 3a 79 55 bf 3a
       -2.1975697e-05 -0.0014078574 0.00092797185 0.0014597616
0000c0 6d 6a d7 3a 75 38 97 ba 8d 5d 16 3a 82 07 61 ba
       0.0016434916 -0.0011537211 0.0005735986 -0.00085841876
0000d0 81 ad 78 ba 19 e8 5d 39 d8 3b 73 39 eb 86 ae 3a
       -0.00094863033 0.00021162666 0.0002319658 0.0013315355
0000e0 a6 d1 b2 39 6a 27 01 bb 89 89 47 ba 46 c0 70 b9
       0.00034107006 -0.001970733 -0.0007611742 -0.00022959811
0000f0 dc cb 08 ba 5d ae b3 b8 3f 55 5d b8 bd 0f 82 b9
       -0.00052183657 -8.567863e-05 -5.2769898e-05 -0.00024807258
000100 ea d3 94 b9 c2 1e 3b 3a 93 50 8f ba 7f 3b be ba
       -0.00028386648 0.0007138067 -0.0010934047 -0.0014513581
000110 58 20 30 3a e9 2d ba ba 6d ff 66 3a d3 52 8a ba
       0.0006718687 -0.0014204356 0.0008811865 -0.0010553248
000120 9e 8a b3 39 e8 ea 28 3a 31 54 9c b9 c8 ff a1 39
       0.00034244818 0.0006443695 -0.00029817366 0.00030898885
000130 de 1c 48 ba 06 38 4e ba ef 9c 93 39 03 08 c4 39
       -0.0007633696 -0.00078666245 0.0002815495 0.00037390002
000140 43 69 8e b9 8e 71 54 39 d5 38 33 3b b6 05 61 b9
       -0.00027162777 0.00020260198 0.0027347107 -0.000214598
000150 67 bb 24 3a 50 f8 7c ba 11 60 16 38 31 1f 26 ba
       0.00062840286 -0.00096500386 3.5852256e-05 -0.00063370453
000160 31 a5 44 39 ea 6d 8c ba 13 d9 3e 3a b9 a1 80 ba
       0.00018753555 -0.0010713909 0.00072802714 -0.0009813822
000170 44 10 b0 b9 af 0f bd 3a ea 8c a3 ba 7d 1b f3 ba
       -0.00033581455 0.001442423 -0.0012477909 -0.0018547621
000180 a5 37 06 39 00 e9 b4 36 cb 5b 8c ba 60 5b f3 b9
       0.00012799965 5.391543e-06 -0.0010708509 -0.00046416651
000190 2d 37 53 b9 06 2f d9 3a a7 45 ed 38 9d 55 2e 3a
       -0.00020143083 0.00165698 0.000113140144 0.00066503306
0001a0 e8 65 59 39 cc 4c a2 39 ca a1 ad 39 c9 88 95 38
       0.00020732696 0.00030956266 0.00033117674 7.130352e-05
0001b0 b0 6f 3a ba ba 53 57 bb 39 39 a3 3a 30 15 70 b9
       -0.00071119796 -0.0032856301 0.0012452967 -0.00022896077
0001c0 6c dc 17 3a 79 b0 93 3a 39 16 dd b9 8a 70 82 3a
       0.0005793038 0.0011267803 -0.00042168962 0.0009951752
0001d0 d1 48 e3 b9 5b ac 00 ba fe b1 bc 3a 15 f8 b3 39
       -0.00043351066 -0.00049084955 0.0014396308 0.00034326376
0001e0 6a 1b 79 3a 84 98 5a 3a 37 be db b8 8c c5 2d bb
       0.0009502681 0.00083387666 -0.00010478164 -0.0026515452
0001f0 7d 46 6a 3a 61 06 ba ba e3 a1 9d 3a 3b f5 36 ba
       0.0008936895 -0.0014192575 0.0012026395 -0.0006979291
000200 8a e6 0f bb 9f be b9 38 3b 9f 8c ba 49 54 10 bb
       -0.002195748 8.8569934e-05 -0.0010728607 -0.0022022894
000210 e6 ac ca 3a fa 74 72 ba df 4a 8d ba 95 7c 82 b9
       0.0015462905 -0.0009248998 -0.001077976 -0.00024888353
000220 8d ac c4 b9 7a 84 9d 3a 9d dc 0a bb 72 e8 8d ba
       -0.00037512594 0.001201763 -0.0021188625 -0.001082672
000230 b6 07 95 ba 70 90 16 bb 98 3d ff b8 07 51 01 3a
       -0.0011370096 -0.0022974275 -0.0001217082 0.00049330335
000240 88 83 80 ba 11 23 9b b7 3d 8c 90 3a 7f 8e 01 3b
       -0.0009804824 -1.8493769e-05 0.0011028122 0.0019768772
000250 18 f6 db ba 14 cc b4 b9 52 83 af ba 52 41 ff ba
       -0.0016781716 -0.00034484325 -0.0013390577 -0.0019474423
000260 56 f6 ee 39 db 97 a9 b9 0d c9 27 ba c5 e9 3a 3a
       0.00045578432 -0.00032347333 -0.00064005033 0.0007130171
000270 00 9e 46 3a c0 d5 c1 b8 8d 6e 0e 3b 3f a5 5c 3b
       0.00075766444 -9.242771e-05 0.0021733374 0.003366783

layers.0.egnn.node_mlp.0.bias f4 [8]
000000 46 0a a1 3d f1 a8 5a bc e0 a7 4b be c9 85 42 be
       0.07863288 -0.013345943 -0.19888258 -0.18996347
000010 44 49 3e 3e 8e 43 ec 3d 29 8d db 3d a6 20 a2 3d
       0.18582636 0.115363225 0.107202835 0.079163834

layers.0.egnn.node_mlp.3.weight f4 [4, 8]
000000 67 3d a4 39 22 78 c2 39 7c b6 de ba 18 1d 1b 3a
       0.00031326266 0.0003709207 -0.001699164 0.0005917116
000010 da 14 b2 b8 61 ab 9a ba d6 a9 bf ba b1 15 0d 3a
       -8.491585e-05 -0.0011800342 -0.0014622759 0.00053819554
000020 a5 1d df 3a f5 57 cc 38 55 f0 0c ba 80 50 6d 3a
       0.0017022385 9.743861e-05 -0.00053763884 0.0009052828
000030 24 31 a5 ba 34 cc b1 39 12 cf 96 b9 5f fe 78 39
       -0.0012603146 0.00033912214 -0.0002876451 0.00023745884
000040 99 b8 23 3a 5e 60 81 39 2e 00 fd ba 59 7d 9e ba
       0.0006245464 0.00024676597 -0.0019302422 -0.00120918
000050 b7 78 47 3a 3f cf 61 3a bf d8 47 ba 8a 58 c4 39
       0.00076092355 0.0008613951 -0.0007623545 0.0003745
000060 ef ee e3 39 6d bc 00 b8 93 de 04 ba d8 dd a4 ba
       0.00043474833 -3.0693063e-05 -0.00050685665 -0.0012578322
000070 df d9 8a ba 00 e1 85 3a 48 a1 70 39 29 68 01 3b
       -0.0010593495 0.001021415 0.00022948266 0.0019745922

layers.0.egnn.node_mlp.3.bias f4 [4]
000000 e5 eb 9a be ef 0c 27 be bb fe 84 be 72 e9 67 be
       -0.30258098 -0.16313528 -0.25975594 -0.22647646

layers.0.egnn.coors_mlp.0.weight f4 [64, 16]
000000 70 78 ca 3d 32 90 9a bd 13 05 98 bd 0c 2a b8 3d
       0.09886253 -0.07547034 -0.07422843 0.08992395
000010 59 8f a5 bd 9c da bc 3d 9a 66 a6 bd 63 77 b1 bd
       -0.08083982 0.09221384 -0.081250384 -0.08665349
000020 a4 81 93 bd d4 b3 e2 3d 46 21 9a bd 16 c0 a1 bd
       -0.07202461 0.11069456 -0.07525878 -0.078979656
000030 30 49 98 bd d8 60 bd 3d fc d7 a9 bd df b4 b1 bd
       -0.074358344 0.09246987 -0.08293149 -0.086770765
000040 ca 2a 62 3d 9b 1b 02 bd 4d e0 fa bc d7 42 37 3d
       0.055216588 -0.031764608 -0.030624533 0.044741478
000050 ab c5 1b bd 84 ac 4c 3d e9 3a 12 bd f3 60 2e bd
       -0.038030308 0.04996921 -0.035700712 -0.042572927
000060 21 50 e0 bc 86 21 81 3d 86 ca ec bc 26 ec 12 bd
       -0.027381958 0.06305222 -0.028905164 -0.03586974
000070 7c 59 02 bd 82 40 4b 3d 10 e3 13 bd 90 11 21 bd
       -0.03182362 0.049622066 -0.036105216 -0.03932339
000080 f5 4e c9 bd 83 7c 2e 3d 26 36 26 3d 1a 3a c0 bd
       -0.09829513 0.042599212 0.040578984 -0.09386082
000090 be 92 31 3d 56 4e bf bd a9 3f 2e 3d 7d 92 4f 3d
       0.043352835 -0.09341113 0.04254118 0.05067681
0000a0 fc ea 28 3d 6c 81 d3 bd 5c 52 26 3d 0d 70 2c 3d
       0.041239724 -0.1032742 0.040605888 0.042099047
0000b0 38 47 29 3d d6 d5 c2 bd 94 9a 39 3d 87 4c 45 3d
       0.041327685 -0.09513442 0.045313433 0.048168685
0000c0 37 2e f5 3d ec b2 dc bd 9b da da bd 89 d9 de 3d
       0.119717054 -0.10776314 -0.10686227 0.10881335
0000d0 c3 91 f0 bd c5 23 e3 3d a0 81 ed bd 7e 00 fe bd
       -0.11746552 0.11090807 -0.1159699 -0.124024376
0000e0 10 95 d3 bd 68 f8 06 3e ed db dd bd e6 e1 e3 bd
       -0.10331166 0.13180697 -0.10832963 -0.11127071
0000f0 60 62 dc bd 5e d0 e6 3d 26 8e f0 bd 4f f9 f8 bd
       -0.10760951 0.11270212 -0.11745863 -0.12156927
000100 a7 c0 59 3d 1d 4d f6 bc 2a ac 01 bd bf 94 35 3d
       0.053162243 -0.030066067 -0.03165833 0.04433131
000110 29 3e 11 bd 41 eb 43 3d 2a 4f 12 bd 81 dc 32 bd
       -0.03545967 0.047831777 -0.035720028 -0.04366732
000120 48 a7 f1 bc 8a 31 80 3d 48 17 f1 bc 3f 50 0a bd
       -0.029498711 0.06259449 -0.029430047 -0.033767935
000130 9b 22 07 bd aa 4d 48 3d 85 75 1a bd 57 3a 28 bd
       -0.032991987 0.04890219 -0.03770973 -0.041071262
000140 f6 78 93 3d 4e ad 5a bd d1 95 61 bd a1 9a 80 3d
       0.07200806 -0.053387932 -0.055074517 0.06279493
000150 42 0f 80 bd fe 6b 88 3d 44 b4 80 bd c7 0f 8b bd
       -0.0625291 0.06661223 -0.06284383 -0.06790119
000160 58 5a 51 bd dd 5f a9 3d 22 0b 5f bd 33 2e 73 bd
       -0.05111155 0.082702376 -0.054453976 -0.05937023
000170 67 36 68 bd 31 3d 89 3d 49 77 7f bd ab d2 89 bd
       -0.056692507 0.067011245 -0.06236962 -0.06729635
000180 7f 5e c7 3d d7 e6 a4 bd 7e a2 a6 bd 32 5e ac 3d
       0.097348206 -0.08051842 -0.08136462 0.08416404
000190 db 03 b9 bd c1 07 b5 3d f9 81 b5 bd a7 3d c9 bd
       -0.090339385 0.088393696 -0.08862681 -0.098262124
0001a0 54 d0 9b bd ac 28 dc 3d 8a b1 a3 bd f8 13 b2 bd
       -0.07608095 0.10749945 -0.07992847 -0.08695215
0001b0 a5 fd a4 bd 7c 1f b8 3d 0d be b8 bd 94 b5 bf bd
       -0.08056191 0.0899038 -0.09020624 -0.09360805
0001c0 05 d9 95 3d 17 b7 60 bd 95 6e 5e bd 1c bd 82 3d
       0.07316784 -0.054862108 -0.054304678 0.06383726
0001d0 0a 99 7b bd e6 d6 80 3d 6b 63 80 bd 1b 5b 87 bd
       -0.061425246 0.062909886 -0.062689625 -0.06609174
0001e0 f0 59 53 bd 19 07 a9 3d 90 88 5c bd 18 5a 6f bd
       -0.051599443 0.08253307 -0.053841174 -0.05843553
0001f0 0f 24 6a bd 5b ab 84 3d 3a ea 7a bd 26 78 8a bd
       -0.057163294 0.06477996 -0.061258532 -0.06761198
000200 45 17 8f bd fb b6 ac 3c f1 d6 b3 3c 0c b1 82 bd
       -0.0698686 0.021083346 0.021953078 -0.06381425
000210 be 89 bf 3c 1b bf 84 bd 82 d4 bf 3c 43 f5 da 3c
       0.02338111 -0.06481763 0.023416761 0.026728278
000220 95 ea b4 3c e3 bb 9b bd a7 4d b2 3c e3 b7 b3 3c
       0.022084514 -0.07604196 0.021765543 0.02193827
000230 14 c9 a8 3c 21 cd 83 bd 6b d8 be 3c cd 44 c5 3c
       0.020603694 -0.064356096 0.023296556 0.024080658
000240 50 98 4e bd 5e 92 35 3c b7 00 5f 3c 7d 73 34 bd
       -0.050438225 0.01108226 0.01361101 -0.04405545
000250 7a 26 5b 3c 89 52 31 bd 1e f0 52 3c 4e b3 8b 3c
       0.013375873 -0.043291602 0.012874631 0.017053273
000260 f5 97 36 3c c0 c7 68 bd 78 1c 41 3c 7d be 47 3c
       0.011144628 -0.05683112 0.011786573 0.012191412
000270 8f 4b 43 3c ce a9 3a bd 8c 4d 5c 3c fe 92 6a 3c
       0.01191987 -0.045572095 0.013446223 0.014317272
000280 99 53 9a bd 1e fa cf 3c b4 78 bb 3c ce de 8c bd
       -0.07535476 0.02538782 0.022884704 -0.06878434
000290 31 bc cf 3c 2f f2 90 bd 5f 84 dd 3c 0b f2 fa 3c
       0.025358291 -0.07077443 0.027040659 0.030632993
0002a0 9c 51 c8 3c 54 4d a6 bd 32 73 b8 3c 1a da b9 3c
       0.024452977 -0.08120218 0.022515867 0.022687007
0002b0 02 c8 cc 3c 46 7e 8e bd ff 8c ce 3c f0 f0 f9 3c
       0.024997715 -0.069576785 0.025213717 0.030510396
0002c0 50 b3 c8 3d 9e e7 96 bd 8e 70 96 bd 50 5a ac 3d
       0.09799826 -0.07368396 -0.07345687 0.08415663
0002d0 5f bc a8 bd bd c6 b1 3d e4 04 a6 bd 3a 41 b6 bd
       -0.08239054 0.086804844 -0.081064016 -0.0889916
0002e0 d1 eb 92 bd ca e2 db 3d 09 a2 93 bd 42 b1 a2 bd
       -0.07173885 0.10736616 -0.0720864 -0.079439655
0002f0 93 51 96 bd 53 4f b6 3d ea ab a7 bd c2 9a af bd
       -0.07339778 0.08901849 -0.08187087 -0.085744396
000300 48 49 ba bd 8c 32 08 3d 40 04 03 3d 8f 4f b3 bd
       -0.090960085 0.03325133 0.031986475 -0.08755409
000310 df 80 16 3d cd 2a b6 bd b4 06 1d 3d 47 6b 27 3d
       0.036743995 -0.08894882 0.03833647 0.040873792
000320 f1 0c 0e 3d 7a df c6 bd 88 b1 0b 3d c5 5a 0e 3d
       0.03468031 -0.097105935 0.034104854 0.034754533
000330 72 b7 11 3d 3e 4b ba bd 6f 73 21 3d cf df 21 3d
       0.035575338 -0.090963826 0.039416727 0.03952008
000340 98 99 8c bd 82 c8 a3 3c 9f 8c a1 3c 61 46 7f bd
       -0.06865233 0.01999307 0.019720374 -0.062322978
000350 c1 b6 c6 3c 10 ed 83 bd ca e4 c2 3c cf d6 db 3c
       0.024257066 -0.064417005 0.023790736 0.026835827
000360 c8 c5 a6 3c 58 a1 9a bd 68 dc af 3c a9 38 b2 3c
       0.020357981 -0.07550305 0.021467403 0.021755533
000370 0f 86 b6 3c e2 21 85 bd a0 70 c5 3c 6c d7 dd 3c
       0.022280721 -0.06500603 0.024101555 0.02708026
000380 a2 cf a5 bd 3c 99 e6 3c 88 e8 de 3c ee dd 99 bd
       -0.080962434 0.02814924 0.027210489 -0.07513033
000390 db 55 e2 3c 44 f1 9b bd 22 60 ee 3c 7e 7e 07 3d
       0.02762883 -0.07614377 0.029098574 0.033079617
0003a0 75 ab c2 3c 10 4e af bd 2d dd dd 3c 9f d8 df 3c
       0.023763398 -0.08559811 0.027083004 0.027324973
0003b0 41 1e da 3c bb 1d 9d bd 5e 54 f3 3c b1 ec 07 3d
       0.026625754 -0.07671686 0.029703315 0.03318471
0003c0 bf 0c 7a bd 67 54 69 3c 48 bb 5b 3c 60 16 60 bd
       -0.061047312 0.0142413145 0.013411351 -0.05470884
0003d0 c6 ae 63 3c b7 01 69 bd c4 a7 6a 3c 9f 07 9c 3c
       0.01389665 -0.0568864 0.014322225 0.019046603
0003e0 86 2a 47 3c d3 49 88 bd 03 07 65 3c 08 14 53 3c
       0.0121561345 -0.06654706 0.0139787225 0.012883194
0003f0 be 4c 31 3c 07 52 69 bd 6c 28 51 3c 0b a1 8c 3c
       0.010821519 -0.056962993 0.012765985 0.017166635

layers.0.egnn.coors_mlp.0.bias f4 [64]
000000 21 a1 93 bd e9 b6 1a be 25 89 9b 3e cd 90 e0 bd
       -0.07208467 -0.15108837 0.3037807 -0.109651186
000010 27 ed 37 be 56 e9 50 be c6 1d 2e be 02 ed 6a be
       -0.1796156 -0.2040151 -0.17003545 -0.22941974
000020 e2 6c 7f 3e 02 b1 65 3e e4 64 6e 3e 21 8a db bd
       0.24943879 0.22430804 0.23280674 -0.107197054
000030 5b 36 3d 3e 8f 3d 86 3e 97 d8 39 3e 8c 34 48 3d
       0.18477766 0.2621884 0.18149029 0.048878238
000040 07 2d d8 bd 2a 21 75 3e 76 79 76 3e bd 33 d8 bd
       -0.10555463 0.23938432 0.24069771 -0.10556743
000050 7e 27 62 be 2b 87 08 be 03 36 a7 3d dc 44 a3 3d
       -0.22085378 -0.13332812 0.08164599 0.07972118
000060 30 56 31 3e 89 33 3e bd 39 b6 32 be bd 7b 6e bd
       0.17318034 -0.046435867 -0.17452325 -0.058223475
000070 22 4e 8d be 64 23 d0 3d 64 b4 36 3e ce 4a df bd
       -0.27598673 0.10163 0.17842251 -0.1090294
000080 1c 55 62 bd 9e 30 18 3e 59 e2 02 be 34 c0 d4 3d
       -0.055256948 0.14862296 -0.12781657 0.10388222
000090 c0 ec 73 3d 7d 3e 5e be a1 18 6b 3d 51 fa a2 bd
       0.059551954 -0.21703525 0.057396535 -0.079579
0000a0 73 f5 84 bc 3f a5 0f be 4a a9 52 be e5 9a ca 3d
       -0.01623032 -0.1402788 -0.20572391 0.09892825
0000b0 dc a0 6f 3e 08 6e 26 be 37 48 84 be a6 f8 75 be
       0.23401207 -0.16252911 -0.25836346 -0.24020633
0000c0 3c 7f 22 3e 6b 49 54 3e e2 97 c2 bd 8c 56 17 3d
       0.15868849 0.20731132 -0.095016256 0.036947772
0000d0 79 b4 fd 3d 6f 1b d6 bd 18 bf 3a bd aa 40 46 3e
       0.12387938 -0.10454451 -0.045592397 0.19360605
0000e0 f4 4c 86 3e e7 44 ff bd 24 46 ee 3d e3 90 28 be
       0.26230586 -0.12464314 0.11634472 -0.1646152
0000f0 14 2a 26 be ac aa 6c 3e ba 6a 15 3e 84 06 3e bd
       -0.16226989 0.23111981 0.14591494 -0.046392933

layers.0.egnn.coors_mlp.3.weight f4 [1, 64]
000000 56 f0 0a 3d bb 81 58 3c 15 1a 8f bc 4b 37 1c 3d
       0.03392061 0.013214524 -0.017468492 0.03813867
000010 00 41 50 3c 0c 16 7b 3c ff bb aa 3c de 7c 71 3c
       0.01271081 0.015325081 0.020841597 0.014739243
000020 ba 9f 65 bc 5a e9 41 bc 20 79 72 bc 19 4a cf 3c
       -0.014015133 -0.0118354205 -0.014799386 0.025303887
000030 db 1b 9b bc 13 ad 63 bc 8d 2a 89 bc 07 c7 a1 bc
       -0.018934181 -0.013896245 -0.016743923 -0.019748224
000040 99 4b 84 3c f8 d1 5a bc 44 ad 48 bc 9a 8b 27 3d
       0.016149329 -0.0133557245 -0.012248341 0.04090462
000050 94 8a 8a 3c 01 22 61 3c 80 1d 76 bc 8d c1 9b bc
       0.016911782 0.013741017 -0.015021682 -0.01901319
000060 48 d5 c1 bc 68 2f c5 3c 47 95 a4 3c c4 a5 21 3c
       -0.02366127 0.024070457 0.020090712 0.009866182
000070 dc 9e 99 3c 54 6d 97 bc 05 db 94 bc 34 b8 0e 3d
       0.018752508 -0.018484749 -0.018170843 0.03484364
000080 c8 ed 05 3d c4 64 ae bc 7c db ba 3c 1f 74 66 bc
       0.03269747 -0.021288283 0.022809736 -0.014065771
000090 0b b0 a0 bc 96 c9 8d 3c c4 40 c6 bc 1f 91 c5 3c
       -0.019615194 0.017308038 -0.024200805 0.02411705
0000a0 b5 02 1d 3c b5 00 85 3c 60 2a 6e 3c f0 01 4c bc
       0.009583165 0.016235689 0.01453647 -0.012451634
0000b0 12 2f 88 bc f6 1a 8d 3c 65 d5 7a 3c 86 ed 65 3c
       -0.016624007 0.01722477 0.015309666 0.014033681
0000c0 71 fc 50 bc a5 d3 57 bc 83 26 94 3c f0 38 93 bc
       -0.012755499 -0.013173019 0.01808477 -0.017971486
0000d0 cb 11 db bc 0f 72 a8 3c 68 32 e1 3c f3 fa a3 bc
       -0.026741883 0.0205622 0.027489856 -0.020017123
0000e0 e3 2b 7b bc 46 0e bd 3c ee 91 d4 bc 71 c7 77 3c
       -0.015330288 0.023078095 -0.025948491 0.015123234
0000f0 8a 79 57 3c 28 3a 8a bc 14 33 87 bc d7 a8 1d 3d
       0.013151536 -0.016873434 -0.016503848 0.038491096

layers.0.egnn.vel_mlp.0.weight f4 [16, 4]
000000 60 c9 8b 39 ea c3 dd ba 41 ff 03 3b fd df 92 3a
       0.00026662182 -0.0016919349 0.0020141157 0.001120567
000010 4f ec 1c b9 85 8e 40 3a 04 c7 35 ba 44 f2 39 ba
       -0.00014965351 0.0007345456 -0.00069342577 -0.00070932903
000020 a3 3e dc b8 93 f3 88 3a 64 48 57 ba 0e f8 95 ba
       -0.000105020845 0.0010448567 -0.0008212386 -0.0011441724
000030 ae 1a 3c 3a a6 3b 75 ba 3f 8b 16 3b 51 e8 93 3a
       0.00071756064 -0.00093548966 0.002297118 0.0011284446
000040 28 e8 45 b8 63 c6 b8 3a 0f cf 25 bb 1d 0b ca b9
       -4.7184672e-05 0.001409721 -0.0025300418 -0.00038536722
000050 63 90 c0 39 d5 0a 55 3a 67 b4 fc b8 ee bb f1 b9
       0.0003672867 0.0008126919 -0.00012049899 -0.0004610712
000060 5f ec b1 39 1f 84 19 b8 38 f2 8e 3a b4 87 1e ba
       0.0003393618 -3.660109e-05 0.0010905927 -0.0006047443
000070 3b a3 1c 39 7b 99 34 3a 88 1f 61 b9 37 c0 0d ba
       0.00014938127 0.00068893255 -0.00021469418 -0.00054073654
000080 6d f8 f5 39 31 6c a5 b9 69 e6 de 3a b7 f8 f7 38
       0.00046915133 -0.0003155186 0.0017005923 0.000118242046
000090 1b 62 b6 b9 59 ce f6 ba 50 f6 25 3a fe 53 95 3a
       -0.0003478684 -0.0018829807 0.0006330954 0.001139283
0000a0 8a 1f c0 3a 1f 96 42 3a dd 80 91 3b d2 22 67 ba
       0.0014657837 0.00074228825 0.0044404105 -0.00088171393
0000b0 d5 04 15 ba 2e f2 d8 b9 bf d2 4c ba db c2 17 ba
       -0.0005684619 -0.00041379168 -0.0007813386 -0.00057892286
0000c0 19 06 4e b9 a0 f9 a7 ba 44 b7 c7 3a 29 d5 fa b7
       -0.00019647962 -0.0012815483 0.0015237113 -2.9901583e-05
0000d0 fa c1 f4 39 2c e5 c5 38 d9 7a 83 b9 db be ad 39
       0.0004668383 9.4363786e-05 -0.00025077796 0.0003313933
0000e0 b7 d2 2e ba b7 cc 1d ba 3e 0f ff b9 77 87 09 3a
       -0.0006668972 -0.00060195796 -0.00048648746 0.0005246321
0000f0 d9 ab 9d 38 98 99 75 ba 4c 72 b3 3a 00 89 0b 3a
       7.5183525e-05 -0.00093688956 0.0013690679 0.0005322844

layers.0.egnn.vel_mlp.0.bias f4 [16]
000000 cb 00 d4 be a7 83 80 be 08 1f f8 3e ed b9 c8 be
       -0.41406855 -0.25100443 0.48461175 -0.3920435
000010 a4 bf 16 3d 62 2b ac be f6 db f8 3c b6 92 a8 be
       0.036803856 -0.33626848 0.030378323 -0.32924432
000020 6e 4c 04 3b 69 e2 c5 3e a0 eb d2 3d fe a0 a7 be
       0.0020187157 0.386493 0.10298848 -0.32740015
000030 a5 2e b3 3d 60 d1 a2 be c8 1c 59 be 76 84 f1 be
       0.08749131 -0.31800365 -0.21202385 -0.47171372

layers.0.egnn.vel_mlp.3.weight f4 [1, 16]
000000 ea 12 df 39 5f e9 86 b9 8d 7d 31 b9 d7 5a 90 39
       0.00042547967 -0.00025732347 -0.00016926807 0.000275335
000010 9f bf 29 ba 1c 73 98 b9 20 24 88 39 98 2c 1e b9
       -0.0006475392 -0.00029077462 0.00025966857 -0.00015084667
000020 e0 14 e1 39 52 d7 1c 3a 69 f0 3a 39 0d 80 01 3a
       0.00042930897 0.0005983013 0.00017827902 0.00049400405
000030 82 5c 5d 3a 6d a8 ed b9 fc fe ae 39 12 3f 59 3a
       0.00084442657 -0.0004532965 0.00033377844 0.0008287291

layers.1.egnn.edge_mlp.0.weight f4 [20, 10]
000000 97 77 42 3d 90 3a 4e bd 6e ef 46 bd 8e 05 4b 3d
       0.04747733 -0.05034882 -0.04856818 0.049565844
000010 2a 0f 51 3d 20 31 4e bd 01 18 54 bd d9 6d 4c 3d
       0.051039852 -0.050339818 -0.051780704 0.049909446
000020 1d 30 5f 3c 5a 5c 59 3d e8 e5 47 3d ad 69 4e bd
       0.013622311 0.05306659 0.04880324 -0.05039375
000030 4c 2a 43 bd e9 19 49 3d 94 ea 50 3d 06 d9 52 bd
       -0.04764776 0.049096975 0.05100496 -0.0514765
000040 3f d5 52 bd 70 86 48 3d 8b 2b 70 3c ad ad 55 3d
       -0.0514729 0.048956335 0.014658819 0.052167583
000050 a2 6b 85 bd 9e 32 85 3d ab 42 84 3d c9 c1 88 bd
       -0.0651467 0.06503795 0.064580284 -0.066775866
000060 b6 a7 8a bd 36 37 86 3d 17 30 8a 3d d5 5b 8a bd
       -0.067702696 0.065534994 0.06747454 -0.06755797
000070 17 e6 be bc bf 36 85 bd 71 c4 46 3d 80 d5 53 bd
       -0.023303075 -0.065045826 0.048527185 -0.05171728
000080 99 ae 4d bd 63 5c 49 3d 29 64 53 3d 9d 16 52 bd
       -0.050215337 0.049160372 0.051609192 -0.051291097
000090 18 1c 54 bd c3 1d 52 3d e5 b5 56 3c d9 c7 57 3d
       -0.051784605 0.051297914 0.0131048905 0.052680824
0000a0 f5 d8 46 3d c5 63 51 bd 76 1e 47 bd 3a c6 4f 3d
       0.04854675 -0.05112054 -0.048613034 0.050726153
0000b0 a9 b6 52 3d 48 17 4d bd 6b 44 4c bd 66 75 4d 3d
       0.05144373 -0.05007103 -0.049869936 0.050160788
0000c0 27 06 33 3c b1 30 59 3d ad 32 92 bd c2 e4 8c 3d
       0.01092676 0.05302495 -0.07138572 0.068795696
0000d0 33 45 92 3d 0f bf 8f bd cf e2 95 bd d5 79 90 3d
       0.07142105 -0.070188634 -0.07318651 0.070544876
0000e0 4b 05 92 3d 97 0c 96 bd 92 b3 cd bc 07 37 89 bd
       0.07129916 -0.0732662 -0.02511004 -0.06699949
0000f0 4c 14 8b bd 33 f4 8a 3d 4b e8 87 3d 0e dc 87 bd
       -0.06790981 0.067848586 0.06636103 -0.06633769
000100 3a fd 8e bd 60 4e 89 3d 1e 8b 8b 3d 5c 93 8b bd
       -0.06981893 0.06704402 0.06813644 -0.06815216
000110 e4 51 bb bc d8 38 8a bd d5 57 3d 3d b1 f6 49 bd
       -0.022866197 -0.06749123 0.04622634 -0.04930753
000120 32 4c 43 bd 30 e3 44 3d 0a 39 53 3d 6b 28 4e bd
       -0.047680087 0.048068225 0.05156807 -0.050331514
000130 9b ec 4e bd 2b 22 4e 3d 9c d3 6f 3c ef 72 59 3d
       -0.050518613 0.050325554 0.014637854 0.053088125
000140 b8 c3 4f 3d c3 68 4f bd 32 c3 48 bd 41 df 4e 3d
       0.05072376 -0.050637018 -0.049014278 0.05050588
000150 cf 12 53 3d af aa 51 bd 11 1b 53 bd 5d cb 47 3d
       0.05153161 -0.051188167 -0.051539484 0.048777927
000160 c1 b4 3e 3c 50 85 58 3d 44 c1 47 3d e0 b0 4e bd
       0.011639775 0.05286151 0.048768297 -0.05046165
000170 42 10 4b bd 1d ec 4b 3d df 9a 51 3d 12 fa 49 bd
       -0.04957605 0.049785722 0.051173087 -0.04931075
000180 93 29 4e bd ac 13 45 3d 6f 5e 57 3c cf d6 52 3d
       -0.050332617 0.048114464 0.013145073 0.05147439
000190 12 62 48 3d 5e ed 4c bd f9 2e 45 bd 59 33 4b 3d
       0.048921652 -0.05003106 -0.0481405 0.049609516
0001a0 8d 28 58 3d e0 7d 54 bd 47 9d 52 bd 96 2d 4f 3d
       0.052773047 -0.051877856 -0.051419523 0.050580584
0001b0 60 20 6b 3c 65 99 59 3d 18 ce 87 bd 2a ea 8a 3d
       0.0143509805 0.053124804 -0.06631106 0.067829445
0001c0 b5 34 89 3d 7c 95 8a bd 5c 05 93 bd 5d 4b 89 3d
       0.06699506 -0.06766793 -0.071787566 0.067038275
0001d0 55 69 8d 3d af 6f 91 bd 76 71 b5 bc bf e0 83 bd
       0.06904856 -0.0710138 -0.022148829 -0.06439351
0001e0 90 9e 45 3d e7 88 59 bd d5 1a 47 bd cd 7b 51 3d
       0.04824692 -0.053109076 -0.048609573 0.051143456
0001f0 a4 83 5a 3d f6 fa 51 bd 00 80 4e bd f8 3c 48 3d
       0.0533482 -0.051264726 -0.05041504 0.04888627
000200 97 08 65 3c 30 be 5d 3d 62 a4 85 bd 15 4c 8b 3d
       0.013979099 0.054136455 -0.06525494 0.06801621
000210 9f 6d 88 3d 84 bb 87 bd 54 36 90 bd 77 7b 87 3d
       0.066615336 -0.06627563 -0.07041612 0.06615346
000220 13 62 88 3d 64 82 8d bd 0c 9d a2 bc 84 78 87 bd
       0.06659331 -0.06909636 -0.019850276 -0.066147834
000230 eb a9 84 bd d8 b4 85 3d b8 01 85 3d b3 a0 85 bd
       -0.06477722 0.06528634 0.064944685 -0.065247916
000240 25 5a 8e bd c4 a6 86 3d 54 88 88 3d 15 67 8a bd
       -0.069507875 0.06574777 0.066666275 -0.067579426
000250 21 29 a5 bc fb f9 80 bd 6a ea 88 bd 34 50 8b 3d
       -0.020161213 -0.0629768 -0.06685336 0.06802407
000260 31 a7 8a 3d 84 87 8a bd 3f 23 94 bd d8 fb 8c 3d
       0.067701705 -0.06764129 -0.07233285 0.06883973
000270 b3 10 8e 3d 78 22 8c bd cc 63 bd bc 5a 3d 84 bd
       0.06936779 -0.06842512 -0.023118876 -0.064570144
000280 21 40 8b bd 2a 42 8c 3d 88 fa 8c 3d 6e ae 92 bd
       -0.06799341 0.06848557 0.068837225 -0.07162176
000290 fd 14 93 bd 6d 0c 8d 3d ef e0 90 3d 61 39 90 bd
       -0.071817376 0.06887136 0.07074153 -0.07042194
0002a0 01 4a cb bc be e1 87 bd 63 4e 85 bd 4e c3 85 3d
       -0.024815561 -0.06634854 -0.06509092 0.06531392
0002b0 30 1a 85 3d a6 c5 86 bd cd d7 8d bd 24 df 88 3d
       0.064991355 -0.06580667 -0.06925926 0.06683186
0002c0 ab 8d 87 3d cb fe 87 bd ec 35 b1 bc 87 1f 86 bd
       0.06618818 -0.06640395 -0.021632157 -0.06548982
0002d0 0b b0 81 bd fa 0e 80 3d 1e c7 80 3d 7a 3a 86 bd
       -0.06332406 0.062528566 0.062879786 -0.06554122
0002e0 d3 a7 86 bd 0b 9d 7d 3d af b6 87 3d 02 a7 82 bd
       -0.06574979 0.061917346 0.06626641 -0.063795105
0002f0 47 32 a3 bc 17 f9 7b bd dd fc 44 3d 80 c3 4e bd
       -0.019921435 -0.061516847 0.04809271 -0.050479412
000300 ff 61 48 bd 3f a3 48 3d 89 da 54 3d 71 83 53 bd
       -0.04892158 0.04898381 0.051966224 -0.051639024
000310 84 5f 54 bd 3c 09 53 3d 07 f6 4c 3c dd 18 62 3d
       -0.051848903 0.05152248 0.012509829 0.055199493

layers.1.egnn.edge_mlp.0.bias f4 [20]
000000 a7 70 e3 3d 0d 44 4b 3d c3 c2 d9 bd eb 68 46 3e
       0.11105471 0.049625445 -0.10632851 0.1937596
000010 40 8a a2 3d 08 eb bb be ff 03 8e be dd ea a5 3d
       0.07936525 -0.36702752 -0.27737424 0.08101437
000020 44 7c 90 3e c2 3d 99 3d 0d 1d ab 3d d6 6a 94 be
       0.28219807 0.074824825 0.0835515 -0.2898776
000030 13 c5 78 3e b1 99 8c be 94 c6 59 be bc 44 9f be
       0.24293928 -0.27461007 -0.21267158 -0.31107128
000040 ef f1 a3 be 0e 2c 12 be ff 46 95 bd 07 3b 73 3e
       -0.32020518 -0.14274618 -0.07288932 0.23752986

layers.1.egnn.edge_mlp.3.weight f4 [16, 20]
000000 b8 53 1f 3d 12 35 0c 3d 93 df 21 bd 19 06 1e 3d
       0.0388982 0.0342303 -0.039519858 0.038580034
000010 bd cc 1a 3d 36 9d 3a bd 18 d9 33 bd f3 13 17 3d
       0.03779291 -0.045560084 -0.04390821 0.03688426
000020 5e 6b 25 3d cf d0 1b 3d 3f c6 18 3d 2d 81 3e bd
       0.040385596 0.038040932 0.037298437 -0.04650991
000030 b1 23 25 3d 5d e0 34 bd 0e 98 33 bd 2c af 31 bd
       0.04031724 -0.044159282 -0.043846183 -0.043379948
000040 d8 78 38 bd 51 27 33 bd b7 28 22 bd 00 06 22 3d
       -0.04503712 -0.043738667 -0.03958961 0.039556503
000050 04 5e 24 3d 6c 43 0e 3d eb 79 31 bd b4 1f 22 3d
       0.040128723 0.034732267 -0.04332916 0.039581016
000060 07 64 24 3d 61 0b 3e bd 90 32 3a bd e0 3f 17 3d
       0.040134456 -0.04639757 -0.045458376 0.03692615
000070 81 3b 2b 3d cc de 17 3d fa e8 14 3d 87 fe 36 bd
       0.041804794 0.03707771 0.036354996 -0.04467633
000080 5f 6b 21 3d b7 ab 38 bd 59 1e 3c bd 9c e7 3d bd
       0.039409038 -0.045085635 -0.04592738 -0.046363458
000090 83 e5 3a bd 29 94 2c bd 31 b6 23 bd 16 da 2b 3d
       -0.045629036 -0.042133484 -0.039968673 0.04195603
0000a0 8b 87 26 bd 4e d5 23 bd 43 07 36 3d 6b e2 35 bd
       -0.040656608 -0.039998345 0.04444052 -0.044405382
0000b0 68 3c 2c bd f4 91 40 3d 57 bc 3b 3d 16 1c 2d bd
       -0.042049795 0.04701419 0.04583391 -0.042263113
0000c0 ea 01 35 bd 97 8d 2a bd b1 f8 2a bd eb e7 46 3d
       -0.04419128 -0.041638937 -0.041741077 0.048561018
0000d0 30 0b 2b bd 6d c6 3f 3d 93 28 41 3d c1 d8 50 3d
       -0.041758716 0.046820093 0.047157835 0.050987963
0000e0 ce 71 44 3d 0a 00 3b 3d 5f d0 35 3d c7 da 33 bd
       0.047960095 0.045654334 0.04438817 -0.043909814
0000f0 36 6a 1e 3d 6d b2 12 3d 7b 6b 27 bd d4 ef 1f 3d
       0.03867551 0.03581469 -0.040873986 0.039047077
000100 ff 4a 16 3d 86 fd 35 bd da d0 33 bd 44 f4 17 3d
       0.036692616 -0.044431232 -0.04390035 0.037098184
000110 16 80 35 3d 51 4e 13 3d 1a 95 1e 3d de b9 38 bd
       0.044311605 0.03596336 0.038716413 -0.04509913
000120 2c 92 23 3d 78 c5 34 bd 5f 4c 34 bd a4 e8 32 bd
       0.039934322 -0.044133633 -0.044018146 -0.043678895
000130 fa dc 2f bd 39 b9 26 bd 1d d0 22 bd d5 8c 28 3d
       -0.04293535 -0.040703986 -0.039749254 0.041149933
000140 4f 07 2b bd b1 bf 28 bd 1b f3 36 3d 8b e1 2b bd
       -0.041755017 -0.041198436 0.044665437 -0.04196314
000150 ee 53 2b bd d1 c6 41 3d d8 de 3e 3d f7 0d 28 bd
       -0.04182809 0.047308747 0.04659924 -0.041028943
000160 dc 18 35 bd 7c 9d 29 bd 58 61 33 bd f6 75 3f 3d
       -0.04421316 -0.041409954 -0.043794006 0.046743356
000170 07 0e 31 bd ea 28 41 3d 7d 54 39 3d 79 8e 3f 3d
       -0.04322627 0.04715816 0.04524659 0.046766732
000180 b3 61 3c 3d 89 24 3b 3d 6b 37 39 3d 5a 2d 3c bd
       0.04599161 0.04568914 0.045218866 -0.045941688
000190 1d 5b 1e 3d 57 7e 15 3d 12 7f 28 bd d8 c9 21 3d
       0.03866111 0.03649744 -0.04113681 0.039499134
0001a0 3e a3 17 3d 73 0b 35 bd fa 5a 3f bd 71 e2 10 3d
       0.037020914 -0.044200372 -0.04671762 0.0353722
0001b0 47 62 25 3d 3c 5e 14 3d 7b 9e 17 3d d2 44 33 bd
       0.040376928 0.03622268 0.037016373 -0.043766804
0001c0 3c d5 20 3d f6 0a 34 bd 96 67 35 bd 26 57 35 bd
       0.039265856 -0.043955766 -0.04428824 -0.044272564
0001d0 6b 9f 3b bd 08 dc 25 bd 36 fd 1b bd a7 2d 1f 3d
       -0.04580633 -0.04049304 -0.038083278 0.038861897
0001e0 cc 99 2a bd cd b5 1c bd 59 1d 35 3d e9 41 3a bd
       -0.04165058 -0.038259316 0.04421744 -0.045473013
0001f0 cb 1a 34 bd 5f 26 4d 3d 41 11 3d 3d d3 56 27 bd
       -0.043970864 0.05008542 0.046159033 -0.040854286
000200 b8 55 31 bd 0b 5f 2c bd 3b 2e 32 bd ff 94 45 3d
       -0.04329464 -0.042082828 -0.04350112 0.048237797
000210 b4 e5 38 bd 0b da 3f 3d 34 24 40 3d 68 0b 47 3d
       -0.045140937 0.0468388 0.046909526 0.048594862
000220 49 63 40 3d 40 fc 3e 3d 94 b4 3c 3d 66 69 33 bd
       0.046969686 0.046627283 0.04607065 -0.043801688
000230 d3 af 2f bd f9 98 21 bd 97 3b 35 3d 1b c9 2b bd
       -0.04289229 -0.039452527 0.044246282 -0.041939836
000240 97 3d 26 bd d3 7b 47 3d 81 78 41 3d 68 08 27 bd
       -0.04058608 0.048702072 0.047234062 -0.0407795
000250 b4 22 35 bd 3f e0 2c bd 77 40 2d bd 62 d4 41 3d
       -0.04422255 -0.042206045 -0.042297807 0.047321685
000260 7c 31 39 bd 77 a8 43 3d 30 b6 3e 3d 13 6a 45 3d
       -0.045213208 0.047768082 0.046560466 0.048196863
000270 cd 75 40 3d 14 c7 3b 3d bc 7a 34 3d 0a d1 31 bd
       0.046987344 0.045844153 0.04406236 -0.043412246
000280 f4 16 20 3d a5 b1 15 3d c5 df 2a bd 0e 3a 23 3d
       0.03908439 0.03654637 -0.04171731 0.039850287
000290 e4 7d 1a 3d 8e d2 33 bd 20 bf 33 bd 35 d7 23 3d
       0.037717715 -0.043901972 -0.043883443 0.04000016
0002a0 1f 52 1d 3d aa 1d 15 3d 36 95 21 3d 02 49 40 bd
       0.038408395 0.036405243 0.03944894 -0.046944626
0002b0 20 0a 22 3d 30 17 38 bd 6a 1e 33 bd 91 ff 36 bd
       0.039560437 -0.04494399 -0.043730177 -0.04467732
0002c0 0c 4a 38 bd ae 45 2e bd 97 49 2c bd aa a6 2b 3d
       -0.04499249 -0.04254692 -0.04206237 0.04190699
0002d0 e8 58 19 3d ff 46 0e 3d 70 17 27 bd c5 c7 23 3d
       0.037438303 0.034735676 -0.040793836 0.039985437
0002e0 bb a0 17 3d 5f c9 3a bd 9d 6d 34 bd bd 5b 19 3d
       0.03701852 -0.0456022 -0.044049848 0.037441004
0002f0 dd 51 2b 3d d5 3a 1e 3d 61 04 0f 3d 66 0d 3a bd
       0.041826118 0.038630325 0.034916285 -0.045422934
000300 5f 31 2f 3d 4d 92 3b bd 46 9b 31 bd f4 76 31 bd
       0.042771693 -0.04579382 -0.04336097 -0.043326333
000310 f0 7a 3b bd 64 9c 36 bd ba c2 26 bd 4d 43 24 3d
       -0.04577154 -0.04458274 -0.04071305 0.040103246
000320 c1 4d 1e 3d 77 19 12 3d f4 2f 29 bd 6b 9f 2d 3d
       0.03864837 0.035668816 -0.041305497 0.04238836
000330 fe aa 1c 3d 4c 83 3a bd 7c b3 39 bd 9a 85 13 3d
       0.03824901 -0.04553537 -0.045337185 0.036016084
000340 c1 a5 28 3d 3e 15 15 3d 06 4e 1b 3d 66 da 38 bd
       0.0411737 0.03639721 0.037916206 -0.045130156
000350 d5 d5 2a 3d ff 3e 3f bd 80 7c 37 bd 54 88 36 bd
       0.041707832 -0.046690937 -0.044796467 -0.044563606
000360 d1 d9 3b bd ef b0 37 bd f6 d8 22 bd b8 be 21 3d
       -0.045862023 -0.04484647 -0.03975769 0.039488524
000370 78 b8 2b bd 89 0a 21 bd cd bb 33 3d 96 29 30 bd
       -0.04192397 -0.039316688 0.043880273 -0.04300841
000380 a1 ae 29 bd 24 ab 42 3d 63 e0 3c 3d 55 5a 22 bd
       -0.041426305 0.047526494 0.04611243 -0.03963693
000390 45 e9 33 bd 6b 1c 2e bd a2 6a 2d bd ea d9 3f 3d
       -0.043923635 -0.04250757 -0.04233802 0.04683868
0003a0 f2 b6 32 bd 32 28 39 3d 9d 51 43 3d e9 4e 3f 3d
       -0.0436315 0.04520435 0.047685254 0.046706114
0003b0 38 3b 41 3d 9e e9 38 3d 96 a1 37 3d a2 bf 32 bd
       0.047175616 0.04514467 0.044831835 -0.043639787
0003c0 27 3a 20 3d 23 f6 14 3d 14 aa 25 bd a8 d6 1f 3d
       0.03911796 0.036367547 -0.040445402 0.03902307
0003d0 44 4d 1c 3d 43 5e 3a bd 74 28 34 bd 0e 9c 1a 3d
       0.038159624 -0.04550005 -0.04398389 0.03774648
0003e0 2c f8 26 3d f2 68 19 3d b4 33 16 3d e3 3a 39 bd
       0.04076402 0.0374536 0.0366704 -0.045222174
0003f0 a0 d0 22 3d 74 6c 39 bd a7 03 30 bd 30 03 36 bd
       0.03974974 -0.045269445 -0.042972233 -0.044436634

layers.1.egnn.edge_mlp.3.bias f4 [16]
000000 63 58 7b 3e 30 8c 84 3e 70 9f 2b be 0f 9b 76 3e
       0.24545436 0.25888205 -0.1676004 0.24082588
000010 bf 95 31 be 5f bd 81 3e a8 b6 41 be a6 c7 ee bd
       -0.1734228 0.2533979 -0.18917334 -0.11659174
000020 02 fa 26 3e 84 a6 74 3e 1b 0e 78 3e 72 5c 11 be
       0.16306308 0.23891646 0.24224131 -0.14195421
000030 a4 29 27 3e 03 80 1b 3e 04 13 b0 3d 75 e8 4b be
       0.16324478 0.15185551 0.08597377 -0.19912894
