experiments/models/model_N12_batch32_lr0.001_fd4_b0.7.pth (torch, 30882 bytes, 32 tensors)

time_embedding.0.weight f4 [8, 1]
000000 a2 57 46 bf 20 4c 2a 3e 80 90 85 3c 5c 0d 15 be
       -0.7747747 0.16630602 0.016304255 -0.14555877
000010 18 77 c7 3e 24 ef f5 be 10 09 62 be 38 85 69 be
       0.3895805 -0.48034012 -0.2207377 -0.22804725

time_embedding.0.bias f4 [8]
000000 b8 90 2a be 40 78 6f be 30 52 8f bd cf 81 c2 3e
       -0.16656768 -0.23385715 -0.06998098 0.3798966
000010 d0 d5 2b 3e 60 0c f3 bd 1e f7 7c bf 50 35 ef bd
       0.16780782 -0.11867595 -0.9881457 -0.116800904

time_embedding.3.weight f4 [4, 8]
000000 10 76 7d be 97 95 84 bd 13 ec b2 3e fb 31 a6 bd
       -0.24752069 -0.064738445 0.34945735 -0.08115002
000010 c0 fa 61 3e 60 19 44 3e 8f 14 98 be cb 80 46 3e
       0.2206831 0.19150305 -0.29703185 0.19385068
000020 cf 73 79 be 0c ca 84 3d a5 43 91 3e 63 74 96 bd
       -0.24360584 0.0648385 0.2837192 -0.07346418
000030 b7 dc 54 3e 44 b2 7b 3e d5 90 38 be e3 09 0d be
       0.20787321 0.24579722 -0.18023999 -0.13773303
000040 d5 af d1 3d 46 4c 6f 3e b5 5b b0 be 1a 48 2b 3d
       0.102386154 0.2336894 -0.34444967 0.04181681
000050 c5 e9 48 3d 40 d2 ac be ab 8e ee bd 86 4d 38 bc
       0.049051065 -0.33754158 -0.116483055 -0.011248952
000060 4a 2f 13 3e 04 ad cf 3d b9 9d 5a 3e 2d 1d 00 3e
       0.14373508 0.10140422 0.21349229 0.1251113
000070 4b 51 a2 3d 8f 66 21 be bb 8a 08 3e 57 20 e5 3d
       0.07925662 -0.15761779 0.13334171 0.11187809

time_embedding.3.bias f4 [4]
000000 63 4e 89 3e d4 d4 bd be 26 85 96 be 3b 1b 54 3e
       0.26817617 -0.37076437 -0.2939846 0.20713513

layers.0.egnn.edge_mlp.0.weight f4 [20, 10]
000000 a7 61 02 be c4 f4 09 3e 6b 9d 15 3e 26 3d 00 be
       -0.12732564 0.13472277 0.14610831 -0.12523326
000010 89 f3 00 be b5 0c 06 3e 79 70 14 3e e5 41 00 be
       -0.12592901 0.13090785 0.1449603 -0.12525137
000020 2e a9 44 bc e6 e2 d2 bd 05 54 63 be 1c ab 71 3e
       -0.012003226 -0.10297184 -0.2220002 0.2360043
000030 fa 0c 7a 3e fe 04 7d be 7e cd 6b be c7 d4 6c 3e
       0.24419013 -0.24708936 -0.23027608 0.23128043
000040 1a ba 7f 3e cb e2 80 be 7d ea 2c be 86 37 3c be
       0.24973336 -0.2517303 -0.16886325 -0.18380556
000050 b9 bd 68 be 02 9c 78 3e 1d 04 80 3e 91 75 82 be
       -0.22728623 0.24278262 0.25003138 -0.2548032
000060 92 f7 74 be 4e 26 72 3e f0 cb 80 3e 32 bf 84 be
       -0.23922566 0.23647425 0.25155592 -0.2592712
000070 5c 89 41 be 01 7d 43 be b4 b0 a4 3d 8e 3d b1 bd
       -0.18900055 -0.19090654 0.08041516 -0.08654319
000080 f5 3b c2 bd cf 41 aa 3d ec 50 a1 3d 1f cc a9 bd
       -0.09484092 0.08313333 0.07876763 -0.08290886
000090 9c 0d c1 bd 72 29 a7 3d 14 bf ad b9 c8 ab 61 3d
       -0.09426424 0.08162202 -0.00033139496 0.055095464
0000a0 a7 4f a7 be 3a df ac 3e 5d e2 b2 3e 0d cd b7 be
       -0.32677957 0.33764058 0.34938326 -0.3589863
0000b0 6d 2f b0 be ed 6e ae 3e 23 16 b7 3e e8 4f c2 be
       -0.34411183 0.34069005 0.35759076 -0.3795159
0000c0 df 25 b4 be 0f 84 8b be e7 f7 1f 3e de bb 2b be
       -0.35185143 -0.2724919 0.15621911 -0.16770884
0000d0 2b 2c 37 be 82 ac 26 3e 27 63 21 3e 72 d5 27 be
       -0.17887942 0.16276744 0.1576048 -0.16390017
0000e0 82 70 37 be 9e cd 25 3e ca fe 52 3d 77 d0 fb 3d
       -0.17914012 0.16191718 0.051512517 0.12295621
0000f0 a5 eb 6c be a3 7c 7a 3e de de 81 3e f7 35 85 be
       -0.23136766 0.24461608 0.25365347 -0.26017734
000100 b8 37 76 be 27 b6 76 3e 90 31 84 3e 04 5c 88 be
       -0.24044693 0.24092923 0.25819063 -0.26632702
000110 85 cd 50 be 1a c9 41 be 0d f7 87 bd 59 95 9c 3d
       -0.203909 -0.1892437 -0.06638918 0.07645673
000120 93 cd af 3d 12 46 7a bd d8 ce 86 bd 6e 97 94 3d
       0.08584132 -0.06110198 -0.06582421 0.072554454
000130 69 0b ad 3d 3b dd 76 bd f4 af 5c 3d 5c 88 52 bd
       0.08449442 -0.060269576 0.05387874 -0.051399574
000140 c7 d1 03 3e cb 26 0e be 73 1e 19 be de 8b 08 3e
       0.12872992 -0.13881986 -0.14953022 0.13334605
000150 86 ae 05 3e 53 1e 0a be a3 b0 15 be 9c 08 07 3e
       0.13054857 -0.1348813 -0.14618163 0.13186878
000160 1c a1 d7 3c be 77 cc 3d 26 9c 69 be ae 3b 7a 3e
       0.02632194 0.099837765 -0.22813472 0.24436828
000170 aa b3 80 3e 5c f7 83 be 21 e4 75 be 73 d9 75 3e
       0.25137073 -0.25774658 -0.24012806 0.24008732
000180 cf 60 83 3e 7d b7 86 be d9 40 50 be df 36 43 be
       0.25659797 -0.26311865 -0.20337237 -0.190639
000190 80 f5 a0 be e9 99 a7 3e ca 5d ad 3e 86 71 b1 be
       -0.31437302 0.32734612 0.33860618 -0.34656924
0001a0 7d d8 a7 be 89 a2 a7 3e 9d 01 b0 3e 9d de b7 be
       -0.32782355 0.32741192 0.3437623 -0.35912028
0001b0 c7 f2 a5 be a0 8a 89 be dd 3f a8 be 30 7a ad 3e
       -0.32411787 -0.26863575 -0.32861224 0.33882284
0001c0 fa 76 b3 3e a2 5c b8 be 0f 21 b0 be 69 f2 ad 3e
       0.3505171 -0.36008173 -0.34400222 0.33974007
0001d0 33 0f b7 3e c8 be c0 be 2f 31 b4 be 3e 01 8b be
       0.35753784 -0.37645555 -0.35193774 -0.27149385
0001e0 d2 ab 90 3e fc 72 98 be 00 63 9e be 23 95 94 3e
       0.28256088 -0.29775226 -0.30934906 0.29020032
0001f0 3e c6 91 3e 80 e5 96 be a7 8e 9e be 64 c0 94 3e
       0.2847156 -0.2947197 -0.3096821 0.29053032
000200 ed 87 2e 3e 79 13 81 3e 98 6b 3d be 0a 5d 4a 3e
       0.17044039 0.2521017 -0.18498075 0.19762054
000210 77 4f 54 3e c6 6f 4a be e3 c6 43 be 38 42 48 3e
       0.20733438 -0.197692 -0.19118838 0.1955651
000220 fa d2 53 3e 63 a3 48 be c3 94 b8 bd 00 ff 20 be
       0.2068595 -0.19593577 -0.09012749 -0.15722275
000230 cf a9 32 be d7 90 3f 3e 2e fe 49 3e 7b 43 3b be
       -0.1744759 0.18707596 0.19725868 -0.1828746
000240 e9 71 35 be ab d9 3b 3e 4c f4 48 3e 3d 3b 3c be
       -0.17719235 0.18344752 0.19624442 -0.18381973
000250 95 9b 9f bd 79 47 18 be 16 01 b1 bd 8c ca c3 3d
       -0.07793347 -0.14871015 -0.08642785 0.09560117
000260 73 4e dc 3d 0d ef af bd 52 62 af bd d3 23 bb 3d
       0.107571505 -0.08590517 -0.08563675 0.09137692
000270 e6 9e d4 3d 9e 57 a5 bd e0 38 12 3d 23 b0 8b bd
       0.1038187 -0.08073352 0.03569877 -0.06820705
000280 4c a6 f0 bd 02 7b 03 3e e0 61 0d 3e 19 55 ee bd
       -0.117504686 0.12839893 0.13806868 -0.11637325
000290 8e 21 ee bd a4 4e fd 3d 97 91 0c 3e cf 01 eb bd
       -0.11627494 0.12368515 0.13727413 -0.11474954
0002a0 0b c7 09 3b e5 68 c2 bd ad 6a 9b 3d 3c 97 ac bd
       0.002102318 -0.09492663 0.07588706 -0.08427283
0002b0 d5 15 bd bd fd 6e a0 3d 83 1b 96 3d 25 d0 a4 bd
       -0.0923268 0.07833669 0.07329466 -0.08047513
0002c0 0f 17 b8 bd 16 fb 9c 3d c1 e4 6a bc 25 02 5b 3d
       -0.08988773 0.07665078 -0.014336766 0.053468842
0002d0 45 06 67 be 13 e0 76 3e 3f e3 7e 3e 04 cc 82 be
       -0.22560985 0.24108915 0.24891375 -0.25546277
0002e0 78 75 71 be bc 57 74 3e 30 08 82 3e a2 1b 83 be
       -0.23579967 0.23861593 0.25396872 -0.2560702
0002f0 a6 3b 39 be c7 4a 41 be d1 a7 a7 be dd ac ad 3e
       -0.1808916 -0.18876182 -0.3274522 0.33920947
000300 e7 79 b3 3e 1c 9a b7 be 76 95 af be f0 80 ad 3e
       0.35053942 -0.35859764 -0.34293717 0.33887434
000310 93 dc b6 3e aa a3 c1 be 57 50 b4 be c6 a7 8c be
       0.3571516 -0.37820178 -0.35217544 -0.2747175

layers.0.egnn.edge_mlp.0.bias f4 [20]
000000 66 30 53 be 2d 76 cf be 58 0f de be b7 18 6b bc
       -0.20623931 -0.40519848 -0.4337108 -0.014349154
000010 86 5a 81 be 45 10 ab 3e f5 48 f4 be c2 72 3c be
       -0.25264376 0.3341085 -0.47711912 -0.18403152
000020 90 40 6f 3e 97 a6 f3 be 7d f5 53 be 91 54 75 be
       0.23364472 -0.47588035 -0.20699115 -0.23958041
000030 c9 c4 21 3e 67 74 90 be d4 8e 9f be 39 cc 41 be
       0.15797724 -0.28213808 -0.31163657 -0.18925561
000040 b5 5e 78 be 7d ac 23 3e d1 40 d1 be 24 80 81 be
       -0.24254878 0.15983768 -0.40869763 -0.25293076

layers.0.egnn.edge_mlp.3.weight f4 [16, 20]
000000 72 40 50 bd 63 9a a9 bd 03 fe a1 bd d1 17 8b 3c
       -0.05084271 -0.082814 -0.07909777 0.01697913
000010 e3 92 74 be bc 37 89 3d f4 60 a1 bd bc 8d fa bc
       -0.23884158 0.067000836 -0.078798205 -0.030585162
000020 00 88 7a 3d e5 fa 9e bd 45 d4 2a be 4e be 5b be
       0.061164856 -0.07762698 -0.16682537 -0.21459314
000030 21 7f 29 3e 79 d6 97 bd 38 b1 83 bd 9e e2 13 bd
       0.16552402 -0.07413954 -0.06430286 -0.03610479
000040 a0 7e 42 bd 6f c0 0c 3d 44 14 a8 bd 45 47 80 be
       -0.04748404 0.034363206 -0.0820699 -0.25054374
000050 65 8e 3c bd 9c fa a5 bd ac ba 9d bd 4e e7 c4 3c
       -0.046034236 -0.081044406 -0.077016205 0.024036076
000060 c4 40 71 be 62 68 8a 3d bd a3 9c bd 61 ad e5 bc
       -0.23559862 0.06758191 -0.07648418 -0.028036775
000070 15 4a 6d 3d 21 c6 9c bd 65 e8 2a be 6c 3c 5d be
       0.05793198 -0.076549776 -0.16690214 -0.2160508
000080 cd 8e 25 3e 0e 65 8b bd 8f de 81 bd 80 91 13 bd
       0.16167755 -0.06806384 -0.06341278 -0.03602743
000090 f3 71 34 bd ed cb 03 3d 2f 1f a4 bd 8f a1 7c be
       -0.044053983 0.0321769 -0.0801376 -0.24671005
0000a0 7f 9c 05 3e a1 a8 03 3e ea c3 f9 3d cd 51 d5 bd
       0.1304798 0.12857296 0.12195571 -0.10415993
0000b0 a9 f3 8e 3e e1 28 3c be 39 d9 e1 3d 2b 1a b8 3d
       0.27920273 -0.18374969 0.1102776 0.08989366
0000c0 39 f1 31 be d9 24 e8 3d 81 e2 5e 3e 27 c5 84 3e
       -0.17377175 0.11335153 0.21766092 0.25931665
0000d0 02 7b 94 be 63 de 18 3e 53 2b 0b 3e a5 cb dd 3d
       -0.29000098 0.14928584 0.13590746 0.10829858
0000e0 69 d1 fc 3d 2d f2 ff bd 2a 17 01 3e 3b 7d 94 3e
       0.12344629 -0.12497363 0.12606493 0.29001793
0000f0 cd ce 86 3d ca a1 9a 3d 62 d0 8f 3d d3 d4 5e bd
       0.06582413 0.0755039 0.07022168 -0.054402184
000100 40 32 6c 3e da 87 d3 bd 23 b3 89 3d 7c aa 23 3d
       0.23066044 -0.10328646 0.06723621 0.03995751
000110 84 6e c5 bd 8d f3 8c 3d 62 ea 1f 3e 91 51 52 3e
       -0.0964022 0.06882391 0.15616754 0.20538928
000120 1d 54 6c be 10 56 a7 3d cb d5 91 3d 7f 40 52 3d
       -0.23078962 0.08170712 0.07120856 0.05133104
000130 c4 41 72 3d 7e 0c 78 bd 1c a8 97 3d 67 f6 7c 3e
       0.05914475 -0.06055879 0.07405111 0.2470337
000140 fa f0 76 3d 0d d6 93 3d 69 7c 8a 3d 93 c7 59 bd
       0.060288407 0.07218561 0.067620106 -0.053168844
000150 9f d8 66 3e f1 5b d1 bd 60 25 83 3d 14 b2 16 3d
       0.22543572 -0.102226146 0.06403613 0.036790922
000160 28 ca bf bd 3c a7 85 3d 82 6a 1d 3e 65 0a 4f 3e
       -0.0936473 0.06526038 0.15372661 0.20218809
000170 41 d3 71 be 24 2a 98 3d 62 d7 89 3d 81 6d 3a 3d
       -0.23615743 0.07429913 0.06730534 0.045514587
000180 21 56 62 3d dc b1 6b bd e9 9d 92 3d d6 17 77 3e
       0.05525792 -0.057542667 0.07159025 0.24130186
000190 a5 42 8f 3d 10 b8 aa 3d 1b 1b 9b 3d 25 48 7e bd
       0.06995133 0.083358884 0.07573529 -0.06208052
0001a0 be ba 7a 3e b3 09 e3 bd 51 38 93 3d fd ff 3a 3d
       0.24485299 -0.11085834 0.07188476 0.045654286
0001b0 dc 40 d5 bd 65 9a 93 3d c7 8f 32 3e 14 5b 65 3e
       -0.104127616 0.07207183 0.17437659 0.22398025
0001c0 db 69 72 be 26 79 b6 3d f2 e5 a0 3d e7 30 63 3d
       -0.23673193 0.08909826 0.078563586 0.05546656
0001d0 da 38 87 3d 7f d6 8a bd ca 84 a8 3d 0f 1c 85 3e
       0.066026405 -0.06779193 0.082284525 0.2599797
0001e0 cc ad 43 bd 11 cb a8 bd a3 92 9e bd 82 a5 bf 3c
       -0.047773167 -0.08241857 -0.077428125 0.02339435
0001f0 7c bd 71 be 00 35 86 3d 40 e0 9d bd 6b 81 e1 bc
       -0.23607439 0.06553078 -0.07708788 -0.027527532
000200 bd 0b 74 3d 7e 05 9b bd f3 77 2a be 1a b6 5a be
       0.059581507 -0.07569407 -0.1664732 -0.21358529
000210 9c 89 24 3e 26 74 92 bd d9 6e 84 bd ba 40 11 bd
       0.16068119 -0.0715106 -0.06466455 -0.03546212
000220 aa 16 35 bd 12 33 05 3d 89 de a2 bd 1b 71 7d be
       -0.044211067 0.032519408 -0.079526015 -0.24750178
000230 ba be 3e bd 33 36 a6 bd 3e 90 a6 bd c6 30 a2 3c
       -0.04656861 -0.081158064 -0.08132981 0.019798648
000240 fc ca 72 be f5 f8 88 3d ac 20 a0 bd 12 32 ed bc
       -0.23710245 0.0668811 -0.07818732 -0.02895454
000250 15 f3 73 3d f9 28 9d bd d1 f1 28 be 34 6d 5b be
       0.059557993 -0.076738305 -0.16498496 -0.21428376
000260 c7 d9 23 3e 7e 14 94 bd d3 54 80 bd 7b f6 17 bd
       0.16001044 -0.07230471 -0.06266179 -0.037100296
000270 0a e1 3e bd 3d e7 0d 3d 33 48 a5 bd 17 0d 80 be
       -0.046601333 0.034644354 -0.080704115 -0.25009987
000280 60 da 4c bd b7 38 a8 bd 33 ec 9e bd 35 2b 95 3c
       -0.050012946 -0.082139425 -0.07759895 0.01820908
000290 49 02 70 be 40 3c 8a 3d ca 29 a1 bd 2d 0d f1 bc
       -0.23438372 0.06749773 -0.07869299 -0.029425228
0002a0 d9 6c 75 3d 96 7f a0 bd 75 3d 27 be 5b b7 59 be
       0.05991826 -0.07836835 -0.16332038 -0.21261351
0002b0 c7 1d 25 3e cc 24 92 bd 0f 80 81 bd e0 2f 13 bd
       0.1612464 -0.07135925 -0.06323253 -0.03593433
0002c0 0b 0e 38 bd d3 48 09 3d 49 0b a9 bd 67 6e 7d be
       -0.044935267 0.033516716 -0.082541056 -0.24749146
0002d0 7d 75 44 bd a0 25 a2 bd 3e cc 9b bd 6b 04 a3 3c
       -0.047963608 -0.07917333 -0.076073155 0.019899568
0002e0 99 f1 73 be 1d 8a 83 3d aa 9a 9c bd 4c 31 f7 bc
       -0.23822631 0.064228274 -0.07646687 -0.030174874
0002f0 17 bc 6c 3d 0b cb 9b bd cf 9e 28 be c3 27 5d be
       0.057796564 -0.07607087 -0.1646683 -0.21597199
000300 9d 80 28 3e 5a fc 90 bd 20 52 7c bd c7 f1 0e bd
       0.16455312 -0.07079382 -0.061601758 -0.034898546
000310 dc 5d 37 bd b3 59 fe 3c 0a 02 a4 bd 0c 5a 81 be
       -0.044767246 0.031048631 -0.080082014 -0.25264013
000320 cf 23 4e bd d6 f3 a7 bd 8a 7d a0 bd 3a c7 8c 3c
       -0.05032712 -0.08200805 -0.07836445 0.017184842
000330 d4 81 72 be 95 02 89 3d 9c 10 9c bd c0 19 f0 bc
       -0.23682338 0.066899456 -0.076203555 -0.029309154
000340 40 3c 73 3d 85 45 9a bd 10 78 27 be 0d b4 5b be
       0.05938363 -0.07532791 -0.16354394 -0.21455403
000350 c6 5b 26 3e 78 0d 95 bd ed 5c 85 bd 0c bc 1e bd
       0.16245946 -0.072779596 -0.06511865 -0.038753554
000360 2a bc 41 bd e0 c5 0a 3d 94 39 ab bd f8 23 7f be
       -0.047298588 0.033880115 -0.083605915 -0.24916065
000370 8c 47 4a bd 4d 22 a4 bd 02 23 a0 bd 57 20 bb 3c
       -0.04938464 -0.08014355 -0.07819177 0.02284257
000380 11 19 6a be 11 59 86 3d 52 1a 9f bd 6f d1 e7 bc
       -0.22861125 0.06559957 -0.07768692 -0.028298108
000390 84 51 7b 3d 7e e5 9b bd 4f c2 24 be 88 12 55 be
       0.061357036 -0.076121315 -0.16089748 -0.2080785
0003a0 b7 05 23 3e 7d c0 8f bd ac d4 7d bd 8b 54 1a bd
       0.15920149 -0.07019136 -0.061970398 -0.037678283
0003b0 2c 61 3f bd 4c 2b 0c 3d e7 c1 a6 bd 99 3a 76 be
       -0.04672353 0.03422098 -0.08142453 -0.2404579
0003c0 c7 db 4c bd 56 01 aa bd 17 ce a3 bd 80 37 d4 3c
       -0.050014284 -0.08301036 -0.07998293 0.02590537
0003d0 7b 79 75 be 19 cc 8c 3d 49 4a a1 bd ce e1 ec bc
       -0.23972122 0.06874866 -0.07875497 -0.028916266
0003e0 c0 62 74 3d 43 32 9c bd 2c c8 2b be 43 a4 5f be
       0.059664488 -0.07626774 -0.16775578 -0.21840005
0003f0 ec df 27 3e d6 c9 94 bd 31 85 80 bd 9e b0 19 bd
       0.16394013 -0.0726506 -0.06275404 -0.03752195

layers.0.egnn.edge_mlp.3.bias f4 [16]
000000 1f d9 7d 3e 62 d8 07 3e 0a 16 8e bd 0f 70 2f be
       0.24789856 0.13266137 -0.06937797 -0.1713259
000010 0a bf 60 be 17 7a ea bd 6c cb 00 3e f9 fb 41 3e
       -0.21947876 -0.11449068 0.125776 0.18943776
000020 c1 97 2b 3e 12 cf 80 3e e0 87 83 3e b9 f1 df 3d
       0.16757108 0.25157982 0.25689602 0.10934777
000030 0d 9c 03 3e bf 63 2f bd 42 a3 88 be 28 fa be bd
       0.12852497 -0.042819735 -0.26687056 -0.09325057

layers.0.egnn.node_mlp.0.weight f4 [8, 20]
000000 27 2f 80 b9 52 1d 4b 3a f1 fd 73 3a ee dc af ba
       -0.00024449194 0.00077482045 0.00093075546 -0.0013417283
000010 19 8d ca 39 3d 2f 94 3a fc 70 d7 b9 75 0f 64 ba
       0.00038633568 0.0011305582 -0.00041092176 -0.0008699813
000020 46 cf 35 38 72 37 a5 ba 04 39 14 ba d5 f1 e9 39
       4.33468e-05 -0.0012605025 -0.0005654248 0.00044621402
000030 de 65 4e ba 68 f9 ec 38 0d 95 01 39 ba a1 36 3a
       -0.0007873456 0.000112998125 0.00012357924 0.0006966848
000040 64 2b 35 ba 5a 52 ae 39 43 a5 ad 39 54 a1 b9 b9
       -0.0006911068 0.00033249223 0.0003312026 -0.00035406149
000050 af 13 30 b9 a8 1f a9 b9 33 62 1f ba 01 93 7b ba
       -0.00016792 -0.00032257778 -0.00060800015 -0.00095967954
000060 93 a0 f0 ba a3 6f 0c ba 7c 63 b5 ba 5e a0 2e ba
       -0.0018358402 -0.00053572113 -0.0013838853 -0.000666147
000070 e7 c0 d9 38 0f b5 9c 3a 5e 0b 81 38 6b 3e 6a ba
       0.00010383297 0.0011955815 6.153317e-05 -0.00089356926
000080 23 b5 83 ba 16 7e 03 3a f7 15 e1 3a 80 42 3e b9
       -0.001004849 0.00050160417 0.0017172684 -0.00018144585
000090 dc 20 38 ba b4 9b 22 3a 64 4a 49 ba 1b 50 bb ba
       -0.00070239394 0.0006203011 -0.00076786266 -0.0014290841
0000a0 e4 77 c9 3a b2 2c 22 3a f0 b5 a3 38 d2 29 d5 ba
       0.0015370813 0.00061864697 7.806334e-05 -0.0016263074
0000b0 11 39 99 ba be 75 42 ba b7 1f 07 ba 8a e9 00 ba
       -0.0011689981 -0.00074180576 -0.0005154567 -0.00049176125
0000c0 83 ff af 3a 57 5d d1 3a 32 a2 7d 39 ba fe 0e ba
       0.0013427589 0.0015973252 0.00024188383 -0.00054548273
0000d0 84 ad f8 b9 51 12 ed b8 05 88 8a ba 7b 5f 19 3a
       -0.00047431525 -0.00011304452 -0.0010569101 0.00058507145
0000e0 a5 b1 17 39 ad e7 32 ba f0 bb fd ba 1a e2 07 3a
       0.0001446666 -0.00068246835 -0.0019358378 0.0005183533
0000f0 2b f0 c3 39 23 d8 89 ba d8 b2 88 3a 1e c0 15 3a
       0.00037372237 -0.0010516684 0.0010429276 0.00057125266
000100 19 a8 5f b9 a0 32 a4 39 e5 bd e1 38 87 bf 15 38
       -0.00021329559 0.00031318236 0.00010764207 3.5702742e-05
000110 dc e8 6d 3a 7f 6c e1 ba 0f 0f 09 b9 03 6f 44 b9
       0.0009075531 -0.0017198472 -0.00013070948 -0.00018733372
000120 c2 93 95 3a 1c de c6 ba 2c cb 3c ba f9 64 89 ba
       0.0011411833 -0.0015172395 -0.0007201906 -0.0010482363
000130 6d 0d 26 39 5a 3e 86 ba 12 cf 07 3b 50 04 f2 b8
       0.00015835995 -0.0010241971 0.0020722789 -0.000115402625
000140 09 be 45 b9 cc c2 dd 39 5d c1 c0 3a 0b f7 9b 39
       -0.00018858178 0.0004229754 0.0014706064 0.00029747965
000150 0e 05 e2 ba 1f 96 59 3a 53 86 a6 ba 23 a7 b7 ba
       -0.0017243938 0.0008300263 -0.0012704827 -0.0014011603
000160 ab f4 4e ba 90 af a0 3a 3e 3d 92 ba c2 d0 62 b8
       -0.0007894735 0.0012259353 -0.0011157168 -5.407702e-05
000170 46 06 36 3a cb 68 cc ba 23 27 0b 3a 57 5d 0d ba
       0.0006943684 -0.0015595196 0.0005308261 -0.0005392632
000180 40 50 04 39 6d dc 2f 39 9b 5b 3a 3a 8a 83 af ba
       0.00012618396 0.00016771416 0.0007108987 -0.0013390642
000190 14 1d aa 3a 27 65 f5 ba c5 c4 38 ba 26 cb 68 38
       0.0012978637 -0.0018722162 -0.0007048364 5.5502307e-05
0001a0 bb 90 82 3a e8 23 64 b9 be 58 b0 ba 53 10 b1 b8
       0.0009961346 -0.0002175715 -0.0013454182 -8.443058e-05
0001b0 24 5b 85 ba d8 a2 6d 39 53 92 06 3a 26 0f bb 3a
       -0.0010174257 0.00022662745 0.00051334983 0.0014271482
0001c0 2d b4 29 3a 65 3c bd 3a 92 15 2c 3a fd d2 73 3a
       0.00064736867 0.0014437555 0.00065644935 0.0009301154
0001d0 be a6 48 3a d0 cf a4 3a 75 8d eb b9 d1 01 da ba
       0.0007654241 0.001257414 -0.00044928087 -0.0016632621
0001e0 13 11 61 ba 56 49 03 3a 11 33 3d 39 05 81 a1 37
       -0.0008585613 0.00050081813 0.00018043468 1.9252775e-05
0001f0 13 1a c3 39 27 ca a1 ba e3 ee 83 3a 0d 04 13 ba
       0.00037212725 -0.0012343571 0.0010065701 -0.00056082086
000200 8c 8d 7a 3a 33 49 c4 39 68 bd 20 3a bf 7a 57 ba
       0.00095578353 0.0003743857 0.00061317394 -0.000821989
000210 37 32 1c ba 85 7a 52 3a bd d2 22 3a 97 2c b1 ba
       -0.00059584103 0.0008029121 0.0006211212 -0.0013517317
000220 36 2e 89 b9 d6 3b 28 bb b5 5d 0e 3b af 04 a0 ba
       -0.00026165106 -0.002567043 0.0021723334 -0.0012208427
000230 df 85 53 3a a9 9c 92 3a 31 0a 09 3a 6e fd ee b9
       0.00080689596 0.0011185604 0.0005227654 -0.00045583717
000240 62 3a 7e 38 cd ba b7 3a 23 41 22 3b b5 c8 a7 ba
       6.0612692e-05 0.0014017463 0.0024758063 -0.0012800904
000250 95 44 57 3a 94 51 bf b9 a1 76 05 38 db f2 47 bb
       0.00082118186 -0.0003649114 3.1820153e-05 -0.0030509743
000260 1a fe 52 ba 53 a6 90 39 37 c9 5e 3a 2d 24 8d 3a
       -0.00080487283 0.00027589742 0.0008498611 0.0010768228
000270 c6 6a 4a 3a 7b 95 b2 b9 47 86 35 3b 90 b2 19 3a
       0.0007721599 -0.00034062177 0.0027698444 0.00058630947

layers.0.egnn.node_mlp.0.bias f4 [8]
000000 8f 15 d2 3d c0 0b 0b be a9 5d 05 3e c6 32 21 bd
       0.10258018 -0.13578701 0.1302401 -0.039355062
000010 4e f5 34 3e d4 3d 0a 3e d4 69 f8 3d f2 eb ec 3d
       0.17671701 0.13500148 0.1212956 0.115684405

layers.0.egnn.node_mlp.3.weight f4 [4, 8]
000000 5d 5e 33 b7 8e 79 c4 3a 14 eb 50 b9 a3 65 10 39
       -1.0691202e-05 0.0014989839 -0.00019923999 0.00013770773
000010 21 7f 0b bb 07 2c 9b b9 22 23 11 3a b7 1c 89 39
       -0.0021285492 -0.00029596707 0.0005536546 0.0002615207
000020 63 97 1d bb a9 c8 a1 ba d5 73 a1 39 49 00 a3 ba
       -0.0024046532 -0.0012343127 0.00030794615 -0.0012435998
000030 7d 9f aa 3a 9a 17 66 b9 e7 ea ff 39 1a 70 36 ba
       0.0013017502 -0.00021943302 0.00048812406 -0.00069594535
000040 87 ba 92 3a 40 2d 08 ba b4 ac 00 3a 61 bb 05 3b
       0.0011194505 -0.0005194731 0.0004908547 0.0020405876
000050 15 39 cd ba 56 1d c8 b9 14 f1 87 39 1d e8 da ba
       -0.001565727 -0.0003816883 0.00025928824 -0.0016701255
000060 04 b6 32 ba 41 25 36 3a 92 8f 41 b9 7e cb cd ba
       -0.00068172836 0.00069483 -0.00018459398 -0.0015700904
000070 da dd 26 ba 8f 17 7d 39 26 98 0b b8 34 01 82 3a
       -0.0006365456 0.00024136736 -3.328188e-05 0.0009918571

layers.0.egnn.node_mlp.3.bias f4 [4]
000000 5d ff 7d 3e 27 ad 35 be d7 18 f8 3d 7d e7 8e be
       0.24804445 -0.17741834 0.12114113 -0.27910987

layers.0.egnn.coors_mlp.0.weight f4 [64, 16]
000000 b1 ce cb 3c 78 e3 05 3d 0a 50 da bd 9d 62 11 bd
       0.024878832 0.032687634 -0.106597975 -0.035494436
000010 52 a2 0d bd 04 e8 3e bd ac 7c 13 3d 37 36 dc 3c
       -0.03457863 -0.046607986 0.03600757 0.02688132
000020 84 d5 eb 3c 74 b4 dc 3c 7e 34 e2 3c 6b 84 0d 3d
       0.028788336 0.026941516 0.02761292 0.03455011
000030 11 cf 0e 3d 81 58 1c bd 64 7c f7 bc 2c 73 4f bd
       0.034865443 -0.03817034 -0.030210681 -0.050646946
000040 73 d8 f7 3c db 9e 1d 3d 47 5b fc bd b0 f3 1e bd
       0.030254578 0.038481575 -0.12322097 -0.038806617
000050 98 52 0b bd 2c 23 4e bd 55 58 26 3d b3 ec 07 3d
       -0.034014314 -0.05032651 0.040611584 0.03318472
000060 2d 64 07 3d 49 7a 01 3d b6 61 fc 3c 10 45 29 3d
       0.03305452 0.03161076 0.030808311 0.04132563
000070 8a ed 1e 3d f5 ed 30 bd a9 df 07 bd 92 9e 65 bd
       0.038800754 -0.043195684 -0.033172283 -0.056059428
000080 4b 85 04 3d 52 32 20 3d e4 bf d6 bd 2a ad 21 bd
       0.03235368 0.03911049 -0.10485819 -0.039471783
000090 ab b6 14 bd 11 8b 4d bd db 31 28 3d fc 29 11 3d
       -0.03630702 -0.050181452 0.04106317 0.03544043
0000a0 55 13 11 3d 49 ca 0b 3d 90 42 0c 3d f0 07 2b 3d
       0.035418827 0.03412846 0.034243166 0.041755617
0000b0 69 92 25 3d 99 c0 36 bd 55 aa 0d bd 98 21 60 bd
       0.04042283 -0.04461727 -0.03458627 -0.054719537
0000c0 cd c5 2b bd 92 40 5a bd 94 df fb 3d 41 c5 29 3d
       -0.041936684 -0.053284235 0.122985035 0.04144788
0000d0 40 33 19 3d e9 35 5b 3d fc 29 65 bd 9d 64 37 bd
       0.03740239 0.05351821 -0.055948243 -0.044773687
0000e0 da b4 46 bd 94 83 23 bd a3 94 20 bd 02 22 75 bd
       -0.048512317 -0.039920405 -0.03920425 -0.059846886
0000f0 f7 b5 67 bd 54 81 68 3d 91 7f 12 3d 9a 0e 78 3d
       -0.05657002 0.056763962 0.035766188 0.0605608
000100 51 ec 27 bd 8a ad 60 bd 4f f5 fe 3d 1b e4 29 3d
       -0.040996853 -0.054853 0.12449133 0.041477304
000110 77 bb 1f 3d 7a 61 5b 3d a9 bc 64 bd 52 49 3a bd
       0.03899714 0.053559758 -0.055843983 -0.04548008
000120 6a 8b 47 bd 87 18 28 bd 04 33 22 bd cf 9d 6b bd
       -0.04871694 -0.041039016 -0.039599434 -0.057523545
000130 c4 90 68 bd 76 2d 6e 3d 66 29 0d 3d 98 d1 70 3d
       -0.056778684 0.058148824 0.03446331 0.058793634
000140 76 b0 06 3d de 27 25 3d 7b e7 df bd 2e cc 2e bd
       0.03288313 0.040321223 -0.10932823 -0.04267519
000150 16 3e 20 bd e2 f8 56 bd bf 5e 26 3d 0c 59 0e 3d
       -0.03912171 -0.052483447 0.0406177 0.03475289
000160 86 97 16 3d 75 74 0a 3d 64 32 06 3d ad 36 2e 3d
       0.036765598 0.03380247 0.0327629 0.04253261
000170 c8 6e 2f 3d 12 a8 3d bd 78 f7 0c bd a0 42 69 bd
       0.04283026 -0.046302862 -0.034415692 -0.056948304
000180 d2 71 8e 3c 72 52 d0 3c 7e f9 ae bd 6b 94 f8 bc
       0.017388258 0.025429938 -0.085436806 -0.030344209
000190 d6 2e d9 bc 26 af 1e bd ec 43 d2 3c b7 25 a1 3c
       -0.02651159 -0.038741253 0.025667153 0.019671304
0001a0 e7 d4 9b 3c cb d6 7f 3c 8e c1 91 3c 9d b7 c1 3c
       0.019022418 0.0156151755 0.01779249 0.023647124
0001b0 8e e6 be 3c e6 91 d8 bc e3 63 d7 bc c9 6b 2b bd
       0.023303296 -0.026436757 -0.026292747 -0.04185084
0001c0 48 10 26 bd 8c 83 6c bd 63 b6 0c 3e af 5b 24 3d
       -0.04054287 -0.05774264 0.1374145 0.0401265
0001d0 c4 09 15 3d b5 3a 56 3d 5f de 6e bd 7e 1c 35 bd
       0.036386266 0.05230208 -0.05831754 -0.044216625
0001e0 b9 a4 43 bd 5e 3a 1e bd 5f 9c 1e bd 3a e4 76 bd
       -0.047764514 -0.038629882 -0.038723346 -0.060276248
0001f0 3c b6 6d bd 4d 2a 6a 3d 75 35 04 3d b6 02 7a 3d
       -0.05803512 0.057169247 0.032277543 0.06103774
000200 78 4b 2b bd 1f c7 5c bd eb 49 fd 3d df 29 2e 3d
       -0.04182002 -0.053900834 0.12367614 0.0425204
000210 37 13 19 3d 1e 1f 59 3d f1 b6 6b bd a2 5e 3c bd
       0.03737184 0.05300819 -0.057547513 -0.045988686
000220 7d ed 3f bd 42 6d 1f bd 9f 08 22 bd da 67 70 bd
       -0.046857346 -0.038922556 -0.039559003 -0.05869279
000230 26 75 64 bd 93 52 6d 3d 94 2c 0e 3d c2 83 75 3d
       -0.055775784 0.057940077 0.03471048 0.059940107
000240 9e 0f 04 3d f1 2d 22 3d b9 04 e3 bd ed 41 28 bd
       0.032241456 0.039594594 -0.11084885 -0.041078497
000250 e4 84 1d bd ba 80 59 bd 61 47 2d 3d 21 ab 0a 3d
       -0.038456813 -0.05310128 0.0423044 0.033854607
000260 18 ad 0e 3d 3b 34 0b 3d 3f 8b 03 3d 83 05 31 3d
       0.034833044 0.033985358 0.032115217 0.043218147
000270 d6 f8 2e 3d 4e 97 38 bd 08 74 15 bd 7d e5 65 bd
       0.042717777 -0.04506617 -0.03648761 -0.05612706
000280 ee 35 28 bd 91 3b 65 bd 9c a6 0b 3e 96 f0 24 3d
       -0.041067056 -0.05596501 0.13637775 0.040268503
000290 11 01 14 3d 10 53 54 3d 18 da 6b bd 4e bd 38 bd
       0.03613383 0.051837027 -0.057581037 -0.04510241
0002a0 9d 94 41 bd fe 50 1f bd b2 54 1c bd 50 59 7f bd
       -0.04726087 -0.0388956 -0.03816671 -0.062341034
0002b0 f0 b7 69 bd bb db 79 3d 63 6a 10 3d af 26 77 3d
       -0.057060182 0.061000567 0.03525771 0.060339626
0002c0 8c 57 17 bd d2 50 54 bd 62 dd 08 3e 39 7a 29 3d
       -0.036948726 -0.05183489 0.13365701 0.041376326
0002d0 c5 48 12 3d 99 39 65 3d 41 1f 5d bd 87 43 37 bd
       0.03571393 0.055963133 -0.053984884 -0.044742133
0002e0 96 2c 3a bd 27 b4 23 bd ea a7 20 bd 4f 04 66 bd
       -0.045452677 -0.03996673 -0.039222635 -0.056156453
0002f0 33 96 68 bd 54 48 6b 3d e2 08 0d 3d 90 a0 7e 3d
       -0.056783866 0.057442024 0.0344323 0.062164843
000300 d2 a1 00 3d 18 e4 23 3d 7a 14 ea bd 43 ec 27 bd
       0.031404324 0.04001245 -0.11429687 -0.0409968
000310 fb 01 18 bd 89 53 4a bd b6 47 2a 3d 9f be 0a 3d
       -0.037111264 -0.04939607 0.041572295 0.033873197
000320 3d 35 16 3d a6 4b 0a 3d 0c 5e f6 3c 26 ca 26 3d
       0.036671866 0.03376355 0.030074142 0.040720128
000330 42 06 23 3d 08 1e 31 bd b5 e5 0e bd 2f 54 63 bd
       0.03980089 -0.04324153 -0.034887034 -0.055500206
000340 ab 5a 2d bd 45 8b 61 bd 10 e8 0a 3e dd 7e 20 3d
       -0.042322796 -0.05506446 0.13565087 0.039183486
000350 b9 9d 13 3d fb 46 59 3d e7 bf 71 bd 0e fe 41 bd
       0.036039088 0.053046208 -0.059020903 -0.047361426
000360 02 c1 3e bd 7a 32 25 bd 71 74 21 bd b5 3e 7a bd
       -0.046570785 -0.04033134 -0.039417688 -0.06109496
000370 1f 60 70 bd b5 e2 72 3d 21 ee 0c 3d 85 92 77 3d
       -0.05868542 0.059298236 0.034406785 0.060442466
000380 f3 1d 2a bd 8f 86 60 bd ec ae fd 3d d3 a7 27 3d
       -0.041532468 -0.054815825 0.12386879 0.040931534
000390 7f 40 10 3d dc 6a 58 3d b5 87 71 bd a0 cb 3b bd
       0.03521776 0.052836284 -0.05896731 -0.04584849
0003a0 28 47 3c bd 9e 16 2b bd 2f ad 21 bd 9b 6d 75 bd
       -0.045966297 -0.041769616 -0.0394718 -0.05991898
0003b0 30 57 6a bd ad 79 6e 3d 38 72 0a 3d ee 45 77 3d
       -0.057212055 0.058221508 0.033800334 0.060369425
0003c0 93 4e 05 3d d5 65 1f 3d d8 0c de bd fe 0a 2f bd
       0.032545637 0.038915474 -0.108422935 -0.042735092
0003d0 a2 b9 18 bd c8 a0 52 bd 7e 41 21 3d 74 32 0d 3d
       -0.03728641 -0.051422864 0.0393691 0.034471944
0003e0 24 11 17 3d 05 73 02 3d d7 b7 03 3d 40 33 2c 3d
       0.03688158 0.031847972 0.032157745 0.042041063
0003f0 c5 17 29 3d 17 bc 38 bd 5f 22 11 bd 92 ac 68 bd
       0.041282434 -0.04510125 -0.03543317 -0.0568052

layers.0.egnn.coors_mlp.0.bias f4 [64]
000000 2e 9b 81 3d 0f 0a 3d 3e f1 4a 5e 3e cf d5 74 bd
       0.06328426 0.18460868 0.21708275 -0.059774216
000010 a2 62 0f be d4 34 6b 3e 97 3e d3 3c ce 5d 68 be
       -0.14002469 0.22969371 0.025786681 -0.22692034
000020 d2 ce 0c be e4 21 2c 3e 8b cf 84 be 8a 91 7d bd
       -0.1375077 0.16809803 -0.25939593 -0.061906375
000030 28 d6 5d 3e 0c 23 6a be 50 62 50 be 5d ef 1a 3e
       0.21663725 -0.22864932 -0.20350003 0.15130372
000040 1b 66 cd 3d 65 e9 1e 3e 1f 21 f8 bd 32 36 dc 3d
       0.10029241 0.1551872 -0.12115692 0.107525244
000050 5f a4 4e 3e 0a df d7 3c 27 dd 38 3d 9a cc fc bd
       0.2017989 0.02635147 0.045132782 -0.12343712
000060 1d 58 7c 3e 2e b8 41 3e 36 8a 8a 3e a4 a5 16 be
       0.24642988 0.18917915 0.27058572 -0.14711624
000070 24 ba 70 3e 55 1d 20 bd 82 31 dd 3d 78 52 26 be
       0.23508507 -0.039090473 0.108004585 -0.16242397
000080 aa 41 5a 3e 9a dd 27 be 0c 9b 68 be cb ec 1e 3e
       0.21314111 -0.16393128 -0.22715396 0.15520017
000090 fd 62 82 be 2d 95 be 3d ea 9d 76 bd 8a da 3a be
       -0.25466147 0.09305797 -0.060209192 -0.18247429
0000a0 c4 20 5a bd c2 86 3b 3e bc da 06 3d 23 20 2e 3e
       -0.053253904 0.18313125 0.032923445 0.17004447
0000b0 88 bd 4a be a2 d5 61 3e 10 72 8c 3e 71 a5 4f bd
       -0.19798863 0.2205415 0.27430773 -0.050694887
0000c0 26 84 1a 3d a8 7d c6 3d 62 65 40 3e 7d 3b b1 bd
       0.037723683 0.09691936 0.18788674 -0.086539246
0000d0 dd 51 4d be 88 2c 7e 3e 1d 6d 4a 3e 7f 10 83 be
       -0.2005076 0.24821675 0.19768186 -0.25598523
0000e0 3b c5 6c bd 97 0f 31 3e e4 82 be bd ee 90 bf 3d
       -0.05780528 0.17291103 -0.09302309 0.09353815
0000f0 1f 50 69 be 88 4d fc bc e0 d6 72 be 4f 5b 5e be
       -0.2278447 -0.030798689 -0.23714781 -0.21714519

layers.0.egnn.coors_mlp.3.weight f4 [1, 64]
000000 9d 1b c5 bc bc 2b b5 bc 0d 20 cf bc ac d6 f0 3c
       -0.024061019 -0.02211558 -0.025283838 0.029399239
000010 12 3f d3 3c cb 78 c4 bc 63 11 b3 bc 9b 16 c0 3c
       0.02578691 -0.02398338 -0.021858877 0.02344828
000020 9a 1a d3 3c 4c 36 c1 bc 6b d2 bc 3c 1c e9 e3 3c
       0.02576952 -0.023585461 0.023049554 0.027821116
000030 e7 b1 be bc d8 37 c0 3c fa 4a cf 3c 00 0b c5 bc
       -0.02327819 0.023464128 0.025304306 -0.024053097
000040 dc 78 c9 bc 27 55 c8 bc 6b 96 e4 3c b3 9b d2 bc
       -0.024593763 -0.024454666 0.027903756 -0.025709009
000050 46 01 c0 bc 2f dc b5 bc d2 b9 d4 bc cc c9 c4 3c
       -0.023438107 -0.022199718 -0.025967512 0.024022005
000060 1b 42 cf bc 50 5b b4 bc 19 7e c5 bc 85 8c ce 3c
       -0.025300076 -0.022016197 -0.02410798 0.02521349
000070 d6 d3 bc bc d1 8d ff 3c 84 47 c4 bc d2 df d0 3c
       -0.02305023 0.031195553 -0.023959883 0.02549735
000080 6d 3b c3 bc cd 1b cc 3c ba b4 ca 3c b7 f5 b4 bc
       -0.023832047 0.0249156 0.02474438 -0.022089822
000090 19 73 c5 3c da c7 b7 bc a7 07 ee 3c 09 cd cf 3c
       0.024102734 -0.022434164 0.029056383 0.025366323
0000a0 3f 63 f1 3c c4 3d ba bc ef d5 b1 bc 0e 88 bf bc
       0.02946627 -0.02273453 -0.021708457 -0.023380306
0000b0 18 26 c2 3c eb 63 c3 bc 9d dd be bc 74 18 e9 3c
       0.023699805 -0.023851356 -0.023299033 0.028454043
0000c0 e8 8a d0 bc e7 dd ca bc 23 f3 c3 bc d4 82 dd 3c
       -0.02545686 -0.024764014 -0.023919648 0.027039923
0000d0 08 66 c9 3c 37 87 b8 bc 00 d3 b3 bc df bc bf 3c
       0.024584785 -0.022525413 -0.021951199 0.02340549
0000e0 96 46 e2 3c a2 45 bc bc c3 c3 d4 3c 74 91 c5 bc
       0.027621549 -0.022982422 0.025972253 -0.024117209
0000f0 96 b0 ca 3c 6a 76 f9 3c b1 c2 c5 3c 0c 2a ba 3c
       0.024742406 0.030451972 0.024140688 0.022725128

layers.0.egnn.vel_mlp.0.weight f4 [16, 4]
000000 26 6c 86 3a eb d0 27 ba 78 c8 fa 39 32 8f ba 38
       0.0010255619 -0.00064016756 0.00047833077 8.895843e-05
000010 dd 42 c6 3a 40 4f 78 ba 68 b6 ef 38 9e 06 fe ba
       0.0015126128 -0.00094722584 0.00011430384 -0.0019380634
000020 5b ec b5 38 1d d3 83 3a b2 95 be ba ed 27 84 ba
       8.674777e-05 0.0010057423 -0.0014540462 -0.00100827
000030 b5 e3 10 3a 0c 87 48 ba 1d 6f 8f 3a 82 99 a6 b9
       0.0005527095 -0.0007649518 0.0010943149 -0.0003177636
000040 66 b1 9d 3a 2c 81 c3 b9 02 be 1e ba ca 9a dc ba
       0.0012031018 -0.0003728954 -0.0006055535 -0.0016830799
000050 5a 62 99 3a 42 e0 43 ba cc 8e a4 b9 fc ce 68 ba
       0.0011702285 -0.00074720767 -0.0003138691 -0.0008880941
000060 aa b1 8f ba d8 b4 80 3a 2f b4 85 ba 25 7c eb 38
       -0.0010962982 0.0009819521 -0.0010200794 0.00011228797
000070 69 7f a2 b9 44 93 46 39 64 5d e2 39 0b bf d4 38
       -0.00030993976 0.00018937612 0.0004317566 0.00010144532
000080 8e 3a 12 3b b4 08 11 3b 99 bc b9 ba 01 e2 d0 ba
       0.0022312733 0.0022130432 -0.0014170586 -0.0015936495
000090 91 42 dc 3a db b5 94 ba f7 4b a0 3a f2 49 f6 b4
       0.0016804506 -0.0011345701 0.001222967 -4.5874873e-07
0000a0 f4 ca 69 3a cb b9 18 39 05 3f 7c ba 10 bd 79 ba
       0.0008918487 0.00014565063 -0.0009622428 -0.00095267687
0000b0 b7 eb 70 3a ec 64 83 3a 8e 5f ae ba a3 ad 87 ba
       0.00091903977 0.0010024584 -0.0013303624 -0.001035143
0000c0 d9 c6 f7 b9 8e 9d 37 ba ed a6 e9 38 35 4d 3f 39
       -0.00047259664 -0.00070043735 0.00011141398 0.00018243941
0000d0 f1 20 fc ba 46 da ac 3a 6c 52 14 bb 00 f1 8a b9
       -0.0019235892 0.0013187609 -0.0022632135 -0.0002650097
0000e0 64 01 6c b9 6d bd e0 ba 88 d9 1e 3b 6e ac b1 39
       -0.00022507232 -0.0017146297 0.0024238545 0.0003388854
0000f0 75 47 a7 3a 4f 1b e6 ba 35 88 c3 3a d6 85 70 b9
       0.0012762385 -0.0017555746 0.0014917912 -0.00022938041

layers.0.egnn.vel_mlp.0.bias f4 [16]
000000 48 f5 c2 3e db 43 14 3e 65 63 2a be 59 79 51 be
       0.3807776 0.1447901 -0.16639479 -0.20456447
000010 a7 38 63 3e 6f 60 cc 3e 03 14 99 3d 01 ff 18 3d
       0.2218958 0.39917323 0.0747452 0.037352566
000020 08 5b ac 3e c7 81 b4 bc ce d9 4c 3e 9f 01 3e 3d
       0.336632 -0.022034539 0.20004961 0.046388265
000030 6e 0b ab be ff d8 72 3e 99 ca 73 be 38 df 4f be
       -0.33407158 0.2371559 -0.23807754 -0.20299995

layers.0.egnn.vel_mlp.3.weight f4 [1, 16]
000000 c7 4d 80 39 dd 1c 06 39 33 1f 38 39 89 1d c3 b7
       0.0002447201 0.00012789988 0.0001755923 -2.3259565e-05
000010 a6 18 35 39 20 48 2b 39 f1 ca 23 b9 19 9a 49 b8
       0.00017270687 0.000163347 -0.00015620493 -4.806565e-05
000020 ed 0b ab 3a b8 6e a4 39 0c 12 9f 39 61 23 f2 39
       0.0013049819 0.0003136301 0.0003034029 0.00046184196
000030 2c 82 b9 b9 a5 3e af b9 9c 7f 07 ba e8 2c af 34
       -0.00035382935 -0.00033425275 -0.00051688566 3.2628964e-07

layers.1.egnn.edge_mlp.0.weight f4 [20, 10]
000000 2a 50 53 3c 51 f1 5e bc 5f e1 92 bc 7b 1c 68 3c
       0.012897531 -0.013607339 -0.017929731 0.0141669465
000010 ed 3c 75 3c b5 9b 89 bc d7 2d 8f bc 83 48 a1 3c
       0.014968139 -0.01679788 -0.017477913 0.019687897
000020 63 66 c4 bc 58 a1 cb 3b 57 dd cd 3c c7 51 b3 bc
       -0.023974603 0.006214302 0.025129957 -0.02188958
000030 de bf c4 bc 14 cf cd 3c 53 ab d9 3c df 89 ed bc
       -0.02401727 0.025123157 0.026570952 -0.028996406
000040 51 c2 ed bc cf c4 ff 3c f8 47 16 bd 6f 8d 7d 3c
       -0.029023321 0.031221775 -0.03668973 0.015475615
000050 7a 57 bb bc a6 ea 7c 3c f2 2d 8d 3c ed bf 9e bc
       -0.02286886 0.015436804 0.017233822 -0.019378627
000060 87 d8 91 bc e2 97 d0 3c 21 88 c8 3c ee e7 d1 bc
       -0.017803444 0.025463048 0.024478974 -0.025623288
000070 6d fd 9c 3d bf f8 5d bc 4c 2c e7 bc 9f 4e b9 3c
       0.07665525 -0.013548075 -0.028219365 0.022620497
000080 6a 6e e2 3c 4f 4a df bc 5c b3 df bc c6 46 fd 3c
       0.02764054 -0.027257113 -0.027307205 0.030917536
000090 e6 5f f8 3c 04 30 03 bd da 44 04 3d 4d 42 98 bc
       0.030319165 -0.032028213 0.032292224 -0.018586302
0000a0 65 df 00 3d 07 82 df bc 13 d3 fe bc 5b dd 06 3d
       0.031463046 -0.027283682 -0.031106507 0.032925945
0000b0 40 dc ed 3c 41 bd 0c bd 2a 42 13 bd 4f 74 1e 3d
       0.029035687 -0.034360174 -0.03595177 0.03868514
0000c0 8c 3c 3a bd 9b 26 b3 3c 34 25 62 3c 80 3d 46 bc
       -0.0454679 0.021868994 0.013802815 -0.012099624
0000d0 d7 55 6b bc 36 0d 58 3c c7 7d 78 3c 46 a3 83 bc
       -0.0143637275 0.0131867435 0.015166706 -0.016069066
0000e0 8f 7e 95 bc ff a8 9a 3c 4c bd 30 bc 45 e1 c9 3b
       -0.018248824 0.018879412 -0.010787319 0.0061608874
0000f0 20 db 81 bc 51 0b 13 3c 5d aa 3a 3c 4a 79 56 bc
       -0.015851557 0.008974866 0.011393157 -0.013090441
000100 b4 1e 5f bc c3 a8 9a 3c fb 5e 96 3c 8e cb 9b bc
       -0.01361816 0.0188793 0.018355837 -0.01901796
000110 ca 58 c1 3d 44 2e ef bb 80 b8 ae bc 24 af 27 3c
       0.09440763 -0.0072992165 -0.02132821 0.010234628
000120 2e d4 84 3c ce fe 90 bc 80 cd 81 bc d2 56 be 3c
       0.016214456 -0.017699625 -0.01584506 0.023234759
000130 bf 29 a2 3c 86 37 ba bc bb 8e ae 3d 34 cf 41 bc
       0.019795297 -0.022731554 0.085233174 -0.011829186
000140 f2 b9 22 3d 89 11 0a bd d7 8c 17 bd 8a d7 22 3d
       0.039728113 -0.03370813 -0.03699955 0.039756335
000150 cf 5d 1f 3d 0c fd 2c bd 12 bf 31 bd f3 6c 39 3d
       0.038907822 -0.04223351 -0.04339511 0.045269918
000160 e6 e6 f3 bc 93 7e f1 3c 0a b3 dc bc fb a1 b6 3c
       -0.029773187 0.0294793 -0.026940841 0.022294035
000170 52 04 e0 3c 76 cf d7 bc 66 60 d7 bc d2 9c e9 3c
       0.02734581 -0.026344042 -0.026291084 0.02851716
000180 26 9f ee 3c 41 ee 03 bd cc 34 d5 3c db 8c 89 bc
       0.029128622 -0.03220964 0.026026152 -0.016790798
000190 24 f0 25 3c 12 ea 2b bc 70 dd 2d bc 73 d8 34 3c
       0.010128055 -0.010492818 -0.010611877 0.011037934
0001a0 0f 91 1d 3c 8c 93 51 bc f5 4d 65 bc ca 05 6f 3c
       0.009617104 -0.012791526 -0.013995637 0.014588783
0001b0 f6 78 03 bc b1 94 87 3b 59 dc 03 3d cc 77 ea bc
       -0.008024445 0.0041375984 0.03219256 -0.028621577
0001c0 76 2c 05 bd 06 45 f9 3c c0 75 03 3d 71 96 18 bd
       -0.032513104 0.03042842 0.032094717 -0.037252847
0001d0 85 5b 13 bd bd c6 2c 3d bb e8 3b bd 97 33 c4 3c
       -0.03597595 0.04218172 -0.045876246 0.023950381
0001e0 2c 86 c7 3c 88 b0 b3 bc d9 f2 cd bc 81 9e d7 3c
       0.02435597 -0.021934763 -0.025140213 0.026320698
0001f0 a3 eb d3 3c 3e 70 ef bc 4f fa f2 bc 25 8d 05 3d
       0.025869196 -0.029228326 -0.029660372 0.03260531
000200 21 d6 16 bd 26 46 8d 3c 61 6e 96 bc a5 ac 34 3c
       -0.036825303 0.017245363 -0.01836318 0.01102749
000210 c0 6f 82 3c 1c 91 75 bc 61 0a 82 bc 38 ef b1 3c
       0.015922427 -0.01498821 -0.01587409 0.021720514
000220 17 51 8f 3c 77 45 b0 bc fc e6 b9 3d 4c 6c 2e bc
       0.017494721 -0.021517498 0.0907726 -0.010645937
000230 56 e2 cc 3c 68 30 b6 bc 27 28 d2 bc 0b 4c de 3c
       0.02501027 -0.022239879 -0.025653912 0.02713587
000240 16 57 d2 3c 6e ca f7 bc 78 cb 02 bd e6 eb 01 3d
       0.025676291 -0.030247893 -0.031932324 0.03171911
000250 15 67 1e bd 35 9c 7e 3c 96 79 89 bc 6f 56 10 3c
       -0.038672525 0.015540172 -0.01678161 0.00880967
000260 79 9c 4e 3c 11 9b 82 bc 4e 62 47 bc 7f 19 aa 3c
       0.012610548 -0.015943082 -0.012169434 0.02076411
000270 c8 33 99 3c 80 8f 9f bc 17 8b ba 3d 89 bc 28 bc
       0.018701449 -0.019477606 0.091085605 -0.0102988565
000280 0b 87 9f bc 0c c3 5f 3c 11 32 8c 3c 97 e3 a1 bc
       -0.019473573 0.013657343 0.017113717 -0.019761844
000290 16 49 84 bc dd d8 bb 3c e6 22 b1 3c 6f 4a c7 bc
       -0.016148131 0.022930557 0.021623086 -0.024327485
0002a0 66 19 a9 3d 6b c4 3d bc 30 f7 ce 3c c2 e2 b8 bc
       0.082567975 -0.011582474 0.025264353 -0.022569064
0002b0 83 0f e4 bc 15 b4 d5 3c 38 99 d5 3c 9e 6d f1 bc
       -0.027839428 0.026086846 0.026074037 -0.029471215
0002c0 53 7c 03 bd 02 ac 0a 3d 2a 8d 20 bd 6c 68 80 3c
       -0.032100987 0.033855446 -0.039197125 0.015674792
0002d0 ce 21 ee 3c 07 61 d5 bc 6a eb f5 bc d0 e4 f7 3c
       0.029068854 -0.026047243 -0.03001948 0.030260473
0002e0 97 9d 01 3d df 32 10 bd d4 43 0e bd 84 23 19 3d
       0.03164443 -0.035204764 -0.034732655 0.037387386
0002f0 6c ab 36 bd 3a 86 a9 3c 5e f6 96 bc 8a b2 2b 3c
       -0.044597074 0.020693887 -0.018428024 0.010479579
000300 76 16 74 3c 28 a4 90 bc db ac 70 bc 89 36 a3 3c
       0.014897933 -0.0176564 -0.014689649 0.019923465
000310 67 5c a3 3c 03 92 ab bc 8a e1 be 3d fd e1 39 bc
       0.019941522 -0.020943647 0.09320362 -0.011345384

layers.1.egnn.edge_mlp.0.bias f4 [20]
000000 75 d8 a0 3d 3a 97 1f 3e d1 59 fc bd b2 1d 50 bd
       0.07853786 0.15585032 -0.123218186 -0.05080957
000010 f2 3d 99 3e f8 fa c2 3c 99 64 8d be 48 3c 39 be
       0.29930073 0.023801312 -0.27615812 -0.18089402
000020 63 dc 0d 3d 13 14 32 bd b2 44 81 3c c0 9d a5 3e
       0.034634005 -0.043476176 0.015779827 0.32346916
000030 71 2c 18 3e c7 84 66 be 16 bf 3b 3e 73 d1 9a be
       0.14860703 -0.22511588 0.18334612 -0.30237922
000040 68 0b 16 be fe 53 39 3e d6 2b a1 3e 17 02 58 be
       -0.14652789 0.18098447 0.31478757 -0.21094547

layers.1.egnn.edge_mlp.3.weight f4 [16, 20]
000000 1e f4 ab bc 50 af a4 bc 6c 24 31 3d e9 3d 9a 3b
       -0.020990428 -0.020103127 0.043247625 0.0047070873
000010 a5 b4 ea bc a0 d0 1a 3c 93 73 e8 3c 4b 8e 08 3d
       -0.028650591 0.009449154 0.028375423 0.033338826
000020 ab 97 e4 3c 8b 6b 2e 3a 74 10 31 3c 7c 0d f2 bc
       0.027904352 0.00066535984 0.010807145 -0.029547445
000030 a1 c7 af bc 3f 28 01 3d c3 8c 9f bc 41 c1 d5 3c
       -0.021457495 0.031532522 -0.0194763 0.026093127
000040 71 40 23 3d 38 13 a7 bc 17 a6 ed bc b4 1b 0f 3d
       0.039856378 -0.020394906 -0.029009862 0.03493853
000050 1f 3f 73 3c 98 f1 8b 3c f2 31 1f bd ad 90 38 b8
       0.014846592 0.017082974 -0.03886599 -4.400376e-05
000060 f4 f2 df 3c 19 49 1d bc 2f c8 cf bc da 48 f3 bc
       0.027337529 -0.009599947 -0.02536401 -0.029697824
000070 b8 39 f2 bc dc a7 be 3b 3e 37 4f bc 6a 17 e3 3c
       -0.029568538 0.0058183502 -0.012647448 0.027721126
000080 8f ba 9b 3c 50 33 d2 bc cb f7 99 3c 91 67 c0 bc
       0.019009857 -0.025659233 0.018794915 -0.023486884
000090 ad 0d 0c bd 23 07 a3 3c b4 d2 dc 3c c9 f9 f5 bc
       -0.03419273 0.019900864 0.02695594 -0.030026333
0000a0 f6 c5 ce 3c a6 cb b5 3c 0e 79 3e bc 96 41 96 3a
       0.02524088 0.022191834 -0.011625541 0.0011463638
0000b0 e8 81 ae 3c 00 d7 45 3a c7 f6 48 bc 10 28 5b bc
       0.021302179 0.0007546991 -0.012265868 -0.013376251
0000c0 3f 1c df bc 03 ef 89 ba 7f af 9e b9 6a 96 a4 3c
       -0.027235148 -0.0010523502 -0.00030266863 0.020091254
0000d0 7a 4f ab 3c 2f 24 67 bc c8 50 b5 3c 9c b0 86 bc
       0.02091192 -0.014107748 0.022133246 -0.016441636
0000e0 97 35 44 bc c4 50 b4 3c 07 55 9e 3c 5b 38 36 bc
       -0.011975667 0.022011168 0.019327654 -0.011121835
0000f0 32 f5 bc bb ec 95 a7 bc f3 aa 06 3d 11 15 97 3c
       -0.0057665342 -0.02045723 0.032877874 0.018442662
000100 b9 fa 0d bd 38 ca 24 bc 59 1a 16 3d 80 a0 f6 3c
       -0.034662936 -0.010057978 0.03664622 0.03010583
000110 d0 13 91 bc 9f e9 60 3c f1 97 fd bb 8b fc 1b bd
       -0.017709643 0.013727575 -0.00773906 -0.03808264
000120 a9 69 bc bc ea 71 0c 3d 5a 87 d6 bc e6 3f 08 3d
       -0.022999601 0.034288324 -0.026187588 0.033264063
000130 49 89 0d 3d ce f7 ce bc b5 a8 12 bd ab 6f 14 3d
       0.034554753 -0.025264647 -0.035805423 0.036239307
000140 d3 95 ba 3b 40 4d ac 3c 35 ef dc bc b5 1f 81 bc
       0.00569413 0.02103293 -0.026969532 -0.01576219
000150 7d fc 00 3d 35 a8 17 3c c3 7c fb bc 76 6c e4 bc
       0.03149079 0.009256412 -0.03069914 -0.02788375
000160 e1 6d 8a 3c 31 b4 42 bc 30 4f d1 3b 50 45 09 3d
       0.016898097 -0.011883781 0.0063876137 0.033513367
000170 f5 7a a2 3c 94 81 e5 bc 82 4c be 3c 42 74 02 bd
       0.019834021 -0.02801589 0.023229841 -0.031849153
000180 7f 23 dc bc bd 6a cf 3c 29 84 04 3d 15 f6 02 bd
       -0.026872395 0.025319451 0.0323526 -0.031972963
000190 eb 7a 0e 3c 04 67 28 bc a8 f0 c9 3c 00 c9 0b 3c
       0.008696298 -0.010278467 0.024650887 0.008531809
0001a0 73 d5 02 bd f6 da 1a bb cc 09 fd 3c 78 3d f6 3c
       -0.031941842 -0.0023629046 0.03088846 0.030058607
0001b0 09 17 1e bc ca 79 af 3b 7d cb 2e bb 39 d1 0d bd
       -0.009649047 0.0053550946 -0.0026671581 -0.03462336
0001c0 80 f2 d8 bb 98 58 fa 3c d1 fc 6d bc aa 52 fd 3c
       -0.006620705 0.030559823 -0.014525608 0.030923206
0001d0 9c b8 df 3c a9 2d 5f bc 80 3a 0a bd 34 23 fc 3c
       0.027309708 -0.013621726 -0.033747196 0.030778505
0001e0 36 85 25 bc a7 55 bf bc c6 b3 09 3d 1f d6 99 3c
       -0.010102561 -0.023356272 0.03361871 0.018778859
0001f0 77 58 01 bd a0 1a 25 bc 03 93 0d 3d d1 7a fd 3c
       -0.031578507 -0.010077149 0.03456403 0.030942352
000200 3e cd b0 bc 53 b8 7e 3c 0e 9d 32 bc 56 32 11 bd
       -0.021582242 0.015546876 -0.010901703 -0.035448395
000210 4e 4a b0 bc ad 88 0e 3d 27 4c d9 bc 3f 7a 0b 3d
       -0.021519806 0.034798313 -0.02652557 0.03405213
000220 3b de 08 3d f0 d0 cb bc ce 46 0a bd c2 dc 10 3d
       0.03341506 -0.024879903 -0.03375893 0.03536678
000230 94 21 04 3c 39 3e b1 3c 72 a3 f1 bc ad b7 8c bc
       0.008064646 0.021636115 -0.029496882 -0.017177427
000240 7f f8 05 3d 7f 1e 32 3c 0c d2 02 bd bc ff e7 bc
       0.032707687 0.010871529 -0.031938598 -0.028320186
000250 c5 2b 9c 3c a0 ba 84 bc 6f c1 e8 3b 7f 61 06 3d
       0.01906384 -0.016202271 0.007103137 0.032807823
000260 3f 56 a1 3c 68 a5 ff bc 3f ad c0 3c ca 0e 03 bd
       0.019694446 -0.031206802 0.02352011 -0.031996526
000270 1e f1 ee bc 3b dc c3 3c ac 01 fe 3c 18 36 fd bc
       -0.029167708 0.023908725 0.031006657 -0.030909583
000280 28 3e 11 3c 6b 7e b2 3c 95 14 f5 bc b6 cb 95 bc
       0.008864917 0.021788796 -0.02991704 -0.018285614
000290 41 9f 05 3d ea f9 37 3c 43 ea 05 bd 77 78 00 bd
       0.03262258 0.011229018 -0.032694113 -0.031364884
0002a0 c0 6c 93 3c 14 79 94 bc 3a fa 18 3c 7a c3 0d 3d
       0.017996192 -0.01812414 0.009337002 0.03461025
0002b0 16 cb b8 3c c1 38 08 bd 03 e0 c0 3c fb 10 05 bd
       0.022557776 -0.03325725 0.023544317 -0.032486897
0002c0 c8 3b f3 bc 80 80 da 3c c4 40 06 3d 74 80 04 bd
       -0.029691592 0.026672602 0.03277661 -0.032349065
0002d0 47 c2 fa 3b 58 aa a5 3c 1d 55 cf bc 57 a8 6e bc
       0.007652554 0.020222828 -0.02530914 -0.0145665025
0002e0 fe 7a 04 3d 1d 31 19 3c 9f 5f f9 bc 2b 97 f4 bc
       0.032343857 0.009350088 -0.030441104 -0.029857239
0002f0 cc ea 9e 3c 10 44 50 bc 74 f9 15 3c c0 9e 0c 3d
       0.01939907 -0.01271154 0.009153713 0.034331083
000300 4d 50 ab 3c 36 9b fa bc b3 5f c3 3c cc fe 09 bd
       0.020912314 -0.030591588 0.023849344 -0.03369026
000310 67 7f e6 bc 13 2c c4 3c 31 4c 06 3d 03 51 f1 bc
       -0.028136922 0.023946797 0.032787506 -0.029457575
000320 a8 9d 0c bc 29 be c7 bc 9a dc 08 3d 0c 4e 95 3c
       -0.00858251 -0.024382668 0.033413507 0.018225692
000330 fe 5c 1b bd 0b 16 1f bc c3 ec 09 3d d5 ab 03 3d
       -0.03793048 -0.009709845 0.03367306 0.032146294
000340 96 f0 8e bc 01 32 7a 3c 5c 39 1b bc bd 91 19 bd
       -0.017448705 0.015270711 -0.009474125 -0.037492502
000350 07 85 b5 bc 71 64 0e 3d b2 9e c6 bc 82 b4 0d 3d
       -0.022158159 0.034763757 -0.024245594 0.034595974
000360 5d 8b 0e 3d b0 ae d9 bc 57 09 0f bd bf 48 11 3d
       0.034800876 -0.026572555 -0.034921017 0.035469767
000370 48 75 2f bc d6 5c ca bc f0 d5 11 3d e7 d4 a8 3c
       -0.010709114 -0.02470247 0.035604417 0.020609332
000380 6a c7 09 bd 71 84 20 bc af f6 09 3d f5 d7 0e 3d
       -0.03363744 -0.0097972015 0.03368252 0.03487392
000390 58 e4 b3 bc 8b 6d 8d 3c f6 e1 17 bc 41 76 10 bd
       -0.021959469 0.017264148 -0.009270182 -0.035269026
0003a0 1e ac b9 bc b8 0e 09 3d 32 17 dc bc ac 61 0f 3d
       -0.02266508 0.033461303 -0.02686653 0.035005257
0003b0 0c 8f 0f 3d 1b cc da bc 4b 8c 05 bd f4 c8 18 3d
       0.03504853 -0.026708653 -0.032604497 0.03730102
0003c0 b2 af 0e bc d4 cc b7 bc 17 bb 02 3d e6 62 97 3c
       -0.008708881 -0.022436537 0.031916704 0.018479776
0003d0 da 78 0d bd ee e5 25 bc 23 53 11 3d a6 cf 02 3d
       -0.03453908 -0.01012562 0.035479676 0.03193631
0003e0 b0 62 ae bc b6 db 84 3c b2 c8 16 bc df ab 0b bd
       -0.021287292 0.016218048 -0.009203123 -0.034099456
0003f0 5d 24 c0 bc 11 39 06 3d 1a 3d d5 bc d5 2a 05 3d
       -0.02345484 0.032769267 -0.026030112 0.03251155

layers.1.egnn.edge_mlp.3.bias f4 [16]
000000 97 74 4c 3b af 67 f0 bb 3b 51 2a ba 2a 62 2f 3d
       0.0031197423 -0.007336579 -0.00064970896 0.042818226
000010 a9 d8 84 bd 6b c8 aa 3b 7e 22 b4 3d d4 d6 cb bd
       -0.06486637 0.00521188 0.08795641 -0.099530846
000020 08 35 3c be 33 a0 81 bd db 25 3d 3d 6a 96 31 3e
       -0.18379605 -0.06329384 0.04617868 0.17342535
000030 31 b8 83 3d 21 c3 0b be c9 97 3c be 8b f5 97 bb
       0.06431616 -0.13648655 -0.18417276 -0.0046374253
