experiments/models/model_N12_batch32_lr0.0001_fd4_b0.5.pth (torch, 30922 bytes, 32 tensors)

time_embedding.0.weight f4 [8, 1]
00000000: 2a4f 423f b11e 22bf 8952 393d 2e55 5cbf
00000010: e431 da3e 66a6 24bf a0cb af3e 15ea 593f
0.75902045 -0.6332808 0.045244727 -0.86067474 0.4261619 -0.64316404 0.3433504 0.85122806

time_embedding.0.bias f4 [8]
00000000: f63f 623f 55a9 d33e aa2c 463f f86d 383f
00000010: dc51 59bf 9bc0 373f 207e 4cbf 250c 3d3f
0.88378847 0.41340128 0.774119 0.720428 -0.8489053 0.7177827 -0.7987995 0.73846656

time_embedding.3.weight f4 [4, 8]
00000000: 5d72 d63d 174b 3a3e a3ea 15be 424d 56bd
00000010: 91ae a43d e7b3 213e b30a b33e 1059 633e
00000020: 6fc2 8dbe 4072 813e 81f3 0b3e 21e8 a8be
00000030: 7844 abbe 6fd6 b8be 8dbe 83be 065d 4d3e
00000040: 8bb3 92bd fed6 873e 979d a93e e7d7 b83b
00000050: b412 e6bd ea88 d63d a763 71bc df13 35be
00000060: d7bf 58be 75c1 223e 2163 c53d d0d4 42bd
00000070: d2f5 d03d 3904 573e f92d a33e 836c b8bd
0.10471032 0.18192707 -0.14640288 -0.052319773 0.080411084 0.15791284 0.349691 0.22201943
-0.27687404 0.25282478 0.13667108 -0.329896 -0.33450675 -0.361011 -0.25731316 0.20055017
-0.07163151 0.26531214 0.33128044 0.005640972 -0.11234036 0.10475333 -0.014733232 -0.17683361
-0.21166931 0.1589411 0.09638048 -0.047566235 0.102031365 0.20997705 0.31871012 -0.09005072

time_embedding.3.bias f4 [4]
00000000: 0025 2cbc db44 75be a975 c53d 7931 d3be
-0.010506868 -0.23952048 0.096415825 -0.41248682

layers.0.egnn.edge_mlp.0.weight f4 [20, 10]
00000000: 4086 813c 817f 99bc 20e9 5f3c 6d19 a3bc
00000010: 4090 633c f787 8ebc 5e67 8e3c cd35 9cbc
00000020: 5a7d 5bbd 19d9 963c 6972 8f3c be74 94bc
00000030: d99d 4a3c b078 9dbc de67 5b3c 9136 94bc
00000040: fa0d 913c 4214 8abc d0f8 61bd b5f0 9e3c
00000050: 6e8e 89bb 843e c23b b692 00bb a8be f33b
00000060: 68d1 923a 6481 783b ed59 c5bb bd94 6f3b
00000070: 2bac 993d abab 6cbb 652d 80bb c5f1 e33b
00000080: 9e97 0bbb f997 0d3c 234d b23a d895 9d3b
00000090: 926b 06bc 0e0a 9e3b 25ec 8d3d d645 f1bb
000000a0: 2c41 ccbb a806 913b b514 a8ba 8ebd f93b
000000b0: 5d92 eeb8 44b2 7f3b a5e0 d0bb 1161 9f3b
000000c0: ff20 923d 1aa2 b1bb 1b04 d0bb c4dc e53b
000000d0: cf68 18bb a25d 053c 69cf d7ba 6a10 973b
000000e0: ee42 0fbc 6414 cb3b 7a17 9c3d de3a c8bb
000000f0: 043f c1bb a08e 053c d0dd 56bb af47 113c
00000100: 7c2a 7eb9 3c92 c13b 1f48 fbbb c829 e33b
00000110: 0ab6 893d 999e 00bc 6dea 09bc 1a6b 103c
00000120: 08f0 6abb ff1a 223c 3b78 7fbb b1f2 d23b
00000130: db52 0fbc a4e2 013c fa31 8c3d 5e6c 03bc
00000140: 3dd0 7a3c 50d2 aebc 0eff 5d3c 2f13 abbc
00000150: 3c3d 5b3c f44b a2bc ea99 8f3c 1f11 9ebc
00000160: dfd6 62bd 03a2 ab3c f2bb 903c f0d2 a4bc
00000170: d407 6f3c a906 b8bc b2d0 483c 865a a5bc
00000180: 9251 a53c 3524 a1bc b63e 63bd 6249 a43c
00000190: 75f4 653c 62ac 95bc 8acf 403c 891a a3bc
000001a0: c313 553c 1978 8fbc 6f8f 903c 39b6 88bc
000001b0: 8850 58bd c91a a33c 8e48 803c 2223 9fbc
000001c0: 8b7a 603c 0b7d b1bc 2e60 4b3c 7b60 8bbc
000001d0: b0f7 893c 90fe 84bc 7ea5 5cbd 8e3d 883c
000001e0: 4820 953c 75fb a4bc 244e 473c 3729 9dbc
000001f0: ccb5 563c 58b5 8dbc fb24 943c 6a62 a1bc
00000200: 7950 58bd 1ee6 913c 424d 9abb 432b c63b
00000210: 235c ddba f68f ba3b 5ed9 80b9 8a38 883b
00000220: fddb bbbb 895d 093b bd4d 973d bf71 d1bb
00000230: 5472 3dbb 461c c63b 563d 34bb 0924 ce3b
00000240: 4533 2fba 0c0c 3e3b 80cf 94bb be1a e23b
00000250: 7d6d 8c3d 1fb3 84bb 6120 833c f973 a5bc
00000260: 6281 663c 1096 a7bc cb79 603c 1d71 98bc
00000270: b511 853c 0224 8abc 500b 66bd 0252 ad3c
00000280: bae7 813c d68c 8ebc 5555 5d3c 4126 a4bc
00000290: 74ee 463c a6d4 86bc b535 943c 21c9 77bc
000002a0: ae56 57bd 7b45 933c 6981 f2ba 1046 663b
000002b0: 037f 283b e306 c03b bd6d 563b de1b 163b
000002c0: 8108 a9bb fcd4 913b d36d a23d 2957 2abb
000002d0: efd2 8ebb 2e9d da3b bcdb a2ba 13b3 f53b
000002e0: 94a1 b73a c491 883b dd35 0bbc 03d2 5c3b
000002f0: a86c a23d d7a9 aabb b9a4 8a3c bdae 95bc
00000300: deb1 5f3c 6b43 9bbc e846 583c a5f0 8ebc
00000310: 0edb 9a3c cb70 89bc 18af 6fbd b3e5 a23c
0.015811086 -0.018737556 0.013666421 -0.019909585 0.013889372 -0.017398817 0.017383274 -0.019068623
-0.05358634 0.018414067 0.01751061 -0.018122073 0.012366735 -0.019222587 0.013391463 -0.018092426
0.01770686 -0.016855363 -0.055168927 0.019401887 -0.004197887 0.0059278626 -0.0019618697 0.0074384995
0.0011201324 0.003791892 -0.006022683 0.003655716 0.075035416 -0.0036113064 -0.0039116614 0.0069563114
-0.0021300088 0.00864219 0.0013603311 0.0048091225 -0.008204358 0.004822976 0.069298066 -0.0073630614
-0.006233355 0.0044258423 -0.0012823554 0.0076214736 -0.00011375987 0.0039016167 -0.006374436 0.004863866
0.071352 -0.0054209353 -0.0063481457 0.0070148427 -0.002325583 0.00814 -0.0016465011 0.004610111
-0.008743985 0.006197499 0.07621665 -0.006110533 -0.0058974046 0.00815168 -0.003278602 0.008867188
-0.00024239154 0.005907325 -0.0076685096 0.006932471 0.06724174 -0.007850313 -0.008417708 0.0088145975
-0.0035848636 0.009894132 -0.0038981575 0.0064376225 -0.008747782 0.0079275705 0.0684547 -0.008021442
0.015308437 -0.02134052 0.013549579 -0.02088317 0.013381299 -0.019811608 0.017529447 -0.019295273
-0.0553807 0.020951277 0.017667744 -0.020120114 0.014589269 -0.022464113 0.012256788 -0.020184767
0.020180497 -0.019670585 -0.055479728 0.020054523 0.014035334 -0.018270675 0.011768231 -0.019910114
0.0130052 -0.017513322 0.01764652 -0.016688453 -0.052811176 0.019910233 0.015659597 -0.019425932
0.0137010915 -0.02166607 0.012413068 -0.017013779 0.01684174 -0.016234666 -0.053868763 0.016630914
0.01820387 -0.020139435 0.012164626 -0.019184692 0.013104867 -0.017298386 0.01808404 -0.019700248
-0.05281112 0.017809924 -0.004708917 0.0060476377 -0.0016888421 0.005693431 -0.00024576014 0.0041571306
-0.0057330118 0.0020960292 0.07387874 -0.0063917334 -0.0028907256 0.006045851 -0.002750238 0.006290917
-0.000668336 0.002899888 -0.0045413375 0.0069001606 0.06856821 -0.004049673 0.01600665 -0.020196902
0.014068933 -0.020457298 0.013700913 -0.018608624 0.016243795 -0.016862873 -0.056163132 0.021157268
0.015857566 -0.01740114 0.013509114 -0.020037772 0.012141813 -0.01645882 0.018092016 -0.015123636
-0.0525729 0.017977467 -0.0018501702 0.0035136975 0.002571047 0.005860196 0.0032719218 0.0022904794
-0.0051584844 0.0044504385 0.079311036 -0.0025991893 -0.0043586413 0.0066715693 -0.0012425105 0.007498154
0.0014009946 0.0041677672 -0.008496729 0.0033694513 0.07930881 -0.005208235 0.016924249 -0.018271798
0.013653247 -0.018953046 0.013200499 -0.017448733 0.018903282 -0.016777417 -0.05851659 0.01988492

layers.0.egnn.edge_mlp.0.bias f4 [20]
00000000: 4c79 473e a54e 893e c191 14be 2893 30be
00000010: a71a 19be c847 25bd 9909 58be a02e 84bd
00000020: 970e ef3d 6565 323d d52e 963e bf5c 923e
00000030: 136d 513e 506b 1cbe b4e3 84be 9ab9 933e
00000040: 530c 883e 2c03 f3bd 9251 b0bc fe66 663e
0.19479865 0.26817814 -0.14508726 -0.17243636 -0.14951573 -0.04035166 -0.21097411 -0.064542055
0.11672705 0.04355373 0.29332605 0.28586385 0.20451765 -0.15275311 -0.25954974 0.2885254
0.26571903 -0.11865839 -0.02152327 0.22500226

layers.0.egnn.edge_mlp.3.weight f4 [16, 20]
00000000: 2c7b f73c 3894 ec3c f421 2ebd a173 1bbd
00000010: f224 26bd ed99 7dbd 3007 04bd ace8 43bd
00000020: 5c27 213d 67ac 543d a2af ca3c a712 e13c
00000030: d11c 063d 245c 2dbd f63a f0bc d274 f13c
00000040: 2879 d13c 9845 54bd 53f1 8bbd 1897 053d
00000050: 946e efbc 2119 d2bc bd6d 263d dae2 0b3d
00000060: 5fc0 243d 422f 753d 335d ea3c eaad 383d
00000070: c197 13bd 96b3 50bd 3837 c8bc f24d d9bc
00000080: d7c7 d8bc 6be2 263d 2655 e63c 3fe0 dabc
00000090: d7ba c9bc e472 503d 3bb2 8e3d 2380 efbc
000000a0: c481 063d 3384 e53c 1614 2abd 7ea9 0abd
000000b0: 5f0a 22bd 4a51 6fbd dc07 febc 0e53 3abd
000000c0: 7f9a 193d 9084 4e3d c12d d23c 6e12 d83c
000000d0: e9d8 e53c aabc 2abd 488b e4bc a11a de3c
000000e0: a96a e13c d033 49bd 6110 88bd 6024 033d
000000f0: 1467 013d d6bb dc3c 8dbc 2ebd 9570 0abd
00000100: 1138 1cbd d4e1 72bd ac13 efbc cb79 3fbd
00000110: b263 223d e24e 473d 7b7d ba3c 4f57 c83c
00000120: 149a f03c 6586 2cbd 3782 f1bc 46f6 c93c
00000130: 75cb d53c 8145 46bd a309 89bd 08bb 073d
00000140: 1358 17bd 5af8 fbbc a6bd 593d ff45 343d
00000150: f0c5 413d 9397 913d 2fe1 1c3d 74e6 753d
00000160: 915b 4cbd 65c2 82bd 0095 dabc fd49 f0bc
00000170: 5bd3 05bd b945 573d 927f 153d c7b0 ecbc
00000180: a923 e5bc 6df8 773d d1ef a53d c1ed 1abd
00000190: 39e2 eabc 584c cebc 2854 393d 2b06 123d
000001a0: 8f02 223d 060f 813d 6e94 f63c 12ef 453d
000001b0: 59bb 1bbd 2dfb 54bd 6880 d1bc d4b4 cabc
000001c0: 2cf7 f4bc fd1f 1f3d 0e45 e03c 4c59 d3bc
000001d0: 0bf5 c7bc 6b45 473d 6784 923d caa1 febc
000001e0: 8b1b 06bd b051 d4bc 3808 3f3d 4a94 153d
000001f0: b01e 2d3d 6045 833d 676e 043d eecd 4f3d
00000200: 2b14 25bd 2a9f 62bd 0d6d d3bc fc44 cbbc
00000210: d926 f5bc 6291 313d 98d3 f93c fab4 e3bc
00000220: 4895 d0bc 1ac5 5d3d 6aec 923d c0f2 0fbd
00000230: 9107 f5bc 5a83 cdbc af76 2a3d f485 0b3d
00000240: 7a8a 1c3d 3eef 7f3d 1e35 e53c 3504 443d
00000250: 176d 1dbd b8d1 4abd 4808 b1bc 26c4 c4bc
00000260: abb7 e8bc b649 243d 598e e33c 66a8 c7bc
00000270: f833 d3bc 067f 533d c70a 8c3d c9db fbbc
00000280: c39a f2bc b084 d1bc 9d6d 2e3d 9e56 133d
00000290: c256 1b3d 3525 753d f6d6 053d 81d1 443d
000002a0: c668 1bbd 4a47 4abd b50e d0bc 8ec8 c5bc
000002b0: 4105 d5bc 6106 293d bb2a e83c 5d24 c2bc
000002c0: da53 d5bc 1937 4d3d 59c5 903d b2e1 fdbc
000002d0: 25be f13c c7e9 d83c eae7 30bd c339 10bd
000002e0: 8094 1fbd b9d1 6dbd 4ce5 f1bc 948e 34bd
000002f0: e351 193d 1f66 4d3d 4ce1 cb3c 4bca db3c
00000300: 8de5 e13c e0da 2cbd d72c f0bc a1dd d83c
00000310: 6c19 cf3c 02c5 4abd e372 8abd 6a17 033d
00000320: 0cb7 083d 2ece db3c da91 35bd 693c 13bd
00000330: 3e3e 2cbd d992 78bd ab3a 0bbd f8a0 4abd
00000340: e3c8 283d 32dc 593d 428a d13c 68ce ea3c
00000350: 4a39 f33c e0ca 2fbd 8fc0 fbbc e92c e43c
00000360: d721 d93c 00ff 57bd e240 8fbd 4634 063d
00000370: ddc3 f0bc e138 d2bc 5629 293d 6277 083d
00000380: 26d0 153d 3c45 803d 328d eb3c 1456 3d3d
00000390: 4937 16bd ef7f 49bd eeae c5bc 6271 bcbc
000003a0: 8c13 e7bc 2254 1e3d 4002 e43c 601b d4bc
000003b0: 47be cabc 9cf9 413d 47d5 8f3d 607b ebbc
000003c0: 42be f1bc 9b1e debc a9fd 303d ca1e 1a3d
000003d0: 30fd 213d 5ab7 7e3d cde9 ff3c ddc8 493d
000003e0: c20f 1ebd 4c94 54bd 4617 c4bc f0e4 d5bc
000003f0: 41c2 debc d069 2f3d fc94 e03c ace3 d8bc
0.0302101 0.02887927 -0.04251285 -0.03795207 -0.040562578 -0.061914373 -0.032233417 -0.047829315
0.039344177 0.05192223 0.024741951 0.027474714 0.032742325 -0.0423242 -0.02932499 0.02947465
0.025570467 -0.051824182 -0.06833138 0.032614797 -0.029227532 -0.025646748 0.040632 0.03415189
0.040222522 0.05985952 0.028608894 0.045087732 -0.036033396 -0.050952516 -0.024440393 -0.026526425
-0.026462479 0.040743273 0.028116774 -0.026718257 -0.024625225 0.05089082 0.069675885 -0.029235905
0.032838598 0.028017139 -0.04152306 -0.033853047 -0.039560672 -0.058427133 -0.031009607 -0.045489363
0.037500855 0.05041939 0.025656583 0.026375975 0.028057532 -0.04168383 -0.027898446 0.027112307
0.02751668 -0.049121678 -0.06643749 0.03201711 0.031592444 0.026945036 -0.042660285 -0.033798773
-0.038139407 -0.059297398 -0.029184185 -0.04674701 0.039645858 0.048659213 0.022764912 0.024455694
0.029370345 -0.042120356 -0.029481037 0.024653565 0.026097992 -0.048406128 -0.06691291 0.03313735
-0.03694923 -0.030758072 0.05315938 0.044012066 0.04730791 0.071089886 0.03830069 0.06003423
-0.049892012 -0.06384734 -0.026682377 -0.029332155 -0.032672267 0.052556727 0.036498614 -0.028892888
-0.027971106 0.06053965 0.08102382 -0.037824396 -0.028672324 -0.025182888 0.045246273 0.035650413
0.03955322 0.063016936 0.030100074 0.0483237 -0.038020466 -0.051997352 -0.025573924 -0.024744429
-0.029903017 0.038848866 0.027376678 -0.025799416 -0.024408838 0.048650187 0.0715416 -0.031083006
-0.03274111 -0.025917858 0.046638697 0.036518373 0.042265594 0.064097166 0.03233185 0.0507335
-0.040302437 -0.055327572 -0.025808835 -0.024813168 -0.02992575 0.04335154 0.030496404 -0.027796257
-0.025461808 0.05414305 0.07173999 -0.035143614 -0.029910835 -0.025087047 0.04161709 0.034063295
0.038218 0.06248402 0.02797943 0.047855575 -0.038434114 -0.04951641 -0.021610394 -0.024019312
-0.028407892 0.04010936 0.027777838 -0.02437229 -0.025781617 0.05163481 0.06837993 -0.03074445
-0.029614812 -0.025575966 0.042585004 0.035971276 0.037924536 0.059849937 0.032675706 0.04805136
-0.037941717 -0.049384393 -0.025397638 -0.024143483 -0.026003482 0.04126585 0.028340688 -0.02369898
-0.02604096 0.050101373 0.07068891 -0.030991409 0.029509613 0.026478661 -0.04318992 -0.035211336
-0.03895998 -0.058061335 -0.029528283 -0.044081286 0.03743161 0.05014622 0.024887703 0.02682986
0.027575279 -0.042200923 -0.029318256 0.026472868 0.025280677 -0.049504288 -0.06760194 0.03200475
0.033377692 0.026831713 -0.044328548 -0.035946283 -0.042051546 -0.06068692 -0.033991497 -0.049469918
0.041207206 0.05318851 0.025578622 0.028662875 0.029690403 -0.042918086 -0.030731468 0.027853446
0.026505394 -0.05273342 -0.06994797 0.032764696 -0.02939027 -0.025661888 0.041299187 0.033316977
0.03657546 0.062632054 0.02875385 0.04622467 -0.036673818 -0.049194273 -0.024131265 -0.023003284
-0.028207563 0.038654454 0.027833104 -0.02589196 -0.024748934 0.047357187 0.07023101 -0.028745353
-0.029509667 -0.027114203 0.04321066 0.03762702 0.0395481 0.062186576 0.031239415 0.049263824
-0.038589247 -0.05189924 -0.023936879 -0.026110142 -0.027192237 0.04282552 0.027414791 -0.02647575

layers.0.egnn.edge_mlp.3.bias f4 [16]
00000000: 976a be3d 6b80 ebbd 1964 203e 2922 033e
00000010: 1e20 cfbc a932 bfbd 3c6e 83bd 9ab9 fbbd
00000020: e310 00be c5a7 213e 374e bf3d af5e 3abe
00000030: 1abf a3bd b2a1 693e 1a4c 33bd 95d7 663e
0.09297674 -0.11499103 0.15663184 0.12806 -0.02528387 -0.093358345 -0.0641751 -0.1229126
-0.12506442 0.15786655 0.0934109 -0.18200181 -0.07995434 0.22815588 -0.043773748 0.22543176

layers.0.egnn.node_mlp.0.weight f4 [8, 20]
00000000: 2ba0 8239 875c abba b0e1 6aba 5e35 66b8
00000010: 9eca 493a b40c 92b8 9970 723a 0ed3 be3a
00000020: 46b9 67b9 096e a1b9 e352 08ba bb92 ef3a
00000030: 017d 5e39 3109 6837 d6ba 103a 7279 093a
00000040: e866 3d3a 2a40 97b9 e258 4eb9 b225 12bb
00000050: b04a 58ba 570a ffb7 551b 11b9 ff06 8fba
00000060: 516e 0c39 10ec 9f3a 79df 863a 6e3d 7eb8
00000070: 7455 8bb7 f841 baba fe34 39ba f8da b13a
00000080: 49f3 fb38 7e5d 16ba b251 bbba b0fb 263a
00000090: 5922 37ba c9a4 4d3a 86c0 d339 3be4 b539
000000a0: 053b dbba 0325 aa39 edcd 9338 081f b2b9
000000b0: 9b0d 3ab9 5ef5 ce39 c5af 47b9 c0e5 4eba
000000c0: 5326 023a 44c2 cb39 9262 3eba a465 a13a
000000d0: 60d4 cfba 4e81 0f3b d80d c83a cde8 7d39
000000e0: d1d5 bb38 c55b e9b9 b11e 2cba 15de 3e3a
000000f0: b4e0 24ba 5ea8 9db9 50c4 c8ba 9ddf f0b9
00000100: af49 dcba 439c 93ba 75f9 ceb9 0a64 e5ba
00000110: a17f c23a 03d6 cdba b8b4 6139 3974 6137
00000120: dbc6 c9ba e20e b238 af60 a9b9 33c5 663a
00000130: 71db 0d39 4e02 39b9 13f8 53ba fb87 e9ba
00000140: a357 04b9 4496 853a 124f 8db9 e6c0 76b9
00000150: 7585 4139 dcc4 d738 1dc9 d93a 6146 443a
00000160: 28a6 5aba 4247 0139 db27 d5b9 c04a ac39
00000170: 8292 f738 4541 01ba 5ad1 ca39 78a1 9a3a
00000180: d1f0 5fba 4386 1238 d4d1 20ba 62c9 83ba
00000190: 713d 193a bd99 08b8 1e72 52ba d0ce 563a
000001a0: 52f5 cdba 3b4a b039 4719 243a 2a5c 5f39
000001b0: 7d51 fb39 ff44 ba3a 923c bd3a c67f 2d3b
000001c0: 7f83 623a 44f6 c839 d967 1339 9c0d 87ba
000001d0: 4bfc 87ba 7270 7e3a 6173 9cb9 02e4 a1b9
000001e0: f01c 89ba f15c 5e3a e142 9ab9 0a95 0cba
000001f0: 6d40 80ba 3dd4 c9b9 1c5a 09ba 3856 4b38
00000200: 2b59 06ba ab40 8d3a ede5 b239 1f40 95b9
00000210: 7a2d aab9 b2d5 63b9 303d 76ba 99de d8ba
00000220: 8925 6dba e88a 8b3a 7350 9cba d495 cc3a
00000230: 3ca6 0eba 401a 713a 5f14 ca38 4346 30ba
00000240: 4e8a d03a 4729 213a 94d6 1f3a 4ff2 c0b9
00000250: efda da39 1590 e7b9 a9a8 a4b9 116e 8739
00000260: 69bc 3a38 196c 5839 5849 c539 c0cd 8bb9
00000270: 4ac2 cb3a 5172 8339 ac69 6539 265e 2739
0.00024914867 -0.001307384 -0.00089600217 -5.4885975e-05 0.0007697734 -6.964189e-05 0.0009248346 0.0014558749
-0.00022098896 -0.00030790296 -0.00052003394 0.0018277982 0.00021218137 1.3830418e-05 0.0005521005 0.0005244232
0.0007225112 -0.0002884877 -0.00019678802 -0.00223003 -0.00082508754 -3.0403184e-05 -0.0001383846 -0.0010912119
0.00013392536 0.0012201089 0.0010289989 -6.061553e-05 -1.6609883e-05 -0.0014210334 -0.00070650864 0.0013569286
0.00012013928 -0.00057359773 -0.0014291315 0.0006369902 -0.0006986014 0.00078446843 0.00040388497 0.00034693055
-0.0016725963 0.00032452503 7.047863e-05 -0.00033973926 -0.0001774341 0.00039474195 -0.00019043598 -0.0007892512
0.0004964817 0.00038863916 -0.0007262613 0.0012313616 -0.0015856139 0.002189714 0.0015262915 0.00024214685
8.956681e-05 -0.00044509597 -0.00065658527 0.00072810176 -0.0006289587 -0.00030070817 -0.0015317295 -0.00045942972
-0.0016806627 -0.001126178 -0.00039477242 -0.0017501127 0.0014839062 -0.0015704039 0.00021524995 1.3438105e-05
-0.0015394347 8.4904736e-05 -0.00032306227 0.00088031887 0.00013528556 -0.00017643833 -0.0008085977 -0.0017817015
-0.00012621148 0.0010191877 -0.00026952528 -0.00023532248 0.00018455631 0.00010288667 0.0016615723 0.0007487294
-0.0008340799 0.00012328944 -0.0004065622 0.0003286209 0.00011805167 -0.00049306854 0.0003868442 0.0011797389
-0.00085426593 3.4934154e-05 -0.00061347825 -0.0010054524 0.00058456423 -3.2568107e-05 -0.0008027869 0.00081942696
-0.001571337 0.00033624642 0.000625987 0.00021301271 0.00047935164 0.0014211236 0.0014437607 0.0026473864
0.000864081 0.00038330455 0.00014057699 -0.0010303739 -0.0010374872 0.0009706087 -0.00029840603 -0.00030878192
-0.0010460895 0.0008482477 -0.00029422998 -0.0005362785 -0.0009784825 -0.00038495837 -0.00052395626 4.847927e-05
-0.00051249814 0.0010776719 0.00034122114 -0.0002846727 -0.0003245881 -0.00021728015 -0.0009393273 -0.0016545831
-0.00090464257 0.0010646256 -0.0011925831 0.0015608617 -0.0005441641 0.0009197332 9.635905e-05 -0.0006724337
0.0015910359 0.00061478134 0.0006097343 -0.00036801628 0.00041743318 -0.00044167103 -0.0003140618 0.00025831212
4.4521326e-05 0.00020639635 0.00037629413 -0.00026665442 0.0015545574 0.0002507144 0.00021878508 0.00015961434

layers.0.egnn.node_mlp.0.bias f4 [8]
00000000: 3b45 45be 15ab 713c 09c7 c43a 2abb b3bd
00000010: 7519 1a3e 317a 593e a841 0dbe de47 0c3e
-0.1926469 0.014750262 0.001501293 -0.08775933 0.15048774 0.21238019 -0.13794577 0.1369929

layers.0.egnn.node_mlp.3.weight f4 [4, 8]
00000000: 8183 40ba 0e04 da3a 7aa4 8aba e569 efba
00000010: 9c99 25ba f797 8bba aa76 c43a fb76 1c3a
00000020: 47d9 43ba 0415 4f38 4a0e e43a b616 cbba
00000030: d8e8 a539 890f 08bb 4635 9c38 acf4 463a
00000040: 352f f8b9 b04d 2f3a d581 57b9 bbc9 8539
00000050: 5d78 503a b723 5f39 b370 93b8 55d0 053b
00000060: 3958 6fba 3aeb 9c3a 1515 57ba fc7e 11b9
00000070: 148b 99ba d386 7dba a7d7 973a 9b3c 16ba
-0.00073438144 0.0016633288 -0.0010577582 -0.0018265812 -0.000631714 -0.0010650147 0.0014988978 0.0005968657
-0.00074710365 4.937222e-05 0.0017399278 -0.0015494439 0.00031644735 -0.0020761213 7.4485826e-05 0.00075895595
-0.00047337418 0.00066872966 -0.00020552364 0.00025518038 0.0007952506 0.00021280242 -7.030498e-05 0.0020418365
-0.00091302727 0.0011971958 -0.00082047406 -0.00013875583 -0.0011714422 -0.00096712745 0.0011584655 -0.0005731077

layers.0.egnn.node_mlp.3.bias f4 [4]
00000000: c8be aa3e c651 58bb 6686 043e 30dd 8cbd
0.3334868 -0.0033007725 0.12941894 -0.06878126

layers.0.egnn.coors_mlp.0.weight f4 [64, 16]
00000000: d4c1 85bc 2645 533c 8bba 39bc 0eaa 57bc
00000010: 3615 e23c 809a 833c fc25 903c ffaa 553c
00000020: 65ad 7a3c 52ef 60bc e7f0 76bc 67cd 313c
00000030: acff 843c bed0 3bbc 4e8d a63c c7a3 47bc
00000040: 596d 753c bbab 4ebc fe5c 5d3c 14be 653c
00000050: 53b0 d3bc b797 80bc 416f 8abc 0149 5cbc
00000060: 8f4b 48bc 0f9a 373c 2b2a 743c 3906 36bc
00000070: f487 84bc 80ad 4c3c 7ec1 9abc ed7f 5b3c
00000080: a2c1 553c c3a3 75bc c3fa 723c b1f0 533c
00000090: 24d8 dabc b731 78bc ba2e 8ebc 8e7c 68bc
000000a0: 61ae 3ebc 7f8b 433c 1408 7b3c 0332 40bc
000000b0: 37af 80bc b637 453c d642 a7bc 107c 433c
000000c0: 507d 793c 1a1e 5bbc b393 5b3c a16a 753c
000000d0: 0d22 d2bc 8911 7fbc 0ca8 8fbc 9ad1 6bbc
000000e0: 07f9 72bc 2d07 5a3c 1386 873c 310e 5bbc
000000f0: 4562 73bc 89ff 2c3c c95e b0bc c286 553c
00000100: 1773 953c d599 80bc 34ac 633c 3412 7b3c
00000110: e43c f4bc 6fc7 80bc 8d90 96bc 43e2 72bc
00000120: f152 78bc b939 6f3c 350f 853c ffa5 6ebc
00000130: 6eac 96bc 81b0 553c 6305 b9bc fe3c 4e3c
00000140: e0e9 8a3c c52b 6abc 2edb 5b3c 3e26 4f3c
00000150: 98e1 dabc 601f 77bc 7512 92bc df93 6dbc
00000160: 263d 7dbc 885a 5c3c 959a 813c bd2f 40bc
00000170: f0e5 92bc a966 2e3c 7637 adbc c73f 443c
00000180: c97c 933c 0e25 63bc c13a 733c a78e 593c
00000190: db5c f9bc 9013 6bbc fd3d 87bc 307a 81bc
000001a0: b9cf 70bc 5d3a 533c 0c18 873c f6fb 5abc
000001b0: c4de 87bc 3c49 4a3c 23ea c2bc af88 4e3c
000001c0: 0a4d 873c 928d 6dbc a96c 743c 64c5 683c
000001d0: 82b2 e2bc 5f44 84bc 8661 99bc 68f3 7abc
000001e0: e417 66bc 5a74 6c3c 0edb 993c 3cbf 60bc
000001f0: 2506 90bc ada3 513c 8650 b0bc 9f54 803c
00000200: e196 143c db61 f8bb 20f8 0f3c 5b73 073c
00000210: 7a36 cabc fb0f 21bc dec9 49bc 9ec9 c5bb
00000220: 273b 08bc 63a2 033c 9cff 283c 8f9a 92bb
00000230: 992c 31bc 9c2d bf3b ed7b 82bc 9025 e03b
00000240: 585d 803c 4efa 5ebc 0c95 373c 312d 6f3c
00000250: dad5 f6bc e522 66bc 3fb9 89bc 0c0f 77bc
00000260: b91a 3cbc 088b 5d3c 3ff6 6c3c e6cb 3dbc
00000270: 8919 88bc cd1e 283c 556c b5bc 6669 383c
00000280: e997 6bbc 74d5 603c 95a2 4fbc f771 61bc
00000290: 4be1 e13c 5334 683c 68f3 8b3c f4b3 563c
000002a0: 4096 513c 88f2 31bc 2bf2 61bc da60 323c
000002b0: 35f4 6f3c ae7a 62bc aab1 af3c ec1f 2ebc
000002c0: ade8 74bc 187b 563c 73ee 72bc 9610 52bc
000002d0: 0084 d93c a323 603c 94d3 863c 0e20 4d3c
000002e0: 8775 5c3c 951a 4fbc 51c2 76bc 09ea 323c
000002f0: 82cb 633c d2f9 64bc 7898 9d3c 1939 49bc
00000300: 5e6d 7c3c a8d3 68bc c88e 4a3c f3df 873c
00000310: faa9 e0bc 0f0c 77bc 6b6a 9cbc a855 61bc
00000320: fd2b 66bc 6fb0 653c 5051 8c3c 58b8 76bc
00000330: 3580 91bc 01bd 4d3c 228b a4bc 39e8 413c
00000340: 9eda 7bbc 59b4 533c c322 67bc 5068 70bc
00000350: 906f cd3c 8c5b 4c3c 42f0 8f3c e5c2 5a3c
00000360: 59b0 683c b5f0 55bc c7f1 87bc ae47 533c
00000370: 097a 7b3c e658 4dbc 5b2c a43c 4e74 2fbc
00000380: 696a 80bc 4e19 4f3c 7644 59bc 1b9f 69bc
00000390: 8aae d13c 7aec 653c b8d4 883c a5cc 663c
000003a0: af3e 593c 12d3 4fbc cc6a 62bc c828 2c3c
000003b0: 60b2 643c c15f 47bc 7de3 a03c 63c0 47bc
000003c0: 30b3 553c 9c79 29bc e629 373c 8cfa 373c
000003d0: 8230 e0bc 5e94 53bc 3c06 7fbc 0865 4dbc
000003e0: a6c3 14bc 4c13 2f3c bc91 853c 566e 2cbc
000003f0: fc1d 64bc 38eb 303c 868f 9abc 8b53 053c
-0.016327776 0.012894904 -0.011335979 -0.013163103 0.027598005 0.016064882 0.017596237 0.013041257
0.01530013 -0.013728933 -0.015072084 0.010852194 0.016235195 -0.011463342 0.020331051 -0.012185044
0.014979684 -0.012614186 0.013510941 0.014022369 -0.025840914 -0.015697343 -0.016898753 -0.01344514
-0.012225046 0.011206164 0.014902632 -0.011109882 -0.016178109 0.0124925375 -0.018891092 0.013397199
0.013046654 -0.014992657 0.014830294 0.012935803 -0.026714392 -0.015148572 -0.017356265 -0.014189852
-0.011638255 0.011935114 0.01532175 -0.011730674 -0.015708549 0.012037208 -0.020417612 0.011931434
0.015227631 -0.013373876 0.013401913 0.014979036 -0.025651002 -0.015568146 -0.017536186 -0.014393235
-0.014829881 0.013307375 0.016543424 -0.013370083 -0.014854972 0.010558971 -0.021529572 0.013032617
0.018243356 -0.015698353 0.013896037 0.015324164 -0.029814191 -0.015720097 -0.018379474 -0.014824453
-0.0151564935 0.0146011645 0.016242603 -0.014565944 -0.018392768 0.01304257 -0.022585576 0.012587784
0.016957223 -0.014292662 0.013418956 0.012643395 -0.0267189 -0.015083164 -0.017831067 -0.014500587
-0.015456473 0.013449319 0.01582078 -0.011730132 -0.017931908 0.010644593 -0.02114461 0.011978096
0.018003838 -0.013863815 0.014845551 0.01327864 -0.030439785 -0.014347926 -0.01650905 -0.015805334
-0.014697962 0.012892333 0.016490959 -0.013365736 -0.016585715 0.012346562 -0.023793286 0.01260583
0.016516227 -0.014499085 0.014918485 0.014207218 -0.02767301 -0.016145883 -0.01872326 -0.015316822
-0.014043782 0.014432037 0.018781211 -0.013717469 -0.017581055 0.012795371 -0.021522772 0.01566535
0.009069175 -0.0075800247 0.008787185 0.008267249 -0.02468418 -0.00983047 -0.012316195 -0.0060359975
-0.008314884 0.0080343215 0.010314848 -0.004473991 -0.010813856 0.0058342945 -0.015928233 0.0068404153
0.01566951 -0.013609482 0.011204969 0.014598177 -0.03013127 -0.014046405 -0.016811965 -0.015079271
-0.011480981 0.013521917 0.0144630065 -0.011584258 -0.016613739 0.01026125 -0.022146383 0.011255598
-0.01437948 0.013722766 -0.01267304 -0.0137600815 0.027573248 0.014172631 0.017083839 0.013104428
0.01279217 -0.010861047 -0.0137906475 0.010887349 0.014645626 -0.013823194 0.021447022 -0.010627728
-0.014948052 0.013090871 -0.014827359 -0.012821337 0.0265522 0.013680371 0.01645831 0.012519849
0.013455755 -0.012640615 -0.015060977 0.010920056 0.0139035005 -0.013975577 0.019237742 -0.01228168
0.015406935 -0.014210619 0.012363143 0.01658628 -0.027424801 -0.015078559 -0.019093713 -0.013753332
-0.014048574 0.014019116 0.017128617 -0.015058599 -0.01776133 0.012557269 -0.020085875 0.011835151
-0.015371947 0.012921416 -0.014107409 -0.014673308 0.025077611 0.012472998 0.017570619 0.013352131
0.014202201 -0.013057877 -0.01659478 0.012895508 0.01534892 -0.012533402 0.020040682 -0.010708882
-0.01567574 0.01264031 -0.013260951 -0.014259125 0.025595922 0.014033431 0.016702995 0.014086877
0.013259574 -0.0126846 -0.013819408 0.01050777 0.013958544 -0.012168826 0.019639725 -0.012191865
0.01304321 -0.010343935 0.011179423 0.011229169 -0.02736688 -0.012913791 -0.015565451 -0.012536295
-0.009079849 0.010685753 0.016304843 -0.010524353 -0.013923164 0.010798268 -0.018867265 0.008137594

layers.0.egnn.coors_mlp.0.bias f4 [64]
00000000: bc09 abbd 73c4 5f3e 3910 973d 4f3b 0a3e
00000010: 0cf4 543d 606d 0b3e 898e 153d 53f1 843d
00000020: 4e87 dd3d 4793 e43c 289a 46bd 8e62 7abe
00000030: f773 253e 1e4f 81be 88e3 b3bd c896 343e
00000040: b1f5 6e3e 5f0f 0ebd 8d18 133e eddb 263e
00000050: d4a8 25be ec1a 25be 3e33 143e b15d 813e
00000060: 2488 7fbe 9afc 09be 4154 cdbd 4bd9 5d3e
00000070: e856 153e b705 17be 26bc 16bd 342f 4b3e
00000080: 17a8 f23d d4a0 78be 63d1 3c3e a98a 043d
00000090: 3b02 313e e4fa e0bd 84d5 2d3e d100 723e
000000a0: 5c5c 62be f542 72be 3a77 a43d db54 c4bd
000000b0: 3494 563e c8ba a93d 3a4a 26be 5f89 433e
000000c0: 598b 83be 4051 8bbd 126b 5e3d 8982 1b3e
000000d0: 063f 30be 304e c73d 87ab 2cbe 80f0 2bbd
000000e0: 273a 1f3e 20a8 29be fcb7 1ebd a8e6 1dbe
000000f0: 7877 763e 4154 883d c055 823e 3137 46be
-0.08351466 0.21852283 0.07376141 0.13499187 0.051990554 0.13615942 0.036512885 0.064913414
0.10816823 0.027902259 -0.04848686 -0.24451658 0.16157518 -0.25255674 -0.087836325 0.17635643
0.23335911 -0.034682628 0.14364834 0.16294833 -0.16177684 -0.16123551 0.14472672 0.25266793
-0.24954277 -0.13475266 -0.10025836 0.21664922 0.14583933 -0.14748274 -0.036800526 0.19842225
0.11848467 -0.24280101 0.1843925 0.0323588 0.17286007 -0.109853536 0.16975981 0.23633124
-0.22105545 -0.23658355 0.08030553 -0.095864974 0.20954973 0.08287579 -0.16239253 0.19095372
-0.2569225 -0.068026066 0.05430133 0.15186514 -0.17211542 0.0973171 -0.16862307 -0.041977406
0.15549527 -0.16568041 -0.03874968 -0.1542002 0.24069011 0.06656695 0.25456047 -0.19356991

layers.0.egnn.coors_mlp.3.weight f4 [1, 64]
00000000: 613e 053c 113b dbbb 997a 11bc f8e3 ecbb
00000010: cc2b 06bc 5352 fabb 48ab 09bc 8ab1 ffbb
00000020: 0745 a0bb ad80 03bc 309d f23b f6bf 063c
00000030: 1c80 f1bb 2a73 e53b f941 0c3c ced6 c2bb
00000040: cf61 babb 62a8 093c 3997 25bc e6a8 d8bb
00000050: 56ee d13b 1dff 0c3c d702 f3bb c8ee e4bb
00000060: cbc7 cd3b 1ee3 ff3b 3ee2 033c 5b90 fbbb
00000070: ec2d d4bb 514c e43b 014b 173c 979b febb
00000080: 9919 d5bb 2562 083c 3aa4 c1bb 0a34 0dbc
00000090: 4454 eebb 6790 c23b 6790 0fbc 4ae1 c8bb
000000a0: 64e1 b83b f66c b23b 369b bdbb c837 033c
000000b0: 735d 0fbc e69f 1ebc 39e5 e43b 58b3 e3bb
000000c0: 7769 dd3b 47a7 fe3b 0860 14bc 6c74 8bbb
000000d0: cf69 013c 7412 08bc 51b5 e43b d00f be3b
000000e0: f52a 01bc 10d2 c73b 7e3d ff3b 2678 ff3b
000000f0: b2e2 ecbb 0e34 d2bb 250d d1bb 11e3 f63b
0.008132548 -0.006690391 -0.008879327 -0.0072293244 -0.008189153 -0.0076392083 -0.008402653 -0.0078031467
-0.004891041 -0.008026284 0.007403992 0.008224478 -0.007370008 0.007002254 0.008560651 -0.005946017
-0.005687929 0.008401962 -0.010106855 -0.006611931 0.0064065857 0.008605746 -0.00741611 -0.0069864728
0.0062799207 0.007809057 0.008049546 -0.0076771206 -0.006475201 0.0069671054 0.009234191 -0.0077700126
-0.0065032956 0.008324181 -0.00590947 -0.008618364 -0.007273229 0.0059376243 -0.008762456 -0.006130372
0.005642103 0.005445118 -0.005786325 0.008008905 -0.008750307 -0.009681677 0.0069853333 -0.0069488697
0.006756957 0.007771406 -0.009056099 -0.004255822 0.007898762 -0.008305181 0.0069796224 0.005800225
-0.007883777 0.0060980394 0.007789313 0.007796305 -0.0072291726 -0.006414897 -0.006379741 0.0075343926

layers.0.egnn.vel_mlp.0.weight f4 [16, 4]
00000000: 45c2 2d3a 0a58 23b9 1f08 303a 215a 2239
00000010: cd40 a63a a0e0 4c39 53e5 463a e73a 9e3a
00000020: 13ea 04ba 9748 7339 af9b d2b9 e0c2 e4b9
00000030: 9757 623a 10fa 8039 908b af38 ac0a 3839
00000040: 0e9c 5038 0a0e 93b8 dad7 bc39 bf72 80b9
00000050: 2a6a 5bb9 1c97 6bb8 83b6 58ba e543 c339
00000060: 9efb 6739 3ba5 4cb8 4ade 7f3a cf0e 44ba
00000070: 0556 5a3a dd75 6db9 9f45 753a 3f32 fa38
00000080: d9e2 0eba c1a7 0a38 e3e2 9aba d294 1d3a
00000090: 9983 a03a e6a3 17ba 4d71 af3a 9636 ab39
000000a0: f74c 9fb9 4d8f b739 9cc2 5fba 845c de38
000000b0: f74a a03a b3b2 fa39 8b92 a73a 54a2 3aba
000000c0: 237a 32ba a98b d139 63dc 02ba 1726 deb9
000000d0: 8845 76ba 6b36 ccb8 583f a0ba 36ef bc39
000000e0: 5048 8839 c5fc 9a39 d54a 153a 9c90 6bb9
000000f0: dc53 3e3a 2a4b 10ba 531f e039 5a4c 3f3a
0.00066283747 -0.00015577688 0.00067150773 0.000154831 0.0012684107 0.00019538635 0.00075872726 0.0012071998
-0.000507028 0.00023201328 -0.00040170315 -0.00043632742 0.0008634268 0.00024600374 8.370646e-05 0.00017551583
4.97364e-05 -7.012121e-05 0.00036018976 -0.00024499555 -0.00020925017 -5.6169098e-05 -0.00082669425 0.00037243884
0.00022123611 -4.8791273e-05 0.00097606017 -0.00074790133 0.0008328858 -0.00022645989 0.00093563827 0.00011930288
-0.0005450673 3.3057997e-05 -0.0011816885 0.00060112507 0.001224625 -0.00057846156 0.0013385207 0.0003265633
-0.00030384187 0.00035011247 -0.0008535774 0.00010603017 0.0012229373 0.00047816857 0.0012784762 -0.00071195257
-0.0006808361 0.0003996764 -0.00049919466 -0.0004237152 -0.0009394516 -9.737614e-05 -0.0012225909 0.0003603638
0.00025993818 0.00029561497 0.000569505 -0.00022465218 0.0007260421 -0.00055043644 0.00042747948 0.0007297449

layers.0.egnn.vel_mlp.0.bias f4 [16]
00000000: e7f1 0dbe 74e7 0bbe 5c02 f13e 5a22 1f3e
00000010: 3bd1 c5be 86a9 1dbe 628a 01be 7a07 1c3e
00000020: cb66 bbbe e1ae 8dbe 65e5 7abd 9e08 9a3e
00000030: 21d6 9ebe 1e2a cb3e 6568 153c 4ec2 1cbe
-0.1386181 -0.13662511 0.47072113 0.15540448 -0.38636193 -0.153967 -0.12650445 0.15237227
-0.36601862 -0.27672485 -0.061253924 0.300847 -0.31022742 0.3968057 0.009119128 -0.15308496

layers.0.egnn.vel_mlp.3.weight f4 [1, 16]
00000000: aa6e c437 d38c 9eb9 9ee2 6eb8 ccfa 5bb9
00000010: 02aa 8638 cd0f aab8 70e6 3b38 fb99 f037
00000020: 2814 abb8 f953 d938 849f ceb9 94e2 bcb8
00000030: 00ff 22b7 99f6 59b9 d9ca cab8 c0a4 ab39
2.3416553e-05 -0.0003024103 -5.6954676e-05 -0.00020978897 6.421284e-05 -8.109175e-05 4.4798886e-05 2.8681932e-05
-8.15767e-05 0.000103630075 -0.0003941023 -9.006742e-05 -9.715324e-06 -0.00020786597 -9.669894e-05 0.0003273841

layers.1.egnn.edge_mlp.0.weight f4 [20, 10]
00000000: ee0d a13c 653d 2b3c fcc4 073d 6fec cdbc
00000010: 2fba c93c 6159 123c 5680 363d a9e9 f3bc
00000020: 7c6a 8bbc 2119 793d 881c 913c 720a 583c
00000030: 28ff 0c3d 7205 dabc 744b d33c e388 493c
00000040: 0e0f 413d 52f8 f3bc 755f 96bc f14c 7f3d
00000050: ab1f 7cbd 1033 713c c779 88bd 32fd 4e3d
00000060: a519 8cbd 6e93 7b3c 5605 9fbd b06d 663d
00000070: 4352 25bc 2506 abbd 8009 8a3c b98d 223c
00000080: 5b99 0c3d 88ac d2bc f115 d33c 0b75 f83b
00000090: d8d5 3c3d 0daf febc 57d2 6ebc f27a 763d
000000a0: be1f 8cbd 599c 8a3c bebe 91bd 90bc 633d
000000b0: b31b 9abd cfc1 8b3c 9797 a6bd 9edb 723d
000000c0: 53cf 54bc d9ba b6bd 3675 8e3c de19 5a3c
000000d0: db6f 0b3d e8ae c7bc 3e38 c93c d5f3 3e3c
000000e0: ec59 363d 2e81 f4bc 6550 88bc cef7 7e3d
000000f0: e032 943c b846 0a3c be1f 0b3d c0f6 d9bc
00000100: 2dc4 d33c ce6f 863b 05b9 3a3d 5934 02bd
00000110: cb50 33bc faf0 753d e416 903c ad43 6c3c
00000120: 9a07 0e3d b800 c7bc 5bc7 df3c a297 5a3c
00000130: aecd 3c3d a5fd f8bc 98dc 8ebc b231 7b3d
00000140: 672a a8bd d2fc 013d 7a4e b0bd d744 893d
00000150: 61c9 b9bd 479f f93c 9b28 c2bd 259d 953d
00000160: f402 d7bc 4ac2 c9bd 2e6a 8b3c 7c4b 5a3c
00000170: 17df 053d 6a3b d9bc 2113 ba3c a32e 313c
00000180: 3aba 373d 569b f3bc d1af 88bc 5779 803d
00000190: bc55 70bd 212a 5e3c 8d11 8abd 514a 4e3d
000001a0: 7d97 83bd 0fb5 7b3c c6d9 9ebd 307d 673d
000001b0: 5788 15bc 355d abbd 587c 863c c74a 513c
000001c0: e156 0b3d 248b cdbc 7493 c53c 3cb5 1c3c
000001d0: 31cb 383d fd25 f6bc 688d 89bc b6be 823d
000001e0: 5bb9 8c3c 9ba2 203c 290d 0e3d 7f78 cebc
000001f0: bea2 cc3c 4833 1f3c 1eee 363d 13a4 01bd
00000200: eabd 75bc 5a50 763d 7fd8 923c de2e 633c
00000210: ce74 0c3d 48e6 bebc 6efa db3c ede9 6b3c
00000220: 8c6c 3d3d 6dab e9bc 9c93 96bc 1a54 7c3d
00000230: e539 863c eaf2 e93b e0aa 093d ee08 dbbc
00000240: a013 cb3c 73a9 8c3b 2402 2b3d 1bf6 fabc
00000250: fc4c 02bc f18f 753d b553 69bd f76a 883c
00000260: ba00 84bd 54c0 4a3d e646 82bd 4a8e 813c
00000270: ad29 9dbd 55a1 603d f76d 39bc f02e a9bd
00000280: 7a3f 833c d1e7 593c 6643 103d ec25 d2bc
00000290: db66 d13c d74f 3b3c 0f2f 3f3d e92d 02bd
000002a0: 7c3f 89bc b15c 7e3d fa98 62bd bab8 853c
000002b0: 556c 86bd 7f0a 4e3d e08a 85bd f1e4 7e3c
000002c0: c09e 9dbd bec9 633d 10a1 fabb b721 b0bd
000002d0: 3c60 8a3c 405c f13b 9508 0c3d 5ff0 cebc
000002e0: e0bb d03c a2c7 da3b 4f52 2f3d ae6a fbbc
000002f0: f6fb 52bc 8037 723d 4153 a7bd c43e f53c
00000300: 07d7 a8bd adaf 853d 54ee b8bd d878 fc3c
00000310: b4df bdbd 0657 8f3d dbf4 d3bc 5e1e cabd
0.019659963 0.010451649 0.033146843 -0.025137154 0.024624912 0.008932442 0.044555984 -0.029774504
-0.01701855 0.06081498 0.0177138 0.013186084 0.034423023 -0.026613925 0.025792815 0.012300703
0.047133498 -0.029781494 -0.018356064 0.062329236 -0.06155364 0.014721647 -0.06663852 0.050534435
-0.06840829 0.015354974 -0.077646896 0.05625695 -0.0100904135 -0.08350781 0.016850233 0.009921485
0.03432594 -0.025717035 0.025767298 0.007582312 0.046102375 -0.03108933 -0.014576516 0.060175844
-0.06841992 0.016920255 -0.07116459 0.05559975 -0.075248145 0.017060189 -0.08134382 0.059291475
-0.012988883 -0.08922357 0.017389875 0.013311831 0.03404222 -0.024375394 0.024562951 0.011654814
0.04451935 -0.029846754 -0.016639898 0.062248044 0.018090665 0.008439712 0.03396582 -0.026606917
0.02585038 0.0041026836 0.045586605 -0.031788204 -0.0109445555 0.060044266 0.01758904 0.014420432
0.03467522 -0.024292335 0.02731674 0.013341816 0.04609459 -0.030394385 -0.017439172 0.06132669
-0.082112126 0.03173525 -0.08608718 0.06702583 -0.09071613 0.030471457 -0.09480401 0.073053636
-0.026246525 -0.09851511 0.017018404 0.013323661 0.03268346 -0.026517589 0.0227142 0.010814342
0.044855334 -0.029737156 -0.016685398 0.06273144 -0.058675513 0.013559849 -0.06741629 0.050363842
-0.064253785 0.015362992 -0.07756381 0.056515872 -0.009126744 -0.08367387 0.016416714 0.012774176
0.0340184 -0.025090761 0.024118163 0.009564694 0.045115653 -0.030047411 -0.01679106 0.063840315
0.017178228 0.009804393 0.03468052 -0.025203941 0.024979945 0.009716816 0.04466068 -0.031650614
-0.014998892 0.060135223 0.017925499 0.0138661545 0.03429108 -0.023303166 0.026852813 0.014399034
0.046246096 -0.028524125 -0.018380933 0.061603643 0.016385028 0.0071395533 0.033610225 -0.026737656
0.024789631 0.004292661 0.04175009 -0.03063493 -0.007952925 0.059951726 -0.056964595 0.016652567
-0.06445451 0.049499825 -0.06361179 0.015814919 -0.07673965 0.05484136 -0.011317722 -0.08260906
0.016021479 0.013299898 0.035220526 -0.025652848 0.02556174 0.0114326095 0.046675738 -0.031782065
-0.016753905 0.062100116 -0.05532167 0.016323436 -0.065636314 0.05030298 -0.06520629 0.015557514
-0.07696295 0.05561232 -0.0076485947 -0.086001806 0.016891591 0.0073657334 0.034187872 -0.025261102
0.02548021 0.00667663 0.042803105 -0.030690517 -0.012877455 0.05913496 -0.08170176 0.029937156
-0.08244138 0.06527648 -0.090298325 0.030819342 -0.092711836 0.0699902 -0.025873592 -0.09869073

layers.1.egnn.edge_mlp.0.bias f4 [20]
00000000: c910 303e 3802 973e 0480 1cbe 1c94 de3d
00000010: f874 80be afb6 903e 9036 a13d b22c b43e
00000020: 40c4 c7be 40d6 7b3e f05d 24be 1cb9 7f3e
00000030: a40d 343e 0661 9b3e 9d94 893d ba30 a1bd
00000040: ff26 7f3e e470 09be d4a8 a13d ff0d c2be
0.17193903 0.2949388 -0.15283209 0.10868093 -0.2508924 0.28264377 0.07871735 0.3519035
-0.39016914 0.24593449 -0.1605146 0.24972957 0.17583328 0.3034746 0.06717799 -0.07870622
0.2491722 -0.1342197 0.078935295 -0.37901303

layers.1.egnn.edge_mlp.3.weight f4 [16, 20]
00000000: e571 213d 9688 283d 3574 0ebd 878e 113d
00000010: 22ee 25bd 230c 2d3d 17c6 f63c 925e 2b3d
00000020: 4389 36bd 10c5 293d a5b6 11bd db6a 253d
00000030: 8710 173d 76f0 303d a14e f23c 66e2 dfbc
00000040: 1b2c 263d 8587 0bbd 72d4 0a3d 95ec 3cbd
00000050: 0b96 37bd cf30 40bd e91b 2e3d cd84 33bd
00000060: b1ab 3b3d e8d4 3cbd 3203 21bd 8b38 42bd
00000070: ec8f 483d 496d 44bd ceac 273d 979d 34bd
00000080: ba09 33bd ab2e 42bd 043b 13bd 7a99 153d
00000090: 0d45 36bd 072c 283d edd1 1ebd 9efa 483d
000000a0: 141c 173d 1640 313d f791 17bd b105 103d
000000b0: a941 1fbd c5f7 243d 73b1 023d c74d 2e3d
000000c0: 7695 3abd 863e 253d db61 17bd 23c3 243d
000000d0: f053 143d 207d 273d c434 f23c bf74 e9bc
000000e0: c671 283d 06e2 0dbd f0a6 013d 1d5a 39bd
000000f0: dd81 37bd 8bae 4abd e9ec 2b3d b814 34bd
00000100: c338 3f3d 20f7 45bd 99b5 24bd 07ac 44bd
00000110: 827e 4d3d 168c 44bd 4dc4 2d3d f6d7 43bd
00000120: 1d99 32bd 0712 46bd b8bd 19bd 1c63 123d
00000130: eaec 3ebd fc7f 2d3d 9e93 2bbd d82c 523d
00000140: c121 3ebd ac29 4abd 07d0 2f3d cb8f 35bd
00000150: 8db3 3f3d e420 47bd f100 1abd bf77 4abd
00000160: a188 513d 5090 3cbd b600 333d 4817 43bd
00000170: e39b 32bd bd6f 4cbd 5d06 1dbd 6289 143d
00000180: c58c 3abd 7772 353d 4e88 28bd 6a61 4a3d
00000190: ea58 3cbd 4978 43bd 7dca 303d b649 2cbd
000001a0: 3a5a 3d3d 8b1a 3bbd 3098 26bd 11f5 4abd
000001b0: c6d0 503d 4ca2 43bd ca76 323d ca50 3bbd
000001c0: f338 34bd 2de3 46bd fcdd 16bd 9da7 133d
000001d0: aab3 42bd a432 2b3d 95cc 1fbd 4454 4e3d
000001e0: bd53 37bd abdf 45bd 6ad6 263d 77f4 28bd
000001f0: 3118 453d 4216 39bd 9cee 20bd e369 49bd
00000200: 9494 503d 1ef3 40bd 5e4d 353d 917d 46bd
00000210: 92b7 37bd 0dbd 48bd a9a5 19bd 971e 143d
00000220: aa6f 44bd c151 2c3d 4335 25bd 90f3 4c3d
00000230: 858a 38bd 8e46 49bd 7a43 2a3d 5927 2dbd
00000240: 5e55 403d 4f4e 46bd 1e0c 1dbd 5271 4abd
00000250: 31bc 4a3d 540f 40bd 3f44 313d ced9 44bd
00000260: c2c6 38bd 063c 4bbd 8e80 14bd 78bd 1a3d
00000270: ef04 3ebd 41dc 343d 9322 28bd 5d2e 4e3d
00000280: 0173 1b3d aa7f 2a3d 9255 0fbd 59e6 193d
00000290: 29bc 25bd 4e88 253d b012 093d 4474 293d
000002a0: 9d1a 3bbd aa03 233d 21bf 0fbd 5361 213d
000002b0: e4d9 1d3d a7f0 273d 24f0 f33c 2341 e9bc
000002c0: 729a 243d 0ceb 18bd fc31 0a3d d8c9 39bd
000002d0: defd 3ebd 6d8c 46bd 6b47 303d 19eb 28bd
000002e0: 318b 423d 4d58 46bd 58a8 24bd 35a8 46bd
000002f0: 370d 4e3d 3f6c 40bd c032 2f3d 5c53 46bd
00000300: 7e1e 39bd c09a 45bd c11b 18bd 5846 153d
00000310: a900 3fbd 0de7 2a3d d116 26bd a45b 4a3d
00000320: a1e9 183d 39d0 2a3d da36 0bbd e5ab 123d
00000330: 01dc 27bd 2ebd 273d f4f8 013d a856 273d
00000340: 697b 3ebd 0ee6 233d 8f3b 12bd 5792 233d
00000350: d3e1 1c3d c80e 2d3d 731c f33c db8d dfbc
00000360: 2236 243d d8f3 0ebd e7b5 083d 3451 38bd
00000370: 8533 193d dc49 2d3d a6c2 0ebd 4511 143d
00000380: a106 1fbd 99e9 233d 4cf1 033d ae00 2d3d
00000390: fb48 39bd 132d 223d 80a2 14bd d063 283d
000003a0: c59e 1c3d 2f34 273d c3c5 e43c 3ed6 cfbc
000003b0: e5cb 203d 3fd2 0cbd c7b8 043d e1c1 3abd
000003c0: bb2f 3dbd 8481 4bbd 097e 303d f68a 2cbd
000003d0: 0e3f 3e3d 1ef5 3cbd 9253 22bd 9cd2 45bd
000003e0: 750c 4c3d 5d04 3dbd 1ab0 2e3d f294 3fbd
000003f0: 3fca 32bd 1898 41bd 7db8 14bd f98f 193d
0.03941526 0.041145884 -0.034778792 0.035536315 -0.040510304 0.042247903 0.030123753 0.041838236
-0.044564497 0.0414477 -0.035574574 0.04038511 0.036880996 0.04319807 0.029578509 -0.027329635
0.040569406 -0.03406479 0.03389401 -0.04612406 -0.044820827 -0.046921548 0.042507086 -0.04382782
0.045818035 -0.04610148 -0.039309688 -0.047417205 0.04896538 -0.047955785 0.040936284 -0.044095602
-0.043710448 -0.047407787 -0.035944954 0.03652332 -0.044499446 0.041057613 -0.03877442 0.049067132
0.03689201 0.043274008 -0.037004437 0.035161678 -0.038880978 0.040275354 0.03190751 0.042554643
-0.045552693 0.04034283 -0.036958557 0.04022516 0.03621286 0.040890813 0.029566176 -0.028498052
0.041124128 -0.03463938 0.031653345 -0.045251954 -0.04480158 -0.049482863 0.041973982 -0.04396507
0.04668499 -0.04833138 -0.040212248 -0.04801562 0.050169475 -0.04798516 0.042423535 -0.04781338
-0.04360305 -0.048357036 -0.037534446 0.03573905 -0.046612658 0.042358384 -0.041888826 0.051312298
-0.04641891 -0.049356148 0.042923 -0.044326585 0.046802092 -0.04861535 -0.037598554 -0.049430605
0.05115569 -0.046036065 0.04370185 -0.047629625 -0.043605696 -0.04991125 -0.038336147 0.03626383
-0.045544405 0.044298615 -0.041145615 0.049409308 -0.045983233 -0.047722135 0.043161858 -0.042062484
0.046228625 -0.04567961 -0.04067248 -0.04955012 0.050980352 -0.0477622 0.043570317 -0.045731343
-0.043999624 -0.048556495 -0.036832795 0.03604852 -0.047534622 0.04179634 -0.039013464 0.05037333
-0.044757593 -0.04830901 0.040731825 -0.041248765 0.048118774 -0.045187242 -0.039290056 -0.049173247
0.050922945 -0.047106855 0.044263236 -0.048459593 -0.0448528 -0.049008418 -0.0375115 0.036161985
-0.047958054 0.042070154 -0.040333997 0.050036967 -0.045053978 -0.04913955 0.041568257 -0.042273853
0.046956412 -0.048414525 -0.038341634 -0.049424477 0.04949588 -0.046889618 0.043277975 -0.048059277
-0.045111425 -0.04961779 -0.03625541 0.037778348 -0.046391424 0.044155363 -0.041048598 0.050337184
0.037951473 0.041625656 -0.034993716 0.037573192 -0.040462647 0.040413193 0.033465087 0.041370645
-0.045679677 0.039798416 -0.035094384 0.039399456 0.038537875 0.04100099 0.029777594 -0.028473442
0.040186353 -0.037333533 0.033739075 -0.04535851 -0.046628825 -0.048473764 0.04303686 -0.04123983
0.047496025 -0.048424054 -0.040199608 -0.04850026 0.05030557 -0.04697823 0.04277301 -0.04841934
-0.045195095 -0.048243284 -0.037135843 0.03644404 -0.04663149 0.041724253 -0.040549103 0.0494038
0.03733218 0.041702483 -0.033987857 0.035808463 -0.040981296 0.0409519 0.03173156 0.040854126
-0.04650441 0.04001432 -0.03570133 0.039934482 0.0383013 0.042250425 0.029676652 -0.027289322
0.040090688 -0.034900516 0.0333766 -0.044999316 0.03740265 0.042306766 -0.0348536 0.036149282
-0.03882468 0.040017698 0.03221254 0.042236976 -0.045235615 0.039593767 -0.036287785 0.041110814
0.038237352 0.04082125 0.027926331 -0.025370713 0.03925695 -0.034380194 0.03240278 -0.045595054
-0.046188097 -0.049684063 0.043088946 -0.04212471 0.046446852 -0.0461322 -0.03963048 -0.048296556
0.049816567 -0.04614674 0.042648412 -0.046772905 -0.04364991 -0.04726419 -0.036308754 0.03749082

layers.1.egnn.edge_mlp.3.bias f4 [16]
00000000: da7b 103e 46a5 67be f2f3 213e a686 eabd
00000010: 7eb5 93bd dbf5 23be 1721 47be 9888 38be
00000020: 57ad 873d 49b7 41be ed2f 833e 5132 753e
00000030: e35f 70be f585 81be f131 5fbe 06c9 dd3d
0.14109746 -0.2262164 0.15815714 -0.114514634 -0.07212351 -0.16011755 -0.19446217 -0.18020856
0.06624859 -0.18917574 0.25622502 0.23944975 -0.23474078 -0.25297514 -0.21796395 0.10829358

layers.1.egnn.node_mlp.0.weight f4 [8, 20]
00000000: 0732 e3ba 7a45 60ba 2968 b8b9 ceea 15b9
00000010: 6aec 3639 4701 8e3a bf72 3e3a 3b94 20ba
00000020: 9d3d 15ba f75a b7ba babd 6dba d3ab ba39
00000030: 8697 633a 0c2e 7038 1148 cd3a c57a 5bba
00000040: 0e02 cb3a 5776 deba ed0c 9239 aad3 593a
00000050: d040 6839 b072 663a 9fb0 dab8 b599 9539
00000060: bddd 2a3a c484 733a d50a be38 61c2 6739
00000070: 43b2 63ba 1b6c e1b9 78c6 f7b9 9041 ce3a
00000080: ae45 d5ba d076 c0b9 f102 9d3a a3de 9eba
00000090: e4d6 a139 f024 073a 5234 11ba be38 acb9
000000a0: 2936 04ba c4e6 c7b9 1ede 4e39 ebd5 3fba
000000b0: 5d52 86ba 3b91 82b9 645a 4f38 f171 9a3a
000000c0: 2e7b eeba a8b5 c039 eb13 da3a b7fc c9b8
000000d0: d67e 433a d956 95b9 a5f9 383a e7ce 59ba
000000e0: daa4 9db8 9aa5 193a a323 90ba 208f a3ba
000000f0: c17d a2ba 4861 f73a c573 c0ba e25f 6939
00000100: c289 813a 63c5 ed3a 0611 1f3a 05ac f637
00000110: 904b 78ba 6d8e 8039 0719 8539 ad8d a039
00000120: 924d 3dba 6b4f 49b9 6ca8 503a afef 1d3a
00000130: 5c77 c83a 5043 46ba e98e 493b 6f70 f93a
00000140: 2af0 b8b9 b8f2 9639 cfa1 ec3a 03ad d6ba
00000150: acdf c837 9852 bfba 56d1 253b 2d08 b6b9
00000160: 7558 45ba 781d 033a c35c 9cb9 ab84 7e3a
00000170: cd59 ad38 c26e 5e3a cdf4 8139 48c0 ebb7
00000180: 159a 9cba 87ba 853a a30b cbba 84c7 a4b9
00000190: ef68 96ba 97c2 e8b9 dada 183a d733 73ba
000001a0: acf1 0bba 015e 8e3a def6 36ba 3526 6b39
000001b0: 544c 8739 df53 42ba 9401 fa3a 498b 8e39
000001c0: 305b fe39 7eb4 95ba 9804 e8b9 4419 39ba
000001d0: f2ab 453a 52fd 13ba b5ce 7f3a 0232 ffb9
000001e0: 8d2a 8fba 8fb9 d83a 505c 303a 3df5 b63a
000001f0: 4986 e4ba 39d2 0eba 989c 27ba f642 d1ba
00000200: a7d4 fd36 6524 db37 acc1 c13a b4aa c73a
00000210: 32fc a93a 0536 d339 4260 5b3a 1af8 20ba
00000220: 9e4c 0f3a a29c d3b8 3d27 e6ba 3074 313a
00000230: 996d 47ba 16ed 423a ae03 f339 6ef9 973a
00000240: 6e21 193a e510 253b 8a49 a13a 5e10 d039
00000250: 6266 a5b9 aa9a 183a c49f b0ba 53b9 eeba
00000260: cc95 7b38 18ed 993a e138 f239 e41a 263a
00000270: 39dd 10ba 77fe aaba 8df7 5e3a 17a4 fbb9
-0.0017333635 -0.00085552747 -0.0003517282 -0.00014297219 0.00017444944 0.0010834121 0.00072650233 -0.00061256037
-0.000569308 -0.0013988902 -0.0009069104 0.00035604704 0.00086819415 5.7263343e-05 0.0015661736 -0.0008372481
0.0015488283 -0.0016972524 0.0002785692 0.00083094335 0.00022149389 0.00087908935 -0.00010427948 0.00028534015
0.0006518027 0.0009289498 9.0619236e-05 0.00022102288 -0.0008685926 -0.0004299589 -0.00047259382 0.0015736092
-0.0016271377 -0.00036709616 0.0011979026 -0.0012120794 0.0003086842 0.00051553454 -0.00055391074 -0.00032848673
-0.0005043471 -0.00038128172 0.00019728436 -0.0007317948 -0.0010247935 -0.00024903737 4.943683e-05 0.0011783225
-0.0018194669 0.00036756438 0.0016638016 -9.631499e-05 0.00074575597 -0.000284842 0.0007056243 -0.0008308724
-7.5170494e-05 0.00058611634 -0.0010996949 -0.0012478568 -0.0012397097 0.0018873597 -0.001468294 0.0002225633
0.0009882974 0.0018140491 0.00060679053 2.9405588e-05 -0.0009471709 0.00024520178 0.00025386384 0.00030623135
-0.0007221337 -0.00019198439 0.0007959667 0.00060247903 0.0015294361 -0.0007563131 0.0030755347 0.00190307
-0.0003527415 0.0002879107 0.0018053594 -0.0016378466 2.3946013e-05 -0.0014596758 0.0025301776 -0.00034719837
-0.0007528135 0.00050016446 -0.00029823752 0.00097091 8.2660095e-05 0.0008485132 0.00024787188 -2.8103721e-05
-0.0011947775 0.0010202684 -0.0015491139 -0.00031429168 -0.0011475364 -0.0004439547 0.0005830951 -0.0009277439
-0.0005338441 0.0010861756 -0.0006979535 0.0002242558 0.00025806075 -0.00074130105 0.0019073957 0.00027188126
0.00048514595 -0.0011421589 -0.0004425391 -0.0007060955 0.00075405755 -0.00056453526 0.000975828 -0.0004867465
-0.0010922715 0.0016534793 0.0006727623 0.0013958585 -0.001743504 -0.0005448196 -0.0006393879 -0.001596539
7.5647436e-06 2.6123782e-05 0.001478245 0.0015233369 0.0012968837 0.00040285304 0.00083685305 -0.00061404856
0.0005466434 -0.00010090439 -0.0017559301 0.00067693274 -0.0007607579 0.0007435841 0.00046351313 0.0011594722
0.0005841468 0.0025187072 0.0012305242 0.00039685046 -0.00031547534 0.00058213866 -0.0013475348 -0.001821319
5.9982573e-05 0.0011743633 0.00046200215 0.00063364045 -0.0005526129 -0.0013045807 0.0008505516 -0.00047996707

layers.1.egnn.node_mlp.0.bias f4 [8]
00000000: 73a4 a13b 2b36 4abe 7a88 cb3d 7dd5 74bd
00000010: 7ea0 28bd 1b6f 4fbe 594f d3bd 741d 063d
0.004932934 -0.19747226 0.0993814 -0.05977391 -0.041168682 -0.20257227 -0.10317869 0.032742932

layers.1.egnn.node_mlp.3.weight f4 [4, 8]
00000000: 2d85 2939 aea0 1d3a b94b 2339 a4b7 c339
00000010: 580f 363a 33c9 2d3a f34d 08bb 600b e9b9
00000020: 3ae5 c03a d550 91ba 42f2 16ba 98ec 633a
00000030: 1708 d6ba bdad 43ba f941 67b9 6080 81ba
00000040: 9ae6 03b9 51a6 7a3a 2960 f938 1410 f9b9
00000050: 1d05 fbb8 3e94 90b5 e742 033a a60d b13a
00000060: ea2d c0ba dc47 833a 0d3f 97ba f059 2c39
00000070: 651c 2cb9 4105 33ba 41d3 8239 24ec c7ba
0.00016166708 0.0006013018 0.000155731 0.0003733012 0.00069450354 0.0006629407 -0.0020798414 -0.00044449698
0.0014716752 -0.0011086712 -0.0005758145 0.0008694618 -0.0016329315 -0.00074645487 -0.00022054453 -0.0009880178
-0.0001257904 0.0009561526 0.000118911565 -0.0004750496 -0.00011969565 -1.077198e-06 0.00050072226 0.0013508096
-0.0014662121 0.0010015923 -0.0011539176 0.00016436703 -0.00016413776 -0.0006829091 0.0002495293 -0.001525287

layers.1.egnn.node_mlp.3.bias f4 [4]
00000000: 2bd8 213d 5fa2 41be fd83 9c3e 2b80 9c3e
0.039512794 -0.18909596 0.3056945 0.30566534
