experiments/models/model_N12_batch64_lr0.0001_fd4_b0.5.pth (torch, 30922 bytes, 32 tensors)

time_embedding.0.weight f4 [8, 1]
-0.72625756 0.95593315 -0.16843641 -0.5922942 0.08738303 -0.9239985 -0.8541322 0.609048
00000000: 04ec 39bf 09b8 743f 987a 2cbe 98a0 17bf
00000010: e0f5 b23d 2a8b 6cbf 68a8 5abf 92ea 1b3f

time_embedding.0.bias f4 [8]
0.33844966 -0.2413304 -0.18334222 0.49825376 -0.14353669 -0.95837486 -0.9213525 -0.14875737
00000000: 4649 ad3e 511f 77be 10be 3bbe 1e1b ff3e
00000010: 48fb 12be 0e58 75bf c2dd 6bbf da53 18be

time_embedding.3.weight f4 [4, 8]
0.03312395 0.13026403 -0.104481824 -0.10150955 0.1343687 0.25740704 -0.041588064 -0.035946086
0.1517475 -0.01187588 0.24295188 0.2850556 -0.28689548 -0.12603433 0.34608668 0.24124959
0.2791569 0.011973016 0.12752354 0.008598242 0.28941324 -0.078708604 -0.2242946 -0.3292627
0.06879055 -0.035498545 -0.09572776 -0.16388828 0.09548908 0.212897 -0.20504917 0.10090635
00000000: fbac 073d ef63 053e 91fa d5bd 3de4 cfbd
00000010: f397 093e dbca 833e 3f58 2abd 343c 13bd
00000020: b263 1b3e 0d93 42bc 61c8 783e cff2 913e
00000030: f7e3 92be 250f 01be 4632 b13e 220a 773e
00000040: a7ed 8e3e 782a 443c 8895 023e a4df 0c3c
00000050: f92d 943e fa31 a1bd 7cad 65be 1f95 a8be
00000060: 0fe2 8c3d ec66 11bd ea0c c4bd 54d2 27be
00000070: c78f c33d ac01 5a3e 69f8 51be fda7 ce3d

time_embedding.3.bias f4 [4]
0.21257429 0.2516444 -0.112487294 -0.025141915
00000000: 13ad 593e 89d7 803e bd5f e6bd 6bf6 cdbc

layers.0.egnn.edge_mlp.0.weight f4 [20, 10]
-0.008845111 -0.009966417 0.0008389318 0.009251085 -0.011105168 -0.0080753695 0.0015528644 0.008743732
-0.00013461399 -0.014055256 0.00847189 0.008321106 -0.00018141676 -0.0074905837 0.010099773 0.007568473
-0.003162805 -0.006016767 -0.0006825689 0.010629634 -0.010226654 -0.008054417 0.0017406414 0.008821241
-0.008164875 -0.011030125 0.0046013854 0.008669975 -0.0012036808 -0.012564063 -0.007250102 -0.010604382
0.00122466 0.008791528 -0.0081170555 -0.0094220415 0.002831159 0.008608949 0.00096698833 -0.011578336
0.009184645 0.007882801 -0.0044305287 -0.007291362 0.009050758 0.008922625 -0.0005998822 -0.008352234
0.002307258 0.012016274 -0.007725484 -0.008734408 -0.0007226507 0.0082160365 -0.008415404 -0.010074644
0.00055482914 0.0074358624 0.0021586292 -0.013137844 -0.01060939 -0.00853147 0.004714625 0.008095324
-0.0075851413 -0.009393156 0.0012154828 0.007491862 -0.00056640693 -0.011933752 -0.011075788 -0.009724853
0.0011675936 0.00999632 -0.0073456997 -0.009370944 0.0026772 0.008107903 -0.00039840658 -0.012892759
0.010732193 0.009156447 -0.002118256 -0.010465741 0.01097542 0.008004025 -0.0012840665 -0.009998789
-0.0012099983 0.011710022 -0.008828052 -0.009943313 0.00023759385 0.00856663 -0.009547615 -0.007899375
0.0030421084 0.008307821 0.0009624164 -0.010636618 -0.0084519265 -0.008401582 0.0017425963 0.009532634
-0.008019832 -0.010211434 0.0033925134 0.009191577 0.000118717726 -0.012151678 0.009684596 0.008759493
-0.002030318 -0.011098143 0.009065885 0.009502129 -0.0021884309 -0.0092467405 -0.0015338828 0.009970165
-0.0100906305 -0.009970648 0.0018870921 0.009402536 -0.008807767 -0.008073575 0.003595865 0.008662501
0.0022468497 -0.011473146 0.009086107 0.008422635 -0.0008334976 -0.009339436 0.008326858 0.008119371
-0.0024314248 -0.006655613 0.0022160166 0.012837328 -0.008030128 -0.008830063 0.0030716544 0.01048164
-0.009637697 -0.009839494 0.0020108505 0.009340236 0.0007146153 -0.012166834 0.008140931 0.009032252
-0.0042201723 -0.010569228 0.010090921 0.008988125 -0.0009186343 -0.007361159 0.00092849333 0.010673286
-0.00690485 -0.009027329 0.0015282191 0.008783885 -0.0065603512 -0.010928115 0.002021695 0.008979467
-0.0007880192 -0.011270649 0.008649114 0.007723498 -0.0024960984 -0.010235645 0.009360259 0.0083686365
-0.0022784113 -0.009596627 -0.00036372014 0.0115234 0.009290629 0.009420561 -0.0019733878 -0.006418098
0.009219697 0.009370585 8.97346e-05 -0.0073830495 0.0026728194 0.01200395 -0.008145313 -0.007611175
0.0009806149 0.008494324 -0.009542919 -0.008993926 0.0018866572 0.009494735 0.002019339 -0.010703983
00000000: 16eb 10bc 2f4a 23bc c3eb 5b3a dd91 173c
00000010: 73f2 35bc 8e4e 04bc 7c89 cb3a df41 0f3c
00000020: 2b27 0db9 0448 66bc afcd 0a3c 4055 083c
00000030: b13a 3eb9 9273 f5bb 8579 253c f400 f83b
00000040: 1047 4fbb 4d28 c5bb 6cee 32ba eb27 2e3c
00000050: b28d 27bc acf6 03bc 3c26 e43a f786 103c
00000060: f8c5 05bc b3b7 34bc 38c7 963b 830c 0e3c
00000070: d3c4 9dba 80d9 4dbc 4392 edbb 00be 2dbc
00000080: c584 a03a 570a 103c 66fd 04bc e85e 1abc
00000090: f78a 393b 8d0c 0d3c 7d7d 7d3a 10b3 3dbc
000000a0: 317b 163c dd26 013c f82d 91bb 61ec eebb
000000b0: a149 143c 3430 123c 6a41 1dba cfd7 08bc
000000c0: 5e35 173b e8df 443c 0f26 fdbb c31a 0fbc
000000d0: 4470 3dba 8e9c 063c c3e0 09bc 1f10 25bc
000000e0: f471 113a 89a8 f33b ca77 0d3b 1d40 57bc
000000f0: 02d3 2dbc 94c7 0bbc 247d 9a3b 40a2 043c
00000100: c78c f8bb c0e5 19bc d650 9f3a 4b7e f53b
00000110: ed7a 14ba c985 43bc 3977 35bc fd54 1fbc
00000120: f109 993a 9bc7 233c 32b4 f0bb 9788 19bc
00000130: f673 2f3b 03d7 043c 3ae1 d0b9 273c 53bc
00000140: 14d6 2f3c ec04 163c 70d2 0abb 8078 2bbc
00000150: 3fd2 333c 5023 033c 1f4e a8ba f6d1 23bc
00000160: ce98 9eba 64db 3f3c 89a3 10bc 47e9 22bc
00000170: 9d22 7939 0d5b 0c3c 9a6d 1cbc 616c 01bc
00000180: 1c5e 473b 871d 083c ac4a 7c3a 3645 2ebc
00000190: f379 0abc caa6 09bc d467 e43a c42e 1c3c
000001a0: 9d65 03bc dc4d 27bc ee54 5e3b 4598 163c
000001b0: 18f8 f838 d517 47bc 24ac 1e3c fa83 0f3c
000001c0: 150f 05bb fcd4 35bc 1489 143c d1ae 1b3c
000001d0: c76b 0fbb a47f 17bc 910c c9ba e759 233c
000001e0: 2c53 25bc ee5b 23bc 4e58 f73a 180d 1a3c
000001f0: 744e 10bc 0747 04bc 9ba8 6b3b 2aed 0d3c
00000200: e23f 133b ddf9 3bbc e5dd 143c 17ff 093c
00000210: 147f 5aba 6f04 19bc 606d 083c 1c07 053c
00000220: 8a58 1fbb 5417 dabb 973a 113b a853 523c
00000230: cc90 03bc f8ab 10bc cf4d 493b 2fbb 2b3c
00000240: 6ee7 1dbc d435 21bc 79c8 033b ca07 193c
00000250: 0555 3b3a 6757 47bc 8a61 053c 03fc 133c
00000260: 5f49 8abb 8e2a 2dbc 6454 253c ee42 133c
00000270: 81d0 70ba e135 f1bb 2266 733a 02df 2e3c
00000280: 1442 e2bb 5de7 13bc 864e c83a 49ea 0f3c
00000290: 37f8 d6bb d60b 33bc 6a7e 043b 9d1e 133c
000002a0: 1393 4eba 87a8 38bc 03b5 0d3c 6615 fd3b
000002b0: 9595 23bb 68b3 27bc c65b 193c 9b1c 093c
000002c0: 6651 15bb 2c3b 1dbc b1b1 beb9 a5cc 3c3c
000002d0: b937 183c b258 1a3c f453 01bb e94e d2bb
000002e0: 360e 173c 1587 193c e62f bc38 82ed f1bb
000002f0: 782a 2f3b 37ac 443c eb73 05bc 2a67 f9bb
00000300: fa87 803a c72b 0b3c e759 1cbc 435b 13bc
00000310: b649 f73a ce8f 1b3c e356 043b c25f 2fbc

layers.0.egnn.edge_mlp.0.bias f4 [20]
-0.16304572 0.27990833 -0.27761886 -0.06276588 0.047685344 -0.08134626 -0.0548264 -0.28779054
0.16636482 -0.048559994 -0.31666467 0.31829992 -0.26877156 0.27808046 -0.23788095 0.31606114
-0.12639135 0.30659786 0.2808461 -0.05524797
00000000: 75f5 26be 2550 8f3e 0f24 8ebe 668b 80bd
00000010: b551 433d de98 a6bd a691 60bd 4859 93be
00000020: 8a5b 2a3e d8e6 46bd df21 a2be 35f8 a23e
00000030: 6d9c 89be 9060 8e3e 1097 73be c4d2 a13e
00000040: bc6c 01be 65fa 9c3e 0fcb 8f3e b24b 62bd

layers.0.egnn.edge_mlp.3.weight f4 [16, 20]
-0.012678697 0.013250551 -0.013019 -0.0105935335 0.010418461 -0.012582012 -0.00955947 -0.01345682
0.011292716 -0.010079309 -0.012918936 0.013506875 -0.014362265 0.015199854 -0.0138415005 0.01396445
-0.012343581 0.014220584 0.014904777 -0.009123741 0.012484809 -0.015087138 0.012855172 0.010190408
-0.010793148 0.010897325 0.009976967 0.012784546 -0.011964647 0.010172104 0.013202519 -0.014298371
0.01454186 -0.012758992 0.01411966 -0.013265724 0.012389958 -0.01586725 -0.01248359 0.010362862
-0.013748652 0.01478711 -0.013517574 -0.010190735 0.010887109 -0.011748524 -0.009664897 -0.012942671
0.0156012075 -0.010523166 -0.014638933 0.013893592 -0.014720258 0.0142303165 -0.0141879115 0.01382546
-0.012253277 0.013934082 0.013279071 -0.010444292 0.012705528 -0.012671624 0.014928744 0.011339081
-0.0098953545 0.012415076 0.010202097 0.013225384 -0.014137152 0.007935839 0.014229165 -0.013774467
0.012281066 -0.012334308 0.012983401 -0.013599794 0.012815531 -0.014032874 -0.012398871 0.010029424
-0.013879842 0.013192074 -0.0146349445 -0.008681641 0.009316139 -0.012306449 -0.009341311 -0.012998431
0.013121296 -0.009044467 -0.014769249 0.014168971 -0.013636073 0.013870196 -0.0136251245 0.012299591
-0.010585838 0.012226957 0.01682675 -0.010166439 0.012228934 -0.014304998 0.012602183 0.011388645
-0.008140881 0.011126806 0.010602243 0.012344639 -0.010762802 0.010319425 0.013949621 -0.01304637
0.01073539 -0.0138198 0.012433681 -0.013199592 0.011166977 -0.014707793 -0.0137424115 0.011644665
0.012334146 -0.013291633 0.012989628 0.009755284 -0.009207946 0.011950348 0.00996801 0.015564201
-0.010857661 0.010816887 0.013688857 -0.014985958 0.014507138 -0.011090413 0.012475417 -0.012041913
0.011633768 -0.014375203 -0.013032998 0.009918655 -0.0119059365 0.0140615 -0.01489335 -0.011926005
0.009198578 -0.012519719 -0.009541979 -0.013721434 0.012968037 -0.011071537 -0.015407816 0.013534888
-0.01362966 0.0136176925 -0.013534062 0.012956942 -0.010380035 0.012585555 0.0146037545 -0.010948056
-0.012847447 0.012385503 -0.012746185 -0.010743689 0.007625471 -0.011067692 -0.008533446 -0.0142073715
0.013948713 -0.010979328 -0.015668068 0.013796927 -0.014398138 0.013938909 -0.012923748 0.013760353
-0.012359314 0.013671285 0.012654942 -0.010289312 -0.012901905 0.012568644 -0.012982457 -0.009533159
0.0094781965 -0.011606914 -0.010541291 -0.013258204 0.012062093 -0.009744852 -0.013374485 0.013115234
-0.01420193 0.012972695 -0.013231692 0.015426807 -0.012431727 0.01432014 0.012271894 -0.011030678
-0.012998618 0.012428319 -0.014337052 -0.00837254 0.008962227 -0.012126417 -0.010623387 -0.013905111
0.012890134 -0.010687701 -0.013683882 0.014214022 -0.011652163 0.012355315 -0.0149203455 0.014445924
-0.012050853 0.016114697 0.012766534 -0.010438029 0.010357538 -0.01255684 0.012347921 0.012619268
-0.008858059 0.011153542 0.008619464 0.014683825 -0.013254006 0.008817683 0.012678605 -0.016187983
0.0142351175 -0.015140695 0.012384926 -0.012872978 0.012304575 -0.014148067 -0.012799361 0.0105055645
-0.01329677 0.01479776 -0.013284775 -0.01016164 0.012690889 -0.009621683 -0.009804279 -0.014216126
0.012533575 -0.009789321 -0.0131613 0.012530602 -0.014769715 0.013840888 -0.01411474 0.013005804
00000000: 4fba 4fbc d718 593c a54d 55bc 8090 2dbc
00000010: 31b2 2a3c c924 4ebc 539f 1cbc fe79 5cbc
00000020: 1505 393c b023 25bc f2a9 53bc f14b 5d3c
00000030: b54f 6bbc cf08 793c 76c7 62bc 26cb 643c
00000040: bb3c 4abc 74fd 683c 2a33 743c be7b 15bc
00000050: 168d 4c3c 0b30 77bc 809e 523c abf5 263c
00000060: bed5 30bc b28a 323c 6f76 233c 4676 513c
00000070: 5e07 44bc e6a8 263c 614f 583c b743 6abc
00000080: fb40 6e3c 170b 51bc 2556 673c 7b58 59bc
00000090: 40ff 4a3c 09fc 81bc f987 4cbc fec8 293c
000000a0: 0742 61bc a245 723c d178 5dbc 0af7 26bc
000000b0: d85f 323c e27c 40bc 8459 1ebc 7f0d 54bc
000000c0: 359c 7f3c 5b69 2cbc 23d8 6fbc f3a1 633c
000000d0: 3d2d 71bc 4626 693c 6a74 68bc 2f84 623c
000000e0: f8c1 48bc c74b 643c 7690 593c 891e 2bbc
000000f0: d92a 503c a59c 4fbc b197 743c 8ec7 393c
00000100: 2020 22bc 9a68 4b3c b226 273c 48af 583c
00000110: 839f 67bc 5205 023c 7221 693c 4dae 61bc
00000120: 8636 493c d615 4abc 55b8 543c acd1 5ebc
00000130: 3cf8 513c 24ea 65bc a224 4bbc 7452 243c
00000140: 4768 63bc 9223 583c 68c7 6fbc 713d 0ebc
00000150: b8a2 183c fda0 49bc 4c0c 19bc 5ff7 54bc
00000160: b4fa 563c 3e2f 14bc b8fa 71bc f924 683c
00000170: d669 5fbc d23f 633c ea3b 5fbc 3984 493c
00000180: 3970 2dbc 9353 483c 41d8 893c 2391 26bc
00000190: de5b 483c 835f 6abc 6379 4e3c 7097 3a3c
000001a0: 5461 05bc 354d 363c 08b5 2d3c 2b41 4a3c
000001b0: 7756 30bc ce12 293c f38c 643c 71c0 55bc
000001c0: 7de3 2f3c 716c 62bc a3b6 4b3c 1a43 58bc
000001d0: b2f5 363c f4f8 70bc da27 61bc 44c9 3e3c
000001e0: 2815 4a3c 26c5 59bc 73d2 543c a0d4 1f3c
000001f0: eddc 16bc 64cb 433c dd50 233c fe00 7f3c
00000200: 55e4 31bc 5039 313c 3a47 603c aa87 75bc
00000210: 59af 6d3c 90b4 35bc b165 4c3c 724b 45bc
00000220: 8f9b 3e3c f985 6bbc 5b88 55bc db81 223c
00000230: 1e11 43bc 3562 663c 3d03 74bc 4a65 43bc
00000240: a2b5 163c 821f 4dbc f655 1cbc decf 60bc
00000250: e477 543c 6465 35bc 1071 7cbc 6fc1 5d3c
00000260: f04e 5fbc be1c 5f3c f8bd 5dbc 5b49 543c
00000270: 0611 2abc a533 4e3c 9644 6f3c 7a5f 33bc
00000280: 197e 52bc 91ec 4a3c 60d5 50bc 4c06 30bc
00000290: 16df f93b 4455 35bc decf 0bbc 09c6 68bc
000002a0: 2589 643c a4e2 33bc 525a 80bc 820c 623c
000002b0: 2be6 6bbc 0660 643c 21be 53bc 1b73 613c
000002c0: b87e 4abc 86fd 5f3c ad56 4f3c 8194 28bc
000002d0: 8362 53bc b7ec 4d3c 5fb4 54bc f830 1cbc
000002e0: 704a 1b3c ed2a 3ebc 61b5 2cbc f038 59bc
000002f0: 16a0 453c dfa8 1fbc a820 5bbc 47e1 563c
00000300: 36af 68bc 6d8b 543c bdc9 58bc b8c0 7c3c
00000310: 71ae 4bbc 059f 6a3c 0e10 493c 04ba 34bc
00000320: 28f8 54bc 26a0 4b3c f4e5 6abc fa2c 09bc
00000330: 4ed6 123c e1ad 46bc b70d 2ebc 43d2 63bc
00000340: 2431 533c 781b 2fbc 5c32 60bc eee1 683c
00000350: b7e8 3ebc f26d 4a3c 7774 74bc 99ae 6c3c
00000360: f170 45bc f802 843c ba2a 513c 4404 2bbc
00000370: aab2 293c 34bb 4dbc ef4e 4a3c 0cc1 4e3c
00000380: 6421 11bc 59bd 363c a738 0d3c 6d94 703c
00000390: 5527 59bc 0b78 103c ecb9 4f3c a99c 84bc
000003a0: 693a 693c ad10 78bc 25ea 4a3c 2fe9 52bc
000003b0: 2199 493c 4bcd 67bc 69b4 51bc 881f 2c3c
000003c0: b2da 59bc 4e72 723c 63a8 59bc 027d 26bc
000003d0: 72ed 4f3c 43a4 1dbc 20a2 20bc c1ea 68bc
000003e0: a059 4d3c 6363 20bc 7ea2 57bc 274d 4d3c
000003f0: adfc 71bc e4c4 623c 8341 67bc 4c16 553c

layers.0.egnn.edge_mlp.3.bias f4 [16]
0.11176523 -0.13883816 0.23148957 -0.053862352 0.13047385 -0.07458546 -0.13688199 0.12445028
0.17169191 0.13372688 0.2038099 -0.055973668 0.21043003 -0.20053834 -0.13171114 0.16557239
00000000: 2be5 e43d 972b 0ebe 9a0b 6d3e c59e 5cbd
00000010: f09a 053e 43c0 98bd cb2a 0cbe cadf fe3d
00000020: 01d0 2f3e b3ef 083e 8bb3 503e a544 65bd
00000030: f87a 573e ec59 4dbe 49df 06be cf8b 293e

layers.0.egnn.node_mlp.0.weight f4 [8, 20]
0.00055876584 0.00095733005 -0.0011297315 -0.0009477238 0.00021508307 -0.0008301721 2.2866188e-05 0.0011728895
-0.0013626437 -0.0010683531 -0.0006150031 -0.00059651193 0.0009195992 0.0013416365 -0.00053720275 0.0008398564
0.0013583949 -0.00095823576 -0.0016436635 0.0007357059 -0.00059275917 -0.00015066915 0.00039539504 -0.00034499704
-0.0002626482 0.0007070756 -0.0012152649 -6.760614e-05 -0.00019312532 0.0015431512 -8.1270045e-05 0.001337082
0.0013829637 -0.0013125727 -0.0022841268 0.00040579287 -0.0014683583 0.0012447864 -0.0017837655 -0.00045495498
-0.0012270907 -0.0012047348 -0.0021118498 0.000786973 0.0005652512 -0.0010207355 -0.00076729513 0.0013036346
0.0005185147 -0.0008189039 -0.0008037916 -0.0014646389 0.0018071722 0.0024388728 0.001481497 -0.00023652363
0.0011332197 0.000102865495 0.000574653 -0.00057162036 -0.000999033 0.0001554839 0.001432879 0.0003211702
-0.000396009 -0.00032308188 0.00012109261 -0.0013340556 0.00038076815 -0.00066093745 -0.0008145569 0.001019326
0.00019103222 0.0005198511 0.00050947524 -0.0008157457 -0.0008289824 -0.00090297597 0.00019556067 -0.0009955339
1.0490151e-05 0.0013724873 -0.0009162546 -0.00030617748 -0.00017737132 -0.0020191553 0.0013536004 4.4133372e-05
0.0015425888 -0.0012885216 -0.00023096886 -0.0002710177 0.0013912909 -0.0010702334 7.620296e-06 0.00065842277
-0.00015958649 -0.0013599794 -0.0012581263 -0.0009476585 0.00025878087 0.00032763818 -0.00021378564 0.0008727261
-0.00045341867 0.0002729333 -0.0015884317 0.0001347844 -0.0009528195 -0.0011212528 -0.00051046174 -0.0005026555
-0.0007629571 -0.00087024685 0.0007253683 0.0005784292 0.0005133183 0.00038555835 -0.002420527 -0.00043309055
0.00037767607 0.0004838285 -0.0019068716 0.0011544459 0.00096220686 -0.00014938599 2.1189657e-05 -0.00030107494
-0.00022745556 0.00085221644 -0.00022114674 0.0001490727 0.00067077565 -0.0010406445 0.0006063817 0.001330132
0.00033709017 0.00052663364 0.0026474677 0.00036412812 0.0030955013 -0.0008057215 -1.2325543e-05 -0.0006826168
-0.00086427253 0.00087265455 -0.0011462249 0.00016161965 0.001195283 -9.157235e-05 0.0005154878 -0.00050092646
-0.00044798965 -0.0020930774 0.0017045919 -0.001371568 0.0008869723 0.0020668572 -0.0006403878 -0.0008071846
00000000: 247a 123a 55f5 7a3a 8013 94ba ab70 78ba
00000010: ec87 6139 e89f 59ba c4d0 bf37 a4bb 993a
00000020: bc9a b2ba fb07 8cba 2938 21ba 3d5f 1cba
00000030: 4211 713a dad9 af3a 11d3 0cba cf29 5c3a
00000040: 2b0c b23a 1d32 7bba 3270 d7ba 63dc 403a
00000050: 6563 1bba f1fc 1db9 064d cf39 b8e0 b4b9
00000060: 0bb4 89b9 0a5b 393a 8649 9fba c5c7 8db8
00000070: af81 4ab9 9043 ca3a 866f aab8 0741 af3a
00000080: 9044 b53a a20a acba 4ab1 15bb 99c0 d439
00000090: ee75 c0ba 1a28 a33a 3dcd e9ba 0687 eeb9
000000a0: 55d6 a0ba 31e8 9dba f666 0abb dd4c 4e3a
000000b0: 5e2d 143a 33ca 85ba 4e24 49ba b8de aa3a
000000c0: efec 073a b6ab 56ba 8bb5 52ba 20f9 bfba
000000d0: a3de ec3a 7fd5 1f3b ca2e c23a 5403 78b9
000000e0: 8b88 943a 7eb9 d738 4fa4 163a cbd8 15ba
000000f0: fcf1 82ba 6409 2339 71cf bb3a bc62 a839
00000100: 6e9f cfb9 5163 a9b9 1af3 fd38 7adb aeba
00000110: d6a1 c739 c342 2dba fd87 55ba e89a 853a
00000120: d24f 4839 9e46 083a 4e8e 053a c4d7 55ba
00000130: 1150 59ba b1b5 6cba 6b0f 4d39 937c 82ba
00000140: dbfe 2f37 08e5 b33a ce30 70ba 7286 a0b9
00000150: c0fc 39b9 ce53 04bb 4b6b b13a d91b 3938
00000160: b130 ca3a 9ce3 a8ba 3b30 72b9 6117 8eb9
00000170: fa5b b63a 1347 8cba d8b1 ff36 019a 2c3a
00000180: ac56 27b9 5641 b2ba b7e7 a4ba 496c 78ba
00000190: fbac 8739 dac6 ab39 a52b 60b9 a8c7 643a
000001a0: d3b8 edb9 7d18 8f39 ec32 d0ba e954 0d39
000001b0: a2c6 79ba 00f7 92ba 82d0 05ba a4c4 03ba
000001c0: 2f01 48ba 4721 64ba a526 3e3a baa1 173a
000001d0: 3590 063a c424 ca39 b4a1 1ebb 6e10 e3b9
000001e0: d302 c639 5daa fd39 feef f9ba c750 973a
000001f0: 9c3c 7c3a 7fa4 1cb9 71c0 b137 98d9 9db9
00000200: 2381 6eb9 4767 5f3a a0e3 67b9 6650 1c39
00000210: fed6 2f3a 3c66 88ba 96f5 1e3a d357 ae3a
00000220: 7abb b039 c90d 0a3a 2381 2d3b 73e8 be39
00000230: e5dd 4a3b 0e37 53ba cec9 4eb7 a3f1 32ba
00000240: 5990 62ba dbc2 643a ed3c 96ba 7278 2939
00000250: 0bab 9c3a 880a c0b8 cd21 073a 9b50 03ba
00000260: 27e0 eab9 032c 09bb 9d6c df3a 2fc6 b3ba
00000270: b483 683a 1c74 073b b3df 27ba 3e99 53ba

layers.0.egnn.node_mlp.0.bias f4 [8]
0.12226913 -0.125797 0.0358084 -0.1117958 -0.035122275 0.21765512 -0.20191963 0.20916156
00000000: 3d68 fa3d eed0 00be d4ab 123d 32f5 e4bd
00000010: 60dc 0fbd fce0 5e3e 05c4 4ebe 732e 563e

layers.0.egnn.node_mlp.3.weight f4 [4, 8]
-0.0011750925 0.0011396011 -0.00073402806 -0.0012167409 -3.7012065e-05 0.00070741394 0.0013996002 -9.582019e-05
-0.001742392 -0.0009170156 0.0002671442 -0.00065715436 -5.6239915e-05 -0.001352831 -0.0005245517 -0.0012794062
0.00031115967 -0.00078718725 0.00040340287 0.0005871609 0.00041420764 0.0001249132 0.00020894254 0.0017590789
0.0018022846 -0.0006127205 0.00044482294 0.00090684905 0.000121387704 -0.0016537035 -0.00012283986 0.000742456
00000000: 9005 9aba ab5e 953a ca6b 40ba 0d7b 9fba
00000010: 673d 1bb8 bf71 393a ca72 b73a 13f3 c8b8
00000020: f960 e4ba e063 70ba 7d0f 8c39 e244 2cba
00000030: 26e3 6bb8 7a51 b1ba 1282 09ba c0b1 a7ba
00000040: 2523 a339 3e5b 4eba d17f d339 b3eb 193a
00000050: 022a d939 22fb 0239 9617 5b39 e590 e63a
00000060: a33a ec3a fa9e 20ba 2037 e939 9cb9 6d3a
00000070: 8791 fe38 15c1 d8ba 93ce 00b9 61a1 423a

layers.0.egnn.node_mlp.3.bias f4 [4]
-0.015729668 0.1295938 -0.26892897 0.13118476
00000000: 81db 80bc 3db4 043e 0fb1 89be 4c55 063e

layers.0.egnn.coors_mlp.0.weight f4 [64, 16]
-0.018402863 0.015836883 -0.016114175 0.015357755 -0.015438217 0.015015286 0.018962776 -0.0168787
-0.01775274 -0.015871607 -0.017542083 0.015948422 -0.019238219 0.017668257 0.01607397 -0.016240899
-0.012499801 0.014679415 -0.012505969 0.0123896105 -0.013304674 0.013701699 0.010928361 -0.013828443
-0.013744099 -0.012958673 -0.014784121 0.0144821 -0.013680194 0.014940118 0.014362756 -0.013748295
-0.013034305 0.01667083 -0.017555384 0.013587114 -0.014639818 0.014020374 0.014989588 -0.014198422
-0.016608005 -0.015574734 -0.01690987 0.015297657 -0.01549205 0.015731607 0.015753636 -0.015670972
0.014918102 -0.013224994 0.016361741 -0.011999545 0.015572611 -0.015445327 -0.014435692 0.014734928
0.013651548 0.016230337 0.014608796 -0.014794834 0.014226022 -0.013940003 -0.013469545 0.017140798
-0.017560232 0.016716972 -0.016092539 0.016582668 -0.018553933 0.018313076 0.017532032 -0.017708046
-0.018255334 -0.017424665 -0.017386897 0.014730095 -0.018692411 0.017905686 0.018178072 -0.017562054
-0.017024059 0.016284375 -0.018403605 0.014916978 -0.016616352 0.015619763 0.015530291 -0.017140275
-0.01767944 -0.017699914 -0.017706506 0.016985273 -0.01618535 0.019022863 0.015181944 -0.01619097
-0.016323727 0.016514445 -0.018163906 0.015863335 -0.01642393 0.015784156 0.017769579 -0.016789379
-0.01617221 -0.018827446 -0.018582119 0.016114997 -0.016323572 0.016970113 0.017302921 -0.01672514
-0.016153513 0.015975922 -0.013116717 0.011902593 -0.013111376 0.015326075 0.015837599 -0.015701089
-0.01261221 -0.015966875 -0.014891678 0.01343979 -0.015652796 0.01638053 0.014781634 -0.014975007
0.013928581 -0.014029648 0.013488737 -0.014247994 0.014868864 -0.015353312 -0.014611728 0.014096266
0.012994182 0.015332657 0.015839122 -0.01277987 0.012606585 -0.016863633 -0.017057115 0.015183636
0.016527941 -0.015384795 0.018739175 -0.016626095 0.0171583 -0.016772455 -0.018143905 0.017049903
0.016175887 0.015147249 0.01864808 -0.015302781 0.015574187 -0.016000532 -0.017229808 0.017900137
0.012467603 -0.014070772 0.014350217 -0.013485607 0.015774067 -0.013665129 -0.015363005 0.012773292
0.01425868 0.015033866 0.015272865 -0.013721514 0.014006889 -0.013264521 -0.014348174 0.014735537
0.01727182 -0.017076354 0.016895333 -0.0144355185 0.015941273 -0.016248563 -0.017528642 0.019661717
0.017104376 0.016579505 0.01734416 -0.015708217 0.018198999 -0.019161785 -0.017926836 0.016703198
-0.013071544 0.013150902 -0.0136060575 0.011825138 -0.015702091 0.012120483 0.015766354 -0.013154417
-0.014082213 -0.012230093 -0.012141484 0.012947727 -0.014300261 0.014831149 0.01316922 -0.012698805
0.018256629 -0.01721542 0.017552657 -0.015317015 0.016927132 -0.016362816 -0.016642576 0.017502718
0.015981857 0.017796347 0.01673981 -0.0155995535 0.017832037 -0.01769902 -0.019479066 0.018017713
0.016178148 -0.015260471 0.016516116 -0.016956417 0.016846152 -0.016417336 -0.015402497 0.015647318
0.017769666 0.017742766 0.015577504 -0.014922236 0.016477665 -0.015903858 -0.01784499 0.015232209
0.01448279 -0.014634824 0.015549818 -0.014351297 0.015321852 -0.0155435 -0.014261177 0.0146160945
0.013960961 0.014116585 0.01688335 -0.015080193 0.016783888 -0.017589198 -0.014863923 0.016180221
00000000: 9ac1 96bc 5abc 813c e001 84bc 189f 7b3c
00000010: 93f0 7cbc ad02 763c d357 9b3c 3345 8abc
00000020: 326e 91bc 2c05 82bc 6ab4 8fbc 44a6 823c
00000030: 7899 9dbc 05bd 903c 8fad 833c a20b 85bc
00000040: f7cb 4cbc ee81 703c d6e5 4cbc cbfd 4a3c
00000050: d9fb 59bc 177d 603c de0c 333c b290 62bc
00000060: ee2e 61bc 9d50 54bc 1939 72bc 5446 6d3c
00000070: e422 60bc 66c7 743c c451 6b3c 8740 61bc
00000080: d68d 55bc 4491 883c 4fd0 8fbc 7d9c 5e3c
00000090: d9db 6fbc b6b5 653c e496 753c 80a0 68bc
000000a0: 830d 88bc 2b2d 7fbc 9186 8abc 06a3 7a3c
000000b0: 5ed2 7dbc 92df 803c c50d 813c 6960 80bc
000000c0: 0e6b 743c a5ad 58bc 0f09 863c bd99 44bc
000000d0: 4424 7f3c 660e 7dbc ae83 6cbc c46a 713c
000000e0: beaa 5f3c 7cf5 843c bb59 6f3c 0866 72bc
000000f0: 4314 693c 9c64 64bc 5eaf 5cbc dc6a 8c3c
00000100: 7ada 8fbc 08f2 883c 80d4 83bc 60d8 873c
00000110: 6bfe 97bc 4e05 963c 569f 8f3c 7710 91bc
00000120: 368c 95bc 2cbe 8ebc f76e 8ebc 7f56 713c
00000130: d420 99bc f2ae 923c 2eea 943c 4cde 8fbc
00000140: 0a76 8bbc cf66 853c 28c3 96bc 5766 743c
00000150: 041f 88bc 09ea 7f3c c372 7e3c c369 8cbc
00000160: 79d4 90bc 69ff 90bc 3c0d 91bc b324 8b3c
00000170: 2497 84bc d6d5 9b3c b0bd 783c eda2 84bc
00000180: 56b9 85bc 4d49 873c 79cc 94bc d3f3 813c
00000190: 7a8b 86bc c64d 813c 8291 913c e189 89bc
000001a0: 957b 84bc 043c 9abc 8739 98bc 9903 843c
000001b0: 03b9 85bc e804 8b3c dbbe 8d3c 2903 89bc
000001c0: 5f54 84bc f0df 823c 80e7 56bc 1803 433c
000001d0: 19d1 56bc 381a 7b3c dabd 813c 929f 80bc
000001e0: 71a3 4ebc f7cc 82bc 39fc 73bc 9132 5c3c
000001f0: 4b3a 80bc 7630 863c ab2e 723c bb59 75bc
00000200: b434 643c 9cdc 65bc ddff 5c3c 6b70 69bc
00000210: 899c 733c 758c 7bbc 0766 6fbc 06f4 663c
00000220: 8de5 543c d335 7b3c 0cc1 813c a962 51bc
00000230: da8b 4e3c 9a25 8abc 5dbb 8bbc c9c4 783c
00000240: 9b65 873c 8210 7cbc e682 993c 7333 88bc
00000250: 908f 8c3c 6366 89bc 87a2 94bc 3dac 8b3c
00000260: 4b83 843c 2b2c 783c dcc3 983c 84b8 7abc
00000270: e02a 7f3c 8c13 83bc 8725 8dbc 4fa3 923c
00000280: eb44 4c3c 1889 66bc 2c1d 6b3c bcf2 5cbc
00000290: 9e38 813c b5e3 5fbc 1db5 7bbc 1247 513c
000002a0: 3d9d 693c 9b50 763c 0a3b 7a3c 33d0 60bc
000002b0: 277d 653c 6f53 59bc 9b14 6bbc 526d 713c
000002c0: a27d 8d3c b6e3 8bbc 1568 8a3c f482 6cbc
000002d0: 4697 823c b51b 85bc 3a98 8fbc 9c11 a13c
000002e0: 7a1e 8c3c bed1 873c 5715 8e3c 85ae 80bc
000002f0: 1116 953c 2df9 9cbc 4ddb 92bc 25d5 883c
00000300: 072a 56bc e276 573c f1eb 5ebc 39be 413c
00000310: aca1 80bc fe94 463c 7128 813c a085 57bc
00000320: 15b9 66bc ba60 48bc 13ed 46bc b422 543c
00000330: a44b 6abc 59fe 723c b6c3 573c a60e 50bc
00000340: ed8e 953c 5a07 8dbc 97ca 8f3c 38f4 7abc
00000350: c5aa 8a3c 500b 86bc 0356 88bc dc61 8f3c
00000360: 62ec 823c a5c9 913c ed21 893c 4595 7fbc
00000370: 7e14 923c 89fd 90bc 9092 9fbc e299 933c
00000380: 0988 843c 0e07 7abc ce4c 873c 2fe8 8abc
00000390: f100 8a3c a67d 86bc c15a 7cbc ce2e 803c
000003a0: b191 913c 4759 913c ca38 7f3c 657c 74bc
000003b0: 2bfc 863c cf48 82bc a82f 92bc 8490 793c
000003c0: 3949 6d3c e7c6 6fbc aac4 7e3c b421 6bbc
000003d0: 8108 7b3c 2aaa 7ebc b6a7 69bc 5878 6f3c
000003e0: 84bc 643c 4049 673c f44e 8a3c ea12 77bc
000003f0: 5d7e 893c 3917 90bc d087 73bc 628c 843c

layers.0.egnn.coors_mlp.0.bias f4 [64]
-0.08707576 -0.087966144 -0.17902628 0.057934217 -0.10487575 -0.21120909 -0.10857433 -0.17519319
0.052782062 0.113367654 0.17600986 0.08157989 -0.08438167 0.026614964 0.14318202 0.052577447
0.24915388 0.10335508 -0.26744622 0.15120998 -0.059988443 -0.11709354 0.2560619 0.056004856
-0.13719155 0.05910364 -0.09632558 -0.23319168 -0.20693155 0.21509096 -0.025618952 0.1864337
0.11262665 -0.21551447 -0.047446255 0.18595861 0.1498155 -0.019588934 -0.16497801 -0.1652557
-0.07515417 0.25458384 -0.20291346 0.17415161 -0.15832321 0.21968076 0.091829 0.24680728
0.07786302 -0.086757064 0.20906612 0.1090803 -0.06559695 -0.033495262 -0.018971624 -0.1759607
-0.032535158 -0.09757496 0.1487308 0.24872304 -0.14699171 0.1567012 0.19394337 0.06436548
00000000: c754 b2bd 9827 b4bd aa52 37be 6e4c 6d3d
00000010: 19c9 d6bd 3247 58be 385c debd d865 33be
00000020: 0132 583d 4d2d e83d ee3b 343e 5b13 a73d
00000030: 4cd0 acbd a007 da3c 4f9e 123e 735b 573d
00000040: 3222 7f3e d4ab d33d b6ee 88be cad6 1a3e
00000050: 71b6 75bd bdce efbd 8c1a 833e 5965 653d
00000060: f17b 0cbe a916 723d 5846 c5bd cdc9 6ebe
00000070: dde5 53be ce40 5c3e d6de d1bc 7ae8 3e3e
00000080: cda8 e63d d3af 5cbe 0157 42bd ef6b 3e3e
00000090: 3c69 193e f978 a0bc ffef 28be ca38 29be
000000a0: 6eea 99bd d058 823e 8cc8 4fbe cd54 323e
000000b0: 7b1f 22be fef3 603e d810 bc3d 0cbb 7c3e
000000c0: a676 9f3d b0ad b1bd 6e15 563e 7e65 df3d
000000d0: b257 86bd 5432 09bd 616a 9bbc 0b2f 34be
000000e0: 9643 05bd 61d5 c7bd e34c 183e 41b1 7e3e
000000f0: ff84 16be 4876 203e 1799 463e 0cd2 833d

layers.0.egnn.coors_mlp.3.weight f4 [1, 64]
0.018706145 0.016848357 0.017675117 -0.017185833 0.02035906 0.01895802 0.019227335 0.01757681
-0.017086066 -0.018844625 -0.01741423 -0.01958363 0.016779296 -0.01926923 -0.018368857 -0.017587297
-0.018263277 -0.019666895 0.019330394 -0.019994197 0.018311035 0.018271554 -0.015968652 -0.01887435
0.018694209 -0.018333416 0.016887562 0.019477833 0.0172495 -0.018176995 0.016474517 -0.020738086
-0.019091086 0.01847192 0.019917225 -0.020560194 -0.020255338 0.02106349 0.01880754 0.018524362
0.018198876 -0.018324109 0.016893633 -0.018158883 0.016788332 -0.018462911 -0.018235262 -0.01755312
-0.018423105 0.018953407 -0.018908275 -0.018499745 0.01955187 0.016731547 0.019006312 0.019575918
0.017896624 0.018701544 -0.02004034 -0.019631227 0.018654034 -0.016669836 -0.017137082 -0.019177964
00000000: a13d 993c 9105 8a3c 68cb 903c 4ec9 8cbc
00000010: 0bc8 a63c d94d 9b3c a582 9d3c 3efd 8f3c
00000020: 14f8 8bbc 0b60 9abc 4aa8 8ebc d96d a0bc
00000030: bc74 893c 81da 9dbc 497a 96bc 3c13 90bc
00000040: de9c 95bc 781c a1bc c65a 9e3c dfca a3bc
00000050: 0601 963c 3aae 953c b1d0 82bc 619e 9abc
00000060: 9924 993c f62f 96bc c957 8a3c fa8f 9f3c
00000070: d34e 8d3c ece7 94bc 91f5 863c ebe2 a9bc
00000080: e964 9cbc 6d52 973c 7329 a33c da6d a8bc
00000090: 86ee a5bc 578d ac3c 4512 9a3c 67c0 973c
000000a0: cf15 953c 711c 96bc 8464 8a3c f0c1 94bc
000000b0: af87 893c 883f 97bc 1e62 95bc 90cb 8fbc
000000c0: 0dec 96bc 2d44 9b3c 87e5 9abc c78c 97bc
000000d0: 3e2b a03c 9910 893c 20b3 9b3c ad5d a03c
000000e0: f19b 923c fb33 993c a42b a4bc abd1 a0bc
000000f0: 58d0 983c 2e8f 88bc 1163 8cbc 1b1b 9dbc

layers.0.egnn.vel_mlp.0.weight f4 [16, 4]
0.0010346707 0.0010322119 0.0015009111 0.00031260544 -0.001143239 -0.0016973967 -0.00066322583 -0.0011739336
-0.0012940074 -0.0010970625 -0.0010025772 -2.3774737e-05 -0.0008881685 -0.0011215708 -0.0013937241 -0.0005765487
-0.0008102052 0.0019563322 0.0011423491 0.002660625 0.0004373404 0.0013888689 0.0004311968 0.0022147077
0.00055056193 0.0013266293 0.0005420839 0.0019264118 -0.001037582 -0.0014335016 -0.0013185387 -0.0010514024
0.00070779695 9.042503e-05 0.0007039338 -0.0007317858 -0.00029043888 -0.0025003857 -0.00022023401 -0.0049590347
-0.0015795894 -0.001675181 -0.0010840282 -0.0012379374 -0.0009468355 -0.00233274 -0.0014230532 -0.0026128935
0.00048475945 0.00021878949 0.00078313437 -0.00076797436 -0.0015572947 -0.0031269763 -0.0011294874 -0.0037129852
0.0002650063 0.0018211105 0.00085135165 0.0026606407 -0.00033727495 -0.0010781946 -0.00019986506 -0.0019026129
00000000: ca9d 873a 494b 873a 38ba c43a 31e5 a339
00000010: bcd8 95ba 2f7b deba 55dc 2dba adde 99ba
00000020: af9b a9ba 4fcb 8fba e968 83ba dc6f c7b7
00000030: fbd3 68ba ac01 93ba 9fad b6ba 8723 17ba
00000040: f363 54ba cf35 003b e0ba 953a e15d 2e3b
00000050: d64a e539 b50a b63a 4112 e239 a124 113b
00000060: 9653 103a 4be2 ad3a a21a 0e3a a77f fc3a
00000070: 7aff 87ba 55e4 bbba d1d2 acba 36cf 89ba
00000080: 738b 393a 91a2 bd38 3388 383a 50d5 3fba
00000090: 0c46 98b9 83dd 23bb 9eee 66b9 667f a2bb
000000a0: 3a0a cfba bf91 dbba f315 8eba 4942 a2ba
000000b0: 0e35 78ba e2e0 18bb be85 baba 143d 2bbb
000000c0: 5027 fe39 db6a 6539 424b 4d3a e351 49ba
000000d0: 241e ccba f5ed 4cbb 4f0b 94ba 8e55 73bb
000000e0: 8bf0 8a39 54b2 ee3a 3e2d 5f3a 255e 2e3b
000000f0: 47d4 b0b9 3552 8dba de92 51b9 1861 f9ba

layers.0.egnn.vel_mlp.0.bias f4 [16]
0.34242702 0.34617788 0.40541357 -0.38663074 -0.27966484 -0.51068455 0.39876646 0.23314053
-0.40500548 0.016888775 0.05718264 -0.4407481 0.023119876 -0.3320621 -0.16633163 -0.0703918
00000000: 9852 af3e 3a3e b13e 5e92 cf3e 77f4 c5be
00000010: 3b30 8fbe 39bc 02bf 1e2b cc3e 64bc 6e3e
00000020: e15c cfbe 545a 8a3c 5838 6a3d bca9 e1be
00000030: e565 bd3c 0b04 aabe d752 2abe 9329 90bd

layers.0.egnn.vel_mlp.3.weight f4 [1, 16]
-0.00020184439 0.000422288 0.00030675504 0.00016158144 -7.543248e-05 -0.00019670997 -0.00018691453 0.00022842328
-0.00010214125 -7.181183e-05 0.00046929365 0.0004900062 -4.2708605e-05 0.00050345674 -0.00022308774 0.00016246093
00000000: 31a6 53b9 8966 dd39 f7d3 a039 306e 2939
00000010: 8131 9eb8 ee43 4eb9 7dfe 43b9 e884 6f39
00000020: ab34 d6b8 af99 96b8 870b f639 c273 003a
00000030: 0422 33b8 69fa 033a a9ec 69b9 465a 2a39

layers.1.egnn.edge_mlp.0.weight f4 [20, 10]
-0.011351775 -0.012802528 0.006060154 0.015784372 -0.011004158 -0.013878962 0.009788598 0.0130902305
-0.04036548 -0.01368264 0.02066201 0.023095245 -0.014456889 -0.029505363 0.019091357 0.024168845
-0.01633497 -0.02799436 0.06730616 0.023671499 -0.013086362 -0.012118664 0.0060214633 0.016476031
-0.011360401 -0.011150708 0.007207271 0.015647838 -0.039475385 -0.013322621 -0.011027504 -0.012556106
0.006832368 0.0148663875 -0.012841108 -0.011397709 0.00810597 0.014398181 -0.039853316 -0.0142836785
-0.010798 -0.011794576 0.00584489 0.016749611 -0.009419814 -0.01290543 0.008651476 0.015185197
-0.03986891 -0.014065253 0.020765368 0.022282483 -0.015813962 -0.025115158 0.02007657 0.024336182
-0.016935723 -0.027570218 0.05478393 0.02347532 0.022549959 0.023579312 -0.014686999 -0.028902588
0.022587346 0.024654012 -0.016792772 -0.028610256 0.06626994 0.025329018 0.019938355 0.02330255
-0.017402705 -0.025144834 0.019779388 0.023955429 -0.019876469 -0.025414743 0.054618444 0.023822045
0.021338213 0.022721509 -0.014746027 -0.026614964 0.021415772 0.022210564 -0.020860372 -0.026775964
0.05770635 0.02226143 0.02062606 0.020743333 -0.015191582 -0.026343638 0.020218141 0.022508718
-0.017681468 -0.026301082 0.052551955 0.023522282 -0.010526766 -0.012390139 0.007151271 0.0155576
-0.009920581 -0.013560482 0.00833476 0.014422714 -0.0375257 -0.014496937 0.0049205148 0.004458237
-0.012282436 0.0007731859 0.005246988 0.004938467 -0.008742916 0.0011995855 -0.04192934 0.0051698233
-0.010148836 -0.011033545 0.005045981 0.014943851 -0.01111292 -0.011686435 0.007800379 0.015028656
-0.042213146 -0.012559295 -0.010052143 -0.011211659 0.008464143 0.015366985 -0.011269089 -0.014033986
0.010305508 0.012794761 -0.039501507 -0.013093608 0.021639114 0.02373139 -0.015844593 -0.024529997
0.020703645 0.02423342 -0.020085 -0.026595866 0.055156633 0.022289729 0.020869674 0.021661233
-0.016856879 -0.026079275 0.020115485 0.021644356 -0.018082822 -0.027074277 0.053541005 0.023591649
0.022013722 0.022509243 -0.015314877 -0.027175443 0.020636827 0.024897514 -0.02138686 -0.028941045
0.066045076 0.024222668 -0.010981307 -0.0111042345 0.007295539 0.01705394 -0.011293816 -0.0144093335
0.008955578 0.014918797 -0.039842874 -0.013211989 -0.009613155 -0.011263779 0.0036689653 0.0154164275
-0.011230986 -0.01317367 0.008378706 0.013904184 -0.04461479 -0.009277867 0.012892883 0.013712737
-0.004109114 -0.021008546 0.010161459 0.013889868 -0.008952447 -0.019320378 0.065769576 0.013203268
00000000: ccfc 39bc b2c1 51bc 4294 c63b 3a4e 813c
00000010: c94a 34bc 9664 63bc 5b60 203c 6878 563c
00000020: 4656 25bd 272d 60bc 6043 a93c 3d32 bd3c
00000030: 96dc 6cbc 3bb5 f1bc 7a65 9c3c befd c53c
00000040: ead0 85bc 6e54 e5bc d0d7 893d bbea c13c
00000050: 2e68 56bc 5c8d 46bc b24f c53b bef8 863c
00000060: fa20 3abc 76b1 36bc f92a ec3b e52f 803c
00000070: f1b0 21bd 1f47 5abc b4ac 34bc 20b8 4dbc
00000080: 0fe2 df3b 2692 733c 8363 52bc 75bd 3abc
00000090: e7ce 043c 59e6 6b3c 3b3d 23bd 1706 6abc
000000a0: 18ea 30bc 0a3e 41bc 7e86 bf3b 7b36 893c
000000b0: 9055 1abc 4c71 53bc ecbe 0d3c 55cb 783c
000000c0: 954d 23bd f271 66bc 221c aa3c c189 b63c
000000d0: 488c 81bc 4ebe cdbc 9e77 a43c ac5c c73c
000000e0: c9bc 8abc f0da e1bc 1d65 603d 504f c03c
000000f0: b1ba b83c 6729 c13c bda1 70bc 1fc5 ecbc
00000100: 1909 b93c 36f7 c93c ff90 89bc 0e60 eabc
00000110: 89b8 873d cd7e cf3c c355 a33c fde4 be3c
00000120: 1e90 8ebc 8afc cdbc 6208 a23c 2d3e c43c
00000130: fad3 a2bc 9432 d0bc 97b7 5f3d 7326 c33c
00000140: 7acd ae3c 7522 ba3c 5299 71bc a007 dabc
00000150: 2170 af3c eef2 b53c 5fe3 aabc 4459 dbbc
00000160: 7e5d 6c3d 9a5d b63c fcf7 a83c eced a93c
00000170: 1de6 78bc 9dce d7bc 84a0 a53c 3464 b83c
00000180: bad8 90bc 5e75 d7bc b840 573d cdb1 c03c
00000190: 7578 2cbc 0200 4bbc 3655 ea3b 4ee5 7e3c
000001a0: ef89 22bc c92c 5ebc 848e 083c 3f4d 6c3c
000001b0: 8cb4 19bd 9084 6dbc 453c a13b 6716 923b
000001c0: 453c 49bc a1af 4a3a edee ab3b ddd2 a13b
000001d0: 733e 0fbc 693b 9d3a 1abe 2bbd 9f67 a93b
000001e0: 4e47 26bc 0bc6 34bc c258 a53b 0ed7 743c
000001f0: f712 36bc 7678 3fbc 529a ff3b c13a 763c
00000200: b1e7 2cbd 80c5 4dbc beb1 24bc 1bb1 37bc
00000210: 30ad 0a3c cfc5 7b3c fca1 38bc ceee 65bc
00000220: 6fd8 283c 1ea1 513c 55cc 21bd 9386 56bc
00000230: 8344 b13c 5568 c23c 85cc 81bc 22f3 c8bc
00000240: b19a a93c 2a85 c63c 4c89 a4bc 93df d9bc
00000250: eceb 613d f398 b63c e1f6 aa3c e672 b13c
00000260: 7017 8abc 34a4 d5bc 3bc9 a43c 814f b13c
00000270: 6d22 94bc e0ca ddbc d04d 5b3d 4643 c13c
00000280: 1f56 b43c 4e65 b83c 40eb 7abc 099f debc
00000290: 900e a93c dff5 cb3c 7f33 afbc c515 edbc
000002a0: a442 873d 9e6e c63c f1ea 33bc 89ee 35bc
000002b0: 6b0f ef3b b4b4 8b3c b309 39bc 2015 6cbc
000002c0: 6bba 123c f86d 743c 4832 23bd 1977 58bc
000002d0: 7f80 1dbc b78b 38bc 0673 703b 2f95 7c3c
000002e0: 2b02 38bc 60d6 57bc d746 093c 60ce 633c
000002f0: ffbd 36bd 3202 18bc ac3c 533c 63ab 603c
00000300: bfa5 86bb 1d1a acbc 407c 263c 5492 633c
00000310: 49ad 12bc c545 9ebc 33b2 863d 8552 583c

layers.1.egnn.edge_mlp.0.bias f4 [20]
-0.18468033 0.061783887 -0.20446128 -0.2395759 -0.20780572 0.26691702 0.05404228 0.29260206
0.16017972 0.33179936 -0.30063865 0.0025688498 -0.09728625 -0.3034258 0.30920663 0.26154876
0.06609218 -0.18500185 -0.102764055 0.01196093
00000000: d71c 3dbe 1a11 7d3d 4c5e 51be 6253 75be
00000010: 06cb 54be 59a9 883e 705b 5d3d f0cf 953e
00000020: 2706 243e 9be1 a93e 4fed 99be 265a 283b
00000030: 033e c7bd a05a 9bbe 5550 9e3e b8e9 853e
00000040: 565b 873d 2071 3dbe f675 d2bd c7f7 433c

layers.1.egnn.edge_mlp.3.weight f4 [16, 20]
0.0230199 -0.03984614 0.021635631 0.020374987 0.02255961 -0.023494136 -0.038225524 -0.022440858
-0.027482057 -0.02225422 0.019550508 0.028899774 0.025075948 0.018486578 -0.023789419 -0.025304295
-0.037587427 0.021229014 0.02486561 -0.041230578 0.023107518 -0.036908757 0.0223426 0.019622635
0.01932484 -0.02411775 -0.03987956 -0.021635013 -0.028643629 -0.02355311 0.01864465 0.02774078
0.024607958 0.022532187 -0.022948565 -0.022982102 -0.03899603 0.022779178 0.02501714 -0.041162338
-0.025006542 0.043323543 -0.023176959 -0.024248483 -0.023972642 0.02718905 0.046386737 0.027955756
0.031129211 0.02730297 -0.022382932 -0.033213846 -0.028256703 -0.021434689 0.024276594 0.025593983
0.043839186 -0.023935987 -0.028593121 0.048299216 -0.023236075 0.04401397 -0.024413291 -0.02123828
-0.022832906 0.027460586 0.047469936 0.028482452 0.03413398 0.026994424 -0.021464953 -0.03339237
-0.029184705 -0.022857154 0.026334798 0.027277185 0.04191541 -0.023736915 -0.029352238 0.04778868
0.022906117 -0.03751869 0.022656415 0.020256741 0.022640523 -0.02460932 -0.03898008 -0.025494695
-0.029381512 -0.023936842 0.02250141 0.0296119 0.024611719 0.019911649 -0.022750953 -0.026437026
-0.03468755 0.021514075 0.024078807 -0.039704237 0.02391446 -0.043045886 0.023009911 0.021724539
0.022672227 -0.026437717 -0.045527574 -0.025103778 -0.03053459 -0.02471518 0.01958685 0.034400128
0.027288804 0.021085782 -0.024620319 -0.02707903 -0.04063838 0.022619704 0.027474431 -0.045713592
0.022608284 -0.039731476 0.0221273 0.020208761 0.021675542 -0.02622557 -0.040088195 -0.02532985
-0.027004564 -0.023312606 0.019240018 0.027600175 0.025626142 0.019303964 -0.023123551 -0.023458714
-0.03752118 0.022505796 0.023066718 -0.04172586 -0.025402252 0.04943445 -0.025352389 -0.021622168
-0.025335887 0.02842972 0.04954521 0.02855548 0.03544294 0.025519123 -0.02244061 -0.038799264
-0.029533813 -0.02338282 0.029479537 0.030690324 0.047361888 -0.024922205 -0.028846456 0.05302931
-0.024261927 0.049900357 -0.025161738 -0.02413908 -0.024990592 0.02989037 0.05121809 0.029183421
0.03382694 0.02786768 -0.024367332 -0.04046324 -0.03195473 -0.023464786 0.028765192 0.032166533
0.048835773 -0.026120214 -0.029511 0.05456872 0.02472886 -0.040553853 0.02106416 0.022859821
0.022165302 -0.025282938 -0.043842167 -0.025336633 -0.029373908 -0.02429875 0.019874312 0.03179965
0.025828043 0.019357672 -0.025648538 -0.027234975 -0.041716337 0.022979995 0.025389912 -0.045747664
-0.02510999 0.05349434 -0.024120936 -0.024141384 -0.024494484 0.03290443 0.054952625 0.030117715
0.037081722 0.028868554 -0.021730002 -0.045301132 -0.032304913 -0.021479638 0.030522488 0.031621497
0.05195649 -0.023922944 -0.03401633 0.062349204 -0.023968749 0.044396468 -0.024268802 -0.023216298
-0.02271486 0.028223699 0.0458632 0.02835577 0.033340793 0.025959924 -0.022145238 -0.03417968
-0.028723927 -0.021647045 0.028135777 0.029042916 0.043850284 -0.024419751 -0.027824692 0.048910707
-0.024292428 0.04541405 -0.025657637 -0.023811258 -0.023057267 0.02560489 0.047279492 0.026285812
0.035606157 0.026729422 -0.02163427 -0.035333935 -0.031045422 -0.022761503 0.028712451 0.026787596
00000000: 3b94 bc3c b535 23bd 353d b13c 72e9 a63c
00000010: eece b83c c676 c0bc 5e92 1cbd e4d5 b7bc
00000020: 0d22 e1bc 7b4e b6bc 6328 a03c 38bf ec3c
00000030: 136c cd3c 2a71 973c 07e2 c2bc f44a cfbc
00000040: 46f5 19bd 78e8 ad3c f7b2 cb3c 65e1 28bd
00000050: fa4b bd3c a32d 17bd d407 b73c a6bf a03c
00000060: 204f 9e3c 9692 c5bc c058 23bd e93b b1bc
00000070: 0ba6 eabc 74f2 c0bc aabc 983c a240 e33c
00000080: a196 c93c 6c95 b83c a1fe bbbc f644 bcbc
00000090: 4dba 1fbd 669b ba3c bff0 cc3c d799 28bd
000000a0: 85da ccbc 0774 313d 9bdd bdbc c1a4 c6bc
000000b0: 4662 c4bc 92bb de3c 0500 3e3d 7803 e53c
000000c0: b002 ff3c 7aaa df3c 695c b7bc 3e0b 08bd
000000d0: 9a7a e7bc cd97 afbc b5df c63c 79aa d13c
000000e0: b890 333d 6715 c4bc 1f3c eabc 66d5 453d
000000f0: 9559 bebc fe47 343d 62fe c7bc e7fb adbc
00000100: 130c bbbc 06f5 e03c d66f 423d 0854 e93c
00000110: 12d0 0b3d 6923 dd3c 45d7 afbc 70c6 08bd
00000120: c314 efbc ed3e bbbc 13bc d73c 6774 df3c
00000130: 7eaf 2b3d eb73 c2bc 1b74 f0bc 10be 433d
00000140: 9ca5 bb3c 33ad 19bd f299 b93c 77f1 a53c
00000150: 9e78 b93c 7c99 c9bc 94a9 1fbd 40da d0bc
00000160: 7fb1 f0bc 3217 c4bc e154 b83c a894 f23c
00000170: 849e c93c c11d a33c 3560 babc 7692 d8bc
00000180: 8814 0ebd 493e b03c eb40 c53c e9a0 22bd
00000190: 42e8 c33c e250 30bd 487f bc3c a9f7 b13c
000001a0: 1bbb b93c e993 d8bc 1f7b 3abd 70a6 cdbc
000001b0: ad23 fabc 7d77 cabc 9a74 a03c 26e7 0c3d
000001c0: c58c df3c 17bc ac3c 8db0 c9bc d8d4 ddbc
000001d0: 6e74 26bd f54c b93c 0f12 e13c 2d3e 3bbd
000001e0: 0235 b93c 79bd 22bd 5044 b53c d88c a53c
000001f0: e890 b13c 02d7 d6bc 8533 24bd 8c80 cfbc
00000200: ad38 ddbc 14fa bebc 3e9d 9d3c c319 e23c
00000210: eaed d13c 5923 9e3c 9a6d bdbc 7d2c c0bc
00000220: cfaf 19bd 135e b83c 6af6 bc3c bce8 2abd
00000230: 6218 d0bc c77b 4a3d d0af cfbc f920 b1bc
00000240: 358d cfbc 72e5 e83c ebef 4a3d 2fed e93c
00000250: 9e2c 113d 7b0d d13c 5fd5 b7bc faeb 1ebd
00000260: e5f0 f1bc 548d bfbc 127f f13c 466a fb3c
00000270: 8afe 413d a729 ccbc 674f ecbc 4335 593d
00000280: f3c0 c6bc 5164 4c3d fd1f cebc 52bf c5bc
00000290: 12b9 ccbc a6dc f43c 0fca 513d 1212 ef3c
000002a0: 1e8e 0a3d c34a e43c 009e c7bc c8bc 25bd
000002b0: f7e2 02bd 3939 c0bc fba4 eb3c 0ec1 033d
000002c0: 0508 483d 0ffa d5bc 0dc1 f1bc 7383 5f3d
000002d0: 2e94 ca3c cc1b 26bd bf8e ac3c 8544 bb3c
000002e0: 0294 b53c 2a1e cfbc d893 33bd c58e cfbc
000002f0: 8da1 f0bc 2c0e c7bc 74cf a23c 5a40 023d
00000300: 5595 d33c fb93 9e3c e21c d2bc e21b dfbc
00000310: c0de 2abd 8b40 bc3c 81fe cf3c e761 3bbd
00000320: 77b3 cdbc e21c 5b3d 4599 c5bc 27c4 c5bc
00000330: a8a8 c8bc ccc6 063d 0116 613d 6db9 f63c
00000340: 01e3 173d bf7d ec3c 1e03 b2bc ae8d 39bd
00000350: 2852 04bd 11f6 afbc 4c0a fa3c 8b85 013d
00000360: 54d0 543d 0dfa c3bc b554 0bbd e161 7f3d
00000370: 1c5a c4bc 12d9 353d 5ecf c6bc 1b30 bebc
00000380: 8414 babc 6335 e73c 0ddb 3b3d 5c4a e83c
00000390: 5b90 083d e8a9 d43c ee69 b5bc feff 0bbd
000003a0: 714e ebbc 2555 b1bc 007d e63c 69eb ed3c
000003b0: 5b9c 333d ee0b c8bc 9cf0 e3bc 9856 483d
000003c0: ea00 c7bc 1504 3a3d f72f d2bc d40f c3bc
000003d0: 98e2 bcbc 59c1 d13c 24a8 413d 5855 d73c
000003e0: c3d7 113d a9f7 da3c 5a3a b1bc 51ba 10bd
000003f0: f852 febc 5576 babc 6036 eb3c a971 db3c

layers.1.egnn.edge_mlp.3.bias f4 [16]
-0.2007736 -0.19113852 0.18822652 0.1887163 -0.17336258 -0.042623937 -0.14268203 0.059678834
0.04381587 -0.06588558 0.02278795 0.18396282 0.12647863 -0.2085017 0.09389131 -0.20076282
00000000: 9897 4dbe d1b9 43be 74be 403e d93e 413e
00000010: f685 31be 7096 2ebd 3d1b 12be cb71 743d
00000020: 4578 333d 05ef 86bd cbad ba3c c060 3c3e
00000030: 9d83 013e 7881 55be 164a c03d c594 4dbe

layers.1.egnn.node_mlp.0.weight f4 [8, 20]
-0.00033236013 -0.00021695817 0.00047785242 0.00026215977 3.244397e-05 0.0010735417 -0.0001177764 -0.00021667323
0.00044543488 -0.0020356635 0.0007087338 0.000425744 0.0006864063 0.0028402153 0.0014675943 6.29992e-05
0.000936932 0.00015192333 -0.0015483603 -0.00024774566 -0.0020126929 -0.0012561361 0.0009029814 0.00072467525
0.0009862627 2.4857462e-05 4.1083113e-05 0.0011531995 -0.00020952537 0.0021076018 -0.00031515653 2.2833312e-05
0.00077643775 0.0021835493 -0.0007060807 0.0013727996 -0.00038230323 3.700007e-05 0.00046481512 -0.001529865
0.0011079857 -0.0012718263 -0.00059346465 0.0008368085 -0.002169408 -0.00015878424 0.0010031364 -0.0010758456
-0.0001171099 0.0006704819 0.00032798023 -0.00026039043 0.0003825019 -0.00067169254 -0.0003146401 -0.0023326264
-0.0018942103 0.00036211073 0.00011556227 3.3500124e-05 0.0013683687 0.0003879826 0.0014893122 0.0011193117
-0.00092494866 -0.00013326731 0.0012938359 -0.0005323601 -0.0008282196 0.0015397829 7.423053e-05 0.0011442675
-0.00040985126 -0.001692723 -0.0014634187 0.00042097343 0.00042200377 -0.000889153 -0.001729885 -0.0024475798
0.0010965258 -5.3528256e-05 0.0010277951 -0.00020081441 0.0005496831 0.0010076335 0.0012765084 0.00017836629
0.0004521439 0.00027596447 -0.0011302296 -0.0008044582 0.0001900234 -0.0007066539 0.0015824945 -0.0030092867
-0.0003706241 -0.0010685027 0.0007445055 -0.00027819636 -0.0012779831 -3.9416e-06 -0.0013519092 0.0007251964
-0.0013533427 0.00018385271 -0.0010021668 -0.00070420484 0.00074893306 -0.0005635022 0.0002867726 0.0016923259
-0.00039746106 -0.00011764009 0.00076081767 -0.0012187265 0.0006471464 -0.0012442224 -0.0004617008 -0.0002993709
-0.001103018 0.0005121868 -0.0003633143 -0.00017483471 0.0017743731 0.00062878575 0.0018162264 -8.65263e-05
-0.00014110976 0.0007529436 -0.00087566365 -0.002104513 -0.0006791737 -0.00050392345 0.0005031219 0.001528487
5.682563e-05 0.00036313452 0.0013268864 0.000390047 0.000553074 0.0005594664 -0.0012063469 0.00017045815
0.00042596922 -0.0017044945 6.487035e-06 0.001490988 -0.0011201194 -0.0010178708 -0.00074144395 -0.00021777094
-0.00069008925 0.0007205352 -0.0007540571 -0.0010345961 0.0003958905 -0.001352753 -0.0010308974 0.00012026766
00000000: 9f40 aeb9 447f 63b9 4488 fa39 7d72 8939
00000010: 7314 0838 15b6 8c3a b9fe f6b8 c732 63b9
00000020: 4289 e939 c468 05bb 52ca 393a 6436 df39
00000030: f2ef 333a e822 3a3b 4b5c c03a 701e 8438
00000040: 719c 753a 9c4d 1f39 5af2 caba dce3 81b9
00000050: 62e7 03bb efa4 a4ba 0eb6 6c3a 22f8 3d3a
00000060: 7c45 813a fe84 d037 a850 2c38 f426 973a
00000070: 0ab4 5bb9 b11f 0a3b 983b a5b9 2a8a bf37
00000080: db89 4b3a e119 0f3b 4618 39ba 83ef b33a
00000090: df6f c8b9 8630 1b38 6eb2 f339 c085 c8ba
000000a0: d539 913a 69b3 a6ba bd92 1bba 455d 5b3a
000000b0: a02c 0ebb 527f 26b9 ac7b 833a 6303 8dba
000000c0: e698 f5b8 47c3 2f3a c3f4 ab39 0385 88b9
000000d0: 898a c839 8614 30ba 48f6 a4b9 fade 18bb
000000e0: 2747 f8ba aed9 bd39 055a f238 7c82 0c38
000000f0: d65a b33a 256a cb39 0635 c33a deb5 923a
00000100: 4178 72ba acbd 0bb9 ee95 a93a 158e 0bba
00000110: e01c 59ba 8ad2 c93a 36ac 9b38 3ffb 953a
00000120: 4ee1 d6b9 5cde ddba 2fd0 bfba 19b6 dc39
00000130: 6340 dd39 0c16 69ba 4fbd e2ba 9367 20bb
00000140: 4db9 8f3a 8783 60b8 15b7 863a b591 52b9
00000150: 9c18 103a 9212 843a 8450 a73a d607 3b39
00000160: ba0d ed39 53af 9039 3624 94ba 47e2 52ba
00000170: 0541 4739 be3e 39ba b46b cf3a 7437 45bb
00000180: 5350 c2b9 000d 8cba eb2a 433a e2da 91b9
00000190: ff81 a7ba 1642 84b6 8c32 b1ba 1b1b 3e3a
000001a0: a562 b1ba 96c8 4039 235b 83ba 639a 38ba
000001b0: 0c54 443a feb7 13ba f859 9639 09d1 dd3a
000001c0: 5262 d0b9 8bb5 f6b8 9c71 473a adbd 9fba
000001d0: 42a5 293a 2d15 a3ba 6f10 f2b9 e2f4 9cb9
000001e0: 2493 90ba 4644 063a 387b beb9 d653 37b9
000001f0: 1592 e83a 19d5 243a 720e ee3a 7475 b5b8
00000200: ddf6 13b9 3161 453a cb8c 65ba dfeb 09bb
00000210: 930a 32ba bb19 04ba f0e3 033a 8357 c83a
00000220: 0e58 6e38 1763 be39 ebea ad3a 397f cc39
00000230: 2bfc 103a 28a9 123a 491e 9eba 03bd 3239
00000240: 9f54 df39 5869 dfba 35ab d936 416d c33a
00000250: f8d0 92ba 146a 85ba 765d 42ba 7159 64b9
00000260: 1be7 34ba 4ce2 3c3a eaab 45ba 499b 87ba
00000270: 868f cf39 dc4e b1ba 2d1f 87ba 3538 fc38

layers.1.egnn.node_mlp.0.bias f4 [8]
0.20815302 -0.18147726 -0.18131219 0.2063965 -0.059887305 -0.21669327 0.093414724 -0.044039696
00000000: 1126 553e 2dd5 39be e7a9 39be 9b59 533e
00000010: 644c 75bd d7e4 5dbe 3850 bf3d f862 34bd

layers.1.egnn.node_mlp.3.weight f4 [4, 8]
-0.00212137 0.0013984476 -0.0008191808 -0.00095752766 0.00012587695 -0.001393226 -0.0005105838 0.00012921792
-0.0009916393 -0.0018584261 0.0005469159 -0.00018356135 0.0012129587 0.0003325376 0.000801887 -0.00024131697
-0.0007361034 -0.0008574518 -1.6271155e-05 0.00020944659 0.00091984804 -0.0004425539 -0.0015051193 -0.001877016
-0.00038708645 -4.5385095e-05 -0.0011132723 -0.00029970382 -0.002113237 -0.00017720861 -0.0010803841 -0.00023024439
00000000: af06 0bbb 1d4c b73a 4bbe 56ba 9802 7bba
00000010: d6fd 0339 e89c b6ba b3d8 05ba ac7e 0739
00000020: e5f9 81ba 6f96 f3ba e85e 0f3a 607a 40b9
00000030: 24fc 9e3a 7158 ae39 ba35 523a 080a 7db9
00000040: 10f7 40ba 9ec6 60ba 0a7e 88b7 e49e 5b39
00000050: f521 713a 9406 e8b9 6c47 c5ba 3506 f6ba
00000060: ddf1 cab9 e05b 3eb8 38eb 91ba 9121 9db9
00000070: 3c7e 0abb 13d1 39b9 ad9b 8dba c26d 71b9

layers.1.egnn.node_mlp.3.bias f4 [4]
0.15613304 -0.34126008 -0.1863275 0.10096653
00000000: 57e1 1f3e a4b9 aebe a3cc 3ebe 8ac7 ce3d
