experiments/models/model_N20_batch32_lr0.001_fd4_b0.7.pth (torch, 30882 bytes, 32 tensors)

time_embedding.0.weight f4 [8, 1]
0	0x3e81a328	0.2531979
1	0x3f5cdfdd	0.8627909
2	0x3eee6f17	0.4656913
3	0x3e244598	0.16042173
4	0x3ecaf33c	0.39638698
5	0xbcedd002	-0.02902985
6	0x3eb6b387	0.35683843
7	0x3edea96a	0.43488628

time_embedding.0.bias f4 [8]
0	0x3e4bd26a	0.19904485
1	0x3f16ea36	0.5895113
2	0x3efc88b4	0.49323046
3	0xbf576dd0	-0.84151936
4	0xbe105896	-0.14096293
5	0x3d7c9a6a	0.0616707
6	0x3e661e5d	0.2247252
7	0xbe04c029	-0.12963928

time_embedding.3.weight f4 [4, 8]
0	0xbe122179	-0.14270581
1	0xbe6a5923	-0.22885565
2	0x3e105340	0.14094257
3	0xbd05195b	-0.032494884
4	0x3e15036c	0.14552087
5	0xbe2ae155	-0.1668752
6	0x3db10b72	0.08644761
7	0x3eaa2541	0.33231547
8	0x3da04aa0	0.078267336
9	0x3dd62e76	0.104580805
10	0xbe3ac069	-0.18237461
11	0x3e6826ab	0.22671
12	0xbac8ebcb	-0.0015329061
13	0xbe361914	-0.17783004
14	0xbc66c8ab	-0.014085929
15	0xbe1d3fab	-0.15356319
16	0x3d5bd509	0.053669963
17	0xbe4da260	-0.20081472
18	0x3e86a730	0.2629943
19	0x3e577503	0.2104073
20	0x3d080c79	0.03321502
21	0x3ea4a653	0.32158145
22	0xbd26a612	-0.04068572
23	0x3eaabfa0	0.33349323
24	0xbe5f4054	-0.21801883
25	0x3d645fe0	0.055755496
26	0x3e83e386	0.25759524
27	0x3ea913d1	0.3302293
28	0xbe5d742e	-0.2162635
29	0x3e969a21	0.29414466
30	0xbd124c63	-0.03571738
31	0xbe238310	-0.15967965

time_embedding.3.bias f4 [4]
0	0x3eb21512	0.347817
1	0x3eafa5f3	0.34306297
2	0xbd197b39	-0.03747103
3	0xbd9ce8b1	-0.0766157

layers.0.egnn.edge_mlp.0.weight f4 [20, 10]
0	0x3dad818f	0.08471977
1	0x3e5655ab	0.20931117
2	0x3da9958f	0.08280479
3	0x3da796d0	0.08183062
4	0x3db2aad0	0.08723986
5	0x3e550c1c	0.208054
6	0x3d9d0562	0.07667042
7	0x3dae1a3b	0.08501097
8	0x3d0df80f	0.034660395
9	0x3de0cf69	0.1097706
10	0xbd10ac32	-0.03532047
11	0xbe098d5f	-0.13432835
12	0xbd1f3a53	-0.03887398
13	0xbcf68ab5	-0.030095438
14	0xbcfbcbc8	-0.030736819
15	0xbe191797	-0.14950405
16	0xbc2f3274	-0.010693181
17	0xbcf5d36f	-0.030008046
18	0xbbb5d883	-0.005549492
19	0xbd08e4a5	-0.033421177
20	0x3d2c044e	0.041996293
21	0x3e167e5c	0.1469664
22	0x3d6554a1	0.05598891
23	0x3d33920c	0.043840453
24	0x3d32c5fc	0.043645844
25	0x3e18c1f5	0.14917739
26	0x3d4f59bc	0.050622687
27	0x3d2d57b0	0.042319953
28	0xbc284a04	-0.010271553
29	0x3d2becc1	0.041973833
30	0x3d3e91b7	0.046525683
31	0x3e0133c8	0.12617409
32	0x3d9551c2	0.07290985
33	0x3d52fea2	0.051512368
34	0x3d2f1e12	0.042753287
35	0x3e0cdb1d	0.1375546
36	0x3d66a664	0.056311026
37	0x3d48ac2e	0.04899233
38	0x3c5945af	0.013261243
39	0x3d006e39	0.031355117
40	0xbe2a0e99	-0.16607131
41	0xbebd8356	-0.37014264
42	0xbccb90ad	-0.02484926
43	0xbe092ecd	-0.1339676
44	0xbe223624	-0.15840966
45	0xbec8b4e7	-0.39200518
46	0xbb5e362e	-0.0033906805
47	0xbdfde7ec	-0.12397751
48	0xbdb254cf	-0.08707582
49	0xbe5248c2	-0.20535567
50	0x3d4d4105	0.050110836
51	0x3e2ac914	0.16678268
52	0x3d6fbbc9	0.058528695
53	0x3d5591bd	0.05214094
54	0x3d4d8464	0.050175086
55	0x3e2b6fe1	0.16741897
56	0x3d5d0719	0.053961847
57	0x3d51d506	0.051228546
58	0xbaf11c11	-0.0018395205
59	0x3d7f2ee3	0.062300574
60	0x3db5c84a	0.08876093
61	0x3e59146c	0.21199197
62	0x3da59ec0	0.0808692
63	0x3dabb593	0.08384242
64	0x3db68bca	0.089133814
65	0x3e591f77	0.21203409
66	0x3da389df	0.07985281
67	0x3daff27b	0.08591171
68	0x3d16b6fa	0.036795594
69	0x3de9c221	0.1141398
70	0x3cc19163	0.023628896
71	0x3d884df7	0.066554956
72	0x3cda206d	0.02662679
73	0x3d3093a6	0.04310956
74	0x3cc4c171	0.024018021
75	0x3da2b692	0.07944979
76	0x3ce1c576	0.027559977
77	0x3d586414	0.052829817
78	0x3d3b2624	0.04569067
79	0xbb8ea554	-0.0043532047
80	0x3d75d65c	0.060018882
81	0xbd9cfa21	-0.07664896
82	0x3e5b6a76	0.2142733
83	0x3e4c7209	0.19965376
84	0x3d864115	0.06555382
85	0xbda035f1	-0.078227885
86	0x3e51f365	0.20503004
87	0x3e517d28	0.204579
88	0x3e4e16e6	0.20125923
89	0xbc277aea	-0.010222176
90	0xbd56a50f	-0.052403506
91	0xbe4b8703	-0.19875722
92	0xbd007d1f	-0.031369325
93	0xbd4242ed	-0.047427107
94	0xbd4fb539	-0.050709937
95	0xbe569a47	-0.2095729
96	0xbc947852	-0.01812378
97	0xbd2d5b79	-0.042323563
98	0x3c27966b	0.0102287335
99	0xbd8169b1	-0.06318987
100	0x3d87a788	0.06623751
101	0x3e40491b	0.18777888
102	0x3d8cfccf	0.06884157
103	0x3d892abc	0.06697604
104	0x3d8bfd08	0.06835371
105	0x3e40aa2c	0.18814915
106	0x3d883f19	0.0665266
107	0x3d8894b9	0.066689916
108	0x3c819602	0.0158186
109	0x3dac4b3e	0.08412789
110	0x3c426cdc	0.011866774
111	0xbba38079	-0.0049896804
112	0x3d932bf2	0.07186116
113	0x3db4b3ac	0.08823332
114	0x3c27217c	0.010200854
115	0x3c5249de	0.012834994
116	0x3d895a19	0.06706638
117	0x3dbb8606	0.09156422
118	0x3db55370	0.08853805
119	0xbcebcee9	-0.028785186
120	0x3d846bb4	0.06465855
121	0x3e3be428	0.18348753
122	0x3d8e8502	0.06958963
123	0x3d84a109	0.064760275
124	0x3d884c61	0.06655193
125	0x3e3d8f5c	0.18511719
126	0x3d82defa	0.06390186
127	0x3d8b0d07	0.06789594
128	0x3c690766	0.014222955
129	0x3da8b491	0.08237565
130	0xbcfa3cc2	-0.03054655
131	0xbdce66ec	-0.100782245
132	0xbcbbec57	-0.022939844
133	0xbccdfcaf	-0.025144903
134	0xbcf850cf	-0.03031197
135	0xbde4b1a4	-0.11166695
136	0x3b6e74ad	0.0036385462
137	0xbd019bef	-0.03164285
138	0xbca955dd	-0.020670826
139	0xbcac7763	-0.021053022
140	0x3d894a3f	0.067036144
141	0x3e42b495	0.19014199
142	0x3d860f60	0.06545901
143	0x3d86f51d	0.065897204
144	0x3d8cf4e4	0.06882647
145	0x3e430120	0.19043398
146	0x3d805bca	0.062675074
147	0x3d8964e5	0.06708697
148	0x3c8b7443	0.017023211
149	0x3db3eb63	0.08785131
150	0xbe39a851	-0.18130614
151	0xbedcc11a	-0.43116075
152	0x3d378454	0.044803932
153	0xbe08eb7b	-0.13371079
154	0xbe317221	-0.17328693
155	0xbee9b1cf	-0.4564347
156	0x3d81b80a	0.06333931
157	0xbdf3ed88	-0.1191054
158	0xbe065755	-0.13119252
159	0xbe77a767	-0.24184953
160	0x3dd08610	0.101818204
161	0x3e66aee4	0.22527653
162	0x3db8ef45	0.09030012
163	0x3dc658f8	0.09684938
164	0x3dd53805	0.104110755
165	0x3e66613f	0.22498034
166	0x3db74e21	0.08950449
167	0x3dc78816	0.09742753
168	0x3d538e0e	0.051649146
169	0x3e056cb1	0.13029744
170	0xbc99df53	-0.018783247
171	0x3e1e5c4b	0.15464894
172	0xbe1a6d71	-0.15080811
173	0xbd9f293f	-0.07771539
174	0xbcd65816	-0.02616505
175	0x3e2d8853	0.16946535
176	0xbe1f895c	-0.15579742
177	0xbdc52cb1	-0.09627665
178	0xbddcca16	-0.10780732
179	0x3cafefea	0.021476705
180	0xbe924956	-0.28571576
181	0xbed31ef1	-0.41234544
182	0xbe31245f	-0.1729903
183	0xbe7b2703	-0.245266
184	0xbe8e4773	-0.27788886
185	0xbee03d9f	-0.43797013
186	0xbe22a653	-0.1588376
187	0xbe72a261	-0.23694755
188	0xbe7fee61	-0.24993278
189	0xbe9211d8	-0.2852924
190	0xbc9a989b	-0.018871596
191	0x3de4899d	0.1115906
192	0xbddef556	-0.10886638
193	0xbd83a765	-0.06428412
194	0xbcc1d241	-0.023659827
195	0x3dff1db1	0.12456835
196	0xbde982ac	-0.11401877
197	0xbda3a13c	-0.079897374
198	0xbdb30f1b	-0.087431155
199	0x3c6ff7bc	0.014646467

layers.0.egnn.edge_mlp.0.bias f4 [20]
0	0x3bac0784	0.0052499194
1	0x3e23613f	0.15955065
2	0xbde51531	-0.111856826
3	0xbe3e13e9	-0.18562283
4	0xbdafb1c7	-0.0857883
5	0xbdb377b0	-0.08763063
6	0x3d0555c2	0.03255249
7	0xbe678929	-0.22610916
8	0xbe905331	-0.2818847
9	0x3db1bd5e	0.08678697
10	0xbd7ede6b	-0.062223833
11	0xbe9bcc62	-0.3042937
12	0xbda8202a	-0.0820926
13	0x3e36e75d	0.17861696
14	0xbd0ecb4b	-0.034861844
15	0xbe2b19c9	-0.16709055
16	0x3db66906	0.089067504
17	0x3e9167d0	0.28399515
18	0xbe87ff01	-0.2656174
19	0x3e7a464e	0.24440882

layers.0.egnn.edge_mlp.3.weight f4 [16, 20]
0	0x3c914455	0.017732779
1	0x3c9761dd	0.018479282
2	0xbcc128d3	-0.023579037
3	0xbc94b36c	-0.018151961
4	0xbce6af33	-0.028159713
5	0xbcaad8bb	-0.020855298
6	0x3ccdc5ad	0.025118673
7	0xbcbe156b	-0.023203572
8	0xbdb7bcdb	-0.08971568
9	0x3cc3e475	0.023912648
10	0xbc07167b	-0.008245106
11	0xbd2fb03e	-0.042892687
12	0xbc53b23e	-0.012920914
13	0x3c9eb778	0.019374594
14	0xbb664189	-0.0035134277
15	0xbd4540bb	-0.048157435
16	0x3d5b165d	0.053488124
17	0x3cceb436	0.025232416
18	0xbdf99c20	-0.121879816
19	0x3ca8948c	0.020578645
20	0x3c976dc5	0.01848496
21	0x3c85017f	0.016236065
22	0xbcde318d	-0.027123237
23	0xbcaf8d88	-0.021429792
24	0xbd13c7b5	-0.036079127
25	0xbcb7ca08	-0.022435203
26	0x3ced5e8d	0.02897575
27	0xbc9356fc	-0.017985813
28	0xbd817ac2	-0.06322242
29	0x3cc3a73d	0.023883456
30	0xbc074983	-0.008257273
31	0xbce3db8e	-0.027814653
32	0xbc3710f2	-0.011173474
33	0x3c65ce55	0.014026244
34	0xba90053d	-0.0010987889
35	0xbd689fe7	-0.05679312
36	0x3d5e28b3	0.054238033
37	0x3bc8a7b9	0.0061235097
38	0xbe0345b4	-0.12819558
39	0x3bf189f4	0.0073711816
40	0x3ca43eb5	0.020049432
41	0x3c7d7158	0.015468918
42	0xbcd63d6f	-0.02615234
43	0xbcac02f6	-0.020997506
44	0xbd11f0e8	-0.035630137
45	0xbcb720f6	-0.022354584
46	0x3cf23791	0.029567512
47	0xbc949f04	-0.01814223
48	0xbd7f6d86	-0.06236031
49	0x3cbcf070	0.023063868
50	0xbbe157fe	-0.0068769446
51	0xbcd33020	-0.025779784
52	0xbc53e4eb	-0.012932996
53	0x3c819a77	0.015820725
54	0x39d68fbb	0.00040924348
55	0xbd5be4dc	-0.053685054
56	0x3d5f5c86	0.054531597
57	0x3c1f6f33	0.009731102
58	0xbe04bd37	-0.12962805
59	0x3c036ef2	0.008022057
60	0x3cb194c4	0.021677382
61	0x3c8085a0	0.015688717
62	0xbccce4e4	-0.025011487
63	0xbca4d1f1	-0.02011964
64	0xbd0ed515	-0.03487118
65	0xbca92ca1	-0.020651164
66	0x3cf9e918	0.030506656
67	0xbc8ccb4a	-0.01718678
68	0xbd887831	-0.0666355
69	0x3cbcea29	0.023060875
70	0xbb923c5c	-0.004462762
71	0xbceff0b2	-0.029289577
72	0xbc0d5970	-0.008627281
73	0x3c66bb90	0.014082804
74	0x395ac652	0.0002086398
75	0xbd6616bb	-0.05617402
76	0x3d62e026	0.055389546
77	0x3c0cd7d7	0.008596382
78	0xbe03d701	-0.12874986
79	0x3c15443b	0.009110506
80	0xbdee3554	-0.11631265
81	0x3ca61745	0.020274768
82	0xbd1e7f75	-0.03869577
83	0xbceba0ba	-0.028763164
84	0x3df54ed1	0.11977924
85	0xbd6f6634	-0.058447078
86	0xbe037869	-0.12838902
87	0xbc7c8e12	-0.015414732
88	0xbcc94b23	-0.02457196
89	0x3d2e8025	0.042602677
90	0xbda4cfe7	-0.08047467
91	0xbd055f3a	-0.03256152
92	0xbd98ddbe	-0.07464169
93	0x3c8bafa0	0.017051518
94	0xbdb9f552	-0.09079994
95	0x3e159fd5	0.14611752
96	0xbe1eed4a	-0.15520206
97	0xbc30b0e5	-0.010784362
98	0x3e613cd8	0.21995866
99	0xbc27fb90	-0.010252848
100	0x3c6663bc	0.014061864
101	0x3c891c14	0.016737022
102	0xbce045a8	-0.027376965
103	0xbca9971f	-0.020701943
104	0xbcda9c9d	-0.026686007
105	0xbccfe419	-0.02537732
106	0x3cbc5524	0.022989817
107	0xbca1439a	-0.019685555
108	0xbd978b71	-0.07399643
109	0x3cdedd4e	0.027205136
110	0xbc4d4eed	-0.012531024
111	0xbd189053	-0.037247013
112	0xbc6ad0bc	-0.014331993
113	0x3c83c71a	0.01608615
114	0xbbf41fa7	-0.0074500623
115	0xbd369418	-0.044574827
116	0x3d40fd0b	0.04711632
117	0x3c7029de	0.014658419
118	0xbdf11c67	-0.117729954
119	0x3c396c08	0.011317261
120	0x3cc63297	0.024194045
121	0x3c67a467	0.014138318
122	0xbcc054f8	-0.023478016
123	0xbc9a1726	-0.018809866
124	0xbd1a9412	-0.037738867
125	0xbca179f9	-0.019711481
126	0x3d04d972	0.032433935
127	0xbc6a7584	-0.0143102445
128	0xbd75e38b	-0.060031455
129	0x3cae9298	0.021310136
130	0xbb321069	-0.0027170426
131	0xbcca2b57	-0.02467887
132	0xbc079f5a	-0.0082777385
133	0x3c430d1c	0.011904981
134	0x3a7d303f	0.00096583733
135	0xbd713510	-0.058888495
136	0x3d6b3539	0.057423804
137	0x3b689529	0.0035489297
138	0xbe06f05d	-0.13177629
139	0x3bb65ebb	0.005565492
140	0xbdbf97af	-0.09355103
141	0x3c58ae6a	0.013225177
142	0xbca847a1	-0.020541968
143	0xbc8b35fb	-0.016993513
144	0x3dcdc82c	0.100479454
145	0xbd144bb7	-0.03620502
146	0xbdd5d2e5	-0.104406156
147	0xbc783e84	-0.015151624
148	0xbc600745	-0.013673608
149	0x3cf32923	0.029682701
150	0xbd762b7b	-0.06010006
151	0xbce04371	-0.027375909
152	0xbd577d0d	-0.052609492
153	0x3c46893f	0.012117683
154	0xbd88097d	-0.06642435
155	0x3e005ade	0.12534663
156	0xbe08e9da	-0.13370457
157	0x39b322e5	0.0003416754
158	0x3e4e8c36	0.20170674
159	0xba8ce0f6	-0.0010748196
160	0xbdcf67ee	-0.10127245
161	0x3c7c6211	0.01540424
162	0xbcdd72b3	-0.027032232
163	0xbcb5a832	-0.022174928
164	0x3dda275c	0.106520385
165	0xbd314756	-0.043280922
166	0xbde46066	-0.11151199
167	0xbc7be407	-0.01537419
168	0xbc995030	-0.018714994
169	0x3d07bc07	0.0331383
170	0xbd87fd58	-0.06640118
171	0xbcfa7104	-0.030571468
172	0xbd794bec	-0.06086342
173	0x3c593c39	0.013258987
174	0xbd9d733a	-0.07687993
175	0x3e0679df	0.13132428
176	0xbe0bef4c	-0.13665503
177	0xbbbd27d2	-0.005772569
178	0x3e522de1	0.20525314
179	0xbba2ca1b	-0.0049679405
180	0xbdb728ac	-0.089433044
181	0x3c4675bb	0.01211303
182	0xbc9c6f19	-0.019095944
183	0xbc804240	-0.01565659
184	0x3dc7deaf	0.097592704
185	0xbd06844d	-0.032841016
186	0xbdccb276	-0.09994976
187	0xbc712623	-0.014718565
188	0xbc325e6d	-0.010886771
189	0x3cdad264	0.02671165
190	0xbd650c2f	-0.055919822
191	0xbcd691a5	-0.026192496
192	0xbd4f8811	-0.050666872
193	0x3c3db06e	0.011577709
194	0xbd80197d	-0.062548615
195	0x3dfd215b	0.12359878
196	0xbe043258	-0.1290983
197	0x3b1efadd	0.0024258413
198	0x3e4d337e	0.20039174
199	0x3b45414d	0.0030098737
200	0xbda9fc3d	-0.08300064
201	0x3c24fabe	0.010069547
202	0xbc70964a	-0.014684269
203	0xbc42fcfb	-0.011901136
204	0x3dc25249	0.09488351
205	0xbce60d64	-0.028082557
206	0xbdbd112a	-0.092317894
207	0xbc7fea4d	-0.0156198265
208	0xbbd9c750	-0.0066460744
209	0x3cbf1ff7	0.023330672
210	0xbd47f107	-0.048813846
211	0xbcc4329e	-0.023949917
212	0xbd2f5b6f	-0.042811807
213	0x3c3c714d	0.011501622
214	0xbd65d33e	-0.05610966
215	0x3df98496	0.12183492
216	0xbdfaed8a	-0.12252338
217	0x3bd31808	0.0064420737
218	0x3e4b9648	0.19881546
219	0x3ba5e462	0.0050626257
220	0xbdcf203f	-0.10113572
221	0x3c8a26e9	0.016864257
222	0xbce9bd2c	-0.028532587
223	0xbcb407d1	-0.021976383
224	0x3deb9cff	0.11504554
225	0xbd3223a7	-0.043491032
226	0xbde74f43	-0.11294415
227	0xbc9aaf97	-0.018882556
228	0xbc3fc9c9	-0.011705824
229	0x3d1eafba	0.038741805
230	0xbd88d16b	-0.06680568
231	0xbce3a3cc	-0.027788065
232	0xbd7266cc	-0.059180066
233	0x3c7aa62d	0.015298408
234	0xbd9a990e	-0.07548724
235	0x3e0fefdb	0.14056341
236	0xbe13f0d3	-0.14447336
237	0xbb6af661	-0.003585242
238	0x3e61983e	0.22030732
239	0x3a8b8cde	0.001064684
240	0x3c6bbe82	0.014388682
241	0x3c7af8d0	0.015318111
242	0xbce93005	-0.02846528
243	0xbcb2680d	-0.02177813
244	0xbcd7c09b	-0.026336959
245	0xbce21b2e	-0.02760085
246	0x3cb3eb6b	0.021962842
247	0xbc9997b4	-0.018749095
248	0xbd89f312	-0.06735815
249	0x3ceddaa0	0.029034913
250	0xbc46c71d	-0.012132433
251	0xbd01fde3	-0.031736266
252	0xbc8a8cbb	-0.016912809
253	0x3c752269	0.014961817
254	0xbbec5377	-0.007212098
255	0xbd3f720a	-0.046739615

layers.0.egnn.edge_mlp.3.bias f4 [16]
0	0x3d80666b	0.06269535
1	0x3e60d492	0.21956089
2	0x3e7217af	0.23641847
3	0x3e249d9b	0.16075747
4	0xbe962d66	-0.2933151
5	0x3d964dee	0.07339083
6	0x3e797a44	0.24363047
7	0xbe2ce0e5	-0.16882665
8	0xbe652ed3	-0.22381143
9	0xbe0cf73c	-0.13766187
10	0xbdcea22a	-0.10089524
11	0xbde7fc30	-0.11327398
12	0x3ddd4dae	0.10805832
13	0x3e14a19c	0.14514774
14	0xbe4fc8aa	-0.20291391
15	0xbdbbdc16	-0.091728374

layers.0.egnn.node_mlp.0.weight f4 [8, 20]
0	0xb9eb9b9e	-0.00044938637
1	0xba8a1fbe	-0.0010538024
2	0xb6fe73b4	-7.5832595e-06
3	0x3a16dee6	0.00057552604
4	0xbaf7b697	-0.001889902
5	0x39f7103f	0.00047123616
6	0xba1678c8	-0.00057400437
7	0xb9193777	-0.0001461188
8	0xb92abb0d	-0.00016282145
9	0xbb47e33a	-0.0030500428
10	0xbb1d7c28	-0.0024030302
11	0xba87e4cd	-0.001036787
12	0xba304e60	-0.0006725546
13	0x39c4e24f	0.00037552646
14	0x39cde7c7	0.00039273335
15	0xba6cee8a	-0.00090382306
16	0xbaa26b19	-0.0012391537
17	0xba9326bb	-0.0011226753
18	0x3ac53654	0.0015046098
19	0x3a9c2b19	0.00119147
20	0xba1ceb10	-0.0005985955
21	0xb96c071f	-0.00022509367
22	0x3a69efce	0.00089239783
23	0x392e204e	0.00016605968
24	0xba4d7cfc	-0.00078387535
25	0x3aa0c765	0.0012266455
26	0xba0aea67	-0.0005299211
27	0xb8818732	-6.1763814e-05
28	0x39d0e40c	0.0003984276
29	0x3b446d20	0.002997227
30	0x3b00f411	0.0019676725
31	0xba4200ad	-0.00074006134
32	0xb9a47bfa	-0.00031372887
33	0xba3ba727	-0.00071583915
34	0xbabcf9b2	-0.0014417677
35	0xba36a991	-0.00069680164
36	0x395f827f	0.00021315551
37	0xba25881a	-0.0006314531
38	0x3a89317a	0.0010467016
39	0x39cb1668	0.0003873587
40	0x3a1fc50c	0.0006094731
41	0x3a2b2d48	0.000652988
42	0xbb04fe3c	-0.0020293137
43	0xb977b51f	-0.00023623228
44	0x37871386	1.6102345e-05
45	0x3ad34093	0.0016117267
46	0x3998c143	0.0002913569
47	0xba8c5d42	-0.0010708945
48	0xb9db31ff	-0.00041808185
49	0xb95b8544	-0.00020935113
50	0xba7752de	-0.00094346504
51	0xb960f9dd	-0.00021455386
52	0x3aa0feb5	0.001228294
53	0xba81b3a1	-0.0009895453
54	0x3856be0e	5.1198578e-05
55	0x3ad0655d	0.0015899349
56	0xbb309dcf	-0.002694953
57	0x3a0d6ac7	0.0005394634
58	0xba969d2f	-0.0011490936
59	0x394569b0	0.00018826756
60	0x3aaebe81	0.0013331921
61	0x393b9e81	0.00017892757
62	0xb775ae68	-1.4643745e-05
63	0x3788f9ca	1.632878e-05
64	0xb9b3b7c0	-0.00034278445
65	0x394283b5	0.00018550346
66	0x3a6a327e	0.00089339155
67	0xba8b6b87	-0.0010636904
68	0x3a9f1ce2	0.0012139345
69	0x3a7ddcf5	0.0009684109
70	0xba1f0dae	-0.0006067407
71	0x394708b4	0.00018981361
72	0x39dbc468	0.0004191727
73	0xba2ddac5	-0.00066320255
74	0xb947550b	-0.000190098
75	0x3a938709	0.0011255454
76	0x39f39c1f	0.0004646489
77	0xba663095	-0.0008781043
78	0xba1d5099	-0.00060010847
79	0x392c9172	0.00016457381
80	0x3a2f15af	0.00066789513
81	0xbaab3021	-0.0013060608
82	0xba529496	-0.0008033005
83	0x3a4ebdb1	0.00078865426
84	0x3992eca9	0.00028023616
85	0xbaac8297	-0.0013161477
86	0xb99a387f	-0.00029415262
87	0x3af895ea	0.0018965576
88	0x3a07f2c6	0.00051860174
89	0x3a3bf5a5	0.0007170088
90	0xb94b8002	-0.00019407275
91	0x37d882bc	2.5810084e-05
92	0x3b0409d3	0.0020147457
93	0x3aabfedb	0.0013122217
94	0x3a81d8ae	0.0009906495
95	0xb9e1d4db	-0.00043073934
96	0x3ab6e1e2	0.0013952816
97	0x3a4231d5	0.0007407938
98	0x392634e8	0.00015850703
99	0x3a38ea5d	0.0007053966
100	0xba430166	-0.0007438868
101	0x3a233f33	0.0006227374
102	0x38e0fc9b	0.00010728204
103	0x39d109c7	0.0003987087
104	0x3a878df2	0.0010341986
105	0x39f24751	0.00046210972
106	0xb7b7c3cf	-2.190648e-05
107	0x392d9c35	0.00016556757
108	0xbb091d70	-0.0020922087
109	0xb9bb6a13	-0.0003574645
110	0x390c61da	0.00013387893
111	0x3ab51179	0.0013814411
112	0x3a53b684	0.0008076208
113	0xbaef695d	-0.0018265654
114	0x3a5231f8	0.000801831
115	0xba95a0d4	-0.0011415728
116	0x3a374917	0.0006991787
117	0xba0bd0b9	-0.00053335313
118	0x395efe80	0.00021266378
119	0x3a4339e6	0.0007447287
120	0xba08fa7a	-0.0005225312
121	0x395ccd4f	0.00021057318
122	0x3a2103df	0.00061422394
123	0xba8be56b	-0.001067323
124	0x39cec23b	0.00039436095
125	0xb9ebc279	-0.00044967586
126	0xb92511cc	-0.00015742256
127	0x39bfa314	0.00036551862
128	0xbaada7a2	-0.0013248811
129	0x3a8427cf	0.0010082665
130	0x3a22f60f	0.0006216475
131	0xb923b4ce	-0.00015612246
132	0x3a9d5716	0.0012004103
133	0x39376097	0.00017488223
134	0xb95fdd97	-0.00021349486
135	0xba953fcd	-0.0011386812
136	0x3a2b54a6	0.0006535746
137	0x3a99e48f	0.0011741089
138	0xba8bb031	-0.0010657368
139	0x3a3dfc06	0.0007247332
140	0x3abbac53	0.0014318324
141	0x3a13a5d6	0.00056323165
142	0xbabbc66e	-0.0014326104
143	0x39cb53a3	0.00038781491
144	0xba6a058c	-0.0008927218
145	0x3abd2d3b	0.0014433035
146	0xba0cd525	-0.0005372337
147	0xb998f7b5	-0.00029176255
148	0xba81d04e	-0.0009903999
149	0xb85571fd	-5.0889317e-05
150	0x3a1603cc	0.00057226117
151	0xba68acf3	-0.0008875869
152	0xbacd446a	-0.0015660648
153	0x39bcabba	0.000359861
154	0xbaea1d6f	-0.0017861555
155	0xba8c5b17	-0.0010708299
156	0x3a6bc9ad	0.00089945906
157	0xba469b29	-0.0007576221
158	0x39cd942f	0.00039211052
159	0x39d9c70d	0.0004153777

layers.0.egnn.node_mlp.0.bias f4 [8]
0	0x3e48c414	0.19606048
1	0x3e186542	0.14882377
2	0x3da04e8e	0.07827483
3	0xbdb3d5c6	-0.087810084
4	0x3e2d0a19	0.16898383
5	0xbda68c1a	-0.08132191
6	0x3d890fb9	0.06692452
7	0x3d212a72	0.03934712

layers.0.egnn.node_mlp.3.weight f4 [4, 8]
0	0x3a2fd59e	0.00067075517
1	0xb96934bd	-0.00022240258
2	0xba8768f5	-0.0010330962
3	0xba7b53ee	-0.00095873966
4	0x3a46e28b	0.0007586858
5	0x3a23d346	0.0006249439
6	0x3abc4ebf	0.001436673
7	0xb9fcce46	-0.0004821887
8	0xba034b93	-0.0005008515
9	0xb87cabb9	-6.024141e-05
10	0x3a12b322	0.0005596151
11	0x3a8b0bb3	0.0010608345
12	0xb9a21c8f	-0.00030920326
13	0x3ae6b617	0.0017601874
14	0x39931dbb	0.00028060176
15	0xb9cb50a7	-0.00038779268
16	0x39aa5b46	0.0003249293
17	0xb7ec2801	-2.815202e-05
18	0xba001f75	-0.00048875
19	0x3937c361	0.00017525024
20	0xbaaa97de	-0.0013015231
21	0xb9b14b82	-0.00033816329
22	0xb9f41111	-0.00046552022
23	0x3a708312	0.00091748044
24	0xbab6b6de	-0.0013939997
25	0xbac6ec24	-0.0015176577
26	0xba2e6092	-0.00066519633
27	0x3aafe1bd	0.0013418716
28	0x3a773716	0.00094305107
29	0xba9e0e90	-0.0012058783
30	0x3a400e3a	0.00073263387
31	0xbb0b6598	-0.0021270271

layers.0.egnn.node_mlp.3.bias f4 [4]
0	0xbc885b4c	-0.016645096
1	0x3ea5e564	0.32401574
2	0xbe9b3e76	-0.3032109
3	0xbe22e9a5	-0.15909441

layers.0.egnn.coors_mlp.0.weight f4 [64, 16]
0	0x3bdafda2	0.0066830674
1	0xbb9819ea	-0.004641761
2	0xbc0c97cb	-0.008581112
3	0xbae52970	-0.0017483663
4	0x3cc2a366	0.023759555
5	0x3bcdd3dc	0.006281359
6	0xbc043653	-0.0080695925
7	0x3cafff24	0.021483965
8	0x3cb8fbd3	0.022581017
9	0x3cb9d41e	0.022684153
10	0x3cd0997b	0.02546381
11	0x3d1d094b	0.03833894
12	0x3b893130	0.004186772
13	0xbb4756f7	-0.0030416825
14	0x3cce1527	0.02515657
15	0x3ce29aab	0.027661642
16	0x3c7ef020	0.01556018
17	0x3b546039	0.0032405986
18	0x3b83637b	0.0040096617
19	0x3bedf01b	0.007261289
20	0x3c4da3e6	0.012551283
21	0x3c8b31f8	0.0169916
22	0x38a39f4e	7.8021185e-05
23	0x3c5411a2	0.012943657
24	0x3c4cfe37	0.012511781
25	0x3c2d5864	0.010580156
26	0x3c7bd5a2	0.015370758
27	0x3cc7ea65	0.02440376
28	0x3c58bfc8	0.013229318
29	0x3bde28e6	0.006779778
30	0x3c5dd81d	0.013540295
31	0x3c94a9e4	0.018147416
32	0xbbc1d12a	-0.005914827
33	0xbc8a0772	-0.016849253
34	0xbc9461d8	-0.018113062
35	0xbc638008	-0.0138855055
36	0x3d1c6a8b	0.038187545
37	0xbbf42585	-0.0074507617
38	0xbca1dd6b	-0.0197589
39	0x3d108251	0.03528053
40	0x3d11b755	0.03557523
41	0x3d127903	0.035759937
42	0x3d1ac132	0.0377819
43	0x3d575c3d	0.0525782
44	0xbc13c1eb	-0.009018402
45	0xbc50d47e	-0.012745975
46	0x3d171ade	0.036890857
47	0x3d264d58	0.040601104
48	0xbad167b7	-0.0015976344
49	0xbc61a1a2	-0.013771446
50	0xbc6a0804	-0.014284138
51	0xbc248d04	-0.010043386
52	0x3cff0454	0.031129993
53	0xb9fc36d2	-0.0004810603
54	0xbc7a718c	-0.015285861
55	0x3cf5e9ff	0.030018805
56	0x3cfa3ff0	0.030548066
57	0x3d02d164	0.03193797
58	0x3d07186b	0.03298227
59	0x3d3c933f	0.046038862
60	0xbb369705	-0.002786101
61	0xbc075f4e	-0.0082624685
62	0x3d02084d	0.031746197
63	0x3d15feea	0.036620058
64	0x3c2c5c60	0.010520071
65	0xbb404c88	-0.0029342491
66	0xbaab59fd	-0.0013073083
67	0x39a1c53f	0.00030855273
68	0x3cb751d8	0.022377893
69	0x3c22df31	0.009940908
70	0xbba93908	-0.0051642694
71	0x3c93cd4b	0.018042227
72	0x3c8e2554	0.017351784
73	0x3c7b5e05	0.01534224
74	0x3cb8a0d7	0.022537632
75	0x3d0807eb	0.033210676
76	0x3bfc0b85	0.007691803
77	0x3b8ead04	0.004354121
78	0x3c9e2c9b	0.019308379
79	0x3cc0e45d	0.023546392
80	0x39869e1a	0.00025676267
81	0xbc458c34	-0.012057353
82	0xbc4baea0	-0.012431771
83	0xbc065057	-0.008197865
84	0x3cef0686	0.029177915
85	0x3b389e79	0.002817063
86	0xbc584bcd	-0.013201666
87	0x3cd62867	0.026142312
88	0x3ce3b640	0.027796865
89	0x3cea94c3	0.028635388
90	0x3cf5e566	0.030016612
91	0x3d339f02	0.043852814
92	0xba76b669	-0.00094113365
93	0xbbcafa45	-0.0061943852
94	0x3d009549	0.03139237
95	0x3d04d0b6	0.032425605
96	0xbc87cba7	-0.016576601
97	0xba88b381	-0.0010429473
98	0x3b00cc19	0.0019652902
99	0xbb8c1a03	-0.004275562
100	0xbca7aa3e	-0.02046692
101	0xbc94dc5b	-0.01817148
102	0x3a444c23	0.0007488152
103	0xbc6315c7	-0.013860173
104	0xbc9654c3	-0.018350964
105	0xbc7cff73	-0.015441763
106	0xbc852f02	-0.016257767
107	0xbcf2a327	-0.029618813
108	0xbc2d8de1	-0.010592909
109	0xbb8c97e7	-0.004290569
110	0xbc92ffc0	-0.017944217
111	0xbc8f5236	-0.017495256
112	0xbcbc4d0d	-0.02298596
113	0xbc5b87ee	-0.013399107
114	0xbc779d60	-0.015113205
115	0xbc8bcdd8	-0.017065927
116	0x3c2df5ab	0.010617654
117	0xbca66c4f	-0.020315317
118	0xbc7e373e	-0.0155161
119	0x3c375a05	0.011190896
120	0x3c1dadfe	0.0096240025
121	0x3c21b8d8	0.00987073
122	0x3c32b97d	0.010908482
123	0x3bc10b7a	0.0058912607
124	0xbc944f3b	-0.018104186
125	0xbc813f11	-0.015777143
126	0x3c21cc71	0.009875403
127	0x3c1030b4	0.008800674
128	0x3c32a071	0.01090251
129	0xb9edcaec	-0.0004535535
130	0xbb5692f6	-0.0032741404
131	0x3b398204	0.0028306255
132	0x3c9dfa6f	0.019284455
133	0x3c5e7cae	0.013579531
134	0xbbb0aecc	-0.005391931
135	0x3c8176d7	0.015803738
136	0x3c92398a	0.017849702
137	0x3c8b9d77	0.017042859
138	0x3ca0874e	0.019595768
139	0x3cfe3fc2	0.031036261
140	0x3be9c420	0.0071339756
141	0x3bb46438	0.005505111
142	0x3cabf2d1	0.020989807
143	0x3cb540b3	0.022125578
144	0xbca58aa9	-0.02020772
145	0xbbb85683	-0.0056255474
146	0xbb26814d	-0.002540666
147	0xbc0ad7a0	-0.008474261
148	0xbc828e4f	-0.015936999
149	0xbcafcedd	-0.021460945
150	0xbb60de83	-0.0034312315
151	0xbc2f44ab	-0.010697524
152	0xbc5e944b	-0.0135851605
153	0xbc24ac4d	-0.010050845
154	0xbc2ec46d	-0.010666949
155	0xbcbe815b	-0.02325504
156	0xbc7fd956	-0.015615782
157	0xbc0e20ae	-0.008674784
158	0xbc742898	-0.014902256
159	0xbc5c154b	-0.013432811
160	0xbcbc120b	-0.022957822
161	0xbbda88ae	-0.0066691255
162	0xbbfd7d4f	-0.007735885
163	0xbc377690	-0.011197701
164	0xbc7a5ce1	-0.015280933
165	0xbcc8a3df	-0.024492202
166	0xbbb24b6f	-0.0054411213
167	0xbbed2401	-0.007236958
168	0xbc0715eb	-0.008244972
169	0xbc06d410	-0.008229271
170	0xbbe16f79	-0.0068797437
171	0xbcb219a6	-0.021740746
172	0xbc8f35e6	-0.017481755
173	0xbc33290a	-0.010935077
174	0xbc500827	-0.012697256
175	0xbc24ad5e	-0.0100511
176	0x3c90c77d	0.017673248
177	0x3b6f2dd8	0.003649583
178	0x3aff5afd	0.0019482073
179	0x3c05f152	0.008175211
180	0x3c6913de	0.014225928
181	0x3c83a478	0.016069636
182	0x3b2aed4c	0.0026081381
183	0x3c161c8b	0.009162079
184	0x3c724600	0.014787197
185	0x3c2d2baa	0.010569492
186	0x3c56e74a	0.013116667
187	0x3cd4c498	0.02597265
188	0x3c544c8e	0.012957705
189	0x3c11e6d0	0.008905128
190	0x3c489af4	0.012243975
191	0x3c78ddaf	0.015189572
192	0xba800646	-0.0009767495
193	0xbc513d8e	-0.012771023
194	0xbc550d7e	-0.013003705
195	0xbc301ecb	-0.010749529
196	0x3d05d652	0.032675095
197	0x3a8046be	0.0009786708
198	0xbc67301a	-0.014110589
199	0x3cdd3906	0.02700473
200	0x3ce99215	0.02851204
201	0x3cf6d596	0.030131143
202	0x3d06f152	0.032944985
203	0x3d3a1748	0.04543236
204	0xbb13a0bc	-0.0022526225
205	0xbc13a36e	-0.009011133
206	0x3d067ce5	0.032833952
207	0x3d1741e0	0.036928058
208	0xbcb2a198	-0.02180557
209	0xbbacfbc6	-0.005279037
210	0xbb553ac2	-0.0032536243
211	0xbc17f225	-0.00927404
212	0xbc88069d	-0.016604716
213	0xbcb4225c	-0.02198904
214	0xbb129a32	-0.002236974
215	0xbc33f3a0	-0.010983378
216	0xbc65d73a	-0.014028365
217	0xbc2ed97f	-0.010671972
218	0xbc3c5cac	-0.011496704
219	0xbcbfdb23	-0.023419922
220	0xbc932e35	-0.01796637
221	0xbc291b5b	-0.010321463
222	0xbc76149b	-0.015019561
223	0xbc40bd71	-0.011763916
224	0x3c9c5fae	0.019088592
225	0x3b9522e4	0.0045512784
226	0x3b9f2c45	0.0048575723
227	0x3c0e136b	0.008671622
228	0x3c5c3712	0.013440864
229	0x3c9b1dda	0.018935133
230	0x3b3ca59e	0.002878524
231	0x3c1f47a5	0.009721671
232	0x3c38d09c	0.011280205
233	0x3c24dad6	0.01006194
234	0x3c8031fe	0.015648838
235	0x3cd7b9c5	0.026333699
236	0x3c7eaf4e	0.015544726
237	0x3c180216	0.009277841
238	0x3c792d3f	0.015208541
239	0x3c7951e3	0.015217277
240	0xbce143cd	-0.02749815
241	0xbc2e9577	-0.010655752
242	0xbc25c3f8	-0.010117523
243	0xbc618b5b	-0.013766135
244	0xbbfc76a1	-0.0077045714
245	0xbccbeb90	-0.024892598
246	0xbc055bd8	-0.008139573
247	0xbbb18a72	-0.0054181153
248	0xbbad7c36	-0.005294348
249	0xbb80ef33	-0.003934765
250	0xbbc984a8	-0.006149847
251	0xbc80e5d8	-0.015734598
252	0xbcb13e98	-0.021636292
253	0xbc80039e	-0.015626725
254	0xbc10b233	-0.0088315485
255	0xbc124827	-0.008928335

layers.0.egnn.coors_mlp.0.bias f4 [64]
0	0xbe1193b7	-0.14216505
1	0xbdcec3e3	-0.10095956
2	0xbe834be2	-0.25643831
3	0xbe5a9b15	-0.21348222
4	0xbe060d29	-0.13090958
5	0xbe36e0e7	-0.17859231
6	0x3e8ab2ab	0.27089438
7	0x3cec969b	0.028880408
8	0xbe05a2b9	-0.13050355
9	0x3e4d82f2	0.20069483
10	0x3e31091c	0.17288631
11	0xbe20de29	-0.15709747
12	0xbe591abf	-0.21201609
13	0x3e485d8d	0.19566937
14	0xbdee4647	-0.11634498
15	0x3e0c230b	0.13685243
16	0x3e54e30c	0.20789737
17	0xbe716a1a	-0.23575631
18	0xbe20e0bb	-0.15710728
19	0x3e382a19	0.17984809
20	0x3e4d3178	0.20038402
21	0xbe779dad	-0.24181242
22	0xbe418c45	-0.18901165
23	0xbe772e68	-0.24138796
24	0xbe247645	-0.16060741
25	0xbe1f22bc	-0.15540594
26	0xbe9219fb	-0.28535447
27	0xbe8fe8db	-0.28107342
28	0xbe44e9e9	-0.19229855
29	0x3e5696ed	0.20956011
30	0x3d896dc2	0.06710388
31	0xbcb2ff7d	-0.021850342
32	0x3e8e2d88	0.27769113
33	0x3d3a9a6a	0.045557417
34	0xbd9e5f13	-0.07732978
35	0x3e510981	0.20413782
36	0xbd1f02cc	-0.038821027
37	0xbe5fb3c2	-0.21845916
38	0xbe26557f	-0.16243552
39	0x3e202a24	0.15641075
40	0xbe2e715b	-0.17035429
41	0xbe4a98fc	-0.19784921
42	0x3dd5b5a0	0.10435033
43	0xbc31fa93	-0.010862964
44	0xbd853e58	-0.06506032
45	0xbb3b4e27	-0.0028580518
46	0x3e2158fa	0.15756598
47	0xbdc8cd7b	-0.09804817
48	0x3d4c7df8	0.04992482
49	0xbd98693f	-0.07441949
50	0x3e2dafac	0.16961545
51	0x3e6b5c6f	0.2298448
52	0xbe214d47	-0.15752135
53	0xbd2023b5	-0.039096553
54	0xbdeffbbc	-0.117179364
55	0xbd5a94c6	-0.053364538
56	0x3e252e1d	0.16130872
57	0x3dd7f07b	0.10543915
58	0x3d2c24e7	0.04202738
59	0x3dd736d0	0.105085015
60	0xbdb23ecf	-0.08703386
61	0x3e82dfb9	0.25561312
62	0x3e3abd90	0.18236375
63	0xbdda78c5	-0.10667566

layers.0.egnn.coors_mlp.3.weight f4 [1, 64]
0	0x3ce6092f	0.028080551
1	0x3caf5686	0.021403562
2	0x3d1204f6	0.035649262
3	0x3d090ddd	0.033460487
4	0x3cd6b957	0.026211424
5	0x3d00dcc6	0.031460546
6	0xbd054e61	-0.03254545
7	0xb912be2f	-0.00013994494
8	0x3cd64cab	0.026159605
9	0xbcee82be	-0.029115077
10	0xbcddbc1d	-0.027067238
11	0x3cd87403	0.026422506
12	0x3d096831	0.03354663
13	0xbced122c	-0.02893933
14	0x3cbad5a5	0.022806952
15	0xbcbf327a	-0.023339499
16	0xbceb9c1f	-0.028760968
17	0x3d0f681b	0.035011392
18	0x3cf224b3	0.029558515
19	0xbe15ba85	-0.14621933
20	0xbce4c189	-0.027924316
21	0x3d14c55e	0.036321037
22	0x3d05396e	0.032525472
23	0x3d1332e1	0.035937194
24	0x3cf0797c	0.029354803
25	0x3cf139d4	0.02944652
26	0x3d1a2692	0.03763444
27	0x3d124ddf	0.035718795
28	0x3e2a0297	0.1660255
29	0xbcf697e0	-0.030101717
30	0xbc19d60e	-0.0093894135
31	0x394afec6	0.00019359132
32	0xbd0ac159	-0.033875797
33	0xb9d8d7f3	-0.00041359625
34	0x3c79fe0c	0.015258323
35	0xbcec2fcb	-0.028831383
36	0x3a8be159	0.0010672017
37	0x3d0b7611	0.034048144
38	0x3cf6579e	0.030071076
39	0xbcd238db	-0.025661876
40	0x3cfcfea0	0.030883133
41	0x3d03a27f	0.03213739
42	0xbc91d069	-0.017799573
43	0x38024378	3.105725e-05
44	0x3c34c14f	0.0110324165
45	0xb7cea699	-2.4634692e-05
46	0xbcc647d3	-0.02420417
47	0x3c9be768	0.019031242
48	0xba434a35	-0.00074497174
49	0x3c6bc887	0.014391071
50	0xbcdd08dd	-0.026981765
51	0xbceee53c	-0.029162042
52	0x3cee5ccb	0.029096982
53	0x3a8a47f8	0.0010550013
54	0x3cc50194	0.024048604
55	0x3bd43177	0.006475623
56	0xbcce0d68	-0.025152877
57	0xbc8ffa3d	-0.017575378
58	0xba967a7a	-0.0011480593
59	0xbdae25ac	-0.08503279
60	0x3c7dd36e	0.015492303
61	0xbd04a319	-0.032382105
62	0xbce4fba2	-0.02795202
63	0x3cb38604	0.02191449

layers.0.egnn.vel_mlp.0.weight f4 [16, 4]
0	0xbb8f9c50	-0.0043826476
1	0x3a928095	0.0011177236
2	0xbb2e9f70	-0.0026645325
3	0x39cbfb52	0.00038906425
4	0xbbca9cc0	-0.006183237
5	0xbb524c8b	-0.003208908
6	0xb8b8786c	-8.796234e-05
7	0xbb3f1801	-0.0029158595
8	0x3a6efb15	0.00091163936
9	0xbb876a4f	-0.004132546
10	0xbb0bd821	-0.002133854
11	0x3a85d191	0.001020955
12	0x3acd3e1b	0.0015658768
13	0x3b3cb952	0.0028796983
14	0xbb76e47c	-0.0037672808
15	0x3c245c32	0.010031747
16	0xbac070b3	-0.0014682024
17	0xbbe5fe0d	-0.0070188106
18	0x3b6bacb7	0.00359611
19	0xbc879393	-0.016549861
20	0xbaa4484f	-0.0012533757
21	0xbb4a2485	-0.0030844521
22	0xbbafbb5e	-0.005362912
23	0x3c2c4931	0.010515497
24	0x3b896d79	0.0041939584
25	0x3982b434	0.00024929794
26	0x3a24e187	0.00062897097
27	0x3ac21a4e	0.0014808865
28	0xbacf82ba	-0.0015831806
29	0xbae4709e	-0.0017428582
30	0x3b479f1b	0.0030459824
31	0xbbec0aa8	-0.0072034188
32	0x3a240293	0.0006256487
33	0x39f46431	0.00046613955
34	0x3b5c5474	0.0033619674
35	0xbc0d5678	-0.008626573
36	0xbb5a8a70	-0.0033346675
37	0x3ad02d38	0.0015882617
38	0xbb80affc	-0.003927229
39	0xb9ab758d	-0.00032703244
40	0x3a03d820	0.00050294586
41	0xba3ce843	-0.00072062406
42	0xbb8638fb	-0.004096148
43	0x3c01ec45	0.007929866
44	0xbb2e4613	-0.002659206
45	0x3ab47c7b	0.0013770008
46	0xbb4404a7	-0.002991
47	0xbba9e055	-0.005184213
48	0xbb40f666	-0.002944374
49	0xbb3e817e	-0.0029068883
50	0x3b902345	0.0043987357
51	0xbc2f0114	-0.010681409
52	0xb9bd0588	-0.0003605301
53	0xbae8c2e3	-0.0017758276
54	0xbb89d878	-0.0042067133
55	0x3c158e7a	0.009128207
56	0xbb0cd721	-0.0021490532
57	0x3b853862	0.0040655592
58	0x3b942816	0.00452138
59	0x39a9081e	0.0003224024
60	0x3b417cee	0.0029523927
61	0x3acfdc86	0.0015858568
62	0xbb2ad3fb	-0.0026066292
63	0x394f7678	0.00019785191

layers.0.egnn.vel_mlp.0.bias f4 [16]
0	0xbf2778eb	-0.6541888
1	0xbed3e2ec	-0.41384065
2	0xbf01137d	-0.5042036
3	0xbb031c62	-0.002000593
4	0xbde0f973	-0.10985079
5	0xbe8d68a1	-0.27618888
6	0xbf152b6c	-0.5826938
7	0xbe96dff0	-0.29467726
8	0xbe357685	-0.17720993
9	0xbf0b57ff	-0.54431146
10	0xbe5a502e	-0.21319649
11	0xbf153f1a	-0.5829941
12	0xbf31322d	-0.6921719
13	0xbf227f97	-0.63475937
14	0xbe062b04	-0.13102347
15	0xbe89aa3b	-0.26887688

layers.0.egnn.vel_mlp.3.weight f4 [1, 16]
0	0x3b41781f	0.002952106
1	0x3a9182c2	0.0011101591
2	0x3978b8d4	0.00023719977
3	0x3b66d460	0.00352218
4	0xbbb621ae	-0.005558214
5	0x3b8fd783	0.0043897047
6	0xbabef435	-0.0014568629
7	0xbb255d30	-0.0025232546
8	0xbb843dca	-0.004035686
9	0x3b5b5c7e	0.0033471878
10	0x3b4822dc	0.0030538356
11	0x3b31c1f4	0.0027123662
12	0xbb44bbb5	-0.0030019109
13	0x3b79e8ad	0.003813307
14	0xb98262ba	-0.0002486909
15	0x3a215fb9	0.00061559264

layers.1.egnn.edge_mlp.0.weight f4 [20, 10]
0	0x3aa468d6	0.001254345
1	0x3bd3e359	0.006466311
2	0x3b840df6	0.0040299846
3	0x3b05b5f7	0.002040265
4	0x3b84b5b7	0.0040499824
5	0x3b564d70	0.0032699965
6	0x3bf4fc96	0.0074763997
7	0x3b7670d8	0.0037603881
8	0x3aa25094	0.0012383633
9	0xbaf5e99d	-0.0018761639
10	0x3cf511a1	0.029915633
11	0x3cf48c91	0.029852184
12	0x3ce68e06	0.028143894
13	0x3ceae4f7	0.028673632
14	0x3ce44965	0.027867028
15	0x3cf11430	0.029428571
16	0x3cdb4273	0.026765084
17	0x3cf58b12	0.02997354
18	0x3cce0c72	0.025152419
19	0x3ceb94e9	0.02875753
20	0xbd090050	-0.033447564
21	0xbd00d10e	-0.03144937
22	0xbcfeaf02	-0.03108931
23	0xbcfb13ed	-0.03064915
24	0xbd097c46	-0.033565782
25	0xbd066b48	-0.032817155
26	0xbcf72d5c	-0.030172996
27	0xbcf9dcea	-0.030500848
28	0xbd005b31	-0.031336967
29	0xbd05d899	-0.032677267
30	0xbcfd80bd	-0.030945176
31	0xbcfa7a96	-0.030576032
32	0xbce0a00c	-0.027420066
33	0xbce05ebf	-0.027388928
34	0xbcfcef63	-0.030875867
35	0xbcf7e875	-0.030262211
36	0xbcf7b7a2	-0.03023893
37	0xbcf182de	-0.029481348
38	0xbcee209e	-0.029068287
39	0xbcf706e2	-0.03015465
40	0xbc104dda	-0.008807624
41	0xbc068e2d	-0.008212608
42	0xbbdf2c70	-0.0068107173
43	0xbc2e9de6	-0.010657763
44	0xbc174297	-0.009232185
45	0xbbe4cecb	-0.0069826595
46	0xbba6b2a2	-0.0050872127
47	0xbbb13f72	-0.0054091746
48	0xbc7b21d0	-0.015327886
49	0xbc54173c	-0.012944993
50	0xbd0075a5	-0.031362195
51	0xbd0592fe	-0.032610886
52	0xbcefb066	-0.029258918
53	0xbceedaee	-0.029157128
54	0xbcf5488a	-0.029941816
55	0xbcf8ea73	-0.030385232
56	0xbcf0a422	-0.02937514
57	0xbcfce6a5	-0.030871699
58	0xbcdc02b8	-0.026856765
59	0xbcef85b7	-0.029238565
60	0xbc8d4898	-0.01724653
61	0xbc8d9f9c	-0.017288022
62	0xbc9fd13b	-0.019508949
63	0xbca0e7d4	-0.019641794
64	0xbc7c4e22	-0.015399488
65	0xbca40f3c	-0.020026796
66	0xbc5d7657	-0.013516984
67	0xbc7a6215	-0.015282174
68	0xbc871f42	-0.016494397
69	0xbc9ac82e	-0.018894281
70	0x3cdfc144	0.027313836
71	0x3cee2e39	0.029074775
72	0x3cdfc2f8	0.027314648
73	0x3cda61ba	0.026657928
74	0x3cdb6ebc	0.0267862
75	0x3cf7e0fe	0.030258652
76	0x3ce77591	0.028254302
77	0x3ce419db	0.02784436
78	0x3cc0e1dd	0.0235452
79	0x3cdf42d8	0.027253553
80	0xbcfcb532	-0.03084812
81	0xbcfbc8cb	-0.030735394
82	0xbcf4ecfc	-0.02989816
83	0xbcfc6641	-0.030810477
84	0xbcfc4507	-0.030794634
85	0xbcf2ac24	-0.029623099
86	0xbcf3769a	-0.02971964
87	0xbcfa2aac	-0.030537926
88	0xbcde6800	-0.0271492
89	0xbcf7b72d	-0.030238712
90	0x3cae5f80	0.021285772
91	0x3c85d735	0.01633797
92	0x3ca8452d	0.020540798
93	0x3cb89fc3	0.022537118
94	0x3c7b72da	0.015347207
95	0x3cb043c4	0.021516688
96	0x3c790bde	0.015200583
97	0x3c784572	0.015153276
98	0x3c91da50	0.017804295
99	0x3c8be953	0.017079031
100	0xbce75740	-0.028239846
101	0xbcf30508	-0.029665485
102	0xbced5048	-0.028968945
103	0xbce2e341	-0.027696254
104	0xbcf16684	-0.029467829
105	0xbcf35094	-0.029701509
106	0xbce8d1b9	-0.028420316
107	0xbcecbede	-0.028899606
108	0xbce10eef	-0.027472941
109	0xbcfa1e67	-0.030532075
110	0xbcf25d7b	-0.02958559
111	0xbce59c74	-0.028028704
112	0xbce9eb41	-0.02855456
113	0xbce83a2e	-0.028348055
114	0xbce477ba	-0.027889121
115	0xbceb0304	-0.028687961
116	0xbcdb2158	-0.026749298
117	0xbce92355	-0.02845923
118	0xbcd351f2	-0.02579591
119	0xbcf8d4a9	-0.030374842
120	0xbcdfeaac	-0.02733358
121	0xbcee6257	-0.029099626
122	0xbce08227	-0.027405811
123	0xbce376c3	-0.027766591
124	0xbce47799	-0.02788906
125	0xbcef15f9	-0.029185282
126	0xbce742ae	-0.028230038
127	0xbce7d037	-0.028297527
128	0xbcd85529	-0.026407795
129	0xbcecca95	-0.028905192
130	0xbcf5b6cd	-0.029994393
131	0xbcfda8f5	-0.030964354
132	0xbcfbcbc7	-0.030736817
133	0xbcf61df4	-0.03004358
134	0xbcff5bf2	-0.031171773
135	0xbcfbf86f	-0.03075811
136	0xbcf46d21	-0.029837193
137	0xbcfcfbbc	-0.030881755
138	0xbce79888	-0.028270975
139	0xbcf05edd	-0.02934211
140	0x3c8f2ccd	0.017477417
141	0x3c8a549d	0.01688605
142	0x3c8ceb1c	0.017201953
143	0x3c9199d2	0.017773543
144	0x3c6e3e50	0.014541224
145	0x3ca6c563	0.020357793
146	0x3c21b408	0.009869583
147	0x3c31605e	0.010826198
148	0x3c88decd	0.016707802
149	0x3c957d37	0.018248184
150	0x3ce24b6d	0.027623856
151	0x3ce23e20	0.027617514
152	0x3ce3509b	0.027748397
153	0x3cd3e420	0.025865614
154	0x3cde791e	0.027157363
155	0x3ce17cc4	0.027525313
156	0x3cd7becd	0.026336098
157	0x3ce8fa1d	0.028439576
158	0x3cc015ea	0.02344795
159	0x3cd72f66	0.026267719
160	0x3cd23847	0.0256616
161	0x3ccf6208	0.0253153
162	0x3cc65b06	0.024213325
163	0x3cc850a2	0.024452511
164	0x3ccbc8ce	0.024876025
165	0x3cda941d	0.026681954
166	0x3cc67028	0.024223402
167	0x3cc45dc3	0.02397049
168	0x3cb7e6a1	0.02244884
169	0x3cc8ca92	0.024510656
170	0x3cb2f54a	0.021845479
171	0x3cae3055	0.02126328
172	0x3cb49a70	0.022046298
173	0x3cc3dfc7	0.023910416
174	0x3ca10244	0.0196544
175	0x3ccbb168	0.024864867
176	0x3c8c6130	0.017136186
177	0x3c8bfdd6	0.017088812
178	0x3cc1c75a	0.023654629
179	0x3caccc37	0.021093471
180	0xbcb24980	-0.021763563
181	0xbc9380d9	-0.018005775
182	0xbca5ccb3	-0.02023921
183	0xbcb7c583	-0.022433048
184	0xbc8d4984	-0.017246969
185	0xbcbe776f	-0.02325031
186	0xbc80b00e	-0.01570895
187	0xbc8cd4f9	-0.017191397
188	0xbc93e3e7	-0.018053008
189	0xbc932a18	-0.017964408
190	0xbb5ba73e	-0.0033516432
191	0x3becadf8	0.007222887
192	0x3b6dc39b	0.003627992
193	0xb8fb6e45	-0.00011989152
194	0x3b0e6458	0.002172729
195	0x3a73e7f0	0.0009304276
196	0x3c144cbb	0.009051497
197	0x3bdbd142	0.006708295
198	0xbb4638b8	-0.003024621
199	0xbba3fff9	-0.0050048796

layers.1.egnn.edge_mlp.0.bias f4 [20]
0	0x3d35249e	0.044224374
1	0xbe6adf83	-0.22936825
2	0x3e76f47d	0.24116702
3	0x3e81d364	0.2535659
4	0xbc6d6392	-0.014489071
5	0x3e71ff11	0.23632456
6	0x3d681fb2	0.056670852
7	0xbe5bd7a0	-0.21468973
8	0x3e850cad	0.25986233
9	0xbd691f3b	-0.05691455
10	0x3e3aaf12	0.18230847
11	0x3e049822	0.12948659
12	0x3df4efa1	0.11959768
13	0x3e8c9d59	0.27463797
14	0xbd8e611e	-0.069521174
15	0xbe20764b	-0.15670125
16	0xbdc09bdc	-0.09404728
17	0xbdac71a6	-0.08420114
18	0x3d63854b	0.05554704
19	0x3d63a8b4	0.05558081

layers.1.egnn.edge_mlp.3.weight f4 [16, 20]
0	0xb91d2cf0	-0.00014989427
1	0x3ba90953	0.0051585822
2	0xbbcd979f	-0.006274178
3	0xbbf0f802	-0.0073537836
4	0x3c81ae60	0.015830219
5	0xbbe92173	-0.007114583
6	0x3b5b9015	0.0033502628
7	0x3bd3ccca	0.0064636217
8	0xbbe42627	-0.006962556
9	0xbc05bdeb	-0.008162956
10	0xbb972ea7	-0.0046137157
11	0xbb3137a3	-0.0027041219
12	0xbb5f9ac3	-0.0034119345
13	0xbc22d711	-0.009938971
14	0xbb96511f	-0.004587307
15	0x3b67450a	0.0035288953
16	0xbaed471d	-0.0018102858
17	0xbbde1fbf	-0.006778687
18	0x3b9b9d16	0.0047489507
19	0x3acf71b4	0.0015826733
20	0x3a09b83a	0.0005253587
21	0x3b983ce8	0.0046459325
22	0xbbe88b6a	-0.0070966976
23	0xbbfd85a6	-0.0077368794
24	0x3c573d5b	0.013137187
25	0xbbc401f2	-0.005981677
26	0x3bb18509	0.0054174704
27	0x3baf3521	0.0053469096
28	0xbb9bb15d	-0.004751368
29	0xbc10ebe8	-0.008845307
30	0xbb92c76e	-0.0044793403
31	0xba77a81e	-0.00094473537
32	0xbb0b06ce	-0.0021213773
33	0xbbcde0f8	-0.006282922
34	0xbb809584	-0.0039240737
35	0x3b252c25	0.0025203314
36	0xbb6ab590	-0.0035813786
37	0xbbd95174	-0.0066320244
38	0x3bfb7a30	0.007674478
39	0x3b01f15d	0.0019827702
40	0xbb09fa0c	-0.002105358
41	0xbbdb2b4f	-0.0066885124
42	0x3bc66a07	0.00605512
43	0x3c03a01c	0.0080337785
44	0xbc67d2ce	-0.014149381
45	0x3bcb6a50	0.006207742
46	0xbbb22686	-0.0054367213
47	0xbbc4ef52	-0.0060099745
48	0x3c02b618	0.007977985
49	0x3bfbabd9	0.007680398
50	0x3bb6e299	0.0055812118
51	0x3b6d9bac	0.0036256118
52	0x3aef6260	0.0018263571
53	0x3bef7f44	0.0073088724
54	0x3ba9152c	0.0051599946
55	0xbb86b3c8	-0.004110787
56	0x3941bb18	0.00018475612
57	0x3c17f8f7	0.009275666
58	0xbb786ae4	-0.0037905509
59	0xbb30599e	-0.0026908885
60	0xbb89d3a4	-0.0042061377
61	0xbbd78c54	-0.0065780077
62	0x3bc84377	0.006111558
63	0x3ba90752	0.0051583434
64	0xbc6691ff	-0.014072894
65	0x3bbd4662	0.0057762126
66	0xbbe00b31	-0.0068372716
67	0xbbc6a809	-0.006062512
68	0x3bebab54	0.0071920548
69	0x3bfd0655	0.007721702
70	0x3b92ee95	0.0044840076
71	0x3aeb6d5d	0.001796167
72	0x3a9f923c	0.0012174319
73	0x3baa96ad	0.0052059502
74	0x3bf4d14a	0.0074712383
75	0xbaf810e2	-0.001892593
76	0x3b5b2b8e	0.0033442709
77	0x3c105267	0.008808709
78	0xbbc41066	-0.0059834
79	0xbb299656	-0.002587696
80	0xbb1a89c0	-0.002358064
81	0x3c06b6f2	0.0082223285
82	0xbc015da9	-0.0078958655
83	0xbc099310	-0.008396879
84	0x3c942420	0.018083632
85	0xbc1fca47	-0.0097528165
86	0x3b3612a8	0.0027782116
87	0x3c1918fe	0.0093443375
88	0xbbd83f96	-0.006599377
89	0xbbf7f4b8	-0.0075670145
90	0xbbbb9c10	-0.005725391
91	0xbb96b1c8	-0.00459883
92	0xbaedffaa	-0.0018157859
93	0xbc069aa1	-0.008215577
94	0xbb215a16	-0.0024620346
95	0x3b52c883	0.0032162971
96	0xbaf775ac	-0.0018879673
97	0xbbcebe6d	-0.0063093216
98	0x39f2d231	0.00046314442
99	0xba00c8ee	-0.00049127534
100	0xbc8b5e28	-0.01701267
101	0x3bd6af2e	0.0065516448
102	0xbbaebfb6	-0.0053329123
103	0xbb9966d9	-0.00468145
104	0xbbc180cc	-0.0059052464
105	0xbb545491	-0.0032399038
106	0xbc960b93	-0.018316066
107	0x3bb64600	0.005562544
108	0xbb7b5962	-0.0038352837
109	0x3ca4d8bb	0.020122876
110	0xbbb953ec	-0.005655756
111	0xbc13c932	-0.009020137
112	0xbc04d072	-0.008106338
113	0xbb8705b4	-0.004120553
114	0x3cb3730e	0.021905448
115	0x3c08143f	0.008305608
116	0x3c44551e	0.011983184
117	0x3c899e1e	0.016799029
118	0xbc8e6557	-0.017382307
119	0xbc92efb7	-0.01793657
120	0xb8bec36d	-9.096307e-05
121	0x3bd00bda	0.006349069
122	0xbc11bbd7	-0.008894882
123	0xbc02d1c5	-0.007984583
124	0x3c7e9def	0.015540584
125	0xbc119003	-0.008884433
126	0x3b8f8d97	0.0043808925
127	0x3c095c4b	0.008383821
128	0xbc1f50ea	-0.009723881
129	0xbbde96b3	-0.006792867
130	0xbbad9d7d	-0.005298315
131	0xbb88f456	-0.0041795177
132	0xbb08a728	-0.0020851586
133	0xbc18ca85	-0.009325628
134	0xbb1a9601	-0.0023587944
135	0x3bb221e4	0.005436169
136	0xbade46c3	-0.0016958344
137	0xbbd24e58	-0.0064180307
138	0x3b9ec767	0.004845548
139	0x3a1da811	0.00060141186
140	0x3b4ba6c5	0.0031074744
141	0x3bcdc509	0.006279592
142	0xbbfe2c72	-0.007756763
143	0xbbc74e8b	-0.006082361
144	0x3c5a715b	0.01333269
145	0xbbfc75d3	-0.0077044754
146	0x3bab1fca	0.0052222954
147	0x3b9912bd	0.004671423
148	0xbbcd1fee	-0.00625991
149	0xbc0a7313	-0.008450287
150	0xbb49a045	-0.0030765694
151	0xbb1d835b	-0.0024034593
152	0xbb40913e	-0.0029383446
153	0xbbde576e	-0.006785325
154	0xbbc9d9b3	-0.006159985
155	0x3b666100	0.0035153031
156	0xbb361eec	-0.0027789427
157	0xbbe38d0c	-0.0069443043
158	0x3bbfca86	0.005853
159	0x3b2a86f0	0.002602037
160	0xbb3ba6e6	-0.0028633415
161	0x3bebf853	0.0072012334
162	0xbc238734	-0.009980965
163	0xbc0161c4	-0.007896844
164	0x3c7096a9	0.014684358
165	0xbc126ff5	-0.008937825
166	0x3b94e134	0.004543448
167	0x3bfb5c0a	0.007670884
168	0xbc216bb7	-0.009852341
169	0xbbb08f30	-0.005388163
170	0xbc0cf302	-0.008602859
171	0xbbaf9f90	-0.0053595975
172	0xbb68d4f4	-0.003552732
173	0xbc1bf709	-0.009519347
174	0xbb118593	-0.002220486
175	0x3b2986ca	0.0025867694
176	0xbb0391d9	-0.0020075946
177	0xbb9d908f	-0.0048084925
178	0x3c032c07	0.008006102
179	0xbabc4e34	-0.0014366568
180	0xba9008d4	-0.0010988959
181	0x3bcb9605	0.006212952
182	0xbbd08319	-0.0063632843
183	0xbbe52aed	-0.0069936425
184	0x3c644da1	0.013934524
185	0xbbdd02f4	-0.006744737
186	0x3bcc0603	0.0062263026
187	0x3bb19cff	0.0054203267
188	0xbbc65a35	-0.006053234
189	0xbbd3de94	-0.0064657424
190	0xbbc71243	-0.006075175
191	0xbb7c794f	-0.0038524454
192	0xbb1ebaa6	-0.0024220138
193	0xbbde1797	-0.0067777145
194	0xbbb790ac	-0.005601963
195	0x3b9d5ce7	0.0048023346
196	0xbb25b778	-0.0025286358
197	0xbc0ec16f	-0.00871311
198	0x3bee6dfa	0.007276294
199	0xba3a2198	-0.0007100343
200	0xbbc4054c	-0.0059820767
201	0xbb2c739e	-0.002631403
202	0x3b785dde	0.0037897746
203	0x3b4edaf7	0.0031563619
204	0xbc595d22	-0.0132668335
205	0x3b77232c	0.0037710173
206	0xbc1dd569	-0.0096334005
207	0xbb29073c	-0.0025791666
208	0x3b385f42	0.002813295
209	0x3c4ed058	0.012622915
210	0x3b0bf06a	0.0021353015
211	0xb968edd4	-0.00022213842
212	0xbb4a9d0c	-0.003091636
213	0x3baa0671	0.005188756
214	0x3c0836f4	0.008313883
215	0xba1536a2	-0.000569204
216	0x3b9b6c49	0.004743133
217	0x3c3975b1	0.011319564
218	0xbc148584	-0.009065036
219	0xbbf9058a	-0.0075995373
220	0x3aa1f830	0.0012357291
221	0x3b93e5c1	0.004513473
222	0xbbb04506	-0.005379322
223	0xbb9d7b16	-0.0048059328
224	0x3c7b7614	0.015347976
225	0xbbb50ff4	-0.0055255834
226	0x3bf58fa3	0.0074939295
227	0x3b36757b	0.002784102
228	0xbbcce483	-0.0062528267
229	0xbc0e7eb8	-0.008697204
230	0xbb8d8535	-0.004318858
231	0xbb20f2b4	-0.0024558725
232	0xbac48e6d	-0.001499606
233	0xbbb848ff	-0.005623936
234	0xbbae2f87	-0.0053157243
235	0x3b8acf35	0.004236127
236	0xbbad9805	-0.005297663
237	0xbc25be19	-0.010116124
238	0x3bfc5aa3	0.0077012344
239	0x3b850196	0.004059027
240	0xbb310058	-0.0027008262
241	0xbb98e3e0	-0.0046658367
242	0x3b7d7d62	0.003867947
243	0x3b965fde	0.004589065
244	0xbc356fd0	-0.011074021
245	0x3bcadb15	0.0061906674
246	0xbbefb999	-0.007315826
247	0xbbabe40d	-0.0052456916
248	0x3b8fc8bd	0.0043879435
249	0x3c107580	0.008817077
250	0x3b2d05ff	0.002640128
251	0x3a889ba8	0.0010422366
252	0x3ad7d298	0.001646596
253	0x3b9c728d	0.0047743977
254	0x3c1000ca	0.008789251
255	0xbb2524d6	-0.0025198958

layers.1.egnn.edge_mlp.3.bias f4 [16]
0	0xbdd4131d	-0.10355208
1	0xbe059309	-0.1304437
2	0x3e3f37c3	0.18673615
3	0x3db65eae	0.089047775
4	0xbe63193a	-0.22177592
5	0x3d3404d2	0.04394991
6	0xbe256bb8	-0.16154373
7	0xbd917d3f	-0.07103967
8	0xbe6ed05c	-0.2332167
9	0xbde46687	-0.11152368
10	0x3d875ac7	0.06609111
11	0xbdd12bf8	-0.102134645
12	0x3d64cce9	0.05585948
13	0x3e668586	0.22511873
14	0x3d44e127	0.048066285
15	0x3e53937a	0.20661727
