experiments/models/model_N20_batch64_lr0.001_fd4_b0.5.pth (torch, 30882 bytes, 32 tensors)

time_embedding.0.weight f4 [8, 1]
0	0xbf305042	-0.68872464
1	0xbde39375	-0.111121096
2	0xbeca2f7b	-0.3948935
3	0xbece1588	-0.40250802
4	0xbf4fa8b7	-0.81116813
5	0xbf537138	-0.82594633
6	0x3d35e840	0.044410944
7	0x3f49278b	0.7857596

time_embedding.0.bias f4 [8]
0	0xbf33d6ec	-0.7024982
1	0x3de7a0e3	0.113099836
2	0x3f30f8b4	0.6912949
3	0xbd45bde0	-0.048276782
4	0x3edc9549	0.43082646
5	0xbf512640	-0.8169899
6	0xbf587070	-0.84546566
7	0xbf37904b	-0.7170455

time_embedding.3.weight f4 [4, 8]
0	0x3c9e6904	0.019337185
1	0x3c5d5021	0.013507874
2	0xbcbb877f	-0.022891758
3	0xbe719975	-0.23593695
4	0xbd38deca	-0.045134343
5	0xbd7cb861	-0.061699275
6	0x3e0e49a5	0.1389528
7	0xbbf5a5be	-0.0074965646
8	0x3ea10d4a	0.3145545
9	0xbe083428	-0.13301146
10	0xbe5b48bf	-0.21414469
11	0x3e6616ec	0.22469682
12	0xbe34dda0	-0.17662668
13	0xbe2d7a59	-0.16941203
14	0xbc999022	-0.018745486
15	0x3da928ef	0.082597606
16	0x3ea0fd69	0.31443337
17	0xbe37eb43	-0.17960839
18	0xbcfd7923	-0.030941552
19	0x3e884a18	0.2661903
20	0x3e2fd9f0	0.1717298
21	0xbe2d0e8f	-0.16900085
22	0x3e128357	0.14307915
23	0x3e88c977	0.26716205
24	0x3eaff1e9	0.3436425
25	0xbe7e7e26	-0.2485281
26	0xbe803a35	-0.25044408
27	0xbe00e5b1	-0.1258762
28	0x3ea22ac1	0.31673244
29	0xbe4fbb7d	-0.20286365
30	0xbe4b0653	-0.19826631
31	0x3e33f24b	0.17572896

time_embedding.3.bias f4 [4]
0	0xbeab140e	-0.33413738
1	0xbd95a69a	-0.07307167
2	0xbe4254d7	-0.18977676
3	0xbd980cb1	-0.07424296

layers.0.egnn.edge_mlp.0.weight f4 [20, 10]
0	0xbd99f5a3	-0.075175546
1	0xbd0801a2	-0.033204682
2	0xbd9a1a28	-0.0752452
3	0xbd33b37b	-0.043872338
4	0xbda0238b	-0.07819279
5	0xbd0ef090	-0.034897387
6	0xbda63a63	-0.08116605
7	0xbd431426	-0.047626637
8	0xbbeb2766	-0.0071763275
9	0x3da5f838	0.081039846
10	0xbd666d07	-0.05625632
11	0x3db4d918	0.0883047
12	0xbcfc61a7	-0.030808283
13	0x3dee81c4	0.116458446
14	0xbd77eb9a	-0.06052742
15	0x3dd02e6c	0.10165104
16	0xbd0fbea5	-0.035093922
17	0x3e0e9d3c	0.13927168
18	0xbda695a3	-0.0813401
19	0x3dab7778	0.08372396
20	0xbe6ec7eb	-0.2331845
21	0xbe4b41fd	-0.19849391
22	0xbe7884fa	-0.24269477
23	0xbe5cd46a	-0.21565405
24	0xbe7343b4	-0.23756295
25	0xbe57e395	-0.2108291
26	0xbe821f5c	-0.2541455
27	0xbe7a1f7c	-0.24426073
28	0x3e1aead0	0.15128636
29	0x3e6b64c5	0.2298766
30	0xbeafb11e	-0.34314817
31	0xbe8febf3	-0.28109702
32	0xbeb06522	-0.34452158
33	0xbe968819	-0.2940071
34	0xbeb4bbbf	-0.3529949
35	0xbea04efb	-0.31310257
36	0xbebb1c07	-0.3654482
37	0xbeae1f5c	-0.340083
38	0x3e84a656	0.25908154
39	0x3eb242ee	0.34816688
40	0xbd915e62	-0.0709808
41	0xbcf723e5	-0.030168483
42	0xbd8c8bfa	-0.06862636
43	0xbd201e5f	-0.039091464
44	0xbd951061	-0.07278515
45	0xbcfb2f12	-0.030662093
46	0xbd9a14e4	-0.07523516
47	0xbd39bbb7	-0.045345034
48	0xbbf0b9f3	-0.0073463856
49	0x3da07817	0.07835405
50	0xbd9ffa9d	-0.078114726
51	0xbd23d820	-0.040001035
52	0xbda3085e	-0.0796058
53	0xbd58aa11	-0.052896563
54	0xbda39a00	-0.079883575
55	0xbd1c064d	-0.038091946
56	0xbdae12e2	-0.08499695
57	0xbd61e329	-0.055148277
58	0x3a2d5331	0.0006611823
59	0x3dafb73b	0.0857987
60	0x3da3ace1	0.079919584
61	0xbc1840c4	-0.009292785
62	0x3d8d9e0a	0.06914909
63	0xbc40a08b	-0.011757026
64	0x3da6f3e5	0.08151988
65	0xbcaae11d	-0.020859296
66	0x3d925f55	0.071470894
67	0xbcab8951	-0.020939501
68	0x3d417d67	0.047238734
69	0xbdc0ffd3	-0.094237946
70	0xbdbcc845	-0.09217886
71	0x3e0b1b30	0.1358459
72	0xbd61aa27	-0.05509391
73	0x3e335a39	0.17514886
74	0xbdc86166	-0.09784202
75	0x3e1a43a5	0.15064867
76	0xbd6b5d32	-0.057461925
77	0x3e4efbf3	0.20213298
78	0xbde6dc43	-0.1127248
79	0x3e081c28	0.13291991
80	0xbe4c14b7	-0.19929777
81	0x3e7f1891	0.24911715
82	0xbe0ba2cd	-0.13636322
83	0x3ea194ba	0.31558782
84	0xbe53954f	-0.20662425
85	0x3e835f06	0.25658435
86	0xbe13a710	-0.14419198
87	0x3ea4902b	0.3214124
88	0xbe226a7d	-0.15860935
89	0x3e826b0b	0.25472292
90	0xbd5dfeb2	-0.054197975
91	0xbdae1953	-0.08500924
92	0xbd8d4fdc	-0.068999976
93	0xbdeb4ef7	-0.11489671
94	0xbd6f5df3	-0.058439206
95	0xbdccc5f4	-0.09998694
96	0xbd9bcbd7	-0.07607239
97	0xbe15e2e1	-0.14637329
98	0x3d25887d	0.04041337
99	0x3d4aa2f4	0.04947181
100	0xbd8a489d	-0.06752131
101	0xbcbe1140	-0.023201585
102	0xbd85053a	-0.064951375
103	0xbcef67a8	-0.029224232
104	0xbd8daa86	-0.069172904
105	0xbca54e94	-0.02017907
106	0xbd9083b9	-0.07056374
107	0xbd018d4d	-0.031628896
108	0xbc762a6c	-0.015024763
109	0x3d9dd84b	0.0770727
110	0x3dffda52	0.12492813
111	0x3d714b44	0.05890967
112	0x3dfc954a	0.12333162
113	0x3d8e1a19	0.069385715
114	0x3e03ae93	0.12859564
115	0x3d67a3d7	0.056552734
116	0x3e01b578	0.12666881
117	0x3d975f5d	0.07391236
118	0xbc099405	-0.008397107
119	0xbe0e15c9	-0.13875498
120	0x3e200713	0.15627699
121	0x3de6eeb3	0.11275997
122	0x3e21c443	0.15797524
123	0x3e0242d4	0.12720805
124	0x3e2360e7	0.15954934
125	0x3defbe89	0.117062636
126	0x3e29a9c2	0.16568664
127	0x3e13849b	0.14406054
128	0xbd769a70	-0.060205877
129	0xbe291621	-0.16512348
130	0x3dc7cc40	0.097557545
131	0x3cc23423	0.023706501
132	0x3db94996	0.090472385
133	0x3cde7c9b	0.027159026
134	0x3dce24e0	0.10065627
135	0x3c830d23	0.015997475
136	0x3dc45549	0.09586579
137	0x3cd719c4	0.026257403
138	0x3cd06a57	0.025441332
139	0xbde2657b	-0.11054512
140	0xbd9e55a7	-0.07731181
141	0xbd15dc3b	-0.03658698
142	0xbd9cefc5	-0.0766292
143	0xbd3d72bb	-0.046251994
144	0xbd9e89bf	-0.07741117
145	0xbd0ce42e	-0.034397297
146	0xbda6f26a	-0.081517056
147	0xbd52e1ae	-0.051484756
148	0xbb9b670a	-0.004742508
149	0x3daa2a67	0.08308869
150	0x3e97397e	0.2953605
151	0x3eb07af2	0.344688
152	0x3e9ec603	0.31010446
153	0x3eb781af	0.35841128
154	0x3e97e824	0.29669297
155	0x3ebafe32	0.3652206
156	0x3ea29cb3	0.31760177
157	0x3ecb8a5b	0.39753994
158	0xbeb1efa2	-0.34753138
159	0xbe8d4518	-0.27591777
160	0xbda5ef39	-0.08102269
161	0xbd298236	-0.041383944
162	0xbda7a6da	-0.08186121
163	0xbd4cf453	-0.050037693
164	0xbdaaa95f	-0.08333086
165	0xbd2056a8	-0.03914514
166	0xbdb28828	-0.08717376
167	0xbd5bac4d	-0.053631116
168	0xbb945a32	-0.0045273537
169	0x3db1868a	0.086682394
170	0xbd78418a	-0.060609378
171	0xbc6dc34c	-0.014511894
172	0xbd703eb4	-0.05865355
173	0xbca62daa	-0.020285446
174	0xbd81ce29	-0.0633815
175	0xbc05cdd7	-0.008166752
176	0xbd80a089	-0.0628062
177	0xbcae693d	-0.021290416
178	0xbcbf0a7f	-0.023320435
179	0x3d93dda4	0.07220009
180	0x3dc49f1b	0.096006595
181	0x3cc37e02	0.023863796
182	0x3daf4d75	0.08559696
183	0x3cdaffca	0.026733298
184	0x3dc62c3d	0.096764065
185	0x3c8d9cfc	0.01728677
186	0x3dc197c0	0.09452772
187	0x3ce6d9c4	0.02818001
188	0x3cbce0ab	0.023056349
189	0xbdde6757	-0.10859554
190	0x3e17d00a	0.14825454
191	0x3db6df8f	0.08929359
192	0x3e1470ae	0.14496109
193	0x3dd33ab0	0.10313928
194	0x3e196843	0.14981179
195	0x3dbdffbe	0.092772946
196	0x3e1b70e8	0.15179789
197	0x3de9b4bb	0.11411425
198	0xbd346dde	-0.04405009
199	0xbe24580f	-0.16049217

layers.0.egnn.edge_mlp.0.bias f4 [20]
0	0x3eb24937	0.34821483
1	0x3e454049	0.19262804
2	0x3e46e5a7	0.19423543
3	0x3eabd275	0.33559003
4	0x3ea15f45	0.31517997
5	0x3eb7edcc	0.35923612
6	0xbe6f4e97	-0.23369823
7	0x3e8207b5	0.25396505
8	0x3eb7cabd	0.35896865
9	0xbc810550	-0.015749604
10	0x3e91ea61	0.2849913
11	0xbeaadf07	-0.3337328
12	0xbde79958	-0.11308545
13	0xbe8ebe29	-0.27879456
14	0x3eb8a93c	0.36066616
15	0xbe8b0a47	-0.27156278
16	0x3eca15cb	0.39469752
17	0x3e8475ff	0.25871274
18	0xbe81adc1	-0.25327876
19	0xbedbcac0	-0.42928123

layers.0.egnn.edge_mlp.3.weight f4 [16, 20]
0	0x3d2a1f8d	0.041533995
1	0x3da532e2	0.08066346
2	0x3df1156d	0.11771665
3	0x3e78e21d	0.24305005
4	0x3d1828ff	0.037148472
5	0x3d17fa75	0.03710409
6	0xbd4dbcce	-0.050228886
7	0x3ded584a	0.115891054
8	0x3e56f8fe	0.2099342
9	0xbcbe2b13	-0.023213899
10	0x3d1b0ed6	0.037855946
11	0xbd55072c	-0.052008793
12	0xbd4aa81f	-0.04947674
13	0xbd4648c9	-0.048409257
14	0x3d208494	0.039188936
15	0xbe63694e	-0.2220814
16	0x3d27b0dc	0.04094015
17	0x3d20d865	0.03926887
18	0xbd36f72c	-0.044669315
19	0xbd6a3786	-0.057181858
20	0x3d0aa039	0.033844206
21	0x3d9e8268	0.07739717
22	0x3de47f77	0.111571245
23	0x3e6c7df4	0.23094922
24	0x3d0ce4de	0.034397952
25	0x3d102ec8	0.035200864
26	0xbd467618	-0.048452467
27	0x3de8e80c	0.113723844
28	0x3e5481c1	0.20752622
29	0xbcc50150	-0.024048477
30	0x3d0ed5a4	0.034871712
31	0xbd4ebe62	-0.050474532
32	0xbd3a6a4e	-0.045511536
33	0xbd3d3fb3	-0.046203326
34	0x3d17c4d6	0.03705295
35	0xbe5a05bc	-0.2129125
36	0x3d196bcb	0.037456315
37	0x3d152fac	0.036422417
38	0xbd2cf172	-0.042222448
39	0xbd5ed491	-0.054401938
40	0xbd9ddf82	-0.07708646
41	0xbc7b18d4	-0.015325744
42	0xbedc9ae4	-0.43086922
43	0xbf0dc577	-0.5537943
44	0xbd96dca6	-0.07366304
45	0xbd9f5d38	-0.07781452
46	0x3d73a364	0.059481993
47	0xbc4bc7ca	-0.01243777
48	0xbb276bff	-0.0025546548
49	0xbd8d0774	-0.06886187
50	0xbd89d547	-0.067301326
51	0x3d9c028e	0.07617675
52	0x3e171618	0.14754522
53	0x3d8e8fcd	0.069610216
54	0xbd9c65bd	-0.076365925
55	0x3e881188	0.26575875
56	0xbd9ff2db	-0.07809993
57	0xbd7c46e0	-0.06159103
58	0x3d8ad3fa	0.067787126
59	0x3d91bcec	0.07116112
60	0xbd915ef0	-0.07098186
61	0xbc762554	-0.015023548
62	0xbede8570	-0.4346118
63	0xbf0d8695	-0.5528348
64	0xbd8bb9f8	-0.0682258
65	0xbd961db4	-0.07329884
66	0x3d62afbe	0.055343382
67	0xbc25e337	-0.010124973
68	0xbb3983f6	-0.0028307415
69	0xbd825106	-0.0636311
70	0xbd86b6ae	-0.06577812
71	0x3d9338b6	0.07188551
72	0x3e0a74a4	0.13521057
73	0x3d811778	0.063033044
74	0xbd947009	-0.072479315
75	0x3e7d0c8d	0.24711819
76	0xbd94d375	-0.07266895
77	0xbd742e83	-0.05961467
78	0x3d83c844	0.06434682
79	0x3d891210	0.06692898
80	0xbda72d2a	-0.08162911
81	0xbc8fc961	-0.01755208
82	0xbede2676	-0.43388718
83	0xbf0d8d37	-0.552936
84	0xbda179ba	-0.078845456
85	0xbda860a9	-0.082215615
86	0x3d836f8c	0.0641776
87	0xbc523557	-0.0128301
88	0xbb9c87fd	-0.0047769533
89	0xbd9a2ca6	-0.07528047
90	0xbd97a55f	-0.07404589
91	0x3da5400a	0.08068855
92	0x3e1ffde0	0.1562419
93	0x3d9bd71f	0.076093905
94	0xbda355c5	-0.079753436
95	0x3e8a7dca	0.27049094
96	0xbdab7fa1	-0.08373953
97	0xbd8e8a2d	-0.06959949
98	0x3d939703	0.072065376
99	0x3d9d91b4	0.07693806
100	0x3d2339d8	0.039850086
101	0x3d9bd3e1	0.07608772
102	0x3dfb5837	0.12272685
103	0x3e823eaf	0.2543845
104	0x3d233254	0.03984292
105	0x3d1fd9c9	0.039026055
106	0xbd59473a	-0.053046443
107	0x3dd636e2	0.10459687
108	0x3e2cf2c2	0.1688948
109	0xbd0065f5	-0.031347234
110	0x3d21debf	0.039519068
111	0xbd660d64	-0.056165114
112	0xbd4cc5a8	-0.049993187
113	0xbd509b20	-0.05092919
114	0x3d2676b2	0.04064054
115	0xbe74a9f7	-0.23892961
116	0x3d32530f	0.043536242
117	0x3d2c6849	0.04209164
118	0xbd510b78	-0.051036328
119	0xbd7840e8	-0.060608774
120	0x3d30994c	0.043114945
121	0x3d9e8d59	0.07741804
122	0x3e01d324	0.126782
123	0x3e841cae	0.2580313
124	0x3d1d2d3d	0.03837322
125	0x3d292397	0.041293707
126	0xbd563597	-0.0522972
127	0x3ddf4d32	0.10903396
128	0x3e30d067	0.17266999
129	0xbced211b	-0.02894645
130	0x3d2b2506	0.041783355
131	0xbd6d766d	-0.057974268
132	0xbd58c974	-0.052926496
133	0xbd597a8b	-0.05309538
134	0x3d292718	0.04129705
135	0xbe793e95	-0.2434028
136	0x3d35dcfa	0.044400193
137	0x3d31c266	0.043398283
138	0xbd4a4ef4	-0.0493917
139	0xbd81fe03	-0.06347277
140	0xbd8d5183	-0.06900313
141	0xbc29a02b	-0.010353128
142	0xbee01172	-0.4376331
143	0xbf0f0e4b	-0.55881184
144	0xbd83f029	-0.06442291
145	0xbd8ffbbd	-0.07030437
146	0x3d52db4b	0.051478665
147	0xbc166e09	-0.009181508
148	0x3a8596b2	0.0010192005
149	0xbd860fc2	-0.06545974
150	0xbd741765	-0.059592623
151	0x3d8c03ce	0.06836663
152	0x3e0a8896	0.13528666
153	0x3d81a1a3	0.06329658
154	0xbd8fb544	-0.070169955
155	0x3e7dd8b3	0.24789695
156	0xbd94b43b	-0.07260939
157	0xbd6c19c1	-0.05764175
158	0x3d7efcba	0.062252738
159	0x3d84b00a	0.06478889
160	0xbdceb13b	-0.10092398
161	0xbcc992b4	-0.024606086
162	0xbeba0d69	-0.36338356
163	0xbef6e5da	-0.48222238
164	0xbdc78310	-0.09741795
165	0xbdcf14e8	-0.101114094
166	0x3dad012b	0.084474884
167	0xbcc1a6fe	-0.023639198
168	0xbc90acd2	-0.017660532
169	0xbdbb5d0a	-0.09148605
170	0xbdc21344	-0.09476331
171	0x3dd6ec61	0.104943044
172	0x3e49edce	0.19719622
173	0x3dc63d82	0.096797004
174	0xbdcc6e84	-0.09982017
175	0x3e997378	0.29970908
176	0xbdd2a4d6	-0.10285346
177	0xbdb585dd	-0.08863423
178	0x3dc3ce33	0.09560814
179	0x3dc44099	0.095826335
180	0x3d298a70	0.04139179
181	0x3d9951c9	0.074863024
182	0x3e051c0c	0.1299898
183	0x3e842f77	0.25817463
184	0x3d1dc6ff	0.038519856
185	0x3d1772c2	0.036974676
186	0xbd4f912a	-0.05067555
187	0x3dd97af1	0.10619152
188	0x3e2e4ece	0.17022249
189	0xbcd24bd3	-0.025670921
190	0x3d26153c	0.040547594
191	0xbd5d90bf	-0.05409312
192	0xbd58099a	-0.05274353
193	0xbd54e3bc	-0.051974997
194	0x3d23252c	0.03983037
195	0xbe7a060c	-0.24416369
196	0x3d2c3342	0.04204107
197	0x3d27df7b	0.040984612
198	0xbd3dc563	-0.04633082
199	0xbd6f3a97	-0.058405485
200	0x3d0abb0f	0.0338698
201	0x3d9b3dd3	0.075801514
202	0x3dd7dff7	0.10540765
203	0x3e61c050	0.22046018
204	0x3ce98f38	0.028510675
205	0x3cef8066	0.02923603
206	0xbd2ccc42	-0.042186983
207	0x3de7ae25	0.11312512
208	0x3e57ca10	0.21073174
209	0xbcc67dfc	-0.024229996
210	0x3cf98853	0.030460512
211	0xbd31268a	-0.043249644
212	0xbd3adb6f	-0.045619424
213	0xbd2b62b9	-0.041842196
214	0x3cfee93e	0.031117078
215	0xbe537999	-0.20651855
216	0x3d03cd6c	0.032178327
217	0x3cffa658	0.031207249
218	0xbd1e2ad1	-0.03861505
219	0xbd4c4249	-0.049867902
220	0xbdc902ab	-0.09814962
221	0xbcae2442	-0.021257523
222	0xbec4c375	-0.38430372
223	0xbf0063b6	-0.50152147
224	0xbdc44ae5	-0.095845975
225	0xbdcff3d3	-0.10153928
226	0x3da96f56	0.08273189
227	0xbc99ff52	-0.018798504
228	0xbc59e101	-0.013298274
229	0xbdbe0a91	-0.09279359
230	0xbdbe898c	-0.09303579
231	0x3dcfc65d	0.10145257
232	0x3e48d0a0	0.19610834
233	0x3dc46b83	0.09590819
234	0xbdc9e57e	-0.09858225
235	0x3e97c66c	0.2964357
236	0xbdd0093d	-0.10158012
237	0xbdadcd67	-0.08486443
238	0x3dbf0771	0.09327591
239	0x3dc07cdc	0.09398815
240	0x3d20e175	0.039277513
241	0x3d9e2003	0.077209495
242	0x3dec5385	0.115393676
243	0x3e77c215	0.2419513
244	0x3d0834ad	0.03325336
245	0x3d1cf1f0	0.038316667
246	0xbd498ec2	-0.04920841
247	0x3de8453f	0.11341333
248	0x3e4e9ba7	0.20176564
249	0xbcd83c63	-0.026395982
250	0x3d1875e6	0.03722181
251	0xbd5a3178	-0.053269833
252	0xbd44ed12	-0.04807765
253	0xbd504661	-0.05084837
254	0x3d19d784	0.037559047
255	0xbe62b288	-0.22138417

layers.0.egnn.edge_mlp.3.bias f4 [16]
0	0x3dedcdd3	0.116115235
1	0x3dcacce7	0.09902363
2	0xbe152604	-0.14565283
3	0xbe420ae9	-0.18949474
4	0xbe061989	-0.13095678
5	0x3e82f17d	0.25574866
6	0x3e8c22e5	0.27370372
7	0xbe4391f4	-0.19098645
8	0xbdabbdb2	-0.08385791
9	0x3e800c06	0.25009173
10	0x3dba5470	0.090981364
11	0xbdb2fe4d	-0.0873991
12	0x3df6222b	0.12018236
13	0xbe25fe4f	-0.16210292
14	0xbe6930a1	-0.22772457
15	0xbdfa6dbf	-0.12227964

layers.0.egnn.node_mlp.0.weight f4 [8, 20]
0	0x3a821cc6	0.0009926788
1	0xbad9d3da	-0.0016618923
2	0xb9bbe109	-0.00035835084
3	0xba9655d5	-0.0011469672
4	0x3910b648	0.00013800815
5	0xba077a0f	-0.00051680295
6	0xba8a74e4	-0.00105634
7	0xb79cb283	-1.8679775e-05
8	0xb9e3543b	-0.0004335957
9	0xba2a23ad	-0.00064903015
10	0x3a6666de	0.0008789132
11	0x3a7ab5b2	0.0009563818
12	0x39ac9172	0.00032914762
13	0x380010a3	3.0533072e-05
14	0xbb054dc6	-0.0020340546
15	0xb995ccdb	-0.00028572124
16	0x399d103d	0.00029957472
17	0xb991933f	-0.00027766262
18	0xbaa13be5	-0.0012301175
19	0xba9ac553	-0.0011808075
20	0x39a9e894	0.00032407476
21	0xba416bb0	-0.00073784124
22	0xba6384b9	-0.000867914
23	0x3a87fe7c	0.0010375525
24	0x39b85a59	0.0003516253
25	0xba82e3b9	-0.000998608
26	0x3a6cbe51	0.0009031045
27	0x3a041725	0.0005038849
28	0x3b0deb38	0.0021655094
29	0xba0b565f	-0.00053152995
30	0xbb08e878	-0.0020890515
31	0x3a48e0cc	0.0007662892
32	0xba4f6a0b	-0.0007912225
33	0x37e3c53c	2.7152353e-05
34	0xb9d458af	-0.00040501865
35	0xbaab9e62	-0.0013093466
36	0xbb0e76f4	-0.0021738382
37	0x394a600a	0.00019299999
38	0x3a84db0f	0.0010136085
39	0xbaa5c514	-0.0012647235
40	0x3a174d3a	0.00057717005
41	0xbafef95e	-0.0019452979
42	0x396edd23	0.00022779829
43	0xbac0b865	-0.0014703391
44	0x39385511	0.00017579297
45	0x38dcb4ff	0.000105241306
46	0x3a271fb7	0.00063752703
47	0x3a934298	0.0011235056
48	0x39e54760	0.00043731462
49	0xb98263d3	-0.00024869907
50	0x3a6dd7b3	0.0009072974
51	0x3a328d08	0.00068111764
52	0xba88f26f	-0.0010448227
53	0x3749136f	1.1985058e-05
54	0x39e02ad4	0.0004275652
55	0xba6de1db	-0.00090744876
56	0x3b1d2e90	0.0023984052
57	0xba7c285f	-0.0009619053
58	0xbb0a2e99	-0.0021084903
59	0x3a58d17b	0.0008270961
60	0xb9b89061	-0.00035202786
61	0xb9b5342d	-0.00034561884
62	0xb9943cff	-0.00028274205
63	0xb9ca1a62	-0.000385481
64	0x3a5e6cda	0.0008484848
65	0x3a7119c5	0.00091972604
66	0x3998d961	0.0002915366
67	0xb9c4c417	-0.00037530132
68	0x39585c48	0.00020633743
69	0xbb0d50fd	-0.0021563165
70	0xbab5da47	-0.0013874256
71	0x3ac09c0f	0.0014694947
72	0x3a1248e9	0.00055803225
73	0x38d31afd	0.00010066291
74	0xba8fd4fb	-0.0010973507
75	0xb99d630d	-0.00030019172
76	0x3a958f3c	0.0011410485
77	0xbac2e60e	-0.0014869587
78	0x3a8069d7	0.0009797168
79	0xba2da9ac	-0.00066247093
80	0xbb07e243	-0.0020734228
81	0xba38c230	-0.0007047979
82	0x3a97d714	0.0011584484
83	0x3a922825	0.001115088
84	0xb9e26d68	-0.00043187593
85	0x39d662f8	0.00040890998
86	0xba9e1de6	-0.0012063354
87	0x3a9ab38d	0.0011802778
88	0xb929b7ee	-0.00016185615
89	0x3a8c95a1	0.0010725745
90	0x39db00e9	0.00041771613
91	0xba6398fa	-0.0008682158
92	0xba780db7	-0.0009462493
93	0x3a85b795	0.0010201806
94	0x3a3dbfed	0.0007238377
95	0xba661d9f	-0.00087782176
96	0xbaa11f78	-0.0012292704
97	0xba3420fc	-0.000687137
98	0x3a14b799	0.000567311
99	0xb8f03713	-0.0001145435
100	0xb906b1ee	-0.0001284552
101	0x3b03cf02	0.00201124
102	0x3a25182c	0.00062978524
103	0x3a278029	0.0006389642
104	0x3a8470db	0.0010104434
105	0xb984324f	-0.00025214485
106	0xb9bb4ca4	-0.0003572452
107	0xb9fe0e2a	-0.00048457208
108	0x3a8c478d	0.0010702476
109	0x37a8b266	2.0110234e-05
110	0xb9ef3862	-0.0004562764
111	0xb8f73223	-0.000117872165
112	0x398ea8f6	0.00027210236
113	0x39f97207	0.00047577938
114	0x394f9b4a	0.00019798908
115	0x3a59c76f	0.0008307611
116	0xb948814c	-0.00019121653
117	0x3ae99036	0.0017819467
118	0x394caa16	0.00019518318
119	0x39449448	0.00018747256
120	0x3afede67	0.0019444943
121	0xb86d6b2b	-5.660501e-05
122	0xba7d4fbe	-0.00096630666
123	0x3a88021d	0.0010376606
124	0x3ab77438	0.0013996428
125	0x3a8079e1	0.0009801948
126	0x39a3ff37	0.00031279933
127	0x3a7d0264	0.00096515403
128	0x3b56c4fc	0.003277122
129	0x3ab124c8	0.001351499
130	0xba22e420	-0.0006213803
131	0x39c9e0a7	0.00038505087
132	0xbaaceff7	-0.0013194074
133	0x399603a0	0.0002861293
134	0x3a81b333	0.0009895324
135	0x3aee85a8	0.0018197792
136	0x3a5a9952	0.00083388865
137	0x3adaf5a3	0.0016705286
138	0x3b07edd3	0.002074112
139	0xbaf6a8e1	-0.001881864
140	0x3a08eb8a	0.00052230863
141	0xb9be073d	-0.00036245017
142	0xba32024c	-0.00067905034
143	0xb8d51b75	-0.00010161746
144	0x3a56e662	0.0008197782
145	0x38db497b	0.000104564206
146	0xba85da63	-0.0010212179
147	0xb97c2285	-0.00024045452
148	0x3a35983d	0.00069272873
149	0x3a867b40	0.001026012
150	0xba25b321	-0.0006320943
151	0xb94846d5	-0.00019099873
152	0xba80e46e	-0.0009833702
153	0xba1da6a6	-0.0006013907
154	0x3a4077d7	0.0007342076
155	0x38c46af0	9.365927e-05
156	0xb9c0e1ad	-0.00036789235
157	0x3a856989	0.0010178547
158	0xb9d97b7a	-0.00041481463
159	0xba2a8834	-0.0006505281

layers.0.egnn.node_mlp.0.bias f4 [8]
0	0x3e1deee7	0.15423165
1	0x3db48ab0	0.08815515
2	0x3cc9b238	0.024621114
3	0xbe5ccd46	-0.2156268
4	0xbd610afa	-0.05494211
5	0x3d8c6895	0.06855885
6	0xbdaf9296	-0.08572881
7	0xbd03a144	-0.032136217

layers.0.egnn.node_mlp.3.weight f4 [4, 8]
0	0xb9128371	-0.00013972611
1	0x3984bd58	0.00025318074
2	0x39830b4b	0.0002499468
3	0x38c2f688	9.296561e-05
4	0xb9c3483f	-0.00037247126
5	0xb98073f2	-0.00024500448
6	0x3a63d2bb	0.0008690764
7	0x3a250b7a	0.00062959606
8	0x3acc3506	0.0015579767
9	0x3a58cdd6	0.0008270418
10	0xba90c0a2	-0.0011043737
11	0x3a9c9b66	0.0011948168
12	0x38892aff	6.540678e-05
13	0x3a269285	0.00063542306
14	0xbabdc336	-0.0014477733
15	0x394e7d71	0.00019692421
16	0x383e8318	4.542162e-05
17	0xba99e250	-0.001174042
18	0x3a2a34f3	0.00064928754
19	0x39bab37e	0.00035610417
20	0x3a536899	0.00080645975
21	0xb8c828c2	-9.544335e-05
22	0x3a2c2818	0.0006567254
23	0x39e23967	0.00043148847
24	0xba478a12	-0.00076118216
25	0xba2aa2a9	-0.00065092236
26	0xb9a4cf16	-0.0003143481
27	0x3a89c749	0.0010511662
28	0xba301d0f	-0.0006718197
29	0xba20fc17	-0.000614108
30	0xb9d9065a	-0.00041394198
31	0x3a430cd7	0.0007440573

layers.0.egnn.node_mlp.3.bias f4 [4]
0	0x3e5506ac	0.20803326
1	0xbeb180b1	-0.34668496
2	0xbd3303db	-0.04370485
3	0xbe14c88f	-0.14529632

layers.0.egnn.coors_mlp.0.weight f4 [64, 16]
0	0xbd000ddd	-0.03126322
1	0xbd0801fa	-0.03320501
2	0x3d3db015	0.046310503
3	0x3d1944d3	0.03741915
4	0x3d5f6e55	0.05454858
5	0xbcb606ed	-0.0222201
6	0xbcc257b0	-0.023723453
7	0x3d20c06f	0.03924602
8	0x3da8d3df	0.08243536
9	0xbcc357ff	-0.02384567
10	0xbd0ff109	-0.03514198
11	0x3da864c3	0.08222344
12	0xbd010560	-0.031499267
13	0x3d32a553	0.043614697
14	0x3d0d915c	0.034562454
15	0x3d6bed9c	0.05759965
16	0xbd519934	-0.051171497
17	0xbd5e17d7	-0.054221954
18	0x3d4d39b3	0.050103854
19	0x3d204247	0.039125707
20	0x3d581934	0.05275841
21	0xbd068805	-0.032844562
22	0xbd055bd8	-0.032558292
23	0x3d1d751f	0.038441774
24	0x3dacc8a3	0.08436706
25	0xbd169fb2	-0.03677339
26	0xbd68a390	-0.05679661
27	0x3da6ffe5	0.08154277
28	0xbd50f58d	-0.051015425
29	0x3d3d10d1	0.046158615
30	0x3d0e75d1	0.034780327
31	0x3d7266d9	0.059180114
32	0x3de0ee36	0.10982935
33	0x3df105be	0.11768673
34	0xbe3b4838	-0.18289268
35	0xbe2f3207	-0.17108928
36	0xbe3fc5d3	-0.18727808
37	0x3daa08d0	0.08302462
38	0x3da74648	0.08167702
39	0xbe3028bc	-0.17203039
40	0xbe53df3f	-0.2069063
41	0x3da7cc1f	0.0819323
42	0x3dfa9994	0.12236324
43	0xbe52ddd8	-0.20592439
44	0x3dda4451	0.106575616
45	0xbe385bbb	-0.18003742
46	0xbe280494	-0.16407996
47	0xbe45130a	-0.19245544
48	0xbd44b5b7	-0.04802486
49	0xbd4f5895	-0.050621588
50	0x3d4bcd57	0.049756374
51	0x3d1d2faf	0.038375553
52	0x3d5b5769	0.053550158
53	0xbd039121	-0.032120828
54	0xbd0303b2	-0.031985946
55	0x3d30ae70	0.043135107
56	0x3dabea8b	0.08394345
57	0xbd0c60c0	-0.034271955
58	0xbd5727f9	-0.052528355
59	0x3da70f57	0.08157223
60	0xbd387849	-0.045036588
61	0x3d3dc3ca	0.046329297
62	0x3d1d8a7b	0.038462143
63	0x3d72d211	0.059282366
64	0x3cc42d11	0.02394727
65	0x3cda14f1	0.026621314
66	0xbd6769d2	-0.056497402
67	0xbd3d2720	-0.04617989
68	0xbd7783f8	-0.06042859
69	0x3cbbc02b	0.022918781
70	0x3cb101df	0.021607338
71	0xbd3b5e69	-0.045744333
72	0xbdab818b	-0.08374318
73	0x3cb3a117	0.0219274
74	0x3ce9373b	0.028468719
75	0xbdab0e8e	-0.083523855
76	0x3cc09489	0.023508327
77	0xbd55462c	-0.052068874
78	0xbd271183	-0.040788185
79	0xbd877eb4	-0.066159636
80	0x3cb1f2ae	0.021722164
81	0x3cb784ad	0.022402132
82	0xbd663976	-0.056207143
83	0xbd3fa6a1	-0.04678977
84	0xbd799198	-0.060929865
85	0x3ca30c98	0.019903466
86	0x3c9dddd4	0.019270815
87	0xbd4040b9	-0.046936724
88	0xbdac6900	-0.08418465
89	0x3c98ed73	0.018667912
90	0x3cc55185	0.024086723
91	0xbdaddc0e	-0.08489238
92	0x3ca8f75a	0.020625759
93	0xbd53694f	-0.051614102
94	0xbd2dbfbc	-0.04241918
95	0xbd835c8e	-0.06414138
96	0x3cab1242	0.02088273
97	0x3cb96547	0.0226313
98	0xbd632fc3	-0.05546547
99	0xbd3e425f	-0.046450015
100	0xbd6e95a4	-0.058248177
101	0x3c8ff3d5	0.017572323
102	0x3ca1cae2	0.019750062
103	0xbd3ccd64	-0.046094313
104	0xbdab7f8c	-0.08373937
105	0x3c911060	0.017708004
106	0x3ccbd3d0	0.024881274
107	0xbdac2764	-0.08405951
108	0x3cac51c2	0.021035079
109	0xbd4c783c	-0.049919352
110	0xbd226b18	-0.039652914
111	0xbd84304c	-0.064545244
112	0xbd3f5f10	-0.046721518
113	0xbd479b5d	-0.04873215
114	0x3d4adc38	0.049526423
115	0x3d2b3ec3	0.0418079
116	0x3d63ddc2	0.055631407
117	0xbd05a408	-0.032627136
118	0xbd029118	-0.031876653
119	0x3d2ef125	0.042710442
120	0x3db47827	0.0881198
121	0xbd095c1d	-0.03353511
122	0xbd54fc7d	-0.051998604
123	0x3dacc019	0.08435077
124	0xbd31fa27	-0.043451454
125	0x3d48a316	0.048983656
126	0x3d190481	0.03735781
127	0x3d74c00a	0.059753455
128	0xbd45d01f	-0.048294183
129	0xbd53a973	-0.05167527
130	0x3d4b71a6	0.04966893
131	0x3d21d27e	0.03950738
132	0x3d53f445	0.051746625
133	0xbd0bfb42	-0.034175165
134	0xbd080011	-0.03320319
135	0x3d2c0c71	0.042004053
136	0x3da60bd4	0.08107725
137	0xbd13f06f	-0.036117967
138	0xbd54419d	-0.051820386
139	0x3da353f0	0.07974994
140	0xbd3ff83f	-0.046867605
141	0x3d389373	0.045062494
142	0x3d197a63	0.037470233
143	0x3d689b3e	0.056788675
144	0xbcf54738	-0.029941186
145	0xbcfbe190	-0.030747205
146	0x3d46664e	0.04843741
147	0x3d159a8c	0.03652434
148	0x3d57fe06	0.05273249
149	0xbcafe6b5	-0.021472314
150	0xbcb478f0	-0.022030324
151	0x3d249486	0.040180705
152	0x3db12e23	0.08651378
153	0xbcca0ee2	-0.0246653
154	0xbd09487b	-0.03351639
155	0x3dac6bd7	0.08419006
156	0xbced3087	-0.028953804
157	0x3d32cf2d	0.04365461
158	0x3d073173	0.033006143
159	0x3d768aa6	0.06019082
160	0xbd4f95d0	-0.05067998
161	0xbd69ae7a	-0.05705116
162	0x3d469a91	0.04848725
163	0x3d237af1	0.039912168
164	0x3d55d0fe	0.052201264
165	0xbd127f52	-0.035765953
166	0xbd07ffeb	-0.033203047
167	0x3d2538d0	0.040337384
168	0x3da7715e	0.0817592
169	0xbd0f1ef2	-0.03494162
170	0xbd6c7ade	-0.057734363
171	0x3da10089	0.0786143
172	0xbd49b577	-0.049245324
173	0x3d3761f8	0.044771165
174	0x3d11cbb5	0.03559466
175	0x3d604fce	0.054763608
176	0x3ccb8608	0.024844185
177	0x3cd4fa12	0.025998149
178	0xbd551261	-0.05201948
179	0xbd30a950	-0.04313022
180	0xbd607258	-0.054796547
181	0x3cb4f64c	0.0220901
182	0x3cc7e8a5	0.024402926
183	0xbd33110d	-0.043717433
184	0xbda41b6a	-0.08013041
185	0x3cbc01ee	0.022950139
186	0x3ce67bd4	0.028135218
187	0xbda22ce4	-0.079187185
188	0x3cc486ee	0.02399012
189	0xbd442899	-0.04789028
190	0xbd1f8747	-0.03894737
191	0xbd76046c	-0.06006281
192	0x3c838631	0.016055198
193	0x3c861c38	0.016370878
194	0xbd5e0d2a	-0.054211773
195	0xbd2de88d	-0.042458106
196	0xbd68afff	-0.056808468
197	0x3c7a27c0	0.015268266
198	0x3c6644d4	0.014054496
199	0xbd3e5c26	-0.0464746
200	0xbd9fe070	-0.0780648
201	0x3c51da65	0.012808417
202	0x3c99b214	0.018761672
203	0xbda0d016	-0.07852189
204	0x3c6a35ad	0.014295024
205	0xbd48778b	-0.04894213
206	0xbd1f7106	-0.038926147
207	0xbd8000d3	-0.06250157
208	0x3ca632c0	0.020287871
209	0x3cafbff2	0.021453831
210	0xbd6c6969	-0.057717714
211	0xbd432833	-0.04764576
212	0xbd7ab016	-0.061203085
213	0x3c997270	0.018731326
214	0x3c9ff6ab	0.0195268
215	0xbd3e7da1	-0.046506528
216	0xbdad80ee	-0.08471857
217	0x3c8fc036	0.017547708
218	0x3cc47dda	0.023985792
219	0xbdadc2e9	-0.08484442
220	0x3ca0e8f6	0.019642334
221	0xbd55adac	-0.05216758
222	0xbd300453	-0.042972874
223	0xbd86dafe	-0.06584738
224	0x3cd00b2b	0.02539595
225	0x3ce73839	0.028225051
226	0xbd654b6b	-0.055980127
227	0xbd31d773	-0.04341836
228	0xbd719125	-0.05897631
229	0x3cd3ba31	0.025845619
230	0x3cc37870	0.02386114
231	0xbd3ea81f	-0.04654705
232	0xbdaa6934	-0.08320847
233	0x3cc5a89c	0.02412825
234	0x3cea4ad9	0.028600143
235	0xbda77e44	-0.0817838
236	0x3cd1617f	0.025559185
237	0xbd556c76	-0.05210539
238	0xbd299000	-0.041397095
239	0xbd84a245	-0.06476263
240	0x3cd91e1a	0.026503611
241	0x3ccb8daa	0.024847824
242	0xbd5ee3e0	-0.054416537
243	0xbd391a65	-0.045191187
244	0xbd7240c8	-0.05914381
245	0x3cb4d6ba	0.022075046
246	0x3cbff07d	0.023430103
247	0xbd400b1e	-0.046885602
248	0xbdac57fb	-0.084152184
249	0x3ca9cd9c	0.020727925
250	0x3cde3941	0.02712691
251	0xbdab084b	-0.08351191
252	0x3ccc2d43	0.024923926
253	0xbd59c538	-0.053166598
254	0xbd2de15b	-0.042451244
255	0xbd81791e	-0.063219294

layers.0.egnn.coors_mlp.0.bias f4 [64]
0	0xbcab9fc9	-0.020950215
1	0xbe2c4387	-0.16822635
2	0x3dbc3be6	0.09191112
3	0xbd8da293	-0.06915774
4	0x3df111af	0.11770951
5	0x3d805ba7	0.06267481
6	0x3d83b230	0.06430471
7	0xbd5d59da	-0.054040767
8	0xbdb42280	-0.08795643
9	0xbd072d0e	-0.033001952
10	0xbe3fa9b5	-0.18717082
11	0x3e8713b5	0.26382223
12	0x3ccf5ddd	0.025313312
13	0x3d77d91b	0.060509782
14	0x3e80d51f	0.25162598
15	0x3ded0b38	0.115744054
16	0xbe62a935	-0.2213486
17	0x3e4087ae	0.18801758
18	0x3d517177	0.0511336
19	0xbdb4e106	-0.08831982
20	0x3df23003	0.11825564
21	0xbdd73107	-0.10507398
22	0x3e33cf86	0.17559633
23	0xbdcb4caf	-0.099267356
24	0xbde9561b	-0.113933764
25	0x3de228a5	0.110429086
26	0xbccddc81	-0.025129559
27	0x3e5cb8fe	0.21554944
28	0x3e6a4652	0.22878388
29	0x3e058343	0.13038354
30	0xbe19801d	-0.14990278
31	0x3e599c41	0.21251012
32	0x3e585704	0.21126944
33	0x3e8b2a37	0.27180645
34	0x3d891361	0.06693149
35	0xbde657b6	-0.11247198
36	0x3e4f98fc	0.20273203
37	0xbe147c17	-0.14500462
38	0xbcf13c58	-0.02944772
39	0xbd9358cb	-0.0719467
40	0xbe8c0fb2	-0.27355725
41	0x3d425908	0.047448188
42	0xbe850dc8	-0.25987077
43	0xbe0cd184	-0.13751799
44	0xbe1c5033	-0.15264969
45	0x3e2744a6	0.16334781
46	0x3e4822c8	0.19544518
47	0x3d834e0c	0.06411371
48	0x3de1af13	0.11019721
49	0x3d0c1dc0	0.03420806
50	0xbe87119a	-0.26380616
51	0x3dd3df84	0.103453666
52	0x3e712650	0.23549771
53	0x3e04fd03	0.12987141
54	0x3e046685	0.12929733
55	0xbe878ee9	-0.2647622
56	0x3d0e2ffd	0.034713734
57	0xbe2ffaa0	-0.1718545
58	0xbdeb8d4c	-0.115015596
59	0x3e3b8197	0.18311153
60	0x3e01877b	0.12649338
61	0x3e48b6b5	0.19600947
62	0xbe886e3a	-0.26646596
63	0x3d80ed8a	0.06295307

layers.0.egnn.coors_mlp.3.weight f4 [1, 64]
0	0x3cdf08da	0.0272259
1	0x3ca1b971	0.019741746
2	0xbdc8ba29	-0.09801132
3	0x3cc11cbc	0.023573272
4	0xbcb439ea	-0.022000272
5	0xbcbead65	-0.02327604
6	0xbcbe3779	-0.02321981
7	0x3cc837cb	0.024440667
8	0x3cbf65db	0.023363998
9	0x3cbdd6a1	0.023173632
10	0x3ca7dd36	0.020491224
11	0xbcb4cf60	-0.02207154
12	0xbce761e5	-0.028244922
13	0xbcbb9ccf	-0.02290192
14	0xbcae5a24	-0.021283217
15	0xbcb455a4	-0.022013493
16	0x3cade377	0.021226628
17	0xbcafcc6e	-0.021459784
18	0xbcd01293	-0.025399482
19	0x3cb0e0a8	0.0215915
20	0xbcb45203	-0.022011762
21	0x3cb5f4ad	0.022211397
22	0xbcae04ac	-0.021242462
23	0x3caf73b1	0.02141747
24	0x3cb34b69	0.021886544
25	0xbca43395	-0.020044127
26	0x3cff9373	0.031198239
27	0xbcb4f116	-0.022087615
28	0xbca20b4b	-0.019780776
29	0xbca2b95d	-0.019863779
30	0x3cae61da	0.021286894
31	0xbcabda5e	-0.020978149
32	0xbcaf4a25	-0.02139766
33	0xbcae4e0f	-0.021277456
34	0xbcb71bef	-0.022352187
35	0x3cc0a7e2	0.023517553
36	0xbcb1a613	-0.021685636
37	0x3c9df073	0.019279694
38	0x3cd4b4f6	0.025965195
39	0x3cbf9388	0.023385778
40	0x3cb0188e	0.021496084
41	0xbcbc7998	-0.0230072
42	0x3cab535a	0.020913769
43	0x3cac8d54	0.021063484
44	0x3ca99684	0.020701654
45	0xbcb51ab5	-0.022107461
46	0xbcbf97f2	-0.023387883
47	0xbcc8d1d5	-0.024514118
48	0xbca2cc7e	-0.0198729
49	0xbccd666b	-0.02507325
50	0x3ca70ca1	0.020391764
51	0xbcb3d9aa	-0.021954376
52	0xbcb2ac3c	-0.021810643
53	0xbcab37e8	-0.020900682
54	0xbcbe8a7d	-0.023259396
55	0x3caef5d4	0.021357454
56	0xbcc54425	-0.024080345
57	0x3cb5cf3f	0.02219355
58	0x3ca9bcf3	0.02071998
59	0xbcb2f29d	-0.021844203
60	0xbcb3918e	-0.021919992
61	0xbc9b462a	-0.018954355
62	0x3ca77f73	0.020446515
63	0xbcc8f6b7	-0.024531705

layers.0.egnn.vel_mlp.0.weight f4 [16, 4]
0	0xb9bb0bb5	-0.00035676142
1	0xb8df206a	-0.00010639506
2	0xbb50b75e	-0.0031847577
3	0x3ac1ebb2	0.0014794974
4	0x3a964dca	0.0011467275
5	0x3a86a5cb	0.0010272799
6	0xbb7d17c6	-0.0038618906
7	0xbabf0519	-0.0014573663
8	0xb98281d8	-0.00024892273
9	0xb9d9de27	-0.00041554982
10	0x3b812f5e	0.003942414
11	0xbb3d9914	-0.0028930353
12	0x3a508742	0.00079547253
13	0x3a17ce6d	0.0005790953
14	0x3b7e1742	0.0038771187
15	0xba998afe	-0.0011714397
16	0xbb23dad8	-0.0025002267
17	0xba078efa	-0.00051711465
18	0xbb6df520	-0.0036309436
19	0x3b3ef082	0.0029135053
20	0xba2f09d0	-0.00066771824
21	0x3a5d95b3	0.0008452788
22	0x3b9214fa	0.004458067
23	0xbb2eac2d	-0.0026652918
24	0x3b4a6b06	0.0030886545
25	0x39e31c4f	0.00043317906
26	0x3b1435f9	0.0022615178
27	0xbb212c70	-0.0024593137
28	0x3aa94511	0.001291426
29	0x37ed8699	2.8315279e-05
30	0x3b551252	0.003251214
31	0xbb0836f0	-0.0020784698
32	0xbb91b368	-0.0044464357
33	0xbb27166b	-0.002549554
34	0xbb990da7	-0.004670817
35	0x3af7eb45	0.001891472
36	0xbb1a7165	-0.0023566124
37	0x39ca1f51	0.00038551775
38	0xbb1b3f1d	-0.0023688741
39	0x3b39099b	0.0028234485
40	0x3b91a932	0.0044452185
41	0x3a5c708a	0.00084091036
42	0x3b80ccf6	0.0039306832
43	0xbb039895	-0.002007996
44	0x3a093fe1	0.0005235654
45	0xb9ad615c	-0.0003306967
46	0x39b98d16	0.00035391067
47	0xbad66d8c	-0.0016359552
48	0x3acb0fed	0.0015492417
49	0x38cb1885	9.6843614e-05
50	0x3b68f3d1	0.0035545717
51	0xbb143796	-0.002261614
52	0x3a07cf75	0.0005180755
53	0xba93e078	-0.0011282107
54	0x3b442bbd	0.0029933297
55	0xbb12fc26	-0.0022428124
56	0xb9e84ce6	-0.00044307782
57	0xba4d2558	-0.0007825694
58	0xba7ca219	-0.00096371915
59	0x3aca3180	0.0015426129
60	0xbb026cfe	-0.001990139
61	0xbafdcd7f	-0.0019363611
62	0xbb5968bd	-0.0033174
63	0x3b167dc6	0.002296315

layers.0.egnn.vel_mlp.0.bias f4 [16]
0	0x3ee023f6	0.43777436
1	0xbe8f25e2	-0.2795859
2	0xbc48d3f4	-0.012257565
3	0x3ccf2fef	0.025291411
4	0xbecd94e3	-0.40152654
5	0x3e34d219	0.17658271
6	0x3eba051a	0.36332017
7	0x3effa459	0.49930075
8	0x3ebef51a	0.37296373
9	0x3ec6dd37	0.3884065
10	0x3d4d1344	0.0500672
11	0x3ede6ca1	0.43442252
12	0xbee0ad8d	-0.4388241
13	0x3caa4f92	0.020789895
14	0xbd6a37ca	-0.05718211
15	0xbea92953	-0.3303934

layers.0.egnn.vel_mlp.3.weight f4 [1, 16]
0	0x3ac04e66	0.0014671802
1	0xba1845ef	-0.0005808761
2	0xba02c037	-0.00049877487
3	0xba40b991	-0.00073518703
4	0x3afe4dbf	0.0019401832
5	0xba3f6c6a	-0.0007302227
6	0xba7a200b	-0.0009541518
7	0xba7e5092	-0.0009701337
8	0x3b2386e8	0.0024952237
9	0x3ac06f34	0.0014681579
10	0xbaab940f	-0.001309039
11	0x3976c920	0.00023535313
12	0xba5b174b	-0.0008357658
13	0x39c02367	0.0003664747
14	0x39ba2fd7	0.00035512328
15	0x3a9785ff	0.001156032

layers.1.egnn.edge_mlp.0.weight f4 [20, 10]
0	0xbb3e88b8	-0.002907319
1	0x3afab0bb	0.0019126156
2	0xb9dcf4bb	-0.00042144008
3	0x3b881072	0.004152351
4	0xbb81239e	-0.0039410135
5	0xbc13f0ce	-0.00902958
6	0xbba2cbd6	-0.004968147
7	0xbc445112	-0.011982219
8	0x3aeba977	0.0017979582
9	0x3b5dc7e6	0.0033841073
10	0x3bb6cecc	0.0055788513
11	0x3c1518a3	0.009100112
12	0x3be33502	0.0069338093
13	0x3c15a72e	0.009134097
14	0x3b23eb1c	0.0025011962
15	0xba370d11	-0.0006982843
16	0x389693a4	7.1800576e-05
17	0xbb4f5a42	-0.0031639491
18	0xbbc19687	-0.005907837
19	0xbb3513ff	-0.0027630327
20	0x3b825d39	0.003978398
21	0xbb154c74	-0.0022781165
22	0x3aa3c309	0.0012494038
23	0xbaebb35a	-0.0017982528
24	0x3bcce463	0.0062528118
25	0x3c175e89	0.0092388475
26	0x3c09909b	0.008396293
27	0x3c45f137	0.012081436
28	0xbb6b01ae	-0.0035859155
29	0xbbb10082	-0.005401672
30	0x3b2703ce	0.0025484446
31	0x3a3cdb4c	0.00072043086
32	0x3a8e517c	0.0010858024
33	0xbad91a72	-0.0016563667
34	0x3ba4f447	0.005034003
35	0x3be1b2cd	0.00688777
36	0x3bbf6658	0.0058410577
37	0x3bfa9aac	0.007647833
38	0xbb346c77	-0.002753047
39	0xbb27fa47	-0.0025631355
40	0x3b05b6dd	0.0020403184
41	0xbb02f53c	-0.0019982597
42	0x3a03129c	0.00050000264
43	0xbbc3a18b	-0.005970185
44	0x3b369150	0.002785761
45	0x3be7cce1	0.007073984
46	0x3bb4886c	0.005509427
47	0x3c11e016	0.008903524
48	0xba0653aa	-0.0005124161
49	0xbb45678e	-0.0030121538
50	0x3b682a87	0.003542574
51	0xba167070	-0.00057388004
52	0x3ac2dca2	0.0014866779
53	0xbb39b54b	-0.0028336819
54	0x3bda947a	0.006670532
55	0x3bf05935	0.007334853
56	0x3bab11b4	0.0052206162
57	0x3c1ed4eb	0.009694318
58	0xbabda3bd	-0.0014468353
59	0xbb591ac9	-0.0033127537
60	0xb6899abe	-4.1009325e-06
61	0x3bcc33b7	0.006231751
62	0x3b2b06e2	0.0026096632
63	0x3c0e92dc	0.008702006
64	0xbb10838d	-0.0022051067
65	0xbbcc06bc	-0.0062263887
66	0xbb56ae11	-0.003275756
67	0xbc2940fe	-0.010330437
68	0xbb24bd97	-0.0025137418
69	0x3ac213a6	0.0014806881
70	0x3b98376b	0.004645278
71	0xb90fe14d	-0.00013721474
72	0x3b44cd02	0.003002942
73	0xba185312	-0.0005810718
74	0x3c0d203c	0.008613642
75	0x3c36cf5f	0.01115784
76	0x3c0a0bd2	0.00842567
77	0x3c45ef0f	0.012080922
78	0xbb677aed	-0.0035321072
79	0xbbb92480	-0.005650103
80	0x3a74c243	0.00093368086
81	0x3b5212ab	0.0032054584
82	0x3aee1c3f	0.0018166377
83	0x3be66215	0.0070307353
84	0xbb226f51	-0.0024785588
85	0xbbc2393c	-0.005927233
86	0xbb8d7990	-0.00431747
87	0xbbfca36f	-0.0077099125
88	0xbb329ce2	-0.0027254154
89	0x38eda20e	0.00011331226
90	0x3b8ad237	0.0042364853
91	0x3a30267b	0.0006719601
92	0x3b576346	0.0032865568
93	0xbaaaf5df	-0.0013043246
94	0x3baafd62	0.005218194
95	0x3c369016	0.011142751
96	0x3c07238d	0.008248222
97	0x3c68224b	0.014168332
98	0xbb8b8a9f	-0.0042584683
99	0xbbc662a4	-0.0060542393
100	0x3ae9cf5f	0.0017838291
101	0x3c010bac	0.007876318
102	0x3a5bb163	0.00083806197
103	0x3bb37514	0.0054766033
104	0xbada9355	-0.0016675988
105	0xbbe14977	-0.006875213
106	0xbb889bd5	-0.0041689673
107	0xbc13ed58	-0.009028755
108	0xbb44cc88	-0.0030029137
109	0x3a6a0d56	0.0008928379
110	0x3b6a55a2	0.0035756608
111	0x3bc08aba	0.0058759125
112	0x3b5367c3	0.0032257892
113	0x3be39aa6	0.0069459258
114	0x39837483	0.00025073075
115	0xbb280154	-0.0025635557
116	0xbac08032	-0.0014686643
117	0xbbbc2b82	-0.005742491
118	0xbb467204	-0.003028036
119	0xbb7330f2	-0.003710803
120	0x3b3c9782	0.002877683
121	0xb8af0ebe	-8.347396e-05
122	0x3ab53fc3	0.0013828207
123	0xbb0c462f	-0.0021404137
124	0x3ba577cf	0.0050496827
125	0x3c1d8744	0.009614769
126	0x3be8f6c6	0.007109496
127	0x3c34cd7a	0.011035318
128	0xbaf05fb2	-0.0018339066
129	0xbb2902c2	-0.0025788997
130	0x398f77e4	0.0002736441
131	0xbac4fdc5	-0.0015029242
132	0x3aad606d	0.001322759
133	0xbb456a2a	-0.0030123093
134	0x3b6a67d7	0.003576746
135	0x3c171c8c	0.009223115
136	0x3bc16688	0.0059021153
137	0x3c0af902	0.00848222
138	0xb9932705	-0.00028067097
139	0xbb310fa1	-0.0027017372
140	0x39c4a3ef	0.00037506173
141	0xba17ccb9	-0.0005790699
142	0xba464131	-0.0007562815
143	0xbb1b3344	-0.002368168
144	0x3b89e83b	0.004208592
145	0x3be7b4a2	0.0070710937
146	0x3bbf61d3	0.005840519
147	0x3bdfa802	0.006825448
148	0xbaab02a7	-0.0013047055
149	0xbb43934b	-0.0029842432
150	0xb814e3bd	-3.5498048e-05
151	0x3bf94075	0.007606561
152	0x3acefe53	0.0015792347
153	0x3c4117ad	0.01178543
154	0xbb3f1f32	-0.002916288
155	0xbbfd8bce	-0.0077376133
156	0xbb9d147c	-0.0047937017
157	0xbc5c477a	-0.013444776
158	0xba2fd628	-0.0006707632
159	0x3b350f8a	0.002762767
160	0xbb677590	-0.0035317875
161	0xbbd81c64	-0.0065951813
162	0xbb39e456	-0.0028364859
163	0xbbdc6ba8	-0.006726701
164	0xba11e12a	-0.0005564863
165	0x3a89171e	0.001045916
166	0x3a9fc350	0.0012188945
167	0x3b7afa50	0.003829617
168	0x3b97a880	0.004628241
169	0x3ae287bc	0.0017282884
170	0x3b33ceb7	0.0027436444
171	0x3939284e	0.0001765799
172	0x3b35c722	0.00277371
173	0xbaa1ccdf	-0.0012344382
174	0x3bf8b9e2	0.0075905183
175	0x3c1a9b26	0.009436404
176	0x3c096770	0.008386478
177	0x3c4e07fb	0.012575145
178	0xbb3be68d	-0.0028671355
179	0xbb9953ee	-0.0046791947
180	0xb8b19b94	-8.4689964e-05
181	0x3bf23134	0.0073911194
182	0x3ae124bc	0.0017177085
183	0x3c09a727	0.008401669
184	0xbb84606b	-0.004039814
185	0xbc0177eb	-0.007902126
186	0xbb9e97d4	-0.0048398767
187	0xbc3c229f	-0.011482864
188	0xbadeef79	-0.0017008624
189	0x39c91a0a	0.00038357108
190	0x3ba0e828	0.0049104877
191	0x3ad25700	0.0016047657
192	0x3b86d442	0.0041146586
193	0x3af8b391	0.0018974413
194	0x3c019b78	0.007910602
195	0x3c23897d	0.00998151
196	0x3bcfbac2	0.006339402
197	0x3c5d1bce	0.013495399
198	0xbbceb6d4	-0.006308416
199	0xbb98e1ff	-0.0046656127

layers.1.egnn.edge_mlp.0.bias f4 [20]
0	0xbe30ff00	-0.17284775
1	0xbd332d4e	-0.043744378
2	0x3e89943b	0.26870903
3	0x3dce7126	0.10080175
4	0x3e5310ad	0.2061183
5	0x3e088ab8	0.13334167
6	0xbe18a7b5	-0.14907725
7	0x3e76d820	0.24105883
8	0xbda7ffba	-0.08203073
9	0x3e54aeb6	0.20769772
10	0xbdcf922f	-0.10135304
11	0xbd6356f7	-0.055502858
12	0x3e75762d	0.23970862
13	0x3e20f55f	0.15718602
14	0x3dc3f43a	0.09568067
15	0xbe9455d3	-0.2897173
16	0x3d290577	0.041264977
17	0x3e6a1bf9	0.22862233
18	0xbe937119	-0.28797224
19	0x3e020655	0.12697728

layers.1.egnn.edge_mlp.3.weight f4 [16, 20]
0	0x3c838d4d	0.016058588
1	0x3c47d30c	0.012196314
2	0xbc87cc5d	-0.01657694
3	0xbc2a97b6	-0.010412147
4	0xbc822bfd	-0.015890116
5	0xbc54ac27	-0.012980497
6	0x3c7a6e29	0.015285053
7	0xbc714e08	-0.014728077
8	0x3c3ea58f	0.011636152
9	0xbc811375	-0.015756348
10	0x3c6983a1	0.014252574
11	0x3c362fb5	0.011119773
12	0xbc7a395c	-0.015272465
13	0xbc56505f	-0.013080685
14	0xbc2bd28a	-0.010487208
15	0x3c9b5b20	0.01896435
16	0xbc2b9d7c	-0.010474559
17	0xbc91db73	-0.017804837
18	0x3c863d13	0.016386544
19	0xbc31415a	-0.010818804
20	0xbc43f634	-0.011960555
21	0xbc08bfdd	-0.008346525
22	0x3c339f03	0.010963204
23	0x3bdf7f1b	0.006820572
24	0x3c4b2f85	0.012401466
25	0x3c1156ab	0.008870761
26	0xbc35ef93	-0.011104482
27	0x3c4fc583	0.012681368
28	0xbc0dc8b3	-0.008653807
29	0x3c187a88	0.0093065575
30	0xbc14107b	-0.009037132
31	0xbbca7625	-0.0061786347
32	0x3c33ee6d	0.010982138
33	0x3c1cfb5e	0.009581415
34	0x3bfe0847	0.0077524516
35	0xbc6e8ca2	-0.014559897
36	0x3bc52669	0.0060165417
37	0x3c367d1b	0.011138226
38	0xbc516003	-0.012779239
39	0x3c0243b0	0.007950708
40	0xbcf282eb	-0.029603442
41	0xbcbd5e95	-0.02311639
42	0x3cffa845	0.031208167
43	0x3ccf04c3	0.025270825
44	0x3d0475fe	0.03233909
45	0x3ce5b167	0.028038694
46	0xbd018a12	-0.031625815
47	0x3cf70155	0.030152002
48	0xbcd58177	-0.02606271
49	0x3ceb6107	0.02873279
50	0xbcdeebc2	-0.027212027
51	0xbcc02931	-0.023457142
52	0x3cfcb077	0.030845864
53	0x3cf1845a	0.029482055
54	0x3cd9f50f	0.02660611
55	0xbd077d8b	-0.03307871
56	0x3cb78ca7	0.022405935
57	0x3cfc1dad	0.03077587
58	0xbd0aad7f	-0.033856865
59	0x3ccead50	0.025229126
60	0xbc399621	-0.011327297
61	0xbbcd94a6	-0.006273824
62	0x3c412635	0.011788894
63	0x3bf4c969	0.007470299
64	0x3c2e7c1c	0.010649707
65	0x3bf44a88	0.007455174
66	0xbc370ba2	-0.011172207
67	0x3c2ba3db	0.010476078
68	0xbc1ae1ca	-0.009453246
69	0x3c3068ae	0.010767145
70	0xbc19cb8d	-0.009386909
71	0xbc04e0b9	-0.008110219
72	0x3c4cb007	0.01249314
73	0x3c27cfda	0.010242427
74	0x3bce9867	0.006304789
75	0xbc632c5f	-0.013865559
76	0x3c069bfe	0.008215902
77	0x3c36af54	0.0111502
78	0xbc585856	-0.013204655
79	0x3bd02b3e	0.006352811
80	0xbc17a228	-0.00925497
81	0xbbfb362c	-0.00766637
82	0x3c40871f	0.011750965
83	0x3bda14c4	0.0066553075
84	0x3c2d4bcc	0.010577153
85	0x3bf102b0	0.0073550567
86	0xbc26ad78	-0.010173194
87	0x3c22c2b4	0.009934116
88	0xbc140cbe	-0.009036241
89	0x3c32032c	0.010865014
90	0xbc126b01	-0.0089366445
91	0xbbcd8d11	-0.00627292
92	0x3c33bfd7	0.010971031
93	0x3c23f3ce	0.010006858
94	0x3bb58edb	0.0055407113
95	0xbc6b8357	-0.014374576
96	0x3beff017	0.007322322
97	0x3c3d66e6	0.011560177
98	0xbc637031	-0.013881729
99	0x3bd8b14a	0.0066129314
100	0x3c1a5269	0.009419062
101	0x3c1f1e41	0.009711803
102	0xbc5543f2	-0.013016688
103	0xbc12b4ea	-0.008954266
104	0xbc3c608c	-0.011497628
105	0xbc2582b6	-0.010101965
106	0x3c47c363	0.01219258
107	0xbc4bf41d	-0.012448338
108	0x3c094f6d	0.008380753
109	0xbc2b1bfc	-0.010443684
110	0x3c0f37cf	0.008741333
111	0x3c11020f	0.008850588
112	0xbc5b28b7	-0.013376406
113	0xbc3b2b82	-0.011423947
114	0xbc1057bf	-0.008809983
115	0x3c55a000	0.013038635
116	0xbbf97d83	-0.007613839
117	0xbc34cc80	-0.011035085
118	0x3c6e909d	0.014560846
119	0xbbf1c16c	-0.007377794
120	0xbc0dddbc	-0.008658823
121	0xbbe80395	-0.007080505
122	0x3c300804	0.010744099
123	0x3bc23731	0.0059269895
124	0x3c25b914	0.010114927
125	0x3bcd758e	0.006270117
126	0xbc097d57	-0.0083917
127	0x3c310af8	0.010805838
128	0xbbc2023e	-0.0059206774
129	0x3c0c6853	0.008569795
130	0xbc0846c7	-0.008317656
131	0xbbbc5a01	-0.005748034
132	0x3c26ac19	0.010172867
133	0x3be008a5	0.006836968
134	0x3bc56180	0.006023586
135	0xbc498bbb	-0.012301381
136	0x3bda5ef6	0.0066641523
137	0x3bf09107	0.0073415074
138	0xbc4aabd4	-0.012370069
139	0x3be5b581	0.0070101623
140	0xbcde75a0	-0.027155697
141	0xbcb177c7	-0.02166356
142	0x3cf805ea	0.030276258
143	0x3cc9e791	0.024646552
144	0x3cf8566e	0.03031465
145	0x3ce039eb	0.027371367
146	0xbce0d95f	-0.0274474
147	0x3cee9ce6	0.02912755
148	0xbcc71370	-0.02430126
149	0x3ce8631e	0.028367575
150	0xbcdedfa7	-0.027206255
151	0xbca3dc2a	-0.020002443
152	0x3cf8e2c4	0.030381568
153	0x3ced7667	0.028987123
154	0x3cc5511b	0.024086526
155	0xbd0518ac	-0.032494232
156	0x3cbf4d5e	0.023352321
157	0x3cf1e1b9	0.029526578
158	0xbd076a81	-0.033060554
159	0x3ccb86e8	0.024844602
160	0xbc22aa59	-0.009928309
161	0xbc0f65f2	-0.008752333
162	0x3c3f586a	0.011678794
163	0x3bbb701b	0.005720151
164	0x3c33443c	0.010941561
165	0x3c0f0ac3	0.008730593
166	0xbc3bd771	-0.011464939
167	0x3c178536	0.009248069
168	0xbbe788a9	-0.0070658517
169	0x3c25f46c	0.0101290755
170	0xbc284162	-0.010269495
171	0xbbe9cbcd	-0.0071348906
172	0x3c2abec0	0.010421455
173	0x3c17302c	0.009227794
174	0x3bea7c15	0.007155905
175	0xbc60b2eb	-0.013714532
176	0x3c053452	0.00813015
177	0x3c1e19e0	0.009649724
178	0xbc660112	-0.014038341
179	0x3bd7bc28	0.0065837093
180	0x3c4232e1	0.011852951
181	0x3beaa887	0.0071612033
182	0xbc36e2a0	-0.01116243
183	0xbc11a6f4	-0.008889902
184	0xbc3cfc2a	-0.01153473
185	0xbc2780f5	-0.010223617
186	0x3c47c08f	0.012191906
187	0xbc406709	-0.0117433155
188	0x3c1f0df3	0.009707916
189	0xbc3f1d66	-0.011664724
190	0x3c29ab0e	0.010355724
191	0x3c0c7205	0.008572106
192	0xbc4e4efa	-0.012592072
193	0xbc311606	-0.010808473
194	0xbc0bbbb4	-0.008528639
195	0x3c6ef846	0.01458556
196	0xbc093d18	-0.008376382
197	0xbc28d60f	-0.010304942
198	0x3c73b809	0.01487542
199	0xbc04784a	-0.00808532
200	0x3c18a6ee	0.009317143
201	0x3c06949e	0.008214144
202	0xbc36f9b0	-0.011167929
203	0xbbe6b2c0	-0.0070403516
204	0xbc247a6e	-0.010038955
205	0xbc187a34	-0.009306479
206	0x3c292407	0.010323531
207	0xbc4263c9	-0.011864611
208	0x3bf12a36	0.0073597683
209	0xbc2a8672	-0.010408031
210	0x3bfb7b13	0.0076745837
211	0x3bfb70f2	0.0076733762
212	0xbc455de3	-0.01204631
213	0xbc18878c	-0.009309661
214	0xbbf65b9a	-0.007518244
215	0x3c6b1a7b	0.014349575
216	0xbbe41227	-0.0069601717
217	0xbc31d1a6	-0.010853207
218	0x3c5756d2	0.013143258
219	0xbbfb1606	-0.0076625375
220	0xbc35ad3a	-0.011088664
221	0xbc1fe284	-0.009758595
222	0x3c33fbc9	0.010985323
223	0x3be3562d	0.006937763
224	0x3c32983d	0.010900554
225	0x3c165919	0.009176516
226	0xbc511c4c	-0.012763094
227	0x3c1dc24c	0.0096288435
228	0xbc2008ca	-0.0097677205
229	0x3c30dac8	0.010794349
230	0xbc2a4b9e	-0.010394005
231	0xbbfc9fbf	-0.007709473
232	0x3c35e22a	0.011101285
233	0x3c39fd53	0.011351901
234	0x3c1d584f	0.009603574
235	0xbc70c9ed	-0.01469658
236	0x3c0fd9e7	0.008779979
237	0x3c2edfad	0.010673446
238	0xbc740314	-0.014893312
239	0x3bdd160d	0.0067470134
240	0x3bbb01c5	0.005706998
241	0x3b5a48e7	0.0033307613
242	0xbbd2ff35	-0.0064391145
243	0xbb3affea	-0.0028533884
244	0xbbde884d	-0.0067911507
245	0xbb688d11	-0.0035484473
246	0x3bca0a73	0.0061657964
247	0xbbc66707	-0.0060547623
248	0x3b885d5d	0.0041615204
249	0xbba5646f	-0.005047373
250	0x3bc43934	0.0059882645
251	0x3aea97fb	0.0017898077
252	0xbbdef2f3	-0.006803864
253	0xbbef280c	-0.007298475
254	0xbb1ee3bf	-0.0024244634
255	0x3c1bacc7	0.009501643

layers.1.egnn.edge_mlp.3.bias f4 [16]
0	0xbe498918	-0.19681203
1	0x3e4bf1de	0.19916484
2	0x3d0451a9	0.03230444
3	0x3e453b2e	0.19260857
4	0x3dc11bc8	0.09429127
5	0xbdb0f876	-0.0864114
6	0x3dd2be31	0.102901824
7	0x3cde485a	0.02713411
8	0x3e1a512c	0.15070027
9	0xbe24c397	-0.16090237
10	0xbe278522	-0.1635938
11	0x3e13cb2d	0.14432974
12	0xbd3f9f1a	-0.04678259
13	0xbe606080	-0.21911812
14	0x3d55cc21	0.052196626
15	0x3e31ce48	0.17363846
